app/src/main/assets/models/11_to_19.tflite (tflite, 673196 bytes, 52 tensors)

model_4/batch_normalization_16/batchnorm/add_1;model_4/conv1d_8/Conv1D/Squeeze;model_4/batch_normalization_16/batchnorm/mul_1;model_4/conv1d_8/BiasAdd;model_4/conv1d_8/BiasAdd/ReadVariableOp;model_4/batch_normalization_16/batchnorm/mul;model_4/batch_normalization_16/batchnorm/sub;model_4/conv1d_8/Conv1D;model_4/conv1d_9/Conv1D f4 [96]
00000000: 4bbc e33f ec99 1240 bae4 7abe 2154 093f
00000010: 4017 973f 5369 9dbf 1472 1fbf 975b 2b3e
00000020: 482f b73e 6395 ce3e 84f4 933e 517b de3e
00000030: 623c 443e c627 793f 56c7 003e 4492 9c3f
00000040: 407a f5be 2daf 98bf 7fd1 0540 b950 9a3e
00000050: 603a c73e d7df a33e d039 903f 282d 4b3f
00000060: 4041 78bd 4bf2 f9be 6811 bdbe 1295 f1bf
00000070: 45c0 933f 326d 76bf 4005 99bf 39ce 4fbf
00000080: aec8 36bd 74c1 ad3e 0057 44ba 1f0f 3d3f
00000090: 0535 19bf bf82 c13d 2da2 2c3f d3b5 263f
000000a0: 6bc0 833f adfe 9ebf 4f13 503f 6f95 aabf
000000b0: 990d 9bbf 78a7 6bbe 593f 7c3e b237 8b3f
000000c0: 2c62 9d3f 42fa 893f 021c f3bf 6e95 4b3e
000000d0: 3b3d 2cbf 9ffa bf3f 4a56 ab3e ce17 b73d
000000e0: 1e17 093f 542d 633f 5285 1cbf 38f4 dc3e
000000f0: 8091 313f e278 1a40 0d05 f23e 516c a53f
00000100: 7c52 b7be 8d81 ae3e 7c71 c93e 4fc1 bdbf
00000110: 2c7f b0be beac 1cbf faf0 1dbe 29f7 f3bf
00000120: f0c2 49bf 16c0 debd aa10 d5bf f007 d43d
00000130: 3c7c 953f 1e64 d9bd ddb1 133f 5774 8dbf
00000140: 42bc 6e3f 359c 97bf 361f 933e a920 eabf
00000150: 32b9 adbe ed7f 4ebf 1771 94bf 1843 02bf
00000160: 52e7 e8bd dc0b 2e3f 7490 813f 02b6 bbbf
00000170: 22ea 7bbf f7be f23f 5a65 913f 246d 533f
1.7791837 2.2906446 -0.24501315 0.53643996 1.180397 -1.2297767 -0.62283444 0.16734158
0.3577826 0.40348348 0.28897488 0.43453458 0.19163659 0.97326314 0.1257604 1.2232137
-0.47944832 -1.192846 2.0909116 0.30139711 0.38911724 0.32006714 1.1267643 0.7936578
-0.060609102 -0.48817667 -0.36927342 -1.8873618 1.1543051 -0.9626037 -1.1954727 -0.81174046
-0.044624977 0.33936656 -0.00074897707 0.738512 -0.59846526 0.09448766 0.6743496 0.6512119
1.0293096 -1.2421471 0.8127946 -1.3326854 -1.2113525 -0.23013103 0.2463354 1.0876372
1.2295585 1.0779498 -1.8992922 0.19881222 -0.6728093 1.4998358 0.3346427 0.08940087
0.535509 0.8874104 -0.6114093 0.43155074 0.6936264 2.413628 0.47269478 1.292368
-0.35805118 0.34083214 0.39344394 -1.4824618 -0.34472024 -0.61201084 -0.15423957 -1.9059802
-0.78813076 -0.10876481 -1.664571 0.103530765 1.1678538 -0.10614799 0.5769327 -1.1051129
0.9325601 -1.1844546 0.2873475 -1.8291217 -0.33930355 -0.8066395 -1.1597012 -0.50883627
-0.11372246 0.67986846 1.0122209 -1.4664919 -0.98404133 1.8964528 1.1359055 0.8258841

model_4/batch_normalization_17/batchnorm/add_1;model_4/conv1d_9/Conv1D/Squeeze;model_4/batch_normalization_17/batchnorm/mul_1;model_4/conv1d_9/BiasAdd;model_4/conv1d_9/BiasAdd/ReadVariableOp;model_4/batch_normalization_17/batchnorm/mul;model_4/batch_normalization_17/batchnorm/sub;model_4/conv1d_9/Conv1D f4 [96]
00000000: e771 ffbe 92ce 9ebd 6481 f93e 3cd8 f83d
00000010: d23d 3b3f e992 1cbe 8640 66bd 885a 19bd
00000020: dc13 71bc 66f3 4bbe 771f 983e 853b 3f3e
00000030: 4ef6 abbe d553 febe 5726 7cbd 2ede 6e3e
00000040: b7d4 7bbd 0534 7ebd 86ea 8cbc 6efa f33e
00000050: aa84 a1be 1b6b 973f f866 c13e e00c 3aba
00000060: 7835 24bd 4aa2 0a3f a0e3 1a3a c592 08be
00000070: 1102 923e a95b c9be 0051 a5be 6b75 5b3f
00000080: 0267 513f fe73 3b3e 9c89 b0be 0d44 90be
00000090: 30d7 9b3e 3f37 643d 34ec e63e 5359 d73e
000000a0: ec94 8fbe 8528 763c 259f 8b3e c16c 7d3f
000000b0: e9e1 9d3d 6afc febb d3f3 15be 9b03 523f
000000c0: df67 9f3f 85b3 3ebe 3b6c c73d 8dcf bcbd
000000d0: 4be9 c4bd 858b 083f 85c7 0fbc 61c5 43bd
000000e0: 0705 0cbd 3bbb 313f 7acd 5d3f e7ab 21be
000000f0: 5411 a1be 59df be3c b99b 8a3d 1301 833e
00000100: a1ac fb3d 2398 7d3f dade 163e 3f08 a3bd
00000110: bd43 fcbe 3253 393e 3074 12bf 2ef6 3e3c
00000120: 90d0 a4be 984a ddbe 26d2 9c3f 38b6 b13e
00000130: b7f9 c2bc 58e4 7d3f 90c8 fd3e 953c 143f
00000140: 9270 d33d 6bd5 bd3e a79d 743f 3b85 503f
00000150: 1263 213e da04 ea3d c329 04be 8e94 223f
00000160: dde8 ccbe 99bc 21bf 7466 afbe 0349 adbd
00000170: ec92 fc3e 3015 b23b 5c13 a8be cf30 21be
-0.49891588 -0.07754244 0.4873153 0.121506184 0.73141205 -0.15290417 -0.056213878 -0.037439853
-0.0147142075 -0.19917068 0.29711506 0.18675049 -0.33586353 -0.49673334 -0.06156 0.23326942
-0.061482158 -0.06206133 -0.017201673 0.47652 -0.31546527 1.1829561 0.3777387 -0.00070972554
-0.040090054 0.54153883 0.00059085526 -0.13337238 0.28517202 -0.39327744 -0.3228836 0.8572604
0.817978 0.18305966 -0.34479988 -0.2817692 0.30437613 0.05571675 0.45102084 0.42060336
-0.28043306 0.015024309 0.27269855 0.9899407 0.077091046 -0.007781555 -0.14643793 0.8203675
1.2453574 -0.18623169 0.0973744 -0.09219275 -0.096148096 0.5333789 -0.0087755965 -0.047795657
-0.034184482 0.69426316 0.8664166 -0.15788232 -0.31458533 0.02329986 0.06767983 0.25586757
0.12288786 0.9906027 0.14733449 -0.07960557 -0.4927043 0.18098143 -0.5720854 0.0116553735
-0.3219037 -0.43220973 1.2251632 0.34709334 -0.023800714 0.9917655 0.4956708 0.5790494
0.103242055 0.37076887 0.9555306 0.81453294 0.15760449 0.114267066 -0.12906556 0.63507926
-0.4002141 -0.631784 -0.34257853 -0.084611915 0.49330842 0.0054346547 -0.3282727 -0.15741275

model_4/batch_normalization_16/batchnorm/mul_1;model_4/conv1d_8/Conv1D/Squeeze;model_4/conv1d_8/BiasAdd;model_4/conv1d_8/BiasAdd/ReadVariableOp;model_4/batch_normalization_16/batchnorm/mul;model_4/conv1d_8/Conv1D;model_4/conv1d_9/Conv1D f4 [96, 1, 3, 126]
00000000: be82 f3bb 9eee 183c dab7 e5b9 9487 5abb
00000010: 241d dfbb dc0d 5abd 105e b73d 3b14 29be
00000020: d3f1 adbd 06a4 183f 4cd0 2cbe ad99 04be
00000030: 24f5 233f 9899 d4bc 2be2 22be f9fa dc3d
00000040: 9a8d bc3d aef7 bf3c 3e41 b0bd fddd a13d
00000050: 4b52 1a3c d4c3 863e 4c1f c23e c242 d03c
00000060: 163e 9fbe 657e e03e db4a 2a3c d31d 0cbd
00000070: f2c7 a2be 37ef bcbc bd1b f1bd d8ea 06bf
00000080: 4b56 35be a4d0 ae3d 5f25 833d 989c 5fbe
00000090: 70af 6fbe 70fc 3d3f 3cde 40be 1219 4d3d
000000a0: 6886 84be 1a9e 35bd 7adc 103d e905 61bd
000000b0: 7525 7ebd 706f 82be 642c 2abe 2dec 9dbc
000000c0: ae79 783e 6714 cf3d 2d8a dfbc 0f4d 473e
000000d0: 753a 95bd 2b96 bfbd 7899 a4be 7b7f 29be
000000e0: ea88 033d 65a8 8abe 1f32 dabd bcdb c23d
000000f0: ab98 8f3e 5f11 66bf c3cf bb3d 9981 243c
00000100: 84dd f9ba c3d0 aabb b71e 173c 87b7 00ba
00000110: 8cf0 483a 1427 3aba a264 baba 63c9 ab3b
00000120: 3517 44bb a844 133c 6cb6 ca3b dc38 22bb
00000130: 5b04 9fbb e462 99bb b446 3b3a 9120 46bc
00000140: 27a6 003c 9d3d 1838 f21f 1cbb 39be 08bc
00000150: 5a66 27bb e0c0 49bc 8c76 3a3c f6ae 8e3a
00000160: 84f5 61bc 4de8 e8bb 1f93 963b 6ad5 493c
00000170: 8d63 80bb 614a 973a 631c e7bb 95b0 9fbb
00000180: 22e0 303c 38ad 1ebc 3200 823c 0b87 0ebb
00000190: a08d 463c 5680 95ba d7ea 38bb cd64 b2bb
000001a0: 58ca 11bb 0857 e7bb 9a8c 1c3c c65d 453c
000001b0: c281 1fbc f680 17bc 94bd 4537 30d0 7fbc
000001c0: 8e75 d9bb 600e 3c3c 381e 153a 91f8 17bc
000001d0: 4267 d13b 77cd 3cbc ac12 023c 66a5 f4bb
000001e0: 45a9 bf3a 958e 203a d415 0fbb 3f1a 7bbb
000001f0: bb10 5abc 45c5 84bc 11eb e8bb 06a0 873b
00000200: 36b7 d03a 67d0 4bbd 1d01 83bc eb6a 69bd
00000210: 7e66 89bd 0eea e6bd 6a0d a8bd 0939 3c3d
00000220: ea31 98be 3074 f8bd 364e a33e 8ebf d2be
00000230: f376 17be 67cc bf3c ef12 833e 1c80 c83c
00000240: 2589 94be 9e20 9b3e f4bd 9c3c 060e 90be
00000250: 56d9 803e e4e2 1f3d dcd5 d1be c83a cc3e
00000260: 194b ac3c 6435 943d 72ba a6be e373 8fbc
00000270: a657 33be c5af ccbe 44f8 2cbe 1adb afbe
00000280: 19e4 fb3e 0c19 58be 89a4 16be 1677 3f3f
00000290: 7da8 39be 5f06 c23d 50fd 3ebe 5238 31bd
000002a0: 6724 763d a7fe e9bd ff67 53bd f019 65be
000002b0: ae5b 953e 51ae 3ebc a821 4a3e 8779 fabe
000002c0: 0259 d0bc 7d57 eebc 6ac7 adbc b9ba b7bd
000002d0: 1c1d 9fbe 922e 64bb e873 2f3d 9c50 3b3d
000002e0: cd03 74be 0e6b d53d c648 293f e070 013d
000002f0: 233b ba3d 7844 743c 3b92 c3bb d201 65bb
00000300: e478 513b 49f8 e2ba 883d f13a 8eac 4d3b
00000310: f5aa b03a fb10 7b3b 0d46 a7bb 9740 d03b
00000320: 8141 173c d00b 61bb f083 8ebb 2713 d8bb
00000330: 2511 e5ba c0ee 8dbc 12b9 083c b703 473a
00000340: b147 9cba 8511 e2bb c1d2 9dbb d1ad 4ebc
00000350: ded3 3f3c 29ef 37bb 4c07 78bc 5dc4 5ebb
00000360: c1c4 623b 44e2 523c e392 cabb 59f7 c2bb
00000370: d8c8 3cbc 252c 9dbb 4719 8c3c d077 02bc
00000380: 0ee5 b13c 829d fd3a b270 293c 11d0 1fba
00000390: 97e1 f9bb dfa6 02bc 944b 00b9 3a09 f23a
000003a0: 419b b73b 75b5 4b3c fc7c 1fbc 36f8 39bc
000003b0: f08d 203b 4eb6 79bc 9cad 04bc 91e2 5c3c
000003c0: e72f df3a e2c8 30bc ce2b 0f3c 46e8 97bb
000003d0: a1e6 023c f60c 1dbc 7e56 d33a 100c 1d3a
000003e0: 404c 673a 972c 8fba 27fc 54bc ca48 6cbc
000003f0: fe4f 3abc f8b5 643b fab3 96bb 78bc 3abd
-0.007431357 0.0093342345 -0.00043815264 -0.003334497 -0.0068088938 -0.053235874 0.08953488 -0.16511624
-0.0849339 0.5962528 -0.16876334 -0.12949248 0.6404593 -0.025952145 -0.15906589 0.10790057
0.09206696 0.023433533 -0.08606194 0.07903669 0.009419034 0.2632128 0.37914503 0.025422458
-0.31102055 0.4384643 0.0103938235 -0.03420813 -0.3179317 -0.023063285 -0.11772869 -0.52702093
-0.177087 0.08535889 0.06403612 -0.2183708 -0.23406768 0.74213314 -0.18834776 0.050072737
-0.25883794 -0.04434023 0.035366513 -0.054937277 -0.06204744 -0.25475645 -0.16618496 -0.019277656
0.24265167 0.10111313 -0.027287567 0.1946299 -0.072865404 -0.09354814 -0.32148337 -0.16552536
0.032112993 -0.270816 -0.10654091 0.09514567 0.28046164 -0.89870256 0.09170487 0.010040664
-0.0019063209 -0.0052128746 0.009223632 -0.000491016 0.0007665239 -0.000710116 -0.0014220665 0.005242513
-0.002992106 0.008988537 0.006186297 -0.002475313 -0.004852814 -0.004680978 0.00071440195 -0.012092725
0.007852114 3.6297006e-05 -0.0023822752 -0.008346134 -0.0025543184 -0.012314051 0.011380803 0.0010885883
-0.013791446 -0.0071077705 0.004595175 0.012318948 -0.0039181174 0.0011542552 -0.0070529445 -0.004873345
0.010795625 -0.009684853 0.015869234 -0.0021747972 0.012118727 -0.0011406045 -0.0028216147 -0.0054441453
-0.002224585 -0.0070599355 0.009555006 0.012046283 -0.0097355265 -0.009247055 1.1786255e-05 -0.015613601
-0.006636328 0.011478037 0.0005688402 -0.009275571 0.006390483 -0.011523596 0.007939022 -0.007466006
0.001462259 0.0006124762 -0.002183308 -0.0038315204 -0.013309653 -0.016207347 -0.0071081 0.0041389493
0.0015923742 -0.049759295 -0.015991742 -0.05698673 -0.06709002 -0.11275111 -0.082056835 0.04595283
-0.2972558 -0.12131536 0.31895608 -0.4116177 -0.1479147 0.023412896 0.25600383 0.02447515
-0.29010883 0.30298322 0.019133545 -0.281357 0.25165814 0.03903474 -0.40983474 0.39888597
0.021031903 0.07236746 -0.3256412 -0.017511314 -0.17513904 -0.39977852 -0.16891581 -0.3434685
0.49197462 -0.21103305 -0.14711203 0.74791086 -0.1813068 0.094738714 -0.18651319 -0.0432666
0.06009331 -0.11425524 -0.05161285 -0.22373176 0.2917151 -0.01163824 0.19739401 -0.48920843
-0.025433067 -0.029094452 -0.021213252 -0.089711614 -0.31076896 -0.0034817797 0.042835146 0.045731172
-0.23829575 0.1042081 0.6612667 0.031601787 0.09093311 0.014908902 -0.0059683598 -0.0034943712
0.0031962926 -0.0017316426 0.0018405179 0.0031383368 0.0013478684 0.0038309682 -0.0051047863 0.006355356
0.009231926 -0.0034339316 -0.0043492243 -0.00659408 -0.0017476423 -0.017325759 0.008344905 0.0007591801
-0.0011923221 -0.006899061 -0.0048163836 -0.012614683 0.011708228 -0.0028066135 -0.015138458 -0.0033991553
0.0034602138 0.012871329 -0.006182061 -0.0059498963 -0.011522494 -0.004796522 0.017101897 -0.007963136
0.021715667 0.0019349309 0.01034181 -0.0006096373 -0.0076257694 -0.0079743555 -0.00012235186 0.0018465884
0.0056032245 0.012433399 -0.009734388 -0.011350682 0.0024498664 -0.015241219 -0.008098032 0.013481752
0.0017027826 -0.010790082 0.008738471 -0.0046358434 0.0079895565 -0.00958561 0.0016123799 0.0005990872
0.0008823313 -0.0010923323 -0.012999571 -0.014421651 -0.011371611 0.00348985 -0.0045990916 -0.045589894

model_4/batch_normalization_17/batchnorm/mul_1;model_4/conv1d_9/Conv1D/Squeeze;model_4/conv1d_9/BiasAdd;model_4/conv1d_9/BiasAdd/ReadVariableOp;model_4/batch_normalization_17/batchnorm/mul;model_4/conv1d_9/Conv1D f4 [96, 1, 3, 96]
00000000: 180d 043d 3eb7 bb3c e0f9 c93c f124 c1bb
00000010: 8945 5b3d 3a57 d33b 96bb c8bc b2e3 2a3d
00000020: 7545 953d 2853 c93c 7fbe 8b3d 4519 743d
00000030: 61fc da3c c4ae 4a3d cca5 3d3e eba1 a23d
00000040: 941c 493c 71f7 c83c 6aa4 8f3d 6dd4 c83d
00000050: 7644 9e3c b83f f93c 5e8e 55bd 6d0d 0dba
00000060: b501 eebc bdba d73c ecdb 74bd d5f4 74bd
00000070: 0b39 75bd 3e41 a23d f4ee ff3b 29f8 8dbc
00000080: 5f96 973c f403 62bb 45d7 b0bc b414 db3c
00000090: 1cf2 02bd 656d 233c 68cc da3c 50be 32bd
000000a0: a5ff d9bc ef3f ec3c 6860 67bc 48ca f4bb
000000b0: 8946 f43c 7569 cd3c 1e18 183d 14af 113d
000000c0: 09b1 0e3d a167 4d3d 3f35 43bd fcf8 ffbb
000000d0: ae1d 3fbd 1f90 37bc b7a4 16bd 8e9a 353d
000000e0: 15a6 453c 3830 2bbd 2633 0dbc d0ac 7cbb
000000f0: e9ed 7b3c 9d16 2e3d fb05 b5bc 301e 033c
00000100: fe92 84bb 5a67 903b 85a3 debc 99bf 0dbc
00000110: f069 2cbd a6b2 173a 2c6b 03bd 384a c53b
00000120: b52e f43c 92d6 233b 957f bbbc 01ac d1bd
00000130: 8232 a63c c389 343e 7edf dc3b f868 f53b
00000140: 13af a93c f24a f43c 5f1c 6739 0532 43bd
00000150: 8fbf 1e3d 02d8 673c 800c 5cbd a496 643d
00000160: 149a bf3d 92a7 b13c 2870 c03c 6991 43bd
00000170: d779 c33c 33dd 953c 1e99 663d 2b7d cebc
00000180: 51c9 873d 77b3 313d 0857 d5bb f3e3 983c
00000190: d2c0 af3d 801b 4c3c 7726 193d 9848 3b3d
000001a0: 7886 343d d689 543c 06d0 e43d 786f 903d
000001b0: 303b 0dbd 6c7e a73c 13b5 de3d a4f2 a8bc
000001c0: 03ad a93c ca91 333c 950f d23c 822a 843c
000001d0: 6134 08bd 1a99 f43d 0d3c 5bbd cc4d 4a3c
000001e0: ca59 c3bc 3415 073d 3f12 ecbd 4770 dbbd
000001f0: 5e9d a1bd 745c 5b3c 5644 243c 6d4f 03bc
00000200: 4bc4 9bba eaa8 adbd 2719 7339 da86 893d
00000210: 5337 2d3d 85eb 0d3d 43e3 0a3d 1be0 26bd
00000220: 6a4f ef3c 9e7d 533d 95aa 13bd c1dc 3bbd
00000230: f1b2 f33c 0c4f 9b3a 1488 f93c 4a42 6d3b
00000240: bfbb 123c 8366 0d3a 965b 5fbd 4f46 36bc
00000250: 3da2 b0bd ea8c 913b 5187 04bd 62da 943c
00000260: 8798 e6bb 5842 2ebc f98c 5c3c c4c3 a73c
00000270: 23fd 333c bedb d63c b961 32bd 3514 043c
00000280: 5f0c 1c3d 4666 293c a4c3 3a3d 71a9 49bc
00000290: f032 3ebd 8580 3a3c 7130 06bd cd02 adbc
000002a0: 3284 a73d 7891 44bd 3d60 f4bc c308 f8bd
000002b0: ee0a c13c 8d21 923d 63e7 033d 306c c03a
000002c0: 96b5 14bc cf11 debc 409e a9bc 7d8d 59bd
000002d0: 213c 0a3d 67d8 f53c 0d88 0cbd cada 713d
000002e0: b0ed 523d ac5e a83d f37d d6bb 3a7f 75bd
000002f0: ad9a cf3c f274 e7bb 06b1 033d 7c1c 0ebc
00000300: c6fc 5c3d 3c70 9dbc a1b0 173d 2738 233c
00000310: b190 b73c 4092 ed3c 8bce 183c 2185 463c
00000320: 11f5 5c3d c36a 2d3d 412d aa3d 1974 d43c
00000330: 8bae f33c 64f2 5c3d 8a66 033e e4f4 a23d
00000340: 7492 723d e1ee bb3c bf21 a0bb 5848 953d
00000350: 17f4 17bb 1863 d03d 4236 40bd eb30 3bbc
00000360: 7219 1dbd a86d a73d 06b5 abbd f460 a9bd
00000370: e4b9 47bd d4a6 313d 2a72 06bd e29b eb3a
00000380: a0a0 053d 5df2 e43c a516 1a38 574a f43c
00000390: a86a c83c 9f19 9e3c 9136 0c3d 8dd7 47bd
000003a0: 60c0 8dbd cd01 04bd 26b9 963b 10fb 89bc
000003b0: 8287 9e3d 4cfa a4bc cb35 213d 44f0 bb3c
000003c0: 8630 92bc 4f6f da3c 983c 47bd a089 6abd
000003d0: 7ba8 81bd 8d34 a3bb 100e 4ebd 10d4 f73b
000003e0: 600e a3bc 0382 c7bb e8bd 84bc 6fc7 903b
000003f0: 12f3 d53b 0267 2a3d 2dc0 8b3c 335b 7439
0.03223905 0.022914525 0.024655282 -0.0058942963 0.05353311 0.006449607 -0.02450351 0.041721053
0.072886385 0.024575785 0.068234436 0.05959441 0.026731672 0.049483076 0.18520278 0.0794104
0.01227488 0.024532052 0.07013781 0.09806142 0.019319754 0.030425891 -0.052137725 -0.0005380724
-0.029053548 0.026334161 -0.059780046 -0.059803803 -0.059868854 0.079226 0.007810468 -0.017330246
0.01850432 -0.003448722 -0.021587024 0.02674327 -0.031969175 0.009974812 0.026708797 -0.043638527
-0.026611159 0.02883908 -0.014122106 -0.007470403 0.02981879 0.0250747 0.037132375 0.035567358
0.034836803 0.050147656 -0.0476582 -0.0078116637 -0.046659164 -0.011203795 -0.036778178 0.044336848
0.012063523 -0.04179403 -0.008618152 -0.0038555153 0.015376546 0.042502034 -0.022097578 0.008002803
-0.004045843 0.0044068517 -0.027177582 -0.0086516375 -0.042093217 0.00057868136 -0.03208463 0.0060208105
0.029807428 0.002499972 -0.022887984 -0.10237885 0.020287756 0.17630677 0.0067405095 0.00748932
0.020713365 0.029820893 0.00022040446 -0.047655124 0.038756903 0.014150621 -0.05372286 0.055807725
0.0935556 0.021686349 0.02349098 -0.047746096 0.023861809 0.018293953 0.056298368 -0.02520617
0.06630195 0.04338404 -0.006510619 0.018663382 0.085816994 0.012457728 0.0373902 0.045723528
0.044073552 0.012972316 0.1117249 0.07052511 -0.034480274 0.020446025 0.10874381 -0.020623513
0.020712381 0.010960052 0.025642196 0.01613355 -0.033253077 0.11943264 -0.053524066 0.01234765
-0.023846526 0.032979205 -0.11526918 -0.107147746 -0.078913435 0.013388742 0.010026058 -0.008014542
-0.0011884061 -0.084794834 0.00023183656 0.06715174 0.04228909 0.034648437 0.03390814 -0.040741067
0.029212672 0.05163347 -0.03605135 -0.045864824 0.029748412 0.0011849119 0.030460395 0.0036202841
0.008955895 0.00053939986 -0.054530703 -0.011125161 -0.086246945 0.004441847 -0.03235561 0.01817054
-0.0070372256 -0.010635935 0.013461345 0.02047909 0.010985645 0.026227828 -0.043550227 0.008061458
0.038097735 0.010339325 0.045596734 -0.012308464 -0.046435297 0.0113831805 -0.03276104 -0.0211195
0.08179511 -0.047990292 -0.029831046 -0.12111046 0.023564782 0.071353056 0.03220309 0.001468068
-0.009076497 -0.027108101 -0.020705342 -0.05311345 0.03374875 0.030010415 -0.034309436 0.059046544
0.051496208 0.08221182 -0.006545776 -0.059935786 0.02534231 -0.0070635015 0.032151245 -0.008673783
0.053952 -0.019218557 0.03703368 0.009962118 0.022407861 0.029000401 0.009326587 0.012116701
0.05394465 0.042338144 0.08309413 0.025934266 0.029746315 0.0539421 0.12832084 0.079568654
0.0592217 0.022941055 -0.0048868353 0.07289189 -0.002318626 0.10175151 -0.046926744 -0.011425237
-0.038354345 0.08175212 -0.08384137 -0.082704455 -0.048761263 0.04337199 -0.03282372 0.0017975534
0.032623887 0.027947599 3.673755e-05 0.029820604 0.02446492 0.019299326 0.034231726 -0.04878955
-0.06921458 -0.03222828 0.004599708 -0.016843349 0.0774069 -0.020138882 0.03935794 0.022941716
-0.017845403 0.026664404 -0.04864177 -0.057260156 -0.06330963 -0.00498063 -0.05030638 0.0075631216
-0.019904315 -0.0060884967 -0.016203836 0.0044183056 0.0065292204 0.041602142 0.01705941 0.00023303628

model_4/gru_9/gru_cell/strided_slice_4 f4 [48]
00000000: f810 a83c 0a24 033b 31d1 29bc c825 69bc
00000010: c5d3 543d da4a 203d 77a2 a4bc 0267 3f3d
00000020: 473e 083d e57d 523d 9cec a03d c466 113d
00000030: afcd ebbc 22f1 573d 978d 023d 5824 1c3c
00000040: ae00 e53c 930a 3e3d 9386 8a3d 1bdb cc3b
00000050: e648 34bc 3bd1 a23c 66d5 49bc 11d5 b1bc
00000060: 4bb0 003c ac5e 563d e528 df3c ba4e f63c
00000070: aa62 bb3d a515 493d 2151 a6bc d59b 0d3d
00000080: cd94 6abc 5000 a33b 3b5a 853d 4383 553c
00000090: 6186 ea3c b27d 163d ea32 f43b 3b2c 0cbc
000000a0: a283 383d 841d ad3c d394 81ba ec9e d23b
000000b0: 311c dc3d 88cc a63c 4d9a 533d a4ab 1d3d
0.020515904 0.0020010495 -0.0103648165 -0.014230199 0.05195977 0.039133884 -0.020097 0.046729095
0.033262517 0.051389594 0.0785763 0.035498396 -0.028784601 0.052720197 0.03187331 0.009530149
0.027954426 0.046396803 0.06763949 0.0062517053 -0.0110037085 0.01987516 -0.012318945 -0.021708043
0.0078545315 0.05233638 0.02724118 0.030066837 0.09149678 0.049092907 -0.020302357 0.03457244
-0.014317703 0.0049744025 0.06511351 0.0130317835 0.02862853 0.036740966 0.0074523585 -0.008555467
0.04504741 0.021132238 -0.0009886272 0.0064276364 0.107475646 0.0203612 0.051660825 0.038493767

model_4/gru_9/gru_cell/strided_slice_3 f4 [48]
00000000: 8033 7e3d 8a48 453d 1f26 9b3d 7491 3bbb
00000010: a642 793c 01bd 9d3c 302d ee3c 92d4 a33c
00000020: abed bc3c a489 743c 5771 58bc 85d6 9e3c
00000030: 358e 9b3c a5cd 513d 1a01 f13c 907f f13c
00000040: 3615 033d 7d2a 6c3d 33d1 043c c864 f63c
00000050: d284 313d 3a56 6f3d adc6 c4bb 5258 123d
00000060: 8aef 8c3c 7ee7 033d 751f 0d3b 9341 ca3b
00000070: ecf2 4c39 5add 953c 5dae 833d d635 8bbb
00000080: d54c da3c f8df 1a3c 676a 2d3c d43d 383d
00000090: d46d 1a3d 14c0 3b3c 9a4e 843c 4b72 433d
000000a0: a923 c639 37ed 373c 8bde b03b 3f6d 4d3c
000000b0: cb1a e4bb dad8 8c3d 651c 7c3a 50c9 893c
0.062060833 0.04816488 0.075756304 -0.0028620632 0.015213644 0.019255163 0.029074281 0.019998822
0.023062548 0.014925394 -0.013210616 0.0193894 0.018988708 0.05122151 0.02941947 0.029479772
0.03200265 0.057657707 0.008106518 0.030077353 0.043339558 0.05843184 -0.0060051293 0.03572876
0.017204065 0.03220319 0.0021533642 0.006172368 0.00019545452 0.018294025 0.064297415 -0.004248361
0.026647964 0.009452812 0.01058445 0.04498084 0.037702397 0.011459369 0.016150761 0.04771642
0.00037792072 0.01122599 0.005397623 0.012538253 -0.006961202 0.06877299 0.0009617268 0.016819626

model_4/gru_9/gru_cell/strided_slice_5 f4 [48]
00000000: c4d9 d93d 9656 61bd 6661 583d 0b33 053e
00000010: 4dc3 50bd c677 3f3c 80ff 583d 0b20 a53d
00000020: 9c07 e0bd d715 8d3d acdb 6fbd 8da3 d0bc
00000030: 4e4c 9f3d 1ea0 123d da70 283d b405 9cbd
00000040: f064 f03b 8d1c 873d a605 27bd 3de1 cd3d
00000050: 5ecd 0d3c c063 c3bc 5f41 b83c ee4d 083d
00000060: f8c7 d03c 8bb4 1b3d e72c 2fbc 8c67 533d
00000070: 9c19 0dbd 9dd1 4dbd 3632 57bd 48d7 b13c
00000080: d66d 4e3c 7ead ce3d 50fd 193d ca33 093a
00000090: 46c3 72bd d898 183d 0998 c3bd 8cbc 66bd
000000a0: 9c1b b5bd e410 8d3d 3b58 3dbd 9d48 a2bd
000000b0: 44a5 27bd 698e e0bc 713b 493d 05be 0bbd
0.106372386 -0.055014215 0.05282726 0.13007753 -0.050967503 0.011686271 0.05297804 0.08062752
-0.109389514 0.06888931 -0.058559105 -0.025468612 0.07778226 0.03579723 0.04112325 -0.07618275
0.0073362514 0.065972425 -0.04077687 0.100527264 0.00865492 -0.023851275 0.022492109 0.033277445
0.025485978 0.038013976 -0.010691858 0.051612422 -0.03444825 -0.05024873 -0.05253812 0.0217091
0.012599429 0.10091685 0.037595093 0.00052338524 -0.05926826 0.03725514 -0.09550483 -0.056332156
-0.08843157 0.06887987 -0.04622672 -0.07924006 -0.040929094 -0.027411656 0.049128953 -0.034116764

model_4/gru_9/gru_cell/strided_slice_11 f4 [48]
00000000: 594e 943d f43e 70bc b0d0 1a3d a76b 053e
00000010: 2c97 f2bc a164 55bc f97c 023d 6113 8d3d
00000020: 28fe 61bd ce3b 353d d01e 36bd ea3f a4bc
00000030: d745 443d 8166 453d 42cd e63c 85a4 7dbd
00000040: 8e36 42bb 9d49 283d 3b4a 5abc ce35 bc3d
00000050: 9c5a 7d3c 9b85 14bd 0f79 f13c 840c e63b
00000060: cba1 5d3c b59a 033d 5a82 ce3c 115b 233d
00000070: 8fed bdbc b3c2 35bd abc6 dabc 4535 263d
00000080: 3593 2d3d 0764 a93d 678b 243d 8404 4cbc
00000090: 3e91 1bbd f182 aa3c c001 abbd 4c0c 61bd
000000a0: 3771 8dbd 720a 923d df22 30bd 2a84 a1bd
000000b0: 1f1f 42bd 0d1f 47bd c308 113d 721c e1bc
0.07241506 -0.014663447 0.037796676 0.13029347 -0.0296131 -0.01302448 0.031857464 0.06888462
-0.055174023 0.044246487 -0.04446298 -0.020050008 0.047918167 0.04819346 0.028174046 -0.061924476
-0.0029634568 0.041085828 -0.013323362 0.0918995 0.0154634975 -0.03626023 0.02947667 0.007020535
0.013527344 0.032129962 0.02520864 0.03988177 -0.023184566 -0.044375133 -0.02670606 0.040578146
0.042376716 0.08271032 0.040172007 -0.0124522485 -0.03798031 0.02081439 -0.08349943 -0.054943368
-0.0690636 0.071308985 -0.043002006 -0.078865364 -0.04739296 -0.048613597 0.035408746 -0.027479384

model_4/gru_8/gru_cell/strided_slice_4 f4 [96]
00000000: 9594 4e3d f2d0 813c e66d 97bb 1630 27bb
00000010: 7463 7e3c aa72 363c 92a5 fa3c 3068 e13c
00000020: e244 dfbb 28a9 9d3d a71b bb3c 5dcd 3a3d
00000030: 9b31 96bc a41f b53c 9dec a13c b6ba 0e3d
00000040: 5956 c0bb f476 eb3c 1db5 6dbb a220 b13b
00000050: 2215 03bd cc4b 023b f5c0 4b39 883b c8bc
00000060: a8c7 0c3d 7708 18bc 0fa7 1e3d 72d7 073d
00000070: 90ec 303d e9d8 e53c 411f 403d 6f18 463c
00000080: 7c3d 9a3c e7cc e93c dab4 ce3d 25ec ac3b
00000090: c41c 0ebd 78e8 83bc b0f4 6fbb 57d3 323d
000000a0: 4e04 2f3b 5776 483d bd65 263d d66f 1cbb
000000b0: cbed 4f3d 348d 88bc 15d3 c0ba ae35 213d
000000c0: 4cc2 023c 8391 443c e0d8 3e3d 5ee8 9ebc
000000d0: 996f 03bd ff59 733c e50e 343d 4ebd 103d
000000e0: 8c30 053d 78da 1f3d 4955 c0bc 9ffa a83a
000000f0: 5e5e 063c 89ee 08ba 8e4d cb3b 78ef 5e3c
00000100: 70d5 9f3c 89e2 1a3c 96d0 3fbc 16a6 433c
00000110: b921 9d3c deff a03c 13e2 b4bb 4cd7 17bc
00000120: 5aa2 ac3c 5413 573c a6d1 e33b b290 f8bb
00000130: e4d7 de3c 31a6 f0bc 3b0c 933c 1d90 8d3b
00000140: 8af2 9039 0e69 58bc 003e 3f3d fd68 d13c
00000150: 2a8a b0ba 16e8 403d 7731 b8bc b525 613c
00000160: 5b2f 183c 03bb 61bb 7312 acba 050b 263d
00000170: 7b7c d53b 75e5 acbc 8376 153d 32f2 2e3d
0.050434668 0.015846703 -0.004621255 -0.002551084 0.015526641 0.0111357365 0.030596528 0.0275155
-0.0068136314 0.076982796 0.022840334 0.045606006 -0.0183342 0.022109814 0.019766146 0.03484603
-0.0058696684 0.028743245 -0.0036271282 0.0054055015 -0.032002576 0.0019881604 0.0001943147 -0.02444245
0.034370095 -0.009279362 0.03873354 0.03316445 0.043194354 0.028057532 0.046904806 0.012090786
0.018828146 0.028540088 0.100930884 0.005277174 -0.0346954 -0.01610206 -0.003661435 0.04365858
0.0026705447 0.048940983 0.04062437 -0.002387037 0.050763886 -0.016668893 -0.0014711345 0.039357834
0.007980894 0.011997583 0.046593547 -0.01939791 -0.03208885 0.014853 0.043959517 0.035336785
0.032517 0.039026707 -0.023478167 0.0012892074 0.00820121 -0.0005223533 0.0062043136 0.0136068985
0.019510955 0.009453424 -0.011707446 0.011941453 0.01918112 0.019653257 -0.005520114 -0.009267639
0.021073509 0.013127167 0.0069524823 -0.0075856084 0.027202554 -0.029376121 0.017950168 0.004320158
0.00027646526 -0.013208641 0.046689987 0.025562758 -0.001346891 0.047096334 -0.022484524 0.0137419
0.009288634 -0.0034443743 -0.0013128057 0.040537853 0.0065150834 -0.021105507 0.036489975 0.042711444

model_4/gru_8/gru_cell/strided_slice_3 f4 [96]
00000000: 0086 3a3d c37d 473d 750d b23c dd19 333d
00000010: 8f16 943d d2b0 103c 51ec 2cbb 1f07 873d
00000020: 67db 153d 403d 603d 63ef 183d 086c 65bc
00000030: 8ba9 523d cf97 1b3d 8158 373d 79d7 c43d
00000040: ad9c bf3c 5fa0 493c 00ca 183d 26fb 0d3c
00000050: 9fc0 92bc 1789 c43c 9747 323d a7d4 633d
00000060: f50a 023d 6af8 12bc 9460 803d 9f0a 063d
00000070: 3c37 b93d 2413 7c3d f181 803d ad44 ef3c
00000080: 45a9 5f3d e298 703d d5c7 553d bfbd 683a
00000090: 8314 233d b63c 93bc eea9 9cbb 6414 a93d
000000a0: aab9 283a ef49 db3c 56c8 8f3c 742c 553d
000000b0: 1c9f a53d 3b77 e83b 1a5e 2b3a 5ce0 933a
000000c0: 4755 a03c 3e4d 8f3c f9eb 2a3c 015b 9e3c
000000d0: f252 0a3d 9c0d 4c3d 7e2d a23d a4e5 823d
000000e0: 5824 1b3d 8948 1b3d c681 093d dd17 3a3d
000000f0: 29fd 593d 4664 423d de04 573b cda6 d03c
00000100: 2de4 5a3d d5f3 ab3c d79c fcbb d667 093d
00000110: 9f72 363d a37e d8bb 9ac8 2c3d f390 6e3b
00000120: 044e 293d fb08 da3c 829c 263c 19a2 bf3c
00000130: 06bf 5c3d a5f0 1a3d 53ee 703d 7a92 da3c
00000140: 8af2 733d 7c3b ed3b 79c2 b43c e84a 733d
00000150: 7183 a23b f690 813d a0b3 2c3d 2d3d b73c
00000160: d85e 3c3d ad25 983b 19e2 283c 80d4 283d
00000170: 4c98 f73c 36f1 8aba 27f2 c33d 1e99 623d
0.04553795 0.04870392 0.021734932 0.043725837 0.07230865 0.00883122 -0.0026385973 0.06593155
0.03658619 0.054745913 0.037337672 -0.014002807 0.05143122 0.037986573 0.04476214 0.09611411
0.023390139 0.012306302 0.037302017 0.0086658355 -0.017914115 0.02399115 0.043525305 0.055622723
0.03174873 -0.008970359 0.06268421 0.032724973 0.09043738 0.06154169 0.06274784 0.029207552
0.054604787 0.05873955 0.052192528 0.0008878372 0.039814483 -0.017973285 -0.0047809994 0.08255842
0.00064363575 0.026768653 0.017551582 0.052044347 0.08086988 0.0070942915 0.00065371545 0.0011282074
0.019571913 0.017492887 0.010432237 0.019330503 0.03377051 0.049817666 0.07918833 0.06391457
0.037876457 0.03791097 0.033571027 0.045432914 0.053219948 0.04745891 0.0032809298 0.025470162
0.05344026 0.020990292 -0.0077091265 0.03354629 0.044542905 -0.006606893 0.042183496 0.0036402314
0.041334167 0.02661561 0.01016915 0.023392724 0.05389311 0.037827153 0.058821034 0.026681174
0.059557475 0.007239757 0.022065388 0.059397608 0.0049595167 0.06326477 0.04216349 0.022368038
0.045988888 0.004643163 0.010307812 0.04121828 0.030223988 -0.0010600451 0.09567671 0.055321805

model_4/gru_8/gru_cell/strided_slice_5 f4 [96]
00000000: e380 7abc 73f2 adbc c117 293c 962a f539
00000010: 3675 cf3c 7712 ab3c b979 053c f6e6 a83b
00000020: 25d0 72bb af62 9cbb 9906 e73b 363d d63c
00000030: f17f 79bc 3578 7abc f1c5 633a 7a63 efbb
00000040: 8aee 213c 8cdb 7e3c 7cd6 15bb 435c 563b
00000050: 12df 9fbc 15c8 67bc 588f 953b b962 8dbb
00000060: dedb 1eba a285 663c 1ae5 eeb8 bafe 4dbb
00000070: 5955 50bc 7a3b 04bd efa8 20bc eb3e 62bc
00000080: 284d f5b9 1e49 933c 6778 29bc b008 25bc
00000090: cd15 c1bc b2e4 0cbc 46f8 423a 593c 27bb
000000a0: a0c1 5c3c 8766 6bbc 5a35 853b 31fd b63c
000000b0: 90d2 98bb dbd4 ff3c 13cf 8f3b 84a5 843c
000000c0: fb8a a63b 5216 853c 42d8 7c3c aeb4 e5bb
000000d0: 0504 0d3c f98d 8c3c 3e97 f4bc 4af3 90bc
000000e0: 1163 89bc 5961 303c d05b 873c 1a85 f53b
000000f0: 1176 a23c 0ed9 ac3c 9960 95bc 92ff 51bc
00000100: 4f77 fbba 356c 343c 6228 8ebc ad5d bebc
00000110: b611 b9bc cb72 a03b dc35 5c3c 3485 833b
00000120: 9d6b 0fbd 9b16 a0bb 683d 93bb 84c9 893c
00000130: 95e4 123c 55e3 9bbb 9488 f23a be8c f43b
00000140: 40bc 8c3c 1f96 3fbb f22c e1bc 4076 d13b
00000150: 7564 2b3b d266 be39 0db2 9bbb dc78 ba3b
00000160: ee98 333b 35cf 29bc 5063 b2bc fc75 9f3c
00000170: 3c3e 05bd 978b 4ebb 6c0e 3d3a a649 b33c
-0.015289518 -0.021233773 0.010320605 0.0004676177 0.025324445 0.020882828 0.008146697 0.005154486
-0.0037050333 -0.004772506 0.007050347 0.026152235 -0.0152282575 -0.015287449 0.00086888584 -0.0073055597
0.009883532 0.015555274 -0.0022863438 0.00327088 -0.019515548 -0.014146824 0.004564207 -0.004314747
-0.00060599844 0.0140699465 -0.00011391398 -0.0031432346 -0.012715661 -0.032283284 -0.009805902 -0.013808946
-0.00046787527 0.0179792 -0.010343648 -0.010072872 -0.023569966 -0.008599447 0.00074375083 -0.0025518148
0.013473898 -0.014367706 0.004065198 0.022337528 -0.004663773 0.031229427 0.004388699 0.016192205
0.0050824857 0.016245995 0.015432419 -0.007010064 0.008606915 0.017157542 -0.029857274 -0.017694134
-0.016770871 0.010765397 0.016523272 0.0074926736 0.01983169 0.021099593 -0.018234538 -0.01281728
-0.0019185337 0.011012127 -0.01735324 -0.023238027 -0.022591453 0.004896497 0.013440575 0.004013682
-0.035014737 -0.0048855073 -0.004493404 0.016819723 0.008965631 -0.0047573247 0.0018503838 0.007463067
0.017179608 -0.0029233766 -0.027487252 0.0063922703 0.0026152406 0.0003631623 -0.00475145 0.005690677
0.0027404386 -0.010364343 -0.021775872 0.019465439 -0.032530054 -0.0031516307 0.0007211927 0.021885704

model_4/gru_8/gru_cell/strided_slice_11 f4 [96]
00000000: efeb 0bbd ff87 7cbc 826f c03b c150 7bbb
00000010: 4efd d43c 8b6d 9f3c c278 b43c d4a4 34bc
00000020: 98b7 043c cd93 bdbb 3751 fdbb fdd0 8c3c
00000030: 2ba7 87bc 90e2 d0bc 693a 0d3b 75b3 babb
00000040: cccf b7ba cb12 453b 8f43 873a 3646 1a3c
00000050: 7ae4 80bc 9245 bebc 58df 6d3c 1a3f ff3a
00000060: 5cb0 063b a54b e53b b921 35bb a974 e7bb
00000070: e057 d4b7 2162 08bd 37ab a7bc 634a f0bb
00000080: 4885 c13b 9c47 0d3d 0deb b1bc 8be2 36bc
00000090: 3b7e 5abc b78b fdbb 21f2 f23b f0b4 2d3c
000000a0: ab70 843b 7014 8cbc 8597 b63c 75a2 173d
000000b0: 382f aabb 973f d83c d010 8b39 b69a 363c
000000c0: 7c6e 113b 6e55 ae3c ffb2 6d3c 93f7 8f3c
000000d0: 220d 313c 2209 263d 7410 c1bc fe48 a33b
000000e0: f044 8e3a 3870 68bb ccf7 143c 7436 88bc
000000f0: 5352 fc3c 1653 0c3c bfb8 50bc d7c1 09bd
00000100: c868 5ebc 6354 243b 574a 8cbc 1d1f fdbc
00000110: 9822 d9bc 3195 0dbb 9c17 b23b d5d6 aeba
00000120: 5acb 28bc f72a 7dbc 39de b3ba 6c46 f23c
00000130: 6c75 0c3c 77f1 83ba dda0 053c a4b5 7d3b
00000140: 794e 343c be33 6abb 0a89 d4bc 160e 953c
00000150: 7de8 283b 6cb7 4ebb 7fde 303b 269a 9d3b
00000160: 1a84 39bc 52f6 0abc 56d0 95bc 17d3 963c
00000170: a873 01bd 59c1 d4bb d6c7 643c 668f 053d
-0.03416055 -0.015413283 0.0058726678 -0.0038347694 0.025999691 0.019461414 0.022030238 -0.011025626
0.008100413 -0.0057854415 -0.007730629 0.017189497 -0.016559204 -0.025498658 0.0021549708 -0.0056976625
-0.001402372 0.0030071016 0.0010319817 0.009416154 -0.015733946 -0.023226533 0.014518581 0.0019473762
0.0020551896 0.006997543 -0.0027638508 -0.0070634675 -2.531329e-05 -0.033296708 -0.020467384 -0.0073330863
0.005905781 0.03449212 -0.021718526 -0.0111624105 -0.01333576 -0.0077376026 0.007414118 0.010602221
0.0040417514 -0.01709959 0.022289047 0.037020165 -0.005193617 0.02639751 0.00026524672 0.011145284
0.0022191098 0.02128097 0.014508008 0.017574107 0.010806354 0.040536053 -0.023567416 0.0049830666
0.0010854285 -0.0035467278 0.0090922825 -0.016627528 0.030800974 0.008564731 -0.012739359 -0.033632126
-0.0135747865 0.0025074712 -0.017125292 -0.030898625 -0.026505753 -0.0021603818 0.0054349434 -0.0013339171
-0.010302389 -0.015452138 -0.0013722844 0.029574595 0.008572917 -0.0010066469 0.008156029 0.0038713003
0.011005037 -0.0035736407 -0.025944252 0.018195193 0.002577334 -0.0031542433 0.0026988087 0.0048096357
-0.011322999 -0.008481579 -0.018287819 0.018411202 -0.03160444 -0.0064927754 0.01396366 0.03260746

model_4/batch_normalization_19/batchnorm/sub f4 [48]
00000000: 6e35 43bf 806f 86bb 7189 31bf 8e0a 58bf
00000010: 61ad 213f dc41 2f3e 6b2c 1ebf 84f0 33bf
00000020: 4005 4ebe 94b5 11bf 48e9 073f b6aa 343f
00000030: 920c f6be f43d 0dbf a46c 25bf eb6d 2f3f
00000040: f538 ecbe dcf1 69be 5017 873e 5f82 52bf
00000050: 5c55 26bf ad83 e03e 2f2d 6b3e 58e7 76bd
00000060: baa2 d2be 0d85 e8be f417 c63d 4661 61bf
00000070: 9740 0b3f fa61 f63e 29d3 a43d e4ac 1abf
00000080: 38c0 9dbe 2e16 68bf 32a3 1cbf 2258 c43e
00000090: bcf0 243f 8f63 01bf 7b94 7b3f beae 7b3f
000000a0: 457d 1b3f 96af 2bbf 1caf 5b3f 5b1d 373f
000000b0: d12b 163f fffe c63e 128f 16bf 701f 163f
-0.762534 -0.0041026473 -0.69350344 -0.84391105 0.6315518 0.17114967 -0.61786526 -0.7028887
-0.2011919 -0.5691769 0.53090334 0.70572984 -0.48056465 -0.5517266 -0.646189 0.68527097
-0.46137205 -0.22846168 0.26384974 -0.8223018 -0.64974 0.4385046 0.22966455 -0.06027922
-0.41139776 -0.4541401 0.096725374 -0.8803905 0.5439543 0.48121625 0.08048088 -0.6042006
-0.30810714 -0.90658844 -0.61186516 0.3834849 0.6442983 -0.5054254 0.9827344 0.9831351
0.6073802 -0.670648 0.8581407 0.7152917 0.5866061 0.38866422 -0.5881206 0.5864172

model_4/batch_normalization_19/batchnorm/mul f4 [48]
00000000: 3815 0140 8009 3240 2dec 4740 df2d e83f
00000010: 855a f63f 49df 4240 031a e23f 51e5 d03f
00000020: 56c5 5740 3041 bb3f dfad a63f 9188 e83f
00000030: 362b 1140 cda6 d63f 4884 ce3f 3fc9 f93f
00000040: 24e0 db3f b665 1040 e46a c93f 1d9f 1840
00000050: bb00 a540 59ac 2840 a735 9440 9b1c a140
00000060: 5690 7040 db38 fb3f 3697 0440 3745 0240
00000070: 1bcd b63f e90d ce3f a4d1 6540 dfe7 be3f
00000080: 5be1 2a40 e139 1e40 d978 c13f 26a7 1d40
00000090: fef8 0640 7c3f c53f 7998 1f40 2fb3 f53f
000000a0: 378a c93f 4ef5 ca3f c265 3840 bf80 db3f
000000b0: 2385 b03f 0c5f 3540 e3b0 af3f 9817 c53f
2.01692 2.7818298 3.12379 1.8138999 1.9246374 3.0448782 1.7664188 1.6319982
3.3714194 1.4629269 1.3021811 1.8166677 2.2682624 1.6769654 1.6134119 1.951454
1.7177777 2.256208 1.5735745 2.3847115 5.156339 2.6355193 4.6315494 5.034742
3.7588096 1.9626726 2.0717292 2.0354745 1.4281343 1.6097995 3.5909204 1.4914511
2.6700046 2.4722826 1.5115005 2.463327 2.1089473 1.5409999 2.4936812 1.9195307
1.5745305 1.5856111 2.8812108 1.7148665 1.379063 2.8339262 1.3725857 1.5397825

model_4/batch_normalization_18/batchnorm/sub f4 [96]
00000000: d494 1ebf 2ed4 d7be d0cc 55bf 6c22 8abf
00000010: be3d 1a3f 6ce8 82bf e86e 353e 0877 6ebe
00000020: 8093 c3be d9be 1cbf b458 53bf 694f 34bf
00000030: 79d6 f33f a61d d93f fd3f 873f 1494 49bf
00000040: 21a1 5fbf 4902 483f e30f 5ebf d885 613f
00000050: 7cb5 b73f 8006 253f 6a50 5ebf d955 ba3f
00000060: 9a17 8c3f bf26 a4bf ed1a 7a3f 6ac4 103f
00000070: 99fd 4ebf b42b a73f bd3d 7e3f ae6a 9ebf
00000080: 7442 5f3f 39df 69bf e27f 4c3f dba3 643f
00000090: f7ac 1cbf 6022 7abe ca62 11bf 22a3 78bf
000000a0: a187 823f f1b6 483f f811 24bf 54f1 453f
000000b0: cacf 47bf 3a20 8abf 5d30 11bf ab25 063f
000000c0: f2d6 093f cb49 31bf 624c 2a3f dd81 6f3f
000000d0: 4fa6 e83f 4344 5abf 6dd8 2cbf 8629 a6be
000000e0: 4e7d 42bf ca11 0e3f ecd5 9dbf 50f3 70bf
000000f0: 5577 aebf 55de 7bbf 51c6 3cbf 668e dfbe
00000100: fa5f c83f 0820 4ebf f274 0e3f 56f1 34bf
00000110: cf93 bdbf c755 83be 022d 773d b944 c43e
00000120: 66f4 a63f 56dd 923f 78b9 943e 82a3 0ebf
00000130: 5289 5bbf d305 373f 726e 2e3f 2394 1f3e
00000140: 6f13 e5bf 2a65 90be a96a 0240 7607 7cbf
00000150: 0e90 4cbf 9119 5a3f d973 703f 9bef 3c3f
00000160: e1bf 963f b458 743e 1b39 47bf 26c2 b13e
00000170: 0ebb 4f3e 28e0 ba3e 9d51 20bf b9ae 7abf
-0.61945844 -0.42154068 -0.83515644 -1.0791755 0.6025046 -1.022718 0.17718089 -0.23287594
-0.3819847 -0.6122871 -0.82557225 -0.7043367 1.9049827 1.6962173 1.0566403 -0.78741574
-0.8735524 0.78128487 -0.8674299 0.88094854 1.435226 0.64463043 -0.8684145 1.4557449
1.0944703 -1.2824324 0.97697335 0.56549704 -0.8085571 1.3060212 0.99312955 -1.2376306
0.87210774 -0.91356236 0.79882634 0.89312524 -0.61201423 -0.24427176 -0.56791365 -0.9712392
1.0197641 0.78404146 -0.6408992 0.7732136 -0.78051436 -1.0791085 -0.5671442 0.52401227
0.53843606 -0.69253224 0.665228 0.9355753 1.8175753 -0.8526041 -0.6751774 -0.32453555
-0.7597245 0.55495894 -1.2330909 -0.94121265 -1.3630167 -0.98386127 -0.73740107 -0.4366333
1.565429 -0.80517626 0.55647194 -0.7068075 -1.4810733 -0.2565138 0.060345657 0.3833368
1.3043334 1.1473796 0.2904775 -0.55718243 -0.8575641 0.7149326 0.68137276 0.15583853
-1.7896556 -0.28202182 2.03776 -0.98448884 -0.7990731 0.8519526 0.9392677 0.7380311
1.1777307 0.23861963 -0.7782151 0.34718436 0.202862 0.36499143 -0.6262453 -0.97922856

model_4/batch_normalization_18/batchnorm/mul f4 [96]
00000000: 2ca2 5740 a15c 2641 5b35 0f41 6d9f cf40
00000010: 53aa 8f40 34fd 1441 335e 3c41 3d04 6541
00000020: e187 8e41 370e 3840 17b8 8640 4bd4 a740
00000030: 809b 1041 0688 8341 1695 6340 8275 7340
00000040: 2c64 eb40 b2e0 8240 361b 9f40 7343 5c41
00000050: edd1 8541 2e22 8f41 bedb 6b40 1ecc 8c41
00000060: 9588 0441 3b5e 6141 2024 2f41 f6f6 6440
00000070: c9f7 6b40 a298 ab40 5328 5e40 544f b140
00000080: c8c7 b840 48cf 7a40 4df7 4c40 4112 f040
00000090: 2ab0 8641 10f0 a741 4952 a641 c1f1 4e40
000000a0: ea61 3941 14fe 4240 9f24 7e40 b10f 9340
000000b0: f67b 3f40 9ba6 7141 8245 8341 2f46 7940
000000c0: 3eb3 a840 afd0 8441 e9ca bc40 dea5 1841
000000d0: c0b4 a741 8658 5740 f056 5340 2759 8141
000000e0: 2dde 4740 b3cc c740 213f ac41 4d3f 5e41
000000f0: 10d8 a040 5c84 dc40 ca55 3741 aa9f fc40
00000100: 0946 9141 896c cf40 79f2 0441 2422 fa40
00000110: a06f 2141 56eb 9341 a47c 9441 369f 8741
00000120: 4e77 9e40 44c3 1641 899e e040 3718 0441
00000130: e38f 1741 066d b041 a1ae 8c41 57a1 fa40
00000140: fc76 2c41 5fb5 2a41 3477 6541 0a4e 5740
00000150: 7d4e dc40 73bb 6a41 1333 9141 f906 9c40
00000160: 9717 ce40 0da2 9641 6b0b 4a41 5b5b 8341
00000170: 00c8 8c41 6368 ab41 9990 2a40 0b8b 9240
3.3692732 10.3976145 8.950526 6.488211 4.4895415 9.311817 11.772998 14.313535
17.816347 2.8758676 4.209972 5.2446647 9.037964 16.441418 3.5559745 3.804047
7.355978 4.0899286 4.9720716 13.766467 16.727503 17.89169 3.685287 17.599667
8.283345 14.0855055 10.94632 3.5775733 3.6869986 5.362382 3.4712112 5.5409336
5.7743874 3.9189014 3.202594 7.5022283 16.836018 20.992218 20.790178 3.2335055
11.586405 3.0467577 3.9709852 4.5956655 2.991941 15.103175 16.40894 3.8949087
5.27188 16.601896 5.8997693 9.540495 20.963257 3.364778 3.3021812 16.168531
3.1229355 6.2437377 21.530825 13.890454 5.026375 6.891157 11.458445 7.8944902
18.159197 6.481999 8.309197 7.8166676 10.089752 18.48991 18.56086 16.95274
4.9520636 9.422672 7.0193524 8.255912 9.472629 22.053234 17.585268 7.832195
10.779049 10.66928 14.341602 3.3641381 6.884581 14.670764 18.149939 4.875851
6.4403796 18.829126 12.627788 16.419607 17.597656 21.42597 2.6650755 4.579473

model_4/dense_9/BiasAdd/ReadVariableOp f4 [26]
00000000: 0660 0e3e 46e9 57bd f907 c73d ea87 d33d
00000010: acdf 8d3d 5415 0ebd 676d ab3d 122f de3d
00000020: feea 943d 2aa6 55be 0fe3 2abe 5007 35be
00000030: b015 39be e37e 46be 7e59 4cbe 5f58 33be
00000040: 86fa 2fbe 4855 42be 4ac4 3cbe 92bd 31be
00000050: 0d53 35be 40be 3abe ec3d 3dbe f9b8 45be
00000060: 3dd1 4cbe 2b0e 46be
0.13903818 -0.0527127 0.097183175 0.10328658 0.06927428 -0.03468831 0.08370476 0.10848822
0.07271384 -0.20864168 -0.16688178 -0.17678571 -0.1807468 -0.19384341 -0.19956014 -0.1751418
-0.17185411 -0.18977845 -0.18434253 -0.17357472 -0.17707463 -0.18236637 -0.18480653 -0.19308843
-0.20001693 -0.19341342

model_4/dense_8/BiasAdd/ReadVariableOp f4 [48]
00000000: 443a 6f3d e7af 263d 8090 ae3d e0bf d9bb
00000010: 1157 ca38 53e2 ad3c 77f9 15bc 3ec4 d13d
00000020: 6eee a03d c5c8 693d fce1 e9bc b843 383d
00000030: 9ceb de3c bff6 8f3d 1783 bcbc 4159 3c3d
00000040: 2836 f23d 0263 163d 2f16 f03b ba12 473d
00000050: 3721 093e 6e48 c93d 90b8 ab3d d355 ae3d
00000060: 1ade b33d 9c4f eb3c b16a f93a 699c b73d
00000070: eaa2 af3d bd86 be3d 45fe e43c 1164 233d
00000080: 51df b93d 0427 013d f5e9 0c3d 1050 193c
00000090: a63b 1b3e c993 62bb 01bd c13d 949a b93d
000000a0: 076b afbb 0be8 813c f6be aa3d 8910 1bbc
000000b0: 5ecd 653d be86 663d fb42 c63c 3c3e 1a3d
0.058405176 0.040695097 0.08523655 -0.0066451877 9.648328e-05 0.021226084 -0.009153715 0.10242508
0.07857977 0.057076234 -0.02855014 0.044986457 0.027211957 0.07029485 -0.023011727 0.045983557
0.11826736 0.036715515 0.0073268632 0.048601843 0.13391577 0.09828268 0.08384812 0.085124634
0.08782597 0.028724484 0.0019028989 0.0896538 0.08575995 0.09303043 0.027953276 0.039890353
0.09075797 0.03153135 0.034402806 0.009357467 0.15159473 -0.003457295 0.09459878 0.090626866
-0.005353335 0.015857717 0.08337204 -0.0094643915 0.056104057 0.056280844 0.02420186 0.037657008

model_4/gru_8/gru_cell/MatMul f4 [96, 126]
00000000: ccea 3a36 fcd9 29b6 5f7e 8f37 5e78 5139
00000010: d009 5639 c2cb 4038 2b20 e239 cdf9 ba39
00000020: 4b0a e338 6983 8d39 121a 713a 9dca 2939
00000030: 7096 b939 c993 163a 0e3a 3139 c1fc 4839
00000040: 0f14 a339 5e31 6838 d7f7 8739 5b3d 483a
00000050: 5880 fe38 ba35 4539 e3d5 b73a 96e1 1939
00000060: b3bd 5739 5f55 7e3a 2ecf 9739 8b18 9838
00000070: 6ca0 093a 909f 82b8 958d 46b9 1888 eb39
00000080: 11f1 2439 176e 3f38 7e1d 633a 32c3 0139
00000090: 4d06 2439 d812 c63a 362f f538 ee82 a0b9
000000a0: 7858 ee37 71b3 1c39 9130 c5b9 de94 9c38
000000b0: 6eba 8a37 8c2f 7cb9 dd5b 103a 5d06 dd38
000000c0: d280 84b9 0b40 753a c5de d538 6f09 1dba
000000d0: 3ec2 d339 4b9a 3339 1e92 20ba d7cc 2f39
000000e0: 62b9 fc38 39b9 05ba 708a 173a b2a7 7438
000000f0: 0902 fdb9 cecc 563a 6f3b aa38 24a2 0c37
00000100: bc7b cfb6 6c7c 55b6 51ba 2037 4775 8c36
00000110: a47c e136 419d 7336 07c9 cc36 f685 0f37
00000120: ed5a cf36 586f 3837 a80c 7537 183b 2237
00000130: 0032 8e31 9ab7 1938 b0f3 7d36 1ed7 73b7
00000140: 01fc fd36 607e a4b5 9abd 2836 dcb5 a436
00000150: 742e 1337 fdf5 6337 ad0e b8b4 c2c3 03b5
00000160: caf4 cab6 e2b5 ea36 6876 3e36 5dd0 cbb7
00000170: 35d2 d036 208e 8337 8087 85b7 efa8 45b7
00000180: 7a40 48b7 0058 7e34 98b7 b436 4552 2bb7
00000190: 01fd a2b6 1048 2038 b085 2b37 2274 a0b6
000001a0: ccc3 81b7 9802 70b6 00d7 f5b4 388c c3b7
000001b0: b973 1637 fa99 3037 5238 be36 c170 ecb6
000001c0: dc93 21b7 5ca9 1c37 a528 c1b6 be98 07b7
000001d0: a539 9037 1879 5b35 5259 7cb6 8a2f 3d37
000001e0: 8475 6636 68ca 8537 ee3c d5b6 909f b935
000001f0: 608e 7e36 5634 7736 034c 9f37 9c82 b837
00000200: 4896 ff35 c4da dab5 0b29 58b8 32ff 0938
00000210: 28a4 7739 b52d 9238 30ab bd38 0420 5939
00000220: 82a9 6939 6532 1d39 c979 6a39 a768 2339
00000230: 7e45 0b39 058b 2738 b72a bf39 41f1 6138
00000240: 17f9 4a39 5520 b339 ea36 9e38 15c3 b1b8
00000250: f179 d039 c7a2 3a39 ac31 f438 4b09 b4b9
00000260: 8072 b938 a90e d6b7 e5ca 7b39 dde5 0c39
00000270: de53 1a38 13b2 0bb9 7d51 3e38 f34e c9b8
00000280: 475c edb9 6fe6 ff37 bc69 2c39 4006 9439
00000290: 6e8b 0739 8eb2 b4b8 ef2c ccb8 d588 b438
000002a0: 4e0e bab8 bf02 7b38 3ca0 9ab9 433c a138
000002b0: ed36 d0b9 59de e238 1da2 0538 77bb cf38
000002c0: 6f15 4d39 fa9b 05b8 7e30 fc39 d086 fc36
000002d0: 967d 15b9 5a87 1439 06a1 8938 dd3d fcb8
000002e0: 0f2c 8d39 6bff 8d38 0917 d9b9 d561 ab38
000002f0: a168 e9b6 60c8 30b7 06db 2a37 ec9d 2437
00000300: 40bc 62b5 ce03 8137 932a b736 14c0 c234
00000310: 82c3 b337 ded5 3e37 68a3 e936 c92e 06b8
00000320: 73e6 d6b7 8c79 8f36 ed2e 8bb6 7867 a8b7
00000330: 8830 2637 1ac1 2b38 6663 2335 4622 1fb7
00000340: 5c05 0038 4d21 e7b6 a45a d437 eeba 44b7
00000350: 58d8 4db7 3539 6137 fe8e 7b36 3281 5bb6
00000360: b9a1 6937 fefd c236 5a54 ef35 c0b6 1cb8
00000370: c619 5ab7 3f84 b536 c04e 4236 8f7b 2737
00000380: 4407 8bb5 d0e5 5a37 83c1 4236 dafe 00b8
00000390: a838 a437 aec3 a335 5c7b dfb6 4035 0bb5
000003a0: 3e2a 12b8 b724 bbb7 e8b0 a4b7 d4ae 9ab6
000003b0: 4bd8 d935 30b2 7434 fd49 5e36 d2ea 2cb7
000003c0: e446 8c37 0db2 a7b7 c5b8 ca36 9275 e1b7
000003d0: d8b2 05b7 6b13 8836 45ab 74b7 2a5e 6b36
000003e0: b450 0137 92b6 a3b7 804d eeb6 56c0 6c36
000003f0: 7d9a eab6 0274 c434 87ce 3fb7 4698 2d39
2.785283e-06 -2.5309846e-06 1.7105775e-05 0.00019976633 0.00020412286 4.596613e-05 0.00043130046 0.000356628
0.00010826121 0.00026991524 0.0009197305 0.00016192575 0.00035398034 0.00057440676 0.00016901662 0.00019167644
0.00031104728 5.5359087e-05 0.00025933862 0.0007638537 0.0001213557 0.00018807399 0.0014025535 0.00014675254
0.00020574666 0.00097020523 0.00028955325 7.252496e-05 0.000525004 -6.228604e-05 -0.00018935495 0.0004492409
0.00015730063 4.5640478e-05 0.00086637575 0.00012375115 0.00015642606 0.0015111817 0.00011691304 -0.00030615128
2.8413007e-05 0.00014944166 -0.00037610953 7.466388e-05 1.6537695e-05 -0.00024050305 0.0005506853 0.000105392864
-0.0002527298 0.00093555514 0.000101981255 -0.00059904804 0.00040389778 0.00017128249 -0.0006125289 0.0001676561
0.000120508266 -0.00051011477 0.00057808217 5.833031e-05 -0.00048257437 0.00081939704 8.117302e-05 8.382402e-06
-6.1834853e-06 -3.1811896e-06 9.580123e-06 4.185978e-06 6.7200326e-06 3.6301356e-06 6.1030764e-06 8.554654e-06
6.179666e-06 1.0993179e-05 1.4606085e-05 9.669711e-06 4.1384283e-09 3.6649035e-05 3.7841783e-06 -1.4534015e-05
7.5693247e-06 -1.2255732e-06 2.5144313e-06 4.908752e-06 8.7726985e-06 1.3587528e-05 -3.428335e-07 -4.908617e-07
-6.0485663e-06 6.9949174e-06 2.8381128e-06 -2.4296512e-05 6.2233544e-06 1.5682599e-05 -1.5917933e-05 -1.1781448e-05
-1.1935941e-05 2.3687608e-07 5.385791e-06 -1.0211549e-05 -4.8574298e-06 3.8214086e-05 1.0223521e-05 -4.781891e-06
-1.5469173e-05 -3.5764297e-06 -4.579124e-07 -2.3311106e-05 8.9676405e-06 1.0526268e-05 5.668998e-06 -7.0464744e-06
-9.630774e-06 9.337757e-06 -5.75658e-06 -8.08219e-06 1.719298e-05 8.176007e-07 -3.7602917e-06 1.1276346e-05
3.4341074e-06 1.5949088e-05 -6.354988e-06 1.3830013e-06 3.7931823e-06 3.6836332e-06 1.8989673e-05 2.1995329e-05
1.9042718e-06 -1.6305935e-06 -5.1536637e-05 3.2901014e-05 0.00023616909 6.970336e-05 9.0441084e-05 0.0002070666
0.00022283758 0.0001499146 0.00022361348 0.00015583877 0.00013281961 3.9945375e-05 0.00036462184 5.3868866e-05
0.00019357014 0.0003416563 7.544256e-05 -8.4763546e-05 0.00039763705 0.00017798982 0.00011644079 -0.000343392
8.842815e-05 -2.5517615e-05 0.0002401281 0.00013437071 3.679457e-05 -0.00013322411 4.5375422e-05 -9.599132e-05
-0.00045272915 3.0505673e-05 0.00016442587 0.00028233416 0.00012926545 -8.616327e-05 -9.7358476e-05 8.608556e-05
-8.8718356e-05 5.984562e-05 -0.00029492553 7.688303e-05 -0.00039713774 0.00010817935 3.186065e-05 9.905447e-05
0.00019558308 -3.1854936e-05 0.00048101315 7.5258795e-06 -0.00014256532 0.00014164802 6.562662e-05 -0.00012027819
0.00026926442 6.770979e-05 -0.00041406628 8.172138e-05 -6.9561215e-06 -1.0537071e-05 1.0183785e-05 9.811931e-06
-8.44655e-07 1.537977e-05 5.4587813e-06 3.627507e-07 2.1429503e-05 1.1374677e-05 6.962964e-06 -3.199166e-05
-2.56181e-05 4.275882e-06 -4.1479857e-06 -2.0075342e-05 9.905671e-06 4.0949417e-05 6.0866876e-07 -9.485118e-06
3.052257e-05 -6.888213e-06 2.5314577e-05 -1.1726033e-05 -1.2269324e-05 1.3424365e-05 3.7485147e-06 -3.2708745e-06
1.3925536e-05 5.811219e-06 1.7831437e-06 -3.7363498e-05 -1.2999813e-05 5.409616e-06 2.8954091e-06 9.982744e-06
-1.0358422e-06 1.304732e-05 2.9020891e-06 -3.0754927e-05 1.9576706e-05 1.2201397e-06 -6.660279e-06 -5.1859024e-07
-3.4848454e-05 -2.2309234e-05 -1.9632702e-05 -4.6099103e-06 1.623071e-06 2.2789095e-07 3.3123645e-06 -1.0306672e-05
1.6722312e-05 -1.9990863e-05 6.041579e-06 -2.6876838e-05 -7.969058e-06 4.0553764e-06 -1.458341e-05 3.507254e-06
7.707789e-06 -1.951613e-05 -7.101975e-06 3.5278695e-06 -6.9917282e-06 3.6592252e-07 -1.1432573e-05 0.00016555292
