app/src/main/assets/models/11_to_19.tflite (tflite, 672140 bytes, 52 tensors)

model/batch_normalization/batchnorm/add_1;model/conv1d/Conv1D/Squeeze;model/batch_normalization/batchnorm/mul_1;model/conv1d/BiasAdd;model/conv1d/BiasAdd/ReadVariableOp;model/batch_normalization/batchnorm/mul;model/batch_normalization/batchnorm/sub;model/conv1d/Conv1D;model/conv1d_1/Conv1D f4 [96]
00000000: f9f8 7cbf c8e8 2dbf 55ca 7fbe fda5 4c40
00000010: 0a92 19bf 5aaa e03e d643 2bbf dbe3 83bf
00000020: adf6 fb3f 51f2 283f 60b9 bbbe b0b5 33bf
00000030: b66d 253f f701 0640 1010 b73f 86d4 73bf
00000040: f1a7 0f40 6c99 74bf 1cfd 5bbf 259a 5ebf
00000050: 0000 8d3b dfad 6c3f aba2 99bf a294 2abf
00000060: 26cd 7fbe de63 71c0 ae55 3540 7857 a03e
00000070: c569 efbf c202 003f 5be6 42be 381b abbc
00000080: 356f ca3f 4220 2040 282d 853f 4a77 0ac0
00000090: 2c86 7dbf a9e1 89be bc95 2ebf d4d7 e83b
000000a0: 3ee4 2cc0 a422 a6bf febd d2bf 7afe 99be
000000b0: 7623 73be e8d5 16bb a39f 38bf 7ae1 44bf
000000c0: cf4a 7c3e 2e99 043f ee64 bbbf 4850 cdbf
000000d0: 52bd 983e 56d1 49be 8266 b4bf 61e3 103f
000000e0: 5937 67c0 07bb bcbe 2619 ddbf 60ff 4dbe
000000f0: 2980 ba3d d114 fb3f 9883 1ac0 3ec1 0340
00000100: c3e8 f6be 7617 b0bf 63a6 243e 43e8 923e
00000110: 335b 803f d8e6 81bf 2127 9e3f 3456 bfbc
00000120: bfd9 0cbf aabd eebe ef4c dfbe a2e5 7d3e
00000130: 646a a4be 5901 d83e 244a 51bd f3cc 8b3f
00000140: 46bf cbbf 9268 823f c095 7fbf 39c9 9ebf
00000150: 9424 923e 6c0b 9abf 0496 853f a915 96bf
00000160: f766 02c0 885a 85be 008e 413a 43db 0b3f
00000170: b723 a2bf 6471 2f3f 257b 833f e812 253e
-0.988174 -0.6793332 -0.24979527 3.1976311 -0.5998846 0.43879968 -0.66900384 -1.0303911
1.9684654 0.65994745 -0.36664867 -0.7019911 0.6462053 2.09387 1.4301777 -0.9524616
2.2446253 -0.95546603 -0.8593309 -0.86953956 0.0043029785 0.92452806 -1.2002767 -0.66633046
-0.24980602 -3.7717204 2.8333545 0.31316733 -1.8704153 0.5000421 -0.19033186 -0.020887002
1.5815188 2.5019689 1.0404406 -2.1635308 -0.99032855 -0.26929978 -0.68197227 0.007105807
-2.7014308 -1.2979321 -1.6464231 -0.30076963 -0.23743996 -0.0023015682 -0.72118586 -0.7690655
0.24637912 0.51796234 -1.4640176 -1.6040125 0.2983194 -0.19708762 -1.4093783 0.5659695
-3.6127532 -0.3686144 -1.72733 -0.20116949 0.09106476 1.9615728 -2.4142818 2.0586696
-0.48224458 -1.375716 0.16079096 0.28692827 1.0027832 -1.0148573 1.2355691 -0.023356535
-0.55019754 -0.46629077 -0.43613383 0.24794629 -0.3211242 0.42188528 -0.051096097 1.092192
-1.5917747 1.0188162 -0.99837875 -1.2405158 0.28543532 -1.2034736 1.0436406 -1.172536
-2.0375345 -0.26045632 0.00073835254 0.5463144 -1.2667149 0.68532395 1.0271956 0.16120493

model/batch_normalization_1/batchnorm/add_1;model/conv1d_1/Conv1D/Squeeze;model/batch_normalization_1/batchnorm/mul_1;model/conv1d_1/BiasAdd;model/conv1d_1/BiasAdd/ReadVariableOp;model/batch_normalization_1/batchnorm/mul;model/batch_normalization_1/batchnorm/sub;model/conv1d_1/Conv1D f4 [96]
00000000: cbc5 883f f5a3 4f3e 5488 463e 6f83 fb3d
00000010: e8e2 0fbb 278c c03e e636 0f3f 8101 113e
00000020: a9f5 db3d c2e9 a6be d334 ce3c b6d0 443e
00000030: 2d2f a23e b652 b6be b436 743d e6bc c5be
00000040: 2545 8d3d 9cc9 a33e 9dcc c23d a15c dfbe
00000050: c7c9 9a3e 323c de3d b3c4 6e3e 8ea7 aa3d
00000060: 0a2d c93c bd1e 26bf 01df 123f 3f5f f23e
00000070: 042d 76be 1ff6 6c3f 7a51 ba3d 6b82 edbe
00000080: fdc7 c4be a883 433f 7d05 4abd 8039 df3b
00000090: b019 2c3e 4504 203f 4473 983c d25d 6dbe
000000a0: 4bd8 103e 4a36 8cbc d2e9 5fbe 9252 2abe
000000b0: 4a8e a53e 7649 9e3e 0a62 e83e 182d e53e
000000c0: c054 5d3d 1e37 243f e245 413e 6cd5 f13e
000000d0: 0afe 9a3e 92c4 82be b590 853e 1c10 c93e
000000e0: 296a c43d 5234 79be 7c2e 7c3f 5832 563f
000000f0: 136e 083e 58af f63e f156 02bf 05b1 493f
00000100: d1c3 833e 18d6 d7bd bd30 843e 8aa2 1b3e
00000110: 88bf 603f bf99 ffbe c144 7d3f d814 e13e
00000120: 1cdc 7bbe b807 f83d 7f06 143d 3072 bdbc
00000130: f266 b7bc 8b92 bd3e a9e2 9a3d 48fc ed3c
00000140: 4388 b23e c2da 7e3e 2a33 5b3e 52f6 86bd
00000150: 9e33 cbbe 822f babe 2686 093e fbb0 5e3e
00000160: 209f d8bb d1c2 09be cdd7 833e 4dc3 6b3f
00000170: e633 14be ab22 2f3e da36 cb3c 9f51 1d3d
1.0685362 0.20277388 0.19387943 0.12280928 -0.0021955315 0.37606928 0.55943143 0.1416073
0.10740215 -0.32600218 0.025171673 0.19220242 0.31676617 -0.35609978 0.05962248 -0.3862068
0.06897954 0.31989753 0.09511683 -0.43625358 0.3023207 0.10851325 0.23317222 0.0833274
0.02455761 -0.6489065 0.57371527 0.47338292 -0.2404061 0.9256305 0.09097572 -0.46388564
-0.3843383 0.76372766 -0.04932164 0.0068122745 0.16806674 0.62506515 0.01860965 -0.23180321
0.14145009 -0.01711573 -0.21866539 -0.1663306 0.3233512 0.3091542 0.45387298 0.44760966
0.054035902 0.641466 0.18874314 0.4723314 0.3027194 -0.25540596 0.26086965 0.39270103
0.09590561 -0.24336365 0.9850843 0.8367057 0.1332324 0.48180652 -0.5091391 0.78785735
0.25735334 -0.10538882 0.25818434 0.15198722 0.87792253 -0.49921986 0.98933035 0.43961215
-0.24595684 0.12110847 0.036139008 -0.023125738 -0.022387955 0.37025866 0.07562763 0.029050961
0.34869584 0.24888137 0.21406236 -0.065899506 -0.39687818 -0.3636437 0.1343008 0.217472
-0.006610766 -0.13453223 0.2575058 0.9209488 -0.14472923 0.17103069 0.024806429 0.038407918

model/batch_normalization/batchnorm/mul_1;model/conv1d/Conv1D/Squeeze;model/conv1d/BiasAdd;model/conv1d/BiasAdd/ReadVariableOp;model/batch_normalization/batchnorm/mul;model/conv1d/Conv1D;model/conv1d_1/Conv1D f4 [96, 1, 3, 126]
00000000: 6ba0 9e3c 700a 1abb ed93 843b ddb3 d0bd
00000010: d6a5 aebc 661d 18bc 07bf 5fbe 0d16 15bd
00000020: ea0e c33b 7e4a 103e 5421 4cbd 15b2 0a3d
00000030: e0be 4a3f 2e90 c9be 4464 443d 56a0 21bc
00000040: 7085 bcbb 9b31 5cbd a0cd 3d3e cc87 c8bd
00000050: 44dd 76bd c493 073e eb8f 163e cb66 30bd
00000060: c626 0b3e bc55 43bd c79c febc 8cd0 b93d
00000070: 71f3 513d 1f6c 4bbd 1c6d 3c3d b904 8dbc
00000080: b406 dfbd 196b aebd 25b0 abb7 e52d bebd
00000090: 5f08 413e eea2 32be 5ee4 7dbd 7620 c93c
000000a0: 0675 a4bd b0d2 06bc 60bc 1cbe c1ad cc3c
000000b0: bdc4 89bd 7dd7 36be c4f1 6d3e 95c2 47bd
000000c0: 097d 8cbc 8988 a63e e40b 03bd 3793 f8bd
000000d0: c83b 3fb9 6428 a03d 5b67 a4be 232b 213e
000000e0: d459 383d 15aa 58be ddc7 523e c4b0 763d
000000f0: a827 4abe 1a50 f0be ac6f bb3d c3d3 d7ba
00000100: d2da 0cbc 6794 5cbb f5fa cf3a abab 883c
00000110: f3ea 883c b78c 2d3c 32cf 19bb b4f6 c53b
00000120: ed4c cc3a 4280 a43b 1817 bcba a4f1 b9ba
00000130: d892 db3b 3e91 793c 79f2 203b 7f59 043a
00000140: f985 52bc bf42 6abb 1842 d6ba 1755 91bb
00000150: 2285 e63b 532b 92bb 799b a53b 284b e2ba
00000160: dbf1 eb39 3760 d0bb 6ec5 253c ec6e c739
00000170: 04c9 d03b f5e9 433c 7bb5 773b af5f a73c
00000180: d814 1d3c 5bfc ecbb 8dce 2ebc ce07 a13b
00000190: b7a8 103b 23e2 903c 6464 bdbb 09ee 87bc
000001a0: 4988 563b c545 743c d3c4 e2ba b18b cbbb
000001b0: 0cb6 003b de4a c9ba 43dc bcbc 849b b7bc
000001c0: ad6a db3c 9867 893a c08d 033c 5171 58bc
000001d0: 2c61 b4bc 2558 40bc a716 c13c 0bbc e2bb
000001e0: f9e3 64bc d99e ddb8 7879 3cba e52b cdbb
000001f0: c8fb ba3a 67df 1d3b d22d 973c 0751 7cbb
00000200: ca95 08ba 7c30 aebd cd65 f3bc db79 81bc
00000210: ee3e a4bd 2d23 a2bd 593d 8abb a09e 833e
00000220: 2138 24be fe97 a73c 9623 883f cd98 29bf
00000230: 0e4f f93c 0a89 013d 8736 4bbd f2dc 7bbd
00000240: 356b 8c3d 26c6 533c 8d53 92bd f66d 5b3e
00000250: 42dc 453d 96e6 6dbd 43cf 47be 5866 42be
00000260: 35ed 48bd 751d 6b3d c7ff 48bd 310b 72bd
00000270: d0e5 3a3e e884 a13d 2401 fcbd 77cc 30be
00000280: 6919 203e d7d1 e6bd 091a 643d 3183 8d3e
00000290: 5821 aebd 9ddd 993c e248 3dbe 30f6 86bc
000002a0: 9e71 70be b34a 31be f101 a8bd 8f31 e1bc
000002b0: 3f22 33bd 72ff 89bd 2ff4 22be 333c b03d
000002c0: 13d0 4cbd 7799 47bd d12b 93b9 2141 903d
000002d0: a4ae 9fbe 7e5e b3bd 70db d03c 90b9 e4bd
000002e0: a891 343e 6bd3 293d 86f9 58be cbee 873e
000002f0: a8c6 923d 75d4 0eb8 7f2a e8bb 1009 43bb
00000300: 2874 32bb 749b 923c 0526 b33c 3a23 513c
00000310: 135c 0f39 2baa 153c 5af2 bf3b 3ea2 853b
00000320: e36c c43b f5fb 97ba cdc3 603b 2a97 983c
00000330: 65f5 c0b8 5524 a23a 2b42 59bc 8e02 56bb
00000340: 0f8a bd3a e429 bcbb 88ec 403b 0c7e c8bb
00000350: d81c 81ba c945 4abb cbd3 f2ba c656 16bc
00000360: c57d db3b 90ec 30ba fa45 6f3a 5ad6 1e3c
00000370: d50a 673b 47f9 c53c ceb6 ed3b 1e12 17bc
00000380: e7cb 37bc 13d8 78ba 9e8c a93b 2aec 893c
00000390: 9b1c a1bb 9e0c 70bc a832 5a3b ed0f a33c
000003a0: a71a 603a 0ff8 97bb b483 eeb9 63b0 c03a
000003b0: 7c1b dbbc 8416 d9bc caf7 b33c ddca 583a
000003c0: a3c3 323c a6d6 f6bb a60f b1bc 5d29 6cbc
000003d0: fe09 ad3c 3663 17bc 0efd 6ebc c049 cd3a
000003e0: 5895 1fba 9ea3 03bc 931c 0db8 31ac a73b
000003f0: 0e3b 983c 1353 b73a a8b9 2ebb b961 bcbd
0.019363603 -0.0023504756 0.0040459544 -0.10190556 -0.021319311 -0.009284353 -0.21850215 -0.036397982
0.0059527056 0.14090917 -0.04983647 0.03386124 0.791975 -0.39367813 0.047947183 -0.009864887
-0.0057532117 -0.053758245 0.18535471 -0.09791526 -0.06026961 0.13239962 0.14703338 -0.04306678
0.1358901 -0.047689185 -0.031080617 0.0907298 0.051257554 -0.04966366 0.046002492 -0.017214166
-0.108899504 -0.08516521 -2.0466812e-05 -0.092860974 0.1885085 -0.17444965 -0.061985366 0.024551611
-0.08030133 -0.008228943 -0.15306234 0.024985196 -0.06726978 -0.1785564 0.23236758 -0.048769552
-0.017149465 0.32526043 -0.03199376 -0.12137454 -0.0001823745 0.07820204 -0.32110104 0.15739112
0.04500754 -0.21158631 0.20584054 0.06022717 -0.1974169 -0.46936113 0.09152159 -0.0016466308
-0.008597093 -0.003365779 0.0015867638 0.01668342 0.016713595 0.010592631 -0.0023469445 0.006041372
0.001558689 0.0050201723 -0.0014350144 -0.0014186394 0.0067008547 0.015232382 0.0024558587 0.00050487363
-0.012849324 -0.003574535 -0.0016346602 -0.0044351923 0.0070349136 -0.004460731 0.005053934 -0.001726483
0.0004500289 -0.006359126 0.010117872 0.0003803888 0.006371619 0.011957635 0.003779738 0.020431368
0.009587489 -0.0072322316 -0.010669363 0.0049142605 0.0022073218 0.017685955 -0.0057797898 -0.016592996
0.003273504 0.0149092125 -0.001730109 -0.006211721 0.0019639758 -0.0015357395 -0.023054248 -0.022413023
0.026784265 0.0010483144 0.008029401 -0.0132106105 -0.022018991 -0.011739765 0.023570372 -0.006919389
-0.013970369 -0.00010567689 -0.0007189731 -0.006261336 0.001426571 0.0024089457 0.018454466 -0.0038500444
-0.00052103086 -0.085053414 -0.029711628 -0.015805176 -0.080198154 -0.079168655 -0.004218739 0.2570696
-0.16037036 0.020458218 1.063586 -0.6624878 0.030433204 0.03162483 -0.04961255 -0.061490007
0.068563856 0.01292566 -0.07144842 0.21428666 0.048305757 -0.058081232 -0.19512658 -0.18984354
-0.049054343 0.05740114 -0.049072053 -0.059092704 0.18251729 0.07886678 -0.12304905 -0.17265497
0.15634693 -0.112704925 0.05568889 0.27639154 -0.085024536 0.018782431 -0.18484834 -0.016474813
-0.23480842 -0.17313652 -0.08203495 -0.027489452 -0.04373383 -0.067381755 -0.15913461 0.08605232
-0.050003123 -0.04873034 -0.0002807067 0.07043672 -0.31187928 -0.08758257 0.025495261 -0.11168206
0.17633688 0.04146139 -0.21188936 0.26549372 0.07166797 -3.4053304e-05 -0.007085144 -0.002976004
-0.002722988 0.017896391 0.021868715 0.012764746 0.00013671843 0.0091348095 0.005857748 0.0040781787
0.0059944256 -0.0011595475 0.0034296394 0.018626768 -9.200982e-05 0.0012370447 -0.013260405 -0.0032655331
0.00144607 -0.0057422984 0.0029437859 -0.0061185416 -0.0009850515 -0.003086435 -0.0018526254 -0.009175962
0.0066983425 -0.0006749118 0.0009127554 0.00969466 0.003525426 0.024166716 0.007254458 -0.009220628
-0.011218048 -0.0009492647 0.0051742336 0.016836245 -0.00491674 -0.014651446 0.0033294354 0.019905055
0.00085488934 -0.004637725 -0.00045493024 0.0014701005 -0.026746504 -0.026499994 0.021968741 0.0008269975
0.010910901 -0.0075329123 -0.021613907 -0.014414159 0.021122929 -0.009239962 -0.0145867 0.0015662238
-0.00060876226 -0.008034615 -3.364363e-05 0.0051169624 0.018582847 0.001398655 -0.0026660953 -0.091983266

model/batch_normalization_1/batchnorm/mul_1;model/conv1d_1/Conv1D/Squeeze;model/conv1d_1/BiasAdd;model/conv1d_1/BiasAdd/ReadVariableOp;model/batch_normalization_1/batchnorm/mul;model/conv1d_1/Conv1D f4 [96, 1, 3, 96]
00000000: 39ec 98bd 1d13 e03c 31d0 8bbd a40d 6abd
00000010: f361 843d 8a78 90bd a520 d3bd e270 1ebd
00000020: bf63 d43d c2e0 b2bd a1ec 513c bc21 9e3c
00000030: 7781 f7bb 1d2b 0abd d986 293d 4ebc 93bd
00000040: 2b5e afbc 8ef7 b0bd 37c7 cebc cd12 5c3d
00000050: 1c1c 2b3c 4a85 453c 5450 b4bd 6f96 d2bd
00000060: ef15 a6bd 4cc9 403c 86ff 793d 03c3 9cbd
00000070: 6767 c5bb fe35 dcbd ae32 c3bd 79fc 10bd
00000080: 43a3 7bbd 0d0e 35bd 6441 773d e286 09bd
00000090: 2475 13bd 4c8a e33d eeeb ad3d f67e 0dbd
000000a0: 2098 87ba 1483 70bd 1509 debb d59d d13d
000000b0: e817 743d 1ef0 c6bc ed84 a0bc 9d4b ba3c
000000c0: 660d 94bc 4eab 18bc 8f98 7d3d b70a 693c
000000d0: 0e02 acbd adfc af3c 197b 09bc 91f3 f3bd
000000e0: 7418 963a 7067 56bc 5f25 473d 3c98 453d
000000f0: 1e4b ad3d dc70 d1bd 9549 4bbc 0238 1dbd
00000100: 7442 90bc 4454 c6bc 93a9 1ebb 9721 06bd
00000110: 78ae 41bc 83ab 8f3c 8df5 3fbd 4573 02bd
00000120: a369 03bd be27 a5bd e382 2c3c 7f42 4c3c
00000130: c97c 5a3d aa14 f83c 0ceb 2bbd d440 763c
00000140: 179e 89bc 421f 663d c946 203d 6e39 b73c
00000150: 52a4 10bd 47cf babb ec86 ed3c e321 00bd
00000160: 7c16 0ebd cc54 fdbb 2678 32bd 415d e0bc
00000170: f6b4 8abb df84 01bd 74d7 b1bc 1934 55bd
00000180: f4d6 93bd 40ac be3c 4b5c aabd 1418 7abc
00000190: 5543 853d d1e3 38bd 7dc7 cebd a664 c9b8
000001a0: dfab a13c cbbe 8dbd 5712 bb3c 8a8f 803d
000001b0: 3f9e 11bd 7589 4ebd 36c4 b63b 8f3e a8bd
000001c0: 7a7e 8cbd 2d01 d0bd 393a 08bc 8426 663d
000001d0: a2ad 373d 37ce cdbc 7d2c 3bbd eca3 a7bd
000001e0: cdcc babd 861a 90bc db7a 74bd 8d65 83bd
000001f0: aa91 763b f2ce dbbd 873a 80bd 3af1 cbbc
00000200: 3d8f 78bd 6257 76bd 2597 5e3d fab7 79bc
00000210: cbff 61bd b1e7 7d3d 402c 033d 18e1 0fbd
00000220: fee3 eeba 974d a1bd b758 92bb 4993 b53d
00000230: 49d4 573d 5800 c7bd fc11 83bc d46b 993c
00000240: 755d 803c 0c96 56bd 42be 6e3d 06e6 14bd
00000250: ebcb 97bd 795f 2ebc c2b1 2e3c 6992 69bd
00000260: 5c9a 343d b631 69bc d1ab 833d 6660 af3c
00000270: 0da8 923d 9242 f0bd 7fd7 2abd 7ca0 0cbb
00000280: ef0a 0c3b aaa0 6fbd bef2 84bc 6d14 023d
00000290: ee79 1bbc d23f ea3c 4dc7 bfbc cbdf cfbc
000002a0: 7eb1 903d 723f b9bd e0be f93b af5d 6a3a
000002b0: 00b4 16b9 5d38 923d 7ac3 3cbd dedb 1ebd
000002c0: 6d9d f5bb a4b9 163d 8cd3 36bd c7cb 42bd
000002d0: dff3 59bc 9066 4a3c 3fab 1939 5a79 90ba
000002e0: 2d9c b13d 79c1 4dbc 5ec5 6bbd 7099 ca3b
000002f0: a32b 1dbd da35 04bd e607 84bd c954 82bd
00000300: 5b03 18bd 8daa e63d c35d 0ebd bfd1 16bc
00000310: cbf5 9a3d 5606 88bd 62d5 93bd a2b6 96bc
00000320: cffd cdbc ebd1 93bd d8bf 4abc 2f2f 273d
00000330: 238b d5bc 677a 0fbd d6d3 253d 857c 5ebd
00000340: 11e2 f0bc 78a2 d7ba 69f6 183d 9b52 68bc
00000350: 6a35 8ebb f684 983c 8146 b8bd 35e5 b9bd
00000360: 0755 97bd 094f 293c 18cf 333d bd69 95bd
00000370: 83fd 5cbc 06e4 87bd a380 a3bd f0b0 93bd
00000380: 99e0 9cbd 7039 4cbd 2583 fb37 98fa 81bc
00000390: 0d12 43bd 2356 3e3d 458d 293d f1f0 07bd
000003a0: 5761 1e3c 4e6b a2bc bce2 1fbd da10 9b3d
000003b0: 5d78 f33a 98a0 89bd 2c52 a1bc 76e2 2e3d
000003c0: 30a3 a93c f518 973c 41e4 813d 4abc ee3b
000003d0: f483 93bd 8542 3b3c 0c8f aaba 690c 8ebd
000003e0: 5853 163d ab7d d13c fb3e ca3b dd66 483c
000003f0: 7c3f b03d 556d cdbd 59c8 5fbc ca5a 8dbc
-0.07466931 0.027352864 -0.06826819 -0.057141915 0.06463995 -0.07054241 -0.10308961 -0.038681872
0.103705876 -0.087342754 0.012812764 0.019303195 -0.007553275 -0.033732522 0.041388366 -0.07213651
-0.021407207 -0.08640967 -0.025241477 0.053728867 0.0104437135 0.012055704 -0.08804384 -0.10282599
-0.08109652 0.011766743 0.0610347 -0.07654383 -0.0060242894 -0.10752486 -0.09531151 -0.035397027
-0.061434995 -0.044202853 0.060365096 -0.0335759 -0.036000386 0.111103624 0.08492266 -0.034544908
-0.0010345019 -0.058718756 -0.006775985 0.10235182 0.05959311 -0.024284419 -0.019594634 0.022741133
-0.018072795 -0.009318186 0.06191307 0.014223746 -0.083988294 0.02148279 -0.008391165 -0.11911691
0.0011451379 -0.013086185 0.048619624 0.048240885 0.08461593 -0.10226604 -0.01240768 -0.03838349
-0.017609812 -0.024210103 -0.002420996 -0.032746878 -0.011821382 0.017537838 -0.046865035 -0.03184821
-0.032083165 -0.08064221 0.010529253 0.012467026 0.05334166 0.03028329 -0.041972205 0.015030105
-0.016799016 0.056182154 0.039130006 0.022366252 -0.035312958 -0.005700979 0.028995 -0.031282317
-0.03468941 -0.007731056 -0.043571614 -0.027388217 -0.004232998 -0.031620856 -0.021709181 -0.052051637
-0.072187334 0.023275495 -0.08318385 -0.01526453 0.06506983 -0.045139138 -0.10096643 -9.603174e-05
0.019735275 -0.069211565 0.022835894 0.06277378 -0.035551306 -0.050424058 0.0055775894 -0.08215057
-0.06860061 -0.10156474 -0.008314663 0.056189075 0.044843324 -0.025122745 -0.045696724 -0.081855625
-0.09121094 -0.017590772 -0.059687477 -0.06415854 0.0037623444 -0.10732831 -0.06261163 -0.0248953
-0.060683478 -0.06014193 0.05434336 -0.015241617 -0.055175584 0.061988536 0.032024622 -0.035126776
-0.0018225906 -0.07876127 -0.004466142 0.08865983 0.052692685 -0.097168624 -0.015999787 0.018728174
0.015669564 -0.05238919 0.058286913 -0.03635218 -0.07411941 -0.01064288 0.010662498 -0.057024393
0.04409252 -0.014233043 0.06429256 0.021408271 0.071609594 -0.11731447 -0.04170942 -0.002145796
0.0021368822 -0.05850283 -0.01622903 0.03175776 -0.0094895195 0.028594885 -0.023410464 -0.025375267
0.07065104 -0.09045304 0.007621631 0.00089403515 -0.0001437217 0.07139657 -0.04608486 -0.0387839
-0.0074955733 0.036798134 -0.04463534 -0.04755762 -0.013302772 0.012353554 0.00014655011 -0.0011022494
0.08672366 -0.0125583345 -0.05756127 0.006182842 -0.038371693 -0.03227792 -0.06446819 -0.06363828
-0.037112575 0.11262999 -0.034757387 -0.009205281 0.075664125 -0.066418335 -0.07218434 -0.018397633
-0.02514544 -0.07217773 -0.012374841 0.040816482 -0.026067322 -0.03502884 0.040485226 -0.05431797
-0.029404672 -0.0016451618 0.03734437 -0.014179851 -0.0043398635 0.018618088 -0.089978226 -0.09076921
-0.073892646 0.010333785 0.043898672 -0.072955586 -0.013488176 -0.06635289 -0.0798352 -0.072114825
-0.07660026 -0.049859464 2.99826e-05 -0.015866563 -0.047624636 0.046468865 0.04139449 -0.033188764
0.009666762 -0.019826557 -0.03903459 0.075715736 0.00185753 -0.06720084 -0.019692503 0.04269644
0.020707697 0.018444518 0.06342364 0.0072856294 -0.072029024 0.011429434 -0.0013012602 -0.06935961
0.036700577 0.025572618 0.0061720586 0.012231556 0.08605859 -0.10030619 -0.013658606 -0.017255206

model/gru/gru_cell/strided_slice_4 f4 [96]
00000000: 210d 64bc 564b 473c bea1 54bc 3996 413b
00000010: 309d 42bc e2fd 253d 42bd 853d 7087 be3b
00000020: 03e9 7f3a c2d1 223d fdb1 b2bc 1d3a 9c3c
00000030: daf3 cd3b 070e adbc 811a ce3b 4415 853c
00000040: d0ee 0dbd fe7a 0d3d 8984 16b9 827e e53c
00000050: c298 753c 2250 b1bb aaca bd3c d121 38bc
00000060: b723 143d 9966 eebc 1e88 8439 003a 2b3c
00000070: 5a66 173d 7065 a7bb 0227 ff3c 3349 77bb
00000080: 0cea 913c 6ef8 333d 6a42 dc3a 6e1d ef3b
00000090: 3a7a d4bb 6448 343d 5bd2 b53c 334b aa3c
000000a0: 6746 a43b a1d8 953b 8897 6e3b dc37 c3bb
000000b0: 2ca5 2cbc 5db0 7c3c 3efb 4a3c 3f73 75bc
000000c0: a28e bb3c 5fb4 213d 97f5 fabc a240 0d3d
000000d0: 885f 78bc eadf 0c3d 83f0 b0bc b783 4e3d
000000e0: 9958 b2bc 65ae 2abc 0db7 19bc a35f fd3c
000000f0: ee6c aebc a0d6 4e3c 4680 933b 9cb8 213c
00000100: 5257 6d3c b3ba 113c 2f87 aabb 87db 3e3c
00000110: 0ef4 9d3b d18e 533d 2fa2 af3d b9f2 4c3d
00000120: 219f 80bc 4f70 a63b af71 143d dfaa e53b
00000130: 3336 8b3b 7065 413d 7f60 6abc 4ec2 41bd
00000140: f6d0 08bd b8e8 0d3d 03c8 633c a877 59bc
00000150: 6ec6 fcbb 2fc2 dbbc c14d 2fbd c00e 293d
00000160: 2b78 2d3d aae0 e4bb 9353 1ebc 083a 7f3c
00000170: d729 66bc dbec 0cbc 5072 7a3d c148 523c
-0.013919146 0.012163958 -0.0129780155 0.0029539003 -0.011878297 0.040525325 0.06530239 0.0058144853
0.00097621995 0.039750822 -0.021813387 0.01907068 0.006285173 -0.021124853 0.0062897806 0.016245492
-0.034651577 0.034541123 -0.00014354488 0.028014425 0.014990034 -0.005411164 0.023167927 -0.011238531
0.036166873 -0.029101657 0.00025278417 0.01045084 0.036962844 -0.005108528 0.03114653 -0.003773284
0.017811798 0.043938093 0.0016804461 0.0072972095 -0.006484297 0.04401435 0.022195032 0.02078781
0.0050132754 0.0045729433 0.0036406238 -0.0059575867 -0.010537427 0.015422908 0.012389002 -0.01498109
0.022895161 0.039478656 -0.030634684 0.034485467 -0.015159495 0.03439323 -0.02159906 0.05041858
-0.021770762 -0.010417555 -0.009382022 0.030929392 -0.021292176 0.012624413 0.0045013754 0.009870674
0.014486151 0.00889461 -0.0052041034 0.011649019 0.0048203534 0.051649872 0.08575856 0.050036166
-0.015700879 0.005079306 0.03624123 0.007008895 0.0042484044 0.04721588 -0.014305233 -0.047304444
-0.033402406 0.034645766 0.013902667 -0.013273157 -0.0077140843 -0.026825992 -0.04279876 0.041273832
0.04235093 -0.00698479 -0.00966348 0.015577801 -0.014048061 -0.008601393 0.061144173 0.012834729

model/gru/gru_cell/strided_slice_3 f4 [96]
00000000: 0858 0f3d 0ffd fd3c 97c6 083d 38e8 ba3c
00000010: da02 9e3c cd07 083e 3f1f cc3d f325 133d
00000020: 6750 293d 33ea 093e b391 583d 5b04 e23c
00000030: aa20 ce3b e120 0b3d effa a1bb 8527 2b3c
00000040: 9474 b9b9 f3a0 c03d a1b4 e33a 6f8a f93c
00000050: 4392 41bc ee5e 833d 73c4 403d 7f61 9f3c
00000060: b902 c33c 8143 1b3d cec0 323d 0495 ae3c
00000070: 7b53 e03d 29f7 183d a3f1 e23c 7472 793d
00000080: aa16 b93b 7e8d 603d d51f f63c 37e4 de3c
00000090: da09 413d f883 983d beab a03d 1c70 c33c
000000a0: 0d44 4b3c 3211 443d 1195 003d dab0 433c
000000b0: 882c 503d b94a 48b8 ea03 d33c badc ff3c
000000c0: 5813 113d 8342 5d3d 3179 c13c 5cb2 8d3d
000000d0: 24ef 143d 02a1 8e3c 5d43 c53c 1843 a83d
000000e0: 6bc5 043c bb2a cc3c 46ce 843c a1a1 b63c
000000f0: bb44 1c3c b120 8a3c f5ea 8c3c 86f8 be3d
00000100: fde7 c53c 77d9 b43d 91cd 8f3d 13cd a63c
00000110: abca c63d 2c78 283d 619a 403d ec32 ad3d
00000120: 68ab d93c e5e4 3b3c 62f0 343e 166c 583d
00000130: 4068 463d f815 783d 0ea3 a83d 98cb 343d
00000140: 6954 003d 0b5b 733d 3190 613d b822 653d
00000150: 4b1d 13bc 7721 06bc 9e7c 0e3d 5ae8 5a3d
00000160: 7b04 653d 88cc af3c 9c33 a83c ce53 793d
00000170: 5f0f 603c 4ed1 5dbc c512 f83c a04a e93c
0.034996063 0.031004457 0.033392515 0.022815809 0.01928847 0.13284226 0.09966897 0.035924863
0.041336443 0.13468246 0.052873325 0.027589967 0.006290515 0.033966903 -0.0049432437 0.010446434
-0.00035372807 0.094056986 0.0017372557 0.030461518 -0.011814657 0.06414591 0.04706235 0.01945567
0.02380501 0.037906174 0.043640904 0.02131129 0.10953423 0.037345085 0.027703112 0.060900167
0.0056484537 0.054822437 0.030044476 0.02720843 0.047128536 0.07447046 0.07845257 0.023857169
0.012406361 0.04786796 0.03139216 0.01194402 0.05082372 -4.7753307e-05 0.025758702 0.03123318
0.03541884 0.05401851 0.023617359 0.06918785 0.036360875 0.017410759 0.024079973 0.08215922
0.008103709 0.02492272 0.01621164 0.022293868 0.009537871 0.016861292 0.01720188 0.09324746
0.024158472 0.088305406 0.070216306 0.020361459 0.097066246 0.04113023 0.047022227 0.08456978
0.02657099 0.011468147 0.17669824 0.052837454 0.048439264 0.060567826 0.08234225 0.044139475
0.0313305 0.059412997 0.055069152 0.055941314 -0.008979152 -0.00818669 0.034786813 0.053444244
0.055912476 0.021459833 0.020532422 0.060870938 0.01367554 -0.013538672 0.030282388 0.028477967

model/gru/gru_cell/strided_slice_5 f4 [96]
00000000: ba8c 783a bd2c 1abd 484b 833b 1a37 17bd
00000010: 82da c1bc a937 563c 5dd7 2c3d 6921 9bbb
00000020: 5730 493b a5ac 6abc 4867 5d3c 1f9f e43b
00000030: 1b02 d23b 62d9 45bd 9c10 c23c b2ed 5c3b
00000040: 942e 813c 6dce 3d3c ce4c 4bbc 9fb4 90ba
00000050: 2c26 2a3b d611 cf3b af87 943c 2bee 95bb
00000060: 0032 0a39 eec0 0b3c 247b b5b9 d310 643b
00000070: f0de b5bc 8f57 8cbb cbc8 a03c 662e 0c3c
00000080: ee51 e0bb 1759 7a3b f460 373c 6bee 4c3c
00000090: 5303 74bc af50 53bb a56b a8ba 0dee 8cbc
000000a0: 05f4 18bc c223 0dba 9541 99bc ae75 043b
000000b0: fcfc 37bb afc1 0c3b 7010 853c 4a62 683c
000000c0: 9ea0 fe3a e5cb 30bc 7a15 80bc a578 aebb
000000d0: 161d 6bbc 493d afb9 2295 bc3b 6850 13b7
000000e0: 4785 9c3c d553 46bb e4ee 703c e291 7b3c
000000f0: 2647 42b9 0c3e a63a 9e6e 1abb 0b08 0f3c
00000100: adce adb9 a613 8c3b e560 0bbc 57c8 7bbc
00000110: 8d18 6f3c 3170 b43b b4cc 43bb 50d2 3cb9
00000120: 99ad ecbb ba25 bb3c ba44 b73b 2351 50bb
00000130: f6ca 0bbc c69d 8a3b 5290 6a3c c7a6 adbc
00000140: c00f 763c bf0d 9c3c c513 dabc 89dd 08bc
00000150: 0cb3 713c 8c75 cf3b 431a 95bc 0888 2d3c
00000160: c3ef 43bc c818 583c 906d f0bc 6973 9abc
00000170: 159b 08bc 5fda f33b 6734 d83b 41f8 2d3c
0.0009481419 -0.037640322 0.004006777 -0.036917783 -0.023663763 0.013074794 0.042197574 -0.0047342074
0.0030698979 -0.014323388 0.013513394 0.0069769765 0.0064089424 -0.048303016 0.02368956 0.0033711013
0.01576928 0.01158486 -0.012408448 -0.0011040157 0.0025962694 0.006319265 0.018131105 -0.004575511
0.00013179332 0.008529885 -0.00034614757 0.0034800067 -0.022201031 -0.0042828987 0.019626996 0.008555984
-0.0068457043 0.0038200074 0.011192549 0.012508015 -0.014893371 -0.0032244136 -0.0012849463 -0.017203355
-0.009335523 -0.00053840515 -0.01870803 0.0020211744 -0.0028074374 0.002147775 0.01624319 0.01418359
0.001942653 -0.0107908 -0.01563524 -0.0053244405 -0.014350196 -0.00033424262 0.0057550827 -8.780604e-06
0.01910652 -0.003026237 0.014705393 0.015354605 -0.00018527787 0.0012683286 -0.0023564468 0.008729945
-0.00033151117 0.004274803 -0.008506988 -0.015367589 0.014593256 0.0055065383 -0.0029876651 -0.00018007425
-0.007222843 0.022845138 0.0055929096 -0.0031786643 -0.008532276 0.004230234 0.014316635 -0.02119769
0.0150184035 0.019049523 -0.026620755 -0.008353599 0.014752161 0.0063311514 -0.018201 0.010591514
-0.011959019 0.013189502 -0.029349118 -0.01885386 -0.008337756 0.0074418033 0.0065980437 0.01061827

model/gru/gru_cell/strided_slice_11 f4 [96]
00000000: 0b01 c53a e603 eabc 0acc afba 3f80 21bd
00000010: bb70 59bc 443a 173c 2da2 343d 8a7f 7cbc
00000020: 49fc 0bbc cdd5 f7bc 4dea 5a3b 07d1 d5bb
00000030: 8b40 283c 9097 52bd 249c 233c d4f7 b13a
00000040: f4ee 6c3c ea97 173c acdb 3bbc 92da 30bb
00000050: 0cbb 7a3b ff13 0a3b c7bd bf3c d2c8 c73b
00000060: d657 4a3c e8e8 fe3c eac7 0ebc ce66 76ba
00000070: e830 10bd 89df 1abb 2c5c de3c a225 853b
00000080: e813 963b 9041 e4ba dd46 003c 951c 003c
00000090: cc01 b6bb 9044 bbbb 3a1b 31bc 551c 75bc
000000a0: 7e38 febb 6564 0ebc 0b06 15bc a134 d73a
000000b0: 0904 283c 6877 d13b cb63 b33c fd41 bf3c
000000c0: c801 1d3c 1bf3 1dbc a9de c3bb 37f1 27bc
000000d0: b530 f5bc 53f4 e7bb 766f ea3b e366 30ba
000000e0: f9ea e93a 75b6 51bb 88f5 2a3c 0641 143c
000000f0: 61a9 5dbb dfb0 043c 119b 29bc c3df 18bc
00000100: 74d8 3bbc d313 07bb 0b7b a8bc 0bce a23b
00000110: 18ae 283d 1a8e 143b c9c5 c7bb 4839 003c
00000120: 1d0c 86bb 60e7 eb3c 7b0c d83b d80d ba3a
00000130: e801 6fb8 22ed 4b3c 8095 ba3b 2699 b9bb
00000140: 9a0e 363c feed 9e3c 0f4c d7bc 3251 7d3b
00000150: 4e50 433c 5f8b ccbb 4e73 7dbc 1ab8 313b
00000160: c39b d6bc 8203 1c3c 0769 97bc 1fec 9ebc
00000170: 1933 c9bb 046b 303c 439f 1a3c 88ca 06bb
0.0015030218 -0.028566312 -0.0013412249 -0.039428946 -0.013271506 0.0092302 0.044099975 -0.015411267
-0.008544036 -0.030253315 0.0033403814 -0.006525162 0.0102692945 -0.051414073 0.009985957 0.0013577887
0.014461268 0.009252528 -0.011465948 -0.0026985747 0.0038258461 0.0021069048 0.023405923 0.0060969377
0.012350043 0.031116918 -0.008714655 -0.00093994744 -0.03520289 -0.0023631772 0.02714356 0.004063324
0.0045800097 -0.0017414559 0.007829395 0.0078193145 -0.0055544134 -0.0057149604 -0.010809714 -0.014960368
-0.0077581992 -0.008690928 -0.009095679 0.0016418883 0.010254868 0.006392408 0.021898171 0.023346895
0.009582944 -0.00964048 -0.005977471 -0.010250381 -0.029930452 -0.0070786863 0.0071544005 -0.00067291985
0.0017846517 -0.0031999622 0.010434516 0.009048706 -0.0033822882 0.00809881 -0.010351912 -0.009330693
-0.011465181 -0.0020611181 -0.020566484 0.00496841 0.041181654 0.0022667707 -0.006096576 0.007826157
-0.0040907995 0.028796852 0.0065932847 0.00141948 -5.6983816e-05 0.012446674 0.0056940913 -0.0056640087
0.01111188 0.019400593 -0.026281385 0.0038653133 0.011921002 -0.0062422003 -0.015469385 0.002711779
-0.02619732 0.009522321 -0.018482698 -0.0193997 -0.0061401245 0.010767702 0.009437385 -0.0020567495

model/gru_1/gru_cell/strided_slice_4 f4 [48]
00000000: 394b 44bc 32f4 a7bc 7fb4 093d e95f 153d
00000010: 8b2c f33c 0c16 8cbc 53ad 693d 9d53 923c
00000020: 31b8 813d 92e7 5f3c 48b2 803d 88fc 4e3d
00000030: b443 adbc cce1 9d3d b6fb 7abc 0459 253c
00000040: 77d7 29bc 31eb 943d 5af8 e73b eb94 ba3d
00000050: 36bd 823d d58d 93bc 059e 923c 726d bf3c
00000060: 1600 2f3d cc8b 413c 935c 8c3b 0c9b 813d
00000070: ded8 383d 14d8 8fbc 989d aa3d eae2 f33a
00000080: 8980 503d cd2e 273d 0cf3 843d a227 ec3b
00000090: e9aa b73b 0bf0 84bc 5f67 c83c c20f 1a3d
000000a0: 75f7 503d 5039 f33a dbe4 57bd bc87 c43c
000000b0: e13b 333c 0a5b c83d 2e4a bf3d 8622 fcb9
-0.011980825 -0.020502184 0.0336194 0.03646842 0.029684326 -0.017100357 0.05705006 0.017862136
0.0633396 0.0136660505 0.062840044 0.0505338 -0.021150447 0.07709083 -0.015318802 0.010092024
-0.010366312 0.07271422 0.0070791664 0.09110435 0.06383745 -0.018011967 0.017897615 0.023367617
0.04272469 0.011813115 0.0042834966 0.06328401 0.045128696 -0.017559089 0.0833084 0.0018607054
0.05090383 0.040816117 0.0649167 0.007206873 0.005605091 -0.016227743 0.024463354 0.037612684
0.051017243 0.0018556509 -0.052708488 0.023990504 0.010939569 0.09782989 0.093403205 -0.00048090908

model/gru_1/gru_cell/strided_slice_3 f4 [48]
00000000: 0404 673d 864d de3d f7a0 bd3c 5463 9d3c
00000010: d4e9 d93c 18c7 593d 9227 683c 8982 563c
00000020: 57f8 c33c 8bb3 133e 86b2 cdbb cd8b 33bc
00000030: c09a 0a3d 6415 b83c dcc2 bc3c 3458 2e3c
00000040: edb5 78bc 41ab 7f3c b5aa 763d f41e 413c
00000050: 880b d63c 032d 683d bc42 533c e563 553d
00000060: 7ec6 a937 84b7 3d3d de32 1a3d 4e1f e23c
00000070: 9bf1 213c 6f23 ba3c 7903 6f3c 2b9f 523d
00000080: 8f71 ed3c 566b 3e3d e250 18bc 8723 2ebb
00000090: e039 7b3c e325 383c af4d 883c bcea 1a3d
000000a0: 1286 49bb 23bd 343c 7011 d03b f08a a93b
000000b0: 3b49 bb3c 96c9 b53c c04c 943c 4736 d23a
0.056400314 0.1085463 0.023148043 0.019212402 0.026600756 0.053168386 0.014169591 0.013092645
0.023922129 0.14423959 -0.006277385 -0.010958624 0.033838987 0.022471137 0.023042135 0.010641146
-0.015180093 0.015604795 0.060221393 0.011787165 0.026128545 0.05668355 0.012894329 0.05209722
2.02388e-05 0.046317592 0.037646167 0.027602818 0.009884263 0.022721974 0.01458823 0.051421326
0.028984813 0.046489082 -0.009296628 -0.002657147 0.015333623 0.011239502 0.016638605 0.037821516
-0.0030750078 0.011031422 0.006349735 0.0051740333 0.022862067 0.02219085 0.018103004 0.0016037904

model/gru_1/gru_cell/strided_slice_5 f4 [48]
00000000: eef9 ae3d e6bc 103d 47ad 413d e080 d1bd
00000010: 4b17 75bd 45ac 51bd dfc4 b0bd c193 543d
00000020: 392e 7abd 1ea3 2cbd 0ae5 afbd fdef 2e3d
00000030: b52a 66bd 41d4 71bd db7f 63bd 946b 67bd
00000040: d9f5 a4bd 190f 43bd c9b5 5c3d bfae d03d
00000050: 9e49 af3d 0cc5 ed3c eb44 563d 6167 933d
00000060: 0bc0 20bd c02e 553d ec89 5a3d 83ce c7bd
00000070: 6f34 0d3d 77f2 19bd 173a de3d f418 88bc
00000080: b249 c03d 8d59 22bd 64e3 733d a243 663d
00000090: e55c c03d 17af 6abd a895 89bd a6e5 d5bd
000000a0: 8382 8cbd a57e 713d 710e febc 7be6 9dbd
000000b0: de7b a5bd 66c5 f8bd a6a4 c23d 0a4b 36bd
0.08543764 0.035336398 0.04728439 -0.10229659 -0.059836667 -0.05118968 -0.086313 0.05189872
-0.061079238 -0.04214775 -0.085886076 0.04270934 -0.056193072 -0.05904031 -0.055541854 -0.05649908
-0.08054704 -0.04762182 0.0538843 0.1018958 0.08558963 0.029024623 0.05231182 0.07197452
-0.039245646 0.052046537 0.05335419 -0.09756186 0.034473833 -0.037584748 0.108509235 -0.016613461
0.09389056 -0.039636184 0.05954303 0.056216843 0.09392718 -0.057295885 -0.06717998 -0.104441926
-0.06860831 0.05895867 -0.031012746 -0.07709976 -0.080802664 -0.12147026 0.095040604 -0.044505157

model/gru_1/gru_cell/strided_slice_11 f4 [48]
00000000: a2df 723d 2600 e43c b16c 1e3d ad23 cdbd
00000010: 0aac 34bd 8f59 28bd fcf5 8fbd 165e 653d
00000020: ffe2 70bd 92a9 ffbc 54f0 77bd 31b9 3c3d
00000030: 42d2 59bd aa9e ddbc b23f 22bd 0262 f9bc
00000040: 83fe 90bd c970 03bd 211b 193d 6b8b c43d
00000050: a3ff 843d 5c14 a23b 3bd3 173d 9eb2 8b3d
00000060: 421d afbc 02a9 ba3c eb92 693d 7279 a2bd
00000070: e665 783c 7bf4 88bc 5865 b53d 686a d5bc
00000080: a5b8 9f3d aa9e 06bd a25c 243d b29f 843d
00000090: 6c1f 633d 2d80 49bd b49e 7ebd 8b49 93bd
000000a0: 5cd6 59bd 4c5d 163d 7766 74bc 3bf2 97bd
000000b0: 1aaf 97bd a7cf bdbd b06b c03d c2c9 10bd
0.059295304 0.027832102 0.038677875 -0.1001657 -0.04410938 -0.041101035 -0.0702934 0.05599793
-0.05881023 -0.031208787 -0.06053193 0.04607505 -0.053179033 -0.027053196 -0.039611526 -0.030442242
-0.07079794 -0.032089982 0.037379388 0.09596904 0.06494071 0.0049462747 0.03706668 0.06821178
-0.021376256 0.022785667 0.057024878 -0.0793332 0.015161013 -0.01671814 0.088572204 -0.026051715
0.0779889 -0.032866158 0.040127404 0.06475772 0.055449888 -0.049194504 -0.06216307 -0.071917616
-0.053182945 0.03671007 -0.014917008 -0.07419249 -0.07406445 -0.09268122 0.0939554 -0.03534866

model/batch_normalization_3/batchnorm/sub f4 [48]
00000000: 57c9 5abf fc02 83be 28c8 2abf 74ce 2a3f
00000010: 230d 023f 05d4 0d3f 7afc 0e3f 78e7 12bf
00000020: 0fd0 193f 0777 113f 8ed2 1d3f 10d3 1bbf
00000030: 2366 073f 1e71 093f d6f1 093f 5ba1 b93e
00000040: 35e8 273f 7ffb 073f cee2 ddbe d727 10bf
00000050: 5f9c 07bf 7e2f 18be 8035 c1be 1997 50bf
00000060: 6027 2c3f 3c83 67be a7cb 24bf ead7 1c3f
00000070: 77d7 d7be 8ece b33e 6c21 14bf c633 59be
00000080: b9e8 8fbf 5183 333f 1019 a3be 9f76 1fbf
00000090: e1c2 24bf dce6 ea3e 3006 213f ce72 053f
000000a0: 53b0 183f 841a 0abf 36ae 0e3f 4022 103f
000000b0: b7c0 083f 4c35 0d3f 9c21 2bbf 5989 203f
-0.8546347 -0.25588214 -0.66711664 0.6672127 0.50801295 0.5540164 0.55854 -0.57384443
0.600831 0.56822246 0.61649406 -0.6086893 0.52890223 0.5368823 0.5388464 0.36255917
0.65588695 0.5311813 -0.433371 -0.5631079 -0.5297298 -0.14861867 -0.3773613 -0.81480557
0.6724758 -0.22608656 -0.6437325 0.6126696 -0.42156574 0.35118526 -0.578635 -0.21211156
-1.1242896 0.7012225 -0.3185506 -0.62290376 -0.6435986 0.45879257 0.62900066 0.52128303
0.5964405 -0.5394671 0.55734575 0.5630226 0.5341906 0.5515945 -0.6684816 0.62709576

model/batch_normalization_3/batchnorm/mul f4 [48]
00000000: ece7 3f40 60e2 6840 3a5f ba3f 7ef8 be3f
00000010: 5910 ed3f 0c7d 1740 e8a6 b83f d408 1d40
00000020: f675 a93f f7be 6e40 b81c 0040 281a c23f
00000030: bb2f 4f40 c965 b93f cd6b 1240 b09b 1040
00000040: ddda 1b40 4e6b c13f a2a6 2140 4c7e b33f
00000050: 14fc b33f cc46 5940 e02b 0540 f94d 2340
00000060: 3dac 1440 b93a 7340 9711 3040 0007 be3f
00000070: ab2f 0940 677d 1d40 648e b93f 37d3 2740
00000080: a4a6 4840 062b 5940 2e06 ba3f 9e09 c93f
00000090: fb3b fc3f fc64 cf3f d899 b83f 2852 7740
000000a0: 5ba1 a93f 6d95 e53f dbbd 2840 eadf b53f
000000b0: f3d3 0e40 e4c3 b43f 72c1 b73f a5fd 0540
2.9985304 3.6388168 1.4560311 1.4919584 1.8520614 2.3670073 1.4425936 2.4536638
1.3239124 3.7304056 2.0017529 1.5164232 3.2372882 1.4484187 2.2878296 2.2595024
2.4352334 1.5110872 2.5257955 1.4022918 1.4061303 3.394946 2.080803 2.551634
2.3230126 3.8004591 2.7510736 1.4845886 2.1435344 2.460779 1.4496579 2.6222665
3.135171 3.393251 1.4533136 1.570606 1.9705805 1.6202693 1.4421949 3.8643894
1.3252367 1.7936226 2.6365879 1.4208958 2.2316864 1.4122281 1.435591 2.0936062

model/batch_normalization_2/batchnorm/sub f4 [96]
00000000: febb 22bf b388 b63f 2f0f 9bbe 2582 0d40
00000010: 9c6c c63f 0d50 843f b4a9 e13e 5e36 89bf
00000020: 92d0 e83e 37c2 383f 8a78 c9bf 3750 8bbf
00000030: 5a93 513f a07d 8e3f 82ab ee3e 96ce bbbf
00000040: d2e8 b4bf 6d2e 273f 0332 36bf 1285 a13f
00000050: 685d 51bf a2ef eabf 0c5d db3e be71 0640
00000060: c810 87bf b8a8 723e f151 573f f22c 26bf
00000070: e013 873f 8357 83bf efb5 d4bf c6e0 14bf
00000080: 351e 9d3e 3e3b 3bbf 9752 a43f 8421 073f
00000090: 13bd ef3f 4cd3 36bf 6154 54be 2a99 86bf
000000a0: eb95 763f 8de7 583f f840 fa3f b5ce c0be
000000b0: 3640 c53f e731 013f 137a e1bf f4dc 623f
000000c0: aec0 583e 3662 063f 9c13 0140 7a3d 7abf
000000d0: 0e8c 3f3f d9a2 c53f 8615 023f 1170 43bf
000000e0: 9e3c 9ebf 50ce b2bf 5bd6 5cbf ebc9 45bf
000000f0: 87b3 d7bf 4ad1 da3e c513 303f d42d 803f
00000100: ab82 11bf 04db 873f af43 72bf 48dd 403f
00000110: 20fb 81bf e60a 03be a24a c2be a8ae 3dbf
00000120: f9a0 263f 989c b3bf 2738 2d3f 08e8 a2bf
00000130: 5231 ad3f 462b 463f 3c2e eb3d a034 8f3f
00000140: 3456 7ebe be97 5fbf f265 f2bd 1219 3dbe
00000150: 93d5 dabf d1e7 1cbf d2ae 3340 1615 55bf
00000160: bfc1 87bf 2ea1 1b3f e154 83be 4a2c 73bf
00000170: cda0 083f 3b95 dcbe 71cd b8bf a87a 453f
-0.63568103 1.4260467 -0.30285022 2.2110684 1.5501895 1.033693 0.44074786 -1.0719717
0.45471627 0.7217135 -1.5739911 -1.0883855 0.81865466 1.1132088 0.46615225 -1.467242
-1.4133551 0.65305215 -0.7117006 1.2618735 -0.8178315 -1.835438 0.42844427 2.1006923
-1.0551996 0.23697174 0.8410941 -0.6491233 1.055294 -1.0261081 -1.6618022 -0.5815548
0.3068711 -0.7313727 1.2837704 0.52785516 1.8729576 -0.71416163 -0.20735313 -1.0515492
0.96322507 0.8472832 1.9551077 -0.37657705 1.5410221 0.5046677 -1.7615379 0.886184
0.21167251 0.5249361 2.0168219 -0.97750056 0.7482308 1.5440322 0.5081409 -0.76342875
-1.2362249 -1.3969212 -0.8626458 -0.7726123 -1.6851662 0.427378 0.68780166 1.0013986
-0.5684001 1.0613713 -0.94634527 0.7533765 -1.0154762 -0.12797126 -0.37947565 -0.7409463
0.65089375 -1.4032164 0.67663807 -1.272706 1.3530676 0.7740978 0.11483428 1.1187935
-0.24837571 -0.87340915 -0.11835851 -0.18466595 -1.7096428 -0.61291224 2.8075452 -0.832353
-1.0606002 0.60792816 -0.25650695 -0.94989455 0.5337036 -0.43082604 -1.4437696 0.77140284

model/batch_normalization_2/batchnorm/mul f4 [96]
00000000: a8f2 3041 b0c9 2441 9a6b 9c41 eb28 b441
00000010: 7510 8a41 1505 a940 f497 8440 aedf 0441
00000020: 1664 d440 6114 8140 4371 3d41 a4d2 0e41
00000030: 54a6 1a41 8c37 a341 8e01 8a41 3a68 9341
00000040: 74aa 9141 8603 9840 638d 0741 5683 0641
00000050: dd76 4641 ba20 8d41 e2b2 be40 18bc 9741
00000060: 5865 b340 bcb0 2841 4d9d a141 e636 1e41
00000070: e419 7e40 39e7 ee40 b173 9541 1ee7 da40
00000080: 501b 0741 b129 de40 5441 4e41 1b84 f840
00000090: f16e 6e41 d700 aa40 d744 a841 f2cc f540
000000a0: e4d3 5d41 d521 be40 3386 1641 74b5 9941
000000b0: cceb 9f41 c9fa 4041 7ad4 a941 6c61 2441
000000c0: 23f9 3b41 a3a8 8540 c207 9141 5a75 c440
000000d0: da62 7541 24aa bf40 e0ba 7441 8661 8240
000000e0: e62d 3a41 7be0 5c41 39f3 6741 ee7e f440
000000f0: 35db b241 742e 2141 26b0 2841 8d3f d340
00000100: 4c03 8941 cd16 ad41 8669 2241 3e91 cd40
00000110: 86eb 9440 b9bb c041 7d4a 9740 933b 7340
00000120: cb16 b141 9da0 ee40 1164 b240 417a e640
00000130: 6d08 3d41 b5c3 9040 5883 9c41 9259 a541
00000140: 4d62 9541 238d 9f40 b66a bd40 a03c ac41
00000150: 1018 8841 7a81 a741 b764 ac41 07a6 9840
00000160: 49f4 d640 d52f ba41 b2e0 ac41 fe61 1b41
00000170: 9305 af41 5dcf a341 fee9 b740 6013 e040
11.059242 10.29924 19.55254 22.51998 17.258036 5.2818704 4.143549 8.304609
6.6372175 4.0337377 11.840152 8.926426 9.665607 20.402122 17.25076 18.425892
18.20823 4.75043 8.472018 8.407064 12.404019 17.64098 5.9593363 18.966843
5.606121 10.543148 20.201807 9.888403 3.9703302 7.4657254 18.68149 6.8407125
8.444168 6.9425893 12.890949 7.766126 14.902085 5.3126025 21.033613 7.6812677
13.864231 5.94163 9.4077635 19.2136 19.990135 12.061227 21.228748 10.273785
11.748324 4.1768355 18.128788 6.139325 15.336634 5.989519 15.295624 4.0744047
11.636206 13.804805 14.496881 7.6404943 22.357035 10.073841 10.543005 6.6015077
17.12661 21.636133 10.150763 6.4239798 4.6537504 24.091661 4.727843 3.8005111
22.13613 7.457106 5.574715 7.2024236 11.814557 4.52389 19.564133 20.668736
18.672998 4.9859786 5.919276 21.529602 17.01175 20.938221 21.549177 4.770267
6.71732 23.273355 21.609715 9.711424 21.877722 20.476252 5.7473135 7.002365

model/dense/BiasAdd/ReadVariableOp f4 [48]
00000000: 37b6 0f3d fee0 023d 0246 733d b2d8 a33b
00000010: badc 953d cf5b 583d 8246 c73b 13a2 eb3d
00000020: 00f1 053d c807 f33d 1408 aa3d 50bd 1b3d
00000030: 4d1d 5f3d 1e69 ec3d d513 febb 7767 fa3c
00000040: 83f1 82bc cda4 173e e2e6 edbb c4e3 193d
00000050: 31b6 f73d 7075 c43d cf4a 7abb f373 d23b
00000060: e382 1e3d b08b ad3d 4652 09bd 355a 613d
00000070: 41ba f23c 2ad8 c23c e20f e43d 611f 373d
00000080: 4138 6bbc 5883 773d 1521 3f3d fe45 743d
00000090: cff1 1f3d 12ca 8b3d 47f1 343d 82c2 3a3e
000000a0: 2f27 243d 7f18 e43c f984 8d3d d09b dd3b
000000b0: 04cb 0e3e 0315 bd3d 98cf 253e b690 313c
0.035085883 0.03195285 0.059392937 0.0050001973 0.07317491 0.05282193 0.0060814032 0.115055226
0.03270054 0.118667185 0.08302322 0.03802234 0.054471303 0.11543487 -0.007753829 0.030566914
-0.015984302 0.1480896 -0.0072601894 0.03757073 0.12095297 0.09592712 -0.0038191562 0.0064225136
0.038699042 0.08473909 -0.033525728 0.05501767 0.029629828 0.023784716 0.11135842 0.04470766
-0.014356674 0.060427994 0.04666241 0.059637062 0.039048966 0.06825651 0.044175413 0.18238261
0.04007643 0.027843712 0.06910128 0.006762959 0.13944632 0.09232523 0.16192472 0.010837724

model/dense_1/BiasAdd/ReadVariableOp f4 [26]
00000000: af11 513d 53b1 79bc 562d f73d 0626 b63d
00000010: c668 5d3d 8730 1f3e a2b3 98bd e452 b13d
00000020: 115b 043e 989a 40be a461 41be fd39 48be
00000030: 2a41 35be d5f5 49be 9429 44be 0a4b 44be
00000040: e3c1 38be aa94 33be fd83 45be ecf5 42be
00000050: 57be 33be 30c4 46be 4b95 37be e82c 4cbe
00000060: 7bdd 30be 1978 46be
0.051042255 -0.015240031 0.12069194 0.08893971 0.054054998 0.15545855 -0.07456137 0.08658388
0.12925364 -0.18808973 -0.18884903 -0.19553371 -0.1770064 -0.19722684 -0.19156486 -0.1916925
-0.18042712 -0.1753718 -0.19288631 -0.19039124 -0.17553078 -0.19410777 -0.17928044 -0.19939005
-0.17271988 -0.19381751

model/gru/gru_cell/MatMul f4 [96, 126]
00000000: 71c0 7437 754b 0cb7 8b9a f6b7 f505 f6b8
00000010: 402a 7f39 c4e1 cc36 4fd9 19b9 7318 9e39
00000020: e038 b5b8 fa06 31b8 03a3 f338 b9c5 9e39
00000030: 5a0e a039 634c fa38 5c1a 7939 651d 1538
00000040: 3795 15b9 4e6c 5ab9 f186 5239 61c6 89b8
00000050: fc32 8838 bd82 74b9 0800 38b9 60dc 70b9
00000060: e542 ea38 eb73 bb39 6b5a 0339 9165 2939
00000070: b266 8239 cb37 5eb8 e5fa 1a3a 5a46 1eba
00000080: 9172 9e39 0db3 a839 bd03 e238 4278 50b8
00000090: 85bd 253a c480 acb8 c0c5 8239 9660 b439
000000a0: 0868 8939 29b8 bc39 df5c 4b39 2aaf dbb9
000000b0: ea9a bbb9 2496 5439 eff4 80b9 64bb 0638
000000c0: adcc 6239 475a d8b8 d4cb 9239 bd24 c638
000000d0: adde f039 937a ce39 bb04 f639 403e 1c39
000000e0: be2d 1bb7 baad f638 2c53 a538 ebef c037
000000f0: 36d4 a739 e291 7e36 fb9d 083a d6f4 abb7
00000100: 3032 7036 0f7e c0b7 30d0 7fb8 6058 0038
00000110: 4899 ebb6 aec2 bb37 0b02 41b8 8c4b 8eb8
00000120: 9e7c b1b7 ba1b 08b8 8500 3d36 3532 c737
00000130: de84 c6b6 b575 42b8 d8fe 4d37 46e0 43b7
00000140: 4ebc 1ab8 1732 1db8 ce79 5db7 6ab8 1438
00000150: 530b ab37 fefd 8437 cb52 1bb8 7967 d9b7
00000160: 8523 6d37 3a7a 1db7 b000 4737 8eaf 33b8
00000170: 41b9 2ab8 27b5 edb6 d299 a0b7 9189 e437
00000180: ff85 d237 cbf5 8237 d9bd b1b7 f15d fc37
00000190: 2bdc 37b6 f78d 47b8 c421 bcb7 e95c 7db7
000001a0: f6e9 d536 8954 88b6 3314 e337 4cb6 e0b6
000001b0: 6a79 19b7 e081 9bb7 18c0 5337 9f47 f9b7
000001c0: e1c1 abb7 055a 0d36 95c1 8a38 68b1 c8b6
000001d0: 084d 0eb8 d76c a7b7 97bc 6138 59a0 a0b7
000001e0: ff0e d9b7 e06f a938 e1a6 4d36 b54f 07b7
000001f0: 12e5 09b6 8616 2035 0ab2 71b8 d202 eab6
00000200: a958 ab37 c02d e539 799e 05ba df17 07b7
00000210: 50f6 94b9 c8f6 75ba c46d e3b9 c7c8 463a
00000220: 6a9e c439 1959 e4b9 1230 da39 9bba 0fba
00000230: 6630 79b9 16bb eeb9 9441 b2b9 c455 2ab8
00000240: 1507 e3b9 3829 1fb9 543c b038 3888 12b9
00000250: 9fdf 12ba 929d 0338 1aac aab8 365e 26b9
00000260: 8ce0 84b9 4c2f 2eba 3bdb aab9 4b34 49b8
00000270: d94b 89ba bdfc a1ba de93 0eb9 a841 a1b9
00000280: e458 8639 c7a4 55ba fa18 e539 b813 dcba
00000290: f480 2039 0a79 63ba 1c88 12b9 3ead e039
000002a0: 4bf6 7bb9 909c ccb9 7b97 a7ba 5309 ba39
000002b0: 8c3a b0ba c2d4 33b8 b894 1739 9179 1aba
000002c0: 35a7 8639 1863 a4b8 161d fcb9 6f2a 103a
000002d0: c5b5 16b9 da92 32b9 c860 d5b9 1f9b 3e39
000002e0: 6e48 11ba 16b6 e4b7 bd4d 2539 23f7 a8b9
000002f0: 9e22 9e39 fec4 fdb8 fcd3 25b7 158a c7b7
00000300: a277 3038 55eb c137 96d3 8a38 67d1 c337
00000310: 82c5 aeb8 2139 05b7 dc64 b4b6 0b6e 0537
00000320: a825 8db8 3813 26b8 6881 adb8 0aaf 63b8
00000330: e235 6338 c17c 84b8 b85e bbb5 f020 8bb8
00000340: 8913 0fb8 4eb2 4ab7 d87d ee37 3af5 a737
00000350: 4b91 80b8 5b44 0738 ca09 9e38 c67b 4338
00000360: 799b 70b7 e777 8e38 637c 8db8 469d ac38
00000370: fdd9 33b7 06b9 45b8 9be5 f938 f4a9 b5b6
00000380: 6ca0 38b9 ad59 a538 532b 58b7 2d63 ce38
00000390: 9c1d ad37 d34c 9a38 3e12 0d38 33f7 d0b8
000003a0: e0e2 9cb8 d564 97b8 ee26 b2b6 70a0 3438
000003b0: 4fa9 63b8 31bc f7b8 3157 afb6 0786 c2b8
000003c0: 17c6 8437 2108 1f38 e65c c8b8 64ce 8336
000003d0: d83a 0537 3eb3 1338 6895 4fb8 ca1d 9db7
000003e0: 6649 5037 5f4f dcb8 daeb 73b8 0270 4539
000003f0: 6613 4836 c2f5 c1b7 85fc 05b8 0b67 9038
1.458834e-05 -8.362219e-06 -2.939745e-05 -0.00011731304 0.00024334434 6.1059563e-06 -0.00014672171 0.00030154324
-8.641346e-05 -4.2206586e-05 0.00011617506 0.00030283423 0.0003052827 0.00011935157 0.0002375631 3.5551744e-05
-0.00014265334 -0.00020830447 0.0002007743 -6.56962e-05 6.494482e-05 -0.00023318357 -0.00017547619 -0.0002297028
0.000111704496 0.00035753785 0.00012526817 0.00016154932 0.00024872046 -5.2980886e-05 0.000591202 -0.0006037705
0.00030221467 0.0003217686 0.00010777216 -4.9703063e-05 0.0006322491 -8.2255836e-05 0.00024942867 0.00034404238
0.00026208186 0.00035995364 0.00019394186 -0.00041901442 -0.0003578284 0.00020273827 -0.00024596552 3.212261e-05
0.00021629287 -0.00010316498 0.00027999154 9.448219e-05 0.00045942274 0.00039382707 0.000469243 0.00014900509
-9.24937e-06 0.00011762553 7.883305e-05 2.2999904e-05 0.00032010832 3.7933864e-06 0.0005211529 -2.04988e-05
3.5792e-06 -2.2946884e-05 -6.0990627e-05 3.0599884e-05 -7.02139e-06 2.2382792e-05 -4.601669e-05 -6.785159e-05
-2.1158074e-05 -3.245075e-05 2.8163497e-06 2.3746028e-05 -5.9163276e-06 -4.6362828e-05 1.2278288e-05 -1.16751235e-05
-3.6891834e-05 -3.7478367e-05 -1.3200986e-05 3.54577e-05 2.0390062e-05 1.58539e-05 -3.7031987e-05 -2.5916599e-05
1.4134571e-05 -9.386387e-06 1.1861484e-05 -4.2840424e-05 -4.070369e-05 -7.0842393e-06 -1.9145114e-05 2.7243777e-05
2.5096348e-05 1.5611664e-05 -2.1188449e-05 3.0084486e-05 -2.739728e-06 -4.7577512e-05 -2.242707e-05 -1.51016075e-05
6.3751313e-06 -4.062957e-06 2.7069915e-05 -6.6969424e-06 -9.14778e-06 -1.8537918e-05 1.2621305e-05 -2.9716464e-05
-2.047507e-05 2.1063036e-06 6.61641e-05 -5.9811173e-06 -3.392718e-05 -1.9958634e-05 5.381982e-05 -1.9148154e-05
-2.5875399e-05 8.079386e-05 3.0644517e-06 -8.065185e-06 -2.0547927e-06 5.963742e-07 -5.762469e-05 -6.9740718e-06
2.0426074e-05 0.0004371237 -0.00050971616 -8.052185e-06 -0.00028412277 -0.00093827816 -0.00043378596 0.0007583019
0.0003750206 -0.00043553932 0.00041616015 -0.00054828235 -0.0002376452 -0.00045534287 -0.00033999665 -4.0611034e-05
-0.0004330209 -0.00015178777 8.403571e-05 -0.0001397439 -0.000560278 3.1379583e-05 -8.138288e-05 -0.0001586609
-0.00025344302 -0.0006644621 -0.00032588266 -4.7970836e-05 -0.0010474875 -0.0012358647 -0.0001359726 -0.0003075723
0.000256247 -0.0008149859 0.00043696893 -0.0016790545 0.00015306828 -0.0008677399 -0.0001397435 0.00042853685
-0.00024028977 -0.0003902656 -0.0012786234 0.00035483632 -0.0013445183 -4.287507e-05 0.00014455884 -0.00058927486
0.0002568305 -7.838587e-05 -0.00048086856 0.0005499487 -0.00014372829 -0.0001703011 -0.00040698634 0.00018177599
-0.0005542104 -2.7264508e-05 0.00015764586 -0.00032227588 0.000301619 -0.00012100673 -9.884123e-06 -2.3786948e-05
4.2073087e-05 2.3116978e-05 6.619764e-05 2.3343322e-05 -8.333755e-05 -7.940719e-06 -5.3761596e-06 7.953039e-06
-6.730418e-05 -3.9595383e-05 -8.2733866e-05 -5.4284035e-05 5.41712e-05 -6.317488e-05 -1.3960153e-06 -6.6341716e-05
-3.411205e-05 -1.2081653e-05 2.8430411e-05 2.0022144e-05 -6.1305785e-05 3.225017e-05 7.5358505e-05 4.6606896e-05
-1.43413135e-05 6.793421e-05 -6.746573e-05 8.2308936e-05 -1.0719986e-05 -4.7140777e-05 0.000119160126 -5.4140055e-06
-0.00017607369 7.8845165e-05 -1.28846905e-05 9.8413184e-05 2.0636995e-05 7.357602e-05 3.363401e-05 -9.964257e-05
-7.4809184e-05 -7.2190225e-05 -5.3093454e-06 4.3064763e-05 -5.42787e-05 -0.00011812931 -5.225557e-06 -9.2756054e-05
1.5827869e-05 3.7916125e-05 -9.554047e-05 3.9281313e-06 7.941118e-06 3.5214463e-05 -4.949179e-05 -1.872973e-05
1.24148555e-05 -0.000105052015 -5.815537e-05 0.0001882911 2.9813614e-06 -2.3121833e-05 -3.1944848e-05 6.885648e-05
