app/src/main/assets/models/1_to_10.tflite (tflite, 673196 bytes, 52 tensors)

model_4/batch_normalization_16/batchnorm/add_1;model_4/conv1d_8/Conv1D/Squeeze;model_4/batch_normalization_16/batchnorm/mul_1;model_4/conv1d_8/BiasAdd;model_4/conv1d_8/BiasAdd/ReadVariableOp;model_4/batch_normalization_16/batchnorm/mul;model_4/batch_normalization_16/batchnorm/sub;model_4/conv1d_8/Conv1D;model_4/conv1d_9/Conv1D f4 [96]
000000 d2 54 35 3d 6d 0b 26 3e 1c a6 b3 bf d9 50 c3 3f
       0.044270344 0.16215296 -1.4035068 1.5259048
000010 6b 14 90 3f 68 1a ba 3e ee 00 ce be 8c 2d e1 be
       1.1256231 0.3634827 -0.40235084 -0.43980062
000020 c4 01 80 3f 21 0d 1b c0 f1 50 73 bf 2c 67 87 3f
       1.0000539 -2.4226763 -0.9504538 1.057836
000030 94 ad 23 3f 08 1a d4 3f 27 7c 1f c0 9e 81 63 40
       0.63936734 1.6570444 -2.4919527 3.5547862
000040 51 9c 30 bf ae 51 9d bf b6 57 df bf dd c1 f9 be
       -0.6898852 -1.2290552 -1.7448642 -0.48780718
000050 fa 97 63 3f 0e 1e b0 3f eb 30 f4 3f 60 1e bf be
       0.8890377 1.3759172 1.9077429 -0.37327862
000060 e6 48 4d 3f 69 95 4d 3f a7 6b f4 3f bd 8e 0f 3e
       0.8018936 0.80306107 1.9095353 0.14019294
000070 40 15 a5 3f 8e 07 e8 be b2 be 28 3f a4 e3 b2 be
       1.289711 -0.45318264 0.6591598 -0.349393
000080 13 df 74 bf 88 f4 36 be a3 13 a5 3f ee 2e e6 bf
       -0.95652884 -0.17866719 1.2896618 -1.7983072
000090 b3 17 d4 bf 88 a0 59 bf 88 62 87 3f dc 35 46 40
       -1.6569732 -0.85010576 1.0576944 3.0970373
0000a0 c2 c2 97 bf d0 2a 30 bf 08 99 89 be c2 ae 66 bf
       -1.185631 -0.68815327 -0.26874566 -0.9011041
0000b0 cc 14 11 3f 02 6b 17 be 16 21 08 be 15 ae 6b bf
       0.5667236 -0.14786914 -0.13293871 -0.92062503
0000c0 2e 6f 04 bf fb fd 40 3f 56 d8 94 3f 12 34 99 be
       -0.51732147 0.75387543 1.162852 -0.2992254
0000d0 01 5a 97 3f dc ba 1e bf 3f f0 56 bf 88 cc 62 be
       1.1824342 -0.62003875 -0.83960336 -0.22148335
0000e0 5b 99 66 be 0c 7c dd 3d be 86 da bf 8c b7 99 bf
       -0.22519438 0.10814676 -1.707237 -1.2009139
0000f0 ee f6 d3 3e 44 d9 5a bd 2e 07 f9 3e 6d a2 1e c0
       0.4139933 -0.053429857 0.4863829 -2.4786637
000100 ff 43 58 bf be a7 ef be 74 2c a9 bf d0 54 e1 bf
       -0.84478754 -0.46807665 -1.3216691 -1.7604008
000110 df 49 94 bf e9 3d 2e bf 34 f0 f7 bf fe c3 9c 3e
       -1.1585044 -0.6806322 -1.9370179 0.3061828
000120 76 0c f9 bf 2f af 55 bf 92 ef 35 bf c0 c9 16 bf
       -1.9456928 -0.83470434 -0.7106868 -0.58901596
000130 62 9c 9c bf f2 4a ee bf 97 4b 2e 3f 6a c0 eb be
       -1.2235224 -1.8616621 0.6808409 -0.46045238
000140 7a 50 16 bf 16 60 8e 3f 33 ce 3f bf 64 af f4 be
       -0.5871655 1.1123073 -0.7492401 -0.47790062
000150 43 cb ca 3e ae 25 51 40 67 ea ab 3f 11 1e 81 3e
       0.396082 3.2679248 1.3430909 0.2521825
000160 3c 6d 0f 3e 43 72 f8 3f 28 71 21 3d 08 1d 23 c0
       0.14006513 1.940987 0.039414555 -2.548647
000170 8e 43 ca 3e 40 b0 7f 3d f9 58 36 40 06 d9 d3 bf
       0.39504665 0.062423944 2.8491805 -1.6550605

model_4/batch_normalization_17/batchnorm/add_1;model_4/conv1d_9/Conv1D/Squeeze;model_4/batch_normalization_17/batchnorm/mul_1;model_4/conv1d_9/BiasAdd;model_4/conv1d_9/BiasAdd/ReadVariableOp;model_4/batch_normalization_17/batchnorm/mul;model_4/batch_normalization_17/batchnorm/sub;model_4/conv1d_9/Conv1D f4 [96]
000000 aa 56 53 bd 80 8c 89 3f dd 8f e1 3f 54 d4 36 3f
       -0.05159632 1.0746002 1.7622029 0.71417737
000010 19 f6 0e bf e8 74 db bd 43 4d cf 3e bf 96 e5 3e
       -0.55844265 -0.107156575 0.40488634 0.44841573
000020 1b 7c 0f 3f 2d 24 ec 3b ca a8 8b 3e be ab 78 be
       0.56048745 0.007206461 0.27277213 -0.24284264
000030 ef df 26 3e 27 cf 6a 3f 70 d3 f8 3c 34 e1 24 3f
       0.16296361 0.9172234 0.030374259 0.6440613
000040 ee ab 20 be 66 9c 15 3f c4 76 90 3f e6 dd 0d 3b
       -0.15690586 0.5844177 1.1286244 0.0021647154
000050 51 e7 4f 3f 09 31 31 3e 4e 8f f8 3e cf 8a 3e 3e
       0.81212336 0.17303862 0.48546833 0.18607639
000060 f9 e3 4c 3f 98 95 cf 3e 23 e9 44 3f ff 5a 9e 3e
       0.8003536 0.40543818 0.7691824 0.309288
000070 3d bd 7a 3f d7 c7 2a 3f e4 25 e7 3f 6e 77 3a 3f
       0.97945005 0.6671118 1.8058438 0.72838485
000080 fe 04 0d 3f 27 f5 a4 bd 7c 51 45 3f 8b 7c 32 3f
       0.5508574 -0.080545716 0.7707746 0.6972129
000090 1d d8 1d 3f 0a 4a bb 3b 79 0b 25 be e0 27 af 3e
       0.6165789 0.0057156133 -0.16117658 0.3421011
0000a0 03 3c 35 3f ec 0e 65 3d 94 8a 16 3f e9 e2 b3 3e
       0.70794696 0.055922434 0.58805203 0.35134056
0000b0 1b 91 cf 3e 02 03 93 3f e5 a6 12 3f d7 fd d1 3e
       0.40540394 1.1485293 0.5728591 0.41013977
0000c0 f9 a3 11 bf ee 2b c2 3d 10 5c b1 3f a4 95 46 3e
       -0.5689083 0.09481035 1.385622 0.19393021
0000d0 08 c1 e6 3e e6 58 d2 3e eb 14 9f 3f 92 ae 52 3e
       0.45069146 0.4108345 1.2428259 0.20574406
0000e0 8f dd 85 be 8e 2d a9 3e 2e 99 d6 3e 67 ae 0a 3f
       -0.26145598 0.33042568 0.41913742 0.54172367
0000f0 c3 a4 81 3e ad e3 ae 3e e8 f4 29 3f 6a dd b3 3d
       0.25321016 0.34158078 0.6638932 0.08782466
000100 a2 95 1d 3f ea a4 26 3f b8 ff 46 3c 7c bf a2 3e
       0.61556447 0.6509539 0.012145929 0.31786716
000110 30 e3 49 bd 22 44 62 3f 6b 2b 82 3e 6e a7 81 3e
       -0.04928893 0.8838521 0.2542375 0.2532305
000120 b5 10 46 3f 86 36 20 3f b4 ef 19 3f da 6a 1e 3c
       0.7736924 0.62583196 0.6013138 0.00966903
000130 01 2d 34 3f 25 58 55 be c1 61 30 3f a2 21 40 3e
       0.7038117 -0.20834406 0.6889916 0.1876283
000140 ae cb df 3e 75 1c 48 3e 8a d6 f4 be 60 3c 1c bd
       0.43710083 0.19542105 -0.4781993 -0.038143516
000150 9a 39 14 bd 9d 2b f7 3e e2 95 03 3f a8 05 8a 3e
       -0.036187746 0.48275462 0.5140058 0.2695744
000160 18 f7 88 3e ae 17 6b 3f 7b b3 9b be fb 07 0f 3f
       0.26751018 0.9183301 -0.3041037 0.5587155
000170 6a 48 b3 3c 17 89 50 3f 96 46 91 3e 4a a2 ef 3e
       0.021885116 0.8145918 0.28374165 0.46803504

model_4/batch_normalization_16/batchnorm/mul_1;model_4/conv1d_8/Conv1D/Squeeze;model_4/conv1d_8/BiasAdd;model_4/conv1d_8/BiasAdd/ReadVariableOp;model_4/batch_normalization_16/batchnorm/mul;model_4/conv1d_8/Conv1D;model_4/conv1d_9/Conv1D f4 [96, 1, 3, 126]
000000 b5 a6 a5 bb 1a 3a 4c 3b c6 21 01 3a 91 c7 1c 3e
       -0.0050552734 0.003116256 0.0004925992 0.15310504
000010 50 cb 88 bd d4 ff 3a 3d f9 dd b0 3e 76 44 ad bd
       -0.06679404 0.045654133 0.34544352 -0.084603235
000020 0a 22 35 3d 0a 98 58 bd c7 e5 50 3e 93 0d ab 3d
       0.044221915 -0.05287937 0.20400153 0.083521985
000030 6b 4c 46 bb 36 97 1f 3d c8 ec 9e 3d 49 58 9c be
       -0.003025795 0.038962565 0.07760006 -0.30536106
000040 a5 35 e5 bc 72 5a 40 3d 02 55 67 3e 68 53 89 3e
       -0.027979681 0.046961255 0.22591022 0.26821446
000050 83 f4 35 3e 54 1d 61 3e 92 0b 5e bc c2 2e 8e 3e
       0.17769055 0.21983844 -0.013552563 0.27770048
000060 d5 eb 90 be cc 46 33 3c 9d 81 96 3e 28 00 bf 3d
       -0.28304926 0.010942172 0.29395762 0.09326202
000070 ef 33 3a bf 3d 9b 21 bd 6d c9 a6 3e ed 90 28 be
       -0.72735494 -0.039454687 0.3257555 -0.16461535
000080 0b 77 6f bd d0 d4 b0 3e bf 9a 08 3f 6b 6a a6 bd
       -0.058463138 0.34537363 0.53361124 -0.08125766
000090 c0 46 3e be a7 56 2a 3f 22 0b 52 bd be 22 80 3d
       -0.18581676 0.6653847 -0.05128015 0.062566265
0000a0 77 c6 d8 3e cd d0 d0 3d 47 cf bd bd 73 10 e9 3e
       0.42338917 0.101960756 -0.09268051 0.45520362
0000b0 62 61 2a 3e fe 3c 8c 3c 84 27 ad be 55 d9 2b 3d
       0.16638711 0.017118927 -0.3381921 0.04195531
0000c0 d4 78 98 be f3 f5 66 bf 3f 46 01 be 2a 6c fe bd
       -0.29779685 -0.9021904 -0.12624453 -0.124229744
0000d0 05 95 b5 be 28 f3 0d bc 2a 47 7e bd 74 c5 75 be
       -0.35465255 -0.00866393 -0.062079586 -0.24001104
0000e0 d9 7f 5a bd 44 03 84 3e 11 94 a5 3e 2d 82 f1 bd
       -0.05334458 0.2578374 0.32339528 -0.11792407
0000f0 40 d3 20 3e 2b 64 74 3f 59 77 35 be a4 3f 76 3b
       0.15705585 0.95465344 -0.17721309 0.0037574554
000100 be c7 48 bb 0a 49 16 ba f5 b3 2d 3a 5b 84 f5 3b
       -0.0030636634 -0.00057329296 0.0006626242 0.0074925846
000110 31 1c d2 bb cd 93 94 bb 6e 2b 6e 3c be 0b b6 3b
       -0.006412052 -0.004534221 0.014536722 0.005555599
000120 64 a3 23 bb fc 2e 00 3d 67 a7 ee 3a 57 27 28 3c
       -0.0024969215 0.031294808 0.0018207849 0.010263286
000130 2c 09 08 3d 18 40 fa bb a5 e2 20 3c 6c ee 2d 3b
       0.033211872 -0.007637035 0.009819661 0.0026539816
000140 c8 69 4b 3b 63 2c ee 3b 3d 0b 45 3c 6e 5a e9 3b
       0.0031038392 0.007268475 0.012026605 0.0071213758
000150 87 a1 80 3b 30 f7 a9 3b cd dc 43 3c 54 69 e8 3b
       0.0039255056 0.0051869377 0.0119544985 0.007092634
000160 61 83 4a bb 8e 59 24 3c 13 de 7b 3c b9 b1 c8 3b
       -0.0030901062 0.010031117 0.015372771 0.006124702
000170 8a 9d 52 bc 39 15 e4 bb 99 dc 18 3c ed 39 54 3b
       -0.012854943 -0.0069605378 0.009329938 0.003238316
000180 29 4a 58 3c ba 1d c1 3b 12 d0 f8 3a e1 bc 06 bb
       0.013201275 0.0058934363 0.0018982908 -0.0020559358
000190 ab d0 de 3b e0 1f a9 3a 46 b1 4c 3b 97 9f 40 3c
       0.0067997775 0.0012903176 0.0031233593 0.011756799
0001a0 23 fc 1b 3c 84 c2 aa 3b 6a 14 a1 3a 08 ab f4 3b
       0.009520563 0.0052111764 0.0012289409 0.0074666776
0001b0 a7 84 36 b9 b0 25 90 3c b5 0f 91 3b 5b 8b 40 b9
       -0.0001740629 0.017596096 0.0044269213 -0.00018362461
0001c0 1c 16 2a 3c 67 5f 58 3c 84 f0 88 3c e7 6b 18 3c
       0.010381248 0.013206339 0.01671625 0.00930307
0001d0 f7 44 4e 3c 01 01 0e bc df 97 0a 3c 8d 9f ed 3b
       0.012589685 -0.008667232 0.00845906 0.007251686
0001e0 48 67 21 3b ea 10 3b 3c 68 2c 2f bb fc b1 c0 3a
       0.002462821 0.011417607 -0.002672935 0.0014701481
0001f0 2d 93 18 bb c1 2e cd 3b 7b b4 97 bb 0a 83 e7 3b
       -0.0023281083 0.006261677 -0.0046296692 0.0070651816
000200 04 28 85 ba 7e 1e 48 3e 3d 80 b1 bd 50 77 06 3d
       -0.001015902 0.19542882 -0.08667038 0.03282863
000210 aa 7f 14 be 5e 47 92 3b f4 ae d4 3c 03 3b f8 3e
       -0.14501825 0.004464074 0.02596233 0.48482522
000220 2c 23 bb 3d c3 0f 61 3d 53 80 24 3f 5c b5 12 bf
       0.09137568 0.054946672 0.6425831 -0.5730798
000230 a8 8d 95 3d 39 d3 ca 3d 69 63 0d 3e 20 b4 37 3d
       0.073024094 0.09903569 0.13807453 0.044849515
000240 4e 69 47 be 1b e2 09 3d 10 70 38 3e 13 a7 79 3e
       -0.19473764 0.033662897 0.18011498 0.2438014
000250 e9 bd 76 3e 4c ef 8e 3e 2a 04 c2 bd ff fa d8 be
       0.24095882 0.27916944 -0.094734505 -0.42378995
000260 1a d6 95 3e 32 2a b3 3d 19 5f 17 bf b6 cc 38 bd
       0.2926491 0.087482825 -0.5912948 -0.045117103
000270 e4 ea 06 3e 0f df 50 bf 5b cc 86 bd eb 05 16 be
       0.13175541 -0.8159036 -0.065819465 -0.14650695
000280 52 7a dc be f9 f2 59 bd 01 78 b7 3e 28 4b 48 3f
       -0.43062073 -0.053210232 0.35833743 0.7823968
000290 95 7d 84 bd 1c 3d 4e 3d 3b 75 85 3e 7c e5 d1 3d
       -0.06469265 0.050351247 0.26066002 0.10248849
0002a0 5d 14 4f 3e b4 d0 5a 3e 86 9e 4f 3e 59 e7 e2 bd
       0.20222612 0.21368676 0.20275316 -0.11079282
0002b0 a2 97 82 3b fc 58 3a 3d 43 e2 d1 be 13 c2 8f bf
       0.003985361 0.04549502 -0.40992936 -1.1231102
0002c0 ce 7a f5 bd c8 83 1f 3e 44 fa 8b be cc 06 d2 bb
       -0.11986314 0.15577614 -0.27339375 -0.0064095017
0002d0 e1 02 e1 3e 19 58 16 bf dd 1d c6 bd 4b 23 92 3e
       0.4394751 -0.58728176 -0.09673665 0.2854255
0002e0 32 7b af 3e 08 ba cc bd ef 5a a7 be b8 fe 2b 3f
       0.34273678 -0.0999642 -0.32686564 0.67185545
0002f0 c6 ca 4c be ec 76 49 3b 84 21 de ba e4 7d 09 bb
       -0.19999227 0.003074105 -0.0016947244 -0.0020979578
000300 ac fc 83 3b ab a8 cd 3b 4b 08 e8 bb 11 1f 21 38
       0.0040279236 0.0062762103 -0.0070810667 3.8414324e-05
000310 df dd 85 3c af 39 cf 3b 59 08 90 bb 21 cb 0f 3d
       0.016341148 0.006324015 -0.0043955264 0.03510583
000320 c3 1a f2 38 f3 c8 43 3b 50 cd 2c 3d 18 06 16 bc
       0.00011544444 0.0029874414 0.04218799 -0.009156726
000330 e9 93 bf 3b 78 9b e3 3b dd cc 5b 3b c0 3b 06 3c
       0.0058464897 0.0069460236 0.0033538856 0.008192956
000340 b7 99 62 3c 0e 6b b5 3b 88 82 02 ba aa 57 2e 3c
       0.013830594 0.0055364436 -0.0004978557 0.010641018
000350 08 ad 91 3b f5 61 59 3b 95 6e 52 ba 28 01 6f 3c
       0.0044456758 0.003316996 -0.0008027342 0.014587678
000360 20 7c 2b 3c 38 db 66 b8 bc 19 3b bc ab 9d fa bb
       0.010466605 -5.5040437e-05 -0.01141971 -0.00764819
000370 b9 2c 68 3c 29 63 bb 3b a4 0e 18 3c ec 9f f5 39
       0.014170819 0.005718608 0.009280834 0.00046849193
000380 8d 43 32 b9 84 55 70 bb c3 e6 f6 3b 36 bb fd bb
       -0.00017000567 -0.0036672065 0.007534833 -0.0077432645
000390 73 51 a8 3a bd e8 de 3b 1b 20 0a 3c 71 9a 36 3c
       0.0012841657 0.006802647 0.008430506 0.01114522
0003a0 c7 6c 84 bb c1 c2 ce 3b 36 95 58 3b f4 51 44 3c
       -0.0040412876 0.0063098376 0.003304792 0.01198243
0003b0 68 ab e5 3a 9b 8f bf ba de e4 18 3c f6 9c 54 3c
       0.0017522397 -0.0014614941 0.00933191 0.0129768755
0003c0 74 bd 69 3c da 08 72 3b 75 b7 0d 3c 27 e7 72 bb
       0.014266361 0.0036931545 0.008649697 -0.0037064047
0003d0 66 8e a0 3b c1 ce 49 3c 2b b3 a2 3b 42 44 53 3b
       0.0048997877 0.01231736 0.004965206 0.003223673
0003e0 18 10 cb bb c2 59 8f 3a e8 cc 87 bb 97 9a 18 ba
       -0.006196987 0.0010936784 -0.0041443 -0.00058213755
0003f0 e6 37 e1 bb 91 62 cd 3b 85 20 8c b9 53 69 5d 3e
       -0.0068731187 0.0062678535 -0.0002672711 0.21622209

model_4/batch_normalization_17/batchnorm/mul_1;model_4/conv1d_9/Conv1D/Squeeze;model_4/conv1d_9/BiasAdd;model_4/conv1d_9/BiasAdd/ReadVariableOp;model_4/batch_normalization_17/batchnorm/mul;model_4/conv1d_9/Conv1D f4 [96, 1, 3, 96]
000000 71 52 b3 3c b4 1d 21 3d 84 17 4a 3d b8 3c c1 3a
       0.021889897 0.039334968 0.049338832 0.0014742827
000010 6f af 89 bd f0 c6 af 3c a9 81 5c 3c ce 4c 27 bd
       -0.067229144 0.021457165 0.013458648 -0.04084473
000020 f5 40 52 bd be 1d 2a 3c 6f 7d e1 bc 42 7d 89 3c
       -0.05133148 0.010383068 -0.027525632 0.01678336
000030 76 d4 46 bc 45 c2 d9 bc 0f be 35 ba 6c 34 48 3b
       -0.012135616 -0.026581893 -0.0006932923 0.0030548824
000040 9d 0f 27 bc 33 cd 4d 3d d6 c7 4b 3c a3 35 7f bd
       -0.010196594 0.05024452 0.012437781 -0.06230701
000050 4a e9 ce 3c 37 16 a8 bc 3a 09 90 bd 2c 5f f8 3b
       0.025257725 -0.020518405 -0.0703301 0.0075797047
000060 12 71 92 bc 62 05 13 bd bb b9 3c bd 8e b0 88 bc
       -0.017876182 -0.035893805 -0.046075564 -0.01668575
000070 3e 5f e5 3a 6d 50 8b bc f1 56 24 bd 1e 57 62 bb
       0.0017499698 -0.017006123 -0.040121976 -0.003453679
000080 37 b4 25 3b a2 c4 c4 bc ed 40 34 bd 56 68 d5 bb
       0.0025284418 -0.024019543 -0.04400723 -0.006512682
000090 2e ee 28 3d 8e ed 14 bc d2 67 ad bb 8e 5e 96 3b
       0.04124277 -0.009089841 -0.0052919174 0.0045889085
0000a0 cf dc 5a bc ce 0e ca 3c eb a0 79 bc 0a c5 45 bd
       -0.013358309 0.024665263 -0.01523612 -0.048283614
0000b0 bc 84 10 3d a1 cb 85 3c 7d b3 d6 bc 58 0b 48 bd
       0.035282835 0.01633245 -0.026208634 -0.048838943
0000c0 47 d2 54 bd 0c 31 98 bb 7f 24 06 bd 2f 1f 05 bd
       -0.05195835 -0.0046445187 -0.03274965 -0.032500442
0000d0 44 a2 a7 bc 3d 74 00 bd 49 9a 26 3c e6 6e 77 3d
       -0.020463116 -0.031360853 0.01016862 0.060408495
0000e0 8d 23 c8 3d 6e 66 46 3d 93 55 a0 bc 5b 24 e2 3c
       0.09772406 0.04843753 -0.019572055 0.027605226
0000f0 03 e4 9b 3b 96 32 36 bb f2 95 87 3d ff 22 b0 3d
       0.0047574057 -0.0027801148 0.06620397 0.08600425
000100 08 b7 2e 3b 89 b9 ab 3d 53 3f b4 3b 6f 3c 34 3b
       0.0026659388 0.083849974 0.005500713 0.0027501842
000110 dc de 3f 3c fa a7 b3 3c 3b 91 b5 bc 17 a6 48 bd
       0.011710849 0.021930683 -0.022163978 -0.04898652
000120 54 2f 2b bc 66 b9 cb 3c 36 84 02 3c 09 89 02 bd
       -0.010448296 0.024868678 0.007966092 -0.03186897
000130 5e da 9e 3c 5d 27 42 ba e9 5b 05 3c 33 fe 1b 3d
       0.019391235 -0.0007406378 0.008139589 0.03808422
000140 0f 30 6a 3d 42 62 86 3d c4 c6 e4 3c 65 67 2c bd
       0.05717474 0.0656171 0.02792681 -0.042090792
000150 a5 75 e2 3b 2c b7 6e 3b 4a 89 95 3c c1 0f 22 bd
       0.006910997 0.0036425097 0.018253941 -0.039565805
000160 cb 1b a9 bb fd 94 8c 3c e6 b2 19 3c f5 64 71 3d
       -0.005160784 0.017160887 0.009381032 0.05893417
000170 72 1c 60 bd b6 d1 0c 3a e8 35 82 bd ca 5e bd 3c
       -0.054714628 0.00053718255 -0.06357938 0.023116488
000180 96 60 94 3c 76 1e 26 3d 8a 65 60 3d e2 01 83 3b
       0.018112462 0.040556394 0.054784335 0.003998027
000190 c6 1d 81 bd 68 1e f4 3c bc 02 79 3c 38 49 2b bd
       -0.06304507 0.029799655 0.015198406 -0.041817874
0001a0 91 3b 58 bd 2a 1e 61 3c 07 4d f3 bc 9f d8 66 3c
       -0.052791182 0.013740102 -0.029699815 0.014089732
0001b0 e9 6b 51 bc 05 fb de bb f2 87 a7 bb 1b 79 54 3c
       -0.012782075 -0.006804826 -0.0051126415 0.012968327
0001c0 99 7d e9 bb 93 28 61 3d 48 28 6a 3c ba 3a 7f bd
       -0.007125568 0.054970335 0.01429183 -0.062311865
0001d0 f5 15 0e 3d db c5 ba bc 62 98 86 bd b3 90 14 3c
       0.03468891 -0.022799423 -0.065720335 0.009067702
0001e0 eb d3 a5 bc 50 a7 05 bd 29 7d 23 bd 5e 6b b0 bc
       -0.020242652 -0.032630265 -0.039914284 -0.021535572
0001f0 ef c0 3c 3c dd a5 88 bc d5 2b 24 bd 27 9d 9c bb
       0.011520608 -0.016680652 -0.040080864 -0.004779476
000200 f9 74 b4 3b 28 9d ab bc 70 fd 33 bd 67 1c 4a bb
       0.0055071083 -0.020948961 -0.04394287 -0.0030839683
000210 ce 66 30 3d 06 be 0a bc 68 68 07 bb 3a 8c f0 3b
       0.043066792 -0.008468157 -0.0020661596 0.007340935
000220 91 17 8a bc a8 ba cd 3c 83 32 73 bc 96 48 4c bd
       -0.01685694 0.025113419 -0.014843586 -0.04987391
000230 63 e2 32 3d 34 5b b3 3c 11 84 ca bc a5 c4 55 bd
       0.04367293 0.021894075 -0.024721177 -0.052189488
000240 f9 45 60 bd b1 09 8c bb e9 49 d4 bc 86 b1 dd bc
       -0.05475423 -0.0042736162 -0.02591415 -0.027062189
000250 ac 46 94 bc 89 0a 06 bd d5 80 84 3c 27 10 89 3d
       -0.018100105 -0.03272489 0.016174713 0.06692534
000260 f6 0d ce 3d 80 14 7a 3d df d1 9e bc 97 31 f1 3c
       0.100612566 0.061054707 -0.019387184 0.029442592
000270 6f a0 dc 3b 39 4b d2 ba 00 cc 95 3d 5f 28 b1 3d
       0.0067329924 -0.0016044147 0.073143005 0.08650278
000280 47 dd 1e 3b e6 80 ac 3d 28 2d 84 3b 38 56 2b 3a
       0.0024240778 0.08423023 0.0040337034 0.000653598
000290 88 a1 63 3c 41 ad b2 3c 1f 36 db bc af d3 56 bd
       0.0138934925 0.02181113 -0.026759205 -0.05244797
0002a0 13 ca 3f bb ff ed c1 3c e6 04 24 3b b8 51 00 bd
       -0.0029264733 0.023673056 0.0025027334 -0.031327933
0002b0 05 61 99 3c 37 bf 42 ba e1 90 9f 3c 5c 7c 27 3d
       0.01872302 -0.0007429006 0.019478263 0.040890083
0002c0 c1 5f 6d 3d 81 aa 87 3d f9 53 e8 3c d1 ad 33 bd
       0.057952646 0.06624318 0.028360354 -0.043866936
0002d0 43 e9 83 3b 73 3b d4 3a 78 79 96 3c 78 23 21 bd
       0.0040256097 0.0016192034 0.018368468 -0.039340466
0002e0 37 a5 ee bb ea dc 67 3c d9 3b c7 3b 32 8f 69 3d
       -0.0072828787 0.014151791 0.0060801324 0.057021327
0002f0 b9 21 67 bd f8 8c 16 bb 08 71 82 bd da ab b6 3c
       -0.056428645 -0.0022972208 -0.06369215 0.022298742
000300 72 e1 b4 3c 9b 43 37 3d e3 24 5c 3d aa b3 91 3a
       0.022080157 0.044742208 0.053746115 0.0011116166
000310 de bc 63 bd 18 50 dc 3c bc cd 12 3c 58 9a 45 bd
       -0.05560004 0.02689366 0.008960184 -0.048242897
000320 8a b9 41 bd 6f e7 27 3c 06 2c 02 bd c2 40 13 3c
       -0.047296084 0.010248049 -0.031780265 0.008987607
000330 3a ad 28 bc b1 1f 49 bc 44 c5 c3 bb f7 b0 22 3c
       -0.010295207 -0.012275622 -0.0059744436 0.009929887
000340 84 9c aa bb 8a af 51 3d 6d 58 3b 3c 77 9a 73 bd
       -0.0052066464 0.051192798 0.011434657 -0.05947348
000350 1c 31 0c 3d bb a9 aa bc d1 ac 77 bd ba 2b dc 3b
       0.03422652 -0.020832887 -0.060467545 0.00671908
000360 be f4 b3 bc 4a 5c ff bc 69 93 32 bd 5b eb 84 bc
       -0.021967288 -0.031171937 -0.043597613 -0.016225507
000370 93 69 4b 3c ff c2 90 bc 94 cd 2a bd d5 4c 19 bc
       0.012415308 -0.017671106 -0.04169996 -0.009356697
000380 9e bd 95 3b d9 26 92 bc d4 0d 2f bd 7f cc 8f bb
       0.0045697233 -0.01784079 -0.042737797 -0.0043883915
000390 14 88 16 3d d4 31 e6 bb 9b 0f 7c bc 13 04 a4 3a
       0.036750868 -0.007024983 -0.01538458 0.0012513421
0003a0 47 0a 77 bc fc 69 c4 3c 5d 4a 8d bc 1c fe 46 bd
       -0.015078134 0.023976319 -0.017247373 -0.04858218
0003b0 ae 81 5a 3d 4b b2 d2 3c 2a d3 c6 bc cd d6 53 bd
       0.05334633 0.025719782 -0.024270613 -0.051718522
0003c0 d3 ac 59 bd 1f 51 05 bc d2 ea b6 bc ec c5 ce bc
       -0.053143334 -0.008137017 -0.022328768 -0.02524086
0003d0 90 fc 8d bc ca 69 07 bd 08 4b 93 3c fd 24 88 3d
       -0.017332345 -0.033059873 0.017980114 0.0664768
0003e0 e6 a0 c9 3d c5 a9 58 3d 04 a4 8c bc 95 aa f0 3c
       0.09845142 0.05289628 -0.017168052 0.029378215
0003f0 60 b4 7e 3b 1e b6 e6 b9 f8 ff 89 3d 13 db ac 3d
       0.0038864836 -0.00044004706 0.06738275 0.084402226

model_4/gru_9/gru_cell/strided_slice_4 f4 [48]
000000 67 10 32 bc e9 06 78 3d 67 5a 8b 3c f6 55 e6 3d
       -0.010868168 0.060553465 0.01701088 0.112468645
000010 43 99 c3 bc 85 87 3f 3d 2d d6 85 3b b8 6f 90 3c
       -0.023876792 0.0467601 0.0040843696 0.017631397
000020 b1 35 02 3d 5d fc 8b 3d 3d 20 43 bd 04 f8 14 3b
       0.031789485 0.06835244 -0.047638167 0.0022730837
000030 a7 4c 88 3d 65 14 93 3d 9a 7c 03 bc 71 d4 0a 3d
       0.06655245 0.07181624 -0.008025313 0.033894006
000040 6f 8f d4 3d 97 5c 05 bd ce 75 40 bb 70 aa b3 bc
       0.1037892 -0.032559004 -0.0029367092 -0.021931857
000050 36 c9 97 3d 07 c9 2a 3d cf df 88 3d 08 09 3d bd
       0.07411425 0.04169562 0.06683313 -0.04615119
000060 eb 0f 6f 3d e0 41 c8 3d 99 3b 17 bc fb a0 c2 3c
       0.05836479 0.0977819 -0.009230518 0.023758402
000070 80 1d e8 3d 04 d7 3e bb a2 fa 27 bd f7 9d b2 bd
       0.11333752 -0.0029119859 -0.041010506 -0.08721536
000080 ba 2d be ba 13 46 4a 3c f4 0f 30 3e d4 2a 4f 3d
       -0.0014509477 0.012345809 0.17193586 0.050577953
000090 81 99 5d bd 5b 80 d3 bc 2c 9f bc 3c eb 09 a0 bd
       -0.05410147 -0.02581804 0.023025118 -0.07814392
0000a0 fe e5 05 bc 49 89 f4 3d bf a6 41 bd b0 e3 bb 3b
       -0.00817251 0.119402476 -0.047278162 0.0057339296
0000b0 de 9e a7 3d dc 4c 8d 39 8b 33 bf 3d cd 55 93 3c
       0.081845984 0.0002695088 0.09336003 0.017985249

model_4/gru_9/gru_cell/strided_slice_3 f4 [48]
000000 41 6f b2 3d d3 8f 25 3d 35 7b eb 3d af fc 9b 3d
       0.08712626 0.040420365 0.11498109 0.07616555
000010 9a fb cb 3d 90 b8 33 3e a0 7e 07 3e cc 20 ea 3d
       0.099600986 0.17550874 0.13231897 0.11432037
000020 0a e9 3d 3c ea a6 8e 3d 25 80 88 3d a9 31 48 3e
       0.011591205 0.0696543 0.06665067 0.19550194
000030 0d 44 07 3d ba 4a 21 3e 15 41 ba 3d e0 6b 38 3d
       0.033023883 0.15751162 0.09094445 0.045024753
000040 df 9e 6c 3d 39 c4 a7 3d b5 b3 99 ba 1c 27 a8 3d
       0.0577687 0.081917234 -0.001172653 0.082105845
000050 5c 1e 04 3e c2 02 88 3d 2c 22 62 3d db cd 77 3d
       0.12902206 0.06641151 0.05520837 0.060499053
000060 37 7a 97 3d 7a 01 0c 3d f0 50 3d 3d 90 b5 8b 3d
       0.073963575 0.034181096 0.046219766 0.0682174
000070 a3 af 4c 3d dd d4 51 3d a9 65 39 3d 58 09 e6 3d
       0.049972188 0.051228393 0.045262966 0.11232251
000080 45 6a 69 3a 68 2b 83 3d 92 8b 28 3d 33 ea 73 3d
       0.000890408 0.064047635 0.04114873 0.05954952
000090 e0 fd 9a 3d 38 a8 54 3d 7f e6 49 3d 53 28 9f 3d
       0.07567954 0.05191824 0.049292084 0.07771363
0000a0 b4 dd 7b 3c 93 f2 bc 3d ca 35 32 3d c0 33 96 3d
       0.015372682 0.09225955 0.04350833 0.07334089
0000b0 66 97 7f 3d 22 36 50 3d d2 04 c5 3d 1c b9 b6 3d
       0.062400244 0.050832875 0.0962006 0.089220256

model_4/gru_9/gru_cell/strided_slice_5 f4 [48]
000000 44 9c 66 3d 01 aa bb 3d 14 4c 64 bd 2a bc 94 3d
       0.05630137 0.09163285 -0.055736616 0.07262452
000010 95 3b 87 3c 41 d4 8d bb 84 fa 9d 3d b6 cd 90 3d
       0.016507903 -0.004328281 0.07713798 0.07070486
000020 65 dd 84 3d 38 fd 2e 3c 0e 5e 1e bc a0 bd 43 bb
       0.0648754 0.010680489 -0.009665979 -0.0029867664
000030 f1 33 97 3d 68 7c e6 3d cf db b0 3b 25 37 a5 3c
       0.07382954 0.11254197 0.005397297 0.020167897
000040 bd 06 e1 bd 65 cf 7c bd 38 33 46 3b b2 6a a1 bb
       -0.10987613 -0.061721224 0.003024293 -0.004926049
000050 1c 68 3d 3d 61 a3 1f 3d 32 66 86 3d 61 97 5e 3d
       0.046241865 0.03897417 0.06562461 0.054343585
000060 c9 28 37 bd ef 97 b4 bd 0a dc 74 3d 29 5c 9c 3d
       -0.04471663 -0.088180415 0.059780158 0.07634766
000070 80 47 bd 3d dd 29 61 3d 74 db bb bc 8e 3b b0 3c
       0.09242153 0.054971565 -0.022931792 0.021512773
000080 d1 44 04 bc 8f 6c 44 3a 3f 66 4e bd 75 f4 1f bd
       -0.008073048 0.0007492983 -0.05039048 -0.03905149
000090 1d 71 f9 3b d1 3b 54 3d b2 6c 81 bc 69 27 75 bd
       0.007612361 0.051814858 -0.0157989 -0.059852038
0000a0 63 e1 c7 bd b3 7a c4 3c 3a 71 85 3d f6 d8 ff bc
       -0.09759786 0.023984289 0.06515737 -0.031231385
0000b0 3b d2 42 bd 98 06 5f bd 2b da 83 3c e8 6d 8e 3d
       -0.047563773 -0.054449648 0.016095242 0.06954557

model_4/gru_9/gru_cell/strided_slice_11 f4 [48]
000000 75 01 1d 3d 5a 6e 83 3d ef 7c 8d bd 31 d4 04 3d
       0.038331468 0.06417532 -0.06908595 0.032428924
000010 cb 1c e1 3c 46 f8 8a bc 05 31 58 3d 22 61 82 3d
       0.02747955 -0.01696409 0.052781124 0.06366183
000020 45 2e 88 3d ca 4f b8 bb 41 c9 e4 bb f2 25 b4 bc
       0.0664945 -0.005624746 -0.006981999 -0.02199075
000030 8b 2a 6f 3d 90 fd 8c 3d 88 36 28 3c e8 c0 3b 3d
       0.05839018 0.06884301 0.0102669075 0.045838267
000040 17 95 b4 bd 59 52 b0 bd 12 10 35 3c 0d 65 b3 38
       -0.08817499 -0.086094566 0.011051195 8.554207e-05
000050 f5 01 31 3d 69 80 19 3d 00 7b 95 3d 51 46 b0 3c
       0.043214757 0.037475977 0.07298851 0.021517904
000060 ca cb 17 bd 51 49 a8 bd 70 9c 41 3c 60 47 98 3d
       -0.037059583 -0.08217109 0.011817083 0.07435489
000070 f5 f0 b2 3d a4 80 9a bb 18 e4 98 bb 2b a4 36 bd
       0.08737365 -0.004715042 -0.004665863 -0.044590157
000080 ca 6c 08 bd 9f 76 39 bd 17 3b cd bc 17 3a 96 bc
       -0.033306874 -0.04527914 -0.02505259 -0.018338246
000090 23 9c 02 bd 69 f1 40 3d 87 ac 6f bc ed 50 f4 bc
       -0.031887185 0.047105227 -0.014628536 -0.029823745
0000a0 a2 87 46 bd 37 a6 12 3d be c8 8f 3d cf 2e a4 bc
       -0.048469193 0.035803046 0.070207104 -0.020041851
0000b0 8d f2 54 bc 39 a2 0f bd 09 a7 0d 3d 20 e4 30 3d
       -0.012997282 -0.035066817 0.034583125 0.043186307

model_4/gru_8/gru_cell/strided_slice_4 f4 [96]
000000 6f ab 19 bd d8 a5 e4 3c 5b a8 c8 3c 93 5b 10 3d
       -0.037517007 0.027911112 0.02449434 0.035243582
000010 15 c7 a7 3c ce 85 b7 3c 28 ea 1f 3d 6f 31 0d bd
       0.020480672 0.02240267 0.03904167 -0.03447097
000020 01 92 4b 3d c0 ec b1 bc de 52 bc 3c 0b 50 d4 3c
       0.049699787 -0.021719337 0.022988733 0.025917074
000030 84 e0 32 bc a2 40 24 3d 97 37 41 3d 29 c0 02 bd
       -0.0109177865 0.0401007 0.047172155 -0.03192154
000040 2d 93 37 3d 9b d9 d6 bc ba d1 bf bb 00 3a 10 3d
       0.044818092 -0.02622681 -0.005853859 0.035211563
000050 70 1b c9 3c 1c ca 93 3c da 84 c2 bb d4 f1 04 3d
       0.024549216 0.01804071 -0.0059362473 0.032457188
000060 3d 1f ef bc 65 4a 80 3d a1 db 34 3c ef bd ca 3b
       -0.0291897 0.0626419 0.011038692 0.0061871926
000070 54 dd 58 3d c0 cd b5 3c 75 e9 46 3d 9e 34 6d bb
       0.05294545 0.022192836 0.048562486 -0.0036194692
000080 63 86 c6 3c a7 0e 85 3c a1 5a da 3c a3 9f 83 bc
       0.024234002 0.016242338 0.026654543 -0.016067332
000090 70 01 17 bd 1a b7 8c 3c 0b 3e c6 bc c5 f0 d3 3c
       -0.036866605 0.017177153 -0.024199506 0.025871644
0000a0 38 7a 1b 3b 90 78 f3 bb 5b 78 8c bc 17 16 1f bd
       0.002372397 -0.0074301437 -0.017147234 -0.038839426
0000b0 43 4b 3a bc 76 46 b5 3c 58 52 cb 3c 2a f4 94 bc
       -0.011370483 0.022128325 0.024819538 -0.018182833
0000c0 39 46 51 3c a8 c5 49 3b bf f7 a1 bc 2f 54 4e 3c
       0.01277309 0.0030787978 -0.019771455 0.012593313
0000d0 5b 20 72 3c ab b8 03 bd b6 5a 19 bd 7e 53 b4 3b
       0.014778222 -0.032158535 -0.037440024 0.005503117
0000e0 8c 5d b1 3d 58 5d e5 3c 5f 19 09 3c cb 15 bd bc
       0.08660421 0.027998611 0.008367865 -0.02308168
0000f0 c4 12 b3 3c 8f 10 3f 3d 5e b9 23 bd 2e 6a a5 3d
       0.021859534 0.04664665 -0.0399717 0.08076893
000100 9c 7e b3 bb ad 1e f3 3b 3d 4a 29 bd 45 f6 ec 3b
       -0.0054777395 0.0074194283 -0.041330565 0.007231506
000110 61 35 14 3d ea b5 32 3c 04 f5 f8 3c 3e 77 1e 3c
       0.03618372 0.0109076295 0.03039027 0.009671984
000120 06 c6 44 3a 68 f7 94 3b fe 17 31 3d f0 de 30 3d
       0.00075063144 0.0045460947 0.04323577 0.04318136
000130 ca 66 50 3d b3 00 0e bb 67 52 32 3c b6 97 3d 3b
       0.050879277 -0.0021667897 0.010883904 0.0028929538
000140 31 5c 1d bb 06 ff b9 3c 1d f3 35 bc f7 2f db 3c
       -0.002401125 0.022704612 -0.011105326 0.02675627
000150 24 44 23 bd 26 27 14 bd ad be bc 3c 8b e0 86 3c
       -0.039859906 -0.036170147 0.02304014 0.016464492
000160 cd 17 8c bc 4c f3 61 bc 19 26 bb 3c 9f 88 00 bd
       -0.017101193 -0.013790917 0.022845315 -0.031380292
000170 fb c7 0c bc 30 0d 2d 3d d7 d4 0c 3d 53 bd 5f bb
       -0.008592601 0.042248905 0.034382667 -0.0034139946

model_4/gru_8/gru_cell/strided_slice_3 f4 [96]
000000 20 f3 7c bc 3b f4 0d 3d 87 3c 33 3d 0c 99 31 3d
       -0.015438825 0.034656744 0.043758895 0.043358847
000010 dc 57 de 3d 92 9e 26 3d be f0 48 3e f5 b1 47 3e
       0.108566016 0.04067857 0.19623086 0.19501479
000020 43 2d 56 3d f9 3b 1b 3d f8 f0 ae 3c 06 dd 2c 3d
       0.05228926 0.03789899 0.021355137 0.042202972
000030 47 44 b5 3c 99 4f 6c 3e 84 fc 79 3d 6a 42 8b 3d
       0.022127284 0.23077239 0.061031833 0.06799777
000040 30 bf 55 bc 8b 1e 83 3d 46 8f 94 3d fe 7d 50 3d
       -0.013046071 0.0640231 0.0725389 0.050901406
000050 0f 43 25 3c 37 d8 bc bb 6d 67 19 3d c2 10 c4 3c
       0.010086789 -0.0057630795 0.03745215 0.023933772
000060 ca 05 78 3d 64 9d 1c 3e 85 71 19 3d fe dd 75 3d
       0.060552396 0.15294415 0.037461776 0.06002616
000070 d3 05 cb 3d ff 91 a0 3d 69 3c 90 3d 22 17 69 3d
       0.0991322 0.078403465 0.07042772 0.056906827
000080 23 73 e3 3d c0 dc 33 3d 3a 03 06 3e 23 68 09 3d
       0.11105945 0.043911695 0.13087168 0.03354658
000090 c1 7e f3 3d 3b da 1f 3d bb b3 9b 3c e8 2f 40 3d
       0.11889411 0.03902648 0.0190066 0.046920687
0000a0 97 1a 7b 3d 5d 85 8a 3d 57 ff 4e 3c c3 1f 2b 3d
       0.061304655 0.06763718 0.01263412 0.041778337
0000b0 d9 74 86 3d 37 91 a9 3d 81 ac d1 3b 83 4c 00 3d
       0.06565256 0.08279651 0.006398738 0.031322967
0000c0 bb 55 ab 3d be 4a 8c 3c a0 e2 81 3d cd 33 92 3d
       0.08365961 0.017125484 0.063420534 0.071387865
0000d0 9d d3 82 3d a4 ea c3 3b da 54 ae 3c 66 7e dd 3c
       0.06388018 0.005978899 0.021280695 0.02703781
0000e0 79 23 35 3e e9 a4 1e 3d 54 10 d0 3d 39 92 49 3d
       0.17689313 0.03873149 0.10159364 0.049211714
0000f0 2f f2 4a 3d e1 cf 83 3d 3b 95 cf 3c 47 00 1f 3e
       0.04954737 0.06436134 0.025339713 0.1552745
000100 26 33 b2 3c d4 65 1b 3e 9b 26 1c 3d 62 5d 0a 3e
       0.021752905 0.15175563 0.038122755 0.13512185
000110 cc a4 40 3e 14 ef 9e 3d 4d a6 1e 3e 6b 12 83 3e
       0.18812865 0.07760444 0.15493126 0.2559999
000120 94 95 7f 3d a0 a6 12 3d 41 f5 4c 3d 6d 1f 23 3e
       0.06239851 0.035803437 0.05003858 0.15929957
000130 bd 00 c7 3d 56 5d d8 3d cf 66 15 3d 56 79 3c 3c
       0.09716938 0.105646774 0.036475 0.011503538
000140 f8 da 1e bb fa 2c 3b 3d 72 e5 06 3d b7 65 0d 3e
       -0.0024239402 0.04569719 0.03293366 0.13808332
000150 8e fd 46 3d d0 36 cd 3b 54 d8 81 3d b1 64 14 3e
       0.048581652 0.0062626377 0.063400894 0.14491536
000160 d4 75 92 3c af ef 73 3c 5c c0 5b 3d 8c 8e 6c 3c
       0.01787845 0.014888688 0.053650245 0.014438283
000170 83 cd ad bb b3 6a 1d 3d eb 4c 02 3e d6 c6 f2 3c
       -0.00530404 0.038431834 0.12724654 0.029635828

model_4/gru_8/gru_cell/strided_slice_5 f4 [96]
000000 5c bb 46 3d 23 c1 4a bd a8 d9 34 bd 89 f4 5b bd
       0.048518524 -0.049500596 -0.044152886 -0.053700004
000010 56 98 0e bd df ee 34 3d c7 68 32 bc 97 1e a3 ba
       -0.034813248 0.044173118 -0.010889239 -0.001244503
000020 1b fd e5 bc a4 41 47 bb 8c e7 db 3c 42 98 94 bd
       -0.028074792 -0.0030404115 0.026843809 -0.072556034
000030 ae 40 0a 3d b8 94 18 3d 2e 44 94 bb 5c 74 81 bc
       0.03375309 0.037251204 -0.004524729 -0.015802555
000040 6b 57 95 3d a8 5f 1e bd 0f 50 62 3d af f0 a8 bc
       0.07292064 -0.038665444 0.05525213 -0.02062258
000050 39 ea a1 bd f9 e4 44 bd 30 fa 4f bc 1b 2e 22 3d
       -0.079060026 -0.048069928 -0.012693927 0.03959475
000060 7b f2 40 bb 03 f8 5a bc 94 d0 57 3c 1e 36 cf bc
       -0.0029441405 -0.013364795 0.0131722875 -0.02529436
000070 4b db 11 bd 08 c0 0b 3d 58 a2 61 3c 16 cf 22 3c
       -0.035609525 0.034118682 0.013771616 0.009937068
000080 dc 31 26 bd 28 ff 42 3c 0d 65 72 3c ab 31 32 bb
       -0.040574893 0.011901654 0.0147946 -0.002719025
000090 d0 04 b4 3c ba 71 cc 3c f4 13 09 bd 67 02 10 bd
       0.021974951 0.024956573 -0.033466294 -0.03515854
0000a0 92 76 48 bc a6 58 d7 3b e5 3c 87 3d ca 65 4c bc
       -0.012235301 0.006571847 0.066034116 -0.01247544
0000b0 5d fa b0 bc 6c 37 1e bc 29 87 1d 3c da 48 ed ba
       -0.021603758 -0.009656768 0.009614744 -0.0018103376
0000c0 c6 78 3c 3c 61 f0 01 3d 47 76 0a 3c 0c 92 a6 3c
       0.011503404 0.031723384 0.008451051 0.020333312
0000d0 b9 1e 8d 3c ff 53 f8 3c 3a 34 9b 3c c8 a8 a7 3c
       0.017226564 0.03031349 0.018945802 0.020466223
0000e0 f9 92 49 3c d2 28 3c bd 84 19 4e bb ed 3d 0f 3c
       0.012303107 -0.045937367 -0.0031448314 0.008742792
0000f0 c6 80 5c 3c 1d 5f 27 3d ba b5 9f 3c ca 8c 0a 3d
       0.013458436 0.04086219 0.019495834 0.033825673
000100 10 ed 7b 3c d5 0a c5 bc ff 1d 3f bd bf 68 07 3d
       0.015376344 -0.024053017 -0.046659466 0.033058878
000110 51 6a a6 bc 07 0d a8 3c 1e 20 97 bc f6 31 32 3d
       -0.020314367 0.020514024 -0.018447932 0.043504678
000120 74 d1 4e bc ac ea 96 3c 24 51 30 bd c0 10 67 bc
       -0.01262318 0.018422447 -0.04304613 -0.014103115
000130 67 12 59 bc 5b 47 ab bc bc 54 87 39 45 38 67 3c
       -0.013249016 -0.020908048 0.0002581234 0.014112537
000140 b6 f7 e0 bc 51 60 19 3d 97 b1 4a bd 27 0e b1 bc
       -0.027461868 0.03744537 -0.04948577 -0.021613194
000150 60 25 86 3b 7d 4b 84 bc 88 89 07 3d c5 67 78 bc
       0.004093811 -0.016149277 0.033090144 -0.015161459
000160 36 d9 46 3c ff 9b 63 3d c8 51 06 bd be 8c 54 bd
       0.012136748 0.05556869 -0.032792836 -0.051892035
000170 80 62 09 bd f8 55 13 3c 18 0c df 3b 8f c9 90 3c
       -0.033541203 0.0089926645 0.0068068616 0.017674236

model_4/gru_8/gru_cell/strided_slice_11 f4 [96]
000000 d6 4d 3f 3d a7 01 06 bd 6f 52 a8 bc 20 5c db bc
       0.04670509 -0.03271642 -0.02054712 -0.026777327
000010 7f 9a 0c bd f5 49 51 3d 0b 69 7b bc ce 7d 61 3c
       -0.034327026 0.05109592 -0.015344868 0.013762904
000020 be c9 e0 bc 1e d5 03 3c 49 1b cf 3a 77 c2 6c bd
       -0.027439948 0.008046417 0.0015800978 -0.057802644
000030 db e2 0f 3d 08 61 b4 3c f8 69 8c 3b 31 ce 88 bc
       0.035128456 0.022018924 0.0042850934 -0.016699882
000040 83 f3 54 3d 41 03 17 bd 80 cf 43 3d bb 0d d4 bc
       0.051990043 -0.036868338 0.04780531 -0.025885453
000050 54 2b 98 bd c0 6c 3b bd c1 ad ca bc 32 b0 23 3d
       -0.07430139 -0.04575801 -0.024741055 0.039962955
000060 75 e4 bc bb dd 4f b1 bc 88 a0 76 3c d2 34 d9 bc
       -0.005764539 -0.021644527 0.015052922 -0.026514445
000070 bc 87 f8 bc 7a 5d 91 3c e3 14 71 3c b9 e3 ab 3c
       -0.03033816 0.017744768 0.014714452 0.02098261
000080 d1 c8 29 bd 8e f2 58 3c d2 d6 02 3c 91 00 95 3b
       -0.04145128 0.013241423 0.0079857875 0.0045471867
000090 37 67 2c 3c fa 29 13 3d 85 72 7a bb 27 28 1b bd
       0.010522655 0.035928704 -0.0038215232 -0.03788009
0000a0 70 56 d5 3a 8d 4f 58 3c 0b ba 95 3d 8c 1a aa 39
       0.0016276371 0.01320256 0.073108755 0.00032444706
0000b0 4b ea 0d bd ef 30 54 bc e5 78 a3 3c 61 44 ee 3b
       -0.034647267 -0.01295112 0.019955108 0.007271335
0000c0 42 06 5a 3c c6 0d 0c 3d b2 6c 69 b9 56 c0 cb 3c
       0.013307156 0.034192823 -0.00022261104 0.024871986
0000d0 86 42 91 3c d5 12 d1 3c 77 81 f1 bb 92 e2 02 3d
       0.017731916 0.025521675 -0.0073701697 0.031954356
0000e0 89 0e 91 3c 2d 56 24 bd 25 66 a1 3b 96 69 1c 3d
       0.017707126 -0.040121246 0.0049255067 0.038186632
0000f0 5b b2 85 3c e5 6e 3f 3d cf ad c2 3c 57 bd c6 3c
       0.016320398 0.046736617 0.023764519 0.024260206
000100 b4 3d d2 3c cf d6 18 bc 01 4a 44 bd 3d 85 9a 3c
       0.025664188 -0.009328558 -0.047922138 0.018862361
000110 f3 12 97 bb e6 e8 f2 3b 42 74 d5 bc 54 cc 3f 3d
       -0.004610413 0.0074130176 -0.026056413 0.04682572
000120 0c 4b 03 bd 12 ce 90 3c 99 64 1c bd 14 ad 20 3b
       -0.032053992 0.017676387 -0.038181875 0.0024517225
000130 0a f6 97 bc 35 a5 af bc c7 a6 26 3b 95 3c 08 3c
       -0.018549938 -0.021441082 0.0025428997 0.008315225
000140 de 13 1b bd c9 a4 08 3d a5 23 0f bd 62 63 9f bc
       -0.037860744 0.033360276 -0.034946103 -0.01945657
000150 9a d0 da 3b c6 3c 6b bc 45 66 1a 3d c9 e3 11 bd
       0.0066776993 -0.014357751 0.037695188 -0.035617623
000160 db 89 03 3c c3 1d 48 3d 67 74 e9 bc d4 3d f2 bc
       0.008028473 0.048856508 -0.028497888 -0.029570498
000170 63 2d 5d bd a9 ec 1a 3c 10 97 87 bb fb e0 7f 3c
       -0.053998362 0.009455838 -0.004137881 0.015617604

model_4/batch_normalization_19/batchnorm/sub f4 [48]
000000 aa d2 7a bf 3e 13 e3 be ab 56 0a 3f 0e 59 6a bf
       -0.979777 -0.44350618 0.54038495 -0.91542137
000010 a2 d3 16 3e c8 53 90 3d 81 e7 1a be 8c f8 8c be
       0.14729169 0.0704723 -0.15127374 -0.27533376
000020 3c 8b 28 bf 30 2f 20 be d8 bb c3 be 2a 9f ad be
       -0.65837455 -0.15643 -0.3822925 -0.33910495
000030 e2 ef 75 bf 6c 05 1e bf 86 33 98 be 08 47 69 bf
       -0.9606916 -0.61727023 -0.2972681 -0.9112401
000040 14 b6 7b 3f ec d9 46 3e 2e 23 23 be 20 01 ca bd
       0.98324704 0.19419068 -0.15931389 -0.09863496
000050 4c 0c 3e bf 01 44 a4 be 3b bc a1 3d 3f 73 56 bf
       -0.74237514 -0.32083133 0.0789723 -0.837696
000060 2e 03 95 be 8f 6f 6a 3f 7b e1 0c 3f 29 4c 3a bf
       -0.29103988 0.91576475 0.55031556 -0.7277246
000070 88 d5 64 bf f7 45 16 bf 2f 15 c6 be 62 f4 91 bf
       -0.8938832 -0.5870051 -0.38688037 -1.1402705
000080 a8 8f 92 3e 9b d5 e2 3e aa 69 47 3f 30 30 2b bf
       0.28625226 0.44303593 0.77895606 -0.66870403
000090 0e 06 d5 be d5 8c 6d 3e ec 86 07 3f 60 51 2b be
       -0.41606182 0.23198254 0.5294025 -0.16730261
0000a0 8e 2c 3b 3f 2e 6a b0 3e 3f 40 74 bf 38 85 3e be
       0.7311486 0.3445601 -0.9541053 -0.18605506
0000b0 79 c5 25 3f 1d 5e 24 3f c8 38 38 3f 70 02 6f be
       0.64754444 0.64206105 0.7196164 -0.23340774

model_4/batch_normalization_19/batchnorm/mul f4 [48]
000000 ed fc 48 40 ae 5e 20 40 b2 d2 0b 40 95 71 f4 3f
       3.1404374 2.5057788 2.1847348 1.9097162
000010 88 92 2b 40 72 45 0a 40 26 5c 09 40 a0 9a 1e 40
       2.6808186 2.1604886 2.1462493 2.4781876
000020 73 ba 60 40 ec 6f 27 40 6f b4 86 40 1c bd 01 40
       3.51138 2.6162062 4.2095256 2.0271673
000030 bd 5a ea 3f 0f 28 f1 3f ba 1c 33 40 73 b3 0a 40
       1.8308941 1.884035 2.7986283 2.1672027
000040 45 9e 07 40 06 7c 31 40 7a a6 ca 40 15 ef 69 40
       2.119035 2.7731948 6.332822 3.6552174
000050 02 34 25 40 54 14 0a 40 6f 4d 0a 40 61 23 01 40
       2.5812993 2.1574907 2.1609762 2.0177844
000060 ed e7 35 40 3a e7 d4 3f 63 5d 48 40 37 f1 e6 3f
       2.8422806 1.6633065 3.1306999 1.8042363
000070 a7 ed d5 3f f8 89 19 40 e7 94 4b 40 97 fd 21 40
       1.6713151 2.399046 3.1809633 2.531103
000080 12 bd 45 40 af ac 03 40 ee e0 c2 3f 4a da d6 3f
       3.089665 2.0574148 1.5224893 1.6785367
000090 2f 64 35 40 f0 7d 09 40 ab 08 34 40 f3 50 6b 40
       2.8342397 2.1483116 2.813029 3.6768157
0000a0 58 09 15 40 48 63 e6 3f 7a 73 69 40 d6 f3 0e 40
       2.3286953 1.7999048 3.6476731 2.2336326
0000b0 0f 40 c0 3f b7 f3 27 40 9b aa dc 3f 59 c9 0b 40
       1.5019549 2.6242502 1.7239565 2.1841643

model_4/batch_normalization_18/batchnorm/sub f4 [96]
000000 e3 55 d2 bf f0 63 0b 40 d6 ec dc 3f 84 5e 09 40
       -1.643246 2.1779747 1.7259777 2.1463938
000010 d6 6d 11 40 b8 46 57 c0 1f 15 b4 3f 68 62 33 bc
       2.2723289 -3.3636913 1.4068946 -0.010948755
000020 e8 f0 31 40 ef 06 51 3f 36 21 e4 bf d9 df 60 40
       2.7803288 0.81651205 -1.7822635 3.5136626
000030 dd ba df bf 35 c4 e1 bf c0 e2 ab bf af 5d da 3f
       -1.7478901 -1.7638003 -1.3428574 1.705984
000040 df 35 f8 bf 4f a9 f2 3f ca 76 28 c0 e7 96 ca 3f
       -1.939144 1.8957919 -2.6322503 1.5827302
000050 2b 11 db 3f 55 1c 37 40 15 74 86 bd 12 04 40 c0
       1.7114614 2.8611042 -0.0656511 -3.0002484
000060 74 bf 0b c0 7b 9b be 3f 5c dc f2 bf fd 74 1e 40
       -2.1835604 1.4891199 -1.8973498 2.4758904
000070 50 f0 4c bf bc cd cf bf a0 33 e2 3e 89 34 a7 3e
       -0.8005419 -1.623466 0.44180012 0.3265727
000080 ec e6 16 40 d5 ed e4 bf d1 13 af 3f 68 35 e3 3d
       2.3578444 -1.788508 1.3677922 0.11094171
000090 55 60 56 3f 68 bd ea bf 40 2f 29 3e 64 64 12 40
       0.8374074 -1.8339052 0.1652193 2.2873774
0000a0 3c d9 e3 be cd 5e cb 3f 2b 7d 2f c0 76 b6 a9 bd
       -0.44501674 1.5888306 -2.7420146 -0.08286755
0000b0 ee 1d c2 be d2 32 11 40 5a b2 6a be 40 ef 8b 3f
       -0.3791346 2.2687268 -0.22919598 1.0932388
0000c0 1d e1 cb bf 64 f7 05 c0 37 69 64 bf 9c 75 b2 bf
       -1.5928074 -2.0932245 -0.89223045 -1.3942142
0000d0 c7 08 ae bf b2 47 d9 bf 02 02 ad bf e1 70 0b c0
       -1.3596429 -1.6975005 -1.3516238 -2.1787646
0000e0 b6 b6 97 bf dd 25 5b 3f 35 3a 61 3f 10 34 dc bf
       -1.1852634 0.8560465 0.8797944 -1.7203388
0000f0 ab 35 e8 bf cf 5f 32 c0 13 19 9b bf d7 30 b9 bf
       -1.8141378 -2.7870977 -1.2117027 -1.446803
000100 c4 11 15 c0 23 34 1a 40 b8 06 53 40 f6 fe a2 bf
       -2.3292093 2.4094322 3.297285 -1.2734058
000110 26 7c 5d bf 86 37 f1 bf b4 6a f5 be 34 6a ce bf
       -0.8651756 -1.884507 -0.4793297 -1.6126161
000120 32 f7 37 3f 4a 75 be bf 5c 51 37 40 c2 9e 92 3f
       0.71861565 -1.4879544 2.8643408 1.1454699
000130 ee 29 9c bf 61 9e d6 3e d2 7e 6e 3f fc 1d 13 c0
       -1.2200296 0.4191771 0.9316226 -2.298705
000140 cc d7 ee 3f 3b b7 14 c0 22 7d e2 3f 8c eb d3 3f
       1.8659606 -2.3236835 1.7694438 1.6556258
000150 75 b3 9d 3f 50 e5 b9 3f 00 6a f4 bf f0 dc 18 3e
       1.2320391 1.4523106 -1.9094849 0.14928031
000160 88 69 4c be 11 4d 6e c0 37 af f5 3f 01 fc a9 3f
       -0.19962132 -3.7234538 1.9194096 1.328003
000170 52 68 fb 3f 4d cd 9f 3e 87 3d 1c 3f 2a 47 32 bf
       1.9641211 0.3121132 0.61031383 -0.6963984

model_4/batch_normalization_18/batchnorm/mul f4 [96]
000000 15 28 90 41 d7 da 14 41 5a 3e 47 41 73 1b ce 40
       18.019571 9.303428 12.452723 6.4408507
000010 38 7e 05 41 63 f7 26 41 52 e3 c1 40 b3 b9 75 41
       8.343315 10.435397 6.058999 15.357837
000020 23 58 3a 41 39 03 86 41 cc 82 87 41 4e 56 16 41
       11.646518 16.751574 16.938866 9.3960705
000030 4c 0b 9a 41 aa 72 46 41 fd 69 f2 40 1f 0b 51 41
       19.255516 12.402994 7.575438 13.065215
000040 9e 9d 9b 41 21 84 75 41 84 24 f9 40 2b ac 83 41
       19.451962 15.344758 7.7857075 16.459066
000050 a1 4f 6a 41 25 d1 4e 41 ff 4c 1a 41 e2 3b 18 41
       14.644441 12.926061 9.643798 9.51462
000060 c3 f6 79 41 57 21 d0 40 65 f2 12 41 de 5f 12 41
       15.622745 6.50407 9.184178 9.148405
000070 cb d8 fd 40 55 ce 5d 41 88 fc 13 41 85 da 4a 41
       7.932714 13.862874 9.249153 12.6783495
000080 62 67 fa 40 a0 12 91 41 92 0e 57 41 9e 56 a1 41
       7.82512 18.134094 13.441057 20.167294
000090 e8 eb 95 41 74 60 84 41 f9 56 ae 41 29 09 0d 41
       18.740189 16.547096 21.792467 8.814736
0000a0 6b d0 55 41 8e 4a 15 41 0b 93 a9 41 f1 92 a2 41
       13.363383 9.330702 21.196798 20.321749
0000b0 ad 28 7d 41 fc 48 0c 41 48 2c 28 41 fe f0 47 41
       15.822431 8.767818 10.510811 12.496336
0000c0 e1 18 f6 40 26 7a 1d 41 e2 f3 9d 41 c7 fe 00 41
       7.690537 9.842321 19.744083 8.0622015
0000d0 86 7b 31 41 6c d1 bc 41 e1 81 a7 41 c2 6f 91 41
       11.092657 23.602257 20.938417 18.17957
0000e0 11 8c d7 40 a5 41 88 41 b0 bf 58 41 97 72 94 41
       6.735848 17.032053 13.546799 18.555952
0000f0 dd 82 5c 41 12 59 d6 40 f3 ff b1 41 6c 79 30 41
       13.781949 6.698373 22.249975 11.029644
000100 46 f5 90 41 47 bc 28 41 a8 51 8f 41 6c f2 2c 41
       18.119762 10.545966 17.914871 10.809185
000110 dd ee 15 41 bf 21 10 41 ef d7 60 41 d3 f9 f1 40
       9.370816 9.008239 14.052718 7.561746
000120 c3 ff 1e 41 f3 f7 7e 41 e0 ad 44 41 76 79 4d 41
       9.937442 15.9355345 12.29245 12.842154
000130 9f a2 32 41 65 1a 83 41 a5 6b 87 41 90 06 69 41
       11.164702 16.387888 16.92756 14.564102
000140 e1 c8 a4 41 71 7b 0e 41 fc 89 9e 41 1e 46 f8 40
       20.598085 8.905137 19.817375 7.758559
000150 d9 e0 82 41 7b 56 25 41 b5 bb ec 40 42 9a 26 41
       16.359789 10.333613 7.3979135 10.412661
000160 e6 d5 52 41 18 4f 91 41 42 8f 1e 41 67 59 91 41
       13.177221 18.16362 9.909975 18.168653
000170 1d 03 6f 41 b1 fd 5d 41 58 dd 42 41 ca aa a8 41
       14.93826 13.874436 12.179039 21.083393

model_4/dense_9/BiasAdd/ReadVariableOp f4 [26]
000000 94 7d 03 bd b5 86 1f 3e 8e aa c2 3d 4c 94 e2 3d
       -0.032102183 0.1557873 0.09505187 0.11063442
000010 5a 0d 97 3d 35 88 7e 3d d8 58 e0 3d 24 d1 9d bc
       0.073755935 0.062141616 0.109544456 -0.019264765
000020 f9 88 f2 3d 49 94 92 bc 38 8a 7a be 64 58 81 be
       0.11842532 -0.017892973 -0.24466789 -0.2526275
000030 28 44 88 be 4a 67 71 be 38 67 83 be e4 ea 88 be
       -0.266145 -0.23574558 -0.25664687 -0.26741707
000040 30 87 8a be 7b 5d 95 be 1e db 85 be 8e 59 8c be
       -0.27056265 -0.29172882 -0.26143736 -0.27412075
000050 a3 e1 7e be 41 9c 77 be d4 73 73 be 0b 34 89 be
       -0.24890761 -0.241807 -0.23774654 -0.26797518
000060 30 a6 8c be 79 5b 80 be
       -0.2747054 -0.25069788

model_4/dense_8/BiasAdd/ReadVariableOp f4 [48]
000000 15 79 e6 3c 92 ce c7 3d 9c 21 70 3d aa 14 ba 3d
       0.028133908 0.09756197 0.058625802 0.090859726
000010 df ed 90 3c 77 d7 58 bc 79 be 95 bc be ee 02 3d
       0.01769155 -0.013234965 -0.018279301 0.031965964
000020 54 f3 13 3e de 7b 18 3d 98 3f aa 3d 89 db a1 3d
       0.14448291 0.037227504 0.08312911 0.07903201
000030 a8 4b 9c 3d 78 59 80 3c ac 64 d2 3c 93 ab d9 3c
       0.07631618 0.015667662 0.02568277 0.02657107
000040 a8 5d ce 3c 6a 09 d1 3d de a3 92 bc 97 da 0f 3d
       0.025191143 0.10206874 -0.017900404 0.035120573
000050 c2 fe d1 3d 9d 19 5f 3d 2e 51 d3 3d cd 47 ae 3d
       0.10253669 0.054467786 0.10318218 0.08509789
000060 0b f2 59 3d 03 71 74 3d 0d 7a c1 bc ae e4 d0 3c
       0.053209346 0.05967809 -0.023617769 0.025499668
000070 fe 77 ce 3d d2 bd ef 3d b6 6f 65 3d b8 d3 e0 3d
       0.100814804 0.11706127 0.05601474 0.10977882
000080 1d 7c 2c 3d ae ac eb 3c f1 d3 86 3d ee 2a 7d 3d
       0.04211055 0.028768864 0.06583393 0.06180852
000090 28 d0 9a 3d 9a 1e 89 3c 3b 9d e0 3d 5c 7d b5 3d
       0.07559234 0.016738225 0.10967489 0.08861801
0000a0 e0 aa a5 3c 35 a2 28 3d a3 65 4d 3c 8d e9 db 3b
       0.020223081 0.041170318 0.012536439 0.006711191
0000b0 48 fe 1c 3d 55 dc 62 3d 95 3f d8 3d 2b b4 c1 3d
       0.03832844 0.055385906 0.10559002 0.094581924
