app/src/main/assets/models/1_to_10.tflite (tflite, 672140 bytes, 52 tensors)

model/batch_normalization/batchnorm/add_1;model/conv1d/Conv1D/Squeeze;model/batch_normalization/batchnorm/mul_1;model/conv1d/BiasAdd;model/conv1d/BiasAdd/ReadVariableOp;model/batch_normalization/batchnorm/mul;model/batch_normalization/batchnorm/sub;model/conv1d/Conv1D;model/conv1d_1/Conv1D f4 [96]
0	0xbf183fb1	-0.59472185
1	0x3e78f43a	0.24311915
2	0xc0003bf1	-2.0036585
3	0x3e9bfe98	0.30467677
4	0x3f23fb8f	0.6405572
5	0x3f80e229	1.0069019
6	0xbea3a826	-0.31964225
7	0x4011b906	2.276918
8	0xbfa63a7d	-1.2986599
9	0x3f26d08c	0.6516197
10	0xbdebdff1	-0.11517323
11	0x3f19c773	0.6006996
12	0xbf6a9b95	-0.9164365
13	0xbff5813c	-1.9180064
14	0xbe72574e	-0.23666117
15	0x3e836142	0.2566014
16	0xbf1d3294	-0.614053
17	0x3f2ef70c	0.68345714
18	0xbf4379f2	-0.7635795
19	0xbe68a955	-0.22720845
20	0x3f60dad2	0.87833893
21	0xbe8ed0b2	-0.27893597
22	0xbf8cda35	-1.1004092
23	0xbe8f691c	-0.2800988
24	0xbfad0522	-1.3517191
25	0xbef41c89	-0.4767802
26	0xbda28733	-0.079359435
27	0x3fd7f224	1.687077
28	0xbf3e274e	-0.74278724
29	0x3fd51949	1.6648341
30	0xbfa14a44	-1.2600789
31	0x3e04641a	0.1292881
32	0x3ec9ee9b	0.39439854
33	0x3ec16898	0.3777511
34	0xbf558eab	-0.8342082
35	0xbc2b5ac0	-0.010458648
36	0x3e6c2e9a	0.23064652
37	0xbe82bdde	-0.25535482
38	0xbf1086da	-0.5645577
39	0x3f22cc0e	0.6359261
40	0xc000689c	-2.0063848
41	0x3f9c597b	1.2214807
42	0xbfc6416b	-1.5488714
43	0x3ee19fc9	0.4406722
44	0xbf2d4be2	-0.67693913
45	0xbda56e4c	-0.08077678
46	0x3d82f428	0.06394225
47	0x402a336a	2.659388
48	0x3f121f15	0.5707868
49	0xbee88615	-0.45414796
50	0x3d233f25	0.03985514
51	0xbf720aab	-0.9454753
52	0x3fa1c264	1.2637448
53	0x3fe6d08d	1.8032395
54	0xbe427fa4	-0.18994004
55	0xbfa1d70d	-1.2643753
56	0xbe05e189	-0.13074316
57	0x3f2d2510	0.6763468
58	0xc01b1277	-2.423002
59	0xbf014596	-0.50496805
60	0x3fe3051a	1.7735932
61	0x4037ee37	2.8739145
62	0xbf248f00	-0.642807
63	0xbfe99867	-1.8249635
64	0xbf8c4374	-1.0958085
65	0xbfab33f9	-1.3375236
66	0x3d506712	0.050879546
67	0x3ea847cc	0.32867277
68	0xbf9a46cf	-1.2052859
69	0xbf476f41	-0.77904135
70	0xbf269182	-0.6506578
71	0xbfab641d	-1.3389927
72	0xbfad5ae0	-1.3543358
73	0xbed6cf0c	-0.4195484
74	0x3f89279b	1.0715212
75	0xbfd560e0	-1.6670189
76	0xbded576a	-0.115889385
77	0xbefe9436	-0.4972245
78	0x3f2d8810	0.6778574
79	0xbfd11322	-1.6333964
80	0x3f944b9e	1.1585577
81	0xbef0fce6	-0.47067946
82	0xbfe65d60	-1.7997246
83	0xbf7446f4	-0.95420766
84	0x3f670b56	0.9025167
85	0x3f6cdc11	0.92523295
86	0xbf07d84e	-0.5306443
87	0x3f0ffe4c	0.562474
88	0xbf81cdfb	-1.0140985
89	0xbf560a0d	-0.83609086
90	0x3f611350	0.87920094
91	0xbe0bac9a	-0.13640061
92	0x3ec4237f	0.3830833
93	0xbfcc3651	-1.5954076
94	0xbfa4ac00	-1.286499
95	0xbed45f4a	-0.4147895

model/batch_normalization_1/batchnorm/add_1;model/conv1d_1/Conv1D/Squeeze;model/batch_normalization_1/batchnorm/mul_1;model/conv1d_1/BiasAdd;model/conv1d_1/BiasAdd/ReadVariableOp;model/batch_normalization_1/batchnorm/mul;model/batch_normalization_1/batchnorm/sub;model/conv1d_1/Conv1D f4 [96]
0	0x3eeb1527	0.45914575
1	0x3f78c271	0.97171694
2	0x3f19dfe9	0.60107285
3	0x3f7d6852	0.98987305
4	0xbe892d09	-0.26792172
5	0x3dfe7137	0.12423938
6	0x3ee94bd0	0.45565653
7	0x3f3a88e3	0.7286512
8	0x3fd6c5b5	1.6779085
9	0xbeaddb90	-0.33956575
10	0x3e56a010	0.20959496
11	0x3f1e6b7d	0.61882764
12	0x3e944d76	0.28965348
13	0xbba20569	-0.0049444926
14	0x3e40f8f4	0.18844968
15	0x3f27bae6	0.6551956
16	0x3fa3f27c	1.2808375
17	0xbcafc383	-0.021455532
18	0xbd257e00	-0.040403366
19	0x3e408d86	0.18803987
20	0x3eaaf902	0.33393103
21	0x3ebe6986	0.37189883
22	0xbeb521f7	-0.35377476
23	0x3e7c4e4d	0.24639244
24	0x3e51f17e	0.20502278
25	0x3dbdca4e	0.09267102
26	0x3e9e78c9	0.30951527
27	0x3f1352fc	0.575485
28	0x3f1a8092	0.6035243
29	0x3ddad739	0.10685582
30	0xbf0a2363	-0.53960246
31	0x3f08395b	0.5321252
32	0x3f791c5f	0.97308916
33	0x3e5a4075	0.21313651
34	0x3e9d6de8	0.30747914
35	0x3ef88e2e	0.48545974
36	0x3e844357	0.25832626
37	0xbf4eafc2	-0.80736935
38	0x3ec71670	0.38884306
39	0x3f312cb4	0.69208837
40	0x3e99b177	0.30018207
41	0x3e5c2055	0.21496709
42	0xbe4e8059	-0.20166148
43	0x3f6c3fb0	0.9228468
44	0x3f0a7da4	0.5409796
45	0x3e1c7b7f	0.15281485
46	0x3ee4ac59	0.4466274
47	0xbc91df9c	-0.01780682
48	0x3ef0891a	0.469796
49	0x3e4a81fd	0.19776149
50	0x3c54ae3c	0.012980994
51	0x3e020d04	0.12700278
52	0x3e705ab8	0.23472106
53	0x3ed3429b	0.41261753
54	0x3dcae596	0.09907071
55	0x3eebc624	0.46049607
56	0x3f61ab1e	0.8815173
57	0xbe7f654e	-0.24940988
58	0xbd34f6cd	-0.04418068
59	0x3f110f91	0.5666438
60	0x3f18070e	0.59385765
61	0x3f4684d0	0.77546406
62	0x3e524452	0.20533875
63	0x3f28f7b9	0.66002995
64	0x3ed23acf	0.41060492
65	0x3e6ebb0f	0.23313545
66	0x3f0a59da	0.5404335
67	0x3f1ee16b	0.6206271
68	0xbdc10aa2	-0.09425856
69	0x3e93a600	0.28837585
70	0xbe3d73b7	-0.18501173
71	0x3f052c66	0.5202087
72	0x3ecdafc4	0.4017316
73	0x3ef13790	0.47112703
74	0x3f9de662	1.2335932
75	0xbdb113a7	-0.086463265
76	0x3eb378af	0.35053012
77	0x3dd9814f	0.10620367
78	0x3f700142	0.9375192
79	0x3eadb165	0.33924404
80	0x3ec24c46	0.37948817
81	0x3ea37a02	0.31929022
82	0x3dfc5ba7	0.12322169
83	0x3ebf8f7c	0.37414157
84	0xbe307363	-0.17231517
85	0xbe4c2965	-0.19937666
86	0x3e262202	0.1622391
87	0x3f606428	0.87652826
88	0x3ef159c9	0.47138813
89	0xbdb5c534	-0.08875504
90	0x3ee332bf	0.44374654
91	0xbd3564f6	-0.044285737
92	0x3f2933de	0.6609477
93	0x3f553801	0.8328858
94	0x3ebf6d9b	0.3738831
95	0x3db43297	0.08798712

model/batch_normalization/batchnorm/mul_1;model/conv1d/Conv1D/Squeeze;model/conv1d/BiasAdd;model/conv1d/BiasAdd/ReadVariableOp;model/batch_normalization/batchnorm/mul;model/conv1d/Conv1D;model/conv1d_1/Conv1D f4 [96, 1, 3, 126]
0	0xbd311d15	-0.043240625
1	0xbbf9a7f5	-0.007618899
2	0xbc264a60	-0.010149568
3	0x3eb2a3ea	0.34890682
4	0xbc92aeaf	-0.017905561
5	0x3dfc65bf	0.12324094
6	0x3ed87b60	0.42281628
7	0x3e8954d7	0.2682254
8	0x3dabea8d	0.083943464
9	0xbeba69f6	-0.36408967
10	0xbc83402e	-0.016021814
11	0x3cf5bd11	0.02999738
12	0xbe5bf43b	-0.21479885
13	0xbf021257	-0.50809234
14	0xbd9cf92e	-0.07664715
15	0x3e3e2bd2	0.18571404
16	0xbe92fdbd	-0.28709212
17	0x3e5b3f30	0.21410823
18	0xbe6b6ea1	-0.2299142
19	0xbf041607	-0.5159611
20	0xbd3cde51	-0.046110455
21	0xbee321e0	-0.44361782
22	0x3ea072d8	0.3133762
23	0xbe7c0edc	-0.24615043
24	0x3ebbce47	0.36680815
25	0x3fb0d740	1.3815689
26	0xbe6b67f3	-0.22988872
27	0xbe80b5ad	-0.25138608
28	0x3cd65d42	0.026167516
29	0x3e844243	0.25831804
30	0xbcc22b41	-0.023702266
31	0x3d4669ff	0.04844093
32	0x3e05c25e	0.13062426
33	0xbe10289d	-0.14077993
34	0xbf2ac2db	-0.66703576
35	0x3d612baf	0.0549733
36	0xbebac732	-0.364801
37	0xbe8923dc	-0.2678517
38	0x3b58774a	0.0033030086
39	0x3eca022c	0.39454782
40	0xbf0032ed	-0.50077707
41	0x3de3a44f	0.11115324
42	0x3eadaa6f	0.33919093
43	0xbf313425	-0.6922019
44	0x3cc94dd4	0.024573244
45	0xbcaf4039	-0.021392928
46	0xbeb20dcc	-0.3477615
47	0x3c6ff941	0.014646829
48	0xbdf04bc8	-0.11733204
49	0x3f8777e0	1.0583458
50	0x3d130fc8	0.035903722
51	0x3ebf1d7e	0.37327188
52	0x3f1966db	0.5992257
53	0x3cfc227e	0.030778166
54	0x3efa9512	0.48941857
55	0x3ee2db18	0.4430778
56	0x3e1ccab8	0.15311706
57	0xbeb7f19d	-0.35926524
58	0xbe48ef0b	-0.19622438
59	0x3e3cdc8f	0.18443511
60	0xbe755554	-0.23958331
61	0xbf56b935	-0.83876354
62	0x3e37a68e	0.1793463
63	0xbc210588	-0.009827979
64	0x3c64375a	0.0139292125
65	0x3cc0cdbd	0.023535604
66	0xbd2ac172	-0.04168839
67	0x3d2e17eb	0.04250328
68	0xbb5dbe48	-0.003383534
69	0xbc377a84	-0.011198644
70	0x3cb9b0f2	0.022667382
71	0x3d15adec	0.036542818
72	0xbcb21677	-0.021739228
73	0x3babb1df	0.0052397097
74	0xbcb7030e	-0.022340324
75	0xbccd1eb6	-0.025039058
76	0xbc9b9a64	-0.018994518
77	0x3cac2816	0.021015208
78	0xbc0d99fe	-0.008642672
79	0x3c3b4dcf	0.011432125
80	0x3c141e9e	0.009040503
81	0x3d4a18e8	0.04934016
82	0x3cdbaff6	0.026817303
83	0x3c6e1d2f	0.014533325
84	0xbbaeab13	-0.005330452
85	0x3c785bb3	0.015158582
86	0x3c6e424d	0.0145421745
87	0xbcc89746	-0.024486195
88	0x3d00b660	0.031423926
89	0x3c3775c9	0.011197516
90	0xbc2c6d52	-0.010524111
91	0xbc627902	-0.013822796
92	0xbba3e1c5	-0.005001279
93	0xbc26485f	-0.010149091
94	0x3a30245f	0.0006719287
95	0x3bc423b5	0.005985702
96	0xbcfba59d	-0.030718619
97	0x3d206ee3	0.03916825
98	0xbc9c7993	-0.01910094
99	0xbd55c2dc	-0.052187786
100	0x3c3fcbee	0.0117063355
101	0x3c0f5807	0.008749015
102	0x3c244015	0.010025044
103	0xbd633455	-0.05546983
104	0xbc28b6bb	-0.010297473
105	0xbbb3f25b	-0.0054915375
106	0x3d5b0d59	0.053479526
107	0xbd055779	-0.032554124
108	0xbc9637ff	-0.018337248
109	0x3d239690	0.03993851
110	0x3be68a9d	0.007035567
111	0x3ca025f3	0.019549346
112	0xbc70b72c	-0.014692109
113	0x3c8bc902	0.017063621
114	0xbd87a179	-0.06622595
115	0x3c0e4c9c	0.008685257
116	0xbcf1da8a	-0.029523153
117	0x3b393957	0.0028262937
118	0xbc1d0a5f	-0.009584992
119	0xbcc74553	-0.024325049
120	0xbca5d431	-0.020242782
121	0x3c072172	0.00824772
122	0xbcf97498	-0.030451104
123	0x3c899ab2	0.016797397
124	0xbca9e41d	-0.020738656
125	0xbcd32eac	-0.02577909
126	0xbcf1670d	-0.029468084
127	0xbc19993e	-0.009374915
128	0xbb818488	-0.0039525665
129	0x3dd2578f	0.10270607
130	0xbc52689b	-0.012842323
131	0x3e07068e	0.13186094
132	0x3e7d86c5	0.24758442
133	0x3eddc49d	0.43314067
134	0x3dac18f2	0.084031954
135	0x3ee07ce7	0.43845293
136	0xbdc29611	-0.09501279
137	0x3bca83fe	0.0061802855
138	0x3f18aee4	0.5964186
139	0xbe573856	-0.21017584
140	0xbd2bc377	-0.041934457
141	0xbb6cfbe5	-0.0036160883
142	0xbe9bc24f	-0.30421683
143	0x3e809dfa	0.25120527
144	0x3d114e0d	0.035474826
145	0xbef6cfeb	-0.48205504
146	0xbd0af69a	-0.033926584
147	0x3eb41f7e	0.35180277
148	0x3e2bc416	0.1677402
149	0xbe7312c0	-0.23737621
150	0xbe304a7c	-0.17215914
151	0x3f61e4a3	0.88239497
152	0xbe7323c7	-0.23744117
153	0xbe01d5b0	-0.12679172
154	0xbd96003a	-0.07324262
155	0x3e92ad7c	0.28647983
156	0xbe3d1b30	-0.18467402
157	0xbe2e8321	-0.17042209
158	0x3e250466	0.16114959
159	0x3c23eb9a	0.010004902
160	0xbe528651	-0.2055905
161	0x3d5c1e53	0.053739857
162	0x3dcac76b	0.09901317
163	0xbf716ee8	-0.94309855
164	0x3ce225b1	0.027605863
165	0x3e814132	0.25245053
166	0xbec7746b	-0.38956007
167	0x3e04ebb7	0.12980543
168	0x3e1bb200	0.1520462
169	0xbf0953b6	-0.5364336
170	0x3da552a5	0.08072404
171	0xbe368ba7	-0.1782671
172	0x3f12a57a	0.5728375
173	0x3af75eb4	0.0018872828
174	0xbdca4108	-0.09875685
175	0x3f2bebca	0.6715666
176	0x3d833207	0.06406026
177	0x3eaf055a	0.3418377
178	0x3efd0af8	0.4942243
179	0x3da1016b	0.078615986
180	0xbe7eda23	-0.248879
181	0x3eaeac3b	0.34115776
182	0x3e4d1ba2	0.20030072
183	0x3e7c0345	0.24610622
184	0xbea9e0f3	-0.33179435
185	0x3e14e0ed	0.14538927
186	0x3ed1ce19	0.40977553
187	0x3dead8b8	0.11467117
188	0x3e4bb64d	0.19893761
189	0x3ac3d618	0.0014941124
190	0x3cc6dcea	0.024275262
191	0xbbf7ca37	-0.0075619477
192	0xbbd1da05	-0.006404164
193	0x3d8e81ab	0.06958326
194	0xbd205cc5	-0.039150972
195	0xbc94931c	-0.018136553
196	0x3d3d866b	0.04627077
197	0xbbbc0ac4	-0.005738588
198	0x3cd0b54e	0.025477078
199	0x3c81c9f4	0.015843369
200	0x3bfd9eed	0.0077398927
201	0x3b474763	0.003040754
202	0x3cc71a85	0.024304638
203	0x3c187dbe	0.009307323
204	0x3c8ab4e3	0.016931957
205	0x3d127997	0.03576049
206	0xb9c00e2d	-0.00036631656
207	0x3d18dc5b	0.037319522
208	0x3d3c745f	0.046009418
209	0x3c7034f2	0.014661061
210	0x3b0c8396	0.0021440736
211	0x3d5c4a9a	0.053782083
212	0x3cd67723	0.026179856
213	0xbc9513eb	-0.018197974
214	0x3d575e0a	0.052579917
215	0x3c579b9e	0.013159661
216	0xbab063cf	-0.001345748
217	0x3d13f088	0.03611806
218	0xbbdde611	-0.006771811
219	0xbc65217b	-0.013985033
220	0x3d52beda	0.05145154
221	0x3cefb42e	0.029260721
222	0xbc96a942	-0.018391255
223	0x3da0e998	0.078570545
224	0x3cbc7987	0.023007168
225	0xbce72e5a	-0.028220344
226	0x3cc94939	0.024571048
227	0xbb9e80cf	-0.0048371325
228	0x3c4fe9c6	0.012690013
229	0xbc21c520	-0.009873658
230	0x3c0851a5	0.008320247
231	0x3ca5354f	0.020167021
232	0x3cd18b94	0.025579251
233	0x3a1e51e0	0.0006039422
234	0xbc1e756c	-0.00967155
235	0x3d2691d3	0.040666413
236	0x3cedcbac	0.029027782
237	0x3c711ee3	0.014716837
238	0x3c822acc	0.015889548
239	0x3cc55c6f	0.024091927
240	0xbd743575	-0.059621293
241	0x3ce4f990	0.027951032
242	0xbb1f9a61	-0.0024353492
243	0x3c2b9a31	0.010473774
244	0x3cacac66	0.0210783
245	0xbb9f8701	-0.0048683886
246	0xbb7e5618	-0.003880864
247	0x3cab5357	0.020913763
248	0xbbb3b490	-0.005484171
249	0x3acd6672	0.001567079
250	0xbca1b48d	-0.019739414
251	0xbcc543f3	-0.024080252
252	0xbc954a72	-0.018223975
253	0xbc3f87a1	-0.011690051
254	0xbc216a8c	-0.009852063
255	0x3e9f22fd	0.3108138

model/batch_normalization_1/batchnorm/mul_1;model/conv1d_1/Conv1D/Squeeze;model/conv1d_1/BiasAdd;model/conv1d_1/BiasAdd/ReadVariableOp;model/batch_normalization_1/batchnorm/mul;model/conv1d_1/Conv1D f4 [96, 1, 3, 96]
0	0xbdcf2605	-0.101146735
1	0xbcb9369b	-0.022609046
2	0xbc6f7f07	-0.014617688
3	0x3d96bc6a	0.07360156
4	0x3c19e303	0.009392503
5	0x3c34b5a0	0.011029631
6	0x3d3b3900	0.045708656
7	0xbd3656ad	-0.044516254
8	0xbd02f80e	-0.031974845
9	0xbcf2493d	-0.029575938
10	0xbd50d3c1	-0.050983194
11	0x3d57bbd1	0.05266935
12	0xbd03edaf	-0.032209095
13	0x3d7b9133	0.06141777
14	0x3c9dd4a5	0.019266436
15	0x3ca7ef9a	0.020499993
16	0xbd39fc0a	-0.04540638
17	0xbcd6d916	-0.026226562
18	0xbbb4f6b8	-0.005522575
19	0x3b98b78f	0.0046605538
20	0xbd2cdf23	-0.042204987
21	0xbd3cf167	-0.046128657
22	0xbd381567	-0.044942286
23	0xbcb7e8e1	-0.022449913
24	0xb8076eca	-3.228969e-05
25	0x3d0e58de	0.03475272
26	0xbcd9469f	-0.026522933
27	0xbd0acc72	-0.03388638
28	0xbc84810a	-0.016174812
29	0xbdaae5bc	-0.083445996
30	0xbc297a44	-0.010344092
31	0x3c1e2cb4	0.009654213
32	0xbca25e30	-0.019820303
33	0xbd20384a	-0.03911618
34	0xbd05d1e0	-0.032670856
35	0xbc89b9ac	-0.016812168
36	0x3ac614b6	0.0015112374
37	0x3d8170a2	0.06320311
38	0xbd5e5e76	-0.054289304
39	0x3d262030	0.04055804
40	0x3d212702	0.03934384
41	0xbd6ce192	-0.057832308
42	0xbc21cd50	-0.0098756105
43	0xbc93a32a	-0.018022139
44	0xbccd96bb	-0.025096288
45	0x3ccda427	0.025102688
46	0xbc8c5e6b	-0.017134866
47	0xbd06d66e	-0.03291934
48	0xb9ced717	-0.00039451636
49	0x3be9ff96	0.007141064
50	0xbcdf07a4	-0.027225323
51	0x3d84a676	0.064770624
52	0x3a05073a	0.0005074624
53	0x3c1790f6	0.00925087
54	0x3cb4d40b	0.022073766
55	0xbc0238d2	-0.007948117
56	0xbd2563a9	-0.040378246
57	0x3caa8a0c	0.020817779
58	0xbca338fc	-0.019924633
59	0xbc859f71	-0.01631138
60	0xbd6a1ced	-0.057156492
61	0xbab2b865	-0.0013635276
62	0xbd768429	-0.06018463
63	0xbc1daf7b	-0.009624357
64	0x3d06c554	0.03290303
65	0x3d23b985	0.039971847
66	0xbada484f	-0.001665363
67	0x3dbed243	0.09317448
68	0xbcd95745	-0.026530871
69	0x3b9b481a	0.00473882
70	0xbc46eab7	-0.012140921
71	0xbccebd48	-0.02523674
72	0xbd5ca374	-0.05386682
73	0x3d17b497	0.03703746
74	0xbc44cad4	-0.012011249
75	0xba8cae30	-0.0010733064
76	0xbbd3cd3b	-0.0064636744
77	0x3d8c1ed1	0.06841815
78	0xbc1115ef	-0.008855327
79	0x3c42ad41	0.011882127
80	0xbc8209cc	-0.015873812
81	0x3db5cfc5	0.088775195
82	0x3cd6d8df	0.02622646
83	0x3cc511ab	0.024056276
84	0xbc60d41f	-0.013722449
85	0xbcb2f8e8	-0.021847203
86	0xbb321e4c	-0.0027178703
87	0xbcaf5d43	-0.021406775
88	0xbcc6dd5f	-0.02427548
89	0x3caf109a	0.02137022
90	0x3aef821f	0.0018273032
91	0x3cbf77fb	0.02337264
92	0xbcceb656	-0.025233429
93	0xbd38b8a2	-0.045097955
94	0xbcc84641	-0.024447562
95	0x3d310757	0.04321989
96	0xbdb1c7e5	-0.08680705
97	0xbd10210f	-0.035187777
98	0xbc6bbd56	-0.014388403
99	0x3da7f8b2	0.08201732
100	0xbc52aef7	-0.012859098
101	0xbc5c7248	-0.013454981
102	0x3d16247b	0.036655884
103	0xbd7300a0	-0.059326768
104	0xbd501aa4	-0.050806656
105	0xbca4ee89	-0.020133274
106	0xbd78c864	-0.060737982
107	0x3db5ae56	0.088711426
108	0xbd101af7	-0.035181966
109	0x3d2e5cb4	0.042568877
110	0x3b17ab99	0.0023143052
111	0x3d206ea9	0.039168034
112	0xbd647dea	-0.055784144
113	0xbd007834	-0.031364635
114	0xbd0b5236	-0.03401395
115	0xbb3e1464	-0.0029003853
116	0xbdaa1ace	-0.08305894
117	0xbd6f67c6	-0.058448575
118	0xbccf0103	-0.025269037
119	0xbcdedd2c	-0.027205072
120	0xbcd336d4	-0.02578298
121	0x3c907fbf	0.01763904
122	0xbd298fce	-0.04139691
123	0xbd876d7d	-0.0661268
124	0xbca7114c	-0.02039399
125	0xbdbe83ac	-0.09302458
126	0xbd19d497	-0.037556257
127	0x3cb7d515	0.022440473
128	0xbbd5b076	-0.00652128
129	0xbd15562d	-0.036459137
130	0xbd2ba5ac	-0.041906044
131	0xbce51618	-0.027964637
132	0xbd75916e	-0.059953146
133	0x3d8a6808	0.06758124
134	0xbd100367	-0.035159495
135	0x3d2a0a21	0.041513566
136	0x3ccf953a	0.025339711
137	0xbc82eab7	-0.015981061
138	0xbc06cac7	-0.008227057
139	0xbd11c6aa	-0.03558985
140	0xbc1d53a9	-0.009602466
141	0x3c97a33a	0.01851045
142	0x3aded0df	0.0016999504
143	0xbcc4ef58	-0.02403991
144	0xbb55e9f3	-0.0032640665
145	0x3cf9a5ab	0.030474504
146	0xbc89beb2	-0.016814563
147	0x3d98a0b2	0.07452525
148	0xbcb33bb7	-0.02187906
149	0xbcdafbe1	-0.026731433
150	0x3b85679e	0.00407119
151	0xbcdcb745	-0.026942858
152	0xbcc8409a	-0.024444867
153	0x3abc69e6	0.0014374822
154	0xb906bc8c	-0.00012849475
155	0xbc384234	-0.011246253
156	0xbdb6384a	-0.08897455
157	0x3b6d6136	0.0036221272
158	0xbd51575f	-0.051108714
159	0x3b1d54fb	0.002400695
160	0x3d76e823	0.060279977
161	0x3d149762	0.036277182
162	0xbbccec2a	-0.006253739
163	0x3da63f0c	0.08117494
164	0xbd2dbb53	-0.042414974
165	0x3caa81e2	0.020813886
166	0xbcaccf7d	-0.021095032
167	0xbcb0df00	-0.02159071
168	0xbd498472	-0.049198575
169	0x3ca402ce	0.020020869
170	0x3abfbf41	0.0014629142
171	0xbc43c4c4	-0.011948768
172	0xbc3a4d71	-0.0113710025
173	0x3d7f6c6d	0.062359262
174	0x3cd53d64	0.02603025
175	0xbc0426ba	-0.008065874
176	0xbd1b85ec	-0.037969515
177	0x3da5b2ac	0.080907196
178	0x3d140a2d	0.036142517
179	0x3cb44364	0.02200479
180	0xbd14430f	-0.036196765
181	0xbcb44817	-0.022007031
182	0xbcc620a4	-0.024185486
183	0x3c60939e	0.01370707
184	0xbc0dd458	-0.008656584
185	0x3d290f21	0.041274194
186	0xbd02eabd	-0.031962145
187	0x3cf3a0b9	0.029739724
188	0xbd202133	-0.03909416
189	0xbd045bd0	-0.03231412
190	0xbc3e1a8d	-0.01160301
191	0x3d1bbcd4	0.038021877
192	0xbdb9db43	-0.09075024
193	0xbd1863a6	-0.037204407
194	0xbca49491	-0.020090373
195	0x3dc1e14b	0.09466799
196	0x3c06cc79	0.008227461
197	0xbbb4444e	-0.0055013066
198	0x3d439269	0.04774705
199	0xbd6bde41	-0.057585005
200	0xbd0a08e3	-0.03369988
201	0x390f6307	0.00013674433
202	0xbd51070e	-0.05103212
203	0x3da14478	0.078743875
204	0xbd2e6433	-0.042576026
205	0x3d5e8067	0.054321673
206	0x3bcfdcba	0.0063434513
207	0x3ca0c398	0.019624516
208	0xbd05d96e	-0.03267806
209	0xbca0bc93	-0.01962117
210	0xbd1101a0	-0.03540194
211	0x3bf1ff2b	0.0073851547
212	0xbd363995	-0.04448851
213	0xbd5304ad	-0.05151813
214	0xbca69752	-0.020335827
215	0xbced2efe	-0.028953072
216	0xbc6f9e29	-0.014625111
217	0x3d1a213a	0.037629344
218	0xbcbdadd9	-0.023154186
219	0xbd5c0d88	-0.053723842
220	0xbc979249	-0.018502371
221	0xbdc036dd	-0.09385464
222	0xbd115c35	-0.035488326
223	0x3ce57f3d	0.028014774
224	0xbb04bc3d	-0.00202538
225	0xbd0d7865	-0.034538645
226	0xbd4d7d56	-0.050168358
227	0xbcc82f79	-0.0244367
228	0xbc848bea	-0.016179997
229	0x3d91bed6	0.07116477
230	0xbd3a940c	-0.045551345
231	0x3c995e0e	0.018721607
232	0x3d463ea1	0.04839957
233	0xbd26a5e7	-0.04068556
234	0xbc53f967	-0.01293788
235	0xbcd293d9	-0.025705265
236	0xbc435e2a	-0.011924306
237	0x3c22418a	0.009903321
238	0x3a42d1e6	0.000743179
239	0xbd4f498b	-0.050607245
240	0xbc8cf7fe	-0.017208096
241	0x3c39a285	0.011330252
242	0xbc132320	-0.008980542
243	0x3daa5d3a	0.08318563
244	0xbc8358ef	-0.016033618
245	0xbcf39934	-0.029736139
246	0x3c3783ab	0.011200826
247	0xbce63a0b	-0.028103849
248	0xbd36e171	-0.04464859
249	0x3cb58bca	0.022161383
250	0xbaced9a8	-0.0015781419
251	0xbbb8ea28	-0.005643148
252	0xbd5eef08	-0.054427177
253	0xbca16b01	-0.019704344
254	0xbd04fec0	-0.03246951
255	0xbc2bb068	-0.01047907

model/gru/gru_cell/strided_slice_4 f4 [96]
0	0x3bbcb37b	0.0057587004
1	0x3b2fa61f	0.0026801897
2	0x3c495694	0.012288708
3	0xbcbebc0e	-0.02328303
4	0x3cc8b158	0.024498627
5	0x3d1d7790	0.0384441
6	0x3d1e511d	0.038651574
7	0xbd4386d4	-0.047736004
8	0x3c63c4dc	0.013901915
9	0x3d32c7ee	0.0436477
10	0xbc1541eb	-0.009109954
11	0x3d865014	0.065582424
12	0x3c858013	0.016296422
13	0x3cc61563	0.02418012
14	0xbd7230f8	-0.05912873
15	0xbd78911c	-0.060685262
16	0xbc82420e	-0.015900638
17	0xbd743d89	-0.059628997
18	0x3d1fb298	0.03898868
19	0xbc4a7826	-0.012357747
20	0x3d048b1b	0.032359224
21	0x3c770a2f	0.015078112
22	0x3c8c915a	0.017159153
23	0x3a5e2f5e	0.0008475686
24	0x3ce906a4	0.02844555
25	0xbc7b8828	-0.015352286
26	0x3d185393	0.037189078
27	0xbcd14010	-0.025543243
28	0xbc264454	-0.010148127
29	0x3d1020e5	0.03518762
30	0x3c86d36a	0.016458232
31	0x3cc939f3	0.024563765
32	0x3d2808f5	0.041024167
33	0x3c69c502	0.014268162
34	0x3d4cae0f	0.049970683
35	0x3c4e743f	0.012600957
36	0x3c9805ed	0.018557513
37	0x3d2f3ea6	0.042784356
38	0x3d0421b3	0.0322587
39	0x3cd2563f	0.025675891
40	0xbcc7c98d	-0.0243881
41	0xbb3e312d	-0.002902101
42	0x3cfa4c11	0.03055385
43	0x3d01ef4d	0.031722356
44	0xbbe322bf	-0.0069316323
45	0xbbc47c7e	-0.005996286
46	0x3b5b0df6	0.003342507
47	0x3b120d10	0.0022285618
48	0xbacbdfbd	-0.001555435
49	0x3d00f93e	0.031487696
50	0xbc4c5b2e	-0.012472911
51	0x3c10b7f2	0.0088329185
52	0xbc7fbe02	-0.015609266
53	0x3ce0e5b8	0.027453288
54	0x3cb3316e	0.021874156
55	0xbc2bc6e7	-0.010484434
56	0x3c137431	0.00899987
57	0xbb2562d2	-0.0025235903
58	0x3dc508c9	0.09620816
59	0x3c8e263b	0.017352214
60	0xbd1d30d7	-0.038376655
61	0x3c41b023	0.011821779
62	0x3a4ad990	0.0007738108
63	0x3c001210	0.007816806
64	0x3d64c568	0.055852324
65	0x3b8fb0e9	0.004385103
66	0x3cabae14	0.02095703
67	0xbccd6e27	-0.025076939
68	0x3d23316f	0.039842065
69	0x3c5575ca	0.013028571
70	0xba98eb2f	-0.001166677
71	0x3dbc97a5	0.092086114
72	0xbbb75e69	-0.0055959714
73	0x3ccd1f9c	0.025039487
74	0xbc20d558	-0.00981649
75	0x3a032dd4	0.00050040823
76	0xbbd26005	-0.006420138
77	0xbc54296b	-0.012949328
78	0x3ca31b10	0.019910365
79	0x3cd056dd	0.025432045
80	0x3d66aeaa	0.056318916
81	0x3c0d3363	0.008618209
82	0xbc9c5b6c	-0.019086562
83	0x3cbca26b	0.023026666
84	0x3b4ff7cd	0.0031733394
85	0xbc01b627	-0.007916964
86	0x3b1fc9e1	0.0024381804
87	0x3cc0ff26	0.023559164
88	0xbbd14502	-0.0063864
89	0xbd1efc80	-0.03881502
90	0x3a18d9b5	0.0005830781
91	0x3c209876	0.0098019745
92	0xbb9f5610	-0.0048625544
93	0x3d002a4a	0.03129033
94	0x3cb9a887	0.022663368
95	0x3ceab7d3	0.028652107

model/gru/gru_cell/strided_slice_3 f4 [96]
0	0x3dfed95c	0.12443802
1	0x3dc8edd1	0.09810985
2	0x3d6cfb0a	0.057856597
3	0x3d12f486	0.035877727
4	0x3dc921d1	0.09820903
5	0x3e1f1b6c	0.15537804
6	0x3dfa41f0	0.12219608
7	0x3ba383a5	0.0049900585
8	0x3d36d335	0.044635016
9	0x3db12a04	0.08650592
10	0x3c17f5de	0.009274928
11	0x3e3a349b	0.1818413
12	0x3d5b4f17	0.053542223
13	0x3e4b5802	0.19857791
14	0x3cde5c0e	0.027143504
15	0x3d3f6025	0.04672255
16	0x3ce51407	0.027963651
17	0x3c0217ae	0.007940216
18	0x3df107ad	0.11769042
19	0x3cbc0c0d	0.022954965
20	0x3deabe5d	0.1146209
21	0x3df47749	0.11936814
22	0x3dc9f006	0.09860234
23	0x3dc9a06b	0.098450504
24	0x3dc9871a	0.09840222
25	0x3d841e12	0.06451048
26	0x3e54a7a5	0.20767076
27	0x3e6751d0	0.22589803
28	0x3dbb73e0	0.09152961
29	0x3dd9a30b	0.10626801
30	0x3dadb56e	0.084818706
31	0x3d9ba930	0.07600629
32	0x3e4e618d	0.201544
33	0x3dee258d	0.11628256
34	0x3e3b8a78	0.1831454
35	0x3e161de5	0.14659841
36	0x3d074286	0.033022426
37	0x3e30e744	0.17275721
38	0x3dc4e61c	0.096142024
39	0x3e0c96ba	0.13729373
40	0x3cce7682	0.025202993
41	0x3db6fd4b	0.089350305
42	0x3df5b0b8	0.11996597
43	0x3e549aad	0.20762129
44	0x3e39c3ad	0.1814105
45	0x3dbb8fd0	0.091582894
46	0x3d48427b	0.048891526
47	0x3dc5e9b2	0.096637145
48	0x3d837c22	0.06420161
49	0x3e22333a	0.15839854
50	0x3be3ed60	0.0069557875
51	0x3d404b63	0.046946894
52	0x3d593b5c	0.053035125
53	0x3d8c5fd9	0.06854219
54	0x3d9d7ce9	0.0768984
55	0x3d8fac2d	0.07015262
56	0x3d7c1911	0.061547343
57	0x3d9278b9	0.07151932
58	0x3de5cf8c	0.11221227
59	0x3d4ebf8c	0.050475642
60	0xbc9a63fb	-0.018846503
61	0x3df97b71	0.12181748
62	0x3d59d9eb	0.05318634
63	0x3c13a45b	0.009011353
64	0x3e3bce60	0.18340445
65	0x3c1720c6	0.009224122
66	0x3d2fdea2	0.04293693
67	0x3d2a483e	0.0415728
68	0x3dbd32a3	0.09238174
69	0x3c81a6c9	0.0158266
70	0xbc69fc20	-0.014281303
71	0x3e65118f	0.2236998
72	0x3d9bf8e1	0.07615829
73	0x3d8a5f36	0.06756441
74	0x3cfb4049	0.030670302
75	0x3daa6001	0.083190925
76	0x3cef2919	0.029194402
77	0x3db74344	0.08948377
78	0x3d8e84cc	0.06958923
79	0x3dc78070	0.097412944
80	0x3dfa9f9b	0.122374736
81	0x3de2fd02	0.11083414
82	0x3b722733	0.0036949634
83	0x3deaecb5	0.114709295
84	0x3df21b78	0.118216455
85	0x3d0cc9c4	0.034372106
86	0x3e0b41ac	0.1359927
87	0x3d538488	0.051640064
88	0x3d8688c4	0.06569055
89	0x3ca051c4	0.019570239
90	0x3d4aac00	0.04948044
91	0x3dc8d721	0.098066576
92	0x3d6d7087	0.057968643
93	0x3c9a6fba	0.018852104
94	0x3dc277bf	0.09495496
95	0x3dd5083b	0.104019605

model/gru/gru_cell/strided_slice_5 f4 [96]
0	0xbcfe2cfb	-0.031027308
1	0xbd242378	-0.040072888
2	0x3caabeec	0.020842992
3	0x3cedc437	0.029024227
4	0x3c9be3e1	0.01902956
5	0x3d52c81c	0.05146037
6	0x3ca8aebc	0.020591132
7	0xbcd24381	-0.025666954
8	0x3c5f9e6b	0.01364861
9	0xbb2a37d4	-0.0025973218
10	0x3c54267d	0.012948629
11	0xbc1aa418	-0.009438537
12	0xbce7c762	-0.028293315
13	0xbd02dbb3	-0.031947803
14	0xbc942ea1	-0.01808864
15	0x3d692a61	0.05692518
16	0x3c45b5e8	0.012067296
17	0x3ca0fcfd	0.019651884
18	0x3c864550	0.016390473
19	0x3b4a0575	0.0030826007
20	0x3ca39836	0.01997004
21	0xbc24720c	-0.0100369565
22	0xbd319b0a	-0.043360747
23	0xbc9fb9e8	-0.019497827
24	0xbca249a5	-0.019810507
25	0xbd5179cb	-0.05114154
26	0xbbc94eb6	-0.0061434163
27	0x3aec3145	0.0018020055
28	0x3ce3ac1d	0.027792031
29	0xbc74e4c6	-0.014947122
30	0x3c547ab5	0.012968709
31	0xbc2de3e4	-0.010613415
32	0xbb4d01d7	-0.0031281614
33	0x3b5a1c54	0.0033281045
34	0xbb82d43a	-0.0039925845
35	0xbb31ef11	-0.0027150551
36	0x3cbe84cb	0.02325668
37	0x3b232e80	0.0024899542
38	0xbd179aa9	-0.03701273
39	0xbbeed91b	-0.0072890646
40	0xbcd98b5a	-0.026555706
41	0x3c36134a	0.011112997
42	0x3cbcd9db	0.0230531
43	0x3c0cae7f	0.008586525
44	0xbc466b3c	-0.012110528
45	0x3b59f7c3	0.003325925
46	0xbd7b203b	-0.061310034
47	0xbc56e287	-0.013115532
48	0x3d042644	0.032263055
49	0xbcd95506	-0.0265298
50	0xbce2c1b8	-0.027680263
51	0xbc63c931	-0.013902948
52	0x3c99fc42	0.018797044
53	0xbc2aa8d0	-0.010416225
54	0xba1608cf	-0.00057233585
55	0xbc757013	-0.014980334
56	0x3a910673	0.0011064544
57	0x3cbaf746	0.022822987
58	0x3bd4922e	0.0064871525
59	0x3cc5e01c	0.024154715
60	0xbc04b15c	-0.008098926
61	0x3d1b7c1c	0.037960157
62	0x3d694ee0	0.056959987
63	0x3d9f290a	0.077714995
64	0x3d143e4e	0.03619223
65	0xbb1ac24e	-0.002361435
66	0x3b5aae08	0.003336789
67	0xbc4c101f	-0.012455015
68	0xbc6fa7cb	-0.014627407
69	0x3b4d1b79	0.0031296893
70	0xbcc4375a	-0.023952175
71	0x3bf4cf54	0.0074710045
72	0x3984bbfd	0.00025317064
73	0xbc779d01	-0.015113116
74	0x3c6f03a4	0.01458827
75	0x3c72b1ff	0.014812945
76	0xbc4a80f3	-0.012359845
77	0xbc3da192	-0.011574166
78	0xbd84f36e	-0.06491743
79	0xbceb037e	-0.028688189
80	0x3c3c5db6	0.011496952
81	0xbd04372c	-0.03227918
82	0x3c59824e	0.013275696
83	0xbca9b381	-0.020715477
84	0xba834a04	-0.0010016565
85	0x3b0a6c82	0.0021121805
86	0xbd1a4608	-0.037664443
87	0xbc16724e	-0.009182526
88	0xbbf1f2f0	-0.0073836967
89	0xbba03a65	-0.0048897737
90	0xbd5acbb9	-0.05341694
91	0x3d1fa533	0.038975906
92	0x3ce29419	0.02765851
93	0x3c10a3a8	0.008828081
94	0x3cddf8da	0.0270962
95	0x3b9ef278	0.004850682

model/gru/gru_cell/strided_slice_11 f4 [96]
0	0xbd048acc	-0.03235893
1	0xbcd4d9a4	-0.025982685
2	0x3ca61165	0.020271966
3	0x3cbbda87	0.02293135
4	0x3c7fe017	0.015617392
5	0x3d26992a	0.040673412
6	0x3ca30bed	0.019903148
7	0xbcd6d23a	-0.02622329
8	0x3bc1029a	0.0058902027
9	0x3c818cb6	0.015814167
10	0x3c4faa9a	0.012674952
11	0x3b323420	0.0027191713
12	0x3bafb366	0.005361962
13	0xbc949c90	-0.018141061
14	0xbc8d35cf	-0.017237572
15	0x3d540ff3	0.051773023
16	0x3bd403af	0.0064701657
17	0x3caff5e5	0.021479556
18	0x3c99be1a	0.018767405
19	0x3bd939e8	0.0066292174
20	0x3c15ecd7	0.009150705
21	0xbcdf2e7b	-0.027243843
22	0xbd0bda3d	-0.034143675
23	0xbc03d3c1	-0.0080460915
24	0xbc6f295b	-0.014597262
25	0xbd3b2fdb	-0.045699935
26	0x3c3cdeaa	0.011527697
27	0x3c07fef3	0.008300531
28	0x3ce150b7	0.027504308
29	0xbc87a18d	-0.016556526
30	0xba3263db	-0.0006805041
31	0xbb54d854	-0.0032477574
32	0x3c2eda48	0.0106721595
33	0xbb501775	-0.0031752263
34	0xbc24179d	-0.0100153955
35	0x3c3d1db3	0.011542725
36	0x3cb67561	0.022272767
37	0xb99c96a8	-0.00029866886
38	0xbc8ab340	-0.016931176
39	0xbb91c560	-0.0044485778
40	0xbc7e6ae7	-0.015528417
41	0x3af46465	0.0018645643
42	0x3cbfc09c	0.023407273
43	0x3c9f2130	0.019425005
44	0xbad7467d	-0.0016424205
45	0x3c3d4851	0.011552886
46	0xbd8338e6	-0.06407337
47	0xbce553d1	-0.027994068
48	0x3cc2989c	0.02375441
49	0xbc80c458	-0.015718624
50	0xbcfe6e81	-0.031058552
51	0xbc0a4932	-0.008440303
52	0x3c8f56f3	0.017497515
53	0x3be98f82	0.007127703
54	0xbc33b900	-0.0109694
55	0xbc8724de	-0.016497072
56	0xbc2cb53f	-0.010541259
57	0x3c927d90	0.017882138
58	0x3c955b91	0.018232139
59	0x3cdcc950	0.026951462
60	0xbc5973d7	-0.013272247
61	0x3d31d5b8	0.04341671
62	0x3d600331	0.054690544
63	0x3d965ab7	0.07341521
64	0x3d3a51bc	0.045488104
65	0xbc238767	-0.009981013
66	0x3b8698cb	0.00410757
67	0xbbd299ca	-0.0064270245
68	0xbc6a6a04	-0.014307503
69	0xbb89a73d	-0.0042008446
70	0xbca4f341	-0.020135524
71	0x3a854332	0.001016712
72	0x3ca3ce61	0.01999587
73	0xbccb773c	-0.024837129
74	0x3c8684bf	0.01642072
75	0x3c8ae109	0.016953008
76	0xbc9822e0	-0.018571317
77	0xbb937f4e	-0.00450126
78	0xbd3da951	-0.04630405
79	0xbc867bfb	-0.01641654
80	0x3cbd69ab	0.023121675
81	0xbd176974	-0.036965802
82	0x3c850712	0.016238723
83	0xbcd9ba6b	-0.026578149
84	0x3a5aab7a	0.0008341592
85	0xbbbecbff	-0.005822658
86	0xbd1ac7b1	-0.037788097
87	0xbb19fed8	-0.0023497846
88	0xbbf4a1a1	-0.0074655567
89	0xbbe0a163	-0.0068551763
90	0xbd6314e7	-0.055439856
91	0x3d042410	0.032260954
92	0x3c992aa5	0.018697092
93	0x3b17e3e9	0.0023176617
94	0x3d1057f2	0.03524012
95	0x3cc02372	0.023454402

model/gru_1/gru_cell/strided_slice_4 f4 [48]
0	0x3da50cd8	0.080590904
1	0x3d1c6e5e	0.03819119
2	0x3bdd2407	0.0067486796
3	0x3e03e9fa	0.12882224
4	0x3d829997	0.06376951
5	0x3d01b840	0.031669855
6	0x3c22f75b	0.009946669
7	0x3c4afe55	0.012389739
8	0x3db0872f	0.08619534
9	0x3cecd181	0.028908493
10	0x3c3f62c5	0.011681263
11	0xbd0f13a1	-0.03493083
12	0x3cbb8599	0.022890853
13	0x3d45cf68	0.0482935
14	0x3d5ab644	0.05339648
15	0x3cc313f3	0.023813223
16	0x3d88e050	0.06683409
17	0x3c6bce82	0.014392497
18	0xbd142d33	-0.036175918
19	0xbb6f3d35	-0.0036504988
20	0x3dcf0dbb	0.10110041
21	0x3d706e0a	0.05869869
22	0x3d3e4b73	0.046458673
23	0xbcad9039	-0.021186935
24	0x3d414d4e	0.047192864
25	0x3e1180d6	0.14209303
26	0x3cbdc904	0.02316714
27	0x3c02319f	0.007946401
28	0x3ca69ca4	0.020338364
29	0x3d83ef77	0.06442159
30	0x3c193139	0.0093501145
31	0x3e0c7c4c	0.1371929
32	0x3d4513f8	0.048114747
33	0x3d5b6147	0.053559568
34	0x3c6ea5dd	0.014565912
35	0x3bbd23dd	0.0057720975
36	0x3dc4db8d	0.096121885
37	0x3bd6d81f	0.0065565254
38	0xbc16b317	-0.009197972
39	0x3d4a22cf	0.049349602
40	0x3d30badc	0.043146953
41	0x3d6a38ce	0.05718308
42	0x3d33665b	0.043798786
43	0x3d6e2e64	0.05814971
44	0x3d1b49e1	0.037912253
45	0xbd6022c9	-0.054720674
46	0x3d9b8dcf	0.07595407
47	0x3de3bd57	0.11120098

model/gru_1/gru_cell/strided_slice_3 f4 [48]
0	0x3d61bb57	0.0551103
1	0x3d250114	0.04028423
2	0x3d0ed71a	0.034873106
3	0x3e03df4f	0.12878154
4	0x3da9823d	0.08276794
5	0x3d14cf8b	0.03633074
6	0x3d998804	0.07496646
7	0x3dcbc580	0.099497795
8	0x3df11d93	0.11773219
9	0x3d34b21f	0.044115182
10	0x3d852378	0.06500906
11	0x3d924b18	0.07143229
12	0x3c92fbae	0.017942276
13	0x3daece05	0.08535389
14	0x3d9a133a	0.075231984
15	0x3d6aaa1f	0.057291146
16	0x3d845ec4	0.064633876
17	0x3dba49e8	0.09096128
18	0x3d643586	0.055715106
19	0x3e0ca0a5	0.13733156
20	0x3d81297c	0.06306741
21	0x3daefd01	0.085443504
22	0x3d505550	0.05086261
23	0x3d98f248	0.074680865
24	0x3d0da440	0.03458047
25	0x3d73308a	0.059372462
26	0x3d38eb8d	0.045146514
27	0x3dc8091a	0.09767361
28	0x3dc7798c	0.0973998
29	0x3e0c1ee3	0.13683657
30	0x3d76dd86	0.060269855
31	0x3df173a9	0.117896385
32	0x3ddc46c4	0.10755685
33	0x3e1f0849	0.15530504
34	0x3d970bd2	0.073753014
35	0x3dc8bdee	0.09801851
36	0x3dcaadd5	0.09896437
37	0x3d39dbe3	0.045375716
38	0x3dce624c	0.100773424
39	0x3d39735d	0.045276035
40	0x3dfc76fb	0.12327381
41	0x3d454008	0.048156768
42	0x3e36b433	0.17842178
43	0x3d2bd22e	0.04194849
44	0x3d98b4d9	0.07456369
45	0x3de2d60a	0.11075981
46	0x3d6510b6	0.05592414
47	0x3d3d3784	0.046195522

model/gru_1/gru_cell/strided_slice_5 f4 [48]
0	0xbdd47fe1	-0.103759535
1	0xbe481283	-0.19538312
2	0x3cbd5d6a	0.023115832
3	0x3cced94c	0.0252501
4	0xbd1c6554	-0.03818257
5	0x3c9dabd9	0.019246982
6	0xbb051e6e	-0.0020312327
7	0xbd0cb028	-0.034347683
8	0x3d6690ae	0.05629032
9	0xbd5eaae1	-0.05436218
10	0x3df7fd4c	0.121088594
11	0x3cdeed7b	0.027212849
12	0x3d231b4d	0.039820958
13	0x3d28e70d	0.041235972
14	0xbd904344	-0.0704408
15	0xbc287953	-0.010282832
16	0x3db402a2	0.08789565
17	0xbcadc6cf	-0.021212963
18	0xbc695dfe	-0.014243601
19	0xbbfa5ad8	-0.007640224
20	0x3dc4a4ea	0.09601767
21	0xbae57cc4	-0.0017508497
22	0x3d120338	0.0356476
23	0x3c98b9bc	0.018643253
24	0xbc122af4	-0.008921374
25	0x3d845f59	0.064634986
26	0x3dde886e	0.10865866
27	0x3ce5fd17	0.028074784
28	0xbda56151	-0.08075202
29	0x3d05c01c	0.032653913
30	0x3c8ab4dd	0.016931945
31	0xbd99ccb4	-0.07509747
32	0x3cfccfdb	0.030860832
33	0xbc830178	-0.015991911
34	0x3b378fab	0.0028009217
35	0x3d3ce4bc	0.046116576
36	0x3d11dd79	0.035611603
37	0x3cfe7def	0.03106591
38	0x3b824c68	0.0039763935
39	0x3cf821c8	0.030289546
40	0x3d06dfa4	0.032928124
41	0xbd30ef70	-0.043197095
42	0x3db016b1	0.08598078
43	0x3c0b8df6	0.008517733
44	0xbd1bad83	-0.03800727
45	0xbd078389	-0.033084426
46	0xbc88972d	-0.016673649
47	0xbc2ba14e	-0.01047547

model/gru_1/gru_cell/strided_slice_11 f4 [48]
0	0xbd9a6996	-0.0753967
1	0xbe173a0e	-0.1476824
2	0x3c95d0eb	0.018288096
3	0x3d409fae	0.047027282
4	0xbd00ec76	-0.031475507
5	0x3c0b534f	0.008503749
6	0x3c869d2b	0.016432365
7	0xbd1f83db	-0.038944107
8	0x3da4fecb	0.080564104
9	0xbd2cad5b	-0.042157512
10	0x3da7a237	0.08185237
11	0xbbd80f7c	-0.0065936428
12	0x3ce322c9	0.027726548
13	0x3d2e33ae	0.042529754
14	0xbd0f7af0	-0.03502935
15	0xbd166453	-0.03671677
16	0x3cb88e3e	0.022528764
17	0x3a8b2735	0.0010616543
18	0xbd0c915c	-0.034318313
19	0xbb806f09	-0.0039194864
20	0x3d3a62aa	0.04550425
21	0x39fc9b6b	0.0004818098
22	0xbbbf9b91	-0.0058474024
23	0x3c75bbbd	0.014998374
24	0xbc969bde	-0.01838487
25	0x3d81f04f	0.06344663
26	0x3dd4d6f6	0.10392563
27	0xbc9cd692	-0.019145284
28	0xbd55921e	-0.0521413
29	0x3d08dd77	0.03341433
30	0xbb5ec2cf	-0.0033990627
31	0xbd477a3d	-0.04870056
32	0x3c1aa213	0.009438056
33	0xbc431ca8	-0.011908688
34	0x3cade793	0.021228587
35	0x3d719772	0.05898232
36	0x3d0773dc	0.033069476
37	0x3c669626	0.014073884
38	0xbc293dcf	-0.010329678
39	0x3c503331	0.0127075175
40	0x3cd29197	0.025704188
41	0xbc847b28	-0.016172007
42	0x3d70cc23	0.05878843
43	0x3c18f765	0.009336327
44	0xbcb5d26b	-0.022195062
45	0xbae4c4e6	-0.00174537
46	0x3b8e180c	0.0043363627
47	0xb9b33a93	-0.00034185182

model/batch_normalization_3/batchnorm/sub f4 [48]
0	0x3f3ddaa5	0.7416175
1	0x3f7087a5	0.9395698
2	0xbdd17784	-0.10227874
3	0x3db58578	0.08863348
4	0x3ef0f57a	0.47062284
5	0x3e792773	0.24331455
6	0x3e9614cc	0.29312742
7	0x3f1b495a	0.606588
8	0xbf763662	-0.9617673
9	0x3f43cf66	0.7648834
10	0xbf591cd8	-0.8480964
11	0xbe9c38b9	-0.30512026
12	0xbee6d6eb	-0.45085844
13	0xbd4c7854	-0.04991944
14	0x3f1b844c	0.60748744
15	0x3f388eb0	0.72092724
16	0xbf2708de	-0.65247905
17	0x3e8711ab	0.26380667
18	0x3f5bcec2	0.8586236
19	0x3ed1a2e2	0.40944582
20	0xbf3bd921	-0.7337819
21	0xbf018d28	-0.5060601
22	0x3a056060	0.00050879084
23	0xbf24a173	-0.6430885
24	0x3f225115	0.6340497
25	0xbf3a8079	-0.72852284
26	0xbf78239d	-0.9692934
27	0xbf203fb4	-0.62597203
28	0x3f4ac3fa	0.79205287
29	0x3e3106ed	0.17287798
30	0xbe2d083c	-0.16897672
31	0x3f002a35	0.500644
32	0xbe24ddb5	-0.161002
33	0xbe83d628	-0.25749326
34	0xbf197346	-0.5994152
35	0xbf317f48	-0.6933484
36	0xbede1434	-0.4337479
37	0xbf05a248	-0.52200747
38	0xbe8607fd	-0.2617797
39	0xbf2ee3cf	-0.6831636
40	0xbea784ed	-0.32718602
41	0x3ec9f99c	0.3944825
42	0xbf3022fd	-0.6880339
43	0x3eb4a03d	0.35278502
44	0x3df1329e	0.117772326
45	0xbe102f8c	-0.14080638
46	0x3f003509	0.50080925
47	0x3f0a5bd9	0.540464

model/batch_normalization_3/batchnorm/mul f4 [48]
0	0x400a9cc1	2.1658175
1	0x40529313	3.2902267
2	0x4047ed07	3.123842
3	0x400bbfd6	2.1835837
4	0x402ea17c	2.7286062
5	0x4006121d	2.0948555
6	0x400a7dde	2.1639323
7	0x4036b2a7	2.854654
8	0x40704579	3.7542403
9	0x400c1897	2.1890008
10	0x4011a499	2.2756712
11	0x404bb941	3.183182
12	0x402018dd	2.5015175
13	0x402d5aa2	2.7086568
14	0x40021e68	2.0331059
15	0x3fe44da2	1.7836192
16	0x3ffcdbfc	1.9754634
17	0x403d5ab4	2.958661
18	0x405e8394	3.476781
19	0x4042f520	3.0462112
20	0x3fd48179	1.6602012
21	0x401478b7	2.3198678
22	0x40550fae	3.329082
23	0x4020666d	2.5062516
24	0x3ffa4a00	1.9553833
25	0x3fdd9bc4	1.7313161
26	0x403b822b	2.9298198
27	0x40295c51	2.6462595
28	0x403ad0a5	2.9189847
29	0x405122aa	3.2677407
30	0x4044f021	3.0771563
31	0x3ffbe784	1.9680028
32	0x405e8992	3.4771466
33	0x404dc173	3.2149322
34	0x40899fd2	4.3007593
35	0x4040b07b	3.0107715
36	0x40019d73	2.025235
37	0x400d27d1	2.2055552
38	0x4065f184	3.592866
39	0x3fdafc8b	1.710832
40	0x4008122a	2.1261086
41	0x3fdd3af8	1.7283621
42	0x404f08db	3.2349155
43	0x3ff2d29c	1.8970523
44	0x404c1f5a	3.1894135
45	0x4050c5da	3.262076
46	0x3fcdbf9e	1.6074102
47	0x3fd62006	1.6728523

model/batch_normalization_2/batchnorm/sub f4 [96]
0	0x40135db2	2.3025937
1	0x3c9fe70c	0.019519351
2	0xbfa71fb5	-1.3056551
3	0xbf6307d5	-0.88683826
4	0xbf17c120	-0.5927906
5	0xbfd4fd7e	-1.663986
6	0xbfc4ca35	-1.5374209
7	0x3fce3bb7	1.6111974
8	0xbf6da87c	-0.9283521
9	0x3f8ec262	1.1153071
10	0xbcde9524	-0.027170725
11	0x3f00c0a8	0.5029397
12	0x3fb2d33e	1.3970716
13	0x3ee5e2be	0.44899553
14	0x3ed10b4b	0.40828928
15	0xc0023fdb	-2.0351474
16	0xbf8c629d	-1.0967594
17	0xbf9c870d	-1.2228714
18	0xbf4df6fe	-0.80455005
19	0xbf59a262	-0.850134
20	0xbf3c3806	-0.73522985
21	0x3ff2aa51	1.8958226
22	0x3ff57699	1.9176818
23	0x3f811adc	1.0086322
24	0x3fd90a9c	1.6956363
25	0x3fb94945	1.4475485
26	0x3f502d98	0.8131957
27	0x3f8caff8	1.0991201
28	0xbe58b3d4	-0.21162349
29	0x3f5661be	0.8374289
30	0x3f8b1d88	1.0868387
31	0x3fbf6f0f	1.4955767
32	0x3e377696	0.1791633
33	0xbf7fe30f	-0.9995584
34	0x3f260715	0.64854556
35	0x3f86f6cc	1.0544066
36	0xbfc6c05c	-1.5527453
37	0xbe859001	-0.2608643
38	0x3feb2020	1.8369179
39	0xbf3eb354	-0.74492383
40	0x3fbe021c	1.4844394
41	0xbf4bda70	-0.79630184
42	0xbfc9a191	-1.5752431
43	0xbf9de6d0	-1.2336063
44	0x3e8f4cdd	0.2798833
45	0x3fb8566a	1.4401371
46	0x4018e35c	2.388877
47	0x3f9806a6	1.1877029
48	0xbf95fb16	-1.171725
49	0x3fc04cbf	1.5023421
50	0x3fef6433	1.8702453
51	0x3f30e16e	0.6909398
52	0xbdf9bd40	-0.121943
53	0x3fad1159	1.3520919
54	0x3fd9998e	1.6999986
55	0x3fb604e2	1.422024
56	0x3f21ad3c	0.6315496
57	0xb820d040	-3.834092e-05
58	0xbfbe3703	-1.4860538
59	0xbfe33804	-1.775147
60	0x3f1d9bae	0.61565673
61	0xbff7211a	-1.9306977
62	0xc00eb969	-2.2300665
63	0xc060c500	-3.512024
64	0xbf602aca	-0.8756529
65	0x3f1bf3c3	0.60918826
66	0x3f69b3cf	0.9128999
67	0x3fbce41b	1.4757112
68	0xbf460d50	-0.77364063
69	0x3f8a4985	1.0803686
70	0x3fea8b46	1.8323753
71	0xbf0caedc	-0.54954314
72	0x3f024d30	0.5089903
73	0x3ffb6cd2	1.9642584
74	0xbe94b1bb	-0.29041848
75	0xbf7317ee	-0.9495839
76	0x3ef6ad88	0.4817927
77	0x3f6f4500	0.9346466
78	0x402010df	2.5010297
79	0x3fafa944	1.3723531
80	0xbf8ee0da	-1.1162369
81	0x3fcc0d55	1.5941569
82	0xbf1342b4	-0.57523656
83	0x3f9f443d	1.24427
84	0xbfc84416	-1.5645778
85	0x3e994b7e	0.29940408
86	0x3fbda4ee	1.4815958
87	0xbe34bf3b	-0.17651074
88	0xbf64f761	-0.8943997
89	0x3f78edda	0.9723793
90	0x4039cf1c	2.903266
91	0xbf705015	-0.93872195
92	0xbfe0bb0c	-1.7557082
93	0xbf91a6ee	-1.1379068
94	0xbfeb1ce3	-1.836819
95	0xbf911eac	-1.1337485

model/batch_normalization_2/batchnorm/mul f4 [96]
0	0x4152e103	13.1799345
1	0x419d8918	19.69194
2	0x41747465	15.278417
3	0x41937242	18.43079
4	0x41939261	18.446474
5	0x4199afc5	19.210825
6	0x41a00112	20.000523
7	0x41c1b324	24.212471
8	0x41a16342	20.173466
9	0x412d8d61	10.847016
10	0x41bcd5e5	23.60444
11	0x416512ae	14.31706
12	0x4168cab6	14.54949
13	0x419231ba	18.27428
14	0x41d53581	26.651125
15	0x41b2bdeb	22.342733
16	0x41ab4524	21.40876
17	0x41c7f7c0	24.995972
18	0x415ed618	13.927269
19	0x41bfdad8	23.981857
20	0x41904968	18.035843
21	0x412135f4	10.075672
22	0x415de266	13.867773
23	0x4183ae4c	16.460106
24	0x41202166	10.008154
25	0x41b57bcc	22.685448
26	0x41897201	17.180666
27	0x416b897c	14.7210655
28	0x41861ba6	16.7635
29	0x412ae274	10.680286
30	0x41670810	14.439468
31	0x41af9ac3	21.950567
32	0x4168593a	14.521784
33	0x418836e8	17.02681
34	0x410a76a3	8.653964
35	0x41a9df85	21.23414
36	0x415b51ba	13.707453
37	0x4179d47d	15.614377
38	0x4152c4b3	13.173022
39	0x411fe101	9.992433
40	0x41b8ae76	23.085186
41	0x4123dc98	10.241356
42	0x41101c50	9.006912
43	0x4146088d	12.377088
44	0x41986a33	19.051855
45	0x418f4cfa	17.912586
46	0x41378ba6	11.471594
47	0x4149832c	12.594524
48	0x41a20481	20.2522
49	0x41a36334	20.423439
50	0x41816943	16.176397
51	0x41b5ed36	22.740826
52	0x41843c8f	16.52957
53	0x41727f4d	15.156079
54	0x415ca321	13.789826
55	0x41922741	18.269167
56	0x41635488	14.2081375
57	0x41a0fbe7	20.123
58	0x410198f5	8.099843
59	0x41849bb8	16.576035
60	0x41d49b49	26.575823
61	0x4108fdc3	8.561954
62	0x41bc5128	23.539627
63	0x41731ec1	15.195008
64	0x4178e8d7	15.556846
65	0x41b9d8f0	23.230927
66	0x417afec0	15.687195
67	0x41c85fc6	25.046764
68	0x41808ddc	16.069267
69	0x419127b3	18.144384
70	0x41b07088	22.054947
71	0x414759d9	12.459435
72	0x41b0cffc	22.101555
73	0x4102990f	8.162368
74	0x41bb3c2b	23.404379
75	0x4154759c	13.278713
76	0x41cf7712	25.93314
77	0x41a9b9f0	21.21579
78	0x419610f4	18.758278
79	0x4162e474	14.180775
80	0x41493c63	12.577243
81	0x413f0a71	11.940049
82	0x41b53817	22.652388
83	0x4133bd35	11.233693
84	0x41370b40	11.440247
85	0x41aebc44	21.841927
86	0x419b0056	19.375164
87	0x41a8b08f	21.08621
88	0x41496e41	12.589417
89	0x41cac547	25.346327
90	0x419a9208	19.321304
91	0x4185abf5	16.708963
92	0x41648d4b	14.284495
93	0x41b45911	22.54349
94	0x41201178	10.004265
95	0x41aa76a6	21.307934

model/dense/BiasAdd/ReadVariableOp f4 [48]
0	0x3dda2f0f	0.10653507
1	0x3ca54d18	0.020178363
2	0x3deaa579	0.11457343
3	0x3d2702bc	0.040774092
4	0x3ddff8b0	0.10936105
5	0x3d62331a	0.055224515
6	0x3bb43360	0.0054992884
7	0x3d0a08ea	0.033699907
8	0x3d1f6c5f	0.03892171
9	0x3d3cb6ac	0.046072647
10	0x3d1db5ae	0.03850334
11	0x3d894c39	0.067039914
12	0x3d46ad63	0.0485052
13	0x3d56f176	0.05247637
14	0x3d9da4a9	0.07697422
15	0x3d2b23b8	0.04178211
16	0x3d036246	0.032076143
17	0x3d0cf5ba	0.03441403
18	0x3d76cfde	0.06025683
19	0x3cb3a1ae	0.02192768
20	0xbc86f490	-0.016474038
21	0xbc17260f	-0.0092253825
22	0x3d277b83	0.040889274
23	0x3cd6a506	0.026201736
24	0x3d55d534	0.05220528
25	0x3dab90fd	0.08377264
26	0xbb2ffb20	-0.0026852563
27	0x3d9af9d4	0.07567182
28	0x3e33d8bb	0.17563145
29	0x3d4f42b3	0.05060072
30	0x3bece147	0.0072290036
31	0x3d8103b2	0.06299533
32	0x3cefbc1d	0.029264504
33	0xbd11c896	-0.035591684
34	0x3d046bf1	0.032329503
35	0x3d63dd78	0.05563113
36	0xbbee08ff	-0.007264256
37	0x3cb9ca85	0.022679577
38	0x3d86f2ca	0.06589277
39	0x3d2a3336	0.041552745
40	0x3c8af501	0.01696253
41	0x3d9309b8	0.07179588
42	0x3d71caef	0.059031423
43	0x3dec3a7b	0.11534592
44	0x3d18c6b0	0.03729886
45	0x3d054e51	0.03254539
46	0x3d4f880a	0.050666846
47	0x3d1fdabb	0.039026957

model/dense_1/BiasAdd/ReadVariableOp f4 [26]
0	0x3d5359e3	0.051599395
1	0x3dc45eb2	0.09588374
2	0x3d715ff1	0.058929387
3	0x3dd82dfd	0.105556466
4	0xbc0b2072	-0.008491622
5	0x3cbe1554	0.02320353
6	0x3d608744	0.0548165
7	0x3c5e1743	0.013555351
8	0x3df0aece	0.11752091
9	0x3cae3594	0.021265782
10	0xbe752cc5	-0.2394286
11	0xbe7b760e	-0.24556753
12	0xbe764c9e	-0.24052665
13	0xbe5d3114	-0.21600753
14	0xbe69f4aa	-0.22847238
15	0xbe7be793	-0.24600057
16	0xbe820565	-0.2539474
17	0xbe5f0d61	-0.21782447
18	0xbe5cdd4e	-0.21568796
19	0xbe726bd2	-0.23673943
20	0xbe74e17c	-0.2391414
21	0xbe699a28	-0.22812712
22	0xbe76c7ae	-0.2409961
23	0xbe6a844a	-0.22902027
24	0xbe686d19	-0.22697867
25	0xbe73ffa9	-0.23827995

model/gru/gru_cell/MatMul f4 [96, 126]
0	0x372a5669	1.01529085e-05
1	0xb90a64a4	-0.00013198197
2	0xb925b524	-0.00015803106
3	0xb9971136	-0.00028813788
4	0x39bfff68	0.0003662065
5	0x394540b4	0.00018811488
6	0xb9c0e1be	-0.00036789285
7	0x39c43d4f	0.00037429712
8	0x392f5c28	0.00016723631
9	0xb9c2e5c8	-0.00037173764
10	0x39dc948b	0.00042072343
11	0x39642fb6	0.00021761548
12	0xb9d6a52c	-0.00040940323
13	0x3a0af6e7	0.00053010735
14	0x39b6ee38	0.00034891232
15	0xb97ba6e5	-0.00023999398
16	0x391739dd	0.00014422038
17	0x38be1978	9.06465e-05
18	0xb9f206be	-0.0004616286
19	0xb83a321a	-4.4392516e-05
20	0x38354d7f	4.3225937e-05
21	0xba4fe08d	-0.0007929884
22	0x39424f25	0.00018530765
23	0x38e500a2	0.00010919689
24	0xba11b0f3	-0.00055576785
25	0xba0335e8	-0.0005005286
26	0xb849d0fc	-4.8116766e-05
27	0xba122555	-0.0005575021
28	0x383b2d2c	4.4626344e-05
29	0xb8433d6c	-4.6548827e-05
30	0xb9b8b7d3	-0.00035232175
31	0xb8bca362	-8.994971e-05
32	0x391c987a	0.00014934121
33	0xb9ec14c8	-0.0004502891
34	0x38a8d00f	8.049618e-05
35	0x38b41d86	8.588568e-05
36	0xb9eb769c	-0.00044911064
37	0xb9b0a2d2	-0.00033690647
38	0x384b41d5	4.8460282e-05
39	0xb9b71030	-0.0003491654
40	0xb84b9e30	-4.8546295e-05
41	0x3975f349	0.00023455652
42	0x382c20a8	4.103841e-05
43	0xb8a54925	-7.881437e-05
44	0x395b584f	0.00020918365
45	0xb7d24ea8	-2.5070578e-05
46	0x396a984a	0.00022372711
47	0x3901a177	0.00012362549
48	0xb90747dd	-0.00012901374
49	0x39159651	0.00014265745
50	0x39052b8b	0.0001270009
51	0xb7453ae2	-1.1755825e-05
52	0x3960f24a	0.00021452564
53	0x39a472b9	0.00031365993
54	0x38a12dc4	7.685603e-05
55	0x3918acde	0.00014560248
56	0x39779e92	0.00023614828
57	0x38853e48	6.353535e-05
58	0x396321a8	0.00021660945
59	0x39914966	0.0002771124
60	0xb880454a	-6.116422e-05
61	0x3938f227	0.00017637816
62	0x398c06fb	0.00026708082
63	0x37e86d60	2.7707487e-05
64	0xb7868811	-1.6037406e-05
65	0xb791260e	-1.7303068e-05
66	0x37971b00	1.8013176e-05
67	0x38099250	3.279961e-05
68	0xb7a8244f	-2.0044068e-05
69	0x369f4aea	4.7472904e-06
70	0x36bcc340	5.6255667e-06
71	0x37e9ba26	2.7862447e-05
72	0xb84f7d39	-4.946927e-05
73	0x36ec793c	7.0474616e-06
74	0x37b7555c	2.1855049e-05
75	0xb91c87a5	-0.00014927851
76	0x378837f4	1.6238519e-05
77	0x388a1adc	6.585356e-05
78	0x3803b908	3.1405158e-05
79	0xb83a278f	-4.4382698e-05
80	0xb86a1dbf	-5.581765e-05
81	0xb676b251	-3.676065e-06
82	0x3896f6ce	7.198528e-05
83	0xb7fe1192	-3.0287341e-05
84	0x35bbb218	1.3984418e-06
85	0xb8b3475b	-8.548676e-05
86	0x3691c6d2	4.3444825e-06
87	0x38c3215e	9.30454e-05
88	0xb906d1fd	-0.00012857463
89	0x38872bf4	6.4454885e-05
90	0xb89a0732	-7.3446325e-05
91	0xb859cc18	-5.192691e-05
92	0xb819b6f3	-3.6648427e-05
93	0x3784e3f8	1.5841782e-05
94	0x387d295e	6.0358427e-05
95	0xb6846dd2	-3.9466913e-06
96	0x38619dd5	5.3791173e-05
97	0x3721d9d7	9.647068e-06
98	0xb66eb4ec	-3.5570074e-06
99	0xb6936813	-4.393057e-06
100	0x35d85a08	1.6119457e-06
101	0xb6881098	-4.0550476e-06
102	0x38a82030	8.01686e-05
103	0x37ab0cfa	2.0390831e-05
104	0xb748de48	-1.1972683e-05
105	0x37814a5e	1.5412628e-05
106	0x380f8e69	3.4226487e-05
107	0x37a0fdbd	1.9191642e-05
108	0xb7079032	-8.0802e-06
109	0x37c3390a	2.3272372e-05
110	0x395cc8ff	0.00021055712
111	0xb77e89a2	-1.5171625e-05
112	0x37b31382	2.1347547e-05
113	0x379a62de	1.840427e-05
114	0x37b03021	2.1003247e-05
115	0xb61d3436	-2.3425214e-06
116	0x38da9d25	0.000104243205
117	0x39328d33	0.00017028004
118	0x36914fd0	4.330628e-06
119	0x3796f420	1.7995073e-05
120	0x3887cba5	6.4752334e-05
121	0x3897af9a	7.2329494e-05
122	0xb7939ce0	-1.7596816e-05
123	0x375417d9	1.2641737e-05
124	0xb7134304	-8.777486e-06
125	0xb78326b6	-1.5634443e-05
126	0xb918560a	-0.00014527902
127	0x37ad2736	2.0641466e-05
128	0xb80d8b9e	-3.374705e-05
129	0xb90f3437	-0.00013656994
130	0xba08d5a2	-0.0005219822
131	0x39a5685d	0.0003154901
132	0xb9ad15a7	-0.00033013264
133	0x3a8739e0	0.0010316931
134	0x396796b8	0.00022086024
135	0xba32c3ee	-0.0006819357
136	0xb93cb71d	-0.00017997292
137	0xb9cb3032	-0.00038755086
138	0xb9b94458	-0.0003533687
139	0xb7c3f44d	-2.3359573e-05
140	0x3a522679	0.0008016597
141	0x3996af70	0.0002874094
142	0xbab8fbc5	-0.0014113119
143	0xb8eb2790	-0.00011213042
144	0xb99871fc	-0.00029076624
145	0xba1f7e59	-0.0006084196
146	0xba7f1dc2	-0.0009731912
147	0xba707594	-0.0009172794
148	0x3a17e631	0.0005794494
149	0x3908170d	0.00012978558
150	0xb9e1fe45	-0.0004310479
151	0xb987af97	-0.0002588003
152	0x39815026	0.00024664513
153	0xba089249	-0.00052097865
154	0xb8cc7f18	-9.751151e-05
155	0xb90c8f8a	-0.00013404913
156	0x39bbc7f7	0.00035816405
157	0xbae657b8	-0.001757375
158	0xb9e038da	-0.00042766967
159	0xba5e43d5	-0.00084787357
160	0xba1ff3e1	-0.00061017094
161	0x37a34891	1.9464906e-05
162	0xb9775413	-0.00023587076
163	0x3a2fdf01	0.00067089504
164	0x39c3c8d2	0.0003734292
165	0x35c99d00	1.502136e-06
166	0xba20bbe1	-0.0006131512
167	0xb9045acd	-0.00012622327
168	0x393a987c	0.00017795147
169	0x38fb1a21	0.000119734796
170	0xb9b00445	-0.00033572517
171	0xb927eff0	-0.00016015745
172	0x3a1a656a	0.00058897457
173	0x38eaff55	0.00011205549
174	0xb90d8d33	-0.00013499409
175	0x3a58cbbf	0.00082701066
176	0x393b8bdc	0.00017885811
177	0x39ac10e6	0.00032818987
178	0x38a2db11	7.765566e-05
179	0x392e4a37	0.0001662158
180	0x3957bf2a	0.00020575212
181	0xb8414d72	-4.6086912e-05
182	0xb7c3c45c	-2.3337248e-05
183	0x39c3baf2	0.00037332583
184	0xb9912273	-0.00027682222
185	0xb959b809	-0.00020763291
186	0xb8e4f3ad	-0.00010917275
187	0x38f3370f	0.000115973984
188	0x3a2bc68a	0.0006552717
189	0xb845c186	-4.7148693e-05
190	0xb7bd06bc	-2.2533692e-05
191	0x3564d180	8.524148e-07
192	0xb8029bcc	-3.1139512e-05
193	0xb83d9937	-4.5203804e-05
194	0xb8e76f76	-0.000110356996
195	0x37d2eb8b	2.5143634e-05
196	0xb7e90fd0	-2.7783128e-05
197	0xb83a0550	-4.4350803e-05
198	0xb7e4d579	-2.7279124e-05
199	0xb8f515e8	-0.00011686591
200	0xb724d739	-9.825272e-06
201	0x390cbb4c	0.00013421214
202	0x36ead624	6.9986727e-06
203	0xb7294ab8	-1.0090582e-05
204	0x3781eeb4	1.5489153e-05
205	0xb7b79fb1	-2.1889662e-05
206	0x3881c5a2	6.188011e-05
207	0xb8097a8a	-3.277747e-05
208	0xb8f83c45	-0.000118367876
209	0xb6e813a4	-6.9164253e-06
210	0x3956391a	0.00020429902
211	0x384ccae8	4.882636e-05
212	0x3906f6ce	0.00012871178
213	0xb8815cb9	-6.16847e-05
214	0x3802c0f1	3.1174106e-05
215	0xb966e650	-0.00022020307
216	0x3875a200	5.8563426e-05
217	0xb7b669f9	-2.1745438e-05
218	0xb5c5a880	-1.4726684e-06
219	0xb8ac2746	-8.2089144e-05
220	0xb9101fba	-0.00013744729
221	0xb92db3bf	-0.00016565526
222	0x3938b359	0.0001761442
223	0xb871ff18	-5.7696452e-05
224	0xb90710f5	-0.0001288092
225	0xb973f0f1	-0.00023264044
226	0xb833672f	-4.2773023e-05
227	0xb895d20f	-7.144e-05
228	0x381470ff	3.5391186e-05
229	0xb89ec0a4	-7.569909e-05
230	0x381b56f2	3.7035854e-05
231	0xb867df9c	-5.5282944e-05
232	0xb8e9e393	-0.00011152695
233	0xb88b470f	-6.641272e-05
234	0x38322a7c	4.2478074e-05
235	0xb8155da5	-3.561158e-05
236	0x39243c67	0.0001566276
237	0x38918d8f	6.940506e-05
238	0xb9051f83	-0.00012695607
239	0xb872efce	-5.792063e-05
240	0xb6fa2189	-7.4544846e-06
241	0x37eb03ed	2.8016011e-05
242	0x37d77a51	2.5686955e-05
243	0xb8dee17b	-0.00010627784
244	0xb7a6868d	-1.9851397e-05
245	0xb890b37d	-6.8998874e-05
246	0xb8456f9e	-4.707241e-05
247	0x37b55bae	2.1619573e-05
248	0xb88ed4dd	-6.8107365e-05
249	0x36e58746	6.8404797e-06
250	0x383b91fd	4.4720236e-05
251	0xb9034bdc	-0.00012521393
252	0x36652147	3.414303e-06
253	0x36a4ed6a	4.9152195e-06
254	0x377a89fe	1.493329e-05
255	0x38fb8fac	0.00011995374
