app/src/main/assets/models/20_to_100.tflite (tflite, 672140 bytes, 52 tensors)

model/batch_normalization/batchnorm/add_1;model/conv1d/Conv1D/Squeeze;model/batch_normalization/batchnorm/mul_1;model/conv1d/BiasAdd;model/conv1d/BiasAdd/ReadVariableOp;model/batch_normalization/batchnorm/mul;model/batch_normalization/batchnorm/sub;model/conv1d/Conv1D;model/conv1d_1/Conv1D f4 [96]
000000 26 eb 95 be 7a a1 64 be 52 04 19 bf ac e2 b6 be
       -0.29280967 -0.22327223 -0.5977222 -0.35719812
000010 de 85 ea be 04 41 b7 bf a4 ac 3a bd 88 15 67 3d
       -0.45805258 -1.4316716 -0.0455748 0.05641702
000020 52 ff c6 be 70 77 99 be 93 33 1d bf 7e 75 92 bf
       -0.3886667 -0.29973936 -0.6140682 -1.1442106
000030 ca 46 6c 3b e6 11 40 3f 08 61 90 be 7b f2 0a bf
       0.0036052936 0.7502731 -0.2819903 -0.54276246
000040 da 19 09 3f 47 af a8 bf e0 c3 ff be 21 10 dc be
       0.5355507 -1.317849 -0.49954128 -0.42981055
000050 7c 1c 96 be 0c 80 05 be c6 a7 cf 3d 71 4a 0c 3e
       -0.29318607 -0.13037127 0.10139422 0.13700272
000060 1f 5e d2 be 80 3e e3 bc 9a 5d 66 be 51 02 bb be
       -0.41087434 -0.027739763 -0.22496644 -0.36525205
000070 8d 22 e5 bd 6a 78 d2 bf 09 6e 9a bf 64 d0 3d bf
       -0.11188231 -1.6442997 -1.206483 -0.74146104
000080 d2 28 42 be b4 e7 03 bf 33 7b 33 bf e7 80 4a 3f
       -0.18960884 -0.51525426 -0.7010986 0.7910294
000090 b0 3d 5c be be 26 4c 3f 25 8f b9 bf ea 84 07 bd
       -0.21507907 0.79746616 -1.4496809 -0.03308574
0000a0 fe dd 13 40 c2 62 b7 be 22 38 47 bf f8 08 07 bf
       2.3104243 -0.35817534 -0.77820027 -0.5274806
0000b0 30 3d a4 bd 80 1c 9f 3e 43 5f 90 3e 58 28 36 3d
       -0.08019483 0.3107643 0.2819768 0.04447207
0000c0 42 04 a5 bd 85 5c 1e 3f f2 09 0f bf 2e 29 ac bd
       -0.08057453 0.61859924 -0.5587455 -0.08406292
0000d0 f2 49 c1 3e 68 ef 54 3e 6c 9c fa be 31 f8 58 bd
       0.37751728 0.20794451 -0.48947465 -0.05297107
0000e0 e5 86 53 bf ba 15 44 be cf 76 e0 bf 45 2e 6e 3f
       -0.8262771 -0.19148913 -1.7536258 0.9303935
0000f0 d0 a8 5c 3f 2a d8 6d be e6 b9 cf bf b3 dc 1a 3f
       0.8619509 -0.23226991 -1.6228607 0.6049301
000100 ca 69 c2 3e 08 10 65 be d2 ab 8f 3e 1b 93 72 bf
       0.37971336 -0.22369397 0.28060776 -0.94755715
000110 1f 77 a1 3e f1 f3 19 be 56 34 5b bf 0d 35 96 bf
       0.31536195 -0.15034463 -0.85626733 -1.173494
000120 16 fb f1 3e 88 5e 63 3f 82 27 61 3f 47 b9 38 bd
       0.47261876 0.8881612 0.8795091 -0.04509857
000130 8e f5 88 be c7 c0 8c bd 2f 38 de be 15 ed a8 3f
       -0.26749843 -0.06872707 -0.4340224 1.3197352
000140 37 0a 1a bf 98 5c 86 be e8 f9 6d 3f 8a 1b 04 3f
       -0.60171837 -0.26242518 0.9295945 0.5160452
000150 b6 2f 7f bf 79 4c 4b 3f 25 ed 0e bf 81 57 ca bf
       -0.99682176 0.79413563 -0.55830604 -1.5807954
000160 8e 37 6f bd 2a 90 a6 3f 70 6c 2e bf ea 0c c9 be
       -0.05840259 1.3012745 -0.6813421 -0.39267665
000170 aa b2 0b 3f a0 e0 26 be df bd 6e be 2a 26 30 bf
       0.54569495 -0.16296625 -0.23314618 -0.68808234

model/batch_normalization_1/batchnorm/add_1;model/conv1d_1/Conv1D/Squeeze;model/batch_normalization_1/batchnorm/mul_1;model/conv1d_1/BiasAdd;model/conv1d_1/BiasAdd/ReadVariableOp;model/batch_normalization_1/batchnorm/mul;model/batch_normalization_1/batchnorm/sub;model/conv1d_1/Conv1D f4 [96]
000000 d8 df f2 3e 14 74 1c 3f 03 0a 64 3e f6 4c aa 3e
       0.47436404 0.6111462 0.22269444 0.33261842
000010 53 3c 01 3f c3 e5 a8 3e b8 19 f3 3e fb a5 01 3f
       0.5048267 0.32987794 0.4748056 0.5064389
000020 d5 63 23 3d a1 b9 3f 3e f1 28 ec bd 14 40 ac 3f
       0.03989013 0.18723156 -0.115312465 1.3457055
000030 0f c8 95 3e ab 95 5c 3f d1 40 ef 3e 69 13 ed 3e
       0.29254195 0.86165875 0.46729138 0.4630387
000040 72 fe 0a 3f b7 c0 95 be ba 20 14 3f 4d 83 76 be
       0.542945 -0.29248592 0.57862437 -0.24073525
000050 fd 81 01 be 1e 57 ac 3e 7d 65 9f be 88 de a7 bd
       -0.12647243 0.33660215 -0.31132117 -0.08196741
000060 cb 15 2c 3f 07 be fd 3d a6 b5 0e 3f 6c 4d 86 3f
       0.67220753 0.123897605 0.55745924 1.0492377
000070 c8 fa 4b 3e bd 61 0e 3f 62 78 00 3f 7d 18 44 3f
       0.19919884 0.55617887 0.5018369 0.76599866
000080 bd d8 a0 3d 2e e0 a4 3f 18 dd bf 3e c3 cc e9 be
       0.078538395 1.2880914 0.3747337 -0.45664033
000090 c9 91 00 3f c4 dd 0e 3f 26 8f 8e 3f 32 ef f4 bc
       0.5022245 0.5580714 1.1137435 -0.029899213
0000a0 3e 09 3f 3f a4 3e c1 3d 9a 2a 47 3f d5 95 98 be
       0.7462348 0.09435776 0.7779938 -0.29801813
0000b0 69 2a fb 3d 63 9b f8 3d 79 91 e9 be 9a 2e e1 3d
       0.122639485 0.12139013 -0.456188 0.10995217
0000c0 5a 0a ff bd 75 ac 12 3f 66 74 28 3e 49 bb 5a 3f
       -0.12453146 0.572944 0.16450652 0.85442024
0000d0 16 eb 01 be 5e ef ff 3e 2e 4d 25 3f 71 18 00 3e
       -0.12687334 0.4998731 0.6457089 0.12509324
0000e0 b3 4b 6a 3f 1b eb 59 3e fa 03 43 3f 06 6b 0b 3f
       0.9152176 0.21281092 0.7617794 0.5446018
0000f0 9d 24 1b bf 27 e3 0f 3d 66 90 99 3f c1 25 ff 3e
       -0.6060274 0.03512874 1.1997192 0.4983349
000100 c3 0d 1b 3f a3 ff 9d 3e 21 7c 0e 3f f9 14 82 3e
       0.60567874 0.30859098 0.55658156 0.25406626
000110 22 64 41 bf 68 7a 15 3e ea ce 2c 3f e2 8e 02 3f
       -0.75543416 0.14597476 0.67503226 0.5099927
000120 11 0c fa be 85 b6 c9 bd 43 34 2a 3f 9f 37 11 3f
       -0.4883733 -0.09849266 0.66485995 0.56725496
000130 8e 8f 4e bf df 65 83 3f 6e ce 44 3f 95 1f ac be
       -0.806878 1.0265464 0.76877487 -0.33617845
000140 f6 0a 23 bc f1 18 70 3f bd 6e 0e be ec 55 3f be
       -0.009951344 0.9378806 -0.13909431 -0.1868512
000150 ea cf 5f be 7b 19 81 be de 4c d6 be f4 e6 19 3f
       -0.21856657 -0.25214753 -0.4185552 0.6011803
000160 81 16 a1 3e e7 64 be bd 79 51 90 3e 6c f9 8b 3f
       0.31462482 -0.09296589 0.2818716 1.0935493
000170 14 c1 df 3e 09 f6 0b 3f b6 a3 01 be 57 81 f7 bd
       0.43701994 0.54672295 -0.12660107 -0.120852165

model/batch_normalization/batchnorm/mul_1;model/conv1d/Conv1D/Squeeze;model/conv1d/BiasAdd;model/conv1d/BiasAdd/ReadVariableOp;model/batch_normalization/batchnorm/mul;model/conv1d/Conv1D;model/conv1d_1/Conv1D f4 [96, 1, 3, 126]
000000 2c e1 15 bb 7c dc 59 3a ae 0f 0a 3c a2 1d 9a 3d
       -0.0022869809 0.0008310748 0.00842659 0.07525183
000010 83 32 81 3d 47 37 70 3d e5 a9 37 3e c7 2e b0 3d
       0.063084625 0.058646467 0.17935903 0.08602672
000020 b1 ee 62 3d 57 ce ec 3d 62 a3 56 3b ad be 22 3d
       0.055403415 0.11562794 0.0032751192 0.039732624
000030 4b e8 00 3e 5d ce 7a 3e b9 88 eb 3c 07 a7 89 3d
       0.12588613 0.24492784 0.028751718 0.06721311
000040 61 02 b1 3d f6 fa af bc 67 58 0f bd e2 4e 68 3d
       0.08643032 -0.021481972 -0.034996416 0.056715854
000050 5a 4d 3e bc 24 eb c4 bd 6d 12 85 3c 85 2e cb 3c
       -0.011615122 -0.09615162 0.016244138 0.024802456
000060 77 66 ec be 1d f4 73 bd c2 d5 22 3d ee f5 bd 3d
       -0.46171924 -0.059558976 0.039754637 0.09275423
000070 28 57 07 bd 09 db a9 bc 1c 5e 28 3e 39 70 a1 3c
       -0.033042103 -0.020734327 0.1644215 0.019706832
000080 e3 3b d7 bd bd ec d1 3e ab db 00 bd b1 2c 98 bd
       -0.10509469 0.4100093 -0.03145949 -0.07430399
000090 3c d6 c6 bd ea f7 26 3e 64 e1 f8 bc f9 f7 2d bd
       -0.09708831 0.16305509 -0.030380912 -0.042472813
0000a0 9f 90 83 bd 9e c3 ba bd 0d 19 9a bd f6 4e ff bd
       -0.06424069 -0.09119342 -0.07524309 -0.124662325
0000b0 b7 0e 24 be 87 f2 43 3d c4 5a 2d bd 1a 9d aa bd
       -0.16021238 0.047838714 -0.04232289 -0.08330746
0000c0 38 8f 9b 3e 5c c3 b1 3c 1d 12 ff 3c 35 54 a4 bd
       0.30382705 0.0216996 0.031136567 -0.08023874
0000d0 e9 ed 03 bd 99 97 cb 3b f5 b9 52 be c6 43 ef 3c
       -0.03220931 0.00621314 -0.2057875 0.029207122
0000e0 da 19 6b 3d 3e 13 aa be 06 5f 69 3c 7e a4 82 3d
       0.0573977 -0.33217806 0.014243847 0.06379031
0000f0 64 6d f2 be 8d e0 a2 3c de 26 7e 3d 09 34 be ba
       -0.47349083 0.019882465 0.062048785 -0.0014511357
000100 82 85 26 bb bd 18 a1 bb fd 85 a4 3c d3 7c 2e 3c
       -0.0025409167 -0.004916279 0.020083422 0.010649878
000110 f7 bf 78 bc f8 1b ba 3c 2f d7 d0 3c d4 af 40 3b
       -0.015182487 0.022718415 0.025493233 0.0029401677
000120 51 26 88 3c 64 f9 e1 3c 7f 5b 06 bc 86 47 1f 3c
       0.016619833 0.027584739 -0.008200525 0.009721642
000130 a0 e3 05 3d ff bb 0f bc 00 0a 0b 3d 57 d4 e9 3c
       0.032687783 -0.008772849 0.033945084 0.028543634
000140 64 02 43 3b 1b e4 00 3d b6 d5 e8 3c fc a6 82 3b
       0.0029756064 0.03146754 0.028422218 0.0039871912
000150 1d 69 eb 3c e9 96 b2 3c d2 d7 72 b9 7b fd e4 3c
       0.028736645 0.021800475 -0.00023159318 0.0279529
000160 5e a6 b8 3c 7e a9 92 3a 94 04 8f 3c 06 3e 0f 3d
       0.022540268 0.0011189429 0.017458238 0.03497126
000170 95 6e 4a 3b 6b c9 7a 3c 9a 64 2c 3d f7 2d fc 3a
       0.0030888666 0.015306811 0.04208813 0.0019239773
000180 a0 e3 7a 3c c1 5e 23 3d 7d 8c 10 3c 69 5f 88 3c
       0.015313059 0.039885286 0.0088225575 0.016647058
000190 ba f3 e6 3c 78 1a 22 3c 9d 9b 0e 3a f9 47 09 3d
       0.02819239 0.009894006 0.00054400583 0.033515904
0001a0 05 98 65 3b b7 a3 81 3b d8 e0 27 3d ec 48 9c 3b
       0.0035033238 0.003956284 0.040985912 0.004769435
0001b0 96 ac 05 3c 27 b4 34 3d bd c3 06 3c 78 03 e1 3b
       0.0081588235 0.04411712 0.008225379 0.0068668686
0001c0 68 b2 0a 3d b9 d6 0f 3c db cd cd bc 14 fc 22 3d
       0.033861548 0.008779221 -0.025122574 0.03979118
0001d0 23 cb 18 3c 1c 2d 9b bc 59 02 3d 3d 35 ef 47 3c
       0.009325775 -0.018942408 0.046144817 0.0122030275
0001e0 56 ce 8f bc d9 cc 45 3d dc db 41 3c 97 5f 80 bc
       -0.017554443 0.04829106 0.011832204 -0.01567058
0001f0 21 de 2f 3d 6c 62 6a 3c ce a3 ab ba 74 bd 18 3b
       0.042936448 0.014305692 -0.0013095082 0.0023306282
000200 d8 74 0c 3c f0 3d a5 3d e4 a6 99 3d 89 a0 78 3d
       0.00857278 0.08068454 0.07502535 0.060699973
000210 72 45 4b 3e ba 7a cc 3d ab 76 6f 3d 91 05 1e 3e
       0.1985071 0.09984346 0.05846278 0.15431811
000220 26 6f 9c 3b c3 b3 2c 3d 11 89 02 3e d4 c5 8f 3e
       0.004773992 0.04216362 0.12747599 0.28080618
000230 d3 ff f6 3c d3 b4 ab 3d 3d 77 6b 3d 92 2e aa bc
       0.030151283 0.08384099 0.05748676 -0.02077416
000240 48 15 32 3d 1f ac 8e 3d 8e b3 40 bc aa 76 62 be
       0.043477327 0.06966423 -0.011761559 -0.22115579
000250 dd 54 8e bd 32 25 d3 3c cb 95 5c be 29 9f 14 be
       -0.0694978 0.025774572 -0.21541516 -0.1451384
000260 8c 0a 26 3d c2 55 a8 3d c0 1e 41 bd a0 33 89 bc
       0.040537402 0.08219482 -0.047148466 -0.01674825
000270 23 9a 63 3e e0 ae 74 3c 0e 51 dd bd e8 b4 7c bd
       0.22226767 0.014934272 -0.108064756 -0.061695963
000280 4e 4b 51 3d a7 59 96 bd d0 8f 64 be 3a f1 72 bc
       0.051097207 -0.073413186 -0.22320485 -0.014828021
000290 58 27 cc bc c4 23 31 be 58 a6 c6 bd fb f4 bb bd
       -0.024921104 -0.172988 -0.09699696 -0.09177586
0002a0 e3 92 1c 3c a5 a7 b3 bd 9c 8a 29 be 3d 61 c4 3e
       0.009556505 -0.0877221 -0.16556782 0.38355437
0002b0 18 59 dd bc 5d 6a a8 bd 3d 77 ec 3d 58 53 91 bd
       -0.027020022 -0.08223412 0.115461804 -0.07095975
0002c0 85 ea 1a 3d 2f c1 e5 bd bc a3 38 bd e4 02 fb 3b
       0.03782131 -0.112184875 -0.045078024 0.0076602567
0002d0 45 b2 3f be e1 18 1b 3c 6f b9 73 3d 7b 8a 7e be
       -0.18720348 0.009466381 0.059503015 -0.24857514
0002e0 d4 5b 46 3d 8c cb 89 3d a4 70 16 bf fc 7a 9b 3c
       0.048427418 0.067282766 -0.58765626 0.018979542
0002f0 19 41 84 3d d4 63 53 ba 87 d4 94 bb a6 07 0f bb
       0.06457729 -0.0008063887 -0.004541937 -0.0021824627
000300 ed be a6 3c b9 dc 23 3c 9a 1d 9b bc 4b 12 e6 3c
       0.020354712 0.010001355 -0.018935014 0.028084895
000310 cd 1e c8 3c 1a 95 97 39 75 3e a9 3c b5 94 c3 3c
       0.02442875 0.00028912054 0.020659665 0.02387462
000320 bb e4 55 bc 2b e2 50 3c 71 b8 fd 3c 21 e3 59 bc
       -0.013055022 0.012749235 0.030971738 -0.013298781
000330 c5 b3 17 3d e0 98 e4 3c 51 88 70 3a b6 29 0b 3d
       0.037036676 0.027904928 0.0009175586 0.033975326
000340 1d fe db 3c 95 f7 aa 3a 7a 52 fa 3c ee 60 bb 3c
       0.02685457 0.0013043756 0.030556906 0.022873368
000350 98 ff 8b 38 db 95 f3 3c 83 2d cc 3c 75 88 9b ba
       6.6756445e-05 0.029734543 0.024924045 -0.0011866229
000360 1e 8b a1 3c 1a 00 eb 3c 82 05 20 3a 40 e4 b6 3c
       0.019719657 0.028686572 0.00061043364 0.022325635
000370 a5 ab 1c 3d f2 b0 48 bb 0f 2f c9 3c 3a b4 0f 3d
       0.03824963 -0.0030623046 0.024558572 0.035083987
000380 bf 66 4f 3b 94 7b a8 3c b5 2b c4 3c bf c4 7a 3b
       0.0031646935 0.02056674 0.023946622 0.0038264242
000390 77 55 d6 3b e4 8c e2 3c 05 87 e5 3a 71 8b 14 3c
       0.00654095 0.027655073 0.0017511552 0.009066449
0003a0 70 d3 0b 3d 4a f8 ee 38 4f c1 60 3c 5e 9c 1b 3d
       0.03413719 0.00011394972 0.013717963 0.03799092
0003b0 a0 09 82 3b 05 e6 4c 3c 8a d8 00 3d d9 68 be 3b
       0.0039684325 0.012506013 0.031456508 0.0058108387
0003c0 cd 3a b6 bc a3 ce 0f 3d 3a e5 04 3c 81 45 82 bc
       -0.022244835 0.035109174 0.0081112925 -0.015902283
0003d0 6d cf 24 3d b2 b4 04 3c 0a 5e 23 bc 4c e0 2a 3d
       0.04023688 0.008099722 -0.009971151 0.041717812
0003e0 05 5d 03 3c 1e 87 40 bc d7 07 25 3d 0e fe 29 3c
       0.008017783 -0.011750964 0.04029068 0.010375513
0003f0 47 19 4b bb 61 fb 0b b9 f6 b4 2c 3c f2 d6 9d 3d
       -0.0030990408 -0.00013349719 0.010541191 0.07707013

model/batch_normalization_1/batchnorm/mul_1;model/conv1d_1/Conv1D/Squeeze;model/conv1d_1/BiasAdd;model/conv1d_1/BiasAdd/ReadVariableOp;model/batch_normalization_1/batchnorm/mul;model/conv1d_1/Conv1D f4 [96, 1, 3, 96]
000000 e2 4e af bd 99 84 b5 3d 1d 0f c7 bd b1 1a f9 3b
       -0.085599676 0.088631816 -0.097196795 0.007602059
000010 e5 60 f2 3c d4 cf 2c bd b5 bc 81 bd 78 47 c9 3c
       0.029587219 -0.042190388 -0.06334821 0.024570212
000020 53 da b3 bc aa ce 3f 3d 53 56 bc bc c9 ac cf bc
       -0.021954691 0.04682795 -0.022990381 -0.025350945
000030 47 ac f2 bc dc d9 2e bd 00 ce 4d 3d 47 1e e5 bc
       -0.029623164 -0.042688236 0.050245285 -0.027968539
000040 59 67 05 bd e9 b3 06 bb e4 7a 9a bc 14 2c e8 bc
       -0.032569263 -0.0020554012 -0.018857427 -0.02834133
000050 57 92 99 bc 51 3d 6f bc 25 92 3c bc b2 e1 26 bd
       -0.018746538 -0.014602021 -0.011509453 -0.040742584
000060 a1 34 36 ba 70 e6 0e bc 33 a1 9d bd 3c ad f9 3d
       -0.00069505913 -0.008721933 -0.07696762 0.12191245
000070 88 7e 36 3c e6 f2 18 3d 37 d4 95 bc 2e 75 0d bd
       0.011138566 0.03734102 -0.018289668 -0.03453558
000080 96 a5 1e 3d 12 11 1a 3e 0d 90 13 3d 55 ab 26 bd
       0.038732134 0.15045574 0.03602605 -0.04069074
000090 8d 5e 51 bb 31 cc 3c bc 7e 77 ee bb 35 cf 82 3d
       -0.0031947226 -0.011523292 -0.007277428 0.06387178
0000a0 33 51 9f bc a4 c3 ce 3d 6c c0 c7 bd 05 12 73 bc
       -0.019447898 0.10095909 -0.097534984 -0.014835839
0000b0 0f 49 a2 3d 86 78 38 3c dd 75 5e bc 4e 14 1b 3d
       0.07924091 0.011259204 -0.0135779055 0.03786116
0000c0 6e 8f c5 3c e4 00 e3 bc 41 34 b4 3d 61 04 f9 bc
       0.024116244 -0.027710386 0.08799029 -0.030397596
0000d0 11 7b 73 3c f0 fa fb bc fa 78 8d bd eb 7b 52 bd
       0.014860884 -0.030759305 -0.0690784 -0.05138771
0000e0 1f b1 06 3d 10 da 17 bd 90 b9 ff bc 22 80 b7 bb
       0.03288376 -0.037073195 -0.031216413 -0.0055999914
0000f0 08 99 06 bd b1 ca 9b bd 65 92 4c bd 25 cb 3f bd
       -0.032860786 -0.0760702 -0.0499443 -0.046824593
000100 dd 64 53 bd 0c 09 bd 3b c4 3b 34 3c fa fa bd bc
       -0.051609863 0.0057689007 0.011000577 -0.023190964
000110 3b 99 39 bd ee d7 3d bd db 3d a0 3c a8 cc 06 bd
       -0.045312148 -0.046348505 0.019560745 -0.03291002
000120 5c 27 9f bc 01 c4 b1 bd 6d 33 7d 3c 6e cf 81 bc
       -0.019427948 -0.08679963 0.015454155 -0.01584598
000130 ff e5 91 3d c6 ae fb 3d a8 c2 8f 3c e5 16 7f bd
       0.071239464 0.12289195 0.017548874 -0.062277693
000140 11 58 9e 3d c8 7f b7 3d 8f 38 75 bd 38 8a f5 bc
       0.07731641 0.08959919 -0.05986839 -0.029973134
000150 b1 dc be 3c a9 1d bc bc dd d3 64 bd f8 ed 41 bc
       0.023298593 -0.022963362 -0.05586611 -0.011836521
000160 bd bb 8c bd c5 40 54 ba 97 41 d4 3b 35 d9 e7 b9
       -0.06871746 -0.00080968096 0.0064775455 -0.00044221585
000170 28 41 98 bd dc 42 94 bc 30 d4 c5 3d 50 13 c4 bb
       -0.074343026 -0.018098287 0.09659612 -0.0059837475
000180 b3 6f a5 bd fe 5a dc 3d 5a 7b cb bd 78 f6 18 bc
       -0.080779456 0.10759543 -0.09935637 -0.0093361065
000190 23 23 d4 3c 6e 22 ef bc 91 e2 74 bd 30 1c cd 3c
       0.02589566 -0.029191222 -0.059786383 0.025037855
0001a0 ee 1e f7 bc 51 d6 44 3d c5 2a 8e bc 2b 95 ce bc
       -0.030166116 0.04805595 -0.017354378 -0.025217613
0001b0 3f 07 96 bc 57 05 07 bd f1 11 ad 3c b0 91 b7 bc
       -0.018314002 -0.032964077 0.02112672 -0.022408336
0001c0 c8 6f de bc 76 20 53 bc 2b 1a 47 bc 9a 21 eb bb
       -0.02715291 -0.012886157 -0.012152235 -0.0071756365
0001d0 33 28 af bc 85 f8 af bc 08 03 70 bb 27 81 2b bd
       -0.021381473 -0.021480808 -0.00366229 -0.041871216
0001e0 98 aa 59 bb 84 fa 3b 3b b8 28 a1 bd b7 61 e6 3d
       -0.0033213254 0.0028683254 -0.078690946 0.112491064
0001f0 b3 ba 6e 3c ad 02 9c 3c 58 fd 32 bc f4 7c 0b bd
       0.01457088 0.019044245 -0.01092466 -0.03405471
000200 dd e8 4e 3d f5 2f 12 3e 3f 68 06 3d 25 c4 35 bd
       0.050515044 0.14276107 0.03281426 -0.04437651
000210 52 e2 88 ba 43 02 af bb b3 5c f1 bb e0 40 9e 3d
       -0.0010443425 -0.005340846 -0.007365787 0.07727218
000220 f0 a1 d7 bc 6e 52 94 3d eb a0 af bd 82 1f a7 bb
       -0.026322335 0.07242285 -0.085756145 -0.0051001916
000230 1a ef a6 3d f8 e7 ac bb 47 5e a7 bc 39 f8 30 3d
       0.08151074 -0.0052766763 -0.020430697 0.043205474
000240 a1 15 af 3b c6 52 df bc 2b 6b d2 3d aa 80 fd bc
       0.0053431545 -0.02726115 0.10274347 -0.03094514
000250 47 96 1c 3c 4c 33 9a bc bc fe 83 bd 16 7b 41 bd
       0.009557313 -0.018823288 -0.06445071 -0.047236525
000260 a9 5a d9 3c 94 83 09 bd bd a0 b7 bc 87 e4 b8 bc
       0.026532488 -0.03357275 -0.022415513 -0.022569908
000270 2d f7 1c bd 07 b1 95 bd 68 37 22 bd d7 f2 79 bd
       -0.038321663 -0.07309156 -0.03960362 -0.061022606
000280 3f c9 7d bd 3b 53 47 b9 6b 66 a8 3c c0 97 07 bd
       -0.0619595 -0.00019009125 0.02055665 -0.033103704
000290 89 f6 59 bd 5e c3 66 bd 45 10 e0 3b 39 44 ad bc
       -0.05321363 -0.05633866 0.006837877 -0.021150695
0002a0 e2 75 a7 bc 39 66 bc bd 56 b5 fd 3c 83 f2 a4 bc
       -0.020441953 -0.09199185 0.030970257 -0.02013517
0002b0 c0 86 50 3d 2b 0e a4 3d 30 36 9b 3c e3 d2 85 bd
       0.050909758 0.08010515 0.018946737 -0.06534364
0002c0 f6 d5 b9 3d 8b ad d2 3d c9 f0 73 bd 33 06 ed bc
       0.09074013 0.10287007 -0.059555802 -0.02893362
0002d0 d3 ca a1 3c 44 a8 b3 bc 9a 0b 96 bd 09 af ad bc
       0.019750034 -0.021930821 -0.073264316 -0.021201627
0002e0 4d 30 70 bd 52 29 98 3a ff 9c f1 3b 81 96 8c bc
       -0.058639813 0.0011608994 0.0073734517 -0.01716161
0002f0 e0 d0 7d bd 0f c4 5c bb ac 0f e9 3d 0b 8f 24 bc
       -0.061966777 -0.0033686196 0.11379942 -0.01004387
000300 fb b6 98 bd d8 5f d0 3d fd dd b5 bd 52 3d a7 bc
       -0.07456776 0.10174531 -0.088802315 -0.020414982
000310 fe 2f b0 3c 6b df b0 bc 0b 1d 82 bd a1 cb f7 3c
       0.02150726 -0.021590909 -0.06353196 0.030248465
000320 e8 40 12 bd d6 fd 52 3d 41 76 84 bc 6e 11 13 bd
       -0.03570643 0.051511608 -0.01616967 -0.035905294
000330 93 ed ad bc bb 04 04 bd ae d0 8d bb 00 bc 94 bc
       -0.021231448 -0.032231074 -0.004327855 -0.018156052
000340 16 ee 8f bc 31 8f e0 bc 74 92 9a ba e2 84 01 bc
       -0.017569583 -0.027412029 -0.0011792914 -0.007905217
000350 7e 66 10 bc fc a4 84 bc 6a f1 b0 3b 5e 7d 12 bd
       -0.008813499 -0.016191952 0.0053998725 -0.03576409
000360 c3 00 52 bc 10 ac 0b bc 7c fb a5 bd 5c 27 a7 3d
       -0.012817564 -0.00852491 -0.081046075 0.08161804
000370 f2 b1 42 3c 79 49 57 ba 81 b8 b1 bb 54 fc cd bc
       0.011883246 -0.00082125474 -0.005423606 -0.025144733
000380 06 de 08 3d 19 38 d9 3d fd 2a 9c 3c b8 ae 25 bd
       0.033414863 0.10606403 0.019063467 -0.040449828
000390 ed ec a0 bc 06 b6 94 ba f4 2a bd bb a9 0a af 3d
       -0.019644225 -0.0011345751 -0.0057729427 0.08546955
0003a0 d1 8f 6f bc bf fd 0f 3d cf 52 a3 bd 0c ef 0a 3c
       -0.014621691 0.0351541 -0.07974779 0.008479845
0003b0 fa 7b 91 3d 74 fb e8 bb 7f 9f 3e bc 05 39 27 3d
       0.07103725 -0.0071100537 -0.0116347065 0.040825862
0003c0 fe eb 7f bb 79 aa 01 bd 44 6a d6 3d 8c ff cb bc
       -0.0039050574 -0.031656716 0.10469487 -0.024902128
0003d0 aa 06 93 bb 9d 68 a3 bc 4f a3 7d bd 4a 51 3a bd
       -0.0044868784 -0.019947344 -0.06192332 -0.04548768
0003e0 fa d4 a2 3c 27 70 cc bc 9d fb 7d bc 0c d2 09 bd
       0.019876946 -0.024955822 -0.015501884 -0.033647582
0003f0 e4 b4 b8 bc 55 7f 98 bd b2 c8 12 bd e2 17 59 bd
       -0.022547193 -0.07446162 -0.03583593 -0.053001292

model/gru/gru_cell/strided_slice_4 f4 [96]
000000 66 26 ff bb 3d 03 29 3c 61 83 aa 3b 53 41 e3 bc
       -0.00778656 0.0103157135 0.00520365 -0.02774111
000010 7d c8 6c bd 09 7d 85 3a de 6a f9 3c fe 94 32 38
       -0.057808388 0.0010184358 0.030446466 4.2577267e-05
000020 09 d2 42 bb a5 0e e4 3c b2 b7 82 3c ff f4 dd 3c
       -0.0029727241 0.027839014 0.015956733 0.027094362
000030 10 27 5e bc a0 9d 66 bc 31 bf 3d bd df 31 02 bd
       -0.013559118 -0.014075667 -0.046324912 -0.031785842
000040 8e 5a cd bc e7 8f 9a 3a a7 6a a7 3c a4 19 7b 3c
       -0.025067594 0.0011792154 0.020436598 0.015325937
000050 5b 8d 83 bc f7 d1 c0 bc 68 64 ff bc e7 ad a5 bc
       -0.016058614 -0.023537619 -0.031175807 -0.020224525
000060 5a 66 83 bc 40 21 d8 bc 24 9c 07 3d c6 f9 a0 bc
       -0.016040016 -0.026383042 0.03310789 -0.019650351
000070 bd 29 5d 3c 20 d8 41 bc 06 8d 9d bc cf a0 73 3b
       0.013498721 -0.011831313 -0.019232284 0.0037174707
000080 e4 9a bf 3c e4 74 8a 3d 1a dc 7e 3d bd 6c 13 bc
       0.023389287 0.06760576 0.062221624 -0.008998093
000090 82 2b 1c 3d 8c 41 6f bc ba c6 5d 3c ba 14 83 3d
       0.03812743 -0.01460303 0.01353615 0.06400438
0000a0 41 e2 b2 3b 3b 55 a6 bb de bf 6a 3c 2e 37 45 3d
       0.0054591005 -0.005076078 0.014327971 0.048148327
0000b0 05 bb aa 3b 37 9e 84 3c 3a 75 98 bc d0 fc c0 3b
       0.0052102827 0.016188724 -0.018610585 0.0058895126
0000c0 48 be 1a 3b 11 5f 04 3d 5c 82 dc bb ae 76 50 3d
       0.0023611952 0.032317225 -0.0067294072 0.05089443
0000d0 c0 6e a6 3b f3 28 00 bd 48 e1 0e bd ac 55 58 3d
       0.0050791204 -0.031289052 -0.034882814 0.052816078
0000e0 68 6f 1e 3d c7 a4 ae 3d b5 9c 5c bd af d8 0a bd
       0.038680464 0.085275225 -0.053860385 -0.03389805
0000f0 a5 68 71 3c a3 c2 1b bd 97 3a d7 3c 4a 00 b8 bc
       0.014734422 -0.038027417 0.026273055 -0.022461075
000100 a7 49 bf bb 85 77 4a 3c 5c 83 21 bc 1a 77 9e bc
       -0.0058376375 0.012357597 -0.009857979 -0.019343901
000110 a0 4b 62 3c 01 9e 26 3d 2d c6 41 3c 91 38 9b bc
       0.013811976 0.040678028 0.011827034 -0.018947871
000120 50 39 ae bc 9d 16 7f 3b c1 1d 34 3d 0c ba 8f bb
       -0.021267563 0.003892339 0.043973688 -0.004386192
000130 ff d2 d8 bc 1e e8 9e 3d 04 23 e6 3c 3d 1f 01 3d
       -0.026467798 0.077591166 0.028092869 0.03152393
000140 22 95 37 bb 0d c3 81 bc 0a ae d4 bc e9 8f 93 bc
       -0.0028012474 -0.015840078 -0.025961895 -0.018012958
000150 15 8d 77 3a 4c b1 09 bd 79 da 9b 3c f7 d2 44 3b
       0.0009443325 -0.03361635 0.019025074 0.0030032971
000160 b2 4d 02 3a 37 0a 06 bd ce 00 f3 bc 57 a5 bc bc
       0.0004970684 -0.032724585 -0.02966347 -0.023028059
000170 c5 ce 9f bc c9 b7 41 3c 66 d1 eb 3c 18 32 de bc
       -0.019507775 0.011823603 0.028786372 -0.027123496

model/gru/gru_cell/strided_slice_3 f4 [96]
000000 ed 9d 4a 3c 65 a7 46 3d e4 cc a4 3d 80 e8 9f bb
       0.012366754 0.048499484 0.08046892 -0.004880011
000010 23 47 cf 3c e0 dc b2 3d 51 cf 02 3e bd 1f 0a 3d
       0.025302475 0.08733535 0.12774397 0.033721674
000020 c2 5e 6b 3d e2 59 20 3d 6d 75 83 3d 08 80 28 3d
       0.057463415 0.03914822 0.064188816 0.041137725
000030 be 7c 97 3d f0 20 9a bc a4 e0 d9 bc f5 2f ab 3d
       0.073968396 -0.018814534 -0.026596375 0.083587565
000040 1a 31 69 3d ec 57 92 3d 56 cb 35 3d 10 45 9b 3c
       0.056931593 0.07145676 0.04438337 0.01895383
000050 64 5a aa 3d cc 10 7d 3d a5 49 8d 3d 17 8e aa 3d
       0.08318022 0.061783597 0.06898812 0.08327883
000060 7a 27 e1 bc 4f 89 0d 3d 1d a7 c1 3d e9 75 67 3d
       -0.027484644 0.034554776 0.094557025 0.056508932
000070 ee 11 0e 3d 42 0e 90 3d 09 6d c5 bb 9a 9f 34 3d
       0.034685068 0.070339695 -0.006024961 0.04409752
000080 26 a3 6c bd 28 eb 9e 3c d3 ec fb 3d 37 fd 93 3d
       -0.057772778 0.01939924 0.1230103 0.07226031
000090 2a 3a 8b 3d b7 f5 72 3d 52 f4 c2 b9 51 3a 71 3c
       0.06798203 0.059316363 -0.00037184596 0.014723376
0000a0 e0 be 18 bc 2d ff d0 3d ca 45 fc 3c 15 b2 a8 3c
       -0.009322852 0.10204921 0.030794997 0.020592729
0000b0 68 4c 28 ba 24 2a 81 3c 32 4f 02 3d 6d 46 83 3c
       -0.0006420077 0.015767165 0.031813808 0.016024793
0000c0 1f fb 7a 3c fa 0f 93 3c 1b 28 56 3d 87 b7 5d 3d
       0.015318661 0.017951954 0.05228434 0.054130103
0000d0 7c f9 a9 bd c2 e6 b6 3c 59 13 4a 3c af 81 f5 3d
       -0.082995385 0.02232683 0.012333714 0.11987626
0000e0 74 23 a2 3c 13 a5 e6 3c 10 fd 56 3c 31 b1 8b 3d
       0.019792296 0.028154885 0.013121858 0.06820906
0000f0 1c f3 26 3c 68 e8 22 3d 33 31 13 3d 4b 29 0b 3b
       0.010189798 0.03977242 0.035935592 0.002123433
000100 de 69 a2 3c 87 aa 87 3d 11 ca 3e 3d 9f 3b c7 3c
       0.019825872 0.066243224 0.046579424 0.024320422
000110 67 4d 1d 3d 4c b4 66 3d 20 7f 5a 3d 30 13 aa 3d
       0.038403895 0.05632429 0.053343892 0.08304441
000120 e9 5a ba 3d d9 59 65 3c 77 47 10 3e 92 7e 8c ba
       0.09099371 0.013998472 0.14089762 -0.0010718873
000130 4a ca 86 3d d5 a6 3d 3d 21 2e ea 3d 36 46 87 3d
       0.06581552 0.04630168 0.1143458 0.066051885
000140 e3 5f 04 3d 69 1a 82 3d 48 11 c0 3c 89 85 0c 3e
       0.032318007 0.063526936 0.02344574 0.13722815
000150 19 10 ae 3d 4e cb ed 3c 7d bc 4e 3d 1a 84 b7 3c
       0.08499164 0.029027607 0.050472725 0.022401858
000160 36 20 2f b9 27 63 88 3c e4 a0 47 3d e4 c3 a4 3d
       -0.000167013 0.016648842 0.04873742 0.08045176
000170 2c 26 b2 bc a0 81 1f 3e 9d 7e 66 3d 1b e2 a2 3c
       -0.021746717 0.15576792 0.05627309 0.019883206

model/gru/gru_cell/strided_slice_5 f4 [96]
000000 5d 7a a4 3c 54 70 02 3d 5b c8 58 bc 4c b9 b2 3c
       0.020077879 0.031845406 -0.013231362 0.021816872
000010 d3 e2 27 3a 99 eb 23 bb f2 6b 60 3c 5a 21 46 3c
       0.0006404344 -0.0025012253 0.013697611 0.012092913
000020 ad 05 88 3b 2e 53 2b 3c 38 ce 62 3b 38 97 51 bc
       0.004151067 0.010456843 0.003460778 -0.012792401
000030 15 3f 06 bb c1 4c b5 bc 00 48 dd bc 6f 62 e8 3c
       -0.0020484377 -0.022131326 -0.027011871 0.02836725
000040 f7 e2 5c 3c 9a ed 9b 3c f0 2b 85 bc c4 69 47 bc
       0.013481847 0.019034196 -0.016256303 -0.012171213
000050 85 ef d2 bc 43 2d a1 3c f9 ec 80 bc fa f1 f3 3b
       -0.025748977 0.019674903 -0.015737997 0.0074446173
000060 51 11 8e bc ef 36 72 3d e0 70 1b bc a4 63 b4 bb
       -0.017342241 0.05913442 -0.009487361 -0.005505042
000070 3a 2f bd 3c f1 8e 06 3c ab 7d 05 bd 23 ec 9b 3c
       0.023093808 0.008212791 -0.03259055 0.019033497
000080 51 b4 cb 39 6e 57 68 ba 5e 7e a2 3c db fd d6 bc
       0.00038853523 -0.00088631257 0.019835647 -0.026244095
000090 eb fd d0 3c 26 f7 19 3c af 7b 22 bb a8 1b 14 3d
       0.025511703 0.009397304 -0.002479296 0.036159188
0000a0 79 7b 03 3c e8 60 34 bb 7a 4d c1 3c ac a2 9d ba
       0.008025044 -0.002752358 0.023596514 -0.0012026629
0000b0 ca ce ae 3b 35 7f 97 3c 93 4f f2 bc bc 7a 9c 3c
       0.00533471 0.018493274 -0.02957896 0.019101493
0000c0 76 7a 80 3b 24 22 1b 3c 89 4a 17 bc 34 10 1a 3d
       0.0039208485 0.009468589 -0.009234079 0.03761311
0000d0 d7 b9 1c 3c 52 f8 0a bd e8 58 22 bc 4c 90 c8 bb
       0.009565792 -0.033928223 -0.009908892 -0.006120717
0000e0 f7 24 3d 3c 58 a7 f0 3c ea 35 ac bb d4 37 d6 3c
       0.011544458 0.02937667 -0.0052554505 0.026149668
0000f0 8f 2a c3 bb 2b c3 ad 3c 72 ea 8d bc aa d5 96 bc
       -0.005956001 0.021211227 -0.017323706 -0.01841243
000100 18 00 3a bc 3e ec 5c bc 50 71 c6 3c ca 63 a2 3c
       -0.011352561 -0.013484059 0.024223953 0.019822974
000110 d4 74 1b bc cb 04 ee bc 6e 8c f4 3c b6 f2 77 3c
       -0.009488303 -0.02905502 0.029852118 0.01513355
000120 4d 3c e1 bc 7b 9e 8d 3c 7a 69 0f bd 89 e3 e5 3b
       -0.027494574 0.017287483 -0.0350127 0.0070156497
000130 d9 13 53 ba ec c6 be 3c 0a 54 11 bd 45 a3 9d bc
       -0.0008051969 0.023288213 -0.035480537 -0.019242892
000140 89 83 31 bc 7e f8 91 3c 5f 94 c9 3c bb 8d b1 bc
       -0.010834583 0.017818686 0.024606882 -0.021674028
000150 6a 48 ae ba 38 14 c1 bc 24 7e b8 bc 09 c1 9d bc
       -0.0013296728 -0.023569211 -0.022521086 -0.019257085
000160 7b e7 f4 3b b3 2b 71 bb 96 ea b7 3c 36 5c 1c 3b
       0.0074738837 -0.0036799728 0.022450726 0.0023858673
000170 66 7d 00 3d 2b 7c 05 3d 14 14 d8 bc b9 72 6a 3b
       0.03136959 0.03258912 -0.026376761 0.0035773946

model/gru/gru_cell/strided_slice_11 f4 [96]
000000 66 af de 3c 02 00 7b 3c b3 8c ab ba 79 a6 b0 3a
       0.027183246 0.015319826 -0.0013088196 0.0013477347
000010 19 65 8e 3c 66 ac 71 bc e2 66 45 3c c6 57 41 bc
       0.017382191 -0.014750576 0.012048455 -0.011800712
000020 2f 3d 09 3c 0c 99 4f 3c 7b cf 17 3c 5b 93 73 3b
       0.008376404 0.012670767 0.009265776 0.0037166688
000030 77 b5 30 ba 3d ae a0 bc c8 1f df bc 90 d0 61 3c
       -0.00067409076 -0.019614333 -0.027236834 0.013782635
000040 bc f1 0f bd 62 74 ea 3c e9 e7 a1 bc 50 0a 97 3c
       -0.035142645 0.028619949 -0.019763904 0.018437535
000050 01 18 16 3c 65 13 53 3c ab ee 2c 3c 13 57 e2 bb
       0.009160996 0.012883042 0.01055495 -0.0069073527
000060 cc c1 97 3a 06 11 3a 3d 56 6d 8d bc dd b9 26 ba
       0.0011578142 0.04542639 -0.01726405 -0.0006360093
000070 b0 19 0e 3c e2 a2 15 3c fd 50 22 bd 4c 82 22 bb
       0.008673117 0.009133073 -0.039628018 -0.0024796901
000080 ee a8 0f 3c 1e 44 db ba 7b e7 a2 3b cd 99 c2 bc
       0.008768303 -0.0016728675 0.0049714423 -0.023754979
000090 67 ef 89 3c 8c a6 fb 3b 40 2b ea ba cb 50 b4 3c
       0.016837789 0.007679766 -0.0017865673 0.022011181
0000a0 1c 97 50 3c 45 00 dd ba 4c 3f 0d 3d 72 94 68 bc
       0.01273134 -0.0016861042 0.034484193 -0.014195548
0000b0 25 dc d3 3b b9 00 87 3c 3e 5a 03 bd 85 92 87 3c
       0.0064654523 0.016479837 -0.032068484 0.016549358
0000c0 cd da 52 ba 29 1d 33 3c 51 92 48 bc 72 83 86 3c
       -0.0008043468 0.010932245 -0.012241916 0.0164201
0000d0 bd 62 82 3b 1e ea c6 bc 64 10 ad 3a 0b 33 aa bb
       0.0039790557 -0.024281558 0.0013203737 -0.005194073
0000e0 5d 61 a4 3c e1 db 99 3c a3 f6 04 bc 36 eb a8 3c
       0.020065958 0.018781604 -0.008115443 0.02061997
0000f0 d1 db 45 bc aa e1 8b 3b b4 33 d9 bc dc 90 db bb
       -0.012076334 0.0042688446 -0.026513912 -0.006700618
000100 89 62 91 ba 88 36 9e bc dd 9a c1 3c df 7c 97 3c
       -0.0011091988 -0.019313112 0.023633415 0.01849216
000110 70 80 83 bc f7 bc 05 bc 90 b7 b7 3c e9 16 a7 3b
       -0.016052455 -0.0081627285 0.022426397 0.0050991667
000120 fb 0b a0 bc 29 54 8d 3c 10 9a e2 bc 8c e2 c8 ba
       -0.019536963 0.017252045 -0.027661353 -0.0015326305
000130 9e ec bf bb 7b 87 cb 3c 49 d4 16 bd ab 11 09 3c
       -0.0058570644 0.024844876 -0.036823545 0.008366029
000140 2b d6 cb bb 87 aa 15 3b 30 a4 97 3c 86 ef ed bc
       -0.006220599 0.0022837238 0.018510908 -0.029044878
000150 d7 7f 53 3c 07 02 93 bc a2 53 07 bd fd d3 bb bb
       0.012908897 -0.017945303 -0.033038743 -0.005732058
000160 b1 41 c3 3b a2 61 b8 bc 03 eb ed 3c 6c 82 9a 3c
       0.0059587588 -0.022507492 0.029042726 0.018861018
000170 a7 08 e7 3c 67 e3 c9 3c 2c f2 c5 bc 98 ba 9b ba
       0.028202368 0.024644567 -0.024163328 -0.0011881171

model/gru_1/gru_cell/strided_slice_4 f4 [48]
000000 6e da c0 3d 68 92 97 3c ae 8f 59 bc 3f 2c d4 3b
       0.09416662 0.01850243 -0.013278885 0.006475001
000010 f1 7f 0a bd d1 1a 1c bc 12 0a 59 3d 82 23 c1 bc
       -0.03381342 -0.009527878 0.05298812 -0.023576502
000020 83 48 17 3e 9f f1 d4 3d c4 d1 e5 3c 12 75 17 3d
       0.14773755 0.10397648 0.028054126 0.03697688
000030 70 20 05 3d c1 ff 0d 3d 82 3d 09 3e a8 fc 9f 3c
       0.032501638 0.034667734 0.1340237 0.019529656
000040 c3 b7 d8 3c e0 29 04 3d 5e a9 83 3d 82 ef 23 bd
       0.026454812 0.032266498 0.064287886 -0.040023334
000050 1b 70 a5 3d a5 ca f7 3d b9 29 de 3d 28 86 a6 39
       0.08078023 0.12099198 0.10847802 0.00031761942
000060 e1 d0 91 3d 2c b3 ac 3a 0d 05 ce 3d 24 70 7e 3d
       0.071199186 0.0013175956 0.10059557 0.062118664
000070 c6 a1 31 3d ec 3b d9 3d 4f 4c ee 3c a1 42 4d bd
       0.04336717 0.10607132 0.029089121 -0.05011237
000080 00 a8 77 3d c4 91 bc 3d 11 6f 55 3d 0f 87 d8 3c
       0.06046295 0.0920749 0.052107874 0.026431588
000090 4a c3 88 3d 9e a0 40 3c 9e e6 57 3d 95 e8 cd 3d
       0.066778734 0.011757044 0.052710168 0.10054127
0000a0 13 5f c1 3d 23 e1 46 bd 3c 5d 7c bd 5a ef da 3d
       0.09441962 -0.04855455 -0.061612353 0.10690184
0000b0 67 65 3a 39 07 a9 e9 3d 8c af ab 3b dc 29 9f bb
       0.00017776118 0.114091925 0.0052394327 -0.004857285

model/gru_1/gru_cell/strided_slice_3 f4 [48]
000000 a5 a9 3d 3d 11 99 3a 3d 6d 6b 4e 3d 1b 23 a4 3d
       0.046304364 0.04555613 0.050395418 0.08014508
000010 2a 5d 26 3d 19 92 9d 3d 59 09 37 3d b3 2a 78 3d
       0.040616192 0.076938815 0.04468665 0.060587596
000020 7a 18 35 3c b0 be 4b bd 17 40 2b ba 15 86 90 bc
       0.011053199 -0.0497424 -0.00065326825 -0.01764206
000030 0d 8b 37 bd 9a 9a bd 3c ec 7e 89 bd 86 d2 b5 bc
       -0.044810344 0.023145009 -0.067136616 -0.022195112
000040 3e 33 ec 3b d4 0b 71 3d 93 24 28 3e 0f 4b a3 3c
       0.007208257 0.05884917 0.16420202 0.019933252
000050 de a2 53 bd 07 ba 16 3d 89 f0 34 bd a5 fa 42 3d
       -0.051668994 0.036798503 -0.044174705 0.047602315
000060 4f 78 f2 bc 95 ea 22 3d 5a 54 17 3d d8 e3 90 bd
       -0.029598383 0.039774496 0.03694568 -0.07074708
000070 11 83 bb 3c be 0b b9 bc 34 98 f1 3c 85 78 0c 3d
       0.022889646 -0.022588607 0.029491521 0.034294624
000080 d8 a9 3c 3d 66 aa f6 bc 02 09 cf 3d c7 b8 57 3d
       0.046060413 -0.03011055 0.1010914 0.05266645
000090 58 89 8b bc 23 f1 e9 3c 86 15 e0 3c 90 c5 3a 3d
       -0.017033264 0.028557366 0.027354013 0.045598567
0000a0 f9 7f a4 bb f9 53 61 3c 0c a2 c4 bb d8 b9 c8 bb
       -0.0050201383 0.013752931 -0.006000763 -0.00612567
0000b0 64 24 16 bd 21 94 89 3d f3 96 c8 bc 12 17 8e 3c
       -0.0366558 0.067177065 -0.02448604 0.017344985

model/gru_1/gru_cell/strided_slice_5 f4 [48]
000000 85 0e 95 3d 26 26 20 bd bf 37 cf 3c 96 7c 13 bc
       0.0727816 -0.03909888 0.025295136 -0.009001872
000010 8f 87 d2 bd cc 3d 82 3c c4 0a 81 bd b1 85 89 3d
       -0.10279762 0.015898608 -0.063008815 0.06714953
000020 9e c2 07 3e 96 d2 45 be 1d 43 3d 3b ef 11 a5 3d
       0.13257834 -0.19318613 0.0028879114 0.08060061
000030 b8 af 7f 3c 57 3c d1 bc a6 5b c8 bd 3d bf 02 3e
       0.015605859 -0.025541468 -0.097831056 0.12768264
000040 38 99 4a 39 99 44 a5 bd 7c fa 3e bc 34 d4 84 3c
       0.000193213 -0.080697246 -0.0116564 0.016214468
000050 05 39 2b be 77 e8 f7 bd 11 20 04 be ab eb 67 bd
       -0.1672097 -0.12104886 -0.12902857 -0.056621235
000060 60 d4 8b bd d8 be 8f bc c9 38 cf bd 1d 09 76 3d
       -0.06827617 -0.017547056 -0.10118253 0.060067285
000070 e1 5d 8c 3b 33 30 1d 3d 71 37 57 bd 5b da 79 bd
       0.004283652 0.038376044 -0.052543107 -0.060999256
000080 a5 90 37 ba 5b 69 92 bd c8 c4 51 bc e3 57 90 bd
       -0.000700245 -0.07149001 -0.012803264 -0.07048013
000090 e2 df f8 3d da 78 8c bd 3b df fc bd 56 65 fe bc
       0.12152077 -0.06858988 -0.12347265 -0.03105418
0000a0 d9 96 eb 3d f5 c7 24 bd c4 30 f2 bc 7b 20 be 3d
       0.11503381 -0.040229756 -0.029564269 0.09283539
0000b0 e6 f3 ed bd 78 8c b9 bd 53 d8 ac 3d 54 3f 10 bd
       -0.116187856 -0.090599954 0.08439698 -0.035216644

model/gru_1/gru_cell/strided_slice_11 f4 [48]
000000 06 07 62 3d 42 d4 9a bc 85 27 c7 3b 1e 6f 04 bd
       0.05518248 -0.01890004 0.006077709 -0.032332532
000010 1f 83 c0 bd d3 17 02 3d d8 dc 6a bc f3 a6 ba 3c
       -0.09400009 0.031761 -0.01433488 0.022784686
000020 d0 4d c6 3d 2b 8a 3a be 9f c0 c2 3c ee f7 94 3d
       0.0968281 -0.1821677 0.02377349 0.07273851
000030 dc 6a 07 3d 22 8b 2b bd 2b ea e1 bd 3b 90 bb 3d
       0.033060893 -0.041880734 -0.11030992 0.09158369
000040 17 ce e8 bc 76 f0 27 bd 30 48 91 3c 99 85 95 3a
       -0.028418584 -0.041000806 0.017734617 0.0011407613
000050 50 64 f2 bd 33 7a 47 bd e2 11 08 be 50 61 63 bd
       -0.11835539 -0.048700523 -0.13288072 -0.055512726
000060 31 d7 c3 bd e4 4a 2d bc a2 37 86 bd f1 89 5f 3d
       -0.09562529 -0.010576937 -0.0655358 0.05457491
000070 f6 76 6c bc 2a 44 f4 3c 91 dd 68 bd 3d 22 a7 bd
       -0.014432659 0.02981766 -0.056851927 -0.08160827
000080 81 a7 5f bc 6d b3 a3 bd fd 2a 03 bc 79 ce a5 bd
       -0.013650776 -0.07993207 -0.008005855 -0.08096022
000090 63 35 79 3d 9c 3b 4b bd f2 24 08 be 04 9b ed bb
       0.06084193 -0.049617395 -0.13295344 -0.0072511453
0000a0 61 e7 e5 3d e4 eb 13 bd 23 f9 8e ba a8 2f 3b 3d
       0.11225773 -0.036113635 -0.0010907989 0.045699745
0000b0 53 5f 9c bd 13 80 e8 bd a3 d3 83 3d e2 fe 9d bc
       -0.07635369 -0.11352553 0.06436851 -0.019286577

model/batch_normalization_3/batchnorm/sub f4 [48]
000000 c2 c0 ec be b6 d8 1e be c2 d3 f6 3d b9 b7 2d be
       -0.46240813 -0.15512356 0.12052108 -0.16964616
000010 e7 37 39 be a0 9a 0a 3e aa 11 73 3f fb 44 5d 3e
       -0.18087731 0.13535547 0.9494883 0.21608345
000020 57 bd 39 bf ae cb 40 3f f4 a4 19 bf 19 35 1c bf
       -0.72554535 0.7531079 -0.60017323 -0.6101852
000030 43 13 e4 be 14 4b 24 be 97 46 cf 3e df 4b 27 bf
       -0.44545946 -0.16044265 0.40483543 -0.65350145
000040 31 71 78 bf 3e e6 4f be fc a0 07 3f e4 4b aa be
       -0.97047716 -0.20302674 0.5298002 -0.33261025
000050 6a 7f 5a 3f 1a 96 5f 3f 29 f7 12 3f 10 2e 59 3e
       0.8535067 0.8733841 0.57408386 0.21208978
000060 64 55 18 3f aa b1 e4 be 1c f4 c6 3e 7b 10 de be
       0.59505296 -0.44666797 0.38858116 -0.4337195
000070 5a 9a 82 be dc 0d 70 be bc a4 fb bd a2 43 30 3f
       -0.25508386 -0.23442787 -0.1228728 0.688532
000080 28 66 b2 3e 2b d6 5f 3f 5e f2 38 3e 9b 7c 1a 3f
       0.34843564 0.8743617 0.18061206 0.6034638
000090 88 5d 11 bf 1e df df 3e e7 87 05 3f 36 7a 9d 3e
       -0.5678334 0.43724912 0.52160496 0.30757302
0000a0 99 e2 28 bf 93 6d 00 3f c6 23 8c 3f df dc 1c bf
       -0.6597076 0.50167197 1.0948417 -0.6127452
0000b0 4f 9b 65 3e 61 82 09 3f 38 b2 ca be b3 bc 92 3e
       0.22422527 0.5371457 -0.39589095 0.2865959

model/batch_normalization_3/batchnorm/mul f4 [48]
000000 10 ac 09 40 82 9c 23 40 e8 3e 23 40 f4 4d f8 3f
       2.1511269 2.5564275 2.5507145 1.939879
000010 07 cc 17 40 18 ef 05 40 15 91 38 40 f8 fc 2d 40
       2.3718278 2.0927181 2.883855 2.718565
000020 b9 b2 f7 3f 76 87 d8 3f 71 87 3f 40 35 20 2b 40
       1.9351417 1.6916339 2.9926417 2.6738408
000030 97 b4 ed 3f 23 dd ff 3f ed e9 ea 3f 84 df 2a 40
       1.8570737 1.998936 1.8352638 2.6698923
000040 e1 93 51 40 c5 fd 31 40 18 1d 1f 40 b7 1a 03 40
       3.2746508 2.7811139 2.4861507 2.0485055
000050 7f f7 f0 3f 32 ab 29 40 40 45 f0 3f ac cb 2c 40
       1.882553 2.651074 1.8771133 2.6999311
000060 2a 17 fb 3f db 0c 07 40 17 a5 d6 3f dd 67 db 3f
       1.9616444 2.1101596 1.6769131 1.7141072
000070 ae 20 00 40 0f 06 ce 3f 9d fc 25 40 0c 42 0f 40
       2.0019946 1.6095599 2.5935433 2.2384062
000080 ab 04 1e 40 02 ef 1f 40 8d 65 ef 3f 56 3a 2f 40
       2.469035 2.4989629 1.8702866 2.7379355
000090 33 3b f0 3f d3 8b 04 40 03 c1 fd 3f 5e 86 c1 3f
       1.8768066 2.0710342 1.9824528 1.5119131
0000a0 d9 fb fe 3f a2 4b f3 3f 30 87 8a 40 a7 de e1 3f
       1.9920608 1.9007456 4.3290024 1.7646073
0000b0 a4 23 12 40 2a 32 13 40 ef 5d 1d 40 5f 84 23 40
       2.2834253 2.2999368 2.4588583 2.5549543

model/batch_normalization_2/batchnorm/sub f4 [96]
000000 1b 88 b9 bd e9 62 43 3d 20 89 1d 3f e4 cf 2a be
       -0.09059163 0.04770175 0.6153736 -0.16680866
000010 8f 8e bc be f9 c3 93 3e cf 63 92 3d c2 e8 13 be
       -0.36827514 0.28860453 0.07147943 -0.14444259
000020 a1 13 5c bf d8 d2 41 3f 07 db b0 3e 19 50 d9 be
       -0.8596745 0.7571235 0.34542105 -0.42443922
000030 52 9d 20 be a0 34 8a 3e 65 60 bb 3e 52 54 b7 be
       -0.15685013 0.26993275 0.3659698 -0.3580652
000040 26 ce c1 be 7e 0a 5e bf 89 55 0d 3f 05 d8 96 3f
       -0.3785259 -0.8673476 0.5520864 1.1784674
000050 c6 a4 50 3f 46 3c 88 bf 43 2b 0e 3f ed 15 06 bf
       0.81501424 -1.0643394 0.5553476 -0.52377206
000060 44 d9 05 3f da 37 16 be a8 02 58 3f a5 9f 74 3e
       0.52284646 -0.14669743 0.84379053 0.23889025
000070 08 2a 57 3f 14 90 bc 3d 9b da 98 3f 77 86 31 bf
       0.8404851 0.09207168 1.1941713 -0.693458
000080 53 8f 46 bf 50 b7 1d 3f 38 da b4 be 3e ee c8 3f
       -0.77562445 0.6160784 -0.35322738 1.5697706
000090 20 3e cd bf d4 a7 78 3e ab 9c b5 be 30 9f 04 bf
       -1.6034584 0.24282771 -0.3547109 -0.518054
0000a0 8e 82 08 3f 69 6c f8 be 2f 86 65 bf 60 ba 37 3f
       0.5332421 -0.4852021 -0.8965787 0.7176876
0000b0 98 bf 95 3e 12 fe 24 bf a6 08 f8 3f f6 46 72 bf
       0.29247737 -0.6445018 1.9377639 -0.9463953
0000c0 9b 78 35 bf 96 35 71 bd 0a a6 48 be 4c 64 cc 3d
       -0.70887154 -0.058888994 -0.19594589 0.099800676
0000d0 6e 04 13 3d bb fd 58 3f 9e 70 74 3d 1f 7a 34 3f
       0.035892896 0.8476216 0.059677713 0.7049884
0000e0 91 57 85 3e 6e 8a 2f 3e f2 9b c0 3e 86 d1 41 3e
       0.2604337 0.1714265 0.37618977 0.18927583
0000f0 52 01 b9 be 9a 0a 22 bf 34 7b 86 3f 58 4a 80 3e
       -0.3613382 -0.63297427 1.0506349 0.2505672
000100 0e 94 3d 3f 8e c5 8e be da 7b 8a be 3a c8 0e 3f
       0.7405404 -0.27885097 -0.27047616 0.5577427
000110 bf 88 5f 3f da e5 48 3f 25 48 c2 3e 90 db 0d 3c
       0.8731803 0.78475726 0.37945667 0.008658305
000120 8a e6 e6 be c4 8a 3a 3e fa 71 7c 3d 52 47 96 bf
       -0.45097762 0.18216997 0.061632134 -1.1740515
000130 27 b0 08 3f 98 bb 07 bd 07 6f 4f 3f 32 35 b0 be
       0.5339379 -0.033137888 0.8102879 -0.34415585
000140 96 ec d9 be 4e 73 9b 3e 68 11 0d bf c0 97 dd 3d
       -0.42563313 0.30361408 -0.55104685 0.1081996
000150 5f e0 9a be 15 08 d3 3e f4 aa b7 3f 7f 39 06 bf
       -0.30249307 0.41217104 1.4349046 -0.5243148
000160 66 2f d9 3e 66 bb d1 3e c3 53 0f 3d 96 1c a5 3e
       0.42418975 0.40963286 0.03499199 0.32248372
000170 4c 23 64 bf 08 67 61 3e f4 1a 8c 3f be 11 20 bf
       -0.8911636 0.2201196 1.0945725 -0.6252707

model/batch_normalization_2/batchnorm/mul f4 [96]
000000 99 98 2c 41 b6 d7 81 41 0f 59 18 41 41 d7 7f 41
       10.787255 16.230328 9.521743 15.990052
000010 8c 25 86 41 fb 47 85 41 da 9b 1b 41 73 25 59 41
       16.768333 16.660147 9.72555 13.571643
000020 17 6d 62 41 2e 25 2c 41 63 4b 34 41 b4 54 39 41
       14.151633 10.759077 11.268405 11.583179
000030 53 d7 75 41 45 77 4e 41 e9 f4 66 41 02 db 89 41
       15.365069 12.904119 14.4347925 17.231937
000040 80 1d 25 41 d7 d0 2a 41 f5 f6 2a 41 ec 67 1e 41
       10.319702 10.675986 10.685292 9.900372
000050 5c bf 3b 41 53 9f 66 41 81 f9 8c 41 a2 c3 58 41
       11.734219 14.4138975 17.621828 13.547762
000060 6b 18 16 41 37 2b fd 40 9f 4a 17 41 15 3d 8f 41
       9.380961 7.9115252 9.455718 17.904825
000070 44 f4 8b 41 99 9f 06 41 9f 6b 63 41 72 22 69 41
       17.49427 8.413964 14.213775 14.5709095
000080 d4 4f 3d 41 e5 7c 12 41 ae ac 1a 41 66 a7 28 41
       11.831989 9.155492 9.667158 10.540869
000090 d6 4f 72 41 3f b0 82 41 39 32 07 41 6e 0c 3c 41
       15.144491 16.336058 8.449761 11.753035
0000a0 3a 25 65 41 6b 3c 15 41 1d 29 34 41 ed d2 3c 41
       14.3215885 9.3272505 11.260037 11.801496
0000b0 49 ef 83 41 63 5c 54 41 83 ce 95 41 ef 06 80 41
       16.491838 13.272555 18.725836 16.003386
0000c0 ec e1 7c 41 e3 ae 01 41 6b 27 83 41 2d 8e 05 41
       15.805157 8.105197 16.394247 8.347211
0000d0 ea bc 46 41 db e7 46 41 db aa 2f 41 8d 02 ed 40
       12.421122 12.431605 10.979213 7.4065614
0000e0 65 2e 18 41 d4 c9 a0 40 da 19 61 41 94 61 f2 40
       9.511327 5.024637 14.068811 7.5744114
0000f0 a0 f8 4c 41 b0 f2 86 41 1a 07 59 41 6c 82 73 41
       12.810699 16.8685 13.564234 15.219341
000100 7a 04 46 41 8a 58 04 41 e7 4d 31 41 a8 1c 63 41
       12.376093 8.271616 11.081519 14.194496
000110 50 c0 0c 41 de 02 30 41 92 20 8c 41 7d 98 6c 41
       8.796951 11.0007 17.515903 14.787229
000120 a9 d8 87 41 9e 03 ff 40 84 83 bb 40 e9 e1 58 41
       16.980791 7.9691916 5.859804 13.555154
000130 08 60 05 41 b3 cb 41 41 f2 31 f9 40 b8 d4 e3 40
       8.335945 12.112231 7.787347 7.1197166
000140 22 a0 4d 41 85 02 2c 41 b4 c7 83 41 39 d8 01 41
       12.851595 10.750615 16.472511 8.115289
000150 0d e7 29 41 e1 56 82 41 a4 cd 47 41 f9 9f 47 41
       10.618909 16.292421 12.487705 12.476556
000160 7f 03 63 41 89 7d 94 41 ad fe 8b 41 ad e5 9a 41
       14.188354 18.561296 17.499353 19.362146
000170 74 f8 6b 41 00 cb 7e 41 8c ab 20 41 9d 01 84 41
       14.7481575 15.924561 10.041882 16.500788

model/dense/BiasAdd/ReadVariableOp f4 [48]
000000 04 03 cb 3d ed 3c 6e 3d e5 44 22 3d 52 aa 41 3e
       0.099126846 0.058163572 0.039616484 0.18912628
000010 18 a0 39 3d 6a b0 c9 3c 40 20 c1 3c 36 d7 95 3d
       0.045318693 0.024620254 0.023574948 0.07316439
000020 84 23 cc 3d b6 eb 1b 3d f7 d4 e4 3c 7b e0 91 3d
       0.099677116 0.03806659 0.02793358 0.071228944
000030 b6 99 f5 3c 9e 48 63 3d 84 fb ac ba b3 df 9b 3d
       0.029980522 0.055489175 -0.0013197516 0.076110266
000040 8c dc 05 3d 04 73 12 bc 91 4b a9 3c 58 4b 14 3c
       0.032681033 -0.008938555 0.020665916 0.0090511665
000050 5b b6 04 bc c4 65 81 3d db 19 db 3d f9 d6 93 3d
       -0.008100118 0.063182384 0.10698291 0.07218737
000060 1d e8 10 3e 53 f3 5b 3d 0d 0b 32 3d 80 f6 79 3d
       0.14151044 0.05369885 0.04346757 0.061026096
000070 db cf a7 3d 0e b1 75 3d c5 e2 59 3d d8 01 c3 3d
       0.08193942 0.059983306 0.05319478 0.09521836
000080 33 25 89 3d e2 30 cd 3c 96 3c a1 3d ac b4 72 3d
       0.06696548 0.025047723 0.07872884 0.059254333
000090 83 93 c6 3d d6 d7 a0 bc 93 0c a6 3d d3 82 8a 3d
       0.096961044 -0.019634169 0.08107867 0.06763234
0000a0 8e 02 f4 bb 81 27 4f 3d 39 e5 15 3d 00 ba de 3d
       -0.0074465936 0.050574783 0.036595557 0.108753204
0000b0 94 ff b4 3d 3c 08 d7 3d 72 f7 71 3d ff 89 25 3e
       0.0883781 0.104996175 0.059073873 0.16165923

model/dense_1/BiasAdd/ReadVariableOp f4 [26]
000000 d0 e6 9a bc 1d 86 5d 3d 5d 13 49 3e 32 df c5 bd
       -0.018908888 0.05408298 0.19636293 -0.09661712
000010 03 7b 96 3d dc e4 9a 3d 58 4b 0e 3e 5f 91 5b 3d
       0.073476814 0.07563183 0.13895929 0.053605434
000020 36 b4 74 3d 7a 86 4d be 1b d9 5d be ef 49 5e be
       0.059742175 -0.2007083 -0.2166485 -0.21707891
000030 7e 82 5f be 6f 8f 63 be d4 e2 5b be 84 d4 63 be
       -0.21827123 -0.22222684 -0.21473247 -0.22249037
000040 bf a4 5b be 17 08 64 be d3 ea 60 be 6e 12 64 be
       -0.21449564 -0.22268711 -0.21964578 -0.22272655
000050 6f 2d 5a be 2a 80 65 be 80 3a 63 be 7c 21 62 be
       -0.21306394 -0.22412172 -0.22190285 -0.22083086
000060 53 4d 50 be 4e e2 5d be
       -0.20341997 -0.2166836
