app/src/main/assets/models/20_to_100.tflite (tflite, 673196 bytes, 52 tensors)

model_4/batch_normalization_16/batchnorm/add_1;model_4/conv1d_8/Conv1D/Squeeze;model_4/batch_normalization_16/batchnorm/mul_1;model_4/conv1d_8/BiasAdd;model_4/conv1d_8/BiasAdd/ReadVariableOp;model_4/batch_normalization_16/batchnorm/mul;model_4/batch_normalization_16/batchnorm/sub;model_4/conv1d_8/Conv1D;model_4/conv1d_9/Conv1D f4 [96]
000000 42 31 31 bf 0f 8d 75 bf f8 cf 5d be 57 2c 09 bf
       -0.69215786 -0.95918363 -0.21661365 -0.5358328
000010 32 d5 04 c0 f9 f7 8e be 81 2e 4b 3e c9 7a 5b 3f
       -2.0755124 -0.27923563 0.19841959 0.8573423
000020 08 32 4a 3d 5c 88 53 3f 24 e0 30 be 5d 6a 90 be
       0.04936412 0.8262994 -0.17273003 -0.2820615
000030 52 b4 f7 be 1f ad 53 be c1 fa 26 3f 1f 79 40 bf
       -0.4837976 -0.20671509 0.6522637 -0.75184816
000040 01 92 9f be 36 14 60 bf 50 85 56 bf ba 5d e2 bf
       -0.3116608 -0.8753084 -0.8379717 -1.7684853
000050 fc 99 27 3e 8c 85 32 bf f7 ba 5d 3e bb 60 8f bd
       0.16367334 -0.69735026 0.21653353 -0.07000872
000060 4a d8 04 bf ed bc 12 bf eb 1b 38 bf 0a 92 73 3e
       -0.5189253 -0.5731953 -0.719176 0.23786178
000070 f0 aa aa be 18 b8 d2 3e 90 9d 3c 3c 7b 09 1a 3f
       -0.3333354 0.41156077 0.011512175 0.60170716
000080 af 58 ac be 5c eb b7 be 55 45 ba be 0a b1 b6 be
       -0.3366141 -0.35921752 -0.3638102 -0.35681945
000090 e0 c9 32 3e 73 5e a8 3d 7a 37 df be 4b 0a 2f bf
       0.17459822 0.0822114 -0.43597013 -0.6837508
0000a0 7a 58 b3 bf d7 1b 76 3d d8 54 68 bf 18 5c 54 bf
       -1.4011376 0.060085144 -0.9075446 -0.82953024
0000b0 f8 f1 56 bf f2 9e 04 bf 58 f6 4e bf f4 eb 79 bf
       -0.83962965 -0.5180503 -0.8084464 -0.9762566
0000c0 60 eb fe be 10 63 52 3f 9d ce ea be a3 53 1b be
       -0.49788952 0.8218241 -0.45860758 -0.15168624
0000d0 0a e2 1f bf ee 94 26 bf 98 03 ad be ba 25 27 3d
       -0.62454283 -0.65071 -0.33791804 0.040807463
0000e0 ea 02 e3 3f 6e 0a e6 3e b2 b9 c4 be 95 e5 0e 3e
       1.7735264 0.44929832 -0.38422924 0.13954766
0000f0 eb fe 37 bf 99 ea 56 bf 73 34 77 be 5c d2 2b 3e
       -0.7187335 -0.8395172 -0.24141102 0.16779464
000100 4e 4c a5 bf 76 54 88 bf 10 0f 84 bd d4 99 6a be
       -1.2913911 -1.0650775 -0.064481854 -0.22910243
000110 e1 d6 9b bf c3 49 79 be 18 7d cc 3e 97 79 0d be
       -1.2174951 -0.24344544 0.3993919 -0.13815914
000120 70 f7 75 3f a0 24 68 be 78 00 84 3f 56 69 1f bf
       0.96080685 -0.22670221 1.0312643 -0.62270105
000130 ee 02 28 be ba 1e 0e 3f d2 71 1d 3f 34 c3 1e 3f
       -0.16407368 0.55515635 0.615018 0.62016606
000140 f6 a8 b4 be fb 86 93 bf 1a 8c cb bd bd b6 d7 3f
       -0.35285157 -1.1525568 -0.099388316 1.6852642
000150 ed 6a f6 3e f8 23 22 be 88 49 4e be 72 60 a3 3e
       0.48128453 -0.15834033 -0.20145237 0.3190952
000160 99 e0 b8 3f 5f 0f 95 bf 3d 78 03 bf 26 e5 b4 be
       1.4443542 -1.1645316 -0.51355344 -0.35331076
000170 26 ef c0 3f b4 e0 ea be ec 32 8d be 6a cb 33 3f
       1.5072982 -0.4587456 -0.27577913 0.7023226

model_4/batch_normalization_17/batchnorm/add_1;model_4/conv1d_9/Conv1D/Squeeze;model_4/batch_normalization_17/batchnorm/mul_1;model_4/conv1d_9/BiasAdd;model_4/conv1d_9/BiasAdd/ReadVariableOp;model_4/batch_normalization_17/batchnorm/mul;model_4/batch_normalization_17/batchnorm/sub;model_4/conv1d_9/Conv1D f4 [96]
000000 60 17 3b 3f a4 07 8c bb 9d c1 f7 be 0c ef 39 bf
       0.7308254 -0.004273372 -0.48389903 -0.7263038
000010 9e 0f 4b 3d cd 4b 51 3f a8 05 7c 3e a3 c9 f8 3e
       0.04957544 0.8175629 0.24611533 0.48591337
000020 24 bb c4 3e 99 fa 2b bf 91 38 36 be a6 a2 1d 3f
       0.38424027 -0.67179257 -0.17795016 0.61576307
000030 3c f7 38 3f 44 9e 09 3d 15 1d 6b 3f 6a 0e 0d bf
       0.7225225 0.0335982 0.9184125 -0.5510012
000040 2f 4b 0e 3f ab 7a 20 3f 2f ac 40 3f c3 3c 91 3e
       0.5558347 0.62687176 0.7526273 0.2836667
000050 f1 d7 45 3f fe c5 59 3e 71 63 3a 3e 8c 76 ab 3d
       0.77282625 0.21266934 0.18201996 0.083722204
000060 15 61 36 3e 58 c6 11 bf 2f 13 95 bd e3 cf ca 3d
       0.17810471 -0.56943274 -0.072790496 0.099029325
000070 31 8b d0 be b4 a1 1d 3f 3c 4c 2e 3f fb cd 57 be
       -0.40731195 0.61574864 0.68085074 -0.21074669
000080 dd 10 22 bf 69 4a e6 be 09 9a 44 3e 80 67 86 3c
       -0.6330698 -0.44978645 0.19199385 0.016406775
000090 a7 dd 5f 3f 00 dd 70 3e fe 0b de be 26 85 dc 3e
       0.8744759 0.23521805 -0.43368524 0.43070334
0000a0 5e 3e 9d 3f 7e fd 37 3f a0 27 15 bf 7e bd 6e 3d
       1.2284658 0.71871173 -0.5826359 0.058286183
0000b0 51 e5 67 be 03 93 75 bd 91 92 64 3e 48 f9 15 be
       -0.22646071 -0.059954654 0.22321536 -0.14645875
0000c0 2b 45 4b 3e 8c f0 10 be 92 2f 13 be d0 c4 49 3e
       0.19850604 -0.14154261 -0.14373615 0.19703984
0000d0 f7 fc c2 3e 2e 6a 2e be 43 b4 01 3e 6f 8c d7 3e
       0.38083622 -0.17032692 0.1266642 0.4209933
0000e0 b9 7d 1b 3f e3 52 09 3f f8 5a 4a 3f 08 fd c7 bd
       0.6073871 0.536421 0.7904506 -0.09765059
0000f0 53 7d e3 bd 1b e4 e8 3e 6e 81 92 3e 2a d8 8f 3f
       -0.11107888 0.4548653 0.28614372 1.1237843
000100 85 35 9e 3e 49 11 9b be 17 52 f4 3e b3 e3 40 bf
       0.30900207 -0.30286625 0.4771888 -0.7534744
000110 56 c7 a3 3e 24 ff 87 3e 3a 71 81 3e 65 ff bd 3e
       0.3198802 0.26561844 0.25281698 0.37108913
000120 09 fb 3c be 81 26 fd 3e 43 24 83 3e a7 33 86 be
       -0.18455137 0.4944344 0.25613603 -0.26211283
000130 d8 d3 63 3e b3 37 3c 3f 8c 3d ef 3b 57 8a 35 3f
       0.2224878 0.7352249 0.007301038 0.70914215
000140 40 d1 e1 3e 94 91 1a 3f a8 c3 ee b9 80 18 0d 3e
       0.44104958 0.60378385 -0.00045540673 0.13778877
000150 3b 3c d4 3e e7 09 47 3e b6 ab 89 be fb 36 c9 3e
       0.41452202 0.19437371 -0.26888818 0.3929976
000160 02 55 9f 3e d7 78 25 3f 56 6e b9 3f 4d 3e 24 3f
       0.31119543 0.6463751 1.4486797 0.64157563
000170 ad 49 13 3f 5b 1d 5c 3f 9d fe 09 bf 7d f6 62 bf
       0.57534295 0.8598229 -0.53904134 -0.8865736

model_4/batch_normalization_16/batchnorm/mul_1;model_4/conv1d_8/Conv1D/Squeeze;model_4/conv1d_8/BiasAdd;model_4/conv1d_8/BiasAdd/ReadVariableOp;model_4/batch_normalization_16/batchnorm/mul;model_4/conv1d_8/Conv1D;model_4/conv1d_9/Conv1D f4 [96, 1, 3, 126]
000000 e2 ba 16 bc 36 34 a6 bb 45 b3 c7 b9 7d 8e ed 3c
       -0.00919983 -0.005072142 -0.00038089804 0.028998608
000010 d4 06 b9 bb af a3 01 3d 1a 4c 88 3e 41 e7 c4 bd
       -0.005646566 0.03165024 0.2662056 -0.09614421
000020 dc ef 7a 3d 83 99 59 3e 8f 5a da bd 91 eb 9d 3d
       0.061263904 0.21249966 -0.10661804 0.07710946
000030 ed 68 0a 3e 88 7f c2 3e f3 5c cb 3d 29 a1 22 3e
       0.13516589 0.37987924 0.09929838 0.1588179
000040 2f f7 1f 3e 15 c3 f2 bc bb 84 88 3d 73 cd ae 3e
       0.15621637 -0.029634038 0.06665941 0.3414112
000050 27 77 a6 3c e2 02 65 be 8e b2 e7 3c cc ea 96 3d
       0.020320488 -0.22364381 0.028283384 0.07369003
000060 4b 39 27 bf 2a cf 68 be 06 d6 44 3d 20 ae 27 3d
       -0.653218 -0.22735277 0.04805567 0.040937543
000070 43 aa 64 bd cb f7 d2 bd 68 12 d9 3d 17 36 13 be
       -0.055826437 -0.10301169 0.10599214 -0.14376102
000080 b5 ea 5d be 2b 6d 6a 3e ef 84 de bd 8c 16 63 be
       -0.21671565 0.22893207 -0.10865199 -0.2217657
000090 be b7 be 3e 7d 0a 86 3e f9 fe 4a be 82 27 81 3d
       0.3724956 0.26179877 -0.19823827 0.06306364
0000a0 c9 3d 3b 3d 2a 08 33 bd e8 91 2f 3e 4a 6e 79 bd
       0.04571322 -0.043708958 0.17145503 -0.060896195
0000b0 ba b5 b1 bc a2 e9 a7 be e6 24 63 bd 6a ed 03 3d
       -0.0216931 -0.32795435 -0.05545511 0.032208838
0000c0 02 01 97 3e d6 62 37 be ef 89 ae 3d 50 5c bf bd
       0.29492956 -0.17908797 0.085224025 -0.09343779
0000d0 3a 19 17 bd c9 de 85 bd 33 1f 34 bc 3f 06 9a 3d
       -0.036889292 -0.065366335 -0.010993767 0.075207226
0000e0 0d 92 d7 3b 07 b7 c7 be 55 b2 06 3e e7 9a 82 bd
       0.00657869 -0.39006826 0.13153966 -0.063772015
0000f0 2b 75 11 bf ef e3 94 3e de 7a 05 be 7b 3c ec 39
       -0.5681941 0.2908015 -0.13035151 0.0004505849
000100 a4 d7 6b bb 09 d9 1a 3a 2d 12 16 3b 46 33 34 3c
       -0.0035986686 0.00059069745 0.0022899017 0.010998553
000110 52 d5 51 bb 4a 5d 1b bc 75 68 0d 3c 8d e3 8a 3c
       -0.0032018018 -0.009482691 0.0086308615 0.016954208
000120 a4 b4 af bb f6 48 16 bb c1 f8 b5 3c 02 8f 2a bc
       -0.00536211 -0.0022931672 0.022213342 -0.010410072
000130 c7 3d b3 bb 7d 9a ac 3c ee 34 00 3c 60 45 49 bc
       -0.005470011 0.02106976 0.007825119 -0.012284607
000140 fb a3 69 3c 8e 8e 13 3b 5c 93 f0 bb 2d ff a8 3c
       0.014260287 0.002251539 -0.0073417854 0.02062949
000150 b1 6e 9e bb bd 74 45 bc ec e6 9b 3c 5e 76 f0 bb
       -0.004834973 -0.012051758 0.01903101 -0.007338329
000160 37 96 b6 b9 43 96 59 3c e4 1e cf 3a 61 55 9a b9
       -0.00034825664 0.013280454 0.0015802053 -0.0002943678
000170 1d 68 b1 3c 11 86 6a bc ca 3a 52 3c b5 03 8c 3c
       0.02165609 -0.0143141905 0.012831399 0.017091611
000180 d8 49 18 bd f3 b9 b4 3c 8d 83 ca 3c b8 39 eb bc
       -0.037179798 0.022061324 0.024720931 -0.028714046
000190 e7 7b e9 3c b0 91 cb 3c ae be d5 3b 09 15 2b 3b
       0.028501464 0.024849743 0.006522975 0.0026105067
0001a0 56 eb d5 3c f5 de 71 bb 62 e6 da 3b 47 37 d3 3c
       0.026113193 -0.0036906574 0.006680296 0.025783194
0001b0 08 13 2a bc 57 58 90 3b 59 26 d0 3c d6 68 6c bb
       -0.010380514 0.004405062 0.02540891 -0.003607323
0001c0 f6 34 d6 3b 92 02 e6 3c ed b8 ce b9 e3 da 20 bc
       0.006537075 0.028077397 -0.00039429162 -0.009817812
0001d0 e7 44 78 3c b7 cb e8 3a 2a 8b a2 bc 7b e7 a6 3c
       0.015153146 0.0017760907 -0.01984175 0.02037405
0001e0 62 52 b1 b9 df 22 c4 bc 4b 9e a6 3c f5 b4 f4 bb
       -0.0003382145 -0.02394241 0.020339152 -0.007467861
0001f0 d1 7f 8c bc 06 bc 37 3c 24 1f 1f bc ca b7 cb bb
       -0.017150791 0.011214262 -0.009712014 -0.0062169777
000200 e3 28 6e bb c2 5c f5 3c af 9e 9f 39 d1 f0 13 3d
       -0.0036340288 0.029951457 0.00030445072 0.036118332
000210 7c 6e 94 3e 36 2f ae bd e6 b0 82 3d 65 a1 30 3e
       0.28990543 -0.085050985 0.06381397 0.17249067
000220 8c 31 7c be 68 0a a0 3d 00 ae d9 3c 89 e1 13 3f
       -0.24628276 0.07814485 0.026572227 0.57766014
000230 fa 11 c0 3d 68 f6 6e 3e 18 de ee 3d fd d5 17 bd
       0.09378429 0.23336184 0.11663455 -0.03706931
000240 52 30 84 3d 7c b4 98 3e 12 f8 22 3c 3e e5 ef bd
       0.06454529 0.298252 0.00994684 -0.11713646
000250 4f d1 ea 3c be 59 90 3d ab ce d3 bd b4 7d ff be
       0.02866426 0.07048367 -0.10342153 -0.4990059
000260 d8 a4 3c 3d 2f 5d 12 3e b6 ab a6 bd bc e4 e4 bd
       0.046055645 0.14293359 -0.0813822 -0.1117644
000270 ca f7 2d be 59 70 85 bd e0 fc 67 be d8 ff 83 bd
       -0.16989055 -0.06515569 -0.22655058 -0.06445283
000280 2d b3 22 3e 5f d7 69 be b7 3a 25 3f 4c 66 0b 3e
       0.15888663 -0.22836064 0.64542717 0.13613242
000290 8b 43 5d be 35 6c f2 3d 5c 49 80 3d 6f 85 66 bd
       -0.21607797 0.11837045 0.06263992 -0.056279596
0002a0 33 56 22 3e c5 28 c7 bd 0b bc 12 bd 3c 4e ab be
       0.15853195 -0.09724573 -0.035823863 -0.33458126
0002b0 0e ea 8a bb ea 22 c4 3c 77 6d 3d 3e 5b 70 57 be
       -0.0042393273 0.02394243 0.18498789 -0.21038954
0002c0 51 35 7b 3d 49 81 32 bd 6a 57 29 bd 6d 88 a0 bd
       0.061330143 -0.043580327 -0.04134313 -0.07838521
0002d0 de 90 81 be f8 e6 8e bd c8 22 df bb 3a 89 0a bf
       -0.25305837 -0.069776475 -0.006809566 -0.5411564
0002e0 27 3f d9 bc ec 5a b5 bd 28 18 32 bf 31 6f 9e 3d
       -0.026519371 -0.088552326 -0.6956811 0.07736052
0002f0 fc bf 21 be 2e f5 85 3a 19 a0 00 3b 1a e3 fc ba
       -0.15795892 0.0010220164 0.0019626676 -0.0019293756
000300 4b b2 bb 3b db f5 41 3c a0 0a 88 ba 59 38 81 3b
       0.0057280413 0.011838402 -0.0010379143 0.0039434847
000310 11 e2 83 3c a4 7e 9b 3c 88 1b 38 3c da af ab 3b
       0.016099008 0.018981285 0.011237033 0.005239469
000320 28 d6 bf 3c e4 94 aa 3b a8 44 e4 ba f2 62 ba 3c
       0.023417547 0.0052057374 -0.0017415481 0.022752259
000330 65 96 aa 3c 12 e6 49 bc 41 d3 82 3c 8a 18 96 3c
       0.020823667 -0.012322919 0.015969874 0.018322248
000340 91 56 c5 bb ab b6 bc 3c 2a 50 e3 3b 44 72 57 bc
       -0.0060222824 0.023036322 0.0069370465 -0.013149802
000350 64 dc bb 3c a3 c5 1c 3c 81 1d 94 bb 77 21 8d 3c
       0.022932239 0.009568605 -0.0045201187 0.017227871
000360 40 31 4d 3c 38 dd 9b ba f0 52 b6 3c 66 2c 70 3b
       0.012523949 -0.001189149 0.022256345 0.0036647557
000370 16 64 bc 3b c2 52 a0 3c a9 14 87 bc 28 87 52 3c
       0.005749236 0.019570712 -0.016489344 0.012849607
000380 24 fb fb 3c 30 92 02 bc 98 c2 88 3c 29 0c e3 3c
       0.030759402 -0.007969424 0.016694352 0.02771576
000390 af b0 3a 3c 65 aa 0b bb 60 30 e7 3c f2 06 8a 3b
       0.011394664 -0.002131128 0.02822131 0.0042122537
0003a0 d1 1d ce 38 e6 40 d2 3c 83 83 69 3b 82 41 cb bb
       9.828399e-05 0.025665712 0.0035631366 -0.0062028775
0003b0 a2 16 d0 3c d4 71 20 3c 37 46 41 bb c0 f9 f0 3c
       0.025401417 0.009792764 -0.0029491314 0.029415965
0003c0 44 3d b9 3a 39 cc 90 bc e5 f7 81 3c 71 a0 f7 3a
       0.0014132638 -0.017675506 0.015865276 0.001889242
0003d0 8e a3 d3 bc 6a ee ad 3c df 3c d6 3b 07 4d 07 bd
       -0.025834825 0.021231849 0.006538018 -0.033032443
0003e0 05 c0 b9 3c a4 ce ec ba 0c 1f da bc 7c 73 31 3c
       0.02267457 -0.0018066955 -0.026626132 0.010830756
0003f0 52 98 71 bb c1 b8 3e bb db ce d2 ba 54 d4 d4 3c
       -0.0036864472 -0.002910182 -0.0016083376 0.025980152

model_4/batch_normalization_17/batchnorm/mul_1;model_4/conv1d_9/Conv1D/Squeeze;model_4/conv1d_9/BiasAdd;model_4/conv1d_9/BiasAdd/ReadVariableOp;model_4/batch_normalization_17/batchnorm/mul;model_4/conv1d_9/Conv1D f4 [96, 1, 3, 96]
000000 e0 37 1b bd 2f 23 03 3d 33 56 85 3d ef 71 38 bd
       -0.037895083 0.032015976 0.06510582 -0.04503053
000010 34 67 37 bd 55 d8 25 3d 62 05 82 bd 2b 89 03 bd
       -0.044776157 0.040489513 -0.06348683 -0.032113235
000020 0e b0 dd bc 5c 29 88 bc a0 a2 bb 3c 87 8a cf 3d
       -0.027061488 -0.016621284 0.022904694 0.10133844
000030 37 e8 b8 3b 6d 06 9e 3d f8 a9 cd bc 07 a1 3a 3c
       0.0056429165 0.07716069 -0.025105461 0.011390931
000040 ec 08 b0 3d d3 a0 58 bd 95 b8 65 bd b0 0e 55 bd
       0.08595452 -0.05288775 -0.056084234 -0.05201596
000050 34 1f 36 bc 2d 69 55 bd 40 d8 95 bd d9 f3 d0 3c
       -0.011115838 -0.052102257 -0.07316637 0.0255069
000060 20 8f 62 bd b6 31 06 3c b1 7c f0 bc ca 96 79 bd
       -0.055312276 0.008190563 -0.029356332 -0.06093482
000070 67 e3 54 3d da 66 bb 3d 83 77 42 3b 13 7f 8f bc
       0.05197468 0.09150477 0.0029673285 -0.017516648
000080 ca 75 d8 3c 53 11 17 3c d0 d0 45 bd 72 59 b3 bb
       0.026423354 0.009220439 -0.048294842 -0.005473309
000090 40 63 87 3b b0 0e b9 bc ec d9 36 3c 34 75 00 3d
       0.0041317046 -0.022590011 0.011160355 0.031361774
0000a0 95 8e 20 bd 8e e0 06 3d c1 59 00 3d ee 2d ff bb
       -0.039198477 0.032928996 0.031335596 -0.0077874577
0000b0 4c 02 77 3d 49 00 5b bc 6f 3c 1f 3c 11 7b 77 bc
       0.060304925 -0.013366767 0.009718998 -0.015105025
0000c0 4c 63 a2 3a d2 a0 be 3b 9c 0c 27 3c 53 7e e4 3c
       0.0012389212 0.005817511 0.010195877 0.027892267
0000d0 bd c5 01 bd 9e 37 20 bc 7d e9 29 3a ad a4 9d bc
       -0.03168272 -0.009778885 0.0006481631 -0.019243563
0000e0 b7 17 85 3c cf 38 6d bc 4b 67 d5 bd d3 17 07 bc
       0.01624666 -0.014478876 -0.10420092 -0.008245426
0000f0 b3 32 72 bd c2 9c 76 bd 3f 8e f3 bc 24 b3 b2 3c
       -0.05913038 -0.06020809 -0.029730914 0.021813937
000100 e0 00 d9 3c a0 fd 45 bd 62 62 6b bd f0 ca 1f 3e
       0.026489675 -0.04833758 -0.057466872 0.15604758
000110 77 88 79 bd 1b f3 34 3c 0b c9 a9 bd 2e 23 29 bd
       -0.06092116 0.011044289 -0.08290299 -0.041293316
000120 07 02 ef bc 03 ec 1a bd 13 02 01 bd 46 c5 8b bd
       -0.029175771 -0.037822735 -0.03149612 -0.06824736
000130 43 7c 1c bc af 76 49 3c 92 ec 54 3d 60 0b 95 bd
       -0.009551111 0.012296363 0.051983424 -0.0727756
000140 49 85 62 bd 2b ce 41 bb 46 15 d6 bc 49 5d 52 bd
       -0.055302892 -0.0029572349 -0.02613319 -0.051358495
000150 0d 83 dd bc 6c 59 20 3c d8 eb 11 3a 63 ef 81 bc
       -0.027040029 0.009786945 0.00055664545 -0.015861219
000160 ce b4 46 bc 67 69 2b bd 5f 7c 68 3c 38 6f e2 bc
       -0.012128068 -0.041848566 0.014189809 -0.027640924
000170 d4 44 c5 3c b3 01 89 3a 81 fc 04 bd fe d2 dd bd
       0.024080671 0.0010452777 -0.03246737 -0.10831259
000180 80 1d 26 bd 11 0e b0 3c 69 04 a2 3d b2 3c 21 bd
       -0.040555477 0.021491082 0.079109974 -0.039364524
000190 9f ce 5d bd f8 bc 24 3d 3d 01 84 bd bd e1 0d bd
       -0.054152127 0.040219277 -0.06445549 -0.03463911
0001a0 7a d4 c0 bc 9b ad c4 bc 97 c0 1d 3d c7 a0 c9 3d
       -0.023538817 -0.024008563 0.038513746 0.09845119
0001b0 b0 d2 b9 3a 76 f0 92 3d 19 08 b5 bc b3 14 a9 3a
       0.001417717 0.071747705 -0.022098588 0.0012899846
0001c0 f8 f9 a5 3d 22 85 3f bd 1e 81 73 bd 3a f6 3a bd
       0.081043184 -0.046757825 -0.059449308 -0.045644976
0001d0 aa 31 00 bc ca ad 4a bd dd 74 97 bd 3a 27 0b 3d
       -0.007824341 -0.049482144 -0.07395337 0.033972956
0001e0 19 a8 3e bd c0 b1 92 3c 22 07 ae bc 1f ff 7b bd
       -0.04654703 0.017907023 -0.021243636 -0.0615226
0001f0 ce 00 6b 3d e3 09 9c 3d 0b 61 d7 bb 47 7a 78 bb
       0.057373814 0.07619073 -0.0065728477 -0.003791468
000200 87 97 1c 3c b4 62 25 3c 30 b5 36 bd 5c 31 05 3a
       0.009557611 0.010094333 -0.044606388 0.00050809025
000210 f5 78 2b 3b e3 30 8d bc c9 25 b7 3c 6e 76 08 3d
       0.0026164625 -0.017235225 0.022356885 0.03331607
000220 2b cc 1f bd 50 25 6b 3c 6b a3 38 3d 9d 7d 64 3a
       -0.03901307 0.014352158 0.045077723 0.00087162276
000230 1c 9e 8c 3d 2c 17 1e bc 5f 9e c6 3c 18 e2 45 ba
       0.068660945 -0.009649079 0.02424544 -0.0007548644
000240 0c 5f 8d 3b 0e e7 58 3c c4 e9 99 3c 96 24 cd 3c
       0.004314309 0.0132386815 0.018788226 0.02504186
000250 41 6a 06 bd 07 c5 75 bc e7 8b 05 bb b3 67 b9 bc
       -0.032816175 -0.015000588 -0.0020377578 -0.022632455
000260 a4 f9 7b 3b a5 b0 9e bc 29 f7 cd bd 82 ba 3d bc
       0.0038448358 -0.01937134 -0.10056908 -0.011580111
000270 63 41 83 bd 94 ec 87 bd 9a 2f e6 bc 0b cc 4c 3c
       -0.06408956 -0.066369206 -0.02809887 0.0124998195
000280 8f bd 00 3d 71 76 3a bd f6 c4 63 bd a6 e9 27 3e
       0.031430777 -0.04552311 -0.05560776 0.16397724
000290 90 fc 6d bd 5f cc 2d 3c 52 39 a3 bd 06 6d 07 bd
       -0.05810219 0.010607808 -0.07969917 -0.033062957
0002a0 78 bd f6 bc 55 22 24 bd fc 1b 06 bd 97 92 88 bd
       -0.030119643 -0.040071804 -0.03274153 -0.06668585
0002b0 4d 63 55 bc 13 7c 83 3c a9 d6 e0 3c ac b1 93 bd
       -0.013024163 0.016050374 0.027446108 -0.072116226
0002c0 9b d5 42 bd 7d ed e2 3a b5 81 b7 bc 89 da 1b bd
       -0.04756699 0.0017313209 -0.022400716 -0.03805021
0002d0 32 b4 eb bc 3b 9b 84 3c 47 b2 28 3c 08 e8 d0 bc
       -0.028772447 0.0161873 0.010296411 -0.025501266
0002e0 da 2b d7 bc 99 e5 29 bd 7f 3e d6 3c 8a a3 f9 bc
       -0.026266027 -0.041478727 0.026152847 -0.03047349
0002f0 96 0f 1f 3c 02 37 40 bb 22 27 d7 bc 67 78 d3 bd
       0.009708306 -0.0029329662 -0.026263777 -0.10325699
000300 1b d4 f1 bc e5 8a 79 3c 34 80 bd 3d 5a 7c 2e bd
       -0.029520085 0.015230869 0.092529684 -0.04259906
000310 72 e0 37 bd f4 d9 24 3d 09 33 50 bd 48 24 a9 bc
       -0.044891782 0.04024692 -0.05082992 -0.020647183
000320 d9 32 ce bc 65 1c d4 bc a2 bf 29 3d 68 72 ec 3d
       -0.02517073 -0.025892446 0.04144252 0.11545259
000330 c1 ae 84 3b 4a 47 9b 3d 8f d8 a5 bc 39 9c c7 3c
       0.0040491526 0.07581957 -0.020244865 0.024366485
000340 f2 b7 b7 3d 4e 08 4b bd 42 f7 7e bd 45 6b 55 bd
       0.08970632 -0.049568467 -0.062247522 -0.052104253
000350 8a 76 4d bc 65 e1 50 bd 91 bb 08 bd 6b ab c0 3c
       -0.012540469 -0.050996203 -0.033382002 0.023519238
000360 d1 9c 06 bd d4 72 28 3d 4a b9 a0 bc 18 ef 39 bd
       -0.032864396 0.041125134 -0.019619603 -0.045394033
000370 2d f7 81 3d c0 a1 b1 3d b7 89 9d 3c 9e 80 4d 3c
       0.06345973 0.086734295 0.019230707 0.012542872
000380 10 df d1 3b de b0 c8 3b 55 54 38 bd 96 e5 e7 ba
       0.006404765 0.0061246 -0.0450023 -0.0017692323
000390 09 47 b6 3b 36 e2 72 bc 8f 62 05 3d 7e e8 ea 3c
       0.0055626673 -0.014824441 0.032564696 0.028675314
0003a0 43 5a 1e bd 39 2e 1b 3d 01 ab 2c 3d 87 6f 35 bb
       -0.0386603 0.03788588 0.04215527 -0.0027684884
0003b0 d7 8e 72 3d 15 87 e6 bb 37 52 cb 3c a6 3e e0 bb
       0.059218254 -0.007035146 0.024819477 -0.006843406
0003c0 3f 0b 5c 3b cf 6e d4 3c db 5a 35 3b 51 69 13 3d
       0.003357604 0.025931744 0.0027672562 0.03598911
0003d0 af 05 a3 ba c8 e7 56 bc f2 dc da 3b de 7b 03 bd
       -0.0012437607 -0.013116784 0.0066791708 -0.03210055
0003e0 4b 67 c7 3c fe 0b 5d bc 73 17 d6 bd 93 36 5c 3b
       0.024341246 -0.013491629 -0.10453691 0.0033601865
0003f0 89 51 81 bd 35 dd 83 bd cf dd fc bc 12 52 58 3b
       -0.0631438 -0.06438676 -0.030867485 0.0033007902

model_4/gru_9/gru_cell/strided_slice_4 f4 [48]
000000 6b f1 c2 3d 44 17 36 3e 7d 98 d7 3d c9 38 0c 3e
       0.09518703 0.17782313 0.10527132 0.13693537
000010 7d 94 a4 3c fb 72 85 bc cc b5 8a bd 61 0d 6f 3d
       0.020090336 -0.016290179 -0.06772956 0.05836237
000020 4a 90 13 3c 10 6c 56 bc b7 66 10 3d c8 50 a6 3d
       0.009006569 -0.013087288 0.035254207 0.081208766
000030 a5 07 1e 3d 09 c5 36 bc cd ca 8c bb fb 4d 8c bb
       0.03858151 -0.011155375 -0.0042966367 -0.004281757
000040 46 39 d6 3c 0d bf 32 3d dc 0f cd 3d 6f de b3 bc
       0.026150357 0.04363923 0.100127906 -0.02195665
000050 8c 6a f2 3d 81 91 bb 3d f2 53 90 3c a5 51 52 bc
       0.118367285 0.09158612 0.017618153 -0.012836848
000060 79 ef 4b bd 1f 58 d2 3d ba 0c 0b 3d 5f d5 93 bc
       -0.049788926 0.10270714 0.033947684 -0.01804608
000070 7a 23 0c 3d 8d a8 01 bd c4 46 aa 3c 59 79 1c bc
       0.03421352 -0.031654883 0.020785697 -0.009550416
000080 bd b5 61 3d ff e5 49 3d 3a 66 11 bd 9c b1 13 3d
       0.05510496 0.049291607 -0.03549788 0.036058053
000090 17 ae 2d 3d 4f f2 27 bd 65 d2 bb 3c 69 66 fa bc
       0.042402353 -0.041002568 0.022927472 -0.030566411
0000a0 ed 77 ea 3d 5f 55 52 3d 5d f5 5d 3d a4 4f a1 3d
       0.11448655 0.051350947 0.054189075 0.07876518
0000b0 7c ef 76 bd e2 45 99 3d 21 93 3f 3b 07 36 8b 3d
       -0.060286984 0.07484032 0.0029231983 0.06797414

model_4/gru_9/gru_cell/strided_slice_3 f4 [48]
000000 cb f2 1b bd 02 e3 76 3d 25 0f 58 bc 04 28 61 3d
       -0.038073342 0.060275085 -0.0131872045 0.054969802
000010 c6 54 75 3d 88 7a 9d bc 76 b2 68 bc 39 70 b5 3d
       0.0598953 -0.019223467 -0.014202705 0.088592954
000020 c9 0c b0 bc 9f 0d 71 bd 04 a6 9f 3d cf ef 3a 3c
       -0.021490471 -0.05885088 0.07795337 0.011409714
000030 38 97 98 3d 5c 3d 72 3d 3c 8d 95 bd c7 a2 48 3c
       0.07450718 0.059140548 -0.07302329 0.01224584
000040 bb 68 d8 3d 99 2c 5a 3d 61 bb 00 bb 72 d9 32 bd
       0.10566851 0.053265188 -0.0019642937 -0.043664403
000050 78 0c 08 3e 58 db d6 3c 4b df eb 3c a2 75 c4 3c
       0.13286006 0.026227638 0.028792998 0.023981873
000060 c7 52 ae 3d eb a2 c4 3d 25 c6 d5 3c da 8d 84 3d
       0.08511882 0.09601387 0.02609546 0.064723685
000070 c6 55 68 3b 6e f4 2e bd 50 ff 36 3c c1 de c0 3d
       0.0035451516 -0.042713575 0.01116927 0.09417487
000080 e4 0a 83 bd 06 6a 0c 3d 50 1b 48 bd 19 c0 97 bb
       -0.063985616 0.0342808 -0.048854172 -0.004631054
000090 e7 15 89 3d 17 8e dc 3c de bf b8 bd 11 9c 0c 3d
       0.06693631 0.026923222 -0.09020971 0.034328524
0000a0 93 d5 b8 3d 44 d4 a7 3d e8 4e de bc a7 c5 ba 3d
       0.09025111 0.08194783 -0.027137235 0.091197304
0000b0 62 bd af bc 66 49 0d bc d8 29 94 3d e4 ff e9 3c
       -0.02145261 -0.008623457 0.072345436 0.028564401

model_4/gru_9/gru_cell/strided_slice_5 f4 [48]
000000 23 36 82 bd c6 8d 17 b8 03 19 10 be 6c 0d 0e 3e
       -0.06357982 -3.6133242e-05 -0.14072041 0.13872308
000010 63 cd 55 3d 12 35 4a 3e fb 99 74 3d 1f 97 26 3d
       0.052197825 0.19746807 0.05971716 0.040671464
000020 d0 bf 8a 3c b8 f6 b3 3c 01 4c 14 be 81 95 26 be
       0.016937166 0.02196823 -0.14482118 -0.16267969
000030 58 5a 45 bc 99 61 b5 bb ee 66 97 3d ef 32 95 bd
       -0.012045465 -0.005535316 0.07392679 -0.072851054
000040 b2 06 81 3d 87 77 a9 bc de 1d 0f 3d 4b bd 89 3d
       0.06300105 -0.020686878 0.034940593 0.06725558
000050 20 ba 76 3c ac 63 9b 3d 6f a8 3d 3d 6a cc a8 3d
       0.015059024 0.0758737 0.04630321 0.08242114
000060 8b 30 92 3c 3e 3c 0c 3d d2 96 f1 3c 54 97 54 bd
       0.017845413 0.03423714 0.029490862 -0.05190213
000070 7b d4 90 bc 98 b3 fd 3d 38 b8 92 bc 10 26 53 bd
       -0.017679444 0.123877704 -0.017910108 -0.05154997
000080 41 b7 48 3d 4f 45 1a 3d c5 dd 96 bc fc cf a4 bc
       0.04900289 0.037663754 -0.018416295 -0.020118706
000090 ed b4 38 3d ee fc fb bc a4 1e 91 bc 04 51 b1 bc
       0.04509442 -0.030760255 -0.017714806 -0.021645077
0000a0 c7 0f b9 3d b1 fa a2 bd 7b 5f a6 3d c6 05 d1 bd
       0.090362124 -0.07957972 0.0812368 -0.10206179
0000b0 6a 44 f0 3c 6f d2 0f 3e 5d 43 62 3d 88 cc ad 3a
       0.029329497 0.14045118 0.055240024 0.0013259808

model_4/gru_9/gru_cell/strided_slice_11 f4 [48]
000000 f5 fa 2f bd 86 7f 1e bb ea 92 e3 bd 7e 32 c9 3d
       -0.04296394 -0.0024184897 -0.11112006 0.09824084
000010 ad 7e cf 3c ba 35 c4 3d 9a b7 33 3d 41 02 2b 3d
       0.025328958 0.0958056 0.043876268 0.041750196
000020 c9 de 44 3c 13 74 48 3d a4 ca d9 bd e5 1d 1d be
       0.012016007 0.048938822 -0.10634354 -0.15343435
000030 92 d0 b4 bc 94 05 25 3c f2 ca 6c 3d c9 d9 1a bd
       -0.02207211 0.010072131 0.05781073 -0.037805352
000040 16 61 6b 3d 97 f7 c7 bc bd 2c 8b 3d fe 37 b4 3d
       0.057465635 -0.024410052 0.067956425 0.08799742
000050 ba 01 1e bc c2 d0 7e 3d ba b4 49 3d df 66 84 3d
       -0.009643966 0.062210806 0.04924462 0.064649336
000060 9f 90 8c 3d 24 77 8b 3c 7b 8a 99 3c 9c 96 65 bd
       0.06863522 0.017024584 0.01874279 -0.056051835
000070 0f c6 cc bc 61 2d a9 3d 89 20 15 bd 23 7f 8f bc
       -0.024996785 0.082606085 -0.03640798 -0.017516678
000080 9a 06 2a 3d 0f 87 b0 3c db fe 36 3b 1f 70 b0 3b
       0.041510202 0.021548776 0.0027922902 0.0053844596
000090 d4 ce d8 bc 21 98 9f bc 8c dd 34 3d d5 52 9f bc
       -0.02646581 -0.01948172 0.044156596 -0.019448677
0000a0 eb 04 be 3d d5 37 53 bd cc 58 24 3d 38 b7 9c bd
       0.09278282 -0.051566917 0.040123746 -0.07652134
0000b0 c9 b3 e4 3c 88 f1 55 3d 0e f0 92 3d 30 e8 dd bb
       0.02791776 0.052232295 0.07174693 -0.0067720637

model_4/gru_8/gru_cell/strided_slice_4 f4 [96]
000000 45 33 4a bd a6 45 3e bd f3 14 65 3c 64 0c 81 3c
       -0.0493653 -0.04645314 0.013982045 0.015752979
000010 08 56 e5 bc ff 1c db 3a a6 3d a9 3c c7 97 08 3c
       -0.027995124 0.0016717016 0.02065928 0.008336968
000020 3e 81 73 bd cf e8 40 bb 2c 89 02 3c ca ca 78 bc
       -0.059449427 -0.002943564 0.007967275 -0.015185067
000030 78 be 81 3d 01 f8 69 bd da cc 29 3c c8 d2 fc ba
       0.06335157 -0.05712128 0.010363782 -0.0019288892
000040 3e 1f 1e bd b4 83 3c bd 5c f5 8a 3c 64 57 e4 3c
       -0.038604014 -0.04602404 0.0169627 0.027873702
000050 81 ba 5f 3d d3 4d 63 bc 16 af cf bc ea 93 ec bc
       0.054621223 -0.013873535 -0.025352042 -0.028879125
000060 1a b4 46 bd a9 f8 24 bd c7 8d bc 3c 61 d5 4d 3c
       -0.048511602 -0.040276203 0.023016823 0.0125630805
000070 97 87 58 bc 07 f7 4b bd c2 c7 81 bb 32 5d 1c 39
       -0.013215921 -0.04979613 -0.0039605806 0.00014912037
000080 b8 d1 24 3c 77 12 9e 3d 51 a8 4f 3d 97 50 eb bc
       0.0100597665 0.07718366 0.05069763 -0.028724952
000090 6a 61 8e bc cf 76 b6 3c f9 cd e1 3b cb 1a c2 3c
       -0.017380435 0.02227345 0.006891009 0.023694417
0000a0 c7 f3 15 bc 7c c1 7e bd 2b a8 88 3d 9e 5f db ba
       -0.009152359 -0.06219624 0.066727005 -0.001673687
0000b0 2d 6c dd bc e5 c1 0d bd 6a d4 6d bd 12 dd 84 3c
       -0.027029121 -0.03460874 -0.058063902 0.016218696
0000c0 67 d3 7c bd 2c e6 ef bc e9 13 ab 3c fe 25 b6 3b
       -0.061725046 -0.02928456 0.020883517 0.0055587282
0000d0 a5 fa 4d bc 9a 5d 86 bb ea 64 7f 3d 55 8c 08 3c
       -0.012571965 -0.0041005136 0.0623521 0.008334239
0000e0 21 fb 34 bc e5 0c 56 bb dc 2e 89 bb 72 e4 38 3c
       -0.011046202 -0.0032661494 -0.0041864943 0.011284934
0000f0 b8 cc 80 bc 8e 1e 3b 3d ae 97 95 bc e9 8a 17 3d
       -0.015722618 0.045683436 -0.018260803 0.03699771
000100 5c fb a5 3b e0 25 b6 3b cb 58 a1 3c 72 8e 17 bd
       0.0050653648 0.0055587143 0.01969566 -0.03700108
000110 7f 97 a2 bc d3 9a 87 bc 2b ac b9 bc 2a 0f f9 3c
       -0.01984763 -0.016553318 -0.022665104 0.030402739
000120 69 66 e1 bc 7e 5b b2 bc 65 cf e5 bc 50 ad a7 bc
       -0.027514653 -0.021772142 -0.028052995 -0.020468384
000130 8c 76 90 3c 23 52 02 bd 63 a7 92 bc ce 1e 89 bb
       0.017634653 -0.031816613 -0.017902082 -0.0041845804
000140 f8 ce 05 bd 63 c7 0c bc 87 57 05 bd 50 8c ff 3c
       -0.032668084 -0.008592459 -0.032554176 0.031194836
000150 c1 f0 e4 bc 71 a4 b4 bb 41 73 3b 3b 48 51 42 bc
       -0.027946832 -0.005512767 0.0028602632 -0.011860199
000160 96 66 2c bd 2b a2 b9 bd 7a 97 cd bc 8b c4 83 3d
       -0.04209002 -0.09064134 -0.025096644 0.06433972
000170 78 33 54 3d 72 f9 f7 3b 45 6c 8b bc 27 93 ee 3c
       0.051806897 0.007567578 -0.0170194 0.029122902

model_4/gru_8/gru_cell/strided_slice_3 f4 [96]
000000 50 87 57 3c cd c6 85 3d 7d 98 cd 3d f0 c6 d8 3b
       0.01315482 0.06532059 0.100388505 0.006615512
000010 a0 91 ed 3c 6a 92 9e 3c 7c 4f a4 3d 19 ad e1 3c
       0.029000103 0.019356925 0.08022973 0.02754836
000020 5e 6e bb 3d 48 09 a3 3b ba 10 af 3d ee ec 1e 3d
       0.0915191 0.0049754716 0.08548112 0.038800173
000030 a3 40 cb 3b e6 50 4a bc b3 10 c9 3b d0 8b c5 bc
       0.0062027737 -0.012348389 0.006136024 -0.02411452
000040 8c ab 9f 3d 89 44 9e 3c e9 8e 40 3d 7b a0 2a 3d
       0.07796392 0.01931979 0.04701129 0.041656952
000050 68 62 80 3d 23 ab 7f 3c d7 97 b1 3d 9a 46 b7 3c
       0.062687695 0.015604767 0.08671539 0.022372533
000060 f7 4d 1a 3d 86 48 4c 3d e3 30 ad 3c bd 61 2a 3d
       0.03767201 0.04987385 0.021141475 0.041597117
000070 20 c4 33 bc 8f 8e a8 bc 63 a2 5e 3d 14 28 c7 ba
       -0.010972053 -0.02057579 0.054354083 -0.0015194439
000080 7b 54 1b bd 28 b2 13 3c 93 40 26 3d ad df cf 3c
       -0.037922364 0.009014644 0.040588927 0.025375212
000090 dd 1e 07 3e 41 9d d9 3c 72 f8 97 3d 8b b6 fa 3d
       0.13195367 0.026564242 0.07420434 0.122418486
0000a0 0c ea ea 3d 6f 4f d2 3c 6e c5 0e 3d 87 3c f2 bc
       0.11470422 0.025672643 0.034856252 -0.029569877
0000b0 9a cd 9a 3d b9 93 86 3c d2 e6 cb 3d da 43 45 3d
       0.07558747 0.016427862 0.09956135 0.04816041
0000c0 b6 9f ac 3c a5 c5 72 3b fd 1a 8b 3c 5c 9c b1 bc
       0.02107225 0.0037044075 0.016980642 -0.021681003
0000d0 a2 9d 97 bb d3 71 83 3c 6c 6b 71 3d d1 19 b9 bb
       -0.0046269456 0.016045487 0.058940336 -0.0056488295
0000e0 ac 3a 17 bc a8 58 6b bc 91 db d5 3c 55 bd 80 3b
       -0.009230297 -0.014364399 0.026105674 0.00392882
0000f0 92 9c 25 bb f8 52 f2 3c 88 7d 8a 3c 5e f2 cd bb
       -0.0025270325 0.029580578 0.016905561 -0.006284996
000100 3e 19 81 3c f5 a5 c4 bc 50 5c f8 3d e4 89 5b 3d
       0.015759107 -0.024004916 0.12126982 0.0535983
000110 e8 01 53 3d 75 b9 8e 3d c3 9a 19 bc 51 17 01 bd
       0.05151549 0.06968967 -0.009375277 -0.031516377
000120 1a 28 94 3c 58 f1 8a 3d 93 17 0a bd c1 5f 7d 3d
       0.018085528 0.06784314 -0.03371389 0.061858896
000130 d4 33 85 3d ed b2 28 3d f5 f3 a6 3d b4 88 36 bd
       0.06504026 0.041186262 0.08152 -0.044563964
000140 01 7b 8d 3b 63 d5 70 bd 1d 9b 1f 3d 1c 15 a4 3d
       0.0043176417 -0.05879725 0.038966287 0.08011839
000150 e6 97 0e 3e ec 81 e6 3b 3a 9a 73 3d 20 47 74 3d
       0.13925132 0.007034531 0.059473254 0.059638143
000160 19 26 20 3d 8f c3 93 3c 2f 37 c5 bc 59 5d 56 3d
       0.039098833 0.018037586 -0.024074165 0.052335117
000170 38 37 f9 3c 85 d5 26 3d b3 41 51 3d 23 b2 a0 3d
       0.030421838 0.04073097 0.051088046 0.07846477

model_4/gru_8/gru_cell/strided_slice_5 f4 [96]
000000 e2 09 66 3c 4b 8d bd 3c b6 8c ad ba fe e2 5f bc
       0.014040442 0.023138663 -0.0013240788 -0.013664959
000010 db e6 a0 3c f0 c9 90 bc 9e 99 af bc e0 fb 47 bd
       0.01964133 -0.017674416 -0.021435555 -0.04882419
000020 11 1d a2 bc c7 62 1a 3b 89 8f 8f 3c 7e 7d 87 bc
       -0.01978925 0.002355741 0.017524498 -0.016539332
000030 9d f4 63 bc cb 58 74 3c 2a 7f 73 3b 09 33 3f bb
       -0.013913301 0.014913748 0.0037154653 -0.0029174706
000040 95 fa 87 3c bc 53 89 bc 71 45 33 3d 25 d9 00 3c
       0.016598979 -0.01676356 0.043767396 0.007864271
000050 e9 b3 67 bd a0 46 63 3c 3c 22 88 bc 7c ee 65 3b
       -0.05656806 0.013871819 -0.016617887 0.0035084775
000060 aa 0b 0f 3c 52 6d 48 3c 49 00 b3 3a f0 18 52 3c
       0.008730808 0.012233095 0.0013656701 0.012823328
000070 f1 eb 9a bb 51 a3 20 bc 6f 31 da 3c 68 98 5b bc
       -0.0047278334 -0.009804563 0.0266349 -0.013403036
000080 e6 14 af bb 6d 7b 37 3c a2 02 39 3d e0 8a c3 3b
       -0.0053430675 0.011198861 0.045168526 0.005967483
000090 99 14 c8 b8 f6 fa 90 bc 3b f0 9e bb 4d 10 a4 bb
       -9.54058e-05 -0.017697793 -0.004850415 -0.005006826
0000a0 07 0f 0a bd d4 c1 3d 3d 96 a4 cc bb 8b 4c fe ba
       -0.033705737 0.046327427 -0.006245206 -0.0019401474
0000b0 9d 2e 4a 3c b3 48 9a 3b 21 54 20 3d ef a1 c3 bb
       0.012340215 0.0047083735 0.03914273 -0.0059702317
0000c0 df 23 9c bc c4 6b 48 3d a1 9d 6b 3d 2c 8e 89 bc
       -0.019060073 0.0489309 0.057523374 -0.016791426
0000d0 86 fd 42 bd a3 d9 49 bc 57 11 6b bc 6c b8 7c ba
       -0.04760506 -0.012319955 -0.014347396 -0.0009640518
0000e0 4b 29 43 3c 03 71 2b 3c 83 45 e4 bc 0e ec 32 bb
       0.0119117005 0.010463956 -0.027865177 -0.0027301344
0000f0 1b 37 ad bc ba 58 e5 b9 06 4a d1 3c e9 6e c4 bb
       -0.02114444 -0.0004374439 0.025547992 -0.005994667
000100 b7 22 b8 3c cc 50 07 bd b2 45 9a bc 82 29 69 3c
       0.02247749 -0.03303604 -0.018832061 0.014231088
000110 41 8f 4a 3c 51 5e 46 3c 56 8b e5 bc fc 40 38 3d
       0.012363256 0.012107448 -0.028020542 0.04498385
000120 47 2d 6e 3c 14 b1 a3 3b 1e bf 37 bd 9c 5c 8a 3d
       0.014537162 0.0049954746 -0.044859998 0.06755945
000130 c0 77 b5 3c 47 67 a3 bc d6 73 6a 3c 4f a8 9d 3c
       0.022151828 -0.019946707 0.014309844 0.019245295
000140 0b 66 9b bc 54 24 3e bc 9e 67 ee 3a e4 5c 21 3c
       -0.018969556 -0.011605341 0.0018188839 0.009848807
000150 33 cc 40 bb 70 a0 01 3a 0b ff db 3c e3 08 f0 3b
       -0.0029418587 0.00049448665 0.026855012 0.007325278
000160 c7 13 9e bc 72 75 1e 3d 97 53 fc 3a dc 2b 43 bc
       -0.01929654 0.038686223 0.0019250986 -0.011912312
000170 b8 0e 1f 3c bc 46 03 3d b7 d5 a9 ba fb 02 56 3c
       0.009708099 0.03204988 -0.0012957369 0.013062234

model_4/gru_8/gru_cell/strided_slice_11 f4 [96]
000000 39 37 84 3c 94 5e c7 3c 8c 02 c8 bc 01 0e a9 38
       0.016139613 0.02433709 -0.024415277 8.0611564e-05
000010 7a c7 07 b8 b4 38 51 bb f8 c8 b5 bc 73 7d fc bc
       -3.2372285e-05 -0.0031924667 -0.022190556 -0.030821538
000020 84 bd a0 bc 45 a5 a5 bb 99 57 5d 3c b0 c4 59 3a
       -0.019621618 -0.005055102 0.013509654 0.0008307202
000030 ad f4 c6 bc 58 aa 0c 3c a6 29 ee 3b 08 bf bb 39
       -0.024286592 0.008585535 0.0072681485 0.0003580975
000040 70 93 a4 3c bd b0 13 3c 8f 59 98 3c 63 8a 78 3c
       0.020089835 0.009014306 0.018597392 0.015169713
000050 e4 84 3c bd 13 da 96 3b b2 d9 c6 bb a4 3d db 3b
       -0.046025172 0.004603633 -0.006068432 0.0066906977
000060 0c 2f 48 3b c6 8e f0 3c 2e 2c 66 3b f6 47 95 3c
       0.003054562 0.029364955 0.0035121548 0.01822279
000070 ee 65 95 bc e1 2d 70 3b 64 1a b1 3c f6 aa 4d bc
       -0.01823708 0.003664844 0.02161903 -0.012552967
000080 91 2a ad bb 88 c3 a0 bc 91 7a 26 3d f8 44 34 bb
       -0.0052846153 -0.019624487 0.040644232 -0.002750693
000090 63 bf 13 3c b2 8d 0c bc 5a 3e 95 bc cd 36 96 bc
       0.009017798 -0.008578705 -0.018218208 -0.018336678
0000a0 3d 2f 3f bc 74 0a fe 3c 41 98 e3 3b a6 e6 61 3b
       -0.011668977 0.031010844 0.0069456403 0.0034469753
0000b0 85 0f 97 3c fb 77 31 3c 42 db d5 3c e8 b1 37 bc
       0.018440017 0.010831828 0.026105527 -0.01121185
0000c0 f5 fb 99 bc df f9 e0 3c 54 ca d2 3c e3 ce 0c bb
       -0.0187969 0.027462898 0.025731243 -0.0021485619
0000d0 68 72 76 bd 03 a6 78 3b ef 51 14 bc 35 3b d4 bb
       -0.0601677 0.0037940748 -0.009052738 -0.0064767846
0000e0 37 03 1c 3d 00 32 20 3c 3a b1 2e bc 56 37 59 bc
       0.038089003 0.009777546 -0.010662371 -0.013257822
0000f0 8b 37 20 bc 89 07 6d 39 0b b2 e4 3c df 1d 1b 3a
       -0.0097788675 0.00022604888 0.027916929 0.0005917232
000100 ea 00 07 3c 53 ee cc bc a5 e5 37 bb 2e 3c 69 3c
       0.008239964 -0.025015986 -0.0028060463 0.014235539
000110 12 a9 16 3b 9e f7 07 3c 71 79 34 bc 46 05 2c 3d
       0.0022988957 0.008298783 -0.011015282 0.041997217
000120 c9 24 2e 3d e6 5c 36 3a 65 b1 b9 bb ce e0 78 3d
       0.04251555 0.0006956592 -0.005666899 0.060761265
000130 62 b3 bb 3b 07 ed 27 3b 97 d0 7d 3c e7 89 d8 3b
       0.005728171 0.0025623457 0.015491626 0.006608236
000140 c6 fb 17 bc 97 44 2f bc b0 e2 36 3c 5d 19 37 3d
       -0.009276336 -0.010697505 0.011162445 0.044701923
000150 02 1b 89 ba f7 fa 5c 3c 45 9f d1 3c 68 bc 06 3c
       -0.001046032 0.013487569 0.025588641 0.0082236305
000160 ac 09 00 bd 23 34 b1 3c bb fd 61 3c f7 58 0e 3c
       -0.031259224 0.021631306 0.013793404 0.008688203
000170 09 af 66 3b bc 43 e8 3c 19 f0 5b bc c4 eb 32 3b
       0.0035199544 0.02835261 -0.013423943 0.0027301172

model_4/batch_normalization_19/batchnorm/sub f4 [48]
000000 90 80 0d 3f 12 e8 75 be bd ba 12 3f cf 2f fe be
       0.55274296 -0.24014309 0.5731619 -0.4964585
000010 b6 87 91 bd bf 87 d6 bd 8a 80 3b bf cc 03 7c bf
       -0.07105963 -0.1047511 -0.7324301 -0.98443294
000020 40 13 19 bf 68 88 88 be 58 56 60 3f 0c b5 ab 3e
       -0.59795 -0.2666657 0.8763175 0.33536565
000030 6a ea 1b be 4b 40 e9 be 7e a7 a3 bf 5f bd 30 3f
       -0.1522614 -0.45556864 -1.278549 0.6903896
000040 c9 0d a8 be 8a 53 cb bd 30 74 cf bd 52 18 e9 bd
       -0.32823017 -0.09928043 -0.10129583 -0.11381592
000050 6e 31 00 bf f9 01 21 bf 16 0d 16 bf 49 b5 82 be
       -0.50075424 -0.62893635 -0.5861372 -0.25528935
000060 9d 76 74 be 69 19 06 3e 0e 9c 24 bf dd 31 17 3f
       -0.23873372 0.1309563 -0.6430062 0.5906046
000070 91 7b 91 3e 88 60 ce be f2 b7 70 3e 6d b6 f1 3e
       0.28414586 -0.40308022 0.2350767 0.47209492
000080 73 0a 38 bf 61 be 24 3d 2c a5 52 3f 22 7a 81 be
       -0.71890944 0.040220622 0.8228328 -0.25288492
000090 9a fe 87 3e cd d8 83 be 58 fa 5c be f0 89 c7 be
       0.26561433 -0.25751343 -0.21579874 -0.38972425
0000a0 21 3e cb bd f1 f2 15 3f fd de d7 be 50 14 24 3f
       -0.099239595 0.58573824 -0.42162314 0.64093494
0000b0 3b 11 84 3e 4e 2b c3 be 05 b7 3b bd a3 69 60 be
       0.25794396 -0.38118976 -0.045828838 -0.21915297

model_4/batch_normalization_19/batchnorm/mul f4 [48]
000000 20 a3 0c 40 11 37 ef 3f 02 ae e5 3f 40 29 19 40
       2.1974564 1.868868 1.7943728 2.3931427
000010 6c a4 08 40 af aa 40 40 16 2e 25 40 42 b1 2e 40
       2.1350355 3.0104177 2.5809379 2.729569
000020 f0 7a f6 3f 83 f4 fa 3f bf 84 04 40 41 81 d6 3f
       1.9256268 1.9605869 2.0706022 1.6758195
000030 6f 83 0e 40 38 d9 13 40 16 51 2f 40 f8 0a 51 40
       2.226772 2.310133 2.739324 3.2662945
000040 27 c1 2a 40 9e aa 2a 40 2e 4c ce 3f 8c 3b 18 40
       2.668039 2.6666636 1.6116998 2.3786345
000050 4b 6e 0c 40 59 04 00 40 11 95 10 40 83 0a 11 40
       2.1942317 2.0002654 2.2590983 2.2662666
000060 45 e0 2b 40 fd 48 48 40 cb c6 45 40 6f 69 1c 40
       2.6855633 3.1294549 3.0902584 2.4439352
000070 34 e4 10 40 c4 7a 08 40 40 5e 36 40 e3 06 04 40
       2.2639284 2.132493 2.8495026 2.0629203
000080 a5 81 05 40 9e 3f 43 40 b4 00 2a 40 ef 85 f6 3f
       2.0860379 3.050758 2.656293 1.9259623
000090 f1 ec 61 40 04 5d 23 40 12 2e ea 3f 5a 34 34 40
       3.5300868 2.5525522 1.829531 2.8156953
0000a0 2a 39 f4 3f ea c8 13 40 64 cb f7 3f 51 6f 2e 40
       1.9079945 2.3091378 1.9358945 2.7255442
0000b0 be 56 07 40 45 ef eb 3f d4 41 f7 3f 82 52 5f 40
       2.1146693 1.8432394 1.9316964 3.4894109

model_4/batch_normalization_18/batchnorm/sub f4 [96]
000000 33 9d 86 be 68 30 8c be 3a 95 15 3f 29 87 84 3f
       -0.26291808 -0.2738068 0.58430827 1.0353748
000010 b1 c1 2c bf f1 a1 89 3f bb 3f 5b 3e c9 2c 63 3f
       -0.6748305 1.0752546 0.2141103 0.8874021
000020 d8 82 d2 3e 33 56 da be cd 6a 75 3e 48 ba 3e bf
       0.4111545 -0.4264389 0.23966523 -0.7450299
000030 3b 59 0c 3f 55 35 fc be a0 c2 2e be 10 64 f7 be
       0.54823655 -0.4925944 -0.17066431 -0.4831853
000040 67 48 b6 3e 9a 35 96 be 20 99 6d bd d7 0a cb 3e
       0.35602114 -0.2933777 -0.05800736 0.39656708
000050 26 71 67 3f 6f 5f 8e 3e b9 0e a9 3f f7 18 85 be
       0.90407026 0.27807185 1.3207618 -0.2599561
000060 37 35 11 bf 9a 05 51 bd cc 2a 6f 3f 2c 19 3a be
       -0.56721824 -0.051030733 0.9342468 -0.18173665
000070 3f 35 15 bd 32 54 73 bd ba 6f 45 bf 11 f7 a6 3f
       -0.036427733 -0.059406467 -0.77123606 1.3044149
000080 b3 da 2b be 8c ed 06 bf 11 80 e1 be de 77 ad be
       -0.16782646 -0.5270622 -0.4404302 -0.33880514
000090 f0 66 b0 3e b4 3f 77 bf c6 78 27 3e 0a a7 29 bf
       0.34453535 -0.9658158 0.16354665 -0.66270506
0000a0 82 9c 3f 3e 2d 00 c9 bf 31 c3 61 3d 0a 55 66 3e
       0.18712047 -1.5703179 0.05511779 0.22493377
0000b0 97 68 4b bf d0 11 14 bf bc 72 22 be 20 f7 fb ba
       -0.79456466 -0.5783968 -0.1586408 -0.0019223429
0000c0 4e bb 7f 3f ae 11 a4 bf d9 bc 20 bf 77 7e f0 3d
       0.9989518 -1.2817895 -0.6278816 0.11742871
0000d0 a9 95 89 3f f8 8a cb 3d 2b 17 fa be e1 f8 a5 be
       1.0748798 0.099386156 -0.488458 -0.32416442
0000e0 70 29 fa 3d 91 72 38 be 39 6c 99 3f 97 80 2b 3e
       0.12214935 -0.18012454 1.1986152 0.16748272
0000f0 29 9f 2b be bd 18 16 3f 57 f0 26 bf dd 5c 87 be
       -0.16759934 0.586315 -0.6521048 -0.26438037
000100 8e 5d bb be 4a 1e e6 3f 00 e2 06 3f 38 86 77 bd
       -0.36594814 1.7977993 0.526886 -0.060430735
000110 26 a6 86 3d 1e 41 9b be 19 0b ee 3d 71 fa 6a bf
       0.06574659 -0.30323118 0.116232105 -0.91788393
000120 60 9c 49 be 91 8f 15 3f a7 32 b5 3e 06 c7 60 bf
       -0.19688559 0.5842219 0.35390207 -0.87803686
000130 7d 7b f3 bd 97 01 81 3e 4a e9 1b 3f 29 7c 98 bf
       -0.11888788 0.25196525 0.60902846 -1.1912891
000140 08 d5 42 3f c9 f7 91 be 03 84 34 bf c6 da 28 3e
       0.7610631 -0.28509358 -0.70513934 0.16489705
000150 05 ba 3a 3d b8 92 71 3e 0b 94 2b be 5b f4 8b be
       0.04558756 0.23591125 -0.16755693 -0.27334866
000160 9d 72 c8 be ac 75 e6 bf eb 5f 2d 3e ff ef 92 3f
       -0.39149943 -1.8004661 0.16931121 1.1479491
000170 93 1b f8 be 14 56 13 bf 7d 1f db bd 74 2d eb bd
       -0.48458537 -0.5755322 -0.10699365 -0.11483279

model_4/batch_normalization_18/batchnorm/mul f4 [96]
000000 47 bb 86 41 23 fd 49 41 04 13 24 41 75 a7 71 41
       16.841444 12.624301 10.2546425 15.103383
000010 2c 50 73 41 b4 6b 65 41 99 95 4b 41 9f f2 7f 41
       15.207073 14.338795 12.724023 15.996734
000020 c2 99 7d 41 3b 1b 5a 41 69 6a 36 41 8e a3 5d 41
       15.850039 13.631648 11.400979 13.85243
000030 d6 02 08 41 51 84 56 41 97 91 50 41 d9 f7 6e 41
       8.500692 13.407304 13.035544 14.93551
000040 5a 54 83 41 09 5b 5f 41 a6 d1 5b 41 84 73 10 41
       16.416187 13.959725 13.738684 9.028202
000050 58 33 3b 41 5b 83 9c 41 6e 9b 95 41 04 e1 67 41
       11.700035 19.564138 18.700893 14.492435
000060 b1 3a 69 41 78 f0 4f 41 c3 6d 85 41 83 2e 6d 41
       14.576829 12.996208 16.678595 14.823855
000070 d1 f2 88 41 66 ef 89 41 4e f6 6f 41 b8 fd 68 41
       17.118563 17.241894 14.997633 14.561943
000080 fd a5 27 41 04 99 4b 41 dd 62 47 41 9c ac 99 41
       10.4780245 12.724857 12.461637 19.209282
000090 6b 93 29 41 28 f1 22 41 2b b0 3a 41 16 ff 42 41
       10.598491 10.183876 11.66801 12.187277
0000a0 45 7b 98 41 d7 69 8e 41 36 a9 3b 41 8f c7 71 41
       19.06019 17.80168 11.728811 15.11122
0000b0 42 4d 7c 41 d9 bf 8f 41 6e 6f 83 41 1f 6c 83 41
       15.768862 17.968676 16.429409 16.427794
0000c0 38 18 b0 41 33 fa a3 41 da 9e 40 41 5e 91 5a 41
       22.011826 20.497168 12.038782 13.66049
0000d0 90 c5 61 41 ec 2a 92 41 52 56 18 41 b2 94 60 41
       14.110733 18.270958 9.521074 14.036303
0000e0 4f 7e 7c 41 04 bf 5a 41 25 29 83 41 e0 0e 27 41
       15.780837 13.671635 16.39509 10.441132
0000f0 17 09 4d 41 f5 cb 52 41 df cf 51 41 bf 6d 32 41
       12.814719 13.174794 13.11325 11.1517935
000100 c7 7f 6f 41 d4 a1 4a 41 20 be 3b 41 ad c4 5f 41
       14.968696 12.664509 11.733917 13.985517
000110 ba 64 8c 41 73 57 72 41 4d 31 82 41 3e 43 10 41
       17.549183 15.14635 16.274073 9.016417
000120 b9 79 76 41 7f c1 92 41 7a 16 7d 41 21 2d 69 41
       15.404717 18.34448 15.817987 14.573518
000130 ea 9f 60 41 44 e5 6a 41 f1 cd 59 41 9f b5 75 41
       14.0390415 14.680973 13.612779 15.356841
000140 03 5e 95 41 79 ba 26 41 68 0e 5a 41 e2 a3 54 41
       18.670904 10.420526 13.628517 13.29001
000150 33 69 32 41 e1 8d 7e 41 2e 64 7f 41 42 4a 80 41
       11.150683 15.909638 15.961958 16.036259
000160 a3 6d 8c 41 c3 3e a9 41 c4 d7 50 41 5b 1c 88 41
       17.553534 21.155645 13.052677 17.013845
000170 6d bc 2e 41 ea a0 72 41 86 f5 49 41 ac b2 68 41
       10.921002 15.164286 12.622442 14.543621

model_4/dense_9/BiasAdd/ReadVariableOp f4 [26]
000000 39 37 04 3c 4c a2 b5 3d aa 05 c9 3d 3b 36 dc 3c
       0.008069807 0.08868846 0.098155335 0.026881328
000010 c0 8b 5e bd ca a9 57 3d 43 30 9e 3d ee a0 e5 3d
       -0.054332495 0.052652158 0.07724049 0.112123355
000020 cb 86 0b 3e 5b 75 61 be f2 8c 61 be 4a 9f 60 be
       0.13625638 -0.22017424 -0.22026423 -0.21935764
000030 7f 37 6b be 70 f6 6b be 70 8e 63 be 28 7a 67 be
       -0.22970389 -0.23043227 -0.22222304 -0.22605193
000040 26 5e 5f be 50 88 63 be bd 08 5c be 95 95 53 be
       -0.21813259 -0.22219968 -0.21487708 -0.2066253
000050 0c b6 5d be 52 9b 60 be 35 e1 4e be 0b 1b 6c be
       -0.21651477 -0.2193425 -0.20203097 -0.23057191
000060 34 92 55 be 83 4a 56 be
       -0.20856553 -0.20926861

model_4/dense_8/BiasAdd/ReadVariableOp f4 [48]
000000 14 8b cb 3d c6 29 fd 3d a6 a5 b2 3d 6f 86 bb 3d
       0.099386364 0.12361483 0.08723001 0.091565005
000010 4c 63 0a 3e f7 f8 2c 3d 5a 89 91 3d 96 49 5a bd
       0.13514441 0.04222962 0.07106276 -0.053292833
000020 3b d3 c4 3d 58 78 26 3e ab 58 8f 3c 88 35 cd 3d
       0.096106015 0.16256845 0.017498335 0.10019976
000030 b2 ec 55 3e e1 d7 50 3d f8 01 8a 3d f5 d6 18 3e
       0.20891073 0.05098713 0.06738657 0.1492575
000040 76 01 60 3d a8 e6 64 3d 38 a9 b0 3d ff f8 41 3d
       0.054688893 0.055884033 0.08626026 0.0473566
000050 17 8d 7b 3d f2 50 58 3d 92 40 01 3e dd 2f 10 3e
       0.06141385 0.05281157 0.12622288 0.14080758
000060 ec 60 6c 3d 8d cf 44 3d ab 43 35 3c 80 37 ba 3d
       0.05770962 0.0480495 0.011063497 0.09092617
000070 06 66 ec 3d de 75 95 3d 26 ce 57 3d cc 91 1f 3d
       0.11542897 0.07297872 0.052686833 0.038957402
000080 81 f2 b6 3d b2 99 14 3d a4 10 33 3c 0c c3 18 3e
       0.08932973 0.036279388 0.01092926 0.14918154
000090 3e 52 ce 3c 8f 5e af 3d d0 5f 90 3d 1d 11 ac 3d
       0.0251857 0.085629575 0.07049525 0.084017016
0000a0 c8 c5 08 3e ce 92 a0 3d e0 38 4b 3d 7f c0 42 3d
       0.13356698 0.07840501 0.049614787 0.04754686
0000b0 78 a5 e1 3d 6c c7 fc 3c 5d b2 95 3d ca 12 77 3d
       0.11017889 0.03085681 0.07309411 0.060320653
