app/src/main/assets/models/alphabets.tflite (tflite, 673196 bytes, 52 tensors)

model_4/batch_normalization_16/batchnorm/add_1;model_4/conv1d_8/Conv1D/Squeeze;model_4/batch_normalization_16/batchnorm/mul_1;model_4/conv1d_8/BiasAdd;model_4/conv1d_8/BiasAdd/ReadVariableOp;model_4/batch_normalization_16/batchnorm/mul;model_4/batch_normalization_16/batchnorm/sub;model_4/conv1d_8/Conv1D;model_4/conv1d_9/Conv1D f4 [96]
0.55068755 -0.64048594 -0.5337298 0.6223575 -0.033863306 0.81509304 -0.33896258 -0.27602965
0.08347952 -0.6199186 -0.29548952 -0.7576119 -0.55617684 -0.3321235 -0.26131544 -0.34521317
-0.2361225 0.19884464 -0.65795434 -0.47714716 -0.427856 -0.13206643 -0.119986124 -0.6150368
-0.31699634 0.4221339 -0.29059413 -0.31185853 -0.42354557 0.34489956 -0.98984456 -0.7890288
0.060574293 -0.5403094 -0.5631499 0.28898263 -0.29050732 -0.32700372 -0.30416438 0.121794075
0.054157495 -0.36237982 0.63350385 -0.22157055 -0.19723903 -0.43733665 -0.18653367 -0.6260646
-0.64599264 -0.086275995 -0.8207017 -0.4838997 -0.105243884 -0.15070796 -0.54506487 -0.34308964
-0.2631696 -0.23905364 -0.9996228 -0.6944343 -0.51658165 -0.50049555 -0.1634008 -0.09549543
-0.2140139 -0.08582926 -0.0029942393 -0.5598603 0.72024786 -0.16521403 0.3080874 -0.01413697
-0.6085149 0.028530456 -0.86153424 0.26528156 -0.4783174 -0.83414394 -0.6429538 -0.7176336
-0.59815997 -0.5712978 -0.20764339 -0.42328236 -0.06793007 -0.49049202 -0.12809211 -0.11435683
-0.48126456 -0.53157246 0.60473436 -0.59948814 -0.7075219 -0.4847345 -0.5168093 -0.53111523
00000000: dcf9 0c3f e3f6 23bf 84a2 08bf d252 1f3f
00000010: 40b4 0abd f0a9 503f 818c adbe c253 8dbe
00000020: 50f7 aa3d fcb2 1ebf 674a 97be daf2 41bf
00000030: 9b61 0ebf 170c aabe 23cb 85be c8bf b0be
00000040: 19ca 71be ee9d 4b3e b26f 28bf a24c f4be
00000050: f10f dbbe 6c3c 07be 49bb f5bd 0d73 1dbf
00000060: 584d a2be ef21 d83e c1c8 94be ecab 9fbe
00000070: f7da d8be ad96 b03e 7466 7dbf cbfd 49bf
00000080: c01c 783d b851 0abf 982a 10bf 88f5 933e
00000090: 60bd 94be 086d a7be 6fbb 9bbe 2c6f f93d
000000a0: 40d4 5d3d d989 b9be 4f2d 223f 64e3 62be
000000b0: 07f9 49be 97ea dfbe af02 3fbe c545 20bf
000000c0: c65f 25bf 78b1 b0bd 8219 52bf b4c1 f7be
000000d0: 1b8a d7bd 3053 1abe 5f89 0bbf 72a9 afbe
000000e0: 2abe 86be 7aca 74be 48e7 7fbf 72c6 31bf
000000f0: b23e 04bf 7a20 00bf 8a52 27be 1c93 c3bd
00000100: 7626 5bbe 40c7 afbd 003b 44bb 0153 0fbf
00000110: 2a62 383f de2d 29be a2bd 9d3e c09e 67bc
00000120: a2c7 1bbf b4b8 e93c 828d 5cbf fcd2 873e
00000130: 05e6 f4be 758a 55bf 9f98 24bf d6b6 37bf
00000140: 0321 19bf 9340 12bf 78a0 54be 77b8 d8be
00000150: ec1e 8bbd c521 fbbe 942a 03be ea33 eabd
00000160: 4f68 f6be 2215 08bf dfcf 1a3f 0e78 19bf
00000170: 2820 35bf 1f2f f8be 9d4d 04bf 2bf7 07bf

model_4/batch_normalization_17/batchnorm/add_1;model_4/conv1d_9/Conv1D/Squeeze;model_4/batch_normalization_17/batchnorm/mul_1;model_4/conv1d_9/BiasAdd;model_4/conv1d_9/BiasAdd/ReadVariableOp;model_4/batch_normalization_17/batchnorm/mul;model_4/batch_normalization_17/batchnorm/sub;model_4/conv1d_9/Conv1D f4 [96]
0.10253909 -0.21791258 -0.25377053 0.30584866 -0.30480617 0.40904188 0.4447211 -0.38947582
-0.3138366 -0.34916866 0.028656948 -0.87470084 -0.23694216 0.43718052 -0.69646204 0.33840957
-0.23204744 -0.14571223 0.55936295 -0.30706453 0.3202696 0.030956762 0.42540467 -0.107438505
-0.5742224 0.0029411837 0.12579794 0.14245397 0.006146077 0.570602 0.27551925 0.056022685
-0.2420682 0.11317173 -0.11775352 0.05965109 -0.24259526 0.29717472 -1.0803711 0.45253998
0.3732814 -0.55235624 -0.044284992 0.03313964 -0.29351452 -0.31942505 -0.2590444 0.041631423
-0.26034388 0.2239744 0.4877632 -0.24660426 -1.2090418 -0.2698247 -0.32476097 0.07170206
-1.4500515 -0.44337428 0.35315976 0.048869736 0.47266904 -0.16668004 -0.28624058 -0.3126207
-0.757284 0.6564159 -0.34519964 -0.13192734 -0.85927004 -0.1601209 0.6713376 0.622224
0.2102477 0.42750216 0.4184002 -0.24727423 0.19847494 -0.17186616 -0.2735042 -0.30541658
0.28432643 -0.23338291 0.34321678 0.41095117 -0.88766986 -0.22874916 -0.3595917 0.44317234
0.40550262 0.716355 0.07838051 -0.43062246 -0.27126735 0.31593734 0.31414092 0.21313061
00000000: 0400 d23d 7a24 5fbe 36ee 81be 3298 9c3e
00000010: 8e0f 9cbe f06d d13e 7cb2 e33e 6069 c7be
00000020: 31af a0be 3cc6 b2be fac1 ea3c 65ec 5fbf
00000030: f7a0 72be 20d6 df3e 564b 32bf 0544 ad3e
00000040: d89d 6dbe 9635 15be 6932 0f3f 9037 9dbe
00000050: 61fa a33e 0999 fd3c a4ce d93e b808 dcbd
00000060: 3d00 13bf e0c0 403b 2dd1 003e 74df 113e
00000070: 0865 c93b f912 123f dc10 8d3e 0b78 653d
00000080: bae0 77be 94c6 e73d c228 f1bd b454 743d
00000090: e46a 78be 4927 983e 9a49 8abf 52b3 e73e
000000a0: bd1e bf3e 3867 0dbf 2e64 35bd 6ebd 073d
000000b0: 8947 96be ae8b a3be 78a1 84be b685 2a3d
000000c0: cb4b 85be 8c59 653e 19bc f93e d485 7cbe
000000d0: e2c1 9abf 7726 8abe 1247 a6be 88d8 923d
000000e0: 4a9b b9bf f401 e3be 5bd1 b43e a22b 483d
000000f0: ad01 f23e 2cae 2abe 208e 92be d20f a0be
00000100: 5ddd 41bf df0a 283f 02be b0be f617 07be
00000110: 1ff9 5bbf bcf6 23be c8dc 2b3f 124a 1f3f
00000120: 2c4b 573e 90e1 da3e 8d38 d63e 7535 7dbe
00000130: 043d 4b3e affd 2fbe be08 8cbe 905f 9cbe
00000140: 3c93 913e eefb 6ebe 1cba af3e 3168 d23e
00000150: 553e 63bf 383d 6abe 671c b8be 7ce7 e23e
00000160: 0a9e cf3e 0b63 373f f685 a03d 8c7a dcbe
00000170: 8ee3 8abe 8ac2 a13e 14d7 a03e e93e 5a3e

model_4/batch_normalization_16/batchnorm/mul_1;model_4/conv1d_8/Conv1D/Squeeze;model_4/conv1d_8/BiasAdd;model_4/conv1d_8/BiasAdd/ReadVariableOp;model_4/batch_normalization_16/batchnorm/mul;model_4/conv1d_8/Conv1D;model_4/conv1d_9/Conv1D f4 [96, 1, 3, 126]
0.013957228 0.009254627 0.011930043 0.07334267 -0.010256262 -0.0007636027 0.06579204 -0.00742027
-0.018538278 0.06311485 -0.011362927 -0.023887204 0.050016295 0.0033325758 -0.028993685 -0.06811107
-0.015183689 0.006254499 -0.094303 0.024611374 0.0301285 -0.1257432 0.017738039 0.04518648
-0.14363742 -0.01549275 0.050911237 0.034552615 -0.04751067 -0.029022448 -0.050363693 0.027631879
-0.0037019646 -0.07886115 0.10886488 -0.004481626 -0.08251251 0.17028351 -0.020262316 -0.05631949
-0.016452264 -0.01701935 -0.050632488 0.028325643 -9.655624e-05 -0.046755068 0.055456195 0.01292724
-0.039301194 0.071015924 0.011592207 -0.07731747 0.062758595 -0.079815716 -0.09668313 0.117268436
-0.05045614 -0.087700024 0.097800404 -0.043873683 -0.072727196 0.06623484 -0.044672348 0.015472947
0.0039587473 0.0092103435 0.037966043 -0.034453005 0.026670896 0.010118763 -0.037462164 0.048170343
-0.03175229 -0.047600504 0.064923525 -0.05149779 -0.068972014 0.08071703 0.049151704 0.038746685
0.062086854 0.027034031 0.02795202 0.07242371 0.0149744665 0.00859409 0.07643023 0.0070079267
-0.0323204 0.081890956 0.027757281 0.042608533 0.07259694 -0.0045782262 -0.0021586327 0.10538071
-0.03159283 0.008703588 0.10712522 -0.057744324 0.014401403 0.104557335 0.063176446 0.11054965
0.080317885 0.05321852 0.087395646 0.11066625 0.039842937 0.06922669 0.10147763 0.021228462
0.059238177 0.090334706 0.0343986 0.052696235 0.101951934 0.03820768 -0.02001948 0.13209745
0.03040881 -0.08075332 0.12204499 0.017740943 -0.121896744 0.10842442 0.008954625 0.010735895
0.0073401607 0.07599177 -0.010381674 -0.005680469 0.069379255 -0.0049803033 -0.024223289 0.067250706
-0.006013976 -0.030835066 0.0547153 0.0092865415 -0.0355837 -0.06903504 -0.006527754 -0.0017544607
-0.09370381 0.032699645 0.020841004 -0.12146944 0.025846474 0.03521742 -0.13729136 -0.0047376356
0.041559823 0.032748517 -0.03791222 -0.03531828 -0.046693467 0.036950026 -0.0103599485 -0.073636666
0.11920155 -0.010544711 -0.07690893 0.18193929 -0.026115464 -0.06053278 -0.014625797 -0.025363019
-0.04973481 0.032010205 -0.011833338 -0.04463099 0.061997518 0.00031188494 -0.03648489 0.07940787
0.00077676337 -0.08243897 0.06803432 -0.08500054 -0.09684763 0.12767598 -0.057735212 -0.08601261
0.11302817 -0.051302746 -0.07004111 0.085789606 -0.051713064 0.016762031 0.004016076 0.013397147
0.03404524 -0.03415039 0.022560196 0.0008781705 -0.035565592 0.04657574 -0.04103359 -0.039973486
0.062433712 -0.06163579 -0.05540542 0.07868725 0.043358073 0.04916422 0.059292033 0.025500111
0.041322395 0.06832097 0.016516808 0.018210784 0.07246315 0.010183938 -0.025334707 0.07704013
0.025015127 0.05045873 0.07030216 -0.0031271628 0.01339542 0.10126123 -0.02732215 0.022875242
0.1043248 -0.05295546 0.025264114 0.101908065 0.065778054 0.115518324 0.07677482 0.06118307
0.10026095 0.10481296 0.05027345 0.08056283 0.09631683 0.032030832 0.0669753 0.086219996
0.040760554 0.051150873 0.097988985 0.047619145 -0.013748707 0.12559773 0.041009996 -0.068542406
0.11614055 0.027777623 -0.10580402 0.10449614 0.010263992 0.008495896 0.0036336447 0.07508386
00000000: dbac 643c b8a0 173c 3a76 433c af34 963d
00000010: e109 28bc 822c 48ba fabd 863d bc25 f3bb
00000020: 96dd 97bc 5c42 813d 922b 3abc 19af c3bc
00000030: e3dd 4c3d 5867 5a3b 2a84 edbc d17d 8bbd
00000040: 02c5 78bc 8af2 cc3b ee21 c1bd cb9d c93c
00000050: 0bd0 f63c d3c2 00be 5d4f 913c 7515 393d
00000060: b015 13be 4ed5 7dbc 4d88 503d 0b87 0d3d
00000070: 8c9a 42bd 7cc0 edbc 294a 4ebd 405c e23c
00000080: a99c 72bb f481 a1bd 8df4 de3d 9bda 92bb
00000090: 52fc a8bd cd5e 2e3e 28fd a5bc 44af 66bd
000000a0: e6c6 86bc 2a6c 8bbc 0364 4fbd 2e0b e83c
000000b0: 3d7e cab8 3e82 3fbd 0926 633d c6cc 533c
000000c0: 4afa 20bd cc70 913d 3ded 3d3c 9f58 9ebd
000000d0: 9487 803d 6c76 a3bd ce01 c6bd 6f2a f03d
000000e0: 19ab 4ebd 129c b3bd 944b c83d e4b4 33bd
000000f0: fff1 94bd 22a6 873d 5afa 36bd 3e82 7d3c
00000100: 61b8 813b fbe6 163c 4882 1b3d 981e 0dbd
00000110: ec7c da3c 2bc9 253c ed71 19bd 444e 453d
00000120: b00e 02bd bff8 42bd a0f6 843d 59ef 52bd
00000130: 3341 8dbd f84e a53d 4c53 493d d8b4 1e3d
00000140: c94e 7e3d 7976 dd3c a2fb e43c e252 943d
00000150: 7757 753c 3ace 0c3c 7487 9c3d c0a2 e53b
00000160: 6562 04bd 72b6 a73d 3d63 e33c 4986 2e3d
00000170: b4ad 943d f204 96bb d977 0dbb d7d1 d73d
00000180: 7c67 01bd 7e99 0e3c 7864 db3d 5085 6cbd
00000190: ddf3 6b3c 2822 d63d a762 813d db67 e23d
000001a0: b47d a43d aafb 593d 7dfc b23d fda4 e23d
000001b0: 5932 233d b9c6 8d3d 81d3 cf3d 50e7 ad3c
000001c0: bba3 723d 6701 b93d 8ce5 0c3d 02d8 573d
000001d0: 2dcc d03d a87f 1c3d e4ff a3bc 8e44 073e
000001e0: e61b f93c ff61 a5bd b9f2 f93d 7455 913c
000001f0: 00a5 f9bd 9f0d de3d 6bb6 123c 9be5 2f3c
00000200: bb85 f03b 93a1 9b3d e617 2abc 3a23 babb
00000210: b616 8e3d d031 a3bb eb6f c6bc bdba 893d
00000220: e310 c5bb d299 fcbc 271d 603d 9426 183c
00000230: 37c0 11bd 3e62 8dbd c5e6 d5bb eff5 e5ba
00000240: c8e7 bfbd 10f0 053d c1ba aa3c f8c4 f8bd
00000250: fcbb d33c 2440 103d 1b96 0cbe 2b3e 9bbb
00000260: a23a 2a3d 4f23 063d d849 1bbd e7a9 10bd
00000270: a641 3fbd e958 173d c6bc 29bc d2ce 96bd
00000280: f11f f43d b9c3 2cbc 6e82 9dbd 4b4e 3a3e
00000290: 19f0 d5bc 38f1 77bd 0aa1 6fbc 1bc6 cfbc
000002a0: bab6 4bbd 221d 033d 9ee0 41bc fcce 36bd
000002b0: 1cf1 7d3d 7d84 a339 2e71 15bd 98a0 a23d
000002c0: b59f 4b3a c3d5 a8bd 9455 8b3d c314 aebd
000002d0: 0d58 c6bd 7ebd 023e c27b 6cbd 6127 b0bd
000002e0: 507b e73d d422 52bd b771 8fbd 76b2 af3d
000002f0: 14d1 53bd 8750 893c 4a99 833b b57f 5b3c
00000300: 0673 0b3d 48e1 0bbd 29d0 b83c 0635 663a
00000310: 3aad 11bd 34c6 3e3d d612 28bd 3dbb 23bd
00000320: 7eba 7f3d cf75 7cbd cbf0 62bd c826 a13d
00000330: 3c98 313d 6c60 493d 34dc 723d 9ce5 d03c
00000340: ac41 293d ddeb 8b3d 424e 873c c82e 953c
00000350: 8f67 943d 88da 263c bb8a cfbc 37c7 9d3d
00000360: 86ec cc3c d0ad 4e3d 94fa 8f3d 16f1 4cbb
00000370: 7778 5b3c 0c62 cf3d b4d2 dfbc dc64 bb3c
00000380: 3ea8 d53d d3e7 58bd b0f6 ce3c 2db5 d03d
00000390: a5b6 863d df94 ec3d 1e3c 9d3d 199b 7a3d
000003a0: 9d55 cd3d 2da8 d63d 88eb 4d3d 20fe a43d
000003b0: c241 c53d c332 033d 592a 893d 1c94 b03d
000003c0: 8af4 263d 9483 513d 73ae c83d 4b0c 433d
000003d0: 4242 61bc b19c 003e 19fa 273d f65f 8cbd
000003e0: 19db ed3d e68d e33c c7af d8bd 1202 d63d
000003f0: 4d2a 283c 5f32 0b3c 7122 6e3b 91c5 993d

model_4/batch_normalization_17/batchnorm/mul_1;model_4/conv1d_9/Conv1D/Squeeze;model_4/conv1d_9/BiasAdd;model_4/conv1d_9/BiasAdd/ReadVariableOp;model_4/batch_normalization_17/batchnorm/mul;model_4/conv1d_9/Conv1D f4 [96, 1, 3, 96]
-0.042406384 0.026501888 0.09187989 -0.046951007 -0.04741248 -0.0642097 -0.024743294 0.29953903
-0.026093012 0.037203137 0.0105758775 0.043690693 0.01315825 0.005305954 0.016385995 0.016787548
-0.026259977 -0.050691977 0.014386662 -0.013432382 0.02009666 -0.027684622 0.015325232 0.027766176
-0.070389256 -0.012360432 -0.04101845 0.010960548 -0.03766661 -0.103405185 0.057450026 0.015352427
0.076448105 0.0031751764 0.0028592385 -0.15255858 -0.00842861 -0.01643606 -0.0059278845 -0.016591523
0.2388986 -0.019644776 0.0005188093 -0.033845294 -0.043290112 -0.024055408 0.03482446 0.013704704
0.014602204 -0.08307159 0.04076897 0.038269427 -0.011157469 -0.02342781 0.008892669 -0.0038280168
0.02650413 0.01532474 0.06155204 -0.029285755 -0.09686816 -0.08289791 -0.016079195 0.030394869
0.009145772 0.0456973 -0.016190665 0.050488338 -0.06565276 -0.0055495207 -0.056656387 -0.10970101
-0.008258727 -0.029134678 -0.0038874072 -0.03356919 -0.005932695 0.006575697 0.0050724866 -0.028697968
0.0024078158 0.0006656601 -0.057923 0.008409206 0.061772034 -0.028137226 -0.00870645 -0.019068502
-0.025163332 -0.014634617 -0.037853252 0.0019196995 0.088964514 0.009127105 -0.011403249 0.0023308494
-0.05273348 0.026447099 0.097435206 -0.055957917 -0.048029255 -0.07705856 -0.028961342 0.3088166
-0.013823093 0.03593315 0.0134899095 0.04080742 0.012639508 0.0059461473 0.013270112 0.01640094
-0.02764073 -0.063226655 0.013668108 -0.015047603 0.021538598 -0.026090717 0.0090922555 0.026883319
-0.063948035 -0.020680776 -0.041623533 0.009127588 -0.0399288 -0.11084361 0.06883631 0.0057844436
0.083155036 0.0018307247 0.0019944427 -0.14431852 -0.008553479 -0.018187294 -0.006077678 -0.022423627
0.24855483 -0.022208229 -0.01302845 -0.036583334 -0.04523789 -0.021517085 0.036763355 0.013237043
0.018214712 -0.07338405 0.043993134 0.03633363 -0.012752454 -0.017414635 0.009188843 -0.005721344
0.026021129 0.01203586 0.06358648 -0.030086998 -0.102895655 -0.08233395 -0.018981306 0.027162561
0.0071877325 0.052996118 -0.00026604437 0.053531125 -0.08003852 -0.0073553235 -0.061548617 -0.12488427
-0.0086107245 -0.030469717 -0.001047228 -0.04591146 -0.0075057736 0.0073423996 0.0037820025 -0.026282454
0.0020357408 -0.0005086566 -0.05781026 0.0044861124 0.07178448 -0.028384477 -0.008117203 -0.019430812
-0.026879102 -0.016685149 -0.052670747 0.00027473643 0.09622727 0.0081713535 -0.006032307 0.00086100306
-0.036382955 0.023506006 0.08346141 -0.03284988 -0.044715237 -0.052436117 -0.030057283 0.2762692
0.002598536 0.033776514 0.011660951 0.039480522 0.010869011 0.0042493376 0.013580997 0.016969724
-0.02677932 -0.05352333 0.012585532 -0.016658438 0.022367898 -0.022900285 0.007809428 0.02511719
-0.058706883 0.0011677501 -0.041169677 0.0088410815 -0.038364697 -0.10208589 0.06530421 0.009392533
0.07986126 -0.0003073251 0.0005044597 -0.13624655 -0.0074742944 -0.017503237 -0.005811204 -0.015622751
0.2132987 -0.02317023 0.008553413 -0.035301458 -0.041041262 -0.020393219 0.03392446 0.011554915
0.0174863 -0.07093997 0.04084388 0.038259037 -0.013976832 -0.0001875005 0.0064080893 -0.0072804987
0.025444578 0.012484526 0.06278546 -0.03085564 -0.09847061 -0.08172215 -0.019277073 0.027953252
00000000: 51b2 2dbd 7d1a d93c 862b bc3d b34f 40bd
00000010: 9733 42bd 6080 83bd 73b2 cabc 2e5d 993e
00000020: 03c1 d5bc 5162 183d 7246 2d3c 03f5 323d
00000030: b395 573c 91dd ad3b ec3b 863c 0a86 893c
00000040: 2a1f d7bc 64a2 4fbd 09b6 6b3c 7e13 5cbc
00000050: c0a1 a43c dcca e2bc af16 7b3c e475 e33c
00000060: 3e28 90bd 6983 4abc f602 28bd df93 333c
00000070: 4e48 1abd 19c6 d3bd b850 6b3d bf88 7b3c
00000080: d390 9c3d 9f16 503b 1062 3b3b 5138 1cbe
00000090: 2718 0abc eba4 86bc b33e c2bb f2ea 87bc
000000a0: d6a1 743e 15ee a0bc b400 083a 5da1 0abd
000000b0: f950 31bd d90f c5bc 18a4 0e3d b289 603c
000000c0: 153e 6f3c 7021 aabd 5dfd 263d 67c0 1c3d
000000d0: d1cd 36bc aeeb bfbc 8fb2 113c 77df 7abb
000000e0: 301f d93c 9e14 7b3c fe1d 7c3d aee8 efbc
000000f0: d062 c6bd 61c6 a9bd 84b8 83bc a9fe f83c
00000100: 26d8 153c 182d 3b3d 49a2 84bc dccc 4e3d
00000110: f474 86bd c1d8 b5bb 8710 68bd ecaa e0bd
00000120: 9d4f 07bc d9ab eebc dfc3 7ebb d97f 09bd
00000130: 0e67 c2bb f278 d73b 1a37 a63b 0018 ebbc
00000140: 72cc 1d3b b17f 2e3a ab40 6dbd c4c6 093c
00000150: ac04 7d3d 0a80 e6bc 80a5 0ebc 8c35 9cbc
00000160: 5523 cebc 08c6 6fbc 030c 1bbd 6d9e fb3a
00000170: 0733 b63d da89 153c b1d4 3abc 2ac1 183b
00000180: 10ff 57bd 96a7 d83c 1c8c c73d 2134 65bd
00000190: 53ba 44bd e1d0 9dbd 5640 edbc 361d 9e3e
000001a0: 417a 62bc a42e 133d c804 5d3c ae25 273d
000001b0: f015 4f3c e6d7 c23b e26a 593c 445b 863c
000001c0: d06e e2bc fa7c 81bd 33f0 5f3c 398a 76bc
000001d0: b771 b03c 33bc d5bc aff7 143c 683a dc3c
000001e0: 30f7 82bd bb6a a9bc 707d 2abd e18b 153c
000001f0: 628c 23bd f901 e3bd 0dfa 8c3d 6e8b bd3b
00000200: 304d aa3d edf4 ef3a 32b5 023b 3cc8 13be
00000210: e423 0cbc 85fd 94bc 4227 c7bb c1b1 b7bc
00000220: 2885 7e3e 08ee b5bc 4875 55bc 68d8 15bd
00000230: 5e4b 39bd 9944 b0bc 2c95 163d 2fe0 583c
00000240: 0537 953c 604a 96bd 2532 343d 93d2 143d
00000250: abef 50bc 23a9 8ebc cd8c 163c 1d7a bbbb
00000260: 432a d53c 0e32 453c a139 823d 0279 f6bc
00000270: f5ba d2bd b49e a8bd af7e 9bbc 0584 de3c
00000280: 1287 eb3b 7512 593d df7b 8bb9 7443 5b3d
00000290: 3ceb a3bd ed04 f1bb 671a 7cbd 53c3 ffbd
000002a0: ff13 0dbc a19b f9bc 2443 89ba a80d 3cbd
000002b0: fef2 f5bb 8398 f03b 79db 773b 4d4e d7bc
000002c0: 106a 053b 5e57 05ba 74ca 6cbd 3d00 933b
000002d0: be03 933d 9086 e8bc 04fe 04bc 5e2d 9fbc
000002e0: 9031 dcbc 4baf 88bc 48bd 57bd 800a 9039
000002f0: ce12 c53d 24e1 053c a9aa c5bb f0b4 613a
00000300: 4b06 15bd ab8f c03c d1ed aa3d 998d 06bd
00000310: 5327 37bd 41c7 56bd b13a f6bc 2873 8d3e
00000320: 334c 2a3b 3e59 0a3d 930d 3f3c 54b6 213d
00000330: f013 323c 073e 8b3b d482 5e3c 1704 8b3c
00000340: 4e60 dbbc 473b 5bbd 8c33 4e3c 4777 88bc
00000350: e23c b73c 6199 bbbc 3be6 ff3b 91c2 cd3c
00000360: a176 70bd 310f 993a 89a1 28bd 2fda 103c
00000370: 4d24 1dbd 6812 d1bd 37be 853d 24e3 193c
00000380: 4d8e a33d 7a20 a1b9 b83d 043a 3784 0bbe
00000390: edea f4bb f362 8fbc ea6b bebb 91f6 7fbc
000003a0: f96a 5a3e 7fcf bdbc 9d23 0c3c 4398 10bd
000003b0: e21a 28bd ae0f a7bc 60f4 0a3d d450 3d3c
000003c0: 6e3f 8f3c fa48 91bd ea4b 273d 82b5 1c3d
000003d0: 15ff 64bc c89b 44b9 f3fa d13b 4091 eebb
000003e0: 2671 d03c e68b 4c3c aa95 803d f8c4 fcbc
000003f0: f6aa c9bd f15d a7bd f4ea 9dbc 38fe e43c

model_4/gru_9/gru_cell/strided_slice_4 f4 [48]
-0.1851768 -0.13940755 -0.056831628 -0.009868679 -0.068508364 -0.064228 0.09260226 -0.2985569
-0.08390656 0.01356481 -0.064758696 -0.1565828 -0.18925485 -0.08295183 0.15099877 -0.051346283
-0.19957742 -0.06748207 -0.098344356 -0.4264595 -0.060387183 -0.053357292 -0.0874288 -0.15305965
-0.061616044 -0.24930139 -0.122284316 0.030937092 -0.16036305 -0.17530397 -0.044630256 -0.19979732
-0.12726197 -0.13331446 0.05278118 0.18393637 -0.09108187 -0.13722384 -0.08709085 -0.06084721
-0.057888705 -0.12746798 -0.092383966 -0.009844699 0.018440118 -0.21675214 -0.046683192 -0.20120755
00000000: fd9e 3dbe dac0 0ebe 48c8 68bd 3db0 21bc
00000010: 1d4e 8cbd f889 83bd 41a6 bd3d 73dc 98be
00000020: 34d7 abbd f03e 5e3c 35a0 84bd 3e57 20be
00000030: 06cc 41be a6e2 a9bd 6c9f 1a3e 7b50 52bd
00000040: 065e 4cbe 0a34 8abd c468 c9bd e658 dabe
00000050: 8d58 77bd 2d8d 5abd df0d b3bd abbb 1cbe
00000060: 1b61 7cbd dd48 7fbe 3370 fabd c96f fd3c
00000070: 3636 24be e282 33be 37ce 36bd ab97 4cbe
00000080: f650 02be 9683 08be 1431 583d d159 3c3e
00000090: 2289 babd 6884 0cbe b05c b2bd ed3a 79bd
000000a0: b51c 6dbd f786 02be ce33 bdbd a94b 21bc
000000b0: bb0f 973c 46f4 5dbe e036 3fbd 5a09 4ebe

model_4/gru_9/gru_cell/strided_slice_3 f4 [48]
0.30734327 0.06881912 0.16511576 0.18925834 0.22108267 0.16376187 0.14105065 0.19036092
-0.04243066 0.15164526 0.0651432 0.21675017 0.18759324 0.11033179 0.12535414 0.14638637
0.4947871 0.48725322 0.24620834 0.16640735 0.062393703 -0.034780137 0.09734165 0.05663083
-0.00015856928 0.21848539 0.12357963 0.18395354 0.08146903 0.40932548 0.11161566 0.19511884
0.17480305 0.025951045 0.18483998 0.2052123 0.095996596 0.2439238 0.42601728 0.19018446
0.18697916 0.0953061 0.0788668 0.15494259 0.14690027 0.23586076 -0.11159846 0.29139528
00000000: 195c 9d3e 0af1 8c3d 1b14 293e f0cc 413e
00000010: 7f63 623e 31b1 273e 956f 103e f9ed 423e
00000020: c6cb 2dbd e548 1b3e cc69 853d c2f3 5d3e
00000030: 7118 403e a2f5 e13d d65c 003e 4fe6 153e
00000040: bc54 fd3e 4179 f93e 0a1e 7c3e b066 2a3e
00000050: 8a90 7f3d 9e75 0ebd 0f5b c73d bbf5 673d
00000060: 9e45 26b9 a2ba 5f3e 5117 fd3d 515e 3c3e
00000070: 3cd9 a63d 1c93 d13e c096 e43d 3ccd 473e
00000080: 92ff 323e 4997 d43c b146 3d3e 2c23 523e
00000090: dd99 c43d 29c7 793e f01e da3e b7bf 423e
000000a0: 7777 3f3e d82f c33d eb84 a13d 45a9 1e3e
000000b0: 066d 163e 7c85 713e bc8d e4bd c331 953e

model_4/gru_9/gru_cell/strided_slice_5 f4 [48]
0.13442001 -0.024795547 -0.13683753 0.03807262 -0.16092037 -0.15703145 0.08168366 -0.16269515
0.045886878 -0.06711455 0.03201797 -0.34098864 -0.024714224 0.14558864 0.19413505 -0.30573118
0.21266352 -0.22716004 -0.14090243 -0.17960507 -0.18491033 -0.08461199 -0.24134488 -0.03644488
-0.05268462 -0.122967176 0.008815587 0.1016299 -0.032245018 -0.1905955 0.07440446 -0.011569281
-0.34845763 -0.27328843 0.009806087 0.20065081 -0.0646572 0.0544333 -0.06372421 0.07178818
0.052258026 -0.003839723 0.101006486 0.0070578344 -0.32894838 -0.19886513 0.09997251 -0.11409026
00000000: 66a5 093e 0820 cbbc 231f 0cbe 09f2 1b3d
00000010: 4fc8 24be dacc 20be c349 a73d 8f99 26be
00000020: e1f3 3b3d 5a73 89bd 4625 033d 1096 aebe
00000030: 7c75 cabc 3015 153e 57cb 463e cc88 9cbe
00000040: 77c4 593e a49c 68be ba48 10be 64ea 37be
00000050: 2259 3dbe 0d49 adbd 1d23 77be 3a47 15bd
00000060: d4cb 57bd 37d6 fbbd 406f 103c 5623 d03d
00000070: 5a13 04bd 772b 43be 5e61 983d 158d 3dbc
00000080: 0a69 b2be 76ec 8bbe b6a9 203c 6877 4d3e
00000090: fe6a 84bd 74f5 5e3d d781 82bd ae05 933d
000000a0: 830c 563d dda3 7bbb 7ddc ce3d 6845 e73b
000000b0: ec6b a8be 4da3 4bbe 63be cc3d 27a8 e9bd

model_4/gru_9/gru_cell/strided_slice_11 f4 [48]
0.067635596 -0.015869653 -0.1167943 0.05936071 -0.044999115 -0.077221066 0.044088244 -0.14099088
-0.08295212 0.04904788 0.055819884 -0.197549 -0.06972776 0.08522085 0.17262621 -0.16148981
0.10099554 -0.12203632 -0.11627794 0.0015266406 -0.07606495 -0.10026544 -0.07239334 0.07077601
-0.041475017 -0.14656042 -0.0035327675 0.04665266 0.0074436385 -0.09767176 -0.004401789 -0.008318628
-0.18683164 -0.19252981 0.038346935 0.16647173 -0.039995536 0.070847854 -0.0366989 0.06393514
0.1618535 0.0019836747 0.110745385 0.018751105 -0.29314974 -0.05093747 0.026751151 -0.07356781
00000000: 8884 8a3d 1301 82bc da31 efbd 3724 733d
00000010: fe50 38bd 1426 9ebd e095 343d ea5f 10be
00000020: cde2 a9bd 6ee6 483d 64a3 643d 494a 4abe
00000030: 6ecd 8ebd 4588 ae3d edc4 303e 965d 25be
00000040: c0d6 ce3d 2eee f9bd 2123 eebd 8f19 c83a
00000050: f1c7 9bbd f857 cdbd f642 94bd 03f3 903d
00000060: b5e1 29bd ef13 16be 0186 67bb dc16 3f3d
00000070: c4e9 f33b 2208 c8bd e23c 90bb db4a 08bc
00000080: cb50 3fbe 8926 45be ad11 1d3d 9177 2a3e
00000090: 5cd2 23bd ae18 913d 9651 16bd 6df0 823d
000000a0: edbc 253e 8a00 023b 7ace e23d eb9b 993c
000000b0: b917 96be cfa3 50bd 3b25 db3c b8aa 96bd

model_4/gru_8/gru_cell/strided_slice_4 f4 [96]
-0.22610182 -0.056159206 -0.06636552 -0.0031718074 -0.073603846 0.22724287 -0.077682145 -0.08958512
-0.104456834 -0.040949486 0.038757756 0.06288392 -0.39215988 -0.04879502 -0.27983254 -0.086994044
-0.13888614 -0.2807398 -0.17740884 -0.10560368 -0.22759998 0.1414259 0.025299028 -0.18644103
0.103425324 -0.044045787 -0.0008613483 0.07148384 0.0858291 -0.08584078 -0.008134026 -0.3081094
-0.04411022 -0.05977027 -0.095135465 -0.072372966 -0.0040764287 -0.29769164 0.011200067 0.12427188
-0.048884045 0.008738843 0.13880336 0.15920806 0.025365444 0.023060143 0.003614093 -0.14644216
0.0819587 0.09926543 -0.0011017019 -0.14626564 -0.1604191 -0.062317792 0.18324679 -0.051164623
0.03557605 -0.1248855 -0.01945556 -0.005858377 -0.09166111 -0.10163331 0.10609039 -0.23244713
-0.103874646 -0.15146397 0.023611203 -0.12150323 -0.028516494 -0.32247353 -0.2113542 0.05636109
-0.0089929765 -0.059197925 0.15503503 -0.09608824 -0.12594342 0.005101535 -0.3330588 0.018858733
-0.25318953 -0.09503269 0.075049445 -0.17697552 -0.15198936 -0.0344665 -0.11504214 0.11558643
-0.0061382563 -0.115709946 -0.0032985902 -0.10830996 -0.21256547 -0.048935726 0.174677 0.0021347115
00000000: 3c87 67be 3207 66bd a5ea 87bd 19de 4fbb
00000010: 9dbd 96bd 5bb2 683e d117 9fbd 6778 b7bd
00000020: 77ed d5bd a6ba 27bd 74c0 1e3d 49c9 803d
00000030: 2ec9 c8be 49dd 47bd 3646 8fbe ef29 b2bd
00000040: 2b38 0ebe 21bd 8fbe aaaa 35be be46 d8bd
00000050: f80f 69be f3d1 103e e83f cf3c 66ea 3ebe
00000060: a8d0 d33d 5b69 34bd 1bcc 61ba 1f66 923d
00000070: 2bc7 af3d 4acd afbd 9444 05bc 84c0 9dbe
00000080: ebac 34bd acd1 74bd 62d6 c2bd 4738 94bd
00000090: 9093 85bb 0a6b 98be 7c80 373c 4182 fe3d
000000a0: a33a 48bd 5d2d 0f3c 7822 0e3e 7007 233e
000000b0: 31cb cf3c a0e8 bc3c 6bda 6c3b eff4 15be
000000c0: f7d9 a73d ac4b cb3d fb66 90ba a9c6 15be
000000d0: e844 24be f140 7fbd 0ca5 3b3e ff91 51bd
000000e0: 31b8 113d f8c3 ffbd 4461 9fbc a1f7 bfbb
000000f0: d2b8 bbbd 2025 d0bd eb45 d93d 9f06 6ebe
00000100: 3bbc d4bd 5f19 1bbe 486c c13c afd6 f8bd
00000110: 6c9b e9bc 401b a5be 3c6d 58be e3da 663d
00000120: 4757 13bc 8679 72bd 81c1 1e3e e9c9 c4bd
00000130: 50f7 00be c72a a73b af86 aabe a17d 9a3c
00000140: 0fa2 81be 80a0 c2bd 86b3 993d 1239 35be
00000150: 19a3 1bbe bf2c 0dbd 379b ebbd 94b8 ec3d
00000160: 6d23 c9bb 56f9 ecbd 292d 58bb 9dd1 ddbd
00000170: c3aa 59be d470 48bd 87de 323e 84e6 0b3b

model_4/gru_8/gru_cell/strided_slice_3 f4 [96]
0.15444311 0.035359893 0.2818428 0.6119894 0.0036291534 0.30910495 0.17389995 0.18440585
0.47398466 0.23894966 0.1359816 0.2998449 -0.13765015 0.39721543 0.06634034 0.09360294
0.12463277 0.14669399 0.08546327 0.10087337 -0.08449752 -0.21888794 0.09556308 0.09498296
0.47110364 0.005873143 0.10905865 0.57932436 -0.051555768 0.15639335 -0.25545362 0.09194224
0.083943106 -0.20764495 0.15657172 0.10086694 0.2836292 0.086779065 0.41078687 -0.014417822
-0.093871005 -0.35133287 0.33383915 0.3720922 0.018991126 0.39416173 -0.17254189 0.039608404
0.47888517 0.568897 0.09375482 0.12061392 0.061923124 0.19163774 0.032555085 0.15757957
-0.021648122 0.017692126 0.07075146 0.15290353 -0.057093184 0.094698586 0.4163318 -0.057876587
-0.038947932 0.05851948 0.094203696 0.052555937 0.022980904 0.0871354 0.14073399 -0.12940134
0.6101647 -0.069914244 0.55119616 -0.15297927 0.17995436 -0.0034546503 0.043212667 -0.16067864
0.040436927 -0.056602426 0.5189803 0.14510322 0.09749243 0.23019375 -0.22149214 0.20325504
0.23087709 -0.28798708 0.03417544 -0.050960105 0.040031716 -0.14198321 0.38113374 0.111232206
00000000: 5626 1e3e 89d5 103d b34d 903e 56ab 1c3f
00000010: 17d7 6d3b 0143 9e3e d412 323e e3d4 3c3e
00000020: 1eae f23e 38af 743e c33e 0b3e 4585 993e
00000030: 29f4 0cbe d25f cb3e 72dd 873d e6b2 bf3d
00000040: 773f ff3d f336 163e 5e07 af3d b396 ce3d
00000050: 090d adbd 2924 60be 93b6 c33d 6d86 c23d
00000060: 7f34 f13e 7f73 c03b 245a df3d 9a4e 143f
00000070: 242c 53bd 9425 203e d1ca 82be 374c bc3d
00000080: 5dea ab3d e1a0 54be 5654 203e 5493 ce3d
00000090: d937 913e 39b9 b13d a852 d23e ba38 6cbc
000000a0: 713f c0bd e7e1 b3be f7ec aa3e de82 be3e
000000b0: 4793 9b3c 91cf c93e d2ae 30be 6c3c 223d
000000c0: 7030 f53e 3ca3 113f 8702 c03d 6e04 f73d
000000d0: 1aa3 7d3d af3c 443e 7b58 053d 8a5c 213e
000000e0: 6757 b1bc 14ef 903c 24e6 903d be92 1c3e
000000f0: 8bda 69bd 55f1 c13d 7129 d53e 0010 6dbd
00000100: de87 1fbd 1fb2 6f3d deed c03d e544 573d
00000110: 7342 bc3c 0b74 b23d 921c 103e c981 04be
00000120: c133 1c3f 332f 8fbd 311b 0d3f 99a6 1cbe
00000130: f545 383e 6a67 62bb c4ff 303d f188 24be
00000140: 31a1 253d f2d7 67bd e5db 043f f095 143e
00000150: 1caa c73d e9b7 6b3e d6ce 62be 1722 503e
00000160: 0b6b 6c3e 0b73 93be 8cfb 0b3d 8bbb 50bd
00000170: 4cf8 233d 0c64 11be f623 c33e b6cd e33d

model_4/gru_8/gru_cell/strided_slice_5 f4 [96]
0.0069328942 0.03265388 -0.022937784 0.0059113028 0.021717442 0.056765687 -0.0862216 0.011408278
0.05743802 -0.027426489 0.0265798 -0.08428216 -0.075907886 0.049146082 0.062891535 -0.015454597
-0.10691899 0.1306565 -0.010668504 0.04362563 -0.030971648 -0.098792896 0.051986273 -0.028268987
-0.016974783 0.03784095 0.05236199 0.10980335 0.12838906 0.06092104 -0.028630316 0.04636063
0.029202532 0.02729975 -0.06965521 0.09430561 -0.009881048 0.082832254 -0.013278903 0.015357409
0.0012572196 0.012221512 -0.057083607 -0.10426745 0.008167799 0.035438914 -0.07190592 0.034788407
0.00503401 -0.06293229 0.1075547 0.016262762 -0.026671708 -0.031663135 -0.09627832 0.10863778
0.022816967 -0.03241882 -0.048464354 0.018429218 0.0077547203 0.004669805 0.014378817 -0.039889462
-0.018347993 0.08676681 -0.09603703 -0.06086261 0.05220726 -0.013283647 0.009087857 -0.00901572
-0.0030993377 0.025770718 0.11145938 0.03347979 -0.027975298 -0.07923092 -0.034493554 0.057966184
-0.0910139 -0.08803775 0.08743067 -0.07429723 -0.00331045 -0.056375045 0.043231647 0.04987771
0.04841834 -0.015368301 0.0067681586 -0.026472831 -0.021335492 0.023747541 -0.09123885 -0.04365323
00000000: 552d e33b 13c0 053d 05e8 bbbc 9ab3 c13b
00000010: c7e8 b13c 2383 683d f394 b0bd c9e9 3a3c
00000020: 2144 6b3d 84ad e0bc e1bd d93c 209c acbd
00000030: 9875 9bbd 674d 493d 47cd 803d 4735 7dbc
00000040: 58f8 dabd d1ca 053e f3ca 2ebc cab0 323d
00000050: 41b8 fdbc ee53 cabd 8fef 543d 5d94 e7bc
00000060: b30e 8bbc 1dff 1a3d 8779 563d 94e0 e03d
00000070: 6c78 033e 5788 793d 208a eabc a5e4 3d3d
00000080: 263a ef3c baa3 df3c 64a7 8ebd 4d23 c13d
00000090: 1fe4 21bc f5a3 a93d c28f 59bc a49d 7b3c
000000a0: 4ac9 a43a bd3c 483c 80d0 69bd 2c8a d5bd
000000b0: 3bd2 053c 6528 113d 6943 93bd 4a7e 0e3d
000000c0: 56f4 a43b a5e2 80bd a345 dc3d 7c39 853c
000000d0: a07e dabc 34b1 01bd 912d c5bd 7c7d de3d
000000e0: a6ea ba3c 99c9 04bd 8f82 46bd dff8 963c
000000f0: 4f1b fe3b 2a05 993b 2195 6b3c 2263 23bd
00000100: 884e 96bc ccb2 b13d 10af c4bd 124b 79bd
00000110: 48d7 553d a7a3 59bc 3ce5 143c acb6 13bc
00000120: 421e 4bbb 1d1d d33c d144 e43d 1b22 093d
00000130: 742c e5bc d243 a2bd 1d49 0dbd f36d 6d3d
00000140: 7f65 babd 234d b4bd da0e b33d 2529 98bd
00000150: 22f4 58bb 85e9 66bd ab13 313d 924c 4c3d
00000160: 4f52 463d 54cb 7bbc 6ec7 dd3b 8ddd d8bc
00000170: c5c7 aebc 348a c23c 6fdb babd bbcd 32bd

model_4/gru_8/gru_cell/strided_slice_11 f4 [96]
0.05790266 0.013130416 0.016120851 -0.0079015605 0.008531826 0.039016627 -0.10180823 0.02001371
-0.0019898065 -0.007251718 0.040619113 -0.03768449 -0.037680537 -0.0006052577 0.012508784 -0.012326567
-0.091544606 -0.024545848 0.041395206 -0.012279874 -0.015620487 -0.023996893 0.033827666 -0.056555778
-0.004098785 0.082757674 -0.002759528 0.085581064 0.048189767 0.01699036 0.00024298356 0.02879379
0.06736648 0.030050077 0.035384376 0.007986737 -0.043330584 0.06275088 0.044972207 0.044488482
-0.0979316 -0.010852193 -0.005040974 -0.059108898 0.05031537 -0.026093086 -0.06957501 -0.028966602
0.0032129039 -0.04227817 0.015450645 -0.06252525 0.025152711 -0.07505404 0.010489155 0.02312865
0.018563544 -0.010442728 -0.029373523 0.0025561408 0.035986774 -0.035893656 0.043794308 -0.015425803
-0.0048036273 0.022819163 -0.16741842 -0.044375136 0.008733324 -0.01452636 -0.072430804 -0.046645563
-0.016659722 0.01038695 0.105677046 0.032468516 0.023726728 -0.09247781 0.035803057 0.012723446
0.053025946 -0.058148917 0.047580868 -0.06466417 0.012930494 -0.0785849 -0.020332567 0.048907094
0.013438941 -0.05610547 -0.07935414 0.030155996 0.0667662 0.033941105 -0.07262616 -0.12410081
00000000: 572b 6d3d f520 573c e00f 843c 8c75 01bc
00000010: 12c9 0b3c e6cf 1f3d d580 d0bd cbf3 a33c
00000020: 6a67 02bb d29f edbb 3a60 263d 0d5b 1abd
00000030: e856 1abd 28aa 1eba a5f1 4c3c 5ff5 49bc
00000040: bd7b bbbd 6014 c9bc 058e 293d 8631 49bc
00000050: 12ed 7fbc 2295 c4bc e18e 0a3d 08a7 67bd
00000060: 1a4f 86bb db7c a93d 33d9 34bb 2045 af3d
00000070: a262 453d 5e2f 8b3c 67c9 7e39 f4e0 eb3c
00000080: 70f7 893d 942b f63c 35ef 103d ceda 023c
00000090: 697b 31bd 8983 803d c734 383d 8e39 363d
000000a0: 5d90 c8bd 66cd 31bc c12e a5bb 2c1c 72bd
000000b0: 7d17 4e3d 2bc1 d5bc 587d 8ebd 5e4b edbc
000000c0: 958f 523b e02b 2dbd b424 7d3c 3d0d 80bd
000000d0: 0f0d ce3c efb5 99bd b4da 2b3c 4b78 bd3c
000000e0: 9312 983c fa17 2bbc bea0 f0bc ed84 273b
000000f0: de66 133d 3a05 13bd a961 333d 82bc 7cbc
00000100: bf67 9dbb 41ef ba3c bc6f 2bbe b4c2 35bd
00000110: 3716 0f3c f8ff 6dbc 9a56 94bd 6b0f 3fbd
00000120: f879 88bc 072e 2a3c 356d d83d b5fd 043d
00000130: 8e5e c23c 0265 bdbd 3aa6 123d 0076 503c
00000140: bc31 593d 8f2d 6ebd 28e4 423d a66e 84bd
00000150: 6cda 533c 1ff1 a0bd 7c90 a6bc ce52 483d
00000160: 012f 5c3c d9ce 65bd 6c84 a2bd b509 f73c
00000170: b8bc 883d d405 0b3d 06bd 94bd 9128 febd

model_4/batch_normalization_19/batchnorm/sub f4 [48]
-0.54990166 0.43259135 0.86504585 -0.24023288 0.80091393 0.46669328 -0.17018726 0.48704773
0.08350153 -0.19652197 -0.58284485 1.9529898 0.35865223 -0.7358307 -1.3771011 0.9556534
-1.2183616 1.3142521 0.9550338 0.78179663 0.44947255 0.56263685 1.5984079 0.031217203
0.28023702 0.63163334 -0.38578618 -0.49906573 0.27577788 1.1444546 -0.086334944 -0.21248055
1.7752084 1.0050306 -0.52457577 -1.1080629 0.757818 -0.44797254 0.18785644 -0.65340805
-0.13531016 -0.00045338273 -0.86919945 0.27192417 1.3763199 0.7791779 -0.1270978 -0.1364189
00000000: 5bc6 0cbf 9d7c dd3e a573 5d3f 9cff 75be
00000010: b208 4d3f 6cf2 ee3e 9245 2ebe 525e f93e
00000020: da02 ab3d 0e3d 49be 5235 15bf 92fb f93f
00000030: 44a1 b73e 675f 3cbf d944 b0bf b4a5 743f
00000040: 46f3 9bbf 6a39 a83f 187d 743f d323 483f
00000050: 4421 e63e f808 103f a198 cc3f 38bb ff3c
00000060: 3a7b 8f3e b9b2 213f c485 c5be 8b85 ffbe
00000070: c232 8d3e 7d7d 923f 60d0 b0bd 8094 59be
00000080: 073a e33f d8a4 803f 994a 06bf 01d5 8dbf
00000090: 5c00 423f a85c e5be 705d 403e c045 27bf
000000a0: bf8e 0abe 00b4 edb9 db83 5ebf a539 8b3e
000000b0: 402b b03f 3478 473f ed25 02be 65b1 0bbe

model_4/batch_normalization_19/batchnorm/mul f4 [48]
3.839269 3.5743752 4.0645328 2.91697 3.6883576 3.6999602 2.9249575 3.9397767
3.0935645 3.2305453 3.1640534 5.1018963 4.145635 3.4170334 3.3736522 3.5924165
4.207113 4.961911 3.8749955 3.6154416 3.1630907 3.1965063 4.9776855 3.3903425
2.9898486 4.7718043 3.2214007 3.1729462 3.6996818 4.189343 3.4261258 3.628296
4.575624 3.9826796 3.2564933 3.2789693 3.473555 3.3879492 3.9342551 3.7969291
3.7790275 3.5567605 3.5973697 2.926811 3.719178 3.733666 3.0033765 3.412122
00000000: 95b6 7540 90c2 6440 a710 8240 a3af 3a40
00000010: 0d0e 6c40 26cc 6c40 8132 3b40 4d25 7c40
00000020: f6fc 4540 41c1 4e40 da7f 4a40 bc42 a340
00000030: 0ba9 8440 adb0 5a40 ebe9 5740 27ea 6540
00000040: aba0 8640 fac7 9e40 edff 7740 6563 6740
00000050: 1470 4a40 8f93 4c40 3349 9f40 5ffb 5840
00000060: ae59 3f40 9fb2 9840 6e2b 4e40 8d11 4b40
00000070: 96c7 6c40 190f 8640 a545 5b40 0036 6840
00000080: 836b 9240 39e4 7e40 636a 5040 a2da 5140
00000090: ba4e 5e40 29d4 5840 d6ca 7b40 e300 7340
000000a0: 96db 7140 f7a1 6340 4e3b 6640 df50 3b40
000000b0: 0307 6e40 62f4 6e40 5237 4040 3560 5a40

model_4/batch_normalization_18/batchnorm/sub f4 [96]
-0.10178754 -0.7686645 -0.18992391 -0.8294718 0.06761105 -0.5731547 0.09079845 -0.58877975
-0.37214398 -0.3684606 -1.0432276 0.33577743 -0.34224516 -0.7252798 -0.39480993 -0.43505517
-0.0014488362 0.51600456 -0.09010118 0.5059634 -0.5499698 -0.13655034 -0.045978516 -0.92658573
0.89303595 0.56106174 0.13058254 -0.69982994 0.05605738 -0.12664258 0.33883703 -0.24699175
-0.8338563 -0.083209515 -0.12272234 -0.33066976 -0.49011248 -0.03138674 0.6614182 0.27119654
-0.43011254 0.44988653 1.325941 0.9954854 -0.047443412 -0.7508872 -0.30889726 -0.0046279468
0.7083378 1.0741246 0.17248982 -0.13239503 -0.12742463 -0.5366265 0.7642273 -0.09542651
0.29246402 -0.33658072 -0.1408721 -0.5149039 0.15710528 -0.12887424 0.5364907 0.2774508
-0.26736337 -0.025497884 -0.31865278 0.09366816 -0.6303549 0.732502 -0.075212896 0.17782708
-0.7857692 -0.21750563 -0.75765973 0.3358634 -0.00079663843 0.48404926 -0.2513407 -0.6723735
0.23093854 -0.1885742 -1.11961 0.4829904 0.54328436 -0.066770315 0.37355545 0.18137044
-0.056975693 0.9007222 -0.9798989 0.17544815 -0.090918034 -0.7416534 -0.31816706 -0.5113573
00000000: fc75 d0bd 32c7 44bf 6a7b 42be 4458 54bf
00000010: aa77 8a3d 44ba 12bf 8af4 b93d 45ba 16bf
00000020: a889 bebe dea6 bcbe 7b88 85bf 05eb ab3e
00000030: c23a afbe f0ab 39bf 8724 cabe 8dbf debe
00000040: e0e6 bdba e018 043f f886 b8bd d186 013f
00000050: d2ca 0cbf dad3 0bbe f853 3cbd b934 6dbf
00000060: 019e 643f bea1 0f3f 6eb7 053e 0e28 33bf
00000070: 6c9c 653d 98ae 01be 0c7c ad3e 68eb 7cbe
00000080: 9b77 55bf c069 aabd da55 fbbd 8c4d a9be
00000090: 06f0 fabe 628f 00bd b452 293f 46da 8a3e
000000a0: b637 dcbe 8757 e63e 6fb8 a93f 22d8 7e3f
000000b0: 0654 42bd 253a 40bf c827 9ebe 08a6 97bb
000000c0: a055 353f ea7c 893f 2ca1 303e 9092 07be
000000d0: 9a7b 02be 5b60 09bf 66a4 433f f96e c3bd
000000e0: d8bd 953e 4f54 acbe c740 10be bed0 03bf
000000f0: 35e0 203e 9cf7 03be 7457 093f 080e 8e3e
00000100: dae3 88be f0e0 d0bc 7526 a3be 18d5 bf3d
00000110: f05e 21bf 4085 3b3f 3809 9abd 4d18 363e
00000120: 2c28 49bf ccb9 5ebe fdf5 41bf 4af6 ab3e
00000130: 80d5 50ba 4ed5 f73e baaf 80be ab20 2cbf
00000140: 277b 6c3e 9819 41be 614f 8fbf 854a f73e
00000150: af14 0b3f e0be 88bd a942 bf3e 2cb9 393e
00000160: 585f 69bd bb95 663f a8da 7abf aea8 333e
00000170: 3c33 babd ffdc 3dbf cbe6 a2be 50e8 02bf

model_4/batch_normalization_18/batchnorm/mul f4 [96]
13.152931 6.1489816 5.0779414 2.9179103 6.3621526 2.380312 3.8105748 5.684517
1.268801 5.838045 5.818383 4.0791306 13.701128 3.6729531 6.2223077 8.783639
4.3687034 29.242739 12.420379 3.460918 9.400521 4.2246037 2.6862807 12.596612
3.0575643 8.9355545 5.4215026 4.0035925 12.774866 4.57075 4.9654574 10.259373
11.019724 5.5717874 5.58415 3.932128 2.049338 15.632134 3.1612773 2.8667185
4.744491 7.117246 5.079043 3.2530265 3.866424 3.0832078 6.6881285 4.164982
2.4777105 4.171671 4.5923605 17.607735 5.043102 4.396344 4.1194654 6.2211905
4.1116223 13.856985 5.4163227 4.720978 9.453166 3.5008678 2.7521088 14.119385
4.511234 7.7452526 6.5335717 10.759464 5.15833 13.070454 5.4740663 3.5613647
3.4126 6.347601 2.3342545 4.283662 8.621435 2.8369312 19.863373 4.390799
20.17862 4.9540615 5.645021 7.273392 5.2342215 4.815168 4.0518355 2.7472508
7.9041724 5.97036 6.8455873 5.6904354 7.9694624 4.231922 2.7563062 4.1865835
00000000: 6872 5241 75c4 c440 7f7e a240 0bbf 3a40
00000010: c196 cb40 0857 1840 75e0 7340 90e7 b540
00000020: 1268 a23f 44d1 ba40 3230 ba40 3d88 8240
00000030: d237 5b41 aa11 6b40 251d c740 c989 0c41
00000040: 6bcc 8b40 21f1 e941 dfb9 4641 ae7f 5d40
00000050: 8968 1641 f42f 8740 06ec 2b40 b98b 4941
00000060: 22af 4340 08f8 0e41 f37c ad40 6e1d 8040
00000070: da65 4c41 9643 9240 07e5 9e40 6426 2441
00000080: ca50 3041 154c b240 5bb1 b240 fca7 7b40
00000090: 5b28 0340 391d 7a41 5e52 4a40 5178 3740
000000a0: dfd2 9740 7bc0 e340 8587 a240 9631 5040
000000b0: 7e73 7740 4753 4540 2605 d640 8847 8540
000000c0: cf92 1e40 547e 8540 9ef4 9240 a4dc 8c41
000000d0: 1761 a140 daae 8c40 a9d2 8340 fe13 c740
000000e0: 6992 8340 36b6 5d41 8452 ad40 4012 9740
000000f0: 2b40 1741 380e 6040 8d22 3040 00e9 6141
00000100: 075c 9040 1cd9 f740 0513 d140 c426 2c41
00000110: 0a11 a540 9420 5141 8d2b af40 66ed 6340
00000120: 0a68 5a40 8c1f cb40 6d64 1540 c213 8940
00000130: 66f1 0941 4890 3540 30e8 9e41 6d81 8c40
00000140: d06d a141 ac87 9e40 03a4 b440 a1bf e840
00000150: be7e a740 db15 9a40 a3a8 8140 f5d2 2f40
00000160: fbee fc40 300d bf40 0d0f db40 0c18 b640
00000170: d605 ff40 e86b 8740 5267 3040 7ef8 8540

model_4/dense_9/BiasAdd/ReadVariableOp f4 [26]
0.20863391 0.13336638 -0.27787578 0.05325961 0.010333487 0.051722843 0.020005414 -0.106046855
-0.016187912 -0.2265793 0.009157625 0.160738 -0.122567765 -0.34703726 -0.26713282 0.7220214
0.09351677 -0.09087646 0.04040664 -0.41596326 0.31953266 0.20641887 -0.16422302 -0.23369977
-0.1465655 -0.0651356
00000000: 21a4 553e 3291 083e bc45 8ebe c026 5a3d
00000010: c94d 293c 55db 533d 65e2 a33c 182f d9bd
00000020: 839c 84bc 6704 68be dd09 163c 8198 243e
00000030: cf04 fbbd deae b1be a2c5 88be 65d6 383f
00000040: b885 bf3d 701d babd 6f81 253d 23f9 d4be
00000050: c999 a33e 785f 533e 142a 28be fe4e 6fbe
00000060: 4415 16be d065 85bd

model_4/dense_8/BiasAdd/ReadVariableOp f4 [48]
0.13409163 -0.013374617 0.14132538 0.18971203 0.09156868 0.11885828 0.1640285 0.1214757
0.24388854 0.10807863 0.093646996 0.19028744 -0.011570734 0.0890529 0.11734306 0.085973606
0.14912811 0.08298234 0.086760804 0.1737806 0.16512308 0.12887391 0.061346658 0.0011107638
0.011327959 0.06666783 0.08039264 0.111711614 0.12885275 0.12384663 0.041474972 0.16095024
0.10469556 0.047933266 0.1646842 -0.028446836 0.122021526 0.072105736 0.13583069 0.111418575
0.19410762 0.25751597 0.016715476 0.03514564 0.051940955 0.10585667 -0.02315924 0.19222581
00000000: 514f 093e 3621 5bbc 9ab7 103e df43 423e
00000010: 5c88 bb3d f86b f33d 16f7 273e 40c8 f83d
00000020: ebbd 793e 5458 dd3d ffc9 bf3d b6da 423e
00000030: 2d93 3dbc 5e61 b63d 8f51 f03d ee12 b03d
00000040: 0ab5 183e a5f2 a93d a6af b13d 8bf3 313e
00000050: 0616 293e 86f7 033e a246 7b3d 0c97 913a
00000060: e798 393c 2589 883d e5a4 a43d 0fc9 e43d
00000070: faf1 033e 4da3 fd3d a9e1 293d 24d0 243e
00000080: a06a d63d ac55 443d faa2 283e 5709 e9bc
00000090: 6ce6 f93d 2cac 933d 3317 0b3e 6c2f e43d
000000a0: 26c4 463e 22d9 833e e5ee 883c e0f4 0f3d
000000b0: 0ac0 543d 62cb d83d 72b8 bdbc d8d6 443e

model_4/gru_8/gru_cell/MatMul f4 [96, 126]
0.0005616073 0.0001854533 -3.248049e-05 -0.001300929 0.0007995778 -0.00014229576 -0.004177551 -0.001410397
-0.00072240207 -0.0025319508 -0.0016272274 -0.0010355649 -0.001632822 -0.0019485397 -0.00014188612 -0.0036296444
0.0010725514 0.00034892702 -0.0032577463 0.004846283 0.001628946 -0.0029189342 0.0047189123 0.0007857572
-0.003415688 0.0023645405 0.000776008 -0.002534423 0.0033858519 0.0007592794 -0.003680512 0.0034841697
2.1360715e-05 -0.0025798131 0.00054538395 6.3660795e-05 -0.002036265 0.003144325 -0.0004055578 -0.0012095339
0.0029701847 0.00034877993 -0.002497744 0.0007835059 0.00096329796 0.000896435 0.0009174349 -0.0006541191
-0.00037540842 -0.0018528304 -0.0018691086 -0.00023767106 0.0037105365 0.001949351 0.0014398268 -0.0022705018
-0.00013469423 0.0010784117 0.00068186247 -0.0003367409 0.0009714586 -0.0003996503 5.9092272e-05 0.00013051268
-0.0004930098 -0.0003060195 0.0008419616 0.00026622 0.00049680093 0.0011192625 0.00032643508 0.00093329226
0.004739906 3.5328667e-06 0.00016417286 0.005006761 0.0005801053 -0.0016255334 0.0019825322 -0.0024446598
0.0009374612 0.002860517 0.00023567578 0.000971986 0.0003248633 0.0015898792 0.00078190124 0.002402559
-0.0035723688 -0.0005652634 0.002952943 0.0031948271 0.0012146933 0.0024394202 0.0016711543 -0.00052581885
0.00053044385 0.0010334394 -0.00041950433 0.0028806222 -0.0025867838 0.0012233072 0.0038565914 0.0015142031
0.00031391138 0.0019691633 0.002143306 0.001372278 1.868795e-05 0.00011182219 0.0006320562 0.002119798
-0.0002847498 0.001108765 0.0027329251 0.0036885317 -0.00037320043 0.0022723565 0.000995086 0.0007078508
0.0029494977 0.001876907 0.0008022371 0.0018953738 0.0016931158 -4.3285483e-05 0.00022240137 -4.9754268e-05
-0.00025780575 5.6254747e-05 0.0003219673 0.000767024 0.0006551742 2.8443039e-05 0.0004651686 0.0005347744
0.0008534303 0.0006928435 0.0004333991 0.0011610995 0.0006894836 -0.00013187605 6.567961e-05 -6.968211e-05
0.00040747525 -0.0011448335 8.508892e-05 0.0005198959 -0.00014465486 9.01522e-06 0.00037444936 -0.0010073344
0.0007448273 4.7527963e-05 -0.00089737005 2.6936035e-05 0.0006569675 -0.00034332095 0.00033758677 -6.064876e-05
-0.00069063145 4.4207758e-05 -4.0292227e-05 -0.0011388975 0.00022679218 6.173532e-05 0.0003480548 0.0004236334
-0.00019060804 0.00054853014 0.00021009194 -5.6705736e-05 -0.000804335 8.1361264e-05 0.00020457168 -0.0010341059
-7.9920625e-05 -0.00032369705 -6.078116e-05 -1.8662286e-05 -0.00017098033 -0.0005595851 -0.00018818461 0.00019086509
-0.00079133594 0.00050882675 -0.0004980021 2.8846127e-05 0.00028169036 -0.00016898925 7.4242744e-05 0.00033919467
0.0001181378 9.4615316e-05 -1.2451139e-05 -0.000102571474 -0.0002562651 -9.651471e-05 -0.000116781725 0.0004638463
-0.00035164025 -0.00019432319 0.0011735474 -2.7840437e-05 -0.0005749892 0.0010816774 2.522684e-05 0.0010896502
0.001635231 0.000762238 -0.00084960356 0.001964193 0.0011548109 -0.0019907209 0.0007291529 0.001321859
-0.00052738783 0.0010554412 0.00043375447 -0.00060118345 0.0011841062 0.00045726655 0.0004336185 -9.638015e-05
0.00052389735 -0.00017230233 -0.00014914988 0.00023744025 -0.0007310126 0.0012574584 0.0010891713 -0.00070736
0.00015323953 0.00031473816 -1.321855e-05 -0.00022869858 0.0001232595 -0.00010312003 0.0004715189 -5.850602e-05
0.00067417894 -0.00049522484 0.0007657742 -0.00052186917 0.001188931 0.00078527525 -0.00019616797 -0.00095746206
0.00071176654 0.0013159346 0.00030051632 0.00035025406 0.00020429381 0.000120793215 0.00020489281 0.0006198251
00000000: d438 133a 3e76 4239 a93b 08b8 ef83 aaba
00000010: c29a 513a 3a35 15b9 d6e3 88bb 12dd b8ba
00000020: 955f 3dba 16ef 25bb b148 d5ba cbbb 87ba
00000030: 6a04 d6ba 2566 ffba 44c7 14b9 54df 6dbb
00000040: da94 8c3a 31f0 b639 ea7f 55bb 91cd 9e3b
00000050: 5c82 d53a 974b 3fbb 1ba1 9a3b 46fb 4d3a
00000060: bcd9 5fbb 68f6 1a3b 046d 4b3a 9018 26bb
00000070: 2be5 5d3b 610a 473a bf34 71bb ab56 643b
00000080: c92f b337 1512 29bb 19f8 0e3a a181 8538
00000090: dc72 05bb 0511 4e3b 0ca1 d4b9 3989 9eba
000000a0: 6ea7 423b 73dc b639 31b1 23bb 3164 4d3a
000000b0: d585 7c3a bcfe 6a3a 0480 703a 3179 2bba
000000c0: 77d2 c4b9 acda f2ba e1fc f4ba 5737 79b9
000000d0: 792c 733b 5e81 ff3a 92b8 bc3a b3cc 14bb
000000e0: b53c 0db9 7e59 8d3a 04bf 323a 998c b0b9
000000f0: 7ca9 7e3a 2888 d1b9 d8d9 7738 3bda 0839
00000100: 543d 01ba 3e71 a0b9 16b7 5c3a 7293 8b39
00000110: bf3b 023a 38b4 923a 6025 ab39 2fa8 743a
00000120: 3751 9b3b 3016 6d36 d125 2c39 c10f a43b
00000130: 3512 183a da0f d5ba 5fed 013b 9636 20bb
00000140: f5bf 753a 8377 3b3b bc1f 7739 e0cc 7e3a
00000150: 6a52 aa39 7e63 d03a 81f8 4c3a 4074 1d3b
00000160: 671e 6abb 2f2e 14ba 2a86 413b 4e60 513b
00000170: 5836 9f3a aede 1f3b a20a db3a 1bd7 09ba
00000180: 7c0d 0b3a 7974 873a ebf0 dbb9 d2c8 3c3b
00000190: 0887 29bb 6157 a03a debe 7c3b 3a78 c63a
000001a0: 7994 a439 140d 013b b576 0c3b 02de b33a
000001b0: 11c4 9c37 1582 ea38 93b0 253a 4fec 0a3b
000001c0: 794a 95b9 fb53 913a e01a 333b 4bbb 713b
000001d0: 1daa c3b9 d1eb 143b 8c6d 823a 108f 393a
000001e0: 5c4c 413b 8c02 f63a 384d 523a 316e f83a
000001f0: 8aeb dd3a 6f8d 35b8 6a34 6939 3daf 50b8
00000200: 1a2a 87b9 13f3 6b38 b8cd a839 1c12 493a
00000210: ffbf 2b3a f698 ee37 dfe1 f339 1a30 0c3a
00000220: bdb8 5f3a f19f 353a d839 e339 0930 983a
00000230: 76be 343a 3548 0ab9 79bd 8938 4c22 92b8
00000240: 67a2 d539 3d0e 96ba c471 b238 a049 083a
00000250: 7eae 17b9 1340 1737 be51 c439 8908 84ba
00000260: 8440 433a c358 4738 7c3d 6bba b2f4 e137
00000270: 5838 2c3a c2ff b3b9 21fe b039 1c61 7eb8
00000280: 7e0b 35ba b86b 3938 73ff 28b8 0f47 95ba
00000290: 10cf 6d39 e677 8138 207b b639 1d1b de39
000002a0: f5dd 47b9 3ccb 0f3a 204c 5c39 52d7 6db8
000002b0: 02da 52ba 7fa0 aa38 4b82 5639 d68a 87ba
000002c0: 0f9b a7b8 e2b5 a9b9 46ef 7eb8 f48c 9cb7
000002d0: 2f49 33b9 1fb1 12ba 6c53 45b9 f522 4839
000002e0: a871 4fba c962 053a 5b8c 02ba 96fa f137
000002f0: d7af 9339 b532 31b9 c5b2 9b38 f0d5 b139
00000300: c0c0 f738 366c c638 3ce5 50b7 a41b d7b8
00000310: 525b 86b9 f167 cab8 b6e8 f4b8 6630 f339
00000320: 5b5c b8b9 3cc3 4bb9 b7d1 993a e28a e9b7
00000330: dfba 16ba 12c7 8d3a 3a9e d337 98d2 8e3a
00000340: 3f55 d63a edd0 473a eeb7 5eba b1b9 003b
00000350: 065d 973a c176 02bb 9f24 3f3a 3a42 ad3a
00000360: 6640 0aba bb56 8a3a 8a69 e339 bd98 1dba
00000370: 0334 9b3a 47bd ef39 4a57 e339 b31f cab8
00000380: 2856 093a 0eac 34b9 1e65 1cb9 62f9 7839
00000390: 6da1 3fba 4dd1 a43a 86c2 8e3a 206e 39ba
000003a0: ecae 2039 7103 a539 3dc5 5db7 cfce 6fb9
000003b0: 383f 0139 2542 d8b8 3236 f739 5c64 75b8
000003c0: 62bb 303a fad1 01ba 3dbe 483a 0cce 08ba
000003d0: e8d5 9b3a eeda 4d3a 70b2 4db9 31fe 7aba
000003e0: d895 3a3a 707b ac3a 9e8e 9d39 4ea2 b739
000003f0: b437 5639 5d52 fd38 7fd8 5639 c27b 223a
