app/src/main/assets/models/calendar.tflite (tflite, 675940 bytes, 52 tensors)

model_4/batch_normalization_16/batchnorm/add_1;model_4/conv1d_8/Conv1D/Squeeze;model_4/batch_normalization_16/batchnorm/mul_1;model_4/conv1d_8/BiasAdd;model_4/conv1d_8/BiasAdd/ReadVariableOp;model_4/batch_normalization_16/batchnorm/mul;model_4/batch_normalization_16/batchnorm/sub;model_4/conv1d_8/Conv1D;model_4/conv1d_9/Conv1D f4 [96]
00000000: d989 45be 4b9d 1440 5668 a3be cde7 9abf
00000010: 136f 75be ba04 8ebe 0e81 39bf a25a 97bf
00000020: 3de8 eebf eece a23d 9a05 21bf c7f1 97be
00000030: 04ac 0cc0 5d95 93bf 6ece da3f d8d1 70bf
00000040: cd87 04c0 aa5d 79be 622e 983e ea6d b1be
00000050: 4ee5 5ebe 0c01 39bd 0848 ffbe 34ae a2bf
00000060: 0841 aabf 2e17 46bf 0166 3d3f a2dd 0bbf
00000070: 86f8 383e fc8f 1540 40fb 4d3f 8b42 bf3f
00000080: 120b a83e 46e7 1abd b100 a4bf af4f c4be
00000090: d0bd 19bf 3427 0ebe afec 7fbf f649 36bf
000000a0: dc49 c63f 34eb 41be 77a3 51bf 829c 18bf
000000b0: f79f 8bbf 6832 e53f 27b4 96bf 9048 a0be
000000c0: 5130 b6bf a05d 843e bb83 1fbf 0865 123f
000000d0: 5417 ed3f 0d51 84bf 5e50 803d 14b6 a4be
000000e0: f387 bbbe b982 09bf 7b08 c0bf 77c6 313f
000000f0: a38a 013f 72a6 d8be cd82 25bf 8a0b 8e3c
00000100: 4e53 f7bd 9fac f53f a4c8 94be ca22 3b3e
00000110: 16f9 88bf 03bd 083f 04da 79bf 8da5 3dbf
00000120: 3553 32bf c6fa 07be a681 5abe 813a 80bf
00000130: 0d2c 8fbf 31c0 3ebf 2ae6 c4be 4e41 c4bf
00000140: 6f11 a5bf f218 cdbe 66ba 823f 79e1 d9bf
00000150: 8358 a6bf e570 2bbf b421 69bf f0ff 303d
00000160: 4d48 0e3f a072 04bd 6a39 67be ba3b 90bf
00000170: 7342 a5be 93fe fb3e 749d 1abe 24a6 86be
-0.19290866 2.3221004 -0.3191554 -1.210199 -0.23968153 -0.2773798 -0.72462547 -1.1824534
-1.8664623 0.07949625 -0.6289917 -0.2967665 -2.197999 -1.1529957 1.7094247 -0.94070196
-2.0707886 -0.24352136 0.29722887 -0.3465417 -0.2176716 -0.045167014 -0.49859643 -1.2709413
-1.3301096 -0.7737912 0.7398377 -0.5463506 0.18063554 2.336913 0.804615 1.4942182
0.32820946 -0.037818216 -1.2812711 -0.38342044 -0.60055256 -0.13882142 -0.99970526 -0.71206605
1.549129 -0.18937379 -0.8189005 -0.5961381 -1.0908192 1.7906008 -1.1773728 -0.3130536
-1.4233495 0.2585268 -0.6231038 0.5718541 1.8522744 -1.0337235 0.06265329 -0.32170165
-0.3662716 -0.5371509 -1.5002588 0.6944346 0.5060217 -0.42314488 -0.6465271 0.017339487
-0.12076436 1.9193305 -0.29059327 0.1827499 -1.0701015 0.5341341 -0.9759829 -0.74080735
-0.69658214 -0.13279256 -0.2133852 -1.0017854 -1.1185318 -0.7451201 -0.3845685 -1.533243
-1.2895945 -0.40058094 1.0213134 -1.7021934 -1.2995762 -0.6696914 -0.9106705 0.04321283
0.5557907 -0.032335877 -0.22580495 -1.1268227 -0.3227726 0.49217662 -0.15099126 -0.2629863

model_4/batch_normalization_17/batchnorm/add_1;model_4/conv1d_9/Conv1D/Squeeze;model_4/batch_normalization_17/batchnorm/mul_1;model_4/conv1d_9/BiasAdd;model_4/conv1d_9/BiasAdd/ReadVariableOp;model_4/batch_normalization_17/batchnorm/mul;model_4/batch_normalization_17/batchnorm/sub;model_4/conv1d_9/Conv1D f4 [96]
00000000: b367 253e 9e6e 0a3e cb83 e33d 2118 9f3e
00000010: 7014 843e 1c1c 393f fae3 37bd ee24 50be
00000020: b735 e03d 7832 123f a72a 1dbe fc8e 203e
00000030: e20f bfbe 3a6d 4bbd d7da d63e 6d07 6a3f
00000040: 8e62 9ebe b7ef 4ebd 9d19 a3be 6093 e8bd
00000050: c141 3fbe c379 2a3d ce57 963e d793 973e
00000060: d28b 6abe 2bc1 a03d ac55 abbe 8691 723e
00000070: 9287 f33e 6158 273f 706c 6d3e 6eb5 d63e
00000080: 3cb9 1dbd ebb9 8cbe 23f7 273f c5fc b93e
00000090: 24e7 1d3f c5ba dfbd b476 ec3e 1328 debe
000000a0: ca9a 333f ad7c 5a3e 4a38 0f3e f685 e23d
000000b0: 7de6 ddbe 263c bd3e a25c 17be 89a0 fc3d
000000c0: c5ee 723e c6fc d83d bdcd 8dbe 71b2 1d3e
000000d0: 27e5 a03e ebd0 003f 362a db3e 5875 413e
000000e0: a630 b53e f20f 483c 7675 5c3e 3703 a7be
000000f0: 692f c5bd c91a 993e 6024 3a3f cac8 c53e
00000100: 1bf7 a13e 59b9 dc3d 8e94 703e d4f0 513e
00000110: 01ee 1cbe b744 f73d 78ae 153f 625a e73e
00000120: eb9f d53e 62f1 cdbd f9e9 e93e 2681 d5be
00000130: 9204 603e f3fd c83e 0064 053f 3265 ba3c
00000140: 10b9 0abe 9085 80be cacd e93e 9d72 503e
00000150: ca12 b13c b5a2 ff3d c23f 403e 85f1 98be
00000160: b070 5fbe 6d3e aabe 03ca 9ebe e549 0fbf
00000170: ea69 62be 492e 053f ccd4 cc3e 5d8b 93be
0.1615284 0.1351876 0.11109122 0.31073096 0.25796843 0.72308517 -0.04489515 -0.20326588
0.10947745 0.5710826 -0.15348302 0.15679544 -0.37316805 -0.049664713 0.41963837 0.9141758
-0.30934566 -0.05052158 -0.3185548 -0.113562346 -0.18677427 0.041620027 0.29363865 0.2960498
-0.229049 0.07849344 -0.334638 0.23688325 0.4756437 0.6536923 0.23185897 0.41935295
-0.03850673 -0.27485594 0.65611476 0.3632566 0.6168082 -0.10924295 0.46184313 -0.4338995
0.70158064 0.21336623 0.13986316 0.11060707 -0.4333991 0.36959952 -0.1478143 0.12335307
0.23723896 0.10595088 -0.27696028 0.15400101 0.3142483 0.50318784 0.42805642 0.1889242
0.35388678 0.012210833 0.21529183 -0.3261964 -0.096281834 0.29903248 0.72711754 0.38629752
0.3163384 0.1077754 0.23494169 0.20502025 -0.15325166 0.12073653 0.58469343 0.45186144
0.4172357 -0.10055806 0.4568632 -0.41700095 0.21876743 0.39256248 0.5210571 0.022753332
-0.13547158 -0.251019 0.45664817 0.20356221 0.021615405 0.12482206 0.18774322 -0.29871765
-0.2182033 -0.33250752 -0.31013498 -0.5597213 -0.22110716 0.5202375 0.400061 -0.28817263

model_4/batch_normalization_16/batchnorm/mul_1;model_4/conv1d_8/Conv1D/Squeeze;model_4/conv1d_8/BiasAdd;model_4/conv1d_8/BiasAdd/ReadVariableOp;model_4/batch_normalization_16/batchnorm/mul;model_4/conv1d_8/Conv1D;model_4/conv1d_9/Conv1D f4 [96, 1, 3, 126]
00000000: 1c20 3bbb 8ab4 313b 1996 be3a ea59 d1bc
00000010: 4b6e 383b c0d2 59bc 6af1 25bd 01e8 cfbc
00000020: 8b8e a0bc 6349 393c 67a2 343d 9567 a0bc
00000030: add3 e63d f765 4c3e b070 44bc 09c4 54bd
00000040: f39e a7bd e14c bebc 6a9a 10bd 789d 50bd
00000050: a234 2fbd 4cb9 fa3b d54c 10bd 5edf 79bd
00000060: f393 533d c1a7 483a c0e6 8cbd 7056 4abd
00000070: bb17 0bbd d567 b6bc 23ae 5abd 3bfe 3cbd
00000080: 9df0 02bd c46d bfbb 1ee2 5abd cae5 09bd
00000090: 2159 573d 4cd7 bcbc 903b 26bd 741f 74bc
000000a0: 4063 b1bc 62ba 43bc 4d81 ffbc cf48 93bd
000000b0: cee6 cfbc 0f51 b6bc 1e54 a0bd e61a 37bd
000000c0: 6341 7dbb e888 16bd d33f 73bd ad32 943c
000000d0: ee13 2ebd f274 4ebd f1d3 d93c e321 dbbd
000000e0: f968 99bd 636d 0e3d d03c 0bbe be5d c5bd
000000f0: 616e 573d d59a f4bd e07b e5bd 3c66 9eba
00000100: c739 2e3b e641 9cbb c3bf 32bd 7d66 373c
00000110: d7df 90bc 1613 4abd efe8 ff3c 14a6 86bc
00000120: b6c5 63bd a451 163d 1f88 51bc b8a5 99bd
00000130: 663f 823d a9bf 79bb be1a 6e3d a214 10bd
00000140: c4c9 16bc 7c91 993c 4bfd f53b 8b1b debb
00000150: 75e9 32bd 0d2e b03d e324 1abc 6035 8dbd
00000160: 699f 393e c519 dcbb 9149 d73d d462 ea3d
00000170: 7900 3f3c a776 d73d 9787 093e dde0 053d
00000180: 969e 933c 4608 aa3d 3895 7a3c ac1a 4fbd
00000190: 683c 853d ca72 edba b050 463d ae52 dc3d
000001a0: 128f 2c3d c2b4 273d 58b6 df3d 351f 853d
000001b0: acb4 913c dac8 003d b40c 023d fad4 0d3c
000001c0: 2863 b9bb a428 383c abea 583c 1137 dbbc
000001d0: 0b59 243c 9673 43bc c80e 31bd f450 883c
000001e0: 0fc6 d8bc 27d7 61bd 420b 833b 21f4 09bd
000001f0: 6c45 4bbd bbb2 b7ba 1089 89ba eaaf 293b
00000200: 9cb7 f13a 43ed 95bc ddaa a8bb d5f6 6ebc
00000210: e88a f8bc 94bc 2ebd 745c c3bc 20be d03c
00000220: 2d6d d53c b94c e3bc fe1d 073e 02ff 3c3e
00000230: c06b b7bc 601f 41bd 27ef f6bd a9c6 e7bc
00000240: f544 ddbc d236 c7bd 40de 61bd db6a c73c
00000250: 3422 97bd 7993 a0bd 1293 8e3d e530 c8bc
00000260: 67f0 b2bd 1d12 3abd 0c9b 8fbd c597 f1bc
00000270: 64c8 2abd eca5 babd 5806 39bd a99b 173c
00000280: 3b61 b3bd 6885 44bd df85 883d faff 3dbd
00000290: 0571 61bd 2ee3 2ebc bb22 66bd 84aa b2bc
000002a0: 6e5d a8bc 41d5 ebbd 13f6 25bd e803 28bc
000002b0: eaf2 e9bd 0c2c 6fbd 0ea9 fc3b 684b 81bd
000002c0: 51ea 91bd f069 c53c b697 8fbd 5552 81bd
000002d0: ef9b 103d 558f 11be 3afa babd e951 433d
000002e0: 95f3 29be aaf4 e3bd 0c1f 843d 74ae 16be
000002f0: 38c5 00be c8d7 0cb9 b3bd cb3a 7ac2 b3bb
00000300: b8de 31bd 773b c03b 480e 73bc e3bf 45bd
00000310: e3a8 c93c 750c 40bc 686e 5bbd 5f6f f63c
00000320: 15ec e0bb fbe8 a4bd b911 6f3d aae0 6a3b
00000330: 4f02 783d 7294 2dbd 0748 a4bb 5f56 8c3c
00000340: 0240 17bb 07e9 23bb 016b 3cbd f80b a73d
00000350: c645 b2bb 810b 9dbd 6358 323e 8df7 0ebb
00000360: c037 dc3d 5f0d ed3d c5b7 813c 0c7d d63d
00000370: 48cc 073e 429f 203d ad4a 773c 8d0f a23d
00000380: 658c ac3c bea6 6ebd 8887 743d f08b 573b
00000390: 9f1f 423d 4b34 e33d 9d77 3d3d e2bd 203d
000003a0: bc12 e03d b526 913d 94dc 693c 361f d53c
000003b0: 703f 183d 04bd a03b 0d62 5abc e032 823c
000003c0: b7e4 0a3c 4b6b b3bc 7f99 503c ab40 95bc
000003d0: 90b5 2dbd d6c8 aa3c f11d 0abd a885 66bd
000003e0: 1706 123c 6b4e 28bd 7438 54bd 1004 543b
000003f0: a411 8fb9 2c2a 1f3b aa51 5e3a 2cc6 bdbc
-0.0028553074 0.0027115666 0.0014540582 -0.02555557 0.0028141912 -0.013294876 -0.040513434 -0.025379183
-0.01959922 0.011309001 0.04410019 -0.019580642 0.11270843 0.19960772 -0.011989757 -0.051944766
-0.08184614 -0.023230018 -0.03530351 -0.050931424 -0.042774804 0.0076514836 -0.035229523 -0.061004035
0.051654767 0.0007654392 -0.068799496 -0.04939884 -0.033958178 -0.022266308 -0.053388726 -0.04614089
-0.031967748 -0.0058419425 -0.0534383 -0.03366641 0.052575234 -0.02305188 -0.040584147 -0.014900077
-0.021653771 -0.011946293 -0.031189585 -0.071916215 -0.025378611 -0.022255449 -0.07828544 -0.044703387
-0.003864371 -0.036751658 -0.05938704 0.01809057 -0.042499475 -0.050404496 0.02659032 -0.10699823
-0.07490725 0.034772288 -0.13597417 -0.096370205 0.0525955 -0.11943594 -0.11205268 -0.0012084912
0.002658473 -0.004768598 -0.04363991 0.011193869 -0.01768486 -0.049334608 0.031239001 -0.016436614
-0.055608474 0.036698952 -0.012788801 -0.075023115 0.063597485 -0.0038108623 0.058130972 -0.035175927
-0.009203378 0.01874613 0.0075070015 -0.0067781857 -0.043679673 0.086025335 -0.009408209 -0.06894946
0.18127216 -0.006716939 0.105120786 0.11444631 0.0116578275 0.10520678 0.1343063 0.03268515
0.018019956 0.08302359 0.015294366 -0.050562546 0.06505662 -0.0018115875 0.048416793 0.107579574
0.04212863 0.04094387 0.10923451 0.06500093 0.017786346 0.031441547 0.031750396 0.008656735
-0.0056575723 0.011240158 0.013239543 -0.026759656 0.010030995 -0.011929413 -0.043226987 0.016640164
-0.02646163 -0.055136826 0.003999145 -0.033680085 -0.049626753 -0.0014015058 -0.0010493118 0.0025892206
0.0018441561 -0.018301612 -0.0051473216 -0.0145852165 -0.030339673 -0.04266031 -0.023847796 0.025481284
0.026053036 -0.027746545 0.13195035 0.18456653 -0.022390246 -0.047149062 -0.120573334 -0.02829297
-0.02701042 -0.09727253 -0.055143595 0.024342945 -0.073795706 -0.07840628 0.06961645 -0.024437377
-0.08737259 -0.04542743 -0.07011995 -0.029491315 -0.041695014 -0.09113678 -0.045172065 0.009253421
-0.087587796 -0.04797879 0.06666159 -0.046386696 -0.055039424 -0.010674281 -0.056185465 -0.021809824
-0.020552363 -0.11515284 -0.040517878 -0.010254838 -0.11423285 -0.058391616 0.0077105826 -0.06313211
-0.071247704 0.024098366 -0.070113584 -0.06314532 0.03530496 -0.14214833 -0.09129758 0.047685537
-0.16596825 -0.1113065 0.06451234 -0.14714986 -0.12575233 -0.00013431825 0.0015544206 -0.00548583
-0.04342529 0.0058664638 -0.014834948 -0.0482787 0.024616664 -0.01172172 -0.05357209 0.030082403
-0.0068640807 -0.0805225 0.05836651 0.0035839477 0.060549077 -0.042377897 -0.005013469 0.017131029
-0.0023078923 -0.0025010721 -0.046000484 0.0815658 -0.0054404465 -0.0766821 0.1741653 -0.0021815032
0.10752821 0.11574816 0.015834698 0.104730695 0.13261521 0.03921438 0.015093488 0.07913122
0.02106304 -0.058264486 0.059699565 0.0032889806 0.047393437 0.110939585 0.04625665 0.039243586
0.10941073 0.07087461 0.014273781 0.02601586 0.037169874 0.004905345 -0.013329041 0.0158934
0.008477381 -0.021901747 0.012731909 -0.018219313 -0.04240948 0.02084772 -0.03371996 -0.05627981
0.008912585 -0.04109041 -0.05181165 0.0032351054 -0.0002728823 0.002428661 0.0008480797 -0.023165785

model_4/batch_normalization_17/batchnorm/mul_1;model_4/conv1d_9/Conv1D/Squeeze;model_4/conv1d_9/BiasAdd;model_4/conv1d_9/BiasAdd/ReadVariableOp;model_4/batch_normalization_17/batchnorm/mul;model_4/conv1d_9/Conv1D f4 [96, 1, 3, 96]
00000000: d558 753c 5115 9cbc 1440 593d 1903 54bd
00000010: fc0b 943b 5ad0 803d b1fb 34bc 582b c5bc
00000020: ce60 02bb b11c 243d 8df9 703d fb1f 683d
00000030: 57a8 1cbb 5c14 90bc 911a f7bc 6d65 35bd
00000040: e92e 1bbd c2d7 6b3c 976d a4bd c03f 2a3d
00000050: 7b9d dc3d 12ea 5f3c dff8 3e3c 7789 273d
00000060: edd3 54bc 41a3 36b7 3840 893c 825c 39bd
00000070: 55dc b9bc 71cf dd3c abc1 463b 9af2 cbbc
00000080: 5909 4b3c 16a4 40bc 6071 1dbd 60b8 b93c
00000090: 3e5d 3e3d 5e1b c73c 54e7 f9bc 2741 453c
000000a0: 97ca e03b 2a39 813d 885e 8bbc b6af fcbc
000000b0: d757 a73b 482e c73c 8ba8 e53c ee89 bfbc
000000c0: 2742 32bc ad23 01be c077 b83d 98c8 f1bd
000000d0: 5618 90ba 14bb e93a baa6 1ebc 7a74 933d
000000e0: 89fc 85bc 9d8f a03c cbee 463d c595 27bd
000000f0: 6d81 f339 5386 87bc 4260 a8bc da41 39bd
00000100: d6ce 0e3c b08e f4b6 2f05 873d ff4d 083d
00000110: d82c 1ebc 6d38 6bbc 754d 27bd 9099 923c
00000120: 49a2 a93d 8ead d33c 0abb 673c e2f5 e5bc
00000130: 3afa 04bd ee7b 683b 15de abbd 9102 043d
00000140: e108 93bc 874d 01bc 6b37 3f3d 1643 2bbd
00000150: a023 12bc 3a86 643d 827e 73bd ce25 01bc
00000160: 4721 863c d729 edbc 5bfc 01bd 248a 6abb
00000170: ade0 48bc cc77 d7bc a757 2c3c 5cec 26bd
00000180: 305b 763c 376e bebc 24b0 5d3d 9235 5cbd
00000190: 125b ab3b 46ea 773d b4ac 2cbc bedd c3bc
000001a0: 610b cfba 23cc 2a3d f7af 793d e3f2 603d
000001b0: bfdf fcba 4825 8bbc 6d51 14bd 91db 33bd
000001c0: 0d7d 1abd 53ae 823c 6841 a8bd 0201 353d
000001d0: ce2c e43d 7b2e 7e3c b62d 453c 4fb0 2e3d
000001e0: 71b2 6bbc 00b2 d239 8080 943c 3999 43bd
000001f0: 1beb c7bc d187 b93c c437 71bb c4d6 d7bc
00000200: d0b7 473c 46a3 77bc 616b 18bd 7ca1 c73c
00000210: 37be 453d 28c2 d03c 0604 f4bc 8093 113c
00000220: c746 3f3b 5a32 863d 6e7d 83bc ebf8 f9bc
00000230: 7bb7 8a3b 6c45 a73c c088 f53c ecfb c6bc
00000240: 5e00 11bc 04f0 03be fcfc b83d d18d f6bd
00000250: c901 13bc bac2 d53a f450 2abc 5f8a 943d
00000260: 6b87 88bc 3e6b aa3c 4811 553d 542f 30bd
00000270: bb3c b0bb 01e8 8abc 4339 aebc 8259 38bd
00000280: f71e 123c c6b4 cdbb 957a 843d be19 0f3d
00000290: a2f3 3cbc f453 8bbc cfa8 2cbd 8cf0 953c
000002a0: 0665 b23d 6773 df3c 5d3e 533c cb2b d8bc
000002b0: aa89 09bd ded1 a33b ef59 afbd 4385 0d3d
000002c0: 5df1 89bc 9d35 f0bb d824 373d 3776 25bd
000002d0: 67b2 c4bb 4a58 703d 1092 73bd b27f 0fbc
000002e0: 2c93 8b3c e8cd 08bd 8947 0cbd ea6c 5dba
000002f0: 8340 7abc d0db d4bc 93f6 193c 9f8a 2dbd
00000300: 5f0f 9f3c 2af3 b9bc 6df4 523d f94f 59bd
00000310: 310d bc3b 9bc3 893d b5db 60bc 2ece d8bc
00000320: feb4 94bb 367f 213d 3489 723d eee7 593d
00000330: d509 8abb 62c9 89bc f2df 13bd 18a6 28bd
00000340: e7cb 20bd a25a 883c b00f a7bd d7fa 2c3d
00000350: 6ea7 df3d 8f88 603c 528e 463c 48c0 183d
00000360: 9cce 61bc bb45 d73a 37a0 8e3c 7397 47bd
00000370: 5ea8 bdbc fe44 9e3c d8a7 5ab9 ffb3 cfbc
00000380: 8054 163c 8ca1 76bc 7a05 19bd ec5d a13c
00000390: 1dfb 3b3d d574 d43c fa58 03bd ca48 183c
000003a0: 3f8f 9e3b ddcd 843d a822 82bc db03 fbbc
000003b0: 0a3b 753b 423b a83c abf3 eb3c 752c b4bc
000003c0: be2a 28bc 7b80 01be 0f22 b33d d4ee f0bd
000003d0: d1c6 babb dce5 cbb9 1f9d 27bc bf43 933d
000003e0: 3662 96bc fcba 8f3c a3d1 443d 2177 2bbd
000003f0: 1c9b a7ba 5ff0 91bc b8c2 a3bc a540 35bd
0.0149747925 -0.019053133 0.053039625 -0.051760767 0.00451803 0.0628974 -0.011046336 -0.02406852
-0.0019894126 0.040066425 0.05883174 0.056671124 -0.002390405 -0.017587833 -0.030164035 -0.04428618
-0.037886534 0.014394702 -0.08028715 0.041564703 0.107722245 0.013666647 0.011656015 0.04090258
-0.01298998 -1.0886056e-05 0.016754255 -0.045254238 -0.02268807 0.027076455 0.0030327837 -0.024895955
0.012392365 -0.011757871 -0.0384382 0.022670925 0.04647564 0.024305042 -0.030505814 0.012039459
0.006860088 0.06309731 -0.01701285 -0.030845504 0.005106907 0.02431406 0.02803447 -0.0233812
-0.01088003 -0.12611265 0.090072155 -0.11805838 -0.0010993581 0.0017832243 -0.009683305 0.071999505
-0.01635577 0.01959973 0.048567574 -0.040914316 0.00046445001 -0.016543543 -0.020553712 -0.045228817
0.008716306 -7.2883777e-06 0.065927856 0.033277508 -0.009654246 -0.014356715 -0.040845353 0.01789549
0.082829066 0.025839593 0.014143715 -0.028071348 -0.032465197 0.0035474258 -0.08391968 0.03222901
-0.01794857 -0.007892019 0.04668371 -0.041812025 -0.0089196265 0.05579207 -0.05944682 -0.0078825485
0.01637329 -0.028950615 -0.031734806 -0.0035787905 -0.012260598 -0.02630224 0.010518945 -0.040752754
0.015036389 -0.023245914 0.05412306 -0.053762026 0.0052293623 0.060526155 -0.0105392225 -0.023909446
-0.0015796238 0.041698586 0.06095883 0.054919135 -0.0019292756 -0.01698555 -0.036210466 -0.043910567
-0.037716914 0.015952265 -0.082156 0.044190414 0.11141358 0.0155140115 0.012034824 0.04264861
-0.014385805 0.00040186942 0.01812768 -0.047753546 -0.0244041 0.02264777 -0.003680692 -0.026347525
0.01218982 -0.015114611 -0.03721178 0.024368994 0.048277106 0.025483206 -0.029787075 0.008885264
0.0029186474 0.065525725 -0.01605102 -0.030514201 0.0042332984 0.020418845 0.029972434 -0.024290048
-0.008850185 -0.12884527 0.09032628 -0.12038768 -0.008972594 0.0016308643 -0.010395277 0.07252955
-0.016666135 0.02080309 0.052018434 -0.043013886 -0.0053783334 -0.016956331 -0.021267539 -0.045007236
0.008918515 -0.0062776534 0.06468693 0.03493666 -0.011532696 -0.017007805 -0.042153176 0.018303178
0.08710675 0.027276708 0.0128932865 -0.02638807 -0.033578552 0.0049993834 -0.08562075 0.034550916
-0.016838724 -0.00733061 0.04471287 -0.04039594 -0.0060027125 0.05867795 -0.059465468 -0.008758472
0.01703795 -0.033399493 -0.03424791 -0.00084467104 -0.01527417 -0.025983721 0.009397167 -0.042368528
0.01941651 -0.022698957 0.051502634 -0.053054783 0.005738877 0.06726762 -0.013724257 -0.026465502
-0.0045381775 0.03942796 0.05921288 0.0531997 -0.004212598 -0.01681966 -0.036102243 -0.041174024
-0.039256956 0.01664478 -0.08157289 0.042231407 0.109206066 0.013704433 0.012118893 0.03729275
-0.01378217 0.001642398 0.01741038 -0.048728418 -0.023151573 0.019320007 -0.00020852627 -0.025354384
0.00917542 -0.015053164 -0.03735874 0.019698106 0.045893777 0.025934616 -0.032067277 0.009294698
0.0048388536 0.06484578 -0.015885666 -0.030641487 0.0037419223 0.020536069 0.028802713 -0.021993855
-0.010264097 -0.12646668 0.087467305 -0.11764303 -0.0056999703 -0.00038890436 -0.010230332 0.07190656
-0.018357377 0.017545216 0.048051488 -0.041861657 -0.0012787315 -0.017814813 -0.01999031 -0.044251103

model_4/gru_9/gru_cell/strided_slice_4 f4 [48]
00000000: 5c30 bcbd 96cb 9abb 84a9 36bd 38cb 43bd
00000010: b402 7b3c 0ba3 b73c afbf 9cbc a981 203b
00000020: f770 df3d 2825 5c3d 0233 f83b e631 df3d
00000030: dd87 7fbc 7420 903c 1055 a6bd 3e45 75be
00000040: b6b5 d93d 4fad 123d 63f6 de3d d25d e4bd
00000050: 6666 ee3d aadb 503d 1f03 bf3d 25ca 84bd
00000060: 9a4f c23a 2712 cbbd c29c d9bc d6c6 e0bd
00000070: 6449 083d 0366 553d 755f 84bc 67b6 60bd
00000080: 6141 d3bc b259 0f3e 08e2 cc3c b47b 41bc
00000090: 3d51 d1bd e460 0fbd 79e8 2fbc 58bc dcba
000000a0: 23fa eebd 8ba8 77bd a595 073d ead0 c3bd
000000b0: 9214 85bd e80b 9d3d d216 df3c d25c 063e
-0.09188911 -0.0047239764 -0.044595256 -0.047801226 0.015320469 0.022416612 -0.01913437 0.0024491346
0.10910218 0.053746372 0.00757444 0.10898189 -0.015596357 0.0175936 -0.08121693 -0.23952195
0.10630362 0.03580981 0.10886838 -0.11150707 0.11640625 0.050990738 0.09326767 -0.064838685
0.0014824749 -0.09915572 -0.026564006 -0.10975425 0.033273116 0.05209924 -0.016158799 -0.054861452
-0.025788011 0.1399906 0.025010124 -0.011809278 -0.10220573 -0.03500451 -0.010736578 -0.0016840799
-0.116688035 -0.06046347 0.033101697 -0.095613316 -0.06498064 0.076682866 0.027232561 0.13121346

model_4/gru_9/gru_cell/strided_slice_3 f4 [48]
00000000: fb99 013b e8ee eb3d 35b6 263e d25d 773d
00000010: 135f a53d 392b f63d 72ec f13c 53dc 003e
00000020: ec64 ac3b 81de 7d3d f5ac 9d3c fbf9 2abd
00000030: 3bcd 2b3d d646 cc3d bce0 c03d 08f7 ca3d
00000040: 41c6 7ebc 9c6e ce3d 6655 79bc d213 b73d
00000050: 4377 623d 3c75 d1bc 2149 833d 09fa 903d
00000060: 033d 9b3d 164a 8a3d 1ee0 d53c 9b66 75bd
00000070: e4bb 1a3d dbeb 2d3d 4ad1 afbc 761f 703c
00000080: 230a df3d 0846 34bd db09 3b3d e6e8 3a3d
00000090: d806 a33d 0b9f bc3d fd95 b63d d3e6 153d
000000a0: 3aa5 493d c6d2 233e 574d 043e 7b2c b23d
000000b0: bc02 453c 3b4d 003b 6a1e 4b3d 1776 503d
0.0019775617 0.11520177 0.16280444 0.06039221 0.080747746 0.12019963 0.029531691 0.12584047
0.0052610543 0.061979774 0.019247511 -0.041742306 0.04194377 0.099744484 0.09417865 0.09910399
-0.015550197 0.10079691 -0.0152181145 0.08939327 0.055289518 -0.025568597 0.064104326 0.070789404
0.075799964 0.06752412 0.026107844 -0.059912305 0.037776843 0.042461257 -0.021462101 0.014655938
0.10890605 -0.0440121 0.045663696 0.045632266 0.0796029 0.092100225 0.08915327 0.036597084
0.049229838 0.15998372 0.12920128 0.0869989 0.012024578 0.0019577283 0.049589552 0.05089387

model_4/gru_9/gru_cell/strided_slice_5 f4 [48]
00000000: 0fc9 efbb 8811 73ba eb39 853d 4722 873c
00000010: d364 07be c4a1 0e3e 8b91 3fbd 86de 34bd
00000020: 40c6 023d 4b2f 8dbc 1f9a a53d 6e11 60bd
00000030: afcf 84bb 05f9 3e3d 71cb 883d 8cb3 9abd
00000040: adff 923d e8ac ac3d a54b c73c a5b9 01be
00000050: a550 4d3d d011 c13d e4b0 9f3d af83 dc3c
00000060: 3025 a13c 7dfc b9bd aeaf a9bd 2a99 e0bd
00000070: 3736 1fbb 7f62 113e e539 1cbd 6ca1 45bd
00000080: bc74 313d f0c9 dc3c 30cc ea3d b716 f3bd
00000090: 0db4 b3bd 21e4 c7bb 052b 053e 0ea9 5d3d
000000a0: 5680 0dbd 1d0c d43b 7bcf 8c3c 6f3a de3d
000000b0: 1c1d f43b dcbe f0bd 5edf e13d 8032 bdbc
-0.007317669 -0.0009272327 0.065051876 0.016495837 -0.13222055 0.13928896 -0.04676966 -0.044157527
0.031927347 -0.017234465 0.08086037 -0.054704122 -0.004053078 0.046624202 0.06679428 -0.07553777
0.071776725 0.08431417 0.024328062 -0.12668474 0.050125737 0.094272256 0.07797411 0.02691826
0.019671053 -0.090813614 -0.08285461 -0.10966714 -0.002429379 0.1419773 -0.03814115 -0.048249647
0.043324217 0.02695176 0.11464727 -0.11869567 -0.08774576 -0.006100193 0.13004692 0.0541163
-0.03454622 0.0064711706 0.017188778 0.10850989 0.007449759 -0.117551535 0.11028932 -0.02309537

model_4/gru_9/gru_cell/strided_slice_11 f4 [48]
00000000: b1c8 7f3c 9a4f 80bd be1b bebc ca03 bb3c
00000010: f885 1cbe 8438 8b3d 40b1 00bd 408c d4bd
00000020: f4b3 e23b 0028 42bd 9a1c 1c3d e307 88bd
00000030: ca24 a63c 3364 333d 8bf4 e83c 4e7e 853c
00000040: dad4 183d adb9 8e3d 230d 96bc 2387 95bd
00000050: 3eb0 973d be33 653d cebc a33d 0537 51bc
00000060: 42d3 d23c dcc9 4dbd 7c4e 84bc d931 bbbd
00000070: 9da8 0d3d c375 063e 5368 57bd 7227 51bd
00000080: 825e 443d acac 5c3d 08c8 a13d 9b4f c6bd
00000090: d3d8 72bd d266 4b3b dde7 393d a9d8 763d
000000a0: 4b7d 06bc 8f2c 503d 952a 203d 0b54 a43d
000000b0: adca 16bc 18df 9bbd 3184 bb3d 3f71 8dbd
0.015611813 -0.06265183 -0.023206588 0.022828955 -0.1528548 0.06797889 -0.03141904 -0.10378313
0.0069184247 -0.04740143 0.038113214 -0.06642129 0.020281214 0.04379673 0.02843692 0.016295578
0.037312366 0.069690086 -0.018316811 -0.07301166 0.074066624 0.05595755 0.07994996 -0.012769465
0.025735501 -0.050241336 -0.016150706 -0.09140367 0.03458463 0.1313086 -0.052589726 -0.05106301
0.047941692 0.05387561 0.07899481 -0.09683152 -0.05928881 0.0031036627 0.045387138 0.060265217
-0.008208583 0.050823744 0.03910311 0.080238424 -0.009203595 -0.07610911 0.09156073 -0.069063656

model_4/gru_8/gru_cell/strided_slice_4 f4 [96]
00000000: 39f7 49bd c729 5dbd 53bf 8b3c 2654 0d3c
00000010: 4347 a43a ce0f 043c 8406 96bc 2c41 c93c
00000020: dbf9 3cbc 34a8 8abc 52e4 aabd 2e73 56bd
00000030: 6e55 ca3b cfdd 0fbd c3ac 99bd 4085 c1bc
00000040: 6e5b 10bd f89a a03c 54a3 163d 0dc2 d3bb
00000050: f00c 893c 0def 53bd a6f3 9cbc 4069 933c
00000060: 05de e5bb 56d8 233d a924 6bbd 4267 a5bd
00000070: f5a3 05bc 0439 c33c 904e eb3c b27b 1bbb
00000080: 7057 e43a 1184 7a3c 1ad1 5ebc be10 35bd
00000090: 96bc 29bc 94a0 b1bc 3d1d ea3a 4cc9 6abd
000000a0: 2bd0 bdbd c774 8ebd 9678 15bd a2b2 f9bc
000000b0: a23b 20bd 2c0f 1dbd c52e 05bd c0ef aa3b
000000c0: de53 eebc 1360 a2bb 32e6 b4bc ef91 b0bc
000000d0: 44ba 453d d6c3 063d 9cdb b43c e956 813d
000000e0: 2ef4 48bd e5e7 853d a650 6cbd f154 76bc
000000f0: f1a1 2c3c 0616 11bd b234 94bd a8e1 cfbc
00000100: 66b7 54bd 10f7 9738 b6ba adbc 1b7d 28bd
00000110: 9f80 9b3c 120c a03c 389f 283d 5bae 8e3d
00000120: 1050 6d3c 1959 82bd 6c0c 94bc 3adc d03c
00000130: 5727 15be 2ba0 e6bd 9902 7d3d 0a8e 2abd
00000140: d1cd 0ebd 6873 d33d 71a7 003c 38a2 93bb
00000150: 0ce1 15bd e991 b5bc be06 58bc d8cf aabb
00000160: 3a6d 5dbb 0a81 51bc e6fe d73c 296e b2bd
00000170: 57c5 0e3c 03b7 0abc d8d2 2bbd f256 283c
-0.049308036 -0.05399492 0.017059004 0.00862602 0.0012533445 0.008060409 -0.018313654 0.02456721
-0.01153418 -0.016925909 -0.0834433 -0.052355938 0.006174735 -0.035123643 -0.07503655 -0.023623109
-0.035243444 0.019605145 0.036776856 -0.0064623416 0.016729802 -0.05174165 -0.01915915 0.017994523
-0.007014992 0.040001236 -0.05740801 -0.080763355 -0.008156766 0.023830898 0.028723985 -0.0023724851
0.0017421078 0.015290276 -0.013599658 -0.04420542 -0.010359904 -0.021683015 0.0017861497 -0.057320878
-0.092682205 -0.06955867 -0.036491953 -0.030480687 -0.03911937 -0.038344547 -0.032515306 0.0052165687
-0.029092725 -0.0049553006 -0.022082422 -0.021553962 0.04827334 0.032901607 0.022077374 0.06315405
-0.049060993 0.06538371 -0.0576941 -0.0150349 0.010536657 -0.035421394 -0.07236613 -0.025376156
-0.051932715 7.24626e-05 -0.021207195 -0.041134935 0.01898223 0.019537006 0.041167468 0.069668494
0.01448442 -0.0636465 -0.01807233 0.025495637 -0.14565788 -0.11261018 0.061770055 -0.041639365
-0.03486425 0.10324746 0.007852421 -0.004505422 -0.036591575 -0.022164302 -0.013185201 -0.005212765
-0.0033787028 -0.012787113 0.026366662 -0.08712418 0.008714042 -0.008466485 -0.041949123 0.010274636

model_4/gru_8/gru_cell/strided_slice_3 f4 [96]
00000000: 3807 a73a 6795 123e e332 633d 6343 0f3e
00000010: b9e7 2e3c b550 573e 0af1 143e 4446 7e3e
00000020: 19ed 1b3e 5dd8 be3d 805f 103e 58fc 893d
00000030: a3bc f23c 033c dc3d 0a83 1a3e 762d 253e
00000040: 7754 8d3d 18dc 973e b993 c33d 5ec0 1cbd
00000050: ee56 713e d407 40bd 6f1e 823c 89b4 333e
00000060: 54dc 2bbd 2a9c 3b3e 920c 123e 8059 d63c
00000070: b94f 403e 821a c03d 2cfb ab3c d461 bd3d
00000080: 4b82 903e a509 073e 2d31 1bbd 9b87 103e
00000090: 8b3f da3d f9ac ad3e 53ec aa3d f463 863e
000000a0: 082a 9a3e 800e a5bc 686b 4e3e 69a2 bb3c
000000b0: 7203 233e 6da8 b63d 606c ff3c fc0d 0fbb
000000c0: 7a72 813e 80ee 643e 2d90 113e 6131 33bd
000000d0: 8f12 b43d 7f45 9d3e 31e7 6f3e 948c 153d
000000e0: 7010 e43d 7991 d7bd 7f14 d93c b7fb 633e
000000f0: 9dd5 1fbc 1abc abbc f9d8 ea3d 89e0 b43d
00000100: da36 453e be89 c0bb b55f 423e e558 883c
00000110: c760 1c3d 2195 2abd 51c0 c93c d758 9c3d
00000120: 6f8e 66bd 0cd7 8e3e 8721 953d cadd e33d
00000130: a3dc 193e e708 e63d bce3 82bc 027e a03e
00000140: 4ce4 57bd e2aa e63d ddd9 283b 40d1 063d
00000150: e06a 8c3e 4820 5a3d b067 a43c 7bdd 3b3e
00000160: 45c5 d63d 32d5 a53d 2d44 2d3e 8663 14bd
00000170: c6bb 1f3e 4d4d 8c3e 1871 2b3e 4478 673d
0.001274324 0.14314805 0.05546845 0.1399055 0.010675364 0.21026881 0.14545074 0.24831492
0.15227164 0.09318612 0.1409893 0.06737584 0.029630965 0.10753634 0.1508905 0.16130623
0.06900876 0.29660106 0.0954966 -0.038269393 0.23568317 -0.046882465 0.015883652 0.17549337
-0.04195817 0.1832129 0.14262608 0.026165724 0.18780412 0.09380056 0.020993792 0.09247175
0.28224406 0.13187273 -0.037888695 0.1411423 0.10656651 0.3392103 0.083458565 0.26248133
0.30110192 -0.020148516 0.2015816 0.022904592 0.15919283 0.089188434 0.031179607 -0.0021828404
0.2528265 0.22356606 0.14215155 -0.043748263 0.08792602 0.30717084 0.23428036 0.03651102
0.11135948 -0.105257936 0.026499031 0.2226399 -0.009755519 -0.020963717 0.114671655 0.08831889
0.19259205 -0.005875795 0.18981822 0.01664395 0.03817823 -0.041646127 0.024627836 0.07634132
-0.05628818 0.27898443 0.072817855 0.11126287 0.15025572 0.11232167 -0.015977733 0.31346136
-0.052707955 0.11263062 0.0025764622 0.0329144 0.2742529 0.053253442 0.020068973 0.18346207
0.10486845 0.080973044 0.16920538 -0.036227725 0.15598974 0.27402726 0.1674236 0.05651118

model_4/gru_8/gru_cell/strided_slice_5 f4 [96]
00000000: 2b98 6abc a0fa 02bd 85ac 5abd 5624 76bb
00000010: 59cc a5bc fba4 423c 63e9 063d 6319 26bd
00000020: bc57 5e3c dbb3 893c 57ac e9bc c83a ac3c
00000030: 0392 933c 3c95 0abd 1626 4bbc e325 133b
00000040: 24d6 673c 1569 c43c cb26 093d 3a82 ea3b
00000050: 04d9 c8bc 274e b4bc a05f 97bc e824 22bc
00000060: a4ea fd3c d673 e53c ad53 3bbc 08ca 4cbc
00000070: 279e e9bc d0de 77bc b3f8 38bd a8f7 a9bc
00000080: 8a13 db3c 1e96 45bd 1eba 95bb ada2 babd
00000090: c3ec cfbc 366d 05bd 2798 2bbb 9df8 6dbd
000000a0: ff12 59bd f472 e6bc 806b 933b 70ce 0f3d
000000b0: 77ef 9b3c 6e35 a43d 207d 213d f867 5f3b
000000c0: ca6d 713c 4ed7 f73b 69da 5ebc 5ac0 b5bc
000000d0: 1c5c b03b d683 31bc 8c12 d0bc c1cb 6fbd
000000e0: 1682 ab3c 0f43 27bd 191f 2abd b96b ccbc
000000f0: 1bc8 f23b 7358 febb 53a5 1c3d 7f6f 983c
00000100: 4945 913c 8ae9 f2bc 1a63 963c a807 0a3d
00000110: d0f2 2dbc 0f34 fcbc f44b febc 5d4d d0bb
00000120: e4ce 0a3d aa9b 26bd f614 8bbd 1826 a93a
00000130: 0c34 14bd effc 543c 923a 7a3d 6dc8 813c
00000140: 30c3 09bc 4030 833a 68e5 2cbd a36c 93bc
00000150: 095c 743b 71a9 823d c6fc 89bb 2317 9c3c
00000160: 8d88 76bc 73fe d6bc 146e d2bc e929 d03c
00000170: 7bba 023d cf2e 25bd 45d7 41bb 7855 1e3d
-0.014318506 -0.031977296 -0.053387184 -0.003755828 -0.020239042 0.011880155 0.03293742 -0.040551554
0.013570722 0.016809395 -0.02852456 0.021024123 0.01801396 -0.033833727 -0.012399217 0.0022453002
0.014150176 0.023975888 0.03348426 0.0071566375 -0.024517544 -0.022009922 -0.018478215 -0.009896494
0.030995674 0.028009336 -0.011433524 -0.01249934 -0.028517796 -0.015128806 -0.045159053 -0.020747975
0.026742715 -0.048238866 -0.004569306 -0.09113059 -0.025381451 -0.032574855 -0.002618322 -0.058098424
-0.05299663 -0.028130986 0.004498899 0.035108984 0.019035084 0.080180034 0.03942597 0.003408907
0.014735648 0.007563508 -0.013601878 -0.022186447 0.005382074 -0.010834655 -0.025399469 -0.058543924
0.020936053 -0.040835436 -0.041533563 -0.02495371 0.0074091083 -0.007762009 0.038243603 0.018607853
0.017733233 -0.029652376 0.018357802 0.033698708 -0.010616973 -0.030786542 -0.031042077 -0.0063568787
0.033888713 -0.040675797 -0.06791107 0.001290503 -0.03618245 0.012999757 0.061091013 0.01584264
-0.008408353 0.0010008886 -0.042210966 -0.017996138 0.0037286303 0.06379975 -0.004211041 0.019054001
-0.015047205 -0.026244378 -0.025687255 0.02541061 0.031916123 -0.040327843 -0.0029577774 0.038655728

model_4/gru_8/gru_cell/strided_slice_11 f4 [96]
00000000: 09db 85bb 8519 80bd d0a6 90bc d033 4abc
00000010: bf76 9ebc 1831 bc3b 83bb 323c 0831 a53b
00000020: e41b 463d 594e a43c 98a9 fdbc 0a9e 13bb
00000030: fc8f 313c caeb 96bc 2933 3cbd 54b6 573c
00000040: 9e2e 8cb9 7cda a23c 9691 173c 5c81 e1bb
00000050: 21e4 54bc 7678 34bc f6fc abba c50e 0a3d
00000060: bfc9 213d 355e c63c 782b f8bc ecda b7bc
00000070: 126d 1dbd 161e a6bc 9cc4 acbc 83f6 7cbd
00000080: 8289 63bc d152 99bd 33b0 57bb 944c 2cbd
00000090: 1efe ffbc e127 c43a e5f8 283a ea0e 89bd
000000a0: 0cae 95bd 4358 1fbd e26a c63c b8ce 073d
000000b0: 44da 363d fa95 d93c fb77 1b3d aef6 19bc
000000c0: 4b39 013d 4cb7 043c 125a 0cbd a351 03bd
000000d0: 9341 e53c f60a f5bc b39b 793c 8d9c 41bd
000000e0: 14d9 fd3b 92d5 aabc b8c8 36bd ef28 1ebc
000000f0: 803c c43b f4eb 84bc 1eb0 853d 45e6 293d
00000100: 591c 353c a1c7 22bb 157a 943d b1fe 733d
00000110: a1d8 b2bc bc00 25bd f278 a9bb 692f 46bb
00000120: f855 0a3d ab80 3bbd 8b7c 7fbd 1db3 163d
00000130: 2560 b5bc e9e3 223c c808 4e3d a205 403c
00000140: 3e5c 04ba c026 07bb 703d ccbc 7547 efbc
00000150: 1392 b0bc ad95 083d 6e94 92bc 3863 f63b
00000160: 21b6 95bc 1bb4 30bd 4b26 9cbc c0d9 fa3c
00000170: 6911 013d b092 21bd 5012 7bbd 7f09 363d
-0.004084949 -0.062548675 -0.017657667 -0.012341455 -0.019343732 0.005743157 0.010908964 0.0050412454
0.048366442 0.02005689 -0.030964658 -0.0022524619 0.010837551 -0.01842298 -0.045947228 0.013166029
-0.00026737613 0.019879572 0.009251019 -0.006881876 -0.012993843 -0.011015048 -0.0013121653 0.03370549
0.03949904 0.024214843 -0.030294165 -0.022443257 -0.038434096 -0.020278018 -0.021089844 -0.06175853
-0.013887765 -0.07486499 -0.003291142 -0.042065218 -0.031249102 0.0014965498 0.00064457796 -0.06692298
-0.073085874 -0.038902532 0.024220888 0.033156127 0.044641748 0.026560772 0.03795622 -0.009397192
0.03154878 0.008100342 -0.034265585 -0.032060277 0.02798537 -0.029912453 0.0152348755 -0.04726844
0.007746825 -0.020853791 -0.044625014 -0.009653314 0.0059886575 -0.016225792 0.06527732 0.041479368
0.011054122 -0.0024838226 0.07249848 0.059569065 -0.021831812 -0.040283903 -0.0051718885 -0.003024066
0.033773392 -0.045777004 -0.062374633 0.03679191 -0.022140572 0.009942033 0.050301343 0.011720093
-0.00050491455 -0.0020622462 -0.02493164 -0.029208878 -0.021554029 0.033345867 -0.017893042 0.007519152
-0.018275322 -0.043140512 -0.019061228 0.03062141 0.031510744 -0.039446533 -0.06129676 0.04444265

model_4/batch_normalization_19/batchnorm/sub f4 [48]
00000000: e2c0 683e 06cf b33e 1291 debe 238c 03be
00000010: 0633 013e 1a9d b4be eb02 5bbc bed2 cd3d
00000020: 647a 16be dcbe d93c 09fe 2abe c855 a63e
00000030: b0c6 12bd edb4 e3be 81a5 e43c 1d2f d73d
00000040: 3a72 84bd 91bc a7be ccea 0e3e 260f 033d
00000050: 48ab a4be 6d47 d2be 9685 f0bd f11b 6b3e
00000060: 55bb e9be b298 1d3e 4658 cc3e 210e d73e
00000070: 01a1 a3bd a524 11bf 51ab 213e 1f0f 983e
00000080: af77 e8be 68b8 d93d 4c3e a4be 737f ac3e
00000090: b2fc 2d3e 509a 5b3e 3063 37bd 067a b83d
000000a0: e15b 25be 654a 633d 324b aebd 786c 19bf
000000b0: d45e 803e c012 e63e 2172 00be 3c2a 6b3d
0.22729829 0.35118884 -0.43470055 -0.12846427 0.1261712 -0.3527611 -0.013367395 0.100499615
-0.14695126 0.026580267 -0.16698469 0.3248732 -0.035834014 -0.44473973 0.02791095 0.10507033
-0.064670995 -0.32761052 0.13956755 0.03199687 -0.32161927 -0.4107012 -0.117442295 0.22959878
-0.45650735 0.1539028 0.39911097 0.42002967 -0.079896934 -0.5669654 0.15788008 0.29699036
-0.4540381 0.10630876 -0.3207878 0.33690986 0.16990927 0.21445584 -0.044772327 0.09007649
-0.1614833 0.05549087 -0.08510436 -0.59931135 0.25072348 0.4493618 -0.12543537 0.057413325

model_4/batch_normalization_19/batchnorm/mul f4 [48]
00000000: c0d2 1f40 a09e 2040 9e88 1a40 9893 0d40
00000010: 6312 0b40 dbdd 2540 cb9b 0b40 f23b 0940
00000020: 5b5e f93f bd0b 0e40 c9aa f53f 108c fe3f
00000030: 6f7b 0940 7018 1840 3172 0a40 bca6 7940
00000040: b442 0040 ff0b f33f 89ee fd3f 752f 0e40
00000050: 8883 0640 4a5f 1040 11e7 2340 309a 1a40
00000060: e26e 2340 17a4 1f40 1e5d 1d40 5aa1 0540
00000070: 97bd 0d40 8e39 1840 1c83 0040 1633 1b40
00000080: 4aaa 0440 a933 e73f 6bf3 1340 bcec 0e40
00000090: c6a7 2e40 2584 1840 31cc fe3f 89e0 2040
000000a0: 1b6b 0540 fb64 5940 0f6a 1740 2460 3b40
000000b0: 50da 1640 68fb f83f e6ca 0340 87b6 1140
2.4972382 2.5096817 2.4145885 2.2121334 2.1729972 2.591666 2.1813838 2.1442838
1.948192 2.2194664 1.9192744 1.9886494 2.1481588 2.3764915 2.1632197 3.9008017
2.0040712 1.8988036 1.983842 2.2216465 2.101778 2.255816 2.5609782 2.4156609
2.5536427 2.4943902 2.4588084 2.087973 2.2146966 2.3785129 2.0080023 2.424993
2.0728936 1.806264 2.311732 2.2331991 2.72899 2.3830655 1.9906064 2.5137045
2.0846622 3.3967884 2.3658483 2.927743 2.3570747 1.9451723 2.059259 2.2767656

model_4/batch_normalization_18/batchnorm/sub f4 [96]
00000000: e31b 35bf e0bd ffbe 5d1a 603e ab10 b73e
00000010: 020b 91bf f8c2 f33d d8cc 813b 991e 973f
00000020: 88ad e1be c1f2 1f3f c3ec a4bf 8d28 a63d
00000030: acef b03f 74d2 96bd 86c4 bdbf ce79 943e
00000040: e14b 533f cdd8 593f 7f8b d13f ca60 413f
00000050: c2f1 7fbe 6133 98bf 2e93 ff3e 9a13 ae3c
00000060: 9afe 9fbe 4bf6 043f e49a 37bf ece6 00c0
00000070: a93c 73bf 3fc2 f8be d048 853d 7cb2 c7bf
00000080: cd01 413e fc24 20bf aac9 c53f 0b6d 7c3e
00000090: e0ed 1b3d dc60 bb3e 0a04 8cbe 8ccc 1dbf
000000a0: 0ff1 49bf e857 18bf 5c22 813e 9751 e9be
000000b0: 3245 063e 6a0e 033f b061 6e3f c51d a63f
000000c0: 6818 293f cd14 823e 33a6 5dbf 76e6 b9be
000000d0: 3cfc 243f 1dc7 f33e 0b7b b43e c892 b43f
000000e0: fe21 2dbe f45f 943f a99f 78bf 023b 0f3d
000000f0: 2c75 33bf 39f3 93be 70a8 ccbd 1e17 013e
00000100: 6293 803e 0fbc 0140 c261 bd3f 5fda b33f
00000110: ed3a 7c3f 0992 823f 8412 65bf 2d03 933f
00000120: 3d0b 8dbf 737c 493e ecb1 8dbf 63bd bb3f
00000130: 4aa6 5fbf 6244 513f fd8c cebf 8af3 8abd
00000140: e09e 5cbe c6b6 6cbf 7bd8 e7be d6a1 383f
00000150: 66ee c73e c8bd 953e 540f d5bf fd13 223f
00000160: 4ebf 8b3f ea65 e9bf 13f3 00bd 6870 923f
00000170: 2f71 2abe 0485 d2be 9f52 7a3e 1a7b 96be
-0.70745677 -0.4994955 0.21885057 0.35754904 -1.1331484 0.11902422 0.003961187 1.1806213
-0.44077706 0.6247979 -1.2884754 0.08113203 1.3823142 -0.073643595 -1.4825599 0.2899918
0.8253766 0.85096437 1.6370696 0.75538313 -0.24994567 -1.189068 0.49916977 0.021249581
-0.31248933 0.51938313 -0.7172072 -2.0140944 -0.95014435 -0.48585698 0.065080285 -1.5601344
0.18848343 -0.62556434 1.5452168 0.24650972 0.038068652 0.36597335 -0.27346832 -0.6164024
-0.7888345 -0.59509134 0.25221527 -0.4557006 0.13112333 0.5119387 0.9311781 1.2977835
0.66052866 0.25406495 -0.86581725 -0.3630864 0.6444738 0.4761285 0.35250124 1.4107294
-0.16907498 1.1591783 -0.9711862 0.034968384 -0.70100665 -0.28896502 -0.099930644 0.12606475
0.25112444 2.0271032 1.4795458 1.4051017 0.98527414 1.0200816 -0.8948138 1.1485344
-1.1019055 0.1967638 -1.1069922 1.4667171 -0.8736311 0.8174497 -1.6136776 -0.06784733
-0.21544981 -0.9246639 -0.4528235 0.7212194 0.3904907 0.29246354 -1.6645303 0.6331175
1.0917757 -1.8234227 -0.031481814 1.1440554 -0.16644739 -0.41117108 0.2444558 -0.29390794

model_4/batch_normalization_18/batchnorm/mul f4 [96]
00000000: 6d22 3341 7d21 fd40 1901 b640 3eae c740
00000010: df06 3441 bc38 3241 a093 0041 ccb5 0e41
00000020: a2ac d640 5db3 0d41 9b75 8741 8caa 0641
00000030: 9b63 0d41 c36e 1141 1753 6a41 5c7e 8440
00000040: 2371 ed40 2a0c 0b41 7182 bc40 b849 0041
00000050: e0bc ec40 51fa d140 d1a0 f640 a6d2 0441
00000060: 2618 1f41 16d0 0a41 bac7 5f41 d32f 4f41
00000070: a035 1741 fe00 f040 8f80 d740 c340 3c41
00000080: c877 2141 7d25 0b41 adf1 f940 c263 3041
00000090: 7296 0b41 dd37 1e41 671f f440 5a83 fd40
000000a0: 5b6c 6541 b503 a340 7b64 0d41 3a5e 5e41
000000b0: 38a2 4c41 6243 1e41 01ab 2941 3d91 8140
000000c0: b6c6 0141 052d cf40 d2f4 1441 2c12 8540
000000d0: f9c4 9140 dbfd 2141 e89b f340 1cc7 8c40
000000e0: 5833 1841 659f b640 067f cc40 3d98 0741
000000f0: c9a6 c740 6efb a140 be4a bd40 72dc e340
00000100: 9a9b 1a41 57df 1341 60cb 1241 bc1f 2141
00000110: e562 4d40 a53d 3940 f790 db40 3d01 df40
00000120: 2373 3240 0c79 5541 fba1 0041 cc3f 0141
00000130: 70bd 6c41 2be4 4041 5da8 3e40 7b97 2841
00000140: b8b8 2c41 c6ca da40 16b4 c940 0982 cd40
00000150: 2658 1141 4ef8 2441 0617 1a41 ee2b 1241
00000160: 9fd6 0841 7449 1e41 1909 1341 c2f2 9640
00000170: 267e ab40 7829 e340 77fb e040 a3d7 1041
11.195905 7.910338 5.687634 6.24002 11.2516775 11.138851 8.036041 8.919384
6.7085733 8.85629 16.932425 8.416637 8.836818 9.089541 14.645286 4.1404247
7.4200606 8.69047 5.890923 8.017998 7.398056 6.561806 7.707131 8.301428
9.943396 8.675802 13.986261 12.949176 9.450592 7.500121 6.734443 11.765811
10.091743 8.696652 7.8107514 11.024355 8.72423 9.8886385 7.6288333 7.922284
14.338954 5.0942025 8.837031 13.898005 12.789604 9.891451 10.604249 4.0489793
8.111013 6.4742455 9.309771 4.1584682 4.5552945 10.124476 7.6127815 4.3993053
9.512535 5.7069573 6.390506 8.474668 6.2391095 5.061942 5.915374 7.12066
9.662989 9.242026 9.174652 10.070248 3.209161 2.8943875 6.861446 6.968901
2.7882774 13.342052 8.039546 8.078075 14.796249 12.055705 2.979026 10.536983
10.795097 6.8372526 6.303233 6.4221234 9.084021 10.310621 9.630621 9.135725
8.552398 9.892933 9.189721 4.7171335 5.359149 7.098812 7.0306964 9.052646

model_4/dense_9/BiasAdd/ReadVariableOp f4 [40]
00000000: 9e58 5b3e 8c32 cc3d ff3f 933d 3c3a 95bc
00000010: 6c8c 2c3c edad 503c 0439 673c ef71 943e
00000020: 4120 4d3d f03c 363e ef9c 0abd 3b01 c13d
00000030: d61c 2bbf 321c 1fbf eccc 17bf 798a 23bf
00000040: effd 1fbf 6152 16bf 1aed 27bf 44c9 19bf
00000050: b8ae 18bf ed38 24bf 7fb7 23bf b72b 31bf
00000060: 3487 1ebf ee08 36bf 944a 26bf 6692 27bf
00000070: 3329 26bf 9f84 1dbf 4cee 24bf c943 22bf
00000080: 8922 31bf 3055 33bf c416 1bbf 76b1 2bbf
00000090: f633 21bf ee66 2bbf d41f 2abf 46f1 26bf
0.21420524 0.099705786 0.07189941 -0.018216245 0.010531526 0.01273678 0.014112715 0.28993174
0.050079588 0.17796683 -0.03384107 0.09424063 -0.66840875 -0.621524 -0.5929706 -0.6388317
-0.62496847 -0.5871945 -0.65596163 -0.6007273 -0.596416 -0.6414936 -0.6395187 -0.6920733
-0.61925054 -0.71107376 -0.6495755 -0.6545776 -0.64906615 -0.6153049 -0.6442611 -0.6338468
-0.6919332 -0.7005186 -0.6058161 -0.6706766 -0.6296991 -0.66953933 -0.66454816 -0.65211904

model_4/dense_8/BiasAdd/ReadVariableOp f4 [48]
00000000: 2672 23bd 70c5 f73d b9fc 1b3e f765 863d
00000010: e12e 003e c131 e93c a560 523d 300c 253e
00000020: 32b7 3c3e dbd6 623d acee 983e bc59 093d
00000030: 7862 9a3c 21b8 2d3d 8b02 e93d 958e 343e
00000040: 0648 213e e6c3 9c3c 91f0 ee3b 7fbd 913d
00000050: ff10 a13d 2af9 993d e294 3a3e e693 473d
00000060: 24a0 c13d 63ea 353d 112b bb3d 4b35 aa3d
00000070: 6d4a cfbb 9e26 e23d 885b c63b 3747 6a3d
00000080: dc3a da3d c8ff ca3d eec7 c43c 87a8 523e
00000090: 4283 ba3d 7216 5e3d a2fa 053e 46ee e9bc
000000a0: 9d0f 093e c150 e93d ccd4 883d ee72 93bc
000000b0: 4d05 183e 0a52 653d c108 8a3d 5d16 ec3c
-0.039903782 0.12098205 0.15233125 0.06562417 0.12517883 0.028466107 0.0513617 0.1611793
0.18429258 0.055380683 0.29869592 0.033532843 0.018845782 0.042411927 0.11377438 0.17632516
0.15750131 0.01913638 0.0072918613 0.07116222 0.0786457 0.075182274 0.18220857 0.04872503
0.094543725 0.04441298 0.09139074 0.08310946 -0.006326011 0.11042522 0.006053392 0.057196822
0.10655758 0.09912068 0.024021115 0.205721 0.09107067 0.054220624 0.1308389 -0.028556
0.13384862 0.11392356 0.06681213 -0.017999139 0.14845772 0.05598644 0.06739951 0.028819257

model_4/gru_8/gru_cell/MatMul f4 [96, 126]
00000000: 8619 a338 9acb b8b6 58ed 3e37 6f76 07ba
00000010: 68eb 36b9 1edd 2e37 4016 72b9 3ff5 0a3a
00000020: edd0 7f39 2f54 35ba 7078 823a 63ce c839
00000030: 1af3 a6b9 f076 b439 0852 c039 0472 69b9
00000040: ab64 fe39 2f7f 27b9 d373 65ba 8a73 213a
00000050: 7f8e d6b8 bb04 e5b9 85d3 4d3a 582d 84b7
00000060: 3335 25ba bdb1 823a 5600 b139 58f0 4dba
00000070: 18e2 623a 0faf d239 bc3a 57ba 98a5 793a
00000080: 07b4 b039 3a03 16ba a3d7 2e3a 5178 a939
00000090: 86f4 01ba f1a4 1638 070e 0539 c2ad 4cba
000000a0: 0187 5a3a de3e 8939 7dc0 e0b9 cf00 873a
000000b0: 8cd5 283a 97c2 a0b9 03e9 723a 8a95 493a
000000c0: 355f 5bba ddff 263a 3a20 5d39 5a2d 93b9
000000d0: a110 893a 5f01 223a e926 b2b9 23e5 653a
000000e0: a003 c839 59e1 71b9 bbcb 853a d100 4c39
000000f0: 2f7b 2fb9 9a4c 133a ab71 8539 bc58 b1b7
00000100: 73c1 ac38 014a c8b8 bfc8 8238 5152 373a
00000110: d466 6ab6 b245 0dba 8548 1d3a a214 62b8
00000120: 5e5c 26b9 a607 ab3a 85d8 4239 b10e 95b8
00000130: 4b1a 3539 fbe9 c039 89b7 1dba f711 7439
00000140: 6016 8639 24f9 2fba 69b0 6439 d1be dc39
00000150: 2e64 7fba 7cad 24ba 0efa 4639 485f 4dba
00000160: 9a83 bfb6 b642 003a 6016 feb9 bb0f 813a
00000170: 7a67 8339 549f ecb9 1ced 5039 4627 e639
00000180: 7813 8bb9 a925 0239 b5d9 0a3a 2055 73ba
00000190: c32c 0d3a 0623 b139 87be dbb9 7e60 4db8
000001a0: a442 003a e84d 9fb9 6363 273a e4c4 81b7
000001b0: d813 96b9 3bc9 583a ca8e 0d38 8eaa 33ba
000001c0: 26b6 203a 89b2 8839 ed64 b8b7 50ce 243a
000001d0: 1864 a739 1587 27ba 6cf9 423a dd4b b739
000001e0: ee86 39ba 552d c939 d6d5 b739 e570 cd37
000001f0: 0583 e437 0eea 0139 b2fb 5939 99f4 33b8
00000200: d7a6 3eb9 1491 bbba 4252 7239 c2fb c2b9
00000210: 2957 2aba a111 88ba 179d 7ab9 aad9 dfb9
00000220: cea9 31b9 d07c 0839 0195 4e3a 94c3 e739
00000230: ffe1 66ba b434 4dba 2afc 5038 732f 8a38
00000240: e014 84b9 bbd3 8b39 33ac 273a 4a62 6c39
00000250: 60d9 543a 5274 0f39 27ee 023a 4e46 853a
00000260: eaea 4dba d8d3 64b8 df2a 33b9 9f43 57b9
00000270: 4f42 a7b9 524f 7839 da89 cfb9 d4b3 323a
00000280: 3134 ffb9 c6a6 8cb9 86cb ff39 329a 8db8
00000290: 7dda 3cb9 90e4 52b8 ef90 e9b9 30a1 093a
000002a0: 86c5 ff39 86c3 033b 10a8 7239 49de f9b9
000002b0: feec e3ba b48f 5238 4e72 313a 423a 1d38
000002c0: f94b b6b9 fa1c 8e3a 77e5 dfb9 4486 a939
000002d0: 7798 9939 63d7 80ba 0b4f 1bba c9a7 1c3a
000002e0: 7729 dbb9 ddda cdb8 02c9 e437 1fb1 a4ba
000002f0: 545a 3bb9 4e31 92b8 2b31 01b9 354a e236
00000300: 2585 cc38 9b80 47ba f69d 313a 26aa 963a
00000310: ad0a b9b9 2b94 153a 4d68 8838 dd40 863a
00000320: 7bd3 393a e137 acba 5281 29bb 9c21 893a
00000330: 2465 29b9 bbb1 2bb9 ab30 183a 6179 2e3a
00000340: 04d8 db39 f79f 1638 262c abba 9113 9e3a
00000350: d122 8b39 b52e b6ba 20eb 123b a8b9 1cb6
00000360: 474c 36ba dc95 0db9 9ebd 033a 1039 fe39
00000370: 2d2d 12ba cb31 f639 b686 d0ba 826f f9b8
00000380: 7f62 7f3a a647 08bb 65d4 44ba d334 f539
00000390: 89e3 e239 2d70 e339 c3e6 033a 2377 16b9
000003a0: 6713 4139 8ac6 f5b8 9cdd 9339 b8c4 9fba
000003b0: 9ae4 2d3a 12b7 533a c653 6cba 4c97 cf39
000003c0: a16c 3fba 37cb d2ba ca5e 4138 8011 ab3a
000003d0: 07c9 82ba 09f3 98b9 a0d1 eab9 00a5 6dba
000003e0: 4c80 70b9 d9ca 7e3a 22af fd39 f9ae bf39
000003f0: 135c 8cb9 9a7e 9e38 4da4 feb8 b8a4 d2b7
7.7772e-05 -5.5073297e-06 1.1380143e-05 -0.0005167489 -0.00017444568 1.0422691e-05 -0.00023087207 0.0005300827
0.00024396526 -0.00069171464 0.0009954106 0.00038300743 -0.00031843112 0.0003442089 0.00036682212 -0.00022263086
0.0004852166 -0.0001597374 -0.0008752916 0.0006158879 -0.00010230857 -0.00043681808 0.0007851648 -1.5756741e-05
-0.0006302178 0.0009971183 0.0003376032 -0.00078559434 0.00086549064 0.0004018475 -0.0008210351 0.00095232716
0.00033703467 -0.00057225267 0.00066697056 0.00032323835 -0.00049573963 3.59164e-05 0.00012689094 -0.00078078744
0.0008336157 0.00026177516 -0.00042868024 0.0010299924 0.00064405124 -0.0003066256 0.0009266289 0.00076898246
-0.0008368374 0.0006370524 0.00021088208 -0.00028071814 0.0010457226 0.0006180014 -0.00033979796 0.0008769801
0.00038149673 -0.000230675 0.0010207811 0.0001945526 -0.0001673519 0.00056190195 0.00025452426 -2.1141364e-05
8.237632e-05 -9.5505275e-05 6.236275e-05 0.0006993162 -3.492857e-06 -0.00053891086 0.0005999881 -5.3901815e-05
-0.00015865403 0.0013048544 0.00018581942 -7.10761e-05 0.000172713 0.00036795423 -0.00060164236 0.00023276346
0.00025575142 -0.0006712845 0.00021809492 0.0004210384 -0.0009742406 -0.00062819547 0.00018975904 -0.00078343274
-5.707564e-06 0.0004892753 -0.00048463326 0.0009846607 0.00025063363 -0.00045132136 0.00019924756 0.0004389828
-0.0002652665 0.00012411796 0.0005296723 -0.0009282399 0.0005385393 0.00033786165 -0.0004191289 -4.8965674e-05
0.0004892743 -0.00030384888 0.0006385354 -1.5469683e-05 -0.00028625014 0.0008269732 3.3750002e-05 -0.0006853723
0.0006130658 0.0002607296 -2.1981507e-05 0.00062868465 0.00031927298 -0.0006390673 0.00074376795 0.00034961003
-0.0007077296 0.00038371483 0.000350638 2.4490475e-05 2.7240729e-05 0.00012389591 0.00020788496 -4.2904725e-05
-0.00018181965 -0.0014310204 0.00023109562 -0.00037190138 -0.0006497973 -0.001038123 -0.00023900378 -0.00042696047
-0.00016943293 0.00013016467 0.00078804797 0.0004420547 -0.000880748 -0.0007827983 4.982591e-05 6.589191e-05
-0.00025192555 0.00026669897 0.0006396204 0.0002254333 0.00081195496 0.00013680875 0.0004994594 0.0010168047
-0.00078551343 -5.455673e-05 -0.00017086741 -0.00020529189 -0.00031902126 0.00023680672 -0.00039584824 0.00068169576
-0.00048676276 -0.00026827137 0.00048789027 -6.752125e-05 -0.0001801047 -5.0280767e-05 -0.00044549207 0.0005250154
0.00048784557 0.0020105555 0.00023141527 -0.00047658596 -0.0017389355 5.0201736e-05 0.0006769047 3.7485974e-05
-0.0003477035 0.0010842376 -0.0004270484 0.00032334228 0.0002929603 -0.0009829815 -0.0005924559 0.00059759297
-0.0004180183 -9.815928e-05 2.727332e-05 -0.0012564993 -0.0001786736 -6.971006e-05 -0.00012320715 6.7439637e-06
9.752278e-05 -0.0007610411 0.0006775552 0.00114948 -0.00035293904 0.00057059777 6.504413e-05 0.001024272
0.0007088703 -0.0013139212 -0.0025864434 0.0010462287 -0.00016154774 -0.0001637404 0.0005805592 0.000665566
0.0004193188 3.5911766e-05 -0.0013059422 0.0012060275 0.00026538086 -0.0013899418 0.0022417977 -2.3353878e-06
-0.0006954115 -0.00013502635 0.00050255086 0.0004848917 -0.000557619 0.00046957875 -0.0015909288 -0.00011894015
0.0009742155 -0.002079466 -0.0007508456 0.000467694 0.00043275606 0.0004338039 0.00050316396 -0.00014349497
0.00018413142 -0.00011719491 0.00028203137 -0.0012189364 0.00066334906 0.0008076291 -0.0009015169 0.00039594842
-0.0007302259 -0.0016082291 4.6103065e-05 0.001305148 -0.0009978124 -0.00029172775 -0.0004478814 -0.00090654194
-0.00022935978 0.0009719558 0.00048386405 0.00036560724 -0.00026771481 7.5576085e-05 -0.00012142267 -2.5110654e-05
