app/src/main/assets/models/colors.tflite (tflite, 673196 bytes, 52 tensors)

model_3/batch_normalization_12/batchnorm/add_1;model_3/conv1d_6/Conv1D/Squeeze;model_3/batch_normalization_12/batchnorm/mul_1;model_3/conv1d_6/BiasAdd;model_3/conv1d_6/BiasAdd/ReadVariableOp;model_3/batch_normalization_12/batchnorm/mul;model_3/batch_normalization_12/batchnorm/sub;model_3/conv1d_6/Conv1D;model_3/conv1d_7/Conv1D f4 [96]
0.39872956 -0.059834793 0.1932027 -0.38722605 -0.041703317 -0.16895953 -0.3508899 -0.4037937
0.3826015 -1.0277156 -0.36855668 0.24040155 -0.5080353 -0.6009724 -0.0813225 0.023110464
-0.1296818 -0.041948706 0.21145505 -0.096603654 -0.31731987 -0.1456376 0.054012075 -0.13317175
-0.14224209 -0.50539184 -0.24607328 -0.6040056 -0.31996393 -0.43044466 -0.6302949 0.21896127
-0.5956177 -0.1002143 0.75978714 0.12928936 -0.753704 0.92008454 -0.84363216 -0.15630963
0.03697826 -0.255979 1.0083808 -0.053454213 1.0011939 -0.5656278 0.19982521 -0.3050802
-0.07720691 -0.51893026 0.068653226 -0.4411992 0.29694474 -0.54548585 -0.2392048 0.96471643
0.008022677 -0.6176371 0.07638171 -0.50131255 -0.23045938 -0.51873654 -0.32986295 -0.062353835
-0.033408053 -0.3627506 -0.14910197 -0.3569166 -0.81744486 -0.6572014 -0.061422206 0.3910417
-0.4142858 0.43338105 0.5888084 0.25490403 -0.31619656 0.81644505 -0.3406627 -0.17532982
-0.4579137 0.7977177 -0.31615216 -0.21557942 0.8937744 -0.8407379 -0.23072255 0.7746909
-0.112003036 -0.44084 -0.15003291 -0.24163984 -0.07237898 0.24854332 -0.29107094 0.2724319
00000000: 4826 cc3e 5415 75bd eed6 453e 7e42 c6be
00000010: 19d1 2abd ba03 2dbe d7a7 b3be 0cbe cebe
00000020: 58e4 c33e 2f8c 83bf 76b3 bcbe d32b 763e
00000030: 9a0e 02bf 54d9 19bf 698c a6bd 2852 bd3c
00000040: 4ecb 04be 68d2 2bbd ac87 583e 23d8 c5bd
00000050: c077 a2be 0622 15be c43b 5d3d 2d5e 08be
00000060: e9a7 11be 5c61 01bf a2fa 7bbe 1ca0 1abf
00000070: 50d2 a3be 3e63 dcbe 025b 21bf 6237 603e
00000080: 677a 18bf 283d cdbd 6981 423f 6e64 043e
00000090: bff2 40bf a98a 6b3f 47f8 57bf a20f 20be
000000a0: 8476 173d ae0f 83be 9f12 813f cef2 5abd
000000b0: 1f27 803f fccc 10bf fb9e 4c3e 7933 9cbe
000000c0: a81e 9ebd 9dd8 04bf 109a 8c3d dde4 e1be
000000d0: 2409 983e f6a4 0bbf 1af2 74be a8f7 763f
000000e0: 8c71 033c 771d 1ebf 046e 9c3d 0556 00bf
000000f0: 8bfd 6bbe ebcb 04bf cce3 a8be bc66 7fbd
00000100: e2d6 08bd 72ba b9be 30ae 18be c6bd b6be
00000110: 1144 51bf 5a3e 28bf da95 7bbd 9e36 c83e
00000120: 451d d4be 1fe4 dd3e 26bc 163f c882 823e
00000130: 84e4 a1be 8b02 513f 576b aebe a989 33be
00000140: aa73 eabe 3a37 4c3f b2de a1be dac0 5cbe
00000150: 66ce 643f 993a 57bf 8842 6cbe 2552 463f
00000160: d961 e5bd c8b5 e1be 3aa2 19be 6f70 77be
00000170: 6e3b 94bd 2482 7e3e 4007 95be 327c 8b3e

model_3/batch_normalization_13/batchnorm/add_1;model_3/conv1d_7/Conv1D/Squeeze;model_3/batch_normalization_13/batchnorm/mul_1;model_3/conv1d_7/BiasAdd;model_3/conv1d_7/BiasAdd/ReadVariableOp;model_3/batch_normalization_13/batchnorm/mul;model_3/batch_normalization_13/batchnorm/sub;model_3/conv1d_7/Conv1D f4 [96]
0.47450414 0.11079119 -0.43481737 1.2672068 -0.20434293 -0.14026645 0.16677707 -0.14380893
-0.07048904 -0.045727048 -0.4320842 -0.36730224 -0.39280537 0.13479866 0.68775845 -0.3469691
-0.18521678 1.2874393 -0.3530392 -0.14010611 -0.20366487 -0.0644547 -0.50783086 -0.56302506
-0.18677586 -0.50933045 -0.3666284 -0.37464544 -0.38506836 1.2253091 -0.11087909 -0.4067744
-0.49269286 -0.41789457 -0.40034455 0.99298334 -0.3899254 -0.13705859 -0.30461603 -0.5002917
-0.3651131 1.164572 1.1787204 0.98489827 -0.34949842 -0.3584334 1.3611821 -0.7232917
-0.4484226 1.3592677 -0.21394528 1.3087016 0.77300483 -0.2819572 -0.24464695 -0.2971186
0.8188787 1.1549819 1.173209 0.8657858 1.0417383 1.3672621 -0.24745823 -0.21786247
0.16121367 -0.17625342 0.13575532 1.4499196 -0.41934562 -0.3713645 -0.17685539 1.4214603
-0.3926582 -0.34954426 -0.50729924 0.9593788 -0.43517792 -0.29755104 -0.17277996 -0.36476654
-0.3997422 -0.28431958 -0.47621623 -0.4175502 -0.16483383 -0.19580677 -0.10013977 -0.03159655
0.06982635 -0.39233407 -0.36647183 -0.46799684 1.5852605 1.3344091 -0.39443165 -0.6998
00000000: 35f2 f23e 7ee6 e23d 62a0 debe d533 a23f
00000010: 463f 51be 02a2 0fbe 9cc7 2a3e a642 13be
00000020: 8f5c 90bd 494c 3bbd 243a ddbe 0a0f bcbe
00000030: c91d c9be a908 0a3e f010 303f efa5 b1be
00000040: 78a9 3dbe d0ca a43f 8ec1 b4be fa77 0fbe
00000050: 868d 50be d300 84bd 3401 02bf 6922 10bf
00000060: 2c42 3fbe 7b63 02bf b8b6 bbbe 87d1 bfbe
00000070: ae27 c5be eed6 9c3f 9414 e3bd bc44 d0be
00000080: 3d42 fcbe 47f6 d5be f6f9 ccbe 2834 7e3f
00000090: 4da4 c7be 1659 0cbe a2f6 9bbe 1e13 00bf
000000a0: 1bf0 babe b210 953f 4fe0 963f 4b22 7c3f
000000b0: 75f1 b2be 9584 b7be 373b ae3f a529 39bf
000000c0: a697 e5be 7cfc ad3f 7914 5bbe 8983 a73f
000000d0: a5e3 453f b25c 90be bb84 7abe ee1f 98be
000000e0: 09a2 513f 72d6 933f b62b 963f 23a4 5d3f
000000f0: ae57 853f 7202 af3f b165 7dbe 5717 5fbe
00000100: 3215 253e c77b 34be 7103 0b3e f796 b93f
00000110: 78b4 d6be 7d23 bebe 9419 35be 69f2 b53f
00000120: 7f0a c9be 77f7 b2be 5dde 01bf d999 753f
00000130: a4cf debe 9c58 98be 3bed 30be aec2 babe
00000140: 02ab ccbe 5692 91be 9dd2 f3be 24c9 d5be
00000150: 33ca 28be 9281 48be 1416 cdbd 626b 01bd
00000160: 1e01 8f3d 03e0 c8be 32a2 bbbe 489d efbe
00000170: d1e9 ca3f ebcd aa3f f2f2 c9be 1826 33bf

model_3/batch_normalization_12/batchnorm/mul_1;model_3/conv1d_6/Conv1D/Squeeze;model_3/conv1d_6/BiasAdd;model_3/conv1d_6/BiasAdd/ReadVariableOp;model_3/batch_normalization_12/batchnorm/mul;model_3/conv1d_6/Conv1D;model_3/conv1d_7/Conv1D f4 [96, 1, 3, 126]
-0.0068021477 -4.597848e-05 0.0034071119 0.0014500645 0.26206753 0.05303687 0.012705351 0.2810131
0.09212655 0.013160626 0.17995948 0.12968378 0.0009811851 0.033251885 0.16809185 0.032146387
-0.08900904 -0.014724528 -0.047036722 0.09473968 -0.093073934 -0.12252398 0.23035957 -0.14713435
-0.1696583 0.13798119 -0.19119602 -0.021141233 0.19092375 -0.016873669 0.015463231 0.3051095
0.0036652933 0.0115422765 0.106836386 -0.021132238 0.01610408 -0.2103025 -0.050546654 0.06529869
0.22402301 0.012712762 0.15717752 0.27256772 0.07396706 0.18639185 -0.15419757 0.042673774
0.2336454 -0.6579161 -0.00048425468 0.053619828 0.16323131 -0.056898076 -0.007933763 0.14801762
-0.048154403 -0.0574889 -0.24887592 -0.09740973 -0.09003882 -0.7527736 -0.1450691 -0.0023443021
0.0029553561 0.0017738729 -0.036313638 0.18514693 0.07776274 0.029715424 0.24872273 0.12118398
0.10604433 0.21399441 0.14350244 0.13528055 0.19209476 0.15369146 0.034106676 -0.23307933
0.059143543 0.039553247 -0.002985478 0.065579385 0.030678771 0.003009445 0.03422018 -0.01230005
-0.15365264 -0.0031817076 -0.002087836 0.24394892 -0.0004466642 -0.080728754 0.49294555 0.026539665
-0.10525763 0.09224968 0.018017376 -0.106047526 -0.2032094 -0.016199797 0.01597959 0.3428031
0.030254127 0.101399295 0.11782351 0.07184474 0.110341325 -0.32303947 0.008937692 0.12828414
-0.7493461 -0.04622039 0.026891023 0.32429892 -0.0388715 0.12229935 0.20679717 -0.072292104
0.107964665 -0.16926655 -0.16986649 0.056945935 -0.4497493 -0.25101525 0.002577228 0.007411898
0.008274674 -0.01068881 0.2759045 0.0500869 -0.012986688 0.29217318 0.096656695 -0.025909875
0.17102411 0.13645023 -0.040955745 0.0066133705 0.18016197 -0.012203393 -0.041218407 -0.018564042
-0.094139 0.19708359 -0.09546057 -0.15996604 0.13837732 -0.14625488 -0.24356414 0.023565961
-0.18337849 -0.05616131 0.19547324 -0.014049161 -0.020121975 0.40305808 0.010885804 -0.029080143
0.11847975 -0.013437841 -0.06647087 -0.2602711 -0.040336806 0.047330465 0.20698014 0.022802778
0.14720502 0.30449843 0.09074758 0.19013263 -0.11445977 0.055847254 0.20418367 -0.63643587
0.015406284 0.039405376 0.17896502 -0.041859053 -0.024236033 0.13613041 -0.030375019 -0.06374244
-0.28215903 -0.08306671 -0.101753816 -0.74396384 -0.12750033 -0.009059255 0.005806736 0.00052018894
-0.04124721 0.19055815 0.079134546 0.02109911 0.26181832 0.12363416 0.09057255 0.20464854
0.14699037 0.10707592 0.24630211 0.15679616 0.036429476 -0.24512199 0.052055374 0.018481527
-0.012791057 0.05558671 -0.047400806 -0.11635542 0.023613965 -0.015792836 -0.11869333 -0.016371792
-0.0015178194 0.25953588 -0.008017308 -0.07875935 0.5168335 0.01322937 -0.1289618 0.13683403
0.005249778 -0.14493191 -0.17896888 -0.028999835 0.009133717 0.3663866 0.020583339 0.07142684
0.2059231 0.057823572 0.07184555 -0.38017702 -0.0057661654 0.09693431 -0.7301507 -0.06296657
0.021199726 0.34263673 -0.05070503 0.105133764 0.19628397 -0.091310486 0.082214125 -0.11775888
-0.19140553 0.02801318 -0.41908646 -0.27700326 0.005503731 0.010967995 0.006015004 0.006390909
00000000: 8de4 debb 04d9 40b8 da49 5f3b 1710 be3a
00000010: b72d 863e 303d 593d 1b2a 503c f3e0 8f3e
00000020: d8ac bc3d ab9f 573c 4c47 383e d3cb 043e
00000030: 1c9b 803a 2133 083d 4520 2c3e eeab 033d
00000040: 5f4a b6bd 263f 71bc 94a9 40bd e106 c23d
00000050: 8c9d bebd daed fabd 61e3 6b3e 63aa 16be
00000060: e8ba 2dbe f14a 0d3e e4c8 43be 6130 adbc
00000070: 8481 433e a63a 8abc 7e59 7d3c 5037 9c3e
00000080: 6b35 703b d11b 3d3c 09cd da3d 841d adbc
00000090: b4ec 833c 8a59 57be 020a 4fbd 52bb 853d
000000a0: 4a66 653e 3049 503c 25f3 203e ff8d 8b3e
000000b0: 0b7c 973d 81dd 3e3e f8e5 1dbe b2ca 2e3d
000000c0: bd40 6f3e 316d 28bf 90e3 fdb9 77a0 5b3d
000000d0: 1c26 273e f50d 69bd 9dfc 01bc ee91 173e
000000e0: 8d3d 45bd 7b79 6bbd 54d9 7ebe c17e c7bd
000000f0: 4666 b8bd c5b5 40bf ff8c 14be dda2 19bb
00000100: a6ae 413b 4c81 e83a 9cbd 14bd 2897 3d3e
00000110: 1242 9f3d c36d f33c 2cb1 7e3e 4e2f f83d
00000120: c52d d93d 5a21 5b3e 4ef2 123e fc86 0a3e
00000130: 7db4 443e 4b61 1d3e 71b3 0b3d 59ac 6ebe
00000140: 8040 723d 9602 223d 02a8 43bb 7c4e 863d
00000150: 0c52 fb3c 1c3a 453b 762a 0c3d 2686 49bc
00000160: 1e57 1dbe 3284 50bb 13d4 08bb bfcd 793e
00000170: 412e eab9 1e55 a5bd 5c63 fc3e b669 d93c
00000180: 5091 d7bd 66ed bc3d 2d99 933c 722f d9bd
00000190: 2016 50be 70b5 84bc a1e7 823c e383 af3e
000001a0: 81d7 f73c 6faa cf3d 744d f13d 5623 933d
000001b0: a2fa e13d 6e65 a5be 666f 123c eb5c 033e
000001c0: 25d5 3fbf 9751 3dbd 904a dc3c 820a a63e
000001d0: b937 1fbd 1578 fa3d a3c2 533e e20d 94bd
000001e0: 941c dd3d 3654 2dbe 7bf1 2dbe 2440 693d
000001f0: 8a45 e6be 1285 80be b6e6 283b 82df f23b
00000200: 8092 073c 1e20 2fbc 5b43 8d3e ec27 4d3d
00000210: 1ec6 54bc b997 953e f2f3 c53d f240 d4bc
00000220: f220 2f3e 9cb9 0b3e 36c1 27bd f9b4 d83b
00000230: 617c 383e bdf0 47bc a2d4 28bd 9e13 98bc
00000240: f3cb c0bd 48d0 493e d580 c3bd 23ce 23be
00000250: c9b2 0d3e d7c3 15be e168 79be 670d c13c
00000260: 92c7 3bbe 6709 66bd 232a 483e 742e 66bc
00000270: d7d6 a4bc a15d ce3e 5f5a 323c 7b39 eebc
00000280: 83a5 f23d 642a 5cbc e121 88bd 4142 85be
00000290: 3538 25bd 97dd 413d 9af2 533e e4cc ba3c
000002a0: eabc 163e 38e7 9b3e ded9 b93d 21b2 423e
000002b0: e269 eabd 17c0 643d 8615 513e 76ed 22bf
000002c0: a36a 7c3c 8867 213d 9b42 373e 6674 2bbd
000002d0: a58a c6bc c565 0b3e 08d5 f8bc 658b 82bd
000002e0: 2677 90be e11e aabd 4e64 d0bd 6a74 3ebf
000002f0: 728f 02be 456d 14bc 6f46 be3b 4a5d 083a
00000300: d6f2 28bd ad21 433e 4b11 a23d 0ad8 ac3c
00000310: 0d0d 863e e833 fd3d 1a7e b93d 638f 513e
00000320: a584 163e 9f4a db3d 9f36 7c3e 2c8f 203e
00000330: 1337 153d 4201 7bbe 0438 553d 9266 973c
00000340: 9591 51bc e4ae 633d 5927 42bd c04b eebd
00000350: 1372 c13c fa5f 81bc 7d15 f3bd 231e 86bc
00000360: 91f1 c6ba e3e1 843e 075b 03bc 954c a1bd
00000370: 334f 043f 00c0 583c 900e 04be 381e 0c3e
00000380: 5406 ac3b 0869 14be 9e43 37be 1091 edbc
00000390: 96a5 153c 0697 bb3e 649e a83c 3c48 923d
000003a0: 81dd 523e 69d8 6c3d c223 933d 90a6 c2be
000003b0: 1af2 bcbb 7f85 c63d 28eb 3abf 9ef4 80bd
000003c0: 0cab ad3c 156e af3e 14b0 4fbd 5f50 d73d
000003d0: aafe 483e fe00 bbbd e15f a83d 912b f1bd
000003e0: d0ff 43be e57b e53c 8092 d6be 5fd3 8dbe
000003f0: a458 b43b 1bb3 333c 8319 c53b d56a d13b

model_3/batch_normalization_13/batchnorm/mul_1;model_3/conv1d_7/Conv1D/Squeeze;model_3/conv1d_7/BiasAdd;model_3/conv1d_7/BiasAdd/ReadVariableOp;model_3/batch_normalization_13/batchnorm/mul;model_3/conv1d_7/Conv1D f4 [96, 1, 3, 96]
-0.05874918 -0.016147487 0.014922553 -0.030168992 0.047565978 -0.030168196 0.047614828 -0.018282706
-0.019457947 0.1630666 0.0018560867 0.033259165 -0.02104609 -0.06293439 -0.010700445 -0.06947368
-0.018678477 -0.0067214267 0.030083455 -0.036347687 -0.03562822 0.017973017 0.030397713 -0.026979726
0.019016104 0.026745921 -0.006821276 0.024238994 0.042441476 -0.019353315 0.049959853 -0.01627386
-0.042698666 0.0028459446 0.005307139 0.014987011 0.008735085 0.0017342875 0.008705993 -0.10208172
-0.078868054 0.07562055 -0.01775304 -0.001562812 -0.015196474 -0.04717619 0.016099377 -0.0150848515
-0.0056947093 0.03128997 0.055526037 -0.01581525 -0.0037725763 0.043355018 -0.06383966 -0.06375694
0.014823791 0.006362753 0.026876295 0.024193075 -0.008828988 0.18417785 -0.07062767 -0.002912607
0.023437373 0.032250635 0.024423704 0.01899742 -0.018738009 0.008135939 -0.042303227 -0.12918137
0.014055298 -0.041769262 -0.012549505 0.003938061 0.0033289122 -0.018576313 0.012162218 0.011944111
-0.041386202 -0.008989634 0.031189239 -0.00797961 -0.03988081 0.021557538 0.033595342 -0.025462268
-0.0029808285 0.0067502274 0.003418601 0.01239292 0.056215763 -0.006140831 -0.011661905 -0.12780097
-0.06454366 -0.017300583 0.015760722 -0.027720176 0.049111236 -0.032809626 0.051563215 -0.015980871
-0.021692589 0.16805552 0.003615372 0.032836135 -0.018741965 -0.06628094 -0.006730987 -0.06761077
-0.016035054 -0.005357606 0.03052414 -0.041184343 -0.037766565 0.018489318 0.03181526 -0.025311906
0.018997187 0.027780367 -0.008128044 0.027649684 0.040440913 -0.016121337 0.05041856 -0.014127113
-0.04360451 0.0037528838 0.001508428 0.017479634 0.010097443 -0.008934719 0.010139266 -0.099919304
-0.08625774 0.07702949 -0.024502683 0.0016429082 -0.024760438 -0.051143847 0.01486271 -0.011652398
-0.0061813793 0.032801174 0.058736704 -0.011664498 -0.002358187 0.046348907 -0.06819734 -0.07477328
0.018089281 0.006666945 0.027048342 0.026758062 -0.005995459 0.19307443 -0.07495211 -0.0011206709
0.026879627 0.037116338 0.022315837 0.020046432 -0.016821923 0.010907882 -0.04117927 -0.13557434
0.016851932 -0.045711007 -0.020738728 0.005836244 0.007406743 -0.026199896 0.013878213 0.015652722
-0.04450727 -0.008568731 0.036413692 -0.00469909 -0.05034101 0.020904867 0.0342622 -0.031470764
-0.0037965362 0.007874469 0.002226407 0.015447498 0.059650134 -0.008846681 -0.009424377 -0.13359769
-0.059668247 -0.016506089 0.017285042 -0.025217107 0.047620412 -0.03001705 0.05292794 -0.014171696
-0.02394902 0.16526255 0.0072117397 0.03071736 -0.016174754 -0.0665496 -0.0049860263 -0.058426313
-0.015126175 -0.0031474351 0.031772256 -0.039619233 -0.03549258 0.01818798 0.031949144 -0.023186117
0.015421733 0.02671785 -0.007351505 0.02969677 0.034347277 -0.0141401505 0.048624642 -0.011296387
-0.041283716 0.004614473 0.004041438 0.021333832 0.009981669 -0.0030175308 0.00898944 -0.099003114
-0.08559217 0.076387145 -0.024857456 0.00097039033 -0.017851638 -0.04998772 0.015602393 -0.009336638
-0.0010246645 0.03285162 0.058649044 -0.009036546 0.00026038376 0.04871598 -0.067079596 -0.06844654
0.018690692 0.0065043624 0.027707329 0.029052256 -0.0043506585 0.18769315 -0.073975526 -0.00090063
00000000: fba2 70bd bc47 84bc b97d 743c f624 f7bc
00000010: 8bd4 423d 4b23 f7bc c407 433d 9dc5 95bc
00000020: 4666 9fbc eefa 263e ef47 f33a c33a 083d
00000030: da68 acbc bfe3 80bd eb50 2fbc 3748 8ebd
00000040: 9b03 99bc 6a3f dcbb 9471 f63c 50e1 14bd
00000050: e5ee 11bd 263c 933c a004 f93c 9604 ddbc
00000060: a9c7 9b3c 431a db3c 0385 dfbb db90 c63c
00000070: 1dd7 2d3d d88a 9ebc b4a2 4c3d c250 85bc
00000080: cce4 2ebd 0783 3a3b 82e7 ad3b 158c 753c
00000090: 9a1d 0f3c 0851 e33a 95a3 0e3c 3910 d1bd
000000a0: 9385 a1bd f2de 9a3d d36e 91bc 45d7 ccba
000000b0: a2fa 78bc d23b 41bd d7e2 833c 7426 77bc
000000c0: af9a babb e929 003d 456f 633d fc8e 81bc
000000d0: 543d 77bb 0895 313d 5ebe 82bd 0093 82bd
000000e0: 7cdf 723c a47e d03b ad2b dc3c 8e30 c63c
000000f0: 76a7 10bc 1e99 3c3e 3da5 90bd 70e1 3ebb
00000100: bcff bf3c 3e19 043d 3814 c83c 7aa0 9b3c
00000110: 7480 99bc 9a4c 053c 2646 2dbd 1f48 04be
00000120: 3148 663c 3f16 2bbd 709c 4dbc da0a 813b
00000130: e129 5a3b 5a2d 98bc 0a44 473c 3cb1 433c
00000140: 9484 29bd 4249 13bc 9380 ff3c e9bc 02bc
00000150: 0f5a 23bd 6f99 b03c 459b 093d 3f96 d0bc
00000160: 015a 43bb 0331 dd3b 9b0a 603b ad0b 4b3c
00000170: 8042 663d 0639 c9bb 9311 3fbc 42de 02be
00000180: 772f 84bd f4b9 8dbc a11c 813c 6c15 e3bc
00000190: dd28 493d 6363 06bd f333 533d 51ea 82bc
000001a0: a8b4 b1bc bf16 2c3e e1ef 6c3b 2f7f 063d
000001b0: c088 99bc 4dbe 87bd 9d8f dcbb 8477 8abd
000001c0: f25b 83bc db8e afbb c30d fa3c eab0 28bd
000001d0: 1db1 1abd e976 973c b850 023d ea5a cfbc
000001e0: fd9f 9b3c a793 e33c 7d2b 05bc 9781 e23c
000001f0: 5fa5 253d e510 84bc b183 4e3d 6875 67bc
00000200: a59a 32bd f1f2 753b 72b6 c53a 7331 8f3c
00000210: bf6f 253c ed62 12bc 2a1f 263c 7ea2 ccbd
00000220: e6a7 b0bd a3c1 9d3d dab9 c8bc da56 d73a
00000230: 67d6 cabc 367c 51bd b982 733c b3e9 3ebc
00000240: 2b8d cabb 865a 063d e695 703d 731c 3fbc
00000250: d08b 1abb 5ad8 3d3d 0cab 8bbd bc22 99bd
00000260: f92f 943c 6376 da3b 7c94 dd3c b933 db3c
00000270: 8e75 c4bb 4eb5 453e 7e80 99bd 7ae3 92ba
00000280: aa32 dc3c 4d07 183d b4cf b63c 6a38 a43c
00000290: 21ce 89bc f9b6 323c 98ab 28bd 00d4 0abe
000002a0: 100d 8a3c 773b 3bbd 44e4 a9bc f73d bf3b
000002b0: 43b4 f23b 2aa1 d6bc 7261 633c 233a 803c
000002c0: 414d 36bd dd63 0cbc 8626 153d d3fa 99bb
000002d0: 6032 4ebd af40 ab3c 8556 0c3d 7de7 00bd
000002e0: 4fcf 78bb eb03 013c e9e8 113b 8117 7d3c
000002f0: b353 743d abf1 10bc b468 1abc d5cd 08be
00000300: b166 74bd c737 87bc 5c99 8d3c 1b94 cebc
00000310: 9f0d 433d 51e6 f5bc f8ca 583d 6730 68bc
00000320: bc30 c4bc 963a 293e 7550 ec3b f9a2 fb3c
00000330: eb80 84bc 284b 88bd d261 a3bb 6e50 6fbd
00000340: c7d3 77bc 3345 4ebb a023 023d c747 22bd
00000350: ab60 11bd f5fe 943c 1bdd 023d d0f0 bdbc
00000360: 70ab 7c3c 64df da3c e5e4 f0bb a446 f33c
00000370: bbaf 0c3d 17ac 67bc a22a 473d 7b14 39bc
00000380: 1d19 29bd 0135 973b 0a6e 843b 4ac4 ae3c
00000390: 278a 233c c4c1 45bb 7248 133c 25c2 cabd
000003a0: f34a afbd dd70 9c3d dda1 cbbc cb61 7e3a
000003b0: 993d 92bc ecbf 4cbd 2ea1 7f3c b3f8 18bc
000003c0: 094e 86ba 6c8f 063d fb39 703d 050e 14bc
000003d0: 1e84 8839 688a 473d 0761 89bd b32d 8cbd
000003e0: 391d 993c 8c22 d53b 7bfa e23c fffe ed3c
000003f0: f88f 8ebb a232 403e 7b80 97bd 4218 6cba

model_3/gru_7/gru_cell/strided_slice_4 f4 [48]
0.17779665 -0.039947562 -0.1379019 -0.06315602 -0.038693663 -0.1431389 -0.025715046 -0.13054308
0.012195124 0.10390084 0.047833487 -0.011614685 -0.0221518 0.036877554 -0.045770526 -0.024191828
-0.044112757 -0.061186638 -0.18519415 -0.025503429 -0.095171496 0.07543591 -0.105467044 -0.049970627
0.10488031 -0.08962245 -0.08680934 -0.06967443 0.037002567 -0.019052358 0.13538516 0.12863174
-0.009331805 -0.018445274 -0.027265014 0.017754395 -0.07440437 -0.013771224 -0.003255054 0.043078672
-0.0634556 -0.1075719 0.030786823 -0.059989028 -0.045185372 -0.051420536 -0.017657878 -0.011785711
00000000: 5310 363e 0ea0 23bd 2836 0dbe f257 81bd
00000010: 3f7d 1ebd 0193 12be 5ca8 d2bc 16ad 05be
00000020: 0fce 473c f7c9 d43d 0ced 433d 854b 3ebc
00000030: b177 b5bc eb0c 173d e079 3bbd f12d c6bc
00000040: 94af 34bd d79e 7abd 89a3 3dbe 91ec d0bc
00000050: 46e9 c2bd 247e 9a3d 1bff d7bd 00ae 4cbd
00000060: 7dcb d63d fa8b b7bd 18c9 b1bd 78b1 8ebd
00000070: 0190 173d b113 9cbc 68a2 0a3e 0ab8 033e
00000080: 6de4 18bc 8b1a 97bc e15a dfbc aa71 913c
00000090: 5161 98bd b3a0 61bc be52 55bb 4373 303d
000000a0: 02f5 81bd a84e dcbd a634 fc3c 0eb7 75bd
000000b0: 4c14 39bd 579e 52bd 41a7 90bc db18 41bc

model_3/gru_7/gru_cell/strided_slice_3 f4 [48]
0.17919286 0.17134355 0.15657721 0.20735249 -0.20827688 0.26566586 0.116613135 -0.07606003
0.1659169 0.15675345 -0.18697523 0.16715847 0.14535603 0.091667935 0.21255818 0.098100126
0.09583545 0.019080836 -0.034127012 0.1345369 -0.07472884 0.17131883 -0.08821888 -0.17602138
0.21833083 0.24861948 0.18229426 0.05434789 -0.031250875 0.041893143 0.03625809 0.29949135
-0.13374248 -0.042437393 0.009399756 -0.08468457 0.0006580517 0.22642662 0.07678064 0.0007841059
0.19263263 -0.18104036 0.04928292 0.13774192 0.20959918 0.071654856 0.07231018 -0.14460951
00000000: 557e 373e af74 2f3e c755 203e 3654 543e
00000010: 8946 55be 5b05 883e ded2 ee3d 5cc5 9bbd
00000020: 1fe6 293e fa83 203e 6f76 3fbe 972b 2b3e
00000030: 36d8 143e 66bc bb3d daa8 593e b8e8 c83d
00000040: 6045 c43d 6a4f 9c3c c4c8 0bbd 0bc4 093e
00000050: 6f0b 99bd 346e 2f3e 1aac b4bd f33e 34be
00000060: 1e92 5f3e 1b96 7e3e 59ab 3a3e e59b 5e3d
00000070: eb00 00bd 2598 2b3d 5d83 143d ee56 993e
00000080: caf3 08be d5d2 2dbd 6f01 1a3c 1b6f adbd
00000090: 1a81 2c3a 61dc 673e 2b3f 9d3d 758c 4d3a
000000a0: 7d41 453e a562 39be e3dc 493d 380c 0d3e
000000b0: 2ba1 563e c8bf 923d 5c17 943d 8414 14be

model_3/gru_7/gru_cell/strided_slice_5 f4 [48]
0.08096309 0.06408317 -0.11647845 -0.04321792 -0.062231794 -0.07686135 -0.08803185 -0.047639888
0.10761766 0.19420773 0.047480635 0.03013178 -0.0798379 0.03298678 -0.21762685 0.011835196
-0.11565207 0.14067149 0.13150775 0.12759037 -0.03470536 0.04847731 0.0013142434 0.113910735
-0.102374434 -0.10873131 -0.035544004 -0.108229555 -0.10895961 -0.028325588 -0.1206331 0.10018687
-0.068843685 -0.01653503 0.21846272 -0.07988252 -0.015427363 -0.09715383 -0.035007495 -0.061651625
0.018883644 -0.03343708 0.004159718 0.04899512 0.008325157 0.0069545913 -0.063844755 0.035442915
00000000: facf a53d 093e 833d 418c eebd 4605 31bd
00000010: c4e6 7ebd 7c69 9dbd 0b4a b4bd 0b22 43bd
00000020: a666 dc3d 64de 463e 0e7b 423d ecd6 f63c
00000030: 0e82 a3bd 251d 073d 93d9 5ebe 69e8 413c
00000040: feda ecbd 300c 103e f8a9 063e 0da7 023e
00000050: 3527 0ebd 2590 463d b142 ac3a 084a e93d
00000060: b0a9 d1bd 85ae debd 9796 11bd 75a7 ddbd
00000070: 3726 dfbd 100b e8bc 7d0e f7bd c62e cd3d
00000080: ebfd 8cbd 7974 87bc b1b4 5f3e 7299 a3bd
00000090: 0dc3 7cbc 96f8 c6bd 0564 0fbd 6a86 7cbd
000000a0: dfb1 9a3c 52f5 08bd 3e4e 883b 1baf 483d
000000b0: 3d66 083c 57e3 e33b 0ac1 82bd 972c 113d

model_3/gru_7/gru_cell/strided_slice_11 f4 [48]
0.09094001 0.049860384 -0.08441504 -0.04042186 -0.047413103 -0.02827812 -0.08309157 -0.055792615
0.07202054 0.13011794 0.042962603 0.045350965 -0.05891853 -0.047200862 -0.10907047 -0.031144243
-0.036678232 0.09549932 0.08276978 0.14256576 -0.05378847 0.009208815 0.024665592 0.048870623
-0.103241906 0.007835078 0.046850655 -0.082111485 -0.04383702 -0.06483442 -0.11852612 0.06712206
-0.06153645 -0.039364345 0.15467441 -0.07841998 -0.07299203 -0.024943793 0.055186667 -0.077182695
0.069035456 -0.08193963 -0.004198956 0.054176826 -0.025978375 -0.029074151 -0.05358067 0.008964254
00000000: c23e ba3d 673a 4c3d cbe1 acbd 6491 25bd
00000010: 3e34 42bd 84a7 e7bc ea2b aabd cc86 64bd
00000020: 817f 933d a33d 053e 8ef9 2f3d efc1 393d
00000030: 8e54 71bd b155 41bd 5760 dfbd 3622 ffbc
00000040: ea3b 16bd 2695 c33d 3483 a93d c2fc 113e
00000050: 4c51 5cbd 92e0 163c 7f0f ca3c 902c 483d
00000060: 7e70 d3bd b35e 003c 79e6 3f3d 112a a8bd
00000070: 728e 33bd e9c7 84bd d3bd f2bd 4a77 893d
00000080: a50d 7cbd 823c 21bd f862 1e3e a89a a0bd
00000090: d87c 95bd ed56 ccbc 6a0b 623d f611 9ebd
000000a0: 7662 8d3d f7cf a7bd 6597 89bb 85e8 5d3d
000000b0: 9ad0 d4bc ea2c eebc 6877 5bbd cede 123c

model_3/gru_6/gru_cell/strided_slice_4 f4 [96]
0.019522429 -0.013194618 -0.06522459 0.05733344 -0.06786086 -0.06449929 -0.05116653 0.011558717
-0.044595566 0.05674807 -0.1323844 -0.001871292 0.0070152082 -0.102507666 -0.0032521442 -0.011495537
-0.113299154 -0.0304188 -0.018825559 -0.087660655 -0.07018692 -0.027723562 -0.010579178 -0.08186138
0.062362257 -0.08007757 -0.07488542 0.0520379 -0.005986274 0.018479932 -0.02673196 0.042130552
-0.056004297 -0.16675735 0.11372335 -0.09215075 -0.07347676 -0.07096874 -0.06217121 0.024063235
-0.13008082 -0.0007085389 0.023486862 -0.20713396 -0.10046115 0.047617283 -0.011775137 -0.0064126584
0.0071205082 0.03556147 0.00669564 0.007328701 0.04764331 -0.05687608 0.00086347514 -0.039741307
-0.11929154 -0.0641983 0.028183926 0.038382333 -0.027377693 -0.07380742 -0.07539245 -0.02925522
0.0017773246 0.22405782 0.009764241 -0.1588145 0.029234866 -0.03220608 0.03001833 -0.11246824
-0.068145774 -0.029174127 0.0189823 -0.11088945 -0.10584777 0.030519791 0.06447932 0.06858961
-0.06038216 0.08491648 -0.05769358 -0.028510131 -0.0048449878 -0.09247603 -0.088571295 0.019225858
-0.08390127 0.077849895 -0.17848018 -0.180672 0.043314267 0.012936091 0.06639026 0.006057018
00000000: 80ed 9f3c 3d2e 58bc 7894 85bd 78d6 6a3d
00000010: a2fa 8abd 3418 84bd ff93 51bd c660 3d3c
00000020: d7a9 36bd aa70 683d c78f 07be 2446 f5ba
00000030: d5df e53b 8aef d1bd ed21 55bb c757 3cbc
00000040: 6309 e8bd d930 f9bc 0f38 9abc 6e87 b3bd
00000050: 29be 8fbd 861c e3bc 4a54 2dbc f0a6 a7bd
00000060: 916f 7f3d b6ff a3bd 875d 99bd b125 553d
00000070: 8228 c4bb 3a63 973c fcfc dabc 1691 2c3d
00000080: c364 65bd 70c2 2abe cae7 e83d 88b9 bcbd
00000090: fc7a 96bd 0f58 91bd 3da7 7ebd 4320 c53c
000000a0: e833 05be 3ebd 39ba 8567 c03c ed1a 54be
000000b0: 93be cdbd 570a 433d 81ec 40bc 4721 d2bb
000000c0: 2753 e93b e7a8 113d 1967 db3b 9a25 f03b
000000d0: a225 433d e4f6 68bd d65a 623a c8c7 22bd
000000e0: 1f4f f4bd 667a 83bd fae1 e63c cb36 1d3d
000000f0: 2f47 e0bc 5828 97bd 5b67 9abd a5a8 efbc
00000100: 1ef5 e83a 6a6f 653e 32fa 1f3c 45a0 22be
00000110: f57d ef3c 86ea 03bd 00e9 f53c c055 e6bd
00000120: 0390 8bbd 94fe eebc c580 9b3c 021a e3bd
00000130: b7c6 d8bd a404 fa3c bc0d 843d b678 8c3d
00000140: 4953 77bd b1e8 ad3d 1a50 6cbd 148e e9bc
00000150: b4c2 9ebb 1364 bdbd de64 b5bd 8c7f 9d3c
00000160: 6ed4 abbd c46f 9f3d 82c3 36be 1502 39be
00000170: 4d6a 313d e6f1 533c 9ef7 873d f379 c63b

model_3/gru_6/gru_cell/strided_slice_3 f4 [96]
0.16839087 0.14937553 -0.10411781 0.14934327 -0.19209826 0.21176532 0.21240893 0.099158324
-0.19058186 0.285102 0.086737745 0.1697436 0.13414086 -0.19289163 -0.00086428376 -0.07391493
-0.023814857 -0.106679656 -0.15908355 -0.042412046 0.007585981 0.15649216 -0.06200553 0.26998618
0.16411544 0.05665841 0.09571991 0.2452612 0.22027718 -0.04143823 0.16770962 -0.17733417
0.23751044 -0.030212246 -0.13640375 0.12410871 -0.06613157 -0.13412587 -0.16359383 -0.12868536
0.06387346 0.023808355 0.029051468 -0.039592836 0.23837712 0.052144643 0.0897013 0.042839322
0.23225209 0.13350764 -0.038069542 -0.03864603 0.027692337 0.034431525 0.27646565 0.013343684
-0.04229976 0.18312205 0.16332212 -0.19194941 -0.23339732 0.22101907 -0.01836746 0.17144847
-0.13982563 0.2615328 -0.11147016 0.15550594 -0.044588804 -0.11974406 -0.17691024 -0.16139574
0.021923685 -0.09305486 0.061361108 -0.028139504 -0.12259435 -0.25084084 0.009899331 0.24935678
-0.058473747 -0.09627789 0.09572788 -0.14037196 -0.07076752 -0.13144156 -0.042728286 0.1567845
-0.030629499 -0.11167794 0.0030037556 -0.024965681 0.0670555 0.075883605 0.25107634 0.16856714
00000000: a86e 2c3e e6f5 183e b83b d5bd 71ed 183e
00000010: 68b5 44be 02d9 583e ba81 593e 8513 cb3d
00000020: e427 43be e4f8 913e 8fa3 b13d 44d1 2d3e
00000030: 395c 093e 6285 45be 1a91 62ba b660 97bd
00000040: 6017 c3bc dd7a dabd cce6 22be 41b8 2dbd
00000050: d293 f83b 7b3f 203e 83f9 7dbd a13b 8a3e
00000060: e10d 283e a612 683d cd08 c43d c125 7b3e
00000070: 5790 613e 22bb 29bd 12bc 2b3e 1797 35be
00000080: f035 733e ac7f f7bc 6dad 0bbe b52c fe3d
00000090: fd6f 87bd 4b58 09be 2485 27be 18c6 03be
000000a0: 17d0 823d bd09 c33c 58fd ed3c 192c 22bd
000000b0: 2219 743e 9f95 553d 51b5 b73d 4978 2f3d
000000c0: 7ed3 6d3e 3ab6 083e cfee 1bbd 4d4b 1ebd
000000d0: 0adb e23c 1208 0d3d e88c 8d3e 789f 5a3c
000000e0: 8342 2dbd 5984 3b3e ea3d 273e 638e 44be
000000f0: b5ff 6ebe d352 623e 5b77 96bc 3090 2f3e
00000100: 732e 0fbe a1e7 853e 784a e4bd f33c 1f3e
00000110: c0a2 36bd 603c f5bd f527 35be ed44 25be
00000120: 4d99 b33c 8c93 bebd c955 7b3d d184 e6bc
00000130: bf12 fbbd 366e 80be ce30 223c 6257 7f3e
00000140: 2b82 6fbd 582d c5bd fb0c c43d abbd 0fbe
00000150: 90ee 90bd 9e98 06be db03 2fbd 1e8c 203e
00000160: b7ea fabc 67b7 e4bd a8da 443b d484 ccbc
00000170: 6554 893d dd68 9b3d 148d 803e dd9c 2c3e

model_3/gru_6/gru_cell/strided_slice_5 f4 [96]
-0.028994802 -0.093551874 -0.014634315 0.010513059 -0.028654736 0.02542759 0.012272576 -0.039292805
0.076633684 0.016766842 -0.14522018 0.010259334 -0.045006197 0.07817843 -0.038080003 0.0290859
-0.044074487 0.050200786 -0.028927201 0.010227834 0.0916006 -0.08095975 -0.0593665 -0.08385788
0.058318116 -0.010127885 -0.07928257 0.04159993 -0.014849926 0.07080866 -0.08145383 -0.0317015
0.025739944 -0.12581842 -0.00039644883 -0.03883335 -0.007144385 -0.01674474 -0.030903464 0.04399254
-0.028306507 -0.05835328 -0.057637602 -0.08454834 0.006165591 0.11850892 -0.015088211 0.038001195
-0.04346672 -0.005404691 -0.05670252 0.0027978844 0.10107474 -0.06705103 -0.011525769 0.036209702
0.025377259 -0.043360595 -0.020022755 -0.051971234 0.005033815 -0.020316467 0.018958423 -0.074599124
0.06182 -0.1125918 -0.07241565 -0.04355636 0.035760414 -0.05250327 -0.0343573 -0.009450946
-0.0588991 -0.059007294 0.02035559 0.062506385 0.031950668 3.6817844e-05 0.011184363 -0.01546209
-0.005367253 -0.084170945 -0.116150916 -0.08149541 0.010557893 -0.02060473 0.07043213 -0.09977024
0.016939122 0.0692191 -0.051239155 0.028930396 -0.08026651 0.0025704291 -0.019158237 -0.063337564
00000000: 8286 edbc 2098 bfbd c4c4 6fbc f73e 2c3c
00000010: 56bd eabc 854d d03c ea12 493c 7ef1 20bd
00000020: 1ff2 9c3d 9e5a 893c 99b4 14be c416 283c
00000030: 6b58 38bd 031c a03d c7f9 1bbd 8e45 ee3c
00000040: 7387 34bd 579f 4d3d bdf8 ecbc a592 273c
00000050: 1899 bb3d 3ace a5bd 492a 73bd aebd abbd
00000060: fade 6e3d 6eef 25bc e65e a2bd b064 2a3d
00000070: 1b4d 73bc 2104 913d 44d1 a6bd 6fd9 01bd
00000080: 93dc d23c 8bd6 00be 76da cfb9 b80f 1fbd
00000090: 721b eabb 442c 89bc 4329 fdbc 8631 343d
000000a0: 0ce3 e7bc d903 6fbd 6815 6cbd ae27 adbd
000000b0: ba08 ca3b ceb4 f23d 8b34 77bc 24a7 1b3d
000000c0: 290a 32bd d619 b1bb e740 68bd b65c 373b
000000d0: 4600 cf3d 0d52 89bd 94d6 3cbc a050 143d
000000e0: f8e3 cf3c e19a 31bd c306 a4bc cadf 54bd
000000f0: b3f2 a43b b86e a6bc b24e 9b3c 6dc7 98bd
00000100: f836 7d3d 8896 e6bd a84e 94bd 2768 32bd
00000110: 8379 123d ab0d 57bd 3dba 0cbd 24d8 1abc
00000120: 2f40 71bd a2b1 71bd c4c0 a63c 5903 803d
00000130: b4de 023d dc6c 1a38 9e3e 373c b554 7dbc
00000140: c8df afbb d161 acbd 88e0 edbd 11e7 a6bd
00000150: 03fb 2c3c 40cb a8bc b83e 903d 5754 ccbd
00000160: eac3 8a3c bec2 8d3d 26e0 51bd 70ff ec3c
00000170: c562 a4bd a574 283b bcf1 9cbc 20b7 81bd

model_3/gru_6/gru_cell/strided_slice_11 f4 [96]
0.0022731354 -0.054499827 -0.038947932 0.0281205 -0.016215207 0.017429423 0.00815935 0.00454819
0.07485642 -0.03516266 -0.09436731 -0.008843594 -0.032123953 0.033070236 -0.05222069 0.028857647
-0.08425115 0.03066303 -0.016360134 -0.026162313 0.0700362 -0.1011502 -0.0903406 -0.10199157
0.024978157 0.021411259 -0.106387824 0.024132175 -0.005395429 0.0663904 -0.025742885 -0.063196234
0.024618221 -0.085565925 0.00031076942 -0.036709633 -0.0044535585 0.058441248 -0.054088507 0.04250025
-0.039427154 -0.016971137 -0.035368826 -0.03891518 0.03392318 0.0733746 -0.011559894 0.036017235
-0.039108064 0.029768724 -0.047175154 -0.010830818 0.0802586 -0.07461772 -0.007448094 0.013224938
0.028238343 -0.023375861 -0.06079511 -0.05627234 0.01528881 -0.028174749 -0.008892998 -0.07358534
0.07830329 -0.038292002 -0.05228271 -0.017882796 0.027646119 -0.047498204 -0.02363492 -0.0161435
-0.040692158 -0.052376226 -0.016164592 0.10530177 0.03740287 -0.0030590934 0.03408251 -0.025727022
-0.035183594 -0.11431834 -0.07475112 -0.071338244 0.024979535 0.008195272 0.063484944 -0.125166
0.042506643 0.094714716 -0.032106686 0.053469125 -0.05745571 0.0002456359 -0.015091878 -0.050689388
00000000: e2f8 143b 363b 5fbd de87 1fbd f65c e63c
00000010: c1d5 84bc 26c8 8e3c cbae 053c fc08 953b
00000020: 534e 993d b906 10bd a643 c1bd b9e4 10bc
00000030: 6894 03bd a874 073d 5de5 55bd df66 ec3c
00000040: de8b acbd 0931 fb3c b005 86bc 5952 d6bc
00000050: 246f 8f3d d627 cfbd 7e04 b9bd f5e0 d0bd
00000060: fe9e cc3c aa66 af3c dce1 d9bd d7b0 c53c
00000070: 24cc b0bb b1f7 873d bee2 d2bc 076d 81bd
00000080: 27ac c93c 303d afbd c4ee a239 d75c 16bd
00000090: 28ef 91bb 1760 6f3d e98b 5dbd be14 2e3d
000000a0: 5e7e 21bd 0e07 8bbc e7de 10bd 8665 1fbd
000000b0: 08f3 0a3d 6c45 963d b665 3dbc cf86 133d
000000c0: c72f 20bd 8add f33c bc3a 41bd be73 31bc
000000d0: 9f5e a43d 2dd1 98bd 240f f4bb 69ad 583c
000000e0: 1954 e73c bc7e bfbc 4b04 79bd d37d 66bd
000000f0: eb7d 7a3c bbce e6bc f0b3 11bc e9b3 96bd
00000100: 7a5d a03d 13d8 1cbd 6526 56bd f17e 92bc
00000110: 1d7a e23c 7a8d 42bd 059e c1bc 603f 84bc
00000120: d2ac 26bd 7488 56bd 9b6b 84bc 74a8 d73d
00000130: c033 193d 127b 48bb 1a9a 0b3d 7ac1 d2bc
00000140: ac1c 10bd bc1f eabd 1d17 99bd c919 92bd
00000150: e2a1 cc3c 7645 063c 6504 823d 842b 00be
00000160: 721b 2e3d caf9 c13d 4d82 03bd 7102 5b3d
00000170: ae56 6bbd b1c8 8039 ed43 77bc ad9f 4fbd

model_3/batch_normalization_15/batchnorm/sub f4 [48]
-0.69338095 -0.38068807 0.23127197 0.33677667 0.3002592 0.10737157 0.41870034 -0.046092078
-0.16385402 -0.57952666 -0.20460862 -0.2921083 0.5765066 0.2981607 0.22552761 0.24586849
0.40815067 -0.35692567 -0.30118123 -0.3660664 -0.15202871 -0.30841878 0.033991314 -0.17350325
0.46961698 0.30004066 -0.0020111175 0.1401699 -0.13806349 0.074901834 0.363815 -0.37626052
0.4217825 0.35683924 -0.92040765 0.3529659 -0.10546427 0.33637717 0.050755076 0.3392111
-0.09785819 0.3555573 -0.18652129 -0.106655486 0.13029656 -0.038743947 0.07223912 -0.528181
00000000: 6a81 31bf 8ce9 c2be 8fd2 6c3e fe6d ac3e
00000010: 93bb 993e a0e5 db3d e45f d63e 0ccb 3cbd
00000020: 59c9 27be dc5b 14bf ec84 51be 388f 95be
00000030: f095 133f 85a8 983e b6f0 663e f3c4 7b3e
00000040: 20f9 d03e f6be b6be 6d34 9abe 0e6d bbbe
00000050: 6aad 1bbe 11e9 9dbe 7a3a 0b3d d6aa 31be
00000060: a371 f03e ee9e 993e f4cc 03bb b388 0f3e
00000070: 8460 0dbe 2266 993d f645 ba3e 38a5 c0be
00000080: e0f3 d73e a2b3 b63e d69f 6bbf f2b7 b43e
00000090: a7fd d7bd a139 ac3e 8ee4 4f3d 14ad ad3e
000000a0: e069 c8bd 9b0b b63e 70ff 3ebe 316e dabd
000000b0: 766c 053e f9b1 1ebd 1bf2 933d df36 07bf

model_3/batch_normalization_15/batchnorm/mul f4 [48]
2.1744554 2.213081 2.920592 2.9811988 2.5525177 2.7833629 2.853202 2.4867024
2.1463196 2.7062268 2.3366036 2.496143 2.8678768 2.1295228 2.954608 3.868683
2.597861 2.5201025 2.5777085 2.6887982 2.588183 2.8249114 2.6823218 2.5208948
2.2220824 2.631918 2.7028065 2.5516536 2.98311 2.3748758 2.443151 2.612928
2.7270272 2.352339 3.2247176 2.6874223 2.767468 3.713512 2.4441497 2.6951005
2.4670594 2.9548225 1.9726596 2.3842838 2.4529655 2.4879863 2.4253275 2.413386
00000000: 472a 0b40 1ea3 0d40 fbea 3a40 f6cb 3e40
00000010: 735c 2340 9e22 3240 dd9a 3640 2226 1f40
00000020: 4d5d 0940 d232 2d40 ea8a 1540 cfc0 1f40
00000030: 4b8b 3740 1a4a 0840 4c18 3d40 8198 7740
00000040: 5b43 2640 5c49 2140 2df9 2440 4515 2c40
00000050: caa4 2540 59cb 3440 29ab 2b40 5756 2140
00000060: 9936 0e40 5871 2840 c8fa 2c40 4b4e 2340
00000070: 46eb 3e40 f7fd 1740 965c 1c40 363a 2740
00000080: 9d87 2e40 b98c 1640 c661 4e40 bafe 2b40
00000090: 321e 3140 2eaa 6d40 f36c 1c40 877c 2c40
000000a0: 4de4 1d40 d01b 3d40 1c80 fc3f 1b98 1840
000000b0: 63fd 1c40 2b3b 1f40 9138 1b40 eb74 1a40

model_3/batch_normalization_14/batchnorm/sub f4 [96]
-0.12338447 -0.43085897 -0.31303796 -0.48270935 0.3656562 -0.42142475 -0.10818971 0.3837785
0.11389844 0.4073185 0.17318054 -0.6090389 -0.1941826 0.28538692 -0.09665615 0.11487587
-0.046632364 -0.0090810135 -0.4424132 -0.14942855 0.39008445 -0.30226755 -0.49512002 0.3200952
-0.30874026 -0.14584033 -0.45158464 0.3378834 -0.32139257 0.53500134 0.1073036 -0.1455496
0.1930038 -0.56208473 -0.59692836 -0.16274153 -0.5530566 -0.23842058 -0.8173513 -0.10710055
-0.52803665 0.17235526 -0.28614894 -0.19163877 -0.024290755 0.2449827 -0.54193074 0.5003138
-0.49156204 0.7291002 -0.6121793 -0.3155144 0.060166076 -0.42323685 0.6872076 0.53802544
0.24851052 0.110034086 0.5520629 -0.15288153 0.45496973 0.15925637 -0.3759472 -0.18830033
0.7726508 0.023994029 -0.14255178 -0.025716743 0.34131166 -0.15272883 -0.2247186 -0.64253616
-0.51402473 -0.24726307 -0.41937667 -0.21789595 0.49863845 -0.123268895 0.30969518 -0.09519165
-0.17846137 0.011596143 -0.7255478 -0.2178661 0.27747327 -0.31817046 0.37434706 0.15104015
-0.4228967 -0.049545042 -0.28569725 0.3572471 -0.45961833 -0.17515814 -0.39473954 0.18442033
00000000: ffb0 fcbd 8c99 dcbe 8346 a0be ae25 f7be
00000010: 4a37 bb3e fcc4 d7be 9192 ddbd 9e7e c43e
00000020: 9643 e93d 0d8c d03e 3d56 313e f9e9 1bbf
00000030: ced7 46be 3c1e 923e a9f3 c5bd 0a44 eb3d
00000040: 9401 3fbd 88c8 14bc fc83 e2be cc03 19be
00000050: 26b9 c73e d0c2 9abe 5f80 fdbe 85e3 a33e
00000060: 3413 9ebe 2b57 15be 1a36 e7be 0eff ac3e
00000070: 918d a4be d9f5 083f fdc1 db3d f40a 15be
00000080: caa2 453e c9e4 0fbf 4cd0 18bf b7a5 26be
00000090: 1e95 0dbf 8624 74be ef3d 51bf 8857 dbbd
000000a0: 692d 07bf e67d 303e 1d82 92be f43c 44be
000000b0: 68fd c6bc bfdc 7a3e f9bb 0abf 9114 003f
000000c0: 05ae fbbe 50a6 3a3f c8b7 1cbf 1a8b a1be
000000d0: b470 763d 80b2 d8be d6ec 2f3f 09bc 093f
000000e0: 8b79 7e3e 8d59 e13d ff53 0d3f fa8c 1cbe
000000f0: cbf1 e83e 1a14 233e 277c c0be cdd1 40be
00000100: 71cc 453f 208f c43c 18f9 11be ebab d2bc
00000110: 67c0 ae3e f264 1cbe a21c 66be 407d 24bf
00000120: 2097 03bf 8832 7dbe 8ab8 d6be 1e20 5fbe
00000130: 8a4d ff3e 6774 fcbd 5e90 9e3e d7f3 c2bd
00000140: 94be 36be c0fd 3d3c 80bd 39bf 4a18 5fbe
00000150: fa10 8e3e 3de7 a2be 6baa bf3e 45aa 1a3e
00000160: eb85 d8be beef 4abd e946 92be 18e9 b63e
00000170: 1853 ebbe a85c 33be 4d1b cabe afd8 3c3e

model_3/batch_normalization_14/batchnorm/mul f4 [96]
3.6808808 5.132967 4.1007595 3.6754642 7.400446 8.137845 3.298975 4.3811135
6.008501 4.0121746 6.307983 4.066329 5.0966334 7.371961 6.442256 5.621362
5.9303403 4.612435 6.0986977 4.7136226 6.645798 4.84268 6.122377 4.007559
5.6524925 8.9910345 11.509344 4.724016 3.4524941 4.3858414 5.433609 3.0475483
7.848703 9.995482 5.8436627 9.288745 5.9934797 10.312156 8.965427 5.2085257
5.7800817 5.375136 5.0170217 11.8354 7.49337 3.5882125 4.069329 4.145496
3.7287023 4.8669553 8.33406 3.3049722 2.8501546 5.865635 5.490636 4.2308006
10.163914 7.3070745 2.7039123 4.3056674 6.58631 7.98973 8.68484 5.074636
7.471397 2.9494936 3.7682958 10.622872 3.7957025 5.3754044 3.1561604 6.477475
5.9427686 3.849951 6.745153 3.9907885 6.7774687 2.865314 3.003642 3.8464158
5.412118 2.506121 9.028104 4.3796067 3.1460276 9.294165 9.063435 2.9720764
8.424916 4.884185 9.093481 10.011824 2.8079057 4.9445524 2.4160852 5.1489716
00000000: 8d93 6b40 4441 a440 6c39 8340 ce3a 6b40
00000010: 74d0 ec40 9d34 0241 6822 5340 1532 8c40
00000020: a445 c040 bc63 8040 ffda c940 5e1f 8240
00000030: 9f17 a340 1be7 eb40 f626 ce40 33e2 b340
00000040: 59c5 bd40 1199 9340 8828 c340 ffd5 9640
00000050: 61aa d440 3cf7 9a40 83ea c340 ec3d 8040
00000060: 38e1 b440 47db 0f41 4626 3841 242b 9740
00000070: aaf5 5c40 d058 8c40 20e0 ad40 080b 4340
00000080: 9328 fb40 7fed 1f41 49ff ba40 b39e 1441
00000090: 96ca bf40 97fe 2441 6472 0f41 3eac a640
000000a0: 6ef6 b840 1d01 ac40 718b a040 cc5d 3d41
000000b0: b0c9 ef40 46a5 6540 f137 8240 e7a7 8440
000000c0: 0fa3 6e40 19be 9b40 4f58 0541 aa84 5340
000000d0: ef68 3640 48b3 bb40 4ab3 af40 b862 8740
000000e0: 649f 2241 8ed3 e940 e60c 2d40 07c8 8940
000000f0: 0dc3 d240 deab ff40 1bf5 0a41 6b63 a240
00000100: af15 ef40 81c4 3c40 c22b 7140 49f7 2941
00000110: caec 7240 5003 ac40 88fe 4940 7a47 cf40
00000120: 292b be40 9965 7640 4bd8 d740 1469 7f40
00000130: 06e1 d840 4e61 3740 ac3b 4040 ad2b 7640
00000140: 1230 ad40 4964 2040 1d73 1041 bd25 8c40
00000150: 8458 4940 e6b4 1441 d403 1141 8036 3e40
00000160: 75cc 0641 3e4b 9c40 e67e 1141 6e30 2041
00000170: bab4 3340 c639 9e40 24a1 1a40 60c4 a440

model_3/dense_7/BiasAdd/ReadVariableOp f4 [26]
0.14506291 0.11683637 0.004360931 -0.13634995 -0.2791185 0.09878073 -0.07392129 -0.00026589385
0.30561897 0.0946876 0.06111985 -0.06732385 0.16955873 0.27424434 -0.6115821 -0.5810571
-0.5880742 -0.5980559 -0.57172424 -0.5945881 -0.5801492 -0.6137406 -0.6030227 -0.5575148
-0.5941432 -0.59626544
00000000: 5f8b 143e e847 ef3d 24e6 8e3b 529f 0bbe
00000010: 9fe8 8ebe 8d4d ca3d 0c64 97bd ab67 8bb9
00000020: 177a 9c3e 93eb c13d cf58 7a3d 16e1 89bd
00000030: cea0 2d3e c169 8c3e a590 1cbf 28c0 14bf
00000040: 088c 16bf 311a 19bf 855c 12bf ed36 18bf
00000050: a884 14bf 1b1e 1dbf b25f 1abf 4ab9 0ebf
00000060: c519 18bf daa4 18bf

model_3/dense_6/BiasAdd/ReadVariableOp f4 [48]
0.042786688 0.0601452 0.087882824 0.16343907 -0.02725216 0.0059335195 0.12927334 0.13420965
0.058330614 0.08774418 0.13142355 0.014337596 0.10674691 0.018195942 0.051165182 0.2135556
-0.014190224 0.08837824 0.1361195 0.13171995 0.037397083 0.039006688 0.077660434 0.14320579
0.18982318 0.12931798 0.04244215 0.050724436 0.067475356 0.25895754 -0.010872698 -0.041869633
0.14006628 0.17112689 -0.07101827 -0.011800394 0.030664686 0.23064165 0.011460714 0.01393877
0.057692092 0.14125717 0.039990086 0.0685386 0.06871792 0.075251244 0.19119574 0.1431894
00000000: 1841 2f3d d05a 763d e9fb b33d 925c 273e
00000010: ec3f dfbc f86d c23b 3b60 043e 416e 093e
00000020: 15ec 6e3d 38b3 b33d e593 063e 3ce8 6a3c
00000030: 209e da3d a80f 953c 9592 513d 52ae 5a3e
00000040: 1d7e 68bc a7ff b43d e962 0b3e 98e1 063e
00000050: af2d 193d 7ac5 1f3d 6f0c 9f3d 8aa4 123e
00000060: 0261 423e ef6b 043e d2d7 2d3d 6dc4 4f3d
00000070: 8530 8a3d 1596 843e 6723 32bc 7e7f 2bbd
00000080: 896d 0f3e e33b 2f3e 0772 91bd 7156 41bc
00000090: 8234 fb3c 532d 6c3e b8c5 3b3c 705f 643c
000000a0: 8b4e 6c3d b8a5 103e a5cc 233d f75d 8c3d
000000b0: fbbb 8c3d 531d 9a3d d1c8 433e 3ea0 123e

model_3/gru_6/gru_cell/MatMul f4 [96, 126]
0.00029574646 2.3173538e-06 -0.00018054213 6.3277184e-05 0.00052157656 -0.00071971864 0.00024168505 -0.0016149064
-0.0006167868 0.0011882603 -0.001927696 0.00087049895 0.0008379637 -0.0031756938 -1.9783565e-05 -0.0006929887
-0.00040353337 0.0003193557 -0.0017105369 0.0020735709 0.001769525 -0.00016206427 0.0019601167 0.00020389535
0.0016533739 0.0058319536 -0.0005710758 -0.0016546018 -0.0008117014 0.00067617703 -0.0011628584 0.0040074564
0.0005279538 9.6759126e-05 0.0053244196 -2.246129e-05 0.0018039412 0.0032151311 0.00011702195 0.00011399679
0.0009156614 0.00046360696 -0.000378782 0.0021998438 -9.4651565e-05 0.0009236336 0.0035530427 0.00015605058
0.00153739 0.003217117 0.00019796268 -0.00072089105 0.00023062088 0.0003593254 0.0015884065 0.000309798
0.00027830614 0.0008056141 0.0013563989 0.00033339497 0.0004284488 -0.002103132 -0.00070052024 0.0003264267
-0.00014266948 -5.1775172e-05 6.88945e-05 -0.0021006712 0.0008292354 0.0007946508 -0.003180703 0.0017220078
0.0013383285 -0.0040313746 0.0018377813 0.0032552704 -0.0031973675 0.0012087774 0.0030968725 -0.0037818414
0.0011564834 0.0038036297 -0.0022191857 0.00077729364 0.00397814 -0.0016661452 0.0017723701 0.0042809243
-0.0005045509 0.0019502761 0.004347669 -0.0021444876 0.00044846642 0.004564347 -0.0010573411 7.059642e-05
0.004678342 -0.0022700066 0.0003079447 0.005108692 0.0012058365 0.0005165241 0.0052351407 -3.252017e-05
0.00051906373 0.0047796373 0.00066735863 0.0014288566 0.0050668 -2.344979e-05 0.00037706364 0.0060328017
0.0013516956 -0.0004736373 0.0024369708 0.0029527978 -1.1421083e-05 0.0031963177 0.00060148275 0.00052077434
0.0028323603 0.001274056 0.00045631122 0.0011822339 0.0038880096 0.0015554877 -6.975879e-05 -8.352593e-05
-0.00018521235 0.00040329198 -0.0010185993 0.0001764845 0.0005769706 -0.0017913174 -0.00055353856 0.000927246
-0.00096920755 -7.606476e-05 0.0011334964 -0.0028577824 -0.0002669076 0.00017490295 -0.0004644741 1.3638134e-05
0.00018874269 -0.0007648219 9.945735e-05 0.00021313771 -0.0022993328 -0.00034963977 -0.0003667054 -0.0016886716
-0.00036550048 0.0005676283 -0.0020276182 -0.00017397964 0.00013555842 -0.0012281544 -0.00015831228 -0.00018265712
-0.002383348 0.00040955827 -0.0010700508 -0.0019838864 0.0005869087 0.00094874785 -6.018157e-05 5.8839178e-05
8.114473e-05 -0.0007193354 -0.00019810055 -0.00023870004 -0.0022566856 -5.7717833e-05 -0.00043025461 -0.0025119588
-0.0003101699 0.0017863646 -2.7073347e-05 -0.00057997974 0.00042390657 -0.0010531297 -0.00038301205 4.0727427e-05
-0.0012417256 -0.0005832093 -0.00026987022 -0.0017205793 -5.3069158e-05 0.00038229587 -0.00020438248 7.29422e-05
0.0001366935 0.00096569455 -0.0004674973 0.0007809117 0.0009299643 -0.00034240884 0.0019307248 0.0021485812
-0.00048546022 0.00053220225 0.0022340962 0.00034691356 0.0005539507 0.002760657 0.000637882 0.000496046
0.003114803 0.0003586113 0.0012000767 0.0025423598 0.0007225374 0.0021372756 0.0031985706 0.0005742837
0.00044471462 0.001186378 0.0004671212 0.00081124355 0.0028864206 0.00075432076 0.0010191996 0.0030360855
0.0010607388 0.0028985024 0.003046932 0.0004490232 0.0005036874 0.0020500065 0.00092683797 0.0017740575
0.0024238126 0.00065614615 0.0010499752 0.0019294074 0.001035319 0.001917101 0.0012833897 0.0006311287
-0.0007920023 0.0020862157 0.0006044349 -0.00051631837 0.0020167292 0.0005244183 0.001213879 0.00025837828
0.00039554396 0.0004770446 0.0015733005 0.00042951104 0.00011807284 -0.00027680164 -0.00029073574 0.00038106166
00000000: 6b0e 9b39 d683 1b36 e94f 3db9 aeb3 8438
00000010: 69ba 083a 80ab 3cba d66c 7d39 44ab d3ba
00000020: ddaf 21ba 66bf 9b3a bfaa fcba 3232 643a
00000030: cbaa 5b3a 4d1f 50bb e2f4 a5b7 afa9 35ba
00000040: 5591 d3b9 326f a739 1834 e0ba bfe4 073b
00000050: 68ef e73a ccef 29b9 4d75 003b becc 5539
00000060: 06b6 d83a f919 bf3b 40b4 15ba 39df d8ba
00000070: 5cc8 54ba 7941 313a 0e6b 98ba fb50 833b
00000080: 6166 0a3a 29eb ca38 7878 ae3b 416b bcb7
00000090: 3972 ec3a f3b4 523b ae69 f538 9011 ef38
000000a0: ff08 703a 4610 f339 4297 c6b9 412b 103b
000000b0: ac7f c6b8 0020 723a 2ada 683b 82a1 2339
000000c0: 4082 c93a 44d6 523b 3494 4f39 2efa 3cba
000000d0: d2d2 7139 d763 bc39 1432 d03a 626c a239
000000e0: 9ee9 9139 d92f 533a 32c9 b13a 84cb ae39
000000f0: 6da1 e039 b3d4 09bb 1ea3 37ba 4024 ab39
00000100: 8c99 15b9 2b29 59b8 747b 9038 6aab 09bb
00000110: 0c61 593a 1d50 503a 5773 50bb feb4 e13a
00000120: da6a af3a 9f19 84bb b5e1 f03a 6056 553b
00000130: ed8a 51bb d76f 9e3a e6f4 4a3b c5d8 77bb
00000140: 2595 973a 5146 793b c26f 11bb 4bc3 4b3a
00000150: 0f5b 823b 8e62 daba df4e e83a ff46 8c3b
00000160: d643 04ba 68a0 ff3a e476 8e3b 888a 0cbb
00000170: 2520 eb39 8590 953b 7b96 8aba 2a0d 9438
00000180: c74c 993b 64c4 14bb a373 a139 d166 a73b
00000190: 290d 9e3a 5867 073a 8b8b ab3b 4466 08b8
000001a0: c711 083a 819e 9c3b aef1 2e3a 7948 bb3a
000001b0: 6607 a63b 0ab6 c4b7 a0b0 c539 cfae c53b
000001c0: 612b b13a 8652 f8b9 96b5 1f3b ba83 413b
000001d0: 2e9d 3fb7 5079 513b d3ac 1d3a 9384 083a
000001e0: 1f9f 393b 3afe a63a 0e3d ef39 30f5 9a3a
000001f0: facd 7e3b 82e1 cb3a 774b 92b8 a42a afb8
00000200: 9035 42b9 ef70 d339 8582 85ba b20e 3939
00000210: d73f 173a a3ca eaba 581b 11ba 6d12 733a
00000220: 6b12 7eba f584 9fb8 d491 943a a249 3bbb
00000230: bbef 8bb9 2766 3739 a984 f3b9 57cf 6437
00000240: 3be9 4539 547e 48ba c293 d038 b87d 5f39
00000250: 67b0 16bb db4f b7b9 5e42 c0b9 6b56 ddba
00000260: a5a0 bfb9 e4cc 143a cae1 04bb 4e6e 36b9
00000270: b024 0e39 06fa a0ba a100 26b9 a687 3fb9
00000280: f231 1cbb fbb9 d639 f240 8cba 1704 02bb
00000290: c7da 193a 64b5 783a 786b 7cb8 16ca 7638
000002a0: 3f2c aa38 c891 3cba 36b9 4fb9 8e4b 7ab9
000002b0: e7e4 13bb 0d16 72b8 cc93 e1b9 ad9f 24bb
000002c0: 4d9e a2b9 7324 ea3a 921b e3b7 c809 18ba
000002d0: c73f de39 2b09 8aba 02cf c8b9 bed2 2a38
000002e0: 66c1 a2ba 83e2 18ba 5e7d 8db9 1085 e1ba
000002f0: 9396 5eb8 e26e c839 814f 56b9 8cf8 9838
00000300: 6255 0f39 aa26 7d3a 6d1a f5b9 19b6 4c3a
00000310: d9c8 733a 5685 b3b9 6010 fd3a 36cf 0c3b
00000320: 5e85 feb9 7d83 0b3a ea69 123b f3e1 b539
00000330: 0137 113a 24ec 343b 8937 273a 1509 023a
00000340: b921 4c3b fe03 bc39 e44b 9d3a b89d 263b
00000350: aa68 3d3a 8911 0c3b 1c9f 513b 878b 163a
00000360: 9628 e939 3d80 9b3a f2e7 f439 a2a9 543a
00000370: 1a2a 3d3b 9cbd 453a aa96 853a 10f9 463b
00000380: 7d08 8b3a cdf4 3d3b 09af 473b e06a eb39
00000390: e409 043a 6759 063b 0bf7 723a 7e87 e83a
000003a0: d4d8 1e3b 3901 2c3a 529f 893a 2be4 fc3a
000003b0: 8ab3 873a 3c47 fb3a 6a37 a83a 5572 253a
000003c0: 609e 4fba e4b8 083b f172 1e3a 8a59 07ba
000003d0: 1a2b 043b 1e79 093a 051b 9f3a f276 8739
000003e0: 0361 cf39 d81b fa39 3437 ce3a ff2f e139
000003f0: e09d f738 b01f 91b9 e46d 98b9 3bc9 c739
