app/src/main/assets/models/colors.tflite (tflite, 673196 bytes, 52 tensors)

model_4/batch_normalization_16/batchnorm/add_1;model_4/conv1d_8/Conv1D/Squeeze;model_4/batch_normalization_16/batchnorm/mul_1;model_4/conv1d_8/BiasAdd;model_4/conv1d_8/BiasAdd/ReadVariableOp;model_4/batch_normalization_16/batchnorm/mul;model_4/batch_normalization_16/batchnorm/sub;model_4/conv1d_8/Conv1D;model_4/conv1d_9/Conv1D f4 [96]
0.23425117 -0.4581283 -0.25059503 -0.13314654 0.3527769 -0.11833553 -0.32593173 -0.024344098
-0.41316152 -0.039109178 0.23671295 -0.07978013 0.73169506 0.3652234 -0.5732976 -0.22170447
-0.10479631 -0.7879124 -0.6415555 0.6603555 -0.22177665 -0.4655124 -0.25434184 -0.20038193
-0.25076205 0.44704622 -0.23842019 0.23256287 0.61455935 0.2154514 -0.1278464 0.4317267
-0.3739133 0.7715833 0.231471 -0.7054829 -0.33766106 -0.01126305 0.6356424 -0.022423346
-1.0308944 -0.4345641 -0.14298058 -0.40534252 0.413574 0.0015990576 0.29631886 -0.5761162
-0.2831491 -0.4900006 0.6056955 -0.35845357 0.7506621 -0.6545458 0.72573256 0.6020242
-1.0658665 -0.106252514 -0.19135565 -0.16050465 0.788382 -0.10962859 0.12801272 0.06236497
-0.38905656 -0.18422182 -0.16144691 -0.6160837 -0.032290183 -0.14155138 0.365072 -0.045425743
-0.34091163 0.19675504 -0.19933215 -0.20301771 -0.3831735 -0.2476819 0.0077412426 -0.23303127
-0.3065672 -0.4290815 -0.3048859 -0.23556295 0.033794627 -0.9445768 0.26928633 -0.6729918
-0.26054537 -0.18786411 -0.9241878 -0.91249424 1.0518425 -1.0194893 -0.27983242 0.10234065
00000000: 8adf 6f3e cb8f eabe fe4d 80be 9157 08be
00000010: 2d9f b43e e659 f2bd 86e0 a6be 466d c7bc
00000020: e889 d3be f230 20bd e164 723e c463 a3bd
00000030: 5e50 3b3f 90fe ba3e a2c3 12bf 7f06 63be
00000040: 739f d6bd a1b4 49bf fb3c 24bf 0f0d 293f
00000050: 6b19 63be a457 eebe 1839 82be ec30 4dbe
00000060: e263 80be 3ee3 e43e 6c24 74be f624 6e3e
00000070: c353 1d3f 4b9f 5c3e 2bea 02be 480b dd3e
00000080: 9071 bfbe 7c86 453f bc06 6d3e 879a 34bf
00000090: e9e1 acbe a888 38bc 76b9 223f 2ab1 b7bc
000000a0: 59f4 83bf 307f debe 8069 12be 0e89 cfbe
000000b0: f9bf d33e 7897 d13a 1bb7 973e 5a7c 13bf
000000c0: ebf8 90be 5ce1 fabe dc0e 1b3f 3a87 b7be
000000d0: 642b 403f 5090 27bf 9cc9 393f 421e 1a3f
000000e0: 506e 88bf eb9a d9bd bcf2 43be 555b 24be
000000f0: 67d3 493f f484 e0bd c415 033e 6972 7f3d
00000100: 6c32 c7be a5a4 3cbe 5752 25be a9b7 1dbf
00000110: b642 04bd d8f2 10be b8ea ba3e 5810 3abd
00000120: f88b aebe 277a 493e ba1d 4cbe e0e3 4fbe
00000130: 512f c4be 53a0 7dbe 40aa fd3b c09f 6ebe
00000140: 60f6 9cbe 92b0 dbbe 011a 9cbe 6a37 71be
00000150: 3c6c 0a3d c9cf 71bf e6df 893e 3149 2cbf
00000160: 3466 85be 735f 40be 9297 6cbf 3999 69bf
00000170: c6a2 863f a07e 82bf 3246 8fbe fa97 d13d

model_4/batch_normalization_17/batchnorm/add_1;model_4/conv1d_9/Conv1D/Squeeze;model_4/batch_normalization_17/batchnorm/mul_1;model_4/conv1d_9/BiasAdd;model_4/conv1d_9/BiasAdd/ReadVariableOp;model_4/batch_normalization_17/batchnorm/mul;model_4/batch_normalization_17/batchnorm/sub;model_4/conv1d_9/Conv1D f4 [96]
0.7105966 -0.44916978 0.3961943 -0.47844157 -0.47789964 -0.22358066 -0.2372805 -0.2482329
-0.39499202 -0.52956533 1.2265214 -0.057380706 -0.26224217 -0.18688172 -0.1426933 1.014762
-0.55514544 -0.2535985 -0.23662786 -0.2722182 1.1087706 0.009257793 -0.39092 -0.12257798
-0.34572187 -0.5258375 -0.1766599 -0.5645136 -0.2558657 0.22605765 0.25001866 -0.20774883
0.078956045 0.061365537 -0.34858283 -0.54431355 -0.6059314 1.6586164 -0.27129924 0.21967036
-0.3283689 1.7078967 -0.29120928 -0.27582607 1.6937484 -0.38339022 1.6162647 0.84313697
-0.17984879 0.36301506 -0.38028058 1.4701807 -0.2694322 1.7663805 -0.17319848 -0.19403732
-0.5987608 -0.18029873 -0.22034599 1.0623096 -0.3456862 -0.5068061 -0.31524917 -0.34991464
-0.50998724 -0.18321174 1.2687819 -0.49901927 1.2076281 -0.19286315 -0.049275897 0.12402634
-0.31326193 -0.2894761 -0.30092344 0.1517999 -0.42427507 0.2275652 -0.2439744 1.2425777
-0.33011374 0.7020849 0.009533937 -0.21012844 -0.21746339 -0.11407005 0.36039397 -0.03863173
-0.21973464 -0.4623274 1.2345706 -0.3898677 -0.2831933 -0.28864643 0.51496273 -0.24812287
00000000: a9e9 353f 95f9 e5be fbd9 ca3e 4bf6 f4be
00000010: 43af f4be 54f2 64be a9f9 72be c430 7ebe
00000020: 653c cabe 9891 07bf a7fe 9c3f 0808 6bbd
00000030: 9b44 86be ec5d 3fbe 311e 12be b9e3 813f
00000040: 031e 0ebf aad7 81be 934e 72be 2f60 8bbe
00000050: 32ec 8d3f 00ae 173c ab26 c8be 2a0a fbbd
00000060: 7502 b1be 499d 06bf 55e6 34be f783 10bf
00000070: d400 83be a87b 673e 7202 803e 1cbc 54be
00000080: b5b3 a13d 6e5a 7b3d 7379 b2be 2258 0bbf
00000090: 521e 1bbf 8b4d d43f bce7 8abe 44f1 603e
000000a0: f81f a8be 5c9c da3f 6219 95be 1339 8dbe
000000b0: bfcc d83f b94b c4be c3e1 ce3f d3d7 573f
000000c0: 482a 38be 1cdd b93e 23b4 c2be e22e bc3f
000000d0: 04f3 89be c218 e23f f15a 31be b8b1 46be
000000e0: 6348 19bf 3ba0 38be 61a2 61be c3f9 873f
000000f0: c8fd b0be 0bbe 01bf 5768 a1be 0328 b3be
00000100: 868e 02bf dc9b 3bbe 7267 a23f 747f ffbe
00000110: 8f93 9a3f eb7d 45be 86d5 49bd 8601 fe3d
00000120: de63 a0be 3636 94be a312 9abe 6f71 1b3e
00000130: 953a d9be da06 693e 6dd4 79be c90c 9f3f
00000140: ab04 a9be d6bb 333f 3b34 1c3c e92b 57be
00000150: b9ae 5ebe 8f9d e9bd 8f85 b83e 4e3c 1ebd
00000160: 1e02 61be 2db6 ecbe 6906 9e3f bd9c c7be
00000170: b6fe 90be 77c9 93be 99d4 033f ec13 7ebe

model_4/batch_normalization_16/batchnorm/mul_1;model_4/conv1d_8/Conv1D/Squeeze;model_4/conv1d_8/BiasAdd;model_4/conv1d_8/BiasAdd/ReadVariableOp;model_4/batch_normalization_16/batchnorm/mul;model_4/conv1d_8/Conv1D;model_4/conv1d_9/Conv1D f4 [96, 1, 3, 126]
0.004828129 0.0014954485 -0.00164984 0.03655284 -0.010086077 -0.013730837 0.036131892 -0.013002143
-0.011536689 0.040269077 -0.013125298 -0.011384934 0.049055435 -0.014320315 -0.0087103145 -0.061989535
0.010470694 0.002121028 -0.06620856 0.009567911 -0.004441724 -0.061784897 -0.0099345865 -0.0050890534
-0.06442543 -0.026152067 -0.006402243 -0.06284994 0.016106945 0.0078051086 -0.066926226 0.041565493
0.001462941 -0.07099629 0.013686422 -0.0028630951 -0.08451196 -0.025527637 -0.0051547354 -0.09507494
0.015467671 0.0009738998 -0.09928684 0.05184699 -0.0025527554 -0.08540277 0.029274317 -0.0022521447
-0.07901649 -0.013794183 -0.0031564631 -0.061823275 0.034554794 0.009013403 -0.054312166 0.060287043
0.009808449 -0.046665445 0.027953358 0.0064115003 -0.04656821 -0.019708471 0.002779163 -0.00058944436
0.0020436393 0.0015148844 -0.008885407 0.014607397 -0.007338384 0.0010030755 0.03212078 -0.010309022
0.017232407 0.038449187 -0.0077091535 0.035693247 0.031067064 9.096986e-05 0.006791866 -0.0043824944
0.02865766 -0.0054824287 0.011014243 0.024406873 -0.018379044 0.012445895 0.01671555 -0.03410394
0.022044545 0.011263024 0.024221366 0.027956096 0.02854702 0.027936554 0.034520354 0.029614648
0.024577532 0.0001573615 0.025807844 0.018971836 -0.02672187 0.02142136 0.00022173527 0.045670897
0.013056097 0.0003479139 0.041911725 0.012083279 -0.0076371925 -0.0032786333 0.0030894794 -0.0173512
-0.042794973 -0.0021499603 0.040190086 0.017620962 0.014436167 0.057372995 0.013863784 0.009912655
0.05496772 -0.017554983 -0.00036995814 0.0481995 -0.047711372 -0.008404671 0.0040340195 0.001721827
0.0001461777 0.03773984 -0.007598351 -0.013691407 0.03757191 -0.008758436 -0.011350468 0.042033445
-0.0074085672 -0.009656185 0.05113037 -0.007438731 -0.006653048 -0.069010004 0.01921654 0.0044589993
-0.07434884 0.019430267 -0.00048849033 -0.06901497 0.0043392587 4.2493466e-05 -0.07110081 -0.0099879345
-0.00095511903 -0.07136394 0.024118658 0.010400729 -0.075132735 0.050561298 0.0049778367 -0.07849014
0.023727782 0.0004656596 -0.09147736 -0.016856477 -0.0012303183 -0.100972086 0.023673568 0.004251122
-0.105160974 0.06275796 0.0015054345 -0.09039848 0.03917673 0.0015545493 -0.08389518 -0.005904058
0.00057680486 -0.06765258 0.040587023 0.012778514 -0.060724158 0.068194546 0.014424707 -0.05241847
0.034936156 0.0102861775 -0.05271779 -0.013707654 0.0061038965 0.0008126479 0.0017673598 0.0018962725
-0.007586212 0.01627119 -0.0066818674 0.0013443349 0.035975244 -0.010020854 0.017320381 0.043316845
-0.0074566985 0.03627724 0.035139915 0.00014948026 0.008768113 -0.002224203 0.027409624 -0.0056657414
0.009980043 0.022629917 -0.01970642 0.014668206 0.014894708 -0.036781162 0.022127522 0.009183246
0.026788022 0.030188395 0.026049558 0.02856573 0.037749924 0.026227467 0.024656927 0.001987188
0.022260437 0.018030772 -0.02779104 0.017420223 0.0024182484 0.048683204 0.009529375 0.00065928185
0.044599976 0.008260656 -0.008064184 -0.0022343327 -0.00073777774 -0.018397879 -0.04297043 -0.006306851
0.042604696 0.018118918 0.010746438 0.05846395 0.014958331 0.0054214033 0.055049874 -0.01909348
-0.0057877647 0.047156353 -0.05167807 -0.014208107 0.004066234 0.0022657788 0.00022498344 0.03717273
00000000: 4835 9e3b ed02 c43a 723f d8ba 6eb8 153d
00000010: 1340 25bc 4ef7 60bc 09ff 133d f106 55bc
00000020: 6104 3dbc 30f1 243d 7d0b 57bc e087 3abc
00000030: 5aee 483d c19f 6abc b5b5 0ebc bde8 7dbd
00000040: 468d 2b3c f200 0b3b 5a98 87bd bac2 1c3c
00000050: e28b 91bb 2912 7dbd adc4 22bc 13c2 a6bb
00000060: 7bf1 83bd dc3c d6bc e8c9 d1bb 78b7 80bd
00000070: b6f2 833c ffc1 ff3b 9e10 89bd 9440 2a3d
00000080: 28c0 bf3a 8166 91bd 043d 603c c4a2 3bbb
00000090: 9b14 adbd 561f d1bc 0ee9 a8bb a6b6 c2bd
000000a0: 1d6c 7d3c 4f4d 7f3a e656 cbbd 825d 543d
000000b0: 214c 27bb a6e7 aebd b1d0 ef3c b898 13bb
000000c0: 66d3 a1bd ff00 62bc aadc 4ebb 673a 7dbd
000000d0: 5489 0d3d f4ac 133c 6f76 5ebd 8cef 763d
000000e0: 9eb3 203c 4424 3fbd 71fe e43c 9017 d23b
000000f0: 4fbe 3ebd a973 a1bc 9e22 363b f184 1aba
00000100: 94ee 053b 168f c63a 1994 11bc dd53 6f3c
00000110: d476 f0bb a179 833a 1491 033d 2ce7 28bc
00000120: fa2a 8d3c e57c 1d3d 119d fcbb 1533 123d
00000130: 5b80 fe3c 12c7 be38 4d8e de3b 079b 8fbb
00000140: 78c3 ea3c f2a5 b3bb 1575 343c ecf0 c73c
00000150: a68f 96bc dee9 4b3c 0def 883c 93b0 0bbd
00000160: c396 b43c 8c88 383c e36b c63c 2f04 e53c
00000170: 71db e93c 33db e43c 3765 0d3d 6b9a f23c
00000180: d256 c93c 6801 2539 f96a d33c d36a 9b3c
00000190: d3e7 dabc d97b af3c 9c81 6839 6811 3b3d
000001a0: 3de9 553c 3768 b639 a1ab 2b3d f2f8 453c
000001b0: 6a41 fabb 57de 56bb dd78 4a3b 1b24 8ebc
000001c0: c849 2fbd 59e6 0cbb 5c9e 243d d659 903c
000001d0: ac85 6c3c f2ff 6a3d ed24 633c b068 223c
000001e0: d525 613d 78cf 8fbc f1f6 c1b9 d76c 453d
000001f0: 006d 43bd bfb3 09bc cf2f 843b edae e13a
00000200: 4747 1939 1795 1a3d 97fb f8bb ec51 60bc
00000210: 01e5 193d 8b7f 0fbc 50f7 39bc 432b 2c3d
00000220: 91c3 f2bb fa34 1ebc 146e 513d 99c0 f3bb
00000230: d001 dabb 1e55 8dbd 016c 9d3c cc1c 923b
00000240: 3444 98bd 392c 9f3c 080e 00ba b857 8dbd
00000250: 5730 8e3b 033b 3238 4d9d 91bd 6fa4 23bc
00000260: f460 7aba 4227 92bd 7e94 c53c d267 2a3c
00000270: 31df 99bd 5d19 4f3d 1f1d a33b 70bf a0bd
00000280: c460 c23c c623 f439 7b58 bbbd 9816 8abc
00000290: a242 a1ba 74ca cebd 12ef c13c ff4c 8b3b
000002a0: a35e d7bd 3f87 803d 0052 c53a d722 b9bd
000002b0: c777 203d 05c2 cb3a 3cd1 abbd d476 c1bb
000002c0: b834 173a 708d 8abd 943e 263d f95c 513c
000002d0: e5b9 78bd 95a9 8b3d 9b55 6c3c c0b4 56bd
000002e0: 3719 0f3d 5b87 283c 9cee 57bd 1196 60bc
000002f0: 3203 c83b e107 553a c1a6 e73a 598c f83a
00000300: c295 f8bb 294b 853c 91f3 dabb 6534 b03a
00000310: c75a 133d 822e 24bc 79e3 8d3c 016d 313d
00000320: 5257 f4bb 7197 143d dfee 0f3d cdbd 1c39
00000330: 22a8 0f3c efc3 11bb 268a e03c afa7 b9bb
00000340: 5683 233c 6062 b93c 5c6f a1bc ea52 703c
00000350: ef08 743c d8a7 16bd c744 b53c 5375 163c
00000360: 8e72 db3c a74d f73c e265 d53c ae02 ea3c
00000370: aa9f 1a3d fcda d63c 53fd c93c 7b3b 023b
00000380: 855b b63c 45b5 933c 09aa e3bc dbb4 8e3c
00000390: 7a7b 1e3b 0a68 473d 1821 1c3c a8d3 2c3a
000003a0: 77ae 363d b457 073c a41f 04bc e26d 12bb
000003b0: 6d67 41ba 26b7 96bc c301 30bd b3a9 cebb
000003c0: 4382 2e3d 206e 943c d411 303c e577 6f3d
000003d0: ca13 753c 07a6 b13b fa7b 613d ee69 9cbc
000003e0: 4aa7 bdbb 0527 413d 62ac 53bd 1fc9 68bc
000003f0: 0b3e 853b 767d 143b 88e9 6b39 6f42 183d

model_4/batch_normalization_17/batchnorm/mul_1;model_4/conv1d_9/Conv1D/Squeeze;model_4/conv1d_9/BiasAdd;model_4/conv1d_9/BiasAdd/ReadVariableOp;model_4/batch_normalization_17/batchnorm/mul;model_4/conv1d_9/Conv1D f4 [96, 1, 3, 96]
-0.020150196 0.009620993 -0.040103555 -0.008511167 -0.023706812 0.019663597 -0.062155932 0.017333556
0.0070017274 0.04874534 -0.008671944 0.010530805 -0.007641173 -0.02102057 -0.033723634 -0.011063363
0.001855035 0.03492708 0.049703687 -0.045887258 -0.001599649 -0.07809339 -0.03287674 0.042392105
0.009567792 -0.12313917 0.009053003 -0.011223595 -0.039448112 -0.03045922 0.06426973 -0.03491087
-0.07040683 -0.028493589 -0.0048078327 0.033761416 -0.06162777 -0.00062406214 -0.026458282 -0.03872532
0.080864824 -0.007884675 -0.050416764 -0.019085404 -0.150495 -0.025843464 0.062013824 -0.012142752
0.0010417594 0.037893075 -0.037088484 -0.037517037 -0.026368681 0.06683179 -0.037065834 0.021412639
0.02391228 0.02372892 0.0011076917 -0.03565903 -0.04830355 -0.013803934 0.077639185 -0.02503266
-0.021033978 0.061553966 -0.008264628 -0.04864457 -0.0063880216 -0.03645495 0.034113068 0.060135517
0.013176588 0.025402704 0.0038351445 0.08715456 0.014889791 -0.09906082 -0.04579945 -0.02227938
0.05099546 -0.029600415 -0.040627696 -0.0035583684 -0.026810875 0.110559724 -0.042508066 -0.0058065737
-0.09958268 0.07314315 0.0058728806 0.010915261 0.0029877934 0.03502859 -0.011634844 -0.018288042
-0.024540547 0.010478638 -0.03878004 -0.011349418 -0.032202456 0.021394156 -0.0594669 0.011155902
0.0126226265 0.055313855 -0.010063996 0.011266428 -0.028504318 -0.027148522 -0.029507846 -0.012903717
0.00086684345 0.036473267 0.05619916 -0.066645406 -0.005028243 -0.07907619 -0.03269115 0.04457996
0.016282571 -0.14372155 0.009021191 -0.008910343 -0.05072541 -0.027087875 0.06930011 -0.03995392
-0.07244759 -0.04852265 -0.021222211 0.035759855 -0.061476007 -0.0048226328 -0.048188478 -0.041518148
0.08111082 -0.0068461252 -0.052942555 -0.017677704 -0.16181493 -0.024986058 0.056774847 -0.006075784
0.005304253 0.045263935 -0.056105282 -0.0339259 -0.04805471 0.07234964 -0.060659654 0.0060336133
0.02997372 0.023005024 5.4574924e-05 -0.038039632 -0.07224632 -0.016168728 0.07541223 -0.03468063
-0.016076002 0.06765435 -0.00478379 -0.04609706 -0.009793773 -0.04043617 0.031937838 0.051544752
0.014279888 0.022879567 0.008869684 0.084612116 0.018026546 -0.101673245 -0.049895316 -0.019747816
0.04816487 -0.028585708 -0.040813744 -0.0061431024 -0.036150534 0.11613689 -0.058650512 -2.3386156e-05
-0.09387691 0.07143712 0.011341018 0.017528687 -0.026524205 0.042598583 -0.011021533 -0.020316795
-0.02622264 0.009663166 -0.044820096 -0.014485602 -0.026759995 0.020050295 -0.062009078 0.015362269
0.008823534 0.05736809 -0.0019560533 0.012086764 -0.017335106 -0.019378297 -0.026165707 -0.016472122
-0.00066360435 0.03662233 0.052451078 -0.053759415 -0.0084166555 -0.08368363 -0.035227083 0.043076996
0.011550712 -0.14629821 0.012267789 -0.0016814847 -0.051373314 -0.030647987 0.067846574 -0.039081305
-0.07873624 -0.0365245 -0.01572811 0.030781904 -0.065029345 -0.006327194 -0.04155411 -0.045095947
0.06548825 -0.010695079 -0.056906078 -0.02159511 -0.1647526 -0.027740557 0.056452345 -0.0027104446
-0.0014895784 0.0413301 -0.04159884 -0.04028991 -0.030948596 0.06288063 -0.047571436 0.010901063
0.025864841 0.02292932 -0.0021436797 -0.04268713 -0.06014497 -0.014362175 0.07475279 -0.032116085
00000000: 0612 a5bc 5fa1 1d3c a043 24bd 6c72 0bbc
00000010: ca34 c2bc 8d15 a13c 3897 7ebd 1aff 8d3c
00000020: bf6e e53b 32a9 473d c514 0ebc 6689 2c3c
00000030: ce62 fabb 5533 acbc cb21 0abd 1c43 35bc
00000040: a524 f33a b30f 0f3d 1896 4b3d 47f4 3bbd
00000050: 50ab d1ba 6def 9fbd c3a9 06bd 58a3 2d3d
00000060: 3ac2 1c3c 6430 fcbd 0c53 143c 2be3 37bc
00000070: 5894 21bd 9d85 f9bc d99f 833d b3fe 0ebd
00000080: 7531 90bd 636b e9bc 068b 9dbb 6949 0a3d
00000090: 676d 7cbd 1a98 23ba 0abf d8bc 719e 1ebd
000000a0: 759c a53d b92e 01bc cf81 4ebd fe58 9cbc
000000b0: 5c1b 1abe acb5 d3bc 3502 7e3d 65f2 46bc
000000c0: a58b 883a c535 1b3d 18ea 17bd 77ab 19bd
000000d0: 2203 d8bc 1bdf 883d 58d2 17bd 8f69 af3c
000000e0: b0e3 c33c 2763 c23c f72f 913a 340f 12bd
000000f0: f1d9 45bd e529 62bc 4b01 9f3d 4b11 cdbc
00000100: 734f acbc 0320 7c3d 5d68 07bc 873f 47bd
00000110: 9c52 d1bb c951 15bd 25ba 0b3d a950 763d
00000120: 9ee2 573c 5519 d03c 0c57 7b3b 177e b23d
00000130: 4ff4 733c 66e0 cabd 3498 3bbd 3f83 b6bc
00000140: 9ee0 503d 927c f2bc 3a69 26bd 8433 69bb
00000150: 7ba2 dbbc 236d e23d f01c 2ebd 1245 bebb
00000160: 01f2 cbbd 13cc 953d 4b71 c03b ecd5 323c
00000170: dbce 433b 247a 0f3d 13a0 3ebc ced0 95bc
00000180: 4209 c9bc 98ae 2b3c d2d7 1ebd e9f2 39bc
00000190: b9e6 03bd cc42 af3c 9093 73bd 3fc7 363c
000001a0: 22cf 4e3c c890 623d 75e3 24bc d396 383c
000001b0: e381 e9bc 9466 debc 70ba f1bc 1d6a 53bc
000001c0: e13c 633a fe64 153d 1731 663d 637d 88bd
000001d0: f6c3 a4bb b3f2 a1bd 28e7 05bd 7a99 363d
000001e0: 0763 853c be2b 13be 9ecd 133c b0fc 11bc
000001f0: 73c5 4fbd 64e7 ddbc 37ed 8d3d b9a6 23bd
00000200: 675f 94bd b0bf 46bd 34da adbc ed78 123d
00000210: 44ce 7bbd 2d07 9ebb 4861 45bd ef0e 2abd
00000220: 6e1d a63d 7655 e0bb 4bda 58bd d5d0 90bc
00000230: d0b2 25be 90af ccbc be8c 683d 5f17 c7bb
00000240: 4dcf ad3b ad66 393d a7ce 65bd e2f5 0abd
00000250: 04d5 44bd 0c2c 943d 4276 78bd 9eb5 c53b
00000260: 728b f53c 0875 bc3c 61e7 6438 72cf 1bbd
00000270: e1f5 93bd 4874 84bc ba71 9a3d 470d 0ebd
00000280: d2b1 83bc 5d8e 8a3d 57c1 9cbb 45d0 3cbd
00000290: 1076 20bc 66a0 25bd 40d1 023d 9720 533d
000002a0: 31f6 693c ee6d bb3c 2752 113c 1e49 ad3d
000002b0: 68ac 933c 103a d0bd 085f 4cbd 2cc6 a1bc
000002c0: 8748 453d 932c eabc 502c 27bd 144c c9bb
000002d0: 9512 14bd 2ed9 ed3d 853b 70bd 632d c4b7
000002e0: 8a42 c0bd a04d 923d adcf 393c 5298 8f3c
000002f0: 4a49 d9bc da7b 2e3d a993 34bc 686f a6bc
00000300: ddd0 d6bc 4152 1e3c 4795 37bd 0555 6dbc
00000310: c737 dbbc 8440 a43c 3bfd 7dbd 07b2 7b3c
00000320: 9590 103c cdfa 6a3d 2131 00bb 9007 463c
00000330: 5a02 8ebc 3cbf 9ebc 7759 d6bc 8bf0 86bc
00000340: bcf5 2dba 4c01 163d f1d6 563d d532 5cbd
00000350: 03e6 09bc 5362 abbd 464a 10bd 8171 303d
00000360: 333f 3d3c 33cf 15be d6fe 483c 4465 dcba
00000370: d36c 52bd 7d11 fbbc 25f3 8a3d b813 20bd
00000380: 7740 a1bd b79a 15bd 3dd8 80bc 552a fc3c
00000390: 1b2e 85bd 5a54 cfbb a434 2abd 87b6 38bd
000003a0: b41e 863d 6a3a 2fbc 5916 69bd 3ae8 b0bc
000003b0: e8b4 28be 2a40 e3bc 933a 673d b7a1 31bb
000003c0: f53d c3ba c049 293d 8c63 2abd 0807 25bd
000003d0: e987 fdbc 8fc7 803d 44da 42bd 5f9a 323c
000003e0: 81e2 d33c 45d6 bb3c fa7c 0cbb b3d8 2ebd
000003f0: 925a 76bd 544f 6bbc fe17 993d 288c 03bd

model_4/gru_9/gru_cell/strided_slice_4 f4 [48]
-0.030609913 -0.07429977 0.024193661 0.056343205 -0.022921808 -0.15168564 -0.062233534 -0.04410479
-0.08185327 -0.060287114 -0.084558696 0.023361783 0.048072852 -0.0684733 -0.07569573 -0.06580387
-0.07828414 -0.007862858 0.033422932 0.0033183286 -0.094922364 0.084874876 0.21907924 0.008306485
-0.08854884 -0.16604766 0.120722055 -0.13898794 0.022768565 -0.1422086 -0.074223384 -0.038262025
0.04016863 -0.021777887 -0.035298232 0.12107586 -0.07891583 0.018355247 -0.051684894 -0.009316067
-0.054910213 -0.0008033612 -0.017817102 -0.025120847 -0.13739364 0.0056092236 0.0095499465 0.027446963
00000000: a4c1 fabc 7a2a 98bd c931 c63c 22c8 663d
00000010: 84c6 bbbc 7b53 1bbe 97e8 7ebd 39a7 34bd
00000020: b0a2 a7bd 9fef 76bd 1c2d adbd 3661 bf3c
00000030: 0ae8 443d bb3b 8cbd 5d06 9bbd 2ec4 86bd
00000040: 6f53 a0bd 37d3 00bc 7ce6 083d 5178 593b
00000050: a866 c2bd e1d2 ad3d 4f56 603e ec17 083c
00000060: 1859 b5bd 6608 2abe 203d f73d db52 0ebe
00000070: 2485 ba3c 229f 11be 6e02 98bd a4b8 1cbd
00000080: dd87 243d 8a67 b2bc e194 10bd 9ff6 f73d
00000090: 9f9e a1bd be5d 963c 8ab3 53bd 6ba2 18bc
000000a0: 88e9 60bd a898 52ba 2cf5 91bc 3cca cdbc
000000b0: ebb0 0cbe 94cd b73b 6177 1c3c 74d8 e03c

model_4/gru_9/gru_cell/strided_slice_3 f4 [48]
0.09138932 0.19767085 0.23126838 -0.064967334 0.37940648 -0.129044 0.3060883 0.25699928
0.14537108 0.006128346 0.0019463919 0.025145743 0.15534106 0.11588184 -0.1286566 0.038245846
-0.075160444 -0.117719956 0.17425895 0.13354816 0.23133913 0.17080411 0.10662671 0.21472111
0.14446616 -0.0105741825 0.02626812 0.25479314 0.013670748 0.009496665 0.030919857 0.11838089
-0.03410659 0.0542272 0.09067719 0.30770272 0.07780259 0.065998934 0.11443976 -0.14050066
0.19930056 0.07447164 0.31347758 0.026151346 0.07985698 -0.13411012 0.1627138 0.29637894
00000000: 532a bb3d 3a6a 4a3e 9ed1 6c3e 980d 85bd
00000010: 9141 c23e 1c24 04be 9bb7 9c3e 6995 833e
00000020: 28dc 143e 4bd0 c83b 131e ff3a 72fe cd3c
00000030: ba11 1f3e 7553 ed3d 8ebe 03be ada7 1c3d
00000040: b8ed 99bd 2917 f1bd f070 323e d9c0 083e
00000050: 2ae4 6c3e 46e7 2e3e 1b5f da3d dadf 5b3e
00000060: f0ee 133e 563f 2dbc 3e30 d73c 3f74 823e
00000070: 46fb 5f3c e697 1b3c a44b fd3c ae71 f23d
00000080: 5ab3 0bbd 571d 5e3d f6b4 b93d 368b 9d3e
00000090: f756 9f3d 732a 873d 655f ea3d 68df 0fbe
000000a0: 7215 4c3e 9684 983d 2280 a03e 593b d63c
000000b0: 0e8c a33d 2a54 09be 729e 263e fbbe 973e

model_4/gru_9/gru_cell/strided_slice_5 f4 [48]
-0.18541469 -0.011355326 0.08130412 -0.062953986 -0.042011354 0.1010193 0.2434579 0.0072040264
-0.020954905 0.0328264 -0.06284994 -0.09367081 -0.05947356 -0.038201805 0.009299002 -0.067735724
0.11466874 0.07061441 -0.12983562 0.088816084 -0.17654213 0.04222873 0.0719643 -0.19416228
0.105072945 0.12871283 0.05198317 0.032615922 -0.13884713 -0.04198087 0.029171092 -0.017477931
-0.059497118 0.08028576 0.06046695 -0.032637276 -0.0006132343 -0.05589916 0.002159388 -0.13124678
0.004378501 0.06295441 -0.116275944 -0.055635422 -0.15998733 -0.019407563 0.032673962 0.05513808
00000000: 59dd 3dbe b00b 3abc c682 a63d 05ee 80bd
00000010: 1914 2cbd 35e3 ce3d 074d 793e c10f ec3b
00000020: 9fa9 abbc fa74 063d 78b7 80bd 7bd6 bfbd
00000030: 8c9a 73bd 7f79 1cbd d75a 183c 07b9 8abd
00000040: 72d7 ea3d 4a9e 903d a1f3 04be 35e5 b53d
00000050: 76c7 34be 08f8 2c3d 0562 933d 7ad2 46be
00000060: 7c30 d73d 4ccd 033e 4eec 543d 4698 053d
00000070: f12d 0ebe 22f4 2bbd 37f8 ee3c e12d 8fbc
00000080: 40b3 73bd dc6c a43d 31ac 773d aaae 05bd
00000090: 75c1 20ba 85f6 64bd 8584 0d3b 8e65 06be
000000a0: 8779 8f3b 3eee 803d 1522 eebd f8e1 63bd
000000b0: b8d3 23be 9cfc 9ebc 22d5 053d 78d8 613d

model_4/gru_9/gru_cell/strided_slice_11 f4 [48]
-0.10304527 -0.05347318 0.04817207 -0.0075519555 -0.07032305 0.0828121 0.19180217 0.060710143
-0.0022552656 0.0605273 -0.06579067 -0.074671306 -0.07760452 -0.02866872 0.035242103 -0.07116832
0.07281024 0.06801141 -0.11779912 0.08383855 -0.124418914 -0.010642281 0.040088266 -0.10595998
0.09320474 0.06474397 0.067108974 -0.035390794 -0.09160876 -0.05059852 0.03610567 0.01717625
-0.05285667 0.054020442 0.09948517 -0.0318053 -0.004588214 -0.018192323 -0.0017302469 -0.11703783
-0.034236476 0.11362727 -0.066097066 -0.008783536 -0.03825562 -0.05970076 0.009766173 0.026021846
00000000: 6609 d3bd b106 5bbd 1450 453d 6576 f7bb
00000010: 8805 90bd 6499 a93d ca67 443e 33ab 783d
00000020: 14cd 13bb 79eb 773d 42bd 86bd 45ed 98bd
00000030: 1eef 9ebd aada eabc 065a 103d b2c0 91bd
00000040: 891d 953d 9149 8b3d aa40 f1bd 8cb3 ab3d
00000050: 58cf febd f65c 2ebc 9833 243d 8c01 d9bd
00000060: 20e2 be3d 7d98 843d 6e70 893d f0f5 10bd
00000070: 609d bbbd 6540 4fbd 8ae3 133d 35b5 8c3c
00000080: 3c80 58bd 8a44 5d3d e1be cb3d 4646 02bd
00000090: bb58 96bb 1108 95bc 74c9 e2ba 88b1 efbd
000000a0: 8c3b 0cbd 6ab5 e83d e65d 87bd d2e8 0fbc
000000b0: edb1 1cbd c988 74bd 4c02 203c c42b d53c

model_4/gru_8/gru_cell/strided_slice_4 f4 [96]
-0.052340813 -0.03510437 -0.07758119 0.0014645747 -0.052797783 0.0098429015 0.020360257 -0.06363923
0.0054041143 -0.061872758 -0.100269146 -0.038440224 0.109439604 -0.017669817 -0.012050448 -0.017665088
0.07243392 0.12842515 -0.03626468 0.007593879 -0.017736416 0.019199101 0.05259253 -0.018385218
-0.09816878 0.026292257 0.08422243 0.030255176 -0.03576325 -0.05556988 -0.052851964 -0.06695424
-0.07063655 0.0067569516 -0.02678032 -0.16477753 -0.10414728 -0.10321499 0.09508567 -0.097097345
-0.01836108 -0.057214152 -0.09696412 -0.17746647 0.22231285 0.019114401 -0.06825297 0.051778976
0.0068386425 -0.03579679 0.041858647 0.016764238 0.06011503 -0.08311779 -0.011190575 -0.057722833
-0.13227989 -0.017788723 0.0650422 0.06913168 -0.049143486 0.017882982 0.009513045 -0.04343727
-0.1645171 0.08101587 -0.08068574 -0.052858777 0.038327716 0.12890191 0.06026755 -0.016589822
-0.041009724 -0.05742565 -0.07588331 0.06043796 0.029734787 -0.052112266 -0.049077544 -0.0545592
-0.0045695812 -0.005926996 0.02972433 0.12480734 0.017857857 -0.0143909715 -0.106707774 -0.049845107
-0.036952842 0.05524525 -0.15659913 -0.08089996 -0.067599565 -0.069727205 0.06558304 -0.15633535
00000000: 5263 56bd 9ac9 0fbd e3e2 9ebd f9f6 bf3a
00000010: 7d42 58bd 1f44 213c 8eca a63c 4955 82bd
00000020: ff14 b13b 4a6e 7dbd e959 cdbd 7f73 1dbd
00000030: df21 e03d 4bc0 90bc 3e6f 45bc 60b6 90bc
00000040: 3c58 943d e281 033e 468a 14bd 13d6 f83b
00000050: f64b 91bc 6f47 9d3c 446b 573d 999c 96bc
00000060: b70c c9bd dc62 d73c cf7c ac3d b4d9 f73c
00000070: 7c7c 12bd 3e9d 63bd 4d7b 58bd 4e1f 89bd
00000080: e5a9 90bd 6b69 dd3b 6762 dbbc 71bb 28be
00000090: 2b4b d5bd 6162 d3bd 47bc c23d f9da c6bd
000000a0: fa69 96bc 6359 6abd 2095 c6bd c5b9 35be
000000b0: fba5 633e ce95 9c3c 37c8 8bbd 3116 543d
000000c0: b116 e03b a89f 12bd f973 2b3d 2855 893c
000000d0: 2d3b 763d a939 aabd ac58 37bc c76e 6cbd
000000e0: 6174 07be a8b9 91bc d834 853d e994 8d3d
000000f0: ae4a 49bd 557f 923c 9adc 1b3c 47eb 31bd
00000100: 2c77 28be a6eb a53d 913e a5bd 7282 58bd
00000110: 86fd 1c3d ddfe 033e 1bdb 763d 61e7 87bc
00000120: d0f9 27bd 2937 6bbd b568 9bbd cb8d 773d
00000130: 5e96 f33c ac73 55bd 8905 49bd 7879 5fbd
00000140: 6dbc 95bb 3f37 c2bb 7080 f33c fe9a ff3d
00000150: a44a 923c 1cc8 6bbc 9b89 dabd 622a 4cbd
00000160: dd5b 17bd d848 623d 865b 20be e1ae a5bd
00000170: a471 8abd 23cd 8ebd 6750 863d 6016 20be

model_4/gru_8/gru_cell/strided_slice_3 f4 [96]
-0.084564045 0.0118277185 0.24172248 -0.089219876 -0.053792972 -0.04781905 0.21197037 -0.1083566
0.038106963 -0.08834049 -0.023914808 0.10424899 0.14277567 0.23268622 0.24031496 0.08107121
0.17372134 0.38428426 0.04127718 -0.22141722 0.17517364 -0.089492984 0.11495782 0.015078905
-0.12741947 -0.1312904 0.2459631 -0.034473173 0.13782802 -0.03763333 -0.21834506 -0.04237917
-0.2295898 0.21417178 0.10750443 -0.070519134 -0.24370745 0.19147614 -0.0014444018 -0.09768637
-0.09178461 0.21846461 0.038217552 0.059130464 0.25142327 0.1708387 0.18532957 0.013826952
0.192965 -0.11135846 0.09691928 -0.003951416 -0.053224497 -0.020185575 -0.1426855 -0.023055568
0.15397668 0.05119148 -0.023826879 -0.12838009 -0.037760817 0.27352738 0.07352613 0.14931716
0.020018011 0.34177485 -0.2875904 -0.024747374 0.40285447 0.1891329 0.31473893 -0.27049
0.010424334 0.15288655 0.12707625 0.021816757 -0.17309293 0.25640157 0.2683471 0.059254464
0.1135145 0.038031228 -0.020285817 0.33464903 0.055678144 0.29312697 0.1132625 -0.13439429
-0.13510163 0.13740635 -0.1712808 -0.24498998 -0.104239285 0.02252169 0.12704065 0.12202583
00000000: ea2f adbd 0cc9 413c 1986 773e e9b8 b6bd
00000010: 0556 5cbd e8dd 43bd c30e 593e 11ea ddbd
00000020: 0c16 1c3d dceb b4bd fde8 c3bc 7f80 d53d
00000030: c933 123e 4c45 6e3e 2015 763e aa08 a63d
00000040: 02e4 313e e8c0 c43e 4312 293d 32bb 62be
00000050: b860 333e 1948 b7bd 016f eb3d 830d 773c
00000060: 407a 02be fe70 06be c0dd 7b3e be33 0dbd
00000070: ca22 0d3e 6825 1abd d995 5fbe c895 2dbd
00000080: 9719 6bbe d94f 5b3e 482b dc3d 566c 90bd
00000090: 728e 79be 5212 443e 1552 bdba cb0f c8bd
000000a0: 92f9 bbbd 30b5 5f3e 028a 1c3d c932 723d
000000b0: 8dba 803e 57f0 2e3e 09c7 3d3e 718a 623c
000000c0: 9e98 453e e70f e4bd 9e7d c63d e17a 81bb
000000d0: ee01 5abd 385c a5bc 261c 12be 08df bcbc
000000e0: 10ac 1d3e 28ae 513d 9630 c3bc 1276 03be
000000f0: 16ab 1abd c80b 8c3e de94 963d 99e6 183e
00000100: d0fc a33c 1dfd ae3e 0d3f 93be 01bb cabc
00000110: f142 ce3e 0eac 413e 7625 a13e aa7d 8abe
00000120: d3ca 2a3c 4b8e 1c3e 4720 023e 0eb9 b23c
00000130: 463f 31be 1147 833e cb64 893e cfb4 723d
00000140: 4a7a e83d a2c6 1b3d 712e a6bc 1e57 ab3e
00000150: c40e 643d bd14 963e 2bf6 e73d a89e 09be
00000160: 1558 0abe 40b4 0c3e 3c64 2fbe a7de 7abe
00000170: 687b d5bd 687f b83c f216 023e aee8 f93d

model_4/gru_8/gru_cell/strided_slice_5 f4 [96]
0.0095887445 0.0011714713 -0.043082766 0.03358122 0.045730796 -0.0033999996 0.044519197 -0.031925656
-0.011675075 -0.03734862 -0.08371714 -0.0898315 0.0039859232 0.014800153 0.00022553369 -0.08758043
0.047812503 0.052792326 -0.033307035 -0.08190126 -0.08858246 0.0030067354 -0.050958335 -0.06498128
-0.089823015 -0.03409034 0.032193825 0.06378349 0.0011567516 0.06753617 -0.02469832 -0.020328002
-0.0750987 -0.016780483 -0.0057336935 0.03039988 0.050098225 0.03877355 -0.038036857 -0.05814057
-0.09262179 -0.053772844 -0.036136437 0.0011202401 -0.007270575 0.0502658 -0.02963344 -0.0711805
-0.081205964 0.04183407 0.05936979 0.016186403 -0.07796605 0.06312 0.04810908 -0.04783417
0.010456525 -0.0072490615 0.059573896 0.002242835 -0.05299109 -0.031207887 0.032774955 -0.0682293
0.019234935 0.07010663 0.0010463238 0.07257088 0.059839904 0.0015347158 -0.005944856 0.10395036
0.12682016 0.049062833 0.036693707 0.0504618 0.014500984 0.040442094 0.015469534 0.0035266571
-0.019005634 0.010669919 -0.019511875 -0.059488438 0.013564031 0.030252956 0.140595 -0.004219441
-0.059124153 0.026732901 0.038262907 -0.009661204 0.0108945845 -0.04952857 0.023069693 0.14328311
00000000: 1c1a 1d3c 0e8c 993a 8e77 30bd 768c 093d
00000010: 3750 3b3d 87d2 5ebb c359 363d 7ac4 02bd
00000020: d048 3fbc defa 18bd e473 abbd 94f9 b7bd
00000030: 599c 823b 577c 723c 3d7d 6c39 5e5d b3bd
00000040: 0bd7 433d c43c 583d f56c 08bd d9bb a7bd
00000050: b96a b5bd a60c 453b b0b9 50bd e814 85bd
00000060: 21f5 b7bd 50a2 0bbd acdd 033d eba0 823d
00000070: 259e 973a 6750 8a3d 2254 cabc e986 a6bc
00000080: 59cd 99bd 3977 89bc b5e1 bbbb 2b09 f93c
00000090: cc33 4d3d 04d1 1e3d 89cc 1bbd ce24 6ebd
000000a0: 7eb0 bdbd ea40 5cbd cd03 14bd 05d5 923a
000000b0: 013e eebb 83e3 4d3d d4c1 f2bc 15c7 91bd
000000c0: 504f a6bd 345a 2b3d bd2d 733d 5999 843c
000000d0: aaac 9fbd 0f45 813d 070e 453d c3ed 43bd
000000e0: d851 2b3c 8989 edbb c203 743d 87fc 123b
000000f0: 2f0d 59bd afa7 ffbc 083f 063d cebb 8bbd
00000100: 9592 9d3c 1194 8f3d cd24 893a 0ba0 943d
00000110: b01a 753d 8428 c93a 11cd c2bb ede3 d43d
00000120: 25dd 013e 1cf6 483d 244c 163d 08b1 4e3d
00000130: 8995 6d3c 9ca6 253d ee73 7d3c 7d1f 673b
00000140: b4b1 9bbc e2d0 2e3c 5ed7 9fbc 26aa 73bd
00000150: ab3b 5e3c 0cd5 f73c 23f8 0f3e 3d43 8abb
00000160: 2b2c 72bd f5fe da3c 91b9 1c3d 074a 1ebc
00000170: 337f 323c 78de 4abd a7fc bc3c cfb8 123e

model_4/gru_8/gru_cell/strided_slice_11 f4 [96]
0.079377316 -0.012130022 -0.05913464 0.039457377 0.02637895 -0.010244601 0.03995767 -0.024174709
-0.008645073 -0.038611542 -0.09897376 -0.06362342 0.003968341 -0.015555184 -0.022071542 -0.04467233
0.02184055 0.023718826 0.0004249862 -0.06904401 -0.046742253 -0.00044744127 -0.046225652 -0.05571808
-0.08527261 -0.014863162 0.020559283 0.032806955 -0.0025458005 0.022376552 -0.0010595424 -0.01472124
-0.05621956 -0.017030623 -0.012341233 0.02773599 0.04237129 0.012112672 -0.055098284 -0.03346165
-0.06798423 -0.044983517 -0.021739842 0.0003949444 0.00229817 0.06817316 -0.04496911 -0.035253637
-0.065625176 0.047610015 0.019433402 0.011733019 -0.07313701 0.035469066 0.033288963 -0.05552251
-0.023639578 0.029183751 0.059765242 0.0059261173 -0.008026396 -0.02781986 0.039587963 -0.039207485
0.0155237485 0.030567415 -0.0007496607 0.0583171 0.046093453 -0.023719542 -0.021664366 0.09415683
0.08776093 0.045709975 0.02591707 0.06601086 0.04258504 0.08381566 -0.017140457 -0.023311399
-0.032530572 0.052037243 -0.010184502 -0.0051130555 0.008968317 0.0093207965 0.07958404 -0.03758969
-0.047852725 0.032254007 0.01914283 0.0068654385 -0.02254001 -0.013431892 -0.0046783276 0.070981756
00000000: 9390 a23d 00bd 46bc 2a37 72bd 0f9e 213d
00000010: ab18 d83c f9d8 27bc a7aa 233d 0a0a c6bc
00000020: 10a4 0dbc 2327 1ebd c1b2 cabd ff4c 82bd
00000030: db08 823b 2cdb 7ebc 61cf b4bc 55fa 36bd
00000040: f4ea b23c fc4d c23c afd0 de39 f266 8dbd
00000050: ce74 3fbd 8d96 eab9 1c57 3dbd a438 64bd
00000060: 68a3 aebd 9f84 73bc f16b a83c 9660 063d
00000070: 72d7 26bb 084f b73c 58e0 8aba 5b31 71bc
00000080: 7b46 66bd ce83 8bbc e232 4abc 9636 e33c
00000090: 858d 2d3d 3b74 463c bdae 61bd 150f 09bd
000000a0: 513b 8bbd a340 38bd c117 b2bc 8a10 cf39
000000b0: e59c 163b 5f9e 8b3d 8831 38bd 1e66 10bd
000000c0: 7e66 86bd b802 433d cc32 9f3c d93b 403c
000000d0: dbc8 95bd 0348 113d 025a 083d 926b 63bd
000000e0: caa7 c1bc c312 ef3c 66cc 743d e02f c23b
000000f0: 2581 03bc 7ae6 e3bc fd26 223d 0798 20bd
00000100: 5257 7e3c 8468 fa3c e184 44ba e9dd 6e3d
00000110: 7dcc 3c3d 7c4f c2bc 7879 b1bc 4cd5 c03d
00000120: 01bc b33d 623a 3b3d 0950 d43c b430 873d
00000130: a76d 2e3d 8ba7 ab3d 256a 8cbc 8cf7 bebc
00000140: c73e 05bd 0125 553d e6dc 26bc 6b8b a7bb
00000150: d9ef 123c 41b6 183c f5fc a23d a6f7 19bd
00000160: 3801 44bd c71c 043d 6dd1 9c3c 79f7 e03b
00000170: d4a5 b8bc 7011 5cbc a84c 99bb e25e 913d

model_4/batch_normalization_19/batchnorm/sub f4 [48]
0.49213496 0.3498197 -0.29593796 0.217253 -0.0055949744 -0.46809193 -0.7906138 -0.19677603
0.060697522 0.5933706 0.5055574 0.24339181 0.35569778 0.26456755 -0.08643481 0.69647044
-0.6512973 -0.14460753 0.51565814 -0.20432962 0.4507005 -0.3335253 -0.31711853 1.3227323
-0.5203308 -0.42327356 -0.42800856 -0.11369031 0.08505243 0.8065573 -0.3482363 0.1580047
0.5591435 -0.3164485 -0.23676337 -0.09408329 0.0053712917 -0.022390176 -0.38099876 0.36817384
-0.011178495 -0.55356354 0.7701064 0.3087716 0.629259 -0.114068285 -0.2503846 -0.38619912
00000000: 1df9 fb3e 911b b33e 2e85 97be 9277 5e3e
00000010: 0c56 b7bb bfa9 efbe aa65 4abf a87f 49be
00000020: f79d 783d 23e7 173f 366c 013f b43b 793e
00000030: 051e b63e 6675 873e bc04 b1bd e34b 323f
00000040: 6bbb 26bf ff13 14be 2c02 043f c93b 51be
00000050: 37c2 e63e d4c3 aabe 5c5d a2be 4b4f a93f
00000060: 6634 05bf 50b7 d8be f023 dbbe 77d6 e8bd
00000070: f82f ae3d 8a7a 4e3f 074c b2be fccb 213e
00000080: 0724 0f3f 8a05 a2be 1972 72be bdae c0bd
00000090: a901 b03b 9a6b b7bc 4512 c3be 4881 bc3e
000000a0: 0226 37bc 57b6 0dbf b125 453f 5017 9e3e
000000b0: 1e17 213f a29c e9bd 6932 80be e4bb c5be

model_4/batch_normalization_19/batchnorm/mul f4 [48]
2.7228649 2.3739185 2.6524754 2.4218562 3.2573857 2.855644 2.5098178 2.624753
2.5196025 3.5591207 2.5345395 2.0867655 2.3988583 2.7335994 2.296899 2.3558257
2.7547128 2.5343006 2.535081 2.6967275 2.5448174 2.7647796 2.419875 3.5963817
2.8090806 3.1700234 2.152704 3.0342376 2.9652221 3.2324736 2.6188753 3.1624162
2.6093965 2.4093404 2.2255404 2.4398563 2.9025934 2.6724389 3.221453 2.5887628
2.7806835 2.3199248 3.0017745 2.851379 2.484434 2.522929 2.501634 2.5625534
00000000: 6b43 2e40 48ee 1740 28c2 2940 b1ff 1a40
00000010: 0279 5040 dfc2 3640 dba0 2040 f4fb 2740
00000020: 2b41 2140 a2c8 6340 e535 2240 918d 0540
00000030: e586 1940 4bf3 2e40 6500 1340 d9c5 1640
00000040: 374d 3040 fb31 2240 c43e 2240 2f97 2c40
00000050: 4ade 2240 26f2 3040 3bdf 1a40 1e2b 6640
00000060: fac7 3340 aae1 4a40 e7c5 0940 f330 4240
00000070: 33c6 3d40 d9e0 4e40 a79b 2740 0765 4a40
00000080: 5a00 2740 a232 1a40 416f 0e40 9b26 1c40
00000090: 17c4 3940 3d09 2b40 492c 4e40 4aae 2540
000000a0: b8f6 3140 a679 1440 131d 4040 fe7c 3640
000000b0: f700 1f40 ab77 2140 c51a 2040 e000 2440

model_4/batch_normalization_18/batchnorm/sub f4 [96]
0.47322813 -0.3135044 0.2109774 -0.12832788 0.41051078 -0.32494453 0.35262167 -0.40191066
0.43588415 0.061872613 -0.3154943 -0.052057672 -0.3098419 -0.38008818 -1.1541214 0.21804976
-0.06108983 -0.74237806 -0.52727616 0.01060503 0.3711052 0.8723874 0.8401768 -0.13994142
-0.54067093 0.027728997 -1.0857754 0.43136835 0.42195463 0.87993735 -0.5702562 -0.31551155
-0.4742877 0.4769594 -0.24653514 0.71562845 -0.18319058 0.30511537 0.79268503 -0.2750411
-0.2684698 -0.11297432 0.35847825 0.15279837 0.27681422 0.10379904 -0.3773438 0.16055
0.4073475 0.42972723 0.20196597 0.22352253 0.6316355 -0.4859451 -0.17437413 -0.55892175
-0.38298845 -0.9202651 -0.1257416 0.09159598 -0.31974307 0.27774453 0.3627243 -0.7345859
-0.41141608 -0.61715597 -0.47685766 0.17073384 -0.39660418 0.22610089 -0.40944186 0.20884387
0.1257073 0.26462835 -0.7390933 0.5141896 -0.18042214 0.80958164 -0.58977 -0.2220796
0.52097017 0.48108262 0.2764609 1.4095128 -0.27130634 0.35604522 0.3760822 -0.3796347
-0.7360264 -0.3262905 0.14921318 -0.6774906 -0.33782563 0.1518753 0.01323951 0.34851635
00000000: f54a f23e a683 a0be 760a 583e 6268 03be
00000010: 782e d23e 215f a6be d48a b43e 3cc7 cdbe
00000020: 352c df3e 236e 7d3d 7888 a1be 6d3a 55bd
00000030: 99a3 9ebe eb9a c2be 40ba 93bf 7048 5f3e
00000040: 5439 7abd 7d0c 3ebf 92fb 06bf b8c0 2d3c
00000050: 8001 be3e c854 5f3f d415 573f ce4c 0fbe
00000060: 6969 0abf ec27 e33c b0fa 8abf 50dc dc3e
00000070: 700a d83e 9343 613f 4ffc 11bf bb8a a1be
00000080: d6d5 f2be 0634 f43e b573 7cbe 6d33 373f
00000090: 5096 3bbe 1538 9c3e 68ed 4a3f 30d2 8cbe
000000a0: e074 89be 155f e7bd 768a b73e 2d77 1c3e
000000b0: 98ba 8d3e 9794 d43d 3533 c1be 3867 243e
000000c0: da8f d03e 3505 dc3e 2bd0 4e3e 17e3 643e
000000d0: ddb2 213f cccd f8be 228f 32be 7f15 0fbf
000000e0: 1017 c4be 7e96 6bbf 68c2 00be ac96 bb3d
000000f0: 5db5 a3be 8834 8e3e 00b7 b93e d20d 3cbf
00000100: 21a5 d2be effd 1dbf b026 f4be dad4 2e3e
00000110: b40f cbbe fe86 673e 5da2 d1be 2bdb 553e
00000120: 6ab9 003e 5e7d 873e 3835 3dbf eea1 033f
00000130: 95c0 38be be40 4f3f 2bfb 16bf d668 63be
00000140: 4d5e 053f 7650 f63e 488c 8d3e ea6a b43f
00000150: aae8 8abe 8f4b b63e d98d c03e 7b5f c2be
00000160: 3a6c 3cbf 8c0f a7be 57cb 183e 0670 2dbf
00000170: 7bf7 acbe 3385 1b3e 88ea 583c bc70 b23e

model_4/batch_normalization_18/batchnorm/mul f4 [96]
4.8929563 4.5410314 11.313946 5.6771345 7.433932 6.005846 4.1809125 6.235228
3.7547266 9.377147 9.578538 3.6692863 2.4964178 7.7290564 8.350992 5.5467353
3.5427327 4.96207 7.072207 5.5296836 5.931214 5.1853943 3.6988285 6.7078996
4.954048 5.510306 4.4930625 4.598 9.106744 8.369708 7.885531 4.0710473
7.8368483 6.3271475 6.9054213 13.637187 5.0819592 9.474116 5.3739924 9.453139
5.8771853 9.528478 10.36152 13.054108 2.295842 3.474969 8.956234 4.0362787
6.785083 4.9016066 3.8802292 3.1737032 3.9828758 9.324527 4.8180614 11.399248
4.6020827 7.8825984 3.8257158 3.8118632 8.698972 6.0191526 6.155147 8.210578
14.048938 6.6787205 7.967271 9.600092 6.7409987 2.3791635 5.8388124 6.4846015
5.7542977 3.7015977 6.9650245 4.029327 3.5179875 9.142422 4.787227 5.4594445
3.2740598 7.222649 7.2279367 5.212086 5.5575004 5.5100145 8.552497 5.4998446
4.324787 3.0421607 10.682826 5.387296 3.8947425 11.054949 6.644095 9.940857
00000000: 1993 9c40 2150 9140 ec05 3541 16ab b540
00000010: c5e2 ed40 e42f c040 09ca 8540 fd86 c740
00000020: 714d 7040 cb08 1641 b141 1941 96d5 6a40
00000030: 4fc5 1f40 6e54 f740 aa9d 0541 db7e b140
00000040: 22bc 6240 47c9 9e40 854f e240 2bf3 b040
00000050: 81cc bd40 c0ee a540 9bb9 6c40 1da7 d640
00000060: 9087 9e40 6d54 b040 2bc7 8f40 d122 9340
00000070: 39b5 1141 53ea 0541 4556 fc40 0546 8240
00000080: 76c7 fa40 fe77 ca40 36f9 dc40 eb31 5a41
00000090: 699f a240 fb95 1741 bff7 ab40 0f40 1741
000000a0: e711 bc40 a574 1841 c9c8 2541 a0dd 5041
000000b0: 13ef 1240 e465 5e40 bc4c 0f41 3229 8140
000000c0: 661f d940 f6d9 9c40 ad55 7840 f41d 4b40
000000d0: 70e7 7e40 4331 1541 8f2d 9a40 5263 3641
000000e0: 4344 9340 3f3e fc40 87d8 7440 91f5 7340
000000f0: fd2e 0b41 e69c c040 f7f6 c440 875e 0341
00000100: 73c8 6041 14b8 d540 e2f3 fe40 fa99 1941
00000110: 43b6 d740 3744 1840 8dd7 ba40 db81 cf40
00000120: 3523 b840 fae6 6c40 7be1 de40 3ff0 8040
00000130: b526 6140 5c47 1241 f730 9940 c5b3 ae40
00000140: 328a 5140 f11f e740 424b e740 69c9 a640
00000150: 0bd7 b140 0a52 b040 07d7 0841 bafe af40
00000160: a864 8a40 c3b2 4240 dbec 2a41 bb64 ac40
00000170: 7643 7940 12e1 3041 6d9c d440 c00d 1f41

model_4/dense_9/BiasAdd/ReadVariableOp f4 [26]
0.23252246 0.04688472 -0.06457716 0.0751436 -0.06376056 0.11591218 0.006433198 -0.08437234
0.1731705 0.09565952 -0.0629097 -0.11601505 0.18247932 0.12700726 -0.56620824 -0.5448087
-0.5805519 -0.59399134 -0.6052018 -0.60755265 -0.5614782 -0.5694214 -0.5592085 -0.56665
-0.57840973 -0.5655574
00000000: 5e1a 6e3e 310a 403d 0841 84bd e3e4 993d
00000010: e594 82bd 5d63 ed3d 94cd d23b 68cb acbd
00000020: 9c53 313e 23e9 c33d cdd6 80bd 4c99 edbd
00000030: dcdb 3a3e 310e 023e 06f3 10bf 9578 0bbf
00000040: 0d9f 14bf d10f 18bf 81ee 1abf 9288 1bbf
00000050: 09bd 0fbf 9ac5 11bf 4a28 0fbf f90f 11bf
00000060: a912 14bf 5fc8 10bf

model_4/dense_8/BiasAdd/ReadVariableOp f4 [48]
0.01173912 0.09275055 0.1287442 0.10347579 0.065781124 -0.0006009398 0.030748388 0.10920442
0.15506871 0.07156314 0.048266485 0.19879124 -0.100389734 0.04968837 0.10266894 0.18094648
-0.026397865 0.18135074 0.13563205 0.013027928 0.102401845 0.094958946 0.15486445 0.101724565
0.13816515 -0.015897246 0.02412723 0.04700803 0.13389522 0.010420427 0.20828184 0.08024121
0.17187111 0.26295024 0.12811145 0.17312767 0.0340747 0.11012635 0.07123249 0.030917512
0.14937706 -0.016132066 -0.022675943 0.07961591 0.16724278 0.018198851 0.1770033 0.056011498
00000000: 7055 403c 00f4 bd3d 85d5 033e 1deb d33d
00000010: 41b8 863d 6388 1dba 0be4 fb3c 91a6 df3d
00000020: 55ca 1e3e b28f 923d 14b3 453d ee8f 4b3e
00000030: 2299 cdbd 0886 4b3d 1844 d23d 094a 393e
00000040: 5640 d8bc 02b4 393e 21e3 0a3e 1773 553c
00000050: 0fb8 d13d d679 c23d c994 1e3e f854 d03d
00000060: 2a7b 0d3e f13a 82bc 78a6 c53c 7e8b 403d
00000070: d41b 093e 70ba 2a3c d647 553e 8155 a43d
00000080: fbfe 2f3e 6aa1 863e a62f 033e 6148 313e
00000090: ea91 0b3d ec89 e13d 57e2 913d b946 fd3c
000000a0: 4df6 183e 6527 84bc e6c2 b9bc ab0d a33d
000000b0: b141 2b3e c215 953c 5a40 353e 506c 653d

model_4/gru_8/gru_cell/MatMul f4 [96, 126]
3.3359935e-05 5.2741845e-05 5.1265e-05 4.0388506e-05 0.0015625838 -8.0995436e-05 -2.3779594e-05 0.001601457
9.748757e-05 0.00040688342 0.0021746017 0.00019437612 -0.00041536806 0.0022041954 0.0001462997 0.00094083033
0.0010700583 4.8286496e-05 0.00025555943 0.00065976154 0.00014109901 0.00035621773 0.0003126661 0.00014965564
0.00062494597 0.0016475035 0.00042112506 -2.3058241e-05 0.0011018348 0.00018854317 0.00033954173 0.0006254439
0.0004409581 0.0002348584 0.0010698417 0.00072610803 0.001302393 0.00063838495 0.000276931 0.00035410412
0.0005539742 0.00031026325 0.00016583926 0.0004737622 0.0006142005 -2.4849824e-05 0.0007452038 0.00022685957
0.0007671696 -0.00014336617 0.00020680176 0.0007750577 -0.0008696155 0.0005943382 0.00059274567 -0.00055105035
0.0002156197 0.001318264 -0.00097409287 0.00030642067 0.0015967509 8.3865154e-05 0.00060975767 -9.006836e-05
9.040854e-05 3.98745e-05 9.596065e-05 -0.0007634136 -4.4650296e-05 0.00033083066 -0.0007572343 -2.9684466e-05
-0.00039128104 -0.00024394457 0.00026129483 0.0005743151 -0.00070667785 6.97784e-05 -0.00044387658 -0.00017217212
0.00040098713 0.0018370536 -0.0010516623 0.0004159737 0.0012410183 -0.0014473893 0.00029461767 0.00045157186
-0.0011718904 0.00018456108 0.0016235795 0.0002917301 8.5696935e-05 0.00016128217 -0.00029826828 0.0003632624
0.00069177616 -7.2544906e-05 0.00030391055 0.0008461719 -0.0012135345 0.00033050388 0.0010833128 -0.00052422413
0.00040051833 0.00074107567 -0.00022477351 0.0004909193 0.00050194014 -0.00096789695 0.0002596824 0.002428831
-0.0006590323 0.00035217154 0.0003250413 0.00041186402 0.0003912256 0.00073850586 -8.0072445e-05 0.0006084028
0.0009787794 -0.000368685 0.00037469575 0.0010863153 1.903727e-05 0.0001262654 0.00014747625 6.1240935e-05
-3.738737e-05 -0.00039521212 0.00016364742 -2.5299938e-05 -0.00031238506 0.0011723754 -0.00011274671 -0.0004433781
0.0007131186 -0.00016045844 -0.00091703364 1.788303e-05 -0.00010749282 0.0006374627 0.00062584685 -0.0004505728
-2.9870225e-05 0.00039205363 -0.0002579007 -0.00015994384 0.0015326198 -8.8414716e-05 0.00023560654 0.0018271087
-0.00013382996 0.00010982797 0.00055269885 -5.900606e-05 0.00021029354 0.00065502874 0.00011867942 -0.00017626802
0.00014439158 -9.561246e-05 0.00060773204 0.0005936438 0.00025328554 0.00045930583 0.00025538984 -5.2497337e-05
0.0006124483 0.0010313885 0.00024015605 0.00034514087 0.00036594228 -2.7449303e-05 0.0007506444 0.00058781356
0.00015505258 0.0005828902 -4.733396e-05 -0.0001493788 0.00032520268 0.00013966678 1.9973884e-05 0.0007447841
0.00048526493 0.00038467738 0.00095863966 0.0007502143 0.000272806 -3.2308715e-05 0.000111366884 1.8744096e-05
0.0005276956 0.0004374382 -0.0001736635 0.0008545344 -0.00013302459 -0.00031730268 0.0012433322 0.000428858
-0.00047978983 0.00051301334 -0.00041587852 -0.0006018243 -0.00023274907 0.0008162529 0.00024927704 -0.00032521965
0.00038252282 -0.00030337324 -0.0011293999 0.0003230895 0.00031294007 -3.133236e-05 0.00042240013 -0.0003234857
-0.00048273325 -0.00033961065 0.00032287565 -0.0005625163 0.00020317371 0.00040453734 -0.0012799253 0.00015114357
-0.00023022109 -0.0009971483 -0.00049108465 4.5876717e-05 -0.00029438286 0.00018717686 -4.9614748e-05 -0.0009289685
-2.3014676e-05 0.00027419248 -0.0011099945 0.00023852251 9.685299e-05 -0.0014217311 0.00046448823 0.00043445226
-0.000267841 0.0004223958 9.431292e-07 -0.0006212929 0.000163277 -0.00018602803 -0.0012045726 0.0002613636
-9.529995e-06 -0.0011841069 0.00020349455 -6.636792e-05 0.0003564406 0.00025618396 0.00035454403 -0.002414852
00000000: f5eb 0b38 2037 5d38 6005 5738 d466 2938
00000010: 9dcf cc3a 18dc a9b8 4a7a c7b7 fbe7 d13a
00000020: 3e72 cc38 f852 d539 c383 0e3b 71d1 4b39
00000030: c2c5 d9b9 4374 103b 0768 1939 0ea2 763a
00000040: 3341 8c3a 3b87 4a38 9bfc 8539 d9f3 2c3a
00000050: faf3 1339 bcc2 ba39 55ed a339 e1ec 1c39
00000060: 6ad3 233a 0bf1 d73a 73ca dc39 326d c1b7
00000070: 716b 903a acb3 4539 8504 b239 d4f4 233a
00000080: 6530 e739 5244 7639 ee39 8c3a 4958 3e3a
00000090: 0fb5 aa3a 4a59 273a 0d31 9139 0da7 b939
000000a0: 9438 113a d4aa a239 23e5 2d39 4963 f839
000000b0: 4c02 213a 9774 d0b7 c859 433a 27e1 6d39
000000c0: e11b 493a 9054 16b9 edd8 5839 3e2d 4b3a
000000d0: e9f6 63ba 5dcd 1b3a 7d62 1b3a 5d74 10ba
000000e0: f917 6239 9ac9 ac3a 445a 7fba 16a7 a039
000000f0: 124a d13a c3e0 af38 25d8 1f3a 15e3 bcb8
00000100: b799 bd38 eb3e 2738 7b3e c938 d21f 48ba
00000110: e446 3bb8 5773 ad39 2281 46ba e802 f9b7
00000120: da24 cdb9 5fcb 7fb9 66fe 8839 a28d 163a
00000130: 5940 39ba fe55 9238 1bb8 e8b9 1a89 34b9
00000140: 953b d239 4ac9 f03a eed7 89ba 0b17 da39
00000150: aaa9 a23a 53b6 bdba ea76 9a39 f3c0 ec39
00000160: 1e9a 99ba bd86 4139 4ace d43a 5af3 9839
00000170: 31b8 b338 da1d 2939 e460 9cb9 4174 be39
00000180: 5058 353a 4023 98b8 2f56 9f39 a3d1 5d3a
00000190: 760f 9fba 7b47 ad39 f2fd 8d3a 166c 09ba
000001a0: a9fc d139 bf44 423a 2eb1 6bb9 09b1 003a
000001b0: a294 033a 77ba 7dba fb25 8839 062d 1f3b
000001c0: e9c2 2cba aaa3 b839 4e6a aa39 74ef d739
000001d0: 691d cd39 4a98 413a 91ec a7b8 397d 1f3a
000001e0: 634a 803a 104c c1b9 d072 c439 b162 8e3a
000001f0: 3ab2 9f37 1c66 0439 dba3 1a39 7a6e 8038
00000200: 62d0 1cb8 7934 cfb9 c598 2b39 343b d4b7
00000210: 9dc7 a3b9 64aa 993a 6e72 ecb8 3475 e8b9
00000220: 94f0 3a3a bc40 28b9 1665 70ba 8403 9637
00000230: c56d e1b8 661b 273a df0f 243a dc3a ecb9
00000240: d291 fab7 8c8c cd39 d936 87b9 99b6 27b9
00000250: 30e2 c83a 4a6b b9b8 260d 7739 987b ef3a
00000260: b554 0cb9 7153 e638 fee2 103a 467d 77b8
00000270: 3e82 5c39 3cb6 2b3a 87e3 f838 96d4 38b9
00000280: d267 1739 8c83 c8b8 3550 1f3a c39e 1b3a
00000290: 69cb 8439 fcce f039 d8e5 8539 9630 5cb8
000002a0: b68c 203a a82f 873a 66d2 7b39 06f4 b439
000002b0: f1db bf39 ee42 e6b7 e5c6 443a 8017 1a3a
000002c0: 9c95 2239 19cd 183a 7488 46b8 91a2 1cb9
000002d0: f77f aa39 8473 1239 978d a737 9d3d 433a
000002e0: 286b fe39 86ae c939 384d 7b3a 08aa 443a
000002f0: 6707 8f39 3883 07b8 a48d e938 a43c 9d37
00000300: 0d55 0a3a f657 e539 7119 36b9 d502 603a
00000310: 847c 0bb9 a55b a6b9 4ef7 a23a 59d8 e039
00000320: 4d8c fbb9 be7b 063a 450a dab9 bfc3 1dba
00000330: 1a0e 74b9 cef9 553a 66b1 8239 3e82 aab9
00000340: 588d c839 110e 9fb9 5f08 94ba 5764 a939
00000350: 1b12 a439 de6a 03b8 9675 dd39 8499 a9b9
00000360: 5c17 fdb9 c50d b2b9 a347 a939 d475 13ba
00000370: 070b 5539 1518 d439 2bc3 a7ba 4b7c 1e39
00000380: 8167 71b9 bfb2 82ba 22bc 00ba c06b 4038
00000390: 6657 9ab9 e844 4439 6e19 50b8 0586 73ba
000003a0: a40f c1b7 7ec1 8f39 3c7d 91ba e61b 7a39
000003b0: 8e1d cb38 6159 baba 8e86 f339 32c7 e339
000003c0: 036d 8cb9 0175 dd39 582b 7d35 43de 22ba
000003d0: 5635 2b39 8510 43b9 c0e2 9dba a107 8939
000003e0: 04e3 1fb7 0934 9bba 2761 5539 012f 8bb8
000003f0: a6e0 ba39 6e50 8639 18e2 b939 7e42 1ebb
