app/src/main/assets/models/facial_expression.tflite (tflite, 673196 bytes, 52 tensors)

model_4/batch_normalization_16/batchnorm/add_1;model_4/conv1d_8/Conv1D/Squeeze;model_4/batch_normalization_16/batchnorm/mul_1;model_4/conv1d_8/BiasAdd;model_4/conv1d_8/BiasAdd/ReadVariableOp;model_4/batch_normalization_16/batchnorm/mul;model_4/batch_normalization_16/batchnorm/sub;model_4/conv1d_8/Conv1D;model_4/conv1d_9/Conv1D f4 [96]
0.4064521 0.44627202 0.22346716 -0.18437718 0.6227216 0.049742103 0.12762427 -0.10669994
-0.6290587 0.26131937 0.35311192 0.068430424 -0.42353117 -0.25933748 -0.12950264 -0.062776595
-0.57743317 -0.6351463 -0.49128467 -0.4165537 -0.4831493 0.15806763 -0.09949066 0.30670643
-0.12307082 0.09155361 -0.16318402 0.16600184 0.5689193 0.25909215 -0.17247504 0.086692855
0.07216841 0.062861085 0.29171664 -0.46803236 -0.5398999 0.068347245 0.18080664 -0.26584637
0.2186086 -0.43506405 0.0061367005 0.13159671 0.34952056 0.31349045 0.115995854 -0.49439496
-0.4112313 -0.2403387 -0.34290236 0.18465506 -0.24533199 -0.42585385 0.27107805 -0.096900985
-0.6964253 -0.47988644 0.06511702 -0.15912163 0.23826848 0.47693154 0.2702277 0.045798413
0.26918638 -0.43646896 -0.3413197 -0.12398949 -0.705317 0.11395666 -0.34703413 0.16844045
-0.02723581 -0.24293484 -0.5517638 -0.25860348 -0.35301894 -0.38663656 -0.13249752 -0.53474873
-0.38902327 0.12631607 0.4432839 -0.13035683 -0.1086451 0.17555311 -0.27434832 0.680625
0.42779005 -0.15470956 -0.33817923 -0.55375296 -0.31277418 -0.2977954 -0.3986077 -0.018334717
00000000: 7d1a d03e c47d e43e 93d4 643e 5fcd 3cbe
00000010: af6a 1f3f 60be 4b3d f0af 023e 8085 dabd
00000020: fe09 21bf a7cb 853e 16cb b43e 4025 8c3d
00000030: 14d9 d8be e2c7 84be 579c 04be 0491 80bd
00000040: a9d2 13bf f398 22bf aa89 fbbe 8746 d5be
00000050: 585f f7be 7bdc 213e c2c1 cbbd a008 9d3e
00000060: 8e0c fcbd 7680 bb3d b619 27be 63fc 293e
00000070: b2a4 113f baa7 843e 4c9d 30be 068c b13d
00000080: 08cd 933d 50bd 803d e25b 953e f0a1 efbe
00000090: e136 0abf a4f9 8b3d 6025 393e 041d 88be
000000a0: efda 5f3e b7c0 debe 6016 c93b 4ac1 063e
000000b0: 5cf4 b23e d281 a03e 3c8f ed3d 5621 fdbe
000000c0: e98c d2be 591b 76be e690 afbe 3716 3d3e
000000d0: 4f38 7bbe 8409 dabe beca 8a3e 0674 c6bd
000000e0: ee48 32bf adb3 f5be 125c 853d c8f0 22be
000000f0: a7fc 733e 5f30 f43e 495b 8a3e 1e97 3b3d
00000100: ccd2 893e dc78 dfbe 75c1 aebe 34ee fdbd
00000110: a88f 34bf 1c62 e93d 75ae b1be a77b 2c3e
00000120: a21d dfbc e9c3 78be 6440 0dbf ad67 84be
00000130: e6be b4be 3af5 c5be 6ead 07be 4be5 08bf
00000140: 0f2e c7be 0059 013e 1bf6 e23e 437c 05be
00000150: 5281 debd 32c4 333e 6277 8cbe 713d 2e3f
00000160: 4c07 db3e 2f6c 1ebe d425 adbe c1c2 0dbf
00000170: f023 a0be a378 98be 4f16 ccbe b032 96bc

model_4/batch_normalization_17/batchnorm/add_1;model_4/conv1d_9/Conv1D/Squeeze;model_4/batch_normalization_17/batchnorm/mul_1;model_4/conv1d_9/BiasAdd;model_4/conv1d_9/BiasAdd/ReadVariableOp;model_4/batch_normalization_17/batchnorm/mul;model_4/batch_normalization_17/batchnorm/sub;model_4/conv1d_9/Conv1D f4 [96]
1.1875062 -0.70390856 0.06938454 0.0022106394 -0.6281464 -0.63548434 -0.1537037 0.29087996
-0.15997031 -0.19196635 -0.89089763 0.8969581 -0.16270468 -0.4770831 0.19092256 -0.31715858
-0.8216821 -0.91078675 -0.89354485 0.84962714 -0.8541764 -0.16289467 -0.16844934 0.45245302
-0.7113317 -0.40951025 -0.0010462403 0.12658483 -0.62409973 -0.7708546 -0.37705094 -0.9708522
0.26913425 0.33999193 0.10817586 -0.23196024 0.5517128 -0.5086672 -0.93408513 0.72296286
0.44174933 1.8272405 0.2000447 0.15493485 -0.5947493 -0.23142856 -0.8511834 -0.030149661
0.45790616 -0.81727695 0.604735 0.8019759 1.1515101 1.0948863 -0.78462434 -0.53717005
-0.7191592 -0.23463961 -0.1440881 -0.9041599 -0.54176927 -0.9146552 -0.3477064 -0.22473909
1.5271946 -0.15728454 -0.27716184 -0.85359085 -0.20680082 -0.68040586 1.8139012 -0.023486964
-0.4947349 -0.23333305 0.17724404 -0.63242966 0.6369113 0.14753552 1.3257376 0.22298686
-0.16052999 -0.8357733 1.1393523 1.7939278 -0.15730205 -0.47789553 0.5409433 -0.82515633
0.99408704 -0.19151908 -0.54415137 -0.6632658 -0.70716995 0.9720774 1.6936423 0.79703
00000000: 3400 983f 5a33 34bf 7b19 8e3d 60e0 103b
00000010: 34ce 20bf 1aaf 22bf 8164 1dbe 38ee 943e
00000020: 42cf 23be d492 44be de11 64bf 0c9f 653f
00000030: 0e9c 26be 3c44 f4be 3481 433e 9c62 a2be
00000040: c259 52bf 5229 69bf 5bbf 64bf 2a81 593f
00000050: 4eab 5abf dccd 26be fc7d 2cbe eca7 e73e
00000060: d619 36bf 54ab d1be 0022 89ba 749f 013e
00000070: 00c5 1fbf ba56 45bf d20c c1be c589 78bf
00000080: f7cb 893e 6c13 ae3e 4e8b dd3d fc86 6dbe
00000090: 0d3d 0d3f 0338 02bf 3420 6fbf 1814 393f
000000a0: f82c e23e 04e3 e93f 85d8 4c3e 3ea7 1e3e
000000b0: 7d41 18bf 9cfb 6cbe 28e7 59bf 6cfc f6bc
000000c0: ad72 ea3e 1039 51bf eacf 1a3f 4b4e 4d3f
000000d0: af64 933f 3c25 8c3f 24dd 48bf fa83 09bf
000000e0: d11a 38bf 5e45 70be d58b 13be 0677 67bf
000000f0: 64b1 0abf d826 6abf 9306 b2be 0122 66be
00000100: 1d7b c33f 330f 21be 28e8 8dbe ee84 5abf
00000110: 98c3 53be 142f 2ebf ea2d e83f bc67 c0bc
00000120: e54d fdbe dcee 6ebe 767f 353e e9e6 21bf
00000130: 9e0c 233f 8d13 173e c5b1 a93f ab56 643e
00000140: f961 24be 3df5 55bf 4cd6 913f 6d9f e53f
00000150: ca13 21be b9ae f4be 437b 0a3f 723d 53bf
00000160: 7d7c 7e3f 941d 44be 814d 0bbf cacb 29bf
00000170: 1709 35bf 11da 783f 45c9 d83f 280a 4c3f

model_4/batch_normalization_16/batchnorm/mul_1;model_4/conv1d_8/Conv1D/Squeeze;model_4/conv1d_8/BiasAdd;model_4/conv1d_8/BiasAdd/ReadVariableOp;model_4/batch_normalization_16/batchnorm/mul;model_4/conv1d_8/Conv1D;model_4/conv1d_9/Conv1D f4 [96, 1, 3, 126]
-0.004819773 -0.0035564096 -0.00070595247 0.012278677 -0.014146102 0.0006114518 0.018354435 -0.0047422913
-0.009466561 0.0033778523 0.028103933 -0.012695877 -0.012794723 0.08041919 -0.017682848 0.0076550343
0.028283326 -0.028829541 0.02190299 0.031431116 -0.018974012 0.021271944 0.047391284 -0.009444174
0.014379455 0.07608743 -0.000584558 -0.022069342 0.085359104 -0.02133172 -0.03456616 0.041613087
-0.015500933 -0.025159016 0.015986929 -0.007278216 -0.01841522 0.01615393 0.004051184 -0.031373173
0.06971076 -0.027756115 -0.07532304 0.01943316 -0.028160427 -0.10916569 -0.014834713 -0.03874399
-0.14151524 -0.028235357 -0.04693324 -0.049776014 0.057074036 -0.038300425 -0.08931328 0.023349907
-0.03465502 -0.110844575 0.0022399179 -0.040478576 -0.1296254 0.0037578223 -0.047015376 -0.008218713
0.0048741284 0.0027233288 -0.011033429 0.029993711 0.0043627387 0.005981299 0.033049345 0.0020881863
0.019240875 0.044095024 0.0039229374 0.0239456 0.07644886 0.006427489 -0.02521126 0.064018175
-0.00016039948 -0.012173202 0.062823474 0.0103412215 -0.010788782 0.06999405 0.019532438 -0.012723521
0.0834116 0.023897054 -0.014166541 0.059431925 -0.0055315397 0.004575428 0.008918073 0.0043502273
0.0016398877 -0.028478103 0.009537632 -0.006705825 -0.045946166 0.012875736 -0.03872324 0.018409858
0.0022240547 -0.016130881 -0.028461263 0.010301658 -0.0028318155 -0.053139687 0.0043786354 0.0025495386
-0.058467567 -0.0012146176 -0.028368624 -0.0033738664 -0.0037972564 -0.011711441 -0.031899426 0.0015132993
-0.0054428037 -0.046507813 -0.0051739146 -0.00601127 -0.048492715 -0.014148677 -0.0047859987 -0.0056278156
0.00017106846 0.012354088 -0.016840696 -0.0022891862 0.016499225 -0.0064552114 -0.0128934905 -0.00030308738
0.026782922 -0.016679484 -0.017793847 0.07998529 -0.021703197 0.002345905 0.026021238 -0.031747572
0.016333591 0.027741749 -0.02256303 0.014970248 0.043488245 -0.013517329 0.007170824 0.071524985
-0.0055398457 -0.031216733 0.08231481 -0.023451168 -0.04295395 0.03732364 -0.017765814 -0.033613134
0.011008011 -0.009730227 -0.027690437 0.010288059 0.00069581904 -0.03896355 0.06535117 -0.030370256
-0.08243111 0.013181129 -0.03065194 -0.11727864 -0.022014758 -0.041002113 -0.15141833 -0.035418548
-0.05006355 -0.05764534 0.052120857 -0.0403101 -0.09673582 0.01731037 -0.03672556 -0.12033079
-0.0028705033 -0.04132099 -0.14069498 -0.001170005 -0.047694314 -0.0076047205 0.007455078 0.0015429787
-0.012512034 0.03273001 0.0015534472 0.007451928 0.039453592 -0.0007409637 0.022643574 0.05399104
0.0013215652 0.02730185 0.08990782 0.0039867563 -0.019655881 0.069985494 -0.0005829567 -0.004372974
0.071081296 0.010648295 -0.0020996386 0.07880604 0.018862683 -0.0038405408 0.09267186 0.023304267
-0.0064668553 0.061844606 -0.006553815 0.014047346 0.013316793 0.002776523 0.011847577 -0.023121325
0.008210313 0.003739815 -0.040124346 0.011699749 -0.032053456 0.020436246 0.002194455 -0.0075731776
-0.024253948 0.009979608 0.00591287 -0.046874166 0.0035294064 0.011469417 -0.051785298 -0.0021315722
-0.018908467 -0.00385205 -0.0042534983 -0.0003242447 -0.030135036 0.0017064998 0.0055909003 -0.04336273
-0.0055851205 0.0050071045 -0.043949552 -0.014536945 -0.004988961 -0.004696407 0.0009566712 0.011732259
00000000: 30ef 9dbb a712 69bb ab0f 39ba 812c 493c
00000010: 0dc5 67bc d649 203a 0a5c 963c 3965 9bbb
00000020: a219 1bbc f55e 5d3b 383a e63c 5e02 50bc
00000030: f5a0 51bc d1b2 a43d 9fdb 90bc 15d7 fa3b
00000040: 6fb2 e73c ee2b ecbc e66d b33c eabd 003d
00000050: 636f 9bbc 8042 ae3c 5d1d 423d bdbb 1abc
00000060: ce97 6b3c bad3 9b3d 063d 19ba c4ca b4bc
00000070: c1d0 ae3d dcbf aebc 3f95 0dbd 7c72 2a3d
00000080: a0f7 7dbc 481a cebc 05f7 823c 1a7e eebb
00000090: 84db 96bc 3f55 843c cbbf 843b 2881 00bd
000000a0: 84c4 8e3d cb60 e3bc f742 9abd 4a32 9f3c
000000b0: b2b0 e6bc 4392 dfbd 4c0d 73bc 05b2 1ebd
000000c0: 5fe9 10be d64d e7bc 123d 40bd efe1 4bbd
000000d0: 77c6 693d e8e0 1cbd e2e9 b6bd 4e48 bf3c
000000e0: 6cf2 0dbd 7b02 e3bd 96cb 123b ddcc 25bd
000000f0: 85bc 04be cc45 763b 3293 40bd c8a7 06bc
00000100: 27b7 9f3b e079 323b 8ec5 34bc 5fb5 f53c
00000110: 4ef5 8e3b c6fe c33b c05e 073d f4d9 083b
00000120: 0a9f 9d3c fc9c 343d fc8b 803b 9029 c43c
00000130: 3891 9c3d b09d d23b d887 cebc f61b 833d
00000140: e830 28b9 1c72 47bc 98a9 803d 3a6e 293c
00000150: 6ec3 30bc 0a59 8f3d 7e02 a03c 5176 50bc
00000160: b3d3 aa3d c1c3 c33c c81a 68bc e46e 733d
00000170: eb41 b5bb 79ed 953b 1c1d 123c 5a8c 8e3b
00000180: 80f1 d63a e94a e9bc ba43 1c3c 8abc dbbb
00000190: 0c32 3cbd c0f4 523c 439c 1ebd 45d0 963c
000001a0: 72c1 113b e924 84bc 9827 e9bc 49c8 283c
000001b0: fb95 39bb 00a9 59bd a87a 8f3b 2916 273b
000001c0: b07b 6fbd ce33 9fba 5165 e8bc 161c 5dbb
000001d0: 64db 78bb 58e1 3fbc f9a8 02bd e659 c63a
000001e0: 8c59 b2bb fa7e 3ebd f189 a9bb 30fa c4bb
000001f0: 4ca0 46bd dacf 67bc ded3 9cbb 8a69 b8bb
00000200: d760 3339 cd68 4a3c 80f5 89bc 2c06 16bb
00000210: 6229 873c 3d86 d3bb 383f 53bc b3e7 9eb9
00000220: dc67 db3c 6aa3 88bc 67c4 91bc 54cf a33d
00000230: e7ca b1bc c1bd 193b 7e2a d53c be09 02bd
00000240: 06ce 853c aa42 e33c 1ad6 b8bc c545 753c
00000250: bb20 323d c977 5dbc 3bf9 ea3b b17b 923d
00000260: 9887 b5bb 3cba ffbc ab94 a83d aa1c c0bc
00000270: 7bf0 2fbd ace0 183d 9d89 91bc edad 09bd
00000280: f25a 343c 886b 1fbc 0ed7 e2bc 3f8f 283c
00000290: a067 363a 3e98 1fbd d6d6 853d 0bcb f8bc
000002a0: a4d1 a8bd a9f5 573c c719 fbbc c92f f0bd
000002b0: 4b58 b4bc d5f1 27bd 680d 1bbe 0a13 11bd
000002c0: 700f 4dbd 851d 6cbd ae7c 553d 341c 25bd
000002d0: 6e1d c6bd 7ace 8d3c 8a6d 16bd fd6f f6bd
000002e0: 0e1f 3cbb 3340 29bd 5812 10be da5a 99ba
000002f0: 1d5b 43bd 0531 f9bb ba49 f43b c63d ca3a
00000300: 46ff 4cbc e70f 063d 0a9d cb3a 4e2f f43b
00000310: 179a 213d 3b3d 42ba 047f b93c b525 5d3d
00000320: 5f38 ad3a 21a8 df3c 9721 b83d 56a3 823b
00000330: 5f05 a1bc 8e54 8f3d 90d1 18ba 2a4b 8fbb
00000340: 1293 913d 3076 2e3c 179a 09bb 1065 a13d
00000350: ea85 9a3c 95b1 7bbb beca bd3d 97e8 be3c
00000360: eae7 d3bb c550 7d3d 63c1 d6bb d726 663c
00000370: ae2e 5a3c 53f6 353b 571c 423c ef68 bdbc
00000380: 8c84 063c af17 753b 6d59 24bd 4eb0 3f3c
00000390: 7c4a 03bd ea69 a73c d8d0 0f3b 6b28 f8bb
000003a0: 37b0 c6bc 8281 233c c0c0 c13b 20ff 3fbd
000003b0: 9d4d 673b 39ea 3b3c d21c 54bd d9b1 0bbb
000003c0: eee5 9abc ad72 7cbb ee60 8bbb 63ff a9b9
000003d0: c0dd f6bc a2ac df3a df33 b73b 1e9d 31bd
000003e0: 6303 b7bb a312 a43b 7204 34bd 5e2c 6ebc
000003f0: 707a a3bb 51e4 99bb 1ec9 7a3a a938 403c

model_4/batch_normalization_17/batchnorm/mul_1;model_4/conv1d_9/Conv1D/Squeeze;model_4/conv1d_9/BiasAdd;model_4/conv1d_9/BiasAdd/ReadVariableOp;model_4/batch_normalization_17/batchnorm/mul;model_4/conv1d_9/Conv1D f4 [96, 1, 3, 96]
0.02036463 -0.0833297 -0.0008485315 -0.09729334 -0.040410653 -0.068591826 -0.052176945 0.01975668
-0.01829818 -0.01784874 -0.023264023 -0.027475065 -0.055741698 -0.05234765 -0.06925527 -0.0017848301
-0.04836744 -0.04880101 -0.028992409 0.00031179446 -0.03721558 0.05939711 -0.044510253 0.05809033
-0.021162223 -0.045797173 -0.027214259 0.024311526 -0.011919613 -0.011581806 0.02280944 -0.03918717
0.002392442 -0.061984 0.03899659 0.014353874 -0.050501276 -0.0688027 -0.032842755 -0.034002405
-0.040052887 -0.04223996 0.0046201227 -0.020030841 0.038938165 0.008540398 0.009423612 -0.004518558
-0.029147781 0.038810827 -0.013434496 0.00044953133 -0.011956463 -0.00016115446 -0.014563883 -0.03928853
-0.017577542 0.018936059 0.02517311 -0.0336786 -0.03943144 -0.07581372 -0.049304795 -0.037775874
-0.011480498 0.012868197 0.0061263456 -0.022401653 -0.042595312 8.2751576e-05 -0.015874477 -0.073715545
0.014309139 -0.0010836391 -0.0295924 -0.042218428 -0.02746244 -0.04038966 -0.028709734 -0.03553418
0.03250637 0.035410967 -0.06744737 0.0424262 -0.05599504 -0.04039914 -0.05018478 -0.0018798043
0.009634426 -0.04898465 -0.023921067 -0.01850357 -0.10658652 0.026832817 0.008221235 -0.0026061262
0.032003928 -0.0737365 0.007173463 -0.10610083 -0.024931801 -0.07334323 -0.05368 0.02037422
-0.025483098 -0.0076926453 -0.020299338 -0.02882544 -0.06259147 -0.05513935 -0.07475056 -0.005770453
-0.05695141 -0.054656345 -0.028101219 -0.011095806 -0.043120798 0.06369314 -0.044924248 0.0674749
-0.026939172 -0.047526844 -0.025284072 0.021685954 -0.003168356 -0.0019905625 0.014755894 -0.03608098
0.0029848602 -0.06180131 0.047291983 0.011946007 -0.052946463 -0.073124215 -0.038342897 -0.03845647
-0.034769587 -0.051290218 0.0048566223 -0.021055203 0.049756538 0.016068997 0.01600502 -0.005203226
-0.032368008 0.035436004 -0.023206608 -0.0032165027 -0.016074916 -0.00972725 -0.005745903 -0.041796908
-0.022382313 0.0040549133 0.027797153 -0.03595573 -0.040191658 -0.06603636 -0.05003684 -0.035802525
-0.010908242 0.00455011 -0.0014223651 -0.028285393 -0.04795674 -0.0007438038 -0.020524202 -0.07163177
0.016639542 -0.00064605667 -0.034038845 -0.043916333 -0.035214752 -0.040934563 -0.033540383 -0.04357564
0.019507516 0.011664982 -0.055825382 0.0453913 -0.07776921 -0.0376563 -0.05206338 0.015048437
0.021220129 -0.057125825 -0.029178653 -0.025512908 -0.11550199 0.025218338 -0.006441297 -0.02164544
0.03553377 -0.07210937 0.008257776 -0.109200425 -0.019911671 -0.0806936 -0.05492855 0.021512067
-0.028510762 -0.005092628 -0.017720405 -0.026261317 -0.057599034 -0.056207757 -0.07234574 -0.0021557647
-0.058760606 -0.052750554 -0.02795464 -0.015718691 -0.039468456 0.06644044 -0.042734724 0.06616825
-0.03030223 -0.045389622 -0.022881921 0.020603435 -0.0019067402 0.0018598761 0.012542751 -0.036274984
0.0011013347 -0.058090806 0.049668968 0.012034225 -0.053395044 -0.07247065 -0.039519463 -0.040310357
-0.031634994 -0.055658437 0.007147722 -0.019623846 0.053581655 0.01660351 0.017761257 -0.0041071014
-0.030107716 0.035738546 -0.025599148 -0.0032667918 -0.018068418 -0.014032677 -0.0064503457 -0.043520156
-0.023454905 -0.000804639 0.02751474 -0.0368631 -0.040338296 -0.06420074 -0.047737293 -0.037242293
00000000: b9d3 a63c c3a8 aabd fc6f 5eba bb41 c7bd
00000010: a485 25bd df79 8cbd 7eb7 55bd c3d8 a13c
00000020: 11e6 95bc 8537 92bc 3194 bebc 6313 e1bc
00000030: 6851 64bd 7d6a 56bd b5d5 8dbd f6f0 e9ba
00000040: f01c 46bd 91e3 47bd 7d81 edbc 5878 a339
00000050: 5d6f 18bd 624a 733d 6250 36bd 20f0 6d3d
00000060: 665c adbc d195 3bbd 70f0 debc f728 c73c
00000070: 7b4a 43bc 9dc1 3dbc ddda ba3c ba82 20bd
00000080: 84ca 1c3b efe2 7dbd e3ba 1f3d 832c 6b3c
00000090: 6dda 4ebd 6ee8 8cbd 2086 06bd 1b46 0bbd
000000a0: 7f0e 24bd cf03 2dbd 6664 973b b817 a4bc
000000b0: a07d 1f3d 07ed 0b3c 7e65 1a3c 6910 94bb
000000c0: 54c7 eebc 1af8 1e3d 5c1c 5cbc 13af eb39
000000d0: 0ae5 43bc 92fb 28b9 5a9d 6ebc 02ed 20bd
000000e0: c7fe 8fbc cb1f 9b3c d737 ce3c 92f2 09bd
000000f0: dd82 21bd 3944 9bbd d3f3 49bd e0ba 1abd
00000100: b318 3cbc 21d5 523c 83bf c83b ac83 b7bc
00000110: 6c78 2ebd ea8a ad38 310b 82bc 2df8 96bd
00000120: e170 6a3c e508 8eba c36b f2bc 3bed 2cbd
00000130: e9f8 e0bc a16f 25bd ad30 ebbc 4a8c 11bd
00000140: 6625 053d 170b 113d d921 8abd 18c7 2d3d
00000150: 0e5b 65bd 9279 25bd 8e8e 4dbd c463 f6ba
00000160: b6d9 1d3c 21a4 48bd 1df6 c3bc cd94 97bc
00000170: 094a dabd 7fd0 db3c 5cb2 063c 8bcb 2abb
00000180: 8d16 033d 2a03 97bd 5e0f eb3b 644b d9bd
00000190: c73d ccbc fa34 96bd 8fdf 5bbd d6e7 a63c
000001a0: eec1 d0bc 9612 fcbb cc4a a6bc 5423 ecbc
000001b0: f52f 80bd cdd9 61bd d216 99bd 1116 bdbb
000001c0: e245 69bd 55df 5fbd 8734 e6bc 2fcb 35bc
000001d0: 6f9f 30bd 8d71 823d 7d02 38bd 4830 8a3d
000001e0: 8aaf dcbc 82ab 42bd 8b20 cfbc bea6 b13c
000001f0: 31a4 4fbb 1974 02bb b5c2 713c a6c9 13bd
00000200: a59d 433b 5f23 7dbd 3db5 413d 2fb9 433c
00000210: 64de 58bd 26c2 95bd 710d 1dbd 8884 1dbd
00000220: 8e6a 0ebd b115 52bd 4d24 9f3b f67b acbc
00000230: 83cd 4b3d 21a3 833c f61c 833c d37f aabb
00000240: 5194 04bd 5825 113d c91b bebc f6cb 52bb
00000250: 8baf 83bc 0b5f 1fbc 2148 bcbb 3c33 2bbd
00000260: 1d5b b7bc 14df 843b dbb6 e33c 5146 13bd
00000270: 02a0 24bd 123e 87bd 6ef3 4cbd aba5 12bd
00000280: 7cb8 32bc 1719 953b a76e baba c5b6 e7bc
00000290: 496e 44bd d4fb 42ba 5f22 a8bc adb3 92bd
000002a0: a64f 883c 215c 29ba 516c 0bbd 9de1 33bd
000002b0: 583d 10bd 00ab 27bd a461 09bd 5f7c 32bd
000002c0: 3ace 9f3c 7b1e 3f3c 28a9 64bd 3aec 393d
000002d0: 7745 9fbd 7e3d 1abd 6940 55bd b88d 763c
000002e0: d6d5 ad3c c5fc 69bd 1208 efbc 7200 d1bc
000002f0: 4f8c ecbd b096 ce3c 8411 d3bb c751 b1bc
00000300: dc8b 113d 14ae 93bd 9f4b 073c 79a4 dfbd
00000310: cd1d a3bc b042 a5bd c2fc 60bd 133a b03c
00000320: 678f e9bc 0fe0 a6bb 622a 91bc f921 d7bc
00000330: f7ec 6bbd 1b3a 66bd 012a 94bd bb47 0dbb
00000340: f6ae 70bd f710 58bd 2101 e5bc 7cc4 80bc
00000350: ada9 21bd ed11 883d 9b0a 2fbd 3883 873d
00000360: 623c f8bc 78ea 39bd de72 bbbc 89c8 a83c
00000370: 96eb f9ba 16c7 f33a 1c80 4d3c 1495 14bd
00000380: a95a 903a a0f0 6dbd b071 4b3d 332b 453c
00000390: c3b4 5abd 7e6b 94bd 29df 21bd 791c 25bd
000003a0: b293 01bd 1afa 63bd 7037 ea3b 30c2 a0bc
000003b0: 7078 5b3d 1604 883c 0e80 913c dd94 86bb
000003c0: 75a4 f6bc 9562 123d 4eb5 d1bc ac17 56bb
000003d0: 3804 94bc 50e9 65bc 6c5d d3bb 3142 32bd
000003e0: 8024 c0bc 69ee 52ba 9866 e13c c3fd 16bd
000003f0: c539 25bd ad7b 83bd 2e88 43bd 608b 18bd

model_4/gru_9/gru_cell/strided_slice_4 f4 [48]
-0.025439285 0.07527846 -0.14639975 0.06736104 -0.018710712 -0.05079319 -0.16202259 -0.09024468
-0.16093753 -0.014214903 -0.08615287 -0.022745024 -0.08004111 -0.11112966 -0.05997433 -0.027754126
-0.046324242 -0.10636165 0.034573518 -0.14385444 -0.11267858 0.0636907 0.0077255876 0.0027281058
-0.070982255 -0.0050253514 -0.04636155 -0.0804649 -0.051942255 -0.16889499 -0.1438444 -0.24555406
-0.055138875 0.046759672 -0.08751577 -0.13184907 -0.019040024 -0.06945941 -0.111911066 0.01097686
0.006291855 -0.019440603 -0.0060723405 0.0242882 -0.1027698 -0.011459633 -0.054735582 -0.062281344
00000000: 0c66 d0bc 982b 9a3d d1e9 15be 96f4 893d
00000010: 3547 99bc 850c 50bd 40e9 25be 34d2 b8bd
00000020: cfcc 24be a0e5 68bc ea70 b0bd c653 babc
00000030: 98ec a3bd f297 e3bd a5a7 75bd 9f5c e3bc
00000040: 7dbe 3dbd 23d4 d9bd f69c 0d3d 944e 13be
00000050: 07c4 e6bd 4570 823d ed26 fd3b 05ca 323b
00000060: 255f 91bd b4ab a4bb 9ce5 3dbd c8ca a4bd
00000070: 67c1 54bd cff2 2cbe f24b 13be 8672 7bbe
00000080: 4dd9 61bd 1287 3f3d 783b b3bd 7103 07be
00000090: d3f9 9bbc bc40 8ebd a131 e5bd 4ad8 333c
000000a0: e82b ce3b e641 9fbc 7cfa c6bb 0cf8 c63c
000000b0: f978 d2bd 2fc1 3bbc 6b32 60bd b91a 7fbd

model_4/gru_9/gru_cell/strided_slice_3 f4 [48]
0.1119445 0.16815601 0.29903722 0.23413904 0.08971289 -0.036312792 0.069919385 0.07050246
0.07928873 0.18384151 -0.026594887 0.1822669 0.037559647 0.19578843 0.10736109 -0.2166784
0.186205 0.11846448 0.040418137 0.1627602 0.022587571 -0.04313936 0.057472557 0.024625205
0.18976706 0.20116773 -0.0013708833 0.051966235 0.20898715 0.084648766 0.12089812 0.26259685
0.11645183 0.17405792 0.023889057 0.24711733 0.17326641 -0.087578736 0.17015873 -0.026016284
0.20524995 -0.14448707 0.048970103 -0.10324572 0.058883827 0.21332121 -0.10056085 0.07792286
00000000: 2843 e53d 1731 2c3e 681b 993e 25c2 6f3e
00000010: 64bb b73d b9bc 14bd e531 8f3d 9863 903d
00000020: 2162 a23d f340 3c3e 85dd d9bc 2da4 3a3e
00000030: 25d8 193d c37c 483e 22e0 db3d f1e0 5dbe
00000040: 86ac 3e3e 819d f23d 7d8d 253d 9caa 263e
00000050: 9209 b93c e6b2 30bd 5868 6b3d ccba c93c
00000060: 4c52 423e eafe 4d3e 36af b3ba 8cda 543d
00000070: ba00 563e 555c ad3d 6f99 f73d 1873 863e
00000080: 4c7e ee3d 3d3c 323e fcb2 c33c 530c 7d3e
00000090: c06c 313e 7b5c b3bd 173e 2e3e 1a20 d5bc
000000a0: 0b2d 523e 6bf4 13be e094 483d 7e72 d3bd
000000b0: 2b30 713d e070 5a3e d9f2 cdbd 0596 9f3d

model_4/gru_9/gru_cell/strided_slice_5 f4 [48]
-0.13278373 -0.10571831 -0.10742287 -0.15850933 0.06918574 -0.07675619 -0.08735736 0.03549996
0.12351815 -0.22273356 -0.030128235 -0.12300125 -0.058401573 -0.098034255 0.054279305 0.00906332
0.07262894 0.025015244 -0.08753143 0.14725618 -0.067574635 -0.21605068 -0.031069888 0.16252516
0.08491774 -0.009866569 0.031911206 -0.16263983 -0.19014412 0.062540665 -0.11965623 0.2767702
0.02030009 -0.14770375 0.17709255 -0.044672307 -0.019064216 0.24247307 0.076140314 -0.069526784
0.035284966 0.065071054 -0.0118795205 -0.18065691 0.06529263 -0.1801321 -0.162682 0.12351269
00000000: 75f8 07be d782 d8bd 8600 dcbd 4550 22be
00000010: 41b1 8d3d 5932 9dbd 6ae8 b2bd 6868 113d
00000020: 15f7 fc3d 4414 64be 7dcf f6bc 14e8 fbbd
00000030: 7d36 6fbd 2fc6 c8bd fa53 5e3d 527e 143c
00000040: 7bbe 943d c5ec cc3c ae43 b3bd 53ca 163e
00000050: 9264 8abd 643c 5dbe 4786 febc ff6c 263e
00000060: 5ae9 ad3d 64a7 21bc 53b5 023d 0e8b 26be
00000070: 24b5 42be 5215 803d 530e f5bd d3b4 8d3e
00000080: 604c a63c a73f 17be c057 353e 4ffa 36bd
00000090: 8f2c 9cbc dc4a 783e 74ef 9b3d 0f64 8ebd
000000a0: f886 103d f943 853d 52a2 42bc 20fe 38be
000000b0: 24b8 853d 8d74 38be 1c96 26be 39f4 fc3d

model_4/gru_9/gru_cell/strided_slice_11 f4 [48]
-0.08642066 -0.122226015 -0.04449939 -0.13922551 0.059243172 -0.08964804 -0.042849626 0.062264696
0.09119194 -0.18658926 0.028549975 -0.101538844 -0.035136167 0.004305723 0.030114688 0.040646583
0.05563078 0.102394104 -0.07786036 0.17867063 -0.025366688 -0.12169287 -0.08062322 0.0732126
0.06882916 0.02364853 0.03801043 -0.13943687 -0.1250061 0.001566116 -0.010551358 0.077501036
0.053164326 -0.1176351 0.16205046 -0.042491686 -0.04747332 0.19561294 0.025235767 -0.069849774
0.03929505 0.014898486 0.015637048 -0.19897841 0.05629227 -0.15474322 -0.07775396 0.11781345
00000000: 51fd b0bd a251 fabd fe44 36bd 2291 0ebe
00000010: f8a8 723d 6499 b7bd 1783 2fbd 4409 7f3d
00000020: d7c2 ba3d 4111 3fbe a3e1 e93c 99f3 cfbd
00000030: f1ea 0fbd 0617 8d3b 14b3 f63c 087d 263d
00000040: 1add 633d 00b4 d13d 4175 9fbd 6ff5 363e
00000050: cdcd cfbc 1d3a f9bd c91d a5bd 7df0 953d
00000060: 4df6 8c3d 90ba c13c d3b0 1b3d 8ac8 0ebe
00000070: 9901 00be 2246 cd3a 9adf 2cbc ddb8 9e3d
00000080: d6c2 593d acea f0bd 8ef0 253e c30b 2ebd
00000090: 6273 42bd c24e 483e 3dbb ce3c 660d 8fbd
000000a0: d9f3 203d c818 743c 4419 803c ffc0 4bbe
000000b0: b992 663d 0275 1ebe 783d 9fbd 2e48 f13d

model_4/gru_8/gru_cell/strided_slice_4 f4 [96]
0.14447163 -0.10232726 -0.002821729 0.002134098 -0.027540509 0.10956318 -0.11333052 0.06748246
-0.13212897 -0.058930892 0.041487787 -0.1421085 -0.022041077 -0.09545555 -0.17130578 -0.21061225
-0.0780764 -0.11503945 -0.079629466 0.1164427 -0.0146666905 0.29789758 -0.04923654 0.023336543
-0.12116006 0.15595749 -0.12784357 0.07885494 -0.067152254 -0.016846236 0.007170534 0.015681708
-0.02381798 -0.10071992 -0.12447631 0.13395587 0.006546596 0.17539974 0.015597833 0.0711858
-0.050870575 -0.10102671 0.1298386 -0.07222032 -0.060348652 -0.028372698 0.033861935 -0.14576854
-0.030599898 0.04714024 -0.003479582 -0.03143001 -0.0324705 0.0026438416 -0.005479871 -0.08954084
-0.17083986 0.040711626 0.025721025 -0.058840353 -0.044940393 0.14524668 0.09532976 -0.17202325
-0.10821741 -0.002668347 -0.06218647 -0.10593864 -0.07756195 -0.06795165 -0.062537044 0.030806785
-0.0324671 -0.067048214 -0.033495203 -0.04778073 0.07231724 0.09102165 -0.086228974 -0.07836544
0.008618764 -0.081069335 -0.11095462 0.017109647 -0.045529593 -0.10759128 0.017889353 -0.013513486
0.054506294 -0.020042328 -0.12144586 0.18165132 -0.07933407 0.0634409 0.041241404 -0.0032246413
00000000: 5ff0 133e f490 d1bd c2ec 38bb 39dc 0b3b
00000010: a29c e1bc a962 e03d d519 e8bd 3e34 8a3d
00000020: d14c 07be 8561 71bd 19ef 293d e484 11be
00000030: 7d8f b4bc 337e c3bd c86a 2fbe bdaa 57be
00000040: 85e6 9fbd ce99 ebbd c614 a3bd 8379 ee3d
00000050: 8f4c 70bc 0886 983e 41ac 49bd 472c bf3c
00000060: c422 f8bd 52b3 1f3e 6de9 02be b37e a13d
00000070: 1f87 89bd 1e01 8abc cdf6 ea3b ed76 803c
00000080: ed1d c3bc 3f46 cebd 70ed febd ba2b 093e
00000090: d484 d63b fd9b 333e 0e8e 7f3c dcc9 913d
000000a0: aa5d 50bd 17e7 cebd 69f4 043e 3fe8 93bd
000000b0: 2630 77bd dc6d e8bc d0b2 0a3d 5944 15be
000000c0: a3ac fabc 2016 413d b309 64bb c1bc 00bd
000000d0: c9ff 04bd 4d44 2d3b 7d90 b3bb 3061 b7bd
000000e0: a5f0 2ebe 3cc1 263d e6b4 d23c 9502 71bd
000000f0: 6b13 38bd 8cbb 143e 403c c33d dd26 30be
00000100: 17a1 ddbd 6fdf 2ebb 3db7 7ebd 5cf6 d8bd
00000110: cdd8 9ebd 3c2a 8bbd 6c13 80bd 835e fc3c
00000120: 39fc 04bd 9350 89bd 4432 09bd bab5 43bd
00000130: 101b 943d 8f69 ba3d d198 b0bd 0f7e a0bd
00000140: b735 0d3c ae07 a6bd 2d3c e3bd 8829 8c3c
00000150: 3d7d 3abd d158 dcbd b18c 923c ab67 5dbc
00000160: fe41 5f3d cf2f a4bc 9bb8 f8bd ce02 3a3e
00000170: e779 a2bd 4ded 813d bfec 283d 8154 53bb

model_4/gru_8/gru_cell/strided_slice_3 f4 [96]
-0.043013353 -0.19583444 0.092172995 -0.06439959 -0.062540874 0.09853624 -0.020109098 0.024403514
-0.29893026 -0.040922612 -0.020373834 -0.03036142 -0.076774344 -0.32361606 -0.1113778 0.07626846
0.03433741 -0.20637673 0.1992537 -0.08405244 -0.19876678 0.15911815 -0.09988051 0.09016954
0.04115415 -0.055071115 -0.036381833 -0.12151129 -0.11051988 0.16679993 0.19607279 -0.23426546
0.033518672 -0.25261372 0.07123686 0.21189328 -0.33282322 -0.21468608 0.13168924 -0.13020565
-0.13660325 -0.19937924 0.062237967 -0.12602083 0.03644491 -0.19470598 0.096233 -0.061419573
0.12561335 0.028614441 0.2286034 0.0059885243 -0.050491806 -0.0653123 -0.21572156 -0.1716353
-0.13358033 -0.009670495 0.11910381 -0.29386374 -0.4146359 -0.0048218914 0.097118236 -0.20958176
-0.088596374 -0.058047924 -0.08474838 -0.03241351 -0.080120064 -0.14039584 0.049071804 0.30890903
0.21959111 -0.09052807 -0.10520295 -0.06297392 0.0061940155 0.27171567 -0.08573311 -0.14980681
-0.19447118 -0.323604 -0.112086385 -0.22078118 -0.24926887 -0.34044075 0.0916587 -0.032678984
-0.048744347 -0.15802126 -0.18185262 0.052258123 -0.21589811 -0.0076829675 -0.0001961095 -0.28105858
00000000: c52e 30bd d388 48be 32c5 bc3d efe3 83bd
00000010: 6e15 80bd 5ecd c93d d6bb a4bc e1e9 c73c
00000020: 630d 99be 789e 27bd 07e7 a6bc 83b8 f8bc
00000030: de3b 9dbd 01b1 a5be 0b1a e4bd a332 9c3d
00000040: 62a5 0c3d 6c54 53be 2909 4c3e b023 acbd
00000050: 8589 4bbe deef 223e 278e ccbd cfaa b83d
00000060: 4191 283d 4092 61bd 1e05 15bd e9da f8bd
00000070: 3f58 e2bd 9acd 2a3e 4ec7 483e 49e3 6fbe
00000080: e04a 093d 9656 81be a1e4 913d 8dfa 583e
00000090: ce67 aabe abd6 5bbe 8bd9 063e a154 05be
000000a0: b9e1 0bbe 122a 4cbe 3ded 7e3d 9b0b 01be
000000b0: 4247 153d 0161 47be cf15 c53d 1793 7bbd
000000c0: c9a0 003e d568 ea3c 0217 6a3e 623b c43b
000000d0: 7fd0 4ebd 75c2 85bd 1de6 5cbe 2ac1 2fbe
000000e0: 48c9 08be ff70 1ebc b3ec f33d 4f75 96be
000000f0: 284b d4be f500 9ebb ede5 c63d 9a9c 56be
00000100: 0472 b5bd a9c3 6dbd 8f90 adbd 07c4 04bd
00000110: fd15 a4bd edc3 0fbe 84ff 483d 5329 9e3e
00000120: 7edc 603e c866 b9bd a574 d7bd 78f8 80bd
00000130: 2bf7 ca3b 511e 8b3e d794 afbd f566 19be
00000140: 7423 47be 6caf a5be 8c8d e5bd 7614 62be
00000150: 5740 7fbe 404e aebe 8eb7 bb3d 66da 05bd
00000160: 27a8 47bd 53d0 21be 9337 3abe 9d0c 563d
00000170: 6514 5dbe 67c1 fbbb bea2 4db9 e9e6 8fbe

model_4/gru_8/gru_cell/strided_slice_5 f4 [96]
0.06178947 0.03084012 -0.03359408 -0.077267535 0.011557282 0.07652545 -0.0433 0.069157675
0.040728353 0.085227795 0.10291829 0.022843566 0.037745763 -0.03975517 0.13730443 -0.074159086
0.0027270347 0.026071874 0.02111986 -0.053910203 -0.059947856 -0.09991413 -0.07184755 0.039244022
-0.0061495835 0.03327531 -0.064071946 0.029113494 -0.07644586 0.13926914 -0.0051050666 -0.11559361
-0.008619108 0.021804968 -0.10826214 -0.054874245 -0.074629076 -0.0008372882 0.118677504 -0.0656959
0.035747096 0.015012383 -0.05970552 -0.0063988413 0.010398292 0.027672099 0.039765842 -0.016411416
-0.027671447 -0.059215434 0.04228056 -0.096103854 -0.05976574 0.021167725 0.13401829 0.08981648
-0.046000224 -0.021770265 0.07771811 -0.067200795 0.015966509 -0.08270482 0.024819294 0.032260355
0.0009188886 0.028664839 -0.064309135 0.057635285 -0.010332947 0.05376497 0.020867994 -0.096802734
0.0033127998 -0.06203464 -0.04206308 0.07225316 0.12687825 0.01567253 0.013124961 -0.07802091
0.038987402 -0.011607242 -0.01894647 -0.08468745 -0.0052068243 0.06587111 0.041828696 0.08967771
-0.023688175 -0.02668867 -0.052713647 0.10227381 -0.020194639 0.06874373 -0.02353661 -0.029312244
00000000: f516 7d3d 6ba4 fc3c f299 09bd 713e 9ebd
00000010: c15a 3d3c 60b9 9c3d 575b 31bd 8aa2 8d3d
00000020: c6d2 263d e98b ae3d d3c6 d23d 6e22 bb3c
00000030: 4d9b 1a3d 51d6 22bd 8899 0c3e b8e0 97bd
00000040: 0db8 323b af94 d53c 8e03 ad3c f2d0 5cbd
00000050: e28b 75bd c89f ccbd cf24 93bd 57be 203d
00000060: 7282 c9bb b14b 083d 2738 83bd 6c7f ee3c
00000070: a68f 9cbd 929c 0e3e 6748 a7bb 58bc ecbd
00000080: 2937 0dbc 55a0 b23c 8ab8 ddbd d1c3 60bd
00000090: 21d7 98bd 767d 5bba 310d f33d 928b 86bd
000000a0: 8c6b 123d 80f6 753c c68d 74bd 5fad d1bb
000000b0: 995d 2a3c 99b0 e23c 82e1 223d 3c71 86bc
000000c0: 3baf e2bc e28b 72bd 612e 2d3d 19d2 c4bd
000000d0: eccc 74bd f067 ad3c 173c 093e b4f1 b73d
000000e0: bb6a 3cbd 8e57 b2bc ac2a 9f3d 92a0 89bd
000000f0: 32cc 823c 2561 a9bd d551 cb3c 6f23 043d
00000100: 92e1 703a 86d2 ea3c 82b4 83bd fa12 6c3d
00000110: 854b 29bc a838 5c3d 5bf3 aa3c 8340 c6bd
00000120: 8f1b 593b 0918 7ebd 564a 2cbd 77f9 933d
00000130: 5fec 013e ad63 803c 140a 573c 6dc9 9fbd
00000140: 41b1 1f3d 4d2c 3ebc a135 9bbc 9d70 adbd
00000150: 029e aabb 6fe7 863d 9154 2b3d f2a8 b73d
00000160: b40d c2bc 33a2 dabc 44ea 57bd ee74 d13d
00000170: 3a6f a5bc 83c9 8c3d d9cf c0bc 3b20 f0bc

model_4/gru_8/gru_cell/strided_slice_11 f4 [96]
0.03501903 0.027237836 -0.0510498 -0.038683634 0.04136814 0.08923625 -0.04704347 0.057727877
0.0040763975 0.11002962 0.117209144 -0.006447063 0.057774976 -0.03685922 0.019532053 -0.10370546
-0.031705715 -0.019259209 0.05063934 -0.033578545 -0.040330898 -0.012775749 -0.0060548135 -0.008278755
-0.031809714 0.016173394 -0.013657267 -0.005446383 -0.046837814 0.017750254 -0.026981223 -0.08181172
-0.015327439 0.0033607956 -0.029299656 -0.060479578 0.013223844 0.015608261 0.07587984 -0.014899691
0.013916151 0.02503314 -0.046181798 -0.0387498 0.03140526 -8.546257e-05 -0.04392512 -0.13887516
-0.038899504 -0.049918246 0.023042537 -0.050514203 -0.032132655 0.033955052 0.13542831 0.072126344
-0.05427206 -0.0046555283 0.057909384 -0.04233272 -0.021348868 -0.034920163 0.025698198 0.02892783
0.002385669 0.050027885 -0.087726936 0.018438121 -0.0062401197 0.0122501375 0.049552158 -0.10965017
0.008176075 -0.009959535 -0.046324167 0.12154338 0.09418593 0.03561951 0.034392163 -0.064858526
-0.03885078 -0.009549564 -0.0029694876 -0.097321905 0.031684857 0.03715228 0.045388885 0.08545156
-0.024772208 -0.037611984 -0.009924558 0.10915531 -0.0019741568 0.029760817 -0.04413167 -0.031442136
00000000: 1d70 0f3d e221 df3c 9819 51bd bb72 1ebd
00000010: a471 293d 7fc1 b63d a7b0 40bd 1174 6c3d
00000020: 4d93 853b 3657 e13d 590b f03d e241 d3bb
00000030: 74a5 6c3d b2f9 16bd af01 a03c 8763 d4bd
00000040: dadd 01bd 7dc5 9dbc 326b 4f3d a889 09bd
00000050: 0332 25bd 6051 51bc 7567 c6bb 9da3 07bc
00000060: e74a 02bd 117e 843c bbc2 5fbc 9277 b2bb
00000070: 02d9 3fbd fb68 913c ba07 ddbc e78c a7bd
00000080: f01f 7bbc cb40 5c3b d505 f0bc 6fb9 77bd
00000090: d2a8 583c cbb9 7f3c e466 9b3d d51d 74bc
000000a0: 9100 643c 4d12 cd3c 2029 3dbd 1cb8 1ebd
000000b0: cda2 003d 5e3a b3b8 d4ea 33bd 4a35 0ebe
000000c0: 1655 1fbd 1377 4cbd b4c3 bc3c fbe7 4ebd
000000d0: 889d 03bd 7414 0b3d b8ad 0a3e fab6 933d
000000e0: 614c 5ebd 678d 98bb 6432 6d3d 1365 2dbd
000000f0: d2e3 aebc 7208 0fbd 0785 d23c 0efa ec3c
00000100: e258 1c3b 0aea 4c3d 2eaa b3bd 8b0b 973c
00000110: eb79 ccbb cdb4 483c 34f7 4a3d 4590 e0bd
00000120: f2f4 053c 512d 23bc 69be 3dbd bceb f83d
00000130: 8ee4 c03d c3e5 113d ccde 0c3d 8cd4 84bd
00000140: ff21 1fbd c675 1cbc bc9b 42bb b550 c7bd
00000150: fbc7 013d fd2c 183d b2e9 393d 3a01 af3d
00000160: 16ef cabc 060f 1abd 9d9a 22bc d28c df3d
00000170: db60 01bb f5cc f33c 69c3 34bd 78c9 00bd

model_4/batch_normalization_19/batchnorm/sub f4 [48]
0.12294308 0.6021325 0.13110948 0.49929467 -0.30427375 0.3024229 0.106608585 -0.20503683
-0.3119894 1.250848 -0.0043174746 0.71238065 -0.27631313 0.059438545 -0.29061118 -0.41726667
-0.11806495 -0.22824614 0.8085317 -0.81558067 0.21724558 0.7832058 0.35977924 -0.38892215
-0.09811431 0.10862334 0.14600027 0.8821849 0.6596914 -0.21674097 0.18744452 -1.6004082
0.2758442 0.70394605 -0.86832446 -0.022943787 0.20116857 -1.1197281 0.07400963 0.69572574
-0.2243166 -0.66367555 -0.06417625 0.51387084 -0.23599792 1.678388 1.007112 -0.6979888
00000000: 95c9 fb3d 5b25 1a3f 9041 063e 8da3 ff3e
00000010: c5c9 9bbe 2dd7 9a3e 9a55 da3d 2df5 51be
00000020: 13bd 9fbe ca1b a03f 9a79 8dbb 945e 363f
00000030: ea78 8dbe d575 733d fdca 94be faa3 d5be
00000040: 09cc f1bd 5bb9 69be effb 4e3f e5c9 50bf
00000050: a075 5e3e 2d80 483f fc34 b83e ce20 c7be
00000060: 28f0 c8bd ea75 de3d 1881 153e dfd6 613f
00000070: 89e1 283f 58f1 5dbe 75f1 3f3e 2dda ccbf
00000080: 733b 8d3e cf35 343f 834a 5ebf 9cf4 bbbc
00000090: 22ff 4d3e 4053 8fbf 5c92 973d 151b 323f
000000a0: 40b3 65be a4e6 29bf d66e 83bd 0a8d 033f
000000b0: 70a9 71be 6bd5 d63f 0ce9 803f 65af 32bf

model_4/batch_normalization_19/batchnorm/mul f4 [48]
2.9277709 2.7747436 3.7160034 2.7876356 3.0423813 3.016477 3.3518546 2.8716993
3.4360008 3.6054306 3.0993836 3.019697 2.7789717 2.96986 3.1257381 2.6135898
3.0205712 3.0228913 2.7811077 4.449484 3.0253015 2.7435467 2.7459803 3.2071688
3.0758283 2.8068256 3.9473262 3.231513 2.8482347 3.1984446 2.7473106 4.483206
3.039383 3.5515418 3.1700983 3.3024406 2.790307 3.0102365 3.1928434 2.8251004
3.0780635 2.7764778 2.8051224 2.8924785 2.7931838 4.0219517 3.0441859 3.1457715
00000000: 9960 3b40 6695 3140 00d3 6d40 9f68 3240
00000010: 60b6 4240 f60d 4140 c984 5640 ecc9 3740
00000020: 70e7 5b40 60bf 6640 4d5c 4640 b742 4140
00000030: acda 3140 3012 3e40 180c 4840 0e45 2740
00000040: 0a51 4140 0d77 4140 abfd 3140 2c62 8e40
00000050: 8a9e 4140 4596 2f40 24be 2f40 4142 4d40
00000060: 5fda 4440 08a3 3340 fea0 7c40 1cd1 4e40
00000070: 7a49 3640 51b3 4c40 f0d3 2f40 6c76 8f40
00000080: 4085 4240 764c 6340 e4e2 4a40 305b 5340
00000090: 6494 3240 b7a7 4040 8c57 4c40 72ce 3440
000000a0: fefe 4440 d0b1 3140 2087 3340 5e1e 3940
000000b0: 86c3 3240 d4b3 8040 f1d3 4240 5254 4940

model_4/batch_normalization_18/batchnorm/sub f4 [96]
-0.5432628 -0.12074515 -0.751591 -0.8019367 -0.3237411 0.21097133 -0.4902945 0.028584622
-0.60966253 0.57626057 0.10083386 -0.38676223 0.799664 -0.08767237 0.17108636 -0.5855732
-0.75289327 -0.28320938 0.9010018 0.12112275 0.36876303 -0.20869772 -0.84642714 -0.20646332
-1.137291 -0.29613703 0.32118767 -0.3920926 -0.0491195 0.50049955 -1.1715634 0.07779564
0.47225732 -0.113129854 0.024525262 0.36258373 0.101706654 0.27612612 -0.2568719 0.14819446
-0.10859641 0.7034451 0.11040428 -0.46148595 0.3462776 -0.1993745 -0.33957148 -0.83141136
-1.0701946 -0.4359789 -0.62489545 -0.9365548 -0.08559669 0.27882403 -0.14826512 0.3921328
-0.6922959 0.19329384 0.64696616 0.4063565 0.76583946 0.5161674 -1.0300808 0.6673232
-0.23842686 -0.4270171 0.32603648 -0.39241284 1.067507 -0.2420989 0.34265113 1.105166
-0.5771527 1.3507704 -0.19246529 -0.123875275 0.15406159 1.0586529 0.18698761 -0.6496296
-0.36328956 -0.13311093 0.08536317 -0.45883432 0.7444677 0.4654842 -0.050390963 -0.72023696
0.6269154 -0.6036476 0.4739741 0.48444793 -0.3108682 -0.59910995 -0.18353419 -0.11509316
00000000: 4513 0bbf 3c49 f7bd 4568 40bf b94b 4dbf
00000010: 65c1 a5be de08 583e e107 fbbe 4c2a ea3c
00000020: d812 1cbf d085 133f fc81 ce3d b305 c6be
00000030: c8b6 4c3f 928d b3bd 4331 2f3e 20e8 15bf
00000040: 9dbd 40bf d200 91be 0ea8 663f 340f f83d
00000050: 82ce bc3e dbb4 55be 73af 58bf 1f6b 53be
00000060: c092 91bf 469f 97be b672 a43e 5cc0 c8be
00000070: 8731 49bd bd20 003f caf5 95bf 5253 9f3d
00000080: b6cb f13e a0b0 e7bd 34e9 c83c 93a4 b93e
00000090: 944b d03d 6760 8d3e b784 83be 4ac0 173e
000000a0: cb67 debd fa14 343f a41b e23d e347 ecbe
000000b0: 4c4b b13e d428 4cbe 50dc adbe 60d7 54bf
000000c0: 23fc 88bf a038 dfbe 26f9 1fbf 0ec2 6fbf
000000d0: 514d afbd 06c2 8e3e d0d2 17be a1c5 c83e
000000e0: 4e3a 31bf d2ee 453e 939f 253f f60d d03e
000000f0: 0e0e 443f 8c23 043f b0d9 83bf b1d5 2a3f
00000100: 2c26 74be fca1 dabe 41ee a63e 56ea c8be
00000110: 12a4 883f c6e8 77be f86f af3e 1476 8d3f
00000120: 48c0 13bf 0be6 ac3f 9f15 45be 52b2 fdbd
00000130: 52c2 1d3e f081 873f ae79 3f3e 204e 26bf
00000140: 1701 babe 3b4e 08be e3d2 ae3d 55ec eabe
00000150: 6f95 3e3f f253 ee3e c166 4ebd 7361 38bf
00000160: 877d 203f a688 1abf bcac f23e 8f09 f83e
00000170: 1e2a 9fbe 455f 19bf 63f0 3bbe f6b5 ebbd

model_4/batch_normalization_18/batchnorm/mul f4 [96]
2.5709262 9.524781 5.743505 7.954151 6.683032 3.159517 7.9760714 2.6528125
4.3481503 3.4966154 3.0691116 3.0469904 6.663807 5.8134904 8.694692 6.914945
5.919908 8.282864 9.583847 1.9309608 3.6022656 2.5064354 8.912613 4.6640277
9.347656 5.832292 8.755302 2.9968982 2.507796 10.42027 5.635819 4.6194406
3.6492548 11.725475 3.02338 2.3370016 4.3446665 2.4716897 3.8549225 5.0605597
3.7871814 7.3399563 2.3250341 7.8258953 10.781086 5.7287936 4.4979 5.3833036
3.6874497 3.5342371 4.9103136 6.3672266 3.1794283 5.5368447 2.9478788 4.9270587
7.70775 4.0261173 4.435538 5.971055 8.846506 2.9444976 2.5224955 12.7761345
7.2601748 2.2135763 5.631415 8.695522 3.5359812 3.6527975 3.5335112 4.344734
2.484049 9.564204 6.9681396 3.6530988 5.0472775 3.5345528 8.333782 9.087476
5.015014 4.103168 7.176184 3.9700525 4.377378 7.1741414 3.3003874 5.8100543
6.7118316 4.562851 7.3627777 2.375291 5.8807116 3.7527523 4.8953733 7.7669106
00000000: 0e8a 2440 8165 1841 cbca b740 6888 fe40
00000010: 66db d540 8735 4a40 fa3b ff40 aec7 2940
00000020: 0c24 8b40 8cc8 5f40 536c 4440 e401 4340
00000030: e83d d540 1d08 ba40 751d 0b41 3b47 dd40
00000040: e36f bd40 9c86 0441 7057 1941 b929 f73f
00000050: 858b 6640 7069 2040 109a 0e41 b73f 9540
00000060: 0090 1541 23a2 ba40 b815 0c41 2ecd 3f40
00000070: bb7f 2040 6db9 2641 a158 b440 75d2 9340
00000080: 648d 6940 8c9b 3b41 0f7f 4140 6f91 1540
00000090: 8207 8b40 2a30 1e40 0db7 7640 1bf0 a140
000000a0: 2e61 7240 ece0 ea40 5ccd 1440 bc6d fa40
000000b0: 547f 2c41 4752 b740 ccee 8f40 0644 ac40
000000c0: 2dff 6b40 f130 6240 4a21 9d40 52c0 cb40
000000d0: c17b 4b40 d52d b140 0caa 3c40 77aa 9d40
000000e0: e3a5 f640 f4d5 8040 edef 8d40 e212 bf40
000000f0: 4a8b 0d41 a672 3c40 9170 2140 0c6b 4c41
00000100: 5a53 e840 3cab 0d40 8d34 b440 dc20 0b41
00000110: 844d 6240 6fc7 6940 0c25 6240 1008 8b40
00000120: a9fa 1e40 fb06 1941 00fb de40 5fcc 6940
00000130: 4c83 a140 1d36 6240 2c57 0541 4d66 1141
00000140: ff7a a040 274d 8340 4da3 e540 5715 7e40
00000150: 7b13 8c40 9192 e540 8c39 5340 f7eb b940
00000160: 53c7 d640 e002 9240 e09b eb40 c504 1840
00000170: ca2e bc40 182d 7040 e6a6 9c40 888a f840

model_4/dense_9/BiasAdd/ReadVariableOp f4 [26]
-0.021296486 -0.03893031 -0.11981251 -0.14057627 0.1035183 0.12295606 -0.07021112 0.06449397
-0.056785543 0.008152521 -0.04209363 -0.019886633 0.21199186 -0.06600788 0.35811958 0.047345538
0.0027627242 0.01887785 -0.770755 -0.7785231 -0.75779855 -0.8028367 -0.7862889 -0.7978669
-0.8073007 -0.7926685
00000000: f875 aebc 6475 1fbd 4360 f5bd 3af3 0fbe
00000010: 6701 d43d 63d0 fb3d d9ca 8fbd 6a15 843d
00000020: f597 68bd 2792 053c 5f6a 2cbd 4be9 a2bc
00000030: 6514 593e 242f 87bd 735b b73e 65ed 413d
00000040: d20e 353b b9a5 9a3c 3350 45bf 4a4d 47bf
00000050: 16ff 41bf b586 4dbf 3b4a 49bf 0141 4cbf
00000060: 42ab 4ebf 53ec 4abf

model_4/dense_8/BiasAdd/ReadVariableOp f4 [48]
0.13161336 0.01322918 0.12704636 0.10449003 -0.0110314125 -0.06785684 0.17754942 0.09584317
0.03732018 0.17649445 0.07969378 0.1472602 0.08095267 0.25451928 0.08117349 0.09944521
0.14632729 0.10847999 0.12579301 0.22119793 0.049979057 0.051212776 0.056012515 0.16062075
0.16776654 0.10118579 0.21471472 0.089151196 0.05111504 0.15687151 0.11575793 0.07579315
0.025388626 0.12761553 0.13718204 0.12813468 0.16919312 0.11971335 0.08091911 0.053258877
-0.032396305 0.10788654 0.12427162 0.14052205 0.21918496 0.032288525 0.05768985 0.0944948
00000000: a7c5 063e 34bf 583c 7118 023e defe d53d
00000010: 19bd 34bc 87f8 8abd 84cf 353e 6d49 c43d
00000020: 0cdd 183d f6ba 343e 7e36 a33d 61cb 163e
00000030: 83ca a53d 5a50 823e 493e a63d eea9 cb3d
00000040: d2d6 153e c22a de3d e2cf 003e b681 623e
00000050: d7b6 4c3d 7dc4 513d 616d 653d c479 243e
00000060: feca 2b3e 7f3a cf3d 2dde 5b3e e794 b63d
00000070: 015e 513d eda2 203e 7e12 ed3d 7039 9b3d
00000080: cffb cf3c a5ad 023e 7379 0c3e bd35 033e
00000090: f640 2d3e 462c f53d ebb8 a53d fb25 5a3d
000000a0: fdb1 04bd 9ef3 dc3d 1e82 fe3d 03e5 0f3e
000000b0: 0672 603e f940 043d 314c 6c3d 7d86 c13d

model_4/gru_8/gru_cell/MatMul f4 [96, 126]
4.5888904e-05 -4.1052837e-05 4.407217e-05 0.0005346011 0.00034620942 6.776454e-05 0.0011241517 0.00087838504
0.00024345299 0.00097291387 0.0021253722 3.419278e-05 0.0011250101 0.0024568518 -0.00015404221 0.0009164585
0.0018236866 -0.00048992195 0.0010542382 0.0019400987 -0.0004462082 0.0010099291 0.0025632938 -0.00013770373
0.0016572321 0.0018197696 -0.0005965723 -0.00015330537 0.00123575 -0.0004137349 0.0011089208 0.0028844147
-0.00088658027 0.0013320951 0.0034177525 -0.000563059 0.0014675623 0.0012893524 -0.00050134736 -0.00040036938
0.0025522949 -0.00030303563 0.0014263241 0.0037833985 0.00034402922 0.0013144658 0.0041185333 -0.00023941704
0.0013366202 0.0034572338 -0.00065748655 0.00062542374 0.0026221413 -0.00019919853 0.0017339174 0.003370298
-0.00070192217 0.0023987882 0.0023299837 -0.00021777082 0.0013826436 0.0033927027 0.00016351063 -6.731621e-05
2.189567e-05 -1.9358611e-05 -0.0014606542 -0.0002042934 -1.9163914e-05 -0.0019825373 -0.00051680615 0.00018467168
-0.002503854 -0.00030508018 0.0002693327 -0.001766775 -0.0028318823 0.0004966191 -0.00087146735 0.00025388485
0.00034254164 -0.0020221393 -0.00010404895 0.00030753767 -0.0023620997 0.0006759772 0.00019986532 -0.0018162902
0.0007880102 3.1486197e-06 -0.00038221595 -0.00066370366 0.00094379607 -0.0010546271 -0.0006616054 -0.00013821897
-0.0011075767 0.0002308902 -7.3737145e-05 -0.0014429291 -0.0006955372 -0.00064778555 -0.00047156814 -7.389645e-05
0.0006746198 -0.0008150054 5.3477237e-05 0.00016954665 -0.00043692507 0.00075733365 -0.00025091934 -0.0020485867
4.48801e-05 -0.00023926016 -0.0009303612 0.0005742762 0.00045137334 -0.00028146047 -0.00029959442 0.00016627363
-0.0004376588 -0.0010552525 4.7349236e-05 -0.00068056915 -0.0004513342 -0.00020160252 0.00018372791 -4.374373e-05
-0.00014547966 -0.00064360636 0.0008676105 -3.8138754e-05 -0.0005613742 0.0020338357 0.00026750128 0.00026105708
0.0031172049 0.00052488194 0.00014490444 0.0027045547 0.0010966101 -0.00079923315 0.00046618836 0.0002715901
-0.00028780155 0.0018827375 0.0011231038 -0.00028187002 0.004047046 0.0005456665 -0.0020916944 0.0030608056
0.00037530347 -0.0018390047 0.0007119219 0.0006411619 -0.0004981745 0.0020227188 0.0013853103 -0.000610642
0.00031411916 0.00061101164 -0.001315338 -0.0010535336 0.0007017573 -0.0006657557 0.0027352106 0.00016071998
0.00029363442 0.00023651186 0.00037213467 -0.0010783742 0.00090423843 0.0006905691 -0.0019993533 0.0011886014
0.00013362698 -0.00050912355 0.00048665155 0.00084632146 -0.0012580736 0.00067233155 0.0002531778 7.4502655e-05
0.0011777814 0.0011885785 -0.00048175524 0.0018123894 0.0003350087 3.488113e-05 0.00026564347 -3.0984036e-05
-0.0011558664 0.0008237692 -0.00022848186 -0.0011992172 0.0019703899 0.00042065175 -0.0001643918 0.0014605117
9.8961995e-05 0.0005211005 0.0017960352 -0.00026409907 0.00040148926 0.0036556807 0.00083174044 0.0013780202
0.004506351 0.0013747392 0.0011850792 0.004327361 0.0009439125 0.001534908 0.0035966092 0.0007200162
0.0011885981 0.002308176 0.0011801962 0.0025201342 0.0044471566 0.0008200263 0.0011074881 0.0013047782
0.0015194385 0.0014336942 0.003548871 0.00080264645 0.0018049199 0.003366906 0.00090024865 0.0013166401
0.0031459362 0.001425816 0.0020269037 0.000606112 0.00058838015 0.0021830932 -0.00035117345 0.0004691995
0.002678502 0.0025515552 0.0010902018 0.0015031653 0.0009437949 0.0018082676 0.0018215707 0.0023205513
0.0007313678 0.002840857 0.0014502966 0.00120433 4.630885e-06 -4.433518e-05 -2.4418849e-05 -0.0007901741
00000000: d678 4038 2630 2cb8 22da 3838 7924 0c3a
00000010: 7183 b539 cf1c 8e38 4658 933a 6c43 663a
00000020: 6a47 7f39 250b 7f3a d449 0b3b 386a 0f38
00000030: 1375 933a 2203 213b 6486 21b9 7d3e 703a
00000040: c508 ef3a 1b6e 00ba 5d2e 8a3a e94a fe3a
00000050: 0df1 e9b9 995f 843a effc 273b 9064 10b9
00000060: 7b37 d93a 5685 ee3a 4a63 1cba 99c0 20b9
00000070: e4f8 a13a 8fea d8b9 3559 913a 7308 3d3b
00000080: 6569 68ba b299 ae3a 5ffc 5f3b 409a 13ba
00000090: 385b c03a 7dff a83a da6c 03ba abe8 d1b9
000000a0: 6744 273b c1e0 9eb9 7ff3 ba3a e5f2 773b
000000b0: d25e b439 274a ac3a c3f4 863b 060c 7bb9
000000c0: 8831 af3a c292 623b 2d5b 2cba 7af3 233a
000000d0: 3bd8 2b3b f3df 50b9 9d44 e33a 38e0 5c3b
000000e0: 3301 38ba fd34 1d3b a4b2 183b 6959 64b9
000000f0: d239 b53a 1b58 5e3b 0d74 2b39 1d2c 8db8
00000100: 98ac b737 4d64 a2b7 6c73 bfba 9837 56b9
00000110: 31c2 a0b7 75ed 01bb 467a 07ba 6da4 4139
00000120: b317 24bb 2bf3 9fb9 3935 8d39 2293 e7ba
00000130: 1a97 39bb 8b2f 023a 2f73 64ba d91b 8539
00000140: 2997 b339 de85 04bb db34 dab8 023d a139
00000150: 75cd 1abb 1034 313a f092 5139 9610 eeba
00000160: 7892 4e3a e04c 5336 2864 c8b9 66fc 2dba
00000170: 1569 773a 6a3b 8aba 966f 2dba dfee 10b9
00000180: 1b2c 91ba 1e1b 7239 54a3 9ab8 ab20 bdba
00000190: b654 36ba 27d0 29ba ce3c f7b9 dbf8 9ab8
000001a0: f8d8 303a 16a6 55ba bf4c 6038 55c8 3139
000001b0: 1713 e5b9 cd87 463a d38d 83b9 9541 06bb
000001c0: a43d 3c38 e9e1 7ab9 7ce3 73ba 068b 163a
000001d0: 4ea6 ec39 fc90 93b9 e212 9db9 bd59 2e39
000001e0: 9275 e5b9 6650 8aba db98 4638 3968 32ba
000001f0: 0da1 ecb9 4465 53b9 16a7 4039 7979 37b8
00000200: e68b 18b9 b1b7 28ba 5b70 633a 2df7 1fb8
00000210: 2f29 13ba 1a4a 053b 6a3f 8c39 7dde 8839
00000220: 054a 4c3b 3b98 093a 7df1 1739 e63e 313b
00000230: 21bc 8f3a a183 51ba be6a f439 3564 8e39
00000240: 12e4 96b9 30c6 f63a 1c35 933a f4c7 93b9
00000250: 159d 843b 0f0b 0f3a cf14 09bb cc97 483b
00000260: 61c4 c439 c20a f1ba 45a0 3a3a a613 283a
00000270: ed97 02ba 978f 043b 4d93 b53a 7e13 20ba
00000280: 5cb0 a439 4c2c 203a 6b67 acba b916 8aba
00000290: 23f6 373a 1c86 2eba 3841 333b f186 2839
000002a0: f2f2 9939 2b00 7839 121b c339 3c58 8dba
000002b0: 6a0a 6d3a 4f07 353a 9507 03bb d8ca 9b3a
000002c0: 381e 0c39 b476 05ba 4425 ff39 acdb 5d3a
000002d0: f2e5 a4ba 683f 303a f3bc 8439 4f3e 9c38
000002e0: c95f 9a3a 14ca 9b3a 1894 fcb9 b28d ed3a
000002f0: 1ba4 af39 544d 1238 1046 8b39 dbf4 01b8
00000300: 7180 97ba 37f2 573a a294 6fb9 0d2f 9dba
00000310: a821 013b ec8a dc39 9660 2cb9 a46e bf3a
00000320: d189 cf38 769a 083a f168 eb3a c776 8ab9
00000330: fa7e d239 2594 6f3b 2809 5a3a af9e b43a
00000340: 03aa 933b 9830 b43a a954 9b3a 89cc 8d3b
00000350: e570 773a f72e c93a 17b5 6b3b 78bf 3c3a
00000360: bcca 9b3a c444 173b d0b0 9a3a d628 253b
00000370: 74b9 913b 09f7 563a 2229 913a 1705 ab3a
00000380: e527 c73a cbea bb3a 2d94 683b b168 523a
00000390: 1093 ec3a 4fa7 5c3b aafe 6b3a 1c93 ac3a
000003a0: 0d2c 4e3b 72e2 ba3a cdd5 043b 7de3 1e3a
000003b0: 863d 1a3a 3a12 0f3b b41d b8b9 e4fe f539
000003c0: ce89 2f3b fe37 273b 1ae5 8e3a dc05 c53a
000003d0: 0169 773a 6403 ed3a c5c1 ee3a 6414 183b
000003e0: 43b9 3f3a ac2d 3a3b e117 be3a 9cda 9d3a
000003f0: 0063 9b36 89f4 39b8 14d7 ccb7 b023 4fba
