app/src/main/assets/models/family.tflite (tflite, 673196 bytes, 52 tensors)

model_4/batch_normalization_16/batchnorm/add_1;model_4/conv1d_8/Conv1D/Squeeze;model_4/batch_normalization_16/batchnorm/mul_1;model_4/conv1d_8/BiasAdd;model_4/conv1d_8/BiasAdd/ReadVariableOp;model_4/batch_normalization_16/batchnorm/mul;model_4/batch_normalization_16/batchnorm/sub;model_4/conv1d_8/Conv1D;model_4/conv1d_9/Conv1D f4 [96]
0	0x3f5e6fe7	0.868895
1	0xbf473671	-0.77817446
2	0xbf57cbcd	-0.8429535
3	0xbf279217	-0.6545729
4	0x3e788364	0.24268872
5	0xbf345908	-0.7044835
6	0x3f6d2db0	0.9264784
7	0xbd50b8e4	-0.050957575
8	0x3f3ba908	0.73304796
9	0xbf320554	-0.6953938
10	0x3ebda64f	0.37040946
11	0x3ed9c977	0.42536518
12	0xbda0734c	-0.07834491
13	0xbf02ce2f	-0.5109586
14	0xbe2942a8	-0.16529334
15	0xbf907fe2	-1.1289027
16	0xbf875b0a	-1.0574658
17	0xbdaf74ec	-0.08567223
18	0xbf7eca44	-0.9952738
19	0x3ef86646	0.48515528
20	0xbe97bf2a	-0.29638034
21	0x3fa99bff	1.3250731
22	0xbfd7cbbc	-1.685905
23	0xbca3b9e6	-0.019986104
24	0x3f1f0a46	0.6212505
25	0xbfb3a2ba	-1.4034035
26	0xbfa82263	-1.3135494
27	0x3f0aba0f	0.5419015
28	0xbf113e0e	-0.5673531
29	0xbf7bfa8a	-0.9842917
30	0xbdea878a	-0.11451633
31	0xbf231c6d	-0.6371525
32	0x3f9f8d70	1.2465038
33	0xbf12739a	-0.57207644
34	0xbf30e393	-0.6909725
35	0xbf157e1e	-0.58395565
36	0xbf60baca	-0.8778502
37	0xbf4f95c6	-0.8108791
38	0xbef1aa6d	-0.47200337
39	0x3f34ece0	0.7067394
40	0xbf72a824	-0.9478781
41	0x3f5149d4	0.8175328
42	0x3f566073	0.8374092
43	0x3e4bd47e	0.19905278
44	0xbfcbfd47	-1.5936669
45	0xbf2acfb7	-0.667232
46	0xbece1eb4	-0.402578
47	0x3eba667b	0.3640631
48	0xbdc149f9	-0.09437937
49	0xbf889b94	-1.0672479
50	0x3f2f5f26	0.6850456
51	0x3dab8e53	0.083767556
52	0x3fa1fff7	1.2656239
53	0xbf7b8cb0	-0.9826155
54	0x3f59f9fb	0.85147065
55	0x3f0f6dc5	0.5602687
56	0xbfb2e7cd	-1.397699
57	0xbebf0f1d	-0.37316218
58	0xbfa740e3	-1.3066677
59	0xbf8a1d96	-1.0790279
60	0x3f737fd8	0.9511695
61	0x3ea69f0e	0.32543224
62	0x3f197d19	0.5995651
63	0xbf52aa6c	-0.82291293
64	0xbe9eca96	-0.31013936
65	0xbf9c39dc	-1.2205157
66	0xbf48c176	-0.784202
67	0xbf2d00ec	-0.6757953
68	0xbf4f01b6	-0.80861986
69	0x3fa31908	1.2742014
70	0xbea45b6e	-0.32101005
71	0x3e1728e7	0.14761697
72	0xbf8caf91	-1.0991079
73	0xbfa4149f	-1.2818793
74	0xbf5ddfc4	-0.86669564
75	0x3dd36790	0.10322487
76	0xbf367511	-0.7127238
77	0xbf028c3b	-0.50995225
78	0xbec1fdc3	-0.37888917
79	0xbf0dfc0e	-0.5546273
80	0x3f64262a	0.89120734
81	0x3f8862b3	1.0655121
82	0x3f70beef	0.9404134
83	0xbf33c5f2	-0.70223916
84	0xbe732764	-0.23745495
85	0xbf4c3195	-0.79763156
86	0xbf012c39	-0.50458103
87	0xbe98d649	-0.29850987
88	0xbf71e497	-0.94489425
89	0xbf557ff5	-0.8339837
90	0xbf4295a7	-0.760096
91	0xbeb1e486	-0.34744662
92	0xbf4a8af7	-0.79118294
93	0x3dc6c4a6	0.097054765
94	0xbf58e55e	-0.84724987
95	0xbf8b70fd	-1.0893856

model_4/batch_normalization_17/batchnorm/add_1;model_4/conv1d_9/Conv1D/Squeeze;model_4/batch_normalization_17/batchnorm/mul_1;model_4/conv1d_9/BiasAdd;model_4/conv1d_9/BiasAdd/ReadVariableOp;model_4/batch_normalization_17/batchnorm/mul;model_4/batch_normalization_17/batchnorm/sub;model_4/conv1d_9/Conv1D f4 [96]
0	0xbf01f3f7	-0.50762886
1	0xbe5dff7b	-0.2167949
2	0xbd227769	-0.03966466
3	0xbe0123c1	-0.12611295
4	0x3dc9dda4	0.09856728
5	0x3dc3c982	0.09559919
6	0x3eb54e8b	0.35411486
7	0x3f83a195	1.0283686
8	0xbe13bf72	-0.144285
9	0xbd3f0f32	-0.04664535
10	0x3ebdf50c	0.37101018
11	0x3f8b9d1d	1.0907322
12	0xbdae56ce	-0.085126504
13	0xbe962147	-0.29322264
14	0x3f0ffbc3	0.5624353
15	0x3f495a56	0.78653467
16	0x3f525a4e	0.82169044
17	0x3f8464dd	1.0343281
18	0x3ec574cd	0.38565674
19	0xbc36f94c	-0.011167835
20	0x3f212d59	0.6295982
21	0xbe139e78	-0.1441592
22	0x3d2c5fec	0.042083666
23	0x3f8a8ad9	1.0823623
24	0xbd4732d3	-0.048632454
25	0xbe4ac1d4	-0.19800502
26	0x3f49c318	0.78813314
27	0x3ef3a3ee	0.47586006
28	0xbdc7a98c	-0.097491354
29	0xbe75e604	-0.24013525
30	0x3f12ac55	0.5729421
31	0xbd99c859	-0.075089164
32	0x3e9959dc	0.2995137
33	0xbe8a2133	-0.26978454
34	0xbea94067	-0.33056948
35	0xbea199ce	-0.31562656
36	0x3ec4499e	0.38337415
37	0x3eebcf9b	0.46056828
38	0xbe9f748a	-0.311436
39	0x3fad0670	1.351759
40	0x3e66a7d1	0.22524954
41	0xbe4caed1	-0.19988562
42	0x3f5f3701	0.87193304
43	0x3cd16c3a	0.025564302
44	0x3f87b83f	1.0603102
45	0xbe7002c1	-0.2343855
46	0x3fb241bf	1.3926314
47	0x3ee96b4f	0.45589682
48	0x3eff43b0	0.4985633
49	0xbe001abc	-0.12510198
50	0x3f13ed94	0.5778439
51	0xbeea5f12	-0.45775658
52	0x3e6ec01b	0.2331547
53	0x3e975502	0.29557043
54	0x3e0bef52	0.13665512
55	0x3eb1ed14	0.3475119
56	0x3ecf40f8	0.40479255
57	0xbed93660	-0.42424297
58	0x3f351c98	0.70746756
59	0xbdca91a7	-0.09891062
60	0x3f44c2ec	0.7685993
61	0x3fc1893d	1.5120007
62	0xbebf4c47	-0.37362882
63	0xbe00b32a	-0.12568346
64	0x3e8d4ea5	0.27599064
65	0xbd89c21b	-0.06726476
66	0x3bcb9b78	0.0062136017
67	0xbeb1c6d2	-0.34722
68	0xbe303fed	-0.17211886
69	0x3ecd7b51	0.40133145
70	0x3e01e34b	0.12684362
71	0x3f9d4c35	1.2288882
72	0x3e4519dd	0.19248147
73	0x3f292c62	0.6608335
74	0x3c311c83	0.01081002
75	0x3d2dcac4	0.0424297
76	0x3e3b4b56	0.18290457
77	0x3f29f4b8	0.66389036
78	0xbe8161e3	-0.25269994
79	0xbe77da86	-0.24204454
80	0xbd03151b	-0.03200255
81	0xbf02f25f	-0.5115108
82	0x3f338bcb	0.7013518
83	0x3df88a69	0.12135775
84	0x3f8ba43b	1.0909494
85	0x3dec9d79	0.11553473
86	0x3f42591c	0.7591722
87	0x3d0e6a3f	0.034769293
88	0xbf11246e	-0.5669621
89	0x3c9b813b	0.01898252
90	0x3f6a641e	0.91559017
91	0xbcb76aca	-0.022389788
92	0xbe63ab61	-0.22233345
93	0x3f5fa457	0.8736014
94	0x3f6aae7c	0.9167249
95	0x3ea77d28	0.32712674

model_4/batch_normalization_16/batchnorm/mul_1;model_4/conv1d_8/Conv1D/Squeeze;model_4/conv1d_8/BiasAdd;model_4/conv1d_8/BiasAdd/ReadVariableOp;model_4/batch_normalization_16/batchnorm/mul;model_4/conv1d_8/Conv1D;model_4/conv1d_9/Conv1D f4 [96, 1, 3, 126]
0	0xbc1263ee	-0.008934958
1	0x3b9e7854	0.0048361216
2	0x3c2a8600	0.010407925
3	0xbe107008	-0.14105237
4	0xbd8eeabc	-0.06978366
5	0x3e2ee893	0.17080908
6	0xbe00b34d	-0.12568398
7	0xbd2627ef	-0.040565427
8	0x3e7acbf3	0.24491863
9	0x3d84e21a	0.06488438
10	0xbd158438	-0.036503047
11	0x3ea39049	0.31946018
12	0x3d215a1e	0.039392583
13	0x3ac38fc5	0.0014920166
14	0x3ec9f4d5	0.39444605
15	0xbdc39e71	-0.09551705
16	0xbe7905a3	-0.24318556
17	0xbdb60c87	-0.08889108
18	0xbd9fbdbf	-0.07799863
19	0x3e4e8abc	0.2017011
20	0xbc985194	-0.018593587
21	0xbe176ce4	-0.14787632
22	0x3e29b18a	0.16571632
23	0x3d32b209	0.04362682
24	0xbe180de3	-0.14849047
25	0x3c5aa778	0.013345592
26	0x3db3156f	0.087443225
27	0x3d7f487d	0.06232499
28	0xbdffd598	-0.12491912
29	0xbdb3bada	-0.087758735
30	0x3dec9c4e	0.1155325
31	0x3ea84602	0.32865912
32	0xbc53894a	-0.01291115
33	0x3da2046c	0.07911
34	0x3dd1f82b	0.102524124
35	0x3c68ff82	0.014221074
36	0xbdae203d	-0.08502243
37	0xbe00fecb	-0.12597196
38	0x3ced3e79	0.028960453
39	0x3dd2b9f7	0.10289376
40	0xbdb058d6	-0.08610694
41	0x3ce6f414	0.028192557
42	0x3e056106	0.13025293
43	0x3e680d68	0.22661364
44	0x3e1d5b63	0.15366893
45	0xbe526d9f	-0.2054963
46	0xbdae32f1	-0.0850581
47	0x3e3ee462	0.18641809
48	0xbec47d91	-0.3837705
49	0xbec1c495	-0.37845293
50	0x3e2fda26	0.17173061
51	0x3e4b3b01	0.19846727
52	0xbe9ff026	-0.31237906
53	0x3c50568c	0.012715947
54	0x3e906206	0.28199786
55	0xbe17d233	-0.14826278
56	0x3da8ce46	0.082424685
57	0x3cea58ef	0.02860686
58	0xbe9c7760	-0.30559826
59	0x3dd44b4f	0.103659265
60	0xbcdfe726	-0.0273319
61	0xbf073821	-0.5282002
62	0x3dda068a	0.106457785
63	0x3c38252a	0.011239329
64	0xbc512e2e	-0.012767358
65	0x3b8814aa	0.004152854
66	0x3c9f357f	0.019434689
67	0x3bd2bf57	0.006431501
68	0x3c1d9dce	0.009620143
69	0x3ccc3b57	0.02493064
70	0x3c85a30d	0.0163131
71	0x3cc41739	0.023936855
72	0x3ca61995	0.02027587
73	0x3d3a0a6f	0.045420107
74	0x3d491e10	0.049100935
75	0x3c1c26ad	0.009530705
76	0x3d47a67d	0.04874276
77	0x3d976f3b	0.073942624
78	0x3c6fd83b	0.014638956
79	0x3c663463	0.014050576
80	0xbbe7c5b7	-0.00707313
81	0x3c06f961	0.0082381675
82	0xbbd24971	-0.0064174463
83	0x3c7f5062	0.01558313
84	0xbb12a2bf	-0.0022374836
85	0xbb9ae841	-0.004727394
86	0x3d1b3feb	0.037902754
87	0x3b3bef85	0.00286767
88	0x3cfcf557	0.030878706
89	0x3d5b6621	0.053564195
90	0x3ccc69ea	0.024952848
91	0x3cdba02d	0.026809776
92	0xbbd45e3a	-0.0064809592
93	0x3c3841f0	0.0112461895
94	0x3cf06ec7	0.029349698
95	0x3cae8ae9	0.021306472
96	0xbb122e95	-0.0022305597
97	0x3d2d2840	0.042274714
98	0x3d0f0600	0.03491783
99	0x3ba7086c	0.0050974395
100	0x3db81ec5	0.08990244
101	0x3d28841d	0.041141618
102	0x3c739a7f	0.014868378
103	0x3c8f215f	0.017471967
104	0xbc5a4a6f	-0.01332341
105	0x3cb33e7e	0.021880385
106	0x37e278f9	2.6997632e-05
107	0xbb7a6fcd	-0.003821361
108	0x3c935862	0.01798648
109	0xbb30948c	-0.002694401
110	0x3bacb743	0.00527087
111	0x3cd3aacd	0.02583828
112	0x3ce0302e	0.027366724
113	0x3b9430bb	0.0045224107
114	0x3c85fbab	0.016355356
115	0x3895f223	7.149975e-05
116	0x3b746c20	0.0037295893
117	0x3b183826	0.0023226826
118	0xbba9c6a5	-0.005181151
119	0x3c0ab0c4	0.008464996
120	0x3c7f6dc7	0.015590138
121	0x3cc1be3f	0.023650287
122	0x3cbbdb45	0.022931704
123	0xbb14632e	-0.0022642124
124	0x3d461620	0.048360944
125	0x3c59a4af	0.013283893
126	0xbc36b665	-0.011151885
127	0x3baec06a	0.005332996
128	0x3b5d62d1	0.0033780823
129	0xbe14e7f2	-0.14541605
130	0xbd485c0b	-0.048915904
131	0x3e26cb97	0.16288601
132	0xbdf7ddf6	-0.121028826
133	0x3c49a71c	0.012307908
134	0x3e6d139c	0.23152012
135	0xbcd57957	-0.026058836
136	0xbc7addf4	-0.015311707
137	0x3ea0db2a	0.3141721
138	0x3e27c5f4	0.16384107
139	0x3d01965d	0.03163754
140	0x3ec8452f	0.39115283
141	0xbdb80a5c	-0.08986351
142	0xbe28bacc	-0.16477507
143	0xbdd0ab22	-0.10188891
144	0xbd155ade	-0.03646361
145	0x3e7b8fb0	0.24566531
146	0xbc9bdf5a	-0.0190274
147	0xbcf397bd	-0.02973544
148	0x3e914347	0.2837164
149	0x3d568925	0.052376885
150	0xbe324d46	-0.1741229
151	0x3e84a70d	0.259087
152	0x3dcf26af	0.101148
153	0x3d708089	0.05871633
154	0xbd96a619	-0.07355899
155	0xbdb13980	-0.086535454
156	0x3e0c15c8	0.13680184
157	0x3ed722d8	0.4201877
158	0xbb5bec2c	-0.0033557517
159	0xbd14e01a	-0.036346532
160	0x3e7c822e	0.24659035
161	0x3d086df3	0.03330798
162	0x38311aac	4.222493e-05
163	0xbd499344	-0.04921271
164	0x3d57b2f7	0.05266091
165	0x3d65771d	0.0560218
166	0xbcb523d1	-0.022111805
167	0x3d48171c	0.048850164
168	0x3dd7b53b	0.10532614
169	0x3eba7f67	0.36425325
170	0x3e3d5a49	0.18491472
171	0xbd967dda	-0.07348223
172	0x3b75d588	0.0037511308
173	0x3e67a15a	0.22620144
174	0xbe784842	-0.24246314
175	0xbeb5c7ab	-0.35503897
176	0x3e5dd6c2	0.21663955
177	0x3e36df47	0.17858611
178	0xbe80655f	-0.2507734
179	0x3d2e7b8e	0.0425983
180	0x3e4ecf2e	0.2019622
181	0xbd073dd0	-0.033017933
182	0x3df98c93	0.121850155
183	0x3d4619d7	0.048364487
184	0xbe423b32	-0.18967894
185	0x3e1a57aa	0.15072504
186	0xbdc2057c	-0.09473702
187	0xbe954a7b	-0.29158387
188	0x3e221f47	0.15832244
189	0x3c312f8a	0.010814557
190	0xbc87c165	-0.01657171
191	0x3bf58221	0.007492319
192	0x3cddff06	0.027099144
193	0xbb671cc9	-0.003526496
194	0x3c665cdb	0.014060224
195	0x3d206cb0	0.039166152
196	0xba91b5ef	-0.0011116843
197	0x3ce692cb	0.028146168
198	0x3d1b65e4	0.037938967
199	0x3cdcea60	0.026967227
200	0x3d4823a4	0.048862115
201	0x3cf25c0c	0.029584907
202	0x3ced17bf	0.028941987
203	0x3d94ecd4	0.07271734
204	0x3ce4e7ac	0.027942501
205	0x3ba0de69	0.004909326
206	0xbc0c94d0	-0.008580402
207	0x3ca5aa5e	0.020222839
208	0xbc855058	-0.016273662
209	0x3c55c42f	0.013047262
210	0x3c8a491c	0.016880564
211	0xbc58e770	-0.013238773
212	0x3d0b4096	0.03399714
213	0x3c2779ac	0.01022188
214	0x3cc85eeb	0.024459323
215	0x3d4e1e1d	0.050321687
216	0x3d176510	0.036961615
217	0x3cb083b3	0.021547174
218	0xbc1b2c92	-0.009471076
219	0x3ca5df11	0.020247968
220	0x3cbdb3ff	0.023157118
221	0x3c8b0434	0.016969778
222	0x3b96997b	0.004595933
223	0x3d1da8cd	0.03849106
224	0x3d035e1e	0.03207218
225	0x3cdac1a4	0.026703663
226	0x3daddf85	0.084898986
227	0x3d1b0e2b	0.03785531
228	0x3cb1332f	0.021630852
229	0x3c6bde3b	0.014396246
230	0xbc9f0eb0	-0.019416183
231	0x3cdd7328	0.02703245
232	0xbb819398	-0.003954362
233	0xbc380033	-0.011230516
234	0x3cb63b01	0.022244932
235	0xbbc8a750	-0.006123461
236	0xb95d14f3	-0.00021084007
237	0x3c395ab0	0.0113131255
238	0x3ccc50c6	0.02494086
239	0xba647790	-0.0008715326
240	0x3ca594ff	0.020212648
241	0xbafaf73a	-0.0019147166
242	0xbbb274ff	-0.005446076
243	0x3bf027cf	0.0073289643
244	0xbbd04b3b	-0.0063566244
245	0xba262916	-0.000633852
246	0x3c885f2c	0.016646944
247	0x3cbd29e3	0.023091262
248	0x3c87cbd8	0.016576692
249	0x3baa7edc	0.005203111
250	0x3d4c25f0	0.049840868
251	0x3c005dec	0.007834893
252	0xbc85d57e	-0.016337153
253	0x3c41d1a3	0.011829766
254	0xbba0ff5f	-0.004913255
255	0xbe0da120	-0.13830996

model_4/batch_normalization_17/batchnorm/mul_1;model_4/conv1d_9/Conv1D/Squeeze;model_4/conv1d_9/BiasAdd;model_4/conv1d_9/BiasAdd/ReadVariableOp;model_4/batch_normalization_17/batchnorm/mul;model_4/conv1d_9/Conv1D f4 [96, 1, 3, 96]
0	0x3bab337d	0.0052246437
1	0xbb7774d4	-0.0037758844
2	0xbd5f93ae	-0.054584198
3	0x3da016a0	0.078168154
4	0xbcc85684	-0.024455316
5	0xbd2465f3	-0.04013629
6	0xbde88269	-0.11352999
7	0xbcadf788	-0.021236196
8	0xbd3c722d	-0.046007324
9	0x3c75bf67	0.014999247
10	0xbc258fb6	-0.010105064
11	0x3be5526e	0.006998352
12	0xbd7cdb8c	-0.061732814
13	0x3cb5fdf7	0.022215826
14	0xbd9256f9	-0.07145495
15	0x3be4367c	0.006964503
16	0x3d091782	0.033469684
17	0xbbdabbf6	-0.0066752387
18	0x3db72a73	0.089436434
19	0xbc1accc1	-0.009448231
20	0x3c4dc360	0.012558788
21	0x3c875bb2	0.016523216
22	0x3b3cfcd6	0.0028837225
23	0xbc983a69	-0.01858254
24	0x3ccaa02b	0.024734577
25	0x3d4b20c9	0.049591813
26	0x3c53a308	0.012917288
27	0xbc771926	-0.015081679
28	0x3e2b646f	0.16737531
29	0x3cb749ac	0.022373997
30	0x3dc46255	0.09589068
31	0x3c6418be	0.013921915
32	0xbd59b75c	-0.05315338
33	0x3d02e8d9	0.031960342
34	0xbbff0a81	-0.0077832346
35	0x3c241682	0.010015132
36	0x3bbe38be	0.005805104
37	0xbca462f6	-0.02006672
38	0xbc7b1f23	-0.015327248
39	0x3d91d3d1	0.07120479
40	0x3d769974	0.060204938
41	0xbc6e68b2	-0.0145513285
42	0x3d102a57	0.03519663
43	0xbbdf241f	-0.006809726
44	0xbc03c034	-0.00804143
45	0x3ce58706	0.028018486
46	0xbb900fbf	-0.0043964083
47	0xbc050412	-0.008118646
48	0xbd62cebe	-0.055372946
49	0xbd7ce7a7	-0.06174436
50	0xbd68df59	-0.056853626
51	0xbc47fd9b	-0.01220646
52	0x3ced4aad	0.028966272
53	0x3de7be0e	0.11315547
54	0xbcda88eb	-0.026676616
55	0x3cd0d7d2	0.025493536
56	0xbbd7cb63	-0.006585525
57	0x3cae0bda	0.021245886
58	0x3c0f972b	0.008764069
59	0x3d374fd3	0.04475386
60	0x3c9041a5	0.017609427
61	0x3d3cb91c	0.04607497
62	0xbcfbaa77	-0.030720932
63	0x3b56cc32	0.0032775518
64	0xbc94fe98	-0.018187806
65	0xbca3739e	-0.019952592
66	0x3b834972	0.004006558
67	0xbd64db69	-0.05587331
68	0x3d1c5262	0.038164504
69	0xbc0ba2d7	-0.008522711
70	0x3bdf26e4	0.006810056
71	0xbd11f43f	-0.03563332
72	0x3ca6af0c	0.02034714
73	0x3bdcfa82	0.00674373
74	0xbc3e8422	-0.011628183
75	0x3e0cb205	0.13739784
76	0xbc6cc9e1	-0.014452429
77	0xbd31471e	-0.043280713
78	0x3d9b812f	0.07592999
79	0x3da47af8	0.08031267
80	0x3c58b0f3	0.013225782
81	0x3d105d93	0.03524549
82	0x3d358285	0.044313926
83	0xbca9e26a	-0.020737845
84	0x3d05d3d3	0.032672714
85	0xbc3ff4c1	-0.011716069
86	0x3e1aa751	0.15102889
87	0xbcf3e9a6	-0.029774498
88	0x3d8537e9	0.06504805
89	0xbc405068	-0.01173792
90	0x3d86a876	0.065751
91	0x3b68898d	0.0035482377
92	0x3cddc71d	0.027072484
93	0xbd26e152	-0.040742226
94	0x3b77a28c	0.0037786094
95	0x3d17890f	0.036995944
96	0x3ab3bf12	0.001371356
97	0xbb261535	-0.002534223
98	0xbd6eac56	-0.05826982
99	0x3d9818c6	0.074266
100	0xbcd06a9a	-0.025441457
101	0xbd3d6f85	-0.04624893
102	0xbdb6e2f2	-0.08930005
103	0xbcb18875	-0.021671513
104	0xbd261890	-0.04055077
105	0x3c4013cf	0.011723473
106	0xbb2a0a4f	-0.0025946086
107	0x3c992972	0.01869652
108	0xbd82c665	-0.06385497
109	0x3cbd2ea5	0.02309353
110	0xbd98a363	-0.074530385
111	0x3b6d5938	0.0036216509
112	0x3d030113	0.031983446
113	0x39a34e9b	0.00031148348
114	0x3da73b18	0.08165568
115	0xbbaaff48	-0.00521842
116	0x3c824e73	0.015906548
117	0x3c9ca800	0.019123077
118	0x3b155cb5	0.0022790853
119	0xbc9a34fc	-0.018824093
120	0x3cd604a6	0.026125263
121	0x3d3b0376	0.045657597
122	0x3c739265	0.014866446
123	0xbbc8bde0	-0.0061261505
124	0x3e27b66c	0.16378182
125	0x3c89a561	0.016802492
126	0x3dbec478	0.09314817
127	0x3c789d0c	0.015174162
128	0xbd32ae04	-0.043622985
129	0x3d05eadd	0.032694686
130	0xbc0b187f	-0.008489727
131	0x3c45a94f	0.012064292
132	0x3bd41d94	0.0064732525
133	0xbc7acf2e	-0.015308185
134	0xbc8ce93a	-0.017201055
135	0x3dac8ac6	0.084249064
136	0x3d717a86	0.058954738
137	0xbc209321	-0.009800703
138	0x3d1f62d7	0.03891262
139	0xbadfb964	-0.00170688
140	0xbc22d1b7	-0.009937695
141	0x3cbf3e35	0.023345092
142	0xbbfbf3a1	-0.007688955
143	0xbc26b091	-0.010173933
144	0xbd6a48e4	-0.05719842
145	0xbd882b4a	-0.06648882
146	0xbd73cb7f	-0.05952024
147	0xbc1d524d	-0.009602142
148	0x3ceb08c4	0.028690703
149	0x3de22614	0.11042419
150	0xbcd2c184	-0.025727041
151	0x3d1413c3	0.03615166
152	0xbc0480e7	-0.008087373
153	0x3c9f75b6	0.019465309
154	0x3b8c9128	0.004289765
155	0x3d1e69eb	0.03867523
156	0x3cd7bd06	0.02633525
157	0x3d54b89b	0.051933866
158	0xbce2be9a	-0.027678777
159	0x3bba8730	0.005692385
160	0xbc3c5a06	-0.011496073
161	0xbcc12905	-0.02357913
162	0x3a96cc72	0.0011505021
163	0xbd66ed16	-0.056378447
164	0x3d27f734	0.041007236
165	0xbbb1607a	-0.005413112
166	0x3be8d9ad	0.007106027
167	0xbd04e036	-0.032440387
168	0x3c88e6cb	0.016711613
169	0x3afcec16	0.0019296433
170	0xbc2fa378	-0.010720126
171	0x3e10f6d0	0.14156651
172	0xbc83ef41	-0.016105296
173	0xbd3cce63	-0.046095263
174	0x3d9aaf44	0.075529605
175	0x3da248d3	0.07924046
176	0x3cc1f54b	0.023676535
177	0x3d447e8d	0.04797225
178	0x3d6a3dfe	0.057188027
179	0xbcb13936	-0.021633726
180	0x3d0403cf	0.032230195
181	0xbc411fc9	-0.011787363
182	0x3e17e6c1	0.1483412
183	0xbcffae43	-0.031211024
184	0x3d76a84f	0.060219105
185	0xbc5f4d50	-0.013629273
186	0x3d81e9be	0.06343411
187	0x3ba001f7	0.0048830467
188	0x3cdc2149	0.02687134
189	0xbd2e28e5	-0.04251947
190	0x3b815490	0.003946848
191	0x3d0c097a	0.034188725
192	0xbba0995a	-0.0049010934
193	0xb9ba0703	-0.0003548191
194	0xbd5b8195	-0.053590376
195	0x3d93b3c0	0.07212019
196	0xbd231106	-0.039811157
197	0xbd3cf002	-0.046127327
198	0xbdd4d573	-0.10392275
199	0xbcb9fb81	-0.022702934
200	0xbd111d7f	-0.03542852
201	0x3c575ab8	0.013144188
202	0x3bc35e60	0.005962178
203	0x3cb27e5c	0.021788768
204	0xbd8aa15c	-0.06769058
205	0x3ccc2fc4	0.02492512
206	0xbd9c48ae	-0.0763105
207	0xbba30fb6	-0.004976238
208	0x3cc74e67	0.024329377
209	0x3c436c2c	0.011927646
210	0x3da9e3b9	0.08295388
211	0x3b5b20fa	0.0033436404
212	0x3c8ffdba	0.017577041
213	0x3c496b46	0.012293642
214	0xbad3e6e6	-0.0016166836
215	0xbccb9781	-0.024852516
216	0x3cae7b54	0.021299042
217	0x3d45dca1	0.04830611
218	0x3c8853e2	0.016641561
219	0xbaf1fdc8	-0.0018462474
220	0x3e247da4	0.16063553
221	0x3ca29986	0.019848596
222	0x3dba0fee	0.090850696
223	0x3c5fafef	0.013652786
224	0xbd37b0ec	-0.04484646
225	0x3d074ad9	0.033030365
226	0xbc3c5ecc	-0.011497211
227	0x3c87ad16	0.016562026
228	0x3c357b49	0.011076757
229	0xbc792fcd	-0.0152091505
230	0xbcb8b287	-0.022546066
231	0x3db46e8e	0.08810149
232	0x3d76c378	0.060245007
233	0xbc8b1f50	-0.016982704
234	0x3d088cca	0.033337392
235	0xbaee8bc2	-0.001819961
236	0xbb8d47fe	-0.0043115607
237	0x3cb09442	0.02155507
238	0xbc181f14	-0.009284753
239	0xbca167af	-0.01970276
240	0xbd618773	-0.055060815
241	0xbd8081c8	-0.06274754
242	0xbd85f222	-0.06540324
243	0xbb3106d4	-0.0027012127
244	0x3cf6da62	0.03013343
245	0x3dc6bc90	0.09703934
246	0xbccbec53	-0.024892962
247	0x3d253207	0.040330913
248	0xbbd236a2	-0.006415204
249	0x3c8a94e2	0.016916696
250	0xbb248dd2	-0.0025108946
251	0x3d2ab79c	0.04167901
252	0x3d13f278	0.036119908
253	0x3d7e7879	0.06212661
254	0xbcff853d	-0.031191463
255	0x3c043986	0.008070355

model_4/gru_9/gru_cell/strided_slice_4 f4 [48]
0	0xbcf6e7e1	-0.030139865
1	0x3d9fdab2	0.07805385
2	0x3d71c24f	0.059023198
3	0x3d7458db	0.05965505
4	0x3e518665	0.20461424
5	0x3b1ce05f	0.0023937447
6	0x3d31e411	0.04343039
7	0xba8f49eb	-0.0010932063
8	0xbd19437e	-0.03741788
9	0xbdca4daf	-0.09878098
10	0xbbf14684	-0.0073631424
11	0x3e2ec926	0.1706892
12	0x3ca4a5e8	0.020098642
13	0x3e5bdcd6	0.21470961
14	0x3c8ae66e	0.01695558
15	0xbccfa28d	-0.025346065
16	0x3dae6445	0.08515219
17	0x3e19d001	0.15020753
18	0x3cd0e724	0.025500841
19	0xbb1de8a8	-0.0024094973
20	0x3cc77695	0.024348537
21	0xbcf05d73	-0.029341435
22	0x3ccd6857	0.025074167
23	0x3e09e03a	0.13464442
24	0x3d992e01	0.07479478
25	0x3d1ff590	0.039052546
26	0x3d496e70	0.049177587
27	0x3bd68bae	0.006547413
28	0x3b19df2c	0.0023478968
29	0xbd676596	-0.056493364
30	0xbda07f7b	-0.07836815
31	0x3c3c6db3	0.011500764
32	0x3e2488a3	0.16067748
33	0x3dd26b5e	0.10274385
34	0x3d35f0ea	0.044419207
35	0x3d5e550e	0.054280333
36	0x3d9d5e40	0.076839924
37	0xbdb68996	-0.08912961
38	0x3d63b7d2	0.055595227
39	0xbe16a3b7	-0.1471089
40	0x3dc13c93	0.09435382
41	0x3dfb72ff	0.12277793
42	0x3d9b64ae	0.075875625
43	0xbca007fa	-0.019535054
44	0xbd452867	-0.048134234
45	0x3d8dfeba	0.06933351
46	0x397989f0	0.00023797876
47	0x3de0c4a0	0.10975003

model_4/gru_9/gru_cell/strided_slice_3 f4 [48]
0	0x3d837bb4	0.06420079
1	0x3d3f3b00	0.046687126
2	0x3ca85900	0.020550251
3	0x3cfc0311	0.03076318
4	0xbde02fd0	-0.109466195
5	0xbd10239b	-0.035190206
6	0x3d6f47cc	0.05841808
7	0x3e887f82	0.2665978
8	0x3c526c59	0.012843215
9	0xbd3bf70a	-0.04588989
10	0x3e51a308	0.20472348
11	0x3e8b9906	0.27265185
12	0xbd5e4bd0	-0.05427152
13	0x3def1885	0.116745986
14	0x3dddf000	0.10836792
15	0x3cf82abd	0.030293817
16	0x3e1a2d1f	0.15056275
17	0x3df87377	0.12131398
18	0x3bd96558	0.0066343956
19	0x3dba9a1d	0.09111426
20	0x3ba6883f	0.00508216
21	0x3d98a579	0.074534364
22	0xbdac91a6	-0.08426218
23	0xbcd95c45	-0.026533255
24	0x3e4f8d91	0.20268847
25	0x3b16bb61	0.002299987
26	0x3dc042b4	0.093877226
27	0x3e407eb5	0.18798335
28	0x3e57fc9a	0.21092454
29	0x3c8e7ade	0.017392572
30	0x3e139309	0.14411558
31	0x3e97efa4	0.2967502
32	0x3ca20a29	0.019780235
33	0x3d271600	0.040792465
34	0xbd957826	-0.07298307
35	0x3b9cc156	0.0047837896
36	0x3d8d8e0e	0.069118604
37	0x3e911d79	0.28342798
38	0x3cae1983	0.0212524
39	0x3deda851	0.116043694
40	0x3dbc47dd	0.09193394
41	0x3e83142d	0.2560133
42	0x3e1b8ce3	0.15190463
43	0x3c2179d0	0.0098557025
44	0x3d946173	0.072451495
45	0x3cabe6f7	0.020984156
46	0x3e59abf3	0.21257
47	0x3e086d5e	0.1332297

model_4/gru_9/gru_cell/strided_slice_5 f4 [48]
0	0x3da78c4b	0.08181056
1	0x3c818100	0.015808582
2	0x3e3a9ab5	0.18223079
3	0xbdb3121b	-0.08743688
4	0xbc4d347e	-0.012524722
5	0xbe0ae3ae	-0.13563415
6	0x3d956a2f	0.072956435
7	0x3dc500e6	0.09619312
8	0xbd32f72f	-0.043692764
9	0x3c022220	0.007942706
10	0xbd3abc02	-0.045589454
11	0x3cb5d3b7	0.02219568
12	0x3e0a15c4	0.13484865
13	0xbcd17f99	-0.025573539
14	0x3c4a5fb5	0.01235192
15	0xbd2f333f	-0.04277348
16	0xbce183f3	-0.027528739
17	0x3cbb3c78	0.022855982
18	0xbd145e9f	-0.03622305
19	0xbd87c884	-0.06630042
20	0x3da84ac6	0.08217387
21	0x3df97be2	0.12181832
22	0x3d835cef	0.0641421
23	0xbd199bad	-0.03750198
24	0xbd7f80e4	-0.06237878
25	0xbd85aa85	-0.06526665
26	0x3cbf6e85	0.02336813
27	0xba8f219b	-0.0010920049
28	0x3d82aa08	0.06380087
29	0x3d482d46	0.0488713
30	0xbe2c5d84	-0.16832548
31	0x3bb4359b	0.0054995543
32	0xbdf86ef6	-0.12130539
33	0x3d33cb99	0.043895338
34	0x3d297ace	0.04137688
35	0xbd0659e6	-0.032800578
36	0xbc30f7db	-0.010801281
37	0xbc8af939	-0.016964542
38	0xbcc94b98	-0.024572179
39	0x3d904297	0.07043951
40	0x3d449b99	0.047999952
41	0xbd68a3ec	-0.056796953
42	0xbda202b7	-0.07910674
43	0xbdc19e64	-0.09454039
44	0x3e166f88	0.14690983
45	0xbdbb0854	-0.09132448
46	0x3d6dd5eb	0.058065336
47	0x3c1544fb	0.0091106845

model_4/gru_9/gru_cell/strided_slice_11 f4 [48]
0	0x3d9e73f6	0.077369615
1	0xbab41522	-0.0013739208
2	0x3daa0585	0.08301834
3	0xbd6b3c6d	-0.057430673
4	0x3b9746c7	0.0046165916
5	0xbddbc58b	-0.10731038
6	0x3d40353c	0.04692577
7	0x3dd7d244	0.10538152
8	0xbd6b3729	-0.05742565
9	0x3c8c4eb2	0.017127369
10	0xbd8d31d4	-0.068942696
11	0x3c2e6ef0	0.010646567
12	0x3d9dbf36	0.07702486
13	0xbc212a99	-0.009836816
14	0xbce68e2a	-0.028143961
15	0xbd27a995	-0.04093321
16	0xbd65a1af	-0.056062397
17	0x3d01fb92	0.031734057
18	0xbcf7081b	-0.030155232
19	0x3a5c50b4	0.00084043597
20	0x3df33d6b	0.11876949
21	0x3d56386c	0.0522999
22	0x3da419b4	0.08012715
23	0xbd2536cf	-0.040335473
24	0xbc8f77cc	-0.017513178
25	0xbcbd58f1	-0.0231137
26	0xbd09777b	-0.03356121
27	0x3cbb4482	0.022859816
28	0x3c9d0c97	0.019171042
29	0x3d8dc652	0.06922592
30	0xbdeab1b0	-0.114596725
31	0x3c133f73	0.008987295
32	0xbe03c767	-0.12869035
33	0x3dbc3301	0.09189416
34	0x3d8c0a59	0.06837911
35	0xbb802d9e	-0.003911688
36	0x3ad64c7c	0.0016349698
37	0xbca7593e	-0.020428296
38	0xbbe5df44	-0.0070151407
39	0x3d9deaed	0.07710824
40	0x3d03b8d3	0.032158684
41	0xbd588c19	-0.052867983
42	0xbbcbc767	-0.006218839
43	0xbdec298e	-0.115313634
44	0x3e26b2a9	0.16279091
45	0xbe04b23a	-0.12958613
46	0x3d551bc4	0.052028432
47	0xbb456a3a	-0.003012313

model_4/gru_8/gru_cell/strided_slice_4 f4 [96]
0	0x3d0a7ea9	0.0338122
1	0x3c61c9ea	0.01378105
2	0xbc4e1a47	-0.012579507
3	0xbcde8bec	-0.02716633
4	0xbd6e8878	-0.058235615
5	0x3e4f81b9	0.20264329
6	0x3cf57f9b	0.029968074
7	0xbc0abc72	-0.00846778
8	0xbd24971b	-0.040183168
9	0x3d9bdc89	0.07610423
10	0xbd62a111	-0.055329386
11	0x3c239ada	0.00998565
12	0x3cf055f6	0.029337864
13	0xbd05d06a	-0.032669462
14	0xbd288210	-0.041139662
15	0xbbccfa59	-0.0062554297
16	0x3d2af183	0.04173423
17	0xbd2fcf76	-0.04292246
18	0x3bd70b00	0.0065625906
19	0xbd8c51fc	-0.06851575
20	0xbd63a2c4	-0.055575147
21	0x3d42a337	0.047518935
22	0x3b1af599	0.0023644923
23	0x3d34ca7d	0.04413842
24	0x3b800e69	0.003907968
25	0x3ce0d62f	0.02744588
26	0xbcebbb3b	-0.028775802
27	0x3d705dbd	0.058683146
28	0xbcb9da08	-0.022686973
29	0xbda706c8	-0.0815559
30	0xbd15c99d	-0.036569227
31	0x3d1fea4b	0.0390418
32	0x3c20e05d	0.009819117
33	0xbd4ac00f	-0.049499568
34	0xbc9f699a	-0.019459534
35	0x3ce6621a	0.02812295
36	0xbd588e7d	-0.052870262
37	0x3c8f41fe	0.017487522
38	0xbdb1217d	-0.086489655
39	0x3d9a2029	0.07525665
40	0x3d783623	0.060598504
41	0xbc8b6b37	-0.017018897
42	0x3c76b269	0.015057185
43	0x3c303914	0.010755796
44	0x3cd3b069	0.025840955
45	0xbd996f4c	-0.07491931
46	0x3d12c597	0.035832968
47	0x3dbf1088	0.09329325
48	0xbd9a3db8	-0.07531303
49	0x3d10c713	0.035346102
50	0xbdf13ac3	-0.11778786
51	0xbcde3517	-0.027124925
52	0x3c03ef07	0.008052594
53	0xbdaed06e	-0.085358486
54	0x3cac0fc4	0.021003611
55	0xbc1d6dcc	-0.009608697
56	0x3c926300	0.017869473
57	0x3d08f98e	0.03344112
58	0x3d042c8f	0.032269057
59	0x3be2c014	0.00691987
60	0xbc86b64a	-0.016444344
61	0x3d1652a0	0.03669989
62	0xbd1bab97	-0.038005438
63	0xbbb5f026	-0.0055523096
64	0xba3ec827	-0.000727775
65	0xbdfbefe6	-0.12301616
66	0x3b2fa516	0.002680128
67	0xbbd9b8e0	-0.0066443533
68	0xba3aad85	-0.00071211933
69	0xbd2cf875	-0.042229135
70	0xbbde0bce	-0.0067763096
71	0x3d322e13	0.04350097
72	0xbbad3c47	-0.0052867266
73	0xbcf7bb66	-0.030240726
74	0x3d02f0ee	0.03196805
75	0xbdda9475	-0.10672847
76	0x3c8be656	0.017077606
77	0xbd43fb65	-0.04784717
78	0xbbd25b8b	-0.006419604
79	0x3dbc9104	0.09207347
80	0xbdd00d15	-0.10158745
81	0x3d080745	0.033210058
82	0xbd6a1a83	-0.05715419
83	0xbdb124bd	-0.086495854
84	0x3cb662d2	0.022263918
85	0xbcd01cf8	-0.025404438
86	0x3d49b676	0.049246274
87	0x3ccdf0fe	0.025139328
88	0xbd3acd22	-0.045605786
89	0xbc58a8b2	-0.013223814
90	0x3e019616	0.1265491
91	0xbd829af8	-0.06377214
92	0x3d274506	0.04083731
93	0xbb740363	-0.0037233464
94	0x3cfd5c00	0.030927658
95	0xbd10fb7b	-0.03539608

model_4/gru_8/gru_cell/strided_slice_3 f4 [96]
0	0xbc0b74e7	-0.008511758
1	0x3e26cd1d	0.16289182
2	0x3d8dbb2a	0.06920464
3	0x3e44b040	0.19207859
4	0xbd017fc3	-0.031615984
5	0x3eadeec9	0.3397124
6	0x3dce97b1	0.100875266
7	0x3d97e16b	0.07416042
8	0x3cac4615	0.021029511
9	0x3e005313	0.1253169
10	0xbbdf63ed	-0.006817332
11	0x3b0671f3	0.0020514696
12	0x3dff80e8	0.12475759
13	0xbc944f08	-0.018104091
14	0x3daeada5	0.08529214
15	0xbc39f084	-0.011348847
16	0x3e50fa99	0.20408095
17	0xbc862842	-0.016376618
18	0x3e2b4646	0.16726026
19	0x3dbb625d	0.09149621
20	0x3e47c049	0.19506945
21	0x3dc1b50e	0.094583616
22	0x3d589c61	0.05288351
23	0x3df4402f	0.119263045
24	0x3d392aea	0.04520694
25	0x3e60d8f0	0.21957755
26	0x3e304ef4	0.17217618
27	0x3e2f6c00	0.17131042
28	0xbc5d50fe	-0.01350808
29	0xbde5c6a5	-0.11219529
30	0x3c60de3c	0.01372486
31	0x3e73249f	0.23744439
32	0x3e4751f9	0.19464864
33	0xbcbcfd3e	-0.023069974
34	0x3de74488	0.11292368
35	0x3e0ca3da	0.1373438
36	0x3e128185	0.1430722
37	0x3d9fe9db	0.07808276
38	0x3ccfe667	0.02537842
39	0x3e9eac0a	0.3099063
40	0x3e637c08	0.22215283
41	0xbca30658	-0.019900486
42	0x3e27b521	0.16377689
43	0x3d5c5204	0.053789154
44	0x3d7f8700	0.062384605
45	0x3ce9ce7e	0.028540846
46	0x3de9f29e	0.11423229
47	0x3e733f34	0.23754579
48	0x3d7a0c36	0.0610468
49	0x3dfe64d5	0.12421576
50	0xbdc295e7	-0.09501248
51	0x3d4a7e71	0.04943699
52	0x3e3b2a86	0.1827794
53	0xbc14ae15	-0.0090747075
54	0x3cdb2702	0.026751999
55	0xbc8ddd2b	-0.017317375
56	0x3e2aa78a	0.16665474
57	0x3e26b163	0.16278605
58	0x3d52a80f	0.051429804
59	0x3e13594d	0.14389534
60	0x3dff6b1b	0.124716006
61	0x3e18f8da	0.1493868
62	0xbd3b4c44	-0.04572703
63	0xbbc6765d	-0.0060565905
64	0x3e168935	0.14700778
65	0x3e004ad3	0.12528543
66	0x3df32082	0.11871435
67	0xbd195ed6	-0.03744396
68	0x3defe2cf	0.11713182
69	0x3d623ffc	0.0552368
70	0x3e008514	0.12550765
71	0x3e24ffba	0.16113177
72	0x3db4d924	0.08830479
73	0x3e603ab5	0.21897395
74	0x3e0b61d5	0.13611539
75	0x3d406a32	0.046976276
76	0x3e2c9429	0.16853394
77	0x3d17269e	0.036902063
78	0x3dfb38e5	0.12266711
79	0x3e947a9c	0.28999794
80	0xbc78bc84	-0.015181664
81	0x3e6365d6	0.22206816
82	0x3ded509c	0.11587641
83	0xbd26992a	-0.040673412
84	0x3d813634	0.063091666
85	0x3d8afa26	0.06785993
86	0x3e7342e1	0.23755981
87	0x3e3f7cf2	0.18700007
88	0xbd187682	-0.037222393
89	0x3e199dcf	0.15001605
90	0x3e9cce37	0.3062608
91	0xbdd67d6d	-0.10473142
92	0x3dad20c4	0.08453515
93	0x3ea7abef	0.32748362
94	0x3e8c5b0d	0.27413216
95	0x3e3021f6	0.17200455

model_4/gru_8/gru_cell/strided_slice_5 f4 [96]
0	0x3b6af39e	0.0035850774
1	0x3c136c00	0.008997917
2	0x3c76be71	0.015060053
3	0x3d31c0bf	0.043396708
4	0x3c8e14cf	0.017343907
5	0x3d2b385d	0.0418018
6	0xbd46e254	-0.048555687
7	0xbbd76282	-0.0065730223
8	0x3d08c85d	0.033394206
9	0xbd24d27f	-0.040239807
10	0x3d44d96d	0.048058916
11	0x3ce5431a	0.027986098
12	0xbc3e0206	-0.011597162
13	0x3d0f2db8	0.03495571
14	0x3c63feee	0.01391576
15	0xbb9b5faa	-0.0047416287
16	0xbbf64ae4	-0.007516252
17	0x3cca0c69	0.02466412
18	0x3d178186	0.036988758
19	0x3d68c048	0.056824
20	0xbcdb370c	-0.026759647
21	0x3bcf3d17	0.006324421
22	0xbbcc9cb7	-0.006244268
23	0xbb947d7f	-0.004531562
24	0xbcb04778	-0.021518454
25	0x3cadc0c8	0.02121009
26	0x3d07f922	0.033196576
27	0x3cf0d84f	0.029400019
28	0xbcdc9432	-0.026926134
29	0x3d041559	0.03224692
30	0xbd34936e	-0.044085912
31	0x3c804394	0.015657224
32	0x3b62e125	0.003461906
33	0xbd4346c0	-0.047674894
34	0x3d4e0c54	0.050304726
35	0xbb028902	-0.0019918089
36	0xbb613091	-0.0034361223
37	0x3d3dea05	0.046365757
38	0x3c8f427b	0.017487755
39	0x3d1da893	0.038490843
40	0x3d49bafd	0.04925059
41	0xbcc44395	-0.023958007
42	0xbc01fcd7	-0.007933817
43	0xbd7d7f35	-0.061888892
44	0xbd7b6ac9	-0.061381135
45	0xbcc1b0d2	-0.023643885
46	0x3ba3ce5c	0.004998965
47	0x3b9435c0	0.004523009
48	0x3d44f0db	0.04808126
49	0x3cd984d0	0.026552588
50	0x3c368e88	0.011142381
51	0x3d03fa06	0.032220863
52	0xbc9327d8	-0.017963335
53	0xbb58f2b6	-0.0033103651
54	0xbcb854fe	-0.022501465
55	0x3d0a8e0a	0.033826865
56	0x3d17ff69	0.037108812
57	0x3d1897b2	0.037254043
58	0xbcd7e89d	-0.026356036
59	0xbca43144	-0.020043023
60	0x3c7a92b5	0.015293767
61	0xbc550d61	-0.013003678
62	0xbc4c0492	-0.0124522615
63	0x3bfa1aad	0.0076325745
64	0xbd27056d	-0.04077666
65	0xbd356d5f	-0.044293758
66	0x3d30991a	0.04311476
67	0xbcc1e20d	-0.02366736
68	0x3ba35f01	0.0049856906
69	0x3d7ba744	0.061438814
70	0xbcc3fe4b	-0.023924967
71	0xbd128df3	-0.035779905
72	0x3ca98e6b	0.020697793
73	0x3bdda32e	0.0067638373
74	0xbba98e7b	-0.0051744557
75	0x3d79dbe9	0.06100074
76	0xbd069477	-0.03285643
77	0x3d2389b4	0.039926246
78	0xbda17711	-0.07884038
79	0x3d0f0672	0.034918256
80	0x3c1a6389	0.009423145
81	0x3c43ef50	0.011958912
82	0x3c90d417	0.017679257
83	0x3d2bafa9	0.04191557
84	0x3d1056f5	0.03523918
85	0xbd81b2fc	-0.06332967
86	0x3c4b2a5c	0.012400236
87	0x3d303846	0.043022417
88	0xbb462937	-0.0030236968
89	0xbc81781b	-0.015804341
90	0xbbef1aa3	-0.0072968765
91	0xbc8d20a8	-0.017227486
92	0xbae1e697	-0.0017234859
93	0x3d3d60bc	0.04623483
94	0xbcb6aa54	-0.022298016
95	0xbc8c6cf9	-0.017141806

model_4/gru_8/gru_cell/strided_slice_11 f4 [96]
0	0xbc15d177	-0.009144179
1	0x3c85bf0e	0.016326454
2	0x3cfe8cbc	0.031072967
3	0x3d35bb37	0.044367995
4	0x3d0e36a6	0.034720086
5	0x3cce2174	0.025162436
6	0xbd02e197	-0.03195342
7	0xbbc07dd2	-0.005874374
8	0x3cdc2a6d	0.026875699
9	0xbd3b1ef9	-0.045683835
10	0x3d064cab	0.03278796
11	0x3cbf82a8	0.023377731
12	0x3bf9b5b1	0.0076205363
13	0x3c607b35	0.01370125
14	0xbc6f5819	-0.014608406
15	0xbcced249	-0.025246756
16	0xbb872b12	-0.0041250074
17	0x3cefa02e	0.029251184
18	0x3ca007ea	0.019535024
19	0x3d828304	0.063726455
20	0xbd33e08d	-0.04391532
21	0x3acf10bd	0.0015797835
22	0xbb9c289c	-0.004765583
23	0xbcfae282	-0.030625585
24	0x3b0231c8	0.0019866098
25	0x3bc59705	0.006029966
26	0x3d0ac5ce	0.033880048
27	0x3cd71fcb	0.026260277
28	0x3c49ca94	0.012316365
29	0x3c9bacce	0.019003298
30	0xbcf4b064	-0.029869266
31	0x3c24fc52	0.0100699235
32	0xbb00d1f3	-0.001965639
33	0xbca4deab	-0.020125708
34	0x3d1752ef	0.036944326
35	0xbc75bcc3	-0.014998618
36	0xbd30d8e8	-0.043175608
37	0x3be4eb03	0.0069860234
38	0xbb9e8df4	-0.0048386995
39	0x3c1bc8b7	0.009508303
40	0xbbb1fc15	-0.005431662
41	0xbcb7dd0a	-0.022444267
42	0xbc984d39	-0.01859151
43	0xbd521dac	-0.05129783
44	0xbccefe6d	-0.025267804
45	0xbc96f753	-0.01842848
46	0xbc02247d	-0.00794327
47	0x3b5dbfd8	0.0033836272
48	0x3bb467e0	0.005505547
49	0x3d0ae392	0.033908434
50	0xbb3f90a5	-0.0029230502
51	0x3cb094fb	0.021555414
52	0xbc39a330	-0.011330411
53	0x3ad193b7	0.0015989457
54	0xbcf29138	-0.029610261
55	0x3ca10dae	0.019659843
56	0x3b25cc6c	0.0025298847
57	0x3cca72ef	0.024713008
58	0xbce3c1df	-0.027802406
59	0xbb63577a	-0.0034689591
60	0x3be3df1f	0.0069540883
61	0x3c4ba569	0.012429574
62	0xbb54d4f8	-0.0032475572
63	0x3bbc510f	0.0057469676
64	0xbc634c25	-0.013873135
65	0xbc4ca8da	-0.012491429
66	0x3cbe1736	0.023204427
67	0xbca9952d	-0.020701015
68	0x3c265bdc	0.010153737
69	0x3ceadf95	0.028671065
70	0xbcfa8420	-0.03058058
71	0xbcf8cc8b	-0.030370971
72	0x3c421c38	0.011847548
73	0x3d05290e	0.032509856
74	0xbc9115f3	-0.017710662
75	0x3d2c586e	0.04207652
76	0xbc85c74c	-0.016330384
77	0x3c923692	0.017848287
78	0xbd759a54	-0.059961632
79	0xbc7a7940	-0.015287697
80	0x3c33ffb5	0.010986258
81	0x3b9749c7	0.0046169492
82	0x3c73c200	0.014877796
83	0x3c639a0f	0.013891711
84	0x3c2fa792	0.010721104
85	0xbd21ccaa	-0.039501823
86	0xbab64d2d	-0.0013908498
87	0x3d4dc18c	0.05023341
88	0xbcb9f63f	-0.022700427
89	0x3a9801ea	0.001159725
90	0xbc93baff	-0.018033503
91	0x3c69b8c1	0.01426524
92	0x3c6aa01a	0.014320398
93	0x3d661d84	0.056180492
94	0xbac66282	-0.0015135559
95	0xbcfce1ca	-0.030869383

model_4/batch_normalization_19/batchnorm/sub f4 [48]
0	0x3e6e5e72	0.23278216
1	0xbe777c73	-0.24168567
2	0xbf3ff21f	-0.7497882
3	0x3ebb57f8	0.36590552
4	0xbd45eac6	-0.0483196
5	0x3f16d783	0.58922595
6	0xbd2c8ca1	-0.0421263
7	0xbe2f2252	-0.17102936
8	0x3ee534ed	0.44766942
9	0xbe319f98	-0.17346036
10	0x3f33ecd7	0.70283264
11	0x3d674c66	0.056469344
12	0xbed1e3e6	-0.40994185
13	0x3e1cf57a	0.15328017
14	0x3dd70e5f	0.10500788
15	0x3e89a79e	0.26885694
16	0x3c9fd200	0.019509315
17	0x3ee7b82a	0.45257694
18	0x3c2a95f4	0.010411728
19	0x3efe11b5	0.49622884
20	0xbf3a33fc	-0.7273557
21	0xbe92e706	-0.28691882
22	0xbc769f84	-0.01505268
23	0xbca5b70e	-0.020228889
24	0x3d94b6af	0.07261407
25	0xbd84e032	-0.06488074
26	0xbdba4b42	-0.090963855
27	0xbc3702ec	-0.01117013
28	0xbe373b29	-0.17893662
29	0xbee5e532	-0.44901425
30	0x3f3a7255	0.72830707
31	0xbe63a266	-0.22229919
32	0x3ebfe6fe	0.3748092
33	0xbe232cba	-0.1593503
34	0xbeb14f20	-0.3463068
35	0x3ca12468	0.01967068
36	0x3dd2882e	0.102798805
37	0x3d2848ca	0.041085042
38	0x3c6d9088	0.014499791
39	0xbf0c1c34	-0.54730535
40	0xbc073e33	-0.008254576
41	0x3e4cb6b6	0.19991574
42	0x3e377a0a	0.17917648
43	0x3eb03784	0.34417355
44	0xbf91e300	-1.13974
45	0x3eda97ea	0.42694026
46	0x3dae9561	0.085245855
47	0x3d9f0b25	0.077657975

model_4/batch_normalization_19/batchnorm/mul f4 [48]
0	0x40127540	2.2884064
1	0x40020385	2.0314648
2	0x40194375	2.3947423
3	0x40107e2b	2.2577007
4	0x3fd8c3de	1.6934774
5	0x40360a84	2.8443918
6	0x401e34a0	2.471962
7	0x401f6b96	2.4909415
8	0x401206be	2.2816615
9	0x402ccb93	2.6999252
10	0x4057f90b	3.3745754
11	0x400e96e3	2.2279594
12	0x401c6560	2.4436874
13	0x3fd94aeb	1.6975988
14	0x40058655	2.086324
15	0x4017f5f6	2.3743873
16	0x3fdd3885	1.7282873
17	0x4005d7c4	2.0912943
18	0x401261c3	2.287217
19	0x40312b01	2.7682498
20	0x402788e9	2.6177313
21	0x4036814b	2.8516414
22	0x400b2481	2.174103
23	0x3fddbbe1	1.7322961
24	0x402241e7	2.5352724
25	0x400a54cd	2.1614258
26	0x401209ec	2.2818556
27	0x4013af18	2.3075619
28	0x40201256	2.5011191
29	0x4033ac04	2.807374
30	0x4073b7dc	3.808097
31	0x402a718c	2.6631804
32	0x3fde6819	1.7375518
33	0x4002a507	2.0413225
34	0x4009ae20	2.1512527
35	0x3fe8ab49	1.8177272
36	0x401917ad	2.39207
37	0x4040f2ea	3.0148263
38	0x400e8ca4	2.227334
39	0x40295591	2.6458476
40	0x400df5da	2.2181306
41	0x401dfeba	2.4686723
42	0x4018c7b3	2.3871887
43	0x3ff9a0fb	1.9502252
44	0x404195c4	3.024766
45	0x4032ad1d	2.791816
46	0x40216187	2.5215776
47	0x3ffec199	1.9902831

model_4/batch_normalization_18/batchnorm/sub f4 [96]
0	0x3e9b7288	0.30360818
1	0xbe59ba5a	-0.21262494
2	0xbe1d86e0	-0.15383482
3	0xbef989d2	-0.4873796
4	0x3f4e8d8b	0.8068473
5	0x3ee807b2	0.4531837
6	0xbd8141cc	-0.06311378
7	0xbe88fa67	-0.26753542
8	0xbe12af81	-0.14324762
9	0xbdc8a62a	-0.09797318
10	0x3e773eb8	0.24145019
11	0x3e03d6c9	0.12874903
12	0x3e054cf6	0.1301764
13	0xbe92b963	-0.28657064
14	0xbeb3359c	-0.35001838
15	0xbfa3a4e9	-1.2784702
16	0x3f3e0ded	0.7424
17	0x3f14ebf8	0.5817256
18	0xbe445adf	-0.1917529
19	0x3f35f04f	0.71069807
20	0x3fb8de6a	1.4442875
21	0xbf79d373	-0.9758827
22	0xbe9607b2	-0.29302746
23	0x3e059629	0.13045563
24	0x3f4f7b59	0.8104759
25	0xbe0b3109	-0.13592924
26	0xbe9f7c0d	-0.3114933
27	0xba712e00	-0.0009200275
28	0x3e657bea	0.2241055
29	0xbf8a2f2c	-1.0795646
30	0xbddef9dd	-0.108875014
31	0x3e614e6c	0.22002572
32	0x3e1cacdd	0.15300317
33	0xbb9c008c	-0.0047608074
34	0xbfb69d9e	-1.4266851
35	0x3f0fb56e	0.56136215
36	0x3f3617a5	0.7112983
37	0xbf10afb1	-0.56518084
38	0xbe015184	-0.12628752
39	0x3d070b16	0.032969557
40	0xbd98ccc8	-0.07460934
41	0x3eafba11	0.34321645
42	0x3ed437e0	0.4144888
43	0x3f1ae179	0.60500294
44	0x3f1388b8	0.5763049
45	0xbf7aa803	-0.97912616
46	0xbf1886c5	-0.5958064
47	0x3e21f1d0	0.158149
48	0xbe8beecc	-0.27330625
49	0xbea9e768	-0.3318436
50	0x3e1c498c	0.15262431
51	0xbe9bdc53	-0.30441532
52	0x3f023be1	0.5087262
53	0x3e8d4a8b	0.27595934
54	0x3e4afbce	0.19822618
55	0xbdc0ffdf	-0.094238035
56	0x3b48b55c	0.0030625677
57	0xbfb9f198	-1.4526854
58	0xbd5b0cdc	-0.05347906
59	0xbf1e82ad	-0.61918145
60	0xbeebe9c4	-0.46076787
61	0x3e80a49f	0.25125596
62	0xbeeb0a5e	-0.45906347
63	0xbeea688a	-0.45782882
64	0xbf2f5a9b	-0.6849763
65	0xbd5356bb	-0.051596384
66	0xbeb1e94d	-0.34748307
67	0xbe20d53c	-0.15706342
68	0xbf0db858	-0.5535941
69	0xbfb97e0e	-1.4491594
70	0xbda50e39	-0.080593534
71	0xbe11f4ae	-0.14253494
72	0xbdb29e68	-0.0872162
73	0x3f3c128f	0.7346582
74	0x3d4518d3	0.048119377
75	0x3e20d7b8	0.1570729
76	0xbe86746d	-0.262607
77	0x3d2b0ff3	0.041763257
78	0xbecbc2ec	-0.3979715
79	0xbd199943	-0.037499677
80	0x3f02ce5f	0.5109615
81	0x3d1d2922	0.038369305
82	0xbe3bee3c	-0.18352598
83	0xbde938b2	-0.11387767
84	0xbf1ee1f8	-0.6206355
85	0xbea34ae8	-0.31893086
86	0xbe6cb0b6	-0.23114285
87	0x3d20340a	0.03911213
88	0x3e9738b3	0.29535446
89	0xbd957c67	-0.072991185
90	0x3ec22a66	0.37922972
91	0x3e0d4e62	0.13799432
92	0xbe986b1e	-0.29769224
93	0xbe50fd6a	-0.2040917
94	0x3f27da9e	0.6556796
95	0xbdfb6c06	-0.12276463

model_4/batch_normalization_18/batchnorm/mul f4 [96]
0	0x40a2548b	5.07282
1	0x4098e5fa	4.7780733
2	0x40c8978a	6.2684984
3	0x40b8d9f4	5.7766056
4	0x40b950b7	5.791103
5	0x40757a30	3.8355827
6	0x407323e4	3.7990656
7	0x40cfb38b	6.490667
8	0x40dea11a	6.9571657
9	0x409d1018	4.9082146
10	0x40ba23b0	5.8168564
11	0x4116d4a9	9.426919
12	0x40c00911	6.0011067
13	0x408f7516	4.4830427
14	0x40986aa9	4.76302
15	0x40fa6ed1	7.8260274
16	0x40b45c05	5.636233
17	0x40da09eb	6.8137107
18	0x40e1f9d9	7.061749
19	0x410bb03a	8.730524
20	0x40dfb1a4	6.9904346
21	0x40c2c788	6.086857
22	0x40d0b02a	6.5215044
23	0x407a3bc5	3.909898
24	0x40d63f80	6.6952515
25	0x40e93dd2	7.2887964
26	0x40bdf6cf	5.936378
27	0x40a8eee2	5.2791605
28	0x40a05316	5.0101423
29	0x41098f7c	8.59753
30	0x40c910e3	6.2833114
31	0x40b51314	5.658579
32	0x408b657a	4.3561373
33	0x40dfc5d1	6.9928975
34	0x40e7cae0	7.243515
35	0x40e6e2ca	7.215184
36	0x40f098a5	7.5186334
37	0x40cc09ab	6.37618
38	0x410b5460	8.708099
39	0x4090d509	4.5260053
40	0x40ae9e1e	5.4568014
41	0x41342c7b	11.2608595
42	0x408be95e	4.372237
43	0x4124de0c	10.304211
44	0x40b0039e	5.5004416
45	0x40e06296	7.0120344
46	0x40b35006	5.6035185
47	0x407230fd	3.78424
48	0x412561e6	10.336401
49	0x408cc077	4.3984942
50	0x40e11461	7.0337377
51	0x4102b124	8.168247
52	0x40c31142	6.0958567
53	0x4118cb14	9.54958
54	0x40e3e73e	7.121978
55	0x40ac9f7c	5.3944683
56	0x40b61d4e	5.691077
57	0x4093ccb1	4.6187367
58	0x40c9984f	6.2998424
59	0x40be2258	5.9416924
60	0x40dd14d4	6.9087925
61	0x4073fd36	3.8123298
62	0x40deceea	6.962758
63	0x40aa4597	5.320995
64	0x4092f264	4.5920887
65	0x40c6d729	6.2137647
66	0x406784eb	3.6174877
67	0x411ec2bd	9.922544
68	0x40fbcf0b	7.869024
69	0x40dd20f1	6.910271
70	0x409ff128	4.998188
71	0x40abe6f0	5.3719406
72	0x40abfd0e	5.3746405
73	0x40c5a5e8	6.176502
74	0x40a3afcc	5.1152096
75	0x4107a67d	8.478147
76	0x40a18d60	5.0485077
77	0x41001033	8.003955
78	0x40b0ffa9	5.5312085
79	0x406ea1a0	3.7286148
80	0x40eea317	7.4574084
81	0x40909a79	4.5188565
82	0x40d2c361	6.58635
83	0x410ee38a	8.930552
84	0x40a7f41f	5.24855
85	0x4096dc25	4.714373
86	0x407d5001	3.958008
87	0x40942722	4.629777
88	0x4100c299	8.047509
89	0x40dfbe95	6.9920144
90	0x40514997	3.2701166
91	0x40ec4144	7.382967
92	0x40b079d7	5.514873
93	0x40be5abd	5.9485765
94	0x40c721ed	6.2228913
95	0x40c42088	6.128971

model_4/dense_9/BiasAdd/ReadVariableOp f4 [26]
0	0xbd87f5ef	-0.06638705
1	0x3d452044	0.048126474
2	0x3d58ee1b	0.05296145
3	0x3d936d15	0.0719854
4	0x3d0072be	0.031359427
5	0x3e30e55d	0.17274995
6	0x3aaa3d5e	0.001298826
7	0xbe1964fa	-0.14979926
8	0xbc5acd94	-0.013354678
9	0xbd8e1897	-0.06938284
10	0xbd367224	-0.044542447
11	0x3cbb4b33	0.022863006
12	0x3d44aad1	0.048014466
13	0x3e3705d9	0.17873324
14	0xbc3e8a4f	-0.011629655
15	0x3d131a8e	0.035913996
16	0x3d85d089	0.065339155
17	0xbd9647b4	-0.07337895
18	0xbece8a25	-0.4033977
19	0xbebc8dd7	-0.36826965
20	0xbeb6b37e	-0.35683817
21	0xbec91380	-0.3927269
22	0xbebd2ab5	-0.36946645
23	0xbec721ad	-0.3889288
24	0xbeccbd5e	-0.39988226
25	0xbecae042	-0.3962422

model_4/dense_8/BiasAdd/ReadVariableOp f4 [48]
0	0x3dc0ccf4	0.09414092
1	0x3db4f3d6	0.088355705
2	0x3d5b67d4	0.053565815
3	0x3d75cec2	0.060011633
4	0x3db146a7	0.08656054
5	0x3d868389	0.06568057
6	0x3da437da	0.08018465
7	0x3d65ff39	0.056151602
8	0xbc0c18c7	-0.008550829
9	0x3d78e7b7	0.060767855
10	0x3de783cb	0.113044344
11	0x3d7f9a4e	0.062403016
12	0x3d9363df	0.07196783
13	0x3d92b8eb	0.071641766
14	0xbbb4b0d7	-0.005514245
15	0x3dfb79c6	0.12279086
16	0x3dc6d5f6	0.097087786
17	0x3dcd0dc4	0.10012391
18	0x3d4d106d	0.050064493
19	0x3d63d654	0.05562432
20	0x3d04bc11	0.032405917
21	0x3d628b3d	0.05530857
22	0x3e02ff77	0.12792765
23	0x3d578004	0.05261232
24	0x3da8140c	0.08206949
25	0x3e5dac04	0.2164765
26	0x3de76cff	0.11300086
27	0x3daf245e	0.08551858
28	0x3b98e23d	0.0046656416
29	0x3da6e442	0.081490055
30	0x3e2daa34	0.16959459
31	0x3cb892c2	0.022530917
32	0x3d847e60	0.064694166
33	0x3d374a5e	0.044748656
34	0x3dcdd57b	0.10050484
35	0x3d4cd1d6	0.050004803
36	0x3ccdad80	0.025107145
37	0xbc8d36e9	-0.017238097
38	0x3d1f793d	0.03893398
39	0x3da8b798	0.08238143
40	0x3d8df8c6	0.069322154
41	0x3e0faafa	0.14030066
42	0x3d9a16bd	0.07523868
43	0x3b887505	0.0041643404
44	0x3daf96b0	0.08573663
45	0x3b2e9008	0.0026636142
46	0xbd439222	-0.047746785
47	0x3dd26e40	0.10274935

model_4/gru_8/gru_cell/MatMul f4 [96, 126]
0	0xb88bee21	-6.6723915e-05
1	0x380a7869	3.3013905e-05
2	0xb892816a	-6.985928e-05
3	0xba8769d9	-0.0010331228
4	0xba4ff2d5	-0.0007932608
5	0xb98b8c5e	-0.00026616728
6	0xbaa00529	-0.0012208569
7	0xba5e29af	-0.0008474839
8	0xb88187b3	-6.176475e-05
9	0xb98d6b6d	-0.00026973654
10	0xba91e0ef	-0.0011129658
11	0xb9390f5a	-0.00017648694
12	0xb9bf566b	-0.00036494745
13	0xbaa0797f	-0.001224324
14	0x3985f055	0.00025546798
15	0xba10d501	-0.0005524904
16	0x38984a91	7.261814e-05
17	0xb9dd9fc8	-0.0004227145
18	0x39b8b596	0.00035230507
19	0xb967797b	-0.00022075132
20	0xb81a09a4	-3.672544e-05
21	0x393e051c	0.00018121715
22	0x3a95d2d3	0.0011430628
23	0x382c2844	4.1045496e-05
24	0x391f4338	0.00015188463
25	0x3a6f97c0	0.0009139739
26	0xb953498d	-0.00020149928
27	0x3a64f94e	0.0008734659
28	0xbadfa424	-0.0017062468
29	0xb9ab5a89	-0.00032683116
30	0x3a007ada	0.0004901119
31	0x39abc9bb	0.00032765963
32	0xb9d34de7	-0.00040303098
33	0x39e58c5d	0.00043782862
34	0xb8f12712	-0.00011499053
35	0xb960e7cf	-0.0002144866
36	0x39ce1b0b	0.0003931153
37	0x3a8a2493	0.0010539464
38	0xb9cb149f	-0.0003873454
39	0x3a4033ba	0.00073319266
40	0x3922f243	0.00015539773
41	0xb9ecf384	-0.0004519486
42	0x39df22eb	0.0004255989
43	0xb8e3659a	-0.00010843128
44	0x3964b3bb	0.00021810729
45	0x3a2f3046	0.00066829135
46	0x3ab31a1c	0.0013664397
47	0xb95f697d	-0.00021306235
48	0x3a4d72e5	0.000783725
49	0x3a62bb02	0.0008649082
50	0x3982e86d	0.00024968703
51	0xb8761955	-5.8674563e-05
52	0x3a96e15c	0.0011511254
53	0xb99b7016	-0.00029647414
54	0x3aadb961	0.00132541
55	0x3ae9c5ba	0.0017835416
56	0x34ed0930	4.4151375e-07
57	0x3a91abb3	0.0011113792
58	0x3af89363	0.0018964823
59	0xb8f8eb3a	-0.00011869376
60	0x3a8c764e	0.001071641
61	0x3b1febf3	0.0024402111
62	0x36f5e0fa	7.3277597e-06
63	0xb7d927a8	-2.5886882e-05
64	0x37d155e2	2.4954734e-05
65	0xb80f840d	-3.421684e-05
66	0xba4ae7b0	-0.00077402126
67	0x39d1559f	0.0003992738
68	0x39b1a840	0.00033885427
69	0xba720d74	-0.0009233572
70	0x3a7bc09f	0.0009603593
71	0xba00a671	-0.0004907614
72	0xbaa22ac5	-0.0012372365
73	0x3a940018	0.0011291532
74	0xb9a5a002	-0.00031590468
75	0xbabc2771	-0.0014355016
76	0x3a91ba67	0.0011118174
77	0x3a05e9b2	0.00051083707
78	0xba3ab446	-0.00071222
79	0x3982c207	0.00024940094
80	0x39cda99b	0.00039227013
81	0xbaba6407	-0.0014220484
82	0xb97a1172	-0.00023848357
83	0x3a15b403	0.0005710723
84	0xba2be7ec	-0.00065576914
85	0xb8301a7f	-4.1986346e-05
86	0xb877f779	-5.9119866e-05
87	0xba4ee9ce	-0.0007893116
88	0xb9d9556e	-0.00041453115
89	0xb863d7c3	-5.432196e-05
90	0xb9f9c41f	-0.00047639103
91	0x3887b66b	6.4712796e-05
92	0x39a35eef	0.00031160514
93	0xba673287	-0.000881948
94	0x380527ba	3.174667e-05
95	0xb85ee4e5	-5.31421e-05
96	0xba490a9a	-0.0007669121
97	0x36bd615e	5.643974e-06
98	0x39a0357d	0.0003055743
99	0xb9c07e53	-0.00036715213
100	0x398f752a	0.0002736238
101	0xb90fc7d9	-0.00013711992
102	0xb9c43ce4	-0.000374294
103	0xb9f6e261	-0.00047089442
104	0x39e83893	0.0004429264
105	0xba7c8a8f	-0.0009633684
106	0x39807b70	0.0002450603
107	0x3a03e86a	0.0005031886
108	0xba2fabd2	-0.00067013234
109	0xb91a9433	-0.00014741793
110	0x39ba28db	0.00035507124
111	0xb705585a	-7.947989e-06
112	0xb9f90e63	-0.000475037
113	0x39e9a5e2	0.00044564815
114	0xba6ad0d2	-0.0008957508
115	0xb9932f49	-0.00028073255
116	0x39cc3835	0.0003895179
117	0x396ddefd	0.00022685151
118	0x39c99b94	0.00038453622
119	0x3a33ca15	0.00068584207
120	0xba2b0c7a	-0.00065249915
121	0x392c8bf8	0.0001645534
122	0x398cdfec	0.00026869716
123	0x394fb24e	0.00019807482
124	0xb8f9fcff	-0.000119203694
125	0x3a1b39e2	0.0005921406
126	0x37948515	1.7704946e-05
127	0xb8e25631	-0.00010792574
128	0xb8b31aa5	-8.540348e-05
129	0xba64e90a	-0.00087322353
130	0xba279cf1	-0.00063939305
131	0xb9464558	-0.00018908584
132	0xba461483	-0.0007556157
133	0x389f52b4	7.5971155e-05
134	0xb9ae8a93	-0.00033291112
135	0x3a3b8110	0.00071527157
136	0xbaab7cf5	-0.0013083505
137	0xb9bc91ad	-0.0003596669
138	0x3ac6fa2d	0.0015180759
139	0xbb19ccff	-0.0023468134
140	0xba36e711	-0.00069771806
141	0xb9228d33	-0.00015502125
142	0xba29175e	-0.00064503204
143	0xb9c9e6e8	-0.00038509746
144	0x3a3ad426	0.00071269495
145	0xba5e82d1	-0.0008488121
146	0xb9ffabe9	-0.00048765473
147	0xb824f105	-3.9325114e-05
148	0xb7ae4b45	-2.0777466e-05
149	0xba8a9b47	-0.0010574841
150	0x3a9831c0	0.0011611506
151	0x397a2968	0.00023857283
152	0xba2d4bde	-0.00066107314
153	0xb92d93c9	-0.0001655362
154	0xbaf09757	-0.001835565
155	0xb94ede9b	-0.00019728618
156	0x3ab4f3eb	0.0013805603
157	0xb919f792	-0.00014683444
158	0xba2e3782	-0.00066458446
159	0x3aef28ba	0.001824639
160	0xb980f061	-0.0002459316
161	0xba1a77e1	-0.0005892497
162	0x3a2db3da	0.0006626226
163	0xbaae63b5	-0.0013304861
164	0xb9813ac5	-0.00024648584
165	0x3a6ef815	0.00091159466
166	0xba8a66a3	-0.0010559153
167	0xba16e0d6	-0.0005755549
168	0x3a77ee85	0.00094578444
169	0xba8b7fbd	-0.0010642927
170	0xb95d7820	-0.00021120952
171	0x3a5d45e1	0.0008440894
172	0x3ae28744	0.0017282744
173	0x3a04f26b	0.00050715235
174	0x3ae671fd	0.0017581579
175	0xbab8c952	-0.0014098084
176	0x3a804b9e	0.0009788161
177	0x39e1edc9	0.00043092508
178	0xbac19e4f	-0.0014771911
179	0x350ba5c0	5.2022733e-07
180	0x3add4f7b	0.0016884649
181	0xb949c1ae	-0.00019241005
182	0x3a2c23c9	0.00065666117
183	0x3b0540ba	0.002033277
184	0xb9d70ded	-0.0004101837
185	0xb9989ebb	-0.00029109963
186	0x3a349a70	0.0006889468
187	0xba68c23a	-0.00088790397
188	0x3a39d83c	0.00070894114
189	0x3982075c	0.00024801015
190	0x38ff8696	0.00012184416
191	0xb7f79c1c	-2.9517389e-05
192	0xb90f1da0	-0.00013648579
193	0x3a011c50	0.00049251784
194	0xb9814b6c	-0.0002466099
195	0xb9bc4c7d	-0.00035915143
196	0x3a4bae55	0.0007769813
197	0xba0f323f	-0.00054625043
198	0xb9bc4bc6	-0.0003591461
199	0x3a09ad2e	0.0005251941
200	0xb983606b	-0.00025058104
201	0xba42a4bc	-0.000742506
202	0x3a1f3ca1	0.0006074403
203	0xb9951ae7	-0.00028439538
204	0xba7cae98	-0.00096390536
205	0x3a248fbe	0.0006277523
206	0xb9a7c5a8	-0.00031999988
207	0xba809fee	-0.0009813288
208	0x3a2a0988	0.00064864056
209	0x38185b6b	3.6324764e-05
210	0xbab8a0cf	-0.0014086011
211	0x39a687e9	0.00031763248
212	0xb9f43406	-0.00046578067
213	0xba4af1d4	-0.00077417237
214	0x370f09a3	8.525708e-06
215	0xb7e30282	-2.7061677e-05
216	0xbabfdf33	-0.0014638662
217	0x39c56abb	0.00037654288
218	0x38706114	5.731087e-05
219	0xbaabc235	-0.0013104143
220	0x398081ef	0.0002451087
221	0xb98fea13	-0.00027449484
222	0xba565a85	-0.00081769406
223	0xb8e1ae08	-0.00010761252
224	0xba0b98ad	-0.00053251797
225	0xba42abf2	-0.00074261345
226	0xb92a8880	-0.00016263314
227	0x384dc1c8	4.905628e-05
228	0xba9509e8	-0.001137075
229	0x39a8d45b	0.00032201674
230	0x3999ca84	0.0002933332
231	0xbadd065d	-0.0016862858
232	0x3838f813	4.4100056e-05
233	0xb91623ed	-0.00014318498
234	0xbab67e40	-0.0013923123
235	0xb92a261c	-0.0001622666
236	0xb99c0d48	-0.00029764534
237	0xbabd1008	-0.0014424333
238	0x38da6c25	0.000104151935
239	0xb96a71b2	-0.00022358334
240	0xbade7036	-0.0016970697
241	0xb5e8f2b0	-1.7355978e-06
242	0x39da803f	0.0004167575
243	0xba9fa5c7	-0.0012180143
244	0x399c4e33	0.00029812902
245	0x38246ff1	3.92049e-05
246	0xba992de7	-0.0011686654
247	0xb7d75edc	-2.567417e-05
248	0xb8da7270	-0.00010416366
249	0xbac4821e	-0.0014992391
250	0xba34c0d5	-0.0006895189
251	0xb9298d17	-0.00016169656
252	0x3901690e	0.00012341535
253	0x38f890cd	0.00011852533
254	0x3926d8e7	0.00015911796
255	0xb9f69666	-0.00047032832
