app/src/main/assets/models/family.tflite (tflite, 672140 bytes, 52 tensors)

model/batch_normalization/batchnorm/add_1;model/conv1d/Conv1D/Squeeze;model/batch_normalization/batchnorm/mul_1;model/conv1d/BiasAdd;model/conv1d/BiasAdd/ReadVariableOp;model/batch_normalization/batchnorm/mul;model/batch_normalization/batchnorm/sub;model/conv1d/Conv1D;model/conv1d_1/Conv1D f4 [96]
00000000: beec 9dbe d3f8 3abf a121 2bbf c8cd 183e
00000010: 8782 963f c720 8bbf 1254 1dbf a8bf 5dbe
00000020: 1bba 263f 4049 f0bb b215 babf 1eba 27bf
00000030: 34be e33c e5f0 483f 5fb8 8abf 586f 4b3f
00000040: 1acc 763f b6ee 3b3e 3d27 133f 2368 4b3f
00000050: 5cf9 003e 7a7e 9dbf 80eb 8bbd 028f 3dbe
00000060: b868 803f 5215 68bf 2697 96bf 2491 48bf
00000070: ad9f b2be d2c1 b8bf 3657 853e e264 173f
00000080: 26cb f1be a44b 8dbf 7660 e3be c0d6 a9bf
00000090: ef22 b83e 6712 a63c a054 c5bc 1655 383f
000000a0: 6a9b 03bf 9ed8 5dbf e49f 19bd 21df 4a3f
000000b0: 740f d7bf 3551 8c3e cd87 373f 7ad0 1f3f
000000c0: 3c27 09bf 09ac 213b b882 52bf 1893 bbbf
000000d0: 66f7 6fbf 3709 1abf 8fd6 b9bf e002 6ebb
000000e0: ecbd 26bf 1df1 a3bf ee11 183f b9d0 c6bf
000000f0: 1de9 25be 4772 2f3f 2934 4dbf dc7c 00bf
00000100: 8d39 903f 6a8b 73bf 4e80 5dbd 5310 903f
00000110: 8633 0f3f 981b dcbc ab35 a5bf 647c 85be
00000120: aa62 d93e 9d4f c3bc 7285 32be 1a69 463f
00000130: 9209 2b3f 7677 47bf e6a9 70bf ae3f 53bf
00000140: 18a8 54bd 40a2 c3bd c021 22bf 503c 48bf
00000150: fb25 68bf 967e 78bf 1ad2 743f 15c5 ffbe
00000160: 8833 f1be 0f1e 03bf 4ff9 50bf 86a3 6b3f
00000170: 5b49 b73f 54fa 3bbe b354 523f e470 b0bf
-0.30844682 -0.73035926 -0.6684819 0.1492225 1.1758584 -1.0869378 -0.61456406 -0.21655142
0.65127724 -0.007332951 -1.4537871 -0.6551837 0.027800657 0.78492576 -1.0837516 0.7946677
0.96405184 0.1835278 0.5748175 0.79455775 0.12595123 -1.2304223 -0.068320274 -0.18511584
1.0031958 -0.9065753 -1.1764877 -0.78346467 -0.34887448 -1.4434149 0.260431 0.5913831
-0.47225302 -1.1038709 -0.4440953 -1.3268661 0.35964152 0.020272447 -0.024088204 0.7200483
-0.5140902 -0.86658657 -0.037506 0.7924672 -1.6801591 0.27405706 0.7169159 0.62427485
-0.5357549 0.0024669191 -0.8223071 -1.4654264 -0.93736875 -0.6017031 -1.4518603 -0.0036317632
-0.6513355 -1.2807957 0.5940236 -1.5532447 -0.16202207 0.6853375 -0.80157715 -0.5019052
1.1267563 -0.95134604 -0.05407744 1.1254982 0.55937994 -0.026868626 -1.2907003 -0.26071465
0.42458087 -0.023841674 -0.17433718 0.7750412 0.6681148 -0.7791666 -0.94009244 -0.8251904
-0.05191812 -0.09552431 -0.6333275 -0.7821703 -0.90682954 -0.97068155 0.9563309 -0.4995505
-0.47109628 -0.5121774 -0.81630415 0.9204639 1.4319261 -0.18357211 0.8216049 -1.3784451

model/batch_normalization_1/batchnorm/add_1;model/conv1d_1/Conv1D/Squeeze;model/batch_normalization_1/batchnorm/mul_1;model/conv1d_1/BiasAdd;model/conv1d_1/BiasAdd/ReadVariableOp;model/batch_normalization_1/batchnorm/mul;model/batch_normalization_1/batchnorm/sub;model/conv1d_1/Conv1D f4 [96]
00000000: 4113 a83d c701 b13f 9863 ce3f 834e dcbe
00000010: 1b93 553e efc4 7cbd f85c fd3d c366 523f
00000020: a747 2ebd 6ba0 71be 27dc 0abf b211 4a3f
00000030: bc3c 503f 0dd7 b23e 5af1 c83f 0a97 bc3f
00000040: 72b3 933e 44ff b2bd aaba 0abe 7d2d 54bf
00000050: baa4 0c3f 8be4 7f3f ea6a b23f 63ed 563f
00000060: 9a7d 453f 3f4c 393f 2eca 2b3f 169d 963f
00000070: 826a 593f defd ae3e ec3a 0bbf 4af0 e93d
00000080: ba50 543f 6918 8dbe 840f 673f 6b75 a13e
00000090: 8bd2 cdbd 4fe4 b13f 932d febe 4f2a 19be
000000a0: 0000 2dbf fe73 04bf d7e5 46be 64ae c5bd
000000b0: f1d2 cf3f 8079 943c 3760 333f 35a7 8ebe
000000c0: d218 333f 318c 253e b21b 053f d4e1 593f
000000d0: 4fa2 18be 7467 b0bd c410 9c3d 2a2b 50bf
000000e0: 44c9 19be 8e80 2e3f 4ea3 49be 0cf5 b13f
000000f0: bc2d 0c3d 9240 603f 2ab6 793f 7ee2 34bf
00000100: 946d 81bf 540c 713f 94f2 bdbd 6b84 31bf
00000110: f73c 5e3e 3855 193e c5c9 ba3f f3e8 e6be
00000120: 6178 89bd 9f61 d4be 304d 1e3c 62c9 48bf
00000130: bcf0 a2be 45ae 8d3f 07e5 623f 266c 9ebe
00000140: 4eb7 61be 28b3 3d3f 0568 b2bd b9fc 87be
00000150: 65ad 883f 0e4f 5abf f860 143e c1c1 583f
00000160: f882 783f 868e d7be e585 a1be 99c1 a9bd
00000170: 4a28 fa3e 4682 3dbe 2972 383f e918 eabe
0.082067974 1.3828667 1.6124144 -0.4302865 0.20856898 -0.061711248 0.12371248 0.8218805
-0.0425488 -0.23596351 -0.54242176 0.7893325 0.81342673 0.34929696 1.5698655 1.4733593
0.28847843 -0.08740094 -0.13547769 -0.8288191 0.5493885 0.99958104 1.3938878 0.83955973
0.7714478 0.7238197 0.67105377 1.1766689 0.84928143 0.3417806 -0.5438678 0.114227846
0.8293568 -0.27557686 0.9025805 0.31534895 -0.100499235 1.3897799 -0.49644145 -0.14957546
-0.67578125 -0.5173949 -0.19423614 -0.09652403 1.6236249 0.018124342 0.7006869 -0.27861944
0.6995975 0.1616676 0.51995385 0.8511021 -0.14905666 -0.08613482 0.07620385 -0.81315863
-0.15018183 0.6816491 -0.19691202 1.3902907 0.034223303 0.87598526 0.97543585 -0.706581
-1.0111566 0.94159436 -0.09274784 -0.6934268 0.21702944 0.14973915 1.4592825 -0.450996
-0.067124136 -0.4148073 0.009661958 -0.78432286 -0.3182429 1.1068808 0.8863072 -0.30941886
-0.22042581 0.74101496 -0.087112464 -0.2656 1.0677916 -0.8527688 0.14490116 0.84670645
0.9707484 -0.42100924 -0.31547466 -0.08288879 0.48858863 -0.18506727 0.72049195 -0.4572213

model/batch_normalization/batchnorm/mul_1;model/conv1d/Conv1D/Squeeze;model/conv1d/BiasAdd;model/conv1d/BiasAdd/ReadVariableOp;model/batch_normalization/batchnorm/mul;model/conv1d/Conv1D;model/conv1d_1/Conv1D f4 [96, 1, 3, 126]
00000000: 0f9a 6dbb 8368 2e3b 5492 3739 27b1 303b
00000010: 75ce 233d aa59 bc3c a4ce 663d 1a8b 9b3d
00000020: 4be2 e03c ce2f ce3d ca90 f33d 9c13 d43c
00000030: 8e13 123e fef3 283e f12f d63c b0a7 da3c
00000040: 78ab 8f3d 0c85 d4ba 160e e5bb 1810 783d
00000050: bdc0 8bbb 91be fa3b 7495 803c e8f9 e6ba
00000060: 833d 123d 5d46 e5bb 4819 dc3b 60e1 a73c
00000070: 797f 873d d204 bdbb a4fb 67bc 3fb7 1d3d
00000080: 0440 23bc cbcc 833c 1334 d3bc d8d2 10bc
00000090: 2460 6b3d e292 36bd 129c 01b9 5617 c83c
000000a0: 815c b33d 2c49 5b3b 7853 a4bc 43e1 c33c
000000b0: bb71 6e3c fe51 b03c fb21 8cbd c21d 1a3c
000000c0: 0572 963d 089b c0bd cc9a 163c ee92 cb3c
000000d0: 7dfa acbc b758 f6b8 1086 41bc d9d4 94bd
000000e0: 246a 573c af71 b93c 6cb6 02be f2cc 2e3c
000000f0: 2a7b 8f3d abda 0dbe 2a25 383c d5b1 67ba
00000100: 3679 09bb d3a6 233a ce03 a9bc 3671 603b
00000110: 2c4e 78bb 0ea2 d5bc da00 3dbb 3f79 7ebb
00000120: 3e88 bfbc 8d8e b5bb c6c0 81b9 9524 cdbc
00000130: bed6 52bc 3d1d 4c3b 2357 8fbc e6d4 6bbc
00000140: 6196 56bb 54a0 99bc 7e68 95ba de2c c63b
00000150: 0bd9 a7bc a347 803c cc3c 633c 40e0 b6bc
00000160: 09ea 003d f54c 8c3c 3e77 333c b8e3 76bc
00000170: 5f5b 1abb c5d0 433c 5dfd 6b3a 37db 373c
00000180: 8a2e 433c e643 ba3c 61cc 943c 63a6 363c
00000190: dd16 333d 8933 b93c ef3c d6bb f3af 26bc
000001a0: 1f8f 0cbc 6f71 1ebc c4a5 7e3a 1d40 4dbb
000001b0: cf42 18bc d09b 663c 0cab 92b8 d547 39bc
000001c0: d8b6 df3c aa68 9d3a a7ea 3c3c 5e7f 3338
000001d0: e35f 1cbc 7d98 533c 1e11 0b3c 8638 503a
000001e0: edbb 453c 6cd6 8e3c e059 e53b 0d89 4c3c
000001f0: 5550 dd3c c61d 013c 67a8 8ebb 2198 103b
00000200: 36b1 6936 7458 f23b e4dc 233d d46d bf3c
00000210: 6eab 833d 4d19 963d 3c7f da3c ce03 e43d
00000220: 5732 ec3d 40e5 c83c 2081 1f3e e4f6 253e
00000230: 929d c63c a9a3 043d 8c61 7e3d 1004 70bb
00000240: 1914 5d3a 7c03 513d a421 fdbb bdd6 9b3c
00000250: 0bfb 993b a4a9 c2bb 6956 4e3d 40e3 9dbc
00000260: b057 013b a9b3 ce3c 709c 733d 16ba 09bc
00000270: 564d fabb ad68 f73c 3755 58bc 1e14 d33c
00000280: ab91 14bd 5d51 46bc 7333 903d f3fb 66bd
00000290: a410 5fbb 4068 e63c 924d a93d f7e5 2f38
000002a0: d493 6abc b8ab 893c 9be7 3f3c e68e ff3c
000002b0: d435 9ebd a2fe d53b 48a3 b13d c51e d5bd
000002c0: f78c d73b 9d50 e43c 2083 debc 8bb2 94bb
000002d0: f8dc e2bb acb8 a1bd fea3 173c 989a f93c
000002e0: 5c6d 09be da6e fa3b 9cef a53d 55ce 14be
000002f0: 0e4a 0d3c 325d 20ba a498 2ebb fd47 feb9
00000300: 9c8b bebc 3539 1a3b 1c7b c9bb 34e3 edbc
00000310: fd92 59bb fe34 ecbb 70e1 cfbc 2be1 c9bb
00000320: b3f1 88bb a5bb dcbc a1cb 67bc 43c8 eaba
00000330: 612b 9cbc 1065 81bc 4277 c3bb 796b a7bc
00000340: 49bc 65bb 8a4c 3d3b bf32 b8bc 67a7 503c
00000350: 4bab 173c 6075 cbbc 0b2a e53c 3bc1 413c
00000360: 8dd4 2c3c 9f1c 94bc 855e 86bb d04d 363c
00000370: 3b0c 3ebb 41f5 0c3c f8f8 2e3c 9149 943c
00000380: 1f57 713c b9a9 1d3c dc8b 1e3d c219 9c3c
00000390: 6203 e3bb 557f 55bc cd46 26bc d2cb 21bc
000003a0: dc3d 25bb a2f3 a6bb 370b 21bc dc56 113c
000003b0: f1c3 35bb 2911 4bbc d5ec af3c 03c3 d3ba
000003c0: 7cce 4b3c 36ba 1bbb e26e 31bc d0fa 5c3c
000003d0: 48e5 c63b d675 91ba 8097 523c cdcb 613c
000003e0: fac3 aa3b b7d2 583c c57f be3c d1c6 bc3b
000003f0: 9393 8dbb 4484 343b 1c9e a839 a07e a13b
-0.0036255156 0.0026612587 0.00017506751 0.002696106 0.039991815 0.022991974 0.05634941 0.07594891
0.027451655 0.10067712 0.11892851 0.025888257 0.14265272 0.16499326 0.026145907 0.026691288
0.07015127 -0.0016213967 -0.0069902046 0.060562223 -0.0042649196 0.007652112 0.015696265 -0.0017622085
0.035703193 -0.0069969133 0.006716881 0.02049321 0.0661611 -0.005768397 -0.014159117 0.038504835
-0.009963993 0.016088864 -0.025781667 -0.008839332 0.057464734 -0.044573672 -0.0001236054 0.02442519
0.08757878 0.0033460362 -0.020059332 0.023911124 0.014553483 0.021523472 -0.06842419 0.009406509
0.07345966 -0.0940457 0.00919218 0.024850335 -0.021115536 -0.000117467185 -0.011811748 -0.0726716
0.0131478645 0.022637216 -0.12764901 0.01066898 0.070059136 -0.13852946 0.011239329 -0.000883845
-0.0020976788 0.0006242815 -0.020631697 0.0034247166 -0.003788839 -0.02607825 -0.002883962 -0.0038829593
-0.023380395 -0.005540675 -0.00024748425 -0.025041858 -0.012868581 0.0031145357 -0.017497605 -0.014394021
-0.0032743441 -0.018753208 -0.0011398939 0.006047829 -0.020489236 0.015659159 0.013869476 -0.022323728
0.031473193 0.01712654 0.0109537225 -0.015068941 -0.0023552997 0.01195163 0.00090022926 0.0112216985
0.011912951 0.022737455 0.018163862 0.011148068 0.043722976 0.022607582 -0.0065380256 -0.0101737855
-0.008579045 -0.009670599 0.0009714032 -0.0031318732 -0.009293272 0.0140752345 -6.9936825e-05 -0.01130863
0.027308866 0.0012009342 0.011530555 4.2795546e-05 -0.009544346 0.012914774 0.008487968 0.0007942993
0.012068731 0.017436229 0.0069992393 0.012483847 0.027015844 0.007880634 -0.004353571 0.0022063332
3.4822856e-06 0.0073957983 0.04000558 0.0233678 0.06429182 0.073290445 0.026671998 0.11133538
0.11533039 0.024523377 0.15576601 0.16207463 0.024245057 0.03238264 0.062104747 -0.0036623515
0.0008433476 0.051028714 -0.0077249575 0.019023294 0.004699116 -0.005940633 0.050375376 -0.0192734
0.0019736104 0.025232153 0.059475362 -0.008406183 -0.0076386137 0.03020128 -0.013203911 0.025766429
-0.036271732 -0.012104359 0.07041063 -0.05639262 -0.0034037018 0.028125882 0.082667485 4.1937423e-05
-0.0143174715 0.016805515 0.011712934 0.031196069 -0.07725111 0.0065305987 0.086737216 -0.104062594
0.0065780836 0.02787047 -0.027162135 -0.0045378855 -0.006923314 -0.078965515 0.009255407 0.030469224
-0.13420624 0.007642609 0.081023425 -0.14531834 0.008623613 -0.0006117403 -0.0026641274 -0.0004850029
-0.02325993 0.0023532633 -0.006148709 -0.029039003 -0.0033199184 -0.0072084656 -0.025376052 -0.0061608753
-0.0041792034 -0.026944945 -0.01414767 -0.0017912466 -0.019063653 -0.01579526 -0.0059651444 -0.02043699
-0.0035054854 0.0028884732 -0.022485135 0.012735224 0.009257148 -0.024836242 0.02797415 0.011825855
0.010548723 -0.018080054 -0.004100623 0.01112695 -0.002899899 0.008603395 0.010679476 0.018101485
0.014730244 0.009622985 0.0387076 0.019055251 -0.0069278935 -0.013030847 -0.010148716 -0.009875255
-0.0025213873 -0.0050949613 -0.009829334 0.008870807 -0.0027735198 -0.012394228 0.021475235 -0.001615614
0.012439366 -0.0023762113 -0.010829659 0.013487533 0.006069813 -0.001109774 0.012853503 0.0137815
0.0052113505 0.013233832 0.023254285 0.0057610055 -0.0043205707 0.0027544657 0.00032161258 0.004928425

model/batch_normalization_1/batchnorm/mul_1;model/conv1d_1/Conv1D/Squeeze;model/conv1d_1/BiasAdd;model/conv1d_1/BiasAdd/ReadVariableOp;model/batch_normalization_1/batchnorm/mul;model/conv1d_1/Conv1D f4 [96, 1, 3, 96]
00000000: f405 12bd 93ca dabc cf4e b43c 0ca2 febc
00000010: 1e86 fc3c 391c 433c 04d8 253d e747 38bc
00000020: 9ae1 edbc 5186 743d 4fc3 92bc de5a e83c
00000030: 298c 87bc 63a2 13bd 6efe 533c 53d5 513c
00000040: 644c 24bd 02f6 9abd e3f9 3a3d a789 26bd
00000050: c7da 3cbc 974b a03d df3f 8a3d 370d 013d
00000060: 93ac aebc 136c 4f3c 25e5 19bd b186 1ebd
00000070: eead 27bd e292 b4bc 284d f1bc cc5c fcba
00000080: 3a0d 28bd c8a3 fabb 77e5 fcbb 4377 a13d
00000090: 5588 84bd 28e1 16bd 37e1 02bb 10a6 0ebb
000000a0: b763 28bb 4cc0 a33d 3de3 8cbc cbde 61bc
000000b0: b0ef 1ebc a269 dfbc 4743 e1bc 5f67 cbbc
000000c0: db25 ec3c e0f3 51bc 6296 5e3c fd59 ad3d
000000d0: 139e 17bd 1263 103d 14c4 a03c a7d9 64bb
000000e0: 7a4e fdbc f73c 533d 0872 28bd 38c0 e73d
000000f0: 4ad3 6d3d 9417 9dbc cac4 b73c 15b1 55bc
00000100: 7395 79bd bd35 423d ace0 06ba 7acc 7ebd
00000110: 4357 27bd 7f7c 0fbd a6b2 6f3c 2173 1f3d
00000120: 4c13 2fba 423a 3c3b 907c ecbb 5d37 2cbd
00000130: 42a0 9bbd a35a 06bd 24bf 2bba 6552 85bc
00000140: 5e43 0bbd d979 29bd a18f fbbc cff3 053d
00000150: 3c65 55bc b308 353c bc94 8bbc d9da b93d
00000160: be2d 1fbd 2ef6 26bc c6c6 5fbc e59d a1bc
00000170: 3d49 16bd be2f 5b3d c64a a4bb d805 163d
00000180: 9783 0abd 2942 9fbc 4366 013d fe47 09bd
00000190: ad06 203d 6abd b13c c323 273d 4cf8 b0bc
000001a0: 5ae3 c7bc 8413 893d 6ce4 65bc 1d2f 113d
000001b0: 2177 92bc e085 07bd 95a5 7e3c c5e7 8d3c
000001c0: 624b 21bd 5fbb 90bd fd63 543d bd8f 26bd
000001d0: 336e a4bb 90ae a03d 28f9 8f3d dfe0 d33c
000001e0: aceb bcbc 53dd af3c 0c58 1ebd b6a4 0dbd
000001f0: b207 37bd 34d2 99bc 180a 1cbd cf71 523b
00000200: ae7a 0dbd b8e6 65bb 9563 ec3a 240c 9e3d
00000210: 9f02 6ebd 8d71 0fbd 123b 693b 50ad 863b
00000220: f3c3 9e3b 9791 ac3d 76bc b3bc 53ae 1fbc
00000230: 755f d6bb 7f6e 08bd 6363 a3bc cf82 cebc
00000240: bd33 083d 6be6 3dbc 93b1 a53c ecbd ab3d
00000250: 815b febc a06a 2a3d 0379 b43c e88c d43a
00000260: 7deb e5bc a9b6 4d3d 71fa 32bd 09a6 ea3d
00000270: 95d8 6a3d 1eb2 83bc 4a5a ee3c f27a eebb
00000280: 0ae1 79bd e056 513d d8a8 2d3b 15b7 79bd
00000290: 0cf8 31bd 4fa3 0cbd c50b 8f3c c79b 243d
000002a0: b40d 4bbb a7db d23b ead7 7bb7 5bfb 35bd
000002b0: 53a6 a3bd e64f d3bc 9f55 3a3a f47b 85bc
000002c0: a60b 18bd f8bf 32bd 1174 fabc 1577 243d
000002d0: 5c32 9abb 4838 8c3c ef04 d1bc 48b0 c43d
000002e0: 73f7 11bd 462b dabb 5c00 67bc f4d0 b2bc
000002f0: 514a 2fbd dbd9 5f3d 0ca9 e339 42f5 283d
00000300: 2ff1 d2bc 6322 13bc bfe1 0a3d 55cb d2bc
00000310: 8b04 f53c bd29 d03c 0c20 0a3d 8a6b 88bc
00000320: e320 86bc 7fbe 993d 5cd5 31bc 0afd 093d
00000330: 8d3c 8dbc 2979 c6bc 8cda 9c3c 89b5 763c
00000340: 42b3 2abd 23f3 9abd 1b07 373d c319 d4bc
00000350: 372f 40bc 16b9 913d 6a75 853d ab89 973c
00000360: eee2 86bc db47 dd3c 2b8d 14bd 411e d7bc
00000370: e98c 23bd caee 80bc 4df6 01bd b150 073c
00000380: c440 e3bc 9509 02ba 6786 1f3c 2ade 893d
00000390: b21d 7ebd 9c6c c6bc 12dd 3e3c 33f6 223c
000003a0: e21a 263c 834c 9f3d 6e17 bfbc 72f1 84bb
000003b0: 42f9 d5bb 4783 b5bc fdd5 91bc e6e4 bcbc
000003c0: 5ba4 e63c b8e4 33bb 24b6 b73c 051b 9c3d
000003d0: 1924 e3bc 576f 103d d9eb bc3c c641 41bb
000003e0: d54a 9fbc fff9 293d b102 25bd 2019 de3d
000003f0: ed04 5e3d aaa4 3bbc 1ced fc3c 0bd2 323b
-0.03565021 -0.026707923 0.022010235 -0.03108313 0.03082567 0.011908584 0.04048921 -0.011247612
-0.02903824 0.059698407 -0.017915396 0.028363641 -0.016546326 -0.036043536 0.012939079 0.012807208
-0.040111914 -0.075664535 0.045648467 -0.04065862 -0.01152677 0.078269176 0.06750464 0.031506743
-0.021322524 0.012660044 -0.037572045 -0.03870267 -0.040937357 -0.022042695 -0.029455736 -0.001925373
-0.04102824 -0.007648919 -0.007717784 0.078840755 -0.06471316 -0.03683582 -0.0019970664 -0.0021766461
-0.00256942 0.07995662 -0.0171982 -0.013786028 -0.009700701 -0.02727205 -0.0274979 -0.024829565
0.028826645 -0.012814492 0.013585659 0.084644295 -0.037015986 0.03525073 0.019624747 -0.003491977
-0.03092121 0.051571812 -0.041124374 0.1131596 0.05806283 -0.019176282 0.022432704 -0.013042708
-0.06093354 0.04741453 -0.0005145173 -0.062206723 -0.040854704 -0.035030838 0.014629995 0.038928155
-0.00066785957 0.0028721248 -0.0072169974 -0.042044986 -0.07598926 -0.03280128 -0.00065516145 -0.01627464
-0.033999793 -0.04137597 -0.030708136 0.032703217 -0.013024624 0.011049437 -0.017038696 0.09074945
-0.038861983 -0.01019053 -0.013658231 -0.01972861 -0.03669094 0.053512327 -0.0050137965 0.036626667
-0.0338169 -0.019440727 0.031591665 -0.033515923 0.039068867 0.021696765 0.04080559 -0.021602772
-0.024400402 0.066931754 -0.014031511 0.03544532 -0.01787907 -0.033086658 0.0155424075 0.01732243
-0.03937853 -0.07066988 0.05185317 -0.040664423 -0.0050180196 0.07845795 0.07029945 0.025864063
-0.023061596 0.02146784 -0.038658187 -0.03458091 -0.044685073 -0.01877699 -0.038095564 0.0032111292
-0.034540825 -0.0035080146 0.0018035049 0.077171594 -0.05810797 -0.0350204 0.0035588187 0.004110016
0.0048451363 0.084262066 -0.021940451 -0.009746152 -0.006542141 -0.033308502 -0.019944852 -0.025208859
0.033252466 -0.01159058 0.020226276 0.08385834 -0.031049492 0.04160559 0.02203036 0.001621631
-0.028066391 0.050223026 -0.04369587 0.1145745 0.057335455 -0.016076144 0.029095788 -0.00727784
-0.06100563 0.05110824 0.0026498344 -0.060965616 -0.043449447 -0.03433543 0.017461667 0.040187623
-0.003098351 0.006434876 -1.5011037e-05 -0.044429164 -0.07990708 -0.025794934 0.00071080955 -0.016294457
-0.037120484 -0.043640107 -0.030572923 0.040152628 -0.0047057103 0.01711668 -0.025515048 0.096039355
-0.035636377 -0.0066579906 -0.014099207 -0.021828152 -0.042795483 0.054651123 0.00043422764 0.04124952
-0.02574977 -0.008980366 0.033906695 -0.025731722 0.029909393 0.025410527 0.03372197 -0.016652841
-0.016373103 0.07507037 -0.0108540915 0.033688582 -0.017240787 -0.024227696 0.01914718 0.01505793
-0.04167486 -0.07565906 0.04468451 -0.02589119 -0.011730007 0.071153805 0.065165356 0.018498262
-0.01646563 0.027011802 -0.03626744 -0.026259543 -0.039929304 -0.015738863 -0.03172903 0.008258984
-0.027740844 -0.0004960534 0.009736634 0.067318276 -0.06204004 -0.02422171 0.011649387 0.009946394
0.010138245 0.07778265 -0.023326602 -0.004057103 -0.006529958 -0.022157324 -0.017802233 -0.023058366
0.028154543 -0.002744956 0.022425719 0.07622341 -0.027727174 0.035262432 0.02306168 -0.0029488667
-0.019444862 0.04149818 -0.04028577 0.10844636 0.054203916 -0.011452833 0.030874781 0.002728584

model/gru/gru_cell/strided_slice_4 f4 [96]
00000000: 790d 4d3b feda e03c 1350 063e 5668 84bc
00000010: fb74 6c3c 2e2b 43bd 71bf 8dbd 1712 4d3c
00000020: da5e 773d 8e0a d5bc 7a52 a7bb db9f 0cbd
00000030: 2c77 5ebb fbe5 8bbc 899a 0a3d c3b5 9cbd
00000040: 5f68 d3bc a8f4 203c 6865 80bd ca3d 123e
00000050: 84f3 1a3c d7e7 043d fece 22bc 1b5d eb3d
00000060: af83 b73d fc61 d23c 60bf 133c 36f8 b5ba
00000070: 5602 eebd 5f20 eb3c a234 d53d 2b74 243d
00000080: 54d4 d9bb 5dd0 13be 41ed b9bd eb95 173d
00000090: 7ee7 cc3c 61db a9bc 6115 52bd 2876 bcbd
000000a0: 1349 26be 5939 0ebd a144 2dbe 5bbb 74bd
000000b0: 5882 733d 7198 92bd 5d40 01bd 7c6e 91bd
000000c0: dcd0 2dbe 3a09 7ebb dab9 7e3d 3531 04bd
000000d0: 4c56 023d 6526 a1bd 52e5 993c 62c6 f6bb
000000e0: dd50 0e3b 3da7 e3bd ef27 3dbd b3ac d0bd
000000f0: cf61 32bc 212a 153e da19 323d bece 23bd
00000100: 498f 8d3b 5923 7abc 7e7a fb3d 3a0f bdbc
00000110: 80eb 96bd 06cc ac3d 06cf 3f3a 208c 11be
00000120: 118a 4d3b a371 00bc 3089 c4bd f197 babc
00000130: d263 acbc 6a4d d03c 6ba0 f7bc c745 8dbd
00000140: 6f8a 0b3e 5104 323d 3013 2fbd b410 d13c
00000150: 3330 e6bd 1b96 e2bd 1642 f2bd f199 09be
00000160: 5324 b6bd ccbd a33b e1c6 8fbd a403 623d
00000170: aa86 7abc dc22 433d 7964 38bc 4d9f ae3d
0.0031288548 0.027448174 0.13116483 -0.016163033 0.014432187 -0.0476486 -0.0692128 0.01251652
0.060393192 -0.02600601 -0.0051062675 -0.034332138 -0.0033945544 -0.017077437 0.033838782 -0.07651856
-0.025806604 0.009823956 -0.06269342 0.14281383 0.009457473 0.032447662 -0.009937046 0.11492368
0.089606635 0.025681488 0.009017795 -0.0013883177 -0.11621539 0.02870196 0.104104295 0.04014985
-0.006647626 -0.14434953 -0.09078456 0.037008207 0.025012728 -0.02073449 -0.05128992 -0.09202224
-0.16238813 -0.03472266 -0.16920711 -0.05974899 0.059450477 -0.07157982 -0.031555522 -0.07101151
-0.16974205 -0.0038762824 0.06218896 -0.03227349 0.03182058 -0.07868651 0.018786106 -0.0075309733
0.0021715679 -0.111158825 -0.04618066 -0.1018919 -0.010887577 0.14566852 0.043481685 -0.039992087
0.0043200594 -0.015267217 0.12279223 -0.02307855 -0.07369137 0.08437352 0.00073169207 -0.1421361
0.0031362812 -0.007839593 -0.09596479 -0.02277753 -0.021043692 0.025427539 -0.03022786 -0.068980746
0.13627027 0.043461148 -0.042742908 0.02552066 -0.11239662 -0.110637866 -0.11829011 -0.1343763
-0.08893647 0.004996991 -0.07020355 0.055179253 -0.0152908955 0.047640666 -0.011254423 0.08526478

model/gru/gru_cell/strided_slice_3 f4 [96]
00000000: b63d 7b3c de0c c13d 4f0f 823e fff5 263e
00000010: cacb 273d cabd 5c3d 5c10 2b3e 46a7 63bd
00000020: de81 203e 4d93 f23d 54bb 423d 4ed7 4f3d
00000030: 537c 0b3e 4dd7 fb3d dc44 123e d58d bdbb
00000040: 144e 163e 7f87 e93d a4f4 f33d 93d7 a03e
00000050: 703e 9e3c 6816 923e d5c8 ba3b fb7e c43d
00000060: 58fc 703e 5e20 a13d 055f ae3d 683c 313e
00000070: cdf1 1f3e 8504 f93d 4357 843e bfdd 8c3d
00000080: 3458 ab3d 442d 953d 1ca3 bbbd 44f1 e73c
00000090: 2576 483e 1423 b7bd 3415 dcbd c677 c9bb
000000a0: d862 273d 7d92 413e 920b 1f3c 05bd 9b3b
000000b0: 128f 643e 189b f5bb 9ba1 40bc 368b c43d
000000c0: 8699 123e b6b8 553e 4501 883e cfd4 f73d
000000d0: a612 30bc 25a8 80bd fdac 8d3d 939c c63d
000000e0: 3029 b0bd e271 b93d c07d bd3c 3f78 d5bc
000000f0: 4a7d 003e a4f0 bc3e 0793 2f3e bc8c db3d
00000100: 9624 303e 3871 733e 50ba 883e 4497 f43d
00000110: 419f 22bd 853f 763e 3906 863e 0275 05bd
00000120: ea88 263d 3d05 15be 05c0 883d 9959 00be
00000130: 61da 323e 381a 5a3e fe6e 29be 9ef0 febc
00000140: ddb8 623e b90d 743e 5597 fd3d 8454 e53d
00000150: 3651 723c 0d0b 30be 6c57 7fbd 640f 41bd
00000160: 8568 a3bc 5fee 253e 2fe5 08be 59bc 063e
00000170: 53f3 333d 04d6 283e 5394 573e dd34 8e3e
0.015334537 0.09426282 0.25402305 0.16304778 0.040965833 0.053891934 0.1670546 -0.055579446
0.1567454 0.11844502 0.04754193 0.05074244 0.13621645 0.12296925 0.1428408 -0.00578473
0.14678222 0.11402797 0.11911896 0.3141447 0.019316882 0.2853272 0.0057002106 0.09594532
0.23533762 0.07867502 0.08514217 0.173082 0.15619583 0.12159065 0.25847825 0.06878232
0.08366433 0.07284024 -0.0916197 0.028313287 0.19576319 -0.089422375 -0.10746232 -0.0061483113
0.04086575 0.18903537 0.009707348 0.0047527575 0.22320202 -0.0074952953 -0.01175728 0.09596865
0.14316377 0.20871243 0.2656347 0.12101137 -0.010746634 -0.06282071 0.069177605 0.09697833
-0.08601606 0.090549245 0.023131251 -0.026058314 0.12547794 0.36902344 0.1714593 0.10720202
0.17201456 0.23773658 0.26704645 0.11942914 -0.039702658 0.24047668 0.26176623 -0.03258229
0.040657915 -0.1455278 0.0667725 -0.12534179 0.17466117 0.21299064 -0.16546246 -0.031120595
0.22140832 0.2383336 0.1238238 0.11197761 0.01478987 -0.17191716 -0.06233923 -0.04713382
-0.0199473 0.16204213 -0.13368677 0.13157786 0.043933224 0.1648789 0.21052675 0.27774706

model/gru/gru_cell/strided_slice_5 f4 [96]
00000000: e30e 9a3d ebdd 793b 241a 203d 1ceb 6ebd
00000010: d84b 1e3d 789b cfbb 69d2 073d a381 6b3d
00000020: 17b1 473d c5cc debc 2b0e 61bc 0b54 31bd
00000030: 1ec2 46bc 494d 0dbc e029 c4bc 8c47 283d
00000040: d52e 883c 859c 313c dcca 0c3c 85a7 ec3b
00000050: b33e 4b3d 70f2 91bd 2628 c4bc 0063 363d
00000060: ba25 21bc 0a15 963d 4bb7 56bc 38c0 37bd
00000070: 134a 38bd 3de9 13bc ba05 a3ba 3b9a 8a3c
00000080: 8271 0c3d 7b80 c4bc d1d4 713c f849 a9bb
00000090: 4cb5 8cbd b296 58bc 6a9f 25bb dfcb 46bd
000000a0: bbc5 2e3c b407 0ebd 6a72 d43c 1eb2 a4bd
000000b0: e0ac b73c e8bf 23bd 5cc7 f6bb 0995 34bc
000000c0: 45a0 ae3c d1ad 84bd f1f2 673d 164b 95bc
000000d0: cd73 b2bc 2c5c d7ba 1bbd 773d 4f53 9d3c
000000e0: c970 95bc 8633 1cbc cca7 593d 67c4 6f3c
000000f0: 05d3 d5bc 1f29 073d 25bb 273d b27c 16bd
00000100: 976d 203d 19fd 79bc 0b1f 00bc e1d7 393d
00000110: c9c9 13bd e03c babd 4fa8 10bd b5ba ad3d
00000120: 7c68 8fbc f425 6ebc 56b4 ab3d bf57 813d
00000130: 9f1e 5e3d c6b3 7dbd 202e 2e3c 3ef7 e53b
00000140: 0dfd f03c 54fc 7fbc f074 453d 20da 3dbb
00000150: 3ff2 21bc 6966 673b 3142 2d3d 824f b0bc
00000160: d9a4 21bb 0dbf 4fbc c9eb 013c 8fdd 0cbc
00000170: 6ecc 833c bec1 04bc a6c8 333d 45a1 3f3d
0.07522371 0.0038126658 0.03908743 -0.058329687 0.03864655 -0.006335672 0.033159647 0.057496678
0.04875287 -0.027197251 -0.013736288 -0.04329304 -0.012131242 -0.008624383 -0.023945749 0.041083857
0.016623894 0.01084054 0.008593287 0.0072221183 0.04962034 -0.071263194 -0.023944926 0.044528008
-0.009835655 0.07328232 -0.013105224 -0.04486105 -0.044992518 -0.009027776 -0.001243762 0.016919246
0.034287937 -0.023987046 0.014760212 -0.0051662885 -0.06870517 -0.013219522 -0.002527202 -0.04853427
0.01066726 -0.034675315 0.025933463 -0.08041786 0.0224213 -0.039977938 -0.0075310897 -0.011021861
0.021316657 -0.06478465 0.05662817 -0.01822428 -0.021783734 -0.0016430668 0.06048308 0.019204764
-0.018242257 -0.0095337685 0.05313854 0.014634228 -0.026101599 0.0329982 0.04094996 -0.036740012
0.039167013 -0.015258097 -0.007819901 0.045371894 -0.03608111 -0.09093642 -0.03531676 0.08482877
-0.017505877 -0.014535416 0.08384006 0.06315564 0.05422842 -0.061939023 0.010631114 0.007017999
0.029417539 -0.015624125 0.048207223 -0.0028969124 -0.009884416 0.0035308844 0.042299453 -0.021522287
-0.0024664907 -0.012679827 0.007929751 -0.008597746 0.01608869 -0.008102832 0.043892525 0.046784658

model/gru/gru_cell/strided_slice_11 f4 [96]
00000000: 5a7b a13d 083a 063d 31a8 af3c fdb1 84bd
00000010: 38f3 763d 61b0 26bc 0334 8a3a 47af ff3c
00000020: 3c66 673d 96a9 963b bb65 503c 5215 35bd
00000030: 7e05 95bc bab1 0c3d 7796 41bb cfcf 01bc
00000040: 2f2c 99bb 9500 ab3c 02f5 813c 4929 0a3d
00000050: fe59 1e3d b4d2 2cbd a214 eabc 8f83 343d
00000060: b45c eabc 74a0 583d 4a6e abbc 07a6 82bb
00000070: a30b 36bd 3f73 c2bb 45d1 d83c beb5 5fbc
00000080: 2262 953c 0825 bbbc 99e6 fb3a 2d9c 02bd
00000090: b887 64bd af50 f4bb 5a8b 2a3b 3568 bbbc
000000a0: 7228 dd3b 9681 cfbc 8d34 213c 3703 25bd
000000b0: 93e8 f5ba 89cd 73bd 7c40 2b3d 78c2 66bc
000000c0: 3280 533c 2a77 b0bc 6e42 a73c a75a a93c
000000d0: 93a8 043b cd03 133d 0ced a63c 5b5a cd3c
000000e0: 0ca4 283c f29c 243c de26 9a3d 3df3 5fba
000000f0: edca 70bd 1f43 b73b 3c83 1e3d 79d6 24bc
00000100: c0fc 1b3d f71a 08bd d030 d33c 377a b13c
00000110: fac5 2bbd 29f7 1dbd 3186 82bc 62a4 7e3d
00000120: f43c 52bd f46a 09bc ded1 bb3d e214 393d
00000130: 98b9 413d 0605 abbc ce5e 16bd 4e69 333a
00000140: 1731 643c 1c77 d3bc a437 753d 9598 bbbb
00000150: 5c35 9fbc d91a 0cbd f45e e43c fefc 73bd
00000160: 78e8 533c 7d00 6d3b 1670 9dbc 8e0c c0bc
00000170: e110 4ebc 7bb4 a03c c35f c33c 4b02 373d
0.078848556 0.032770187 0.021442505 -0.06479261 0.060290545 -0.010173888 0.0010544065 0.031211508
0.056493983 0.004597853 0.012719567 -0.044209786 -0.018191095 0.03434918 -0.0029539147 -0.007923081
-0.0046744565 0.020874301 0.0158639 0.03373078 0.038660042 -0.04219313 -0.028574292 0.044070777
-0.028608657 0.052887395 -0.020926613 -0.003987077 -0.04444469 -0.0059341486 0.026466975 -0.013654171
0.01823527 -0.022844806 0.0019218504 -0.031887222 -0.055793494 -0.0074559073 0.0026023001 -0.022876838
0.006749206 -0.025330346 0.009839189 -0.04028627 -0.0018761329 -0.059522185 0.041809544 -0.014084451
0.012908982 -0.021541197 0.020417418 0.02067311 0.002024208 0.035892297 0.020376705 0.025067499
0.010293018 0.010047184 0.075269446 -0.000854302 -0.058787275 0.0055927183 0.038699374 -0.0100609
0.038082838 -0.03322884 0.025780112 0.021664722 -0.041936852 -0.03856579 -0.015933128 0.062168486
-0.05132766 -0.008387316 0.09170888 0.04518593 0.047296137 -0.020876419 -0.036711507 0.0006844
0.01392772 -0.025813632 0.059867516 -0.0057249763 -0.019434623 -0.03420529 0.027877308 -0.059567444
0.012933843 0.003616362 -0.019218486 -0.023443487 -0.012577266 0.01961731 0.023849374 0.04467992

model/gru_1/gru_cell/strided_slice_4 f4 [48]
00000000: a556 fc3d a665 8ebd 516e b23d 4266 913c
00000010: 0109 d13d a606 d6bc 4ef3 a3bd a8c0 02bd
00000020: 3a12 0537 e57a e13c 4e0f 17bd 4d17 87bd
00000030: 55d9 6c3c 1282 87bd 7f72 35bd 5a10 70bd
00000040: 3ad1 e7bd 0ccc 313d e3b3 243d 03eb aebd
00000050: b4ab 043d e3b7 3d3e 5214 d73d d9ee bd39
00000060: a0fb cb3d 3469 e03c bbfc bebd c155 913d
00000070: acb1 6f3d b555 353e c93d a0bc 35eb 7e3b
00000080: 0de3 b0bc 9594 bc3d aeec a0bd 2568 cb3d
00000090: c025 873d 0e10 683d f662 5cbc 7e31 6fbd
000000a0: 93cb 913c c25e 513c fefd f8bc 4c77 843d
000000b0: 0d8e 68bd bd89 1b3e b874 8bbd 00da 0bbd
0.12321214 -0.06952982 0.087124474 0.017748956 0.102067955 -0.026126217 -0.08005391 -0.031922013
7.9316615e-06 0.027524421 -0.03687983 -0.06596241 0.014456113 -0.06616606 -0.044298645 -0.058609344
-0.11319204 0.043407485 0.040210616 -0.08540919 0.03239031 0.18527178 0.10501923 0.00036226845
0.09960103 0.027393915 -0.09325548 0.070964344 0.05851905 0.17708476 -0.019560711 0.0038897519
-0.021592641 0.09208027 -0.07857643 0.09931973 0.06598997 0.056655936 -0.0134513285 -0.05839681
0.017797267 0.01277894 -0.03039455 0.064680666 -0.056776095 0.15189262 -0.06809372 -0.034143448

model/gru_1/gru_cell/strided_slice_3 f4 [48]
00000000: 464b 9cbd a71d fbbd 1737 a83d 603f e33d
00000010: 7f78 503e 00df 213d 522c 1e3e 9317 78bd
00000020: 2525 f63d 00af 623d 71d4 9e3e 5a8e 9cbd
00000030: 9828 5a3e ffd7 293e 7679 113e 5e94 d63d
00000040: 1aa8 0bbd 44ee 3cbd bd45 fc3d f71c 753e
00000050: e452 8abd 62cb b13d f8bf 093e 08b3 7a3e
00000060: 7db4 71bc 24cb 0c3e 0c6f d2bc 7101 3c3e
00000070: a71c 0e3e 2852 063e 55d9 283d c499 063e
00000080: 890d 793e 66f4 ea3c 3f97 c93d c11e 7c3e
00000090: 1474 e23d 6aaf 64bd 19a8 de3d aa1a cc3d
000000a0: 9c27 013e 283c bd3d 3ffb 9e3d 2466 a93d
000000b0: ce9b 203e b0d0 9e3b c64a b7bc 282d 153e
-0.07631545 -0.12261515 0.082136326 0.11096072 0.20358466 0.03951931 0.15446594 -0.060569357
0.120188035 0.055342674 0.31021455 -0.07644339 0.21304548 0.16586302 0.1420649 0.104775175
-0.03409586 -0.046125665 0.12317989 0.2393683 -0.067540914 0.0868137 0.13452137 0.24482358
-0.014752504 0.13749367 -0.025687717 0.18359925 0.13878118 0.13117278 0.04122289 0.13144594
0.2432157 0.028680991 0.09843301 0.24621107 0.110572964 -0.05583135 0.10871906 0.09966023
0.12612766 0.092399895 0.07762765 0.08271435 0.15684435 0.004846655 -0.022374522 0.14568007

model/gru_1/gru_cell/strided_slice_5 f4 [48]
00000000: 220c 2fbb 2dd1 3dbd 2809 6f3d df05 afbd
00000010: 0942 523d 7267 62bd 2fff 8f3d f7b8 1e3c
00000020: dd53 4e3c 03e2 95bc ebf4 643e d4f7 a83d
00000030: 0e47 0a3e a80e 56bd c0a0 95bd 09c5 2f3d
00000040: ec90 4c3d 779d 6dbd 5f53 59bc 8116 3c3d
00000050: 6f5f 7abd 3d11 183e df20 a9bc 442c bbbc
00000060: f164 c2bc b36b 8ebb 9f61 ce3c 716e c63d
00000070: 6a4f 88bd 4d67 1dbd 2185 91bc 26a1 1bbd
00000080: 82d2 82bd 2984 273d 803f 67bd cc29 493d
00000090: 27b0 80bd 9973 80bc e9b7 423d f867 aa3c
000000a0: 69f5 dfbd 0b41 833d c117 073e 7753 f7bd
000000b0: 5f7d a8bd 9360 a3bc cf32 a43c 69a0 513b
-0.0026710113 -0.046342064 0.05835834 -0.08546042 0.051332507 -0.055274434 0.07031094 0.009687654
0.012593237 -0.018296247 0.22359054 0.082503945 0.13503668 -0.05226007 -0.07306051 0.042912517
0.049942896 -0.0580115 -0.013264506 0.0459199 -0.06112617 0.14850326 -0.020645557 -0.022848256
-0.023729773 -0.004346335 0.025193034 0.09689034 -0.06655772 -0.038428593 -0.017763676 -0.03799548
-0.063878074 0.040897522 -0.056457043 0.049112126 -0.062835984 -0.015680121 0.04753867 0.02080153
-0.1093548 0.0640889 0.13192655 -0.120764665 -0.08227038 -0.019943511 0.020043759 0.003198648

model/gru_1/gru_cell/strided_slice_11 f4 [48]
00000000: 596e 013c dbfb b9bc 4d3c d23c 2814 ccbc
00000010: 49cd 093d 14e7 b2bc 0419 6b3d 6343 7ebc
00000020: ca8f 033d 57d9 21bd 2e35 403e 27ab 13bd
00000030: 6f65 0c3e 6b8a 05bd a3e1 86bc 09a2 153d
00000040: 1709 533c b546 77bc 2ac3 c6bc dfb5 e73c
00000050: 8145 c13b 1be6 6d3d 6e61 43bd 2da8 8bbd
00000060: a71a cdbc d59c 57bc f7b0 463d 00ea b23d
00000070: 9946 00bd 2264 6bbd fb20 c43c 0456 25bd
00000080: 420b 94bd 401a 063d e892 c13c 55ee 503c
00000090: 66e2 c1bd 365c 443c e640 64ba 10fb abbc
000000a0: 263a 40bd 50a3 8d3c 33ce 963d 8589 15bd
000000b0: 034c d0bb 30c6 e5bc 3646 cb3c ebb3 823a
0.007899844 -0.022703102 0.02566352 -0.024911955 0.03364304 -0.021838702 0.057396904 -0.015518996
0.03211955 -0.039513912 0.18770286 -0.036051895 0.13710569 -0.03260271 -0.016465014 0.036531482
0.012880585 -0.015092541 -0.024262983 0.028284965 0.005898178 0.058080774 -0.047700338 -0.06819186
-0.025037123 -0.01315995 0.04850861 0.08736038 -0.031317327 -0.05746854 0.023941508 -0.040365234
-0.0722871 0.032739878 0.02362962 0.012752135 -0.0946701 0.011984875 -0.00087071804 -0.02099374
-0.046930455 0.017289788 0.07363548 -0.036508102 -0.0063567176 -0.028048605 0.024813753 0.0009971833

model/batch_normalization_3/batchnorm/sub f4 [48]
00000000: 14f5 123d 7da8 5e3e 64d5 823c ce22 0fbe
00000010: b54f 89be 23ca dc3e ed9c 3bbf dae0 4bbd
00000020: d2f4 94be 3aad e0be 397f c0bf 4023 c13e
00000030: 95f3 27bf 112d e53c 28f5 7e3e 13e1 abbe
00000040: 9ed2 41bf 1066 90bd 6043 e0be 54e8 b9bd
00000050: 00fd 183b 6025 d2bd 0cb2 aabd 8e1a 573e
00000060: f060 d03e edad 7ebd b2f1 3dbe 0821 83be
00000070: c625 323e a73b 963d e00d cb3b 54a4 5f3e
00000080: 3962 40bd 7b72 06bf 25fd 183f 8f97 2bbe
00000090: af79 6c3e 8054 f8ba 848f 16be bceb 25be
000000a0: b52e b1bd 2fc9 cdbe 8e8f c6be a94d 0c3f
000000b0: 67cc 16be 1b29 81be e0e2 35bf b1cd 063f
0.035878256 0.2174396 0.015970893 -0.1397812 -0.26818624 0.43122968 -0.73286325 -0.049774982
-0.29093033 -0.4388216 -1.5038825 0.37722206 -0.6560605 0.02797559 0.24898207 -0.33570156
-0.75712 -0.07050717 -0.43801403 -0.09077516 0.002334416 -0.10261035 -0.08334741 0.21006224
0.40698957 -0.062177587 -0.1854923 -0.25611138 0.17397222 0.073355965 0.0061967224 0.2184003
-0.046968672 -0.52518433 0.5976127 -0.16757034 0.23093294 -0.0018946081 -0.14703184 -0.16203207
-0.08651487 -0.40192553 -0.387814 0.54806 -0.14726411 -0.25226673 -0.7104931 0.5265761

model/batch_normalization_3/batchnorm/mul f4 [48]
00000000: 031a 0540 f40f 0740 b178 1a40 efe7 2140
00000010: 1f2a 4f40 6533 1740 b706 2f40 68be 1540
00000020: 8888 2640 5152 1140 b77a 5f40 0f80 1440
00000030: bec1 1540 9dcb 3f40 803f 5140 c282 1f40
00000040: 9a75 2540 4ff4 f53f 5b26 1940 19e4 3240
00000050: 55b5 0740 99e6 0640 a23a f63f 56c7 2f40
00000060: 1220 1340 eb9c 2440 7b33 1440 00c0 2e40
00000070: b1d1 0d40 2a6b 0240 56fb 1640 6742 0340
00000080: d29d 5940 8017 0b40 d09e 6440 3f79 0640
00000090: 7a12 1740 91a9 0640 a9d9 0640 3cfd 1240
000000a0: 236f 4440 0793 1540 6177 1240 7a5f 1340
000000b0: 2533 1340 7c9c ea3f 3779 1540 90bc 2c40
2.0797126 2.1103487 2.4136164 2.529781 3.2369459 2.3625119 2.7347848 2.3397465
2.6020832 2.2706492 3.491865 2.320316 2.33995 2.9968026 3.2695007 2.4923558
2.5853028 1.9215182 2.392966 2.795172 2.1204426 2.1078246 1.9236643 2.7465415
2.2988324 2.5720775 2.315642 2.7304688 2.2159235 2.0377908 2.3590903 2.0509279
3.4002576 2.1733093 3.5721931 2.1011503 2.3605027 2.1040995 2.107035 2.2967062
3.0692832 2.3370988 2.2885363 2.3027024 2.2999966 1.8329005 2.3355234 2.699009

model/batch_normalization_2/batchnorm/sub f4 [96]
00000000: 800b e43e e3ab 51bf 8feb 28bf be51 5bbe
00000010: dc50 a7bc 8c19 973e f110 95bf 49ad 03bf
00000020: 8c93 dbbb 5a7d 50be 38f9 1d3f d209 55bd
00000030: 48c9 ec3d 612f 033f ab95 56be 4699 803e
00000040: 9b46 17bf 702c 033e 511e 633f 8ff2 87be
00000050: 4693 d3be 88d3 473e 09ac c73e ae67 193f
00000060: 40c6 313f f733 653e db3c 84be e3b8 083f
00000070: 2da9 12bf f1cb e83c 0ae9 50bf 691b a83e
00000080: 7e1e 1ebf 451e 86be 03b6 563e 90c2 29bf
00000090: a5c6 c23e 6780 f93d 7eba d73e 693d ef3d
000000a0: 1dd5 203f 6527 35be 1ac7 83be 88ad 09bf
000000b0: 98cd 4ebc 45bf 0ebf 3fb3 ab3d 7a9d b9be
000000c0: c08f f8be e3c8 3d3f 8e55 5dbe d65a ea3e
000000d0: 5821 5e3f 0e1c 483f 123a 6cbd 3efe d0bd
000000e0: 7644 7d3e f2c7 133e 34f5 ac3d 5082 c7bf
000000f0: bcf8 fdbd ec54 a9be 58a2 d3be eb8a 703e
00000100: 81cb 52bf 36af 253d 6449 003e c9f1 223f
00000110: a552 3fbd fc2d 03be 44f1 e03d 0ee0 a3bd
00000120: c098 26bd 06e4 6bbe 08e4 e63d 527e c63d
00000130: d442 f83e a8e9 e6bb f523 c43e 0357 4f3e
00000140: 9bf3 30bf 56c8 f93e 9164 34bf 7d00 44be
00000150: 85e5 13be 38a5 993c b30b debe 5051 203d
00000160: 734d 913f 9a98 e23e 8d24 dd3e 35be 1d3d
00000170: 2024 39bc 395b 843f bd1d 9f3e d495 09bf
0.44540024 -0.81902903 -0.65984434 -0.21417901 -0.020424299 0.29511678 -1.1645795 -0.5143629
-0.0067009386 -0.20360318 0.617084 -0.05201132 0.11561829 0.5124417 -0.20955531 0.25116938
-0.5909211 0.1280992 0.88718134 -0.26552245 -0.41323298 0.19514287 0.3899844 0.5992383
0.6944313 0.22383104 -0.2582768 0.53407115 -0.5728939 0.02841756 -0.8160559 0.32833412
-0.6176528 -0.2619497 0.2096787 -0.66312504 0.3804218 0.12182694 0.4213447 0.11681635
0.62825185 -0.17690809 -0.2573784 -0.5378041 -0.01262226 -0.55760604 0.08383798 -0.36252958
-0.48547173 0.74134654 -0.21614668 0.45772427 0.8676963 0.7816781 -0.057672568 -0.10204743
0.24733147 0.14431742 0.08445206 -1.5586643 -0.12400958 -0.33072603 -0.41334796 0.23490493
-0.8234177 0.040450297 0.12527996 0.63650185 -0.046709675 -0.1281051 0.10983518 -0.080017194
-0.040673018 -0.23036203 0.11273962 0.096920624 0.48488486 -0.007046897 0.38308683 0.20248036
-0.6912171 0.48785657 -0.7046595 -0.19140811 -0.14443024 0.01875554 -0.433683 0.039140046
1.1351761 0.4425705 0.4319195 0.038511474 -0.011300117 1.0340339 0.31077376 -0.53744245

model/batch_normalization_2/batchnorm/mul f4 [96]
00000000: 6db4 9840 3a37 a640 ca37 3c40 d246 5c40
00000010: 4ae6 a740 030d c640 601d c140 134e 8d40
00000020: 25f1 8740 8a67 c040 9fa5 c140 afeb b840
00000030: 636c 9b40 9133 1841 3ce4 9540 cc5f 0a41
00000040: c0d9 a540 0621 6f40 2e54 9e40 5439 2840
00000050: 3450 8a40 16cf 4f40 c3dd 9a40 4e64 5640
00000060: b1b7 6240 3ba1 5140 e94b a540 faa1 c440
00000070: 27df f040 09c5 8a40 2912 7640 54f6 5640
00000080: 6dfc 8240 4d64 c440 f1be ec40 6368 8540
00000090: 0921 8140 cdc2 c140 471e bd40 77e7 b940
000000a0: 3a43 8f40 40dc a240 dec7 4a41 dbbb 8f40
000000b0: 626c 4840 7133 ac40 d890 ab40 0447 ae40
000000c0: c9da a840 d1e3 7a40 c12a 7b40 689f af40
000000d0: 86d6 aa40 7328 9b40 2f84 af40 6064 a040
000000e0: 88dd 7140 843e e540 3f16 c440 c4c6 db40
000000f0: 64ed 8d40 8fce 4c40 69fb ac40 ff4f b640
00000100: 8738 cc40 645b 8440 f66f 3e40 cb89 8640
00000110: c432 d040 31aa 5940 d79e 7140 8dd1 ce40
00000120: 14a2 9e40 ba13 b640 72b9 9b40 570f 4840
00000130: 51f5 ce40 50ee 9d40 0434 7c40 0cac e940
00000140: a18e 5640 297e 8740 bbb5 da40 0abb a740
00000150: 493f ce40 1dd1 f640 0275 be40 f740 1b41
00000160: 8ab2 b340 3f4b 2040 9c9e 9140 9d1f 6140
00000170: 4b82 e440 2e88 9e40 3417 a940 5396 4340
4.7720246 5.1942415 2.940905 3.4418225 5.2468615 6.1890883 6.034836 4.4157805
4.2481866 6.012639 6.0514674 5.77877 4.856981 9.512589 4.6841106 8.648388
5.182831 3.7363906 4.947776 2.628499 4.3222904 3.2470145 4.8395705 3.349872
3.5424616 3.2754657 5.1655164 6.1447725 7.5272403 4.336552 3.8448584 3.3587847
4.0933137 6.1372437 7.3983083 4.1689925 4.0352826 6.0550294 5.909946 5.809505
4.4769564 5.089386 12.673796 4.4916816 3.1316152 5.3812795 5.361431 5.446169
5.276707 3.9201548 3.9244845 5.488209 5.338687 4.8486876 5.4848857 5.012253
3.7791462 7.1638813 6.1277156 6.8680134 4.4352283 3.2001073 5.4056897 5.697265
6.3819003 4.136156 2.9755836 4.2043204 6.506197 3.4010127 3.7753198 6.46308
4.957285 5.689908 4.8663874 3.1259363 6.467446 4.935341 3.9406748 7.302252
3.3524554 4.2341504 6.834684 5.241582 6.4452252 7.7130265 5.951783 9.703361
5.6155443 2.5045927 4.5506115 3.5175545 7.140905 4.9541235 5.2840824 3.05605

model/dense/BiasAdd/ReadVariableOp f4 [48]
00000000: 6039 903d f2b6 983d d9fd e03d d06a 063e
00000010: 0900 133e 295c 523d 49d6 543d 2d3a a33d
00000020: 3dd0 833c 9f61 c73c 387a ee3d cff2 293e
00000030: 99ee b13d e95a b03d 0d0a 093b c8d5 123e
00000040: 5e58 5e3d 2ac0 393e 066a b63b afaa e83d
00000050: ba85 803d fbc0 e53d 436c d63c f121 e33d
00000060: deaa 443d a348 033e 63da 903d 92ac 963d
00000070: 3764 6c3d e3de 653d fdae 593e 4bfa 0e3e
00000080: 6a4c a83d ac2e 593a d7e1 2f3e ebf2 c03d
00000090: 57d5 113e db33 463d 21ef 143d dec9 5a3d
000000a0: 4ded fc3c 8cea 393e f4f1 ac3d ff20 dc3d
000000b0: 85fb 063e 29c7 9a3d a508 e13c 7349 893d
0.070421934 0.07456769 0.109859176 0.13126683 0.14355482 0.051357422 0.05196217 0.079700805
0.016090507 0.024338542 0.11644405 0.1659653 0.08688087 0.0861109 0.0020910532 0.14339364
0.054283492 0.18139711 0.005566838 0.1136068 0.06275506 0.11218449 0.02617467 0.11090458
0.048014514 0.12820677 0.07072904 0.07357134 0.05771276 0.056120764 0.21258159 0.13962667
0.082177 0.0008284848 0.17175995 0.09421333 0.14241539 0.048389297 0.036360864 0.05341517
0.030874873 0.18155879 0.084445864 0.10748481 0.13181885 0.07557518 0.027469942 0.067034625

model/dense_1/BiasAdd/ReadVariableOp f4 [26]
00000000: 151d b03d dfdb 2f3d 7de3 57bc 6a53 73bd
00000010: bf4a a53d b264 0f3c 52a3 8abc 3af0 313d
00000020: 395e f53c 0314 1abd 2d4a e2bc 4a99 563d
00000030: 1d0f 603d 3c6e 173e b7d0 e13d ebc3 27bc
00000040: 8acf e2bd f653 de3d 213c d6be 4a7a e0be
00000050: 24d8 d4be ac5e d6be b784 d8be 1a9b d1be
00000060: 6090 cbbe 5cd6 e1be
0.08599297 0.042934295 -0.013176796 -0.05940572 0.08070897 0.008752035 -0.01692358 0.04344199
0.029952155 -0.03761674 -0.02762326 0.05239228 0.054701913 0.14788145 0.11026137 -0.010239582
-0.11074741 0.10855858 -0.4184275 -0.438433 -0.41571152 -0.41869104 -0.42288753 -0.40938646
-0.39758587 -0.44108856

model/gru/gru_cell/MatMul f4 [96, 126]
00000000: 1cc0 feb6 14b8 d339 830a fdb9 67b0 4d3a
00000010: 73aa d4b9 b1ae 5338 21c4 6cb9 9731 9639
00000020: 2cc0 93b9 db1a 593a 6114 c738 91c6 cc39
00000030: 11fd 883a eb91 303b bfdb 29ba 9ce0 42b9
00000040: d2c8 033a 63fe 93ba 879a 00bb 0dbc fc38
00000050: d6a5 ddba 7bec e8ba 2df8 9e3a afdf 33ba
00000060: 7bfa 45bb d4da f83a 14d3 b1b9 dcf6 a0b9
00000070: f0a4 103b 4027 d239 039a a4b9 37d7 acb9
00000080: c1c9 cab7 a781 65ba fa22 1b38 a02c 2bba
00000090: 9ee9 0ebb fba6 543a 992b 59ba 6a44 92b9
000000a0: 12de b73a 684d 5e39 fbf8 9938 413a 82bb
000000b0: 5b4c 84ba 517e 73ba 1ae2 023b f254 2039
000000c0: 481b d6ba bcb3 87ba 1631 3239 67da 493a
000000d0: d828 2b3a fb87 0539 4c5a 313a 04e0 39ba
000000e0: 26f8 afba 92b8 1fba a9fc 1bbb 10e0 8b39
000000f0: 936f ddba 1ff8 893a 94f9 5a3a 0501 4239
00000100: efdb d838 863d e9b9 28c0 a837 2d38 e138
00000110: d262 6d3a 8e14 e939 e765 eab8 1e17 443a
00000120: 4cff b738 a081 d7b9 02c7 9839 a5dc e938
00000130: 30bc 9a39 cf44 113a bab2 f139 c2ea 3a38
00000140: afc3 033a 7eaf 253a 360d bc39 7fb7 cfb9
00000150: 27bb 233a 4023 2b3a 7499 bf39 b23a a93a
00000160: a6e3 4eb8 ebdc 86b9 4097 c43a 8614 e839
00000170: ade0 273a bbf1 953a 81d9 1d3a 3fa1 cc38
00000180: d027 693a c055 623a 10d7 92b9 e3cb 2c3b
00000190: 1d22 0e3a e32d 1439 34f9 613a 7fa3 2239
000001a0: 4520 623a 2687 903a 618d eb39 9161 33b9
000001b0: 8e38 ce3a 83e1 083a 08d5 2d3a b1db d03a
000001c0: 68fc 3e3a b75b 013a 4e7e 423a a1d1 383a
000001d0: f9f4 9739 4e8d c23a 60c4 4c3a e9c3 093a
000001e0: d94b cc3a fac2 f139 6013 5d39 5af8 213b
000001f0: 712c b939 b1bb 8f38 e374 14b8 1115 25b9
00000200: cea8 0638 35f3 ab3a d6ef 10ba 8b17 db39
00000210: 44d9 103a 937d 74ba 1c74 b839 edc1 9b3a
00000220: d86b c5ba 3e22 613a e3fb 3f3a 2711 0eba
00000230: 56ff ab3a de81 283a 7c59 16ba b1a6 80b9
00000240: 9935 fe39 526d bdba b1c1 11b8 d494 2d39
00000250: 706f 00bb 5d1a 683a 54cd 1b3a e255 08bb
00000260: f8a6 36ba 0aad e1b9 46f0 4eba b4c9 68b8
00000270: 995f d7b9 5f0a d039 f2fe ceb9 1ac2 b1b9
00000280: fbbc 7a3a 7f92 0bba 046c 2bba 1eb1 8db9
00000290: c8e3 abb9 9e10 d2b8 e9c7 b8b8 70f6 8038
000002a0: aae4 f2b9 095b bab9 d433 d239 e9ad f1ba
000002b0: d2d9 613a 92ac 24ba f9b4 ebba f5f7 ab3a
000002c0: d810 5b39 a03a 57ba 4701 2eba afef 77b9
000002d0: 7105 10ba 96d3 a13a ba2b b9b9 27bc e3ba
000002e0: 515c 503a 6dbe f239 0434 16bb 5148 533a
000002f0: ec89 5e38 8206 b0b7 ee55 0b39 b7a9 b338
00000300: a21b 14b9 a753 873a 9a59 d936 fd7b cc38
00000310: a89e 583a 957f 89b8 411e 2c3a 1d5f b03a
00000320: 7701 4d39 b7d9 4d38 827c b03a abcb 0139
00000330: 6386 433a 6313 823a 6833 e3b9 8add c539
00000340: 76a1 b33a cf51 7439 905d 4a3a 1ede 113a
00000350: 4845 093a 208f 0f3a a05f 713a 4cb1 af39
00000360: 184b 993a 29b8 b73a c4aa fc39 8c36 f83a
00000370: 7560 ab3a d326 4f3a d5ce 673a 0f63 c43a
00000380: c546 993a 9c04 eb3a 9f38 8f3a be5c 203a
00000390: 17dd 923a 2d03 223a a247 e138 7e98 753a
000003a0: 9ec8 903a ecd1 8c39 589f 4d3a 6b49 833a
000003b0: 92d9 173a bcf8 883a a947 653a ec9f 7439
000003c0: 28e3 c83a b09a bf3a 76b7 d739 c90f c13a
000003d0: 680f d53a d38b 553a 0e39 d73a 0eb2 e13a
000003e0: 60c1 213a 9416 1c3b 6326 eb3a a8e3 ec39
000003f0: 21e3 f038 baaf b9b9 e33d ad37 5c0f 0139
-7.5921544e-06 0.00040382205 -0.00048263752 0.00078464154 -0.00040562786 5.0469014e-05 -0.00022579778 0.00028647177
-0.00028181204 0.0008281895 9.492855e-05 0.00039057856 0.0010451396 0.0026942443 -0.0006479583 -0.00018584955
0.0005027178 -0.0011291023 -0.0019623355 0.000120513236 -0.0016910385 -0.0017770672 0.0012128406 -0.00068616396
-0.0030209112 0.0018986114 -0.00033917336 -0.00030701503 0.0022070967 0.00040083565 -0.00031395265 -0.00032966744
-2.4174225e-05 -0.00087549764 3.6987454e-05 -0.0006529782 -0.0021806727 0.000811204 -0.00082843896 -0.00027898262
0.0014027974 0.00021200406 7.341985e-05 -0.0039742296 -0.0010093556 -0.0009288537 0.0019971193 0.00015290434
-0.0016335035 -0.0010353248 0.00016993689 0.0007700086 0.00065292185 0.00012734525 0.00067654694 -0.0007090571
-0.0013425394 -0.0006092872 -0.002380172 0.00026679086 -0.0016894214 0.0010526216 0.000835323 0.00018501662
0.000103406484 -0.00044487062 2.011664e-05 0.000107392996 0.0009055558 0.00044456538 -0.0001117697 0.00074802514
8.773673e-05 -0.00041104574 0.00029139972 0.00011151404 0.0002951338 0.00055415643 0.00046100264 4.456449e-05
0.00050264125 0.0006320401 0.00035867997 -0.00039618832 0.00062458444 0.0006528385 0.0003654469 0.0012911169
-4.932624e-05 -0.00025723068 0.0014998689 0.0004426578 0.0006404024 0.0011439839 0.00060214853 9.7575125e-05
0.0008894177 0.00086339936 -0.00028007524 0.0026366643 0.00054219534 0.00014131474 0.0008620203 0.00015510431
0.00086260244 0.0011026605 0.00044928028 -0.00017107117 0.0015733407 0.0005221592 0.00066311704 0.0015934614
0.0007285536 0.0004934626 0.00074193336 0.000705028 0.00028983483 0.0014843137 0.00078112446 0.0005255328
0.0015586569 0.0004611237 0.0002108342 0.002471468 0.0003531906 6.8537316e-05 -3.539481e-05 -0.00015743474
3.21053e-05 0.0013118746 -0.00055289024 0.00041788476 0.0005525539 -0.00093265733 0.00035181723 0.0011883356
-0.0015062047 0.00085881713 0.0007323606 -0.0005419426 0.0013122361 0.0006428043 -0.000573538 -0.00024538257
0.0004848659 -0.0014452136 -3.4751083e-05 0.00016554008 -0.0019597672 0.0008854026 0.0005943377 -0.0020803143
-0.00069676293 -0.00043044268 -0.000789408 -5.550096e-05 -0.0004107922 0.0003968058 -0.0003948133 -0.00033904688
0.00095649034 -0.0005324259 -0.0006539228 -0.00027025578 -0.00032785372 -0.000100166755 -8.81104e-05 6.149418e-05
-0.00046328205 -0.0003554451 0.00040092936 -0.001843867 0.00086155266 -0.00062818185 -0.0017983011 0.0013120162
0.00020891742 -0.0008210335 -0.00066377636 -0.00023645045 -0.0005493975 0.0012346383 -0.00035318529 -0.0017374799
0.00079483265 0.00046299715 -0.0022919187 0.0008059787 5.3057374e-05 -2.0983865e-05 0.00013288084 8.566997e-05
-0.00014124674 0.0010324613 6.477535e-06 9.750573e-05 0.0008263388 -6.556433e-05 0.00065657875 0.001345608
0.00019550869 4.907857e-05 0.0013464841 0.00012378271 0.0007458685 0.0009923991 -0.00043335115 0.00037739828
0.0013704735 0.0002330013 0.00077196304 0.0005564409 0.0005236459 0.00054763444 0.00092076696 0.00033510698
0.0011695353 0.0014016676 0.00048192416 0.0018937155 0.0013075011 0.00079022086 0.0008842771 0.0014983135
0.0011694065 0.0017930451 0.0010926909 0.0006117335 0.0011204806 0.0006180283 0.00010742179 0.00093687314
0.0011046117 0.00026859285 0.00078438735 0.0010016387 0.00057926134 0.0010450105 0.0008746335 0.00023329229
0.0015326487 0.0014618244 0.00041144685 0.0014729436 0.0016255202 0.00081461406 0.0016420202 0.0017219202
0.0006170478 0.0023817169 0.0017940517 0.00045183045 0.00011486398 -0.00035416876 2.0652025e-05 0.0001230812
