app/src/main/assets/models/family.tflite (tflite, 672140 bytes, 52 tensors)

model/batch_normalization/batchnorm/add_1;model/conv1d/Conv1D/Squeeze;model/batch_normalization/batchnorm/mul_1;model/conv1d/BiasAdd;model/conv1d/BiasAdd/ReadVariableOp;model/batch_normalization/batchnorm/mul;model/batch_normalization/batchnorm/sub;model/conv1d/Conv1D;model/conv1d_1/Conv1D f4 [96]
0.6187492 -1.185465 0.38394818 0.2677632 1.1071858 -0.16057675 0.13667978 -0.44609964
-0.7657303 -0.36188927 -0.20503049 -0.60701436 -0.43679163 0.036956653 0.086024985 -0.88044286
-0.7609404 1.2296256 -1.6413133 -0.002859007 0.46126238 -0.76627284 -0.026058327 -0.94483155
-0.41877612 -1.452065 -0.68963206 1.2885431 -0.8637402 1.0332831 1.1952157 -1.1195116
-0.5852627 -0.98184395 -0.3502534 -0.025586229 -1.2499961 0.33950198 -1.2709858 -0.8978492
-0.8429891 -0.7040162 -1.2458024 -0.31180587 -0.935172 0.7548138 0.055188447 0.783087
-0.6066955 0.14234841 -1.5190519 -0.8577489 -0.63095474 -0.98539823 1.3143371 -0.9787183
0.11492202 -0.2678798 -0.5879131 -0.33662197 0.21707055 -0.99405426 0.7830047 0.17714675
-1.4388187 0.9078649 -0.6103885 1.0101938 0.2165895 -0.08516012 -0.09310064 -0.9680692
1.0947005 1.1100507 0.59899396 -1.3558751 -0.17167105 0.5709504 0.097423166 0.41278988
-1.3952043 -0.1786454 -0.5095973 1.3105524 0.6992301 0.03403961 -0.07476615 -0.9701007
-0.7727843 0.50748545 -1.2968497 -0.6044292 -0.40801373 0.012352996 1.6079329 -0.72217983
00000000: 5966 1e3f 51bd 97bf db94 c43e 4218 893e
00000010: 44b8 8d3f 3b6e 24be c9f5 0b3e 2c67 e4be
00000020: e706 44bf 8d49 b9be 83f3 51be 4b65 1bbf
00000030: 27a3 dfbe dc5f 173d de2d b03d b464 61bf
00000040: fdcc 42bf 5f64 9d3f 8e16 d2bf 2e5e 3bbb
00000050: 952a ec3e 752a 44bf 4678 d5bc 7be0 71bf
00000060: d369 d6be 44dd b9bf ba8b 30bf fbee a43f
00000070: 141e 5dbf 9f42 843f d4fc 983f 284c 8fbf
00000080: c7d3 15bf 205a 7bbf 6a54 b3be 369a d1bc
00000090: dfff 9fbf 34d3 ad3e aaaf a2bf 72d9 65bf
000000a0: 22ce 57bf 683a 34bf 7476 9fbf 05a5 9fbe
000000b0: 6f67 6fbf 7a3b 413f 480d 623d 6478 483f
000000c0: 6550 1bbf c8c3 113e 4b70 c2bf 6f95 5bbf
000000d0: 4086 21bf 0f43 7cbf 333c a83f 488d 7abf
000000e0: 3c5c eb3d 8b27 89be 7981 16bf b759 acbe
000000f0: be47 5e3e 577a 7ebf ff72 483f f565 353e
00000100: 362b b8bf d669 683f 6c42 1cbf 084e 813f
00000110: a3c9 5d3e 6e68 aebd 8cab bebd 62d3 77bf
00000120: 251f 8c3f 2416 8e3f ab57 193f 518d adbf
00000130: 89ca 2fbe ce29 123f cc85 c73d 3259 d33e
00000140: 0e96 b2bf d2ee 36be f874 02bf 2ec0 a73f
00000150: be00 333f 1e6d 0b3d ff1e 99bd 8558 78bf
00000160: 31d5 45bf 91ea 013f 2cff a5bf dfbb 1abf
00000170: 2de7 d0be 3864 4a3c bfd0 cd3f c7e0 38bf

model/batch_normalization_1/batchnorm/add_1;model/conv1d_1/Conv1D/Squeeze;model/batch_normalization_1/batchnorm/mul_1;model/conv1d_1/BiasAdd;model/conv1d_1/BiasAdd/ReadVariableOp;model/batch_normalization_1/batchnorm/mul;model/batch_normalization_1/batchnorm/sub;model/conv1d_1/Conv1D f4 [96]
-0.048580077 1.1702478 0.9474914 -0.4035747 0.066196874 1.1253986 1.0471892 -0.12506215
-0.017324744 -0.1452608 -0.17787786 -0.48258612 0.053003952 0.12336102 -0.47974148 -0.10558087
0.0973569 -0.07845142 0.79987293 -0.24831359 -0.27340114 0.51450545 1.2450516 -0.5491212
-0.46261728 1.2581009 0.47610366 -0.35273138 0.06541084 0.6777798 -0.116545096 0.36855462
-0.18566519 1.371398 0.54458183 0.8179705 0.21403809 0.28236434 0.8661299 0.34867
0.37183762 0.66534907 0.19959158 0.3205217 1.1876844 1.055307 -0.0009572953 0.052068226
-0.14356269 0.16324003 1.4588484 0.09265323 1.2976128 0.9421062 0.0144374985 -0.0036197007
0.012540512 0.10198286 -0.44079304 -0.36015356 1.0271463 -0.13180421 -0.07507481 -0.060236204
0.8413928 0.54817027 0.06283675 1.1975888 -0.41781223 0.19088158 -0.034924448 1.1789324
-0.26135245 0.01660212 0.036852498 0.041017734 -0.5059847 0.19679737 0.71374184 -0.21812883
-0.104479834 -0.39033172 0.10026177 -0.22077335 0.15773727 1.2699338 0.47333956 -0.20639017
0.60419846 0.8335168 -0.17613149 0.04911474 1.0069073 -0.21218872 1.0338141 0.17055114
00000000: e7fb 46bd aeca 953f cc8e 723f 58a1 cebe
00000010: 3a92 873d 100d 903f 4c0a 863f 4b10 00be
00000020: 9fec 8dbc 3fbf 14be 9d25 36be 8715 f7be
00000030: ac1a 593d b4a4 fc3d ada0 f5be c83a d8bd
00000040: 0e63 c73d 23ab a0bd 79c4 4c3f eb45 7ebe
00000050: 3cfb 8bbe a1b6 033f da5d 9f3f 3593 0cbf
00000060: 2cdc ecbe 7309 a13f dcc3 f33e 3599 b4be
00000070: 1ef6 853d fa82 2d3f 32af eebd 31b3 bc3e
00000080: 041f 3ebe f889 af3f b769 0b3f 8466 513f
00000090: cd2c 5b3e 0f92 903e b0ba 5d3f e084 b23e
000000a0: 8061 be3e 5154 2a3f bc61 4c3e 6c1b a43e
000000b0: 0b06 983f 4d14 873f 00f3 7aba 7e45 553d
000000c0: 1902 13be 6528 273e 8bbb ba3f fac0 bd3d
000000d0: 2d18 a63f df2d 713f 428b 6c3c 8038 6dbb
000000e0: b876 4d3c 64dc d03d a0af e1be 0c66 b8be
000000f0: 8879 833f aff7 06be d2c0 99bd 3dba 76bd
00000100: 8565 573f e354 0c3f 8eb0 803d 974a 993f
00000110: 7ceb d5be 7676 433e f00c 0fbd 42e7 963f
00000120: fdcf 85be 2b01 883c a5f2 163d 3602 283d
00000130: 3788 01bf 4085 493e c9b7 363f 2a5d 5fbe
00000140: 86f9 d5bd 8fd9 c7be 0b56 cd3d 6912 62be
00000150: e185 213e 318d a23f 9059 f23e f257 53be
00000160: c0ac 1a3f 5b61 553f d05b 34be 8a2c 493d
00000170: 57e2 803f 0048 59be 0554 843f f5a4 2e3e

model/batch_normalization/batchnorm/mul_1;model/conv1d/Conv1D/Squeeze;model/conv1d/BiasAdd;model/conv1d/BiasAdd/ReadVariableOp;model/batch_normalization/batchnorm/mul;model/conv1d/Conv1D;model/conv1d_1/Conv1D f4 [96, 1, 3, 126]
0.00311293 0.000659681 0.0019949693 0.011244392 0.19778107 -0.056452483 0.021823227 0.18350902
-0.025982767 0.003983114 0.0260765 0.011796013 -0.056725502 -0.2109267 0.058332104 -0.05817934
-0.11239139 0.019443529 -0.06630612 -0.18393856 0.0033007704 -0.0054173525 0.19717316 0.014287398
0.0067365305 0.3658459 0.03573452 -0.04610872 -0.15185179 0.042082064 -0.074314594 -0.24133399
0.04598966 -0.037120692 0.16227311 0.09939542 -0.0067900815 0.30101016 0.13132037 -0.037069496
-0.0033083162 0.11022699 -0.041848063 -0.20064096 0.152657 0.0097153755 -0.0022353814 0.2191092
0.012753255 0.033774402 0.2336239 -0.042502075 0.041927457 0.13438322 0.010307091 -0.1436146
0.17009902 0.036684517 -0.017613938 0.19244917 0.029439485 0.05060658 0.17890908 0.0046377555
-0.010636297 -0.0030573967 -0.0027486426 -0.06778909 0.05415929 -0.0064729783 -0.08595505 0.06655014
-0.0032349024 -0.08270906 0.06507051 0.011675238 -0.071462646 0.06153062 0.03065758 -0.067243434
0.045986384 0.03439372 -0.054978095 0.060491752 0.03172051 -0.05456045 0.06659463 0.013910289
-0.053308938 0.069246404 0.029975763 -0.036226284 0.007272202 0.016319342 -0.024581434 0.02470744
0.006709112 -0.028068405 0.035943016 -0.020567069 -0.035422314 0.038420282 0.045807634 -0.02361182
0.015473964 0.045678873 -0.010731678 0.04953635 0.04062863 -0.010742036 0.0663959 0.010238723
-0.01700225 0.06901269 0.02627262 0.010678279 -0.00958809 0.027629884 0.0076560895 0.015164855
0.01039271 -0.0018382149 0.030703368 0.0036787526 -0.0136396745 0.029541371 0.0014053481 -0.00019337433
0.0014146887 0.016200064 0.2010704 -0.053945992 0.03570421 0.17336658 -0.020844309 0.016458197
-0.0014625194 0.016143102 -0.017012712 -0.25840262 0.06263542 -0.042565804 -0.14853708 0.023226006
-0.0377275 -0.23541766 0.0049053836 0.0044479403 0.16718629 0.016074905 0.038388822 0.3412488
0.03720448 -0.030130269 -0.19026077 0.040748805 -0.050291777 -0.2950384 0.04345117 -0.00030693522
0.12967992 0.09925783 0.0067794845 0.28220987 0.13139325 -0.021793427 -0.035124533 0.10789211
-0.0028365601 -0.24704307 0.14993489 0.044260036 -0.030723857 0.2199759 0.03633858 0.015205004
0.23686951 -0.026365604 0.010700959 0.13057661 0.054693542 -0.1879245 0.1664363 0.08406025
-0.048512418 0.19088076 0.063381925 0.02856171 0.1780314 0.005025464 -0.011033955 -0.00024661308
-0.009875732 -0.06739659 0.05196032 -0.01881861 -0.08472849 0.063522056 -0.017769445 -0.08199887
0.059429802 -0.0062050866 -0.069628544 0.054487545 0.016105106 -0.06494237 0.044268284 0.014397542
-0.054205902 0.056307998 0.0067431726 -0.057258375 0.059559457 -0.004853004 -0.060079344 0.059231542
0.016279176 -0.032165837 0.0035768829 -0.0023091335 -0.023593692 0.01987464 -0.03419422 -0.031802274
0.029799785 -0.0385829 -0.04403278 0.030401804 0.031556394 -0.018267835 0.0152470255 0.02691661
-0.0077721165 0.049223863 0.016394243 -0.012175051 0.06356454 0.0012732947 -0.02367623 0.065714665
0.012311904 0.016933171 -0.010164567 0.00641318 0.0123852 0.014560262 -0.006893978 -0.00011752208
0.028120823 -0.021551965 -0.013787339 0.026931489 0.0029861482 0.005218235 -0.0016429274 0.0144187845
00000000: 4d02 4c3b 71ee 2c3a 08be 023b 663a 383c
00000010: 1f87 4a3e b83a 67bd a0c6 b23c cae9 3b3e
00000020: d0d9 d4bc c884 823b 629e d53c 1144 413c
00000030: 0059 68bd 2bfd 57be a5ed 6e3d 764d 6ebd
00000040: 752d e6bd 0948 9f3c 81cb 87bd 645a 3cbe
00000050: bd51 583b 0c84 b1bb c3e7 493e b115 6a3c
00000060: 1dbe dc3b 2750 bb3e 5c5e 123d 7fdc 3cbd
00000070: 097f 1bbe 3e5e 2c3d 4032 98bd 4220 77be
00000080: a75f 3c3d de0b 18bd ec2a 263e d38f cb3d
00000090: 557f debb 011e 9a3e d978 063e 2fd6 17bd
000000a0: 56d0 58bb b0be e13d e068 2bbd d374 4dbe
000000b0: 1e52 1c3e 3d2d 1f3c 7a7f 12bb 2a5e 603e
000000c0: 07f3 503c 0757 0a3d 1b3b 6f3e a816 2ebd
000000d0: 20bc 2b3d c19b 093e 13df 283c b50f 13be
000000e0: 702e 2e3e 8142 163d 1b4b 90bc 6511 453e
000000f0: 132b f13c d848 4f3d f133 373e 50f8 973b
00000100: dd43 2ebc 9b5e 48bb 9222 34bb 02d5 8abd
00000110: 22d6 5d3d 471b d4bb 3409 b0bd 714b 883d
00000120: a800 54bb 5e63 a9bd b043 853d 7f49 3f3c
00000130: 025b 92bd 8807 7c3d 9b25 fb3c edb6 89bd
00000140: 385c 3c3d 6ee0 0c3d b630 61bd 33c6 773d
00000150: 5eed 013d c77a 5fbd c462 883d fbe7 633c
00000160: 795a 5abd 0fd1 8d3d bb8f f53c 0362 14bd
00000170: a74b ee3b 24b0 853c 015f c9bc 4267 ca3c
00000180: 1cd8 db3b b6ef e5bc fc38 133d 457c a8bc
00000190: fd16 11bd 965e 1d3d c9a0 3b3d 936d c1bc
000001a0: 8286 7d3c c519 3b3d ecd3 2fbc a1e6 4a3d
000001b0: 356a 263d 5dff 2fbc 93fa 873d 51c0 273c
000001c0: 4d48 8bbc 8656 8d3d ad39 d73c f3f3 2e3c
000001d0: 5d17 1dbc 1158 e23c efdf fa3b 0376 783c
000001e0: 2f46 2a3c 42f0 f0ba a185 fb3c 3a17 713b
000001f0: f178 5fbc bf00 f23c a833 b83a 87c4 4ab9
00000200: 136d b93a ffb5 843c 66e5 4d3e 79f6 5cbd
00000210: 943e 123d 0287 313e afc1 aabc 57d3 863c
00000220: 02b2 bfba 8a3e 843c 3e5e 8bbc 594d 84be
00000230: 0047 803d 7b59 2ebd 1b1a 18be 7744 be3c
00000240: 2788 1abd 5411 71be 57bd a03b 07c0 913b
00000250: e232 2b3e 85af 833c 993d 1d3d 2ab8 ae3e
00000260: ba63 183d c1d3 f6bc b8d3 42be 38e8 263d
00000270: c0fe 4dbd 460f 97be dbf9 313d 26ec a0b9
00000280: d0ca 043e b047 cb3d 7026 de3b d07d 903e
00000290: f48b 063e 2188 b2bc bede 0fbd 8af6 dc3d
000002a0: 95e5 39bb dcf8 7cbe 8888 193e 034a 353d
000002b0: 99b0 fbbc 5d41 613e c3d7 143d 691e 793c
000002c0: ec8d 723e aefc d7bc 1353 2f3c e0b5 053e
000002d0: 5606 603d 486f 40be 476e 2a3e c827 ac3d
000002e0: f5b4 46bd 3f76 433e 62ce 813d 3ffa e93c
000002f0: dd4d 363e a6ac a43b c3c7 34bc d94b 81b9
00000300: d2cd 21bc 3907 8abd 58d4 543d 7c29 9abc
00000310: 2186 adbd da17 823d 3a91 91bc 06ef a7bd
00000320: aa6c 733d 0a54 cbbb 6999 8ebd 552e 5f3d
00000330: dbee 833c 8100 85bd a952 353d abe3 6b3c
00000340: 0207 5ebd 37a3 663d d5f5 dc3b c287 6abd
00000350: 9ef4 733d f305 9fbb c215 76bd c69c 723d
00000360: e85b 853c 53c0 03bd 236a 6a3b d554 17bb
00000370: 8f47 c1bc 24d0 a23c 3d0f 0cbd 1a43 02bd
00000380: ae1e f43c 1a09 1ebd b75b 34bd 340d f93c
00000390: 4741 013d 6da6 95bc a9ce 793c 3980 dc3c
000003a0: 3dad febb f69e 493d 384d 863c dd79 47bc
000003b0: 202e 823d aee4 a63a a7f4 c1bc 6995 863d
000003c0: deb7 493c 6fb7 8a3c 4989 26bc a725 d23b
000003d0: 4beb 4a3c 2a8e 6e3c e1e6 e1bb 3076 f6b8
000003e0: a45d e63c bf8d b0bc 4be4 61bc 6d9f dc3c
000003f0: 41b3 433b bafd aa3b 7f57 d7ba c43c 6c3c

model/batch_normalization_1/batchnorm/mul_1;model/conv1d_1/Conv1D/Squeeze;model/conv1d_1/BiasAdd;model/conv1d_1/BiasAdd/ReadVariableOp;model/batch_normalization_1/batchnorm/mul;model/conv1d_1/Conv1D f4 [96, 1, 3, 96]
-0.04364319 0.038596414 0.01641362 -0.017945375 -0.030580603 0.09081441 -0.021729337 -0.0018938602
0.037046876 -0.048097096 0.011103816 0.0017231148 0.005266559 -0.0014026305 0.08238816 0.06269362
0.047289275 -0.025969736 -0.0507839 0.014180786 0.012886271 0.012830401 0.011379094 0.031962104
0.034038395 -0.046156544 -0.03489579 -0.032537203 -0.018782316 0.0957573 -0.078104876 -0.0014504235
0.049988534 0.02801108 -0.0020739755 0.041481994 -0.019237876 -0.029627858 0.0036936102 0.02460424
0.028046949 0.054868013 0.0025561887 -0.020834504 0.018430062 -0.01771637 -0.023316083 -0.03015143
0.03761125 -0.04742604 -0.026680605 0.00611891 0.023069529 -0.023008212 0.0011988676 -0.029312631
-0.105074875 -0.018720215 0.022469342 0.13008627 0.053030644 0.020055942 -0.014688337 0.016282938
-0.065437816 -0.0020600366 0.054891787 -0.0065654092 -0.0017007132 0.038046174 -0.026703106 0.031100247
-0.046608176 -0.034390483 0.0035615393 -0.00042038097 -0.0047822134 -0.023126695 0.022682622 -0.0041438234
0.012092705 0.0062896665 0.0755698 -0.015060859 -0.0025478674 -0.02296068 -0.0048711416 0.024035558
0.03191801 -0.010260131 0.044687737 -0.06254482 0.0019706239 -0.06789748 -0.04041334 0.038187455
-0.042209685 0.038844015 0.021377886 -0.020643221 -0.029682346 0.089794904 -0.02048523 -0.0023802393
0.038358822 -0.04522622 0.01203121 -0.0014569727 0.0011592592 -0.002667514 0.08680031 0.06345888
0.049944304 -0.022731047 -0.050198346 0.011654528 0.010672905 0.008456427 0.017711027 0.036169834
0.037506137 -0.046624485 -0.03470602 -0.03127667 -0.021689158 0.09891827 -0.078133866 -0.0050677466
0.055425547 0.029282302 -0.00633412 0.04641445 -0.021021634 -0.029589424 0.0025451677 0.021064457
0.029674113 0.056736086 0.0042524855 -0.021239853 0.017201003 -0.016399687 -0.024465745 -0.030075088
0.038069993 -0.04122292 -0.0273029 0.0066704447 0.02463384 -0.022062171 0.0062188944 -0.029349733
-0.10082591 -0.015278994 0.022304384 0.1336445 0.056282822 0.024371618 -0.01611452 0.01986213
-0.06465585 0.000647578 0.055920362 -0.0038077047 0.0019491315 0.038958922 -0.031110194 0.02882724
-0.043153062 -0.02830482 0.009201264 -5.3662978e-05 -0.004273915 -0.0232337 0.022318378 -0.004979013
0.01518129 0.005243744 0.0716376 -0.010341033 -0.001653288 -0.02411687 -0.004452302 0.026614366
0.029824605 -0.0150195295 0.047037374 -0.0620084 0.0040281764 -0.06225164 -0.0383239 0.037566382
-0.042009987 0.037751324 0.031119207 -0.01967345 -0.024247248 0.08556243 -0.016351493 -0.0049801227
0.038519572 -0.039661314 0.014174354 -0.0005322786 0.0020284152 -0.0019635742 0.085266426 0.062102124
0.048242077 -0.02228716 -0.05051542 0.012249858 0.012195506 0.0063157715 0.02505959 0.03651468
0.041129876 -0.04721525 -0.033287317 -0.02832975 -0.019510383 0.101363696 -0.067847356 -0.0076655685
0.05455778 0.032334868 -0.0059406552 0.04471226 -0.0204225 -0.026543202 0.00399673 0.020474195
0.026671963 0.055014577 0.003759828 -0.017701685 0.016977318 -0.014262198 -0.018772034 -0.028156566
0.041431915 -0.029014941 -0.027381554 0.005634653 0.022179479 -0.02162146 0.01209857 -0.028262815
-0.08691424 -0.012184486 0.020720279 0.1330853 0.05976006 0.025988812 -0.014958514 0.018765327
00000000: 34c3 32bd 4617 1e3d db75 863c 2e02 93bc
00000010: 2c84 fabc e8fc b93d b901 b2bc 673b f8ba
00000020: 77be 173d 7601 45bd c8ec 353c 23da e13a
00000030: 1993 ac3b 78d8 b7ba 20bb a83d 8365 803d
00000040: 66b2 413d 7cbe d4bc c702 50bd 8756 683c
00000050: f020 533c 9a36 523c 616f 3a3c b2ea 023d
00000060: d86b 0b3d a50e 3dbd e3ee 0ebd bb45 05bd
00000070: 5fdd 99bc 671c c43d 73f5 9fbd 231c beba
00000080: c7c0 4c3d 7e77 e53c 89eb 07bb 06e9 293d
00000090: c098 9dbc 1fb6 f2bc 7f10 723b d58e c93c
000000a0: b7c2 e53c 48bd 603d bb85 273b 1fad aabc
000000b0: a4fa 963c ec21 91bc 5f01 bfbc 2200 f7bc
000000c0: 410e 1a3d cf41 42bd 4991 dabc 2381 c83b
000000d0: 4ffc bc3c b87b bcbc 5223 9d3a 0b21 f0bc
000000e0: 7f31 d7bd 235b 99bc a011 b83c 5635 053e
000000f0: a936 593d 5c4c a43c 5aa7 70bc cc63 853c
00000100: 4304 86bd ae01 07bb 36d6 603d a522 d7bb
00000110: 77ea deba 4ed6 1b3d 79c0 dabc f2c5 fe3c
00000120: 37e8 3ebd 09dd 0cbd b768 693b 9466 dcb9
00000130: 1db4 9cbb 3274 bdbc e8d0 b93c e9c8 87bb
00000140: 7b20 463c 8c19 ce3b 57c4 9a3d d2c1 76bc
00000150: 1ffa 26bb 0918 bcbc 199e 9fbb 38e6 c43c
00000160: 76bc 023d 1c1a 28bc 7d0a 373d 8017 80bd
00000170: 9525 013b d60d 8bbd 7588 25bd 736a 1c3d
00000180: 10e4 2cbd e71a 1f3d ad20 af3c f91b a9bc
00000190: 6428 f3bc 64e6 b73d a4d0 a7bc cafd 1bbb
000001a0: 241e 1d3d 213f 39bd 8d1e 453c e4f7 beba
000001b0: 49f2 973a 75d1 2ebb 5cc4 b13d bbf6 813d
000001c0: 6692 4c3d 7636 babc c89c 4dbd a2f2 3e3c
000001d0: 68dd 2e3c d38c 0a3c b716 913c d226 143d
000001e0: 09a0 193d 51f9 3ebd e627 0ebd f71b 00bd
000001f0: 76ad b1bc a995 ca3d a604 a0bd 570f a6bb
00000200: e605 633d 70e1 ef3c 738e cfbb 141d 3e3d
00000210: 9035 acbc 8565 f2bc d4cc 263b 5e8f ac3c
00000220: 2017 f33c 1964 683d 6f58 8b3b 33ff adbc
00000230: 1ee9 8c3c a358 86bc 636c c8bc 0860 f6bc
00000240: 48ef 1b3d 5dd9 28bd 55aa dfbc bf93 da3b
00000250: e8cc c93c babb b4bc dec7 cb3b da6e f0bc
00000260: d17d cebd bf54 7abc afb7 b63c 1bda 083e
00000270: d188 663d fda6 c73c 9902 84bc e8b5 a23c
00000280: 496a 84bd 39c2 293a c00c 653d af8a 79bb
00000290: 007a ff3a 6493 1f3d ceda febc 1b27 ec3c
000002a0: 44c1 30bd 83df e7bc e6c0 163c 2f14 61b8
000002b0: 330c 8cbb 9a54 bebc 08d5 b63c fd26 a3bb
000002c0: f2ba 783c b6d3 ab3b bcb6 923d 706d 29bc
000002d0: 24b3 d8ba be90 c5bc 9ee4 91bb 5f06 da3c
000002e0: bb52 f43c 7914 76bc 43aa 403d 85fc 7dbd
000002f0: cbfe 833b 93fb 7ebd 86f9 1cbd 35df 193d
00000300: aa12 2cbd 22a1 1a3d b5ed fe3c 372a a1bc
00000310: 2aa2 c6bc 5b3b af3d 91f3 85bc 4c30 a3bb
00000320: b3c6 1d3d e773 22bd 8d3b 683c 9d88 0bba
00000330: 29ef 043b 4faf 00bb 2aa0 ae3d cc5e 7e3d
00000340: 7c99 453d 9093 b6bc 42e9 4ebd a1b3 483c
00000350: a9cf 473c 88f4 ce3b c549 cd3c 6b90 153d
00000360: cd77 283d c764 41bd 4858 08bd cb13 e8bc
00000370: 3dd4 9fbc c597 cf3d 8ef3 8abd 732f fbbb
00000380: fb77 5f3d 9171 043d d4a9 c2bb 3424 373d
00000390: 164d a7bc 2171 d9bc 00f7 823b 80b9 a73c
000003a0: 297f da3c f756 613d 7267 763b 2003 91bc
000003b0: 0414 8b3c feab 69bc cfc7 99bc 99a8 e6bc
000003c0: 83b4 293d beb0 edbc 484f e0bc e5a2 b83b
000003d0: bdb1 b53c 7d1f b1bc 1539 463c 6b87 e7bc
000003e0: 1800 b2bd 70a1 47bc 93bd a93c 8347 083e
000003f0: f7c6 743d 7de6 d43c 8e14 75bc beb9 993c

model/gru/gru_cell/strided_slice_4 f4 [96]
-0.09110681 -0.10134312 -0.021784287 -0.035104852 -0.00041430775 -0.08878129 -0.045766573 0.017162032
-0.05567328 -0.08856185 -0.05378342 0.019664818 -0.012920844 -0.054939453 0.030858276 0.052877817
0.0358183 -0.0815478 -0.122103855 0.029644616 -0.034003623 0.08612025 -0.119520985 -0.06952164
0.09539873 -0.09007553 0.069528386 -0.07282223 0.062485244 -0.11190908 -0.10798342 -0.07276966
-0.063426405 -0.030291421 0.040795688 -0.08914707 -0.06529849 -0.0077025527 -0.072822005 -0.031095434
-0.038689096 0.061248604 -0.080096096 -0.036647648 -0.06358041 0.08293854 -0.19951297 0.04452289
-0.08964322 -0.123875886 -0.08302023 0.013052131 -0.051930238 -0.054139037 -0.082787834 -0.11627839
-0.15255156 -0.043441527 -0.029496094 0.08676099 -0.1528815 -0.02339628 -0.05540496 -0.09087864
-0.1411914 -0.12282284 -0.000979674 -0.13834421 0.032581083 -0.037780646 0.037011 -0.014054668
-0.08129819 -0.009036069 -0.06938028 -0.038479764 0.025728157 -0.03980104 -0.01915809 -0.12786429
0.025451787 -0.015999354 -0.060448226 0.103660375 0.035558425 0.01289172 -0.10420858 -0.076544434
-0.08182089 -0.028919874 -0.029352555 -0.08896017 0.018642135 0.048227638 -0.08251967 0.063263066
00000000: 3596 babd fb8c cfbd f674 b2bc 1bca 0fbd
00000010: 7237 d9b9 f7d2 b5bd bb75 3bbd 6497 8c3c
00000020: aa09 64bd ea5f b5bd 014c 5cbd 1d18 a13c
00000030: f3b1 53bc 3108 61bd 7fca fc3c 6996 583d
00000040: 36b6 123d 8802 a7bd 9611 fabd 44d9 f23c
00000050: 6247 0bbd d05f b03d 6bc7 f4bd 5d61 8ebd
00000060: 6960 c33d 8579 b8bd e664 8e3d d223 95bd
00000070: 87f0 7f3d 9630 e5bd 6926 ddbd 4208 95bd
00000080: b4e5 81bd b725 f8bc 6119 273d bd92 b6bd
00000090: 37bb 85bd b265 fcbb b423 95bd dabb febc
000000a0: 7578 1ebd d1df 7a3d 6c09 a4bd d81b 16bd
000000b0: 7236 82bd aedb a93d 214d 4cbe a25d 363d
000000c0: dd96 b7bd a4b2 fdbd 8306 aabd 9bd8 553c
000000d0: cdb4 54bd e5c0 5dbd ab8c a9bd 5d23 eebd
000000e0: 7a36 1cbe beef 31bd cba1 f1bc bfaf b13d
000000f0: f88c 1cbe 8ea9 bfbc 50f0 62bd 951e babd
00000100: 7a94 10be 8b8a fbbd 6868 80ba 1baa 0dbe
00000110: be73 053d e1bf 1abd d998 173d 8d45 66bc
00000120: aa7f a6bd 050c 14bc 4017 8ebd f59c 1dbd
00000130: dbc3 d23c 6a06 23bd 6df1 9cbc dbee 02be
00000140: 4480 d03c 1411 83bc 8f98 77bd e44b d43d
00000150: b6a5 113d cb37 533c 4f6b d5bd 54c3 9cbd
00000160: b691 a7bd 5fe9 ecbc c574 f0bc c030 b6bd
00000170: 64b7 983c 588a 453d 1300 a9bd 1190 813d

model/gru/gru_cell/strided_slice_3 f4 [96]
-0.19167839 0.10964659 0.10172198 0.12826341 0.18908122 0.084809154 0.32144964 0.19784051
-0.07332503 -0.004878153 0.07127176 -0.119343266 0.17581496 0.1029884 0.080973156 0.081293225
0.021882122 0.13527323 0.13313422 0.1844818 0.24485633 0.21944651 0.0665395 -0.014546387
0.068610094 0.05060629 0.41245106 0.11105737 0.117537096 0.096374534 0.027935423 0.045493357
-0.010841083 -0.060237184 0.2376912 0.013349865 0.14864738 0.2419375 -0.005663462 0.25144342
-0.002899512 0.19593228 0.02849163 -0.06250648 0.057964623 0.30093816 -0.064470775 0.31177315
0.03630106 0.14164245 -0.13224433 0.021633282 0.1785421 0.020384945 -0.11723123 0.19324744
-0.032727752 0.0052215513 0.15385087 0.09753847 0.0038080916 0.21859743 -0.070494786 0.2498238
0.16774069 0.101389065 0.15620622 -0.035925835 0.11132386 0.16218133 0.2014501 0.13361771
0.122843266 -0.059261296 0.043790396 0.11025589 0.29866013 0.17069124 0.020221787 -0.0844767
0.005653224 0.032411743 -0.19330724 0.13620864 0.34919867 0.12896965 -0.06458463 -0.01675735
0.082596675 0.17273125 -0.019880142 0.16551273 0.25630298 0.19042827 0.034485072 0.1525171
00000000: 5747 44be 648e e03d 9d53 d03d 7c57 033e
00000010: 829e 413e 6cb0 ad3d 0c95 a43e b496 4a3e
00000020: 6f2b 96bd ead8 9fbb eef6 913d 3e6a f4bd
00000030: d608 343e 95eb d23d 41d5 a53d 107d a63d
00000040: 2342 b33c 1185 0a3e 5654 083e cce8 3c3e
00000050: 9ebb 7a3e 96b6 603e dd45 883d f853 6ebc
00000060: 7383 8c3d 8b48 4f3d c92c d33e 0c72 e33d
00000070: 4ab7 f03d 0360 c53d d4d8 e43c 3e57 3a3d
00000080: cc9e 31bc 44bb 76bd 5265 733e 64b9 5a3c
00000090: 0537 183e 77be 773e 9094 b9bb 31bd 803e
000000a0: bd05 3ebb 79a2 483e 4767 e93c 6603 80bd
000000b0: 506c 6d3d 9114 9a3e 4109 84bd bba0 9f3e
000000c0: 6cb0 143d b80a 113e 0f6b 07be 4838 b13c
000000d0: bed3 363e 54fe a63c ed16 f0bd a8e2 453e
000000e0: 890d 06bd 8c19 ab3b 158b 1d3e 40c2 c73d
000000f0: 2d91 793b 01d8 5f3e 925f 90bd cfd1 7f3e
00000100: 37c4 2b3e 12a5 cf3d 86f4 1f3e f826 13bd
00000110: c4fd e33d dd12 263e ef48 4e3e 15d3 083e
00000120: 4095 fb3d f9bb 72bd 8f5d 333d d7cd e13d
00000130: fbe9 983e afc9 2e3e 29a8 a53c 1f02 adbd
00000140: ae3e b93b 2dc2 043d 55f2 45be 477a 0b3e
00000150: 2bca b23e 9f10 043e f244 84bd b646 89bc
00000160: 7228 a93d 76e0 303e aedb a2bc 2b7c 293e
00000170: 253a 833e a1ff 423e 3840 0d3d 712d 1c3e

model/gru/gru_cell/strided_slice_5 f4 [96]
0.011956644 -0.048682056 -0.026784979 0.035090465 0.008284736 0.017593333 -0.0579668 0.0076650255
0.007731867 -0.047363017 -0.021135226 -0.027550794 -0.06566913 0.01070814 0.026389701 0.00043598335
0.0138075575 -0.030118827 -0.0084184 0.009788789 -0.02035994 -0.013457368 0.00012241359 -0.05399949
-0.01456958 0.040362787 -0.019590732 -0.034821656 0.010974854 0.0826616 0.012448545 0.056306813
0.017427137 0.0010920994 -0.07229792 0.013817966 0.09152256 0.033895582 0.019983012 0.03286027
0.038285628 0.029394768 0.052797645 0.0021869396 -0.017587867 0.059971213 5.987865e-05 0.04333459
0.0122094415 0.0406312 0.034609582 -0.021696052 0.036003213 0.005037161 0.007751654 -0.0094404435
0.060073126 0.015102239 0.0007920579 -0.070804164 0.05634594 0.052235305 0.011437558 -0.050010398
0.058626954 -0.04261352 -0.014000787 -0.008066977 -0.025096776 0.037369702 0.0077176876 -0.020922545
-0.02416322 -0.023007931 -0.060465686 -0.009419622 -0.015278245 0.013109604 0.0368878 0.022470156
0.0038477215 -0.0075394455 -0.014215431 0.002561111 0.0041288 -0.06518194 0.019130435 0.033970285
-0.06506231 0.010341342 -0.024057433 0.035688072 -0.016895315 0.015730917 -0.073557064 -0.020974176
00000000: cde5 433c d666 47bd 2c6c dbbc 05bb 0f3d
00000010: b4bc 073c e51f 903c 986e 6dbd e52a fb3b
00000020: 9a5b fd3b b9ff 41bd c823 adbc 34b2 e1bc
00000030: 897d 86bd 3271 2f3c 372f d83c b294 e439
00000040: 1839 623c c2bb f6bc 54ed 09bc 2861 203c
00000050: e4c9 a6bc 4b7c 5cbc 265c 0039 922e 5dbd
00000060: 3fb5 6ebc 7353 253d be7c a0bc 27a1 0ebd
00000070: e0cf 333c 7c4a a93d fbf4 4b3c f9a1 663d
00000080: 5bc3 8e3c c624 8f3a ef10 94bd c064 623c
00000090: 2e70 bb3d 18d6 0a3d 6ab3 a33c 7e98 063d
000000a0: 64d1 1c3d 4ccd f03c 5842 583d c252 0f3b
000000b0: 6e14 90bc 60a4 753d 3626 7b38 9c7f 313d
000000c0: 1c0a 483c e76c 263d c7c2 0d3d ebbb b1bc
000000d0: 1b78 133d c50e a53b 9601 fe3b 17ac 1abc
000000e0: 3d0f 763d 626f 773c 1ba2 4f3a c601 91bd
000000f0: 00cb 663d b0f4 553d 9864 3b3c b4d7 4cbd
00000100: d122 703d 848b 2ebd 8f63 65bc 5b2b 04bc
00000110: c197 cdbc f910 193d a8e4 fc3b c265 abbc
00000120: f2f1 c5bc 217b bcbc deaa 77bd c254 1abc
00000130: 9b51 7abc aac9 563c a917 173d 5513 b83c
00000140: 0e2a 7c3b 740d f7bb d7e7 68bc 50d8 273b
00000150: e24a 873b 1c7e 85bd 6eb7 9c3c 6d24 0b3d
00000160: 633f 85bd bb6e 293c 1814 c5bc a82d 123d
00000170: 0b68 8abc 20de 803c 16a5 96bd 09d2 abbc

model/gru/gru_cell/strided_slice_11 f4 [96]
0.012813117 -0.030007942 -0.0020830722 0.015555848 -0.010331869 0.024306698 -0.07525353 0.003675958
0.017891416 -0.035861604 -0.013479575 -0.040558405 -0.0015929372 0.023035308 0.05567983 -0.0053811953
0.02962229 -0.02099376 0.004150052 0.030938348 -0.0126264645 -0.053640924 0.026828688 -0.023068856
0.0208295 0.0086720055 -0.017811239 -0.0040978976 0.040496163 0.124402314 0.033711262 0.03595825
0.020596243 -0.0049381033 -0.04349446 -0.01899759 0.091609925 -0.028408047 0.020059548 -0.0014034305
0.022784317 0.009447323 0.052700672 0.013652229 -0.04918068 0.032932807 0.0031650658 -0.026988493
0.03265855 0.009497528 0.0053980807 -0.038750075 0.012080441 0.024774397 0.008296766 0.0017367072
0.040533867 -0.013855162 -0.033584308 -0.03495585 0.03663351 0.015533194 -0.036094427 -0.03905847
0.06534268 -0.021258434 -0.00012779537 -0.013060557 -0.0007995396 -0.0040057315 -0.00464504 -0.013061663
-0.03166631 -0.012458475 -0.04704249 -0.02737973 -0.050712675 -0.008090017 0.0052613886 0.008670047
-0.01666707 -0.02529769 0.027911173 0.0086074965 -0.019094473 -0.006437901 0.02266349 0.05672021
-0.039568964 0.0048862216 -0.013885173 0.0040592127 -0.023851342 0.042606667 -0.016497692 -0.040299337
00000000: 1cee 513c 37d3 f5bc 2784 08bb f5dd 7e3c
00000010: 0047 29bc d71e c73c 861e 9abd 57e8 703b
00000020: 0591 923c 9ee3 12bd 6fd9 5cbc 9220 26bd
00000030: 1aca d0ba 8bb4 bc3c 8910 643d bd54 b0bb
00000040: 72aa f23c 1bfb abbc 29fd 873b 6b72 fd3c
00000050: 3bdf 4ebc 96b6 5bbd d6c7 db3c e6fa bcbc
00000060: a1a2 aa3c 0715 0e3c e0e8 91bc a847 86bb
00000070: 4edf 253d a4c6 fe3d d214 0a3d f548 133d
00000080: 74b9 a83c d0cf a1bb 3f27 32bd d5a0 9bbc
00000090: fc9d bb3d feb7 e8bc ec53 a43c 50f3 b7ba
000000a0: 2da6 ba3c f2c8 1a3c a9dc 573d 99ad 5f3c
000000b0: ae71 49bd 8de4 063d fe6c 4f3b f916 ddbc
000000c0: f9c4 053d 859b 1b3c 62e2 b03b 66b8 1ebd
000000d0: 0bed 453c adf3 ca3c 29ef 073c 39a2 e33a
000000e0: d706 263d c300 63bc b38f 09bd de2d 0fbd
000000f0: 050d 163d f07e 7e3c c0d7 13bd c6fb 1fbd
00000100: 62d2 853d 2b26 aebc cf00 06b9 f2fb 55bc
00000110: 3298 51ba 8342 83bb 6b35 98bb 9600 56bc
00000120: 88b4 01bd a21e 4cbc a0af 40bd 754b e0bc
00000130: 18b8 4fbd fe8b 04bc ba67 ac3b d00c 0e3c
00000140: 6189 88bc 1a3d cfbc f9a5 e43c 7506 0d3c
00000150: 036c 9cbc 07f5 d2bb c9a8 b93c 7353 683d
00000160: 1113 22bd 991c a03b a37e 63bc 2503 853b
00000170: e463 c3bc 5484 2e3d 2b26 87bc eb10 25bd

model/gru_1/gru_cell/strided_slice_4 f4 [48]
0.095825404 0.10894987 0.14588347 -0.09287001 0.008020177 0.009538574 -0.04543906 0.0033916999
0.07757195 -0.0040242337 -0.01445085 0.049495142 0.061653093 -0.11206039 0.01729743 -0.039379157
-0.027956782 -0.008043781 -0.1645671 0.0048508095 -0.02316121 0.018066622 0.0026486977 -0.00611266
0.06307949 -0.13943377 0.052220996 -0.07328997 0.025990967 0.112248965 0.13416111 0.105359465
0.022959186 -0.028249705 0.093758166 -0.027311437 0.047280587 0.082777806 0.024673577 0.014501332
0.08404488 0.15329559 -0.01758546 0.0153611 0.06415728 -0.022077654 0.047661617 -0.059999485
00000000: 1c40 c43d 1c21 df3d 7a62 153e a232 bebd
00000010: 0f67 033c ae47 1c3c 4f1e 3abd 4847 5e3b
00000020: 0bde 9e3d b8dd 83bb 42c3 6cbc 6bbb 4a3d
00000030: f487 7c3d eb7f e5bd 57b3 8d3c 0a4c 21bd
00000040: 9f05 e5bc 10ca 03bc 4784 28be 8af3 9e3b
00000050: 94bc bdbc 7400 943c c695 2d3b b54c c8bb
00000060: d22f 813d bac7 0ebe afe5 553d 0d19 96bd
00000070: 02eb d43c c9e2 e53d 8861 093e b4c6 d73d
00000080: e714 bc3c ed6b e7bc 4804 c03d 3cbc dfbc
00000090: 4aa9 413d 6987 a93d 3e20 ca3c ff96 6d3c
000000a0: b91f ac3d 85f9 1c3e 620f 90bc 20ad 7b3c
000000b0: e464 833d 32dc b4bc d438 433d 05c2 75bd

model/gru_1/gru_cell/strided_slice_3 f4 [48]
0.052315816 -0.012426041 0.3151463 0.061010905 0.30316117 0.011075569 0.1310993 0.0103939865
0.02801039 0.073405266 0.07657823 -0.0726893 0.12622574 0.088666365 0.02923381 0.31600082
0.011146765 0.11497359 0.010660494 0.21266706 0.035634577 0.033117272 0.11017609 0.16462702
0.22326751 0.0066503254 0.024756996 0.16834839 0.21891986 0.1720311 0.09234356 0.24692583
0.12271822 0.19759266 0.030344343 0.19050133 -0.034942087 -0.058611076 0.14828137 0.06821338
0.23812304 0.23185574 0.074406564 0.053515524 0.17547739 0.022145012 0.011116769 -0.0577162
00000000: 1c49 563d 9896 4bbc db5a a13e 92e6 793d
00000010: f137 9b3e 4e76 353c e53e 063e 8a4b 2a3c
00000020: 0c76 e53c 8055 963d 0cd5 9c3d 21de 94bd
00000030: 5241 013e b696 b53d be7b ef3c dcca a13e
00000040: eca0 363c 4677 eb3d 5aa9 2e3c 65c5 593e
00000050: 90f5 113d faa5 073d 00a4 e13d fc93 283e
00000060: 3da0 643e f9ea d93b 2fcf ca3c 8563 2c3e
00000070: 872c 603e ec28 303e 9f1e bd3d 20da 7c3e
00000080: b153 fb3d bb55 4a3e b394 f83c c812 433e
00000090: 6f1f 0fbd 2b12 70bd 12d7 173e 75b3 8b3d
000000a0: 87d6 733e 976b 6d3e 7862 983d 1833 5b3d
000000b0: 58b0 333e 7569 b53c 1c23 363c d267 6cbd

model/gru_1/gru_cell/strided_slice_5 f4 [48]
-0.07045928 0.17853768 0.10722078 0.02833268 0.013407816 0.124985784 -0.12366217 -0.083729
-0.1415596 -0.062055603 -0.021729488 0.06483824 -0.034577653 0.107520506 0.046274044 -0.20271775
-0.090498745 -0.025552815 -0.04624457 -0.111561574 0.19431536 0.004914459 0.02744798 0.01923746
0.020624325 0.024636263 0.11678178 0.12311462 -0.006632157 -0.034143396 -0.014455316 -0.055834997
0.08748918 0.005644501 0.08953186 0.1198576 0.12596177 -0.0021848232 0.15583651 -0.013615569
-0.053978365 -0.066962354 0.09373485 0.017549334 -0.107084505 -0.0030451487 0.07721162 0.0085441405
00000000: f44c 90bd 95d2 363e 9196 db3d f019 e83c
00000010: 75ac 5b3c 8cf8 ff3d 9742 fdbd 1c7a abbd
00000020: 00f5 10be 042e 7ebd 0a02 b2bc e9c9 843d
00000030: 4ca1 0dbd b633 dc3d da89 3d3d 3e95 4fbe
00000040: 6857 b9bd 2354 d1bc f26a 3dbd 657a e4bd
00000050: 9bfa 463e 7809 a13b 96da e03c e197 9d3c
00000060: 58f4 a83c fdd1 c93c 492b ef3d 8523 fc3d
00000070: 9152 d9bb f2d9 0bbd fdd5 6cbc 3db3 64bd
00000080: 872d b33d 82f5 b83b 7b5c b73d e777 f53d
00000090: 1ffc 003e 402f 0fbb 9b93 1f3e d613 5fbc
000000a0: 6b18 5dbd 8f23 89bd 0ff8 bf3d 9fc3 8f3c
000000b0: 1f4f dbbd 1e91 47bb 2021 9e3d b9fc 0b3c

model/gru_1/gru_cell/strided_slice_11 f4 [48]
-0.059083953 0.16798098 0.034626655 0.059137832 0.004095241 0.08984927 -0.052768 -0.07792219
-0.08731287 -0.09006683 -0.040754877 0.060759924 0.0068636336 0.08120115 0.020458076 -0.1116993
-0.054202136 0.015370313 -0.046940066 -0.10657311 0.15150708 0.022382166 0.014183646 0.0702277
0.025600431 0.055070035 0.075804844 0.10748027 -0.02731422 -0.037111267 -0.009110229 -0.0124591505
0.01902275 -0.03041025 0.085690185 0.07364808 0.1140647 -0.0013485461 0.0130081745 -0.031375784
-0.072011404 -0.06533322 0.09608007 0.012967764 -0.113715425 0.0139338905 0.056943264 -0.015482184
00000000: 0402 72bd 3503 2c3e aed4 0d3d 833a 723d
00000010: 5f31 863b e502 b83d 4223 58bd ab95 9fbd
00000020: 17d1 b2bd f574 b8bd 96ee 26bd 66df 783d
00000030: 55e8 e03b ca4c a63d b297 a73c 9ac2 e4bd
00000040: 0f03 5ebd c4d3 7b3c 3a44 40bd 0143 dabd
00000050: ac24 1b3e ce5a b73c 8662 683c 8ad3 8f3d
00000060: ffb7 d13c 1e91 613d 923f 9b3d 9e1e dc3d
00000070: 12c2 dfbc fc01 18bd 1243 15bc 7721 4cbc
00000080: 99d5 9b3c eb1e f9bc 567e af3d ced4 963d
00000090: c19a e93d b3c1 b0ba 3d20 553c e583 00bd
000000a0: b77a 93bd 6ccd 85bd a1c5 c43d bf76 543c
000000b0: a2e3 e8bd f94a 643c 573d 693d fca8 7dbc

model/batch_normalization_3/batchnorm/sub f4 [48]
0.26972932 -0.90100384 -0.0042919973 -0.5426671 -0.037104994 -0.12194856 0.30962774 0.6208128
0.84863114 0.3017568 -0.13710064 -0.30757645 0.22536021 -0.14977598 0.2721644 0.6358486
0.4022412 -0.2363998 0.20326786 0.6992515 -1.0260571 -0.12901193 -0.25778162 -0.08078042
0.03377124 -0.15308525 -0.14097165 -0.5945394 -0.06762896 0.18506655 0.26398447 0.35260266
-0.41135594 -0.36509869 -0.67331755 -0.33994168 -0.4406377 0.7496228 -0.3842964 0.09932059
0.2763768 0.297934 -0.20637448 -0.0041777343 0.21880528 0.056437112 0.2157852 -0.27189282
00000000: f619 8a3e 30a8 66bf e2a3 8cbb 3bec 0abf
00000010: 68fb 17bd 2bc0 f9bd 8787 9e3e 96ed 1e3f
00000020: e43f 593f de7f 9a3e 1c64 0cbe a97a 9dbe
00000030: d4c4 663e e05e 19be 2259 8b3e f9c6 223f
00000040: 8ff2 cd3e ca12 72be 7325 503e 2502 333f
00000050: d755 83bf b41b 04be f4fb 83be 3470 a5bd
00000060: b653 0a3d 61c2 1cbe df5a 10be bc33 18bf
00000070: 0d81 8abd 1682 3d3e f928 873e 5688 b43e
00000080: 3f9d d2be 37ee babe 8a5e 2cbf d60c aebe
00000090: 449b e1be 48e7 3f3f 7fc2 c4be 9868 cb3d
000000a0: 4381 8d3e ce8a 983e d553 53be 60e5 88bb
000000b0: 7e0e 603e 9a2a 673d ccf6 5c3e 8935 8bbe

model/batch_normalization_3/batchnorm/mul f4 [48]
2.2075026 2.4122238 2.4601064 2.6451955 2.3728113 2.5735703 2.354017 2.5922363
2.373746 2.804636 2.595304 2.1679194 2.4563107 3.2210412 2.2985647 2.6479814
2.4259953 2.602742 2.377029 2.7306333 2.8720434 2.1557052 2.5708146 2.0596912
2.134563 2.4633834 2.0412724 2.8857238 2.4567559 2.3909414 2.1540155 2.4873607
2.480506 2.5015018 2.0772486 2.1771903 2.0410295 2.2280653 2.205713 2.3268209
2.8027146 2.662807 2.2848692 2.2609954 2.9052434 2.2834506 2.2587316 2.393745
00000000: b947 0d40 e061 1a40 6272 1d40 e24a 2940
00000010: 24dc 1740 60b5 2440 37a8 1640 33e7 2540
00000020: 74eb 1740 287f 3340 7619 2640 31bf 0a40
00000030: 3234 1d40 8a25 4e40 af1b 1340 8778 2940
00000040: 8243 1b40 5393 2640 3e21 1840 b2c2 2e40
00000050: 8fcf 3740 13f7 0940 3a88 2440 fbd1 0340
00000060: ae9c 0840 13a8 1d40 35a4 0240 b3af 3840
00000070: 7d3b 1d40 2f05 1940 64db 0940 eb30 1f40
00000080: 9cc0 1e40 9b18 2040 a4f1 0440 1657 0b40
00000090: 3aa0 0240 9f98 0e40 672a 0d40 a2ea 1440
000000a0: ad5f 3340 6e6b 2a40 4c3b 1240 26b4 1040
000000b0: 82ef 3940 0e24 1240 0f8f 1040 1e33 1940

model/batch_normalization_2/batchnorm/sub f4 [96]
-0.21640584 -0.5491431 0.0052056275 -0.13499264 0.17311177 0.06802662 1.1162285 0.5602255
-0.19830804 -0.44754186 0.71668416 0.19856799 -0.0176972 -0.4784005 0.48953032 0.40326554
0.14642149 -0.33628106 0.43987522 -0.46961546 0.42413545 -0.6058898 0.16080707 0.049770676
-0.6247487 0.42539558 0.7501239 -0.1284177 -0.85667855 0.017637718 -0.07458657 -0.38517642
0.61049235 0.23132281 -0.6134207 0.14919125 -0.14084706 0.48983228 0.3869737 0.9710905
0.6267842 0.8476506 0.47022933 -1.1768087 -0.7377932 -0.36064053 0.42183813 -0.18956265
-0.695119 -0.44798177 0.34309343 0.45792574 -0.94383097 -0.5481877 -0.18398426 0.19612235
-0.0020253882 -0.5313982 0.73727375 0.13080436 0.30836698 -0.5341859 0.2645445 0.86075807
0.2991967 -0.14097084 -0.44371584 -0.65740365 -0.06593652 0.6666672 0.8164347 -0.2816634
0.6548854 -0.17174743 -0.24463575 -0.96819836 0.2619035 -0.30374944 0.490692 0.38597405
0.0832694 0.0109143555 0.3880487 -0.222797 -0.18134958 0.15201446 0.46394655 0.4635235
-0.36029905 0.47860974 0.020925172 1.0023245 0.06874998 -0.09305544 -0.4131839 -0.60020936
00000000: 7e99 5dbe a494 0cbf f893 aa3b 833b 0abe
00000010: 3644 313e 8a51 8b3d 93e0 8e3f f06a 0f3f
00000020: 4311 4bbe 3524 e5be 9d78 373f 6855 4b3e
00000030: b8f9 90bc e9f0 f4be b8a3 fa3e d278 ce3e
00000040: 84ef 153e 082d acbe 5337 e13e 7071 f0be
00000050: 4828 d93e 981b 1bbf 9caa 243e 56dc 4b3d
00000060: 88ef 1fbf 73cd d93e 1f08 403f ee7f 03be
00000070: 494f 5bbf fa7c 903c d8c0 98bd d835 c5be
00000080: 3a49 1c3f e3df 6c3e 2409 1dbf 97c5 183e
00000090: 363a 10be 4ccb fa3e 6b21 c63e 6399 783f
000000a0: ee74 203f a1ff 583f e6c1 f03e aba1 96bf
000000b0: 04e0 3cbf e0a5 b8be 2bfb d73e b61c 42be
000000c0: 52f3 31bf de5d e5be f1a9 af3e 3e75 ea3e
000000d0: e89e 71bf 0756 0cbf 5f66 3cbe 4cd4 483e
000000e0: 60bc 04bb b609 08bf f9bd 3c3f 94f1 053e
000000f0: 47e2 9d3e 68c0 08bf 6072 873e a45a 5c3f
00000100: 4f30 993e a95a 10be b92e e3be 9b4b 28bf
00000110: ba09 87bd b4aa 2a3f dd01 513f 2f36 90be
00000120: 92a6 273f 8fde 2fbe cb81 7abe d9db 77bf
00000130: 3718 863e 0c85 9bbe fb3b fb3e 649e c53e
00000140: 2689 aa3d 20d2 323c 52ae c63e e624 64be
00000150: b4b3 39be aea9 1b3e 678a ed3e f452 ed3e
00000160: 1e79 b8be 560c f53e 446b ab3c 2b4c 803f
00000170: cacc 8c3d da93 bebd d78c d3be 52a7 19bf

model/batch_normalization_2/batchnorm/mul f4 [96]
6.1494703 4.9618726 5.7018437 3.1162274 5.000588 4.072507 3.576726 4.876239
6.573554 6.6542163 5.51382 4.629049 7.0870852 5.380886 4.9544783 3.7489798
4.3602357 7.881627 5.6469007 3.850993 4.474174 5.2274413 4.5709367 6.742756
3.8002675 4.647321 3.6626348 7.4396067 3.4906988 5.086327 8.536419 5.5859947
4.358853 3.9376078 3.4877875 5.729137 3.949459 5.5688205 5.2733245 5.23117
4.0366554 4.3146343 7.5125003 4.832772 7.9827957 4.043287 8.461372 3.6413734
6.042616 5.363791 8.888731 4.232081 5.4365096 8.26284 6.900459 8.135939
8.51655 3.9896135 5.6011605 4.8449607 8.228632 4.7624407 6.3805027 9.148035
6.7802105 4.8824835 3.4682362 4.703251 3.9419022 5.078804 5.101249 4.8427143
6.5368896 5.774069 6.309523 5.14882 4.738402 4.431342 4.429543 7.559435
4.304463 3.9829352 7.020334 3.4931295 4.906156 4.9009104 4.086508 6.2544928
6.1077285 4.951892 6.9204106 4.325368 3.885867 3.418676 4.642272 3.8966186
00000000: 76c8 c440 a9c7 9e40 8175 b640 4570 4740
00000010: d104 a040 fa51 8240 14e9 6440 260a 9c40
00000020: 8e5a d240 57ef d440 3771 b040 2b21 9440
00000030: 67c9 e240 3830 ac40 168b 9e40 49ef 6f40
00000040: 0d87 8b40 4a36 fc40 69b3 b440 ab76 7640
00000050: 6f2c 8f40 3347 a740 1d45 9240 a8c4 d740
00000060: 9537 7340 dbb6 9440 9c68 6a40 4211 ee40
00000070: 9c67 5f40 31c3 a240 2c95 0841 78c0 b240
00000080: b97b 8b40 c401 7c40 e937 5f40 1755 b740
00000090: f0c3 7c40 c733 b240 13bf a840 bf65 a740
000000a0: 482c 8140 7c11 8a40 6766 f040 11a6 9a40
000000b0: 1073 ff40 9b62 8140 c861 0741 430c 6940
000000c0: 1c5d c140 2da4 ab40 3e38 0e41 356d 8740
000000d0: e3f7 ad40 9834 0441 8fd0 dc40 ce2c 0241
000000e0: ca43 0841 d455 7f40 b53c b340 eb09 9b40
000000f0: 7aa8 0341 ea65 9840 142d cc40 5a5e 1241
00000100: 7cf7 d840 4e3d 9c40 95f7 5d40 0881 9640
00000110: 2048 7c40 9085 a240 6f3d a340 84f7 9a40
00000120: 332e d140 2cc5 b840 9de7 c940 22c3 a440
00000130: fda0 9740 8ecd 8d40 d1be 8d40 e4e6 f140
00000140: 29be 8940 69e8 7e40 93a6 e040 6f8f 5f40
00000150: 3bff 9c40 42d4 9c40 acc4 8240 ce24 c840
00000160: 8372 c340 e675 9e40 0174 dd40 6a69 8a40
00000170: 0cb2 7840 96cb 5a40 7e8d 9440 3362 7940

model/dense/BiasAdd/ReadVariableOp f4 [48]
0.075843655 0.13194638 0.06273902 0.05643792 0.038450014 0.074831076 0.047201075 0.19372801
0.12876481 0.102469325 0.04842985 0.07427558 0.11390944 0.11745111 0.09688784 0.112979025
0.20528275 0.14587727 0.11064707 0.09664392 0.07912081 0.037703928 0.15169822 0.08778742
0.12634444 -0.004048829 0.13716675 0.13543 0.103484035 0.051678702 0.107759155 0.06551169
0.0861402 0.10915464 0.16097482 0.105827264 0.0751072 0.03625225 0.16018558 0.1521844
0.041635696 0.10165783 0.081730515 0.038334206 0.016712386 0.1654 0.118283466 0.11740901
00000000: eb53 9b3d f41c 073e 517d 803d 732b 673d
00000010: c37d 1d3d 0941 993d ea55 413d a360 463e
00000020: ecda 033e 70db d13d 615e 463d cc1d 983d
00000030: 5a49 e93d 358a f03d 226d c63d 8c61 e73d
00000040: a435 523e da60 153e ee9a e23d 3fed c53d
00000050: 170a a23d 6f6f 1a3d c756 1b3e e4c9 b33d
00000060: 7060 013e 0aac 84bb 7175 0c3e 29ae 0a3e
00000070: 70ef d33d 0cad 533d d5b0 dc3d fe2a 863d
00000080: 466a b03d 788c df3d 95d6 243e f7bb d83d
00000090: ced1 993d 3d7d 143d b007 243e 3ad6 1b3e
000000a0: 318a 2a3d fb31 d03d 5462 a73d 5404 1d3d
000000b0: 6ae8 883c 9e5e 293e 9a3e f23d 2374 f03d

model/dense_1/BiasAdd/ReadVariableOp f4 [26]
-0.05438327 0.16040699 0.082010575 0.21139579 -0.015671201 0.16961463 -0.0991568 -0.1698992
-0.16030729 -0.042293943 0.07586651 0.06292308 0.07068571 0.09593793 -0.0054260017 -0.095135085
-0.030999769 0.00690502 -0.3557616 -0.3881904 -0.360229 -0.35531184 -0.38693926 -0.3699286
-0.36755365 -0.3873898
00000000: fec0 5ebd bb41 243e 29f5 a73d 2378 583e
00000010: e460 80bc 75af 2d3e b812 cbbd 0efa 2dbe
00000020: 9827 24be 6a3c 2dbd e75f 9b3d d1dd 803d
00000030: abc3 903d 1b7b c43d 9acc b1bb 2fd6 c2bd
00000040: 3af3 fdbc 8243 e23b 6226 b6be e4c0 c6be
00000050: ef6f b8be 6feb b5be e71c c6be 4867 bdbe
00000060: fe2f bcbe f557 c6be

model/gru/gru_cell/MatMul f4 [96, 126]
-6.0284976e-05 0.00024955696 0.00014120885 -0.000863373 0.0011895837 0.0006791418 8.248504e-05 0.0014639248
0.0010440313 -0.0006773604 0.002059951 0.0011900454 -0.0004917308 0.00054343167 0.0007750118 0.00052773993
0.00068083435 0.0006950013 -0.0001559702 0.0021539745 0.0005621452 0.0008278921 0.001968628 0.0009798062
-0.00010405766 0.0018139605 0.000610091 0.0003855221 -5.4260836e-05 0.0005037173 0.0006552728 -8.9147834e-05
0.00048339518 -0.00047059054 0.0021699776 0.00018616072 -0.0006287406 0.0022783477 0.000659023 0.00040994497
0.0011601696 0.0005686316 -0.00046748618 0.0014960021 0.0005458164 0.00038976374 0.002158419 0.00037232315
-5.6127803e-05 0.0020813958 0.0004910472 0.0014958427 0.0007038881 0.00014913037 0.00014674391 0.00053072453
0.00041608996 0.0009782265 0.0009355208 0.0006821465 -0.00011591505 0.00015741901 -1.0563192e-05 0.00010528368
7.436206e-05 -1.5181486e-05 0.00019039384 0.0007207205 -0.00020235662 -4.3488195e-05 0.00056259724 -0.0006814315
0.00021444478 0.00027389263 -0.000622744 -0.00012073873 0.0009933239 -8.768822e-05 0.0009660063 0.0005798553
4.1816194e-05 0.00065487146 5.0429717e-05 -0.000415591 0.00078187126 0.0009284428 -0.0007588333 -0.00015466119
0.00032882602 -8.525532e-05 0.00014440248 0.00042106747 -0.00038395505 0.00010364156 0.00015614 -0.0010153726
-0.0009893174 0.0003236961 -0.0007423679 0.00021702863 0.0009048983 -0.0010952188 -0.00032515873 0.0005739405
-5.1062285e-05 0.00022542394 0.0003355946 -0.00035277955 -0.00053106784 0.00035128646 -0.00036647616 -0.0013009672
0.00027241177 -0.00035882497 -0.00027564014 -0.00042424834 -0.00018798442 2.4334602e-05 -0.00030553614 -0.00035650938
0.000434161 0.0005627322 -0.00039387765 -0.0010847969 -0.00031391773 -0.000734458 -6.114426e-05 -6.478587e-05
-6.803246e-06 0.0006591692 -0.00038929284 -3.8452643e-05 0.00012958776 -0.0015288059 -0.000196292 0.0010397821
-0.0018871179 -0.00045675857 0.00052586454 -0.0027879148 -0.00037789182 0.0011489482 -0.0011699906 -0.00019210229
0.00049326476 -0.00076330145 -0.0009182464 3.0560717e-05 -0.0005436219 -0.0005219813 -0.0006290212 -0.0020256923
-0.00021200873 0.00083628745 -0.0005383225 -0.00020606363 0.0013552665 -0.0017826618 -0.00052964076 0.00028608603
-0.0004958193 -0.0002110026 -0.00027410657 -0.0024081257 2.627579e-05 0.0006367823 -0.00014451791 -0.00036445152
0.00078289036 -0.000691927 -0.0004754553 0.00038272992 -0.00013249287 5.5818336e-06 -0.00011202487 -0.00092017616
0.00050402584 0.0011063924 0.00013885694 2.4632627e-05 -4.513294e-05 -0.0001575253 -0.00028197712 -0.00043867616
-0.0001970026 -0.0003696201 0.00019887286 0.00033207072 0.00050436525 0.00025786276 0.00036052242 6.2028295e-05
4.7424102e-05 -0.00039243023 -0.0004383616 0.00021058855 -0.00086862914 -0.0010089449 0.00023683086 -0.0010864516
-0.0008963103 0.00056523655 -0.0014403125 -0.0016979225 0.00014525601 9.846605e-05 -0.0008323179 0.000493482
0.00044367605 -0.0012076767 0.0008385495 0.0002219782 -0.001418789 0.00040612352 5.058736e-05 -0.0018274892
0.00032988246 0.00025080598 -0.0015764725 0.00014290337 0.00040687207 -0.0018309453 -4.7038448e-05 -0.00036827804
-0.002220432 -0.000394272 -0.0015053713 -0.001980381 0.00025819728 7.025258e-05 -0.00019619492 -0.00017394131
0.00025080531 -0.00058528734 -0.0005497469 -0.00061920774 -0.00084239367 -0.0013214706 -0.00076964695 -0.0011563615
-0.0001932108 3.2332715e-05 -0.000724421 -0.00019875391 -5.194516e-05 -0.0010113778 -0.00042643287 -0.00036265334
-0.0010333147 -0.0011400247 -0.0014201729 -0.0013543104 0.00033320935 -0.00026796226 0.0002058871 -0.00052044727
00000000: 80da 7cb8 f8d6 8239 7611 1439 fb53 62ba
00000010: ceeb 9b3a 6f08 323a d2fb ac38 2ae1 bf3a
00000020: e1d7 883a e390 31ba 3e00 073b 4cfb 9b3a
00000030: 7fe7 00ba 1575 0e3a 292a 4b3a 0758 0a3a
00000040: 057a 323a bf30 363a ef8b 23b9 b229 0d3b
00000050: ed5c 133a e606 593a 1904 013b d76c 803a
00000060: 8839 dab8 6ac2 ed3a 84ee 1f3a e61f ca39
00000070: 2196 63b8 e50b 043a 9dc6 2b3a e1f4 bab8
00000080: 3470 fd39 98b9 f6b9 2f36 0e3b 2334 4339
00000090: 11d2 24ba 5550 153b 49c2 2c3a e2ed d639
000000a0: d510 983a 3910 153a ef18 f5b9 8015 c43a
000000b0: 1e15 0f3a 3459 cc39 4374 0d3b 5e34 c339
000000c0: c56a 6bb8 0768 083b 9fb9 003a 2710 c43a
000000d0: 2185 383a e15f 1c39 45df 1939 5220 0b3a
000000e0: a626 da39 d637 803a bd3d 753a 14d2 323a
000000f0: 6b17 f3b8 d810 2539 9038 31b7 bfcb dc38
00000100: d4f2 9b38 fcb3 7eb7 75a4 4739 bcee 3c3a
00000110: b12f 54b9 1867 36b8 437b 133a 18a2 32ba
00000120: 95dc 6039 3f99 8f39 a43f 23ba 1d35 fdb8
00000130: 6b32 823a 41e5 b7b8 963b 7d3a 6e01 183a
00000140: cc63 2f38 aeab 2b3a 7f84 5338 aee3 d9b9
00000150: 7ef6 4c3a be62 733a 71ec 46ba 8c2c 22b9
00000160: 4866 ac39 1acb b2b8 bf6a 1739 b8c2 dc39
00000170: 934d c9b9 245a d938 83b9 2339 4016 85ba
00000180: fcab 81ba c1b5 a939 779b 42ba 2e92 6339
00000190: b236 6d3a 728d 8fba 117a aab9 7f74 163a
000001a0: b62b 56b8 c75f 6c39 bff2 af39 45f5 b8b9
000001b0: 5c37 0bba df2c b839 9923 c0b9 3785 aaba
000001c0: 7dd2 8e39 ac20 bcb9 cb83 90b9 a66d deb9
000001d0: af1d 45b9 2922 cc37 5e30 a0b9 e1e9 bab9
000001e0: 1aa0 e339 5284 133a 5d81 ceb9 be2f 8eba
000001f0: 5395 a4b9 a488 40ba 933a 80b8 a6dd 87b8
00000200: 7047 e4b6 19cc 2c3a 001a ccb9 3648 21b8
00000210: f3e1 0739 3762 c8ba bcd3 4db9 4c49 883a
00000220: 2b59 f7ba 1979 efb9 2cda 093a 73b5 36bb
00000230: c81f c6b9 4e98 963a 5f5a 99ba 116f 49b9
00000240: 704e 013a 4b18 48ba 79b6 70ba 522e 0038
00000250: d981 0eba 92d5 08ba e6e4 24ba 7ac1 04bb
00000260: a94e 5eb9 4d3a 5b3a 361e 0dba c912 58b9
00000270: 33a3 b13a 34a8 e9ba 97d7 0aba d1fd 9539
00000280: dff9 01ba 9440 5db9 f6b5 8fb9 a5d1 1dbb
00000290: d46a dc37 bded 263a bb89 17b9 db13 bfb9
000002a0: e23a 4d3a 6f62 35ba 8846 f9b9 24a9 c839
000002b0: c9ed 0ab9 964b bb36 e5ee eab8 fa37 71ba
000002c0: 9a20 043a 5e04 913a 209a 1139 2aa2 ce37
000002d0: 204d 3db8 602d 25b9 54d6 93b9 1efe e5b9
000002e0: 7c92 4eb9 92c9 c1b9 8788 5039 c719 ae39
000002f0: 6137 043a c131 8739 8004 bd39 3015 8238
00000300: 3ee9 4638 18bf cdb9 e6d3 e5b9 6fd1 5c39
00000310: b7b4 63ba 933e 84ba cd55 7839 4467 8eba
00000320: 5ef6 6aba 622c 143a dec8 bcba d38c deba
00000330: dd4f 1839 8f7f ce38 e92f 5aba 045d 013a
00000340: 319d e839 e84a 9eba 1bd2 5b3a d2c2 6839
00000350: a9f6 b9ba faec d439 c42d 5438 5d88 efba
00000360: 13f4 ac39 9c7e 8339 a4a1 ceba 55d8 1539
00000370: 7251 d539 54fc efba 264b 45b8 7115 c1b9
00000380: ab84 11bb 4bb6 ceb9 e14f c5ba 48c9 01bb
00000390: a75e 8739 9154 9338 acb9 4db9 0464 36b9
000003a0: 857e 8339 f86d 19ba e41c 10ba 5452 22ba
000003b0: 15d4 5cba 3235 adba 22c2 49ba 0e91 97ba
000003c0: a198 4ab9 fd9c 0738 12e7 3dba 9968 50b9
000003d0: b1df 59b8 3590 84ba da92 dfb9 8222 beb9
000003e0: 4a70 87ba e26c 95ba 1825 baba 1e83 b1ba
000003f0: 9ab2 ae39 497d 8cb9 66e3 5739 a06e 08ba
