app/src/main/assets/models/gender.tflite (tflite, 673196 bytes, 52 tensors)

model_3/batch_normalization_12/batchnorm/add_1;model_3/conv1d_6/Conv1D/Squeeze;model_3/batch_normalization_12/batchnorm/mul_1;model_3/conv1d_6/BiasAdd;model_3/conv1d_6/BiasAdd/ReadVariableOp;model_3/batch_normalization_12/batchnorm/mul;model_3/batch_normalization_12/batchnorm/sub;model_3/conv1d_6/Conv1D;model_3/conv1d_7/Conv1D f4 [96]
0.30342853 0.6579777 0.3293097 0.010865822 -0.62466 0.10917146 -0.039615765 -0.12865716
0.072714865 -0.20436913 0.42081085 0.5876279 -0.058606464 -0.41187203 -0.36226523 0.9299392
-0.3658987 -0.5478437 0.10503021 -0.343225 -0.23898637 0.48494425 0.13245672 -0.55008847
-0.109480955 -0.54311645 0.002453846 -0.14250654 -0.5475234 -0.30768386 -0.2994845 -0.38823348
-0.36917138 0.14242646 0.49237645 -0.56206304 0.6338284 -0.71636695 -0.27412927 -0.5053852
-0.35925415 -0.05451767 0.30170503 -0.0009790794 0.5729173 -0.6264373 0.5001194 -0.0029013418
-0.28119785 -0.28251228 -0.48578098 -0.008046722 -0.50639075 0.60512185 -0.24027626 0.3150562
-0.9123855 0.13858193 0.29835564 0.6179743 -0.19803257 -0.20845523 -0.41242975 0.19066489
-0.5368581 0.35840398 -0.19586924 -0.31811303 -0.023132756 0.22072516 -0.09781672 -0.5224246
-0.6296557 -0.3776133 -0.009317903 0.833785 -0.24521494 0.72074574 0.15329058 0.06598432
-0.347597 0.17572877 -0.53892165 -0.075783625 -0.52682763 0.43530184 -0.4378516 -0.504061
0.11770147 -0.3294989 -0.12075814 0.19535214 0.21746084 0.4678872 -0.22478527 -0.31548804
00000000: fc5a 9b3e 3a71 283f 489b a83e 9006 323c
00000010: b8e9 1fbf 4995 df3d 2444 22bd b4be 03be
00000020: 88eb 943d 2446 51be 8574 d73e c86e 163f
00000030: 550d 70bd e4e0 d2be d47a b9be 7f10 6e3f
00000040: 1357 bbbe 7c3f 0cbf 141a d73d 30bb afbe
00000050: d8b8 74be 9d4a f83e bca2 073e 99d2 0cbf
00000060: 8d37 e0bd ae09 0bbf b4d0 203b 3ced 11be
00000070: 7e2a 0cbf bd88 9dbe 0856 99be 8ac6 c6be
00000080: 0804 bdbe 3ed8 113e c418 fc3e 5de3 0fbf
00000090: 9442 223f d363 37bf ac5a 8cbe ed60 01bf
000000a0: 29f0 b7be ec4d 5fbd 1579 9a3e 7454 80ba
000000b0: b5aa 123f 325e 20bf d307 003f 7024 3ebb
000000c0: 2af9 8fbe 73a5 90be 49b8 f8be 66d6 03bc
000000d0: d3a2 01bf 44e9 1a3f fb0a 76be 0c4f a13e
000000e0: 1992 69bf 6ce8 0d3e 12c2 983e 9033 1e3f
000000f0: 0dc9 4abe 4a75 55be fe29 d3be a83d 433e
00000100: 886f 09bf ba80 b73e f291 48be b6df a2be
00000110: e880 bdbc c705 623e 2254 c8bd 9ebd 05bf
00000120: 1e31 21bf 8856 c1be 1eaa 18bc ef72 553f
00000130: a019 7bbe cb82 383f 35f8 1c3e ca22 873d
00000140: 3cf8 b1be 3ef2 333e c5f6 09bf 7234 9bbd
00000150: 2dde 06bf e2df de3e 162e e0be 240a 01bf
00000160: 780d f13d 14b4 a8be 0b50 f7bd 640a 483e
00000170: 0eae 5e3e e98e ef3e 1c2e 66be a687 a1be

model_3/batch_normalization_13/batchnorm/add_1;model_3/conv1d_7/Conv1D/Squeeze;model_3/batch_normalization_13/batchnorm/mul_1;model_3/conv1d_7/BiasAdd;model_3/conv1d_7/BiasAdd/ReadVariableOp;model_3/batch_normalization_13/batchnorm/mul;model_3/batch_normalization_13/batchnorm/sub;model_3/conv1d_7/Conv1D f4 [96]
-0.8413293 0.6304401 -0.4898777 -0.1841537 0.3051082 0.33590052 0.2968217 0.29832393
1.6495129 0.46571007 0.5714036 -0.7663612 0.82605636 0.9565497 0.9750609 -0.8155361
0.3516173 -0.79372865 -0.26006967 0.2685882 0.18699513 0.959704 -0.82453203 -0.1131592
-0.2552114 0.3080864 -0.62107474 -0.72974414 -0.37188345 -0.7105315 -0.82416993 0.592362
0.86181533 0.0126633495 0.84727114 -0.4315312 0.2845105 0.8670131 1.1291976 0.38664314
0.5021163 -0.6248788 -0.6827976 0.5790665 0.114067465 -0.7704272 -0.43954942 0.7250238
0.9889966 1.1084851 0.47913134 0.052996445 0.7792985 0.35188538 -0.15094018 0.88635814
-0.67694575 -0.08310087 0.99355584 -0.4860755 1.0354515 0.6377908 0.6164637 0.5774645
0.01958077 1.1252819 0.22295775 0.11401589 -0.34119117 -0.34621945 0.83180755 0.9544588
-0.7762479 0.17813796 0.31560817 1.1447417 0.19764383 0.22635938 -0.79779357 -0.5476887
0.22319418 0.40804115 -0.053080946 0.8638139 0.29516906 0.8232321 -0.07348093 0.10599393
-0.10389736 0.3907159 0.15439908 0.12778726 0.42236257 -0.08511609 0.66148674 0.21194443
00000000: 5b61 57bf 8664 213f 40d1 fabe ca92 3cbe
00000010: 2437 9c3e 27fb ab3e 04f9 973e eabd 983e
00000020: 3d23 d33f 8d71 ee3e 8247 123f 3f30 44bf
00000030: 6e78 533f 71e0 743f 979d 793f f9c6 50bf
00000040: 2f07 b43e cd31 4bbf da27 85be 6484 893e
00000050: a77b 3f3e 29af 753f 8814 53bf 03c0 e7bd
00000060: 12ab 82be 80bd 9d3e c1fe 1ebf 83d0 3abf
00000070: 8267 bebe 64e5 35bf cdfc 52bf 09a5 173f
00000080: ee9f 5c3f f079 4f3c c3e6 583f a8f1 dcbe
00000090: 5cab 913e 92f4 5d3f 8c89 903f 17f6 c53e
000000a0: b28a 003f 0ff8 1fbf d3cb 2ebf b43d 143f
000000b0: 349c e93d b83a 45bf 9f0c e1be 299b 393f
000000c0: e22e 7d3f d7e2 8d3f b450 f53e cd12 593d
000000d0: 1b80 473f 522a b43e 1090 1abe 5ee8 623f
000000e0: 514c 2dbf ca30 aabd ad59 7e3f e3de f8be
000000f0: ad89 843f 4246 233f 91d0 1d3f b7d4 133f
00000100: da67 a03c 3d09 903f 094f 643e 2a81 e93d
00000110: 9cb0 aebe ad43 b1be 57f1 543f 6957 743f
00000120: 2fb8 46bf cc69 363e 6597 a13e e586 923f
00000130: 2563 4a3e c1ca 673e 333c 4cbf 5435 0cbf
00000140: 048d 643e c5ea d03e 686b 59bd e822 5d3f
00000150: 6620 973e 57bf 523f 2b7d 96bd 5813 d93d
00000160: 24c8 d4bd ea0b c83e cb1a 1e3e aada 023e
00000170: e83f d83e 5851 aebd 3257 293f f607 593e

model_3/batch_normalization_12/batchnorm/mul_1;model_3/conv1d_6/Conv1D/Squeeze;model_3/conv1d_6/BiasAdd;model_3/conv1d_6/BiasAdd/ReadVariableOp;model_3/batch_normalization_12/batchnorm/mul;model_3/conv1d_6/Conv1D;model_3/conv1d_7/Conv1D f4 [96, 1, 3, 126]
-0.0049378737 0.014947556 0.000881085 -0.2673715 0.09569859 -0.35684153 -0.23823953 -0.48103607
-0.319769 -0.09220351 -0.4339635 -0.14777896 0.2652233 0.17228867 -0.004897172 0.13841563
-0.21861853 -0.14874089 -0.063690655 0.4734586 -0.13769752 -0.0097461175 0.35240328 -0.19783649
0.078464754 0.212735 -0.33957458 0.062221475 0.00789908 0.05286356 -0.1336924 0.83448035
0.12332465 -0.19572745 0.5496374 0.15218617 0.49066588 0.24000412 0.08494079 -0.10776324
-0.33018774 0.18008645 -0.21947455 0.20846522 0.121075474 -0.26702952 0.49557528 -0.05952434
-0.030375145 0.2441487 -0.1883979 -0.12125227 -0.7274142 0.367109 0.014241924 -0.65156335
0.18032892 0.06315448 -0.63427687 -0.061901413 0.36542124 -0.6223395 -0.26227167 0.0176139
-0.027253618 -0.0041910335 -0.0070396583 -0.028263029 0.02971015 -0.016890863 0.02375034 0.034764603
-0.030500913 -0.0037248326 0.0489303 -0.034991443 -0.008799602 0.066004746 0.0019696448 0.08149282
0.035162214 0.0141837755 0.029455315 0.032741047 0.02247258 0.02178074 0.04794422 0.023768177
-0.09898301 0.0132217 0.016048335 0.112540774 -0.0054606358 0.035194784 -0.024309311 0.016136114
0.067499615 -0.05527965 0.027559021 0.09005903 -0.057428695 0.0164882 -0.04206776 0.12138853
-0.019620353 -0.023648256 0.042763628 -0.0114698345 0.013515461 0.037193384 -0.008913019 0.031698275
0.08230684 -0.02617725 -0.093989834 0.1406134 -0.03705592 -0.0825989 0.09955308 -0.033631694
-0.05625982 0.06635321 -0.036330532 -0.023471255 0.09354113 -0.047049783 0.00083520554 0.018778142
0.0046562883 -0.27336645 0.102133 -0.3456366 -0.20866884 -0.43576863 -0.29596403 -0.0614384
-0.3707669 -0.11483334 -0.14288053 0.23915213 0.037974343 0.07688223 -0.1366239 -0.14389788
0.17105162 0.48083282 -0.10720038 0.023688124 0.25174037 -0.15132314 0.07769417 0.1393439
-0.27388847 0.042089578 -0.010967601 0.057996016 -0.20424087 0.8568246 0.15933077 0.18639052
0.58670944 0.20304964 0.099935 0.12894608 0.14058699 -0.11315764 -0.32560077 0.19750953
-0.14717096 0.5512109 0.16765432 -0.40244067 0.042553145 -0.007223003 0.24583404 0.08722102
-0.14701648 -0.06693324 -0.64935935 0.40571153 -0.0724159 -0.6041346 0.23603694 -0.10994407
-0.4718968 -0.013986716 0.1880245 -0.60481155 -0.22877458 0.020415142 -0.016289355 -0.0054166615
-0.007010034 -0.035365373 0.031802718 -0.020715248 0.01686585 0.031813927 -0.032149985 -0.0021887359
0.04053009 -0.032634884 -0.0032753686 0.059961867 0.011926583 0.025177982 0.031894635 0.026368922
-0.03658879 0.02754547 0.041762672 -0.09604058 0.042399075 0.04164528 -0.121181436 0.011732455
0.03001352 0.099206634 -0.011485428 0.056174938 -0.042238303 0.008218697 0.09749746 -0.078404486
0.021475596 0.1266547 -0.066901796 0.0105292145 -0.04009438 0.104436874 -0.028645739 -0.016045932
0.02659597 -0.019947894 0.025121873 0.035433564 -0.020424545 0.04238788 0.06777581 -0.03734778
-0.09225684 0.14045845 -0.04896902 -0.08114682 0.10243311 -0.047751702 -0.052535918 0.07151137
-0.04832955 -0.01727593 0.098854095 -0.06060301 -0.0065431674 0.020580478 0.0003633378 -0.24959424
00000000: e3cd a1bb 98e6 743c 9df8 663a ebe4 88be
00000010: 9ffd c33d efb3 b6be 10f5 73be 5c4a f6be
00000020: c3b8 a3be 32d5 bcbd 7730 debe 5e53 17be
00000030: 59cb 873e 716c 303e 7578 a0bb d4bc 0d3e
00000040: 89dd 5fbe 884f 18be 3f70 82bd 2a69 f23e
00000050: 9400 0dbe 2eae 1fbc 346e b43e a695 4abe
00000060: 21b2 a03d 34d7 593e b8dc adbe f2db 7e3d
00000070: 256b 013c 7687 583d a9e6 08be 81a0 553f
00000080: a291 fc3d c76c 48be 09b5 0c3f b1d6 1b3e
00000090: 8f38 fb3e a4c3 753e 70f5 ad3d f9b2 dcbd
000000a0: 5e0e a9be 9568 383e f0bd 60be e877 553e
000000b0: 6bf6 f73d 18b8 88be 0bbc fd3e cbcf 73bd
000000c0: 4cd5 f8bc 1e02 7a3e 61eb 40be 1c53 f8bd
000000d0: d137 3abf b6f5 bb3e f556 693c dbcc 26bf
000000e0: 25a8 383e 2357 813d f85f 22bf 568c 7dbd
000000f0: 7e18 bb3e a451 1fbf 7948 86be 074b 903c
00000100: fb42 dfbc f054 89bb efac e6bb de87 e7bc
00000110: b362 f33c b55e 8abc 1390 c23c 5465 0e3d
00000120: 0ddd f9bc 521c 74bb 236b 483d 3053 0fbd
00000130: 352c 10bc 7f2d 873d 2815 013b b5e5 a63d
00000140: 4106 103d 1163 683c 464c f13c 7a1b 063d
00000150: 6b18 b83c 866d b23c 2961 443d 7bb5 c23c
00000160: 9bb7 cabd d49f 583c cc77 833c c77b e63d
00000170: 22ef b2bb 6828 103d 5224 c7bc e22f 843c
00000180: 3d3d 8a3d ea6c 62bd 75c3 e13c de70 b83d
00000190: 5a3a 6bbd 4312 873c 3e4f 2cbd 8d9a f83d
000001a0: ddba a0bc fdb9 c1bc ea28 2f3d f9eb 3bbc
000001b0: f46f 5d3c 1758 183d e907 12bc 0dd6 013d
000001c0: 7d90 a83d ac71 d6bc be7d c0bd f6fc 0f3e
000001d0: f3c7 17bd 9d29 a9bd 7ce2 cb3d 63c1 09bd
000001e0: b270 66bd 31e4 873d 53cf 14bd ca46 c0bc
000001f0: 7e92 bf3d 46b7 40bd b2f1 5a3a 9ed4 993c
00000200: c793 983b b0f6 8bbe 1b2b d13d 48f7 b0be
00000210: 49ad 55be 111d dfbe 9988 97be d5a6 7bbd
00000220: 29d5 bdbe be2d ebbd 464f 12be 4ce4 743e
00000230: fc8a 1b3d 6e74 9d3d 23e7 0bbe f759 13be
00000240: 2828 2f3e b82f f63e df8b dbbd 990d c23c
00000250: 1de4 803e 74f4 1abe 1f1e 9f3d 2bb0 0e3e
00000260: 1c3b 8cbe 1f66 2c3d 74b1 33bc 3b8d 6d3d
00000270: 8524 51be db58 5b3f 9b27 233e 28dd 3e3e
00000280: 9732 163f 3fec 4f3e b9aa cc3d 710a 043e
00000290: 09f6 0f3e 31bf e7bd 25b5 a6be f03f 4a3e
000002a0: fcb3 16be 281c 0d3f 93ad 2b3e b40c cebe
000002b0: 354c 2e3d f1ae ecbb ebbb 7b3e efa0 b23d
000002c0: 7d8b 16be 4b14 89bd 6a3c 26bf 6cb9 cf3e
000002d0: ca4e 94bd 91a8 1abf abb3 713e 5b2a e1bd
000002e0: 759c f1be 8a28 65bc 7f89 403e eed4 1abf
000002f0: e243 6abe a83d a73c 4171 85bc 407e b1bb
00000300: 6db4 e5bb 48db 10bd 9143 023d 06b3 a9bc
00000310: 402a 8a3c 524f 023d b4af 03bd e570 0fbb
00000320: e102 263d 28ac 05bd 91a7 56bb 939a 753d
00000330: b767 433c 0e42 ce3c f3a3 023d a303 d83c
00000340: 21de 15bd 0aa7 e13c 560f 2b3d ecb0 c4bd
00000350: a7aa 2d3d 3e94 2a3d f92d f8bd 7c39 403c
00000360: eade f53c d92c cb3d 602d 3cbc b117 663d
00000370: 1202 2dbd b7a7 063c c0ac c73d 8892 a0bd
00000380: 97ed af3c c5b1 013e cf03 89bd ba82 2c3c
00000390: 013a 24bd 00e3 d53d 78aa eabc c272 83bc
000003a0: cbdf d93c c469 a3bc 63cc cd3c c922 113d
000003b0: 6051 a7bc ea9e 2d3d 0bce 8a3d fcf9 18bd
000003c0: 27f1 bcbd 57d4 0f3e bd93 48bd 4e30 a6bd
000003d0: 73c8 d13d 4a97 43bd e72f 57bd 8e74 923d
000003e0: 35f5 45bd 4086 8dbc 0474 ca3d dd3a 78bd
000003f0: 1168 d6bb 6498 a83c 607e be39 a295 7fbe

model_3/batch_normalization_13/batchnorm/mul_1;model_3/conv1d_7/Conv1D/Squeeze;model_3/conv1d_7/BiasAdd;model_3/conv1d_7/BiasAdd/ReadVariableOp;model_3/batch_normalization_13/batchnorm/mul;model_3/conv1d_7/Conv1D f4 [96, 1, 3, 96]
0.008108569 0.010071547 -0.0075713587 0.017963072 0.005563182 0.024229791 0.083923236 0.012860474
-0.004330938 0.027795102 -0.032256182 0.0035481094 0.020382293 -0.024566045 0.057794858 0.010174621
0.07324844 -0.049422614 0.022982214 0.011453048 0.0155054 0.03583457 -0.019485986 0.0016722617
0.014620368 -0.009034236 0.020720946 0.051774196 -0.02114863 -0.0013941907 0.077176414 0.068156995
-0.025116887 0.050134104 0.0076411366 -0.00038188972 -0.00932461 0.021068633 -0.021267293 0.012700995
-0.010253695 0.027528973 0.017914578 0.001957544 0.054051507 -0.025041308 0.016114673 0.0055228467
0.01363915 0.07753496 0.0040613366 -0.02330005 0.02092132 0.01651605 0.038857874 -0.01927283
-0.015133264 0.030439457 0.03993499 0.004589889 0.016988281 -0.0010806897 0.032798655 -0.015643774
-0.0068333196 0.035941545 -0.004026321 0.035414148 0.023401206 0.016715035 0.04805871 -0.023825401
0.042733565 0.070559986 0.031341404 -0.027964627 0.013432525 0.02589385 -0.01773375 0.011930451
0.026960583 0.02010151 0.019789167 0.003002628 0.06601306 -0.021809507 0.03171366 0.00076789455
0.035361994 -0.0108365305 0.04234369 0.021930426 -0.071718656 -0.0025689318 0.02813864 0.0012264247
0.015262838 0.012229324 -2.0866077e-05 0.019943377 0.008052689 0.027034475 0.09225813 0.01592525
-0.008167329 0.03003473 -0.029140925 0.007997745 0.020765912 -0.022322284 0.059432376 0.009725408
0.07874019 -0.051647115 0.027673911 0.008783288 0.01733927 0.0419094 -0.017845122 0.002841684
0.019024702 -0.006003062 0.02346051 0.05359504 -0.018479697 1.5314024e-05 0.08024817 0.06574503
-0.02351852 0.05585025 0.010428101 0.0018449271 -0.003974097 0.02229789 -0.021056037 0.012046963
-0.0071633663 0.033715118 0.020353897 0.002096724 0.062037528 -0.023580546 0.02002058 0.006200638
0.013243312 0.07785016 0.001852809 -0.022740679 0.020909898 0.019329613 0.04096412 -0.02046814
-0.012628828 0.033136867 0.042119145 0.0076765264 0.018590983 0.0013164015 0.03900865 -0.014150185
-0.0078064757 0.035460632 -0.00021631218 0.036948137 0.02695278 0.018757857 0.05260165 -0.02186812
0.046117343 0.07106237 0.035542563 -0.02746765 0.014962702 0.026157713 -0.0136900805 0.0136545645
0.027471533 0.023783358 0.020090654 0.00875928 0.06674844 -0.021054782 0.031437017 0.003691492
0.04070742 -0.009345085 0.04238185 0.026409555 -0.07268341 0.0014009831 0.027542831 0.0044643446
0.012142965 0.015448529 0.00037801245 0.013251089 0.0076891794 0.022029249 0.09094975 0.019011388
-0.017901888 0.029706143 -0.024988841 0.008740795 0.015315387 -0.020482559 0.057668176 0.0094773425
0.07600396 -0.050108176 0.02467428 0.0038342497 0.008366002 0.043308597 -0.013712147 0.003093007
0.020819264 -0.006681591 0.021957137 0.047271993 -0.01659309 1.3040381e-05 0.07875589 0.061285842
-0.020021716 0.05638107 0.011066375 0.0015164985 -0.0007995575 0.022008922 -0.01954016 0.008603929
-0.0068925694 0.031081038 0.01600876 0.0006686358 0.06547297 -0.020906482 0.02013622 0.005846011
0.009307988 0.07442185 -0.00040058314 -0.021520292 0.016953861 0.023059255 0.039095946 -0.021402124
-0.012786956 0.031056246 0.036527578 0.0070296708 0.015271881 0.0010123858 0.03944881 -0.010928668
00000000: ced9 043c 2103 253c 2919 f8bb 4b27 933c
00000010: 5a4b b63b 8e7d c63c f2df ab3d bdb4 523c
00000020: 8bea 8dbb 8eb2 e33c 0f1f 04bd 6687 683b
00000030: c4f8 a63c bb3e c9bc 4dba 6c3d 74b3 263c
00000040: 4703 963d 5e6f 4abd 3245 bc3c 91a5 3b3c
00000050: 5c0a 7e3c 45c7 123d 13a1 9fbc cb2f db3a
00000060: 458a 6f3c 5504 14bc f9be a93c 2e11 543d
00000070: e43f adbc 47bd b6ba ab0e 9e3d e595 8b3d
00000080: eec1 cdbc 6b59 4d3d 8062 fa3b 5f38 c8b9
00000090: 40c6 18bc 2098 ac3c bf38 aebc d617 503c
000000a0: 1dff 27bc 7184 e13c 98c1 923c 234a 003b
000000b0: 1d65 5d3d 6e23 cdbc eb02 843c fff8 b43b
000000c0: be76 5f3c a6ca 9e3d f614 853b bfdf bebc
000000d0: 3063 ab3c ab4c 873c 6f29 1f3d 0ee2 9dbc
000000e0: 82f1 77bc 2b5c f93c df92 233d c866 963b
000000f0: 022b 8b3c eea5 8dba e257 063d 5f27 80bc
00000100: 0aea dfbb 7137 133d 3bef 83bb 6d0e 113d
00000110: e3b3 bf3c f8ed 883c 36d9 443d 7d2d c3bc
00000120: 6409 2f3d c181 903d d85f 003d 1316 e5bc
00000130: 1814 5c3c 571f d43c 5f46 91bc f077 433c
00000140: 71dc dc3c ecab a43c e41c a23c bdc7 443b
00000150: db31 873d daa9 b2bc 2fe6 013d 884c 493a
00000160: bdd7 103d b48b 31bc 9470 2d3d 70a7 b33c
00000170: 3be1 92bd 865b 28bb 0183 e63c fcbf a03a
00000180: fc10 7a3c 815d 483c 8f09 afb7 4b60 a33c
00000190: 6def 033c 6777 dd3c d5f1 bc3d ab75 823c
000001a0: 43d0 05bc 650b f63c f3b8 eebc f908 033c
000001b0: 461d aa3c 39dd b6bc 5d6f 733d 5157 1f3c
000001c0: 8942 a13d ed8b 53bd 66b4 e23c c8e7 0f3c
000001d0: 160b 8e3c 31a9 2b3d ef2f 92bc 8c3b 3a3b
000001e0: b1d9 9b3c 55b5 c4bb 4130 c03c 7986 5b3d
000001f0: bc62 97bc 9e76 8037 2759 a43d 55a5 863d
00000200: e9a9 c0bc 3bc3 643d a0da 2a3c 7bd1 f13a
00000210: 2439 82bb 11aa b63c b67d acbc a060 453c
00000220: acba eabb dd18 0a3d 37bd a63c 3169 093b
00000230: 101b 7e3d fd2b c1bc 3302 a43c b92e cb3b
00000240: 7afa 583c e86f 9f3d f4d9 f23a a94a babc
00000250: 3c4b ab3c 2359 9e3c fec9 273d cdac a7bc
00000260: 25e9 4ebc 86ba 073d 2085 2c3d 5f8b fb3b
00000270: 1e4c 983c 1b8b ac3a 89c7 1f3d 2dd6 67bc
00000280: 77cd ffbb 2b3f 113d dcd1 62b9 ee56 173d
00000290: 14cc dc3c 14aa 993c d474 573d c624 b3bc
000002a0: 8ae5 3c3d 2689 913d 1495 113d d603 e1bc
000002b0: 1f26 753c b348 d63c 5c4c 60bc 65b7 5f3c
000002c0: fb0b e13c 51d5 c23c 2895 a43c 1583 0f3c
000002d0: 68b3 883d 147b acbc 1ac4 003d f5ec 713b
000002e0: d3bc 263d 211c 19bc 9798 2d3d da58 d83c
000002f0: 0adb 94bd 31a1 b73a 81a1 e13c a349 923b
00000300: 49f3 463c d41b 7d3c f92f c639 181b 593c
00000310: 83f5 fb3b af76 b43c dd43 ba3d c5bd 9b3c
00000320: fba6 92bc 4c5a f33c 66b5 ccbc 8d35 0f3c
00000330: 64ed 7a3c 0acb a7bc 7735 6c3d db46 1b3c
00000340: f7a7 9b3d 3b3e 4dbd b721 ca3c 0948 7b3b
00000350: 8e11 093c 5b64 313d eaa8 60bc 0cb4 4a3b
00000360: 298d aa3c 3ff1 dabb 74df b33c 47a0 413d
00000370: 3bee 87bc 03c8 5a37 c54a a13d dd06 7b3d
00000380: 9504 a4bc d6ef 663d be4f 353c 3fc5 c63a
00000390: 6599 51ba 0e4c b43c b012 a0bc 7ef7 0c3c
000003a0: 10db e1bb a99d fe3c ce24 833c 6447 2f3a
000003b0: b116 863d 1244 abbc b7f4 a43c e58f bf3b
000003c0: 8880 183c 7c6a 983d 5c05 d2b9 534b b0bc
000003d0: d3e2 8a3c c3e6 bc3c 1223 203d 8253 afbc
000003e0: 6180 51bc ab69 fe3c f19d 153d 2759 e63b
000003f0: e936 7a3c 08b2 843a 1395 213d 280e 33bc

model_3/gru_7/gru_cell/strided_slice_4 f4 [48]
0.058743782 0.018131927 -0.027941506 0.0063326056 -0.007222408 -0.044275977 0.051697318 0.12541449
0.012143826 -0.039680034 0.0331193 0.040385943 -0.055812143 0.1148943 0.013462392 -0.071134716
-0.08685289 0.10514094 0.071454376 0.008138985 0.021741046 -0.03433259 0.0052895737 0.02885009
-0.01825746 0.05989345 0.08914526 -0.05344825 0.07790915 -0.03716288 0.1059094 -0.018717991
0.014409269 0.005565318 0.030691223 -0.024427658 0.00855691 -0.0790092 -0.009480312 -0.007527668
0.09094902 0.0055405037 0.10642133 0.101556115 0.06958765 0.035944328 0.038692124 0.16301028
00000000: 529d 703d 6889 943c 96e5 e4bc bf81 cf3b
00000010: f3a9 ecbb ba5a 35bd 91c0 533d a86c 003e
00000020: e6f6 463c 8887 22bd 1aa8 073d bb6b 253d
00000030: 469b 64bd b44d eb3d 5d91 5c3c 14af 91bd
00000040: eedf b1bd 2254 d73d ac56 923d 6159 053c
00000050: 471a b23c 54a0 0cbd 2954 ad3b 0657 ec3c
00000060: ab90 95bc d652 753d ca91 b63d 8dec 5abd
00000070: d58e 9f3d 1b38 18bd 07e7 d83d 7956 99bc
00000080: db14 6c3c 455d b63b 296c fb3c 831c c8bc
00000090: 4832 0c3c 93cf a1bd 4f53 1bbc a8aa f6bb
000000a0: 7b43 ba3d 1d8d b53b 6df3 d93d a7fc cf3d
000000b0: f883 8e3d 5c3a 133d a27b 1e3d 2bec 263e

model_3/gru_7/gru_cell/strided_slice_3 f4 [48]
0.18899314 -0.018868875 0.15259302 0.11314081 -0.025329161 0.05501637 0.035331383 -0.1030239
-0.019963924 0.035463214 0.059747502 0.036739904 -0.080462605 -0.08046473 0.26213464 0.018703258
0.07091541 -0.02305393 -0.021110974 -0.03491525 0.05372171 0.09365732 -0.023056088 -0.13292673
-0.10883344 0.05074141 0.15353344 0.10336662 -0.057977337 0.0033784637 0.06330946 -0.03483816
0.032138444 0.10835434 -0.10902004 0.11545049 0.035969812 -0.10093739 0.018063372 -0.07876625
-0.020091364 -0.031870753 0.138271 0.07196429 0.093142286 0.069833264 -0.023465429 0.07039851
00000000: 6b87 413e e692 9abc 5841 1c3e 5eb6 e73d
00000010: 1a7f cfbc d858 613d a4b7 103d 32fe d2bd
00000020: 628b a3bc e041 113d ccb9 743d 957c 163d
00000030: 94c9 a4bd b1ca a4bd 8336 863e 9337 993c
00000040: 193c 913d 98db bcbc ecf0 acbc 4b03 0fbd
00000050: 4c0b 5c3d 69cf bf3d 1fe0 bcbc f21d 08be
00000060: 11e4 debd 3ad6 4f3d df37 1d3e e1b1 d33d
00000070: a579 6dbd 3769 5d3b 64a8 813d 75b2 0ebd
00000080: 9aa3 033d e1e8 dd3d e645 dfbd 4e71 ec3d
00000090: 1555 133d 43b8 cebd a3f9 933c 3350 a1bd
000000a0: a596 a4bc e88a 02bd ea96 0d3e 0462 933d
000000b0: 62c1 be3d be04 8f3d 923a c0bc 182d 903d

model_3/gru_7/gru_cell/strided_slice_5 f4 [48]
0.045942243 -0.015259103 -0.07568314 -0.10478264 -0.055413283 -0.03967153 -0.019111184 -0.049735885
-0.0233514 -0.013966189 0.050204467 0.037314117 0.098434016 0.047778524 -0.016434003 0.112803675
-0.040604625 -0.051822066 -0.08150699 -0.07067736 0.0018076673 0.017053759 -0.022563249 -0.014237798
0.1205387 0.08435206 -0.026476514 -0.012325021 -0.08067331 0.08550762 -0.05080884 0.071663834
0.010497076 -0.03341355 -0.06756196 -0.18522702 -0.11257964 0.0071421103 -0.038738333 -0.00020486841
-0.012217664 0.044956196 -0.03497343 0.051277358 -0.032485247 0.15349823 -0.07939819 -0.089056864
00000000: ef2d 3c3d 5101 7abc c3ff 9abd 4898 d6bd
00000010: 0af9 62bd 9d7e 22bd 0f8f 9cbc dbb7 4bbd
00000020: 6f4b bfbc 71d2 64bc 33a3 4d3d b0d6 183d
00000030: c697 c93d 6ab3 433d 9aa0 86bc 9d05 e73d
00000040: 0951 26bd 6043 54bd 23ed a6bd 4bbf 90bd
00000050: 40ef ec3a 53b4 8b3c 90d6 b8bc a745 69bc
00000060: fedc f63d c6c0 ac3d 46e5 d8bc e3ee 49bc
00000070: 0c38 a5bd 9e1e af3d ee1c 50bd 7dc4 923d
00000080: eefb 2b3c a6dc 08bd ed5d 8abd 27ac 3dbe
00000090: 2790 e6bd 5d08 ea3b 16ac 1ebd f2d1 56b9
000000a0: 992c 48bc fd23 383d 4d40 0fbd 3508 523d
000000b0: 400f 05bd a42e 1d3e 859b a2bd 7263 b6bd

model_3/gru_7/gru_cell/strided_slice_11 f4 [48]
0.026498739 -0.012584074 -0.089680605 -0.07177728 -0.046507545 0.036199905 0.0084269 -0.037372075
-0.01225198 -0.0064205513 -0.0073833084 0.04624722 0.050044917 0.012055257 -0.038142223 0.072025426
-0.03953435 -0.027162582 -0.04572333 -0.052448295 -0.033460487 0.009717836 0.0010622104 -0.027202576
0.09248013 0.07017455 -0.039108317 -0.019035941 -0.054961707 0.07892717 0.0016330648 0.04152023
0.009220995 -0.005196265 0.015832791 -0.139751 -0.054797392 0.0015886399 -0.028572084 0.014099603
0.037121106 0.05457413 -0.040224303 0.054709367 -0.017309792 0.13297084 -0.06704141 -0.083725244
00000000: e213 d93c 6f2d 4ebc 77aa b7bd f7ff 92bd
00000010: b27e 3ebd 5a46 143d fb10 0a3c 7613 19bd
00000020: 87bc 48bc 7d63 d2bb aeef f1bb ba6d 3d3d
00000030: e6fb 4c3d 6a83 453c 053b 1cbd 1182 933d
00000040: c5ee 21bd 1084 debc 6348 3bbd 06d4 56bd
00000050: dd0d 09bd 8f37 1f3c de39 8b3a f0d7 debc
00000060: 3966 bd3d adb7 8f3d 0b30 20bd 43f1 9bbc
00000070: 871f 61bd 91a4 a13d 900c d63a 1e11 2a3d
00000080: a813 173c 6e45 aabb c5b3 813c e31a 0fbe
00000090: 3b73 60bd e939 d03a 0110 eabc 0502 673c
000000a0: 4d0c 183d 1f89 5f3d 3dc2 24bd ee16 603d
000000b0: 44cd 8dbc 8229 083e 024d 89bd 2478 abbd

model_3/gru_6/gru_cell/strided_slice_4 f4 [96]
-0.019905347 0.022248501 0.050742626 0.02767696 0.069379084 -0.042526886 0.016190577 -0.023392795
0.1525667 0.012466509 0.1575287 -0.017000986 -0.08067846 0.042272918 0.013491517 0.016603526
0.033466607 0.0038498573 0.07440978 -0.06406623 -0.07499441 -0.029868744 -0.009809049 0.0137717
0.087037705 0.08930553 -0.07429046 0.022940155 -0.006853815 -0.002396462 -0.002492628 0.037547372
0.04477938 -0.019207403 0.0104577625 0.0727542 -0.048834436 0.057583686 0.04363075 0.029200979
-0.004287484 0.013353777 -0.017586198 -0.007835907 0.07371746 0.13891071 0.033132218 -0.050288144
0.047304798 -0.050695546 0.062097892 0.041082986 0.07692991 -0.040138207 0.048885852 0.03213109
-0.03847754 0.06422798 0.0069926246 -0.03259698 0.08533316 -0.03802219 -0.076457225 0.0055008554
0.04784726 -0.06058282 0.029825753 0.00031544236 0.072675884 -0.0004321057 -0.025442407 0.07743096
0.23661494 0.016571024 0.042349067 0.006740893 0.065626174 0.13427831 0.083945476 0.045529816
0.08547874 -0.0037135347 -0.013411244 -0.13659002 0.10714677 -0.15578079 0.028780598 -0.016789576
0.010551749 0.12095835 -0.030424563 0.000909561 0.012424796 -0.012648086 -0.009669292 0.045196824
00000000: 8a10 a3bc 7d42 b63c 80d7 4f3d cbba e23c
00000010: 9f16 8e3d ac30 2ebd 1aa2 843c 3fa2 bfbc
00000020: 723a 1c3e 5440 4c3c 344f 213e a745 8bbc
00000030: c03a a5bd 5e26 2d3d 860b 5d3c 1e04 883c
00000040: 4814 093d e34d 7c3b 2864 983d 2835 83bd
00000050: ab96 99bd 4caf f4bc 22b6 20bc b2a2 613c
00000060: d340 b23d d1e5 b63d 9925 98bd feec bb3c
00000070: f895 e0bb f60d 1dbb 5c5b 23bb 46cb 193d
00000080: 956a 373d d858 9dbc 0957 2b3c 2700 953d
00000090: 9e06 48bd dfdc 6b3d 28b6 323d e436 ef3c
000000a0: 067e 8cbb cdc9 5a3c ee10 90bc 2d62 00bc
000000b0: 2ef9 963d 9c3e 0e3e a6b5 073d f1fa 4dbd
000000c0: adc2 413d 22a6 4fbd 5c5a 7e3d a246 283d
000000d0: 6e8d 9d3d f667 24bd 883c 483d e49b 033d
000000e0: a09a 1dbd f689 833d 6322 e53b 6984 05bd
000000f0: 27c3 ae3d 28bd 1bbd 9b95 9cbd 8540 b43b
00000100: 7dfb 433d b125 78bd 2355 f43c f561 a539
00000110: 18d7 943d 3f8c e2b9 986c d0bc 2094 9e3d
00000120: 304b 723e f5bf 873c 3776 2d3d b5e2 dc3b
00000130: 0467 863d 4180 093e 9beb ab3d 797d 3a3d
00000140: 7a0f af3d c65e 73bb d6ba 5bbc 41de 0bbe
00000150: c46f db3d 0085 1fbe 4ac5 eb3c 4b8a 89bc
00000160: 3ee1 2c3c 03b9 f73d ef3c f9bc 9b6f 6e3a
00000170: 5f91 4b3c eb39 4fbc f36b 1ebc 4e20 393d

model_3/gru_6/gru_cell/strided_slice_3 f4 [96]
-0.100444116 0.04215916 0.035547387 0.12704109 0.0041034035 0.081036486 0.08302903 -0.041531183
0.12115927 -0.23876512 0.14479527 -0.14699155 0.0048662736 0.060709443 0.121008195 -0.08334796
0.113270395 -0.0546405 -0.0018677119 -0.044863228 -0.008338297 0.026059967 0.12940292 0.005035899
0.058896147 0.05022005 -0.1434432 0.067374885 -0.0310577 0.14376663 -0.051225383 0.1410424
0.07992491 -0.13309085 0.043381643 0.16269487 -0.0058955196 0.085118786 0.0096770115 0.03407403
0.050777104 -0.0046971217 -0.009732896 -0.056069434 0.10273142 0.16509694 -0.07099136 -0.10414786
0.009378182 -0.045189857 -0.008531115 0.1331452 0.058947355 -0.04988752 0.08305715 0.11735519
-0.038205888 0.23910563 0.057781998 -0.10160773 0.02869122 -0.05381945 -0.09983634 -0.026001409
0.05799147 -0.012146246 0.032041002 0.06637635 0.14737141 0.106448464 0.07905739 0.07318203
0.31870744 0.07852358 -0.0468154 0.09193764 -0.012291693 0.14621584 0.19136845 0.05864008
0.16844492 -0.048900418 0.06749669 -0.09571211 -0.12320196 0.096309386 0.038600568 0.061186064
-0.051569793 0.21874957 -0.092918195 0.03935603 0.047373973 0.0516446 -0.08978962 0.066560745
00000000: a5b5 cdbd 15af 2c3d 239a 113d 0f17 023e
00000010: d875 863b 75f6 a53d 200b aa3d 9a1c 2abd
00000020: 5a22 f83d d87e 74be 3645 143e f484 16be
00000030: 4375 9f3b 77aa 783d 25d3 f73d 56b2 aabd
00000040: 4ffa e73d b8ce 5fbd 03ce f4ba 81c2 37bd
00000050: 5a9d 08bc b67b d53c 3382 043e 2f04 a53b
00000060: 163d 713d 8ab3 4d3d c6e2 12be d8fb 893d
00000070: b86c febc 8f37 133e b5d1 51bd 6b6d 103e
00000080: acaf a33d f848 08be f3b0 313d 7c99 263e
00000090: 342f c1bb c252 ae3d 548c 1e3c 3691 0b3d
000000a0: a7fb 4f3d 50ea 99bb ba76 1fbc 10a9 65bd
000000b0: da64 d23d 2c0f 293e eb63 91bd 794b d5bd
000000c0: f2a6 193c 0019 39bd 17c6 0bbc 3757 083e
000000d0: c872 713d db56 4cbd de19 aa3d eb57 f03d
000000e0: c77d 1cbd 1bd8 743e d1ac 6c3d b717 d0bd
000000f0: d909 eb3c c971 5cbd ff76 ccbd e800 d5bc
00000100: 7788 6d3d 0c01 47bc 6d3d 033d 53f0 873d
00000110: 88e8 163e a701 da3d d7e8 a13d 76e0 953d
00000120: 9f2d a33e f9d0 a03d 81c1 3fbd cd49 bc3d
00000130: 1963 49bc 9bb9 153e 17f6 433e 9530 703d
00000140: d37c 2c3e ce4b 48bd b43b 8a3d b604 c4bd
00000150: 4f51 fcbd db3d c53d a11b 1e3d 3d9e 7a3d
00000160: d93a 53bd e3ff 5f3e e54b bebd ca33 213d
00000170: 360b 423d 4a89 533d 9fe3 b7bd 0051 883d

model_3/gru_6/gru_cell/strided_slice_5 f4 [96]
-0.03936953 0.010090606 -0.011042962 -0.13379072 -0.046121817 -0.014100305 0.0018523721 0.052098732
-0.012296076 -0.0021658204 -0.07746035 -0.019848835 -0.093364485 0.025603993 -0.084358536 -0.0362394
0.013433139 0.018653763 -0.00993833 0.010409044 0.03939314 0.047747232 -0.027907316 0.0021684172
-0.037848245 0.053108145 0.021423101 -0.13751705 -0.015438384 0.008385514 0.010893808 -0.05912003
0.0015797841 0.05018472 0.018859 -0.046562716 -0.012944631 -0.05978016 0.05085064 -0.008810113
0.0019171851 0.06925645 -0.016540332 -0.013793493 0.055786267 -0.024687972 0.042893488 0.044090662
-0.015137184 0.005987575 0.009483402 -0.0013081463 -0.0034008517 -0.0005706497 0.0053088875 0.020596836
0.023501007 0.015555801 0.026373245 0.019499937 0.00752455 -0.010904576 -0.013365607 -0.04200139
-0.021737132 -0.012550646 -0.038852163 -0.03550787 -0.009143739 -0.016347626 -0.016659874 -0.08562501
0.0650114 0.015147 0.019031916 -0.04166876 -0.057179775 -0.10942874 0.04303314 -0.044528134
0.00078212144 0.07539238 -0.0033465493 -0.0039530694 -0.009594296 0.024173986 -0.00778131 0.008519338
-6.025628e-05 -0.037365314 -0.017246054 0.012877795 0.022795565 0.0077431793 -0.008736939 -0.027285479
00000000: f241 21bd 1253 253c 8aed 34bc 6f00 09be
00000010: 3bea 3cbd f704 67bc 4bcb f23a 7b65 553d
00000020: 7b75 49bc 70f0 0dbb 88a3 9ebd 069a a2bc
00000030: e135 bfbd 77bf d13c 2bc4 acbd c46f 14bd
00000040: ab16 5c3c c7cf 983c 61d4 22bc b28a 2a3c
00000050: b35a 213d 9a92 433d e29d e4bc 011c 0e3b
00000060: c306 1bbd ed87 593d 807f af3c 45d1 0cbe
00000070: 47f1 7cbc 6563 093c f17b 323c d827 72bd
00000080: c210 cf3a 7e8e 4d3d 317e 9a3c 8cb8 3ebd
00000090: b815 54bc 0bdc 74bd c348 503d 4b58 10bc
000000a0: 0f4a fb3a 53d6 8d3d 977f 87bc 1afe 61bc
000000b0: 2480 643d 6e3e cabc 15b1 2f3d 6998 343d
000000c0: f401 78bc 6b33 c43b 4560 1b3c 1b76 abba
000000d0: d3e0 5ebb a797 15ba 2df6 ad3b b2ba a83c
000000e0: 2f85 c03c c2dd 7e3c b40c d83c 55be 9f3c
000000f0: 8090 f63b 1ba9 32bc 6bfb 5abc a609 2cbd
00000100: 1212 b2bc 3aa1 4dbc 7223 1fbd b370 11bd
00000110: 9fcf 15bc 75eb 85bc 4a7a 88bc 2a5c afbd
00000120: b224 853d 1f2b 783c d2e8 9b3c ddac 2abd
00000130: 5735 6abd 2d1c e0bd 8543 303d 2263 36bd
00000140: 4807 4d3a 5267 9a3d c851 5bbb c088 81bb
00000150: 6531 1dbc 8608 c63c 5cfa febb b294 0b3c
00000160: b0bb 7cb8 5f0c 19bd 9947 8dbc 63fd 523c
00000170: c4bd ba3c 7fba fd3b 6125 0fbc cc85 dfbc

model_3/gru_6/gru_cell/strided_slice_11 f4 [96]
-0.029246302 0.0026074604 -0.0018367928 -0.09752355 -0.0727501 -0.014722171 -0.024670968 0.05132845
0.0094014015 0.015939275 -0.062002234 -0.0118176965 -0.053305373 0.0017477145 -0.089042485 -0.023919784
0.018070724 0.020307323 0.009483434 0.0046874243 0.060140133 0.016116882 -0.021436837 -0.013253822
-0.04268693 0.018065615 0.018491939 -0.08812241 -0.016389519 0.029822765 0.023127126 -0.060301647
-0.012725004 0.06675018 -0.0129012875 -0.03025646 0.0029949585 -0.05636373 0.040545322 -0.0115975235
-0.022853576 0.0638823 -0.0004028976 -0.0012802536 0.040562414 -0.024898728 0.0332219 0.041760396
-0.043469284 0.018874275 -0.019799052 0.0002737257 0.004705798 0.0016050962 0.008936093 0.027277054
0.031057838 0.024765976 0.02759462 -0.0060356692 -0.0028040947 -0.03089704 -0.0021280467 -0.017576845
-0.005241183 -0.010150972 -0.031436328 -0.028536981 -0.018160764 -0.018406596 0.0045759333 -0.031345528
0.009873215 0.012285153 -0.009752525 -0.020370925 -0.019798132 -0.07031578 0.03776782 -0.019106692
-0.00875844 0.071952626 0.021913128 0.023365168 -0.016410999 0.0019128432 -0.017024731 0.01782264
-0.008268494 0.013452412 -0.007380242 -0.016304115 0.018489249 0.009588346 -0.01998928 -0.007734963
00000000: f195 efbc ede1 2a3b 8ac0 f0ba 6dba c7bd
00000010: 01fe 94bd 4335 71bc c51a cabc c83d 523d
00000020: 5608 1a3c 1593 823c 0ef6 7dbd 039f 41bc
00000030: bc56 5abd 9113 e53a e85b b6bd 6cf3 c3bc
00000040: 0e09 943c 8b5b a63c 6860 1b3c f798 993b
00000050: 8055 763d 8d07 843c 4e9c afbc 8f26 59bc
00000060: 7ed8 2ebd 57fe 933c 687c 973c 8679 b4bd
00000070: 5043 86bc df4e f43c 1975 bd3c dcfe 76bd
00000080: 897c 50bc 52b4 883d ec5f 53bc 65dc f7bc
00000090: 1147 443b a8dd 66bd da12 263d 8a03 3ebc
000000a0: 6c37 bbbc b9d4 823d 003c d3b9 2fce a7ba
000000b0: c624 263d 6bf8 cbbc b013 083d f30c 2b3d
000000c0: d90c 32bd 399e 9a3c 9f31 a2bc d782 8f39
000000d0: 1833 9a3b 1762 d23a b168 123c 2174 df3c
000000e0: 026d fe3c 04e2 ca3c 1d0e e23c ddc6 c5bb
000000f0: e7c4 37bb ca1b fdbc b376 0bbb 51fd 8fbc
00000100: 3bbe abbb 4350 26bc 61c3 00bd 63c6 e9bc
00000110: e2c5 94bc 6ec9 96bc b6f1 953b 2b64 00bd
00000120: 44c3 213c ab47 493c 0ec9 1fbc ede0 a6bc
00000130: b12f a2bc b801 90bd 6eb2 1a3d a385 9cbc
00000140: 8f7f 0fbc e65b 933d 2983 b33c 4f68 bf3c
00000150: 5c70 86bc 5eb8 fa3a 7377 8bbc c900 923c
00000160: 9478 07bc 8167 5c3c f5d5 f1bb 3590 85bc
00000170: c476 973c 7018 1d3c 8fc0 a3bc 9375 fdbb

model_3/batch_normalization_15/batchnorm/sub f4 [48]
0.25356412 0.046718687 0.54825383 0.5958909 0.6372415 0.06453097 -0.32592648 0.23684247
0.28386587 -0.095262535 -0.0402549 -0.25931543 -0.30188498 -0.119083084 0.18348047 -0.37920293
0.05164502 0.25036007 0.16753885 0.22082174 -0.115616515 0.009711161 -0.05954669 0.05408174
-0.34431243 -0.20833802 0.15387988 -0.26608092 0.36670128 -0.6718308 -0.22344321 -0.35659388
0.1815847 0.30608648 -0.03640513 0.93850315 0.18197227 -0.3607087 -0.116671756 -0.25293985
0.053392243 -0.10653919 -0.39104193 -0.43416077 -0.45730776 -0.9693067 0.16293181 0.5078607
00000000: 28d3 813e 185c 3f3d 5d5a 0c3f 4e8c 183f
00000010: 4222 233f d028 843d d6df a6be d586 723e
00000020: de56 913e 0119 c3bd 52e2 24bd fec4 84be
00000030: ab90 9abe d5e1 f3bd 4ee2 3b3e e326 c2be
00000040: ba89 533d 322f 803e 4e8f 2b3e 181f 623e
00000050: 5ac8 ecbd 901b 1f3c 3be7 73bd d184 5d3d
00000060: b849 b0be 9056 55be b092 1d3e c23b 88be
00000070: 45c0 bb3e 1afd 2bbf 4cce 64be 7993 b6be
00000080: 57f1 393e 5eb7 9c3e 8c1d 15bd be41 703f
00000090: f056 3a3e d0ae b8be 9af1 eebd 5581 81be
000000a0: d3b1 5a3d 3831 dabd a636 c8be 524a debe
000000b0: 3e24 eabe 7c24 78bf 99d7 263e 2903 023f

model_3/batch_normalization_15/batchnorm/mul f4 [48]
2.5791616 2.4368212 2.575176 2.3940651 2.2607713 2.5968876 2.521982 2.1703296
2.4553435 2.8374112 2.7095494 2.1107578 2.2157836 2.2014682 2.218183 2.3407168
3.224491 2.0338113 2.1191201 2.258206 2.5183835 2.928463 2.1085813 2.050629
2.4321012 2.354084 2.4697464 2.35383 2.234331 4.226165 2.1159153 2.2161472
2.7084634 2.6946695 2.3234365 2.835825 2.1181839 2.3999581 2.5928757 2.3260412
2.1094816 2.6871567 2.4117348 2.1770973 2.4471579 2.579467 2.1421843 2.7934134
00000000: fc10 2540 e1f4 1b40 afcf 2440 5d38 1940
00000010: 7ab0 1040 6833 2640 2768 2140 aee6 0a40
00000020: 5924 1d40 2598 3540 4269 2d40 a816 0740
00000030: 66cf 0d40 dbe4 0c40 b6f6 0d40 4ece 1540
00000040: 0f5e 4e40 f729 0240 aa9f 0740 7286 1040
00000050: 322d 2140 f06b 3b40 fff2 0640 813d 0340
00000060: 8ca7 1b40 50a9 1640 5310 1e40 27a5 1640
00000070: 47ff 0e40 be3c 8740 286b 0740 5bd5 0d40
00000080: 7757 2d40 7775 2c40 2fb3 1440 287e 3540
00000090: 5390 0740 ea98 1940 adf1 2540 dcdd 1440
000000a0: bf01 0740 60fa 2b40 dd59 1a40 9055 0b40
000000b0: 3c9e 1c40 fd15 2540 8c19 0940 49c7 3240

model_3/batch_normalization_14/batchnorm/sub f4 [96]
0.36336732 -0.01694329 0.45024133 0.2491696 0.7101371 -0.22070721 -0.5897187 -0.34810704
-0.012947204 0.07793765 0.25289977 0.61725336 0.54444355 0.27687168 0.09526514 0.67625535
-0.16130051 0.051686846 0.6650099 -0.6940563 -0.06600623 0.16715539 0.44766548 0.5682724
0.33989012 0.090763435 -0.4319408 0.21177667 -0.52357185 -0.28801614 -0.27362594 0.1438206
0.25570005 -0.4767489 0.03465454 0.95813787 0.008178446 0.6706394 0.19094487 -0.382405
-0.27184016 -0.9831937 0.14310724 0.14992154 -1.3606259 1.1726606 0.15820338 0.11794528
0.17524439 -0.45985457 -0.16382898 -0.47956783 -0.153126 -0.49534535 -0.56537944 -0.14122716
-0.28037268 -0.038638026 0.59174764 -0.10063456 0.14380914 0.40635777 -0.35396495 0.6371306
0.15218198 0.0753629 0.38896394 -0.31259763 0.21333323 -0.12483319 -0.5077843 0.1529826
-0.17826529 -0.32097298 -0.031636685 -0.39558518 0.21223982 0.5420962 -0.7603291 -0.00961013
-0.22055842 -0.16424452 -0.43827352 0.068872206 0.084552206 -0.15235078 0.38627613 -0.5574017
-0.047869295 0.34177208 0.020231731 0.050158527 -0.386615 0.29910806 0.08794181 0.8101696
00000000: 480b ba3e a8cc 8abc 0886 e63e 5126 7f3e
00000010: 8ccb 353f 1201 62be cef7 16bf 163b b2be
00000020: 8220 54bc c69d 9f3d 147c 813e 5104 1e3f
00000030: a760 0b3f 20c2 8d3e 5f1a c33d 121f 2d3f
00000040: f62b 25be 96b5 533d 173e 2a3f acad 31bf
00000050: 462e 87bd c82a 2b3e 6934 e53e 4d7a 113f
00000060: 1406 ae3e 2ee2 b93d 5827 ddbe fcdb 583e
00000070: ce08 06bf da76 93be b318 8cbe b545 133e
00000080: 1eeb 823e 6f18 f4be ebf1 0d3d 8648 753f
00000090: e4fe 053c 06af 2b3f 0d87 433e 97ca c3be
000000a0: a22e 8bbe 95b2 7bbf b48a 123e 0885 193e
000000b0: fd28 aebf be19 963f 1100 223e 4c8d f13d
000000c0: 4473 333e 0f72 ebbe c9c2 27be ea89 f5be
000000d0: 10cd 1cbe e89d fdbe b5bc 10bf da9d 10be
000000e0: 028d 8fbe e842 1ebd c67c 173f 7e19 cebd
000000f0: b442 133e 200e d03e e53a b5be fe1a 233f
00000100: 98d5 1b3e dd57 9a3d 4826 c73e cc0c a0be
00000110: 0774 5a3e 8ba8 ffbd 27fe 01bf 78a7 1c3e
00000120: 2d8b 36be 9256 a4be 7895 01bd 248a cabe
00000130: 6555 593e d1c6 0a3f eea4 42bf cf73 1dbc
00000140: 11da 61be b72f 28be 6365 e0be df0c 8d3d
00000150: b529 ad3d d801 1cbe fcc5 c53e e1b1 0ebf
00000160: 9812 44bd c0fc ae3e 04bd a53c 0773 4d3d
00000170: 67f2 c5be b124 993e d61a b43d 4667 4f3f

model_3/batch_normalization_14/batchnorm/mul f4 [96]
6.42481 3.2254055 5.2409835 3.2741675 5.381766 5.001983 4.481329 5.4723177
2.6683972 5.028585 1.9729031 6.2167697 8.506453 4.9182644 3.1978426 4.0053616
3.1958761 3.5170617 4.029795 9.306889 6.6101546 4.3216743 6.290683 4.8350034
3.1937332 2.367441 6.4591775 3.520788 4.573887 5.4937873 5.0131555 4.0033865
4.2102685 7.5101366 6.232953 4.3614874 3.936942 4.0398026 4.1180825 4.000464
4.077373 5.141946 6.8397493 7.0646634 4.8898168 3.9620435 5.5532107 5.556979
4.7654963 8.325026 3.3419619 3.2994297 2.4838655 6.3088565 3.6551435 5.101439
7.901067 3.9538488 5.2107806 5.9493537 3.204944 6.6736617 9.857038 5.7519407
3.2002983 7.349076 5.5373006 4.2231855 2.4952188 3.394782 5.369072 2.9547148
2.3896987 3.1059806 4.491704 5.139997 3.6247942 2.5449402 4.197802 3.0823767
2.7041905 4.0654902 5.5931964 6.6493583 3.582154 12.4596815 5.472803 5.9452863
4.93465 3.5786521 3.0897408 5.39241 4.442783 6.4785295 4.0210924 5.2121654
00000000: 0b98 cd40 0b6d 4e40 23b6 a740 f68b 5140
00000010: 6d37 ac40 3f10 a040 0c67 8f40 3a1d af40
00000020: 05c7 2a40 2bea a040 1788 fc3f c7ef c640
00000030: 6e1a 0841 6c62 9d40 74a9 4c40 ec2b 8040
00000040: 3c89 4c40 8a17 6140 15f4 8040 04e9 1441
00000050: 6386 d340 284b 8a40 464d c940 59b8 9a40
00000060: 2066 4c40 2784 1740 95b1 ce40 9754 6140
00000070: 485d 9240 1bcd af40 c56b a040 be1b 8040
00000080: 85ba 8640 0a53 f040 5a74 c740 4e91 8b40
00000090: dcf6 7b40 1046 8140 55c7 8340 cd03 8040
000000a0: d779 8240 d28a a440 3adf da40 b911 e240
000000b0: 6179 9c40 1f92 7d40 e7b3 b140 c6d2 b140
000000c0: f27e 9840 4e33 0541 b4e2 5540 db29 5340
000000d0: a7f7 1e40 27e2 c940 dfed 6940 fd3e a340
000000e0: 8ad5 fc40 dc0b 7d40 b7be a640 1b61 be40
000000f0: cd1d 4d40 a38e d540 6db6 1d41 e60f b840
00000100: b0d1 4c40 a12b eb40 9131 b140 5624 8740
00000110: aab1 1f40 1c44 5940 70cf ab40 0c1a 3d40
00000120: d3f0 1840 63c8 4640 0abc 8f40 db7a a440
00000130: a1fc 6740 4de0 2240 6554 8640 a945 4540
00000140: 7511 2d40 7f18 8240 77fb b240 8bc7 d440
00000150: 0342 6540 db5a 4741 3421 af40 c93f be40
00000160: a7e8 9d40 a308 6540 50be 4540 9f8e ac40
00000170: 472b 8e40 1d50 cf40 caac 8040 0fca a640

model_3/dense_7/BiasAdd/ReadVariableOp f4 [26]
0.118704185 0.10683739 -0.067725204 0.029753134 -0.076548204 0.060682606 0.21915726 0.05535437
0.023636935 -0.011770526 -0.010540297 0.043708302 -0.28369683 -0.27882677 -0.2693625 -0.2771152
-0.30049595 -0.2631631 -0.30570254 -0.25225025 -0.28680018 -0.29788327 -0.2816662 -0.27735412
-0.30075228 -0.2710275
00000000: 2e1b f33d 90cd da3d 83b3 8abd d8bc f33c
00000010: 4ec5 9cbd 538e 783d c36a 603e 44bb 623d
00000020: 3fa2 c13c 2ad9 40bc 36b1 2cbc 7a07 333d
00000030: b640 91be 62c2 8ebe e2e9 89be 0be2 8dbe
00000040: 9bda 99be 50bd 86be 0b85 9cbe f226 81be
00000050: 79d7 92be 2884 98be 8d36 90be 5c01 8ebe
00000060: 34fc 99be 1ec4 8abe

model_3/dense_6/BiasAdd/ReadVariableOp f4 [48]
0.11883229 0.1733571 0.015766306 0.20797981 0.13362697 0.13542157 0.048060536 0.078082815
0.09375629 0.112907715 0.08480744 0.05252457 0.15109843 0.11071569 0.029332954 0.09221378
0.06662 0.108350456 0.14754993 0.13198267 0.059439234 0.112439916 0.09303265 0.10882973
0.16057505 0.176974 0.089340195 0.08712596 0.02886032 0.0028855463 0.118330576 0.028210064
0.10027089 0.17277478 0.015612372 0.11730208 0.16733366 0.16028625 0.012429884 0.1186586
0.14921492 0.1317283 0.17478132 0.04028155 0.01606742 0.16990268 0.016405366 0.09399487
00000000: 585e f33d 8684 313e 5728 813c a9f8 543e
00000010: 82d5 083e f4ab 0a3e 20db 443d e2e9 9f3d
00000020: 4c03 c03d 293c e73d 86af ad3d 0124 573d
00000030: 8cb9 1a3e e8be e23d aa4b f03c 94da bc3d
00000040: 1170 883d d8e6 dd3d 5417 173e 7726 073e
00000050: 8e76 733d e646 e63d e787 be3d 1fe2 de3d
00000060: c96d 243e ac38 353e fef7 b63d 186f b23d
00000070: 7a6c ec3c 6f1b 3d3b 4d57 f23d cb18 e73c
00000080: d35a cd3d dfeb 303e 09cb 7f3c 133c f03d
00000090: 8459 2b3e 1422 243e b6a6 4b3c 4803 f33d
000000a0: cccb 183e c9e3 063e e0f9 323e 44fe 243d
000000b0: d29f 833c f8fa 2d3e 8c64 863c 6280 c03d

model_3/gru_6/gru_cell/MatMul f4 [96, 126]
-0.00011310133 0.00012414862 4.1620107e-05 1.4713478e-05 -0.00033717917 0.00023185348 -0.00052558817 0.0010871502
0.0007003272 0.0013443264 0.0013683994 -0.0001862846 -0.0006918123 -5.2595897e-05 0.0002912802 0.00017302594
0.0011750994 0.0002718271 -0.00046025825 0.0009867391 0.00061029656 -0.0008021462 0.0006542024 -0.00025126312
-0.0005015443 0.0005637831 0.0010124996 0.00019864834 0.00045751533 1.0941114e-05 -0.00033624013 0.0010854861
0.000791374 -0.00016262902 -7.7815e-05 0.00148875 9.753074e-05 0.00090712484 0.0007176569 0.0004021798
1.9773603e-05 0.00047462844 0.0008495295 -1.2774708e-06 0.0011835034 0.0003406526 -0.0010931655 0.00024377319
0.00017581174 8.6242035e-05 0.000461261 0.0003583203 0.0005396468 0.0006899444 0.00074380136 -0.0008001903
0.00045884508 0.00048691835 0.00050932186 0.00034986975 0.0003334027 0.0002175042 5.405109e-05 7.508517e-05
0.0006096878 9.725827e-05 -0.00012373476 0.00054279517 -0.00018796459 -0.00015191437 0.0005967084 2.2289008e-05
6.332539e-05 0.0010357241 0.00025604584 -7.293572e-05 0.00080933137 0.00033023156 -0.00063957094 0.00039550115
-0.00013321896 -0.00015330628 0.0003323791 0.00045531237 -0.0004736044 0.0007347635 0.0003003321 -0.00077267573
0.0004953418 -7.508717e-05 0.0002383525 0.0011297185 0.0008792481 -0.00016899644 0.00012967245 0.00074048666
-4.7849673e-05 0.00090790447 0.00036845286 -0.0001357723 0.0006893463 0.0007441059 -4.7170033e-05 0.00041668297
0.00034180784 -0.00056622183 0.000958093 0.00039484957 -0.0008693972 0.00035477543 0.00058387115 -0.0009466016
0.0010583102 0.0007757934 6.120507e-05 0.00044586585 2.2188437e-05 -0.00021268302 0.00042166357 0.00045051458
-0.00035210198 0.00076031144 0.0003064452 -0.00012453369 0.00050560856 0.00031914344 -0.00011101721 0.000320929
0.00019749651 0.0001811342 -0.0015059902 -0.00037812337 0.001264718 -0.0019220744 -0.00015767303 0.0013981902
-0.001862344 8.824072e-07 0.0018372692 -0.0013990696 -0.000101845275 0.00070582546 -0.0011732822 -0.00092835235
0.0022393211 -0.0024601265 -0.0008164324 0.0010255347 -0.0012276208 -0.00080761814 0.0016323641 -0.0018179773
-0.0008451271 0.00058620964 -0.0007654976 2.222732e-05 0.0011266823 -0.0011125534 -0.00085016765 0.0017628301
-0.0013935232 -0.00022361579 0.0017082245 -0.0006051272 2.8523218e-05 0.00038543803 0.00019543686 -0.0006356522
0.0020816552 -0.0008750901 0.00028755798 0.0015592535 -0.0014481798 -0.00010531314 0.0006132119 -0.0013848721
0.0001016773 0.00096792093 0.001052823 -0.0007310097 0.0020779886 -0.00037861554 0.00050140586 0.0024041564
-0.0012539079 0.00083515485 0.0016629933 -0.0016025694 0.0006152935 8.761112e-05 -5.3173237e-05 -0.00042998398
0.0010794972 -0.00043587852 -0.0010349068 0.0008286947 -0.0008739867 -0.00097164296 0.0013981969 -0.001122427
-0.00033251138 0.0018341689 -0.00088468747 -0.001130981 0.00062587636 -0.0011617544 0.00025139353 0.0003439244
-0.0008292922 -0.00024255825 0.0003932054 -0.0017888093 0.001060513 0.0010089407 -0.0013176142 0.0010528357
-0.0006145106 -0.0009510702 0.0005305788 -0.00044114466 -0.00062211056 0.00040467898 0.0003611517 -0.0005216583
0.0006782329 0.0002094657 -9.851823e-05 0.001207836 -0.00015850205 -0.0010791968 0.001063779 0.00079347426
-0.0007182905 0.0014511712 0.0011851571 -0.0014764286 0.0012825932 0.0015627858 -0.0008917671 0.0013160101
-5.4994853e-05 -0.0009852689 0.0009771725 0.00033037143 -0.0008173537 0.0017413063 0.00032049627 -0.0010298043
0.0017423632 0.00040084525 -0.0010615877 0.0021128252 -0.00037443973 -2.9598872e-05 0.00018776822 0.0013980387
00000000: d030 edb8 e42d 0239 4091 2e38 e8d9 7637
00000010: 6cc7 b0b9 b21d 7339 a0c7 09ba b57e 8e3a
00000020: 2a96 373a 1c34 b03a dd5b b33a 6455 43b9
00000030: bd5a 35ba 6a9a 5cb8 f7b6 9839 4c6e 3539
00000040: cb05 9a3a 0484 8e39 d14e f1b9 7855 813a
00000050: 4ffc 1f3a 1f47 52ba c87e 2b3a f7bb 83b9
00000060: 117a 03ba d8ca 133a d9b5 843a 424c 5039
00000070: abde ef39 ba8f 3737 6349 b0b9 df46 8e3a
00000080: 3674 4f3a 6587 2ab9 9c30 a3b8 2922 c33a
00000090: 6b89 cc38 1ecc 6d3a 2421 3c3a a9db d239
000000a0: 7ddf a537 8dd7 f839 f6b2 5e3a 9075 abb5
000000b0: c91f 9b3a 9e99 b239 8c48 8fba 5e9d 7f39
000000c0: 1b5a 3839 d7dc b438 67d5 f139 f0dc bb39
000000d0: 1577 0d3a 63dd 343a aafb 423a ddc3 51ba
000000e0: 2591 f039 1349 ff39 0384 053a b96e b739
000000f0: 8ecc ae39 d711 6439 eab4 6238 0b77 9d38
00000100: 75d3 1f3a 23f7 cb38 ccbe 01b9 5e4a 0e3a
00000110: 5c18 45b9 344b 1fb9 6c6c 1c3a 48f9 ba37
00000120: 8fcd 8438 22c1 873a e43d 8639 11f5 98b8
00000130: 4f29 543a ee22 ad39 e1a8 27ba 445b cf39
00000140: b1b0 0bb9 d7c0 20b9 2b43 ae39 feb6 ee39
00000150: 1b4e f8b9 259d 403a e475 9d39 648d 4aba
00000160: d3d9 013a 1e78 9db8 43ee 7939 1013 943a
00000170: 577d 663a a334 31b9 aff8 0739 381d 423a
00000180: 32b2 48b8 7000 6e3a e82c c139 195e 0eb9
00000190: 3fb5 343a 1a10 433a 70d8 45b8 3e76 da39
000001a0: ac34 b339 816e 14ba 8828 7b3a d003 cf39
000001b0: 42e8 63ba 2701 ba39 ee0e 193a 5c25 78ba
000001c0: ffb6 8a3a 9d5e 4b3a 395b 8038 1ac3 e939
000001d0: 4e21 ba37 aa03 5fb9 ba12 dd39 0b33 ec39
000001e0: 549a b8b9 a34f 473a 61aa a039 4295 02b9
000001f0: d18a 043a b552 a739 e9d1 e8b8 5c42 a839
00000200: 1117 4f39 d7ee 3d39 a564 c5ba dc3e c6b9
00000210: e5c4 a53a 1dee fbba 0855 25b9 7a43 b73a
00000220: e519 f4ba 90de 6c35 86d0 f03a fc60 b7ba
00000230: c495 d5b8 2507 393a d1c8 99ba ac5c 73ba
00000240: 93c1 123b 133a 21bb da05 56ba 3c6b 863a
00000250: 1ee8 a0ba 56b6 53ba 0df5 d53a 3249 eeba
00000260: 858b 5dba ddab 193a adab 48ba ce74 ba37
00000270: 2fad 933a 19d3 91ba c9dd 5eba c30e e73a
00000280: e1a6 b6ba 687a 6ab9 81e6 df3a 66a1 1eba
00000290: 2545 ef37 9e14 ca39 2fee 4c39 e6a1 26ba
000002a0: 616c 083b 4d66 65ba 61c3 9639 de5f cc3a
000002b0: dad0 bdba 90db dcb8 f4bf 203a 9984 b5ba
000002c0: 963b d538 13bc 7d3a e1fe 893a 3ba1 3fba
000002d0: dd2e 083b eb80 c6b9 c770 033a 0d8f 1d3b
000002e0: 2b5a a4ba 4bee 5a3a ccf8 d93a 4e0d d2ba
000002f0: a64b 213a ddbb b738 5406 5fb8 796f e1b9
00000300: ea7d 8d3a a086 e4b9 b6a5 87ba c33c 593a
00000310: 411c 65ba dbb5 7eba b443 b73a 671e 93ba
00000320: ec54 aeb9 7f68 f03a 5fea 67ba 6d3d 94ba
00000330: da11 243a 0246 98ba 78cd 8339 c050 b439
00000340: dc64 59ba 3c57 7eb9 2327 ce39 7b76 eaba
00000350: e900 8b3a 6f3e 843a ccb3 acba 4eff 893a
00000360: 1c17 21ba 3e51 79ba 8a16 0b3a 6f49 e7b9
00000370: 2215 23ba 182b d439 f658 bd39 e5bf 08ba
00000380: 70cb 313a 05a4 5b39 929b ceb8 4050 9e3a
00000390: 9233 26b9 d673 8dba 806e 8b3a 2801 503a
000003a0: a94b 3cba 3a35 be3a 4657 9b3a b984 c1ba
000003b0: b01c a83a 64d6 cc3a 7ac5 69ba f97d ac3a
000003c0: 46aa 66b8 2324 81ba 7814 803a b435 ad39
000003d0: ae43 56ba 8b3c e43a 4808 a839 80fa 86ba
000003e0: 0260 e43a 8a28 d239 f924 8bba 5377 0a3b
000003f0: 7350 c4b9 184b f8b7 a6e3 4439 653e b73a
