app/src/main/assets/models/gender.tflite (tflite, 673196 bytes, 52 tensors)

model_4/batch_normalization_16/batchnorm/add_1;model_4/conv1d_8/Conv1D/Squeeze;model_4/batch_normalization_16/batchnorm/mul_1;model_4/conv1d_8/BiasAdd;model_4/conv1d_8/BiasAdd/ReadVariableOp;model_4/batch_normalization_16/batchnorm/mul;model_4/batch_normalization_16/batchnorm/sub;model_4/conv1d_8/Conv1D;model_4/conv1d_9/Conv1D f4 [96]
0	0xbdca69e8	-0.09883481
1	0xbd82f798	-0.06394881
2	0xbe97ac21	-0.2962351
3	0xbf27f47b	-0.6560742
4	0x3ecd2ab6	0.40071648
5	0x3de0a680	0.10969257
6	0xbf3471b4	-0.70486
7	0xbef27b3f	-0.47359654
8	0xbe01d789	-0.12679876
9	0x3e310a70	0.17289138
10	0x3e239aba	0.15976992
11	0x3aec8040	0.0018043593
12	0xbede6818	-0.43438792
13	0x3f3aafd2	0.7292453
14	0xbe416855	-0.18887456
15	0x3f854da9	1.0414325
16	0xbd80f557	-0.06296795
17	0xbe27f0da	-0.16400471
18	0xbe2718e8	-0.16318095
19	0x3f1c712b	0.6111018
20	0x3f29e7ad	0.66369134
21	0xbe9b0fc8	-0.30285478
22	0x3eb65bef	0.35617015
23	0xbe8ab985	-0.27094665
24	0xbd8c5fd5	-0.06854216
25	0xbd28cfde	-0.041213863
26	0xbe9ff11d	-0.31238642
27	0x3c3e9746	0.011632746
28	0xbf045fc9	-0.51708657
29	0x3ebef80f	0.3729863
30	0xbf0311cb	-0.51199025
31	0xbd81d63a	-0.063396886
32	0x3ec6ce7e	0.38829416
33	0xbe9f9a34	-0.31172335
34	0xbeb1a265	-0.3469421
35	0xbefdb2db	-0.49550518
36	0xbe9f122b	-0.3106855
37	0xbf1ac1b9	-0.6045185
38	0xbe976141	-0.29566386
39	0xba4bc000	-0.00077724457
40	0x3e8b437f	0.27199933
41	0x3e8f06b0	0.2793479
42	0x3e963100	0.2933426
43	0xbe4c312c	-0.19940633
44	0x3f159c44	0.5844157
45	0xbe3020dc	-0.17200035
46	0x3f3e5fe2	0.74365056
47	0x3f87382b	1.0564016
48	0x3dea706e	0.114472255
49	0x3f54db4a	0.8314711
50	0xbe335b7a	-0.17515364
51	0xbe63f263	-0.22260432
52	0x3d05a6f4	0.032629922
53	0x3c83af59	0.016074823
54	0xbe5418b1	-0.20712544
55	0xbd625363	-0.055255305
56	0xbe983185	-0.2972528
57	0xbe3e39fd	-0.18576808
58	0xbea55b66	-0.32296294
59	0x3e4d92d6	0.20075545
60	0x3e86369e	0.26213545
61	0xbf525565	-0.8216155
62	0xbe822da9	-0.2542546
63	0x3f3e3f9c	0.7431581
64	0xbefccee7	-0.49376604
65	0xbe038426	-0.1284338
66	0xbd6f2756	-0.058387123
67	0xbea9695c	-0.33088195
68	0xbdc18f6c	-0.09451184
69	0x3f460835	0.7735627
70	0xbf0d0fb9	-0.55102116
71	0xbe6ac3f6	-0.22926316
72	0x3cc808db	0.024418285
73	0xbf1892c3	-0.5959894
74	0xbef49db7	-0.47776577
75	0xbe11fa10	-0.14255548
76	0xbeb006a9	-0.3438008
77	0xbf07d05f	-0.53052324
78	0x3f0462ac	0.5171306
79	0xbd30311c	-0.043015584
80	0xbefe3a30	-0.4965377
81	0xbf21eeef	-0.6325521
82	0x3e97d52d	0.29654828
83	0x3d00401b	0.031311136
84	0xbe276e39	-0.1635064
85	0xbd1d1b42	-0.038356073
86	0xbed78077	-0.42090198
87	0xbecbd7d5	-0.39813104
88	0xbf3f792e	-0.7479428
89	0xbf7a895a	-0.9786583
90	0xbd365b44	-0.04452063
91	0xbf02d761	-0.5110989
92	0xbe8a364f	-0.2699456
93	0x3a76ce80	0.0009414926
94	0xbdf3bb4e	-0.1190096
95	0x3f11cbdc	0.5695169

model_4/batch_normalization_17/batchnorm/add_1;model_4/conv1d_9/Conv1D/Squeeze;model_4/batch_normalization_17/batchnorm/mul_1;model_4/conv1d_9/BiasAdd;model_4/conv1d_9/BiasAdd/ReadVariableOp;model_4/batch_normalization_17/batchnorm/mul;model_4/batch_normalization_17/batchnorm/sub;model_4/conv1d_9/Conv1D f4 [96]
0	0x3fb6b517	1.4274014
1	0x3f17d77c	0.5931318
2	0xbecafb6d	-0.39644948
3	0x3f1d6049	0.61475044
4	0x3e8dfc3d	0.27731505
5	0xbe1db9e5	-0.15402944
6	0x3e1b1d08	0.15147793
7	0xbf84cd1f	-1.0375098
8	0x3d63c504	0.05560781
9	0x3bb26773	0.005444461
10	0x3deaaf44	0.114592105
11	0x3ea744b2	0.32669598
12	0x3e42377b	0.18966477
13	0x3f81d81c	1.0144076
14	0xbf73e186	-0.95265996
15	0xbf6594bd	-0.8968008
16	0x3f207aef	0.6268758
17	0x3f30ed05	0.69111663
18	0xbf03d1ca	-0.5149199
19	0x3e395752	0.18099716
20	0x3f14f83f	0.58191293
21	0xbf0febf3	-0.56219405
22	0x3f8035c4	1.0016408
23	0x3d763da8	0.060117394
24	0xbefa88dc	-0.4893254
25	0xbf7c0404	-0.9844363
26	0x3fe1c674	1.7638688
27	0xbe14056b	-0.14455192
28	0xbd5b982a	-0.05361191
29	0x3d2e091c	0.042489156
30	0x3f482988	0.7818837
31	0xbf3a70ff	-0.7282867
32	0xbeb096fa	-0.34490186
33	0xbeb95d36	-0.36203927
34	0x3f228065	0.63477165
35	0x3ee8f36c	0.45498216
36	0x3f7aad12	0.97920334
37	0x3d72089c	0.05909024
38	0x3d90ee66	0.07076721
39	0x3eca6f7a	0.39538175
40	0x3da314e2	0.079629675
41	0x3df8fc11	0.12157453
42	0x3e4526c2	0.19253066
43	0x3e295d4d	0.16539498
44	0x3cebe0c5	0.028793702
45	0x3da85b05	0.082204856
46	0x3e2d6e40	0.16936588
47	0x3f450fb6	0.769771
48	0x3ee84d7a	0.4537161
49	0x3f0ab31a	0.5417954
50	0x3e7bcdfe	0.24590299
51	0xbca236cc	-0.01980152
52	0x3fc8f9cb	1.5701231
53	0x3f2aca9e	0.6671542
54	0x3e7a7d97	0.24461971
55	0x3bda147c	0.006655274
56	0xbf5d1360	-0.8635769
57	0x3f791610	0.9729929
58	0x3dfdd254	0.123936325
59	0xbe4f58b8	-0.20248687
60	0xbeca5ba6	-0.39523047
61	0xbe8973d1	-0.26846173
62	0xbf505b83	-0.81389636
63	0x3f6ef279	0.93338734
64	0xbf13c769	-0.5772615
65	0xbf687f6a	-0.9081942
66	0x3ddaa52b	0.106760345
67	0xbe7a06d5	-0.24416669
68	0x3f235f56	0.63817346
69	0xbefd07f6	-0.49420136
70	0x3c6d3462	0.014477821
71	0x3f30f18d	0.6911858
72	0x3e4315a1	0.1905122
73	0x3e34859a	0.1762909
74	0xbf0e36b3	-0.55552214
75	0x3f81a0f2	1.0127242
76	0xbe8d5fbd	-0.27612105
77	0x3f431d45	0.76216537
78	0xbea02902	-0.31281286
79	0x3f6c83cc	0.92388606
80	0x3f1c4feb	0.61059445
81	0xbf891a00	-1.071106
82	0x3e3f5b92	0.18687275
83	0xbeb6a075	-0.35669294
84	0x3f703fac	0.93847156
85	0x3fb8d972	1.4441359
86	0xbc0cd20c	-0.008595001
87	0x3f329611	0.69760233
88	0x3db7477c	0.089491814
89	0xbf548802	-0.8302003
90	0xbccc4443	-0.024934893
91	0x3f4c9522	0.7991506
92	0x3dfd4c8e	0.12368117
93	0xbf409a08	-0.75235033
94	0x3f8f3eb2	1.1191008
95	0x3f557430	0.83380413

model_4/batch_normalization_16/batchnorm/mul_1;model_4/conv1d_8/Conv1D/Squeeze;model_4/conv1d_8/BiasAdd;model_4/conv1d_8/BiasAdd/ReadVariableOp;model_4/batch_normalization_16/batchnorm/mul;model_4/conv1d_8/Conv1D;model_4/conv1d_9/Conv1D f4 [96, 1, 3, 126]
0	0xbbc37af6	-0.005965586
1	0xbba85c8b	-0.005137985
2	0xbad75b87	-0.0016430476
3	0xbc0dab24	-0.00864676
4	0xbdcc967a	-0.099896386
5	0xbc7e3692	-0.01551594
6	0xbd16a7f8	-0.03678128
7	0xbe08bdc2	-0.13353637
8	0xbc2289e8	-0.009920575
9	0xbdcd6831	-0.100296386
10	0xbe5fdccb	-0.2186157
11	0x3bae2177	0.005314048
12	0x3c1b46ac	0.009477299
13	0xbeaa922c	-0.33314645
14	0x3d30b86f	0.04314464
15	0xbd086810	-0.033302367
16	0xbd5ec711	-0.054389063
17	0xbd2f7c44	-0.04284312
18	0x3e0f6165	0.14001997
19	0xbd8f8adf	-0.070089094
20	0xbd44c143	-0.04803587
21	0xbdca7510	-0.09885609
22	0x3decca22	0.11561991
23	0x3ce72520	0.028215945
24	0x3e5462f2	0.2074087
25	0xbd4afde1	-0.049558524
26	0x3dda6941	0.10664607
27	0x3df1e591	0.118113644
28	0xbe43ab0f	-0.19108222
29	0xbc9e705d	-0.019340688
30	0xbe42c5df	-0.19020794
31	0x3d81d28a	0.06338985
32	0xbc7d2662	-0.015451046
33	0xbb480f1f	-0.003052659
34	0x3e69932c	0.22810048
35	0x3dc6f9b3	0.09715595
36	0xbe0d21e0	-0.13782454
37	0xbe95cd8a	-0.29258376
38	0x3e3edad2	0.18638161
39	0x3ce3f088	0.027824655
40	0xbe4580ae	-0.19287369
41	0x3ba773ca	0.0051102387
42	0xbdd94efa	-0.10610767
43	0x3e7e8268	0.24854434
44	0x3ca9973f	0.020702003
45	0xbe0d94fe	-0.13826367
46	0x3ec45dd6	0.3835284
47	0x3e0bc99d	0.13651128
48	0xbd867ba5	-0.06566552
49	0x3e3e0516	0.18556628
50	0x3e619ea2	0.2203317
51	0xbd3a16ae	-0.045431785
52	0xbdda7a9c	-0.10667917
53	0xbc226f44	-0.009914223
54	0xbe130eb9	-0.14361085
55	0x3e820213	0.25392208
56	0x3d331e64	0.043730155
57	0x3e0acd71	0.13554932
58	0x3e85f936	0.26166695
59	0x3e012ea6	0.12615451
60	0x3e065f76	0.13122353
61	0x3e3cb7de	0.18429515
62	0x3e39e68f	0.18154357
63	0x3b227d9e	0.0024794112
64	0xbbb27505	-0.0054460787
65	0x3b38d7d7	0.0028204822
66	0x3cbb8e9d	0.022895152
67	0xbc27669a	-0.010217333
68	0x3a8d987a	0.0010802888
69	0x3cc5ef82	0.024162058
70	0xbca49635	-0.020091156
71	0x3bd88479	0.006607589
72	0x3cf34c3a	0.029699434
73	0xbce60ef9	-0.028083311
74	0x3c6a40bd	0.014297661
75	0x3d2126a1	0.03934348
76	0xbd00d1d5	-0.03145011
77	0x3ccdc9d3	0.025120651
78	0x3b922bd0	0.0044607893
79	0xbcd742c2	-0.02627695
80	0x3d242634	0.040075496
81	0xbc7ad0b3	-0.015308547
82	0xbcf0ac9a	-0.029379178
83	0x3d27ed63	0.040997874
84	0xbd042ba5	-0.032268185
85	0x3ca420f5	0.020035246
86	0x3d29209d	0.041290868
87	0xbd624035	-0.055237014
88	0x3daa5794	0.083174855
89	0x3d34ac5e	0.044109695
90	0x3cc0caab	0.02353414
91	0x3ca70021	0.020385804
92	0x3d2e3226	0.042528294
93	0x3b582566	0.0032981276
94	0xbdf07aaa	-0.11742146
95	0x3d81c707	0.063367896
96	0xbcc20c3f	-0.02368748
97	0xbe362214	-0.17786437
98	0x3d89a6c6	0.06721263
99	0xbd4b1cca	-0.049588002
100	0xbe442dc8	-0.19158089
101	0x3d7ebe26	0.06219306
102	0x3c6e7cd8	0.014556132
103	0x3d57f27b	0.05272148
104	0x3d3e5fa8	0.046477944
105	0x3b2e77b1	0.0026621635
106	0xbd8cd1e5	-0.06875972
107	0x3d8e686c	0.06953511
108	0xbbebec31	-0.007199787
109	0xbda8ee0a	-0.08248527
110	0x3d83d15c	0.064364165
111	0xbcaf8049	-0.021423476
112	0xbd809023	-0.06277492
113	0x3d62f366	0.055407904
114	0x3c12313d	0.008922872
115	0xbcb233d8	-0.021753237
116	0x3d3de8e6	0.046364687
117	0xbb83871f	-0.0040139104
118	0xbded4dc1	-0.11587096
119	0x3d73ff5b	0.059569698
120	0xbc19c1e1	-0.009384603
121	0xbe1227cd	-0.14272995
122	0x3d5815d5	0.052755196
123	0xbca239c9	-0.019802945
124	0xbe0df07f	-0.13861273
125	0x3d3c8cc3	0.04603268
126	0xbb933226	-0.004492062
127	0xbb80e3ef	-0.003933422
128	0xbb964140	-0.004585415
129	0x3b72e898	0.0037064906
130	0xbdbd0a3f	-0.0923047
131	0xbcac4248	-0.0210277
132	0x3d2081d3	0.03918631
133	0xbdd734d4	-0.10508123
134	0xbc955ad8	-0.018231794
135	0x3dc6eb64	0.09712866
136	0xbe467739	-0.19381417
137	0xbbeec959	-0.007287186
138	0xbdcc0a1f	-0.09962868
139	0xbe9d8bcb	-0.30770716
140	0x3cdfe42e	0.027330484
141	0x3dd8ddbb	0.10589167
142	0xbd6ff2c4	-0.05858113
143	0xbd454f37	-0.04817125
144	0xbd0a9a49	-0.033838544
145	0x3aa31f76	0.0012445289
146	0xbd7dab8c	-0.061931178
147	0xbe78072b	-0.24221484
148	0x3dd7506d	0.10513387
149	0x3c2c84b8	0.0105296895
150	0x3e106bdb	0.14103644
151	0x3bc9010e	0.006134159
152	0x3db97bad	0.090567924
153	0x3c5b6310	0.013390318
154	0xbe9d4d10	-0.30722857
155	0xbd04f1eb	-0.032457273
156	0x3e47f307	0.19526301
157	0x3d95fd4f	0.073237054
158	0xbd15d66b	-0.036581438
159	0x3d9a2345	0.075262584
160	0x3d0e0a02	0.034677513
161	0x3d96b713	0.073591374
162	0xbe6e568c	-0.23275203
163	0xbe822b04	-0.25423443
164	0x3e28d196	0.164862
165	0x3c91efb2	0.017814491
166	0xbe779fa6	-0.24181995
167	0xbc3659f4	-0.011129845
168	0xbcdb6e81	-0.02678609
169	0x3da8d135	0.08243028
170	0xbaa69137	-0.0012708072
171	0x3e45c779	0.19314374
172	0x3e8454f9	0.2584608
173	0x3ded2a94	0.11580387
174	0x3e3e4380	0.18580437
175	0x3d6ccf9a	0.05781517
176	0x3e503bf4	0.2033537
177	0x3cdfbaad	0.027310694
178	0xbe37e2d3	-0.1795762
179	0xbce2ed18	-0.027700946
180	0x3deab2a0	0.11459851
181	0x3e77078b	0.24123971
182	0x3cdc7f84	0.026916273
183	0x3dc6d71c	0.097089976
184	0x3e8bf3de	0.27334493
185	0x3de801b9	0.113284536
186	0x3de6b23f	0.112644665
187	0x3e7922d2	0.24329689
188	0x3e2ff4b8	0.17183197
189	0x3b9d07ab	0.004792174
190	0xbb50a2d0	-0.0031835325
191	0x3b02b158	0.001994213
192	0x3cb34347	0.021882666
193	0xbc1c7e40	-0.009551585
194	0xba2f4c79	-0.00066871155
195	0x3ca94c0a	0.020666141
196	0xbc855336	-0.01627503
197	0x3b41ddd1	0.0029581676
198	0x3ccf5f72	0.025314067
199	0xbcb0a8ff	-0.021564959
200	0x3c1b29a4	0.009470377
201	0x3d07b018	0.03312692
202	0xbcbe1945	-0.023205409
203	0x3c93919c	0.018013768
204	0xba114641	-0.00055417797
205	0xbcffa4db	-0.031206539
206	0x3d15e10e	0.036591582
207	0xbcaddf2c	-0.02122458
208	0xbced01cd	-0.028931523
209	0x3d13e996	0.036111437
210	0xbd1afff3	-0.03784175
211	0x3c35719b	0.011074449
212	0x3d0d0003	0.03442384
213	0xbd810da7	-0.06301432
214	0x3daa5e25	0.08318738
215	0x3d16d85b	0.036827426
216	0x3c98b7f5	0.018642405
217	0x3c94d2dc	0.018166952
218	0x3d23bfdf	0.039977904
219	0xbaec5ede	-0.0018033644
220	0xbddeda8d	-0.10881529
221	0x3d6d6043	0.05795313
222	0xbcebc068	-0.02877827
223	0xbe2f587a	-0.17123595
224	0x3d7d376d	0.061820436
225	0xbd695c37	-0.05697271
226	0xbe30e0b9	-0.17273225
227	0x3d662cf7	0.056195226
228	0x3c0ae771	0.0084780315
229	0x3d52f3f8	0.051502198
230	0x3d329fb8	0.04360935
231	0xbb5540a9	-0.003253976
232	0xbd7b17da	-0.061302043
233	0x3d8603e9	0.065437146
234	0xbc4e2b11	-0.01258351
235	0xbd9225b7	-0.071361
236	0x3d78f76f	0.060782846
237	0xbccd05a0	-0.025027096
238	0xbd4c2a58	-0.04984507
239	0x3d57eca5	0.052715916
240	0x3b7b3d3f	0.0038336066
241	0xbcb882b3	-0.02252326
242	0x3d300344	0.042971864
243	0xbc148bb5	-0.009066512
244	0xbde28569	-0.11060602
245	0x3d61a581	0.055089477
246	0xbc52cc03	-0.012866023
247	0xbe09f8c7	-0.13473807
248	0x3d483998	0.04888305
249	0xbcd33edb	-0.025786808
250	0xbe0257cf	-0.12728809
251	0x3d2dba64	0.042414084
252	0xbad84c91	-0.0016502311
253	0xbb999cf8	-0.0046879016
254	0xbbae78c6	-0.005324456
255	0x3c925943	0.017864829

model_4/batch_normalization_17/batchnorm/mul_1;model_4/conv1d_9/Conv1D/Squeeze;model_4/conv1d_9/BiasAdd;model_4/conv1d_9/BiasAdd/ReadVariableOp;model_4/batch_normalization_17/batchnorm/mul;model_4/conv1d_9/Conv1D f4 [96, 1, 3, 96]
0	0xbd2e2dc5	-0.042524118
1	0xbd030948	-0.031991273
2	0xbc636c79	-0.013880842
3	0xbca218f5	-0.019787291
4	0x3ca4144a	0.020029206
5	0xbd3fde8a	-0.04684309
6	0xbd84d595	-0.0648605
7	0x3d39becd	0.045347977
8	0xbbe19e74	-0.006885344
9	0xbd1df007	-0.038558986
10	0xbd90c38f	-0.0706855
11	0xbd8e5e39	-0.06951565
12	0xba9e0b33	-0.0012057781
13	0xbc41f719	-0.011838698
14	0x3c42d1ca	0.011890838
15	0xb96e84fd	-0.0002274699
16	0xbd01cb97	-0.0316883
17	0xbd4dceb9	-0.050245974
18	0x3da76534	0.081736
19	0x3d6140f8	0.0549936
20	0xbd5466ae	-0.051855735
21	0xbd90833c	-0.07056281
22	0xbc14f705	-0.009092097
23	0xbd10c6e9	-0.035345946
24	0xbc85e4d0	-0.016344458
25	0xbc2f6acf	-0.0107066175
26	0xbd6a141c	-0.057148084
27	0xbd4cbaf8	-0.049982995
28	0xbb591be5	-0.0033128199
29	0xbd4ae912	-0.04953868
30	0x3cc4c8c2	0.02402151
31	0xbc8116e6	-0.01575799
32	0xbd1d7e18	-0.03845033
33	0xbd02e4bf	-0.03195643
34	0xbc875d66	-0.016524028
35	0xbceb5559	-0.02872722
36	0x3b47c5f3	0.0030482977
37	0x3ca11502	0.019663338
38	0xbd379f45	-0.044829626
39	0xbcf9cb74	-0.030492522
40	0xb9aff3fc	-0.00033560384
41	0x3cdfd836	0.027324777
42	0xbd9017af	-0.07035767
43	0xbd909c31	-0.07061041
44	0xbd444324	-0.047915593
45	0xbbc77b78	-0.0060877167
46	0xba396c8b	-0.0007073364
47	0xbca19aa1	-0.019727053
48	0xbd2d5ddf	-0.04232585
49	0xbd5afd9b	-0.053464513
50	0xbda24a56	-0.07924335
51	0xbd9f642c	-0.07782778
52	0xbc7db496	-0.01548495
53	0x3d06e842	0.032936342
54	0xbd59eb77	-0.053203072
55	0xbd42c3c9	-0.047549997
56	0xbc8c66aa	-0.017138798
57	0xbd9c4dd9	-0.07632036
58	0xbd3e84da	-0.046513416
59	0xbd861114	-0.06546226
60	0xbdb53436	-0.08847849
61	0xbc043f3c	-0.008071717
62	0xbc1e23fd	-0.009652135
63	0xbcc0a412	-0.023515735
64	0xbced89e6	-0.02899642
65	0xbc9909ad	-0.018681372
66	0xbda89159	-0.08230848
67	0xbd665765	-0.05623569
68	0xbc9a205a	-0.018814255
69	0xbc0bb3fd	-0.008526799
70	0xbcdd553a	-0.027018178
71	0xbb503f00	-0.0031775832
72	0xbc05fbed	-0.00817774
73	0x3c2aa0a4	0.010414276
74	0x3ccd5140	0.025063157
75	0xbd240fe8	-0.040054232
76	0xbbbe3020	-0.005804077
77	0x3cc5fffc	0.024169914
78	0xbbcb9e1d	-0.006213917
79	0xbd885d4c	-0.0665842
80	0xba80d80e	-0.0009830014
81	0x3ca0008a	0.019531507
82	0xbc53cd69	-0.012927392
83	0x3dbfe02a	0.09368928
84	0x3b4fac53	0.0031688407
85	0x3b8d10e6	0.004304993
86	0x3c719ec7	0.014747328
87	0xbc72656a	-0.014794687
88	0xbc9028e4	-0.017597623
89	0xbd213782	-0.039359577
90	0x3d012692	0.031530924
91	0xbbccf935	-0.0062552937
92	0x3c028c0d	0.007967961
93	0x3d13edfa	0.036115624
94	0xbd00c590	-0.03143841
95	0xbc03c848	-0.008043356
96	0xbd41a9fa	-0.047281243
97	0xbcd1997c	-0.025585882
98	0xbc4a703d	-0.012355861
99	0xbcb3a442	-0.02192891
100	0x3caa5050	0.02079025
101	0xbd408f76	-0.047011815
102	0xbd857cdf	-0.06517958
103	0x3d3069dd	0.04306971
104	0x3ae8dfc8	0.0017766887
105	0xbd2cd2d4	-0.04219325
106	0xbd55c47b	-0.05218933
107	0xbd525261	-0.051348094
108	0xbb69761a	-0.0035623373
109	0xbc41877a	-0.011812085
110	0x3c46b502	0.012128117
111	0x3afb0de2	0.0019153918
112	0xbd05d060	-0.032669425
113	0xbd0e36df	-0.034720298
114	0x3da1ae43	0.07894566
115	0x3d825429	0.063637085
116	0xbd0fc76e	-0.0351023
117	0xbd517dc2	-0.051145323
118	0xbc1594b1	-0.009129689
119	0xbd0c2178	-0.034211606
120	0xbc87aaec	-0.016560994
121	0xbc22586c	-0.009908777
122	0xbd689ca4	-0.05679001
123	0xbd5a6b83	-0.053325187
124	0xbb4cb612	-0.0031236452
125	0xbd015cb6	-0.031582557
126	0x3cc6809c	0.024231248
127	0xbc331e34	-0.010932494
128	0xbd1ffef6	-0.03906151
129	0xbcfbc25e	-0.03073233
130	0xbc8577d4	-0.01629249
131	0xbc8af6a4	-0.01696331
132	0xb5a2c7b6	-1.2128064e-06
133	0x3cb1aed4	0.02168981
134	0xbd4bc487	-0.04974797
135	0xbc9cd72e	-0.019145574
136	0x3b92d38a	0.004480784
137	0x3cf8d9d3	0.030377304
138	0xbd633f97	-0.055480566
139	0xbda4500d	-0.08023081
140	0xbd51c2bb	-0.0512111
141	0xbc1f554b	-0.009724925
142	0xbb2ce76e	-0.002638306
143	0xbccbccfe	-0.024878021
144	0xbd030ffd	-0.03199767
145	0xbd493274	-0.04912038
146	0xbdae1308	-0.08499724
147	0xbda93525	-0.0826209
148	0xbc6999fd	-0.014257905
149	0x3cf7783a	0.030208696
150	0xbd556a77	-0.052103486
151	0xbd4ac2fe	-0.049502365
152	0xbc758d16	-0.014987251
153	0xbda9169b	-0.08256265
154	0xbd04b314	-0.032397345
155	0xbd5230c7	-0.05131605
156	0xbd8d2e45	-0.06893591
157	0xbbae16e7	-0.0053127888
158	0xbc201f4c	-0.009773087
159	0xbcd376b9	-0.025813447
160	0xbcecfaa2	-0.028928105
161	0xbc81f376	-0.015863162
162	0xbd8fd505	-0.07023052
163	0xbd746552	-0.05966694
164	0xbc9892ef	-0.01862475
165	0xbbd8d49c	-0.006617142
166	0xbc3129e2	-0.010813208
167	0x3b646409	0.0034849665
168	0xbb51934f	-0.0031978672
169	0x3c94a951	0.018147143
170	0x3cb8f366	0.022576999
171	0xbd26e9c7	-0.04075029
172	0xbbcedae7	-0.0063127163
173	0x3ccb93c1	0.024850728
174	0xbc1f97ec	-0.009740811
175	0xbd86854e	-0.065683946
176	0x3b01c3d5	0.0019800563
177	0x3c7fb6f4	0.015607584
178	0xbc67353a	-0.014111811
179	0x3daca6cd	0.08430252
180	0x3c259753	0.010106879
181	0x3bda1ad6	0.006656031
182	0x3c8908c3	0.01672781
183	0xbc91e041	-0.017807128
184	0xbc9834b7	-0.018579824
185	0xbd311de2	-0.04324139
186	0x3cf4b234	0.02987013
187	0xbc25221f	-0.010078936
188	0x3c68d3df	0.01421067
189	0x3cd0d0d9	0.025490211
190	0xbce8bbe6	-0.02840991
191	0xbbcd142b	-0.0062585077
192	0xbd1bd45a	-0.03804431
193	0xbcc1e482	-0.023668531
194	0xbc45617a	-0.012047166
195	0xbca9e5c9	-0.020739453
196	0x3c95e04d	0.018295432
197	0xbd2a332a	-0.0415527
198	0xbd7831d9	-0.060594413
199	0x3d3f608c	0.046722934
200	0xbb403761	-0.0029329883
201	0xbd26a557	-0.040685024
202	0xbd93f99f	-0.07225346
203	0xbd8513fe	-0.06497954
204	0x39f8b3f3	0.0004743632
205	0xbc1d7ef1	-0.009612785
206	0x3c952570	0.018206328
207	0x3b052e08	0.0020321626
208	0xbcf933c9	-0.0304202
209	0xbd391aef	-0.0451917
210	0x3dae6a92	0.085164204
211	0x3d5e1961	0.054223422
212	0xbd571208	-0.05250743
213	0xbd7a3021	-0.061081056
214	0xbc121979	-0.008917206
215	0xbd04727f	-0.032335754
216	0xbc86ac87	-0.01643969
217	0xbc18527a	-0.009297008
218	0xbd68459a	-0.056707002
219	0xbd42a203	-0.047517788
220	0xbb33cafa	-0.0027434216
221	0xbd553041	-0.05204797
222	0x3cd0d9b9	0.025494443
223	0xbc050ac8	-0.008120246
224	0xbd0c66ab	-0.0342776
225	0xbcf765dd	-0.03019994
226	0xbc713d00	-0.014724016
227	0xbced331f	-0.02895504
228	0xbb374644	-0.0027965466
229	0x3cb6d8bf	0.02232015
230	0xbd2bb0bf	-0.041916605
231	0xbcd85330	-0.026406854
232	0xba90daf6	-0.0011051584
233	0x3ccf464b	0.025302073
234	0xbd78a52e	-0.060704403
235	0xbd8a0446	-0.06739096
236	0xbd4b8de6	-0.04969587
237	0xbbfeb98e	-0.0077735847
238	0xbb4c8dce	-0.0031212452
239	0xbc9e671f	-0.019336281
240	0xbd46a12e	-0.048493557
241	0xbd8b79f5	-0.06810371
242	0xbd8cffc9	-0.06884725
243	0xbd8d8921	-0.06910921
244	0xbc54b556	-0.012982687
245	0x3d057b01	0.03258801
246	0xbd45bcf6	-0.04827591
247	0xbd4f22d3	-0.05057032
248	0xbc6d68b7	-0.014490298
249	0xbd8ad85f	-0.06779551
250	0xbd2a4f20	-0.041579366
251	0xbd740bb6	-0.05958148
252	0xbdaa6993	-0.08320918
253	0xbc0128fd	-0.0078833075
254	0xbb33f52f	-0.0027459373
255	0xbcb889b7	-0.022526605

model_4/gru_9/gru_cell/strided_slice_4 f4 [48]
0	0x3d5eb883	0.054375183
1	0x3c651789	0.013982662
2	0x3dec9094	0.115510136
3	0xbd6c700c	-0.057724044
4	0xbb4e72e8	-0.0031501595
5	0x3d5f9847	0.054588582
6	0xbcadbc56	-0.02120797
7	0x3d202115	0.03909405
8	0x3dbbe57c	0.0917463
9	0x3d13a09d	0.036041845
10	0x3ca19383	0.01972366
11	0xbd060d83	-0.03272773
12	0x3d74fb58	0.059810013
13	0x3d8a6469	0.06757433
14	0xbd4ccaef	-0.04999822
15	0x3d1f1737	0.0388405
16	0x3d8af9ca	0.06785925
17	0x3d30dd53	0.04317982
18	0x3c255306	0.010090595
19	0x3d32f8b9	0.04369423
20	0x3da76575	0.08173648
21	0x3d7cf349	0.061755452
22	0x3e78fbd2	0.24314812
23	0x3cacd31c	0.021096759
24	0x3e1cfd14	0.15330917
25	0x3d9639fc	0.073352784
26	0xbda25ab0	-0.079274535
27	0x3d84965e	0.06473993
28	0x3d9376f8	0.07200426
29	0x3d480766	0.04883518
30	0x3caef01b	0.021354726
31	0x3da05d90	0.07830346
32	0x3dc927b1	0.09822024
33	0x3ccd07a0	0.02502805
34	0x3dc7d6a3	0.097577356
35	0x3ca7272b	0.020404419
36	0x3da40597	0.08008879
37	0x3db31379	0.087439485
38	0x3dc9f0b6	0.09860365
39	0x3cf7cdc3	0.030249482
40	0x3d30b630	0.043142498
41	0x3d95502a	0.07290681
42	0x3cbb7d76	0.022886973
43	0x3c40ccc9	0.011767575
44	0xbcb87cf2	-0.022520516
45	0x3da63219	0.08115024
46	0x3da8c293	0.08240237
47	0xbc98b5c2	-0.018641356

model_4/gru_9/gru_cell/strided_slice_3 f4 [48]
0	0x3e7733b7	0.24140821
1	0x3db25d24	0.087091714
2	0x3dc98047	0.0983892
3	0x3d281df1	0.04104418
4	0x3e04944a	0.12947193
5	0x3d8c1874	0.068406016
6	0xbd4f3d2f	-0.05059546
7	0xbb91ea1e	-0.004452958
8	0x3d1a2370	0.037631452
9	0xbd4107d3	-0.047126602
10	0xbc950a04	-0.018193252
11	0x3dff5775	0.12467853
12	0x3d4cf2c9	0.050036225
13	0xbc028c56	-0.007968029
14	0x3e447aa6	0.19187412
15	0x3d933d0b	0.071893774
16	0xbc4fefcc	-0.012691449
17	0xbd8acae8	-0.067769825
18	0xbd9d63a5	-0.07685021
19	0xbcee7493	-0.029108321
20	0x3e1f5336	0.15559086
21	0x3d86f3d1	0.06589473
22	0x3e4109b7	0.18851362
23	0x3e3ca26f	0.18421338
24	0x3e0b04ec	0.13576096
25	0xbbe67a4c	-0.007033622
26	0x3d0be352	0.034152336
27	0x3e2a39b0	0.16623569
28	0x3da49c7e	0.08037661
29	0x3c8669de	0.016407903
30	0x3d060ed4	0.032728985
31	0x3dc82c4b	0.09774073
32	0x3dca4462	0.09876324
33	0x3d570ce2	0.05250252
34	0x3beb21b5	0.007175649
35	0x3ca438c7	0.020046605
36	0x3e02d7ee	0.12777683
37	0x3e035ee4	0.12829167
38	0x3c151129	0.00909833
39	0x3da19557	0.078898124
40	0x3e64753a	0.22310343
41	0x3e250b92	0.16117695
42	0x3dcf1762	0.10111882
43	0xbd8928ef	-0.066972606
44	0x3db08fb6	0.08621161
45	0x3e077f0c	0.13232058
46	0x3dffed21	0.124964006
47	0x3da50851	0.08058227

model_4/gru_9/gru_cell/strided_slice_5 f4 [48]
0	0x3ced4c67	0.028967096
1	0x3db267d0	0.08711207
2	0xbd34c7bf	-0.044135805
3	0x3d0374e0	0.032093883
4	0xbc1fab57	-0.00974544
5	0xbd43cc3d	-0.0478022
6	0x3cd3c0b1	0.025848718
7	0x3e190cb5	0.14946254
8	0xbd02f74a	-0.031974114
9	0xbcf34fa8	-0.029701069
10	0x3cf9cc58	0.030492947
11	0xbcd5d3c3	-0.026101952
12	0x3bd7fcaf	0.0065914015
13	0x3d9ed577	0.07755559
14	0x3c202ace	0.00977583
15	0xbcc935b2	-0.024561737
16	0x3d1588ea	0.036507525
17	0xbcb25438	-0.021768674
18	0x3d00f5b3	0.031484317
19	0xbddf0e31	-0.10891379
20	0x3d6c2049	0.057647977
21	0xbd1377af	-0.03600281
22	0x3c647841	0.013944686
23	0x3bdb3800	0.0066900253
24	0x3df535ba	0.11973138
25	0x3d990f26	0.074735925
26	0xbe00277e	-0.12515065
27	0xbd5a42d7	-0.0532864
28	0x3d1742f9	0.036929104
29	0xbbc841ed	-0.0061113746
30	0xbdb53e6c	-0.08849797
31	0x3b398132	0.0028305766
32	0x3d0bb98b	0.034112494
33	0xbdb92aa5	-0.09041337
34	0x3c260b6f	0.010134562
35	0x3d6cdb6b	0.05782644
36	0xbc78472e	-0.015153689
37	0x3d53a491	0.051670615
38	0xbd572e57	-0.052534427
39	0xbc6cc6a1	-0.014451654
40	0x3da7002b	0.08154329
41	0xbce5d326	-0.028054785
42	0xbd5128c6	-0.051064275
43	0x3d8eb00a	0.069671705
44	0x3cb684cb	0.022280117
45	0xbc8128cb	-0.015766522
46	0xbd179b93	-0.0370136
47	0x3d09905e	0.033584945

model_4/gru_9/gru_cell/strided_slice_11 f4 [48]
0	0xbc1df81e	-0.009641675
1	0x3d9002f7	0.070318155
2	0xbd1359e3	-0.035974395
3	0x3cd7ba6f	0.026334016
4	0x3d5d38e0	0.05400932
5	0xbd370f44	-0.044692293
6	0x3c3751e4	0.011188958
7	0x3d848d16	0.064722225
8	0xbc85b88b	-0.016323349
9	0xbd214d30	-0.039380252
10	0x3d45b831	0.04827136
11	0xbce45f15	-0.02787737
12	0xbb0f6b4d	-0.0021884025
13	0x3daf7ebe	0.08569096
14	0xb9fd3345	-0.0004829412
15	0x3b3df5e3	0.0028985671
16	0x3d257ddf	0.040403243
17	0xbba3b49b	-0.004995895
18	0xbc5f436e	-0.013626916
19	0xbdc69643	-0.09696629
20	0x3cd38d9b	0.025824359
21	0x3d6069ee	0.054788522
22	0xbd19179e	-0.03737604
23	0x3c4de842	0.012567582
24	0x3d9ddac4	0.07707742
25	0x3ca35d27	0.01994188
26	0xbd642e4f	-0.055708226
27	0xbd2b68fc	-0.041848168
28	0x3d2a7ae3	0.0416211
29	0x3c7ca557	0.015420279
30	0xbcd5bc0a	-0.02609064
31	0xba80fba4	-0.000984062
32	0x3d1c834d	0.038211156
33	0xbd334dc3	-0.04377533
34	0xbcd396c0	-0.02582872
35	0x3d00d7a6	0.03145566
36	0xbcfda869	-0.030964093
37	0x3c33cab9	0.010973626
38	0xbd1902fc	-0.03735636
39	0xbbfe1ffb	-0.007755277
40	0x3dd3ba6b	0.10338291
41	0xbc61fd31	-0.013793276
42	0x3b134a9a	0.0022474886
43	0x3ccd24c8	0.025041953
44	0x3cd9db60	0.026593864
45	0xbc9363ce	-0.017991927
46	0xbd17e937	-0.037087645
47	0x3d2807de	0.041023128

model_4/gru_8/gru_cell/strided_slice_4 f4 [96]
0	0x3da24b60	0.07924533
1	0x3c1b6170	0.00948368
2	0xbdcbdd9a	-0.099543765
3	0xbb3c2524	-0.002870866
4	0x3c810ba0	0.015752614
5	0xbc959fb4	-0.018264629
6	0x3d133aba	0.035944678
7	0xbdbbc1d5	-0.0916783
8	0x3d8754c8	0.066079676
9	0xbd69a6e7	-0.057043936
10	0xbd90279b	-0.07038804
11	0x3d1190f1	0.035538618
12	0x3d910492	0.0708095
13	0x3ceebbe8	0.029142335
14	0xbdb02fb3	-0.08602848
15	0xbda1024d	-0.07861767
16	0xbacd84aa	-0.0015679796
17	0x3d4341e7	0.04767027
18	0x3d06a163	0.032868754
19	0x3be82021	0.007083908
20	0x3be8cb22	0.0071042934
21	0x3c91b5bd	0.017786855
22	0xbd651fce	-0.055938534
23	0xbddf3ba2	-0.10900046
24	0x3e25dc8c	0.16197413
25	0xbc886a92	-0.01665238
26	0x3d649b06	0.055811904
27	0xbcc6d646	-0.024272095
28	0x3d385496	0.045002542
29	0x3d845750	0.06461966
30	0x3c60b900	0.013715982
31	0x3dcadb1a	0.099050716
32	0x3dac36f7	0.08408921
33	0xbd879cd6	-0.06621711
34	0xbd125c26	-0.03573241
35	0x3d4986f8	0.04920098
36	0xbc042ac5	-0.008066838
37	0xbdbdad3f	-0.0926156
38	0x3d8efee9	0.06982214
39	0x3d603697	0.05473956
40	0x3dde4d15	0.10854546
41	0xbd6cad1e	-0.057782285
42	0x3d1e8913	0.038704943
43	0xbbcf7006	-0.006330493
44	0x3ba6a9ed	0.0050861747
45	0xbc8f240b	-0.017473241
46	0xbd0786f2	-0.03308768
47	0xbc16acc2	-0.009196462
48	0x3d1ff049	0.039047513
49	0x3d707849	0.058708463
50	0x3d94a8d3	0.07258763
51	0x3cd4a8cc	0.025959395
52	0x3d76a983	0.060220253
53	0x3d4c1324	0.04982294
54	0xbc4fe020	-0.012687713
55	0x3c92dfd3	0.017928993
56	0xbd84743d	-0.06467483
57	0x3e3ed20e	0.18634817
58	0xbc7e6e15	-0.015529175
59	0x3d129236	0.03578397
60	0x3d99d4f3	0.0751132
61	0xbcafe86c	-0.021473132
62	0x3c4f0f25	0.012637888
63	0x3d9e8472	0.07740106
64	0xbcd94ccc	-0.026525877
65	0xbdbbeffa	-0.09176631
66	0xbc813f74	-0.015777327
67	0xbc31b17a	-0.010845536
68	0x3cb12ed8	0.021628782
69	0xbc4dedbf	-0.01256889
70	0xbc8405c7	-0.016116036
71	0x38daa56c	0.00010425862
72	0xbc58f3f2	-0.013241755
73	0xbd251864	-0.040306464
74	0x3d2e5735	0.042563636
75	0xbc6bac1b	-0.014384295
76	0xbd22b044	-0.03971888
77	0x3d4a905d	0.04945408
78	0xbd9ea47b	-0.07746216
79	0x3d9b24c1	0.075753696
80	0x3d105d74	0.035245374
81	0xbcbf6e6b	-0.023368081
82	0x3c8ce959	0.017201113
83	0x3deb1901	0.114793785
84	0xbbf67c4e	-0.0075221425
85	0x3cf5ceb5	0.030005792
86	0xbd19b5eb	-0.037527006
87	0xbb0dc9d9	-0.0021635203
88	0xbd813f3c	-0.06310889
89	0xbc805da8	-0.015669659
90	0xbcd610e9	-0.02613111
91	0xbcb2aeab	-0.021811804
92	0x3c84a14c	0.016190194
93	0x3dbafb06	0.0912991
94	0x3c3db503	0.011578801
95	0xbdb060b8	-0.08612198

model_4/gru_8/gru_cell/strided_slice_3 f4 [96]
0	0x3e1e25b3	0.15444069
1	0x3dff9c3c	0.12480971
2	0xbdc0e28e	-0.09418212
3	0xbce22cbd	-0.027609223
4	0x3dc13f05	0.09435848
5	0x3e2351ab	0.15949123
6	0x3e1ea18e	0.15491316
7	0x3d8ffad1	0.07030261
8	0x3e0cf912	0.13766888
9	0x3dbaca41	0.09120608
10	0xbe1b8a86	-0.15189561
11	0x3ba158a0	0.004923895
12	0x3e88c2c6	0.267111
13	0x3dcd9f7c	0.10040185
14	0xbdba305f	-0.09091257
15	0xbdeabc22	-0.11461665
16	0xbbeaa3c1	-0.0071606343
17	0x3d7062fc	0.05868815
18	0x3d1f60cd	0.038910676
19	0xbd668265	-0.056276698
20	0x3e49c176	0.19702706
21	0xbd3047f8	-0.043037385
22	0x3c9c42f3	0.019074893
23	0x3cea1ceb	0.028578242
24	0x3e94f511	0.2909322
25	0xbd579fa2	-0.052642472
26	0x3dba3282	0.09091665
27	0xbd16b08a	-0.036789455
28	0x3d27b1d7	0.040941086
29	0x3e335c63	0.17515711
30	0x3da04483	0.078255676
31	0x3d6ede09	0.058317218
32	0x3e450924	0.19241768
33	0xbdbd4460	-0.09241557
34	0x3d4155f5	0.047201116
35	0x3e1cc794	0.15310508
36	0x3dae19cc	0.08501014
37	0x3dabd929	0.083910294
38	0x3da6b222	0.08139445
39	0x3e262fee	0.16229221
40	0x3d9d4678	0.076794565
41	0x3d7609f4	0.060068086
42	0x3be990e7	0.0071278694
43	0xbda1210d	-0.07867632
44	0xbd5ebd8b	-0.05437998
45	0xbccff057	-0.025383158
46	0xbd22cc22	-0.039745457
47	0x3e526736	0.20547184
48	0xbc0f2f57	-0.008739314
49	0x3c2106a7	0.009828246
50	0x3dcdc003	0.10046389
51	0x3dc5134e	0.09622823
52	0x3e531226	0.20612392
53	0x3e0059fd	0.12534328
54	0xbd2286b3	-0.03967924
55	0x3e1106df	0.14162777
56	0xbdc6f35c	-0.09714386
57	0x3e53e36d	0.20692225
58	0xbce6d890	-0.028179437
59	0xbe5ec889	-0.21756186
60	0x3d2c7278	0.042101353
61	0x3dc590be	0.09646748
62	0x3dc3b074	0.0955514
63	0x3aa9c670	0.0012952816
64	0xbd41c552	-0.04730732
65	0x3d89bdd9	0.06725664
66	0x3de8d2af	0.1136831
67	0x3beb531e	0.007181539
68	0xbe1703ba	-0.14747515
69	0x3d223d21	0.03960908
70	0x3ddba8b8	0.1072554
71	0xbdee61e8	-0.11639768
72	0xbbf32c82	-0.007421077
73	0x3e15580b	0.14584367
74	0x3dae412d	0.08508525
75	0x3d9b36bd	0.075788
76	0x3d44c0e7	0.04803553
77	0xbd63a50c	-0.055577323
78	0x3e3c1d8e	0.18370649
79	0x3e5fd003	0.21856694
80	0x3deb4216	0.11487214
81	0x3dc77976	0.09739964
82	0xbd9ebee9	-0.07751257
83	0x3de455b5	0.1114916
84	0xbc8dbd8b	-0.017302295
85	0xbcec3809	-0.028835313
86	0xbe286cf5	-0.16447814
87	0x3da4a2cd	0.08038864
88	0x3ddc3e21	0.10754038
89	0xbb58a957	-0.0033059919
90	0xbcd1c34d	-0.025605822
91	0x3d7094e2	0.058735736
92	0x3daa1cf5	0.08306304
93	0x3dfc98d3	0.123338364
94	0x3e256ab2	0.16153982
95	0xbddef1c7	-0.10885959

model_4/gru_8/gru_cell/strided_slice_5 f4 [96]
0	0xbd2ea101	-0.042634014
1	0x3d96312a	0.07333596
2	0x3c8f83ba	0.017518867
3	0x3ad2b5d8	0.0016075922
4	0x3bd122a5	0.006382304
5	0xbd1b7f6a	-0.03796331
6	0x3d22a3db	0.039707046
7	0xbd01c964	-0.0316862
8	0xbdaad7c0	-0.08341932
9	0xbd0a8c11	-0.033824984
10	0xbca7ab8b	-0.02046754
11	0xbbab68f5	-0.0052310177
12	0x3cd5d260	0.026101291
13	0x3db9dcef	0.09075343
14	0xbb97ba88	-0.0046303906
15	0x3d238b61	0.039927844
16	0x3968a129	0.00022185281
17	0x3c5c3ef9	0.013442748
18	0x3d2883a4	0.041141167
19	0xbd84d0d3	-0.064851426
20	0x3dd8ca33	0.105854414
21	0xbc95c038	-0.018280134
22	0xbb80b80f	-0.0039281915
23	0x3cf85076	0.030311804
24	0xbafdd8f6	-0.0019367028
25	0xbcb40802	-0.021976475
26	0xbacd966f	-0.0015685091
27	0x3bc01bdc	0.005862696
28	0x3c544f0e	0.012958301
29	0xbc8b97cd	-0.017040158
30	0x3c15f110	0.009151712
31	0xbd044d27	-0.03230014
32	0x3dc625c3	0.09675171
33	0xbca4af8e	-0.020103242
34	0xbbbef5ad	-0.0058276267
35	0xbbd126a6	-0.006382781
36	0x3cfe0b3e	0.03101122
37	0x3b7fe856	0.0039048395
38	0xbd1aed60	-0.037824035
39	0x3c091f9d	0.008369354
40	0xbdc6b181	-0.09701825
41	0xba0bad13	-0.0005328219
42	0x3d3638b7	0.04448768
43	0x3d1fdf59	0.03903136
44	0x3c882634	0.01661978
45	0x3c8227a4	0.015888043
46	0xbc1f019f	-0.009704976
47	0xbc440983	-0.011965158
48	0xbcd0a948	-0.025471345
49	0x3d49980a	0.04921726
50	0xbca1b520	-0.019739687
51	0x3cde126e	0.027108397
52	0xbb5b99a0	-0.0033508316
53	0xbd233da5	-0.03985371
54	0x3cca1172	0.024666522
55	0xbc281f35	-0.010261347
56	0xbc8248af	-0.015903799
57	0xbc9b7fa1	-0.018981757
58	0xbca5211c	-0.02015739
59	0xbd01bbcb	-0.031673234
60	0xbc8d11c8	-0.017220393
61	0x3d439155	0.04774602
62	0x3d2a5e4a	0.041593827
63	0xbc1eaef5	-0.009685268
64	0xbc3cff23	-0.011535439
65	0xbb62f615	-0.003463154
66	0xbc915cca	-0.01774444
67	0xbc41240f	-0.011788382
68	0xbc92e82f	-0.01793298
69	0x3ba63826	0.0050726114
70	0xbb9f13ef	-0.004854671
71	0x3c8d17f5	0.017223338
72	0xbd4726dc	-0.048621044
73	0xbda3add9	-0.07992143
74	0xbcc8edfc	-0.024527542
75	0xba944b7e	-0.0011314002
76	0xbbace934	-0.0052768234
77	0x3d772044	0.060333505
78	0x3d494494	0.049137667
79	0x3d53222a	0.051546253
80	0xbd318907	-0.04334357
81	0xbd748ea9	-0.059706364
82	0xbcdb1bcf	-0.026746659
83	0x3cf37127	0.029717041
84	0xbc694fa8	-0.014240183
85	0xbd8858be	-0.06657551
86	0x3b83e4c4	0.0040250737
87	0x38d32bd6	0.00010069429
88	0x3cf9557f	0.030436276
89	0x3d86a04d	0.06573544
90	0x3ae5508e	0.0017495321
91	0xbc28e960	-0.010309547
92	0x3c9251f8	0.017861351
93	0x3c19642b	0.009362261
94	0x3b63c5ce	0.0034755352
95	0x3c0422c9	0.008064934

model_4/gru_8/gru_cell/strided_slice_11 f4 [96]
0	0xbd8022f6	-0.06256668
1	0x3d134d8e	0.035962634
2	0x3c8043b8	0.01565729
3	0xbc92090a	-0.017826576
4	0x3cce15ff	0.025156973
5	0xbba52114	-0.0050393436
6	0x3c017cec	0.007903319
7	0xbd15522d	-0.036455322
8	0xbd768b51	-0.060191456
9	0xbd0497a2	-0.03237117
10	0x3b42a078	0.0029697698
11	0xbc8d5587	-0.017252697
12	0xbc8a0067	-0.016845895
13	0x3d979add	0.07402585
14	0xba056d7f	-0.00050898636
15	0x3d3b9fd5	0.045806725
16	0xbc77a812	-0.015115755
17	0xbb349fda	-0.00275611
18	0x3ccae347	0.024766577
19	0xbd32e058	-0.043670982
20	0x3d77935a	0.06044326
21	0xbcfe7ad8	-0.031064436
22	0x3c03d7df	0.008047073
23	0x3c93968d	0.018016124
24	0xbcb7a3b1	-0.022416921
25	0xbae63563	-0.0017563518
26	0x3c8c9b10	0.017163783
27	0x3c3a6c70	0.011378393
28	0x3c8fd91a	0.017559577
29	0xbd025283	-0.03181697
30	0x3b7dfc02	0.0038754945
31	0xbbf5b5b2	-0.0074984664
32	0x3d768feb	0.060195845
33	0xbd0921a2	-0.03347934
34	0x3c0b99ab	0.008520524
35	0x3bfe3304	0.0077575464
36	0x3cc59f0f	0.024123697
37	0x3c6f7865	0.014616107
38	0xbcbdc6f2	-0.023166154
39	0x3c036e4b	0.008021901
40	0xbd0235b3	-0.031789493
41	0xbc84caab	-0.01620992
42	0x3ced33d3	0.028955376
43	0x3cd83203	0.026391035
44	0x3c000847	0.0078144735
45	0xbafbc795	-0.001920926
46	0xbc83f48a	-0.016107816
47	0xbbb2b287	-0.005453411
48	0xbccdf3fe	-0.025140759
49	0x3d110f71	0.035415117
50	0xbd324687	-0.04352429
51	0x3c9c64f6	0.01909111
52	0xbc35cc08	-0.011096008
53	0xbc48e548	-0.012261696
54	0x3ce39b66	0.02778406
55	0x3c15477e	0.009111283
56	0xbd063e83	-0.03277446
57	0xbd40e9d2	-0.04709799
58	0x3be4b795	0.0069798925
59	0xbd2a35e4	-0.0415553
60	0xbcdb1e47	-0.026747836
61	0x3d04ec73	0.032452058
62	0x3cb7b42f	0.022424785
63	0xbcb32843	-0.021869784
64	0xbaa815d7	-0.0012823892
65	0x3ccbf34d	0.024896288
66	0xbcb84429	-0.022493439
67	0xbb125ef8	-0.0022334438
68	0xbc082902	-0.008310558
69	0xb9cf29b6	-0.00039513194
70	0x3d012a9c	0.031534776
71	0x3b63e4f7	0.0034773925
72	0xbcbaf83c	-0.022823445
73	0xbd4dbfda	-0.050231792
74	0xbd0bf36a	-0.034167685
75	0x3a2367ca	0.00062334223
76	0x3c8843c7	0.016633881
77	0x3d6a1bd8	0.05715546
78	0x3c9c7e3b	0.01910316
79	0x3c64bf26	0.013961589
80	0xbcee665b	-0.029101541
81	0xbd1aa1f2	-0.0377521
82	0xbd0b968e	-0.034079127
83	0x3cffeeeb	0.031241855
84	0xbc29787f	-0.01034367
85	0xbd403050	-0.046921074
86	0x3ab5acad	0.0013860665
87	0xbc20b89d	-0.00980964
88	0x3bf99afc	0.0076173525
89	0x3cd9ee16	0.026602786
90	0x3ba2fda6	0.004974085
91	0xbc33ba85	-0.010969763
92	0x3c9fedcc	0.01952257
93	0x3c96b7a8	0.018398121
94	0x3ca135d4	0.019678988
95	0x3ca015a9	0.019541578

model_4/batch_normalization_19/batchnorm/sub f4 [48]
0	0xbe92d3c4	-0.2867719
1	0xbdd93104	-0.10605052
2	0x3ee3651d	0.4441308
3	0xbe3841ff	-0.17993926
4	0xbc1effe1	-0.009704561
5	0x3e240af5	0.16019805
6	0x3dce5358	0.1007449
7	0xbe7e87d9	-0.2485651
8	0xbdf549e6	-0.11976986
9	0x3e5464db	0.20741598
10	0xbe9a1eac	-0.30101526
11	0x3e36ccf0	0.17851615
12	0xbe6e5d86	-0.23277864
13	0x3bbdbda0	0.0057904273
14	0x3e6571de	0.22406718
15	0x3d8abdb8	0.06774467
16	0x3da09e3c	0.07842681
17	0xbea55c70	-0.32297087
18	0x3e2095be	0.15682122
19	0x3e4f1657	0.20223366
20	0xbe7c6c02	-0.24650577
21	0xbe7f7571	-0.24947144
22	0x3c17f6f0	0.009275183
23	0xbea8a699	-0.32939604
24	0xbe876cda	-0.26450235
25	0xbd0995aa	-0.033589996
26	0x3ed4b88a	0.41547042
27	0x3cfdaae0	0.030965269
28	0x3d9fe4f6	0.07807343
29	0xbe4a0be2	-0.19731095
30	0xbd036892	-0.032082148
31	0x3e95518d	0.2916378
32	0xbe881eb5	-0.26585928
33	0xbd18506c	-0.03718607
34	0x3e2e65c4	0.17031008
35	0xbe850ace	-0.25984806
36	0xbe9248f6	-0.2857129
37	0xbd2d260c	-0.042272612
38	0x3e42177f	0.18954276
39	0xbe8e976e	-0.27849907
40	0xbe427438	-0.18989646
41	0x3e4246fc	0.18972391
42	0x3e6fa412	0.23402432
43	0xbd80e14b	-0.06292971
44	0x3c9f45b4	0.019442417
45	0xbdf83bbd	-0.12120769
46	0x3e076c48	0.132249
47	0xbe6630fd	-0.22479625

model_4/batch_normalization_19/batchnorm/mul f4 [48]
0	0x40095ce2	2.146294
1	0x401bf0a4	2.4365625
2	0x3ff77e41	1.9335405
3	0x4007a43c	2.119399
4	0x400e52fd	2.2238152
5	0x4011f1d4	2.280385
6	0x400b980e	2.1811557
7	0x4024a9fe	2.5728755
8	0x4004bfb0	2.0741997
9	0x4005a51c	2.0882025
10	0x401845e4	2.3792658
11	0x4029163d	2.6419823
12	0x401d3235	2.4561894
13	0x400eafce	2.2294803
14	0x40178e8b	2.3680751
15	0x40008ae2	2.0084767
16	0x40026490	2.0373878
17	0x40214a83	2.5201728
18	0x4002f31f	2.046089
19	0x400f20d7	2.2363794
20	0x404c52ac	3.192546
21	0x40186a27	2.381479
22	0x3ffa6032	1.9560606
23	0x4031fe88	2.7811604
24	0x4014079d	2.3129647
25	0x3ff659c4	1.9246144
26	0x401be57f	2.4358823
27	0x4020343b	2.503188
28	0x4021a307	2.5255754
29	0x401ecf90	2.4814186
30	0x40292796	2.6430411
31	0x400c3db1	2.1912653
32	0x400abb43	2.1676795
33	0x40165939	2.3491957
34	0x400d2e48	2.2059498
35	0x401b785e	2.4292216
36	0x400abd2e	2.1677966
37	0x3ff3f72c	1.9059806
38	0x40086363	2.131066
39	0x400c4ab2	2.192059
40	0x401a3b2a	2.409861
41	0x401566c5	2.3343976
42	0x40116254	2.2716265
43	0x400c8b05	2.195985
44	0x400ee264	2.2325678
45	0x4019e5f3	2.40466
46	0x402d5e8f	2.7088964
47	0x40101338	2.251173

model_4/batch_normalization_18/batchnorm/sub f4 [96]
0	0x3ec7ed3b	0.3904818
1	0xbe9a2424	-0.30105698
2	0xbe8c1748	-0.27361512
3	0xbed1afeb	-0.40954527
4	0xbf29f11a	-0.66383517
5	0xbe420f5a	-0.18951169
6	0xbd62efec	-0.05540459
7	0x3e87cb83	0.26522455
8	0xbc20a214	-0.009804267
9	0x3e98f88a	0.2987712
10	0x3f0428b5	0.51624614
11	0x3f1c83dc	0.611387
12	0x3ea94a6b	0.3306459
13	0xbf0cbd21	-0.5497609
14	0x3ec3d15a	0.3824566
15	0xbeddae21	-0.43296912
16	0x3de57e9e	0.11205791
17	0xbf15f0da	-0.58570635
18	0xbebc19dd	-0.36738482
19	0x3f47c7ca	0.7803923
20	0xbe9e47ce	-0.30914158
21	0x3f978130	1.18363
22	0xbf33cff4	-0.70239186
23	0xbe06746a	-0.13130346
24	0xbeb00aaa	-0.34383136
25	0x3f126f7a	0.5720135
26	0xbe9a7e4c	-0.30174482
27	0x3de4d27f	0.111729614
28	0x3ee9c3af	0.45657107
29	0x3e4697f1	0.19393899
30	0x3e9914c5	0.29898658
31	0x3f2cbfae	0.6747998
32	0x3d952903	0.07283213
33	0x3fa19972	1.2624953
34	0xbbbbdf70	-0.005733423
35	0x3e39f722	0.1816068
36	0xbe8f51ee	-0.27992195
37	0x3f284f38	0.6574588
38	0x3c5b5c78	0.0133887455
39	0x3cd90eb2	0.026496265
40	0xbdde0104	-0.108400375
41	0x3e4d1eee	0.2003133
42	0xbed97076	-0.42468613
43	0x3ce5e0d6	0.028061312
44	0x3d87808a	0.06616314
45	0x3b144a7c	0.0022627404
46	0xbf680139	-0.90626866
47	0xbe9bce6b	-0.30430922
48	0xbf1e9349	-0.6194349
49	0xbe5273f9	-0.20552053
50	0x3f013ac9	0.50480324
51	0xbf5fe723	-0.8746206
52	0x3f383621	0.71957594
53	0x3ee187b4	0.44048846
54	0xbf3c662d	-0.7359341
55	0x3f1726ad	0.5904339
56	0x3d12f7a1	0.03588069
57	0x3f0a4db5	0.5402482
58	0x3e0cf065	0.13763578
59	0xbda63621	-0.08115793
60	0xbf18bdef	-0.59664816
61	0x3d785899	0.06063137
62	0xbf5fca83	-0.87418383
63	0x3f300f2f	0.6877317
64	0x3f81dd32	1.0145628
65	0xbe8d398a	-0.2758296
66	0xbe0997b1	-0.13436772
67	0x3e998505	0.29984298
68	0xbe53ffdd	-0.20703073
69	0x3ed683ca	0.41897422
70	0xbeaf6d88	-0.34263253
71	0xbee942db	-0.4555882
72	0x3f23e761	0.6402493
73	0x3dbeb7a4	0.093123704
74	0x3eed1454	0.46304572
75	0xbebe0639	-0.37114123
76	0xbec16c66	-0.37778014
77	0xbef59cd0	-0.479712
78	0xbe98c27a	-0.29835874
79	0xbea2e00e	-0.31811565
80	0x3f4850c2	0.78248227
81	0x3eee7fb6	0.4658181
82	0xbe90ddd7	-0.2829425
83	0xbe19b282	-0.15009502
84	0xbe91523a	-0.28383046
85	0x3ec907d9	0.392638
86	0xbe40ec53	-0.1884015
87	0xbe5d48b7	-0.2160977
88	0xbea380d5	-0.3193423
89	0xbf3b7547	-0.73225826
90	0xbb07d02c	-0.0020723445
91	0x3e88ba7f	0.26704785
92	0xbeef9ba6	-0.46798438
93	0xbe976259	-0.2956722
94	0x3dbf6cd3	0.093469284
95	0xbe53e359	-0.20692195

model_4/batch_normalization_18/batchnorm/mul f4 [96]
0	0x406abd05	3.6677868
1	0x40ed9325	7.424212
2	0x413557e8	11.3339615
3	0x40ae9f58	5.456951
4	0x40c775d7	6.2331347
5	0x40e6a980	7.208191
6	0x40865991	4.1984334
7	0x413a96ad	11.661786
8	0x404ec669	3.23086
9	0x40f1451d	7.5396867
10	0x410f3bed	8.95213
11	0x4098eb11	4.7786946
12	0x40460c1a	3.0944886
13	0x408fcefd	4.494017
14	0x41281cc8	10.507027
15	0x411cd02e	9.800825
16	0x40fd9b05	7.9251733
17	0x40b5673e	5.668853
18	0x40addf5b	5.433515
19	0x40e7bd5b	7.2418647
20	0x408dbaf4	4.4290714
21	0x40f97326	7.795306
22	0x41465cbb	12.397639
23	0x4171c1d8	15.109825
24	0x408465e1	4.1374364
25	0x41093e51	8.577714
26	0x4091ef24	4.560442
27	0x4108db7a	8.553583
28	0x40a8f98c	5.2804623
29	0x4071ba49	3.776995
30	0x40c2edf6	6.091548
31	0x40ad1f8f	5.4101024
32	0x40525547	3.286455
33	0x41117c3e	9.092833
34	0x40ced6ef	6.463737
35	0x409f35b5	4.975306
36	0x40eb00a6	7.343829
37	0x412bd07c	10.7383995
38	0x40922be9	4.56786
39	0x409261e3	4.574449
40	0x40445734	3.0678225
41	0x410b6060	8.711029
42	0x409b67bc	4.856413
43	0x4109b330	8.606247
44	0x40f38aa6	7.610675
45	0x412b09ac	10.689861
46	0x41057196	8.340231
47	0x410d2ecf	8.823928
48	0x40c32e04	6.099367
49	0x40a46d73	5.1383605
50	0x405bf89e	3.4370494
51	0x40acc801	5.3994145
52	0x407e352f	3.971996
53	0x40d60624	6.6882496
54	0x40dcbbc2	6.8979197
55	0x40caee19	6.3415647
56	0x410efb86	8.936407
57	0x404b2fc4	3.1747904
58	0x411d2967	9.822608
59	0x40c814a5	6.25252
60	0x4093d125	4.6192803
61	0x40c454e0	6.1353607
62	0x40a97d18	5.29652
63	0x40d1388f	6.538154
64	0x4115c5c9	9.360787
65	0x410caf54	8.792805
66	0x40c93276	6.28741
67	0x40ad499e	5.4152365
68	0x40d70098	6.7188225
69	0x40c65cc5	6.1988244
70	0x41057970	8.342148
71	0x411dcab2	9.861986
72	0x40b85cf8	5.7613487
73	0x40ec035e	7.375411
74	0x40b646d7	5.6961474
75	0x4106bc6b	8.4210005
76	0x40c35643	6.10428
77	0x40935002	4.6035166
78	0x4121dcb8	10.116386
79	0x40bb3647	5.8503757
80	0x40a60777	5.188411
81	0x40ddb0ef	6.9278483
82	0x408923ff	4.285644
83	0x4055fb5b	3.3434665
84	0x40f94c7b	7.790586
85	0x40d17b6c	6.546316
86	0x4125a1fc	10.352047
87	0x40df3b77	6.976009
88	0x415c5c23	13.772494
89	0x410d34ad	8.82536
90	0x40d4c9b4	6.649622
91	0x41105265	9.020116
92	0x40d80aac	6.7513027
93	0x407af47d	3.9211724
94	0x40d64074	6.695368
95	0x411cc043	9.796939

model_4/dense_9/BiasAdd/ReadVariableOp f4 [26]
0	0x3d8d36f2	0.068952456
1	0xbd406f95	-0.046981413
2	0x3e032e63	0.12810664
3	0x3df1b182	0.11801435
4	0xbd55fc95	-0.052242834
5	0x3d19abff	0.037517544
6	0x3d07d3ec	0.03316109
7	0xbcd93992	-0.02651671
8	0x3e038e9c	0.1284737
9	0x3d8688d6	0.06569068
10	0xbdb2d4b1	-0.08731974
11	0x3e1423b9	0.14466752
12	0xbcefab15	-0.029256383
13	0x3c531f19	0.012885832
14	0xbea18f64	-0.3155471
15	0xbea74c29	-0.32675293
16	0xbea2987e	-0.31756967
17	0xbe9dc08c	-0.30810964
18	0xbea871cc	-0.3289932
19	0xbea9b9c8	-0.33149552
20	0xbea7c797	-0.32769462
21	0xbe9af273	-0.302631
22	0xbe9ee97d	-0.31037512
23	0xbe9bfedf	-0.3046789
24	0xbea758cf	-0.32684943
25	0xbe9c3f00	-0.30516815

model_4/dense_8/BiasAdd/ReadVariableOp f4 [48]
0	0x3e0ef5ff	0.13961028
1	0x3d91bea7	0.07116442
2	0x3df92acc	0.12166366
3	0x3e43a298	0.19104993
4	0x3dd0f9a5	0.10203866
5	0x3dbdc26b	0.09265598
6	0x3d763b0f	0.060114916
7	0x3ccc3549	0.024927752
8	0x3d6df9db	0.05809961
9	0x3d8a1313	0.06741919
10	0x3d828a57	0.063740425
11	0x3d509f4c	0.050933167
12	0x3e01e332	0.12684324
13	0x3d8d15cc	0.06888923
14	0x3d87f8ef	0.06639277
15	0x3d7fb7f6	0.0624313
16	0x3dc7c611	0.09754575
17	0x3d50c48c	0.05096869
18	0x3d371733	0.04469986
19	0xbc5c3464	-0.013440225
20	0x3d822586	0.06354813
21	0x3d4ab567	0.049489405
22	0x3e187c88	0.14891255
23	0x3e04daa0	0.12974024
24	0x3de5e30f	0.112249486
25	0xbd115ab1	-0.03548688
26	0x3d7a0436	0.061039172
27	0x3de16255	0.110050835
28	0x3dc7e9bc	0.09761378
29	0x3e1429f6	0.14469132
30	0x3d8bcd7b	0.06826302
31	0x3d938ebe	0.0720496
32	0x3ca5ca9a	0.02023821
33	0x3cbb50eb	0.022865733
34	0x3d75bbc2	0.059993513
35	0x3de97fd9	0.11401338
36	0x3d80950c	0.062784284
37	0x3d4e9dde	0.050443523
38	0x3d39f0f4	0.045395806
39	0x3df8293d	0.121172406
40	0x3cc3ffdd	0.023925716
41	0x3de98cce	0.114038095
42	0x3da63ba6	0.08116846
43	0x3d99d499	0.07511253
44	0x3db7eb3d	0.08980415
45	0x3e30815d	0.17236848
46	0x3e2d7a4a	0.16941181
47	0x3d5ad3ce	0.05342465

model_4/gru_8/gru_cell/MatMul f4 [96, 126]
0	0xb8e58892	-0.00010945009
1	0x390a4a7a	0.0001318845
2	0xb8985dae	-7.265374e-05
3	0x3a457713	0.0007532697
4	0x39cbcd4c	0.00038872135
5	0x384f4e5a	4.9425616e-05
6	0x3b239003	0.0024957664
7	0x394982a9	0.00019217528
8	0xb97dac1f	-0.0002419208
9	0x3b5f5267	0.0034076215
10	0xb892ff58	-7.009384e-05
11	0xba133f26	-0.0005617015
12	0x3b972e16	0.004613648
13	0xbaf51f61	-0.0018701368
14	0x3a2e015d	0.00066377764
15	0x3b328f9a	0.0027246238
16	0xbb05e2f1	-0.0020429457
17	0xb9ce6e24	-0.00039373443
18	0x3b9c3ac3	0.004767747
19	0xbac7b15b	-0.0015235351
20	0xba22963f	-0.0006202198
21	0x3bb5b092	0.0055447305
22	0xb99a2181	-0.0002939813
23	0xba7d5309	-0.0009663557
24	0x3bce2039	0.0062904623
25	0x39d800ad	0.00041199234
26	0xba5de8fe	-0.00084651995
27	0x3b259ca0	0.0025270358
28	0xba3439e7	-0.0006875083
29	0x39bd76d5	0.00036137426
30	0x3b89eb7b	0.0042089797
31	0xb9983fca	-0.00029039226
32	0xb9589c00	-0.0002065748
33	0x3b8c76ee	0.0042866385
34	0x3a111535	0.0005534471
35	0xb9b6dc34	-0.0003487781
36	0x3baf4bf4	0.0053496305
37	0x3ab50334	0.0013810159
38	0xba928317	-0.0011177984
39	0x3b577a1a	0.0032879175
40	0xbb0cb509	-0.002147021
41	0x38e21cf1	0.000107819105
42	0x3b7aeeb6	0.0038289255
43	0xb919c77b	-0.0001466553
44	0xb99538d2	-0.0002846183
45	0x3b6deee6	0.0036305725
46	0xb8b5003f	-8.6307984e-05
47	0xb982c94e	-0.00024945516
48	0x3b87915b	0.004137201
49	0x3a5864eb	0.0008254784
50	0xba2f909c	-0.00066972687
51	0x3b23319c	0.0024901396
52	0xbb2982ff	-0.0025865433
53	0xba1314f6	-0.00056107284
54	0x3b3b01bd	0.0028534972
55	0xbab47744	-0.0013768454
56	0xba4086c5	-0.0007344301
57	0x3b8827b7	0.004155125
58	0xba653bcb	-0.00087445666
59	0xb99f99fe	-0.00030441576
60	0x3b76a103	0.0037632592
61	0x3a9d51b3	0.0012002498
62	0xba6e0920	-0.0009080339
63	0xb9733d98	-0.00023197231
64	0xb8e3eb1e	-0.000108679975
65	0xb784f65a	-1.5850343e-05
66	0x3a6203b8	0.000862177
67	0xbaa7a71d	-0.0012790893
68	0xba8a0e85	-0.0010532892
69	0x39919bf8	0.0002777276
70	0xbaf22bea	-0.0018476222
71	0xba71db22	-0.0009226074
72	0x395faba7	0.00021330883
73	0xbb007058	-0.0019598212
74	0xbaa5eb47	-0.0012658619
75	0x397e4fbc	0.00024253031
76	0xbb13795b	-0.0022502753
77	0xbadc087a	-0.0016787194
78	0xb866961f	-5.4976084e-05
79	0xbac3890a	-0.001491816
80	0xba857520	-0.0010182001
81	0x397f6757	0.00024357192
82	0xbaeb917e	-0.0017972437
83	0xbac6fb12	-0.0015181026
84	0x3994a143	0.0002834891
85	0xba508fa8	-0.0007955977
86	0xbab98484	-0.0014153873
87	0x399aafca	0.00029504142
88	0xba914673	-0.0011083618
89	0xbac7b294	-0.0015235716
90	0xb9480f09	-0.00019079087
91	0xba6d47c1	-0.00090515247
92	0xba951efd	-0.0011377033
93	0x39e1bec3	0.00043057473
94	0xb873d8fc	-5.8137797e-05
95	0xbab7540a	-0.0013986838
96	0xb80a1ab3	-3.292663e-05
97	0x3a0bda6c	0.00053349766
98	0xbb012f2b	-0.0019711952
99	0x38a7ecbc	8.007276e-05
100	0x3a8eedec	0.0010904646
101	0xbad1fa6b	-0.0016020065
102	0xb9b0ec79	-0.00033745522
103	0xba6ad56b	-0.00089581934
104	0xbaa9cf1d	-0.0012955401
105	0xba0fc553	-0.00054844207
106	0x3a1131af	0.00055387145
107	0xbab35f74	-0.0013685063
108	0xba887582	-0.0010410997
109	0x3a159cdc	0.0005707273
110	0xbab27366	-0.0013614714
111	0xba0c5a7e	-0.00053540606
112	0x3b06da56	0.0020576916
113	0xba9c23de	-0.0011912545
114	0xba6b23f1	-0.0008969894
115	0xb92a608c	-0.0001624843
116	0xba993ee6	-0.0011691719
117	0xb9edb677	-0.0004534011
118	0x39ebd68e	0.0004498255
119	0xba434a14	-0.0007449698
120	0xba2c0f87	-0.0006563593
121	0x3a981a1a	0.0011604459
122	0xbab3127e	-0.0013662127
123	0xba2902e7	-0.0006447271
124	0x3a8bab65	0.0010655938
125	0xbab1e244	-0.0013571461
126	0xb93bc30a	-0.00017906367
127	0xb978006f	-0.00023651285
128	0x3a272eab	0.00063774985
129	0xba848b10	-0.0010112245
130	0xb767ee80	-1.3824203e-05
131	0x39d3568c	0.0004030954
132	0xba0a1783	-0.0005267786
133	0x3a438362	0.0007458237
134	0xb99b19fb	-0.0002958326
135	0xba1b79ce	-0.0005930931
136	0x3ab9afcc	0.0014166771
137	0xba43f49c	-0.00074751093
138	0x3af79a70	0.001889063
139	0x39ca7e67	0.0003862262
140	0xbabc096c	-0.001434607
141	0x39618bb6	0.00021509718
142	0x3a612c10	0.00085896347
143	0x3a6cfea1	0.0009040628
144	0xba4b81af	-0.000776316
145	0x3a935e25	0.0011243267
146	0xb8943e69	-7.068815e-05
147	0xbab466b4	-0.0013763518
148	0x3a740a93	0.0009309437
149	0xba842703	-0.0010082427
150	0x39c82639	0.0003817545
151	0x3b9708bf	0.004609197
152	0xb9c641cf	-0.00037814534
153	0x3a9417df	0.0011298618
154	0x3b288dac	0.0025719209
155	0x3a0ac82b	0.00052941096
156	0xba698d8b	-0.0008909336
157	0x3b1106b3	0.0022129237
158	0x3a640ad3	0.00086991227
159	0xbb025b88	-0.0019890983
160	0x3b680951	0.0035405944
161	0xba6fa0fa	-0.0009141114
162	0xbb3739d1	-0.0027958045
163	0x3b9dc60b	0.0048148683
164	0xb9b9b14b	-0.00035418043
165	0x3aad5e12	0.0013226888
166	0xba5a95ad	-0.00083383435
167	0x3a2a594a	0.00064982905
168	0xba1f58cd	-0.0006078601
169	0x3afaf79b	0.0019147279
170	0x39b69703	0.00034826258
171	0x39e4a8e4	0.00043613382
172	0x3b8e6e98	0.00434668
173	0x38994787	7.3089315e-05
174	0xbb2b2ecd	-0.0026120425
175	0x3b8e928b	0.0043509654
176	0xb9b91f3a	-0.00035309215
177	0xba72c593	-0.0009261008
178	0xba39ccac	-0.00070876884
179	0xba0234aa	-0.0004966954
180	0xba7e93e1	-0.0009711367
181	0x3aa10880	0.0012285858
182	0xba1601f0	-0.00057223346
183	0xbac593ec	-0.0015073991
184	0x3ba06d97	0.0048958766
185	0xb9b608d0	-0.0003472031
186	0xb8f64817	-0.00011743622
187	0x3b9938b2	0.004675948
188	0xba6cfb21	-0.00090401067
189	0xb8fe4927	-0.000121252895
190	0xb9433ffc	-0.00018620485
191	0x398f2d2d	0.00027308744
192	0xb91ce40a	-0.0001496227
193	0xba6a89c0	-0.0008946918
194	0x3882f27f	6.2440515e-05
195	0x394abd8d	0.00019334834
196	0xbabf63c7	-0.001460188
197	0xba22d539	-0.0006211582
198	0x39a6c4ca	0.00031808607
199	0xbaad441e	-0.0013219153
200	0xb92344e4	-0.00015570555
201	0x3a7060c2	0.00091696915
202	0xbacfdd0f	-0.0015858727
203	0xb849a848	-4.807886e-05
204	0x39c83a4f	0.00038190416
205	0xba77a8e9	-0.0009447472
206	0xb9a46358	-0.00031354534
207	0x3a5405e0	0.00080880336
208	0xbaed284f	-0.0018093678
209	0x395f556f	0.00021298764
210	0x3abd1b19	0.0014427631
211	0xbb002edf	-0.0019559187
212	0xb997035b	-0.00028803464
213	0x3ae1972a	0.0017211188
214	0x37bc316a	2.2434357e-05
215	0xba223773	-0.0006188072
216	0x399befe8	0.00029742648
217	0xba90d34f	-0.0011049303
218	0xba1f6ec3	-0.00060818734
219	0x3a76c5ac	0.00094136107
220	0xb91d2a2c	-0.00014988397
221	0xba55ddf5	-0.00081583794
222	0x3a775e84	0.0009436386
223	0x3acdca70	0.001570059
224	0xba0c04f7	-0.0005341316
225	0x3b074f14	0.00206465
226	0x3a8b62b8	0.0010634279
227	0xba7f95ce	-0.00097498007
228	0x3a10d02e	0.0005524185
229	0x381ee96e	3.7887534e-05
230	0xba0ddd30	-0.00054116827
231	0x3a197749	0.00058542617
232	0x3aadf077	0.0013270517
233	0xba45e29d	-0.00075487216
234	0x391966e5	0.00014629548
235	0x3a5afe6a	0.00083539507
236	0xba95136b	-0.0011373585
237	0x3a4c502a	0.0007793928
238	0x3b01adc9	0.0019787422
239	0xb9f0c4ae	-0.00045922905
240	0x3a78e3eb	0.00094944116
241	0x3a9d9c34	0.0012024702
242	0xba81f5d2	-0.0009915179
243	0x38f5f8e3	0.00011728869
244	0x3b12809b	0.0022354487
245	0xbae91ceb	-0.0017785107
246	0x3a304fe8	0.0006725774
247	0x3ae0a016	0.0017137553
248	0xba83e733	-0.001006341
249	0x3a7a70f1	0.0009553573
250	0x3b2ce8c7	0.0026383863
251	0xba907a41	-0.0011022763
252	0xb88742bd	-6.4497326e-05
253	0xb91016f5	-0.00013741462
254	0x383203d7	4.2442083e-05
255	0x39c91c13	0.00038358624
