app/src/main/assets/models/gender.tflite (tflite, 673196 bytes, 52 tensors)

model_4/batch_normalization_16/batchnorm/add_1;model_4/conv1d_8/Conv1D/Squeeze;model_4/batch_normalization_16/batchnorm/mul_1;model_4/conv1d_8/BiasAdd;model_4/conv1d_8/BiasAdd/ReadVariableOp;model_4/batch_normalization_16/batchnorm/mul;model_4/batch_normalization_16/batchnorm/sub;model_4/conv1d_8/Conv1D;model_4/conv1d_9/Conv1D f4 [96]
00000000: 0f8a dabe d6f9 b53e 9e3f 05bf 13b4 1abf
00000010: 27fd 26bf 16ac 96be 7c96 9dbe dddd dabe
00000020: 29fe f4be 8edf 4f3e b359 30bf 7100 38bd
00000030: 120f f0be f5b6 84be bb0a 17bf e478 09be
00000040: 2e9e dcbe 7b42 c2be 798c 09be e771 943e
00000050: 355f 413f 61d0 293f eb8a 56bf 62b4 8dbe
00000060: 2353 bebe 184f b03e ecf2 063f 05ab 8a3e
00000070: ed1f 4a3f 1079 943f ec0e 09bf fdfb 5fbe
00000080: 925a f0be 9ca8 3c3e b880 37bf b214 e7be
00000090: d6b3 b63e efd0 dfbe 50aa 04bf de45 ebbe
000000a0: d954 dcbc fe92 e93c f890 90be 9950 3f3f
000000b0: 4b59 91bd d25a 4dbe c21b fabe 1f6e 8a3d
000000c0: 3b87 e4be 66c9 f9be 5f57 b7be 749c e93d
000000d0: a08d 35bf 7cfc d8be 5259 91be 88a0 573c
000000e0: 29cc cd3e 2f3b efbd 6220 12be 63df 00bf
000000f0: 1638 05bf 34bf 0c3f 15e1 1dbf d484 0e3f
00000100: 7a20 e03d 875f a9be 182f c3be bc84 0f3e
00000110: cafe 1cbd 7466 b23e 78e9 e5be e01d 25be
00000120: 226e 16bf 4c9b 48bd c489 92be 6d52 4bbe
00000130: 18b6 753d d601 263e 8c24 9ebe 4012 0a3e
00000140: 43ae 03bf a5c9 8bbf 4c06 65be 727c edbe
00000150: 5511 303e d82f 94be c697 80be 8a44 32bf
00000160: 690c 16bf bb35 a0be fec7 e93e 6e42 3cbe
00000170: 98aa 45bf 1b2c 38bf 86d0 47be 1141 f5be
-0.42683455 0.35542172 -0.520502 -0.6043102 -0.6523003 -0.29428166 -0.30778873 -0.42747393
-0.4785016 0.20300123 -0.6888687 -0.044922296 -0.46886498 -0.25920835 -0.5900075 -0.13425022
-0.43089432 -0.37941346 -0.13432492 0.2899315 0.755359 0.66333586 -0.8380572 -0.27676684
-0.37172803 0.34435344 0.5271442 0.27083603 0.78954965 1.1599445 -0.53538394 -0.2187347
-0.469441 0.18423694 -0.71680784 -0.45132977 0.3568408 -0.4371409 -0.51822376 -0.45951742
-0.026895927 0.028512474 -0.28235602 0.7473236 -0.070971094 -0.20054176 -0.48849303 0.06759285
-0.44634423 -0.48786467 -0.35808846 0.11406794 -0.7091923 -0.4238013 -0.28388458 0.013160832
0.40194824 -0.1168121 -0.14270166 -0.5034086 -0.52038705 0.5497925 -0.6167157 0.5567143
0.109436944 -0.33080694 -0.38121867 0.14015478 -0.038328923 0.3484379 -0.44904685 -0.16124678
-0.587618 -0.048976228 -0.28620732 -0.19855662 0.05998811 0.16211638 -0.30887258 0.13483524
-0.5143778 -1.0920912 -0.22365683 -0.46384007 0.17194112 -0.28942752 -0.25115794 -0.6963583
-0.58612686 -0.31290993 0.45660394 -0.18384716 -0.7721343 -0.719423 -0.19513139 -0.47901204

model_4/batch_normalization_17/batchnorm/add_1;model_4/conv1d_9/Conv1D/Squeeze;model_4/batch_normalization_17/batchnorm/mul_1;model_4/conv1d_9/BiasAdd;model_4/conv1d_9/BiasAdd/ReadVariableOp;model_4/batch_normalization_17/batchnorm/mul;model_4/batch_normalization_17/batchnorm/sub;model_4/conv1d_9/Conv1D f4 [96]
00000000: 4b0d 8b3f 3492 533f a6f5 543f b55e 143f
00000010: 3b54 023e f74b 4b3f 6bf3 8cbe 1523 83be
00000020: 6d22 adbe b204 8fbe a790 c83e 48fd 813e
00000030: 1aee 363f 29ea 593f 5ca0 ef3d 7092 7dbe
00000040: f7fe 203f 24d3 983f a740 13be 0d0a f63e
00000050: 874e aabd 098c 403f 5013 25bf b671 e2be
00000060: e955 8cbe d368 893e d5aa 72bc 6fbb eebe
00000070: fd78 88bf ce6e f6be 2b20 c93e 42c8 6dbe
00000080: 5edd 353f 65c9 8fbf a73a d1bd 4fac 83be
00000090: 33d8 38bf 2900 c23f 0d5a 363e 0a03 43be
000000a0: e602 a33d c2c8 463e 1e74 5f3e c173 dc3d
000000b0: c3db 803e f8f6 45bd a536 03be f0a3 edbe
000000c0: 9ac3 083d 1ad1 fcbe 6224 853f e574 053f
000000d0: 46c3 a3be 2c43 c2be ae8b 7bbe 1698 aa3e
000000e0: 3be0 f8be fa89 133f c267 343d 9d5b 3ebf
000000f0: baff 5d3d 5a4a 6dbf 6cd1 0c3f 99ef af3e
00000100: efdd 243f 274a c63f 842b 083f 28eb d83e
00000110: 272d 1a3f f495 76bf 9291 6bbd a4e6 acbe
00000120: 3c7a bdbe 70e3 1c3f 7216 323f ce00 a0bc
00000130: 9031 80ba ea0c 1b3e 84a5 923d bfc0 14bf
00000140: 2c9d c0bd 23fb c6be 7868 95be b8b2 2d3e
00000150: 95cc 50bf 43ad b63f 8783 35bf 2b51 833f
00000160: 2da2 e5be 2e3b 053e bb49 d73f c2ce 86be
00000170: c1dc ed3e 0513 cf3e 5383 13bf bcc1 c4be
1.0863432 0.82644963 0.8318733 0.5795701 0.12727444 0.7941279 -0.27529463 -0.25612703
-0.33815327 -0.2793327 0.3917286 0.2538855 0.71457064 0.85122925 0.11700508 -0.24762893
0.62889045 1.1939435 -0.14380132 0.48054543 -0.08315759 0.75213677 -0.64482594 -0.4422738
-0.27409294 0.26837787 -0.014811237 -0.46627375 -1.0661923 -0.48131412 0.39282355 -0.23220924
0.71040905 -1.1233336 -0.10216265 -0.257174 -0.72204894 1.5156299 0.17807789 -0.19044128
0.07959537 0.1941252 0.21821639 0.10764266 0.25167665 -0.04833123 -0.12813814 -0.46414137
0.033389665 -0.49378282 1.0401728 0.5213149 -0.3198492 -0.37941873 -0.24565002 0.33319157
-0.48608574 0.5763241 0.044044264 -0.7435854 0.054198958 -0.92691576 0.5500705 0.34362486
0.64401144 1.549138 0.531914 0.4236691 0.60225147 -0.9632256 -0.057511874 -0.33769715
-0.3700732 0.6128454 0.695655 -0.019531634 -0.0009780396 0.15141645 0.07160476 -0.5810661
-0.09404978 -0.38863477 -0.29181266 0.16962707 -0.8156217 1.4271625 -0.7090382 1.0259145
-0.44850293 0.13010857 1.6819376 -0.2632962 0.46457484 0.40444198 -0.5762226 -0.38429058

model_4/batch_normalization_16/batchnorm/mul_1;model_4/conv1d_8/Conv1D/Squeeze;model_4/conv1d_8/BiasAdd;model_4/conv1d_8/BiasAdd/ReadVariableOp;model_4/batch_normalization_16/batchnorm/mul;model_4/conv1d_8/Conv1D;model_4/conv1d_9/Conv1D f4 [96, 1, 3, 126]
00000000: 6220 e0bb dcd6 083a de1d 4f3b f58c e23c
00000010: 52ca 01bd 85e1 74bb dc0a 243d a3ce 72bd
00000020: 33cc 65bb 64b7 f13c 8057 11be 736b fcbb
00000030: 6b64 613d 1bd9 88be f62c 59ba 1aeb 803d
00000040: 2958 85bd 257b 0cbc a446 933d ff3b aebb
00000050: ed6d e8bc 1fab 773c a051 d73d abea 84bc
00000060: ba3e c03c 201a b23d f254 783b 9ccc 8a3b
00000070: 45f1 9fbd fbc1 13bb b1da b8bc b14d e4bc
00000080: 6cc2 72bc 47ce bbbd 0c42 ec39 dc8a 3f3c
00000090: 99ae c0bd 4888 d2bd 0cb7 093d 6dbd 90bc
000000a0: 7016 14bd 7bef 1abc b4bf e8bc 23e1 133d
000000b0: ebb8 fabb 3184 98bd 4ea1 da3d a297 fe3c
000000c0: b04e b6bd ce9d 6e3d 891c 5e3d 6711 863c
000000d0: 9bf2 14bd 5e59 81bc 4815 093d 2974 4f3d
000000e0: c980 893a 0c9c 773b 76ea cb3d 87cc c83c
000000f0: 32bd b4bc d6f8 ab3d 1f72 293d bf10 b6b8
00000100: d0e9 3abb ff26 3b3b 6367 4e3b c7ac 2e3b
00000110: bdfb f2ba 009b f13b 5b7b acbb dfc0 2a3b
00000120: dd1f 5e3c fc9a a1bc 70d7 d73b 0aff a03c
00000130: dd00 15bd a98a 593c f4b8 ee3b faa5 8ebb
00000140: 12a6 8b3c ee91 773c 94fc d9bb 3036 bd3c
00000150: ac41 c13c 9c97 203c b91b dd3c 9705 ed3c
00000160: bdfa f23c 3821 063d 16f2 8b3c 75e9 dbbc
00000170: 6a4d 8b3c 735b c53c d4ac c0bd 9226 e83c
00000180: 0020 f53c b850 f7bd 75a6 eb3c e18e f93c
00000190: 0521 00be e673 df3c 59a6 a13c c2ab e3bb
000001a0: a601 873c 5859 df3c 9efa 85bd 46ad e83c
000001b0: e236 c83c 38be 93bd 00b7 c83c 63cd 8e3c
000001c0: 7f5b 7fbd 130c ad3c 37a6 593c d644 d4bc
000001d0: a9a7 923c d009 b13c cb5d 81bd 18d3 da3c
000001e0: d843 d53c ba58 96bd 5612 d13c 25d7 de3c
000001f0: 51f3 90bd 5ddf ac3c 26ad c8bb c7c3 553a
00000200: dfa9 0e3b c5fa 033d e63b ebbc 0df3 eaba
00000210: ec77 433d 6c92 6cbd 6ba5 a7b9 18c5 503d
00000220: 11a3 10be b8b7 b9bb 32f8 6a3d 8559 89be
00000230: 3826 483a a4d5 9e3d cdd4 9ebd 65f0 95bb
00000240: 0354 d13d 6de2 9ebc 795a d6bc 467f 883d
00000250: 5982 cb3d ed00 73bc 1114 d33c a4f8 9d3d
00000260: c1ca 8f3b 1b3c 593c eb50 b4bd 9605 2e39
00000270: f6dd b33b 9171 3fbd 6912 57bc bf8a 57bd
00000280: 7824 93bc 7a88 593c 8759 e9bd 5885 d9bd
00000290: 561e 103d cff5 22bc e043 46bd dceb 11bc
000002a0: 6535 a4bc 9484 823c 5b88 f5bb c0c2 29bd
000002b0: 555f b53d 77c2 fc3c 8b6b 9cbd f961 263d
000002c0: 85df 603d 3713 d33c 8721 56bd 9d92 87bc
000002d0: 20d1 5e3d 7cac e53c e50f 163a 1f3e d13c
000002e0: 3f33 b83d be9c c43c d55f 843c acad 913d
000002f0: 6f3e 283d 9bd6 ff39 970a 21bb 581c 1c3a
00000300: 5ae7 293b e9e9 0b3b d836 0ebb c8e7 bc3b
00000310: 0769 15bc e01d 873a 75e1 483c ffa5 cabc
00000320: 161d 8f3b 0a4c 983c 3830 2fbd 15c0 1f3c
00000330: c41c d53b 8266 34bc bc4b 863c afb5 6a3c
00000340: a539 70bc aab9 b43c 0df2 b63c 66a0 4d3a
00000350: 426c cc3c c674 e13c 2ff4 a33c 83fc f43c
00000360: 28e1 853c 4311 04bd 01e1 833c 439d b73c
00000370: 6c7e c8bd a895 db3c ad51 da3c 0596 fdbd
00000380: b369 d63c 1f33 d53c 66fd 02be d8cc c13c
00000390: 556f a73c cf02 23bc 127b 883c 2b45 ce3c
000003a0: 6f93 87bd 46d4 db3c 75b6 aa3c cf06 94bd
000003b0: 3b92 bb3c a52a 513c d912 7cbd b37e 9a3c
000003c0: ff28 5e3c 7513 e2bc b0c6 8c3c 00df a73c
000003d0: 7eca 81bd e0a0 d33c b4a5 c83c 8c4d 96bd
000003e0: bc18 c63c a261 c93c 1c4d 92bd 1c0f a33c
000003f0: 20c0 dcbb 7be3 9bb9 f00b 333b 2de8 023d
-0.006839798 0.0005220005 0.0031603496 0.027655104 -0.03168709 -0.0037365865 0.04004942 -0.059279095
-0.003506434 0.029506393 -0.14193535 -0.0077032386 0.055027407 -0.26728138 -0.0008284593 0.06294842
-0.06510956 -0.008574282 0.07191208 -0.0053172107 -0.02837273 0.015116482 0.105136156 -0.01622518
0.02346741 0.08696389 0.0037892428 0.004235817 -0.078096904 -0.0022546041 -0.022565218 -0.027869077
-0.014816862 -0.09170204 0.00045062636 0.0116908215 -0.09408302 -0.102799 0.033621833 -0.01766845
-0.03615421 -0.009456511 -0.028411724 0.03610338 -0.0076514385 -0.074470885 0.10675298 0.031078164
-0.08901727 0.058255963 0.054226432 0.01636572 -0.03636418 -0.015789684 0.03346756 0.05064789
0.0010490651 0.003778222 0.09956829 0.024511589 -0.022062872 0.08397071 0.0413686 -8.6815555e-05
-0.002852071 0.002855718 0.0031494729 0.0026653276 -0.0018538159 0.007373214 -0.0052637286 0.0026054902
0.0135574015 -0.019727223 0.0065869614 0.019652862 -0.036377776 0.013277688 0.0072852317 -0.004353282
0.017046962 0.015110476 -0.006652424 0.023097128 0.023590885 0.0098017715 0.026990758 0.02893333
0.029660577 0.032746524 0.017083209 -0.02684472 0.017004687 0.024091458 -0.09407964 0.028338704
0.029922485 -0.12075943 0.028765896 0.030463638 -0.12512596 0.027276944 0.019732641 -0.0069479654
0.016480278 0.027264282 -0.06541942 0.028402936 0.024440233 -0.07214016 0.024501324 0.01743192
-0.062343117 0.021123921 0.013284258 -0.02591173 0.017902212 0.021611124 -0.06316718 0.026711985
0.026033327 -0.07341142 0.025521439 0.027202198 -0.07077659 0.021102602 -0.0061241565 0.0008154478
0.0021768732 0.032221574 -0.028715085 -0.0017925218 0.04772179 -0.057756826 -0.00031975968 0.050969213
-0.14124705 -0.005667653 0.057365604 -0.2682611 0.00076350896 0.077555925 -0.07755432 -0.0045757764
0.10221102 -0.019395078 -0.026166188 0.066649005 0.09936971 -0.014831764 0.025766404 0.0771344
0.004388184 0.013258959 -0.088044964 0.00016596014 0.0054891063 -0.046739165 -0.013126948 -0.052622553
-0.017961726 0.013277167 -0.11394029 -0.106211364 0.03518518 -0.009946301 -0.048404574 -0.008906331
-0.020044992 0.015932359 -0.0074930615 -0.041445494 0.08856074 0.030854447 -0.076377 0.040620778
0.054900665 0.025765998 -0.052278068 -0.016549403 0.054398656 0.028036349 0.00057244144 0.025542317
0.089941494 0.024000522 0.016158978 0.071132034 0.041075166 0.00048797284 -0.0024572962 0.0005955151
0.002592525 0.0021349138 -0.002170017 0.005764935 -0.009119279 0.0010308586 0.012260784 -0.024737356
0.004367481 0.018590946 -0.042770594 0.009750386 0.0065036733 -0.011010768 0.016393535 0.014325543
-0.014662181 0.022061188 0.022332216 0.00078440306 0.024953965 0.027521502 0.020013897 0.029905563
0.016342714 -0.032243025 0.016098501 0.022413855 -0.09789738 0.02680476 0.026650274 -0.123821296
0.026173448 0.026025353 -0.12791976 0.023657247 0.02043883 -0.0099494 0.016660247 0.025179466
-0.066199176 0.026834618 0.020838955 -0.07227861 0.022896877 0.012766515 -0.061541412 0.018859243
0.013559579 -0.027597168 0.017184585 0.020492077 -0.063374504 0.025833547 0.024493076 -0.0733901
0.024181716 0.024582688 -0.07143614 0.019904666 -0.0067367703 -0.0002973339 0.0027320348 0.0319597

model_4/batch_normalization_17/batchnorm/mul_1;model_4/conv1d_9/Conv1D/Squeeze;model_4/conv1d_9/BiasAdd;model_4/conv1d_9/BiasAdd/ReadVariableOp;model_4/batch_normalization_17/batchnorm/mul;model_4/conv1d_9/Conv1D f4 [96, 1, 3, 96]
00000000: f7ec 27bd 1407 f3bc 193f 19bd 1cc3 e93c
00000010: 01b8 eebc c32b e8bc 0c50 a43b 2e86 a53a
00000020: 87b5 0f3d 9da6 31bd 7835 573c 8ae9 ec3b
00000030: ce67 56bb 5e00 4bbd 1582 963c 514d 3ebd
00000040: 9f56 973c b646 963c 6a82 0ebd 0feb 71bd
00000050: 56e0 5dbd 7fba 76bd 42d8 8b3c 2cbc e1bb
00000060: 6cf8 423c ba55 b4bc 56a0 96bd b76b 10bd
00000070: 06db 7dbc 3c71 fabc 8929 7dbd f461 98bb
00000080: dbdc 833d 728d 1ebd c507 aa3c b1d4 7fbb
00000090: 71b2 8bbd 1dc4 523c 3536 a3bb a78d c63d
000000a0: 5265 773c 2cb7 9bbc c3ed 6dbd fd7b 6bbd
000000b0: d08b 96bd f516 13bd c457 3fbc c955 7cbc
000000c0: 93db bbbc 94c9 5bbc ef46 0a3d 5a78 19bd
000000d0: 898b 813d 5868 393c 6d54 f8bc 94d1 2fbd
000000e0: 43e3 b6bc cafc 1fbd faff 16bd 5859 d0bb
000000f0: 5f0d 8abc 8f39 c9bc 8b77 a43b 67d5 5bbd
00000100: 495e 053b b37d 76bd 73f8 e4bb 77c7 2abd
00000110: 13bc b6bc 77bf 783c a31e 26bd 42f0 0c3c
00000120: 08d4 66bd 6927 9fbc fc88 69bb 84c1 67bc
00000130: 2230 30bd c2f4 12bb 57fa 3bbc 5730 55bd
00000140: 16c2 5e3d c5a6 2a3d ae7c 0dbd 0a31 0fbd
00000150: 38b7 9f3a 274a 36bc c4fc 21bd 07fa 2f3d
00000160: 67e7 24bc 5503 92bc c53a 5dbc 4fea 29bd
00000170: eab6 ccbc 63b6 443c ea27 cbbc 0782 48bc
00000180: 05c0 33bd 1679 f9bc d9df 10bd c5bb 0f3d
00000190: 9586 f4bc c363 f6bc eee1 0d3c 3777 c8b8
000001a0: 3e1b 1e3d 4d71 19bd e616 9b3c ce83 eb3b
000001b0: c077 18ba 2962 54bd 819f b93c 38b0 3ebd
000001c0: 7dd6 963c 06f6 7d3c a52e 06bd d47c 45bd
000001d0: 0988 40bd 9b2e 83bd aab0 a83c 59fa 953b
000001e0: 6fc7 2e3c 43bb c6bc 4c0c 74bd 7e8e 17bd
000001f0: 2efe 91bc 97e5 e5bc 6e48 4abd f086 4abb
00000200: 4603 6d3d 77a1 39bd 1aeb b53c e939 a9bb
00000210: 8269 6ebd f6c8 933c 60f9 03bb 01fe c43d
00000220: 4ce1 a43c 190e b8bc 2a0c 7fbd dd2e 72bd
00000230: 96b5 6fbd 449a 24bd 7600 23bb 5799 8dbc
00000240: 4504 c3bc 1d59 3dbc fd37 073d a600 14bd
00000250: ecd3 823d bd26 2a3c 894d 01bd 89e7 04bd
00000260: 0ba4 b0bc afc8 39bd 1660 2bbd c927 0fbc
00000270: 21ea 62bc 0a44 debc 4ba4 e33b a940 65bd
00000280: 54da dd3b c336 89bd 621f a1bb 5521 1bbd
00000290: 0ca8 aebc 187e 7d3c 7be3 25bd 015d e23b
000002a0: d02b 26bd 6b92 a2bc 4d4f f5ba 114a 38bc
000002b0: 21ef 3ebd 4074 41ba 3040 1abc 4d98 2fbd
000002c0: 0926 583d a9ac 1f3d 406a 03bd 0db5 16bd
000002d0: b530 b93b a04e 12bc ed33 21bd a7bd 3f3d
000002e0: 7922 dbbb ea8c 29bc a384 29bc ed73 3fbd
000002f0: 5ec0 debc a7c0 8e3c 494d bbbc e6df 51bc
00000300: 5e43 27bd 6263 f2bc 244e 0bbd 87c1 ea3c
00000310: 016d d9bc 019f d2bc 0355 e13b e55c e137
00000320: e8f5 1c3d be3f 31bd 5954 ae3c b0f7 f73b
00000330: 4308 a0ba 9e87 55bd d79e c23c 4439 22bd
00000340: dc98 bb3c 60a9 893c 4722 f7bc 8a73 85bd
00000350: 056e 55bd 1f10 77bd 0e6c bb3c 4d6a 07bc
00000360: 919b 123c 3316 b9bc c182 93bd 7371 0dbd
00000370: 2e1b 84bc 5d1f b2bc 4d12 75bd dfec 99bb
00000380: 3dd6 803d 7a8b 28bd e6c8 b13c 4fb3 d639
00000390: 7939 8ebd b125 843c bd9b 12bb 2ba6 c83d
000003a0: 649f ac3c 5ad8 77bc 221d 69bd af83 60bd
000003b0: a548 9dbd 8530 18bd ca37 31bc 8419 76bc
000003c0: 22d8 babc e5c2 37bc 55f0 0f3d 1e34 17bd
000003d0: 40d9 753d 130a 473c 566a f1bc 3c3b 1dbd
000003e0: 9ab8 9abc 5374 2bbd 0553 1dbd 8b8a d4bb
000003f0: 0f3b 4abc c663 b7bc 25c8 e33b 9c8b 59bd
-0.04099747 -0.029666461 -0.03741369 0.028535418 -0.029140474 -0.02834118 0.005014425 0.001262849
0.035085227 -0.043371785 0.013135307 0.0072299885 -0.003271568 -0.049560897 0.018372575 -0.046460453
0.018473921 0.018344264 -0.03479234 -0.05906206 -0.05416902 -0.06023645 0.017070893 -0.006888887
0.011900049 -0.022013534 -0.073548004 -0.035258975 -0.015494114 -0.030571572 -0.06180719 -0.004650349
0.06438609 -0.03870911 0.020755658 -0.0039036686 -0.06821144 0.01286414 -0.004980827 0.09694987
0.01509984 -0.019008242 -0.058088075 -0.05749129 -0.07350886 -0.035910565 -0.01167864 -0.015401312
-0.02293185 -0.013414759 0.033759054 -0.03746829 0.06325442 0.011316381 -0.030313695 -0.04292448
-0.022325164 -0.039059438 -0.036865212 -0.006358307 -0.016852079 -0.024563579 0.0050191334 -0.053670313
0.0020350388 -0.06017847 -0.0069876253 -0.04169413 -0.022306478 0.0151823675 -0.04055656 0.008602204
-0.056354553 -0.019427972 -0.0035634628 -0.014145259 -0.043014653 -0.002242372 -0.01147326 -0.052048054
0.054384314 0.04166295 -0.034542732 -0.034958877 0.0012185341 -0.011126078 -0.039547697 0.042963054
-0.010064936 -0.017823854 -0.013502781 -0.04148322 -0.024989564 0.012006375 -0.024799306 -0.012238032
-0.043884296 -0.030453246 -0.035369728 0.03509118 -0.02984933 -0.030076867 0.008659823 -9.558949e-05
0.0386002 -0.037461568 0.018931817 0.007187343 -0.0005816184 -0.051851425 0.022659065 -0.046554774
0.018412823 0.015500551 -0.032759327 -0.04821475 -0.047004733 -0.06405374 0.020592052 0.004576963
0.010667666 -0.024259215 -0.05958204 -0.037001126 -0.017821398 -0.028063579 -0.04938548 -0.0030903183
0.05786445 -0.04532 0.022206832 -0.005164374 -0.05820609 0.018040162 -0.0020137653 0.0961876
0.020126961 -0.02246766 -0.06226746 -0.059126724 -0.058522783 -0.04018618 -0.00248721 -0.017285032
-0.023805747 -0.011556891 0.03301238 -0.03613343 0.06388077 0.0103852125 -0.031568084 -0.03244737
-0.021562597 -0.045357402 -0.04183968 -0.008737513 -0.013849766 -0.027132053 0.0069470755 -0.055969868
0.0067704115 -0.06699898 -0.004917071 -0.037873585 -0.021320365 0.015471958 -0.040500145 0.0069080596
-0.040569127 -0.019845208 -0.001871565 -0.011248128 -0.04661477 -0.00073796883 -0.009414718 -0.042869855
0.05277065 0.03898302 -0.03208375 -0.036793757 0.0056515583 -0.0089298785 -0.03935616 0.046811726
-0.006687459 -0.010348538 -0.010346564 -0.046741415 -0.027191337 0.017425848 -0.022864 -0.012809729
-0.04083573 -0.029588405 -0.034010068 0.028656734 -0.026541235 -0.025710585 0.0068765893 2.6865348e-05
0.038320452 -0.04327368 0.021280454 0.0075673684 -0.0012209493 -0.052131288 0.023757381 -0.039605394
0.022900037 0.016804397 -0.030167712 -0.06516178 -0.052106876 -0.06031811 0.022878673 -0.00826509
0.008948223 -0.022593593 -0.07202674 -0.03453202 -0.016126242 -0.02174347 -0.059831906 -0.0046974267
0.06290863 -0.04114864 0.021702241 0.00040950856 -0.06944556 0.016131254 -0.002237066 0.09797319
0.021072097 -0.015127266 -0.05691255 -0.054813083 -0.076798715 -0.037155647 -0.010816524 -0.015020732
-0.022808138 -0.0112159 0.035141308 -0.036914937 0.06002164 0.012148398 -0.02946965 -0.03838657
-0.018886853 -0.041858982 -0.03840925 -0.006486242 -0.012343182 -0.022386443 0.0069513493 -0.053111658

model_4/gru_9/gru_cell/strided_slice_4 f4 [48]
00000000: c2d8 bd3d bbe7 053e c431 00bd 9350 c0bc
00000010: a67f 483e 81ff 2a3d 3d05 613c 1948 ca3d
00000020: 4ef4 b73d ad92 5f3e d56f 18bd d471 82bd
00000030: 76a1 02be 1cb3 6dbc 575f 163e 5d1c c43d
00000040: 92f9 223b 76e2 e23a 941d b13b fb5c 633c
00000050: b56c 5fbd ce58 263d 599c 023e e7a1 d4bc
00000060: d750 45bd f38c 18bd 88ee a83d 9179 c7bc
00000070: d605 ea3c a3da 7b3c 3e74 863d 7d5e 143e
00000080: e293 153e e776 723c d072 093c 0d5a 023d
00000090: 672d 093d e757 9c3a bf86 ae3d d03d 6a3d
000000a0: c335 133e a593 203e 036a a0bc ee75 843d
000000b0: 5599 173d d703 f83d 3887 89bb fdc3 093d
0.09269859 0.1307668 -0.03129746 -0.02347592 0.19579944 0.041747574 0.013734159 0.09877033
0.08982144 0.21833296 -0.037216026 -0.06369367 -0.12756905 -0.014508035 0.14684807 0.09575722
0.0024867994 0.0017309922 0.0054051373 0.013877149 -0.05454703 0.040612034 0.12754954 -0.025956107
-0.048172798 -0.037243795 0.08248621 -0.02434996 0.028567236 0.015371951 0.0656514 0.1448917
0.14607194 0.014798856 0.00838919 0.03182416 0.033490565 0.0011928052 0.085217945 0.057187855
0.14375977 0.15681322 -0.0195818 0.06467806 0.037011463 0.121101074 -0.0041970275 0.033634175

model_4/gru_9/gru_cell/strided_slice_3 f4 [48]
00000000: 2429 553d 7e0f b73d f99e 30bd 0b77 393c
00000010: cf11 093e c1a2 873d 6083 96bc 5871 193d
00000020: f85a ee3d e2fe 603e d955 a93d b646 363e
00000030: 443a 4b3e 9607 c83b 4263 163d e22a 2d3d
00000040: 49b3 cb3d 5793 2e3e 6738 c3bc c5dc b6bd
00000050: dbe1 bb3d 9003 fd3d 6dd9 3f3e f6c3 c7bc
00000060: 00e9 9abc f8ca a3bd 9337 5b3e 4a94 c83d
00000070: b677 583d bf3d 913d a6ac 523e 841b a0bd
00000080: d33e 623e 5548 b13c b42b 013d 11e3 83bc
00000090: 924a 98bd ac4a 183d 67bc 8c3d d49b 2d3d
000000a0: acd3 373e 0442 533d 11df a0bd a94a 1c3d
000000b0: 389a 623c 1d27 883d 2754 b139 ca56 353e
0.052041188 0.08938502 -0.04312036 0.011319886 0.133857 0.0662284 -0.018373191 0.03746161
0.11638445 0.2197223 0.08268327 0.17800412 0.19846445 0.00610442 0.036715753 0.042277224
0.09946305 0.17048393 -0.023830606 -0.08928827 0.09173938 0.12354195 0.18735285 -0.024385434
-0.018909931 -0.079976976 0.21407919 0.09793909 0.05284854 0.07091855 0.20573673 -0.07817748
0.22094278 0.021640936 0.03153582 -0.016099485 -0.07436098 0.037180588 0.068718724 0.042384937
0.1795184 0.05157663 -0.078550465 0.03815714 0.013830714 0.06648085 0.0003382277 0.17708889

model_4/gru_9/gru_cell/strided_slice_5 f4 [48]
00000000: 7c39 0c3c 1058 c03d 0b82 2d3e 1524 cc3d
00000010: 0695 94bd 53d4 9abd ccbc 5e3d 2a47 88bc
00000020: 965d 06be 0095 b83d be08 5c3d ecdc 903d
00000030: 0aa6 fd3d d053 6dbd 5f0e a2bd 7d09 07bd
00000040: dfa1 b9bb 5981 5bbc bcdc adbd 90c9 25be
00000050: 10a5 a0bd 1b0a 773d bad6 1fbd e124 51bc
00000060: 8fc6 1a3e f364 3bbd e2d0 81bb 6233 15bd
00000070: e40c 84bd 3d8e b13d 06d3 86bd ffff 073c
00000080: a5ca a73d bb2f b8bd 6055 f03c 6705 eb3d
00000090: 55ab 8b3d 89dd f73c 5138 123d fa4d 6cbd
000000a0: 45f7 213d f17b 72be de70 873d 4ce6 c9bc
000000b0: f844 253d ede7 83bd 6017 a13c ecae f53c
0.008558627 0.093917966 0.16944139 0.099678196 -0.072549865 -0.07560029 0.05437927 -0.016635496
-0.13121638 0.090127945 0.053719275 0.070733875 0.12385185 -0.057941258 -0.07912897 -0.032968033
-0.0056650485 -0.013397538 -0.08489367 -0.16190171 -0.07843983 0.06031237 -0.03902314 -0.01276514
0.15114807 -0.04575057 -0.0039616683 -0.036425956 -0.06447771 0.08669708 -0.06583218 0.00830078
0.08192948 -0.08993479 0.029337585 0.1147564 0.06819788 0.030257003 0.03569824 -0.05769155
0.039542455 -0.23680092 0.066133246 -0.024645947 0.040348977 -0.06440721 0.019664466 0.029990636

model_4/gru_9/gru_cell/strided_slice_11 f4 [48]
00000000: 2b38 ea3b b74b 1f3d 97c8 233e a9f4 d33d
00000010: 9cac b9bd 47f1 8bbd b293 b83c ac2a bfbc
00000020: fddb edbd 3669 793d 2cf9 86ba d0aa 323d
00000030: 8a1f c93d 34c6 58bc d614 42bd bcb1 ebbc
00000040: e842 07bd eb6b 2abc adb3 6abd 1ef9 11be
00000050: 69bf f0bc ca15 2c3c 0eb9 a2bc b6ec 27bc
00000060: ecfd b33d 376b cb3a 1df3 b0bc 9988 febc
00000070: 056d 16bd e81e 253c 689f 89bd f6ce fa3c
00000080: d856 e13d f7fb c3bd 4f44 ddbc c018 bf3d
00000090: 2124 8d3c 2e74 5e3c 6204 7f3d 1add 51bd
000000a0: 6c07 7a3d 3cb9 3bbe 13b8 b53d 60e4 a0bc
000000b0: e4f1 203d caea cebd 7c03 643c fd52 033c
0.007147809 0.038890567 0.15994488 0.103493996 -0.09066126 -0.068331294 0.022531364 -0.023335777
-0.11614225 0.060891353 -0.0010297648 0.04361993 0.09820469 -0.013230849 -0.047383152 -0.028771274
-0.03302279 -0.010401706 -0.05730026 -0.14255187 -0.029388146 0.010503242 -0.019863632 -0.010249307
0.08788666 0.0015519623 -0.0216003 -0.031070994 -0.036725063 0.010078169 -0.067198575 0.030616265
0.11002892 -0.09569543 -0.027010111 0.093308926 0.017229142 0.013577504 0.06226004 -0.05123625
0.061042234 -0.1833238 0.08873 -0.019640148 0.039293185 -0.10103376 0.013916846 0.008015391

model_4/gru_8/gru_cell/strided_slice_4 f4 [96]
00000000: b102 ad3c 94f6 1cbd 52b8 43bd d78e 67bd
00000010: 8430 2abc fb13 803b bb3d 993d 0a67 2c3d
00000020: 3c4b 0a3d 7993 283d b8ea 86bd 522f e13d
00000030: ab9d b43c 0408 30bb 44fe 143c 61f6 733d
00000040: 624c 873d 493a 3e3d 0368 09bd 1ab0 81bd
00000050: 5a9c c3bd a08d ca3c 77cc f83c b337 5abd
00000060: bf2c fbbb d46f bfbd c134 0ebc 6903 d83d
00000070: 43d3 07bc 53b1 d6bd 7f57 4dbd 1e3f 843d
00000080: 9246 be3c f683 45bd 0153 ac3d 83a3 98bc
00000090: 1471 d03b e59c a33d 0ea5 81bc 4c5c f33d
000000a0: 6af8 d2bb b3f1 b93d eb77 f83d 8083 863c
000000b0: 578b 06bd 7a93 d9bc 2f12 ef3d 2016 48bc
000000c0: 7106 15bd 2dc1 153e a241 74bc 533c cebb
000000d0: 330a 07bd 31f2 4e3e fe6b 10bd b901 fd3c
000000e0: b748 1dbd 4f00 bdbd 9949 0cbc 24a6 2bbd
000000f0: d56f 0a3d 8cbf 90bd b0c5 b6bb 1cf8 f8bd
00000100: 8e83 3f3c 03ac a4bd 6f16 673a a50b 8b3c
00000110: 8b37 babd 102b e43d d3ed 03be 1bfa fc3b
00000120: 92c6 bc3d fc87 df3c 8a68 3f3c 3402 a03d
00000130: 04f1 b63c 49f4 73bd 19c2 f63d 4251 0a3d
00000140: 4841 92bd 71f6 833b 448b 02bd 0581 cfbd
00000150: 21c1 003c fda0 e03c 946b b43d cf31 2bbd
00000160: 6e22 57bc 3d5f 97bd b3a3 a7bd 5452 113d
00000170: 51c4 e6bd 5df0 963d 4f18 27bc 7dc6 29bc
0.021119447 -0.038321093 -0.047783203 -0.056532707 -0.010387544 0.003908632 0.07482477 0.042090453
0.033763155 0.041156266 -0.06587738 0.10995354 0.022047838 -0.0026860246 0.009093825 0.059561137
0.06606366 0.046442304 -0.03354646 -0.06332417 -0.09551306 0.024725735 0.030370934 -0.053275775
-0.0076652463 -0.093475014 -0.00867957 0.105475254 -0.008290115 -0.10483041 -0.05013227 0.06457351
0.02322701 -0.04822155 0.08414269 -0.018632656 0.006361136 0.0798891 -0.015825775 0.118828386
-0.0064383047 0.090793036 0.121322475 0.016420126 -0.03284773 -0.02655958 0.1167339 -0.012212306
-0.036383096 0.14624472 -0.014908226 -0.0062938123 -0.03296871 0.20209576 -0.03525924 0.03088461
-0.038399424 -0.092285745 -0.008562469 -0.04190649 0.033798058 -0.07067785 -0.0055777654 -0.12156698
0.01168908 -0.08040621 0.00088152935 0.016973326 -0.09092625 0.11141026 -0.12883691 0.0077202446
0.09217562 0.027286522 0.011682639 0.0781292 0.022331722 -0.05955914 0.1204874 0.0337689
-0.07141358 0.004027181 -0.031871095 -0.101320304 0.0078585455 0.027420515 0.088095814 -0.041795548
-0.013130767 -0.07391212 -0.0818552 0.035478905 -0.11267913 0.073700644 -0.010198667 -0.010362265

model_4/gru_8/gru_cell/strided_slice_3 f4 [96]
00000000: 6251 bdbc a485 01bd 79ae 9a3c 0d71 6f3d
00000010: 0067 9dbd 9df9 0c3e 4d28 1e3e 0509 2d3e
00000020: 91b9 593d ba47 c73d 869d e33c bad1 603e
00000030: 9a8d 863e 5caf a13d ec20 313c 9a5c 5a3c
00000040: f7e5 543d 06e2 393e f287 343b e700 0b3d
00000050: aae7 c3bd fe1e d23d b683 613e 8e05 683b
00000060: 6e72 313e 1d1a c93d 88cf 863d a41e 503e
00000070: bc9a babc d8bb 73bd 148a e53c fd9e 943d
00000080: 1ad1 8f3d 9d8b ebbd 9b0a 6e3e 2ec4 213d
00000090: b03c 463e 90c3 3b3d c0a4 433c 7127 283e
000000a0: df3a 673b 0acb 113e 3a08 353e 1b65 e63d
000000b0: 94dd d13d 5a62 d43d 93cc 633e ae4e 66bd
000000c0: 89e1 aa3d 610e 813e 6de0 3b3d a69e 3e3e
000000d0: c63c 69bd 9a75 bc3e 5d88 233d 6843 8f3d
000000e0: 2bc8 083d c1f9 bab9 7874 c83d 639e 883c
000000f0: 0f3f ce3d b8ac c33b c339 133e 752c 9f3d
00000100: 8bf7 1d3e 9eaa 9cbc 9b91 093e fd3c b63d
00000110: aa3b 39bd 2c8a 813e a873 773b 6c76 023e
00000120: ec25 533e 52e1 3e3d e73b c23c a430 9c3e
00000130: a601 423e c031 dfbc e008 1f3e 2565 313e
00000140: 2be3 cd3b 7c6b ab3d 3d5a 92bc a892 353d
00000150: 223d 3c3e c233 453e c41c 2b3e 621f ef3c
00000160: 8dbc 17be ca95 83bc 84eb 95bc 898f a13d
00000170: e501 063d 7a4d 4a3e 7715 4f3d 8502 03bd
-0.023110095 -0.03162159 0.018882023 0.058457423 -0.07685661 0.13767095 0.15445061 0.16897972
0.053155486 0.09730478 0.027785074 0.21955004 0.26279908 0.07894775 0.010811072 0.013327742
0.051977124 0.18152627 0.002754685 0.033936407 -0.09565671 0.102598175 0.220229 0.0035403701
0.17328808 0.09819434 0.06582552 0.20324188 -0.022778861 -0.059505314 0.028019942 0.07256887
0.07022305 -0.115012385 0.23246233 0.039493732 0.19359088 0.0458408 0.011941135 0.16421296
0.0035282893 0.1423761 0.1767892 0.11249753 0.10247341 0.103703216 0.22246008 -0.05622738
0.08343799 0.25206283 0.045868326 0.18615207 -0.056942724 0.36808473 0.039924968 0.069952786
0.03339402 -0.00035662766 0.0978784 0.016677087 0.10070621 0.0059715174 0.14377503 0.077721514
0.15426461 -0.019124325 0.1343445 0.08898351 -0.045222916 0.2530073 0.0037758145 0.12740487
0.20619935 0.0466016 0.023710204 0.3050586 0.18945941 -0.027245402 0.1553073 0.1732374
0.006283184 0.083701104 -0.017865295 0.044329315 0.18382695 0.19258025 0.16710192 0.02918977
-0.1481802 -0.016062636 -0.01830078 0.07888705 0.03271665 0.19756117 0.05055758 -0.031984825

model_4/gru_8/gru_cell/strided_slice_5 f4 [96]
00000000: 486a f43c cdb1 1d3c 20f6 3bbc 27e4 00bd
00000010: c42b 60bd 457b a43d ced1 353d 65ce 81bc
00000020: 9ec5 90bd 7859 dcbb f998 65bc 70d2 ed3c
00000030: a22e 22bc 8a46 ffbc 3360 bc3b 093e 323d
00000040: b408 b63b dd64 763d be08 5bbd 711a a53c
00000050: 89e2 393c 235b 8abc 50b5 c33d 9d51 793c
00000060: 5a2a 2ebb f0f8 283d 517a b93c bd36 87bd
00000070: a2d6 9dbc 872e d13b d033 f0bd fb80 1d3d
00000080: ed60 f53c a9d6 553d ac41 37bd bff1 803d
00000090: 0e3f da3c eec7 efbc c92b 2f3d 2c46 5abd
000000a0: ce33 1d3d 9845 01bc a71f a63c fd4e a6bd
000000b0: 8474 05ba f968 893d 9b29 803d d200 8e3c
000000c0: 30d0 a7bc b63e 5c3d d5bb 4a3d f178 3c3d
000000d0: b704 e33b 3c6f b13d 5328 c6bd c6c5 933c
000000e0: 32a3 04bd 6843 303d f07a 803c 8e8d 063d
000000f0: 1d6b 4c3d 4f49 07bc e021 213d 9c8f 563c
00000100: 57c5 0ebd 47e0 37bc 1cb4 0e3c c418 5a3b
00000110: da5b 77bd 66e5 9ebc 39c1 253d b580 18bd
00000120: 7cde 9cbc 63d1 cebc d3be e8bc ea17 c43d
00000130: e6ae aabc 92e7 a73c 69ab 493d 850a ec3b
00000140: 5ba6 0abd 5100 0a3d 2614 903c b638 8bbb
00000150: cee7 1ebc 10bb 29bd 0071 2d3c 4823 c1bb
00000160: 21e9 9bbd f54e 40bd d91c 663d 9ce4 7dbc
00000170: 15c7 65bd 102d 1a3d d0f9 f3bc 8a1a 8bbd
0.029835835 0.009624911 -0.011472255 -0.031467583 -0.05472924 0.08031324 0.04438954 -0.015845487
-0.070689425 -0.0067245327 -0.014013522 0.029031008 -0.009898813 -0.031161565 0.0057487725 0.043516193
0.0055552367 0.060154784 -0.053475134 0.02015421 0.011345514 -0.01688916 0.09556067 0.015217212
-0.0026575536 0.04125303 0.022641333 -0.066022374 -0.019267384 0.0063837203 -0.117286325 0.038453083
0.029953444 0.05220667 -0.044740364 0.062961094 0.026641395 -0.029270139 0.042766366 -0.053289577
0.038379483 -0.007890128 0.020278765 -0.081205346 -0.00050909095 0.06709475 0.062579356 0.017334376
-0.020485014 0.053770743 0.049495537 0.046013776 0.0069280523 0.086637944 -0.0967566 0.018038642
-0.032382198 0.043033034 0.015683621 0.03284984 0.04990684 -0.008257224 0.039338946 0.013095763
-0.034856167 -0.0112229055 0.008709934 0.0033278922 -0.06039033 -0.019396495 0.040467475 -0.03723212
-0.019149058 -0.025246328 -0.028411305 0.09574874 -0.020835351 0.020496164 0.049235735 0.0072034025
-0.033850055 0.033691708 0.017587733 -0.004248704 -0.009698821 -0.041438162 0.010586023 -0.0058940984
-0.07612825 -0.0469503 0.056179855 -0.015496399 -0.056098063 0.03764063 -0.029782206 -0.06792171

model_4/gru_8/gru_cell/strided_slice_11 f4 [96]
00000000: 12b6 b33c 441e 573c d6d3 98bc 276c 9ebb
00000010: f6cb c6bd 4227 553d 5552 733c aea9 32bc
00000020: de46 97bd 8fb8 73bb a694 5fbc 23da a83c
00000030: bfa5 23ba aa28 82bc 0c70 a7bc 080e 0d3d
00000040: fed9 a6bc 3b57 4a3d eb7c 0ebd 4373 cf3c
00000050: 3fc1 6d3c 99fd c3bc 02c6 a83d 0359 8a3c
00000060: 1676 01bc 3fae 0d3c 83ad f23c 5e69 8fbd
00000070: 2a23 e9bc 4f3b a4bc e420 bfbd 7254 2c3d
00000080: 069c 71bb 5232 903d 4004 0fbd 9061 783d
00000090: 58da b43c 678d 24bd 604d 3b3d 1cab babc
000000a0: eda2 9c3b b997 ca3c 7ff0 343d dca1 6dbd
000000b0: ed39 263d abbd 183d c20c 3e3d 742c 7a3c
000000c0: 9bf5 f7bb 53a1 1d3d 218b 3c3d a475 0d3d
000000d0: a3d7 a6ba c489 333d 59e1 b0bd 96ce 76bc
000000e0: da63 45bd 3193 993d 9615 d53c 3aa9 d139
000000f0: dd9f 0d3d 3f50 de3c 72be 833d 7b67 a63c
00000100: 7b04 adbc aa63 19bd add9 3ebb 54cc 4a3c
00000110: 154b 88bd 6464 3fbd 9ac5 233d 3ac5 21bd
00000120: eb36 dcbc de15 08bc f059 e8bc 0f33 9a3d
00000130: f3cc 05bd e94e e83a edd8 253d 9c56 35bc
00000140: 212c 5cbc 3ca4 e83c 1ba6 fb3a 8f12 f6bb
00000150: e45e e3bc 19bd 3dbd 322c a5bb 2dbc adbb
00000160: 5f38 81bd 7e3e 63bd 59f4 7d3d 7b02 173c
00000170: a3c2 653b 85ad cc3c 8d38 febc d339 88bd
0.021937404 0.0131297745 -0.018655699 -0.00483467 -0.09706871 0.052039392 0.014851172 -0.010904713
-0.07386564 -0.0037188863 -0.01364628 0.020611828 -0.00062426546 -0.01588853 -0.02043917 0.03443721
-0.020367619 0.049399596 -0.0347871 0.025323516 0.0145114055 -0.023924636 0.08240892 0.016888147
-0.007901689 0.008647501 0.029623752 -0.07002519 -0.02845915 -0.020047812 -0.09332445 0.04207272
-0.003686668 0.07040848 -0.034916162 0.060639918 0.02207677 -0.040173914 0.045728087 -0.02278667
0.0047801645 0.02473055 0.044174667 -0.05801569 0.040582586 0.037290256 0.046398886 0.0152693875
-0.0075671203 0.03848393 0.04603112 0.03453602 -0.001272906 0.043832555 -0.08636732 -0.015063902
-0.04819093 0.07498778 0.02601127 0.0003998967 0.034576286 0.027137874 0.06432809 0.020313015
-0.0211203 -0.037448563 -0.0029121444 0.012377817 -0.06654946 -0.0467266 0.03998337 -0.03949473
-0.026881656 -0.008305995 -0.028363198 0.0752927 -0.032666158 0.0017723712 0.04049008 -0.011068013
-0.0134382555 0.028398626 0.0019199284 -0.0075095366 -0.027755208 -0.046322916 -0.005040669 -0.0053019733
-0.0630958 -0.05547952 0.062000606 0.0092169 0.003505864 0.024985084 -0.031032825 -0.06651654

model_4/batch_normalization_19/batchnorm/sub f4 [48]
00000000: e8ca ec3e c096 acbe 36e6 49bf ece1 5abe
00000010: 5dae 343d 5743 b93e a4b0 c1bd 19a9 133f
00000020: ee9d 423f 7a14 2dbe 2378 ffbe 6151 9fbe
00000030: 068f a63b a745 203d f770 96be 8eb5 913e
00000040: 226d c7bc 428f e43d 4686 0a3f b720 963e
00000050: 992f 883e d352 1c3e 1c86 e13d 4c5c b9be
00000060: 47cb 71bf 41c4 04be 652f e23e 1851 b9bb
00000070: 6029 b83c 1f5d 19bf 20de 58bb da8c c2be
00000080: 3d4e cdbe 5191 e03e 3da9 203e 7ebc 1ebf
00000090: 290a 3d3e e84a dd3d ec5c 4abc 87ad 8b3e
000000a0: 3599 06be 9cd0 5d3f e264 603d 9b2d 563e
000000b0: 0c91 b83d 2dea 4b3e d636 73be de38 cfbd
0.46248555 -0.33708763 -0.788669 -0.21375245 0.0441116 0.3618419 -0.0945752 0.576799
0.7602223 -0.16902342 -0.49896345 -0.31116775 0.0050829677 0.039128926 -0.2938306 0.28458828
-0.02434403 0.11160137 0.54111135 0.29321834 0.26598814 0.1526597 0.110119075 -0.3620323
-0.944508 -0.1296549 0.44176784 -0.005655419 0.022480667 -0.59907717 -0.0033091381 -0.37998086
-0.40098754 0.43860868 0.1568956 -0.62006366 0.18460907 0.10805303 -0.012351256 0.27280828
-0.13144381 0.8664644 0.05478371 0.20915835 0.090120405 0.1991355 -0.23751387 -0.101182684

model_4/batch_normalization_19/batchnorm/mul f4 [48]
00000000: 15e9 0940 d821 e03f 1462 1840 93c4 1f40
00000010: 29af 0440 34fe 1040 b952 0c40 c6fd 0d40
00000020: 7e4e 1940 09bf 1e40 ee33 6240 1a88 4a40
00000030: 2223 4440 267a 0a40 b76e 0440 1b2f 1640
00000040: 3154 1740 c54d 3540 89dd 2d40 3a38 1540
00000050: 9a38 1040 aba4 3540 2d35 0a40 70bf 0d40
00000060: 56c5 3540 102e 1c40 d504 3240 e2a6 2140
00000070: b60b 1440 ee43 5740 f612 0e40 d833 f93f
00000080: 9352 2140 83d9 1140 67e5 1740 b1b2 1440
00000090: 198f 0540 06ab 0d40 3b39 0640 bd66 1a40
000000a0: 40b3 0540 80f9 1d40 28d4 0e40 46d6 1f40
000000b0: 8c31 df3f ef0e 0140 b714 3440 ba88 1640
2.1548512 1.7510328 2.3809862 2.496373 2.073191 2.2655153 2.192549 2.218614
2.3954158 2.4804099 3.5344195 3.164557 3.0646443 2.1637053 2.0692575 2.346625
2.3645136 2.8328717 2.7166464 2.3315568 2.2534547 2.8381755 2.1594956 2.2148094
2.8401694 2.4403114 2.781545 2.5258107 2.3132148 3.363521 2.2199073 1.9468946
2.520665 2.2789009 2.3733766 2.3234065 2.086859 2.2135634 2.097243 2.4125206
2.0890656 2.4683533 2.231699 2.4974532 1.7436996 2.0165365 2.8137643 2.3520951

model_4/batch_normalization_18/batchnorm/sub f4 [96]
00000000: 1b37 56be 42c4 dfbe 0358 1e3f c1bc 5c3f
00000010: 46b5 7e3f f1c1 39bf cc4a 42be 1b51 bb3e
00000020: 93b1 a13f 4f8a 80be cca9 a33d 90e4 e73e
00000030: 540f 103f f269 bb3e b808 833e c57a 103f
00000040: f70b 3abf 57b0 9bbf 4f28 eb3d 6f54 803e
00000050: e7e0 9fbe c830 d83d 988b c2bd 4f85 483f
00000060: 67ca ea3e 9a39 01be 851e 75bf 6747 7b3f
00000070: 708b 033e 84d9 1d3f fb93 493f 56b4 1b3e
00000080: e60b 5d3e 9e29 94bf 328a c4be 806c a6bd
00000090: 5dba 563f f9e8 623f 40b0 edbe 98d5 173f
000000a0: e5f5 44bf 7082 003f d0c7 ab3e 1ec4 373e
000000b0: 24bd 54bf 3465 d13e c435 b0be 679e bcbe
000000c0: 2abf d83e 73de 6e3e 670c 80bf 263e 55bf
000000d0: 6304 10bf ad6d 36bf 35a8 663f cc17 46be
000000e0: c3eb 0fbf 78b4 763e 40c7 29bd 7440 8d3d
000000f0: 0394 85bf 7da4 f73e ff3b 98bf e65a 913d
00000100: 528f 4f3d 4bb8 d83e ed4b a4be ffd6 5ebd
00000110: bbe3 ae3e fdbd ca3e 5630 033f e2af 3f3f
00000120: a641 01bf 3b20 d1be 6391 04bf f785 26be
00000130: 1c88 cebe 6084 3c3e 75b4 2ebe fec2 373d
00000140: 54e2 293f 712d ccbe 8444 1dbe 8584 693e
00000150: d30e 1fbf 7242 803f 7634 5ebf 55b3 0d3f
00000160: 035e 133f 95dc 443e 18be 88bf 3587 863e
00000170: d96e 8dbe 962a 523e 800b 50be 16c4 803f
-0.20919459 -0.4370442 0.61853045 0.86225516 0.9949535 -0.72561556 -0.18973845 0.36585316
1.2632316 -0.2510552 0.079913706 0.45291567 0.5627339 0.36604267 0.2559259 0.5643733
-0.72674507 -1.216319 0.11482298 0.25064418 -0.31226274 0.10556179 -0.09499282 0.7832841
0.45857546 -0.1261963 -0.95749694 0.98155826 0.1284616 0.6166003 0.78741425 0.15205511
0.2158657 -1.15752 -0.38386685 -0.081261635 0.8387812 0.8863674 -0.4642353 0.59310293
-0.76937705 0.5019903 0.33550882 0.17945907 -0.83101106 0.40897524 -0.3441602 -0.368396
0.42333347 0.23327045 -1.0003785 -0.83297956 -0.56256694 -0.712611 0.90100414 -0.19345015
-0.5621912 0.24092281 -0.041449785 0.06897059 -1.0435795 0.48367682 -1.1893309 0.070974156
0.05067379 0.42328104 -0.32089177 -0.054404255 0.3415812 0.39598075 0.5124563 0.7487775
-0.50490797 -0.40844902 -0.5178434 -0.16262041 -0.40338218 0.18409872 -0.17061026 0.044863693
0.66360974 -0.3987842 -0.15358168 0.22804458 -0.62131995 1.0020278 -0.867988 0.55351764
0.57565325 0.1922477 -1.0683012 0.2627503 -0.27623633 0.20524058 -0.20316887 1.0059841

model_4/batch_normalization_18/batchnorm/mul f4 [96]
00000000: 8118 a040 4733 0841 6864 cb40 49a5 c240
00000010: 002d 0541 af5b c640 6b94 5d40 4326 ba40
00000020: 0eaa dd40 2347 9f40 7236 0641 0b4a 3440
00000030: ad39 cc40 eb09 ff40 bbfc d140 f17f a740
00000040: cacf 3c40 49ee 7b40 2239 e540 34e4 0341
00000050: 2b85 2741 e302 8340 7c25 8040 a9fb 1741
00000060: ea1b aa40 90ce 0d41 f13e b140 b41c 6d40
00000070: 0054 b540 844d 1041 21e1 3441 16c4 9140
00000080: 6f33 b740 d536 1641 3ef6 8d40 6d0f e340
00000090: 5f9f 8c40 feda 5940 79b4 0341 5954 9740
000000a0: ed64 df40 6e0b 5f40 6955 8240 24d3 b940
000000b0: e14e bb40 05d4 b340 78be 5f40 f09b dc40
000000c0: 10eb e040 40a9 6140 9dab 0741 cea8 ea40
000000d0: 115d e640 2b8f 8a40 6f4c 0241 7e79 8340
000000e0: ac88 cb40 61b5 3141 aae3 9f40 3236 d540
000000f0: 6661 9840 6031 f540 5e51 ff40 43aa 4441
00000100: 15c7 ae40 4b4e 1841 c709 ba40 1135 a040
00000110: ecc0 1541 e69c 5f40 3226 0741 1e76 c240
00000120: 8d70 7840 cb55 c140 281d a340 9212 5640
00000130: 68bd 6640 d978 dc40 9b85 8040 61fb 7240
00000140: 9e7a 1941 9500 b540 fda4 e940 4a4a 0a41
00000150: 1fa1 dc40 4e92 b040 ddde 2640 c37a a440
00000160: 79ec 2d41 352f f740 b8b2 e240 f555 4240
00000170: 42c0 2041 ffab 8040 de08 7d40 cbdc bf40
5.002991 8.512519 6.3560066 6.0826764 8.323486 6.198692 3.4621837 5.8171706
6.9270086 4.9774337 8.388292 2.8170192 6.3820405 7.9699607 6.562101 5.234368
2.9501824 3.9364188 7.163224 8.243214 10.470012 4.0941024 4.0045757 9.49894
5.3159075 8.86293 5.5389333 3.704877 5.666504 9.018925 11.304963 4.5551863
5.7250285 9.388387 4.436309 7.095633 4.3944545 3.4039912 8.231561 4.7290463
6.98107 3.4850726 4.072926 5.807024 5.853379 5.6196313 3.4960003 6.8940353
7.028694 3.5259552 8.479398 7.333106 7.1988606 4.3299766 8.143661 4.1085806
6.3604336 11.106782 4.996541 6.6628656 4.7618895 7.662277 7.9786825 12.291568
5.461802 9.5191145 5.8136935 5.006478 9.3596 3.4939513 8.446825 6.0769186
3.8818696 6.041723 5.097309 3.3448834 3.6053104 6.889752 4.0163093 3.796593
9.592436 5.656321 7.30139 8.643137 6.894668 5.5178595 2.6073525 5.1399856
10.870233 7.7245126 7.0843163 3.0364964 10.046938 4.0209956 3.9536662 5.9957023

model_4/dense_9/BiasAdd/ReadVariableOp f4 [26]
00000000: 41b6 073e bace fbbd 143e 613d 80fd a63d
00000010: 6861 683d 6ece ea3d 0769 9f3b cfae beba
00000020: 403e 0a3e cf01 553e e609 5bba 87b6 82bc
00000030: 6be0 d7bd 73a5 713d be05 98be 64d1 94be
00000040: 5a8f 9abe 8925 96be c0e1 93be e652 8abe
00000050: ab57 98be 38ee 96be 1d18 8bbe 96f9 9abe
00000060: 68ea 8ebe 1ffd 8ebe
0.13253118 -0.12295289 0.054990843 0.0815382 0.05673352 0.114651546 0.004864815 -0.0014547947
0.13500309 0.20801471 -0.0008355662 -0.015956176 -0.10540851 0.058995675 -0.2969188 -0.29066002
-0.30187494 -0.29325512 -0.2888317 -0.2701637 -0.29754385 -0.2947862 -0.27166834 -0.30268544
-0.27913213 -0.2792749

model_4/dense_8/BiasAdd/ReadVariableOp f4 [48]
00000000: d2f9 453e 6337 893d 1934 adbc e452 c63d
00000010: 9e4a 263e 4c06 213e 72df 513e 3a59 133d
00000020: 4d48 aa3d c1c0 383e c897 7bbd 3da3 ee3d
00000030: e177 c23d c558 5e3d 4c12 673d 4a8a 003e
00000040: f8fd 673d 9d2c e33d 17b5 503d 3dbe 903d
00000050: c070 303e ac55 093e 800e 1d3e d4b7 df3d
00000060: c675 4f3d d482 063d b5b4 253d 3f2b b83d
00000070: fc20 003e 306a 2b3d 2216 143e 15d2 bd3d
00000080: 8e4e 553d 8f56 5c3e afcb d83c 3615 043d
00000090: 3615 203d 9b18 183e 89e7 cd3b 6a9b b73d
000000a0: 379d a33d bef4 863d 8de9 6d3e e97a a43d
000000b0: 765c 533d 03c0 1a3d 2ab9 693e 77a0 933d
0.1933358 0.06700017 -0.021143006 0.09683779 0.16239402 0.15725058 0.20495394 0.035973765
0.083145715 0.1804228 -0.061424047 0.11652229 0.09495521 0.054283876 0.056413934 0.12552753
0.056638688 0.11092494 0.05095395 0.07067535 0.1723051 0.13411587 0.15337563 0.10923734
0.050649427 0.03283961 0.04045554 0.089926235 0.12512583 0.041849315 0.14461568 0.092685856
0.05207687 0.21517394 0.026464311 0.03224679 0.03908273 0.14853136 0.0062837047 0.0896519
0.07988971 0.065896496 0.23233624 0.08031256 0.05160185 0.037780773 0.2282454 0.072083406

model_4/gru_8/gru_cell/MatMul f4 [96, 126]
00000000: c0d9 9339 bfef 28ba 8c21 453a 821c 4f3a
00000010: 3701 b9b9 d1af 2c38 450f 803a 0517 c339
00000020: a10d 96b9 2720 853a 328c 403a 1321 5a39
00000030: 5bce 2a3b 2c93 143a 9282 a4b8 b67a 68b9
00000040: 9605 353a 0d9f fdb9 4689 e839 b5b9 193a
00000050: 965c 9339 cd82 fcb9 0e89 4db9 4f1d c0b8
00000060: ae30 653a fe48 4339 9f3a c939 5dce 96b9
00000070: ec2a b23a e9bf 1cba 57bf 7d39 a3fc 663a
00000080: 90aa 32ba 7ad3 6c3a c891 563a f023 8aba
00000090: defa 903a c499 993a e831 11ba 545b 1d3a
000000a0: db19 fa3a a516 cd38 0466 a0b9 84af 8736
000000b0: 8526 7339 d4f7 0b3a 9335 cf39 a225 ceb9
000000c0: 2f8d 74b9 6b2e 6c3a 4e1c 0439 8df5 0bba
000000d0: fd83 ce3a 2529 3739 37fe 71b9 fe1d 0a3a
000000e0: c145 0139 52a9 f8b8 1665 a93a 96e8 a2b8
000000f0: fcb9 d139 6ecb b73a e15f 8eb9 449d b2b9
00000100: d7c8 88b9 3149 09ba c4f6 a539 dbc1 45b8
00000110: f269 d937 c8a0 8c39 1c5b edb9 b53c e1b8
00000120: 2424 7638 c2b5 19ba 2877 a4b9 1f3c 9839
00000130: a513 98b9 d267 d3b9 2a57 68b8 1dda 8dba
00000140: 006d e3b8 5970 9cb9 a3d8 b8b9 9d42 4db9
00000150: 54d1 55b8 e5a7 28ba 4768 c2b9 3313 5339
00000160: 1f29 a4b8 a629 feb9 19b4 c538 c2f1 4bba
00000170: 700f 57b8 13ea 26b8 0c1d 0039 0334 c0b8
00000180: fe1b 3db9 2b7a 9439 ed3f 8db9 c710 2aba
00000190: 4740 a53a 1421 79b9 566c 0938 40d8 13ba
000001a0: cb79 97b9 6a54 55b8 d835 c639 faf3 a4b9
000001b0: c25e adb9 1352 3e3a f148 cdb8 07a2 abb9
000001c0: 2003 393a ceb4 acb9 afed 6239 d889 b639
000001d0: 8a13 24b9 2321 e338 1ccc 9b39 727d 9ab9
000001e0: 11e9 82b8 392a 113a 4a3f 7db8 d13e edb8
000001f0: a14c 763a 8df1 9338 7001 213a 6114 6cb9
00000200: f90a 2bb9 2f42 f8ba 9c3e f6b9 f36c 49b9
00000210: d092 29bb 92b0 973a 20f4 beb8 3626 3bbb
00000220: fcea 0aba 329a 27ba a87d 7fbb 5a2e c839
00000230: 6255 00ba 5466 96ba 1891 d33a c63a c039
00000240: a69a 13bb 9dac f73a dcaf 57b9 ad55 80ba
00000250: 391c 4e3a 2f5a f039 4c91 8ebb 4724 6eb9
00000260: db85 84b9 6ee8 0dbb f6e8 973a 55f4 1b39
00000270: 1ea5 7dba e2dd 633a 61f9 073a b586 1bbb
00000280: ad44 c53a 2f03 f239 9260 32b9 a008 863a
00000290: d08f 613a 2f7a 0bbb 2b06 1c3a 50ac 223a
000002a0: e5ce 48bb b95d 34b8 f114 71b9 1487 30ba
000002b0: fc7f 743a 9494 643a 05fd 8dbb 40ef 0a3a
000002c0: dd0b 8f3a 9751 56b9 2565 89ba 05db 1eba
000002d0: c3c8 50bb a8bb 923a 8298 2e3a df73 ecba
000002e0: d420 483a 96ba 2db9 da3d 83bb 5c56 043a
000002f0: 60cb 743a ee7e 4eb9 f45f 1b3a b097 5fb9
00000300: 869e a538 81be 7cb9 a4d7 013a 8469 cdb9
00000310: 7c22 02ba eebb db38 109f 97b9 6c3a 11ba
00000320: 5807 cfb8 b55d 46ba a182 19ba c44c 4039
00000330: ebae 8eb9 ed69 0dba 22a7 feb8 ebf4 5939
00000340: b6bb 6eba 3241 dd39 102a 4db9 40f5 70ba
00000350: 817a 8039 3cb6 94b9 cfa5 87ba 7893 4236
00000360: 638a 8ab9 5a56 81b9 5064 42b9 2a6a b0b8
00000370: d8e7 52ba 1c6c 8ab9 c2c9 25b8 4225 80b9
00000380: db10 80b9 b0c7 fbb7 ba6f 4eba b787 2738
00000390: 1086 1139 d656 5cba 3461 ac38 f126 f9b7
000003a0: c59a 28ba 361e 9eb9 7c37 0c37 40ee d3b9
000003b0: 3346 39b9 e590 6139 4765 52ba 9f10 a1b9
000003c0: ae06 3339 49d7 fbb8 ba75 7638 1156 b538
000003d0: 190e 8939 92d4 2c39 484e 09b9 947b e2b9
000003e0: f525 6639 eba3 98b9 2298 3dba d6dc b539
000003f0: 6b13 fcb7 1dee 07b8 aa97 03b7 2fea 4f3a
0.0002820026 -0.00064444164 0.00075199525 0.00079006713 -0.00035286855 4.1171737e-05 0.0009770176 0.0003721045
-0.00028620384 0.0010156677 0.00073451095 0.00020802421 0.002606294 0.0005667682 -7.84445e-05 -0.00022170958
0.00069054344 -0.00048374422 0.00044352765 0.00058641593 0.00028107007 -0.0004816264 -0.0001960138 -9.1607326e-05
0.00087429106 0.00018623841 0.00038381384 -0.00028763982 0.0013593114 -0.00059795246 0.0002419924 0.00088114495
-0.0006815577 0.0009034198 0.0008185175 -0.0010539275 0.0011061092 0.0011718799 -0.00055387476 0.00060026837
0.0019081192 9.7793796e-05 -0.00030593586 4.0437462e-06 0.00023188636 0.00053393585 0.00039522033 -0.0003931942
-0.00023322248 0.00090096024 0.00012599045 -0.0005339019 0.0015755888 0.00017467568 -0.00023078253 0.00052687514
0.00012328384 -0.000118571 0.0012923803 -7.7680845e-05 0.00040002156 0.0014022419 -0.00027155786 -0.00034067978
-0.0002608958 -0.00052370416 0.00031655107 -4.7149002e-05 2.591775e-05 0.00026822672 -0.00045272044 -0.000107401436
5.868463e-05 -0.0005863571 -0.00031369296 0.00029036493 -0.00029006336 -0.00040322408 -5.539429e-05 -0.0010822449
-0.00010844506 -0.00029838344 -0.00035256622 -0.00019575139 -5.097811e-05 -0.00064337096 -0.00037080256 0.0002012968
-7.827789e-05 -0.00048477686 9.427238e-05 -0.000777986 -5.127437e-05 -3.9795483e-05 0.00012217852 -9.1649614e-05
-0.00018034872 0.00028319782 -0.00026941244 -0.00064874854 0.0012607657 -0.00023758813 3.276424e-05 -0.0005639829
-0.00028891707 -5.0861774e-05 0.0003780562 -0.00031462294 -0.0003306773 0.0007260155 -9.788748e-05 -0.0003273638
0.00070576556 -0.00032941106 0.00021641584 0.00034816447 -0.00015647538 0.00010830376 0.00029715977 -0.00029466633
-6.242295e-05 0.00055376027 -6.0378843e-05 -0.00011312741 0.0009395574 7.0544986e-05 0.0006141877 -0.00022514306
-0.00016311918 -0.0018940623 -0.00046967424 -0.0001920944 -0.002587486 0.0011573008 -9.105378e-05 -0.002855671
-0.00052992976 -0.00063935213 -0.003898481 0.00038181507 -0.00048955355 -0.0011474588 0.0016141264 0.00036664883
-0.0022522598 0.0018896047 -0.0002056951 -0.0009791158 0.0007862482 0.0004584356 -0.004350817 -0.00022710963
-0.00025276732 -0.0021653431 0.0011589814 0.00014872973 -0.00096757885 0.0008692426 0.00051870017 -0.0023731415
0.0015050374 0.0004616021 -0.00017011378 0.0010225959 0.00086044986 -0.0021282544 0.0005951847 0.0006205486
-0.0030640897 -4.300263e-05 -0.00022991352 -0.00067339954 0.00093269325 0.00087196496 -0.004333141 0.0005299933
0.001091357 -0.00020439025 -0.0010482414 -0.0006059858 -0.0031857945 0.0011194842 0.00066602987 -0.0018039903
0.00076342863 -0.00016568074 -0.004005176 0.0005048269 0.00093381666 -0.00019692976 0.0005927079 -0.00021323445
7.8973404e-05 -0.00024103561 0.00049530924 -0.00039179262 -0.0004964245 0.000104777384 -0.00028919475 -0.00055400166
-9.871897e-05 -0.0007567064 -0.0005855952 0.00018339144 -0.00027214675 -0.00053945073 -0.00012142795 0.00020785972
-0.00091069506 0.0004220098 -0.00019565993 -0.00091918185 0.00024505335 -0.00028364535 -0.0010349097 2.899409e-06
-0.00026424517 -0.00024669134 -0.00018538651 -8.4121086e-05 -0.00080454117 -0.0002640196 -3.9526967e-05 -0.00024441822
-0.0002442662 -3.0014518e-05 -0.0007874925 3.9942297e-05 0.0001387822 -0.00084052735 8.2197046e-05 -2.9701247e-05
-0.0006431754 -0.00030158617 8.357569e-06 -0.00040422566 -0.00017669126 0.0002151165 -0.0008025956 -0.00030720697
0.00017073259 -0.00012008713 5.8760612e-05 8.646784e-05 0.0002614118 0.00016482387 -0.000130945 -0.00043198152
0.0002194865 -0.00029113828 -0.00072324474 0.00034687546 -3.0049783e-05 -3.240827e-05 -7.8435205e-06 0.00079313194
