app/src/main/assets/models/gender.tflite (tflite, 672140 bytes, 52 tensors)

model/batch_normalization/batchnorm/add_1;model/conv1d/Conv1D/Squeeze;model/batch_normalization/batchnorm/mul_1;model/conv1d/BiasAdd;model/conv1d/BiasAdd/ReadVariableOp;model/batch_normalization/batchnorm/mul;model/batch_normalization/batchnorm/sub;model/conv1d/Conv1D;model/conv1d_1/Conv1D f4 [96]
0	0xbe1783c4	-0.14796358
1	0xbe5afef1	-0.21386315
2	0xbf9c0aa6	-1.219075
3	0xbe99695a	-0.2996319
4	0xbf70e571	-0.941001
5	0xbde4734b	-0.11154803
6	0xbdcc02c5	-0.09961466
7	0xbec1e5c3	-0.37870607
8	0xbf3162d2	-0.6929141
9	0xbe8bbf42	-0.27294356
10	0x3f2b4456	0.6690115
11	0xbf3e60f3	-0.7436668
12	0xbedf380c	-0.43597448
13	0x3eeb58ba	0.4596613
14	0x3da9029b	0.0825245
15	0x3e7a60bd	0.24450965
16	0x3e6781c4	0.22608095
17	0x3edfa46b	0.43680128
18	0xbefabef8	-0.48973823
19	0x3f7687a9	0.9630075
20	0xbd89f72c	-0.067365974
21	0xbea7398a	-0.32661086
22	0xbf456a6b	-0.77115506
23	0xbeedac5c	-0.46420562
24	0xbe3bc166	-0.18335494
25	0x3f15555d	0.5833338
26	0x3ed1a452	0.4094568
27	0xbe56e9ec	-0.20987672
28	0x3f06fc1e	0.5272845
29	0x3e91d605	0.28483596
30	0xbebe1d07	-0.3713152
31	0xbc435e70	-0.011924371
32	0xbecc8da8	-0.39951825
33	0xbc6ac626	-0.014329469
34	0xbe9aa77c	-0.30205905
35	0xbeb898ed	-0.36054173
36	0xbed60d63	-0.41807088
37	0x3ca577a0	0.020198643
38	0xbe8d5bc5	-0.27609077
39	0xbf016245	-0.5054057
40	0x3eec91e5	0.4620506
41	0xbf0410fe	-0.5158843
42	0xbddc2966	-0.107500836
43	0xbf04fc20	-0.5194721
44	0xbf6a8cf9	-0.9162136
45	0x3f02b4d1	0.51057154
46	0xbef7508a	-0.48303634
47	0xbe7572be	-0.23969552
48	0x3eaec8e7	0.3413765
49	0xbf41b730	-0.75670147
50	0xbe9e06d8	-0.30864596
51	0x3d7a94f8	0.061177224
52	0xbe8f55a2	-0.2799502
53	0xbec3412f	-0.3813567
54	0xbf368084	-0.7128985
55	0xbf0fb80b	-0.561402
56	0xbf188171	-0.5957251
57	0xbe561155	-0.20905049
58	0x3eb0ac77	0.3450658
59	0x3ed75ee2	0.42064577
60	0xbea0069e	-0.3125505
61	0x3f05f231	0.5232268
62	0x3c870ae4	0.016484685
63	0xbef9063d	-0.48637572
64	0xbf0292bd	-0.51005155
65	0xbf46e1e7	-0.7768845
66	0xbea63830	-0.32464743
67	0x3cc59455	0.024118582
68	0x3f3e0036	0.7421907
69	0xbe7c505c	-0.2464003
70	0xbe10f1ea	-0.14154783
71	0xbf48fa9b	-0.78507394
72	0x3e8c75d4	0.27433646
73	0xbdd527b8	-0.104079664
74	0x3e2d028e	0.16895506
75	0x3d4f701c	0.050644025
76	0xbe098f25	-0.13433512
77	0xbed986c8	-0.42485642
78	0xbf1a7735	-0.60338145
79	0xbf04ae21	-0.518282
80	0x3c9b90d3	0.018989956
81	0xbead9155	-0.33899942
82	0x3f42f646	0.76157033
83	0xbeb86674	-0.36015666
84	0x3f9abf64	1.2089658
85	0x3f373706	0.71568334
86	0x3da15f48	0.078795016
87	0xbf400331	-0.7500487
88	0xbef59748	-0.4796698
89	0xbe538ca6	-0.20659122
90	0xbea53d55	-0.32273355
91	0x3f4f6140	0.81007767
92	0x3eb3c2a6	0.35109442
93	0x3dbb4811	0.09144605
94	0x3f2d152c	0.6761043
95	0xbd530b70	-0.05152458

model/batch_normalization_1/batchnorm/add_1;model/conv1d_1/Conv1D/Squeeze;model/batch_normalization_1/batchnorm/mul_1;model/conv1d_1/BiasAdd;model/conv1d_1/BiasAdd/ReadVariableOp;model/batch_normalization_1/batchnorm/mul;model/batch_normalization_1/batchnorm/sub;model/conv1d_1/Conv1D f4 [96]
0	0xbea2df2c	-0.31810892
1	0x3eacca1d	0.3374795
2	0x3d0e624c	0.034761712
3	0x3eada8ca	0.33917838
4	0x3fbfab93	1.4974235
5	0xbd7cc96b	-0.061715525
6	0x3f23cbdb	0.63982934
7	0x3ebd40ec	0.36963594
8	0xbe890daa	-0.26768237
9	0x3e4e1a81	0.20127298
10	0x3ff894e9	1.9420444
11	0x3f52c451	0.82330805
12	0x3fc139ec	1.5095801
13	0x3e109bf2	0.14121988
14	0x3e84ab69	0.25912026
15	0xbf2244a9	-0.6338602
16	0x3f1c5324	0.6106436
17	0x3f32cf80	0.6984787
18	0x3f16f9e4	0.5897505
19	0xbf71633b	-0.9429204
20	0x3df8d2f1	0.12149609
21	0x3f131128	0.57448053
22	0x3e0a1963	0.13486247
23	0x3e2d18fd	0.16904064
24	0x3fbe806e	1.4882944
25	0xbedf0dfa	-0.4356535
26	0xbf0e2807	-0.55529827
27	0xbe085bb3	-0.1331623
28	0x3e87ce51	0.26524594
29	0xbe9f822e	-0.31154007
30	0x3e3f1ad9	0.18662585
31	0x3ef0e40a	0.4704898
32	0xbf4b1443	-0.7932779
33	0x3e4c3d8b	0.19945352
34	0x3eb3b907	0.35102102
35	0x3fde2e6a	1.7357914
36	0xbf3c7199	-0.73610836
37	0xbef41f6d	-0.47680226
38	0x3e2b64db	0.16737692
39	0xbf45615f	-0.771017
40	0xbecb8961	-0.3975325
41	0xbf16fb17	-0.5897688
42	0x3e6dbd9f	0.23216866
43	0x3e2e45e8	0.17018855
44	0x3d8d73c3	0.069068454
45	0xbf7cc6cf	-0.9874086
46	0xbf269164	-0.650656
47	0xbf02921c	-0.51004195
48	0xbf89d844	-1.0769124
49	0xbf580845	-0.8438762
50	0xbf21ae7c	-0.6315687
51	0xbece4226	-0.40284842
52	0x3f0d128e	0.5510644
53	0x3f9dc6ed	1.2326332
54	0x3eae330d	0.34023324
55	0xbf047b23	-0.5175039
56	0x3f037039	0.51343113
57	0x3e98a52f	0.29813525
58	0xbe3c094a	-0.18362918
59	0xbf335cdc	-0.7006357
60	0x3eba8c0a	0.36434966
61	0xbf390d8a	-0.72286284
62	0xbeae0ffe	-0.33996576
63	0xbca50634	-0.02014456
64	0x3d82b1e4	0.06381586
65	0x3ee10e62	0.43956286
66	0x3e7a0390	0.24415421
67	0x3f124d3b	0.57149094
68	0xbe83107d	-0.25598517
69	0x3d818d60	0.06325793
70	0x3faeda5d	1.3660389
71	0x3ecdd6db	0.40202984
72	0x3efbddc9	0.49192646
73	0x3eef342b	0.46719489
74	0x3eb1b952	0.347117
75	0xbf5e864a	-0.8692366
76	0x3eec5e8a	0.46165878
77	0x3ee4a920	0.44660282
78	0x3ed3d826	0.41375846
79	0x3fe3ec29	1.7806445
80	0x3e3eabd7	0.18620239
81	0xbea28018	-0.31738353
82	0xbe5e323a	-0.21698847
83	0xbe939fa9	-0.2883275
84	0xbe51e2a0	-0.20496607
85	0x3e899c33	0.26876983
86	0x3da9decd	0.08294449
87	0xbf3ddc59	-0.7416435
88	0xbebdd13f	-0.37073705
89	0x3f3b1197	0.73073715
90	0xbea82593	-0.32841167
91	0x3ec4bc95	0.38425127
92	0xbe2da116	-0.1695598
93	0x3e85b490	0.2611432
94	0x3f478645	0.77939254
95	0xbe8ee00f	-0.27905318

model/batch_normalization/batchnorm/mul_1;model/conv1d/Conv1D/Squeeze;model/conv1d/BiasAdd;model/conv1d/BiasAdd/ReadVariableOp;model/batch_normalization/batchnorm/mul;model/conv1d/Conv1D;model/conv1d_1/Conv1D f4 [96, 1, 3, 126]
0	0x3a2a5a10	0.0006498406
1	0xbb063ae6	-0.0020481884
2	0x3bb7e039	0.005611446
3	0x3ad6323d	0.0016341876
4	0xbdda114a	-0.10647829
5	0x3cd870a1	0.026420893
6	0xbc68be83	-0.014205578
7	0xbdf54b97	-0.11977308
8	0x3d09419e	0.033509843
9	0xbc84224a	-0.016129632
10	0xbe21e29a	-0.15809098
11	0x3d0c8aa9	0.034311924
12	0xbc80bc01	-0.015714647
13	0xbe617215	-0.22016175
14	0x3d25cbcb	0.040477555
15	0xbcdc8bec	-0.026922189
16	0xbd3e9512	-0.046528883
17	0xbb059114	-0.0020380663
18	0xbd45cc63	-0.04829062
19	0xbe060824	-0.13089043
20	0x3c0512ab	0.008122127
21	0xbcef1f37	-0.02918969
22	0xbdd45a89	-0.10368831
23	0x3d249cba	0.04018853
24	0x3c58e499	0.013238096
25	0xbe0c0121	-0.13672306
26	0x3d9c6b0d	0.07637606
27	0xbd5c98b0	-0.05385655
28	0xbddef305	-0.10886196
29	0x3c8dc531	0.017305942
30	0xbd0c37aa	-0.034232773
31	0xbd937988	-0.072009146
32	0x3d0a17d2	0.033714123
33	0x3bf9756e	0.0076128757
34	0x3b1d7f71	0.002403226
35	0x3d98497a	0.074358895
36	0x3caee707	0.021350397
37	0xbc875686	-0.01652075
38	0x3ddf202c	0.10894808
39	0xbcb205ee	-0.021731343
40	0x3cb6a2c6	0.022294413
41	0xbc4e67ca	-0.012597987
42	0xbba34771	-0.0049828817
43	0x3d712899	0.058876608
44	0x3cb88a77	0.022526963
45	0x3c9a15dd	0.018809253
46	0x3dce800b	0.10083016
47	0x3d911c70	0.07085502
48	0x3c5c25c5	0.013436739
49	0x3d87d535	0.06632463
50	0x3dcac29a	0.099003986
51	0xbcf83aff	-0.030301569
52	0x3d51a46f	0.051182207
53	0x3ba8f5dd	0.0051562623
54	0xbcc5cdb1	-0.024145933
55	0x3e07fb25	0.13279398
56	0x3d67ddd7	0.056608047
57	0xba2e31e8	-0.000664501
58	0x3e238a9d	0.15970846
59	0x3dce5f52	0.10076775
60	0x3c9abdba	0.018889297
61	0x3e134329	0.14381088
62	0x3e032849	0.12808336
63	0xbc039b60	-0.00803265
64	0x3c2587d1	0.010103182
65	0x3bdad28f	0.0066779326
66	0xbc6288e8	-0.013826586
67	0x3a10919c	0.00055148616
68	0x3c0cf3ac	0.008603018
69	0xbc93358f	-0.017969875
70	0xbc0876ed	-0.008329135
71	0x3cca6c02	0.024709705
72	0xbb835201	-0.0040075784
73	0xbcde1249	-0.027108328
74	0x3d1f3ec5	0.03887822
75	0x3c2b57c1	0.010457934
76	0xbd222ebc	-0.03959535
77	0x3d3f552e	0.046712093
78	0xbd5ce9af	-0.053933796
79	0x3be6c8dc	0.0070429873
80	0x3d025793	0.0318218
81	0xbd58230d	-0.052767802
82	0xba759e2d	-0.00093695783
83	0x3d2d63c3	0.04233147
84	0xbd3d3da1	-0.046201352
85	0x3b28c65a	0.0025752992
86	0x3d3d327d	0.046190728
87	0xbd202559	-0.039098118
88	0x3c1233d1	0.008923487
89	0x3d45f8f1	0.048333112
90	0x3ba8007f	0.0051270123
91	0x3af003b7	0.0018311654
92	0x3d113e81	0.03546
93	0x3bff7eef	0.007797114
94	0xbd414736	-0.047187053
95	0x3d4b4170	0.049622953
96	0x3c9cedd8	0.019156381
97	0xbd946ba1	-0.07247091
98	0x3d49553d	0.049153555
99	0x3cb2b91c	0.021816783
100	0xbda62447	-0.08112388
101	0x3d395023	0.04524244
102	0xbbf14f42	-0.0073641846
103	0x3c900532	0.017580602
104	0x3d29a217	0.041414347
105	0xbc7a78d1	-0.015287594
106	0xbcfe4f18	-0.031043574
107	0x3d5f1456	0.054462753
108	0xbc27191e	-0.0101988595
109	0xbd2c7e50	-0.04211265
110	0x3d593e95	0.0530382
111	0xbc3de4cd	-0.011590195
112	0xbd27e1e6	-0.040986918
113	0x3d42208a	0.047394313
114	0x3c2ca12a	0.010536471
115	0x3c996ba4	0.018728085
116	0x3d553045	0.052047987
117	0x3b4568ae	0.0030122208
118	0xbcb54f39	-0.022132503
119	0x3d758b7c	0.059947476
120	0xba2a3846	-0.0006493371
121	0xbd10fd9f	-0.035398122
122	0x3d762ca1	0.060101155
123	0xba449cac	-0.00075001526
124	0xbd09e860	-0.033668876
125	0x3d6e4f08	0.05818084
126	0xba457c63	-0.00075334887
127	0xbb138eea	-0.0022515603
128	0x3b985f33	0.0046500205
129	0x3bcebf99	0.0063094613
130	0xbdd8eb19	-0.10591716
131	0x3d048453	0.032352757
132	0xbc083df5	-0.008315553
133	0xbdf8326c	-0.12118992
134	0x3d26d0ad	0.040726352
135	0xbbee9e06	-0.0072820215
136	0xbe22d24b	-0.15900533
137	0x3d23c461	0.039982203
138	0xbbdb844e	-0.0066991216
139	0xbe60ec8b	-0.21965234
140	0x3d3cb2c2	0.046068914
141	0xbca4d947	-0.020123137
142	0xbd733dd8	-0.05938515
143	0x3ab75cf0	0.001398949
144	0xbd2524c4	-0.040318266
145	0xbe10369a	-0.14083329
146	0x3c21f76d	0.009885651
147	0xbc41e3d8	-0.011834107
148	0xbde1bc83	-0.11022284
149	0x3d2943b2	0.041324325
150	0x3c9ad54f	0.018900542
151	0xbe115b6f	-0.14195035
152	0x3d9c3803	0.07627871
153	0xbd552206	-0.0520344
154	0xbe00e4d1	-0.12587287
155	0x3ca02e53	0.01955334
156	0xbce7910c	-0.028267406
157	0xbda2dca5	-0.07952241
158	0x3d03ce26	0.03217902
159	0x3b552d71	0.0032528306
160	0x3b12caeb	0.002239878
161	0x3d948a1a	0.07252903
162	0x3d048a77	0.032358613
163	0xbc73d24e	-0.0148816835
164	0x3dda8871	0.106705554
165	0xbc8dbcda	-0.017301966
166	0x3c328c54	0.010897715
167	0xbc864b5a	-0.016393352
168	0xbb2d6b39	-0.0026461615
169	0x3d6d414e	0.057923608
170	0x3c8a480b	0.016880056
171	0x3cda305a	0.026634384
172	0x3dd75016	0.10513322
173	0x3d888fae	0.0666803
174	0x3cf9cc47	0.030492915
175	0x3d93f8eb	0.07225212
176	0x3dc384f3	0.095468424
177	0xbcdf4371	-0.027253838
178	0x3d21301a	0.039352514
179	0xb798b7a7	-1.8205332e-05
180	0xbca05513	-0.019571817
181	0x3e0859f7	0.13315569
182	0x3d560ebf	0.052260157
183	0x3ba6101c	0.0050678384
184	0x3e27b59f	0.16377877
185	0x3dc70016	0.09716813
186	0x3cc625c5	0.024187932
187	0x3e18741f	0.14888047
188	0x3e0006c4	0.12502581
189	0xbc16fc69	-0.009215453
190	0x3bf709b8	0.0075390004
191	0x3bbdcf5a	0.0057925405
192	0xbc6ce7d2	-0.014459567
193	0x3b8c08d7	0.0042735147
194	0x3c072ad9	0.008249962
195	0xbca21f1b	-0.019790223
196	0xbb4b6c27	-0.0031039806
197	0x3ccbf613	0.02489761
198	0xbbc2f848	-0.0059500076
199	0xbcb35c59	-0.02189462
200	0x3d20cd0d	0.03925805
201	0x3bf7b32a	0.0075592
202	0xbd0d0595	-0.03442915
203	0x3d3f29e6	0.046670817
204	0xbd656a10	-0.056009352
205	0x3bf9ec81	0.0076270704
206	0x3d03e476	0.0322003
207	0xbd5dd258	-0.054155678
208	0xbac25eaa	-0.0014829237
209	0x3d2da61d	0.042394746
210	0xbd42476a	-0.047431387
211	0x3aeff28c	0.0018306538
212	0x3d3fc2c4	0.046816602
213	0xbd298cf4	-0.04139419
214	0x3c057912	0.008146541
215	0x3d48fe8a	0.049070872
216	0x3b77986d	0.0037780062
217	0x3abf2769	0.0014583889
218	0x3d12a8ff	0.0358057
219	0x3c0ce91f	0.008600502
220	0xbd421424	-0.04738249
221	0x3d4f4d0b	0.050610583
222	0x3c99809d	0.018738085
223	0xbd95303f	-0.07284593
224	0x3d4ddf5d	0.050261844
225	0x3ca52de5	0.020163486
226	0xbda819bd	-0.08208034
227	0x3d3d48d3	0.04621203
228	0xbc0e5535	-0.008687307
229	0x3c95503d	0.018226737
230	0x3d2f0057	0.042724933
231	0xbc6f9094	-0.014621872
232	0xbcf34f06	-0.029700767
233	0x3d6356b8	0.055502623
234	0xbc2f99ec	-0.01071785
235	0xbd27755b	-0.040883403
236	0x3d5e8678	0.05432746
237	0xbc4b0cb9	-0.01239317
238	0xbd21e7e3	-0.039527785
239	0x3d4a4caa	0.04938952
240	0x3c2405a4	0.01001111
241	0x3c990b52	0.018682156
242	0x3d5edf0d	0.054411937
243	0x3b00489e	0.0019574533
244	0xbcb58d5a	-0.022162128
245	0x3d805279	0.062657304
246	0xbb2f252a	-0.0026725032
247	0xbd1368ba	-0.035988547
248	0x3d7ea639	0.06217024
249	0xbb85fb65	-0.0040888065
250	0xbd0c3f08	-0.0342398
251	0x3d744289	0.059633765
252	0xb9a516dc	-0.00031488284
253	0xbb8e9452	-0.0043511773
254	0x3b4be02b	0.0031108956
255	0x3c0c35f1	0.0085577825

model/batch_normalization_1/batchnorm/mul_1;model/conv1d_1/Conv1D/Squeeze;model/conv1d_1/BiasAdd;model/conv1d_1/BiasAdd/ReadVariableOp;model/batch_normalization_1/batchnorm/mul;model/conv1d_1/Conv1D f4 [96, 1, 3, 96]
0	0x3d7d8174	0.061891034
1	0x3cf62411	0.030046495
2	0xbc52f9d5	-0.012876947
3	0x3c096ee3	0.008388254
4	0x3bbd07f0	0.0057687685
5	0x3c174e61	0.009234996
6	0xbcb00ff2	-0.021491978
7	0x3c0e7ebb	0.008697207
8	0xbd28518a	-0.041093387
9	0xbc48b0bc	-0.012249168
10	0xbc25ec47	-0.010127134
11	0xba13b8fa	-0.00056351686
12	0xbc57af04	-0.013164286
13	0xbd238ae1	-0.039927367
14	0xbd69b1d4	-0.057054356
15	0x3d3c5219	0.045976732
16	0x3c39616d	0.011314732
17	0x3c5b8cb8	0.013400249
18	0x3d07bc8f	0.033138808
19	0xbce2f991	-0.027706893
20	0x3cf4fce0	0.029905736
21	0x3bdd6c40	0.006757289
22	0xbd06ab62	-0.032878287
23	0x3d5ee4fe	0.054417603
24	0xbcb73420	-0.022363722
25	0xbb85f797	-0.004088353
26	0x3d87e011	0.06634534
27	0x3c6a2a87	0.014292366
28	0xbcbdaef4	-0.023154713
29	0x3c2b8cd9	0.010470592
30	0xbb60675f	-0.0034241301
31	0xbcd39114	-0.025826015
32	0xbd13a202	-0.036043175
33	0xbbb603ae	-0.005554638
34	0xbcf88faf	-0.030341951
35	0xbd1b7e3d	-0.037962187
36	0xbb9ebecb	-0.0048445216
37	0xbc892e12	-0.0167456
38	0xbc4130c4	-0.011791412
39	0xbbdfbd27	-0.0068279686
40	0xbcaaed8b	-0.020865222
41	0x3d67ae4c	0.056562707
42	0xbaaa693d	-0.0013001334
43	0x3c9cac1d	0.019125039
44	0xbce01146	-0.027351987
45	0xbcd9b0d0	-0.026573569
46	0x3b33b630	0.0027421825
47	0x3d268307	0.0406523
48	0x3bfb4463	0.0076680644
49	0x3b1cf653	0.0023950532
50	0x3d068555	0.032842
51	0x3c96d992	0.018414292
52	0x3c01b3c9	0.007916399
53	0x3c409ca6	0.011756098
54	0xbce1779d	-0.027522856
55	0xbb3f8700	-0.0029224753
56	0x3d1361bf	0.03598189
57	0x3d4cc4e0	0.049992442
58	0xbd76846e	-0.06018489
59	0x3ccae435	0.02476702
60	0x3d117618	0.035513014
61	0xbc9358cd	-0.01798668
62	0x3b997a18	0.004683744
63	0xb9a4e7c6	-0.00031453202
64	0x3d7f11b6	0.06227275
65	0x3c021109	0.007938632
66	0x3d4bba34	0.049738124
67	0xb9c4e964	-0.00037557923
68	0x3c2083a2	0.009797009
69	0xbba851ab	-0.0051366887
70	0x3cb53234	0.022118665
71	0x3c0998a5	0.00839821
72	0xb8cbdf68	-9.721407e-05
73	0x3c668eaf	0.014072104
74	0xbd8acdf6	-0.06777565
75	0x3c6927a0	0.014230639
76	0x3d0e2948	0.034707338
77	0x3c9f083b	0.019413104
78	0x3b2dd46c	0.0026524318
79	0x3c205fc7	0.00978846
80	0xbbd71251	-0.006563463
81	0xbba712bf	-0.0050986703
82	0x3cbf7bf6	0.023374539
83	0xbc95e8a3	-0.018299406
84	0xbcae601f	-0.021286068
85	0xbb9588ca	-0.0045634257
86	0x3db96e17	0.09054201
87	0x3d118f1e	0.035536878
88	0x3d0aa135	0.033845145
89	0x3d0ddda7	0.034635212
90	0xbc1c8968	-0.009554245
91	0xb99b7967	-0.00029654356
92	0xbd43eab6	-0.04783126
93	0x3ca0565d	0.019572431
94	0xbca2fe97	-0.019896789
95	0x3bda7864	0.0066671837
96	0x3d7e2d20	0.062054753
97	0x3d05c97c	0.032662854
98	0xbc2efdb4	-0.010680605
99	0x3c0b19cc	0.008490037
100	0x3b8afcaf	0.004241548
101	0x3c371c79	0.011176222
102	0xbc9436d8	-0.018092558
103	0x3c2b3d9c	0.010451701
104	0xbd2614ae	-0.040547065
105	0xbc3847db	-0.0112476
106	0xbbd87d1b	-0.0066067106
107	0xbb01ac76	-0.0019786633
108	0xbc4d79c3	-0.012541237
109	0xbd1c4b6d	-0.03815787
110	0xbd5aa2a5	-0.053377766
111	0x3d412f81	0.047164444
112	0x3c4e79d6	0.01260229
113	0x3c7d3d92	0.015456574
114	0x3d09fbb8	0.033687323
115	0xbcc06ef7	-0.023490412
116	0x3cfd0030	0.030883878
117	0x3c01a075	0.007911791
118	0xbd047a50	-0.03234321
119	0x3d5ed77e	0.054404728
120	0xbca5bfe9	-0.020233111
121	0xba872940	-0.0010311976
122	0x3d8cdd63	0.06878164
123	0x3ca93f57	0.020660086
124	0xbcae5a44	-0.021283276
125	0x3c37165b	0.011174764
126	0xbb6c07fe	-0.0036015506
127	0xbcb7b8a0	-0.022426903
128	0xbd0893c5	-0.03334405
129	0xbbc0da7d	-0.005885421
130	0xbcd85a29	-0.02641018
131	0xbd1b3801	-0.037895206
132	0xbb2a6f42	-0.0026006256
133	0xbc804e2f	-0.01566228
134	0xbc2c8cc5	-0.010531609
135	0xbbdbcb06	-0.006707552
136	0xbc84c588	-0.016207471
137	0x3d77a1cf	0.060457047
138	0x3a776662	0.00094375585
139	0x3ca6ce5c	0.020362072
140	0xbce002c2	-0.027345065
141	0xbcbf7005	-0.023368845
142	0x3b7059b0	0.0036674552
143	0x3d2c3249	0.042040143
144	0x3c280ffa	0.010257715
145	0x3adb5516	0.0016733732
146	0x3d052639	0.032507155
147	0x3c93795e	0.018002208
148	0x3c21a9b8	0.009867124
149	0x3c483bad	0.012221259
150	0xbce5c47c	-0.028047793
151	0xbad8b89a	-0.0016534508
152	0x3d0c75c6	0.034292005
153	0x3d531cfc	0.051541314
154	0xbd6bac4d	-0.057537366
155	0x3ceda0e9	0.029007392
156	0x3d17e44a	0.037082948
157	0xbc713a5b	-0.014723386
158	0x3bfec0e9	0.0077744615
159	0x3a9201dd	0.0011139471
160	0x3d8074f4	0.06272307
161	0x3c2757c8	0.0102138
162	0x3d4ff5ea	0.05077163
163	0x3a3c187f	0.0007175281
164	0x3c4fbc83	0.012679222
165	0xbb493cd7	-0.003070643
166	0x3cb6c763	0.022311872
167	0x3c196c98	0.00936427
168	0x3a641ebf	0.0008702091
169	0x3c740e6c	0.014896017
170	0xbd86e0f1	-0.06585873
171	0x3c7e9966	0.015539503
172	0x3d0ff4c4	0.035145536
173	0x3ca8fbca	0.020627875
174	0x3b9163b8	0.004436936
175	0x3c28682c	0.010278743
176	0xbb82fee8	-0.0039976723
177	0xbb746bdf	-0.0037295741
178	0x3ce43c81	0.027860882
179	0xbc8b0e4e	-0.016974594
180	0xbc784cea	-0.0151550565
181	0x392798cd	0.00015983284
182	0x3dbe82a6	0.09302263
183	0x3d19495d	0.03742348
184	0x3d079df0	0.033109605
185	0x3d0dd029	0.034622345
186	0xbbffb4aa	-0.0078035193
187	0x3b6b02a8	0.0035859738
188	0xbd3d0072	-0.046143003
189	0x3cb0075f	0.02148789
190	0xbc71457d	-0.01472604
191	0x3bb6f80b	0.0055837682
192	0x3d7fcd17	0.06245145
193	0x3d149af7	0.0362806
194	0xbc1f1287	-0.009709007
195	0x3c38c81d	0.0112781795
196	0x3ba55ab6	0.005046214
197	0x3c3e2dd2	0.011607604
198	0xbc6d802e	-0.014495892
199	0x3c5ddbe6	0.013541197
200	0xbd1e150c	-0.03859429
201	0xbc2a187e	-0.010381816
202	0xbb3b3968	-0.0028568152
203	0xbb039273	-0.0020076304
204	0xbc3a60e1	-0.011375637
205	0xbd0fdc8e	-0.035122447
206	0xbd43eb15	-0.047831614
207	0x3d44b242	0.048021562
208	0x3c41505a	0.011798942
209	0x3c909cf1	0.01765296
210	0x3d0efd65	0.034909625
211	0xbca4fe88	-0.020140901
212	0x3d04d0e0	0.03242576
213	0x3c2d4ab2	0.010576891
214	0xbd055f1b	-0.032561403
215	0x3d4ceb3c	0.050029024
216	0xbc95ef0f	-0.018302469
217	0x3a844e63	0.0010094162
218	0x3d8bf1aa	0.06833203
219	0x3cb2b141	0.021813037
220	0xbc9c4602	-0.019076351
221	0x3c6b3389	0.014355549
222	0xba17624a	-0.0005774839
223	0xbc8a3cb1	-0.016874643
224	0xbcef3d68	-0.029204085
225	0xbb531773	-0.0032210022
226	0xbcaa1eb4	-0.020766594
227	0xbd085074	-0.03327985
228	0xbb6e6b2c	-0.0036379797
229	0xbc3b3bf6	-0.01142787
230	0xbc338e19	-0.010959172
231	0xbbd89ac9	-0.0066102487
232	0xbc22c45b	-0.00993451
233	0x3d5ff9ff	0.054681774
234	0x3b979d2c	0.0046268906
235	0x3cc3b502	0.023890022
236	0xbcd3a126	-0.025833678
237	0xbcb2357a	-0.021754015
238	0x3ba9a509	0.0051771444
239	0x3d366fe2	0.044540294
240	0x3c487e7e	0.012237189
241	0x3b211a17	0.00245822
242	0x3d067b7c	0.032832608
243	0x3c9815b2	0.018565033
244	0x3c4f55fe	0.0126547795
245	0x3c6b7748	0.014371701
246	0xbcec6661	-0.028857412
247	0xbaddb14d	-0.0016913802
248	0x3cf76a6e	0.030202117
249	0x3d57b50e	0.0526629
250	0xbd683d22	-0.056698926
251	0x3cecca81	0.028905155
252	0x3d20d6e7	0.039267447
253	0xbc4bc774	-0.01243769
254	0x3c32b215	0.010906716
255	0x3b804c76	0.003915365

model/gru/gru_cell/strided_slice_4 f4 [96]
0	0xbc8942c8	-0.016755477
1	0xbd303190	-0.043016016
2	0x3ca516e5	0.020152519
3	0x3d84f049	0.06491143
4	0xbd40530a	-0.046954192
5	0xbdd522c2	-0.1040702
6	0xbd623528	-0.055226475
7	0xbd9f04c7	-0.07764583
8	0x3cebb8f6	0.02877472
9	0x3bc6316f	0.0060483734
10	0x3d00a197	0.031404104
11	0xbbf422e0	-0.0074504465
12	0xbd01ed18	-0.03172025
13	0xbca709b3	-0.020390367
14	0xbb506988	-0.0031801183
15	0xbc97d1f6	-0.018532734
16	0x3ceb882c	0.028751455
17	0xbc6cbee2	-0.014449807
18	0x3d15f52d	0.03661077
19	0x3d6981e4	0.05700864
20	0x3d67a693	0.056555342
21	0x3d0b3219	0.033983324
22	0xbd309cd9	-0.04311833
23	0xbd512159	-0.051057193
24	0x3dd9f515	0.10642449
25	0xbce11a74	-0.027478434
26	0x3d1a88fc	0.037728295
27	0xbe1ab9e5	-0.15109976
28	0x3d479c06	0.04873278
29	0xbc420e32	-0.011844205
30	0x3d0acf4a	0.033889093
31	0xbc0ddb69	-0.0086582685
32	0x3ce57cde	0.028013643
33	0xbc5cfa66	-0.013487434
34	0xbd9bbb0f	-0.07604038
35	0x3c6e782d	0.014555019
36	0xbd6bfcee	-0.05761426
37	0x3d88d5e6	0.06681423
38	0x3d1289bd	0.03577589
39	0x3dca5b3e	0.09880684
40	0x3dbc30c0	0.09188986
41	0xbc83ee73	-0.016104912
42	0x3dbf8e1a	0.093532756
43	0xbc042b3d	-0.008066949
44	0x3dceddef	0.10100924
45	0xbdcece10	-0.10097897
46	0xbda468cd	-0.08027802
47	0x3d3970a8	0.045273453
48	0xbba6e391	-0.005093046
49	0x3b7e12a7	0.0038768442
50	0x3da34990	0.07973015
51	0xbcee7823	-0.02911002
52	0xbc8488ce	-0.016178515
53	0xbdcccbbb	-0.09999796
54	0xbd16c943	-0.036813032
55	0xbcbe4269	-0.023225026
56	0xbc87f8bb	-0.016598096
57	0x3dfaf37b	0.122534715
58	0xbd8decda	-0.069299415
59	0x3dc72495	0.09723774
60	0xbd6b3592	-0.057424136
61	0x3d592fea	0.05302421
62	0xbd17ae64	-0.037031546
63	0x3c3c4dfe	0.011493204
64	0xbe1e285e	-0.15445086
65	0x3db7cfce	0.089751825
66	0x3c839052	0.016060028
67	0x3db31ae8	0.08745366
68	0x3c56e14f	0.013115241
69	0x3d4fb919	0.050713632
70	0xbd627761	-0.05528963
71	0x3d8b3380	0.06796932
72	0x3c1bb3e2	0.009503337
73	0xbcde58e4	-0.027141996
74	0x3cb3edb9	0.021963941
75	0xbd8a5fff	-0.06756591
76	0xbc1e96c1	-0.009679497
77	0xbbcd0d6e	-0.0062577045
78	0xbdc3c728	-0.095594704
79	0x3d206a5f	0.039163943
80	0xbd113a1f	-0.03545582
81	0xbda03ba8	-0.078238785
82	0x3d89a56c	0.06721005
83	0xbd49a70f	-0.049231585
84	0x3b4cf56a	0.0031274208
85	0x3d888dac	0.06667647
86	0x3d565fbc	0.052337393
87	0xbcf4bd3f	-0.029875396
88	0x3d8ee768	0.06977731
89	0xbdadf289	-0.084935255
90	0x3cc32154	0.023819603
91	0xbd7fd2e0	-0.062456965
92	0x3b4783ba	0.0030443505
93	0xbc689160	-0.014194816
94	0xbc9b7078	-0.018974528
95	0x3d0289ae	0.031869583

model/gru/gru_cell/strided_slice_3 f4 [96]
0	0xbd0e33a3	-0.034717213
1	0xbd74c57a	-0.05975864
2	0x3e06b581	0.13155176
3	0x3dc24542	0.09485866
4	0xbdd8f92d	-0.105944015
5	0x3da357d1	0.07975734
6	0x3e01b439	0.12666406
7	0x3d9c0084	0.07617286
8	0x3e24095a	0.16019192
9	0x3ea03708	0.31291986
10	0x3d29124f	0.041277226
11	0x3c6c8873	0.014436829
12	0x3e18c843	0.14920144
13	0x3d43eb07	0.04783156
14	0x3e47160d	0.19442005
15	0x3e86fc5b	0.26364407
16	0x3e359a2d	0.17734595
17	0x3d5e4966	0.054269217
18	0x3e677eb4	0.22606927
19	0x3ddf07f8	0.10890192
20	0x3d9f343e	0.07773636
21	0x3e11b846	0.14230451
22	0xbcca572b	-0.024699768
23	0xbc822c44	-0.015890248
24	0x3dc1604f	0.094421975
25	0xbe34db83	-0.17661862
26	0x3d9643b8	0.07337135
27	0xbcf72c8d	-0.03017261
28	0x3e6db184	0.23212248
29	0x3df38b36	0.11891787
30	0x3dca8c50	0.09890044
31	0xbe10ed99	-0.14153136
32	0x3cd9b9d3	0.026577866
33	0x3dea14a6	0.114297196
34	0x3d5e6259	0.05429301
35	0x3e123a24	0.14279991
36	0x3d2bb20f	0.041917857
37	0x3de88392	0.1135322
38	0x3e349b8e	0.17637464
39	0x3e523866	0.20529327
40	0x3ec2a0e8	0.38013387
41	0x3cd7f22a	0.02636059
42	0x3e436c3e	0.1908426
43	0x3e3dda8d	0.18540402
44	0x3d097dfc	0.033567414
45	0xbd6ea55b	-0.058263164
46	0x3e2db927	0.16965161
47	0x3d2adcf8	0.04171464
48	0x3e0116cf	0.12606357
49	0xbd7f8d98	-0.062390894
50	0x3e2d786f	0.16940473
51	0x3bc3d8b9	0.005976763
52	0x3d577ecf	0.05261117
53	0x3d1ad168	0.03779736
54	0x3e06e827	0.13174497
55	0x3a8c1eb5	0.0010690304
56	0xbde53fac	-0.11193785
57	0x3e997dcb	0.29978785
58	0x3d524340	0.051333666
59	0x3e8fd641	0.2809315
60	0xbd01b579	-0.031667206
61	0x3e76ee69	0.24114384
62	0x3ddd83e9	0.108161755
63	0x3cbe73e8	0.023248628
64	0x3dc12594	0.094309956
65	0x3e8802b1	0.26564553
66	0x3da1e8f0	0.079057574
67	0x3e8a16d6	0.26970547
68	0xbb50ccbe	-0.0031860317
69	0x3e330268	0.17481387
70	0x3d04fcbe	0.032467596
71	0x3e09d674	0.13460714
72	0x3d0ee6e9	0.03488818
73	0x3e6d3e1a	0.23168221
74	0x3d9c07de	0.07618688
75	0x3e1e6402	0.15467837
76	0x3d0dcd3f	0.034619566
77	0x3d58c6e6	0.05292406
78	0xbd5d67ee	-0.054054193
79	0x3d6d8c3f	0.057995077
80	0x3c9c2a48	0.01906313
81	0x3ddabb1d	0.1068022
82	0x3e625e1a	0.2210621
83	0xbe08b818	-0.13351476
84	0x3e058ee4	0.1304279
85	0x3dff4dbb	0.12465998
86	0x3e8cd074	0.27502787
87	0x3d64789f	0.055779096
88	0x3e9620a3	0.29321775
89	0x3d2e459f	0.042546865
90	0x3dbaf9f2	0.091297045
91	0xbcde45cb	-0.02713289
92	0x3d20d574	0.039266065
93	0x3daf6b5e	0.085654005
94	0x3db5c83b	0.088760816
95	0x3cf5a70c	0.02998688

model/gru/gru_cell/strided_slice_5 f4 [96]
0	0xbbe810f3	-0.0070820986
1	0xbd0ba467	-0.034092333
2	0x3c1e824b	0.009674619
3	0x3d6a16cb	0.057150643
4	0xbd0a4e93	-0.03376634
5	0x3d55e252	0.05221779
6	0x3b246b61	0.0025088417
7	0x3cdec154	0.027191795
8	0xbdd6f4a6	-0.10495882
9	0x3cb07037	0.021537883
10	0xbc54d824	-0.012990985
11	0x3b21a359	0.0024664013
12	0xbc833287	-0.016015304
13	0xbca69758	-0.020335838
14	0x3c24807b	0.010040398
15	0xbb9b0955	-0.004731337
16	0x3d7c867e	0.0616517
17	0x3cdafcc2	0.026731852
18	0xbd8052e1	-0.06265808
19	0xbcc06d8f	-0.023489742
20	0x3baf51ae	0.005350313
21	0x3d31cd1a	0.04340849
22	0xbd015deb	-0.031583708
23	0xbcafd05d	-0.02146166
24	0x3d601e41	0.054716352
25	0xbc9d3608	-0.019190803
26	0xbd9acebf	-0.07558965
27	0xbc5aa443	-0.013344827
28	0x3dd31b26	0.103079125
29	0xbcb3883f	-0.021915553
30	0x3d79a6c7	0.060950067
31	0xbab8a561	-0.0014087373
32	0xbd15cde0	-0.03657329
33	0x3aabf7d8	0.0013120128
34	0x3d80d627	0.06290846
35	0x3d797434	0.060901836
36	0xbd1d555c	-0.038411483
37	0x3d465311	0.048419062
38	0xbd250c59	-0.04029498
39	0xbcb48781	-0.02203727
40	0x3d13b206	0.03605845
41	0xbcd304fc	-0.025759213
42	0x3d84b949	0.06480653
43	0x3cc0975c	0.023509674
44	0xbce64adc	-0.028111868
45	0x3da9b09e	0.0828564
46	0xbb8a73fb	-0.0042252517
47	0xbd12da20	-0.03585255
48	0xbcc3d54a	-0.023905415
49	0x3d1f7b67	0.038936045
50	0x3c987e01	0.01861477
51	0xbc4a1c04	-0.012335781
52	0x3cdd0346	0.0269791
53	0x3ca20fb8	0.019782886
54	0x3d1a3262	0.037645705
55	0x3cff91c4	0.031197436
56	0xbc3f3420	-0.011670142
57	0x3d0d7171	0.034532014
58	0x3c35f213	0.011105078
59	0xbcabfb1b	-0.02099376
60	0xbac80b16	-0.0015262093
61	0xbd0d3d07	-0.03448203
62	0xbd392c2e	-0.04520815
63	0xbd75ea2a	-0.06003777
64	0x3d6d3e28	0.057920605
65	0x3d915372	0.07095994
66	0x3d186317	0.037203874
67	0xbc8803c7	-0.016603364
68	0xbd1fac2f	-0.038982566
69	0x3bd16f6f	0.0063914577
70	0x3da0a3b9	0.078437276
71	0xbcf41b6a	-0.029798228
72	0xbc888cc8	-0.016668692
73	0xbc37e92c	-0.011225026
74	0xbbc3f228	-0.005979795
75	0x3d042529	0.032262
76	0x3c502a16	0.012705347
77	0x3cd5b97d	0.026089424
78	0xbd0ebae1	-0.03484619
79	0xbc7aba37	-0.015303186
80	0x3c31bd1d	0.010848311
81	0xbdb10161	-0.08642841
82	0x3c0197e9	0.007909753
83	0x3a178936	0.0005780639
84	0x3d73edff	0.059553143
85	0xbb4a4c67	-0.0030868293
86	0xbc86f8b8	-0.01647602
87	0xbd014d0f	-0.03156763
88	0xbd99700d	-0.07492075
89	0x3c2554bf	0.010091006
90	0x3d26fb46	0.040766977
91	0x3d54d7cf	0.051963624
92	0xbb1cdef8	-0.002393661
93	0xbb0908a2	-0.0020909687
94	0x3bfc9d3d	0.007709174
95	0xbc24c0ec	-0.010055762

model/gru/gru_cell/strided_slice_11 f4 [96]
0	0x3b288af1	0.002571758
1	0xbcb21bfc	-0.02174186
2	0x3c2f4583	0.010697725
3	0x3cf07347	0.029351844
4	0xbd57b2fc	-0.052660927
5	0x3d030b9a	0.031993486
6	0xbd38a1da	-0.04507623
7	0x3c8fa4c8	0.017534629
8	0xbda58ec1	-0.08083869
9	0x3c561316	0.013066074
10	0xbccdc0aa	-0.025116283
11	0xbc1b3596	-0.009473225
12	0xbd21da8b	-0.03951506
13	0xbcb592d6	-0.022164743
14	0x3c811a46	0.015759598
15	0x3c49804f	0.012298658
16	0x3da7fb1e	0.08202194
17	0x3cb55e4c	0.02213969
18	0xbd9b4b4e	-0.075827226
19	0xbcdf1a55	-0.027234236
20	0xbd8f8e26	-0.070095345
21	0x3cda4bc2	0.026647452
22	0xbd0db300	-0.034594536
23	0xbd0b8388	-0.034060985
24	0x3d30e27a	0.043184735
25	0xbcfccf9a	-0.03086071
26	0xbda7b825	-0.0818942
27	0xbc892bf8	-0.016744599
28	0x3d80c159	0.06286878
29	0xbc0c6826	-0.008569753
30	0x3d57a4b3	0.052647304
31	0x3afa8c4a	0.0019115296
32	0xbd1558df	-0.036461707
33	0x3c0c189a	0.008550787
34	0x3cd5e69b	0.026110938
35	0x3c2866cc	0.010278415
36	0xbcc8514d	-0.02445283
37	0x3cf6d677	0.030131562
38	0xbd524eda	-0.05134473
39	0xbc092999	-0.008371734
40	0x3ceccfb9	0.028907644
41	0xbd33f449	-0.04393414
42	0x3d888179	0.0666532
43	0x3b5893c7	0.0033047067
44	0xbd7b6055	-0.061371166
45	0x3d80dfda	0.06292696
46	0x3c051cff	0.008124589
47	0xbd06e9fa	-0.03293798
48	0xbc8eed1f	-0.017447053
49	0x3d82d884	0.06388953
50	0x3c1bbe4c	0.0095058195
51	0x3b8408ce	0.00402937
52	0x3cd107a8	0.025516346
53	0x3c9d5870	0.01920721
54	0x3c2a2436	0.01038461
55	0xbc583dbb	-0.013198311
56	0x3c337689	0.010953554
57	0x3c9f3c4b	0.01943793
58	0x3ba914b7	0.00515994
59	0xbd046fa3	-0.032333028
60	0xbc982af8	-0.018575177
61	0xbd19bff5	-0.03753658
62	0xbd3149bb	-0.043283205
63	0xbd6a31e4	-0.057176486
64	0x3cd47e44	0.025939114
65	0x3d83c745	0.06434492
66	0xbbbd9fd5	-0.0057868757
67	0xbca24e42	-0.019812707
68	0x3bfed532	0.0077768797
69	0xbc9de064	-0.019272037
70	0x3d8572c0	0.065160275
71	0xbca91ca8	-0.020643547
72	0x3c148467	0.00906477
73	0xbc2b62b2	-0.0104605425
74	0xbc06eef5	-0.008235683
75	0xbbff53bc	-0.0077919643
76	0x3c4cf80d	0.012510312
77	0x3cf5e076	0.030014258
78	0xbd6aa3e9	-0.057285223
79	0xbd66b9f5	-0.056329686
80	0x3cb3f60f	0.021967916
81	0xbda5779d	-0.08079455
82	0x3c346f8f	0.011012926
83	0xbca34c84	-0.019933946
84	0x3d3a1b35	0.045436103
85	0x3bcf3fa8	0.006324727
86	0xbd005511	-0.031331126
87	0x3d138772	0.036017843
88	0xbd84926e	-0.06473242
89	0x3be312c0	0.0069297254
90	0x3c920e2c	0.017829023
91	0x3cf36ff4	0.02971647
92	0xbb7b0b78	-0.0038306396
93	0xbc80fba6	-0.015744995
94	0xbc8d8bc7	-0.017278565
95	0xbcd1c806	-0.025608074

model/gru_1/gru_cell/strided_slice_4 f4 [48]
0	0x3e0de204	0.1385575
1	0x3e35ef0e	0.17766973
2	0xbe11156d	-0.1416833
3	0xbc352965	-0.0110572325
4	0xbd03fb1f	-0.03222191
5	0x3ca10ab3	0.019658422
6	0x3d5eef45	0.054427404
7	0xbd8257df	-0.06364416
8	0x3da468d4	0.08027807
9	0x3c22ec91	0.009944097
10	0x3d162885	0.036659736
11	0x3d9dac53	0.07698884
12	0xbbe278c6	-0.00691137
13	0x3e20f13e	0.15717027
14	0x3d40eb06	0.047099136
15	0xbd93c0d1	-0.07214511
16	0x3dfb12e3	0.12259462
17	0x3da3cc58	0.0799796
18	0xbd5e3641	-0.05425096
19	0x3a14ce0e	0.00056764565
20	0x3dfeca7e	0.12440966
21	0x3bf242e9	0.00739323
22	0xbc5d6edb	-0.0135152
23	0xbcc4d1cd	-0.024025822
24	0x3e5fb783	0.21847348
25	0x3d8cfc43	0.068840526
26	0xbd8a8542	-0.06763698
27	0xbd82bda8	-0.0638383
28	0x3e39eef3	0.18157558
29	0x3b0abf45	0.0021171134
30	0x3d3fa287	0.046785858
31	0x3e09053b	0.13380902
32	0xbcb4279e	-0.021991547
33	0x3e287c65	0.16453703
34	0x3d75ac1c	0.05997859
35	0x3cf16e86	0.029471647
36	0xbbbd1eb5	-0.005771483
37	0x3df9e073	0.122010134
38	0x3d1221bd	0.035676707
39	0x3d17cf3a	0.03706286
40	0x3b2054a5	0.0024464515
41	0xbc62131e	-0.013798503
42	0x3dff36ca	0.12461622
43	0xbd0848f3	-0.033272695
44	0xbd0f18a5	-0.034935612
45	0xbc4d0eaa	-0.012515703
46	0x3c2a543e	0.010396061
47	0xbd62017f	-0.055177208

model/gru_1/gru_cell/strided_slice_3 f4 [48]
0	0x3e0e6ef0	0.13909507
1	0x3d472aff	0.04862499
2	0xbd53da8b	-0.05172209
3	0x3dbf57d6	0.09342925
4	0x3dc67a9e	0.09691356
5	0x3cd22a6f	0.025655
6	0xbd7c8c38	-0.06165716
7	0x3d49978d	0.049216796
8	0x3e6a9f04	0.22912222
9	0x3c324c36	0.010882428
10	0xbdcc173d	-0.0996537
11	0x3e263c34	0.16233903
12	0x3cd5ba73	0.026089882
13	0x3deae09b	0.11468621
14	0x3e8524c7	0.2600462
15	0x3df72462	0.12067486
16	0xbd00f752	-0.031485863
17	0x3e35c374	0.1775034
18	0xbda1d1b4	-0.07901326
19	0x3d82d598	0.06388396
20	0x3e0d15fd	0.13777919
21	0x3e38b9aa	0.18039575
22	0x3ddfc9f0	0.109271884
23	0x3d7ac41c	0.06122218
24	0x3d35e63b	0.044409018
25	0x3df63478	0.12021726
26	0xbd29cdff	-0.04145622
27	0xbd36f1b3	-0.044664096
28	0x3dcdc6fa	0.100477174
29	0x3da1e2a3	0.07904556
30	0x3c9c3bcd	0.019071484
31	0x3e31d82d	0.17367621
32	0x3db6b3b9	0.08920998
33	0x3dafbf1e	0.085813746
34	0x3dc52be9	0.09627516
35	0x3d77ef41	0.060530905
36	0x3c76c567	0.015061713
37	0x3e28280a	0.16421524
38	0x3cfdcc07	0.030981077
39	0x3db041e0	0.08606315
40	0xbd1ddea2	-0.038542397
41	0x3cea1f08	0.02857925
42	0x3d8ee578	0.069773614
43	0x3cdc0da1	0.026861968
44	0x3b222a5e	0.002474449
45	0xbddc62c7	-0.10761028
46	0xbd5e5bd0	-0.054286778
47	0xbd72e9d9	-0.059305046

model/gru_1/gru_cell/strided_slice_5 f4 [48]
0	0xbe12084a	-0.14260975
1	0x3d145a7e	0.036219113
2	0xbd64d821	-0.05587018
3	0x3e3d144f	0.18464778
4	0x39467ec4	0.00018929975
5	0x3cbbcc27	0.022924496
6	0xbe882262	-0.26588732
7	0x3d649b1c	0.055811986
8	0x3d551611	0.052022997
9	0xbd8fc7dd	-0.07020543
10	0xbcbf01f6	-0.023316365
11	0x3d61847c	0.055057988
12	0x3dc62d3d	0.09676597
13	0x3d249c77	0.04018828
14	0x3d654c46	0.055980943
15	0x3ccbfb19	0.024900006
16	0x3dc9ad2a	0.098474815
17	0x3c95e10b	0.018295785
18	0xbcd323d9	-0.02577393
19	0xbdd285da	-0.102794364
20	0x3cc96e62	0.024588767
21	0xbcce5e86	-0.025191557
22	0x3d8b8025	0.06811551
23	0xbe1abd12	-0.15111187
24	0xbb688638	-0.0035480391
25	0x3cc7a5a0	0.024370968
26	0x3bdf5bea	0.006816377
27	0x3cdae147	0.026718749
28	0xbd1dc779	-0.03852031
29	0x3d4e180f	0.050315913
30	0x3d032019	0.032013033
31	0x3d6537a8	0.05596128
32	0xbc1b13a9	-0.009465137
33	0x3de44a02	0.11146928
34	0xbd09a831	-0.033607665
35	0x3d3eb7db	0.046562057
36	0xbc7fc1e8	-0.015610196
37	0x3bf4a8cd	0.0074664117
38	0xbce8494d	-0.028355265
39	0xbdebf30a	-0.115209654
40	0xbb107235	-0.002204073
41	0xbd54c366	-0.05194416
42	0x3d7aefc2	0.061263807
43	0x3d19c6bf	0.037543055
44	0xbba5f647	-0.005064759
45	0x3a54967f	0.0008109584
46	0xbca28832	-0.019840334
47	0xbdba5fc1	-0.09100295

model/gru_1/gru_cell/strided_slice_11 f4 [48]
0	0xbde79f14	-0.113096386
1	0x3c1e98ee	0.009680016
2	0xbc11a0a8	-0.008888401
3	0x3e0f6776	0.14004311
4	0x3d16376b	0.036673944
5	0x3d8ad21c	0.067783564
6	0xbe432adf	-0.19059323
7	0x3d9752b8	0.07388824
8	0x3d1f17aa	0.038840927
9	0xbd22e801	-0.039772037
10	0xbc6660fc	-0.014061209
11	0x3ce7cba9	0.028295355
12	0x3d79c186	0.060975574
13	0xbaf7d79e	-0.0018908863
14	0x3c31b7c7	0.010847039
15	0xbc0b01ba	-0.008484298
16	0x3e0917e7	0.13388024
17	0x3caff54b	0.02147927
18	0x3cf4be0f	0.029875783
19	0xbd17f8eb	-0.03710262
20	0x3b906f72	0.0044078166
21	0xbce0092b	-0.027348122
22	0x3daec531	0.08533705
23	0xbde467d4	-0.11152616
24	0xbcf4e86b	-0.029895982
25	0xbcfcc203	-0.03085423
26	0xbafc4a69	-0.001924825
27	0xbc20d2ed	-0.009815914
28	0xbcb7f472	-0.022455428
29	0xbc2f19e8	-0.010687329
30	0x3ca8f49d	0.020624453
31	0x3d8d67db	0.069045745
32	0x3bfb24a7	0.0076642814
33	0x3d2ab8b6	0.04168006
34	0xbd5e65c1	-0.05429626
35	0x3d46cf81	0.048537735
36	0x39837bd3	0.00025078523
37	0xbb87b034	-0.004140878
38	0xbd21a911	-0.039467875
39	0xbdcd75c9	-0.10032231
40	0xbbabed97	-0.005246829
41	0xbd0a5048	-0.03376797
42	0x3d935b40	0.07195139
43	0x3c4fbe81	0.012679697
44	0xbd9456f0	-0.072431445
45	0x3c89eb12	0.016835723
46	0x3d5dfcd1	0.054196183
47	0xbd4fd4d6	-0.050740086

model/batch_normalization_3/batchnorm/sub f4 [48]
0	0xbc8212e6	-0.015878152
1	0xbe30ce46	-0.17266187
2	0x3e80cc78	0.25155997
3	0xbec4514f	-0.38343284
4	0xbed5f822	-0.41790873
5	0xbde03150	-0.109469056
6	0x3f3770e6	0.71656644
7	0xbe7ca3f9	-0.24671926
8	0x3e846b39	0.25863054
9	0x3f1437fa	0.57897913
10	0x3cdce0e5	0.026962707
11	0xbe8de794	-0.27715743
12	0x3e3c3b36	0.18381962
13	0x3e80b3a6	0.2513706
14	0xbe39bb23	-0.18137793
15	0xbbeaea86	-0.0071690707
16	0xbe3bf926	-0.18356761
17	0xbe56ebde	-0.20988414
18	0xbea56fcc	-0.32311857
19	0x3f081453	0.5315601
20	0x3e44c459	0.19215526
21	0xbe1c9037	-0.15289389
22	0x3d2dfea5	0.042479176
23	0x3f19d749	0.60094124
24	0xbe0108e2	-0.12601045
25	0x3eb615fc	0.35563648
26	0xbdd01609	-0.10160453
27	0xbe04ef30	-0.12981868
28	0x3e7473ef	0.2387235
29	0x3c5a95c8	0.013341375
30	0x3e8e2a90	0.27766848
31	0xbe4b18ac	-0.1983363
32	0xbe049c10	-0.12950158
33	0xbb9edb2c	-0.0048479047
34	0x3e1e3bef	0.1545255
35	0xbe57b748	-0.2106601
36	0xbd67e344	-0.05661322
37	0xbd2afbbc	-0.04174398
38	0xbdb3ff77	-0.087889604
39	0x3e3b50e8	0.18292582
40	0x3db326ee	0.087476596
41	0x3e8a8b26	0.27059287
42	0xbe53ae7f	-0.20672034
43	0xbe8aaa89	-0.27083233
44	0x3ea45abd	0.32100478
45	0xbe397b84	-0.18113524
46	0xbe4ba3e6	-0.19886741
47	0x3e8a9ed4	0.270743

model/batch_normalization_3/batchnorm/mul f4 [48]
0	0x400d065b	2.203513
1	0x3fddea1a	1.7337067
2	0x4015bbab	2.3395793
3	0x40119805	2.2749035
4	0x4021ad7a	2.5262132
5	0x4009c877	2.1528604
6	0x40192342	2.392777
7	0x4008734d	2.1320374
8	0x4007dec1	2.1229708
9	0x402e13bd	2.7199547
10	0x401888e9	2.3833563
11	0x3ff7e2d5	1.9366099
12	0x40095bc1	2.1462252
13	0x4019cf7a	2.4032884
14	0x4024de4d	2.5760682
15	0x401389ce	2.305286
16	0x4015bd85	2.3396924
17	0x400aac84	2.1667795
18	0x400bb295	2.1827748
19	0x402f47ec	2.7387648
20	0x3fefdf2b	1.873998
21	0x401f2f33	2.4872558
22	0x4017dbc2	2.372788
23	0x40345223	2.8175132
24	0x4001c2b2	2.0275083
25	0x4001f2e1	2.0304492
26	0x401cb38a	2.4484582
27	0x40204e32	2.5047727
28	0x4001fba3	2.0309837
29	0x4011df68	2.2792606
30	0x401717ca	2.360827
31	0x400de97c	2.2173758
32	0x401c4839	2.4419081
33	0x3ff62cb4	1.9232392
34	0x40099b8f	2.1501195
35	0x40040d85	2.0633252
36	0x40023690	2.0345802
37	0x3fdc1844	1.7194905
38	0x4013631c	2.3029242
39	0x4012e6f2	2.2953458
40	0x401eb208	2.4796162
41	0x4014f5e6	2.3275084
42	0x400763db	2.1154697
43	0x4016b927	2.3550508
44	0x402ad031	2.668957
45	0x4033cf2d	2.80952
46	0x401b537c	2.4269705
47	0x40043f23	2.0663536

model/batch_normalization_2/batchnorm/sub f4 [96]
0	0x3e4dab36	0.20084843
1	0x3ec3eb9b	0.3826569
2	0x3e8053c3	0.25063905
3	0xbe3b0543	-0.18263726
4	0x3f43951c	0.763994
5	0xbef51cd8	-0.4787357
6	0xbf5f9a4d	-0.8734482
7	0xbe7bce52	-0.24590424
8	0x3e713d7e	0.23558614
9	0xbe5dae59	-0.2164854
10	0x3eac0808	0.33599877
11	0xbf09c3d6	-0.53814447
12	0x3f1a2c14	0.6022351
13	0xbf38c31e	-0.72172725
14	0x3c3b7a5d	0.011442748
15	0x3e8d7f94	0.27636397
16	0xbefb5bcd	-0.49093476
17	0xbef1dce7	-0.47238848
18	0x3ecc05b1	0.39848092
19	0x3f116942	0.56801236
20	0xbc80577d	-0.015666718
21	0xbf267612	-0.6502391
22	0x3e80af94	0.25133955
23	0x3f76a7f2	0.96350014
24	0x3d4247ca	0.047431745
25	0xbf26d98a	-0.6517569
26	0x3f1ad178	0.60475874
27	0x3f81603c	1.0107493
28	0x3e41d124	0.18927437
29	0x3eb8a080	0.36059952
30	0x3ea5e3fe	0.32400507
31	0x3eb3e5ca	0.35136253
32	0x3f28551c	0.65754867
33	0x3d613131	0.054978553
34	0x3eabb924	0.3353969
35	0xbf333f6c	-0.7001865
36	0x3d7ecbc1	0.062206034
37	0xbf51ca5b	-0.81949395
38	0x3eaa5ba3	0.33273038
39	0x3ea4442e	0.32083267
40	0x3e6ff335	0.2343262
41	0xbe8cabde	-0.27474874
42	0xbf8d52d8	-1.1040907
43	0xbf35919a	-0.70925295
44	0xbe9723b1	-0.29519418
45	0xbdb140b0	-0.08654916
46	0x3d106efb	0.03526209
47	0xbe1aca63	-0.15116267
48	0x3e90a91a	0.28254014
49	0xbf6db3d5	-0.92852527
50	0x3ecb4fc8	0.39709306
51	0xbebb77f1	-0.36614946
52	0xbf864dc2	-1.049248
53	0x3f0586ab	0.5215861
54	0xbf585d90	-0.84517765
55	0x3eca5f91	0.39526036
56	0xbe886dcc	-0.26646268
57	0xbc7dfa65	-0.015501593
58	0xbd5e4885	-0.05426838
59	0xbeb2ff99	-0.3496063
60	0x3e5f6bd8	0.21818483
61	0xbe1b28f4	-0.15152341
62	0x3db6d90c	0.08928117
63	0x3dffc7c9	0.12489278
64	0xbef4509a	-0.47717744
65	0x3ef969dd	0.4871358
66	0x3e9a5c96	0.30148762
67	0x3dae41a1	0.085086115
68	0x3e941392	0.2892118
69	0x3dcd859c	0.100352496
70	0xbf26ac79	-0.6510692
71	0xbcac02c8	-0.02099742
72	0xbde4d647	-0.11173683
73	0x3e6860d1	0.22693183
74	0x3e6879e9	0.22702755
75	0xbf5306f6	-0.82432497
76	0xbecc8bd6	-0.39950436
77	0x3ebad3b3	0.3648964
78	0x3e9939bc	0.2992686
79	0x3da67835	0.081283964
80	0xbe7b98e6	-0.24570045
81	0x3f793ea1	0.9736119
82	0xbcd4c35a	-0.025972057
83	0xbd83ed6f	-0.06441771
84	0xbf6ae1c4	-0.9175074
85	0xbe8522d1	-0.26003125
86	0xbec48863	-0.38385305
87	0xbe2ec528	-0.17067397
88	0xbe2788c2	-0.16360763
89	0xbee6479a	-0.44976503
90	0x3e22ef6e	0.15911648
91	0xbe98db72	-0.29854923
92	0x3f1598ba	0.5843617
93	0xbb4f22a8	-0.003160635
94	0x3e9e814b	0.30958018
95	0x3e9a7614	0.3016821

model/batch_normalization_2/batchnorm/mul f4 [96]
0	0x4088a160	4.269699
1	0x40f139b9	7.538296
2	0x40a184c1	5.0474553
3	0x408df935	4.436671
4	0x40d183ce	6.5473394
5	0x411e62ee	9.899153
6	0x40d32582	6.5983286
7	0x411f50aa	9.957193
8	0x4058f3e6	3.3898864
9	0x40a9c760	5.305588
10	0x409e7d55	4.9527993
11	0x4056c6d9	3.3558867
12	0x409a54a1	4.8228307
13	0x40a0f544	5.0299397
14	0x4085bbd8	4.17918
15	0x40b523ca	5.660619
16	0x40e6248d	7.191962
17	0x40b1dca7	5.558185
18	0x409547dd	4.6650224
19	0x405ef8c6	3.483934
20	0x40ba8363	5.8285384
21	0x40909ef5	4.519404
22	0x40c1f5da	6.061261
23	0x40e67ecf	7.2029796
24	0x404c0ffe	3.188476
25	0x40f197f9	7.5498013
26	0x40aa713f	5.326324
27	0x412929f8	10.572746
28	0x405c630c	3.4435453
29	0x40be398b	5.9445243
30	0x4048759d	3.1321785
31	0x40ab2c73	5.349176
32	0x40b6d5e6	5.7136106
33	0x4096a5bf	4.7077327
34	0x40b830e5	5.7559686
35	0x406deaee	3.717464
36	0x409d7f1e	4.921767
37	0x403ca363	2.9474723
38	0x409d66b8	4.918789
39	0x407807f5	3.8754857
40	0x40845a5b	4.1360297
41	0x40b7bf99	5.7421384
42	0x4078b607	3.88611
43	0x40b960e3	5.793077
44	0x403a9742	2.915482
45	0x41039551	8.223954
46	0x40eddb6c	7.433035
47	0x408a2087	4.3164706
48	0x4084d37f	4.1508174
49	0x41024cf1	8.1437845
50	0x407df078	3.967802
51	0x4096fb32	4.7181635
52	0x40d8de94	6.77717
53	0x40d4f460	6.654831
54	0x40b3ab0b	5.6146293
55	0x41055480	8.33313
56	0x40b38bf8	5.610836
57	0x4076a5b3	3.8538635
58	0x4116d851	9.427812
59	0x40634410	3.5510292
60	0x40d5b53b	6.678373
61	0x404c9507	3.196596
62	0x4092d031	4.587914
63	0x4089189f	4.2842555
64	0x414ac7ef	12.673812
65	0x4088c939	4.2745633
66	0x409f5a36	4.979762
67	0x406d2a59	3.7057097
68	0x40a88ceb	5.267202
69	0x409b3897	4.850658
70	0x40ce3892	6.4444056
71	0x404e817c	3.226653
72	0x40964276	4.695613
73	0x40b24831	5.5713124
74	0x40a37f42	5.1092844
75	0x410d797b	8.842158
76	0x4091ef98	4.5604973
77	0x407c8cc5	3.946092
78	0x40c58b7d	6.1732774
79	0x406c7e1f	3.6951978
80	0x40b80128	5.750141
81	0x40c56eef	6.1697917
82	0x408fca47	4.493442
83	0x41063c83	8.389773
84	0x406f29cf	3.7369268
85	0x40b50328	5.6566353
86	0x4072477e	3.7856135
87	0x40684fa6	3.6298614
88	0x4096adc2	4.7087107
89	0x40ce3264	6.443651
90	0x4047a149	3.119219
91	0x40e68d98	7.2047844
92	0x4063cb27	3.5592744
93	0x408fc29d	4.4925065
94	0x40c04f38	6.0096703
95	0x404a4dfa	3.1610093

model/dense/BiasAdd/ReadVariableOp f4 [48]
0	0x3de14d56	0.11001079
1	0x3de0f329	0.10983879
2	0x3d544b34	0.05182953
3	0x3e030955	0.12796529
4	0x3d8113bc	0.06302592
5	0x3dd702ce	0.10498582
6	0x3e1cdf5f	0.15319584
7	0x3dbb1ed2	0.09136738
8	0xbd698d54	-0.057019547
9	0x3d1c8a25	0.038217682
10	0x3ce3be3c	0.027800672
11	0x3d1af7bb	0.03783391
12	0x3cb3c071	0.02194235
13	0x3d781612	0.060567923
14	0x3d573680	0.05254221
15	0x3d4fd95a	0.050744392
16	0x3d7eab72	0.06217522
17	0x3e13b49c	0.14424366
18	0xbcfea2bc	-0.031083457
19	0x3e222224	0.15833336
20	0x3d993790	0.07481301
21	0x3e0c5be0	0.13706923
22	0x3d8045d9	0.062633224
23	0x3dde7f57	0.10864132
24	0x3e076852	0.13223389
25	0x3dda5f51	0.106627114
26	0x3e07527c	0.13215059
27	0x3dfa684b	0.122269236
28	0x3c104a0c	0.008806717
29	0x3dddd096	0.108308
30	0x3d1f6482	0.03891421
31	0x3d2a01a6	0.04150548
32	0xbc744d28	-0.014910974
33	0x3d86531d	0.06558821
34	0x3cda2b63	0.026632017
35	0x3dc7d9ed	0.09758363
36	0x3d8b934d	0.06815205
37	0xbba1fab0	-0.0049432144
38	0x3a514028	0.00079822773
39	0x3e14af11	0.14519908
40	0x3d95deb8	0.07317871
41	0x3def2328	0.116766274
42	0x3e1173b9	0.14204301
43	0x3e165e93	0.14684515
44	0x3d740710	0.059577048
45	0x3e2bf29b	0.16791765
46	0x3dcabbb1	0.098990805
47	0x3e0d50ad	0.13800307

model/dense_1/BiasAdd/ReadVariableOp f4 [26]
0	0x3db0656b	0.08613094
1	0xbe0bf983	-0.136694
2	0xbc8a59e8	-0.016888574
3	0x3da3e499	0.08002586
4	0xbd193529	-0.037404213
5	0x3d381abd	0.044947375
6	0x3dce8f6a	0.10085948
7	0x3dbb915d	0.09158585
8	0x3e32cd4f	0.17461132
9	0x3e017895	0.12643655
10	0xbd9a0590	-0.07520592
11	0x3dcc8421	0.09986139
12	0x3de5990d	0.11210833
13	0xbbbf7052	-0.005842247
14	0xbeb5ed3c	-0.35532558
15	0xbebba104	-0.36646283
16	0xbeb658e9	-0.35614708
17	0xbebd1921	-0.36933234
18	0xbeb580b3	-0.35449752
19	0xbeaf6b67	-0.3426163
20	0xbeb4fa09	-0.35347012
21	0xbead4d86	-0.33848208
22	0xbead557d	-0.33854285
23	0xbeaa808c	-0.33301198
24	0xbebc6391	-0.36794713
25	0xbeae97c6	-0.3410017

model/gru/gru_cell/MatMul f4 [96, 126]
0	0x37093e9a	8.180412e-06
1	0x37c30627	2.3248676e-05
2	0x37232010	9.723022e-06
3	0x39f6d24e	0.00047077466
4	0xb8c4082c	-9.3475304e-05
5	0x39491f7b	0.00019180581
6	0x3a0f5b6c	0.000546864
7	0xb9061407	-0.00012786697
8	0x36072be0	2.0142106e-06
9	0x3ab9e036	0.00141812
10	0x39850032	0.00025367882
11	0xb9960fae	-0.00028621912
12	0x3b0d0696	0.0021518818
13	0x3ab4b49a	0.0013786734
14	0xb99845df	-0.00029043757
15	0x3a4faf10	0.00079225097
16	0x39607620	0.0002140631
17	0xb98750fe	-0.0002580955
18	0x3ab5d38d	0.0013872251
19	0x3a1f4d77	0.0006076912
20	0xb92dbc82	-0.0001656879
21	0x3a3f1d8c	0.00072904746
22	0xb643c4b0	-2.9171752e-06
23	0xb9989faf	-0.00029110673
24	0x3a346d12	0.0006882708
25	0x39157b65	0.00014255715
26	0xb8965532	-7.168426e-05
27	0x3a079507	0.0005172048
28	0xb9b7b6a6	-0.00035040564
29	0xb9afecc1	-0.00033554996
30	0x3aa2eafd	0.0012429651
31	0x3a8b1824	0.0010612053
32	0xb92d808f	-0.00016546457
33	0x3b24d90a	0.002515378
34	0x3a1be09e	0.00059462513
35	0xb9f78cca	-0.00047216407
36	0x3b1c709a	0.0023870827
37	0x39ea7fc1	0.00044727142
38	0xb8fe00f9	-0.00012111845
39	0x389cdad2	7.479418e-05
40	0x39779887	0.00023612576
41	0x38925dda	6.979304e-05
42	0x3a784d2e	0.000947195
43	0x3a121f65	0.0005574136
44	0xb9da4a36	-0.00041635492
45	0x3a17af0f	0.00057862786
46	0x38f3a2c2	0.00011617459
47	0xba85956a	-0.0010191624
48	0x3acdc5b9	0.0015699185
49	0x39d51857	0.0004064466
50	0xba21b1fc	-0.00061681843
51	0x398bfb74	0.00026699493
52	0xb99a3d29	-0.00029418737
53	0x397af982	0.00023934807
54	0x39980c45	0.0002900084
55	0xba4803c1	-0.0007629954
56	0x38f08230	0.00011468341
57	0x3a31781e	0.0006769913
58	0xba06e4e6	-0.0005145803
59	0x398f6ea0	0.00027357507
60	0x3a0bd991	0.0005334849
61	0xb8970e60	-7.202919e-05
62	0xb9a5ff64	-0.00031661533
63	0xb75050bf	-1.2416566e-05
64	0xb91fac5b	-0.00015227629
65	0x3983d492	0.00025144644
66	0xb936edc2	-0.00017445444
67	0x39f06bd9	0.0004585672
68	0x388d4504	6.736259e-05
69	0xb9767503	-0.00023503978
70	0x39fd7df3	0.0004834976
71	0x38c4b31d	9.379371e-05
72	0xb98d9835	-0.0002700702
73	0x39a59504	0.00031582278
74	0x38f1724e	0.000115130664
75	0xb903057d	-0.00012495178
76	0x39cbe96d	0.00038893093
77	0x369519e0	4.4435583e-06
78	0xb9c6d643	-0.0003792514
79	0x3a430bcf	0.0007440419
80	0xb7033cb8	-7.822346e-06
81	0xba19368d	-0.00058446155
82	0x397e62e5	0.00024260169
83	0xb647e9c0	-2.9789371e-06
84	0xb9fcde79	-0.0004823094
85	0x39f3e90a	0.000465222
86	0xb90642ba	-0.00012804093
87	0xba722166	-0.0009236544
88	0x3a79be5b	0.00095269614
89	0xb93635a0	-0.0001737685
90	0xba1d3d2a	-0.0005998189
91	0x3a2a7a20	0.00065031834
92	0xb5245880	-6.1223545e-07
93	0xba53aaba	-0.00080744515
94	0x3a54ac14	0.00081128
95	0x39345ce0	0.00017200736
96	0xba431842	-0.00074422744
97	0x3a2e2a62	0.0006643889
98	0xb88bee82	-6.672462e-05
99	0xba33f527	-0.00068648387
100	0x3a3a89ac	0.00071158516
101	0x38dc9930	0.00010518951
102	0xba168eda	-0.00057433324
103	0x3a12e9fd	0.0005604325
104	0x3925d076	0.00015813284
105	0xba303687	-0.00067219924
106	0x3a7e872e	0.00097094744
107	0x38a19b3e	7.705994e-05
108	0xba180c0f	-0.0005800137
109	0x3a11e3bf	0.0005565248
110	0x38fa1d33	0.00011926368
111	0xba1f58aa	-0.00060785806
112	0x3a909bd2	0.0011032766
113	0xb8f1b46c	-0.00011525382
114	0xb9e4155a	-0.00043503457
115	0x39a3d217	0.00031246312
116	0x392fb3fd	0.00016756351
117	0xb9fed4bf	-0.00048605163
118	0x3a0d3777	0.0005386988
119	0x3961d23e	0.00021535993
120	0xba46eb05	-0.0007588121
121	0x3a4f8c33	0.00079173147
122	0x384a8521	4.828454e-05
123	0xba3dce58	-0.00072405254
124	0x39d85806	0.00041264313
125	0x38a0bf6a	7.665048e-05
126	0xb8bd1457	-9.016011e-05
127	0xb7b3b116	-2.1420925e-05
128	0x38f060e9	0.00011462143
129	0x390e980c	0.00013598817
130	0xb999f184	-0.00029362377
131	0x39df8dd5	0.00042639548
132	0x3767e25c	1.3821376e-05
133	0x387fb4b4	6.096503e-05
134	0x38c841e6	9.549018e-05
135	0x3a90bf9c	0.0011043432
136	0x38fd72e5	0.00012085381
137	0x3955321f	0.00020331935
138	0x3a36cc16	0.000697316
139	0x3a50aead	0.0007960599
140	0x3a1d0dc0	0.00059911236
141	0x39a8b3f4	0.00032177533
142	0x392e352f	0.00016613746
143	0x39c45a88	0.00037451484
144	0x3a48b04d	0.00076556654
145	0x3a02fc32	0.00049966865
146	0x39cd5f33	0.00039171576
147	0xb9513611	-0.00019951935
148	0x3913ac00	0.00014083087
149	0x382cc23a	4.1188883e-05
150	0xbb13ff03	-0.0022582419
151	0x386d23f7	5.6538698e-05
152	0x39febab2	0.00048585754
153	0x39b7866f	0.0003500464
154	0x39b27d82	0.00034044316
155	0xb7ccbd2a	-2.4406781e-05
156	0x39569592	0.0002046435
157	0x3a1a6d52	0.0005890924
158	0x39d5358c	0.0004066642
159	0x38c13bcd	9.214096e-05
160	0x3a9e65d2	0.0012084788
161	0x3957c753	0.00020578252
162	0x36259d60	2.467852e-06
163	0xb9334278	-0.00017095532
164	0x39d14761	0.00039916768
165	0xb97067f7	-0.00022926914
166	0x39cfcea5	0.0003963608
167	0x3a003b94	0.00048916903
168	0xb9989aae	-0.00029106945
169	0x39f4be22	0.00046680967
170	0x3a37d55f	0.0007012691
171	0x3903a440	0.00012554321
172	0xb9c83c20	-0.0003819177
173	0x3a48e89a	0.0007664055
174	0xb9be5cdf	-0.00036308818
175	0x39f95b0d	0.0004756082
176	0x39ed889e	0.0004530595
177	0xb843daf1	-4.6695528e-05
178	0x39861154	0.00025571382
179	0x398b4362	0.0002656235
180	0xba7fdfe2	-0.0009760839
181	0xb986569b	-0.00025622998
182	0xb9644072	-0.00021767782
183	0x38a685cf	7.9404206e-05
184	0x3a5b74c1	0.00083715847
185	0x39eafb62	0.00044819253
186	0xba6ca130	-0.00090267044
187	0x3aaa7549	0.0013004924
188	0x3a2f91a3	0.0006697422
189	0xb793786f	-1.7579847e-05
190	0xb7ca6a46	-2.4129764e-05
191	0x38ac2bc6	8.2097526e-05
192	0xb9e78356	-0.00044157606
193	0x39faa22e	0.0004780455
194	0x37ac3d30	2.053249e-05
195	0xba0ab3a6	-0.0005291052
196	0x39cfb657	0.0003961797
197	0x3913fe57	0.00014113761
198	0xb9c89b38	-0.0003826262
199	0x39f7d654	0.00047271198
200	0xb8c3683f	-9.317742e-05
201	0xb9e1315a	-0.00042952114
202	0x390121f2	0.00012315044
203	0xb9b8f4b5	-0.00035277536
204	0xb9c60cdc	-0.00037775084
205	0x39d86ec6	0.00041281263
206	0x389d0b8f	7.488496e-05
207	0xba3de192	-0.00072433904
208	0x38a13b5f	7.688137e-05
209	0xb9589d62	-0.00020657995
210	0xba468b4d	-0.0007573858
211	0x39292372	0.000161303
212	0xb8bb374f	-8.927157e-05
213	0xba66cf31	-0.00088046776
214	0x393f333d	0.00018234267
215	0xb91b4502	-0.0001480766
216	0xb9c787ac	-0.0003805732
217	0xb901263d	-0.00012316644
218	0x3891f163	6.9591006e-05
219	0xb96d95d5	-0.00022657898
220	0x38be461e	9.072966e-05
221	0xb99c5206	-0.0002981575
222	0xba1bae35	-0.00059387396
223	0xb9b18d8a	-0.00033865526
224	0x3961958d	0.00021513384
225	0xb9876984	-0.00025827822
226	0x39800ec0	0.00024425052
227	0xb79d5970	-1.8757506e-05
228	0xb98f3e3b	-0.0002732145
229	0x39e3fdc5	0.00043485887
230	0x390831d3	0.00012988532
231	0xb9da9644	-0.00041692157
232	0x3865abbd	5.47578e-05
233	0x39110909	0.00013831643
234	0xba14feea	-0.0005683737
235	0x38f4624c	0.00011653136
236	0xb894b8b8	-7.0915965e-05
237	0xba2c46d4	-0.00065718335
238	0xb9911ebb	-0.0002767945
239	0x38a3b809	7.806725e-05
240	0xb98fa7ae	-0.00027400017
241	0xb925b374	-0.00015802478
242	0xb7ab41c4	-2.0415413e-05
243	0xb956d826	-0.00020489152
244	0xb947e7aa	-0.0001906442
245	0xb8d9fc8c	-0.00010394407
246	0xb9d175c9	-0.00039951343
247	0xba1dc799	-0.0006018817
248	0x392f2f3a	0.00016706894
249	0xba4e1e7c	-0.0007862819
250	0xb9a41839	-0.00031298565
251	0x3890ef18	6.91099e-05
252	0xb800ce3b	-3.0709645e-05
253	0x3851182e	4.9852002e-05
254	0xb8746820	-5.8271107e-05
255	0xba68f314	-0.0008886319
