app/src/main/assets/models/money_matters.tflite (tflite, 673196 bytes, 52 tensors)

model_4/batch_normalization_16/batchnorm/add_1;model_4/conv1d_8/Conv1D/Squeeze;model_4/batch_normalization_16/batchnorm/mul_1;model_4/conv1d_8/BiasAdd;model_4/conv1d_8/BiasAdd/ReadVariableOp;model_4/batch_normalization_16/batchnorm/mul;model_4/batch_normalization_16/batchnorm/sub;model_4/conv1d_8/Conv1D;model_4/conv1d_9/Conv1D f4 [96]
-0.08469135 -0.29042438 0.069692954 -0.26396698 0.07264594 -0.25040248 0.0027879477 -0.35579777
0.124053575 -0.34523967 0.20269708 0.31421778 -0.5476423 -0.685088 0.0065661278 -0.24501386
-0.09001424 0.47883928 -0.28726798 -0.1918133 0.5315552 -0.1822691 0.024175227 -0.1985523
0.2208018 -0.07256177 0.27491194 -0.14964646 0.46266034 -0.064590976 -0.006693772 -0.38727856
0.38837337 0.4874265 0.3415339 -0.46774784 -0.1586459 -0.23226123 -0.39859524 -0.7747628
-0.26933092 -0.52703714 -0.2211904 -0.00061984593 0.27990854 0.05058527 -0.25795436 -0.44143748
-0.6747157 -0.30889368 0.10275388 0.3559893 -0.46820343 -0.472237 0.0019573243 -0.14096272
-0.5823881 -0.29458925 -0.5252749 -0.32394323 0.19503346 0.010188274 0.12650132 -0.042658098
0.24191944 0.2826922 -0.23056956 -0.060743008 -0.12348962 0.084127486 -0.47842738 -0.27656657
-0.025026783 0.33351696 0.1074633 -0.17674986 -0.091336645 -0.48662314 -0.4238724 -0.22919889
-0.003189303 0.042096935 0.6233597 0.1524944 -0.21182437 0.37205175 -0.123278506 -0.076555975
-0.42207584 0.023107454 0.0253544 -0.5359824 -0.48920903 -0.14501646 0.31752837 -0.7499267
00000000: a972 adbd 81b2 94be 2ebb 8e3d ae26 87be
00000010: 65c7 943d c134 80be 00b6 363b 202b b6be
00000020: cd0f fe3d 41c3 b0be d38f 4f3e 27e1 a03e
00000030: 4932 0cbf ed61 2fbf ac28 d73b eae4 7abe
00000040: 6359 b8bd 6c2a f53e ca14 93be b56a 44be
00000050: 0014 083f c0a4 3abe 200b c63c 4b51 4bbe
00000060: de19 623e 449b 94bd 42c1 8c3e ec3c 19be
00000070: d1e1 ec3e 4648 84bd 6e57 dbbb 6049 c6be
00000080: e0d8 c63e f78f f93e 88dd ae3e a57c efbe
00000090: 1274 22be e3d5 6dbe ad14 ccbe db56 46bf
000000a0: bee5 89be e8eb 06bf bc7f 62be 287d 22ba
000000b0: 2c50 8f3e 8032 4f3d 9812 84be 1804 e2be
000000c0: 2bba 2cbf 5027 9ebe a070 d23d 3b44 b63e
000000d0: 5cb8 efbe 0cc9 f1be 7446 003b 8858 10be
000000e0: 6317 15bf 67d4 96be 6a78 06bf e3db a5be
000000f0: dab6 473e b8ec 263c 9089 013e 42ba 2ebd
00000100: bbb9 773e 08bd 903e 6d1a 6cbe a9cd 78bd
00000110: 20e8 fcbd 084b ac3d 6ff4 f4be 229a 8dbe
00000120: f804 cdbc bcc2 aa3e b815 dc3d eafd 34be
00000130: b50e bbbd ab26 f9be ce05 d9be 1db3 6abe
00000140: a003 51bb d66d 2c3d 8094 1f3f 7e27 1c3e
00000150: 7de8 58be 917d be3e 7179 fcbd 61c9 9cbd
00000160: 531a d8be d84b bd3c 08b4 cf3c 2436 09bf
00000170: 9b79 fabe 327f 14be 1493 a23e 32fb 3fbf

model_4/batch_normalization_17/batchnorm/add_1;model_4/conv1d_9/Conv1D/Squeeze;model_4/batch_normalization_17/batchnorm/mul_1;model_4/conv1d_9/BiasAdd;model_4/conv1d_9/BiasAdd/ReadVariableOp;model_4/batch_normalization_17/batchnorm/mul;model_4/batch_normalization_17/batchnorm/sub;model_4/conv1d_9/Conv1D f4 [96]
-0.18410774 -0.17774633 -0.102804914 -0.04011757 0.3213337 -0.18576883 0.102550924 -0.47468615
-0.15330903 0.04036708 -0.30488127 -0.20573974 -0.16952094 -0.56704336 -0.3986735 -0.19364443
-0.37620476 -0.5054624 -0.08742879 -0.16278118 0.13185838 0.12467682 -0.2638555 -0.6941919
-0.07464722 -0.2689651 0.018692965 -0.12047642 -0.17346302 -0.2053448 -0.34544414 0.08825153
-0.6657154 -0.13427898 -0.5371829 -0.5282647 0.09537892 -0.03384307 -0.5094956 -0.15727389
-0.17539838 -0.5074418 0.04724089 -0.10908904 -0.06130354 -0.30389348 -0.2572967 -0.039733704
-0.22300565 0.108179696 -0.1893049 2.149667 -0.4281116 -0.21707806 -0.24977003 -0.41578457
-0.20633304 -0.24440499 -0.09427406 0.08682507 -0.5733861 0.3187477 -0.7187256 -0.008340605
-0.083848074 -0.12076286 0.036237508 0.30229345 -0.6552258 -0.2558509 -0.5459583 -0.17710881
0.44527382 0.40680635 -0.20227163 1.0266429 -0.39141607 -0.7525951 -0.27580455 -0.20471315
-0.050579675 0.3842692 -0.119068325 -0.48525065 0.98201925 -0.58236206 -0.09279759 -0.18553512
-0.5056777 -0.35760552 -0.025434595 -0.107891925 0.08736691 -0.49883714 -0.38004583 0.06255427
00000000: bd86 3cbe 2203 36be 628b d2bd 5252 24bd
00000010: da85 a43e 2f3a 3ebe 3806 d23d 100a f3be
00000020: 0bfd 1cbe f457 253d 6619 9cbe 70ad 52be
00000030: e696 2dbe c129 11bf ef1e ccbe ba4a 46be
00000040: e99d c0be fc65 01bf de0d b3bd 1cb0 26be
00000050: e205 073e 9056 ff3d 1118 87be 8fb6 31bf
00000060: a4e0 98bd cbb5 89be fd21 993c 57bc f6bd
00000070: 4aa0 31be e845 52be 0ede b0be 38bd b43d
00000080: 536c 2abf 6e80 09be d284 09bf 5b3c 07bf
00000090: 0656 c33d 089f 0abd 4e6e 02bf 680c 21be
000000a0: a29b 33be b5e7 01bf aa7f 413d 136a dfbd
000000b0: 6c19 7bbd ed97 9bbe 65bc 83be cfbf 22bd
000000c0: 985b 64be 518d dd3d 25d9 41be 2594 0940
000000d0: 7231 dbbe b649 5ebe b7c3 7fbe b7e1 d4be
000000e0: f848 53be 4d45 7abe c212 c1bd 58d1 b13d
000000f0: 6ec9 12bf e632 a33e 67fe 37bf 08a7 08bc
00000100: 8ab8 abbd 8552 f7bd c86d 143d 35c6 9a3e
00000110: e1bc 27bf e4fe 82be ecc3 0bbf 035c 35be
00000120: eefa e33e ec48 d03e 4b20 4fbe 0969 833f
00000130: b067 c8be 13aa 40bf 4136 8dbe 53a0 51be
00000140: a22c 4fbd efbe c43e 18da f3bd c672 f8be
00000150: 9d65 7b3f ae15 15bf aa0c bebd ebfc 3dbe
00000160: 1874 01bf 1218 b7be 365c d0bc 71f6 dcbd
00000170: 6ced b23d 9567 ffbe 5e95 c2be 741c 803d

model_4/batch_normalization_16/batchnorm/mul_1;model_4/conv1d_8/Conv1D/Squeeze;model_4/conv1d_8/BiasAdd;model_4/conv1d_8/BiasAdd/ReadVariableOp;model_4/batch_normalization_16/batchnorm/mul;model_4/conv1d_8/Conv1D;model_4/conv1d_9/Conv1D f4 [96, 1, 3, 126]
-0.0017390571 0.00034961096 -0.003281757 0.057714716 0.06361807 0.0116169145 0.06437107 0.044436153
0.01820411 0.06979433 -0.00358221 0.020145647 0.08785435 -0.04545474 0.020665562 0.035705153
0.023078103 0.04103246 0.005969587 0.0015618358 0.0309783 0.004871806 0.032696236 0.025406038
0.005827392 0.078398034 0.024917893 0.031077527 -0.031716265 0.03409513 -0.004687835 -0.022419104
0.016402353 -0.005911552 0.027084429 0.012053168 -0.008165813 0.07673897 0.013420558 -0.018781818
-0.03893402 0.057614733 -0.04478722 -0.049615845 0.04026276 -0.027876286 -0.0037856076 0.03660369
-0.016035434 0.044518996 0.038436998 -0.05267479 -0.083306596 0.069274455 -0.069717765 -0.09337294
0.057868328 -0.05426824 -0.056336787 0.052662104 -0.037791185 -0.013974878 0.052043937 0.0009322362
0.0017797267 -0.00068163854 -0.045362946 0.06334365 0.050051533 -0.027644658 0.053886253 0.06856845
-0.015219079 0.044761878 0.077913776 -0.011158453 0.035317156 0.084701814 -0.003944318 -0.013786778
0.042546175 -0.020916572 0.015918355 0.047692366 -0.04311594 0.030760387 0.0492838 -0.06277593
0.050763637 0.0489698 -0.02344843 -0.041400455 0.020069577 -0.055112407 0.004153171 0.023749597
-0.07602967 0.027152095 0.023369404 -0.09133238 0.051635213 0.021601597 0.0079739755 -0.01571378
0.012839055 -0.021621244 0.0104337875 0.022460753 -0.050131544 0.021271305 0.02193475 -0.074545644
0.035308857 0.017380897 -0.002193903 -0.016438281 0.004296516 -0.019670567 -0.011252734 0.009077056
-0.047270395 -0.020278314 0.0027759431 -0.075779125 -0.025772514 -0.005137523 -0.0010306087 -0.0008956716
-0.0025011855 0.05505212 0.064039834 0.011105106 0.059281047 0.044750046 0.018114323 0.06294996
-0.00281511 0.021176346 0.08057899 -0.044383045 0.02272242 0.030670749 0.02779308 0.03952958
1.8610437e-05 0.008661432 0.031108899 -0.0020439597 0.04011043 0.026440205 -0.001706303 0.08621358
0.026679128 0.027433086 -0.025089333 0.03278261 -0.0080181835 -0.013100752 0.01603308 -0.009157867
0.03661795 0.012919063 -0.011670268 0.08743423 0.014685104 -0.021293195 -0.030333128 0.057080716
-0.046905898 -0.03957352 0.04168429 -0.030169789 0.0050294735 0.038679056 -0.017934874 0.053016882
0.040655006 -0.053649664 -0.07537318 0.06987931 -0.07021167 -0.08561194 0.05986522 -0.05420582
-0.049754318 0.05489359 -0.03775297 -0.007676435 0.054431245 0.001867968 0.0015130884 0.00010119876
-0.046772458 0.063540585 0.050387125 -0.02951432 0.052606203 0.06837306 -0.017800907 0.041619696
0.07629099 -0.015370734 0.030695474 0.08238951 -0.0070711956 -0.011867826 0.042611733 -0.02685323
0.019690644 0.04641639 -0.051621098 0.035273325 0.046705008 -0.07342522 0.05683764 0.04577512
-0.02483542 -0.038809463 0.021363173 -0.05968367 0.007546578 0.024011912 -0.0837576 0.031539787
0.022707006 -0.10159181 0.05742243 0.01959689 0.007382309 -0.013071011 0.01371006 -0.025798291
0.013034815 0.02235625 -0.057453807 0.024343424 0.021356951 -0.08469656 0.039273914 0.015861752
-0.0032645129 -0.014298009 0.0054462138 -0.023009991 -0.010307728 0.009504071 -0.052639592 -0.020019915
0.002300424 -0.08374731 -0.02546037 -0.0061834157 -0.00048529575 -5.7559846e-05 -0.0016502185 0.054499514
00000000: 13f1 e3ba fd4b b739 bf12 57bb 4466 6c3d
00000010: 314a 823d df54 3e3c fbd4 833d af02 363d
00000020: c920 953c 54f0 8e3d 83c3 6abb 7c08 a53c
00000030: fbec b33d c02e 3abd d34a a93c 913f 123d
00000040: 4a0e bd3c a711 283d 869c c33b 83b6 cc3a
00000050: 34c6 fd3c aca3 9f3b 7dec 053d 5320 d03c
00000060: b5f3 be3b 268f a03d 9c20 cc3c 4c96 fe3c
00000070: eae8 01bd 56a7 0b3d 699c 99bb 45a8 b7bc
00000080: 3a5e 863c b1b5 c1bb 2ae0 dd3c a77a 453c
00000090: e7c9 05bc 5229 9d3d e6e1 5b3c 54dc 99bc
000000a0: 4779 1fbd 6dfd 6b3d ce72 37bd fc39 4bbd
000000b0: 90ea 243d cf5c e4bc f517 78bb c0ed 153d
000000c0: be5c 83bc 8d59 363d 1d70 1d3d 85c1 57bd
000000d0: a69c aabd c4df 8d3d 30c8 8ebd 503a bfbd
000000e0: 5707 6d3d 6048 5ebd 67c1 66bd 38b4 573d
000000f0: eeca 1abd e3f6 64bc 062c 553d 5061 743a
00000100: b845 e93a fdaf 32ba 7fce 39bd 51ba 813d
00000110: d602 4d3d 0d77 e2bc d5b7 5c3d 9e6d 8c3d
00000120: 7259 79bc 3b58 373d 4291 9f3d f2d1 36bc
00000130: b9a8 103d 2578 ad3d 563f 81bb f0e1 61bc
00000140: e644 2e3d 3b59 abbc 3667 823c 1259 433d
00000150: 579a 30bd 35fd fb3c cfdd 493d ab90 80bd
00000160: 88ed 4f3d 8f94 483d ec16 c0bc 8693 29bd
00000170: f468 a43c 8cbd 61bd 5317 883b 848e c23c
00000180: 72b5 9bbd 126e de3c 3171 bf3c 790c bbbd
00000190: 727f 533d d5f5 b03c 47a5 023c 2fba 80bc
000001a0: e65a 523c 091f b1bc 7af2 2a3c 9dff b73c
000001b0: bc56 4dbd 2941 ae3c 81b0 b33c 63ab 98bd
000001c0: 05a0 103d 6262 8e3c 96c7 0fbb 93a9 86bc
000001d0: cac9 8c3b 2b24 a1bc 635d 38bc efb7 143c
000001e0: 9a9e 41bd b51e a6bc 99ec 353b 1632 9bbd
000001f0: e120 d3bc ab58 a8bb 7d15 87ba 81cb 6aba
00000200: eeea 23bb 557e 613d 5127 833d 31f2 353c
00000210: afd0 723d d34b 373d 7d64 943c e9eb 803d
00000220: b57d 38bb 047a ad3c 9906 a53d ffca 35bd
00000230: 5e24 ba3c 3941 fb3c 50ae e33c c5e9 213d
00000240: 9c1d 9c37 aee8 0d3c 17d8 fe3c f4f3 05bb
00000250: d64a 243d 2199 d83c 07a6 dfba bf90 b03d
00000260: 308e da3c 5abb e03c 2588 cdbc 0f47 063d
00000270: b35e 03bc 89a4 56bc ce57 833c e10a 16bc
00000280: b4fc 153d 7aaa 533c a734 3fbc b810 b33d
00000290: ca99 703c 116f aebc 2e7d f8bc 78cd 693d
000002a0: 6620 40bd d817 22bd 25bd 2a3d a226 f7bc
000002b0: 48ce a43b ee6d 1e3d 28ec 92bc 3b28 593d
000002c0: dd85 263d c0bf 5bbd 415d 9abd e21c 8f3d
000002d0: 23cb 8fbd 5055 afbd 3c35 753d ec06 5ebd
000002e0: 2fcb 4bbd 1ad8 603d dca2 1abd 9b8a fbbb
000002f0: 4cf3 5e3d 9bd6 f43a d252 c63a ac3a d438
00000300: 7a94 3fbd 9121 823d bb62 4e3d 04c8 f1bc
00000310: 9a79 573d 2d07 8c3d 35d3 91bc 6a79 2a3d
00000320: 733e 9c3d 88d5 7bbc 1375 fb3c d5bb a83d
00000330: 7db5 e7bb 4571 42bc a489 2e3d 4efb dbbc
00000340: 464e a13c 1d1f 3e3d a570 53bd c37a 103d
00000350: c04d 3f3d f65f 96bd 96ce 683d b17e 3b3d
00000360: a773 cbbc acf6 1ebd d201 af3c dd76 74bd
00000370: 4949 f73b a1b4 c43c 1b89 abbd dd2f 013d
00000380: 0b04 ba3c 5e0f d0bd c833 6b3d a889 a03c
00000390: 4ce7 f13b cb27 56bc 29a0 603c f056 d3bc
000003a0: fa8f 553c 7424 b73c af54 6bbd dc6b c73c
000003b0: c6f4 ae3c 6475 adbd afdd 203d 81f0 813c
000003c0: 70f1 55bb 3242 6abc 2776 b23b 737f bcbc
000003d0: bfe1 28bc f7b6 1b3c 9d9c 57bd ce00 a4bc
000003e0: b6c2 163b b683 abbd 4492 d0bc 409e cabb
000003f0: 4b6f feb9 6a6c 71b8 254c d8ba e23a 5f3d

model_4/batch_normalization_17/batchnorm/mul_1;model_4/conv1d_9/Conv1D/Squeeze;model_4/conv1d_9/BiasAdd;model_4/conv1d_9/BiasAdd/ReadVariableOp;model_4/batch_normalization_17/batchnorm/mul;model_4/conv1d_9/Conv1D f4 [96, 1, 3, 96]
-0.017580008 0.03609046 -0.0039236504 -0.03836552 0.030240718 0.05422412 -0.0022710583 0.0063791787
0.02436024 0.0032574742 0.016808273 -0.031757455 0.016697068 0.006094439 0.01731051 -0.007569564
-0.02357675 -0.051281508 -0.0021099711 0.017849922 -0.007851701 0.0070775696 -0.16624556 0.0071996367
-0.019648107 0.023003463 0.03495006 0.050082177 -0.045260455 0.055135187 0.026171813 0.02099489
-0.012447609 -0.029421808 -0.010361827 0.05631173 0.037949473 0.038663115 0.078127906 0.038427625
0.05152032 0.058670342 0.108119875 0.050309815 -0.0014902262 -0.024798384 0.003843396 0.0005876593
0.0054371567 0.0763874 0.015029495 -0.005089023 0.032827273 0.05212949 -0.014738151 -0.024525866
0.04026113 0.060104746 0.041279536 0.058056735 0.004357404 0.012107094 -0.14735103 0.011678284
-0.011124297 -0.096865386 -0.0072529567 -0.02470746 0.035587564 0.020147257 0.039297678 -0.021873364
0.03825291 -0.015416073 -0.045378044 0.047898788 -0.018844597 -0.012359209 0.0626189 -0.0053419163
-0.025774362 0.06867011 -0.016860334 0.023734365 0.030413276 0.033182543 0.07840619 0.020154359
0.0632981 -0.0115657225 0.0009817559 0.012547181 0.033262376 -0.03385852 -0.027209021 -0.05020538
-0.021475552 0.044988886 -0.001754029 -0.041222025 0.038886882 0.061795577 -0.014598749 0.015266842
0.025157038 0.0014443859 0.009685028 -0.03113168 0.016994586 0.0011095956 0.021665934 -0.0036488133
-0.030090092 -0.05096308 -0.0031173294 0.021138491 -0.004014063 0.009625079 -0.15737069 0.006134453
-0.022618985 0.0305606 0.034129772 0.04958382 -0.050157495 0.063716754 0.033730756 0.03071171
-0.012966028 -0.028070915 -0.011388615 0.06444111 0.04162682 0.042521317 0.07821767 0.0432434
0.059062548 0.067311555 0.11135701 0.05936318 -0.0015562675 -0.032115087 -0.0004527837 -0.0025662573
0.006392363 0.08619031 0.011547494 -0.006954134 0.031784955 0.057534896 -0.0133570265 -0.029430479
0.04050932 0.067374 0.0383696 0.064724736 0.004030666 0.019829003 -0.13910328 0.013559095
-0.011885001 -0.094605 -0.007917139 -0.026376663 0.039260026 0.021511901 0.040239215 -0.02529504
0.04912768 -0.019260991 -0.05167263 0.043185692 -0.020931685 -0.015683707 0.06818338 -0.00968966
-0.030707847 0.078243114 -0.017457861 0.02274362 0.03942337 0.033400908 0.08297433 0.023774013
0.069562145 -0.020960335 -0.0019931176 0.021285463 0.032946806 -0.034771245 -0.022964962 -0.061087877
-0.020908037 0.042457625 -0.0035413469 -0.035376914 0.037880022 0.05565259 -0.00982336 0.00817552
0.02519398 0.00026422134 0.0138527835 -0.029314864 0.014457608 -0.0027920532 0.016422005 -0.008577155
-0.030196534 -0.049325958 -0.003196404 0.015513886 -0.0136373285 0.010470287 -0.1467876 0.0060500577
-0.024420647 0.026423158 0.036840875 0.050569236 -0.047125705 0.048716802 0.033333737 0.022937639
-0.014239537 -0.02692256 -0.008881145 0.05549645 0.042847116 0.04192023 0.07708745 0.02699962
0.04505646 0.06196576 0.111019336 0.054170754 -0.0025962128 -0.028027829 -0.0071783517 -0.0061947536
-0.001531182 0.08284021 0.016130319 -0.005257646 0.03219796 0.051567923 -0.015033379 -0.027619531
0.036987502 0.061259974 0.027745472 0.06086301 0.0036141134 0.0146915745 -0.13051133 0.014129335
00000000: f303 90bc 97d3 133d f791 80bb 2a25 1dbd
00000010: 62bb f73c 1c1a 5e3d 09d6 14bb 6e08 d13b
00000020: 208f c73c 597b 553b 81b1 893c 1b14 02bd
00000030: 4ac8 883c dcb3 c73b c5ce 8d3c 1b0a f8bb
00000040: 0724 c1bc 8f0c 52bd 7147 0abb 003a 923c
00000050: 6ca4 00bc f5ea e73b 473c 2abe eeea eb3b
00000060: 11f5 a0bc c271 bc3c cb27 0f3d f822 4d3d
00000070: 0763 39bd 6fd5 613d 4566 d63c 7afd ab3c
00000080: 0ef1 4bbc 0106 f1bc a7c4 29bc 21a7 663d
00000090: e870 1b3d 375d 1e3d 8601 a03d 4966 1d3d
000000a0: f906 533d 5050 703d f46d dd3d aa11 4e3d
000000b0: b253 c3ba fb25 cbbc 7ce1 7b3b 260d 1a3a
000000c0: 2d2a b23b ff70 9c3d 453e 763c d2c1 a6bb
000000d0: e475 063d bb85 553d 4978 71bc 78ea c8bc
000000e0: dbe8 243d 6530 763d bb14 293d e6cc 6d3d
000000f0: 8ec8 8e3b d55c 463c 30e3 16be 4656 3f3c
00000100: af42 36bc 5c61 c6bd 36aa edbb 4d67 cabc
00000110: 44c4 113d dc0b a53c 9af6 203d c52f b3bc
00000120: 15af 1c3d b293 7cbc 54de 39bd 8531 443d
00000130: fc5f 9abc 487e 4abc 563e 803d 3e0b afbb
00000140: c124 d3bc eaa2 8c3d af1e 8abc 926e c23c
00000150: 4325 f93c 6bea 073d 6d93 a03d c11a a53c
00000160: 6fa2 813d 287e 3dbc 43ae 803a b192 4d3c
00000170: 213e 083d 3baf 0abd 74e5 debc 28a4 4dbd
00000180: 7fed afbc 4446 383d 72e7 e5ba 6dd8 28bd
00000190: da47 1f3d 5c1d 7d3d 972f 6fbc c721 7a3c
000001a0: 2216 ce3c 8c51 bd3a f4ad 1e3c dd07 ffbc
000001b0: 3b38 8b3c da6f 913a c27c b13c ee20 6fbb
000001c0: 7f7f f6bc aabe 50bd 1c4c 4cbb a12a ad3c
000001d0: 6788 83bb 82b2 1d3c c825 21be 8603 c93b
000001e0: 734b b9bc 395a fa3c a9cb 0b3d 6718 4b3d
000001f0: f271 4dbd ee7d 823d 4329 0a3d 2097 fb3c
00000200: 776f 54bc faf4 e5bc 5097 3abc b3f9 833d
00000210: e280 2a3d d52a 2e3d 9630 a03d fe1f 313d
00000220: 92eb 713d a4da 893d 250f e43d ce26 733d
00000230: acfb cbba 1c8b 03bd 9963 edb9 a72e 28bb
00000240: 0777 d13b 8c84 b03d b331 3d3c 81df e3bb
00000250: f130 023d b6a9 6b3d 6ed7 5abc 3018 f1bc
00000260: 1aed 253d 61fb 893d 7129 1d3d 678e 843d
00000270: ad13 843b 6f70 a23c 1771 0ebe f726 5e3c
00000280: 4fb9 42bc 44c0 c1bd e3b6 01bc df13 d8bc
00000290: 1fcf 203d ba39 b03c e0d1 243d 8b37 cfbc
000002a0: 1b3a 493d 3ac9 9dbc aea6 53bd 7be3 303d
000002b0: ed78 abbc 1e7b 80bc baa3 8b3d 61c1 1ebc
000002c0: 068f fbbc ed3d a03d ca03 8fbc d450 ba3c
000002d0: 667a 213d 64cf 083d 72ee a93d b8c1 c23c
000002e0: 9976 8e3d 02b5 abbc f79e 02bb da5e ae3c
000002f0: 3bf3 063d 4b6c 0ebd 0421 bcbc 4837 7abd
00000300: 5547 abbc 0ce8 2d3d f115 68bb 62e7 10bd
00000310: 1528 1b3d f8f3 633d 28f2 20bc 9ef2 053c
00000320: 9b63 ce3c 3087 8a39 c9f6 623c ba25 f0bc
00000330: 9adf 6c3c e1fa 36bb 7187 863c 3287 0cbc
00000340: b95e f7bc 040a 4abd c37a 51bb f42d 7e3c
00000350: 1a6f 5fbc 918b 2b3c 7d4f 16be 903f c63b
00000360: cf0d c8bc 6175 d83c 75e6 163d b021 4f3d
00000370: e206 41bd 458b 473d f588 083d b7e7 bb3c
00000380: f24c 69bc b38c dcbc 3982 11bc 3f50 633d
00000390: 7580 2f3d 8cb4 2b3d 06e0 9d3d 4f2e dd3c
000003a0: 1f8d 383d cfcf 7d3d 1b5e e33d 27e2 5d3d
000003b0: 3925 2abb 9e9a e5bc 6138 ebbb 5cfd cabb
000003c0: f1b1 c8ba 21a8 a93d bb23 843c 5548 acbb
000003d0: 02e2 033d e338 533d 904e 76bc 5b42 e2bc
000003e0: 3580 173d bdeb 7a3d 794a e33c 7e4b 793d
000003f0: c3da 6c3b eeb4 703c c3a4 05be ba7e 673c

model_4/gru_9/gru_cell/strided_slice_4 f4 [48]
-0.12538078 -0.13917607 -0.1064545 -0.029103797 0.05395969 -0.05900556 -0.2904621 -0.01910972
0.0052546966 -0.048000373 -0.03393574 0.010347616 -0.084927 -0.104917765 -0.047209945 -0.106485054
-0.033264063 0.022839373 -0.051642034 -0.113713704 -0.070468225 0.00023142855 -0.17321719 0.015442182
-0.08668763 -0.085733384 -0.093343206 -0.10187617 0.022441586 0.08793817 -0.0007011014 -0.026407396
-0.010138465 0.063686 0.057724886 0.04165117 -0.1500593 0.003985751 -0.12565969 -0.030177832
-0.026549006 -0.1160032 0.09896169 -0.07484038 -0.056998827 -0.002155129 -0.017496103 0.014794243
00000000: d263 00be 2c84 0ebe d104 dabd 166b eebc
00000010: d604 5d3d d0af 71bd 73b7 94be fd8b 9cbc
00000020: 972f ac3b 0a9c 44bd 3400 0bbd 0c89 293c
00000030: 35ee adbd 20df d6bd 375f 41bd d614 dabd
00000040: e63f 08bd a319 bb3c 9986 53bd bbe2 e8bd
00000050: a551 90bd a1ab 7239 d95f 31be 3501 7d3c
00000060: 4989 b1bd fc94 afbd b92a bfbd 74a4 d0bd
00000070: 6bd7 b73c ed18 b43d 1eca 37ba 5354 d8bc
00000080: ce1b 26bc ce6d 823d ee70 6c3d 6b9a 2a3d
00000090: 25a9 19be e79a 823b efac 00be 8037 f7bc
000000a0: 4d7d d9bc 1693 edbd 6dac ca3d ea45 99bd
000000b0: 9a77 69bd 113d 0dbb fd53 8fbc 8d63 723c

model_4/gru_9/gru_cell/strided_slice_3 f4 [48]
0.18710572 0.040536374 0.04844403 0.24147205 0.09120875 0.048894085 0.008083133 -0.03958066
0.23967704 -0.1552835 -0.13974567 0.1637342 0.13981785 0.15886532 -0.02578164 -0.029968249
-0.13230957 0.21993318 -0.13055737 0.19565094 -0.03279201 0.0961611 0.084549844 -0.16488037
-0.18479322 -0.064483 0.0065162815 -0.13186345 0.12794685 0.110597394 0.05356539 0.025476884
-0.14863114 -0.028645746 -0.14974336 0.16938807 -0.01447398 -0.06637648 0.009469368 0.19949791
-0.0064975666 -0.0021516227 -0.03593843 -0.028936202 -0.005993239 0.034321427 0.31109986 0.111987635
00000000: a498 3f3e 7809 263d 3f6d 463d 7344 773e
00000010: a7cb ba3d 2a45 483d 1e6f 043c 551f 22bd
00000020: e66d 753e a302 1fbe 7d19 0fbe f0a9 273e
00000030: 692c 0f3e 97ad 223e 0534 d3bc f97f f5bc
00000040: 297c 07be 2a36 613e d5b0 05be b858 483e
00000050: ea50 06bd 1cf0 c43d 7828 ad3d 66d6 28be
00000060: 6f3a 3dbe aa0f 84bd 8886 d53b 3607 07be
00000070: 8004 033e e380 e23d 6267 5b3d e6b4 d03c
00000080: c332 18be 7caa eabc 5356 19be 1174 2d3e
00000090: 4624 6dbc 64f0 87bd 6825 1b3c 2e49 4c3e
000000a0: 8ae9 d4bb 3d02 0dbb 2d34 13bd 9d0b edbc
000000b0: ef62 c4bb a094 0c3d 7b48 9f3e c659 e53d

model_4/gru_9/gru_cell/strided_slice_5 f4 [48]
0.012843647 0.024275344 0.0705382 -0.08437687 -0.24874038 -0.0031595477 -0.11332358 0.12842646
-0.13098006 -0.0033017942 0.050593495 0.071359925 0.014522924 0.00895264 -0.0051505943 0.016946407
-0.009438168 -0.12147089 0.051474437 0.15002929 -0.03429077 -0.0719851 -0.102891475 -0.20446585
-0.012100209 -0.16105944 -0.19481403 -0.058922164 -0.08538922 -0.011700863 -0.03795011 0.10696773
-0.16038948 0.061633814 -0.06329054 0.09214966 -0.05648882 -0.133559 -0.21409683 0.17002034
0.068090454 -0.010293047 -0.09341033 -0.029775184 -0.21871768 -0.064789295 -0.166726 0.05067024
00000000: 296e 523c 16dd c63c 5576 903d c8cd acbd
00000010: ccb5 7ebe 6a10 4fbb 3116 e8bd 3a82 033e
00000020: a31f 06be ea62 58bb 203b 4f3d 2725 923d
00000030: 8ff1 6d3c 18ae 123c 51c6 a8bb 31d3 8a3c
00000040: 8ca2 1abc bbc5 f8bd dcd6 523d 47a1 193e
00000050: 7a74 0cbd ed6c 93bd c4b8 d2bd 7f5f 51be
00000060: f43f 46bc c4ec 24be 547d 47be 5e58 71bd
00000070: 8be0 aebd fab4 3fbc 9371 1bbd e611 db3d
00000080: 243d 24be bd73 7c3d 789e 81bd f6b8 bc3d
00000090: d260 67bd b1c3 08be 333c 5bbe d019 2e3e
000000a0: 0273 8b3d 2ba4 28bc ea4d bfbd 16eb f3bc
000000b0: 87f7 5fbe 40b0 84bd 38ba 2abe 998b 4f3d

model_4/gru_9/gru_cell/strided_slice_11 f4 [48]
0.018172916 -0.02537621 0.03913217 -0.046030864 -0.20893322 -0.0079518575 -0.0473573 0.14620656
-0.05609546 -0.037918065 0.04835656 0.044964135 0.012783277 -0.035552464 -0.03764952 -0.025243673
0.0746074 -0.13682868 0.023870457 0.09104569 0.017545504 -0.031620532 -0.034608454 -0.18248568
0.00637399 -0.10101272 -0.08251741 -0.062119123 -0.11004503 -0.026474059 0.012956085 0.06521328
-0.16313474 -0.017940702 -0.075489 0.049328342 -0.012577611 -0.11739387 -0.14614949 0.080130756
0.0963183 0.005421929 -0.10545212 -0.042757764 -0.12479734 -0.04337366 -0.14326559 0.042319022
00000000: 5edf 943c c5e1 cfbc 0e49 203d dc8a 3cbd
00000010: 97f2 55be 8248 02bc baf9 41bd 2cb7 153e
00000020: 5ac4 65bd f94f 1bbd 8711 463d 502c 383d
00000030: f370 513c 769f 11bd 6236 1abd d2cb cebc
00000040: c4cb 983d d11c 0cbe fa8b c33c 2a76 ba3d
00000050: 97bb 8f3c 8884 01bd 98c1 0dbd 87dd 3abe
00000060: e7dc d03b c2df cebd e3fe a8bd 9f70 7ebd
00000070: 4a5f e1bd 20e0 d8bc c245 543c 8a8e 853d
00000080: cb0c 27be 61f8 92bc fa99 9abd 840c 4a3d
00000090: 5312 4ebc 336c f0bd 36a8 15be 981b a43d
000000a0: 8742 c53d 70aa b13b 48f7 d7bd c422 2fbd
000000b0: bf95 ffbd 94a8 31bd 37b4 12be b656 2d3d

model_4/gru_8/gru_cell/strided_slice_4 f4 [96]
-0.070772454 -0.06464252 -0.052584317 -0.08086451 -0.063731 -0.1577525 -0.12085552 -0.13081877
-0.08308763 -0.036288418 -0.14710493 -0.08522738 -0.041917123 0.06259377 -0.055240404 0.09481102
0.12561384 0.013518806 -0.051597618 -0.059223164 0.07218927 0.23099592 -0.14860193 0.0076657515
0.017703803 0.04953067 0.004771065 0.104771554 -0.13397683 -0.007640869 0.025484595 -0.007552151
-0.041446414 0.048592832 0.0077456404 -0.11290388 -0.17893001 -0.10521988 -0.041061208 -0.03365884
-0.10900239 -0.07160211 0.010225148 -0.18198432 0.0008887378 -0.012829161 -0.03559919 -0.11052536
0.047709446 -0.037178423 -0.071483225 -0.042017426 -0.067727536 0.06433043 -0.08320264 -0.096711144
0.059769988 0.010192213 -0.076402925 0.0009192498 -0.14511704 -0.040725026 -0.042708933 -0.103059694
-0.012089426 -0.17591324 0.11343425 -0.07931564 0.036071885 0.0032195817 0.061336815 -0.09255944
0.115024 -0.12255255 -0.033794366 0.06471341 -0.07410129 -0.06985477 -0.058500297 -0.07673136
0.07299041 -0.06846956 0.09005227 -0.015052336 -0.0774935 -0.040434103 0.007797431 -0.006978484
0.01913718 0.09004131 -0.042228322 -0.012470998 0.012838808 -0.06604729 -0.14107016 -0.047204506
00000000: 26f1 90bd 4c63 84bd a762 57bd 4b9c a5bd
00000010: 6685 82bd df89 21be 1983 f7bd 5bf5 05be
00000020: d929 aabd 2aa3 14bd ada2 16be b18b aebd
00000030: 4ab1 2bbd 2a31 803d c343 62bd 482c c23d
00000040: eaa0 003e fb7d 5d3c 0658 53bd fd93 72bd
00000050: f8d7 933d 328a 6c3e 1b2b 18be fc30 fb3b
00000060: 9107 913c ace0 4a3d 9856 9c3b 7892 d63d
00000070: 3931 09be 4160 fabb 12c5 d03c 0978 f7bb
00000080: b7c3 29bd 4709 473d 24cf fd3b 263a e7bd
00000090: 6e39 37be 857d d7bd cc2f 28bd dadd 09bd
000000a0: a53c dfbd 21a4 92bd 6187 273c 195a 3abe
000000b0: 2ffa 683a 6731 52bc 75d0 11bd 1f5b e2bd
000000c0: fb6a 433d 6748 18bd cc65 92bd 771a 2cbd
000000d0: bcb4 8abd acbf 833d 2566 aabd 7e10 c6bd
000000e0: 60d1 743d 3dfd 263c 2379 9cbd cff9 703a
000000f0: 9099 14be 49cf 26bd 90ef 2ebd f610 d3bd
00000100: ba12 46bc 9a22 34be 3750 e83d 3d70 a2bd
00000110: 1dc0 133d 9eff 523b 503c 7b3d ce8f bdbd
00000120: b491 eb3d d5fc fabd f66b 0abd 7788 843d
00000130: 6bc2 97bd 0510 8fbd 029e 6fbd 5525 9dbd
00000140: ff7b 953d c539 8cbd 536d b83d 139e 76bc
00000150: eab4 9ebd 3b9e 25bd 9881 ff3b c4ab e4bb
00000160: 93c5 9c3c 9467 b83d 9bf7 2cbd 2853 4cbc
00000170: dd59 523c cd43 87bd b274 10be 8359 41bd

model_4/gru_8/gru_cell/strided_slice_3 f4 [96]
0.23938836 -0.45864052 -0.22777298 0.040690713 -0.28214672 -0.24583028 0.104499966 -0.35367504
-0.001279468 -0.12542422 0.030412743 -0.14141758 -0.12923135 -0.2091331 -0.12564522 0.14410649
-0.33921307 -0.23399866 -0.23229171 0.044830665 -0.19255893 -0.1800652 -0.30942696 -0.488796
-0.32854983 -0.29268092 0.03876454 0.32894045 -0.038373247 -0.11024757 0.066285335 0.13599229
-0.0090820575 0.13547587 -0.36854059 -0.018500416 -0.014414402 -0.09465558 -0.3416828 -0.2132248
-0.3736275 0.108681 0.05740996 -0.3158748 -0.123289555 0.17696925 -0.2409049 0.025453106
0.19233617 -0.13556136 -0.016218673 0.04120774 0.11792971 -0.3484567 -0.16230008 -0.06460872
0.1470104 -0.34996286 -0.18865928 0.085164994 -0.23999181 0.08665288 -0.017623477 -0.29956532
-0.089610875 -0.3782527 0.018933997 -0.019419715 -0.122459024 0.011223436 0.1996739 -0.11997514
-0.041132413 -0.4276535 0.18005425 -0.29507583 0.12941596 -0.020500008 0.025119761 -0.3193322
0.0037827974 -0.45321384 -0.1600095 -0.29672375 -0.18460494 -0.12560403 -0.08746234 0.17200227
-0.26818472 0.2120306 0.046097137 -0.049467094 -0.18809162 -0.17811048 -0.18634407 -0.19616468
00000000: 3922 753e eed2 eabe 523d 69be 4eab 263d
00000010: 8975 90be efba 7bbe 1404 d63d e514 b5be
00000020: d2b3 a7ba 356f 00be 2524 f93c c5cf 10be
00000030: 3955 04be fd26 56be 24a9 00be a790 133e
00000040: 56ad adbe 589d 6fbe e1dd 6dbe 5ca0 373d
00000050: 2b2e 45be 0363 38be 366d 9ebe 7843 fabe
00000060: af37 a8be 46da 95be 91c7 1e3d e26a a83e
00000070: 442d 1dbd 7ac9 e1bd 9bc0 873d 9041 0b3e
00000080: e9cc 14bc 30ba 0a3e 5ab1 bcbe 2f8e 97bc
00000090: 622a 6cbc c9da c1bd 0cf1 aebe 9a57 5abe
000000a0: 1b4c bfbe 2594 de3d b526 6b3d 57ba a1be
000000b0: 3c7f fcbd 6d37 353e c6af 76be 0883 d03c
000000c0: c6f3 443e 99d0 0abe 06dd 84bc 72c9 283d
000000d0: 2285 f13d eb68 b2be fe31 26be 9451 84bd
000000e0: e589 163e 552e b3be e62f 41be fc6a ae3d
000000f0: 6ac0 75be 1177 b13d 1c5f 90bc a060 99be
00000100: e885 b7bd 57aa c1be 781b 9b3c 1816 9fbc
00000110: cccb fabd 81e2 373c 5177 4c3e 87b5 f5bd
00000120: 767a 28bd 66f5 dabe 2460 383e 2e14 97be
00000130: 9e85 043e a2ef a7bc f5c7 cd3c 837f a3be
00000140: cfe8 773b a50b e8be 88d9 23be 2dec 97be
00000150: 1409 3dbe 589e 00be 751f b3bd 5d21 303e
00000160: 824f 89be 8d1e 593e 5ad0 3c3d 029e 4abd
00000170: 179b 40be 9862 36be fbd0 3ebe 65df 48be

model_4/gru_8/gru_cell/strided_slice_5 f4 [96]
0.01837625 -0.030984093 0.039776057 -0.053046033 0.06505385 -0.0624017 0.089206554 0.04758246
-0.03816747 -0.07728209 -0.036748197 0.063202165 0.013375498 -0.05202397 -0.030064696 -0.01701239
-0.0032916476 0.05714747 0.010940546 -0.041053023 -0.038618065 -0.049648635 -0.0032765805 0.018370138
0.04752584 -0.07371881 -0.051392358 -0.024425058 0.018213574 -0.0015425195 0.029072925 -0.06731796
0.018258557 0.015339517 -0.07477719 -0.023295112 0.0145641975 0.11544017 0.027776983 0.007821881
-0.0043343995 0.0009854077 -0.017360033 -0.016473988 0.030340713 0.0527708 -0.027576763 -0.04965399
-0.04022833 0.025477342 0.031139174 0.03148138 0.007099269 -0.0033077174 -0.0005760383 -0.028430771
0.049635246 0.03950334 -0.024080649 -0.034825016 -0.10570186 0.006579158 0.0405356 -0.020144269
0.037477605 -0.016536139 -0.0075036837 -0.0211559 -0.026969252 0.056982875 0.005596062 0.068526156
0.04512767 -0.040661596 -0.054537132 -0.09555765 0.00063689344 0.02610435 0.062081456 -0.043384057
0.067839704 -0.06619057 0.10453009 -0.024515584 -0.00045334332 0.042031363 -0.018752228 0.002421075
0.055490892 -0.10653214 0.046262003 0.007448342 0.03507048 -0.0035329943 0.057139512 -0.036894526
00000000: ca89 963c 5ad2 fdbc 38ec 223d cc46 59bd
00000010: f43a 853d ed98 7fbd edb1 b63d d3e5 423d
00000020: 7e55 1cbd 1346 9ebd 4785 16bd 2370 813d
00000030: e824 5b3c 1617 55bd 3d4a f6bc 915d 8bbc
00000040: afb8 57bb 7713 6a3d fa3f 333c 3727 28bd
00000050: fa2d 1ebd 5e5c 4bbd e6bb 56bb f97c 963c
00000060: 75aa 423d e3f9 96bd cb80 52bd 0f17 c8bc
00000070: a234 953c 5e2e caba 582a ee3c 00de 89bd
00000080: f892 953c 9952 7b3c c924 99bd 64d5 bebc
00000090: ac9e 6e3c e56b ec3d 8e8c e33c 5927 003c
000000a0: 9407 8ebb cc28 813a a136 8ebc 75f4 86bc
000000b0: 168d f83c 3226 583d aae8 e1bc fb61 4bbd
000000c0: 76c6 24bd dcb5 d03c 9517 ff3c 9ff2 003d
000000d0: fca0 e83b 4ac6 58bb 4701 17ba a6e7 e8bc
000000e0: 544e 4b3d 41ce 213d c844 c5bc ada4 0ebd
000000f0: 377a d8bd fa95 d73b a808 263d 9805 a5bc
00000100: 1e82 193d cc76 87bc 76e1 f5bb 234f adbc
00000110: 9fee dcbc e066 693d 2c5f b73b 7157 8c3d
00000120: cbd7 383d c68c 26bd 5462 5fbd bbb3 c3bd
00000130: 32f5 263a cad8 d53c 2049 7e3d 7bb3 31bd
00000140: 8bef 8a3d ec8e 87bd df13 d63d e8d4 c8bc
00000150: b6ae edb9 1429 2c3d 469e 99bc e6aa 1e3b
00000160: 6b4a 633d 862d dabd 3a7d 3d3d 3911 f43b
00000170: 10a6 0f3d cf89 67bb 1f0b 6a3d b71e 17bd

model_4/gru_8/gru_cell/strided_slice_11 f4 [96]
0.007560466 -0.008833698 -0.052292407 -0.008834984 0.07317353 -0.009502881 -0.033658873 0.044962283
-0.043253507 -0.03754173 -0.120545164 0.08651661 -0.016654754 -0.06221775 0.00634492 -0.017195309
-0.0002457684 0.031594746 -0.049583603 -0.00261299 0.014045098 0.03445588 0.0050278315 0.042770963
0.072215274 -0.050975736 -0.01805167 -0.028699288 0.00026189082 -0.08098583 -0.015063608 -0.07256652
0.033471778 0.0028200867 -0.06306378 0.0065564644 -0.07905117 0.01320996 -0.03097654 0.027460385
-0.0047495016 0.039441597 -0.04245248 0.021232264 -0.024546994 0.0218945 -0.038780086 -0.06932983
0.0036009508 0.09217575 -0.00030030543 0.07684688 -0.016846342 0.027285961 0.0058642756 -0.0075023547
0.066883035 0.043899506 0.0019537034 0.045234505 -0.011682455 -0.03442508 -0.007230418 -0.00810316
-0.0006860089 -0.008426385 -0.020744158 0.019824507 -0.03646513 -0.013239007 0.0128609445 -0.028242685
0.019805621 0.007573887 -0.029428635 -0.09389693 0.022515852 0.07227854 -0.03294001 -0.0057334374
0.018711835 -0.08643825 0.042696875 -0.013026062 -0.060298327 0.04625121 0.0538612 -0.01098747
0.0081348885 -0.08141505 0.04484324 0.012019114 -0.047118783 -0.03042352 0.0034203278 -0.024568083
00000000: c9bd f73b 37bb 10bc 9030 56bd 9cc0 10bc
00000010: 01dc 953d f9b1 1bbc e3dd 09bd 5f2a 383d
00000020: 972a 31bd 5bc5 19bd 62e0 f6bd 9f2f b13d
00000030: 8d6f 88bc 0ad8 7ebd 0ce9 cf3b 2ddd 8cbc
00000040: 7ada 80b9 7e69 013d 2d18 4bbd b33e 2bbb
00000050: 691d 663c 9c21 0d3d 82c0 a43b 9b30 2f3d
00000060: 9ae5 933d efcb 50bd 19e1 93bc c51a ebbc
00000070: 644e 8939 e6db a5bd 5acd 76bc c19d 94bd
00000080: b419 093d 34d1 383b 9527 81bd 9cd7 d63b
00000090: 94e5 a1bd 976e 583c 83c2 fdbc 9af4 e03c
000000a0: b5a1 9bbb 838d 213d a7e2 2dbd 49ef ad3c
000000b0: c716 c9bc 185c b33c ded7 1ebd ccfc 8dbd
000000c0: eefd 6b3b a4c6 bc3d 5072 9db9 e661 9d3d
000000d0: 5701 8abc cf86 df3c 1c29 c03b 50d6 f5bb
000000e0: f9f9 883d f8cf 333d b409 003b d147 393d
000000f0: c567 3fbc 5001 0dbd 24ed ecbb 1ec3 04bc
00000100: 47d5 33ba d20e 0abc a7ef a9bc 0167 a23c
00000110: 765c 15bd 6ce8 58bc b6b6 523c 345d e7bc
00000120: 663f a23c 5e2e f83b 5214 f1bc 094d c0bd
00000130: 2a73 b83c c506 943d 1bec 06bd 8fdf bbbb
00000140: 9049 993c 8a06 b1bd ebe2 2e3d 446b 55bc
00000150: 61fb 76bd e971 3d3d 909d 5c3d ca04 34bc
00000160: 3248 053c efbc a6bd 8cad 373d d1eb 443c
00000170: a0ff 40bd bf3a f9bc 9427 603b 0143 c9bc

model_4/batch_normalization_19/batchnorm/sub f4 [48]
-0.4581089 -0.37684745 -0.19945213 0.555696 1.0271232 -0.17683747 0.72117645 -0.1603029
0.21937168 0.0843458 -0.45441377 -0.031304535 0.036689237 -0.20422083 0.08561863 -0.0063664634
-0.7845303 0.5461424 0.11880724 -0.5937707 -0.36265707 -0.0010590702 0.80079997 0.5231623
-0.1619955 0.7752976 1.4207091 0.1698375 0.19425398 0.12666783 -0.31229994 -0.29246593
0.3481809 -0.0800565 1.0141088 -0.19980556 0.040988933 0.39449084 0.73461556 -0.2964087
-0.3408327 0.0018078387 -0.08061981 0.054356456 0.9539099 -0.14856145 0.9558799 -0.12742907
00000000: 408d eabe 26f2 c0be 2e3d 4cbe 1842 0e3f
00000010: c678 833f e214 35be 059f 383f 7226 24be
00000020: f8a2 603e 7ebd ac3d eca8 e8be 2f39 00bd
00000030: 7447 163d 441f 51be d258 af3d c49d d0bb
00000040: fad6 48bf fdcf 0b3f 3651 f33d 5b01 18bf
00000050: 30ae b9be 80d0 8aba 3a01 4d3f f7ed 053f
00000060: 26e2 25be e779 463f ccd9 b53f e2e9 2d3e
00000070: 84ea 463e 36b5 013e c7e5 9fbe 18be 95be
00000080: c444 b23e aaf4 a3bd 51ce 813f d499 4cbe
00000090: 03e4 273d b4fa c93e c40f 3c3f e2c2 97be
000000a0: a081 aebe 00f5 ec3a 001c a5bd e0a4 5e3d
000000b0: 7033 743f 7e20 18be 8cb4 743f c47c 02be

model_4/batch_normalization_19/batchnorm/mul f4 [48]
3.2204864 3.3801858 3.1941392 3.3520594 3.5137537 3.3434234 4.236278 2.857007
3.2026508 2.9219549 3.1190429 2.9762483 3.163356 3.0995948 2.7952747 3.477797
3.052524 3.2356312 3.1027057 3.4432025 3.6388357 3.1576073 3.3953633 2.6000633
3.0850267 3.0650103 4.143596 3.2492406 2.9777389 3.0169148 3.168195 3.2018387
3.0962963 3.074202 3.0834694 3.073066 3.2329793 3.3893447 4.766691 3.0652955
3.2755253 3.1387355 2.7669363 2.7524176 4.3202043 3.039601 3.5186162 3.013372
00000000: 731c 4e40 f754 5840 c76c 4c40 2488 5640
00000010: 57e1 6040 a6fa 5540 978f 8740 34d9 3640
00000020: 3bf8 4c40 4f01 3b40 669e 4740 da7a 3e40
00000030: 6d74 4a40 c35f 4640 c8e5 3240 3a94 5e40
00000040: 8e5c 4340 9514 4f40 bb92 4640 6e5d 5c40
00000050: afe2 6840 3d16 4a40 a24d 5940 7067 2640
00000060: 1471 4540 2129 4440 5798 8440 8ff3 4f40
00000070: 4693 3e40 2215 4140 b5c3 4a40 edea 4c40
00000080: b829 4640 babf 4440 9057 4540 1dad 4440
00000090: 22e9 4e40 06eb 5840 bc88 9840 cd2d 4440
000000a0: 35a2 5140 0be1 4840 7c15 3140 9c27 3040
000000b0: 1d3f 8a40 d388 4240 0231 6140 16db 4040

model_4/batch_normalization_18/batchnorm/sub f4 [96]
-1.0602338 -0.37061217 -0.6681818 -0.14743304 -0.0065475614 -0.04589438 -0.37335005 -0.8003947
-0.29601687 -0.18814173 -0.9561705 0.9331101 -0.8170537 -0.31992564 -0.32790282 -0.952631
0.0028032102 0.518124 -0.67926997 0.27532732 0.09024734 0.2204923 0.011505723 -0.14723477
0.76691324 0.16573605 0.4530368 0.94378614 0.48906368 -0.180568 -0.10003992 -0.17586899
0.6170022 -0.8449391 -0.6448623 0.43634367 -0.61310613 0.18759942 0.4412513 0.9470446
-0.2627234 0.4088419 -0.43060023 -0.121546976 -0.8368253 -0.65880775 -0.5655823 -0.5003669
0.6436603 0.24608904 -0.93006665 -0.038503066 0.24103858 -0.070884876 -0.28840965 0.40581584
0.67566925 0.55235964 0.2308801 0.776298 0.6747009 -0.5541342 -0.51462233 -0.064071044
-0.21931419 0.464436 -0.50141597 -0.040659778 -0.4332599 -0.9314149 0.11254649 -1.0700551
0.5195833 -0.017831199 0.8470832 0.18405367 0.74660635 1.1257503 -1.3663458 -0.23181194
-0.5213469 -0.5693268 -0.014033429 0.28070527 -0.77092886 0.3361374 0.4117323 -0.5080941
-0.027333923 1.4037862 -0.5510252 0.43612456 0.27355412 -0.89945155 0.18577808 0.43547004
00000000: beb5 87bf e1c0 bdbe f60d 2bbf b0f8 16be
00000010: ed8c d6bb bffb 3bbd bd27 bfbe abe6 4cbf
00000020: 868f 97be 3aa8 40be 97c7 74bf 4ee0 6e3f
00000030: 6e2a 51bf 4bcd a3be e1e2 a7be a0df 73bf
00000040: 10b6 373b c6a3 043f a3e4 2dbf b4f7 8c3e
00000050: 99d3 b83d bcc8 613e 8082 3c3c b6c4 16be
00000060: 6d54 443f b6b6 293e 70f4 e73e f89b 713f
00000070: 8e66 fa3e d1e6 38be bbe1 ccbd 0017 34be
00000080: dbf3 1d3f ee4d 58bf b215 25bf 7068 df3e
00000090: 86f4 1cbf 101a 403e b1eb e13e 8471 723f
000000a0: ae83 86be ba53 d13e a277 dcbe 9fed f8bd
000000b0: 2f3a 56bf a0a7 28bf 00ca 10bf 0c18 00bf
000000c0: ecc6 243f c4fe 7b3e d918 6ebf 64b5 1dbd
000000d0: d1d2 763e 172c 91bd 6eaa 93be 18c7 cf3e
000000e0: a9f8 2c3f 7167 0d3f d56b 6c3e 77bb 463f
000000f0: 33b9 2c3f bddb 0dbf 4abe 03bf ae37 83bd
00000100: e693 60be 8eca ed3e cc5c 00bf de8a 26bd
00000110: 3ed4 ddbe 3571 6ebf c67e e63d 91f7 88bf
00000120: 6903 053f bc12 92bc 72da 583f 9178 3c3e
00000130: 9821 3f3f 9618 903f 6be4 aebf 1c60 6dbe
00000140: fe76 05bf 67bf 11bf 78ec 65bc 9ab8 8f3e
00000150: 985b 45bf 341a ac3e 93ce d23e 7412 02bf
00000160: 64eb dfbc 44af b33f fd0f 0dbf b84b df3e
00000170: 490f 8c3e 7542 66bf 9c3c 3e3e eef5 de3e

model_4/batch_normalization_18/batchnorm/mul f4 [96]
5.7124057 10.521899 4.5157785 4.9002247 4.792464 8.322142 5.865647 6.169872
3.4608333 8.5289345 6.863186 6.7339706 7.260905 2.872479 10.624971 3.212723
2.5013828 5.3203106 8.122765 6.4700055 3.2020268 2.330064 11.759266 7.828517
4.649488 3.6016111 3.917899 3.380571 7.3846087 4.605409 4.7781677 3.1969576
4.3142223 4.783157 3.4072742 11.09186 7.9181676 10.415981 8.038317 5.515242
7.0002937 7.061328 4.3183784 11.588764 7.2526846 5.7108603 6.6210585 5.5251083
5.2215576 4.7470264 6.3557954 7.16289 10.551294 4.1994367 7.3410687 6.8292227
4.654182 7.7974315 9.570429 6.495252 14.620176 4.1826196 5.124084 8.714189
6.3119416 7.9752483 2.998953 3.7737575 3.042713 4.473765 2.6060889 13.591628
4.108252 7.9462314 10.534443 2.907555 6.6909766 4.8938255 10.273045 9.965684
3.4861703 5.950328 7.729592 6.9325285 5.342074 5.1689606 4.2611165 4.954003
3.9237182 4.0861883 4.272319 3.6236608 5.300207 5.258718 13.189809 6.9086857
00000000: 07cc b640 b359 2841 4281 9040 a4ce 9c40
00000010: dd5b 9940 7e27 0541 61b3 bb40 976f c540
00000020: 4b7e 5d40 8476 0841 389f db40 b07c d740
00000030: 5559 e840 b2d6 3740 e2ff 2941 419d 4d40
00000040: a816 2040 fc3f aa40 d8f6 0141 490a cf40
00000050: 02ee 4c40 c51f 1540 f425 3c41 3683 fa40
00000060: 9bc8 9440 cc80 6640 dbbe 7a40 465b 5840
00000070: b74e ec40 835f 9340 c0e6 9840 f49a 4c40
00000080: 1c0e 8a40 9f0f 9940 c810 5a40 4278 3141
00000090: a161 fd40 dca7 2641 f29c 0041 dd7c b040
000000a0: 6802 e040 66f6 e140 2830 8a40 946b 3941
000000b0: fe15 e840 5ebf b640 b6df d340 b0cd b040
000000c0: 0017 a740 a4e7 9740 ad62 cb40 6536 e540
000000d0: 1ad2 2841 c961 8640 09ea ea40 fe88 da40
000000e0: 0fef 9440 8f84 f940 7a20 1941 1bd9 cf40
000000f0: 3eec 6941 05d8 8540 7ff8 a340 516d 0b41
00000100: 6dfb c940 3c35 ff40 d9ee 3f40 3e85 7140
00000110: cfbb 4240 1529 8f40 29ca 2640 4f77 5941
00000120: cd76 8340 8747 fe40 148d 2841 6215 3a40
00000130: 7b1c d640 389a 9c40 645e 2441 7173 1f41
00000140: 6a1d 5f40 1669 be40 d158 f740 46d7 dd40
00000150: 45f2 aa40 2068 a540 115b 8840 3187 9e40
00000160: 331e 7b40 0ec2 8240 d6b6 8840 0fea 6740
00000170: 4c9b a940 6b47 a840 7509 5341 f413 dd40

model_4/dense_9/BiasAdd/ReadVariableOp f4 [26]
-0.10989516 0.084179804 -0.013834166 0.12413577 -0.06925527 -0.021425236 0.27094045 0.25792745
0.26620615 0.0014219241 0.07065375 -0.15900476 0.08902577 -0.049142264 0.28699017 0.00033781724
-0.41708133 -0.05519725 -0.17416787 -1.0966046 -1.1508282 -1.0891079 -1.1156144 -1.1120175
-1.0633767 -1.1166084
00000000: b710 e1bd 7666 ac3d b3a8 62bc e53a fe3d
00000010: b5d5 8dbd fa83 afbc b5b8 8a3e 110f 843e
00000020: 2c4c 883e db5f ba3a eab2 903d 25d2 22be
00000030: 2553 b63d 6649 49bd 60f0 923e 101d b139
00000040: af8b d5be 8316 62bd 1059 32be 8a5d 8cbf
00000050: 574e 93bf e367 8bbf 74cc 8ebf 9756 8ebf
00000060: ba1c 88bf 06ed 8ebf

model_4/dense_8/BiasAdd/ReadVariableOp f4 [48]
0.09687691 0.08627553 0.07890103 0.1698412 0.0669158 0.01417486 0.11501327 0.06789456
0.11245364 0.14938995 0.03252918 0.1377417 0.091473006 0.18415618 0.09437527 0.092294104
0.1513271 0.1267173 -0.065800354 0.16545784 0.16306654 -0.01114478 0.11713565 -0.06278509
0.12258621 0.12618957 0.0637061 0.089835525 0.20659703 -0.025677124 0.1289878 0.028064545
0.116582856 0.08987961 0.08810945 0.08007205 0.23653664 0.1329834 0.15974319 0.32356203
0.22402005 0.08796793 0.102875344 -0.04425376 0.082473755 0.1986441 0.089673944 0.14692628
00000000: 6767 c63d 3ab1 b03d dd96 a13d daea 2d3e
00000010: 270b 893d ac3d 683c 148c eb3d 4e0c 8b3d
00000020: 184e e63d aef9 183e 513d 053d 290c 0d3e
00000030: 3356 bb3d 7093 3c3e d247 c13d b104 bd3d
00000040: 7ef5 1a3e 2ec2 013e 56c2 86bd c86d 293e
00000050: eafa 263e 9898 36bc d1e4 ef3d 7895 80bd
00000060: 7b0e fb3d d737 013e 5878 823d b0fb b73d
00000070: 2c8e 533e d558 d2bc 6115 043e 9ee7 e53c
00000080: fec2 ee3d cd12 b83d ba72 b43d d1fc a33d
00000090: a936 723e cd2c 083e b893 233e eca9 a53e
000000a0: 8365 653e 8828 b43d 4fb0 d23d 6e43 35bd
000000b0: 00e8 a83d 5c69 4b3e f9a6 b73d d873 163e

model_4/gru_8/gru_cell/MatMul f4 [96, 126]
0.00027674483 0.00016769709 0.00010473743 -0.0011962429 0.0021323736 0.0008845656 -0.0020060444 0.0033886554
-0.0017504395 -0.004005238 0.0038360409 -0.001819829 -0.0051087984 0.0040341513 -0.0028057895 -0.004119256
-0.0017482522 0.00170695 -0.005259583 -0.0017701564 -9.4554765e-05 -0.0042026397 -0.0034302126 -0.0008872725
-0.006280475 -0.007404401 -0.0007002229 -0.002211562 -0.003088614 0.0011528791 -0.003981979 -3.1557243e-05
-0.0012208095 -0.0027296606 -0.0046179406 -0.00041901774 -0.0033238237 -0.006061637 -0.0024732563 -0.0022447235
-0.0027766887 -0.0006102617 -0.0033488683 -0.0006204454 -0.0017098341 -0.003327117 -0.0015126868 -0.0014899473
-0.0033827145 -0.005929947 -0.0019400239 -0.002930832 -0.0025499293 -0.0010282025 -0.0032703488 -0.000110163746
-0.0016302613 -0.0039299745 -0.0036626093 -0.0002734542 -0.0038432605 -0.0056204395 -0.00057546597 -0.00039099154
-8.14335e-05 0.00021211793 -0.0017321511 0.0009795674 -0.00034887117 -0.0007115411 0.001266134 -0.00078120414
-0.0019908315 0.0009928789 -0.00021667901 -0.001943503 0.0032330952 -0.00036265663 -0.0015241853 0.00057087914
-0.00015590522 3.3495995e-05 0.00042681757 -0.0007656525 -0.00037284178 0.0016141271 -0.0002927511 0.0010629053
0.0015539703 0.00076214696 -0.001010386 -0.00011890277 0.0004895526 -0.0013405003 0.0014191145 0.0010713513
-0.00080766773 0.0008212722 0.0008153139 -0.001515039 0.0005729623 0.0023460195 -0.0009304756 0.00023568916
-8.4041334e-05 -0.00030244424 0.00026837012 -0.00050833117 -0.000736571 0.00047706187 0.0016428941 -0.00031202266
-0.000629128 0.00089647266 -0.0008336768 0.00051742664 -0.0004119478 0.00017628002 0.0005350159 0.0005135528
-0.0003083528 -0.00046862726 0.00023055809 -0.00058717775 0.0011224166 0.0013141405 -8.968981e-05 -0.00016179803
-3.1575313e-05 -0.0006203167 -0.0004234708 0.00025036576 -0.0003580125 0.001960939 0.0005806236 0.0005331435
0.0029487838 0.001650496 -0.0003775651 0.0032523014 0.0009802287 0.0005946745 -0.00027611508 0.00040900428
-0.0003828426 0.0026329122 0.0017388832 0.00083621807 0.002700038 0.00084851927 0.0013266829 0.0037968266
0.000997384 -0.0005228218 0.00055686117 0.0004913023 -0.00063604605 0.0024492133 0.0005742928 -0.001034486
0.0049009263 0.0014721691 -7.6740434e-05 0.006184852 -4.021803e-05 -0.0007355518 0.00064915937 -0.0011941784
-0.0015326254 0.0037898412 -0.00086757715 0.0014379824 0.0028369087 -0.00011594952 0.00030057467 0.005917575
0.0011968008 -0.0013770738 -0.0006513186 -0.001074484 -0.0012188819 0.0029608437 -0.0011365857 -0.0015561517
0.0042224056 0.00023408282 -0.0011381431 0.005659663 -0.0009141525 0.0004163172 -2.9246903e-05 4.69751e-05
-0.00042435178 7.719126e-05 -0.0009032655 -0.00027384178 0.00024583773 -0.0018421398 -8.248649e-05 -0.0006936239
-0.000631219 -0.0003024799 -0.00076671405 -0.0020816838 0.002104739 -0.0005396052 -0.0017315961 0.0021755206
-0.0019547075 -0.0016784103 0.0015541648 -0.000987189 -0.0010128806 0.0025045478 -0.0014390809 -0.0009773049
0.0014648933 -0.0012976814 -0.0008238989 0.002020292 -0.00029487396 -0.0011180913 0.0021732298 -0.0009266654
-0.0018456051 0.003356072 0.00019085583 -0.0016788798 0.00071471266 -0.001234179 -0.0009328192 0.0022695358
-0.0022037956 -0.0011895058 0.0026665633 -0.0013136689 -0.0005179615 0.0020796543 -0.0025277704 -0.0016841004
0.0015403619 -0.0018709563 -0.0004958452 0.0022763924 -0.002948909 2.2261002e-05 0.0018462203 -0.0007422428
-0.00036452516 0.0021298942 -0.0023041079 -0.00059110095 -0.00012647922 2.5657664e-05 -9.049737e-05 -0.0009889146
00000000: 1018 9139 d8d7 2f39 7ba6 db38 40cb 9cba
00000010: 4bbf 0b3b 31e2 673a d777 03bb 3414 5e3b
00000020: 016f e5ba 5f3e 83bb 1666 7b3b 5487 eeba
00000030: b567 a7bb ea30 843b 56e1 37bb d3fa 86bb
00000040: 9c25 e5ba bdbb df3a 9458 acbb 9804 e8ba
00000050: b44b c6b8 4cb6 89bb 6bcd 60bb d997 68ba
00000060: 71cc cdbb 9ea0 f2bb 2a8f 37ba daef 10bb
00000070: 586a 4abb 341c 973a 437b 82bb 555c 04b8
00000080: 9203 a0ba 1be4 32bb 1852 97bb 9caf dbb9
00000090: 82d4 59bb b2a0 c6bb 5b16 22bb 361c 13bb
000000a0: 1bf9 35bb f8f9 1fba b078 5bbb 63a5 22ba
000000b0: 831c e0ba c30b 5abb 5945 c6ba 564a c3ba
000000c0: 88b0 5dbb 0050 c2bb 6648 feba 3413 40bb
000000d0: b71c 27bb c0c4 86ba 5953 56bb b607 e7b8
000000e0: 7eae d5ba 04c7 80bb 6308 70bb 675e 8fb9
000000f0: 36df 7bbb aa2b b8bb deda 16ba fffd ccb9
00000100: 47c7 aab8 f96b 5e39 5909 e3ba d464 803a
00000110: b2e8 b6b9 b786 3aba 68f4 a53a b9c9 4cba
00000120: 9c78 02bb 7d23 823a 5434 63b9 24bd feba
00000130: 56e2 533b f322 beb9 2cc7 c7ba 0da7 153a
00000140: 7d7a 23b9 0d7e 0c38 7cc6 df39 12b6 48ba
00000150: fa79 c3b9 1e91 d33a 637c 99b9 2f51 8b3a
00000160: 97ae cb3a d1ca 473a ee6e 84ba 705b f9b8
00000170: 5255 003a bab3 afba 9501 ba3a 966c 8c3a
00000180: aab9 53ba a54a 573a caba 553a 4694 c6ba
00000190: d932 163a adbf 193b 29eb 73ba 5423 7739
000001a0: 593f b0b8 6191 9eb9 07b4 8c39 8741 05ba
000001b0: 7116 41ba 291e fa39 6156 d73a f996 a3b9
000001c0: 11ec 24ba 4301 6b3a 1a8b 5aba eaa3 073a
000001d0: b3fa d7b9 cfd7 3839 4f40 0c3a f29f 063a
000001e0: 6aaa a1b9 16b2 f5b9 f7c1 7139 d5ec 19ba
000001f0: 0d1e 933a 3d3f ac3a da17 bcb8 54a8 29b9
00000200: bc6f 04b8 c09c 22ba 4a05 deb9 8643 8339
00000210: a0b3 bbb9 1983 003b fd34 183a a8c2 0b3a
00000220: 6240 413b 7555 d83a eef3 c5b9 9024 553b
00000230: 047b 803a eee3 1b3a 8ac3 90b9 a06f d639
00000240: 44b8 c8b9 f08c 2c3b 3deb e33a a535 5b3a
00000250: 1ff3 303b 2a6f 5e3a 17e4 ad3a 2ed4 783b
00000260: a7ba 823a fa0d 09ba 52fa 113a bdca 003a
00000270: 54bc 26ba fb82 203b 238c 163a 9797 87ba
00000280: f397 a03b ccf5 c03a b5ef a0b8 4daa ca3b
00000290: c8af 28b8 0cd2 40ba 592c 2a3a fa85 9cba
000002a0: 60e2 c8ba fc5e 783b 1e6e 63ba af7a bc3a
000002b0: 6eeb 393b ed29 f3b8 7396 9d39 38e8 c13b
000002c0: f9dd 9c3a ee7e b4ba 40bd 2aba b3d5 8cba
000002d0: e4c2 9fba b70a 423b 7df9 94ba c9f7 cbba
000002e0: 1b5c 8a3b 2174 7539 bf2d 95ba b274 b93b
000002f0: bca3 6fba 2645 da39 3f57 f5b7 2107 4538
00000300: 887b deb9 bee1 a138 1fc9 6cba 6c92 8fb9
00000310: c8e3 8039 f473 f1ba 99fc acb8 50d4 35ba
00000320: 6478 25ba 2a96 9eb9 4ffd 48ba dc6c 08bb
00000330: a9ef 093b 4b74 0dba b9f6 e2ba 2e93 0e3b
00000340: 8d1a 00bb 1bfe dbba 1eb5 cb3a 9164 81ba
00000350: a2c2 84ba 5723 243b 8b9f bcba e918 80ba
00000360: aa01 c03a f616 aaba ebfa 57ba e066 043b
00000370: 5099 9ab9 eb8c 92ba bf6c 0e3b 76eb 72ba
00000380: 3be8 f1ba 8bf1 5b3b 7920 4839 dc0d dcba
00000390: 8e5b 3b3a 2dc4 a1ba 7088 74ba 7ebc 143b
000003a0: 8e6d 10bb 31e9 9bba 82c1 2e3b 6a2f acba
000003b0: cfc7 07ba cf4a 083b f3a8 25bb 08bd dcba
000003c0: f8e5 c93a e03a f5ba 9cfb 01ba 872f 153b
000003d0: 7c42 41bb 23bd ba37 e0fc f13a 1293 42ba
000003e0: bd1d bfb9 b295 0b3b 8400 17bb 1df4 1aba
000003f0: 829f 04b9 6a3b d737 68c9 bdb8 789e 81ba
