app/src/main/assets/models/people.tflite (tflite, 673196 bytes, 52 tensors)

model_4/batch_normalization_16/batchnorm/add_1;model_4/conv1d_8/Conv1D/Squeeze;model_4/batch_normalization_16/batchnorm/mul_1;model_4/conv1d_8/BiasAdd;model_4/conv1d_8/BiasAdd/ReadVariableOp;model_4/batch_normalization_16/batchnorm/mul;model_4/batch_normalization_16/batchnorm/sub;model_4/conv1d_8/Conv1D;model_4/conv1d_9/Conv1D f4 [96]
0.0004458977 -0.8507784 -0.68494624 0.05460375 0.1415896 -0.88078386 -0.41463578 1.6846607
0.21766989 2.1173174 -1.2653985 -0.6941135 0.39085203 0.23144159 0.8587978 -0.36562306
-0.39797628 -1.0902967 -0.078385875 -0.10060433 -0.7615267 -0.45488527 1.010389 1.9372548
-0.04020756 -0.8016682 -0.14801441 -1.7933578 1.9953634 1.6441509 -0.35025963 -0.74228925
0.26353404 0.0027916282 -0.5026005 -0.15471448 1.2022907 -1.7033616 -0.6474178 -1.1376625
-0.22553761 -0.21511121 0.74793917 0.5728473 -0.3938673 -0.23953505 -0.7660049 -0.35652485
1.385653 -0.24608874 -0.5411994 -0.7408874 0.5441285 -0.4236702 -0.8359417 -0.3536421
-0.6965434 2.2185707 -0.48724532 -1.1550232 -0.62329584 -0.6881625 -0.6024422 -0.866783
-0.3031206 0.3191127 -1.6548493 0.11162181 0.22938561 -0.3222859 -0.38235804 1.1373919
0.64519554 -0.20111246 0.03469163 0.24436504 -0.7823023 -0.21442467 -0.64357907 0.040631123
-0.088556886 0.30791128 -0.5320422 -0.7576509 -0.64301044 0.16701947 -2.243745 -1.5505427
-1.0088093 0.34313804 -0.733329 0.60557574 -0.20255691 0.062478993 -0.8046793 1.4037633
00000000: 60c7 e939 9dcc 59bf a358 2fbf 2fa8 5f3d
00000010: ddfc 103e 0d7b 61bf 244b d4be f6a2 d73f
00000020: dbe4 5e3e 2182 0740 94f8 a1bf 6cb1 31bf
00000030: c21d c83e 06ff 6c3e 2cda 5b3f f232 bbbe
00000040: 8cc3 cbbe d88e 8bbf c688 a0bd a509 cebd
00000050: 6af3 42bf b9e6 e8be 6d54 813f f7f7 f73f
00000060: afb0 24bd 213a 4dbf 1791 17be c08c e5bf
00000070: 1168 ff3f 8973 d23f 3b55 b3be ab06 3ebf
00000080: efed 863e c0f3 363b 6daa 00bf 796d 1ebe
00000090: a9e4 993f c107 dabf 2cbd 25bf ed9e 91bf
000000a0: 55f3 66be 1d46 5cbe f178 3f3f 1fa6 123f
000000b0: faa8 c9be ad48 75be e618 44bf 6d8a b6be
000000c0: 145d b13f b0fe 7bbe 0b8c 0abf ccaa 3dbf
000000d0: 014c 0b3f 4deb d8be 4600 56bf 9410 b5be
000000e0: ab50 32bf 10fd 0d40 3878 f9be cdd7 93bf
000000f0: 5190 1fbf 6b2b 30bf a739 1abf 7ee5 5dbf
00000100: a032 9bbe bd62 a33e 1ad2 d3bf fa99 e43d
00000110: 10e4 6a3e a802 a5be 6fc4 c3be 0f96 913f
00000120: 892b 253f 6df0 4dbe d018 0e3d d43a 7a3e
00000130: f744 48bf 2492 5bbe 99c1 24bf d26c 263d
00000140: 505d b5bd 8ca6 9d3e eb33 08bf 69f5 41bf
00000150: 559c 24bf 2707 2b3e 8599 0fc0 2f78 c6bf
00000160: aa20 81bf caaf af3e 73bb 3bbf 0307 1b3f
00000170: 146b 4fbe f9e9 7f3d 76ff 4dbf 84ae b33f

model_4/batch_normalization_17/batchnorm/add_1;model_4/conv1d_9/Conv1D/Squeeze;model_4/batch_normalization_17/batchnorm/mul_1;model_4/conv1d_9/BiasAdd;model_4/conv1d_9/BiasAdd/ReadVariableOp;model_4/batch_normalization_17/batchnorm/mul;model_4/batch_normalization_17/batchnorm/sub;model_4/conv1d_9/Conv1D f4 [96]
0.5278657 -0.43479896 -0.4814349 -0.97738385 -0.22444151 0.9494616 -0.16310754 0.7737757
0.344656 -0.050501633 -0.33719876 -0.44146097 0.4487691 0.28824386 0.80641747 0.33302888
-0.09885374 -0.31320363 -0.06272742 0.28250325 -0.048772257 0.77693254 0.32021806 -0.2182687
-0.08186017 0.9451605 0.18972373 0.26584792 -0.2701647 -0.3408029 0.7828855 -0.17264983
1.575919 0.8701035 -0.28923595 0.25610852 0.38664144 -0.21142626 0.37712115 -0.6006997
-0.3190517 0.23917277 -0.64973295 -0.12908454 -0.1558364 -0.44732043 -0.39527237 1.1283334
0.45657083 -0.052868802 0.25695434 0.20396718 0.28116065 0.6837207 -0.24385786 0.46588674
0.37546986 0.7866199 -0.054711375 -0.026234426 -0.10603706 0.3970145 1.0736037 0.7047821
-0.0050371983 -0.36720404 0.7100438 1.170073 -0.6222632 0.18781865 0.19001146 -0.16060139
-0.33287004 -0.509737 -0.021390898 -0.015692798 0.021078492 -0.07038937 -0.49330106 -0.025924325
0.2852255 -0.7783466 0.20789708 -0.29245985 0.19792408 -0.051141646 0.9757596 0.44666293
-0.34046334 1.125738 -0.4050418 -1.1766298 -0.2835458 0.51726025 -0.21181363 -0.30983734
00000000: 3522 073f f89d debe a37e f6be d435 7abf
00000010: ffd3 65be ea0f 733f aa05 27be 2a16 463f
00000020: c076 b03e cdda 4ebd 51a5 acbe 2c07 e2be
00000030: 10c5 e53e b394 933e 6071 4e3f c382 aa3e
00000040: d473 cabd 3a5c a0be 3c77 80bd 44a4 903e
00000050: 6bc5 47bd 0de5 463f 9ff3 a33e d581 5fbe
00000060: 4ea6 a7bd 0af6 713f f046 423e 381d 883e
00000070: 0753 8abe b87d aebe 2f6b 483f 1ecb 30be
00000080: b7b7 c93f 1abf 5e3f bc16 94be a820 833e
00000090: def5 c53e 2080 58be 0616 c13e 75c7 19bf
000000a0: bf5a a3be b5e9 743e e654 26bf bd2e 04be
000000b0: 9493 1fbe 2f07 e5be 2461 cabe 3b6d 903f
000000c0: a7c3 e93e f58c 58bd 858f 833e c6dc 503e
000000d0: 4af4 8f3e 5208 2f3f e0b5 79be b588 ee3e
000000e0: 963d c03e ec5f 493f 0919 60bd 94e9 d6bc
000000f0: f529 d9bd 7c45 cb3e d96b 893f 9a6c 343f
00000100: 150f a5bb 2b02 bcbe 6ec5 353f f4c4 953f
00000110: a44c 1fbf 8853 403e 5d92 423e b174 24be
00000120: f16d aabe 207e 02bf f73b afbc 2f8e 80bc
00000130: cdac ac3c 4d28 90bd f591 fcbe 405f d4bc
00000140: 1409 923e b941 47bf f9e2 543e 4cbd 95be
00000150: 9cac 4a3e e779 51bd 62cb 793f 01b1 e43e
00000160: 3651 aebe 2f18 903f a461 cfbe ce9b 96bf
00000170: ea2c 91be 2b6b 043f ace5 58be 00a3 9ebe

model_4/batch_normalization_16/batchnorm/mul_1;model_4/conv1d_8/Conv1D/Squeeze;model_4/conv1d_8/BiasAdd;model_4/conv1d_8/BiasAdd/ReadVariableOp;model_4/batch_normalization_16/batchnorm/mul;model_4/conv1d_8/Conv1D;model_4/conv1d_9/Conv1D f4 [96, 1, 3, 126]
-0.003859033 0.0006013926 -0.0070459526 0.013601316 -0.0058805407 0.032936774 -0.012168871 -0.053098008
0.03637972 -0.11632629 -0.0032071834 0.022835571 -0.14081527 0.10025571 0.0032813495 0.037612073
0.035722 0.07828725 0.11287615 0.07492428 0.06683052 0.04753156 -0.01819945 0.018227441
-0.21549521 -0.007382833 -0.019140093 0.03945169 0.08567802 0.046273783 0.22260474 0.06302806
0.018266678 -0.09058183 -0.011583214 -0.053044006 -0.1521401 0.07768791 -0.10071096 0.04475814
-0.022123465 0.0070876223 0.08154743 -0.089012414 -0.050699078 -0.17076914 -0.15169883 -0.13849431
-0.27390125 -0.08562142 -0.18986163 0.04176754 0.12736177 0.033360187 0.11123781 0.033382047
-0.01898158 -0.029011924 -0.05583462 -0.07967013 -0.16595884 -0.06752439 -0.11923621 -0.0063297786
0.005012821 0.0002048694 -0.00093849737 -0.012737371 0.014680842 0.02603004 -0.027060112 0.013406489
0.033393145 -0.031063436 0.020653166 0.041931316 -0.052050427 0.0076726065 0.03136115 -0.038359962
-0.00036205497 0.032852557 -0.019408679 -0.002254866 0.036251355 -0.02721511 -0.003692516 0.043307696
-0.023247732 -0.003860521 0.025410928 -0.04122264 -0.012371978 0.017521765 -0.030225946 -0.015854215
0.0236024 -0.029778585 -0.017526278 0.023678444 -0.02296259 -0.01868367 0.029341614 -0.034975275
-0.011735446 0.022207212 -0.023010936 -0.021559888 0.02802602 -0.021870844 -0.02111883 0.03026152
-0.022457309 -0.024504067 0.03413786 -0.03803222 -0.018823756 0.03151913 -0.0256781 -0.025440218
0.035666607 -0.025333885 -0.029447211 0.039718814 -0.029321615 -0.033626765 -0.0034381663 0.0042156125
-0.0067863725 0.017339878 -0.010313781 0.03383796 -0.030685512 -0.0694396 0.03782556 -0.077856705
-0.029148618 0.024248043 -0.14976364 0.06657164 0.0042961556 0.02835286 0.015626682 0.0804073
0.18101741 0.070629 0.07009313 0.06724432 -0.03937676 0.020316705 -0.13820483 -0.025944976
-0.019335518 0.04702738 0.06386493 0.046457138 0.15473872 0.052799635 0.017391752 -0.006200868
-0.017255876 -0.055217084 -0.28657162 0.063111484 -0.10528247 0.048254408 -0.041244872 0.0041100704
0.17239268 -0.09613131 -0.056199133 -0.14878628 -0.16802938 -0.14615378 -0.26396275 -0.12139104
-0.19873296 0.05010922 0.12632596 0.030640693 0.14681777 0.03274176 -0.025263315 -0.043214865
-0.054383013 -0.08863389 -0.12170745 -0.071663246 -0.13093737 -0.0042238175 0.0073296144 0.0018369885
-0.0018844059 -0.012960102 0.013841285 0.024914116 -0.031463485 0.01537419 0.032247756 -0.024270358
0.02213863 0.040668588 -0.039890565 0.01037617 0.030513164 -0.041595466 0.0010148375 0.02966615
-0.020152213 -6.816258e-05 0.03271595 -0.024368625 -0.002008437 0.03958119 -0.01075078 -0.0012120546
0.023897506 -0.041841615 -0.010795178 0.014043549 -0.03629523 -0.013812765 0.018319054 -0.027978377
-0.014731993 0.018887822 -0.023756737 -0.017399501 0.027266918 -0.03488924 -0.010443331 0.018287037
-0.022964647 -0.019835021 0.020326646 -0.021358175 -0.02010076 0.025874557 -0.021650577 -0.022866987
0.032579247 -0.03690156 -0.018360348 0.0295106 -0.02427848 -0.024401302 0.03255023 -0.022904605
-0.027414894 0.036580235 -0.026819296 -0.03241613 9.675566e-05 0.006491836 -0.004333604 0.013030951
00000000: d5e7 7cbb c6a6 1d3a bce1 e6bb 0ed8 5e3c
00000010: 8db1 c0bb b6e8 063d f25f 47bc 4c7d 59bd
00000020: e702 153d 7a3c eebd 9c2f 52bb aa11 bb3c
00000030: e131 10be de52 cd3d e90b 573b 1e0f 1a3d
00000040: 3b51 123d 1155 a03d 9c2b e73d e771 993d
00000050: 71de 883d 74b0 423d 0317 95bc b751 953c
00000060: c7aa 5cbe b1eb f1bb afcb 9cbc 1898 213d
00000070: f577 af3d 9489 3d3d 7ff2 633e db14 813d
00000080: 00a4 953c f782 b9bd 85c7 3dbc ac44 59bd
00000090: 9dca 1bbe d71a 9f3d 8c41 cebd 5054 373d
000000a0: 453c b5bc 493f e83b 5702 a73d 244c b6bd
000000b0: d6a9 4fbd 1bde 2ebe f056 1bbe 74d1 0dbe
000000c0: c93c 8cbe 485a afbd 166b 42be 7114 2b3d
000000d0: 206b 023e b1a4 083d a6d0 e33d 9dbb 083d
000000e0: 427f 9bbc 6aaa edbc d8b2 64bd 182a a3bd
000000f0: 1df1 29be 3a4a 8abd 1d32 f4bd 086a cfbb
00000100: 9742 a43b 36d2 5639 7e05 76ba 68b0 50bc
00000110: ea87 703c f33c d53c 2bad ddbc e4a6 5b3c
00000120: 40c7 083d bf78 febc d430 a93c 2cc0 2b3d
00000130: d432 55bd 7d6a fb3b 8d74 003d 561f 1dbd
00000140: 32d2 bdb9 6790 063d f3fe 9ebc 60c6 13bb
00000150: 4d7c 143d 39f2 debc 23fe 71bb 6963 313d
00000160: 0772 bebc cb00 7dbb 942a d03c 12d9 28bd
00000170: d6b3 4abc ce89 8f3c 679c f7bc b3e0 81bc
00000180: d259 c13c 38f2 f3bc 4593 8fbc 4cf9 c13c
00000190: 0b1c bcbc 7f0e 99bc d35d f03c 3c42 0fbd
000001a0: 0746 40bc e6eb b53c 6e81 bcbc 5d9e b0bc
000001b0: d396 e53c 7c2a b3bc 6601 adbc 02e7 f73c
000001c0: 64f8 b7bc c1bc c8bc 24d4 0b3d acc7 1bbd
000001d0: 4734 9abc 341a 013d e15a d2bc 0168 d0bc
000001e0: 2617 123d 0289 cfbc 473b f1bc 32b0 223d
000001f0: e233 f0bc 38bc 09bd dc52 61bb 1f23 8a3b
00000200: 3860 debb 5c0c 8e3c 22fb 28bc ac99 0a3d
00000210: 2f60 fbbc 5936 8ebd f9ee 1a3d 5673 9fbd
00000220: 15c9 eebc d5a3 c63c a45b 19be b656 883d
00000230: c4c6 8c3b 4244 e83c 8703 803c 95ac a43d
00000240: a15c 393e f0a5 903d fd8c 8f3d 64b7 893d
00000250: 8749 21bd 386f a63c 9185 0dbe 8f8a d4bc
00000260: 8565 9ebc c89f 403d 9ecb 823d d749 3e3d
00000270: d473 1e3e 6e44 583d 2679 8e3c a730 cbbb
00000280: 325c 8dbc 4f2b 62bd 84b9 92be 9840 813d
00000290: 569e d7bd 6aa6 453d 62f0 28bd c5ad 863b
000002a0: b587 303e 7ee0 c4bd 1031 66bd 6e5b 18be
000002b0: e50f 2cbe 56a9 15be 2026 87be de9b f8bd
000002c0: a780 4bbe 533f 4d3d 985b 013e 3102 fb3c
000002d0: 6657 163e 391c 063d 03f5 cebc 1202 31bd
000002e0: b9c0 5ebd af85 b5bd c141 f9bd 2ec4 92bd
000002f0: 7214 06be f367 8abb 432d f03b 1bc7 f03a
00000300: 2bfe f6ba 9c56 54bc 8fc6 623c b018 cc3c
00000310: dbdf 00bd 07e4 7b3c 3916 043d a1d2 c6bc
00000320: 125c b53c 1b94 263d 4a64 23bd d000 2a3c
00000330: bef6 f93c 0260 2abd 4c04 853a 6d06 f33c
00000340: 4116 a5bc 82f2 8eb8 2901 063d b6a0 c7bc
00000350: fb9f 03bb e31f 223d 0a24 30bc cedd 9eba
00000360: b4c4 c33c 1d62 2bbd 42de 30bc ea16 663c
00000370: 4faa 14bd ef4e 62bc d711 963c e932 e5bc
00000380: 755e 71bc a2ba 9a3c 7d9d c2bc 6689 8ebc
00000390: df5e df3c 05e8 0ebd 811a 2bbc b2ce 953c
000003a0: 5b20 bcbc 0e7d a2bc 1184 a63c 57f7 aebc
000003b0: 59aa a4bc e1f6 d33c 8d5c b1bc 8c53 bbbc
000003c0: d171 053d 1726 17bd 7168 96bc 37c0 f13c
000003d0: aae3 c6bc 3de5 c7bc 6453 053d 70a2 bbbc
000003e0: 3395 e0bc 28d5 153d 24b4 dbbc c7c6 04bd
000003f0: 4de9 ca38 78b9 d43b e800 8ebb c57f 553c

model_4/batch_normalization_17/batchnorm/mul_1;model_4/conv1d_9/Conv1D/Squeeze;model_4/conv1d_9/BiasAdd;model_4/conv1d_9/BiasAdd/ReadVariableOp;model_4/batch_normalization_17/batchnorm/mul;model_4/conv1d_9/Conv1D f4 [96, 1, 3, 96]
0.0068360018 0.02292488 -0.0010302127 -0.038582068 -0.0028883957 0.019748138 -0.0021315168 -0.026161717
-0.03505106 -0.0012838886 0.021814032 0.0030203052 -0.016655097 -0.009747541 0.011632636 -0.027858337
0.0108187795 -0.012174673 0.05136675 -0.02298148 -0.012374224 -0.039482538 0.0012602471 -0.008985575
0.0026529056 -0.001259873 0.024005828 0.038419534 0.0046220766 -0.035839766 0.031856697 0.039884824
0.011011945 -0.0130547825 0.009556506 0.0073813004 -0.009615158 0.035435703 -0.00047059372 0.02105671
-0.029551292 -0.009294125 -0.032321833 -0.051724423 -0.004537901 0.008732838 -0.011823895 0.02393747
-0.0049664946 0.012118159 0.011586163 0.0020094826 0.01751466 -0.020079598 0.01992394 0.00040216904
0.0151410885 0.010069742 -0.061461248 -0.022427127 -0.046823736 -0.007058957 -0.04398099 -0.040920198
0.04263446 0.023586394 0.0005727609 -0.0010838682 0.021915184 -0.020987505 -0.031289503 -0.07482967
-0.010209775 -0.026929548 0.02656546 -0.046077907 0.019495808 0.037188474 -0.03497457 0.023976028
0.00982798 -0.09070586 0.0098595135 -0.01752539 -0.012611514 -0.015838834 0.053048443 0.031027826
-0.01951372 -0.03602908 0.015541526 -0.035437483 0.0065345527 0.00034569865 -0.0018331097 0.003419253
0.003000511 0.023589665 0.0017457801 -0.036079675 -0.0011283115 0.020934299 0.0055584554 -0.026848948
-0.034603406 -0.0031623708 0.023230916 0.0037848465 -0.005898369 -0.010983949 0.012055711 -0.027092012
0.011356846 -0.010376548 0.051911656 -0.024011176 -0.010265677 -0.03859915 0.0037726162 -0.007543605
0.0043138894 -0.00077786786 0.0265742 0.038431097 0.0041114204 -0.03994406 0.034963578 0.03965978
0.019592285 -0.00625724 0.005354752 0.00863986 -0.0077403677 0.037972886 -0.0009256417 0.021837864
-0.031352717 -0.008731413 -0.033107575 -0.049826976 0.00020560826 0.011335126 -0.0065044463 0.02620369
-0.004537903 0.013560526 0.015875889 0.0074285273 0.020588364 -0.020842243 0.020215305 0.0069577238
0.017377716 0.0058103306 -0.061325327 -0.021709548 -0.045863163 -0.006797447 -0.045814045 -0.0425617
0.045257214 0.024829092 0.0011854944 -0.0013801032 0.027872225 -0.019710049 -0.030900827 -0.07414868
-0.00851285 -0.025779672 0.029547378 -0.04770094 0.018616663 0.0408544 -0.033449214 0.026425097
0.012625357 -0.0896179 0.0092199445 -0.015573681 -0.0058967383 -0.0167623 0.05561918 0.032731645
-0.017124014 -0.03475031 0.015114942 -0.035749868 0.008977335 0.000567722 0.004639725 0.0046343673
0.009402711 0.021567646 0.00064766296 -0.034413476 -0.000108934575 0.020139737 0.0047312104 -0.011525251
-0.031245803 0.008900126 0.02500228 0.0012037981 -0.0004601455 -0.007938903 0.015308795 -0.025971176
0.008039361 -0.008598738 0.052744225 -0.02280588 -0.01269359 -0.03811544 0.0067968024 0.0055196234
0.005138712 -0.0022917064 0.025253644 0.03619839 0.014663881 -0.027240347 0.0347341 0.038409796
0.025312958 -0.003898298 0.011393638 0.01179354 0.0020429497 0.037060693 -0.001015612 0.020123737
-0.02880067 -0.0059268787 -0.024817917 -0.045283604 0.002095575 0.01605724 -0.0046957904 0.02698692
0.0051383195 0.011444238 0.015227121 0.007981123 0.025796201 -0.018785348 0.01985679 0.0058348263
0.017378105 0.0161667 -0.059455868 -0.020722121 -0.043857563 -0.006828281 -0.042970397 -0.037473425
00000000: 8a00 e03b f5cc bb3c 3408 87ba 3b08 1ebd
00000010: 3d4b 3dbb d9c6 a13c ebb0 0bbb 1951 d6bc
00000020: b391 0fbd 2748 a8ba 57b3 b23c 50f0 453b
00000030: 4570 88bc 26b4 1fbc d096 3e3c 2b37 e4bc
00000040: 4041 313c 4878 47bc f165 523d a843 bcbc
00000050: 42bd 4abc 71b8 21bd e02e a53a 3c38 13bc
00000060: 5fdc 2d3b 5322 a5ba dfa7 c43c cd5d 1d3d
00000070: ca74 973b b8cc 12bd 2b7c 023d 455e 233d
00000080: 726b 343c bae3 55bc e492 1c3c d6de f13b
00000090: e588 1dbc 0725 113d 05ba f6b9 1f7f ac3c
000000a0: 8d15 f2bc 6346 18bc e663 04bd fddc 53bd
000000b0: acb2 94bb 2d14 0f3c 03b9 41bc 8318 c43c
000000c0: fabd a2bb 3e8b 463c e4d3 3d3c 86b1 033b
000000d0: e77a 8f3c f87d a4bc 8837 a33c 37da d239
000000e0: 5412 783c 8ffb 243c cabe 7bbd 18b9 b7bc
000000f0: 3fca 3fbd d34e e7bb 6925 34bd f09b 27bd
00000100: 79a1 2e3d 4138 c13c 5525 163a 9510 8eba
00000110: 7987 b33c fded abbc 6c29 00bd 4c40 99bd
00000120: e646 27bc 5b9b dcbc cf9f d93c 30bc 3cbd
00000130: acb5 9f3c f152 183d 7f41 0fbd 6069 c43c
00000140: 8905 213c fec3 b9bd cc89 213c 6891 8fbc
00000150: 86a0 4ebc 71c0 81bc 5349 593d 112e fe3c
00000160: 3ddb 9fbc 3b93 13bd e2a1 7e3c e526 11bd
00000170: cd1f d63b e33e b539 f444 f0ba 8c15 603b
00000180: 39a4 443b 1d3f c13c a9d2 e43a 48c8 13bd
00000190: dae3 93ba 687e ab3c b423 b63b 53f2 dbbc
000001a0: 4dbc 0dbd c73f 4fbb c34e be3c 300b 783b
000001b0: 1b47 c1bb 05f6 33bc 5185 453c 11f0 ddbc
000001c0: 1112 3a3c 6602 2abc 51a1 543d 16b3 c4bc
000001d0: 5f31 28bc 241a 1ebd ff3d 773b 5830 f7bb
000001e0: 875b 8d3b d4e9 4bba 23b2 d93c ed69 1d3d
000001f0: 18b9 863b 629c 23bd f835 0f3d 4b72 223d
00000200: 0080 a03c 8909 cdbb ea76 af3b 338e 0d3c
00000210: e9a2 fdbb 7589 1b3d c3a6 72ba 52e5 b23c
00000220: b56b 00bd 330e 0fbc cf9b 07bd 5f17 4cbd
00000230: 8c98 5739 f7b6 393c 4023 d5bb 1fa9 d63c
00000240: b0b2 94bb f82c 5e3c 270e 823c 016b f33b
00000250: eea8 a83c 5abd aabc 919a a53c 9efd e33b
00000260: b65b 8e3c 9664 be3b 4430 7bbd 39d8 b1bc
00000270: 03db 3bbd 1ebd debb 82a7 3bbd 2d55 2ebd
00000280: a15f 393d 6166 cb3c 9762 9b3a 94e4 b4ba
00000290: 4b54 e43c f876 a1bc bb23 fdbc 43db 97bd
000002a0: 7b79 0bbc e42f d3bc 580d f23c 1062 43bd
000002b0: f981 983c f156 273d 0b02 09bd 7279 d83c
000002c0: 96da 4e3c 9789 b7bd 400f 173c c128 7fbc
000002d0: 6d39 c1bb 1751 89bc f0d0 633d 9e11 063d
000002e0: a947 8cbc 5756 0ebd a9a4 773c 746e 12bd
000002f0: ac15 133c 2ed3 143a d608 983b e4db 973b
00000300: d40d 1a3c a2ae b03c edc7 293a 25f5 0cbd
00000310: ce73 e4b8 17fc a43c 4508 9b3b 68d4 3cbc
00000320: 33f7 ffbc d6d1 113c 95d1 cc3c c3c8 9d3a
00000330: af3f f1b9 2c12 02bc bdd1 7a3c 81c1 d4bc
00000340: 86b7 033c b9e1 0cbc 540a 583d 66d3 babc
00000350: c6f8 4fbc f01e 1cbd b6b7 de3b f5dd b43b
00000360: a462 a83b 7430 16bb bbe0 ce3c c344 143d
00000370: c640 703c 2627 dfbc 5845 0e3d 9753 1d3d
00000380: 1f5d cf3c 967a 7fbb 62ac 3a3c b139 413c
00000390: 02e3 053b f4cc 173d 491e 85ba 89da a43c
000003a0: 62ef ebbc 4336 c2bb f24e cbbc 4d7b 39bd
000003b0: ea55 093b 798a 833c 25df 99bb ac13 dd3c
000003c0: 595f a83b 9d80 3b3c 2d7b 793c 42c3 023c
000003d0: 8e52 d33c bbe3 99bc b5aa a23c 1232 bf3b
000003e0: 875c 8e3c 0770 843c ff87 73bd 70c1 a9bc
000003f0: fda3 33bd c6bf dfbb ba01 30bd bc7d 19bd

model_4/gru_9/gru_cell/strided_slice_4 f4 [48]
-0.00153167 -0.035471164 0.00010103685 0.009956983 0.0052036103 -0.037681054 -0.029901817 0.021453744
-0.010578553 -0.10272995 0.046668187 0.0068953983 0.097154714 -0.006239081 -0.017206768 0.08225979
-0.0058529205 -0.0180581 -0.0011859571 0.007937758 0.061404865 -0.05823864 -0.0061844056 -0.06479859
0.057561498 0.052390188 0.023209652 0.0010824382 0.042523578 0.04055851 0.03816952 -0.038673233
0.000602353 0.054778796 -0.045283437 0.0051334226 0.0072373385 -0.05101322 -0.018089227 -0.01026494
-0.005067887 -0.006686483 0.08039922 0.18801236 -0.027315484 0.042213168 -0.029887661 0.07293859
00000000: 51c2 c8ba 364a 11bd bfe3 d338 9d22 233c
00000010: 0c83 aa3b 7357 1abd a8f4 f4bc c3bf af3c
00000020: ab51 2dbc 1464 d2bd 2427 3f3d cbf2 e13b
00000030: 0df9 c63d 3471 ccbb 35f5 8cbc d277 a83d
00000040: dbc9 bfbb 95ee 93bc 1e72 9bba 5f0d 023c
00000050: ab83 7b3d a48b 6ebd 8ea6 cabb 20b5 84bd
00000060: 9bc5 6b3d 1897 563d 2b22 be3c 99e0 8d3a
00000070: 342d 2e3d ae20 263d a557 1c3d d367 1ebd
00000080: 3ae7 1d3a bb5f 603d 207b 39bd 4536 a83b
00000090: 3227 ed3b 3df3 50bd dc2f 94bc 472e 28bc
000000a0: 8410 a6bb 491a dbbb 59a8 a43d 5086 403e
000000b0: b9c4 dfbc b7e7 2c3d f8d6 f4bc d460 953d

model_4/gru_9/gru_cell/strided_slice_3 f4 [48]
-0.04007441 0.07697033 0.049757157 0.07512008 -0.035687286 0.03456177 -0.008745878 0.029308617
-0.028250935 -0.03205578 -0.08842446 0.025300616 0.020747347 0.022288242 -0.0060615307 -0.048583355
0.027688643 0.04405948 0.014798682 0.01009911 0.11357284 0.007928728 0.018490177 -0.008992727
-0.0015254219 0.008187364 0.13213515 0.028751703 0.0046696328 0.0710673 0.022940578 0.052912932
0.09119643 0.065939784 -0.045636687 0.04302778 0.06145935 0.015720146 0.015922243 0.030156076
0.04277841 0.019416586 0.023911487 -0.04119873 0.055022195 0.029055579 0.09673195 0.03692805
00000000: 1125 24bd 9fa2 9d3d 29ce 4b3d 8ed8 993d
00000010: d52c 12bd a490 0d3d df4a 0fbc a018 f03c
00000020: 816e e7bc ec4c 03bd e217 b5bd 3d43 cf3c
00000030: 57f6 a93c d595 b63c ce9f c6bb 57ff 46bd
00000040: 4bd3 e23c b777 343d 2c76 723c bd76 253c
00000050: e198 e83d 7fe7 013c b678 973c 3b56 13bc
00000060: aaf0 c7ba 4b24 063c 704e 073e b188 eb3c
00000070: b803 993b bc8b 913d e1ed bb3c 3bbb 583d
00000080: 32c5 ba3d 700b 873d 89ed 3abd e63d 303d
00000090: cdbc 7b3d 89c7 803c 5d6f 823c e009 f73c
000000a0: 6a38 2f3d 880f 9f3c 06e2 c33c 00c0 28bd
000000b0: f45e 613d f705 ee3c 671b c63d de41 173d

model_4/gru_9/gru_cell/strided_slice_5 f4 [48]
-0.016313419 -0.06534401 -0.021424701 -0.091555886 -0.08546698 0.072806746 0.04333746 0.014683515
0.062329438 0.09859901 0.14686196 0.020025566 0.07760248 -0.08887304 -0.12273493 0.048860036
0.038200602 0.09142256 -0.03264701 -0.02572489 -0.07835986 0.032056335 -0.041246552 0.03637401
0.021464227 0.023147091 0.022818359 0.003319051 -0.04590033 -0.042735852 -0.05131497 -0.071976215
-0.059072096 -0.0035250136 0.079536684 0.013843094 -0.065237835 -0.11191951 0.008880765 -0.015063211
-0.049126126 -0.11186227 -0.11997728 -0.066987045 -0.037772425 0.03125657 -0.025632152 0.036423873
00000000: b8a3 85bc 15d3 85bd db82 afbc a781 bbbd
00000010: 5009 afbd b41b 953d 9f82 313d 2093 703c
00000020: 274d 7f3d 47ee c93d fb62 163e a80c a43c
00000030: 0dee 9e3d 1203 b6bd 735c fbbd 7621 483d
00000040: 3c78 1c3d c03b bb3d dfb8 05bd 01bd d2bc
00000050: 227b a0bd 814d 033d 25f2 28bd eafc 143d
00000060: bfd5 af3c f89e bd3c 91ed ba3c 6f84 593b
00000070: fc01 3cbd ca0b 2fbd a52f 52bd 4468 93bd
00000080: 95f5 71bd ea03 67bb 21e4 a23d 25ce 623c
00000090: 6a9b 85bd 0e36 e5bd a180 113c b0cb 76bc
000000a0: 7a38 49bd 0c18 e5bd a6b6 f5bd 8130 89bd
000000b0: 42b7 1abd e406 003d 85fa d1bc 3331 153d

model_4/gru_9/gru_cell/strided_slice_11 f4 [48]
-0.015545579 -0.0641776 -0.021662733 -0.07373878 -0.046370465 0.05457557 0.046863373 0.026730102
0.04130632 0.07441225 0.10828541 0.024156846 0.078406975 -0.07196892 -0.06978481 0.04679915
0.058521174 0.05486585 -0.04119666 -0.020832194 -0.04554609 0.004170682 -0.030911194 0.031944115
0.02951801 0.021972861 0.035008166 -0.011698471 -0.065278836 -0.018664243 -0.057365026 -0.044745024
-0.055020113 -0.006417178 0.06468271 0.028171718 -0.051664818 -0.03508587 0.020817071 -0.047004454
-0.021592833 -0.06383634 -0.071099944 -0.04534289 -0.04710804 0.05995199 -0.009726458 0.026342575
00000000: e2b2 7ebc 8c6f 83bd 0b76 b1bc 5c04 97bd
00000010: f5ee 3dbd a28a 5f3d cff3 3f3d 16f9 da3c
00000020: d130 293d 7365 983d bec4 dd3d 94e4 c53c
00000030: d693 a03d 7164 93bd 57eb 8ebd 77b0 3f3d
00000040: e6b3 6f3d 03bb 603d d4bd 28bd 47a8 aabc
00000050: 898e 3abd 37aa 883b 7939 fdbc d5d7 023d
00000060: c1cf f13c 6e00 b43c b964 0f3d f2aa 3fbc
00000070: e9b0 85bd c1e5 98bc 97f7 6abd 8f46 37bd
00000080: c55c 61bd 3147 d2bb 5e78 843d 60c8 e63c
00000090: 7d9e 53bd 34b6 0fbd 9088 aa3c be87 40bd
000000a0: 74e3 b0bc a1bc 82bd d99c 91bd 77b9 39bd
000000b0: 5cf4 40bd 3890 753d b95b 1fbc 62cc d73c

model_4/gru_8/gru_cell/strided_slice_4 f4 [96]
-0.010662831 -0.03370298 -0.059824303 0.0039046053 -0.018544013 0.04125832 -0.012928886 0.0074751675
0.0008430796 -0.04005651 -0.009010283 -0.04086437 -0.06352862 0.004302684 -0.031173402 -0.043936897
-0.052385103 -0.024836943 0.042275365 0.059927188 0.005841368 -0.033482604 -0.018772628 -0.06307503
2.7974485e-05 -0.012603242 -0.052808627 -0.022023527 -0.022953594 -0.0212503 0.0059532924 0.0034931595
0.047279075 0.020353703 0.042109754 -0.00415522 -0.023242498 -0.010906077 0.04636156 0.01716833
-0.050007243 0.007817901 -0.05593116 -0.038382366 0.010231955 0.011443589 -0.034226637 0.07145751
0.020154785 -0.031048961 -0.025642406 -0.012025854 -0.090807475 -0.004036929 -0.020892514 0.0038705866
0.0343965 0.050033458 -0.07582327 -0.025941655 0.04872716 -0.016188173 0.052988127 0.038346663
-0.013425234 0.023546906 0.06913868 -0.034525227 0.03349084 0.0014751606 -0.007601956 0.012244833
-0.015339337 0.0059959185 0.03444338 0.016094888 -0.023133121 -0.0866975 -0.011977276 -0.015886925
0.027893618 0.02989204 0.008192678 -0.021858575 0.019845856 0.035908505 -0.020857546 -0.07239283
0.031517833 -0.013059535 0.052849796 -0.052792042 0.04266573 -0.03775919 0.095020406 0.055698276
00000000: 28b3 2ebc 230c 0abd 540a 75bd 68e4 7f3b
00000010: 9de9 97bc 7cfe 283d aed3 53bc 40f2 f43b
00000020: 1d02 5d3a 4c12 24bd de9f 13bc 6661 27bd
00000030: 4b1b 82bd 88fd 8c3b 5d5f ffbc 2df7 33bd
00000040: c391 56bd d876 cbbc ef28 2d3d 3676 753d
00000050: f268 bf3b 0e25 09bd 0ec9 99bc 7b2d 81bd
00000060: c0aa ea37 d47d 4ebc dc4d 58bd af6a b4bc
00000070: 2d09 bcbc 1c15 aebc d613 c33b 7eed 643b
00000080: b4a7 413d cfbc a63c 477b 2c3d 8328 88bb
00000090: 0d67 bebc 67af 32bc 9ee5 3d3d 99a4 8c3c
000000a0: 65d4 4cbd a716 003c 1218 65bd d436 1dbd
000000b0: eea3 273c e47d 3b3c 3b31 0cbd 5158 923d
000000c0: a61b a53c 645a febc 0610 d2bc 1608 45bc
000000d0: 45f9 b9bd 3748 84bb c726 abbc aba9 7d3b
000000e0: 58e3 0c3d e2ef 4c3d 3b49 9bbd 9883 d4bc
000000f0: 2196 473d 0f9d 84bc 140a 593d 6411 1d3d
00000100: 83f5 5bbc 71e5 c03c 9598 8d3d 536a 0dbd
00000110: b12d 093d 2d5a c13a d419 f9bb 8d9e 483c
00000120: d851 7bbc 6979 c43b 8014 0d3d 6dd9 833c
00000130: ac81 bdbc 758e b1bd 563c 44bc 4c25 82bc
00000140: 2881 e43c 27e0 f43c 953a 063c c110 b3bc
00000150: c793 a23c cc14 133d 72dd aabc b142 94bd
00000160: d818 013d a9f7 55bc 0779 583d 783c 58bd
00000170: 43c2 2e3d 61a9 1abd 0f9a c23d e023 643d

model_4/gru_8/gru_cell/strided_slice_3 f4 [96]
0.043887082 0.09426354 -0.06792463 0.027163737 0.011585931 0.06132552 -0.0027397247 -0.013447791
0.023309072 -0.02008558 -0.046903938 -0.047617003 -0.0047133397 0.060503248 -0.020504378 0.004548285
0.02636602 0.0065806946 0.039439104 0.121602535 -0.031788502 0.0018300308 -0.02351827 0.0047086566
-0.031736095 -0.051064827 -0.05764224 -0.007105308 -0.010865561 -0.0037100087 -0.01884291 -0.042028055
0.057668228 0.187618 0.041610125 -0.014545551 0.02372689 0.02348967 -0.004729485 0.012163619
-0.0484322 0.07951246 -0.027803052 -0.032631617 0.08325409 0.010616713 0.012014138 -0.019015837
-0.03503535 -0.005264267 0.077017665 -0.0090697985 -0.026561901 -0.044565666 -0.012828668 -0.009119114
0.050061002 0.02091041 -0.0061706025 -0.0022742206 0.066618234 -0.028217342 0.021186493 0.28540555
-7.135875e-05 0.18944372 0.09130071 -0.054007385 0.03778769 0.11664392 0.0026800693 0.0062332847
0.065030776 0.0070321416 0.083821855 0.089967154 0.015190136 0.15537335 0.02205724 -0.026655395
-0.0028470992 -0.03808367 -0.0041903523 0.019702181 0.096426666 0.055010892 0.063736856 -0.016910769
0.06155046 0.00080078066 0.061636526 0.06508119 0.074490175 -0.04543155 -0.011456188 0.17055589
00000000: f1c2 333d 3e0d c13d 121c 8bbd 7c86 de3c
00000010: ebd2 3d3c 7830 7b3d f48c 33bb 2054 5cbc
00000020: abf2 be3c 848a a4bc 581e 40bd 0c0a 43bd
00000030: 5c72 9abb 41d2 773d ccf8 a7bc c809 953b
00000040: 8dfd d73c dea2 d73b e68a 213d c00a f93d
00000050: a934 02bd a5dd ef3a 63a9 c0bc 134b 9a3b
00000060: b5fd 01bd 5a29 51bd 451a 6cbd a5d3 e8bb
00000070: 7705 32bc 9e23 73bb 725c 9abc 9c25 2cbd
00000080: 8535 6c3d ef1e 403e 616f 2a3d 7650 6ebc
00000090: e55e c23c 696d c03c ccf9 9abb ea49 473c
000000a0: d860 46bd 6ed7 a23d 3ac3 e3bc bba8 05bd
000000b0: 1f81 aa3d b9f1 2d3c f2d6 443c 1ac7 9bbc
000000c0: 3a81 0fbd df7f acbb 70bb 9d3d 7e99 14bc
000000d0: 5898 d9bc 7d8a 36bd 552f 52bc 5668 15bc
000000e0: c40c 4d3d 4f4c ab3c c432 cabb 170b 15bb
000000f0: 246f 883d 0e28 e7bc 4c8f ad3c ad20 923e
00000100: 70a6 95b8 89fd 413e defb ba3d d936 5dbd
00000110: 44c7 1a3d 02e3 ee3d 1aa4 2f3b 9540 cc3b
00000120: db2e 853d e16d e63b cbaa ab3d b340 b83d
00000130: 0ce0 783c 311a 1f3e 63b1 b43c 6a5c dabc
00000140: 6696 3abb 9ffd 1bbd 394f 89bb 7866 a13c
00000150: 587b c53d 1a53 613d 7888 823d 7488 8abc
00000160: 561c 7c3d 7beb 513a 9576 7c3d 4949 853d
00000170: 4e8e 983d 6f16 3abd bcb2 3bbc 34a6 2e3e

model_4/gru_8/gru_cell/strided_slice_5 f4 [96]
0.0014762338 0.060676068 -0.0046137413 0.05572647 0.059528034 0.048934598 0.09271851 0.017607236
0.0209592 -0.0023788149 0.0054209833 0.028596787 -0.0027146288 0.00038584718 -0.00734794 -0.032717574
0.031100687 -0.006270965 -0.026836766 0.020334233 0.02890241 -0.009448498 0.006144694 0.0018892301
0.02469157 0.048240613 -0.0009539231 0.006309092 -0.05321679 0.029073376 0.010918521 -0.00046264136
0.019108653 0.020514082 -0.03342094 0.08178332 -0.02675126 -0.0157137 -0.0008251463 -0.0072367177
-0.016577862 -0.021007521 0.015086933 0.025617305 -0.031448793 -0.020198701 0.022612123 -0.049974225
-0.045502007 -0.024528505 -0.06290233 0.016571477 -0.015913326 -0.01387948 0.004874454 0.03182049
-0.0030997344 0.022236815 -0.06314815 0.0347984 -0.019954737 -0.022020634 0.013557019 0.028087633
0.021903489 0.009381232 -0.017627465 0.00020957507 -0.0014254578 -0.003184573 -0.004877139 -0.02479933
0.0011059296 0.013316891 -0.014600548 -0.00597539 -0.008741885 -0.02605823 0.00080207945 -0.024677845
-0.0024982267 0.042997986 0.004817782 0.048742663 -0.0069230143 -0.017932296 0.024302796 0.010611532
0.009652835 -0.008686989 -0.00847095 -0.022929123 -0.021917574 -0.0034377403 -0.043802675 -0.026875952
00000000: 307e c13a 7887 783d de2e 97bb 7041 643d
00000010: abd3 733d a56f 483d 34e3 bd3d 0d3d 903c
00000020: a1b2 ab3c e4e5 1bbb 81a2 b13b cf43 ea3c
00000030: eae7 31bb 884b ca39 fdc6 f0bb dd02 06bd
00000040: dec6 fe3c ab7c cdbb c7d8 dbbc fa93 a63c
00000050: bfc4 ec3c dfcd 1abc 6e59 c93b 0ba0 f73a
00000060: fa45 ca3c f397 453d b210 7aba 80bc ce3b
00000070: d9f9 59bd 4a2b ee3c 99e3 323c ac8e f2b9
00000080: c089 9c3c 260d a83c 65e4 08bd 037e a73d
00000090: 7525 dbbc 04ba 80bc a14e 58ba fd21 edbb
000000a0: 4cce 87bc f717 acbc 2f2f 773c 62db d13c
000000b0: 73d0 00bd bf77 a5bc 0f3d b93c c6b1 4cbd
000000c0: 5060 3abd 01f0 c8bc f0d2 80bd e8c0 873c
000000d0: aa5c 82bc c266 63bc e2b9 9f3b 3456 023d
000000e0: ea24 4bbb fb29 b63c d153 81bd c488 0e3d
000000f0: 1e78 a3bc 9e64 b4bc 421e 5e3c 0918 e63c
00000100: f26e b33c bdb3 193c 7967 90bc 61c1 5b39
00000110: 6dd6 baba 45b4 50bb 68d0 9fbb f727 cbbc
00000120: d7f4 903a 172f 5a3c 2337 6fbc 34cd c3bb
00000130: 203a 0fbc 1278 d5bc a442 523a 3129 cabc
00000140: 4ab9 23bb a81e 303d 7cde 9d3b 63a6 473d
00000150: 74da e2bb c0e6 92bc a816 c73c fedb 2d3c
00000160: ed26 1e3c df53 0ebc bdc9 0abc dbd5 bbbc
00000170: 7c8c b3bc b64b 61bb 6f6a 33bd f52a dcbc

model_4/gru_8/gru_cell/strided_slice_11 f4 [96]
0.02616385 0.028850492 -0.010244196 0.043397564 0.016268946 0.052834116 0.034113858 0.017241487
0.03827981 0.01442869 -0.00402676 0.036235455 0.0023124798 0.006894667 -0.0072569023 -0.021308366
0.013946517 -0.008772731 -0.019841805 0.010452168 0.03734288 0.0075382493 -0.0076604267 0.0040370333
0.02286421 0.05154798 -0.0044915173 0.015657801 -0.027240884 0.011097799 0.010848739 0.009815083
0.012841704 0.023011548 -0.046720177 0.064824834 -0.0138002345 -0.055429317 -0.008312666 -0.004577984
-0.02084244 -0.0054124873 0.013838328 0.0356192 -0.026583279 -0.017866047 0.030039769 -0.034387004
-0.040194213 -0.030546302 -0.052043345 0.023707576 -0.01685795 -0.0004146417 0.0252931 0.029779375
0.0062423074 0.0074961013 -0.032206744 0.040336072 -0.018841298 -0.019777844 -0.0009894309 0.021624135
0.034706924 0.014332711 -0.0038086886 0.0008221496 0.007859971 0.012362348 0.010547684 -0.024323193
0.00024506488 0.013851281 -0.0022206842 0.0010622629 -0.015065433 -0.028173408 0.0024674123 -0.035897117
0.017869767 0.022913117 0.009347121 0.036770284 -9.541027e-05 -0.002235824 0.042608503 0.019986644
0.0016539554 -0.0016290267 -0.017341131 0.0033129817 -0.010323664 -0.010342938 -0.027326845 -0.012967791
00000000: 9255 d63c de57 ec3c 46d7 27bc a5c1 313d
00000010: 7446 853c 9668 583d f9ba 0b3d 053e 8d3c
00000020: 4acb 1c3d 5066 6c3c e9f2 83bb a16b 143d
00000030: f98c 173b a9ec e13b 4fcb edbb e28e aebc
00000040: ef7f 643c 80bb 0fbc 488b a2bc 923f 2b3c
00000050: d9f4 183d 6b03 f73b 5104 fbbb 1749 843b
00000060: b94d bb3c fa23 533d 942d 93bb ca44 803c
00000070: 4628 dfbc 8bd3 353c e9be 313c 71cf 203c
00000080: 0366 523c b782 bc3c a85d 3fbd e2c2 843d
00000090: 611a 62bc da09 63bd d931 08bc ea02 96bb
000000a0: c4bd aabc 3c5b b1bb 28ba 623c 70e5 113d
000000b0: 2dc5 d9bc d15b 92bc f615 f63c 63d9 0cbd
000000c0: b0a2 24bd 3d3c fabc 672b 55bd 6436 c23c
000000d0: af19 8abc 4464 d9b9 7a33 cf3c e0f3 f33c
000000e0: 458c cc3b dba1 f53b 38eb 03bd 7037 253d
000000f0: 1159 9abc 2505 a2bc cbaf 81ba 1925 b13c
00000100: d928 0e3d bfd3 6a3c 319b 79bb 8785 573a
00000110: 1cc7 003c 728b 4a3c 31d0 2c3c 6f41 c7bc
00000120: 0d7c 8039 7cf0 623c e688 11bb a13b 8b3a
00000130: 02d5 76bc ebcb e6bc 4fb4 213b db08 13bd
00000140: 9e63 923c 4ab4 bb3c ab24 193c 709c 163d
00000150: 0017 c8b8 e786 12bb 4186 2e3d 08bb a33c
00000160: 89c9 d83a 1185 d5ba fd0e 8ebc 9c1e 593b
00000170: 9624 29bc 6d75 29bc 8cdc dfbc dc76 54bc

model_4/batch_normalization_19/batchnorm/sub f4 [48]
0.2714961 0.1984031 0.35239026 -0.16603845 0.37530786 0.04866231 -0.25503162 -0.0459584
-0.1735607 -0.41889775 -0.63449705 0.46590656 -0.4837173 0.7380458 0.5492952 -0.6416151
-0.011101499 -0.21271218 0.02485307 0.54826546 0.066916466 -0.09637466 0.5802625 0.07536384
-0.5098702 -0.32077888 0.051872186 -0.006624587 0.5150806 0.4211095 0.49354413 -0.03541795
0.19492546 -0.14593151 -0.3947075 -0.2233576 0.1978487 0.2733299 0.47847867 0.079212636
0.33188167 0.040675562 0.52925587 0.41100764 0.1499901 -0.4077835 0.13549313 -0.33175793
00000000: 8901 8b3e 2f2a 4b3e 7f6c b43e fc05 2abe
00000010: 5a28 c03e 2152 473d 8193 82be e03e 3cbd
00000020: e5b9 31be c479 d6be 666e 22bf 4e8b ee3e
00000030: cba9 f7be 92f0 3c3f 9c9e 0c3f e340 24bf
00000040: 10e3 35bc 39d1 59be aa98 cb3c 205b 0c3f
00000050: 800b 893d 1460 c5bd 158c 143f 5b58 9a3d
00000060: da86 02bf 213d a4be ee77 543d 1013 d9bb
00000070: 52dc 033f aa9b d73e d1b1 fc3e 6a12 11bd
00000080: 8a9a 473e 126f 15be 1a17 cabe dbb7 64be
00000090: da98 4a3e e6f1 8b3e 28fb f43e 3c3a a23d
000000a0: 65ec a93e 6b9b 263d 507d 073f 986f d23e
000000b0: 0197 193e 00c9 d0be b6be 0a3e 2ddc a9be

model_4/batch_normalization_19/batchnorm/mul f4 [48]
2.2138815 2.2354126 1.7228838 2.1149483 2.113087 2.1587288 1.8065165 2.3949654
2.2401886 2.234442 1.7949055 1.8214265 1.8364137 2.1210775 1.8677477 1.6989144
1.9959397 2.1517136 2.2864244 2.100078 2.2132707 3.0393019 2.206024 2.1265113
1.8471328 2.099937 1.9653755 2.1804447 2.1172967 2.1956046 2.3487005 2.1839013
2.0923245 1.8750879 1.90133 2.3282726 1.9987441 2.3795724 2.3413644 3.0168538
2.033439 2.2491574 2.2739482 1.5429676 2.0100813 1.6463464 2.1462393 1.7619153
00000000: 3cb0 0d40 0011 0f40 7587 dc3f 505b 0740
00000010: d13c 0740 9d28 0a40 ef3b e73f 1d47 1940
00000020: 405f 0f40 1901 0f40 77bf e53f 8124 e93f
00000030: 9b0f eb3f bcbf 0740 5b12 ef3f 0776 d93f
00000040: f47a ff3f adb5 0940 c754 1240 ae67 0640
00000050: 3aa6 0d40 ec83 4240 7f2f 0d40 c318 0840
00000060: d96e ec3f 5e65 0640 6d91 fb3f 688c 0b40
00000070: ca81 0740 c984 0c40 1c51 1640 0ac5 0b40
00000080: a5e8 0540 e102 f03f c85e f33f 6b02 1540
00000090: d9d6 ff3f ea4a 1840 ead8 1540 2214 4140
000000a0: dd23 0240 32f2 0f40 5e88 1140 f67f c53f
000000b0: 2ca5 0040 7bbb d23f fc5b 0940 7186 e13f

model_4/batch_normalization_18/batchnorm/sub f4 [96]
0.5849448 0.7074756 0.5553247 0.050720442 0.42849305 0.5064705 0.32774422 -0.039370425
-0.13452865 -0.45285887 -0.6807999 -1.0067185 -0.00912139 0.40357366 -0.14753395 0.0054474566
1.313663 -0.5902023 0.097490065 0.66693836 0.3576154 0.60313237 0.8982698 -0.48416483
-0.65329754 0.4622488 -1.4426596 -0.2738525 -0.18915626 -0.14753868 0.048060417 -1.1181844
0.018359385 0.035451658 0.620044 -0.15291491 -0.5545595 0.036400035 -1.1571405 -0.1600487
-0.8532105 0.23526198 -1.1717846 0.24172737 -0.2585759 0.69816726 0.5951608 0.84169906
-0.2613164 0.3383953 0.55121166 0.5042014 -1.3451364 -0.3566327 0.79364127 -0.6220187
-0.43290138 0.3633555 -0.34839875 -0.15870963 -0.8749788 0.25896206 -0.555385 -0.5515147
-0.112656504 -0.55512226 -0.6049179 -0.42013183 -1.1168429 0.06512324 0.1116744 -0.6165115
-0.18537572 0.7630504 -0.71471894 -0.25171417 -0.117487535 -0.7218242 -0.75265735 -0.99295837
0.15760657 0.20934352 -0.19145961 -0.46189025 0.1273285 0.071353905 -0.795367 -0.09753917
-0.5268653 -0.18035905 -0.36780885 0.6047152 0.36311483 -0.6609783 1.0045106 -0.48647025
00000000: f1be 153f 1f1d 353f c229 0e3f 3dc0 4f3d
00000010: 7163 db3e 0da8 013f 17ce a73e e242 21bd
00000020: e1c1 09be 1edd e7be e748 2ebf 27dc 80bf
00000030: e271 15bc 35a1 ce3e 2413 17be 9480 b23b
00000040: 1c26 a83f 7f17 17bf dfa8 c73d 79bc 2a3f
00000050: 5e19 b73e e266 1a3f 02f5 653f 74e4 f7be
00000060: 823e 27bf e0ab ec3e 12a9 b8bf 6536 8cbe
00000070: 2eb2 41be 6114 17be 00db 443d ab20 8fbf
00000080: 6c66 963c c235 113d 34bb 1e3f ba95 1cbe
00000090: 9df7 0dbf 3418 153d 2e1d 94bf cee3 23be
000000a0: 016c 5abf 84e8 703e 0afd 95bf 6187 773e
000000b0: 0f64 84be 17bb 323f 755c 183f 9779 573f
000000c0: 43cb 85be 2642 ad3e 351c 0d3f 5813 013f
000000d0: 6e2d acbf 9098 b6be 132c 4b3f 9e3c 1fbf
000000e0: 40a5 ddbe bb09 ba3e 5261 b2be c784 22be
000000f0: 9cfe 5fbf ad96 843e b62d 0ebf 1130 0dbf
00000100: 74b8 e6bd 7e1c 0ebf e6db 1abf 851b d7be
00000110: b5f4 8ebf 555f 853d 8cb5 e43d b3d3 1dbf
00000120: 22d3 3dbe 4557 433f d2f7 36bf aee0 80be
00000130: 4e9d f0bd 79c9 38bf 27ae 40bf 8532 7ebf
00000140: 9e63 213e 265e 563e fd0d 44be e17c ecbe
00000150: 6762 023e ff21 923d 2c9d 4bbf 9ec2 c7bd
00000160: a5e0 06bf 0bb0 38be 7151 bcbe 9ece 1a3f
00000170: 30ea b93e e035 29bf ce93 803f a112 f9be

model_4/batch_normalization_18/batchnorm/mul f4 [96]
8.589506 7.283854 6.294085 6.59206 7.4158173 5.856387 9.270126 6.9175525
6.8782015 10.993535 7.363314 11.428601 10.322444 7.877593 8.768258 9.766092
8.951622 12.642664 5.4919977 5.0760283 5.4317656 5.490928 9.066382 9.922031
8.585062 9.270999 10.711971 5.9291883 8.456013 9.682573 6.5553203 8.297142
3.9955597 4.807674 4.398245 7.5409045 8.076589 6.7282586 8.777678 12.026865
7.807286 6.031812 9.077065 11.689419 7.410628 6.5110154 6.2144194 4.4205475
6.7903323 6.5388885 7.1364326 7.621007 12.259826 11.509116 8.927416 5.6729436
5.9300942 3.693478 8.16913 7.1039248 5.554863 10.837497 5.4830933 4.587059
8.400494 4.881377 5.5538244 11.406022 5.5290775 6.0710816 9.136171 9.482472
6.946392 7.3358355 6.7650948 5.210899 8.917213 11.662349 8.386151 7.5493298
6.3854465 6.2854576 9.887765 5.5168304 5.629 3.7178829 9.297484 8.655829
5.0642347 9.684691 8.602232 6.4838753 5.7385 8.359339 4.273864 5.011017
00000000: 9e6e 0941 5515 e940 2569 c940 28f2 d240
00000010: 604e ed40 8667 bb40 7052 1441 975c dd40
00000020: 3a1a dc40 85e5 2f41 45a0 eb40 8ddb 3641
00000030: bb28 2541 3e15 fc40 c94a 0c41 ea41 1c41
00000040: d839 0f41 5a48 4a41 72be af40 d36e a240
00000050: 06d1 ad40 afb5 af40 e70f 1141 a4c0 1e41
00000060: 6a5c 0941 0356 1441 3c64 2b41 e9bb bd40
00000070: d44b 0741 d2eb 1a41 2fc5 d140 18c1 0441
00000080: 40b7 7f40 77d8 9940 6cbe 8c40 174f f140
00000090: b539 0141 e54d d740 5e71 0c41 0a6e 4041
000000a0: 49d5 f940 9b04 c140 a93b 1141 dc07 3b41
000000b0: dd23 ed40 3d5a d040 86dc c640 2075 8d40
000000c0: 674a d940 933e d140 a85d e440 4adf f340
000000d0: 3f28 4441 5725 3841 b2d6 0e41 c188 b540
000000e0: 55c3 bd40 f261 6c40 c2b4 0241 5a53 e340
000000f0: 70c1 b140 6366 2d41 8075 af40 30c9 9240
00000100: 6c68 0641 3e34 9c40 eeb8 b140 117f 3641
00000110: 34ee b040 4d46 c240 c22d 1241 35b8 1741
00000120: d848 de40 2abf ea40 a87b d840 afbf a640
00000130: e8ac 0e41 fb98 3a41 ad2d 0641 1c94 f140
00000140: 9455 cc40 7822 c940 4934 1e41 e089 b040
00000150: c520 b440 cbf1 6d40 7fc2 1441 477e 0a41
00000160: 360e a240 7ff4 1a41 bea2 0941 e87b cf40
00000170: cba1 b740 dabf 0541 7ec3 8840 405a a040

model_4/dense_9/BiasAdd/ReadVariableOp f4 [26]
0.13266836 0.17921022 0.17173555 0.09773046 0.05430647 0.06487168 -0.031709474 -0.22247684
-0.22391321 -0.22792818 -0.21343549 -0.2605551 -0.21951745 -0.22342488 -0.2659765 -0.22639906
-0.23473437 -0.22417824 -0.20850964 -0.21780008 -0.21475378 -0.2238514 -0.23107389 -0.23150118
-0.213009 -0.228813
00000000: 37da 073e e282 373e 72db 2f3e e826 c83d
00000010: 7670 5e3d 72db 843d cbe1 01bd f8d0 63be
00000020: 8149 65be 0166 69be d58e 5abe 7a67 85be
00000030: 2fc9 60be 7ec9 64be 122e 88be 28d5 67be
00000040: 355e 70be fb8e 65be 8d83 55be fc06 5fbe
00000050: 6ae8 5bbe 4d39 65be a29e 6cbe a50e 6dbe
00000060: 081f 5abe f44d 6abe

model_4/dense_8/BiasAdd/ReadVariableOp f4 [48]
0.12652813 0.042117566 0.08537884 0.114466235 0.19447601 0.11310571 0.08720579 0.07598133
0.15715869 -0.022662874 0.078630574 -0.0532696 0.027671972 -0.038815185 0.09814998 0.0075579593
0.051161166 0.13837449 0.060277507 0.16035368 0.1654763 0.26304907 0.039071497 0.06202797
-0.014267681 0.109902106 0.14248957 0.087413184 0.024296917 0.119768284 0.19307214 -0.081500776
0.008701113 0.13942827 0.0851146 0.15107332 0.14838646 0.01089632 0.06767123 0.03227639
0.045593914 -0.06594815 0.05751122 0.024586499 0.12994894 -0.0005769551 0.21281706 -0.0023873616
00000000: 9790 013e 7883 2c3d 1adb ae3d 466d ea3d
00000010: b824 473e f7a3 e73d f398 b23d 199c 9b3d
00000020: 35ee 203e 7ea7 b9bc 1109 a13d 3931 5abd
00000030: 55b0 e23c acfc 1ebd db02 c93d c2a8 f73b
00000040: 5f8e 513d 0bb2 0d3e 8ce5 763d c133 243e
00000050: 9f72 293e 5eae 863e 6f09 203d 0a11 7e3d
00000060: fec2 69bc 5b14 e13d c9e8 113e af05 b33d
00000070: 540a c73c 1349 f53d b4b4 453e e1e9 a6bd
00000080: 1d8f 0e3c 49c6 0e3e 9050 ae3d f7b2 1a3e
00000090: 9ff2 173e 7b86 323c 3797 8a3d 3f34 043d
000000a0: afc0 3a3d d30f 87bd e390 6b3d a069 c93c
000000b0: 5611 053e cd3e 17ba b7ec 593e 4875 1cbb

model_4/gru_8/gru_cell/MatMul f4 [96, 126]
-0.00012845895 -6.8864174e-05 -6.342863e-05 0.00073849055 -4.3331976e-05 0.00022319087 0.00025748688 -0.0003744945
-0.000107927786 0.0004917104 -0.0020096805 0.00013438892 0.0004533215 -0.0015173497 -6.813723e-05 0.00019508347
-0.0016372595 0.00070389244 9.099863e-05 -0.0014744118 0.00014438268 -0.00040204477 -0.00251718 -0.00019101877
0.00046633498 -0.00041506503 -0.0005222261 0.00018396892 -0.0024700584 9.1555674e-05 0.0005853893 -0.0031094314
0.00017954996 -0.00039504917 -0.0034178768 -0.00017934103 -0.00080707273 -0.0024976004 -0.0007589944 -0.0007756382
-0.0013227784 0.00022475491 -0.00093610596 -0.0023475944 0.00028343603 -0.0009636569 -0.0031669512 0.00015155684
-0.00091511226 -0.0023453727 -0.00038031282 -0.00088987336 -0.00097067497 0.0001783049 -0.00020941938 -0.0007371009
-0.00048941217 0.00013447282 0.00014203011 -0.00034048644 -0.00039936893 -0.0025692969 -0.000575257 5.2378673e-05
0.0001383433 0.00010207005 7.7535915e-05 2.6222115e-05 7.3815776e-05 -6.188965e-05 4.072148e-05 0.00013761992
-7.215684e-05 1.0849781e-05 5.832129e-05 -6.1450082e-06 1.721e-05 8.186892e-05 0.00014704045 -0.0002405175
0.0001269002 5.758111e-06 -0.00029251233 0.00022947672 -3.2475917e-05 -0.00028199021 5.954494e-05 -0.0003472307
-0.00018090868 -5.687096e-06 -3.553165e-05 -0.00014170431 -2.5990192e-05 -0.0001314277 -0.00027496528 -2.1375497e-05
8.824663e-05 -0.00024464773 1.5466409e-05 -0.00024177009 -0.00044075082 6.302166e-05 6.0802744e-05 -5.0286195e-05
-0.00012907632 -7.402241e-05 -0.00034342156 -9.293119e-06 9.103801e-05 -0.00021055655 5.1203395e-05 -1.818129e-05
-0.000107664906 7.516229e-05 -6.070781e-05 3.2374934e-05 -1.421844e-05 -5.2787924e-05 -1.0588274e-05 7.518401e-05
-5.3447126e-05 -5.434698e-05 5.351028e-05 0.00016716546 -1.5933929e-05 -5.0581264e-05 -4.616046e-05 -0.00031672497
-5.61705e-05 0.0014408602 -0.00030341465 0.00032441 0.003205004 0.00021176433 -0.00012589117 0.0016699482
-0.00078175275 -0.0004717717 0.0039937785 0.00029814104 -0.0011381964 -0.0010556629 -0.00041332847 0.00012823686
0.0020995412 -0.0019500722 0.0003094851 -0.00033594418 -0.004748612 -0.0012557142 0.003001229 -0.0056313435
-0.0013899142 0.00069013285 -0.0011423526 -0.000339791 0.0023174447 0.0015527026 -0.0013325778 0.0023459066
-0.0035678092 -0.0014269877 0.0039890246 -0.00032834944 -0.0011068245 0.00047391834 -0.00027900797 -0.00047749406
0.00032288439 -0.0025164909 -0.0006476741 0.003271478 -0.0025629902 -0.0012856836 0.0043950565 -0.0014584629
-0.0011288112 0.0005277809 -0.0026160276 -0.00091769506 0.0007433004 -0.00061801303 -0.0011981872 0.0006853911
-0.0024709208 -0.0022525731 0.0020739501 -0.001069455 -0.0020544229 9.1445436e-05 -0.00019214915 0.00041649785
-9.748559e-05 -0.00063875475 0.00018839371 -0.00034931584 9.074142e-05 -0.00011786706 -0.00059093244 -0.00028200058
-5.5086144e-05 -0.00042973267 0.00035407578 -9.184501e-05 -0.00034208607 0.00092056324 -7.674688e-06 -0.0015790153
0.0009259997 3.1639054e-05 -0.00093148893 0.0011228601 0.00012436725 -0.00090723555 -9.81336e-06 2.032949e-06
-0.00064817345 0.0005305522 5.0294393e-06 -0.00083200063 7.442186e-05 0.00014919133 -0.0010029132 0.0006955713
0.0001280091 0.00018271142 0.00063597254 -2.6668604e-06 -0.00064762746 0.00046960165 -5.9687703e-05 -0.00078638305
0.0009816067 0.00030534732 -0.0002700649 -9.522096e-05 5.4411605e-05 -0.00078204006 0.00097375555 4.1445302e-05
-7.8660574e-05 0.00024262864 5.6449e-05 -0.0010218715 0.00051459565 -5.690078e-05 -0.00076481106 0.0005037765
2.293338e-05 -0.0007704872 0.0006520085 0.00040614684 0.00039165083 0.00015902217 -0.00011670301 -0.001495393
00000000: f0b2 06b9 2c6b 90b8 fd04 85b8 4397 413a
00000010: 5bbf 35b8 5808 6a39 4eff 8639 cd57 c4b9
00000020: 4a57 e2b8 20e6 003a d8b4 03bb c0ea 0c39
00000030: c8ab ed39 cfe1 c6ba e6e4 8eb8 528f 4c39
00000040: 5099 d6ba 6c85 383a 84d6 be38 0d41 c1ba
00000050: 6e65 1739 89c9 d2b9 46f7 24bb 364c 48b9
00000060: 6c7e f439 169d d9b9 00e6 08ba c8e7 4039
00000070: b4e0 21bb 9401 c038 d074 193a 9ac7 4bbb
00000080: 9345 3c39 9a1e cfb9 75fe 5fbb 7e0d 3cb9
00000090: bc91 53ba c8ae 23bb 41f7 46ba 3354 4bba
000000a0: 1461 adba 30ac 6b39 0265 75ba 19da 19bb
000000b0: 249a 9439 eb9d 7cba a08c 4fbb 3beb 1e39
000000c0: 25e4 6fba d3b4 19bb b964 c7b9 6446 69ba
000000d0: e574 7eba 5bf7 3a39 9697 5bb9 013a 41ba
000000e0: e54b 00ba 4601 0d39 ebed 1439 5183 b2b9
000000f0: 6462 d1b9 a661 28bb d8cc 16ba 2cb1 5b38
00000100: 3f10 1139 710e d638 c79a a238 90f7 db37
00000110: 8bcd 9a38 c1ca 81b8 5bcc 2a38 114e 1039
00000120: e952 97b8 7407 3637 029e 7438 3831 ceb6
00000130: 325e 9037 0bb1 ab38 df2e 1a39 6d33 7cb9
00000140: 8310 0539 cc35 c136 575c 99b9 b09f 7039
00000150: c036 08b8 16d8 93b9 e4bf 7938 840c b6b9
00000160: 4eb2 3db9 c8d3 beb6 d207 15b8 7696 14b9
00000170: 8305 dab7 dbcf 09b9 3729 90b9 884f b3b7
00000180: 0c11 b938 1044 80b9 dcbd 8137 aa83 7db9
00000190: 9314 e7b9 7f2a 8438 7306 7f38 64ea 52b8
000001a0: a958 07b9 7b3c 9bb8 430d b4b9 a4e9 1bb7
000001b0: a9eb be38 d8c8 5cb9 3ac3 5638 0684 98b7
000001c0: 28ca e1b8 72a0 9d38 84a0 7eb8 52ca 0738
000001d0: bc8b 6eb7 9a68 5db8 4aa4 31b7 1cac 9d38
000001e0: 6a2c 60b8 a0f2 63b8 3a70 6038 2349 2f39
000001f0: daa9 85b7 3827 54b8 6b9c 41b8 1b0e a6b9
00000200: 9d98 6bb8 3fdb bc3a a013 9fb9 9315 aa39
00000210: 0b0b 523b 0e0d 5e39 a701 04b9 2ae2 da3a
00000220: 8aee 4cba 2058 f7b9 3ede 823b d04f 9c39
00000230: 892f 95ba 2b5e 8aba 02b4 d8b9 5277 0639
00000240: 7598 093b 9199 ffba 6342 a239 aa21 b0b9
00000250: 3f9a 9bbb c796 a4ba 44b0 443b 2287 b8bb
00000260: c82d b6ba 08ea 343a feba 95ba fa25 b2b9
00000270: 45e0 173b 0e84 cb3a e4a9 aeba c8bd 193b
00000280: e8d1 69bb c309 bbba 5db6 823b 5126 acb9
00000290: de12 91ba 3e78 f839 d147 92b9 2b58 fab9
000002a0: cf48 a939 b6eb 24bb acc8 29ba 4b66 563b
000002b0: d7f7 27bb 6284 a8ba 6804 903b e529 bfba
000002c0: 9ef4 93ba c75a 0a3a a971 2bbb 7991 70ba
000002d0: 0cda 423a 2702 22ba 7e0c 9dba d1ab 333a
000002e0: 2cef 21bb e89f 13bb 1ceb 073b f42c 8cba
000002f0: 7fa3 06bb 65c6 bf38 a57b 49b9 655d da39
00000300: 2d71 ccb8 1b72 27ba 8d8b 4539 6124 b7b9
00000310: 6e4c be38 652f f7b8 cee8 1aba 7ad9 93b9
00000320: 4c0c 67b8 be4d e1b9 3fa3 b939 ea9c c0b8
00000330: 045a b3b9 f451 713a 89c2 00b7 f6f6 ceba
00000340: cabe 723a 2db4 0438 2a2f 74ba ef2c 933a
00000350: 9468 0239 8cd3 6dba 0fa4 24b7 cc6d 0836
00000360: 2fea 29ba c114 0b3a 8ec2 a836 9e1a 5aba
00000370: ef12 9c38 3e70 1c39 2f74 83ba 0057 363a
00000380: 2e3a 0639 3996 3f39 65b7 263a 50f8 32b6
00000390: 8bc5 29ba de34 f639 2f59 7ab8 4625 4eba
000003a0: 41a9 803a 0617 a039 7f97 8db9 5db1 c7b8
000003b0: 0438 6438 d201 4dba a143 7f3a 8ed5 2d38
000003c0: 93f6 a4b8 216a 7e39 a7c3 6c38 51f0 85ba
000003d0: eee5 063a bfa8 6eb8 9a7d 48ba de0f 043a
000003e0: 0f61 c037 85fa 49ba 8deb 2a3a 1bf0 d439
000003f0: 7c56 cd39 30bf 2639 74be f4b8 1001 c4ba
