app/src/main/assets/models/people.tflite (tflite, 673196 bytes, 52 tensors)

model_4/batch_normalization_16/batchnorm/add_1;model_4/conv1d_8/Conv1D/Squeeze;model_4/batch_normalization_16/batchnorm/mul_1;model_4/conv1d_8/BiasAdd;model_4/conv1d_8/BiasAdd/ReadVariableOp;model_4/batch_normalization_16/batchnorm/mul;model_4/batch_normalization_16/batchnorm/sub;model_4/conv1d_8/Conv1D;model_4/conv1d_9/Conv1D f4 [96]
000000 2f 6e 04 bf 95 18 83 bf 6f e6 b5 be 0e 0e c6 be
       -0.51730627 -1.0241877 -0.3552737 -0.38682598
000010 07 8d c8 be ae 01 bb 3f 20 75 1d bb da 08 91 bf
       -0.39170095 1.4609888 -0.002402611 -1.1330826
000020 2c 4c 6e be a9 db b5 bf f9 62 bd be 2c e7 db bd
       -0.23271245 -1.420766 -0.36989573 -0.10737452
000030 4d 2a 78 3e 5b 37 4f bf c3 6a a4 3f b8 e0 31 bc
       0.24234886 -0.8094384 1.2845081 -0.0108568
000040 7e d1 fe bf d3 13 ff bf ef 54 df bd 77 86 a3 bf
       -1.9907682 -1.9927925 -0.10904872 -1.277541
000050 00 aa df 3a ce af 06 c0 00 5f a8 3f d3 44 c4 be
       0.0017064214 -2.1044803 1.3153992 -0.3833376
000060 01 70 20 bf b3 74 68 3e ce f1 8a 3f 2b b1 ed 3f
       -0.62670904 0.22700767 1.0855043 1.8569692
000070 82 ea d6 bd 7e 5e 63 bd 91 4d 4c bf 17 75 b8 3f
       -0.104939476 -0.055510037 -0.79805857 1.4410733
000080 4c 14 58 3d c4 e2 05 40 e7 1d b8 bd 03 9f 5b be
       0.05275373 2.0919657 -0.089900784 -0.21447377
000090 78 51 13 bf 39 e6 6d 3f 66 47 95 3e 9a 58 76 bf
       -0.57546186 0.92929417 0.29156035 -0.96228945
0000a0 60 21 6d bf 80 e2 d8 3e dc 4d 36 3e e6 33 78 bf
       -0.9262905 0.42360306 0.17803138 -0.9695419
0000b0 4c 37 ed be 43 33 80 3e 34 97 76 bf f7 51 76 bf
       -0.4633125 0.2503911 -0.9632447 -0.9621882
0000c0 d5 d2 2c 3f 95 e8 2d bf ea b4 df be 93 60 c8 3e
       0.67509204 -0.67933017 -0.43692714 0.3913618
0000d0 4b f0 4a bf da c0 b0 bf b0 70 c5 bf be 42 8b be
       -0.7927291 -1.3808854 -1.5425014 -0.27199358
0000e0 c3 df 97 3f 61 c8 d6 bf 69 6b e8 3d 57 a7 5f bf
       1.1865162 -1.6779901 0.11348612 -0.87364715
0000f0 49 b4 6d be ae 7f ac be 05 67 c5 be df cd 06 bd
       -0.23213305 -0.33691162 -0.3855516 -0.032911178
000100 e3 b3 af bf 22 ff ed 3f fc 9e 74 be eb 88 b3 3d
       -1.3726772 1.8593485 -0.23888773 0.087663494
000110 19 55 ae bf 29 60 47 3e 38 1b fe be 80 bb 5e 3f
       -1.361972 0.19470276 -0.4963014 0.8700485
000120 2d d3 a1 3f 52 c1 58 bf f5 5a 3a be b7 f1 ab 3e
       1.2642571 -0.84669983 -0.1819876 0.3358285
000130 50 e4 c8 be 07 01 15 3f 9c d3 a9 3f ed 59 23 bf
       -0.3923669 0.5820469 1.3267703 -0.6380909
000140 73 2d 2f bf 62 0e 00 40 80 34 86 be 16 c5 b8 be
       -0.68428725 2.0008779 -0.2621193 -0.36087865
000150 66 aa be 3f 8c db 76 bd 2f 19 fb 3f a2 39 7d 3f
       1.4895751 -0.06026797 1.961706 0.98916066
000160 b6 5c 86 bf 9d 5f 8e 3f 08 4b 99 be 00 39 a8 be
       -1.0497043 1.1122929 -0.29940057 -0.32855988
000170 30 6d 7e bd 5e 85 15 bf 92 84 86 bd d6 eb 91 be
       -0.062115848 -0.5840663 -0.065682545 -0.2850024

model_4/batch_normalization_17/batchnorm/add_1;model_4/conv1d_9/Conv1D/Squeeze;model_4/batch_normalization_17/batchnorm/mul_1;model_4/conv1d_9/BiasAdd;model_4/conv1d_9/BiasAdd/ReadVariableOp;model_4/batch_normalization_17/batchnorm/mul;model_4/batch_normalization_17/batchnorm/sub;model_4/conv1d_9/Conv1D f4 [96]
000000 f8 72 fa 3e 73 0d 52 3f 7d 08 75 3d 0d 0c f4 3d
       0.4891584 0.8205177 0.05982255 0.11916361
000010 70 e3 32 3f d1 05 50 3f 42 f7 91 bd af 06 1e be
       0.6987829 0.81258875 -0.07127239 -0.15432237
000020 07 79 cf bd c5 c6 5a bd e7 f2 b5 be 01 3d d8 3e
       -0.10130506 -0.053412218 -0.35536882 0.42234042
000030 d5 ea dc bd 93 b0 44 3e c4 0e 1c 3f e9 2d f9 bd
       -0.10786978 0.19207983 0.6096003 -0.1216696
000040 02 68 85 3f 2d 74 5a bd e4 66 e3 be 91 a4 df be
       1.0422366 -0.05333345 -0.44414437 -0.43680242
000050 c5 64 c3 be 01 77 27 3f fa 5c a3 3e c7 ae a4 3f
       -0.3816282 0.6541596 0.31906873 1.2865838
000060 2d a5 c4 3e e9 ae 28 3e 11 f9 42 3f 0a 4d 70 be
       0.3840727 0.16472973 0.76161295 -0.23466888
000070 9a d4 9a 3d 78 0b 26 bf 72 70 af 3f f7 ac 70 3f
       0.07560082 -0.6486125 1.370619 0.94013923
000080 f4 37 f9 3e 24 da 81 be dd f4 46 3e 41 e0 a5 be
       0.486755 -0.2536174 0.19429345 -0.32397655
000090 80 20 b4 3e f2 22 21 3f d2 6f 27 3f 18 1d 4f 3f
       0.35181046 0.6294395 0.65405 0.8090377
0000a0 4d c0 3c 3e fe a6 34 3e 3b 73 3b 3f a8 3c c7 3e
       0.18432732 0.17641827 0.732227 0.38913465
0000b0 19 27 aa be c0 ad a6 be 99 e2 99 3e 47 d0 f0 3e
       -0.33232954 -0.32554436 0.30055693 0.47033903
0000c0 af d5 c4 3e 0a 2f 38 3f e8 d2 9b be 6c 23 3e 3f
       0.38444278 0.71946776 -0.30434346 0.742728
0000d0 0e d8 9b 3e a6 f9 47 bd 83 1b 98 3d 9e 39 13 3e
       0.30438274 -0.048822068 0.074271224 0.14377448
0000e0 8e ce 0d bf d8 8b 05 3f aa 04 3c bd 6f 09 85 be
       -0.553933 0.5216651 -0.045902885 -0.2598376
0000f0 d7 5c 44 3f f9 90 2f bd c0 20 80 be f1 e7 12 be
       0.7670416 -0.042862866 -0.25024986 -0.14346291
000100 b8 d8 77 3f 23 e5 e1 bc c1 11 a3 be 82 97 ac bd
       0.9681506 -0.027575081 -0.31849483 -0.08427335
000110 e7 32 de 3e e3 24 6f be 75 53 b2 be fe ce 70 3f
       0.4339821 -0.23353915 -0.34829298 0.94065845
000120 03 3a 92 3f 3a 60 a0 bd 67 9f 29 3f 05 a9 d3 3e
       1.1423954 -0.07830854 0.66258854 0.4133989
000130 8f 9d 17 3c 36 af 76 3e 26 d0 92 be 1e 84 0d bf
       0.0092538735 0.24090275 -0.2867443 -0.5527972
000140 22 e5 d7 be cf 12 98 3e 46 9c 80 bf 99 b3 c5 3e
       -0.42167002 0.2970185 -1.0047691 0.38613585
000150 47 c2 41 3f 0f 84 71 bf 5a 0b d2 3e e4 f8 22 3f
       0.7568707 -0.9434213 0.41024286 0.63661027
000160 2b e5 f5 3e aa 5b 18 be f5 72 3d bf 08 46 c5 be
       0.48026404 -0.14878717 -0.74003536 -0.38529992
000170 67 d7 6a be 30 a9 a2 3e 60 b3 d5 3e be cd d2 bd
       -0.22933732 0.31769705 0.41738415 -0.102931485

model_4/batch_normalization_16/batchnorm/mul_1;model_4/conv1d_8/Conv1D/Squeeze;model_4/conv1d_8/BiasAdd;model_4/conv1d_8/BiasAdd/ReadVariableOp;model_4/batch_normalization_16/batchnorm/mul;model_4/conv1d_8/Conv1D;model_4/conv1d_9/Conv1D f4 [96, 1, 3, 126]
000000 3b ac 9f 3b 95 dd aa b9 8c ae 22 3c 42 91 36 bd
       0.0048728264 -0.00032590018 0.0099293105 -0.044572122
000010 c0 d7 bf 3c 30 e3 65 3b 94 f9 41 bd 59 6f d0 bd
       0.023418307 0.0035078041 -0.047357157 -0.10177488
000020 14 e3 0c bb 8e 24 af 3d 36 f0 10 be a9 57 44 bc
       -0.0021497654 0.08551894 -0.14154133 -0.01198379
000030 85 74 56 3d e6 78 28 be c2 f0 23 bd 09 dc b0 3c
       0.052357215 -0.16452369 -0.040024526 0.021589296
000040 b3 25 72 bc fb cb 13 3d 10 ee 1d 3e 9b f8 1a 3e
       -0.014779496 0.036083203 0.15422845 0.15133898
000050 98 43 12 3d 8c df ed 3d 5c b7 8f bd f6 96 03 bc
       0.035708994 0.11614904 -0.07017395 -0.008031597
000060 55 ed 12 3f 46 8f 82 bd ae 36 49 bd d2 cb 1f 3c
       0.5739339 -0.063749835 -0.049124412 0.009753184
000070 c7 c8 4a 3e 57 8c 42 3d 6a 4c 23 be 76 0d 90 3d
       0.19803153 0.04749712 -0.15947118 0.070338175
000080 3d 9f 5e 3c 15 ac c0 bd 53 a2 84 3c 68 3a b7 bc
       0.01358777 -0.09407822 0.016190683 -0.022366717
000090 4f c4 d2 3e 8f 17 40 3c c1 00 20 bd 0a 4d 32 bc
       0.41165397 0.011724367 -0.03906322 -0.010882625
0000a0 f9 d4 f6 3d a6 4c 90 3d e8 d7 b3 be 7c 45 19 3e
       0.1205234 0.070458695 -0.3512566 0.14967912
0000b0 76 42 76 3c 42 49 75 3d 83 f4 9a bd 12 9f 6d bc
       0.015030494 0.059884317 -0.07566168 -0.014503257
0000c0 a5 1b ef 3d ca 1c 57 3e 0b 8c aa bc 85 b9 df bd
       0.11675195 0.21007076 -0.02081873 -0.10924057
0000d0 30 89 7f 3e be 03 bf 3d 69 6a 5d be 48 22 a4 bc
       0.24954677 0.09326886 -0.21622624 -0.020035878
0000e0 85 98 d0 3c 98 33 2e 3e 09 53 06 3d 1d 48 b0 ba
       0.025463352 0.17011869 0.032794032 -0.0013449226
0000f0 3e 14 4b 3e da b7 ed bb 02 df be bb d0 55 6c 3b
       0.1983194 -0.007254583 -0.0058249244 0.003606189
000100 3e 12 ed 3a b6 b2 1b 3c 83 ad d4 3b a2 d8 aa bc
       0.0018087102 0.009503057 0.006490411 -0.020855252
000110 44 20 f4 bc f8 26 88 3c 08 11 02 be 26 15 5c bd
       -0.029800542 0.016620144 -0.1270181 -0.053731106
000120 7a f1 27 bb 8c 78 e4 bd 4f 7a 88 bd 8e 3a 3f 3d
       -0.002562611 -0.11155805 -0.066639535 0.0466867
000130 b6 15 fc 3c 48 b6 92 bd 53 7a 9c bc be 1c 8d 3d
       0.030772071 -0.07163674 -0.019101297 0.06890248
000140 0a b9 14 bd d3 5d 67 3d 9d 81 df bd ef fd 00 bd
       -0.03630928 0.056485962 -0.10913394 -0.03149217
000150 70 c2 bd 3c 67 02 2d bd fb c1 b2 bc fb 95 1b 3e
       0.023164004 -0.04223862 -0.021821013 0.15193932
000160 39 db 0f be 33 28 fc bb 4b a9 5a 3d 58 5a 0a 3e
       -0.1404847 -0.007695222 0.053384107 0.13511026
000170 69 cb f6 bb 04 26 c0 bd 7f 2f 55 3d 78 7c 47 3c
       -0.0075315726 -0.09382251 0.05204725 0.012175672
000180 e8 e2 52 bd d9 c0 3c 3d 15 77 04 3d 1f 1c e7 3c
       -0.051485926 0.04608235 0.032340128 0.028211651
000190 1f 45 0e ba 3f 0e 3e 3d a4 50 3d 3c fe 57 f5 3d
       -0.000542717 0.046400305 0.011554871 0.11979674
0001a0 88 eb 89 3c 19 c5 4f 3c 4b 48 64 bc e7 78 1f 3d
       0.016835943 0.012681269 -0.013933252 0.03893366
0001b0 04 d6 fd bc 0e d8 be bc 66 c9 84 3d 2d 2a 65 3e
       -0.03098584 -0.023296382 0.06483726 0.2237937
0001c0 a4 cd a8 3c 9d 08 a6 3d fd 18 77 bc ca 30 a3 3d
       0.02060587 0.081071116 -0.015081641 0.0796829
0001d0 d0 71 34 3d 6a 4b de 3d 03 3b 52 3c f9 62 86 3d
       0.044053853 0.10854228 0.012831452 0.06561846
0001e0 a1 32 94 bd db 39 46 bb b1 e5 b0 3d 11 16 b9 3d
       -0.07236219 -0.0030246887 0.0863756 0.09037412
0001f0 99 fd 38 3c e2 de d0 3d 11 15 98 3b d0 d6 51 ba
       0.011290931 0.101987615 0.004641183 -0.0008004727
000200 ff e0 10 3c f8 03 a5 bc c5 98 80 3c 00 d2 3b 3b
       0.008842706 -0.020143494 0.015697846 0.0028659105
000210 64 ca ef bd 97 c5 04 be 41 a5 80 bb 9c 40 d9 bc
       -0.11708525 -0.12966 -0.00392595 -0.026520066
000220 10 30 e3 bd 59 dc 77 bc 20 5f 12 3e f7 02 25 be
       -0.110931516 -0.015128219 0.142941 -0.16114412
000230 94 07 38 bd ad b3 da bd bc 03 be 3c 6b 74 24 3d
       -0.044929102 -0.10678802 0.02319514 0.040150087
000240 82 65 08 3d 3c ec 67 3e 14 d4 1e 3d 04 19 8f 3e
       0.03329993 0.2264871 0.038776472 0.27948773
000250 da 99 c4 bc ca 47 dc bb 01 08 14 3f 05 4d da 3c
       -0.023999143 -0.006722425 0.57824713 0.026648054
000260 df 44 4f bd df 6f 7d bd 2e a2 11 3d e4 a9 4b 3d
       -0.05060279 -0.061874267 0.035555057 0.049722567
000270 8a e4 c4 be 30 b8 4c bd a8 c1 4d 3c 2d cf 48 3d
       -0.3845561 -0.049980342 0.012558378 0.049025703
000280 2b 9d 94 bc a9 ea d5 bc 08 82 5c 3e ca 83 cc 3a
       -0.01814135 -0.026112871 0.21533978 0.0015603241
000290 98 34 37 bd f2 33 4c be 45 e5 d2 3d 2d e0 92 3d
       -0.04472789 -0.1994169 0.10297636 0.071716644
0002a0 d7 f2 28 bd 28 2f 06 bd 43 a4 57 3c a5 66 ce 3d
       -0.041247215 -0.032759815 0.013161722 0.10078172
0002b0 ef 5b cd bc 5d 4e a7 bc 5b b0 50 3e 82 b4 74 bd
       -0.025068251 -0.020423109 0.20379774 -0.05974246
0002c0 e0 3f df bc 23 f2 97 bd d0 6c 70 3e a1 07 bd 3d
       -0.027252138 -0.07419231 0.23479009 0.09229971
0002d0 70 10 90 be c6 e4 82 bd 66 b2 a3 3c 4b 04 f9 3d
       -0.2813754 -0.06391291 0.019982528 0.12159022
0002e0 21 4c 8a be 3f 9c 37 bc d3 33 84 3e d0 fb 25 3e
       -0.27011207 -0.011206686 0.2582079 0.1620934
0002f0 fa 8d 98 bc 20 c2 36 3b e2 13 8c 3a be a7 0c 3c
       -0.018622387 0.0027886704 0.0010687078 0.008584915
000300 9b 08 a2 3b 6f a5 3d bc 70 a4 ff bc 9e e0 8f 3c
       0.0049448735 -0.011575087 -0.03120634 0.01756316
000310 0a 0a 3b bd a8 1d 69 bd 94 1b 74 3c 51 ef 48 3d
       -0.04566387 -0.056913048 0.014899153 0.049056355
000320 53 42 8d bd a9 1c 24 bb 9c 82 30 be 19 4c 98 bd
       -0.06897416 -0.0025041497 -0.17237324 -0.074363895
000330 c4 85 04 3c 46 c2 2a 3e fa 10 21 bd 37 2e 95 bd
       0.008088533 0.16675672 -0.03932283 -0.072842054
000340 0f c5 4b 3d e6 e7 09 bd 3d fa 18 bd f4 a2 65 bd
       0.049748477 -0.03366842 -0.03734802 -0.056063607
000350 9d 74 c3 bc f2 10 12 3e 1e 30 ae bd 01 9c 0f bc
       -0.023859316 0.14264277 -0.085052714 -0.008765222
000360 a1 68 15 bd d0 1d 2e 3e 5c 6e 1b bc a0 dd dd 3d
       -0.036476735 0.1700356 -0.009486761 0.10833287
000370 ac 2c f1 bc 13 26 23 3c e2 90 82 3d eb c3 26 3d
       -0.029440247 0.009957808 0.063752905 0.040714186
000380 ba a0 00 3d fc 38 2d 3e 4b 67 24 bd 90 73 39 3d
       0.03140328 0.16916269 -0.04013757 0.045276225
000390 4a e2 1d 3d e1 68 06 3e b7 6c 81 3c af b9 c7 bc
       0.038545884 0.13125946 0.01579891 -0.024380533
0003a0 f8 17 06 3d 6d 6e 1b 3d 5b f2 b7 3c 3e 7c 14 bd
       0.032737702 0.037947107 0.022454431 -0.0362513
0003b0 89 a9 83 3d 7c a0 12 3e 1b fe 16 3d 56 bd a4 3d
       0.06428821 0.14319032 0.036863428 0.080439255
0003c0 85 47 3f 3d ad 41 ab 3d 96 bc 31 3d 1a 99 43 bd
       0.046699066 0.08362136 0.04339274 -0.04775343
0003d0 48 e8 af 3c 97 4f 85 3d 89 36 39 bd c0 1f 5d 3c
       0.021473065 0.06509321 -0.045218024 0.013496339
0003e0 8c 62 b0 3d 52 0e ac 3c 49 46 52 3c 07 f1 cf 3d
       0.08612546 0.021002922 0.01283414 0.10153394
0003f0 41 51 ef 3a 86 f2 16 3b 75 51 e2 3b f9 a7 b3 bc
       0.0018258468 0.0023032739 0.006906683 -0.021930682

model_4/batch_normalization_17/batchnorm/mul_1;model_4/conv1d_9/Conv1D/Squeeze;model_4/conv1d_9/BiasAdd;model_4/conv1d_9/BiasAdd/ReadVariableOp;model_4/batch_normalization_17/batchnorm/mul;model_4/conv1d_9/Conv1D f4 [96, 1, 3, 96]
000000 2b de 99 3c 18 d8 8a 3c 24 81 bf 3c a1 6f 91 bc
       0.018782696 0.016948745 0.023377009 -0.017753424
000010 2b cd f0 bb 78 29 d8 bc bc 88 10 bd 3b 5e 32 bd
       -0.0073486767 -0.026386961 -0.03528665 -0.043546896
000020 bd eb 79 bc c3 6f ca bc e9 3a 5b 3c 38 1b 3a bc
       -0.015253958 -0.024711495 0.0133807445 -0.0113590285
000030 49 4a cf ba 7d 63 00 bd 8b bc 25 3b d3 8d 71 3c
       -0.0015814985 -0.03134488 0.0025289382 0.014743286
000040 d3 44 48 bd 75 8e 30 bd 22 99 aa bc 88 08 d8 3c
       -0.04889376 -0.043104608 -0.020824973 0.026371256
000050 23 77 4c 3d 55 1a 6c bd 18 54 2e bd d4 43 21 bc
       0.049918305 -0.0576423 -0.042560667 -0.009842832
000060 20 04 64 3b 77 ae 44 bc 5b e0 25 bc a9 83 86 bc
       0.0034792498 -0.012004486 -0.010124291 -0.016420202
000070 94 c3 27 3d 30 be 9a bc d1 0f 6d bb a5 d7 a3 bc
       0.040958002 -0.018889517 -0.0036172757 -0.020000288
000080 e4 ad d8 3c 93 af 93 3b f9 30 80 bc e4 03 2a 3d
       0.026450105 0.004507014 -0.015648352 0.041507617
000090 74 ba b3 3c d3 85 95 bc 13 92 07 bd d7 38 e0 bc
       0.021939494 -0.018252289 -0.03309829 -0.027370853
0000a0 cc 0c 15 3c 2b ab c1 bc ce 60 89 bc 5d ad 16 bd
       0.009097289 -0.02364119 -0.016769793 -0.036786426
0000b0 71 97 d9 bb 6d da 8a 3b 47 c5 00 bd 0a a2 11 3c
       -0.0066403677 0.004237464 -0.03143814 0.008888731
0000c0 fa 6e 85 bc 3a 5e 1f bb 66 df 46 3c 17 65 93 ba
       -0.01628827 -0.0024317638 0.012138223 -0.0011245337
0000d0 18 95 bc bc 2b 09 73 bb fd 08 b9 3c 17 ad 06 3d
       -0.023020312 -0.0037084322 0.022587294 0.032879915
0000e0 06 a9 88 3b 66 e2 99 3c e7 c3 df bc 5d 32 9c bc
       0.00417054 0.018784713 -0.027315093 -0.019066984
0000f0 f9 5a da 3c 06 9d 00 bd 16 71 fe bc 35 ab b5 3c
       0.026654707 -0.03139975 -0.031059783 0.022176364
000100 69 20 3a 3c 02 34 2c bd 6d d9 e4 bc e6 23 9a 3b
       0.011360266 -0.042041786 -0.027935708 0.0047039865
000110 ee 0a 59 bc 10 be a2 3c 98 96 3b 3c 89 25 a5 3c
       -0.013247235 0.01986602 0.011449479 0.0201595
000120 2c ab 04 bc fd 38 08 3d c0 89 94 3c 05 10 cb bc
       -0.008097451 0.033257473 0.01813209 -0.024787912
000130 c1 4b 1e 3c 4a c0 9d bc 06 0d 3b bd f7 cf 0b 3c
       0.009661616 -0.01925673 -0.045666717 0.008533469
000140 dd 10 b2 bb a9 1d b6 bc 4b 7d 4d 3c b6 f8 69 ba
       -0.005434139 -0.02223094 0.012542079 -0.00089253054
000150 2c 4f cf bc 91 01 3a bc 7c aa 0a bd c5 b2 71 bc
       -0.025306307 -0.0113529125 -0.033853993 -0.014752095
000160 2d 6a e9 bc 7f 71 35 3b f1 7c 7a 3b 22 ff 34 3c
       -0.028493011 0.0027686057 0.0038221444 0.0110471565
000170 d3 73 e9 3c ae 15 19 3d 48 35 22 bc af 8b 9a 3c
       0.028497612 0.03737419 -0.009900399 0.018865434
000180 77 4a b1 3c c2 cf 8d 3c 8e 88 d4 3c 08 0a 91 bc
       0.021641953 0.01731098 0.02594402 -0.017704979
000190 66 e9 f2 bb 71 2c b5 bc c5 aa 16 bd 65 54 23 bd
       -0.007413077 -0.022115918 -0.036783952 -0.039875407
0001a0 da 86 84 bc 81 1f c5 bc 64 52 8c 3c a7 c7 1d bc
       -0.016177583 -0.024062874 0.01712913 -0.00963012
0001b0 d4 58 51 3b 89 d8 cc bc ff f1 06 3c 2b a2 8d 3c
       0.0031943815 -0.025005596 0.008236407 0.017289242
0001c0 79 24 37 bd f7 a7 23 bd 1c fc 9f bc 44 cb d0 3c
       -0.044712517 -0.039955106 -0.019529395 0.02548755
0001d0 ce dd 58 3d d1 86 5c bd 94 09 1d bd 47 53 43 bc
       0.052945904 -0.05383951 -0.038339213 -0.01192171
0001e0 8a 9c 5a 3b 8e d6 68 bc 81 5f 07 bc ad f2 5b bc
       0.0033357465 -0.01421131 -0.008262516 -0.013424558
0001f0 e1 78 2a 3d ff 51 40 bc b5 7c 21 bb ee 5b 67 bc
       0.041619185 -0.011738299 -0.0024640982 -0.014121039
000200 01 5c d4 3c 29 50 37 3c e9 98 82 bc a3 75 2b 3d
       0.025922777 0.011188545 -0.015942054 0.041860234
000210 71 3a ab 3c 36 f1 7d bc 7b ea f1 bc c1 54 bf bc
       0.02090189 -0.015499404 -0.029530754 -0.023355843
000220 e3 ef 4d 3c f4 eb 85 bc 43 f2 8b bc 15 19 02 bd
       0.0125694005 -0.016347863 -0.017083293 -0.0317622
000230 72 fa 02 bc bf 86 02 3c b8 e3 cf bc dc fc f5 3b
       -0.007994281 0.007966696 -0.02537714 0.00750695
000240 85 6a 18 bc 6f f5 6d bb e4 21 36 3c 9c 8a a7 3b
       -0.00930274 -0.003630962 0.011116479 0.005112959
000250 75 8d 7f bc e1 2b 5e bb 20 1f c5 3c 83 1b ff 3c
       -0.015597691 -0.0033900666 0.024062693 0.031141048
000260 4a ac e3 3b f3 23 79 3c 91 09 df bc c0 db 95 bc
       0.0069480287 0.015206325 -0.027226241 -0.018293262
000270 28 df d1 3c 85 bc ba bc cc 17 03 bd fa 85 b2 3c
       0.025619105 -0.022794971 -0.032005116 0.0217924
000280 71 28 77 3c 0a 7f 24 bd 56 1c b7 bc 20 01 3f 3c
       0.015085326 -0.040160216 -0.022352379 0.011657983
000290 2d 38 63 bc 93 00 b1 3c 9f fa 37 3c 28 31 c3 3c
       -0.013868374 0.02160672 0.011229186 0.02382715
0002a0 cd 13 02 ba ef 18 ff 3c 2a dc 96 3c 0d 1d a7 bc
       -0.0004962057 0.031139819 0.01841553 -0.020399595
0002b0 80 0b 2c 3c f6 b3 4d bc d5 35 2e bd 47 c5 15 3c
       0.010500789 -0.012555113 -0.042531807 0.009141273
0002c0 7b 0f a7 bb 4f bb a3 bc ff 1e 81 3c 26 42 04 b7
       -0.005098281 -0.019986777 0.01576185 -7.8832145e-06
0002d0 77 41 8f bc e4 20 39 bc 48 6e e2 bc 98 f9 37 bc
       -0.01748727 -0.011299346 -0.027640477 -0.011228941
0002e0 14 89 c0 bc be f1 71 3b 62 df 61 3b 41 cb 3e 3c
       -0.023502864 0.0036917771 0.0034465422 0.011645139
0002f0 98 fc e1 3c 43 4d 19 3d 2c 8e c8 bb 63 d4 99 3c
       0.027586266 0.0374272 -0.006120464 0.018778032
000300 57 31 bd 3c bd 02 8b 3c b6 01 dc 3c 3c 0c 90 bc
       0.023094816 0.01696908 0.026856285 -0.017583959
000310 34 1a e9 bb 43 4b b5 bc 78 e4 18 bd 82 a7 1b bd
       -0.0071137194 -0.022130614 -0.03732726 -0.038001545
000320 d0 7c 81 bc a4 9d bd bc ef 2c 90 3c 16 f3 14 bc
       -0.015806586 -0.023146458 0.017599551 -0.009091159
000330 0f 08 e4 3b 4b 28 a9 bc 9f 17 88 3c 66 e5 9a 3c
       0.0069589685 -0.020649096 0.016612826 0.018908214
000340 31 00 2c bd 86 87 1c bd ad ef 9b bc 9f 00 dd 3c
       -0.04199237 -0.038215183 -0.019035185 0.026977835
000350 0c 9e 5d 3d b7 51 5c bd 47 d4 13 bd 77 b5 36 bc
       0.054105803 -0.053788867 -0.036091115 -0.011151663
000360 70 a8 93 3b 78 f6 19 bc b4 77 ce bb 00 62 48 bc
       0.0045061633 -0.009397142 -0.006300891 -0.012230396
000370 49 83 27 3d df b6 3d bc a5 e5 b0 ba b2 d3 06 bc
       0.040896688 -0.011579244 -0.0013496174 -0.008229183
000380 50 29 d1 3c 42 6c 3c 3c aa fe 6e bc f8 bf 23 3d
       0.025532395 0.01150042 -0.014587084 0.039977998
000390 0c 5b 99 3c 53 6b 81 bc cd 02 df bc 6e e1 a8 bc
       0.018720172 -0.015798246 -0.027223015 -0.020615306
0003a0 7b d8 71 3c ff 03 38 bc 0e 7f 82 bc 6a 43 f1 bc
       0.014761086 -0.0112314215 -0.015929725 -0.02945109
0003b0 c2 7c f4 bb 4b 60 26 3c a8 69 ba bc 42 2b 0b 3c
       -0.0074611614 0.010154794 -0.022755459 0.0084942
0003c0 cd 41 09 bc 74 68 40 bb fb 2a 38 3c a8 60 16 3c
       -0.008377505 -0.0029359134 0.011240716 0.009178318
0003d0 f4 a3 2d bc 98 77 2c bb 21 49 df 3c 4d 2f fd 3c
       -0.0105981715 -0.00263164 0.02725655 0.030906344
0003e0 75 e2 35 3c 90 42 b9 3c aa 87 dd bc fd 08 89 bc
       0.011101355 0.022614747 -0.027042229 -0.016727919
0003f0 22 ca cd 3c e3 7a 89 bc 7c 18 04 bd 30 f7 b0 3c
       0.025120798 -0.01678223 -0.032249913 0.021602243

model_4/gru_9/gru_cell/strided_slice_4 f4 [48]
000000 3e 13 19 bd 5b d1 18 bc 05 a3 1e bd 80 e3 84 3c
       -0.037371866 -0.009327258 -0.038729686 0.016221762
000010 68 c6 31 3d 9d 71 ba 3c bf 64 ac 3c 0c 70 57 3d
       0.043402106 0.022759253 0.021044133 0.05259709
000020 c1 ee bb 3d 66 3e 96 3d 5b 6c 6c 3c cb 6b db 3c
       0.09176398 0.0733612 0.014430131 0.026784798
000030 3e 9d 90 3c d0 c0 c0 3c df ed 0c bc 1c 41 98 bc
       0.017653104 0.02352944 -0.008601635 -0.018585734
000040 a7 6c 33 bc 0d 37 81 bd d1 c3 9b 3d 79 86 0b bd
       -0.010951198 -0.06309328 0.076057084 -0.03406379
000050 c7 ce 1c bd 71 63 36 3d 47 eb 28 bd 71 a1 94 bc
       -0.038283136 0.04452843 -0.041240003 -0.018143388
000060 71 14 0a bd ed b2 03 3c 8f 5b 3e 3d 43 e1 f0 3c
       -0.0337109 0.008038265 0.046474036 0.029404288
000070 86 e6 fa bc 2e c4 11 3d f4 b7 06 3d 21 ec 3d 3c
       -0.0306275 0.035587482 0.032890275 0.011591942
000080 ae 69 8f bc 15 8a 75 3c a0 76 f8 bc 12 5d e3 3c
       -0.017506447 0.014986535 -0.030330002 0.02775434
000090 4e ac ea bb 39 8d 39 bd 6d 28 91 bb c2 c9 c8 3c
       -0.0071616536 -0.045300696 -0.004429868 0.024510268
0000a0 31 aa 6c 3d 72 1d 4f 3d 5b fc 8c 3d 3a fd 8e 3d
       0.057779495 0.05056519 0.068840705 0.06981893
0000b0 45 55 2c 3c d1 50 fd 3c 4b 2c 7c 3c 9a 7b 8a bc
       0.010518377 0.030922325 0.01539142 -0.016904641

model_4/gru_9/gru_cell/strided_slice_3 f4 [48]
000000 44 48 09 bd 2c 9f e5 bc 71 eb 43 3d 85 de 4e 3d
       -0.033516183 -0.02803 0.047831956 0.05050518
000010 44 ea 58 bd 39 5d 1e 3b 66 7b 85 3a 5e 47 89 3d
       -0.052957788 0.0024164452 0.001018387 0.06703065
000020 bd c3 d6 3d 9c 35 76 3d 38 61 c3 3c f7 f1 3d 3c
       0.10486553 0.06010972 0.023850068 0.011593333
000030 37 f0 42 3c 13 d3 85 3d da bf 17 3d 8e 90 6d 3d
       0.011898092 0.065344 0.0370482 0.057999186
000040 d1 cc 81 3d 9d 82 b0 3c cb 76 86 3d 17 6d 81 3d
       0.06337894 0.021546656 0.06565627 0.06319635
000050 d2 a8 6f 3c 8b d9 30 bd 0c a7 ad 3d 25 20 b7 3d
       0.014627652 -0.043176215 0.08479127 0.08941678
000060 bc 64 a1 3d cd c3 e2 3a fe 2f 52 bc c6 11 72 3d
       0.07880542 0.0017300785 -0.012828825 0.05909898
000070 a9 3f 66 bd 64 f5 46 3d 61 fd a6 bb 0f 22 c6 3c
       -0.056213055 0.048573866 -0.005096123 0.024186162
000080 42 08 b7 3c a0 78 ed 3c 62 bb 9e 3b f6 27 64 bb
       0.022342805 0.028988183 0.004844115 -0.0034813858
000090 f2 a0 16 3e c5 c5 26 3b 93 22 3b 3c 94 aa e3 3c
       0.14709833 0.002544747 0.011421817 0.027791299
0000a0 5d e1 f8 bb 4c b1 cb 3d 22 04 b1 3d 9b cd f2 3c
       -0.007595225 0.09945926 0.086433664 0.029639056
0000b0 91 2c 10 3d 1f 4f 03 bc 12 da b7 3c dd 81 72 bc
       0.03519875 -0.008014469 0.022442851 -0.01480147

model_4/gru_9/gru_cell/strided_slice_5 f4 [48]
000000 3c 25 8c bd 8d b9 bf 3d 5c e0 eb bc 46 19 db bd
       -0.068430394 0.09361563 -0.028793506 -0.1069818
000010 55 f0 68 3d e8 87 a6 bc 0e 1c 20 bd 4d fd 2b bd
       0.056869823 -0.020328477 -0.039089255 -0.041989613
000020 10 1f b8 bc 74 32 aa bd d8 39 9d 3c 68 33 64 3c
       -0.02247575 -0.083104044 0.019192621 0.013928272
000030 b1 bf 1e 3d 8f ec 47 3c 1e ec 99 3d 9b 7d 25 bd
       0.03875703 0.012202396 0.07515739 -0.04040299
000040 3a 2e 15 bb 84 ca b6 3c a1 81 a0 3c 67 f1 cb bd
       -0.002276315 0.022313364 0.019593062 -0.09958153
000050 b4 61 7e 3a 68 49 1f be 24 5d 8a 3d 10 a0 7f bc
       0.000970389 -0.15555346 0.067560464 -0.015602127
000060 29 13 1c bd 4e cc ca 3c f8 83 a5 bd c1 e0 80 3c
       -0.03810421 0.024755623 -0.08081812 0.015732171
000070 04 03 75 3d 7e 07 42 3b e2 53 e2 3c c8 c2 8f bd
       0.05981733 0.0029606516 0.027627889 -0.070195735
000080 ac 3a a4 3d 43 ee 42 3d b1 01 04 3c aa 7b a2 3b
       0.08019003 0.047590505 0.008057044 0.0049585896
000090 a5 c5 9f 3c 04 aa 5c bc ba 4e 25 3c dd c0 55 bd
       0.019503424 -0.013468269 0.010089571 -0.052185882
0000a0 10 a9 18 be 9a f0 d9 3c ab 83 25 3d 65 dd 82 3c
       -0.14908242 0.026603986 0.04040877 0.01597471
0000b0 af 07 11 3d f9 2b 1d 3d 0d 74 ac 3d 1c 10 11 be
       0.03540772 0.038372014 0.084205724 -0.14166301

model_4/gru_9/gru_cell/strided_slice_11 f4 [48]
000000 6e 5d 65 bc 09 9e 94 3d 0f 23 10 bd b5 07 a5 bd
       -0.013999326 0.07256705 -0.035189684 -0.080581106
000010 bc f8 48 3d 48 64 82 bc 6c d4 68 bd 5e 84 79 bc
       0.049065337 -0.015916958 -0.056843206 -0.015229313
000020 ad 99 b7 bc 0b 25 6a bd d1 7b d1 bc 1f 4a dc 3c
       -0.022412146 -0.057164233 -0.025571736 0.026890812
000030 2a e9 ba 3c d6 4b dd b9 28 9b 86 3d fe cf 38 bc
       0.02281626 -0.00042208907 0.065725625 -0.011280058
000040 c2 07 44 bb ef b7 7b 3c b5 c0 79 3c a5 f4 a6 bd
       -0.002991185 0.015363677 0.015243699 -0.08152131
000050 d6 29 cf 3a 86 e2 09 be 8e aa ac 3d ee 16 57 bc
       0.0015805315 -0.13465318 0.08430968 -0.013128025
000060 2d 8f 33 bd 22 3c bf 3c f1 33 af bd b1 37 ae 3c
       -0.043837715 0.023344103 -0.08554829 0.02126679
000070 30 02 47 3d 61 58 2d bc f9 cf d0 3c b5 cb 96 bd
       0.04858607 -0.010580153 0.025489794 -0.07363073
000080 d0 eb a2 3d aa af 4c 3d 23 83 0e 3c 58 c0 e7 bc
       0.07955134 0.049972214 0.008698258 -0.028289959
000090 17 eb 87 3b 37 a9 34 bc cf 20 0d 3c 6e 3d d4 bc
       0.004147898 -0.011026672 0.008613779 -0.025908198
0000a0 8e d3 e6 bd 88 a9 6e 3d 07 11 4a 3c de d0 79 bc
       -0.112708196 0.058267146 0.012333161 -0.015247552
0000b0 86 a2 29 3d 97 f4 8a 3c 4d 14 99 3d 26 56 f0 bd
       0.04141476 0.016962333 0.07474575 -0.117351815

model_4/gru_8/gru_cell/strided_slice_4 f4 [96]
000000 f8 a2 13 bd 30 e8 33 3c 65 80 26 3d de ec ce 3b
       -0.03604409 0.010980651 0.04064979 0.006314858
000010 8d cc c4 bc e2 3d cf bc 7e c1 bb 3c 74 98 96 bc
       -0.024023319 -0.025298063 0.022919413 -0.018383242
000020 56 58 59 bc 4b ad 16 3c 0d fd 30 bd 20 c7 7b bc
       -0.01326569 0.00919659 -0.043210078 -0.015367299
000030 80 21 ca ba 2c f1 dd 3c 4e b4 50 3d 2a e6 15 bc
       -0.0015421361 0.027092539 0.050953202 -0.009149114
000040 03 79 a1 bc 70 a1 09 3d 44 51 74 bb c0 a7 55 3c
       -0.019711023 0.033601224 -0.0037279883 0.013040483
000050 40 51 1a 3d 41 df ad 3b d5 42 3a bd 22 d8 c4 bc
       0.037675142 0.005306155 -0.045473892 -0.024028841
000060 b0 43 91 38 26 2d c9 3c 2c f1 98 3d 7d d7 7d bb
       6.9267466e-05 0.024557661 0.07467875 -0.0038733177
000070 ed 33 8c 3a 01 9b 88 bb 68 c7 a1 3c 95 ad 2c 3d
       0.0010696627 -0.0041688685 0.019748405 0.04215773
000080 a6 3a 5c 3c 43 9e 42 ba e8 16 d3 bc 87 79 08 bb
       0.013441717 -0.00074240955 -0.025767758 -0.002082439
000090 1f cc 81 bc 6c 40 96 bc f9 37 1f bc 3e 28 25 3d
       -0.015844403 -0.018341266 -0.009717935 0.04032158
0000a0 3f 11 62 bb e2 2b 0b bd 2b 46 22 3d b8 a3 ab 3b
       -0.0034495143 -0.033977397 0.0396177 0.0052380227
0000b0 1e bb 97 3a 9c bf 69 3c 75 2f 26 bb 56 c0 a9 3c
       0.0011576151 0.014266875 -0.0025357876 0.020721596
0000c0 5a da fe bb 68 ca 15 3c 09 9c eb bc dc 63 b9 bc
       -0.0077774944 0.009142496 -0.028760927 -0.022630624
0000d0 a0 3c d4 39 97 45 65 bc 7f f7 a3 bc ce d9 6e bc
       0.0004048096 -0.013993642 -0.020015476 -0.014578296
0000e0 7a 0b 87 bc af 32 11 3c 48 d9 d6 3c 19 30 02 bd
       -0.016484965 0.008862182 0.026226655 -0.03178415
0000f0 ba f5 a1 ba 4d 65 76 3c 1e 20 d0 3c 36 01 69 3d
       -0.0012356557 0.0150388 0.02540594 0.05688592
000100 b5 aa 00 3b cc 3d 27 3b 42 e8 ff 3c 53 43 fb bb
       0.0019633 0.0025519012 0.031238679 -0.007667938
000110 34 29 bb 3c d0 7c b1 3c 80 a0 19 bd 12 74 ce bc
       0.022846796 0.02166596 -0.03750658 -0.025201831
000120 48 7f 2c 3c 09 93 71 3d a5 a8 a7 3d ce 4e ba bc
       0.010528393 0.058978114 0.08186463 -0.022742655
000130 a9 47 d0 bc 37 45 3e 3c 30 9f 6d 3c 2c c1 a4 bd
       -0.025424795 0.011613182 0.014503285 -0.08044657
000140 e7 e3 1f bc 6d ef 2d 3c 8f 37 2a bd 74 2c 5b bc
       -0.009758926 0.010616166 -0.04155689 -0.013377298
000150 ff c7 33 3c 85 60 38 bd ec fd 39 bc 0b ec 37 3b
       0.010972976 -0.045013923 -0.011352044 0.0028064277
000160 61 1c 05 3d 73 de 4a bc 65 74 34 bd 2e 2c e3 3c
       0.032497767 -0.012382138 -0.044056315 0.027731027
000170 9d 2a 2f 3d ab 02 32 bc bb a5 2e 3d a7 67 d8 3b
       0.04276525 -0.010864894 0.04263852 0.006604153

model_4/gru_8/gru_cell/strided_slice_3 f4 [96]
000000 d8 ae 05 bd c6 80 90 3d b8 db c2 3b 43 cf 8e 3c
       -0.032637447 0.070558116 0.0059466027 0.017432814
000010 d6 05 8b 3c 16 3c aa 3d 62 60 5c 3d f0 ba 95 3c
       0.016970556 0.08312242 0.053802855 0.018277615
000020 e0 37 97 3b 7d 06 84 bc 09 89 9a 3c cb 60 2f 3d
       0.004614815 -0.016116375 0.018864172 0.04281692
000030 7e 4b 1d bc ee 7f 57 3d 7b e2 4b 3d 44 53 96 bb
       -0.009600518 0.052612238 0.049776535 -0.0045875628
000040 22 77 89 3c 37 df a8 3c 29 8d 45 3d 6f ff b4 3d
       0.01678044 0.02061425 0.048230324 0.088377826
000050 24 e2 02 3e f6 83 53 3d dc 9c dc ba 4e 88 61 bc
       0.12781578 0.05163952 -0.0016831416 -0.013765408
000060 b7 7a d5 3c a9 f2 3e 3b 2e c2 6d 3d 20 04 37 3b
       0.026059492 0.0029136336 0.058046512 0.0027926043
000070 b5 61 38 3d 1d ea c2 3a b0 45 21 3c 2b ec 41 3d
       0.045015056 0.0014870797 0.009843275 0.047344368
000080 67 85 c6 3c 1b 24 51 ba 3f 19 2b 3d 89 56 24 3d
       0.024233533 -0.00079780974 0.041772123 0.04012159
000090 68 ae 80 3d 58 1e af 3d d9 e3 be 3c 4c 4a 95 ba
       0.06283265 0.085507095 0.023302006 -0.001138994
0000a0 a1 4f fd 3a 1d 27 a5 3c 20 32 ad 3c ba ed b5 bc
       0.00193261 0.020160252 0.021142066 -0.022208083
0000b0 6a 19 62 3c d3 b3 35 3d b6 41 14 3c 12 b4 8a bc
       0.0138000045 0.044360947 0.00904887 -0.016931567
0000c0 06 05 80 3c 9f 7d 85 3e 5d ec 11 bd c0 de ba bc
       0.015627395 0.26072404 -0.035625804 -0.022811294
0000d0 e2 6e 00 bc 0b 02 17 3c 59 71 2b bd 14 6b a3 3d
       -0.0078389365 0.009216796 -0.041856144 0.07979408
0000e0 f6 8b 59 3d 69 c3 89 3d 08 78 46 bc 4e 1f b9 3c
       0.053111993 0.06726725 -0.012113579 0.022597935
0000f0 27 73 91 3c a9 fb 14 3d ef c0 28 3c 4b 97 63 3b
       0.017755104 0.036372814 0.010299905 0.0034727629
000100 6a fa 15 3b c0 d3 d2 3c bc fb f8 3b 5b cf ce bc
       0.0022884854 0.025735736 0.0075983685 -0.02524536
000110 ab 97 85 bc 2b 0c 99 3c 1f 90 1d 3d 10 c0 ac 3d
       -0.016307672 0.01868256 0.038467523 0.084350705
000120 2e ec fe 3c 62 55 7a 3d 5e c7 10 3d f0 14 8f 3d
       0.031118479 0.061116584 0.03534638 0.069864154
000130 18 91 eb bb a7 a7 7c 3c 8b b8 b5 3c 80 ed f2 3c
       -0.0071889274 0.015420831 0.022182724 0.029654264
000140 8d e9 7f bc 75 a3 1e 3b 11 b0 81 3d 53 1b 74 bb
       -0.015619648 0.0024206315 0.0633241 -0.0037247732
000150 40 0a d2 b8 51 f3 52 bc 0d 4f d2 bc 6d 24 d9 3c
       -0.000100154895 -0.012875394 -0.02567246 0.026506627
000160 9d 21 52 3c ea 4c 93 3d 33 58 c8 bc 50 15 74 3c
       0.012825397 0.071924046 -0.02445612 0.014897659
000170 42 c2 a9 3d f4 e8 77 3c 95 00 2e 3e f4 33 12 3c
       0.08289005 0.015131224 0.1699241 0.008923519

model_4/gru_8/gru_cell/strided_slice_5 f4 [96]
000000 d9 c8 be bb 8d 5b 2e 3c 20 06 e8 bc fa 12 e9 bb
       -0.0058222828 0.010641945 -0.028323233 -0.007112858
000010 98 31 78 3d 5a 2d aa bd fd ea 48 3c 61 f3 3b 3d
       0.06059417 -0.083094314 0.012263057 0.0458864
000020 de 5c af bc 3d f1 22 bc a7 37 31 bc af 65 67 bd
       -0.021406587 -0.009945211 -0.010816491 -0.056493457
000030 77 bc 30 3d 62 a2 19 3d fd 3c 7c 3d 65 18 5d bc
       0.043148484 0.037508376 0.0615816 -0.013494586
000040 91 d2 a1 bc 69 6f 2b bd 37 9b eb 3b d3 47 1d bc
       -0.019753726 -0.041854296 0.007190134 -0.009599644
000050 6b ce ad 3b ae e9 b0 bb c9 9f ff bc 17 8d 6b ba
       0.005304148 -0.0053989505 -0.031204121 -0.00089855626
000060 9b 84 1f bc 03 a9 0a bc 8c 26 15 bd 13 d8 9a 3c
       -0.009736205 -0.008463147 -0.036413714 0.01890186
000070 a3 80 10 bc 0f 81 3d 3c d5 17 01 3d b8 1d 21 3c
       -0.008819732 0.0115664145 0.03151687 0.009833746
000080 1b 3f 89 bc d8 a1 83 bd 4f a8 5d bc 77 48 eb 3c
       -0.016753724 -0.064273536 -0.013528897 0.028721077
000090 d1 39 42 bd 22 20 cb 3c bd 7c 15 3c 14 b9 51 bc
       -0.04741842 0.024795596 0.009123978 -0.012800474
0000a0 b2 32 21 bd 19 c3 fd bc 86 e2 72 bc 8d 52 02 bd
       -0.039354987 -0.030976819 -0.014824515 -0.031817008
0000b0 96 67 3c 3d 50 44 a9 3c cd b3 62 3d 41 57 c0 bb
       0.045997225 0.020662457 0.055347253 -0.0058697765
0000c0 25 8a a0 3d 3b 73 7c 3d d1 56 05 bd 04 6e 8b 3c
       0.07838849 0.06163333 -0.032553498 0.017020233
0000d0 ad bb e6 bc 97 11 b3 3c 1e fd cc bb 9d 34 b7 bc
       -0.028165663 0.021858973 -0.00625576 -0.022363955
0000e0 60 73 16 bd 00 09 62 bd b2 66 ce 3c 83 4c a0 3c
       -0.036731124 -0.055184364 0.025195453 0.019567734
0000f0 ad 0f b5 bc dc b3 33 3d ac bd e1 3c 74 dc 4f bd
       -0.022102201 0.0438727 0.027556263 -0.05074735
000100 e7 3a a6 3c ac db aa 3b 82 4e 4a 3c b8 fa 54 bb
       0.020291759 0.005214175 0.012347819 -0.0032498073
000110 b1 a8 9c 3d e6 fa 4f bc d3 c2 87 bc c3 3c 2d 3b
       0.07649363 -0.012694096 -0.016572392 0.0026433922
000120 23 36 10 3c bb a7 d9 bc d6 10 02 bc 96 b7 27 3d
       0.00880197 -0.026569238 -0.007938584 0.040946566
000130 13 64 d5 3c fe f2 64 3d 04 e6 0a bd 92 61 9c 3d
       0.026048696 0.055895798 -0.033910766 0.076357976
000140 4e 4b 18 bd 20 79 8d bc f6 e2 9e 3c c0 d4 56 bd
       -0.03718119 -0.017269671 0.019395333 -0.052448988
000150 7b c7 2e 3d cd 77 09 3c b7 87 4b 3d ae 12 f9 3c
       0.04267071 0.008390379 0.049689975 0.030404415
000160 d7 8f 2b bd b0 67 79 3d 74 46 49 bd d8 b6 5f 3d
       -0.041885223 0.0608899 -0.049139455 0.054617733
000170 61 6e 37 bd 14 dc 01 3c 1c 07 d3 b9 26 df 45 3d
       -0.044783 0.007926006 -0.00040250353 0.048308514

model_4/gru_8/gru_cell/strided_slice_11 f4 [96]
000000 09 e6 7f bc 11 14 51 3c c6 14 00 bd de ee 50 bc
       -0.0156188095 0.012761132 -0.03126981 -0.012752263
000010 0e 38 1f 3d 36 96 68 bd a1 07 ad 3c b5 84 02 3d
       0.038871817 -0.056783877 0.021121802 0.03186484
000020 91 31 13 3a 5a 72 9c bc b2 86 06 bd a4 dc ee bc
       0.0005614991 -0.019097496 -0.0328433 -0.029157944
000030 56 45 07 3d c7 51 e1 3c a4 e6 59 3d 0c 1b a0 39
       0.03302511 0.027504815 0.05319847 0.0003053773
000040 24 01 11 3c fe 5f 78 bd 27 aa f1 bb 86 97 3c bc
       0.00885037 -0.06063842 -0.00737502 -0.011510735
000050 7b ba fd bb c7 61 d9 bc 84 dd 22 bd e4 f4 03 3c
       -0.0077431775 -0.026535882 -0.039762035 0.008053992
000060 52 da 44 bc 61 3f 6b bb 46 c3 15 bd 5f 8b 24 bc
       -0.012014942 -0.003589593 -0.03656318 -0.010042994
000070 6b e6 80 bc f1 9c 4a 3c de 70 60 3c a3 c8 8c 3c
       -0.015734872 0.012366519 0.013698785 0.017185515
000080 89 23 13 3b b2 2c bf bc 44 e7 d8 bc 4e fa fa 3c
       0.00224516 -0.023336742 -0.026477464 0.030636933
000090 94 6e 35 bd 99 7a 04 3d d8 64 61 3c 48 86 7b 3b
       -0.04429491 0.03234348 0.013756953 0.0038379598
0000a0 6c 0f 09 bd 9f 15 8c b9 a1 65 03 bd 1e d6 21 bd
       -0.033461973 -0.0002671899 -0.032079343 -0.03951084
0000b0 25 ae 3c 3d 19 2e 85 3c 7e 45 3d 3d 72 17 39 bc
       0.046064515 0.016257333 0.04620885 -0.011297094
0000c0 08 0c da 3c 9f ab f8 3c 02 61 e8 bc 5b 50 d9 ba
       0.026617065 0.030355273 -0.02836657 -0.0016579734
0000d0 c9 48 a6 bb 2e 75 0f 3c f3 1a 55 3c 58 37 99 bc
       -0.0050745946 0.008755965 0.0130069135 -0.018703148
0000e0 3e 53 c6 bc 8d 0e f0 bc c5 67 c0 3c e8 78 0e 3d
       -0.024209615 -0.029303813 0.023486981 0.034783274
0000f0 6f 7e d0 bc 2a 8e c1 3c 68 1a da 3c 10 8d 79 bc
       -0.025450913 0.02362736 0.02662392 -0.015231386
000100 23 83 98 bc ec c1 b3 bb 64 bf cf 3c b9 ea 4c 3a
       -0.018617218 -0.005485764 0.025359817 0.0007816959
000110 d7 bb 57 3d 85 38 e3 bb e5 ab 4c 3b 37 84 c7 bb
       0.052669372 -0.006934228 0.0031230387 -0.0060887593
000120 80 4c cd b8 31 cc be bc e4 b5 4c bc 82 d1 2a 3d
       -9.789411e-05 -0.023290725 -0.012494538 0.04170371
000130 e1 3a 90 3c 0c a4 6b 3d e6 d3 37 bd 44 e4 79 3d
       0.0176062 0.057529494 -0.044879816 0.061008707
000140 6c fc 10 bd f1 d0 16 bc bd 6d c5 3b 01 44 23 bd
       -0.03539698 -0.009205089 0.0060250447 -0.039859775
000150 b3 d1 14 3d b2 f4 38 bc a1 ea 94 3d d1 2a 53 3c
       0.036332797 -0.011288809 0.072713144 0.012888626
000160 06 4b 39 bd 96 b2 67 3c 89 24 e4 bc 07 77 7b 3d
       -0.045237564 0.014141699 -0.027849453 0.06139281
000170 57 e3 1f bd f1 7a e3 3c 7a af 92 bc 48 5a 36 3d
       -0.039035168 0.027768584 -0.01790594 0.044519693

model_4/batch_normalization_19/batchnorm/sub f4 [48]
000000 ed fa ee 3d 9e 08 89 be 98 ae 8c 3e 50 e4 b0 3e
       0.11668954 -0.26764387 0.27476954 0.3454919
000010 de 80 18 be ec 9b 1d be 30 43 be 3e 82 c2 b9 3e
       -0.14892909 -0.1539151 0.37160635 0.3628121
000020 60 94 11 3e 4b ce ea 3e 1a 12 cf 3d 6a 94 bf 3e
       0.14216757 0.45860514 0.101108745 0.37417918
000030 20 d5 28 be e9 8f ca be 49 f5 7a 3e 13 eb 21 3f
       -0.1648755 -0.3956292 0.24507631 0.6324932
000040 d7 01 f9 3e e0 f3 e3 3d 2c f0 90 3d fb 97 8e 3e
       0.48634216 0.111305 0.07077059 0.27850327
000050 38 25 4a 3b 43 04 13 3f b2 f6 45 3f 8a 6c 0d 3e
       0.0030844938 0.5742838 0.7732955 0.13810936
000060 bb 11 a1 3d 1d 7d 97 bc d6 35 e1 3e 62 d5 27 bd
       0.0786471 -0.018492276 0.43986386 -0.040974982
000070 8e 28 34 be ec 07 40 3e ea 5d 4f be fc 75 01 3f
       -0.17593595 0.18753022 -0.20250669 0.50570655
000080 20 78 a5 3c 1e 5c ad be c6 ca db 3d f0 95 f7 3b
       0.020198882 -0.33859342 0.10732035 0.0075557157
000090 f6 e0 b6 bc 91 11 ce be 80 84 c7 bd 7e 57 af 3e
       -0.022324067 -0.40247777 -0.09742069 0.3424644
0000a0 47 df 02 3f 44 46 ad bd 80 d4 bb b9 4d 6e 9a bd
       0.51121944 -0.08460668 -0.00035825744 -0.075405695
0000b0 74 a7 ba bc 5c 39 7b be 99 6e cd be 9e 0f 2d 3f
       -0.022784926 -0.245336 -0.40123442 0.67601955

model_4/batch_normalization_19/batchnorm/mul f4 [48]
000000 ef b2 03 40 a6 a0 07 40 ba 90 2d 40 af 41 02 40
       2.0577962 2.1191802 2.7119584 2.035259
000010 33 fb 0b 40 e3 79 f8 3f 03 36 f9 3f 7c 8a fc 3f
       2.187207 1.9412197 1.9469608 1.9729762
000020 d5 30 0c 40 9a a7 e7 3f eb 34 05 40 ef 6e 01 40
       2.1904805 1.8098023 2.0813549 2.0223958
000030 71 d5 f0 3f c1 63 d3 3f f7 cf 23 40 e7 7d 02 40
       1.8815137 1.6514817 2.5595682 2.0389345
000040 22 38 ee 3f 10 cd fc 3f d1 b4 f5 3f a2 59 fc 3f
       1.861088 1.975008 1.9195806 1.9714854
000050 44 52 fd 3f 85 fb dd 3f 51 b6 4c 40 48 35 0c 40
       1.979073 1.7342383 3.1986277 2.190752
000060 61 34 0f 40 29 08 31 40 90 12 bb 3f 3c cb f4 3f
       2.237572 2.766123 1.461504 1.9124522
000070 41 d8 11 40 35 ae d4 3f bb 9a 00 40 4c 34 f0 3f
       2.278824 1.6615664 2.009444 1.876596
000080 5b 04 f1 3f c5 19 ec 3f 76 ef 30 40 4c 31 c6 3f
       1.8829454 1.8445364 2.7646155 1.5483794
000090 8a f4 03 40 ed 0e 66 40 ca 99 11 40 d3 f5 ee 3f
       2.0618005 3.594661 2.2750115 1.866877
0000a0 e9 1f db 3f 9f fc fe 3f 71 21 ec 3f 54 4b e4 3f
       1.7119113 1.9920844 1.8447706 1.7835488
0000b0 0d a9 11 40 89 dc d6 3f fa 55 d5 3f 9f 40 f7 3f
       2.275943 1.6786052 1.6666863 1.9316596

model_4/batch_normalization_18/batchnorm/sub f4 [96]
000000 c0 74 53 bf 3c d4 06 bf 52 f8 e3 bd bc c9 34 3e
       -0.8260002 -0.52667594 -0.11131348 0.1765508
000010 72 46 fb 3e 3a b6 33 3f eb 92 ce 3d 89 7b 2e 3d
       0.49077183 0.7019993 0.10086616 0.04259828
000020 44 a9 e1 be ea d6 88 3f 81 07 08 bf d4 d5 35 3f
       -0.44074452 1.0690587 -0.5313645 0.710294
000030 b4 b4 85 be be 25 b0 be d8 e9 b0 be f0 6f cc 3d
       -0.26114428 -0.34403795 -0.3455341 0.09982288
000040 d0 f2 b3 be 7a 58 f3 3e 8c 60 7f 3e 1e f4 18 be
       -0.3514619 0.4752844 0.24939173 -0.14936873
000050 51 5e b1 be bb 1c cc 3e d8 4d 46 bf a8 26 8f 3f
       -0.3464227 0.3986567 -0.7746253 1.1183672
000060 36 d1 e7 bd 83 7d 06 be d8 d9 5b bf e4 69 9d 3e
       -0.11319201 -0.13133816 -0.8587928 0.3074485
000070 09 d6 95 bf 89 d6 27 bd c7 57 bb 3d b1 42 7e 3e
       -1.1705943 -0.04097608 0.091476016 0.24830128
000080 df e7 77 3f 68 7c 11 40 9f 06 3b bf 21 5a 9e 3d
       0.9683818 2.2732182 -0.7305698 0.077320345
000090 63 89 59 be f9 1b 5e 3f 69 86 3b 3f f1 21 b2 bf
       -0.21243815 0.8676143 0.7325197 -1.3916608
0000a0 64 c8 38 bf f7 4d 69 bf 6e 96 5e bf fd ab e6 3f
       -0.7218077 -0.9113459 -0.8694829 1.8021237
0000b0 44 58 7c 3e 66 8a ac 3d 32 45 b2 be c5 c7 9e bf
       0.24643046 0.08424835 -0.34818417 -1.2404715
0000c0 09 10 95 bd 06 b7 13 bf 6e 49 82 3f 46 48 80 be
       -0.07278449 -0.57701147 1.0178659 -0.2505514
0000d0 62 5a 05 3f 33 df e5 bf 53 62 bd bf 90 14 df be
       0.5209104 -1.795874 -1.4795631 -0.43570375
0000e0 f6 34 2c 3e d1 59 39 3d bb 00 b9 bf aa b3 34 3f
       0.16817078 0.04525167 -1.4453348 0.70586646
0000f0 5a 7c 5c bf 38 97 82 3f 9b ca ec bf 98 6f 23 bf
       -0.86127245 1.0202398 -1.849933 -0.63842154
000100 43 71 79 bf 7b 22 92 3d 19 f2 6e 3e ec bf 3a 3e
       -0.9743845 0.07135483 0.2333454 0.18237275
000110 9e d5 de bd 22 3c 63 bf 34 9f 75 bd c6 1b 16 bf
       -0.10880588 -0.8876363 -0.05996628 -0.5863613
000120 04 2d d5 bf 20 63 62 bf a5 cd 98 3f da ae 3c bf
       -1.6654363 -0.884325 1.1937758 -0.737043
000130 8e b6 ea bf c8 17 ad bd fa 21 f7 3d 55 33 83 3e
       -1.8336961 -0.084518015 0.120670274 0.256251
000140 3e 38 04 bf b0 b8 ac 3f 5e ad c4 bf c6 c2 8a 3f
       -0.5164832 1.3493862 -1.5365407 1.084069
000150 e2 98 02 3f d6 02 08 3f 84 76 2d bf 34 db 3e bf
       0.5101453 0.5312933 -0.67758965 -0.7455323
000160 91 27 62 bf f7 6d 8d 3f 88 7e 02 bf 96 82 3f bf
       -0.88341624 1.1049184 -0.5097432 -0.74808633
000170 fc 0d 04 bf ae 8a 82 3f d4 ac 92 bd 99 d2 31 3d
       -0.5158384 1.0198572 -0.071618706 0.043413732

model_4/batch_normalization_18/batchnorm/mul f4 [96]
000000 5d f9 39 41 b8 46 f4 40 e9 55 d3 40 f9 7a da 40
       11.62338 7.6336327 6.604237 6.8275113
000010 76 7d 14 41 6a 4d 03 41 b1 45 06 41 5c 0e f5 40
       9.28063 8.2064 8.3920145 7.658003
000020 f0 1c 27 41 79 61 19 41 e4 19 08 41 ec 34 1e 41
       10.444565 9.586297 8.506321 9.88792
000030 93 0a 04 41 d1 17 22 41 22 6d 24 41 49 d3 16 41
       8.252582 10.130815 10.276644 9.426583
000040 f3 fa 5f 41 86 a5 c2 40 dd 2b e8 40 0e 1d ce 40
       13.998767 6.0827055 7.2553544 6.4410467
000050 28 6c df 40 84 f1 e7 40 2e d3 f1 40 09 1c 1f 41
       6.9819527 7.248232 7.557029 9.9443445
000060 9a e1 06 41 56 19 0f 41 56 a2 cc 40 9f f1 23 41
       8.4300785 8.943686 6.3948164 10.24649
000070 47 78 ec 40 a7 08 51 41 a0 4f 3c 41 9f 7d 01 41
       7.3896823 13.064612 11.76944 8.093169
000080 9e 32 25 41 ee 6b 45 41 39 71 25 41 ff 91 e8 40
       10.324858 12.33885 10.340142 7.267822
000090 cb ed 09 41 58 f8 12 41 96 45 08 41 e0 00 00 41
       8.620555 9.185631 8.516989 8.000214
0000a0 0d 5d 08 41 d6 f9 48 41 be 79 23 41 62 00 30 41
       8.522717 12.560995 10.217222 11.000093
0000b0 59 0a 4d 41 4c b5 05 41 19 bc 3d 41 25 2e 46 41
       12.815026 8.356762 11.858422 12.386266
0000c0 7e ca 63 41 e5 be 14 41 29 e6 4f 41 98 4f 1b 41
       14.236937 9.296605 12.993691 9.706932
0000d0 14 97 f4 40 6f ed 66 41 0a df 31 41 f3 2d 08 41
       7.643442 14.432967 11.116953 8.511218
0000e0 e3 41 04 41 ab 96 1d 41 fc 7c 22 41 20 1a 32 41
       8.266086 9.849284 10.155514 11.131378
0000f0 fc 67 09 41 4b bf 0d 41 fb 8c 08 41 55 df 2a 41
       8.587887 8.859202 8.534419 10.679524
000100 fb 6e 15 41 df c1 f7 40 8f 11 14 41 82 1c 49 41
       9.339595 7.742416 9.254287 12.56946
000110 b7 52 2a 41 11 07 1e 41 ee 53 06 41 cc 60 01 41
       10.645194 9.876725 8.395491 8.086132
000120 42 b0 0e 41 cd c1 02 41 96 14 ce 40 70 6b 26 41
       8.918032 8.172315 6.440013 10.40123
000130 5b 94 23 41 fa b9 15 41 a6 f1 04 41 05 9c 34 41
       10.22372 9.357904 8.308996 11.288091
000140 f9 fa 14 41 05 d8 6f 41 0a 4d 13 41 48 82 19 41
       9.311273 14.990239 9.206308 9.594307
000150 65 64 2b 41 c7 1e 43 41 db 04 38 41 a8 ee 04 41
       10.71201 12.195014 11.501185 8.308266
000160 ff 16 25 41 3c ca 55 41 e3 f1 41 41 4f d7 f0 40
       10.318114 13.361874 12.121554 7.526283
000170 8d 66 0c 41 fe 18 37 41 17 c9 11 41 c4 a9 14 41
       8.775037 11.443602 9.111594 9.291447

model_4/dense_9/BiasAdd/ReadVariableOp f4 [26]
000000 5c 51 b5 3d 6c 93 15 3e fa 56 28 3c f2 78 d2 3d
       0.08853409 0.14607018 0.010274643 0.10276975
000010 f1 f2 0a 3e 28 be b3 3d 1e 51 94 3d 09 c4 67 be
       0.13569237 0.08776504 0.072420344 -0.22633375
000020 98 9e 50 be d2 a9 51 be 8e fb 42 be e7 ad 4a be
       -0.20372999 -0.20474938 -0.19041273 -0.19792901
000030 1e b9 54 be 4c 95 51 be 97 81 4d be ff 93 47 be
       -0.20773742 -0.20467108 -0.20068966 -0.1949005
000040 c6 d7 4c be 41 ad 54 be 61 b3 40 be 7a f5 54 be
       -0.20004186 -0.20769216 -0.18818428 -0.20796767
000050 4b 07 59 be 3e 35 4c be 14 da 4a be 80 73 3d be
       -0.21194188 -0.19942185 -0.19809753 -0.18501091
000060 f3 3e 4f be e1 33 55 be
       -0.20238857 -0.20820571

model_4/dense_8/BiasAdd/ReadVariableOp f4 [48]
000000 0d 05 ad 3d 47 11 6a 3d e4 86 e1 bc 64 1b 3d 3e
       0.08448229 0.057145383 -0.027530141 0.1846748
000010 11 99 9c bc 0c 4f a4 3d 68 d7 aa 3c 05 63 e8 3d
       -0.019115957 0.080228895 0.020854667 0.113470115
000020 f0 e0 3e 3d 6d 48 10 bd 8a f2 c5 3c de a3 36 3e
       0.046601236 -0.03522532 0.024163503 0.17835948
000030 6b eb b8 bc 2f 5c 83 3d ad 6b 31 bd 64 0e 27 bd
       -0.022573194 0.06414067 -0.04331558 -0.04078521
000040 4a 9a a7 3d c4 4e 0a 3e fa d0 9d 3d 2a 18 d7 3d
       0.08183725 0.13506609 0.07705875 0.10502656
000050 e5 eb 53 3d 57 4b 0a 3d 41 e5 1d 3e c2 a7 b1 3c
       0.05173864 0.033763256 0.15419485 0.021686438
000060 f9 98 ad 3d ef da 4c bc 53 2d dd bb 58 5c 28 3d
       0.08476443 -0.01250337 -0.006749788 0.04110369
000070 13 27 a9 3d 22 11 f2 3c 3f a9 39 3d d6 75 4c 3d
       0.08259406 0.029549185 0.04532742 0.049917065
000080 c9 fd 2c 3e 26 be 51 3d 37 e9 00 bc 71 31 8d 3d
       0.16893686 0.05120673 -0.007868103 0.06894196
000090 30 0b 67 3d da 86 28 3d fe a0 30 3e 2d a5 df 3d
       0.056407154 0.04114423 0.17248914 0.10920177
0000a0 3d 94 21 3e a4 da 96 3c c0 2f db 3c 2b a8 94 3d
       0.15779205 0.018414803 0.026756167 0.07258638
0000b0 a5 75 1a 3e 23 63 d2 3d 1d 45 7c 3d b1 8d 7b 3d
       0.1508394 0.10272815 0.06158935 0.061414424
