app/src/main/assets/models/places.tflite (tflite, 673196 bytes, 52 tensors)

model_4/batch_normalization_16/batchnorm/add_1;model_4/conv1d_8/Conv1D/Squeeze;model_4/batch_normalization_16/batchnorm/mul_1;model_4/conv1d_8/BiasAdd;model_4/conv1d_8/BiasAdd/ReadVariableOp;model_4/batch_normalization_16/batchnorm/mul;model_4/batch_normalization_16/batchnorm/sub;model_4/conv1d_8/Conv1D;model_4/conv1d_9/Conv1D f4 [96]
00000000: 3ae6 64bf a772 8bbf c0ac cfbe f160 12bf
00000010: 6866 1cbf bea3 0e3f bbe8 77bf 0869 41bf
00000020: ee52 e7be d65b 11bf 0e9b d5bc 157e 84bf
00000030: 9dbb 6b3f bd95 3c3f c8d7 45bf 2019 113e
00000040: 70e8 f03e 32d2 b5be 1012 afbf 1127 e73e
00000050: 96d5 4bbf 6fd0 ef3e 77de abbe 7c3d 393f
00000060: c273 ec3e 09d0 253f bbb2 79bf b01e f43d
00000070: 4045 13bf c85f 033f 72a4 913e 6cfb 71be
00000080: 8621 df3d 2811 a9be 544d 8e3f 9ae6 d83e
00000090: bb12 cebf fd27 9ebe 431c 073f cea4 003e
000000a0: b92a 91bf fcb0 dabf 253f 86bf a3ce 6b3f
000000b0: 7171 41bf eda7 b9bf 6b9c 10be c541 2d3f
000000c0: 9bac 163e 0b04 0cbf c8f5 863e 9904 19bf
000000d0: ff99 9fbf f639 833d 6191 9f3f 0b5a fabe
000000e0: 175b 87be 8fb3 64bf 4842 483e 8d5f 00bf
000000f0: 9c25 1bbe 2129 6ebf 255e 80bf 326e d43e
00000100: 2438 7dbf 531c d63c a5ea aebf 380e 743f
00000110: 6fd3 d43e a957 2ebf 6ae3 0f3e 70d2 0abf
00000120: f75a aabf 4024 1cbf 0bba 24bf 0a6a 9f3f
00000130: 7724 9b3f b23c 023e 4c00 a73e 2cff 2fbf
00000140: a276 a3be 52f8 4bbf d21e b73c 7bd0 7c3f
00000150: ffb6 a83f 9a64 bdbe f855 1d3f 0e78 1abe
00000160: 8aa3 2dbe a2b1 593f 2b76 a1bf f514 7fbf
00000170: aa57 abbf a95d 71bf 3e89 a7be 4ffe 8a3e
-0.894138 -1.0894364 -0.40561485 -0.5717917 -0.6109376 0.557186 -0.96839494 -0.7555089
-0.45180458 -0.56780756 -0.026074912 -1.0350977 0.9208315 0.7366598 -0.7728238 0.1416974
0.47052336 -0.3551193 -1.3677387 0.45146993 -0.7962278 0.4683871 -0.33568165 0.7235944
0.46182066 0.6477056 -0.97538346 0.11919916 -0.5752754 0.51318026 0.28445774 -0.23631066
0.10895066 -0.33020902 1.1117349 0.42363435 -1.6099466 -0.30889884 0.527775 0.12562868
-1.1341163 -1.7085261 -1.048802 0.9211218 -0.7556372 -1.4504372 -0.14122169 0.6767848
0.14714281 -0.5469367 0.2635939 -0.5977264 -1.2468871 0.064075395 1.2466241 -0.48896822
-0.26436684 -0.89336485 0.19556534 -0.501458 -0.15151066 -0.9303151 -1.0028731 0.41490322
-0.9891379 0.026136553 -1.3665358 0.95334196 0.4156756 -0.6810251 0.14051595 -0.5422735
-1.330901 -0.60992813 -0.6434638 1.2454236 1.2120503 0.12718466 0.32617414 -0.68748736
-0.31926447 -0.7967578 0.022353563 0.98755616 1.3180846 -0.36990815 0.614593 -0.1508486
-0.16956916 0.8503667 -1.2614187 -0.9964135 -1.3386128 -0.9428354 -0.32721895 0.27147147

model_4/batch_normalization_17/batchnorm/add_1;model_4/conv1d_9/Conv1D/Squeeze;model_4/batch_normalization_17/batchnorm/mul_1;model_4/conv1d_9/BiasAdd;model_4/conv1d_9/BiasAdd/ReadVariableOp;model_4/batch_normalization_17/batchnorm/mul;model_4/batch_normalization_17/batchnorm/sub;model_4/conv1d_9/Conv1D f4 [96]
00000000: 6ea1 273e 739b 763e 8641 0e3e dca3 bf3e
00000010: 0f01 f43e 547c fc3e 213d 8f3f 3dac 653f
00000020: af21 bb3d 3aa5 843e 906d 3abe 40f5 593c
00000030: 894d 593d ccea 24be d410 ec3e d15d 253e
00000040: 468b b63e efff 3b3f 2f2e 48bd 85e5 fe3e
00000050: 857f 66bd 4987 583e c3ac 903f 92b6 163e
00000060: e16e 1b3f 5580 da3e a397 0a3f 821d 2a3f
00000070: 755b bc3e b206 183f d849 5d3f 3b12 92be
00000080: 1853 203f b824 8f3e bfeb 923d 6572 17bd
00000090: d1e7 973e f05b 133f 0c58 00bf d2de a93e
000000a0: 962d e83c 2a3a b43c e845 9b3e b969 ef3e
000000b0: ecc7 7fbd f2f0 05bf 7e1a 783e 8abf 443f
000000c0: 6296 223e 4664 f3bd 6315 c3bd 4c8b b43e
000000d0: c8f4 acbd 6cab 643c c5a8 4c3e 1a32 7abd
000000e0: 3e19 f3bd a496 563f 400a 973e c7aa 8e3d
000000f0: ad39 c6be 3995 dfbe 9fbd 863f 0c44 953e
00000100: 7bf6 8a3d 9eef 0fbe d5da 8a3e 28cf a03e
00000110: 948f 173e 4068 473f 9c66 1e3f 0623 bd3e
00000120: f48b a93e fad5 74be c0e1 18bb 42c7 9d3e
00000130: 7ae4 183f 4598 b43e 9e65 f83e f44b ccbd
00000140: 8029 543f f36b fa3e 9265 da3e 5aea f7be
00000150: c66c 3c3e 1d0e 373e a79c 073f 7f33 943f
00000160: 58db 843f 0a2a 8c3e 38d2 e63e b3d7 afbe
00000170: ad8e 833f 221e 1a3f 2567 82bd 4408 51be
0.16370174 0.24082737 0.13892183 0.37429702 0.47657058 0.49313605 1.119053 0.8971594
0.09137284 0.25907308 -0.18205857 0.013303101 0.05305246 -0.16105193 0.4610659 0.1614907
0.35653132 0.734374 -0.04887217 0.49784485 -0.056273956 0.21145357 1.1302723 0.14718083
0.6071606 0.42676035 0.5413763 0.66451275 0.36788526 0.59385216 0.864408 -0.28529534
0.6262679 0.27957702 0.07173871 -0.03697433 0.2966905 0.5756216 -0.5013435 0.3317781
0.02834205 0.022000391 0.30326772 0.46760347 -0.06244652 -0.5232078 0.24228856 0.76854765
0.15877679 -0.1188436 -0.095255636 0.35262525 -0.08445126 0.013956886 0.19986255 -0.061082937
-0.11870049 0.8382361 0.29500008 0.06966167 -0.38715878 -0.43668535 1.0526618 0.29153478
0.06785294 -0.1405625 0.2712008 0.31408048 0.14800864 0.7789345 0.6187532 0.36940783
0.33114588 -0.2390975 -0.0023327917 0.30816084 0.5972363 0.35272422 0.48515028 -0.099754244
0.82875824 0.48910484 0.42655617 -0.48420984 0.18400869 0.17876478 0.5297341 1.1578215
1.0379438 0.27375823 0.4508226 -0.34344253 1.0277916 0.6020223 -0.063673295 -0.2041331

model_4/batch_normalization_16/batchnorm/mul_1;model_4/conv1d_8/Conv1D/Squeeze;model_4/conv1d_8/BiasAdd;model_4/conv1d_8/BiasAdd/ReadVariableOp;model_4/batch_normalization_16/batchnorm/mul;model_4/conv1d_8/Conv1D;model_4/conv1d_9/Conv1D f4 [96, 1, 3, 126]
00000000: 51e7 8bba b6d3 e1b9 7eb3 4d38 cb71 05bc
00000010: ba08 33bd 5b50 fbb9 d43b 8dbb 131c 6dbd
00000020: 5683 5ebc 3206 1cb9 a97e 48bd 138e b9bc
00000030: 2c8e 42bb 0da4 e8bc 1f25 fabc 3c0d 08bc
00000040: 1466 f0bd 686f e9bc 9fe8 893c d7dd 64bd
00000050: 522a 0abd d39a 9e3c c899 c7bc cbe6 0fbd
00000060: 52f0 ab3c 346f d0bb 5ac1 17bd e9ec b2bc
00000070: aec0 d1bd ad81 c7bc 5e98 c43b 4081 28bc
00000080: 94d4 d3bc 4fa0 333b 4473 233d 2df7 9bbc
00000090: ae75 b6bb f8db 523d bd9c 84bc d186 94bc
000000a0: 5d48 88bd 5089 c9bc baa8 f63b dfa1 ae3c
000000b0: 6ea5 d0bc 48de 0f38 c481 583d cea9 84bc
000000c0: 3538 6fbc 8d4d 483d 2d72 0bbc 4a90 98bc
000000d0: 296a 0cbd 755e d7bc 2ba6 f03b 3d08 913c
000000e0: 05f1 cebc 4d87 913b 9e70 283d 35d5 84bc
000000f0: 273f 03bc e5cd 2a3d f494 10bc 34ef b6b9
00000100: 7e57 28bb 9eee 26ba 8f76 80bc 59a7 993b
00000110: d7e0 cd3b 389d 10bd f107 d43c 55e3 9e3b
00000120: 57ab 29bd bec4 573d 1308 273b 0a1c 35bd
00000130: f365 a03d 1381 f4ba 9f13 e8bc 2565 5e3b
00000140: 9b4a 1ebc 2049 e7bc 13e4 babc 99be 13bc
00000150: 5f70 f5bc 2413 afbc 26f2 f2bb a278 01bd
00000160: 249b 963b 24d2 e6bb 3252 e0bc 17a4 fa3b
00000170: f1c0 85bc 9839 d1bc eee0 21bd a34e 85bc
00000180: 5c46 02bd b370 21bd bc11 81bc 9278 1bbd
00000190: b2b6 fdba 7772 82bc 5ce7 d2bc 2c76 d53c
000001a0: 0a75 86bc 5058 cdbc 7a9a 7ebc 27cb 71bc
000001b0: 2308 fcbc 621a f4bc e8df 80bc f9c5 14bd
000001c0: b44c 7fbc e5d7 91bc 7765 aabc a2c9 2f3d
000001d0: 7bd0 b7bc d0aa 9bbc b732 ae3c 2981 bdbc
000001e0: a12d a7bc e672 e0ba e275 cbbc 6733 bdbc
000001f0: 0dad 5fbc 6ca8 d8bc cfdc bbba 225c 61ba
00000200: 786d beb8 a7a1 e8bb 7516 40bd aad8 5fba
00000210: b746 1abb 7264 84bd 70f1 64bc 8b9d 413b
00000220: e0d2 61bd dcb2 c1bc 008e ff39 cd28 0cbd
00000230: dd8b 03bd ee9b cdbb afc2 00be cd78 f3bc
00000240: c42c a63c 5b82 83bd 8dbc 14bd edfb ca3c
00000250: 37c8 01bd 7972 1dbd a3da c43c f9ea 4dbc
00000260: ecff 25bd be9b a2bc cc41 debd b16a d3bc
00000270: 5c47 183c 963b 86bc d8c2 e6bc 0de5 d83b
00000280: ce03 0a3d 24b4 b0bc c39d ffb9 98f2 353d
00000290: 980c 9bbc 413d 87bc af70 91bd fe8c d8bc
000002a0: b628 2e3c dda0 8c3c 4bdc e6bc 2926 243b
000002b0: b33e 443d 484b 97bc 0cbf 5cbc b7cd 2f3d
000002c0: ddfc 28bc e298 84bc b065 14bd 6ddc e9bc
000002d0: 9e38 2d3c e4fd 713c 2cd4 e2bc 4dbc 013c
000002e0: bb21 183d b445 94bc f113 a2bb 7ef9 153d
000002f0: bd70 25bc 787c 88ba 9a0b 11bb 6309 64ba
00000300: f191 94bc 3fe1 943b c9ec e83b f95a 22bd
00000310: e788 c83c f995 b23b 1d89 3ebd 137e 513d
00000320: d7c8 353b ac3a 4dbd 6e7a 9f3d 76ed ecba
00000330: adfc fcbc 5047 0cbb 3ddf 1dbc 43dc 00bd
00000340: 1b79 ebbc 128e 17bc 1f12 08bd 2cfd d7bc
00000350: a83d 08bc ec6c 0fbd ded1 333a 021b 05bc
00000360: 9e12 f4bc 9098 463b 4256 89bc cfe2 ebbc
00000370: 41e6 36bd 8f29 8bbc 00a1 0fbd 4c96 31bd
00000380: b01f 88bc c0f5 27bd e8e0 cbbb a266 8abc
00000390: 9864 e2bc da79 c13c 7120 8bbc 399d e7bc
000003a0: 9186 99bc 2078 78bc 9512 0cbd 6cc0 0abd
000003b0: 3bf8 82bc bf52 25bd 2a61 9dbc c816 95bc
000003c0: 5a9c b7bc d5bc 283d 7111 c0bc 0725 b1bc
000003d0: 784f 953c df8b c4bc bfba bdbc 4c18 c2bb
000003e0: b665 cebc c46c d7bc 4b8b 95bc 4939 debc
000003f0: bb12 b7ba 9ae0 18ba 96aa 6539 02a9 ddbb
-0.0010673796 -0.0004307308 4.9042974e-05 -0.008144806 -0.043709494 -0.0004793432 -0.0043101106 -0.0578881
-0.013581118 -0.00014879627 -0.048948918 -0.022650754 -0.0029686792 -0.028398538 -0.030535279 -0.008303937
-0.1173822 -0.028495505 0.016834555 -0.055875625 -0.033731766 0.019360935 -0.02436532 -0.03513221
0.020988617 -0.0063609127 -0.03704963 -0.021841483 -0.10241829 -0.024353826 0.005999609 -0.010284722
-0.025858201 0.0027408784 0.039904848 -0.019038761 -0.0055682277 0.05147931 -0.01618802 -0.018130692
-0.06654427 -0.024601609 0.007527438 0.02131742 -0.025469508 3.4300872e-05 0.05285813 -0.01619425
-0.014600803 0.048902083 -0.008511108 -0.01862349 -0.03428093 -0.026290158 0.0073440275 0.017704124
-0.025261411 0.004441178 0.041123025 -0.016214946 -0.008010662 0.041700263 -0.008824576 -0.00034891965
-0.0025686915 -0.0006367954 -0.015681533 0.004689139 0.0062829065 -0.035306185 0.025882693 0.0048488774
-0.041423168 0.052677862 0.002548699 -0.044216193 0.07831945 -0.001865419 -0.028329669 0.0033934799
-0.009661342 -0.02823311 -0.022813832 -0.00901761 -0.02996081 -0.021371432 -0.0074141202 -0.031609185
0.004596131 -0.0070440937 -0.027382944 0.0076489556 -0.016327353 -0.025540158 -0.03952115 -0.016272848
-0.03180538 -0.03941412 -0.015755527 -0.03795678 -0.0019356816 -0.015923722 -0.025745086 0.026057325
-0.01641323 -0.025066525 -0.01553976 -0.014757908 -0.030765599 -0.029797737 -0.015731767 -0.036321614
-0.015582252 -0.017803142 -0.020800335 0.0429169 -0.022438278 -0.019002348 0.021264417 -0.023132877
-0.0204075 -0.0017124086 -0.024836484 -0.0230958 -0.013652098 -0.026447497 -0.0014332774 -0.00085967977
-9.080296e-05 -0.0070993486 -0.046896417 -0.00085390604 -0.0023540684 -0.06464471 -0.013973579 0.0029543366
-0.055132747 -0.023644857 0.00048743188 -0.0342186 -0.032115806 -0.006274692 -0.12574266 -0.029720688
0.020285018 -0.06421348 -0.03631263 0.02477833 -0.03168508 -0.038439248 0.024030035 -0.012568229
-0.04052727 -0.019849654 -0.108523935 -0.02580771 0.009294357 -0.016385835 -0.02816908 0.006619102
0.033695035 -0.021570273 -0.00048754932 0.04442081 -0.018926904 -0.0165087 -0.07101571 -0.026434418
0.010629823 0.01716655 -0.028181216 0.002504716 0.047911357 -0.018468514 -0.0134732835 0.042920794
-0.010314194 -0.016186181 -0.03622979 -0.02854749 0.010572581 0.014770005 -0.027689062 0.00791843
0.037141543 -0.018099643 -0.004946225 0.036614887 -0.01009768 -0.0010413071 -0.002213216 -0.00086989085
-0.018135997 0.004543453 0.007108305 -0.03963754 0.024479343 0.005450007 -0.04651748 0.051145624
0.0027738118 -0.050104782 0.077870235 -0.001807614 -0.030882204 -0.002140481 -0.009635744 -0.031460058
-0.028744271 -0.009250181 -0.033220407 -0.026365839 -0.008315481 -0.035015985 0.0006859581 -0.008124115
-0.029794034 0.0030303337 -0.016764764 -0.028794674 -0.04465318 -0.01698759 -0.03506565 -0.043356225
-0.016616672 -0.04100585 -0.0062218793 -0.016894642 -0.027635857 0.023617674 -0.016983243 -0.028273212
-0.018740924 -0.015165359 -0.03419741 -0.033874914 -0.015987506 -0.040362116 -0.01921137 -0.01819934
-0.022413421 0.04119571 -0.023445817 -0.021624101 0.01822637 -0.023992477 -0.023160337 -0.0059233066
-0.025194984 -0.02629698 -0.018254897 -0.027126925 -0.0013967374 -0.0005831808 0.0002190269 -0.006764532

model_4/batch_normalization_17/batchnorm/mul_1;model_4/conv1d_9/Conv1D/Squeeze;model_4/conv1d_9/BiasAdd;model_4/conv1d_9/BiasAdd/ReadVariableOp;model_4/batch_normalization_17/batchnorm/mul;model_4/conv1d_9/Conv1D f4 [96, 1, 3, 96]
00000000: ceda 96bc 2ad6 6abc a3d8 caba 47f7 9f3d
00000010: 988c 57bd 6616 e23c 080f 71bd 10f3 113b
00000020: 3a66 f13c 029c e3bc 6a4b 83bc e713 e33b
00000030: 82cc fc3c 61f0 59ba 78ee 6b3d 569f 66bd
00000040: ac7a edbc fa38 a93c 17a1 55b9 9ef0 c7bb
00000050: 0df5 223d 0297 213c bd42 55bc f97b 033d
00000060: 17c6 3abd c6d9 cd3b 2aa1 4e3c 4910 593b
00000070: 00b6 813d 6014 7f3d bda2 843c 9278 d83c
00000080: 7cbd 4a3b 00ce 063d fa48 0dbb a3a2 a43c
00000090: 4f92 5cbc 6645 053d 61a8 813c 9c45 53bb
000000a0: 3632 fb3c 505b 18bd 41db 8d3b 76c2 67bb
000000b0: fed7 143d 0aba 9b3c 446a d0bc 41b5 84bb
000000c0: ab46 73bb 5043 713c d6f5 cd3c 74c9 053c
000000d0: b5b4 fa3c 37c5 a0bc 97fa 1bbc ea44 a83c
000000e0: cf78 6fbd e478 2bbd d588 3cbd 6375 2c3d
000000f0: 8e91 ca3b 6db6 65bd eb4f d43c ec51 ad3d
00000100: 0143 103d 1c2b 9b3c 1dd2 8abc c102 4bbd
00000110: ebab 563c c3c9 0d3d baec 733b 9818 2c3c
00000120: bce8 eebc d40a a0bc c7b0 983c c96b c0bb
00000130: 137f a8bb e066 12bc 1237 a33c 72a3 023a
00000140: adcc dc3c b3a5 56bc 0846 913a 58ad a13a
00000150: 7932 7bbb de73 babc 06d5 afb9 a6b8 f0bb
00000160: c78e 60bd 2dfb d83a f4b0 853c 9dcb 40bc
00000170: 919a 2bbd fa2e 68bc 33a3 f13b c2fc e6bc
00000180: 41cd 99bc c401 5fbc 751f 12bb 3dc8 a33d
00000190: 375a 60bd c8a4 c43c 9cf8 6dbd e27c 573b
000001a0: b9ee 013d 58f0 d8bc 9491 8ebc fc49 b23b
000001b0: eebc e03c 1265 79ba 95de 6c3d 75eb 70bd
000001c0: a71b 0ebd c2ac ab3c 1f36 803b 0eeb 85bb
000001d0: 0cd3 1d3d ff04 2a3c 340d 4ebc d517 163d
000001e0: d850 44bd c273 523b de37 523c 132b 703b
000001f0: 3b65 913d 8e32 6a3d 6e19 873c c03f c23c
00000200: 6d55 483b b369 083d 435e abbb b7e3 ad3c
00000210: 2475 50bc 7681 0f3d 251a 933c a9d4 66bb
00000220: 5172 f13c d2d2 16bd 8318 983b e6d9 8ebb
00000230: 6b5b 183d 0d1d 953c 16d6 dfbc 3dae 90bb
00000240: 2f4c 28bb b15a 863c 1305 b93c fc11 2e3c
00000250: 6178 f63c 008e 95bc 6c02 3abc bb1a ac3c
00000260: a74b 6fbd 4b1e 1fbd d07f 40bd 0359 2b3d
00000270: 3380 8c3b 15c7 64bd dba7 d53c 6da1 ac3d
00000280: 49e0 1b3d 9cb2 973c a6e9 83bc bd8e 41bd
00000290: 245d 633c e0d3 0a3d 5247 933b 782d 203c
000002a0: ca9e f6bc 9056 9bbc 1425 783c f55a e4bb
000002b0: 4e8b 13bc 11f7 1cbc e6be a93c 6285 32ba
000002c0: 94c6 cf3c 0259 69bc 586a 973b 2d9b 17bb
000002d0: 7ce6 9ebb fbb0 aebc 5130 2d3a 1784 4fbc
000002e0: a7df 66bd b01f 26ba b5d8 813c 9ed0 02bc
000002f0: 854e 2dbd e329 4fbc 2247 f93b 7d61 ccbc
00000300: 5c8a a7bc b8c9 55bc e8c8 ebba a744 a53d
00000310: 433d 63bd 24a4 bd3c ecfe 6abd 40a6 973b
00000320: af3f 043d 3349 cfbc 20fe 8ebc b1e5 8f3b
00000330: 76ee e13c e01a 08b9 e3cb 713d 1800 81bd
00000340: 44d9 0bbd 2372 aa3c 8283 b83b d604 8cba
00000350: 95d2 1c3d c45d 293c 0044 3bbc bd10 1f3d
00000360: ff82 42bd 0931 923a 0586 2f3c 31ee 843b
00000370: c243 9a3d 76a9 603d 8fed 8c3c b712 d33c
00000380: 8be5 6b3b 94e9 093d c631 aabb 8be7 b63c
00000390: 74a2 51bc 95bb 193d 99fd a23c 7749 9bbb
000003a0: c599 f23c a732 15bd 14d8 8a3b 9d2c 53bb
000003b0: dce0 1d3d 3032 903c f523 dbbc 65e5 35bb
000003c0: cfc8 caba cdb2 9a3c 039a b73c b29e 3f3c
000003d0: 1f2e fb3c b964 90bc aef8 1dbc 78d9 a03c
000003e0: c9f9 6bbd 2216 24bd c98d 46bd 6bab 283d
000003f0: a4ee 6e3b d4bc 66bd 581e c83c 0674 a73d
-0.018414881 -0.014333287 -0.001547594 0.07810836 -0.052624315 0.027598571 -0.058852226 0.002227012
0.02946769 -0.027784351 -0.016027171 0.006929863 0.030859236 -0.00083137123 0.05760047 -0.0563043
-0.028989159 0.020657051 -0.00020373274 -0.006101682 0.03978448 0.009862663 -0.0130164 0.03210065
-0.04559907 0.006282064 0.012611667 0.003312128 0.06333542 0.06227529 0.01619088 0.02642468
0.0030935695 0.0329113 -0.002155839 0.020097082 -0.013462617 0.032536887 0.01582736 -0.0032237535
0.03066359 -0.037196457 0.0043291156 -0.003536371 0.0363388 0.019009609 -0.025441296 -0.0040499275
-0.0037120979 0.014725521 0.025141638 0.008165706 0.030603746 -0.01962529 -0.0095201945 0.020540673
-0.05846482 -0.041863337 -0.04602893 0.042104136 0.0061819023 -0.056082178 0.025917014 0.08462891
0.03522015 0.018941455 -0.016945893 -0.049563173 0.013102512 0.034616243 0.0037219957 0.0105039105
-0.02916371 -0.019536413 0.018638982 -0.005872224 -0.0051421016 -0.00893566 0.01992372 0.00049834617
0.026953066 -0.013101029 0.0011083493 0.0012334986 -0.0038329645 -0.022760328 -0.00033537316 -0.0073462306
-0.054823663 0.0016554348 0.01631973 -0.011767295 -0.041895453 -0.014171356 0.007374191 -0.028196696
-0.01877463 -0.013611261 -0.0022296582 0.07997177 -0.054773536 0.024004355 -0.05809842 0.0032880832
0.031721804 -0.026481792 -0.017403401 0.0054409485 0.027433839 -0.0009513657 0.05782946 -0.0588183
-0.03469434 0.0209564 0.0039127017 -0.0040868586 0.038531348 0.010377168 -0.01257639 0.03664382
-0.04792866 0.0032112454 0.012830703 0.0036646768 0.07099386 0.05717712 0.016491618 0.023712039
0.0030568496 0.033303928 -0.0052297427 0.021226747 -0.012723241 0.035035573 0.017956803 -0.003522197
0.029473456 -0.036822148 0.004641594 -0.0043594716 0.037196558 0.018202329 -0.027323764 -0.004415302
-0.0025680175 0.016400667 0.022585427 0.010624405 0.030086698 -0.018256187 -0.0113531165 0.02100884
-0.058421757 -0.03884725 -0.04699689 0.041832935 0.0042877435 -0.055853922 0.026081016 0.08429227
0.038055692 0.018517785 -0.016102623 -0.047255266 0.013877187 0.033893466 0.004494586 0.009776466
-0.030105013 -0.018962175 0.015145559 -0.0069688507 -0.009005381 -0.00958039 0.02072091 -0.0006810037
0.025363244 -0.0142424125 0.0046208315 -0.0023133263 -0.004849253 -0.021324625 0.0006606626 -0.01266577
-0.056365635 -0.0006337119 0.015850404 -0.0079843085 -0.04231121 -0.012644264 0.0076073566 -0.02494883
-0.020451717 -0.013048582 -0.0017988952 0.08069735 -0.055478346 0.023149557 -0.05737202 0.004627973
0.032287296 -0.025303459 -0.01745516 0.004391395 0.027579527 -0.00012979982 0.059032332 -0.06298846
-0.034142748 0.020806378 0.0056309113 -0.0010682594 0.038286764 0.010337297 -0.011429787 0.038834322
-0.04748821 0.001115353 0.010713105 0.004056715 0.07532455 0.05484911 0.01720312 0.02576576
0.0035994973 0.033670023 -0.0051939217 0.022327205 -0.0127950795 0.037532408 0.019896315 -0.0047389823
0.029614339 -0.03642526 0.0042371843 -0.0032222637 0.03854452 0.017602056 -0.026750544 -0.0027755138
-0.0015471223 0.018884087 0.022412306 0.011695551 0.03066164 -0.017626153 -0.009641809 0.019634947
-0.05761126 -0.04006017 -0.04847506 0.041179102 0.003645816 -0.056332424 0.024428532 0.081764266

model_4/gru_9/gru_cell/strided_slice_4 f4 [48]
00000000: 4d82 d33c a615 843c aee0 023d 0d22 6c3d
00000010: b4f8 203d 6246 063d caa7 16bd 72b6 83bd
00000020: b869 e43c 6e2d 0c3c 9b8b d73c 37b7 bd3c
00000030: a995 6f3c f591 bfbd de79 703e b815 31bd
00000040: cb47 473d ac31 033d 5ac1 ebbc f3b0 9ebd
00000050: 6c44 8a3d 51f5 a1bb afe8 5dbd a432 f0bc
00000060: 1974 1fbb c7af 88bd f8ad 1cbd 03bc dabc
00000070: aad3 ea3d 6e9d 253d c4e5 83bd 9159 cebd
00000080: efca c3bd c361 8bbc 1f0d c2bd 3699 cbbc
00000090: 93d9 4b3c 6b14 03bd 0270 0ebd ce34 b2bd
000000a0: 8d50 5c3d 5a12 92bc a113 07bd 1e78 a03d
000000b0: 8964 e13d fe1f 38bd f74e 283d 6f05 38bd
0.025818968 0.016123604 0.031952552 0.05764966 0.03929968 0.032781966 -0.03678111 -0.06431283
0.027882442 0.008555753 0.026311686 0.023158653 0.014623084 -0.09354011 0.23483989 -0.043233603
0.04865245 0.032029793 -0.02877872 -0.07748594 0.06751332 -0.004942574 -0.054176982 -0.029321022
-0.0024330674 -0.06674152 -0.038251847 -0.02670098 0.11466153 0.04043334 -0.06440309 -0.10075677
-0.09560191 -0.01701439 -0.09475159 -0.02485333 0.01244201 -0.032001894 -0.034774788 -0.08701478
0.053787757 -0.017831016 -0.032977704 0.078354105 0.11005504 -0.044952385 0.04109093 -0.044927057

model_4/gru_9/gru_cell/strided_slice_3 f4 [48]
00000000: b587 b83d e0e5 033d cdbd dc3d 2130 da3d
00000010: 1356 693d 9d58 be3d e2c7 a0bd 0063 d53c
00000020: fcfd 633d 9bb6 233e b14d 87bd 6a37 95bc
00000030: 31b8 283e 5f49 ee3d fa48 89bd 5833 bf3c
00000040: 0703 f43d db67 c93d 65af 953d de90 6a3e
00000050: cb36 79bc 9f13 593e c245 0b3d 76ae 0d3d
00000060: c980 c53c 6507 433d deb8 bc3d 8dc6 5fbc
00000070: 74ff 193e 7810 233a b7cc 173d 48f0 973d
00000080: b040 31bd b6bb 903d 8ef5 43bd f72b eb3c
00000090: 9236 523d 3a54 d03d 3087 3a3d 8524 4b3d
000000a0: cc7e 1dbd 6b1c 5fbd a88b f83d 979e 203e
000000b0: 0220 be3d ce7e e03c 3a60 a8bd 9371 b33d
0.09010259 0.032201648 0.10778389 0.10653711 0.056966852 0.092942454 -0.078506246 0.026048183
0.05566214 0.15987627 -0.06606615 -0.0182149 0.16476513 0.11635088 -0.06703372 0.023339912
0.1191464 0.09834262 0.073088445 0.22906825 -0.015210818 0.21198891 0.034002073 0.034590207
0.024109261 0.047614474 0.09214948 -0.013658178 0.15038854 0.00062204106 0.037060466 0.07418877
-0.04327458 0.07067053 -0.0478416 0.028707488 0.051321574 0.10172315 0.04553908 0.049595375
-0.038451 -0.05447046 0.12136012 0.15685497 0.09283449 0.027404215 -0.08221479 0.08761897

model_4/gru_9/gru_cell/strided_slice_5 f4 [48]
00000000: 1183 6d3d 7d8b b3bd c2e7 953d 78f8 2ebb
00000010: b5c5 bdbc b144 debd 0a78 b53d b37e 103d
00000020: 6b37 273c e1cf bebd efad a13c dbc6 4d3c
00000030: 2be9 c13c c403 363d e4b9 6f3c 885b 98bd
00000040: c77c acbd 2255 833d 27f0 d8bc bbcd 0a3e
00000050: d9c8 213c de19 433c 8bb2 55bc f5ba fb3d
00000060: 9b47 1a3c 254e 0abd eb55 10be 2599 fa3d
00000070: 0649 14bc c2c6 ccbc 7b79 4dbd b4a8 07bd
00000080: 59d5 0cbd 96b8 8b3d 17a7 60bc 4092 9ebd
00000090: 378b 7dbd dd1d 3bbd bcfa 253e 95a2 64bd
000000a0: 582a f03d e217 dfbd 49cb 613d 119c d0bd
000000b0: a046 08bd ca14 37be 1b44 9f3d e2cb 713c
0.057986323 -0.0876684 0.07319595 -0.0026698392 -0.023165563 -0.108529456 0.08860786 0.03527708
0.010206084 -0.093169935 0.019736258 0.012559618 0.023670753 0.044437185 0.014631722 -0.07439333
-0.08422237 0.06412722 -0.026481701 0.13555042 0.009874546 0.011908023 -0.013043056 0.122915186
0.009416486 -0.03376593 -0.14095275 0.12236241 -0.009050613 -0.024997119 -0.05016468 -0.033119872
-0.03438315 0.06822316 -0.013711712 -0.07742739 -0.061900344 -0.045682777 0.16208929 -0.055819113
0.117268264 -0.10893227 0.05512551 -0.10186017 -0.03327048 -0.17879024 0.07776662 0.014758082

model_4/gru_9/gru_cell/strided_slice_11 f4 [48]
00000000: 0ae6 bd3c 8b49 7cbd ddd6 493d 9734 e6bc
00000010: 1c35 84bc 624a f7bd 6707 843d 565c 203d
00000020: b610 2b3c 958f 5ebd 25b2 823c cca8 6c3a
00000030: 0455 df3a 7e62 7fbc 2eab 3c3c 13f0 183b
00000040: bcca 92bd 60b9 b73d 2bbe 35bd 82c9 e93d
00000050: 3f29 103d 266e 5bbd 8a9c cf3b 2f1d 883d
00000060: 227a 953b 8453 f5bc c397 5fbd deb7 df3d
00000070: cf8c 8fbc 19be 2ebd 0cc3 75bc 5567 41bd
00000080: 7bc6 0dbc d35d c73d 5163 d6bb b599 3abd
00000090: 744d 4abd 6fcb dbbd d7b0 af3d db6e b5ba
000000a0: 1495 bf3d 7681 9fbd 1c5c 993c 988a 87bd
000000b0: bbdb bebc 540a 40be e77d 573d 6d50 21bd
0.02318098 -0.061593574 0.049277175 -0.028101249 -0.016138606 -0.12074734 0.064467244 0.03915056
0.010440996 -0.05433615 0.015954087 0.0009027838 0.0017038886 -0.015587447 0.011515422 0.0023336455
-0.07167575 0.08970904 -0.04437081 0.11415388 0.035195585 -0.053571843 0.0063357996 0.06646191
0.0045616785 -0.02994705 -0.05458809 0.10923742 -0.017523197 -0.04266176 -0.015000116 -0.047217686
-0.008653278 0.097346924 -0.006542601 -0.045556743 -0.04939027 -0.10732161 0.085786514 -0.0013842242
0.09354606 -0.077883646 0.018720679 -0.066182315 -0.023298135 -0.1875394 0.052610304 -0.03938334

model_4/gru_8/gru_cell/strided_slice_4 f4 [96]
00000000: ef7a a7bd 36ab 893d 3224 4dbd 5d49 c8bd
00000010: 7aae a23c 788f 8a3d b0a8 9ebd 9ed1 fabd
00000020: c926 6dbd 0fa6 bebc 1245 7fbc bd37 5f3d
00000030: d3c2 17bd 2bdf eebc feea 32bc 2d3f 753d
00000040: 4fbf 80bd 09f8 e53c 9258 1c3c 051b ad3d
00000050: a0a8 d7bc a015 5f3c 404c 093d 3db2 59bb
00000060: bf3b 033d 7a48 3e3c c514 40bd 72eb cb3b
00000070: 60ca afbc e283 d8bb 298b 513e 37c9 90bc
00000080: d372 3d3d b7ab 923c ef2e 843c 777b 263d
00000090: 965c 90bb 39fb a03d 2976 70bd 15ae 3c3d
000000a0: 4fcf 8e3c 7fd8 4c3d 4470 043d 784c 7cbd
000000b0: 762b 8bbc 2d20 ae3d 5c52 863d 9b8a ed3c
000000c0: 70ce 4c3c 170c c03d 9efb 6e3c 413b 3bbd
000000d0: 99e9 27bd edbd 55bd 57a9 ee3b 1d69 8cbd
000000e0: dd78 b7bc af49 0b3d 7e47 51bd 0749 9dbb
000000f0: 1c9e 10bd 6cbd 0fbd 4eaf 1f3d f727 033c
00000100: b952 6fbd c951 93bc bd91 6ebb 64fa 313d
00000110: 2240 30bd 4809 c3bd 74a5 533c eccc aa3c
00000120: 30ff 8cbc 97ce 93bc f1c4 cc3b ea7a 70bd
00000130: 75bf 333e 4552 043d 6bc6 39bc e413 c43b
00000140: 195b 3dbd 5bba d2bc 0324 833d 25e8 69bd
00000150: d2d9 5dbd 3e58 f9bc 3988 85bd 2ddf 49bd
00000160: 6379 a93b 6155 17bd 3d8d 573c 3c3d 00bd
00000170: ca50 d23b ed68 883d b6fb a3bc c321 ab3d
-0.081777446 0.06722109 -0.050083347 -0.09779618 0.019858588 0.06765646 -0.07747018 -0.122470126
-0.057898317 -0.023272542 -0.0155804325 0.054496516 -0.037051033 -0.02915915 -0.010920284 0.059874702
-0.06286489 0.028072374 0.009542601 0.08452419 -0.026325524 0.013615996 0.033519983 -0.003321781
0.0320394 0.011613959 -0.046894807 0.0062231356 -0.021458805 -0.0066075185 0.20463242 -0.017674072
0.046252083 0.017904146 0.016135661 0.04064509 -0.0044055684 0.07860417 -0.058706436 0.046064455
0.017432837 0.050011154 0.032333627 -0.061596364 -0.016988497 0.08502231 0.065586776 0.028996756
0.01250039 0.09377306 0.014586357 -0.045710806 -0.04099426 -0.05218308 0.0072833705 -0.06855986
-0.0223965 0.034005817 -0.05109357 -0.0047999653 -0.035307035 -0.035092756 0.038985543 0.008005134
-0.0584285 -0.017983334 -0.0036402785 0.04345168 -0.04302991 -0.09523255 0.012917865 0.020849667
-0.017211527 -0.018042846 0.006249063 -0.05871097 0.17553504 0.03230502 -0.01133881 0.0059838165
-0.046229456 -0.025723627 0.06403353 -0.057106156 -0.054162808 -0.030437585 -0.06520123 -0.049285103
0.005171941 -0.036946658 0.013156232 -0.031308398 0.006418322 0.06660638 -0.020017486 0.08356049

model_4/gru_8/gru_cell/strided_slice_3 f4 [96]
00000000: b6cd e73d b24e 573d ec67 ae3a 4468 10bc
00000010: 3ad1 da3c 607c 423e cf50 853c 8d13 d23c
00000020: ff18 483e 57fd d43d 78e4 7bbd a3f7 a63d
00000030: d92c 84bd 75d8 51bc 1275 4f3e be01 a33d
00000040: 13a2 b43d 5a99 913d e481 cb3d 1602 9d3d
00000050: ef2d a83c 6c6f c73d d509 943d e196 5d3d
00000060: 2f70 05bd 144d 6a3d 9f2e 54bd f141 ee3d
00000070: 6322 9f3d 2495 94bc 3ce6 883e 730c 883d
00000080: bc2b 123e 7855 193e cebf 403d 31c4 cc3d
00000090: 183d 88bc a7d9 963e a271 6c3d 2aa4 0d3d
000000a0: f3fb f93d 1f01 68bd 1110 3b3d b346 82bc
000000b0: f37a babc 17cf 163e b11a 253e dea8 84bc
000000c0: 3ec1 973d 4c45 1f3e 1b1f 353e 67a0 733c
000000d0: 09fc d93d 354d 693d f0e8 fe3c 3262 803c
000000e0: b50b 423d 1d0d 523e 7590 823d 1d1a 2d3c
000000f0: 68d6 af3c e949 78bc b0bf 5e3d 5427 b9bc
00000100: ab39 0a3c 0f57 9f3d 5c51 203c 6a54 e438
00000110: a45d f63c 0b06 3f3e 2925 723d 148f 4e3d
00000120: 9868 f83d dea9 bd3b 737c 59bd 0449 213d
00000130: 1be9 fc3d 98fe ebba c253 f8bc 82dc cd3d
00000140: d6a9 0d3e 41a7 943d 9df7 bf3d 5f85 233d
00000150: e2f2 183e 2a80 b03d c4d3 e5bc ff4e 013e
00000160: 447f e73d 81af 47bd 8ae2 c63b 1614 823c
00000170: 4d5b 0cbd 5c5b 263e c5d0 9a3c f95c 923d
0.11318533 0.052565284 0.0013306118 -0.008813921 0.026711095 0.18992758 0.016273884 0.025644088
0.19540785 0.10399883 -0.06149718 0.08152702 -0.064538665 -0.012807955 0.20259503 0.07959317
0.08819976 0.071093276 0.09936884 0.076664135 0.020529715 0.09738049 0.07228438 0.054098967
-0.03257769 0.057202414 -0.051802274 0.11633671 0.077702306 -0.018137522 0.26738155 0.066429995
0.14274496 0.1497401 0.04705792 0.09998358 -0.016630694 0.2946293 0.057725556 0.034580387
0.122062586 -0.056641694 0.04566962 -0.015902853 -0.022763705 0.14727436 0.16123463 -0.016193803
0.07409905 0.15553778 0.17687647 0.014869786 0.10643775 0.056958396 0.031116933 0.015671823
0.047374446 0.20512815 0.06375209 0.010565308 0.021464542 -0.01515434 0.054382026 -0.02260176
0.008436601 0.07780277 0.009785023 0.000108876106 0.030073948 0.18654649 0.05911747 0.05042942
0.12129325 0.005788072 -0.0530972 0.039376274 0.12349149 -0.0018004952 -0.030313376 0.10051824
0.13834319 0.07258464 0.093734 0.039922114 0.14936402 0.08618195 -0.02805508 0.12627791
0.11303571 -0.048751358 0.006069486 0.015878718 -0.03426676 0.16245788 0.018898377 0.071466394

model_4/gru_8/gru_cell/strided_slice_5 f4 [96]
00000000: 902b 7e3c 9dd6 72bd 9f30 76bd f0e4 9ebc
00000010: 0bd5 09bd 5fe1 8d3b 84ff e5bc 4ef0 37bd
00000020: aabe dcbc f52b 8a3c 0b3b 353c 3112 da3c
00000030: fb88 39bc 9589 383d 675f 043d e350 2ebc
00000040: a817 19bd 128f 203d a8f9 30bc 0ba6 35bc
00000050: bc65 723d 727e 2f3c 65da 9a3c d6d9 9fbd
00000060: dc3b c6bc f3f1 bebc 2eda c93d 88a8 ed3b
00000070: b262 3e3d 50d7 573d 4080 a3bd a07e 643d
00000080: c2b6 603d ed04 49bc 4262 f73b d774 ba3b
00000090: 4171 fd3a a5aa 513d c809 89bc 2346 5bbd
000000a0: 0c6a 08bc e909 c938 052b 1b3d 1fab 82bc
000000b0: d8bd b13c 47ce 1b3d 4756 dd3b b359 60bc
000000c0: 6a4f a8bc f789 86bc a35a c7bc 18fc 663c
000000d0: fa5b 293d f515 42bd 1dd5 8cbc 19cf 64bc
000000e0: 15f8 1e3d f675 63bd 692e 19bd fa81 6c3b
000000f0: bf0d 0d3d 06ef 48bd f948 a5bc af7a 95bd
00000100: 19c3 6f3c 70f6 42bd 8d1b cdba 7580 07bd
00000110: 9133 523d c292 643b 6301 823c bb27 33bd
00000120: 17ca 413d 62c6 333d 532b 7dbd 4631 95bd
00000130: e1a5 67bd a047 db3b 0b6f 57bd 06ca da3b
00000140: 31a6 043d 271a 143c e6dc 4cbc 34ad 94bc
00000150: 1a79 2f3d 870a 483d ebf5 3ebc c4b2 b1bb
00000160: 976f 0fbd 4103 f5bc 5cec ce3b e351 9cbd
00000170: 6a69 4f3d 4ba3 3c3d 54f7 813d 1d12 93bd
0.015513316 -0.059286702 -0.060104962 -0.019396275 -0.03365044 0.004329845 -0.02807594 -0.044906907
-0.026946384 0.016866663 0.01106144 0.026620002 -0.011324163 0.045053083 0.032317545 -0.010639402
-0.037376076 0.039198942 -0.01080171 -0.011086951 0.059179053 0.010711299 0.018902967 -0.07805221
-0.024198465 -0.02330873 0.098560676 0.0072527565 0.046480842 0.052695572 -0.07983446 0.05578482
0.05486179 -0.012269241 0.007549555 0.005690198 0.001933612 0.05118813 -0.016728297 -0.053533684
-0.008326065 9.586273e-05 0.037882823 -0.015950738 0.02169697 0.03803852 0.00675467 -0.013693261
-0.02054568 -0.016423209 -0.024335211 0.01409819 0.04134748 -0.04738422 -0.017191464 -0.013965392
0.03881081 -0.05553242 -0.037397776 0.0036088214 0.034436937 -0.049056076 -0.020176398 -0.07298791
0.014633917 -0.047598302 -0.001564847 -0.03308149 0.05131871 0.0034877514 0.015869802 -0.04373906
0.04731187 0.043890364 -0.061808895 -0.07284789 -0.05655468 0.006691888 -0.052596133 0.006676915
0.032385055 0.009039438 -0.012503838 -0.018148996 0.0428401 0.048838165 -0.011655311 -0.005422922
-0.03501853 -0.029908778 0.0063147973 -0.07632806 0.05063764 0.046054166 0.06346002 -0.07181189

model_4/gru_8/gru_cell/strided_slice_11 f4 [96]
00000000: 8a04 8e3c a5ff 67bd b887 92bd 872b 9c3b
00000010: 320f f0bc a12b f5bb 7140 2bbc 8809 e4bc
00000020: c145 0abd a66b 803d 0cf6 fdbb d231 bd3b
00000030: cadb 24bd c7d0 053d 47a4 3d3c a114 d6bc
00000040: 35c5 53bd 2d53 e93c c00c 3cbc 848a b03b
00000050: 770b 553d 98aa c03c 7ff7 8c3c 9abd b6bd
00000060: d819 d8bc cf11 fabb 9e48 8b3d 8c40 f33c
00000070: 7026 1b3d 714d 473d a771 9dbc 7b3f 803d
00000080: 4a0d 3c3d ce64 a2bc 9fe2 2a3c 419c 41bc
00000090: 4259 963c 2461 a23b dad0 babc 8f9d 6cbd
000000a0: 013c 49bc 9854 dd3b 60e3 923c 2f63 d0bb
000000b0: b3b2 98bc 4c80 423b 3b8d debc 8608 a539
000000c0: a877 e3bc 2fbf 7f3b a53c 4fbc da4f 093a
000000d0: 43d9 b53c 926d 76bd ca92 d4bc d117 593c
000000e0: 6c3d 633c 243d 63bd 1977 d4bc 680c 81bc
000000f0: 390b 923c 2a07 59bd 2fc1 abbc 438d 71bd
00000100: f38f 363c ae46 5bbc 7c93 00bc 43a9 8ebc
00000110: f65f ed3c 729b 233c 7353 123d 74c5 18bd
00000120: c6d4 283d f8d7 1c3d b0e8 40bd ef9f 28bd
00000130: 3370 74bd df1a b63b d06d 5cbd 8690 ffbc
00000140: 2b24 a53b 0f0f 8c3c 551a d7bc 3e9a 9abc
00000150: e00e 2d3d efdd 413d c4b2 483c 1621 2fbd
00000160: 467e 783a a07b a3bc 86b9 71bb 2a48 7dbd
00000170: 534d 143d 3cc5 ea3c 6b90 283d 86c9 93bd
0.017336149 -0.056640286 -0.071547925 0.004765931 -0.02930412 -0.0074820076 -0.010452376 -0.027836576
-0.03375793 0.06270532 -0.0077502783 0.0057737613 -0.04024867 0.03266981 0.011574811 -0.026132884
-0.051701743 0.028482044 -0.011477649 0.005387606 0.052012887 0.023518845 0.01720786 -0.089228824
-0.02637951 -0.0076315175 0.0680096 0.029693864 0.037878454 0.04865784 -0.019219233 0.06262108
0.04591111 -0.019823458 0.010430007 -0.011817039 0.018353108 0.0049554277 -0.022804666 -0.057767447
-0.012282372 0.006754469 0.017930686 -0.00635948 -0.018639898 0.0029678522 -0.027166953 0.00031477603
-0.027767017 0.0039023866 -0.012648736 0.0005238034 0.022198325 -0.06016309 -0.0259489 0.013250307
0.013869625 -0.05547823 -0.025935696 -0.015752986 0.017827617 -0.052985348 -0.02096614 -0.05897261
0.011142719 -0.013383551 -0.007847663 -0.017414695 0.028976422 0.0099857915 0.035724115 -0.03729768
0.04121854 0.0382919 -0.047096908 -0.04116815 -0.059677314 0.0055574025 -0.053815663 -0.031196844
0.005039712 0.017097024 -0.026257673 -0.018872377 0.042250514 0.047330793 0.012249652 -0.042756163
0.00094792654 -0.01995641 -0.0036884262 -0.0618364 0.036206555 0.028658502 0.041153353 -0.07216172

model_4/batch_normalization_19/batchnorm/sub f4 [48]
00000000: 1027 36be 4a47 0ebc 32d5 0abd 0a4d 133e
00000010: c6d9 d8bd 5c6e 703e 8895 57be 09ce 9bbe
00000020: 8c4e 263e 422a da3e e24f 26bd eef5 88be
00000030: f6f6 9dbe 3421 6d3d 8411 2d3d e41c b13d
00000040: 1ecd 193f 9e8f b33c c88d 213d fbc6 48be
00000050: 4c32 3f3e 01f5 a3bd 5223 9dbb 20ae 79be
00000060: 9f0c ff3d 555a 0a3e efe8 e73e ebc9 06bf
00000070: 4c2d 433d 0537 323e 945c 9dbd 0257 dfbb
00000080: 3e5c 8ebd bed5 e5be 51f5 473e 45f9 133f
00000090: 6cb4 103e 7044 3c3c 8bc1 5ebf 0e79 823e
000000a0: c4f6 3dbe 24c9 193e 19ee 9bbe 5867 8e3e
000000b0: 1069 9c3b 407d 8a3e a349 16be 1a7e 9a3e
-0.17788339 -0.008683989 -0.033894725 0.14384857 -0.10588412 0.23479599 -0.21053135 -0.3043063
0.16240901 0.42610365 -0.040603526 -0.2675013 -0.3085248 0.057892993 0.042253032 0.086480886
0.6007861 0.021919068 0.039441854 -0.19607155 0.1867153 -0.08005715 -0.0047954703 -0.2438283
0.12453579 0.13511021 0.45294902 -0.5265185 0.04765062 0.17403801 -0.076836735 -0.006815792
-0.069511876 -0.44889635 0.19527175 0.5780223 0.14131325 0.011490926 -0.87014073 0.25482982
-0.18551165 0.15018135 -0.30455092 0.2781322 0.0047732666 0.27048683 -0.14676528 0.30174333

model_4/batch_normalization_19/batchnorm/mul f4 [48]
00000000: 3781 1340 2c46 0840 41ac 0c40 0fa2 0640
00000010: dad3 1b40 b67b 0f40 c126 1240 2b71 2b40
00000020: fc48 1840 f365 3140 195c 1d40 faf0 0c40
00000030: 101c 2440 f97e 2c40 6b34 ea3f 1940 2340
00000040: fbad 1c40 1a91 2240 4ab4 1e40 bccc 4b40
00000050: 84a2 1740 e8cb 4a40 cef9 1440 7ed8 1e40
00000060: d164 1540 7cb8 2740 5fd9 5b40 f93e 1040
00000070: ff9d 0440 1e39 f73f 6d4c 2240 bafa 2040
00000080: 3cd3 0940 d337 3140 09d8 3e40 4e59 2440
00000090: 9a97 1240 9dfe 2d40 337a 2840 df6c 1740
000000a0: be10 1440 d672 0d40 c6b6 6340 a041 0f40
000000b0: 4a8a 0d40 d78f 1840 11fd 0a40 16c4 2f40
2.3047616 2.129283 2.1980135 2.1036413 2.4348054 2.2419257 2.2836154 2.6787822
2.3794546 2.7718475 2.4587462 2.202208 2.5642128 2.6952498 1.8297247 2.5507872
2.448119 2.5401063 2.479754 3.184371 2.3692942 3.1686954 2.3277469 2.4819636
2.3342783 2.620635 3.4351423 2.2538435 2.0721433 1.9314306 2.5359147 2.5153031
2.1535177 2.7690322 2.9819357 2.5679507 2.290503 2.7186654 2.6324584 2.36602
2.3135219 2.210134 3.5580306 2.2383804 2.2115655 2.3837793 2.171696 2.7463431

model_4/batch_normalization_18/batchnorm/sub f4 [96]
00000000: a054 5a3e 13c2 c63d 9b81 b3be 9781 ecbe
00000010: 038a afbe adff e93e 02bb 2dbf c11f 703d
00000020: f6fa 8bbc 68dc 613c 0bc6 953e a6f0 863e
00000030: dca2 f1be cc53 b13e 283e de3b 64f4 9abe
00000040: c7a5 4f3f 5db8 1b3d 33c6 0abe ac24 63bf
00000050: 3423 d33e 2794 54bf 5a43 2e3f 3d6e 6dbd
00000060: 3c40 55be e4b8 91be 1b12 5bbf 8e35 00be
00000070: 2235 393f 28df 95be 704f 803b 93cc f33e
00000080: e99e f73e d204 dcbe 266b 5bbe b54d fc3e
00000090: 44ff 7e3e de00 c6be 3919 e73e 5c54 013f
000000a0: 7a27 03bf cd80 403f c6a9 79bd db08 95bd
000000b0: 805e cd3e 62be 333f 645d c5be be4f f93c
000000c0: b05a fb3b 7ee7 20bd 61f0 0ebf b356 debe
000000d0: 76c8 b8be 30c2 c4bd 5f39 c3bd 9e04 fdbd
000000e0: d6d6 97be f0bb 0ebe a20d 53be 5bde cd3e
000000f0: ef47 5dbe 4069 013f 6f81 c1be 9e22 6abe
00000100: d681 b0be 9da6 48be b1a6 dc3d 518b 57be
00000110: 0e73 fdbe ed3b 233f ef2a 0bbf 983f 17be
00000120: aff2 ad3e e484 16bf 83fc 05be c412 a1bd
00000130: 7f88 3f3f df56 98bd ed8e 9bbe 9d35 b93d
00000140: 3f3b 973d 8aae 183e 90a2 aabe 3d50 363f
00000150: 9fbd 9a3e 890c 833e eaa4 0f3f 3f0a f8be
00000160: 4f30 8dbe f717 64be b4e0 5bbc d095 36bd
00000170: cf87 24be e31f 663d d1fd 1f3e 2944 66be
0.21321344 0.097049855 -0.3505982 -0.4619262 -0.34284982 0.45702878 -0.67863476 0.058624033
-0.017087441 0.013785459 0.29252657 0.26355475 -0.47194564 0.34634244 0.006782312 -0.3026458
0.8111233 0.03801762 -0.1355217 -0.8872783 0.41237795 -0.8303856 0.6807152 -0.05796646
-0.20825285 -0.28461373 -0.855745 -0.1252043 0.723467 -0.29271817 0.0039157197 0.47617015
0.48363426 -0.42972428 -0.21427593 0.49278036 0.24902064 -0.38672537 0.4513643 0.5051935
-0.5123211 0.75196534 -0.060952924 -0.0727708 0.4011116 0.70212376 -0.38547814 0.030433532
0.007670723 -0.03928327 -0.5583554 -0.4342552 -0.3609044 -0.09607351 -0.09532427 -0.12354396
-0.29656094 -0.1393888 -0.2061067 0.40208706 -0.21609472 0.50551224 -0.37794062 -0.22864768
-0.34474057 -0.19594808 0.10773981 -0.21049239 -0.49501842 0.63763314 -0.54362386 -0.14770353
0.33974215 -0.58796525 -0.13084607 -0.078649074 0.7481765 -0.07438444 -0.3038248 0.09043429
0.07384347 0.14910331 -0.3332715 0.71216184 0.30222794 0.255955 0.56111014 -0.48445317
-0.2757592 -0.22274767 -0.013420273 -0.044576466 -0.16067432 0.056182753 0.15624167 -0.22486939

model_4/batch_normalization_18/batchnorm/mul f4 [96]
00000000: 0716 d440 47f6 8640 4810 ae40 1c57 ef40
00000010: f963 2d40 71f7 4c40 67c2 a540 c41c b740
00000020: 894f 0641 8557 3c40 3119 6c40 47f0 2a40
00000030: 0280 9440 c33f 8140 e3f3 5d40 4097 3940
00000040: 0f54 df40 e42f 8240 5939 2c40 89d9 1d40
00000050: 35d7 0e41 59ec 4840 c8a7 7d40 f651 d73f
00000060: f09c 2d40 8274 6540 4ec5 3440 53b4 8940
00000070: 2b10 8d40 00ee b140 5db1 5c40 8cb4 b740
00000080: a918 4640 b6d3 4b40 f57b 2240 06eb 5e40
00000090: eb40 8f40 bd4c 4240 0d5c cd40 9428 2740
000000a0: 29a3 3840 595a 6840 1da5 1c40 4210 9940
000000b0: a34e e640 9cbe 5040 67dc 3f40 d165 1540
000000c0: 345c 9740 fdc1 2f40 404c 5540 dbc1 7b40
000000d0: 8cbe 9140 a801 9b40 69ef 9140 a8ff df40
000000e0: 947b a940 68c4 7e40 5b5f ff40 8b89 6140
000000f0: 550b b740 a88e b140 90af 8e40 0b6e 2440
00000100: 5eaa c440 c4c7 c140 5200 9740 3ebd 2540
00000110: 027d c740 6558 1e41 2978 5040 3fd3 4940
00000120: ec67 b940 9407 1b40 8f11 5640 f3e1 ca40
00000130: 2369 2c40 57cc 0040 5051 5440 41c1 8d40
00000140: e4d4 8e40 7968 7c40 e2b4 4140 3804 8340
00000150: 86c2 bd40 d0c6 6b40 9e02 5840 a9ed d440
00000160: d969 1540 9500 c540 29e3 2540 2510 8240
00000170: 73bc 7a40 8ef0 3740 52d7 9d40 b19a 3c40
6.627689 4.217563 5.4394875 7.4793835 2.7092268 3.2026026 5.1799808 5.7222614
8.394418 2.9428418 3.6890376 2.6709154 4.640626 4.0390334 3.4680107 2.8998566
6.979011 4.068346 2.6910002 2.4664023 8.927541 3.1394255 3.9633656 1.6821887
2.7127037 3.585236 2.8245425 4.303262 4.4082236 5.5603027 3.4483254 5.7407894
3.0952551 3.1847968 2.5388157 3.4830947 4.4766746 3.0359337 6.4174867 2.6118517
2.8849585 3.6305144 2.4475777 4.7832346 7.197099 3.2616339 2.9978273 2.3343394
4.7300053 2.746215 3.332779 3.933707 4.55451 4.843952 4.560475 6.999958
5.296335 3.9807377 7.98039 3.52402 5.7201333 5.548664 4.458931 2.5692165
6.145797 6.0556355 4.718789 2.5896754 6.2340097 9.896581 3.257334 3.1535184
5.793936 2.4223375 3.3448217 6.3400817 2.693917 2.012472 3.317463 4.4298406
4.4634876 3.9438765 3.0266652 4.094265 5.9299955 3.6840096 3.3751597 6.6540112
2.3345854 6.156321 2.5919898 4.064471 3.917752 2.8740573 4.932534 2.9469416

model_4/dense_9/BiasAdd/ReadVariableOp f4 [26]
00000000: 227c 903d 0d1f 8f3d f0ec c3bd 720f b8bc
00000010: f5be dc3d 3a8c 0a3d a663 093e a6b1 103d
00000020: 33f4 a03d 3340 733d dc56 1ebe bbc1 353e
00000030: 6068 663d eade d83d a5d1 89be abde 9fbe
00000040: 0de7 8bbe 7864 87be 06f6 99be a911 8ebe
00000050: 5243 91be 179a 94be e8b6 88be 5c8e 90be
00000060: 9a52 8abe dbad 96be
0.070549265 0.06988344 -0.095666766 -0.022468302 0.1077861 0.033825137 0.13416919 0.03532567
0.07859077 0.059387397 -0.15462822 0.17749684 0.056251884 0.105893925 -0.2691776 -0.3122457
-0.27324715 -0.2644384 -0.30070513 -0.2774785 -0.28371674 -0.2902381 -0.26702046 -0.28233612
-0.27016145 -0.29429516

model_4/dense_8/BiasAdd/ReadVariableOp f4 [48]
00000000: 26ba 163e 2a73 463e 25d8 af3d 68c0 333d
00000010: ad87 e13d 0987 293d 873a c23d d64d 27bb
00000020: 3ade 9f3d c8fc d73d 3ab9 503d e1cf a13d
00000030: 6e70 923d 7d93 c23d 2bba 313d 1c35 093e
00000040: dea9 d13d d0a5 853d a697 d93d f30a fc3d
00000050: c879 b63d 28f1 f43d 66d2 113d fb92 ef3d
00000060: 2726 ab3d 6cd3 5f3d 89aa 163e 9f23 c43d
00000070: e87c e43d fbde 883d 2518 fb3d 0b3b c33d
00000080: 3f25 ca3c 8752 413d a406 953d 944e 7b3d
00000090: 4919 c73d 81c6 1d3e 54ee 063e d8a0 303d
000000a0: ae19 943d 5ece b13d 90ba 3e3d 12c0 973d
000000b0: e863 8c3d fedd ae3d e4f4 b53c 8149 403d
0.14719447 0.19379869 0.08586148 0.043884665 0.11012206 0.041388545 0.094838195 -0.0025528572
0.07806058 0.10546261 0.050957896 0.07900978 0.071503505 0.095007874 0.043390434 0.13399166
0.10237478 0.06525767 0.10624628 0.12306776 0.08909947 0.119600594 0.035601042 0.11697956
0.08356886 0.054644987 0.14713491 0.09577107 0.111566365 0.06683155 0.122604646 0.09532746
0.024675963 0.047197845 0.07276657 0.061354235 0.0972162 0.15407754 0.13176852 0.043122143
0.072314605 0.086819395 0.04656464 0.074096814 0.06854993 0.085384354 0.0222115 0.0469451

model_4/gru_8/gru_cell/MatMul f4 [96, 126]
00000000: 6dbc 6bb9 e83b 8d39 be49 e636 09d9 aaba
00000010: f53b 643a 1e2c e9b9 1a3d c7ba 2c14 233b
00000020: f98b 59ba 3728 10ba abff c53a a590 29ba
00000030: f7a1 213a ec5a 8f3b 9083 16ba eca0 683a
00000040: 4890 7d3b 49a4 2fba 7e2e 0e3a 6d14 8e3b
00000050: 60c8 0038 0fb9 d439 6775 c73b c885 3b3a
00000060: b05c ecb7 6d51 3e3b 78f3 a7b9 ff07 2b3a
00000070: c4b1 9c3b 00e4 6c3a 22fb bc3a bd28 3e3b
00000080: 2cd0 3c3a 94a4 3b3b 85a9 a53b 8504 403a
00000090: 67a3 0aba bcbb cc3b 64d4 b03a 4e20 7f3a
000000a0: 309f 2d3b 7c85 e0b9 226b d03a c88e 383b
000000b0: e41e 0c3a 814d 9a39 af5e b73b 027d a139
000000c0: 6b09 a13a d666 493b d9c5 403a 82ed ba3a
000000d0: 832f 8d3b b1a1 903a a038 5c3a 9fd7 a53b
000000e0: 592d c83a c599 f03a 08e4 9b3a 775d 123a
000000f0: 26df 91ba 18b9 283b 5964 cb3a 06c9 3e39
00000100: c9aa e0b8 1aa3 5db8 b9d5 873a 57f7 9237
00000110: cc50 45ba 2585 4e3b d8e2 5739 e8eb ebb9
00000120: 5d07 033b 590d f73a f4ae 35b9 4abe 423b
00000130: f830 553b 0e7e 11ba 05c8 f0b8 8c5e c43a
00000140: ba3c 02ba c061 543a 0b51 163b 8f3a b9b9
00000150: 4c53 3d3a 1d9d 203b 8937 7939 71d0 3cb9
00000160: 648f a33b 80bc 75b9 b1b2 aa3a 21e3 703b
00000170: 0358 033a 3e5f 1cba da22 6a3b 71c8 21b9
00000180: 7056 8cba 6cad 013b 3c6e f13a 590f fbba
00000190: 96ea 143b 8048 4439 6b33 1bb9 5426 ba3a
000001a0: 006f 9c33 588a 1cba b60e 233b 15a9 2c3a
000001b0: 4a36 30b9 c3b4 5e3b 90a2 4f3a cdca e8ba
000001c0: 419c 163b 2edc c3b9 c15a 9eba efc3 223b
000001d0: 6c65 61b9 b87a 05bb b75a 693b d2e8 16b9
000001e0: 999a 02bb ffe6 463b fcd9 a03a af46 e9b9
000001f0: 34e7 e63a ffec f3b8 9d3d 0e39 2193 95b8
00000200: 6f11 83b8 9626 12ba 9545 8cb9 7813 8d39
00000210: 0246 81ba 77bc a3ba b4f8 0539 299b 22ba
00000220: 7889 56b9 bd7d 6bb8 99b6 88ba f956 0e3a
00000230: 2dad aab9 d3d4 03ba ae9a 9d3a 82ea 8f37
00000240: f56d 76ba 58a2 3036 446b bf39 3725 a1ba
00000250: b459 893a cd05 a939 6e5f 89ba 02ab 6f3a
00000260: 60d9 2f3a 514d daba 53f2 d93a 63b8 9e39
00000270: 1b2c 9139 e1e1 4c3a faf8 523a f6f2 56ba
00000280: 4055 dc38 a18f 203a 63f3 353a e3b3 4fba
00000290: 5223 8a3a 8597 aaba 90f3 c437 dd47 ba39
000002a0: 4db8 69ba 65bb 6dba b449 3138 9667 e4ba
000002b0: d18e 003a be5c 42b8 28ee 1bbb 29a8 1ab9
000002c0: 1ef3 2b3a ec40 2cba 90b0 333a 83a9 123a
000002d0: 9d29 4bba 89dc 073a b61b 923a 6332 0cbb
000002e0: 2fef 3d39 95b6 6d3a 0639 c8ba 9d68 59b9
000002f0: 1a62 5f3a 603a 84b7 1a70 3c37 ca5e ed37
00000300: 7ab4 fcb9 0460 ebb6 eed9 a539 5b4a 2d3a
00000310: ef31 e6b9 d2c0 f6b8 6245 2c3a a945 433a
00000320: d1c3 71b9 6a06 543a 5a7f f4b8 7100 b139
00000330: 00f3 3db8 7736 bc3a 3049 b4b8 0072 663a
00000340: ad8c a33a 4c2f 45b9 32e8 90b9 51ff f73a
00000350: 83bd d939 c9e8 9ab9 2550 0a3b 55c8 bd39
00000360: 8aba 703a d98d 9239 ed9a 69b9 a49e 07b8
00000370: 18f3 003a 1602 0039 d584 d33a 8ab3 44ba
00000380: 98bd 7138 65e7 b63a 5a08 5eba 8858 5b37
00000390: 250b 273a 05c2 79b8 8e30 31b9 9430 203a
000003a0: bc09 b0b9 d185 93b9 a5b2 813a 6c1b f3b9
000003b0: 930f 173a 5a8d 1c3a 08f4 083a 29eb ea39
000003c0: eefb 60b8 463d 9039 3a59 ad39 41fb 763a
000003d0: 44f1 fe39 5c99 013a 4b2d 4b39 7ad8 c6b9
000003e0: 6a4d 3439 1cdf 2736 b6d7 a03a c1b4 0a3a
000003f0: 1216 c337 ff24 2239 930e b5b8 e9c9 c739
-0.0002248154 0.0002693825 6.863119e-06 -0.0013034652 0.0008706444 -0.00044474093 -0.0015200705 0.002488385
-0.00082987506 -0.00054991565 0.0015106102 -0.0006468392 0.0006165797 0.0043748524 -0.000574165 0.0008874077
0.0038690735 -0.00067002006 0.0005423798 0.004335931 3.0704192e-05 0.0004057367 0.0060869935 0.0007153419
-2.8176553e-05 0.0029040233 -0.0003203412 0.0006524324 0.0047819335 0.000903666 0.0014418105 0.002901598
0.0007202651 0.0028632032 0.0050556087 0.0007324892 -0.0005288631 0.0062479656 0.0013491032 0.0009732292
0.0026492588 -0.00042824063 0.0015901069 0.0028161276 0.0005345179 0.00029430914 0.005596004 0.0003080145
0.0012286132 0.003073146 0.00073537003 0.0014261457 0.0043086424 0.0011034516 0.0008400772 0.0050611044
0.0015272304 0.0018356374 0.001189352 0.00055833854 -0.0011129125 0.002574509 0.0015517577 0.00018194699
-0.000107129636 -5.2842406e-05 0.0010363377 1.7519733e-05 -0.0007526993 0.0031512466 0.00020588504 -0.00044998457
0.0019993403 0.0018848582 -0.0001732668 0.0029715472 0.0032530408 -0.00055500946 -0.00011481348 0.001498179
-0.00049681554 0.0008101724 0.002293649 -0.0003532958 0.000722219 0.002450771 0.00023767179 -0.00018006728
0.0049914587 -0.00023435242 0.0013023225 0.0036756473 0.0005010368 -0.000596512 0.003572634 -0.00015428827
-0.0010706913 0.0019787205 0.0018419693 -0.0019154354 0.0022722832 0.00018719025 -0.00014801107 0.0014202096
7.284507e-08 -0.00059715426 0.0024880595 0.00065864745 -0.00016804892 0.0033982254 0.0007920647 -0.0017760635
0.0022981318 -0.00037357345 -0.001208149 0.0024836024 -0.00021495455 -0.0020367336 0.0035607049 -0.00014391847
-0.0019928573 0.0030350087 0.0012271996 -0.00044493887 0.0017616511 -0.00011631287 0.00013565128 -7.1322786e-05
-6.249814e-05 -0.0005575208 -0.00026754724 0.0002690812 -0.0009862783 -0.001249208 0.00012776518 -0.000620293
-0.00020459841 -5.614547e-05 -0.0010430395 0.000542983 -0.00032553953 -0.00050289667 0.0012024248 1.715613e-05
-0.000940054 2.632054e-06 0.00036510278 -0.0012294416 0.0010479004 0.00032238514 -0.0010480711 0.00091426086
0.00067081116 -0.0016655122 0.0016628004 0.00030273487 0.00027689416 0.0007815641 0.00080479647 -0.0008199656
0.000105062965 0.0006124918 0.00069408695 -0.00079232285 0.0010539091 -0.0013015127 2.3478438e-05 0.00035530227
-0.00089157076 -0.00090687565 4.226873e-05 -0.001742589 0.0004904094 -4.6339577e-05 -0.0023793075 -0.00014749229
0.00065593596 -0.00065709534 0.0006854618 0.0005594717 -0.00077500363 0.00051827036 0.0011147175 -0.0021392338
0.00018113547 0.00090680394 -0.0015275783 -0.00020733704 0.0008521393 -1.576281e-05 1.1231774e-05 2.8296741e-05
-0.0004819965 -7.0147235e-06 0.00031633623 0.0006610506 -0.00043906222 -0.0001176611 0.0006571618 0.000744904
-0.00023056498 0.0008088114 -0.00011658548 0.000337604 -4.5287423e-05 0.0014359494 -8.596701e-05 0.0008790791
0.0012477838 -0.00018805003 -0.0002763882 0.0018920695 0.00041530663 -0.00029546607 0.0021104899 0.00036198148
0.000918307 0.00027952975 -0.00022278326 -3.2334254e-05 0.00049190363 0.00012207808 0.001613761 -0.000750356
5.763545e-05 0.0013954459 -0.00084698724 1.307403e-05 0.0006372205 -5.954692e-05 -0.00016898123 0.00061107543
-0.0003357659 -0.00028137726 0.0009895159 -0.00046369003 0.00057625136 0.0005971991 0.0005224352 0.00044807166
-5.364039e-05 0.00027511473 0.0003306361 0.0009421595 0.00048626412 0.0004943812 0.00019376462 -0.0003792679
0.00017194977 2.5014806e-06 0.0012271318 0.00052912167 2.3256089e-05 0.00015463306 -8.633467e-05 0.00038106673
