app/src/main/assets/models/pronouns.tflite (tflite, 673196 bytes, 52 tensors)

model_4/batch_normalization_16/batchnorm/add_1;model_4/conv1d_8/Conv1D/Squeeze;model_4/batch_normalization_16/batchnorm/mul_1;model_4/conv1d_8/BiasAdd;model_4/conv1d_8/BiasAdd/ReadVariableOp;model_4/batch_normalization_16/batchnorm/mul;model_4/batch_normalization_16/batchnorm/sub;model_4/conv1d_8/Conv1D;model_4/conv1d_9/Conv1D f4 [96]
0.22918168 0.06241709 0.44355848 0.47861627 0.2599821 -0.17673214 -0.051598568 0.31836742
0.010135442 -0.10978413 -0.08634424 0.22267784 0.51885176 0.6616794 0.29831064 0.022211015
0.7525286 0.22596297 0.11670728 -0.042971253 -0.19132458 0.28734803 -0.2924859 0.15803161
-0.023875259 -0.0820195 0.15984502 -0.0461222 0.4794305 0.5235363 0.2221938 0.56912065
0.2119351 0.06264907 0.012200389 -0.04479839 0.34705704 0.51521933 -0.40652782 -0.12291442
0.4736293 -0.41952994 -0.041144036 -0.31278923 0.7391812 0.70726615 0.34916478 -0.17392817
-0.2190571 0.21187398 0.5978808 0.14769214 0.23156093 0.5089269 0.55625165 0.32793397
-0.2340793 -0.061391663 -0.18383583 0.69339824 0.3354581 0.42160144 0.22236407 0.31963304
-0.33873618 0.29972988 0.33772606 0.26293492 0.021941558 0.20430058 -0.029725738 0.2297891
0.051066875 0.59744155 0.2567994 0.7094943 0.5159054 0.36152428 -0.125236 0.61473525
0.6025318 0.12594572 -0.3724958 -0.03090594 0.10452443 0.2777605 0.063923225 -0.11694811
0.6453335 0.07468891 0.2236926 0.21270268 -0.2690605 0.01968991 -0.19783407 -0.23505607
00000000: 9aae 6a3e 10a9 7f3d 191a e33e 310d f53e
00000010: 601c 853e 45f9 34be 0559 53bd 0e01 a33e
00000020: 200f 263c 80d6 e0bd 40d5 b0bd a905 643e
00000030: 78d3 043f d263 293f 2cbc 983e e0f3 b53c
00000040: b7a5 403f d662 673e 3a04 ef3d a002 30bd
00000050: 97ea 43be 481f 933e b6c0 95be 0ad3 213e
00000060: 0c96 c3bc d7f9 a7bd 6aae 233e a2ea 3cbd
00000070: ea77 f53e 7a06 063f c686 633e e4b1 113f
00000080: 8405 593e 284e 803d 24e4 473c 847e 37bd
00000090: 76b1 b13e 6ae5 033f 6a24 d0be 8eba fbbd
000000a0: 8a7f f23e a1cc d6be a686 28bd e925 a0be
000000b0: fb3a 3d3f 650f 353f bac5 b23e 3a1a 32be
000000c0: 8150 60be 7ef5 583e b70e 193f 9c3c 173e
000000d0: 4f1e 6d3e 0949 023f 8266 0e3f f6e6 a73e
000000e0: 7cb2 6fbe d375 7bbd 763f 3cbe 8c82 313f
000000f0: 2ac1 ab3e 25dc d73e 68b3 633e f1a6 a33e
00000100: d46e adbe 3276 993e 6eea ac3e 689f 863e
00000110: c8be b33c 2c34 513e 6483 f3bc d54d 6b3e
00000120: 802b 513d eef1 183f 367b 833e 6ba1 353f
00000130: 6012 043f b619 b93e de3d 00be 4a5f 1d3f
00000140: 863f 1a3f eaf7 003e c5b7 bebe 742e fdbc
00000150: e810 d63d a036 8e3e 2eea 823d 7e82 efbd
00000160: 9434 253f 80f6 983d ac0f 653e bbce 593e
00000170: 4cc2 89be bc4c a13c 0495 4abe 8ab2 70be

model_4/batch_normalization_17/batchnorm/add_1;model_4/conv1d_9/Conv1D/Squeeze;model_4/batch_normalization_17/batchnorm/mul_1;model_4/conv1d_9/BiasAdd;model_4/conv1d_9/BiasAdd/ReadVariableOp;model_4/batch_normalization_17/batchnorm/mul;model_4/batch_normalization_17/batchnorm/sub;model_4/conv1d_9/Conv1D f4 [96]
0.47915077 0.46407917 0.53812987 0.24591279 0.77848417 0.6261075 0.6453341 0.4835974
0.11194293 0.56946206 -0.8284565 -0.23583546 0.84789354 -0.4716484 -0.6822577 0.2628566
0.53455 -0.106517985 0.8871869 0.7524478 0.85608643 -0.72357 0.025660641 -0.13755274
-0.5048874 0.2761255 0.3577061 0.20644294 0.3390996 0.27376214 1.1399941 -0.18998271
-0.6786544 1.8813066 0.3100354 1.0133954 0.30522722 -0.14590994 0.28511375 -0.20488392
-0.5571238 0.43943763 -0.5406263 0.4175117 -0.5309316 0.49906978 0.8107239 0.61322045
0.1459662 1.5492158 0.92082465 0.97366816 0.30862448 0.084778056 0.8743483 0.18813635
0.48280385 -0.14030449 0.46093175 0.30443314 0.6459646 0.4614064 0.87413675 0.021341052
-0.05667015 0.3266564 0.33588564 0.4139652 -0.078926675 -0.8294178 0.0030541383 -0.06036157
0.8820023 0.92825735 0.93784136 0.76948845 0.12653448 0.10221101 0.005997535 0.13925973
0.42622924 -0.18373775 0.7324437 -0.59560966 -0.7850776 0.34298176 -0.37082306 0.26499456
0.20317651 0.78046966 0.7391706 0.5427166 -0.1236129 0.9676725 1.272693 0.4485321
00000000: 4053 f53e c99b ed3e e1c2 093f 90d0 7b3e
00000010: bd4a 473f 9548 203f 9e34 253f 149a f73e
00000020: 5642 e53d 44c8 113f ba15 54bf da7e 71be
00000030: 8d0f 593f e67b f1be 71a8 2ebf 2495 863e
00000040: 45d8 083f 1a26 dabd ae1e 633f 6ba0 403f
00000050: 7b28 5b3f e23b 39bf 4436 d23c a0da 0cbe
00000060: 4d40 01bf 5260 8d3e 4125 b73e c765 533e
00000070: 769e ad3e 8d2a 8c3e 54eb 913f d48a 42be
00000080: 4bbc 2dbf a8ce f03f f6bc 9e3e f1b6 813f
00000090: be46 9c3e 6a69 15be 6efa 913e 17cd 51be
000000a0: aa9f 0ebf f8fd e03e 7c66 0abf 18c4 d53e
000000b0: 22eb 07bf 1386 ff3e 9a8b 4f3f 04fc 1c3f
000000c0: 2a78 153e b44c c63f 2abb 6b3f 5142 793f
000000d0: 0704 9e3e 1ea0 ad3d 4ad5 5f3f d1a6 403e
000000e0: 1132 f73e fbab 0fbe 3fff eb3e a9de 9b3e
000000f0: f05d 253f 763d ec3e 6dc7 5f3f 6ed3 ae3c
00000100: f61e 68bd 823f a73e 34f9 ab3e 3ff3 d33e
00000110: 4fa4 a1bd ba54 54bf f027 483b b23d 77bd
00000120: e7ca 613f 46a2 6d3f 5f16 703f 32fd 443f
00000130: 4192 013e 0254 d13d f886 c43b 1a9a 0e3e
00000140: b83a da3e c025 3cbe 6e81 3b3f e079 18bf
00000150: d8fa 48bf 4e9b af3e 85dc bdbe 5ead 873e
00000160: 810d 503e dccc 473f 493a 3d3f 7aef 0a3f
00000170: c328 fdbd 63b9 773f 9be7 a23f 00a6 e53e

model_4/batch_normalization_16/batchnorm/mul_1;model_4/conv1d_8/Conv1D/Squeeze;model_4/conv1d_8/BiasAdd;model_4/conv1d_8/BiasAdd/ReadVariableOp;model_4/batch_normalization_16/batchnorm/mul;model_4/conv1d_8/Conv1D;model_4/conv1d_9/Conv1D f4 [96, 1, 3, 126]
0.00034539434 -0.007190819 0.004321107 0.030561073 0.032604184 -0.011148408 0.043000236 0.040207315
-0.015402252 0.0260662 0.055338677 -0.02451141 0.0028709366 0.05098746 -0.03591786 0.017631665
-0.0307987 -0.004913691 -0.035154756 0.0871632 -0.029974084 -0.07619384 0.0994392 -0.037166834
-0.11216782 0.06499844 -0.036325876 -0.023091942 0.022692354 -0.001752608 -0.010994462 0.07901803
-0.031861905 -0.01776778 0.039706826 -0.030072782 -0.0503568 -0.036537796 -0.022154866 -0.030223845
0.006596403 0.006628902 -0.027550334 0.06527895 -0.031648144 -0.017563345 0.056170125 -0.022506792
-0.03690459 0.010740034 -0.012366469 -0.08318522 -0.040545255 -0.02872977 -0.075968154 0.007689831
-0.0659046 -0.05834649 0.023020215 -0.06649271 -0.06531347 0.013163954 -0.059865057 0.0030641074
-0.0008258078 0.0002973467 0.04935163 0.019616146 -0.0108387 0.056720674 0.031874303 -0.009955269
0.061549675 0.054585338 -0.0073271585 0.06563894 0.064636774 0.00034121823 0.064133175 -0.039791945
-0.02082662 0.035939187 0.165876 -0.00714885 0.017389365 0.19142818 0.0045426902 0.0028344663
0.12312948 0.007361556 0.0056572994 -0.0397174 -0.023174237 0.0045368504 0.11770387 -0.0048193955
0.0035448596 0.025907613 0.00013945608 -0.00450223 -0.10177555 -0.0018443054 -0.0042240554 -0.0033385323
-0.014663322 0.006606779 0.082928546 -0.0011631101 0.006669323 0.020783542 -0.004194322 -0.0015646995
-0.057398953 -0.012219068 -0.054294065 0.0008583227 -0.020763993 -0.03820354 0.039458692 -0.027458053
-0.031910885 0.0075018727 -0.035847917 -0.035151243 -0.034040716 -0.045668393 0.0014757622 -0.0077058515
0.0036707919 0.029847275 0.03172888 -0.010409136 0.037373576 0.041961204 -0.015852604 0.016197292
0.05978604 -0.02408673 -0.008870305 0.055706892 -0.03475167 0.013077495 -0.02088284 -0.004588049
-0.045651563 0.10386646 -0.030098746 -0.091937296 0.11266265 -0.035791937 -0.12735084 0.07488743
-0.034253877 -0.027372716 0.03501461 -0.0015884403 -0.022230808 0.09512745 -0.032158036 -0.029175626
0.051954463 -0.02959807 -0.06140167 -0.029493693 -0.021606058 -0.032531038 0.018290473 0.007646941
-0.03460793 0.0800998 -0.03002769 -0.025336899 0.06787332 -0.020962214 -0.045661777 0.018890087
-0.010933772 -0.087042 -0.030023158 -0.027601535 -0.08236688 0.020360444 -0.06406321 -0.06474348
0.033733215 -0.0659745 -0.07163726 0.020686407 -0.059035756 0.00316278 0.00037015346 0.0026786209
0.05178288 0.015018782 -0.017434763 0.05947023 0.028067129 -0.018511647 0.06263597 0.05266679
-0.016094223 0.06637373 0.06421905 -0.007865657 0.06754051 -0.041316293 -0.03189762 0.03640729
0.16966301 -0.0180755 0.018228866 0.18249531 -0.004900801 0.0039015308 0.14056517 -0.0004030666
0.005931094 -0.040162273 -0.03422947 -4.4339617e-05 0.119304694 -0.01376341 -0.0037213576 0.018131273
-0.008278374 -0.012063701 -0.11169522 -0.010630429 -0.0066986633 -0.0023489157 -0.024574645 0.0006952952
0.08138438 -0.008498554 0.00018159996 0.01500829 -0.012394629 -0.009287246 -0.059185132 -0.021490607
-0.0598936 0.0010759915 -0.029276794 -0.04695711 0.040090468 -0.03447741 -0.041794583 0.0074580433
-0.043624137 -0.04521585 -0.036282346 -0.053943716 0.0018636696 -0.007328686 0.0050136317 0.030828591
00000000: 0b16 b539 f6a0 ebbb 1398 8d3b 375b fa3c
00000010: f78b 053d d0a7 36bc 0421 303d 6db0 243d
00000020: ba59 7cbc c988 d53c cfaa 623d 27cc c8bc
00000030: 5326 3c3b 3ad8 503d 9b1e 13bd 4870 903c
00000040: 8e4d fcbc 0703 a1bb 6ffe 0fbd 9f82 b23d
00000050: 368c f5bc 840b 9cbd c7a6 cb3d 403c 18bd
00000060: 3eb8 e5bd e71d 853d 71ca 14bd 502b bdbc
00000070: 51e5 b93c c4b7 e5ba 1e22 34bc 34d4 a13d
00000080: a181 02bd bc8d 91bc a0a3 223d 325b f6bc
00000090: ef42 4ebd a8a8 15bd 1f7e b5bc ff97 f7bc
000000a0: a426 d83b 4337 d93b 3db1 e1bc f8b0 853d
000000b0: 7ca1 01bd 01e1 8fbc a512 663d 2a60 b8bc
000000c0: 4429 17bd f8f6 2f3c bb9c 4abc 035d aabd
000000d0: c812 26bd b25a ebbc 3195 9bbd fafa fb3b
000000e0: fef8 86bd bbfc 6ebd e494 bc3c 542d 88bd
000000f0: 12c3 85bd a0ad 573c 1035 75bd 31cf 483b
00000100: 067b 58ba 33e5 9b39 ef24 4a3d 0ab2 a03c
00000110: ce94 31bc f053 683d a18e 023d 6d1b 23bc
00000120: 831b 7c3d e094 5f3d a918 f0bb b56d 863d
00000130: 4960 843d 89e5 b239 4158 833d e1fc 22bd
00000140: 969c aabc f834 133d 66db 293e e640 eabb
00000150: 2474 8e3c c005 443e d9da 943b 74c2 393b
00000160: 4f2b fc3d 3539 f13b de60 b93b b6ae 22bd
00000170: e6d7 bdbc dca9 943b ba0e f13d 05ec 9dbb
00000180: e050 683b 343c d43c f53a 1239 7187 93bb
00000190: b36f d0bd 9fbc f1ba f269 8abb 47cb 5abb
000001a0: 6e3e 70bc ae7d d83b 71d6 a93d 8073 98ba
000001b0: 568a da3b 3f42 aa3c 8670 89bb 9a16 cdba
000001c0: 2a1b 6bbd 7c32 48bc 7463 5ebd 1001 613a
000001d0: 4019 aabc 517b 1cbd 709f 213d b6ef e0bc
000001e0: fdb4 02bd 45d2 f53b 44d5 12bd c0fa 0fbd
000001f0: 476e 0bbd c80e 3bbd 5d6e c13a 5e81 fcbb
00000200: ab91 703b 4682 f43c 24f6 013d 158b 2abc
00000210: 0915 193d 83df 2b3d 52dd 81bc 2fb0 843c
00000220: 35e2 743d 8951 c5bc c154 11bc e92c 643d
00000230: c457 0ebd fd42 563c 7d12 abbc 5857 96bb
00000240: 22fd 3abd f0b7 d43d a591 f6bc 9f49 bcbd
00000250: adbb e63d 919a 12bd 4268 02be 955e 993d
00000260: cb4d 0cbd bf3c e0bc 7b6b 0f3d 3633 d0ba
00000270: 621d b6bc 2ed2 c23d 25b8 03bd b901 efbc
00000280: 34ce 543d a777 f2bc 5180 7bbd c29c f1bc
00000290: 30ff b0bc 443f 05bd e7d5 953c 3193 fa3b
000002a0: 0bc1 0dbd 5d0b a43d a1fc f5bc 548f cfbc
000002b0: 2b01 8b3d f3b8 abbc d807 3bbd 62bf 9a3c
000002c0: 9023 33bc 1343 b2bd 20f3 f5bc 9d1c e2bc
000002d0: f7af a8bd f2ca a63c 9233 83bd 3b98 84bd
000002e0: d72b 0a3d a31d 87bd 8eb6 92bd 8a76 a93c
000002f0: 7acf 71bd a546 4f3b 2811 c239 cd8b 2f3b
00000300: 491a 543d 5611 763c 59d3 8ebc 0e97 733d
00000310: 09ed e53c bda5 97bc 4a47 803d 22b9 573d
00000320: 08d8 83bc f3ee 873d 4785 833d f5de 00bc
00000330: ae52 8a3d 463b 29bd 14a7 02bd cf1f 153d
00000340: 24bc 2d3e 1213 94bc b454 953c 0de0 3a3e
00000350: e696 a0bb d3b0 7f3b 51f0 0f3e af52 d3b9
00000360: 9f59 c23b 3281 24bd 3334 0cbd 4df9 39b8
00000370: 0556 f43d ed7f 61bc 05e2 73bb 0988 943c
00000380: 04a2 07bc d4a6 45bc 77c0 e4bd 402b 2ebc
00000390: 7680 dbbb 44f0 19bb c450 c9bc 7944 363a
000003a0: dbac a63d 853d 0bbc de6b 3e39 55e5 753c
000003b0: d812 4bbc 8829 18bc 1c6c 72bd 120d b0bc
000003c0: fe52 75bd 4908 8d3a e3d5 efbc 1956 40bd
000003d0: e735 243d 2f38 0dbd cc30 2bbd 9a62 f43b
000003e0: 39af 32bd 4134 39bd cc9c 14bd 16f4 5cbd
000003f0: 6046 f43a 7925 f0bb 6449 a43b 3e8c fc3c

model_4/batch_normalization_17/batchnorm/mul_1;model_4/conv1d_9/Conv1D/Squeeze;model_4/conv1d_9/BiasAdd;model_4/conv1d_9/BiasAdd/ReadVariableOp;model_4/batch_normalization_17/batchnorm/mul;model_4/conv1d_9/Conv1D f4 [96, 1, 3, 96]
0.022730155 -0.03134916 0.03505075 0.03215396 0.006699429 -0.016230533 0.007996779 0.011122527
-0.032100603 -0.046226732 0.0309643 -0.0075936075 -0.008853085 0.009837754 -0.010164437 -0.03627157
0.040660653 -0.007518535 -0.008956006 -0.039907895 -0.043826815 0.032276835 -0.019402439 0.021659655
-0.017082807 -0.0020938052 -0.006124826 0.00498299 0.033692945 0.038147252 0.007886564 0.033018377
-0.061621316 -0.027247336 -0.035220534 -0.04691971 -0.0044226567 -0.011274225 -0.06630751 -0.034390304
0.033121094 -0.035562173 -0.03324967 -0.0036798522 -0.005779482 0.04782692 0.004795785 -0.03512878
-0.039774705 -0.013434429 0.053082712 -0.025208328 -0.019138375 0.0051052626 0.021911835 0.0014757556
-0.042572618 0.00014965098 -0.033976153 0.06402531 0.0052915453 0.002401353 0.02990342 0.009457855
-0.05266003 0.024929037 -0.00665854 -0.03790341 -0.015596223 -0.031640805 -0.023482323 -0.040204864
-0.06417225 0.024239961 -0.035158847 0.0033675677 -0.008002897 0.03306084 -0.03621686 0.053562272
0.009626617 -0.021572184 -0.028277049 -0.01985018 0.02274918 -0.010682932 -0.011967125 -0.02630584
0.022884592 0.015935086 -0.019055977 0.014506764 -0.035662256 -0.032658227 -0.033694874 -0.02487994
0.020427393 -0.027583798 0.03345173 0.032568175 0.010176885 -0.012915054 0.009277588 0.020418486
-0.029810596 -0.046858948 0.028890079 -0.0070641553 -0.0093632955 0.006271015 -0.0070528868 -0.033142284
0.04204468 -0.008483072 -0.010014789 -0.041306596 -0.0436152 0.031842288 -0.021001672 0.022989826
-0.021661473 -0.0024523013 -0.011684339 0.002806094 0.034284007 0.038132194 0.0075299256 0.03343759
-0.061311785 -0.02898862 -0.032259785 -0.046285596 0.005703938 -0.014974959 -0.063719414 -0.03663383
0.033829045 -0.034144226 -0.022859415 -0.0052640075 -0.0073275105 0.048992373 0.008176727 -0.034115184
-0.038821954 -0.0081040915 0.05200929 -0.021599555 -0.017446753 0.010641388 0.02187145 0.004608804
-0.04215198 0.0011068148 -0.03197575 0.06645453 0.0054352283 -0.00032157486 0.030251803 0.008741641
-0.05545284 0.028732896 -0.0016144364 -0.038379826 -0.01505063 -0.026138537 -0.018433021 -0.038374014
-0.06423603 0.022754157 -0.026463483 0.0014713312 -0.009492886 0.03609323 -0.035428878 0.053846993
0.010224391 -0.02028977 -0.026938315 -0.021238567 0.02043537 -0.011125458 -0.012768851 -0.029604098
0.020282963 0.023000961 -0.0089999 0.017279565 -0.03583879 -0.03303693 -0.028947555 -0.026507976
0.01585272 -0.01663286 0.021946032 0.026256913 0.005850903 -0.014114294 0.008550522 0.039025687
-0.015350014 -0.04790065 0.021268712 -0.0079487935 -0.014949333 -0.0025827582 -0.004837781 -0.031335548
0.03069524 -0.00989737 -0.0073706848 -0.032569207 -0.020854296 0.025126781 -0.019359708 0.022048382
-0.024194408 -0.0031811006 -0.018467393 -0.002239091 0.027266659 0.02959599 0.0021509477 0.023392783
-0.059592385 -0.030778142 0.015459082 -0.039535835 0.025824267 -0.016787801 -0.066276744 -0.037442286
0.027319228 -0.035739344 -0.02268048 -0.006506483 -0.014127912 0.041808482 0.0073044477 -0.028386593
-0.039289843 -0.0060796128 0.043345466 -0.020981714 -0.014067599 0.013774126 0.012879921 0.00033326054
-0.038186505 -0.0005502858 -0.025775565 0.053568527 -0.0007359047 -0.0039943345 0.025560211 0.0043223924
00000000: 9734 ba3c fa67 00bd 6091 0f3d dfb3 033d
00000010: e286 db3b e5f5 84bc ec04 033c 423b 363c
00000020: ec7b 03bd 3e58 3dbd d8a8 fd3c ccd3 f8bb
00000030: 880c 11bc 882e 213c bd88 26bc 7f91 14bd
00000040: c98b 263d 0b5e f6bb 36bc 12bc 7676 23bd
00000050: bf83 33bd b734 043d ddf1 9ebc 976f b13c
00000060: 3ef1 8bbc 3938 09bb c4b2 c8bb 5a48 a33b
00000070: 9d01 0a3d 4b40 1c3d a636 013c 473e 073d
00000080: a266 7cbd ce35 dfbc 6843 10bd e22e 40bd
00000090: efeb 90bb 87b7 38bc 3bcc 87bd d9dc 0cbd
000000a0: fca9 073d a4a9 11bd ce30 08bd ad29 71bb
000000b0: cf61 bdbb 29e6 433d f625 9d3b 32e3 0fbd
000000c0: cdea 22bd 141c 5cbc 426d 593d b281 cebc
000000d0: 15c8 9cbc 0c4a a73b 7380 b33c 246e c13a
000000e0: a060 2ebd a1eb 1c39 942a 0bbd b41f 833d
000000f0: b364 ad3b 0560 1d3b 04f8 f43c 1ef5 1a3c
00000100: 0bb2 57bd fb37 cc3c e22f dabb 9b40 1bbd
00000110: 4d87 7fbc ca99 01bd 005e c0bc dbad 24bd
00000120: be6c 83bd e292 c63c b902 10bd 69b2 5c3b
00000130: 951e 03bc ce6a 073d 2158 14bd 1d64 5b3d
00000140: f5b8 1d3c 26b8 b0bc 45a5 e7bc d89c a2bc
00000150: 7d5c ba3c 7707 2fbc c311 44bc 587f d7bc
00000160: 7878 bb3c 4c8a 823c 481b 9cbc c7ad 6d3c
00000170: 9612 12bd a2c4 05bd a303 0abd 04d1 cbbc
00000180: 5957 a73c 6bf7 e1bc ae04 093d 3566 053d
00000190: f3bc 263c aa99 53bc 0601 183c ab44 a73c
000001a0: 5a35 f4bc 2bef 3fbd e3aa ec3c 6e7a e7bb
000001b0: 8268 19bc 167d cd3b e71b e7bb 34c0 07bd
000001c0: 0b37 2c3d 95fc 0abc 1215 24bc 1b31 29bd
000001d0: daa5 32bd 0f6d 023d b30b acbc 2955 bc3c
000001e0: 6773 b1bc cab6 20bb ab6f 3fbc 72e6 373b
000001f0: 636d 0c3d 8130 1c3d 98bd f63b dbf5 083d
00000200: 1122 7bbd 8b79 edbc d622 04bd f795 3dbd
00000210: 1ae8 ba3b 8859 75bc 537f 82bd 5b0d 16bd
00000220: 5390 0a3d d1da 0bbd ab43 bbbc b27d acbb
00000230: 9d1b f0bb 3aac 483d aef7 053c 5dbc 0bbd
00000240: c503 1fbd 06c7 04bc b107 553d 8df1 b0bc
00000250: 7eec 8ebc 3759 2e3c c12b b33c 7305 973b
00000260: 8ea7 2cbd 8b12 913a 01f9 02bd 5019 883d
00000270: 001a b23b 0c99 a8b9 a1d2 f73c 1a39 0f3c
00000280: 8422 63bd 4061 eb3c 7f9b d3ba 2a34 1dbd
00000290: eb96 76bc 7c20 d6bc d900 97bc 122e 1dbd
000002a0: 2e8e 83bd ed66 ba3c f2c9 d8bc afd9 c03a
000002b0: 0d88 1bbc 7fd6 133d df1d 11bd aa8e 5c3d
000002c0: 3484 273c bb36 a6bc bead dcbc 81fc adbc
000002d0: 1468 a73c 8e47 36bc 7134 51bc 4b84 f2bc
000002e0: 7528 a63c 836c bc3c 5174 13bc e08d 8d3c
000002f0: b2cb 12bd bb51 07bd 6c23 edbc 4127 d9bc
00000300: 90dd 813c a341 88bc 2ac8 b33c bd18 d73c
00000310: efb8 bf3b a43f 67bc 7d17 0c3c 66d9 1f3d
00000320: a07e 7bbc 7933 44bd b93b ae3c a83b 02bc
00000330: 0cee 74bc 7e43 29bb 4086 9ebb b459 00bd
00000340: 9574 fb3c 9428 22bc c985 f1bb 4a67 05bd
00000350: a1d6 aabc aed6 cd3c 4098 9ebc cf9e b43c
00000360: 5a33 c6bc 037a 50bb ee48 97bc b7bd 12bb
00000370: 545e df3c 4a73 f23c eaf6 0c3b 39a2 bf3c
00000380: 2517 74bd 7122 fcbc 1748 7d3c 54f0 21bd
00000390: 6a8d d33c 9286 89bc 1abc 87bd 155d 19bd
000003a0: 93cc df3c 6b63 12bd 6acc b9bc 5634 d5bb
000003b0: c278 67bc 5f3f 2b3d 265a ef3b 008b e8bc
000003c0: 63ee 20bd 7d37 c7bb 048b 313d d8e1 abbc
000003d0: c97b 66bc dfac 613c 4e06 533c 79b9 ae39
000003e0: 7469 1cbd 0e41 10ba 4727 d3bc ac6a 5b3d
000003f0: bae9 40ba e8e2 82bb a663 d13c dba2 8d3b

model_4/gru_9/gru_cell/strided_slice_4 f4 [48]
-0.05992953 -0.038554445 0.020951679 0.008359674 -0.0019539937 -0.044605713 0.0542594 0.046897475
-0.03262587 0.008378065 -0.021604445 -0.005896861 -0.030405425 0.017342957 0.0021536783 -0.0647886
-0.040144395 -0.02343798 -0.014884786 -0.049695548 -0.0056737503 0.07742196 -0.07244687 -0.051568054
-0.025088942 -0.038442113 0.025031446 -0.00821974 0.012996164 0.0058942963 0.09205157 -0.039980717
0.0071722954 -0.022194192 0.009365215 -0.07352401 0.0061420184 -0.12787764 -0.02683024 -0.020884769
-0.07299743 -0.01918812 -0.06419308 0.011532437 -0.012197663 -0.063412465 -0.031048898 -0.06708708
00000000: ab78 75bd 44eb 1dbd dba2 ab3c 04f7 083c
00000010: 930e 00bb 7bb4 36bd 1b3f 5e3d 9117 403d
00000020: b4a2 05bd 2744 093c cefb b0bc 753a c1bb
00000030: cc14 f9bc d112 8e3c ba24 0d3b e3af 84bd
00000040: 736e 24bd 0201 c0bc 51df 73bc 8f8d 4bbd
00000050: deea b9bb 688f 9e3d 065f 94bd 0639 53bd
00000060: 5387 cdbc 7a75 1dbd bf0e cd3c 17ac 06bc
00000070: dded 543c f124 c13b 8985 bc3d d2c2 23bd
00000080: 9305 eb3b 98d0 b5bc 8f70 193c c293 96bd
00000090: fc42 c93b 5bf2 02be 17cb dbbc 8916 abbc
000000a0: ad7f 95bd 6730 9dbc a977 83bd 8cf2 3c3c
000000b0: b5d8 47bc 65de 81bd 425a febc f364 89bd

model_4/gru_9/gru_cell/strided_slice_3 f4 [48]
0.07793455 0.07926061 -0.044989448 -0.062626205 0.02235811 0.16083476 0.05666052 0.009118195
0.055201303 0.06781355 0.010716625 0.08465255 0.05528396 -0.016678946 0.0648591 -0.003299136
0.031708322 -0.11503227 0.0006330281 0.07866118 0.23653695 -0.058625385 -0.10838807 0.0023622483
0.06951735 0.0057921316 -0.08281923 0.0023896233 0.25445276 -0.057015605 0.013367158 -0.079014204
0.10742665 0.049512275 0.026872123 0.044547606 0.031185599 0.0026807936 -0.014102094 0.062139068
-0.055736247 0.054806244 0.0126619795 0.046461053 -0.049737215 0.008113121 -0.0603485 -0.0040109977
00000000: 269c 9f3d 6353 a23d db46 38bd 2b42 80bd
00000010: 5b28 b73c deb1 243e dd14 683d 7b64 153c
00000020: c31a 623d d5e1 8a3d c894 2f3c 515e ad3d
00000030: 6f71 623d 49a2 88bc d9d4 843d 5136 58bb
00000040: 96e0 013d 0a96 ebbd ccf1 253a 1d19 a13d
00000050: be36 723e 2c21 70bd 90fa ddbd f3cf 1a3b
00000060: 1d5f 8e3d eccb bd3b 219d a9bd 3a9b 1c3b
00000070: a247 823e 3289 69bd ed01 5b3c 33d2 a1bd
00000080: 8102 dc3d 62cd 4a3d ed22 dc3c 8d77 363d
00000090: f178 ff3c 41b0 2f3b 780c 67bc 8985 7e3d
000000a0: b14b 64bd 837c 603d 3174 4f3c f24d 3e3d
000000b0: 40b9 4bbd e5ec 043c fd2f 77bd b06e 83bb

model_4/gru_9/gru_cell/strided_slice_5 f4 [48]
-0.17955413 0.022326982 -0.124470845 -0.10380379 -0.016509073 0.07413418 -0.067222156 -0.042961523
0.029493498 -0.01779344 0.040080328 0.020526042 0.0031229395 0.06865601 -0.14126217 0.07031007
-0.06754892 0.0192723 0.013945127 0.10327683 0.003945247 -0.046438873 0.037036385 -0.10073993
0.038917854 -0.15506756 -0.015956433 -0.10577697 0.17434594 0.022745173 0.05070324 -0.12556824
0.0560899 0.08049041 -0.042721692 0.092049986 0.0435241 -0.17526309 0.11860774 -0.052155226
-0.061324697 -0.11369393 -0.019437602 -0.13640302 0.028471142 0.0665724 0.051623363 0.0961976
00000000: 0add 37be 13e7 b63c 92ea febd 1597 d4bd
00000010: 093e 87bc a9d3 973d c5ab 89bd 6cf8 2fbd
00000020: 599c f13c 8cc3 91bc 452b 243d 3b26 a83c
00000030: 3baa 4c3b 869b 8c3d 08a7 10be bafe 8f3d
00000040: 1757 8abd f1e0 9d3c 1a7a 643c cd82 d33d
00000050: 2147 813b b036 3ebd 77b3 173d bd50 cebd
00000060: 5468 1f3d 08ca 1ebe 11b7 82bc 99a1 d8bd
00000070: be87 323e 1654 ba3c 33ae 4f3d f694 00be
00000080: 86be 653d 28d8 a43d f1fc 2ebd b484 bc3d
00000090: 5446 323d 2b78 33be 9de8 f23d b8a0 55bd
000000a0: 9b2f 7bbd 5dd8 e8bd 9b3b 9fbc 3cad 0bbe
000000b0: 503c e93c 1c57 883d 0573 533d 3f03 c53d

model_4/gru_9/gru_cell/strided_slice_11 f4 [48]
-0.17853016 0.00018929206 -0.11437791 -0.07762685 -0.009522809 0.052342035 -0.044048194 -0.020920541
0.043020304 -0.021572502 0.027525758 0.0087991 0.02076496 0.042501695 -0.0945682 0.04070969
-0.06518666 0.0021501374 0.02202205 0.08199817 0.016052907 -0.07221656 0.06491794 -0.06640054
0.046735328 -0.113171674 -0.03624094 -0.069848955 0.15616474 0.02620037 0.04416324 -0.08099339
0.04186672 0.07235516 -0.0072123823 0.093970165 0.031328727 -0.15083368 0.1011291 -0.08969719
-0.06672147 -0.12626417 -0.030220417 -0.107053146 0.039841905 0.0678278 0.033780765 0.05787546
00000000: 9cd0 36be b37c 4639 f73e eabd d3fa 9ebd
00000010: 8e05 1cbc 9a64 563d e16b 34bd 8e61 abbc
00000020: 0f36 303d d1b8 b0bc b37d e13c 1a2a 103c
00000030: 471b aa3c 4216 2e3d f9ac c1bd 34bf 263d
00000040: 9580 85bd 52e9 0c3b 9667 b43c a8ee a73d
00000050: 6381 833c 47e6 93bd b2f3 843d 02fd 87bd
00000060: 8b6d 3f3d 8dc6 e7bd 6171 14bd f80c 8fbd
00000070: a6e9 1f3e 29a2 d63c 83e4 343d dddf a5bd
00000080: 707c 2b3d f12e 943d d955 ecbb 6e73 c03d
00000090: 8d52 003d 2574 1abe c61c cf3d 29b3 b7bd
000000a0: 44a5 88bd 654b 01be cf90 f7bc ae3e dbbd
000000b0: 4431 233d 4de9 8a3d b35d 0a3d d10e 6d3d

model_4/gru_8/gru_cell/strided_slice_4 f4 [96]
-0.021793632 -0.0044784914 0.0047513703 0.0128172655 -0.046413526 -0.072811864 0.041132376 -0.0023676546
-0.050460063 -0.033361655 -0.010635914 -0.01679868 -0.029064203 0.07936502 0.015349825 -0.07533893
-0.056665037 -0.013066064 0.008059703 0.05674328 -0.040178835 -0.021918852 -0.020339247 -0.07403391
-0.06012458 0.03392623 0.042491715 -0.05759536 0.010538218 0.010008628 -0.06351842 -0.039890844
0.060091976 0.00461174 -0.066950426 0.0132146785 -0.0646273 0.045854002 -0.055834 0.051894374
0.0027370553 0.03487017 0.022420885 -0.0027190214 -0.051300284 -0.09365801 0.0033006673 0.010495804
-0.003225094 -0.052950915 0.024935793 -0.0054963473 0.010677374 -0.07032381 -0.05803434 -0.010970439
-0.06775465 -0.0394564 0.09357446 0.008902002 0.03773704 -0.04323928 -0.024092754 -0.05056915
-0.008760401 0.028791778 -0.03735772 -0.08370974 -0.044693645 0.008034904 -0.062151425 -0.068986915
-0.017729534 -0.07649983 -0.06792407 -0.04267509 -0.020310182 -0.1008137 0.027308881 -0.04126459
0.024376476 -0.033319455 0.029471047 0.08815245 0.020122623 0.04319357 -0.06229552 -0.050919276
-0.012305307 0.018498888 0.046988282 0.030425522 0.044656083 -0.048385315 -0.027689798 0.0053587365
00000000: 8f88 b2bc 4fc0 92bb 62b1 9b3b 82ff 513c
00000010: 1c1c 3ebd 631e 95bd 6c7a 283d a72a 1bbb
00000020: 36af 4ebd 3ba6 08bd 4242 2ebc 639d 89bc
00000030: 0d18 eebc 218a a23d d57d 7b3c 4c4b 9abd
00000040: 9919 68bd 0b13 56bc d80c 043c a46b 683d
00000050: 9092 24bd 2a8f b3bc 7e9e a6bc 179f 97bd
00000060: 3145 76bd 3bf6 0a3d cb0b 2e3d 1de9 6bbd
00000070: 7da8 2c3c 3afb 233c f215 82bd 9564 23bd
00000080: 0123 763d 141e 973b 4e1d 89bd 6182 583c
00000090: 515b 84bd 68d1 3b3d 31b2 64bd 328f 543d
000000a0: 2b60 333b 06d4 0e3d 01ac b73c 9c31 32bb
000000b0: 3f20 52bd c5cf bfbd 0250 583b 98f6 2b3c
000000c0: 195c 53bb 0fe3 58bd 2646 cc3c b41a b4bb
000000d0: 27f0 2e3c ee05 90bd 6bb5 6dbd 5bbd 33bc
000000e0: f3c2 8abd 099d 21bd f7a3 bf3d b4d9 113c
000000f0: 2892 1a3d ac1b 31bd 2b5e c5bc 9921 4fbd
00000100: c987 0fbc bcdc eb3c 6904 19bd 0370 abbd
00000110: af10 37bd d4a4 033c 7e92 7ebd 0349 8dbd
00000120: 873d 91bc f1ab 9cbd c61b 8bbd 13cc 2ebd
00000130: 8a61 a6bc 6a77 cebd e0b6 df3c 0f05 29bd
00000140: 2db1 c73c fb79 08bd 446d f13c 4689 b43d
00000150: 33d8 a43c beeb 303d 9629 7fbd bb90 50bd
00000160: 339c 49bc fb8a 973c c976 403d f23e f93c
00000170: 4ce9 363d ae2f 46bd b7d5 e2bc 5798 af3b

model_4/gru_8/gru_cell/strided_slice_3 f4 [96]
-0.038609777 0.08958193 -0.12675238 -0.02973997 -0.013251877 0.0033254852 0.02182579 -0.033433106
-0.08375953 0.047705878 -0.05937372 0.01963527 0.063952036 0.12445471 0.13333751 0.114721194
0.060718954 -0.033633515 -0.05826672 0.09311868 0.009178383 -0.0573614 -0.113119304 -0.17506512
-0.07960753 -0.12233059 0.005737652 0.06362537 -0.0690346 0.024241675 -0.006777512 -0.06280435
0.07506987 -0.044249848 0.005899023 -0.13110076 -0.07031202 -0.09861454 0.060231075 -0.011083212
0.017248876 -0.11417021 -0.10710633 0.034763403 -0.06154226 -0.047978144 -0.05725742 0.07196111
0.05948595 -0.10791114 0.08889735 -0.07111702 -0.07633841 -0.06986047 -0.043444015 0.017653894
-0.19560377 -0.04359844 0.059430733 0.14644438 0.033886194 0.029141018 -0.08295133 -0.08115374
-0.07226173 0.13454103 -0.10733589 -0.098508246 0.08404805 -0.049065974 -0.025339903 -0.0420034
0.0757537 -0.03396808 -0.04116225 -0.095675 0.08604751 -0.004110349 0.122993164 -0.08995379
-0.029204926 -0.16097663 0.054354258 -0.06495351 0.21194696 -0.088423915 0.008634924 -0.13284929
-0.095777646 -0.056732405 0.1146059 -0.06774752 0.036143526 -0.10643794 -0.14619648 -0.0212921
00000000: 4925 1ebd bb76 b73d 60cb 01be 3da1 f3bc
00000010: 671e 59bc 62f0 593b 00cc b23c 27f1 08bd
00000020: 1e8a abbd 3d67 433d dc31 73bd 25da a03c
00000030: 49f9 823d 1ce2 fe3d a189 083e f2f2 ea3d
00000040: 70b4 783d 4cc3 09bd 16a9 6ebd 02b5 be3d
00000050: ee60 163c caf3 6abd 18ab e7bd 4544 33be
00000060: 4609 a3bd 7688 fabd ea02 bc3b 054e 823d
00000070: 0362 8dbd 7a96 c63c e415 debb 919f 80bd
00000080: 3bbe 993d 543f 35bd 974c c13b 473f 06be
00000090: c0ff 8fbd 6cf6 c9bd dcb4 763d 5c96 35bc
000000a0: 844d 8d3c 12d2 e9bd 905a dbbd 1264 0e3d
000000b0: bd13 7cbd bb84 44bd c286 6abd 5960 933d
000000c0: 8aa7 733d 8400 ddbd d00f b63d cda5 91bd
000000d0: 5057 9cbd 0213 8fbd 5af2 31bd e69e 903c
000000e0: 5b4c 48be 4794 32bd a46d 733d 84f5 153e
000000f0: 40cc 0a3d 25b9 ee3c 63e2 a9bd ef33 a6bd
00000100: f5fd 93bd 20c5 093e ebd2 dbbd b1be c9bd
00000110: 6221 ac3d 67f9 48bd a195 cfbc c20b 2cbd
00000120: c224 9b3d 1d22 0bbd bf99 28bd 41f1 c3bd
00000130: ad39 b03d 1bb0 86bb d7e3 fb3d b139 b8bd
00000140: 2b3f efbc 0fd7 24be 92a2 5e3d 5906 85bd
00000150: a008 593e 9917 b5bd 7f79 0d3c a509 08be
00000160: 1227 c4bd 3d60 68bd 80b6 ea3d 36bf 8abd
00000170: 3c0b 143d 22fc d9bd 88b4 15be c56c aebc

model_4/gru_8/gru_cell/strided_slice_5 f4 [96]
-0.033129737 -0.10411161 0.011305082 -0.040428143 -0.09831692 0.037694015 -0.017960623 -0.050577577
0.11588141 -0.07153475 0.014424231 -0.017027976 0.021658007 0.03575995 0.08345861 0.041774858
0.12094405 0.013372523 0.016023295 0.06451106 0.05404101 0.02952104 0.00047334505 0.00963498
-0.015881618 0.0830995 -0.07619298 -0.117282145 -0.05251607 0.022261003 0.011710074 0.0018655006
0.06464254 -0.0059448713 0.018301064 0.010486524 -0.014558542 0.030404724 0.03578675 0.028447066
0.008760779 0.015455301 -0.0060067866 0.096087895 0.09471925 -0.09552866 -0.08073545 -0.08274655
-0.021409018 0.003352867 -0.0677677 -0.0034215422 -0.0043899287 0.0666509 -0.1176026 0.02615091
-0.03835941 0.044954393 -0.031976484 -0.06984124 0.013915891 -0.048068423 -0.0064174323 -0.022686813
-0.008377946 0.04190162 -0.08667558 -0.009451875 0.049704283 -0.033743892 0.022004824 -0.1254818
-0.08534045 0.1217136 -0.0758818 0.019940991 -0.021955872 -0.04046424 -0.03942846 0.12861505
-0.004085755 -0.006122282 -0.008681294 0.028991764 -0.07214575 -0.004464955 -0.07971108 -0.02175963
0.08366016 0.12144053 -0.059099503 -0.009406273 -0.02011124 -0.08095851 -0.044505112 0.010000718
00000000: 0cb3 07bd 7838 d5bd f338 393c fb97 25bd
00000010: 625a c9bd 0a65 1a3d 2822 93bc 6f2a 4fbd
00000020: 3c53 ed3d d080 92bd 9c53 6c3c 417e 8bbc
00000030: 226c b13c 0679 123d 59ec aa3d 1d1c 2b3d
00000040: 84b1 f73d 6d18 5b3c 4943 833c 601e 843d
00000050: 1b5a 5d3d 1cd6 f13c 4c2b f839 09dc 1d3c
00000060: 2b1a 82bc 1230 aa3d 110b 9cbd 9f31 f0bd
00000070: 171b 57bd b55c b63c 9cdb 3f3c d083 f43a
00000080: 4f63 843d 32cd c2bb 1dec 953c abcf 2b3c
00000090: f386 6ebc 5413 f93c 2195 123d d209 e93c
000000a0: 5f89 0f3c 3b38 7d3c 94d4 c4bb bbc9 c43d
000000b0: 2bfc c13d 88a4 c3bd a158 a5bd 0677 a9bd
000000c0: f761 afbc c6bb 5b3b cbc9 8abd f43b 60bb
000000d0: 64d9 8fbb 4480 883d a2d9 f0bd 6f3a d63c
000000e0: c21e 1dbd 1922 383d c6f9 02bd ed08 8fbd
000000f0: 7aff 633c 65e3 44bd 5349 d2bb b2d9 b9bc
00000100: a743 09bc 08a1 2b3d f782 b1bd 0adc 1abc
00000110: b896 4b3d 0937 0abd 7643 b43c 4d7e 00be
00000120: f9c6 aebd fb44 f93d eb67 9bbd 4a5b a33c
00000130: cddc b3bc d5bd 25bd bd7f 21bd aab3 033e
00000140: cce1 85bb 6c9d c8bb fc3b 0ebc 2380 ed3c
00000150: 27c1 93bd c24e 92bb 903f a3bd 4041 b2bc
00000160: 0556 ab3d d0b5 f83d 5212 72bd c51c 1abc
00000170: 54c0 a4bc 93cd a5bd fe4a 36bd 0dda 233c

model_4/gru_8/gru_cell/strided_slice_11 f4 [96]
-0.068698324 -0.0883693 0.005924927 -0.046520893 -0.07441902 0.010011027 -0.06743349 -0.057918865
0.100403726 -0.07922417 0.022258561 -0.035920314 -0.003345121 0.019915879 0.07415516 0.019250035
0.114723295 0.009650127 0.010320969 0.05396939 0.046340004 0.023604263 0.011730129 -0.010100133
-0.0032152855 0.054906666 -0.046610508 -0.116613 -0.05144013 0.020866992 0.041045163 -0.027611498
0.060796205 0.005143794 0.01642084 0.01411173 0.025720114 0.026576819 0.05792182 -0.0078148125
0.013325477 0.019291254 -0.017343726 0.0691808 0.057717565 -0.04410203 -0.0773728 -0.06820106
-0.037665885 0.0075137033 -0.056307096 0.0031283356 0.0017919021 0.05594638 -0.065377556 0.009386532
-0.02762048 -0.007963358 -0.031023333 -0.094696954 0.01871274 -0.116985306 -0.009391934 -0.021275103
-0.031373754 0.02525212 -0.07126186 0.00232608 0.058095984 -0.02868689 0.013101092 -0.111918606
-0.13569506 0.07670686 -0.06870476 0.021262843 -0.11233706 -0.03370449 -0.03672202 0.09905283
0.0015518 -0.002209578 -0.0008268126 0.04055094 -0.0730022 -0.0050481996 -0.07663 0.006751823
0.07137366 0.07735432 -0.0684365 0.0028793698 -0.033551764 -0.032585144 -0.039773047 0.0023638261
00000000: b5b1 8cbd f7fa b4bd e425 c23b b18c 3ebd
00000010: 0069 98bd 4a05 243c 921a 8abd 553c 6dbd
00000020: 78a0 cd3d 4840 a2bd 9657 b63c 2e21 13bd
00000030: d139 5bbb a026 a33c a9de 973d 40b2 9d3c
00000040: 0cf4 ea3d 911b 1e3c 4819 293c 020f 5d3d
00000050: 04cf 3d3d ba5d c13c ba2f 403c 077b 25bc
00000060: 8ab7 52bb d0e5 603d a9ea 3ebd ccd2 eebd
00000070: e3b2 52bd 41f1 aa3c f91e 283d 8231 e2bc
00000080: 7105 793d 468d a83b ff84 863c e334 673c
00000090: fdb2 d23c a1b7 d93c 6e3f 6d3d b309 00bc
000000a0: 1a53 5a3c b108 9e3c 6e14 8ebc aaae 8d3d
000000b0: 4169 6c3d 55a4 34bd a175 9ebd ffac 8bbd
000000c0: 8b47 1abd 8335 f63b 45a2 66bd c304 4d3b
000000d0: 42de ea3a 0828 653d abe4 85bd f8c9 193c
000000e0: 5844 e2bc bf78 02bc a524 febc 7af0 c1bd
000000f0: 764b 993c fe95 efbd a0e0 19bc 2049 aebc
00000100: c481 00bd 89dd ce3c bdf1 91bd 2671 183b
00000110: 0ef6 6d3d c500 ebbc f6a5 563c 9535 e5bd
00000120: a5f3 0abe 7c18 9d3d 15b5 8cbd 6a2f ae3c
00000130: f910 e6bd b80d 0abd d469 16bd 36dc ca3d
00000140: c465 cb3a 91ce 10bb 74be 58ba be18 263d
00000150: 2d82 95bd 5e6b a5bb 30f0 9cbd 653e dd3b
00000160: 5a2c 923d f16b 9e3d 7028 8cbd cfb3 3c3b
00000170: 936d 09bd 0078 05bd 10e9 22bd 6cea 1a3b

model_4/batch_normalization_19/batchnorm/sub f4 [48]
0.60070693 -0.30302462 0.3610477 0.54233253 -0.20607306 -0.09290941 0.23926595 -0.03091456
-0.12908794 0.46080667 -0.011447765 -0.42755926 -0.051004536 -0.07352931 0.3677034 -0.13207173
0.61918485 -0.33479768 -0.008300737 -0.2509236 -0.15629713 0.14857166 0.10765036 0.5198517
0.12324561 0.38572612 0.06659058 0.32829922 -1.3879492 -0.4164796 0.028400978 0.73916054
-0.71786153 -0.2681028 0.08042119 -0.4657859 0.11754836 0.6259248 -0.37172633 0.059424758
0.17572644 0.54510915 0.47587505 0.7926239 -0.42826042 -0.6508861 -0.25694045 -1.0415763
00000000: eec7 193f 0b26 9bbe 3edb b83e 4ed6 0a3f
00000010: d104 53be 4a47 bebd 2202 753e 8840 fdbc
00000020: a12f 04be daee eb3e 688f 3bbc 0ce9 dabe
00000030: 22ea 50bd 8996 96bd 9f43 bc3e d03d 07be
00000040: e682 1e3f 9a6a abbe d0ff 07bc 0f79 80be
00000050: 5b0c 20be 2b23 183e cb77 dc3d 0015 053f
00000060: 3268 fc3d e57d c53e a460 883d d616 a83e
00000070: 52a8 b1bf d03c d5be 2ba9 e83c a039 3d3f
00000080: c6c5 37bf c544 89be ddb3 a43d 7d7b eebe
00000090: 32bd f03d 9c3c 203f ea52 bebe 6067 733d
000000a0: a2f1 333e 468c 0b3f e5a5 f33e 66e9 4a3f
000000b0: f344 dbbe 79a0 26bf b38d 83be 5f52 85bf

model_4/batch_normalization_19/batchnorm/mul f4 [48]
2.302024 2.6138957 2.3997643 2.6177495 2.468481 2.381058 2.0707183 2.0196476
2.3752308 2.5331898 2.06392 2.4796934 1.9985212 2.2428956 2.3913352 2.406655
2.3382654 2.8411262 2.3013952 2.8799977 2.4023433 2.5535333 2.484759 2.326349
2.2261474 2.5852172 2.4120848 2.1293697 3.1967487 2.9493537 2.0127935 2.5428665
2.5102913 2.3053396 2.142647 2.6054153 2.2131565 2.4755044 2.0201013 2.449381
2.502811 2.6645703 2.74901 3.268331 3.3366153 2.4557104 2.2539423 3.9617653
00000000: 5c54 1340 114a 2740 bd95 1940 3589 2740
00000010: 98fb 1d40 4163 1840 a686 0440 e841 0140
00000020: c803 1840 c81f 2240 4417 0440 4cb3 1e40
00000030: 8bcf ff3f 9a8b 0f40 a30b 1940 a306 1a40
00000040: 24a6 1540 03d5 3540 0f4a 1340 e251 3840
00000050: febf 1940 176d 2340 4b06 1f40 e7e2 1440
00000060: 3379 0e40 3374 2540 995f 1a40 9847 0840
00000070: 8897 4c40 36c2 3c40 9cd1 0040 53be 2240
00000080: 9da8 2040 af8a 1340 2121 0940 20bf 2640
00000090: 5ba4 0d40 aa6e 1e40 5749 0140 a9c2 1c40
000000a0: 0e2e 2040 5288 2a40 c8ef 2f40 562c 5140
000000b0: 1b8b 5540 5c2a 1d40 9740 1040 908d 7d40

model_4/batch_normalization_18/batchnorm/sub f4 [96]
0.16870697 1.2097224 0.21406433 0.624932 1.3314806 -0.4912871 0.36158615 0.2736647
-0.10785501 0.3717209 0.22866769 -0.24861453 0.049697723 -0.5287279 -1.4324259 -0.04236192
-1.1557958 0.3372222 -0.22359894 -0.5627871 -0.2901086 1.017325 -0.5474292 0.22068457
-0.20807137 -0.3199835 -0.52427506 0.4971547 0.20399725 0.50980824 0.4614392 -0.29050523
0.0055084713 0.6773143 -0.13487996 0.92578405 0.8251846 -0.0075464807 -0.7980376 -0.13268669
0.050924554 -0.29030332 0.67714286 -0.89686394 -0.72675246 0.18889984 0.18695955 0.3883698
0.75681317 0.51222336 0.49977627 0.44002196 -0.2044793 -0.056059796 -0.04065156 0.03954974
-0.1718142 -0.348752 0.7429156 0.60363024 -0.024384381 0.5237678 0.29018718 0.07248529
-0.19247784 -0.5321437 0.32565725 0.0708125 -1.0181321 0.36249438 0.6342002 1.3791021
0.75488055 -0.02633499 0.6360413 0.06294199 0.51963353 -0.3184751 0.7508775 -0.06072183
0.01901003 -0.017391477 -0.5551301 -0.82140005 1.0293401 0.6136576 0.6443314 0.18089671
-0.42505315 -0.8263061 0.97614944 -0.1520926 -0.35913113 0.03067248 0.84466904 0.089100495
00000000: 85c1 2c3e 2fd8 9a3f ae33 5b3e 8bfb 1f3f
00000010: f56d aa3f fc89 fbbe d221 b93e c81d 8c3e
00000020: 16e3 dcbd 3452 be3e dd27 6a3e cf94 7ebe
00000030: d78f 4b3d b65a 07bf bb59 b7bf b183 2dbd
00000040: 1ef1 93bf 63a8 ac3e 1ff7 64be d112 10bf
00000050: 1d89 94be b537 823f 5224 0cbf 23fb 613e
00000060: a910 55be e1d4 a3be e436 06bf 108b fe3e
00000070: a8e4 503e cb82 023f c241 ec3e 1abd 94be
00000080: 6880 b43b 7864 2d3f f91d 0abe 2f00 6d3f
00000090: 4c3f 533f 7848 f7bb 314c 4cbf 05df 07be
000000a0: 4496 503d a3a2 94be 3c59 2d3f e098 65bf
000000b0: 730c 3abf f66e 413e 5372 3f3e 68d8 c63e
000000c0: 82be 413f 1221 033f ade2 ff3e 8f4a e13e
000000d0: 0663 51be f59e 65bd 4082 26bd e8fe 213d
000000e0: 10f0 2fbe 9f8f b2be b72f 3e3f 8387 1a3f
000000f0: c1c1 c7bc a615 063f 6a93 943e 2b73 943d
00000100: e918 45be 923a 08bf 8cbc a63e 2506 913d
00000110: 2752 82bf dd98 b93e f25a 223f 6b86 b03f
00000120: da3f 413f 7abc d7bc 9ad3 223f bbe7 803d
00000130: b406 053f 2b0f a3be 8239 403f 74b7 78bd
00000140: ecba 9b3c 9278 8ebc 021d 0ebf 4647 52bf
00000150: 6bc1 833f aa18 1d3f e7f2 243f fd3c 393e
00000160: 91a0 d9be cc88 53bf eee4 793f 2abe 1bbe
00000170: 09e0 b7be da44 fb3c 3b3c 583f 527a b63d

model_4/batch_normalization_18/batchnorm/mul f4 [96]
4.7652326 6.691282 7.49641 4.9261007 6.742443 11.289111 3.348124 4.127223
8.208563 6.6626773 4.676662 4.223948 5.7510138 5.218397 6.639223 10.810835
6.02551 5.1683326 5.373099 4.106912 8.084638 5.4001503 6.927061 7.235499
11.228476 4.2810645 3.8162253 7.9264655 4.554156 4.4799066 8.0599165 12.09821
5.2743206 5.692616 8.186341 4.092716 4.775251 4.0552697 6.614053 4.3493943
3.6849127 6.229482 5.9432297 6.114579 11.238085 7.0668945 7.019628 6.143561
4.3782873 4.4620357 4.2730575 8.539364 3.2666264 5.3046646 8.983628 4.0713973
11.753382 5.2631507 3.0800378 3.9839106 6.111915 3.6823645 3.4682431 10.565038
4.301872 6.045209 8.831496 14.016997 9.277797 6.8879213 4.4545474 12.018217
7.2725735 8.212924 9.805607 7.1734905 2.9111397 12.7829075 4.0374513 8.586762
5.293242 5.39294 4.2681704 3.8624444 4.144208 3.9146266 11.740379 7.177499
10.913787 9.140305 5.856476 4.969917 6.0489955 9.065024 6.394272 5.6108065
00000000: c97c 9840 fb1e d640 97e2 ef40 9ea2 9d40
00000010: 18c2 d740 33a0 3441 aa47 5640 3612 8440
00000020: 4656 0341 a734 d540 37a7 9540 952a 8740
00000030: 4e08 b840 1cfd a640 8474 d440 2ef9 2c41
00000040: fad0 c040 fb62 a540 6df0 ab40 d36b 8340
00000050: ad5a 0141 08ce ac40 7caa dd40 3589 e740
00000060: d6a7 3341 7bfe 8840 093d 7440 9ba5 fd40
00000070: a5bb 9140 655b 8f40 6bf5 0041 4592 4141
00000080: 3cc7 a840 e929 b640 41fb 0241 88f7 8240
00000090: dbce 9840 c5c4 8140 52a6 d340 3d2e 8b40
000000a0: 9cd5 6b40 eb57 c740 f02e be40 a2aa c340
000000b0: 32cf 3341 0024 e240 cba0 e040 0d98 c440
000000c0: ee1a 8c40 ffc8 8e40 e3bc 8840 3ca1 0841
000000d0: 6810 5140 d0bf a940 f1bc 0f41 e348 8240
000000e0: da0d 3c41 bb6b a840 571f 4540 64f8 7e40
000000f0: cf94 c340 dcab 6b40 b2f7 5d40 650a 2941
00000100: efa8 8940 5a72 c140 cf4d 0d41 9f45 6041
00000110: db71 1441 da69 dc40 a78b 8e40 9e4a 4041
00000120: ecb8 e840 2368 0341 c4e3 1c41 3c8d e540
00000130: 1d50 3a40 ca86 4c41 cd32 8140 6163 0941
00000140: 3d62 a940 f792 ac40 da94 8840 4a32 7740
00000150: 5a9d 8440 3e89 7a40 98d8 3b41 12ae e540
00000160: df9e 2e41 b03e 1241 4068 bb40 8f09 9f40
00000170: 5f91 c140 570a 1141 e09d cc40 ba8b b340

model_4/dense_9/BiasAdd/ReadVariableOp f4 [26]
0.15417765 0.09625415 0.07470844 0.13497122 -0.042959284 0.11882461 0.047491103 0.17984882
-0.44369233 -0.42775884 -0.4450301 -0.44426516 -0.42898104 -0.4601323 -0.39853945 -0.46111616
-0.45838422 -0.44138357 -0.4739187 -0.42466012 -0.45337844 -0.44048303 -0.4317092 -0.4354633
-0.43985552 -0.4377849
00000000: bfe0 1d3e e520 c53d bd00 993d e535 0a3e
00000010: 13f6 2fbd 515a f33d 0886 423d 4a2a 383e
00000020: a42b e3be 3503 dbbe fcda e3be b976 e3be
00000030: 67a3 dbbe 7696 ebbe 5d0d ccbe 6b17 ecbe
00000040: 56b1 eabe 07fd e1be 79a5 f2be 0d6d d9be
00000050: 3821 e8be fe86 e1be fd08 ddbe 0cf5 debe
00000060: be34 e1be 5825 e0be

model_4/dense_8/BiasAdd/ReadVariableOp f4 [48]
0.07169519 0.09768399 0.0447952 0.18039785 0.17918196 0.0042398483 0.05321255 0.08847064
0.025947066 0.018529478 0.10670346 0.17603855 0.05071741 0.17973803 0.10281543 0.06800932
0.18130633 0.11953218 0.15279113 0.16372806 0.113595314 -0.014590521 -0.013471467 0.05303922
0.034124635 0.087500416 0.19334187 -0.018928723 0.17944163 0.05957219 0.027893329 0.052559882
0.09204535 0.072449 0.16241817 0.04607673 0.077507846 0.067240074 0.002398726 0.109489284
0.16716059 0.077418596 -0.08022751 0.054016434 -0.05884313 0.06560931 0.037428465 0.11906245
00000000: eed4 923d 8b0e c83d 2c7b 373d 37ba 383e
00000010: 7a7b 373e 6dee 8a3b 67f5 593d 1830 b53d
00000020: f18e d43c 22cb 973c 5887 da3d 7343 343e
00000030: 0fbd 4f3d 3f0d 383e e590 d23d 7848 8b3d
00000040: 5ea8 393e 4acd f43d 4775 1c3e 54a8 273e
00000050: a9a4 e83d 150d 6fbc 6eb7 5cbc a73f 593d
00000060: 46c6 0b3d 6b33 b33d 69fb 453e 6910 9bbc
00000070: 8cbf 373e f801 743d 8d80 e43c 0849 573d
00000080: 4682 bc3d 2460 943d f350 263e f4ba 3c3d
00000090: 6fbc 9e3d 2ab5 893d f233 1d3b eb3b e03d
000000a0: 252c 2b3e a48d 9e3d 524e a4bd 5640 5d3d
000000b0: 7e05 71bd 2d5e 863d 974e 193d 04d7 f33d

model_4/gru_8/gru_cell/MatMul f4 [96, 126]
2.8157124e-06 2.4660274e-05 2.5625275e-05 -0.00034745282 0.0012338194 -0.00032051082 -0.0005569692 0.0016500953
-0.00075558864 -0.0009814969 0.00024966116 -2.6909876e-05 -0.0012888565 0.00042494456 -0.00039889556 -0.00046068052
0.0011075708 -0.00085182453 -0.00029775652 -0.000101030666 5.5854784e-05 -1.2385262e-06 -0.0017641919 -0.0005278847
0.00014301903 -0.0013343357 -0.0003237424 0.0003501091 -9.831373e-05 -0.00069514103 0.00042278334 0.0014624688
8.004105e-06 3.0187466e-05 -0.0005338081 0.0006605244 -0.0010835791 -0.0024024462 1.6956768e-05 0.0016097588
-0.00033718758 -9.4762527e-07 0.00076723075 0.0001587816 -0.000113989976 0.0012590184 -0.0011050137 1.7496826e-05
0.0009597024 -0.00029373073 -0.0010673099 0.00065370905 -0.00126138 -0.00036927988 0.0019472516 -0.00029379647
0.0004383148 0.0010003535 -0.00080317166 0.00028736534 0.0011152383 -0.002169811 -0.00055858376 -1.5339148e-05
-0.00018481677 -0.000114133545 0.0004002009 -0.00035251965 -0.0006383211 -0.000116441806 0.0021401444 -9.8653814e-05
0.00018768567 0.0024588655 -1.964377e-05 0.0011305362 0.0024984528 0.00051392085 -0.0009071068 0.004269374
-0.0004792089 -0.0013047619 0.005223575 0.00073506625 -0.00085180486 0.0041607195 9.008997e-05 0.00032712973
0.003977294 0.00024789412 -0.0003061187 0.004085309 -5.1903866e-05 -0.00022095744 0.0047447565 0.00086118426
-0.0015348624 0.0036253813 0.0015085539 -0.00156149 0.0036710764 0.0012559744 -0.0014393458 0.0013831836
0.0006021115 -0.00061271293 0.003624838 0.0013890276 -0.00044283623 0.0019457476 0.0012730862 -0.0007353614
0.0030435969 0.0013542273 -0.0016395501 0.0011434685 0.0007864974 -0.0010047927 0.0013998923 0.0002814789
-0.001293303 0.001955418 0.0018350838 -0.0015484449 0.0021530886 0.0002688252 -0.000103608356 -2.8647082e-05
9.137583e-05 -0.0002462482 0.00034642444 -0.00016566718 -0.00044226352 8.080753e-05 9.452952e-05 -0.000931393
-0.0010272057 0.00025428686 -0.00085219584 -0.0006066268 0.0002627449 -0.00057478744 -2.247427e-05 1.0569524e-05
-0.0008443355 -0.00080662256 0.00025632812 -0.00077857694 -0.0004906572 0.00039885065 -0.0014346541 -0.0003021235
0.00070915767 -0.00017897582 -0.0006059131 0.0004612275 -0.00018656612 -0.00048739582 0.00028654851 -0.00094859523
-0.0005764316 0.0004628556 -0.0013161876 -0.001337667 0.00047448187 -0.00030961502 2.5504554e-05 0.00038567238
-0.00017427254 -0.00073887664 0.00017286639 -0.00011074047 -0.00018819641 0.00062901236 -0.0005149643 -0.00056607736
0.0006146773 0.0007589022 0.00031004514 0.00016831054 -8.359492e-05 -0.0003599384 0.0007421954 0.0002100263
-0.00020163234 0.0004709017 0.0002170147 -0.00027258234 0.0006195161 8.239278e-06 0.000100832476 -3.9909857e-05
0.0003168687 -0.0001862892 -0.00042631992 0.00048260854 -0.00044698446 -0.00056471676 0.00012367152 -0.00096851465
-0.0008900734 0.00043149598 -6.8346286e-05 -0.00063207065 -0.00020038677 -0.0013547279 -0.0007410307 0.00062397425
-0.0006585706 -0.00095226 0.00057404645 0.00035029437 -0.0010849456 0.0010575376 0.00073645584 -0.0011594209
-0.00069485826 -0.0012381705 -0.0006569239 -0.0007632565 -0.00040409632 -0.0006107238 -0.00034011324 -0.00040566927
-0.00079860206 0.00030972625 6.5305256e-05 -0.00045603333 -0.00050424854 6.2170475e-05 -0.000344217 -0.00037418277
-0.00012245387 -0.0008536488 -0.00015008249 -0.00022826296 -0.0004861994 -0.00022173907 0.00041415126 -0.00063274236
-0.00032984692 0.00013910697 -0.00067820615 6.480826e-05 8.876558e-05 -0.00015030315 -0.00021635239 0.00027816131
-0.00028601772 -0.00019199945 0.0005230807 -0.00023581198 5.7561574e-05 2.2338476e-05 2.3921271e-05 0.00010798003
00000000: 92f5 3c36 89dd ce37 dcf5 d637 542a b6b9
00000010: 1cb8 a13a 3c0a a8b9 9201 12ba 0348 d83a
00000020: b212 46ba 92a5 80ba f4e4 8239 85bc e1b7
00000030: d9ee a8ba 18cb de39 db22 d1b9 7e87 f1b9
00000040: e92b 913a fa4c 5fba 341c 9cb9 6de0 d3b8
00000050: 9e45 6a38 703b a6b5 753c e7ba be61 0aba
00000060: 61f7 1539 e0e4 aeba f8bb a9b9 d98e b739
00000070: c82d ceb8 203a 36ba 05a9 dd39 4fb0 bf3a
00000080: 5f49 0637 173b fd37 41ef 0bba 0b27 2d3a
00000090: e206 8eba 5c72 1dbb 623e 8e37 8bfe d23a
000000a0: 8dc8 b0b9 5060 7eb5 fc1f 493a 9c7e 2639
000000b0: e70d efb8 a605 a53a 1bd6 90ba 26c6 9237
000000c0: 8a94 7b3a dfff 99b9 fae4 8bba ac5d 2b3a
000000d0: e454 a5ba e89b c1b9 ec3a ff3a b208 9ab9
000000e0: 9ecd e539 4b1e 833a f08b 52ba 86a9 9639
000000f0: 302d 923a 6333 0ebb ec6d 12ba 92ac 80b7
00000100: 60cb 41b9 fb5a efb8 0ed2 d139 63d2 b8b9
00000110: 0155 27ba 3832 f4b8 aa41 0c3b 5de4 ceb8
00000120: 7dcd 4439 eb24 213b adc8 a4b7 802e 943a
00000130: 15bd 233b a5b8 063a e8ca 6dba 1be6 8b3b
00000140: 543e fbb9 8b04 abba 862a ab3b 76b1 403a
00000150: a84b 5fba a556 883b afee bc38 9c82 ab39
00000160: f653 823b c9f7 8139 8e7e a0b9 0ede 853b
00000170: 5ab3 59b8 d0b0 67b9 e779 9b3b 19c1 613a
00000180: 702d c9ba ce97 6d3b abba c53a e9aa ccba
00000190: 7196 703b 829f a43a 6ea8 bcba f14b b53a
000001a0: 05d7 1d3a 789e 20ba b18e 6d3b 0810 b63a
000001b0: 792c e8b9 7508 ff3a afdd a63a 45c5 40ba
000001c0: 1577 473b 5480 b13a 2ce6 d6ba 70e0 953a
000001d0: f22c 4e3a 40b3 83ba 977c b73a 7593 9339
000001e0: 0c84 a9ba 7826 003b 3287 f03a 30f5 caba
000001f0: d51a 0d3b 1cf1 8c39 5048 d9b8 244f f0b7
00000200: 06a1 bf38 e01a 81b9 4da0 b539 f2b6 2db9
00000210: 9bdf e7b9 3677 a938 263e c638 ba28 74ba
00000220: 4ea3 86ba ce51 8539 e565 5fba 0906 1fba
00000230: 06c1 8939 55ad 16ba 2187 bcb7 c353 3137
00000240: 6556 5dba 8673 53ba c763 8639 6a19 4cba
00000250: 739f 00ba d41c d139 010b bcba 5466 9eb9
00000260: c4e6 393a 75ab 3bb9 24d6 1eba e8d0 f139
00000270: f6a0 43b9 2989 ffb9 e43b 9639 26ab 78ba
00000280: ab1b 17ba 6dab f239 ed83 acba a854 afba
00000290: e1c3 f839 d353 a2b9 9df2 d537 1234 ca39
000002a0: eebc 36b9 2cb1 41ba 7843 3539 563d e8b8
000002b0: 9756 45b9 4ee4 243a abfe 06ba cf64 14ba
000002c0: 4c22 213a 11f1 463a 8e8d a239 847c 3039
000002d0: ae4f afb8 1db6 bcb9 e48f 423a 813a 5c39
000002e0: 456d 53b9 5be3 f639 718e 6339 62e9 8eb9
000002f0: 0667 223a 6e3b 0a37 0676 d338 e264 27b8
00000300: 6621 a639 a056 43b9 b183 dfb9 9f06 fd39
00000310: 3d59 eab9 8009 14ba d2ad 0139 ebe3 7dba
00000320: d153 69ba 693a e239 2255 8fb8 8bb1 25ba
00000330: ea1e 52b9 2091 b1ba ba41 42ba 3492 233a
00000340: eda3 2cba 16a1 79ba 9b7b 163a b7a7 b739
00000350: bc34 8eba 139d 8a3a b70e 413a b6f7 97ba
00000360: 2627 36ba 1c4a a2ba 6b35 2cba 4715 48ba
00000370: e4dc d3b9 fb18 20ba 3a51 b2b9 02b0 d4b9
00000380: 4759 51ba c162 a239 7ef4 8838 c217 efb9
00000390: 8c2f 04ba 8561 8238 0678 b4b9 f62d c4b9
000003a0: f666 00b9 67c7 5fba 765f 1db9 df59 6fb9
000003b0: 94e8 feb9 a182 68b9 7122 d939 9fde 25ba
000003c0: 4eef acb9 3edd 1139 a5c9 31ba abe9 8738
000003d0: a827 ba38 b29a 1db9 a7dc 62b9 2ed6 9139
000003e0: a6f4 95b9 7653 49b9 5a1f 093a 4c44 77b9
000003f0: 456e 7138 8363 bb37 8aaa c837 5673 e238
