app/src/main/assets/models/questions.tflite (tflite, 673196 bytes, 52 tensors)

model_4/batch_normalization_16/batchnorm/add_1;model_4/conv1d_8/Conv1D/Squeeze;model_4/batch_normalization_16/batchnorm/mul_1;model_4/conv1d_8/BiasAdd;model_4/conv1d_8/BiasAdd/ReadVariableOp;model_4/batch_normalization_16/batchnorm/mul;model_4/batch_normalization_16/batchnorm/sub;model_4/conv1d_8/Conv1D;model_4/conv1d_9/Conv1D f4 [96]
00000000: cecd 3e3f 1883 e73e 6f03 01bf 467a 7fbe
00000010: bb2c 6fbe f639 d5be 20d6 fb3d ca4c 34bf
00000020: 805e 96ba bab5 3abd 0d07 bbbe 067b 943d
00000030: a85d c3bd 0b5b 97bf 10f2 7dbe cff4 27bf
00000040: 925c 73be 4d26 94be ddc4 8cbe fe63 c5be
00000050: f630 cf3e 0b99 2abf c04b 283d 9215 68be
00000060: ca3c 5abe 72b0 7fbe 59c0 e5bd 1c18 413f
00000070: b806 263e 259d 5cbf efbc 2cbd 3659 06bf
00000080: 9599 33bf da86 11bf 073f 4cbf 86d8 033e
00000090: d0c5 abbe c039 1dbf 5cc7 843e a6bd 8bbd
000000a0: 4e56 aabe 8580 16bf 10f3 053d 469d 003f
000000b0: 00e9 d0be 5bbb ac3d ccfc 1bbd 6f35 58be
000000c0: 04c0 90bd 03ab aa3e cef2 b6be 83fe 36bf
000000d0: cd26 1e3f 05c2 4bbf 3ee4 9abe ce7a b7be
000000e0: 1d5a 763e 702d 4b3d 89ef c2be 1cd8 b83f
000000f0: 3c17 8abd f82a 64bc afff 3a3f df90 4bbe
00000100: 8cda d33e 2385 14bf d21e f2be 8488 27be
00000110: 3eb6 0cbf b839 94be cc1f cabe 0df7 21bf
00000120: f25d 8d3f 168d 0dbf f018 0cbf 1636 27bf
00000130: 58ad a7be 4c29 9abe 453c e6be 0e8f 1ebe
00000140: b818 42be aae2 b73d d552 a5be 2032 443b
00000150: 9b0b 4cbf b46f e5bd 8087 2dbe 0dd0 673d
00000160: 5839 7bbf 2833 943e 1cf0 4cbf 52ea ccbe
00000170: b18b 46bf 56e1 073f 4327 2bbf 2e4d e2be
0.74532783 0.45217204 -0.50395864 -0.24948987 -0.23356907 -0.41645783 0.122967005 -0.7042967
-0.0011472255 -0.045583464 -0.36528817 0.07250027 -0.09539348 -1.1824659 -0.24799371 -0.65607923
-0.23765782 -0.2893547 -0.27493945 -0.3855285 0.40467042 -0.66639775 0.041087866 -0.22664478
-0.21312252 -0.24969652 -0.11218328 0.75427413 0.162135 -0.86177284 -0.04217237 -0.52479875
-0.7015622 -0.5684639 -0.7978367 0.12875566 -0.33549356 -0.61416245 0.2593335 -0.06823282
-0.3326897 -0.58789855 0.032702506 0.5023998 -0.40802765 0.08434173 -0.038082883 -0.21114133
-0.07067874 0.33333597 -0.3573212 -0.71482104 0.61777955 -0.79592925 -0.3025226 -0.3583588
0.24057813 0.04960388 -0.38073376 1.4440951 -0.06742713 -0.01392626 0.7304639 -0.19879483
0.41377676 -0.5801565 -0.4728914 -0.1636067 -0.5496558 -0.28950286 -0.39477384 -0.63267595
1.1044295 -0.55293405 -0.5472555 -0.65316904 -0.32749438 -0.30109632 -0.44967857 -0.15484259
-0.18954742 0.089787796 -0.32289758 0.0029937103 -0.7970521 -0.11202946 -0.1694622 0.056594897
-0.98134375 0.2894528 -0.8005388 -0.40022522 -0.775569 0.5307821 -0.66856784 -0.44199508

model_4/batch_normalization_17/batchnorm/add_1;model_4/conv1d_9/Conv1D/Squeeze;model_4/batch_normalization_17/batchnorm/mul_1;model_4/conv1d_9/BiasAdd;model_4/conv1d_9/BiasAdd/ReadVariableOp;model_4/batch_normalization_17/batchnorm/mul;model_4/batch_normalization_17/batchnorm/sub;model_4/conv1d_9/Conv1D f4 [96]
00000000: 6a8a 0ebe 433f 7abd 48b1 edbe 780a 5c3e
00000010: 5150 5cbe f232 88bc 66c0 36bf f918 74be
00000020: 241e 02be 9574 69be 225f 43be c0e4 9dbe
00000030: 18d7 ae3d d7e8 06be f4c6 4dbe 9606 dcbd
00000040: 6279 0ebe fe44 d5bd 01de e2be ff85 ca3f
00000050: e89f 2ebe d256 fcbd d037 88bb 6940 953e
00000060: ad28 9fbd c40f 85be 2c37 1bbe cd73 e3be
00000070: b075 603e 99c3 a7be ac40 6f3f ae6c efbd
00000080: 5079 24bd 3158 a53e a087 89be f376 913d
00000090: 6b50 d5bd b665 3abd 60a7 373d 1c00 943a
000000a0: b388 903f b038 bf3d afe1 1ebe 0d6f bebd
000000b0: a99f fcbe 0acb 1b3f 8e45 88be 515c a1bd
000000c0: a514 6cbe 6246 edbe e789 a33f e927 18bd
000000d0: bd4c b0be bc10 b93e 4858 85be b596 853f
000000e0: 58ee c2bb d271 8b3f 7a6d a4bd a904 babe
000000f0: 7f8b 87be 4e1d 1abe c6a6 753c 3cd9 3a3e
00000100: 8a5b dbbe ce56 943e 50ad 29be 373a 2cbe
00000110: 6b24 2d3e 1c01 c4bd 866d f83d c2d0 debd
00000120: 1cbf d8bd aa8b 40be e883 83be 2bf6 d5be
00000130: 19b3 1abe 5986 86be 42a5 ab3e 3854 823e
00000140: 0aad 8fbe e543 08bf 9bd6 42be 4979 653f
00000150: 9f96 17be e141 b5be dcab 12be b3ba ae3e
00000160: 6ec3 7cbe 5653 c73c 0459 ce3e ecc5 cdbd
00000170: 42b4 96be b2a4 37be 0a45 e7bc b3ca 1cbe
-0.13919988 -0.061095487 -0.46424317 0.21488369 -0.21515013 -0.016625855 -0.71387327 -0.23837651
-0.1270681 -0.22798379 -0.19079259 -0.30838585 0.085371196 -0.13174759 -0.20095426 -0.10743444
-0.13913491 -0.1041355 -0.4431 1.5822142 -0.17053187 -0.12321247 -0.004157044 0.29150704
-0.0777143 -0.2598859 -0.15157765 -0.44424286 0.21919894 -0.32766417 0.93458056 -0.11690651
-0.040154755 0.32293847 -0.26861286 0.07102766 -0.10415729 -0.045507155 0.044837356 0.0011291537
1.1291717 0.09336984 -0.15515779 -0.09298525 -0.4934056 0.6085669 -0.26615566 -0.07878936
-0.2305475 -0.4634276 1.277646 -0.037147436 -0.34433547 0.3614558 -0.26043916 1.0436617
-0.005948823 1.089411 -0.080286935 -0.3633168 -0.26473615 -0.15050241 0.014993375 0.18246931
-0.42843276 0.28972477 -0.1657002 -0.16819082 0.16908424 -0.09570524 0.12130265 -0.10879661
-0.10583326 -0.18803278 -0.25686574 -0.41789374 -0.15107383 -0.26274374 0.3352452 0.2545488
-0.28061706 -0.532286 -0.19027178 0.8963819 -0.14803551 -0.35401824 -0.14323372 0.34126815
-0.24683926 0.02433173 0.4030229 -0.10047516 -0.294344 -0.1793392 -0.028231163 -0.15311699

model_4/batch_normalization_16/batchnorm/mul_1;model_4/conv1d_8/Conv1D/Squeeze;model_4/conv1d_8/BiasAdd;model_4/conv1d_8/BiasAdd/ReadVariableOp;model_4/batch_normalization_16/batchnorm/mul;model_4/conv1d_8/Conv1D;model_4/conv1d_9/Conv1D f4 [96, 1, 3, 126]
00000000: f26c c2ba 780e 13bb b171 563b 2094 9e3b
00000010: bfac bc3c a108 853b d5d4 c3b9 7b96 0c3d
00000020: 0302 0d3c 02e7 27bc eea3 163d a5ee 453c
00000030: 52fe 8cbc 8619 073d fe26 5a3c a1ec 2dbc
00000040: 5d4f 6b3c 9565 07bb 13ca 26bc 6169 843c
00000050: 74b2 5a3b b4ed d3bb 4d50 da3a 1e34 c03b
00000060: 02c7 65bb d88c 44bc 8f79 d73b bdd4 96bc
00000070: 562f e93b f734 6aba 1183 c8bc 679d 89bb
00000080: 2dc2 ba3b 428f b8bc 24d3 85bc 4fb8 013c
00000090: ca57 9bbc 7e59 c8bc 5cfb 123c 547b c0bc
000000a0: dc4b 823b 0a7a 3a3c 1e10 17bd d337 52ba
000000b0: 7305 9a3c 7f9e 26bd ef13 4d3b e7d1 a03c
000000c0: af29 2abd eb65 b83b 4379 a73c e248 d3bc
000000d0: 1889 d0ba 72fc 2d3c ea5b 27bd 9d9e 68bc
000000e0: f286 5b3c 9505 44bd 642f 5ebc 319b 603c
000000f0: 305d 53bd 96c5 52bc 00c9 4d3c 4490 c53a
00000100: a498 8f3a 22f7 8abb 5eae 413c 655e d23c
00000110: a60c a93b 1f24 4d3c 51d2 253d 8848 543c
00000120: 1da9 373c e402 5b3d 97c1 a03c 2cf0 2a3c
00000130: 8e8c 7f3d 7f8f ca3c b9a7 893b 48e5 103d
00000140: 3817 a13c a813 063c 0593 5d3d 2ce4 e03c
00000150: cb1e 543c b7ec 853d bf5e 0b3d 45fb 783c
00000160: 2226 9a3d 9866 193d 6907 eb3b 8210 0a3d
00000170: 50a1 ba3c 2fd6 7f3c d5da 2e3d efeb fb3c
00000180: 2419 b43c f80d 573d adf8 133d 56bc d03c
00000190: 3172 783d 7e74 213d c89d 16bb 9002 9a3c
000001a0: 8427 be3c 0093 ef3b 2d4d da3c 046e fa3c
000001b0: 72ae 613c d75c 1d3d 84e4 113d d7dc 953c
000001c0: 103c 403d a043 213d 3344 68bb e0bd 763c
000001d0: 377f d33c beef 473b 968a b53c 42b1 043d
000001e0: ee3d 023c dd31 fc3c a53f 0c3d 78c3 343c
000001f0: e09a 163d 018b 123d d221 06bb cf60 cbba
00000200: 6f94 4a3b 31c3 b23b f6ea db3c d36a bb3b
00000210: dd70 1c3a 9234 2b3d 829d 353c aacb 19bc
00000220: 91f7 413d c922 703c 6dbe 89bc 69ea 3c3d
00000230: d1a1 823c 84a6 18bc fb3e 9d3c 6bed f5b9
00000240: a035 f8bb 79de c03c 0d2a b83b e589 60bb
00000250: 4102 353c c8df 0a3c a759 09b8 329f 75ba
00000260: df94 193c 2cb5 8fbc 3828 373c d619 6c3a
00000270: d60f bbbc d567 3a3b 43f0 013c 47e1 a9bc
00000280: b703 debb ae5e 2e3c 834d 8cbc 47fe 4abc
00000290: d3e6 4a3c 0e1b c1bc 8e71 ef3b 6765 533c
000002a0: 5d09 17bd b466 b93b 45ce aa3c 1894 27bd
000002b0: a796 493c d703 b33c 1cc7 2bbd b99c 8e3c
000002c0: a532 be3c a419 dcbc 8c8b c63a e989 3d3c
000002d0: 5539 2dbd 8c86 0cbc d276 733c b9c0 4abd
000002e0: 0594 b8bb ae24 7b3c 076d 5bbd 766c 27bb
000002f0: 9cb8 6d3c abeb d83a 386b 5e3a 8639 90bb
00000300: 1507 3a3c a01a cd3c 41a2 b83b 0b07 413c
00000310: ada0 1f3d 0a53 673c 36a1 2b3c 829b 523d
00000320: ede9 a43c 4e79 243c 208b 753d 3f8e cd3c
00000330: 4c5a 923b 48c5 063d 63fa bb3c 7314 1d3c
00000340: 9133 503d 285c f83c 8e1d 783c 6459 7d3d
00000350: afa4 123d 2860 943c f924 933d 7ee8 1c3d
00000360: 441e 023c 1481 033d 30fc cb3c b881 923c
00000370: 4b94 283d 3ec4 053d e188 ce3c 6207 513d
00000380: 0a78 183d 910c ef3c 1637 723d d8dd 233d
00000390: 5463 96ba f61e 843c 2f62 c73c fca7 203c
000003a0: 52d8 c83c 587f ff3c c2c4 8b3c b31e 143d
000003b0: 2e98 103d 2071 b53c 663b 343d 7c63 1e3d
000003c0: 1192 0bbb 7189 593c 4ace d23c 6114 bd3b
000003d0: 0c16 ab3c 35cc 043d 5ff7 3e3c bcf4 f03c
000003e0: 2994 0a3d a2e6 7c3c d36e 103d 7768 103d
000003f0: c384 a1ba f9d3 d6ba 602a 003b 2b7c b23b
-0.0014833494 -0.0022439044 0.0032721574 0.004839435 0.02303159 0.0040598665 -0.0003735187 0.034323197
0.008606437 -0.010247948 0.03677743 0.012080823 -0.017211113 0.032983325 0.0133149605 -0.010615499
0.014362183 -0.0020659913 -0.010180014 0.01616353 0.0033370527 -0.0064675454 0.0016656012 0.005865588
-0.0035061245 -0.01199647 0.00657577 -0.018411988 0.0071162386 -0.0008934284 -0.02447656 -0.004199672
0.005699417 -0.022529248 -0.016336031 0.007917478 -0.01896276 -0.024456736 0.008971062 -0.023496307
0.0039763283 0.011381635 -0.036880605 -0.0008019183 0.018801427 -0.040678497 0.00312924 0.01963134
-0.04154366 0.005627384 0.020443564 -0.02579159 -0.0015909998 0.01061927 -0.04085914 -0.014197973
0.013398873 -0.047856886 -0.0135611035 0.0137088755 -0.051602542 -0.012864491 0.012560129 0.0015072902
0.0010955525 -0.0042408863 0.0118213575 0.025679776 0.0051589785 0.012520819 0.040483776 0.012956746
0.011209753 0.053469554 0.01962356 0.010433238 0.062389903 0.024726627 0.0042009023 0.03537491
0.019664392 0.008183397 0.054095287 0.02745255 0.012946795 0.065392904 0.034025904 0.015196626
0.075268045 0.037451357 0.007172514 0.03370715 0.022781998 0.01561503 0.042689163 0.03075215
0.021984644 0.052503556 0.036125828 0.02548043 0.060655776 0.039417736 -0.0022982229 0.01880005
0.023212202 0.007311225 0.026648128 0.030570038 0.013774501 0.038418617 0.03561832 0.018293781
0.04693228 0.039371133 -0.003544104 0.015059918 0.025817497 0.0030507888 0.02216081 0.03239561
0.0079493355 0.030785495 0.034240384 0.0110329315 0.036768794 0.035777096 -0.0020466936 -0.0015516522
0.0030911227 0.0054553975 0.026845437 0.0057195215 0.00059677457 0.04179818 0.011084916 -0.009386936
0.04735524 0.014656731 -0.016814435 0.04612199 0.0159463 -0.009317044 0.01919507 -0.00046906932
-0.007574752 0.023543583 0.005620247 -0.003426188 0.011047901 0.008476205 -3.274684e-05 -0.000936973
0.009373873 -0.017542444 0.0111790225 0.00090065354 -0.0228347 0.0028443236 0.007930818 -0.020737303
-0.006775345 0.010642691 -0.017126804 -0.012389726 0.012384134 -0.023572471 0.007307238 0.012902594
-0.036874164 0.005657995 0.02085031 -0.040912718 0.012303985 0.021852417 -0.041937932 0.017408716
0.023217509 -0.026867695 0.0015147789 0.011568525 -0.042291004 -0.008577 0.014859872 -0.0495002
-0.0056328797 0.015328569 -0.053570773 -0.0025546825 0.014509346 0.0016549727 0.0008484605 -0.0044013886
0.011354228 0.02503711 0.0056345765 0.011781464 0.03897159 0.014118919 0.010475447 0.051417835
0.020131076 0.010038687 0.059947133 0.025092242 0.0044663306 0.032902986 0.022946542 0.009587395
0.050830428 0.030317381 0.015143765 0.061852828 0.035801586 0.018112257 0.07184786 0.03830766
0.007941786 0.03210552 0.024900526 0.01788412 0.04115705 0.032657854 0.025211753 0.05103243
0.037223853 0.029180797 0.059134565 0.04000649 -0.0011473694 0.016128045 0.02433881 0.009805676
0.024517212 0.031188652 0.017061595 0.03616209 0.03530138 0.022148669 0.04400196 0.038669094
-0.002129678 0.0132773975 0.025733132 0.0057702516 0.020884536 0.03242131 0.011655658 0.029413573
0.033832703 0.0154358465 0.03526194 0.035255875 -0.0012322891 -0.0016390077 0.0019556507 0.005446931

model_4/batch_normalization_17/batchnorm/mul_1;model_4/conv1d_9/Conv1D/Squeeze;model_4/conv1d_9/BiasAdd;model_4/conv1d_9/BiasAdd/ReadVariableOp;model_4/batch_normalization_17/batchnorm/mul;model_4/conv1d_9/Conv1D f4 [96, 1, 3, 96]
00000000: edf4 b63b 1b2e 0dbd 2317 2d3d 4941 bbbc
00000010: 4d0c dfbc 6389 903c 8d2c 8e3c b242 4e3c
00000020: e270 efbc 1572 a2bc 9c10 ff3c 2349 da3c
00000030: 33bf d5bb d23c 1e3d 7baf 2dbc 5f15 ed3c
00000040: fd34 0cb9 926a 2d3d 1630 ebbc a5a3 e83c
00000050: 528f 16bc 5b19 4cbc b013 2bbb 9eeb cb3a
00000060: 2b66 f33b 1dc3 09bd 1c61 0abd 3b4d 25bd
00000070: acb0 95bc feac 643d 1322 293c ff95 debb
00000080: ba66 813c 3db3 173d 0122 893c 7525 12bc
00000090: df79 a5bb aefd 363c 35ea 273d 5936 f3bb
000000a0: c197 febc 454a 5db9 e84d 013d b9cd e439
000000b0: 5c75 0ebd 3ae0 b9bc fa72 2cbc ad84 df3b
000000c0: e039 c4ba ebd3 15bc b512 333c 6b27 a337
000000d0: 429a 103c 1b58 953c 08d4 c4bc 9e82 d8bb
000000e0: 8656 eabc e5ac fabb 9ee3 4dbd 1b7f 00bd
000000f0: 9d10 753c f4b6 8dbc c2ec a7bc 2592 3639
00000100: 5698 65bc 9b31 7eb9 0f41 4fbc f42c f53b
00000110: 5828 4a3c 0236 103d b692 dc3b 2be2 f13c
00000120: 54b1 cfba 065d dcbb 9403 e2bc dc76 d23c
00000130: c4ef 2e3c 2720 87bc 806b 2c3d 0544 d8bb
00000140: b451 abbc 4109 35bc 12ba cb3c ce0e ecbc
00000150: 54c8 973c 346f 353c e365 d4bc 26c0 bfbc
00000160: c24f 613b 6b8e 4b3c 3c61 6c3d 2beb 17bd
00000170: a91d ce3c 1b83 a93c 7956 e43b 10c8 6fbc
00000180: b826 a73b 1ab6 12bd d1f8 333d e6a9 c7bc
00000190: c956 e1bc c1eb 8d3c b389 883c 4d77 483c
000001a0: e99f eabc 618e a7bc 29b6 fc3c 5137 dd3c
000001b0: 681d 04bc cc7e 283d 0b47 3dbc 91ca ed3c
000001c0: 566f 04ba fb3d 313d c7f1 ecbc f49e e13c
000001d0: d95c 36bc f4c4 4bbc 29d9 84ba a588 523a
000001e0: 98e4 d53b abd5 0bbd 9a6d 11bd 9412 2ebd
000001f0: 5ea8 97bc 27e5 6a3d 552a 303c 21bc f0bb
00000200: 3439 853c 8c0d 253d b1d5 933c 11af 13bc
00000210: c79a 90bb 410c 3e3c 5b0a 2e3d 49c1 e3bb
00000220: c3c3 00bd b6f5 50ba ffef 063d f309 253a
00000230: c0a0 0ebd dc04 c3bc 1b69 47bc 6ec5 e73b
00000240: 2b70 d6ba 6bbc 1fbc 250c 373c 3fb1 9d3a
00000250: 5e4d 1d3c 6160 9d3c b3fe cfbc 46ee bfbb
00000260: 5f1a eabc e8f2 0ebc affd 52bd f3ef 04bd
00000270: f11c 743c cf8f 8cbc 5892 b3bc a532 023a
00000280: e0a8 7dbc b145 55ba d152 64bc cf82 e93b
00000290: 04c0 553c 86b4 163d f79d e83b daf9 073d
000002a0: 0318 a7ba 055a dbbb 1b55 e6bc f558 d13c
000002b0: 6bed 453c bd33 8ebc aab3 333d f4c5 d7bb
000002c0: be24 b2bc 3a49 49bc 5b7f ce3c f67c e2bc
000002d0: 4e0b 9b3c fab3 313c 7c61 dfbc 2589 ccbc
000002e0: d6bd 973b fab6 5d3c f055 703d 88eb 1abd
000002f0: a613 d73c a433 a43c 25f7 c93b 6332 67bc
00000300: 1776 953b 05f1 16bd 795f 2f3d 1c95 c0bc
00000310: d532 cfbc edd4 813c 5871 813c f880 513c
00000320: 9d74 e2bc 874b 9ebc 78e6 fc3c f74e d33c
00000330: ee58 f3bb 737c 1d3d 48e7 37bc 2fa1 e63c
00000340: a8af 10bb fab7 313d 36f4 debc 7f95 e63c
00000350: 782f 34bc fad3 51bc 8adf 56ba 02eb ad3a
00000360: f7f9 e83b 5be5 0fbd 1d28 06bd 1df6 2ebd
00000370: 0801 96bc cfed 663d d3ca 393c e803 efbb
00000380: 4b34 8e3c 4924 263d af76 983c 7550 12bc
00000390: 820c 94bb ad54 643c 753f 1d3d ed8a d7bb
000003a0: cccf f9bc da1e feba 0561 f63c b381 15ba
000003b0: cb4b 0dbd 6a40 c8bc 05e1 2cbc 43d1 c83b
000003c0: 69fa 97ba 63c7 35bc 012b 2d3c 568c ef3a
000003d0: 9e39 123c 27fa 9f3c d8bf babc 52d3 9dbb
000003e0: 7551 f1bc 3a8c e3bb b2ab 50bd fef6 0cbd
000003f0: 279e 673c a1ba 71bc 5d68 b2bc 2e46 033a
0.0055833966 -0.034467798 0.042258393 -0.022858279 -0.027227545 0.017643636 0.017355228 0.012589144
-0.029228631 -0.01982979 0.03113585 0.026646202 -0.006523037 0.03863222 -0.01060092 0.028940855
-0.0001337118 0.04233796 -0.028709453 0.028398344 -0.009189444 -0.012457217 -0.0026104264 0.001555789
0.007427951 -0.03363334 -0.033784017 -0.040356856 -0.01827272 0.05582904 0.010323065 -0.0067927833
0.015796054 0.03703617 0.016739847 -0.008920063 -0.0050499286 0.01116888 0.04099484 -0.00742225
-0.031078221 -0.0002110387 0.031568438 0.00043640824 -0.03477989 -0.022689927 -0.010525459 0.006821236
-0.0014970861 -0.009144763 0.010929753 1.944947e-05 0.00882584 0.018230489 -0.024026886 -0.0066073677
-0.02860571 -0.007650005 -0.0502659 -0.031371217 0.014957574 -0.017299153 -0.020498637 0.00017411316
-0.0140133705 -0.00024241807 -0.0126497885 0.0074821655 0.01233872 0.035207756 0.0067313565 0.02952679
-0.0015845695 -0.0067249564 -0.027589597 0.025691442 0.010677282 -0.016494824 0.042094707 -0.0065999054
-0.020912983 -0.01104957 0.024868999 -0.028815653 0.018528141 0.011073876 -0.02592749 -0.023407053
0.0034379815 0.012424092 0.057709917 -0.037089508 0.025160627 0.020692399 0.006968316 -0.014635101
0.005101051 -0.035818197 0.04393846 -0.024373006 -0.027507203 0.01732433 0.016667223 0.012235475
-0.028640704 -0.020453634 0.03084858 0.027003916 -0.008063652 0.041136548 -0.0115525825 0.029027255
-0.0005051991 0.043272 -0.028923882 0.027541615 -0.011130535 -0.012437094 -0.001013552 0.0008031226
0.0065274946 -0.034139317 -0.035504915 -0.042498186 -0.0185129 0.057347443 0.01075228 -0.0073466455
0.016262628 0.040296122 0.018046232 -0.009013907 -0.004412982 0.011599601 0.042490344 -0.0069505316
-0.031436693 -0.0007971184 0.03294372 0.0006295733 -0.034821272 -0.023806028 -0.012171055 0.007073096
-0.0016360333 -0.009749512 0.011172329 0.0012030973 0.009600965 0.019210996 -0.025390005 -0.005857262
-0.028577028 -0.008724906 -0.051511463 -0.032455396 0.014899478 -0.017158417 -0.021920368 0.0004966653
-0.0154821575 -0.000813569 -0.013935761 0.0071261893 0.013046268 0.036793254 0.007098909 0.03319726
-0.0012748245 -0.006694081 -0.028116753 0.025555113 0.012080531 -0.017358655 0.043872513 -0.006584877
-0.021746036 -0.012285525 0.025207212 -0.027647477 0.018926289 0.010846132 -0.027268164 -0.02496774
0.0046307845 0.013532395 0.058675706 -0.037822276 0.026254486 0.020044155 0.006163495 -0.014111134
0.0045611965 -0.036850948 0.04281566 -0.0235086 -0.025292793 0.015848601 0.015801117 0.012787096
-0.027643496 -0.019323124 0.030871615 0.02579449 -0.0074263727 0.038448762 -0.011224575 0.02815303
-0.0022077356 0.043388344 -0.027216058 0.028147457 -0.010997646 -0.012806887 -0.0008196762 0.001326889
0.0071098763 -0.03513084 -0.0327531 -0.04271518 -0.018311039 0.056379136 0.011339861 -0.007294167
0.01735892 0.040561948 0.01861128 -0.008930315 -0.0045180926 0.013936204 0.038390595 -0.0065778405
-0.030494593 -0.0019387857 0.03007556 -0.00057032256 -0.03449611 -0.024444778 -0.010551696 0.0061284616
-0.0011595014 -0.011094901 0.010569335 0.0018276076 0.00892487 0.019528462 -0.022796556 -0.004816451
-0.029457787 -0.0069442065 -0.05094499 -0.034415238 0.014136828 -0.014753968 -0.02177828 0.0005007711

model_4/gru_9/gru_cell/strided_slice_4 f4 [48]
00000000: 1985 2fbd 92df 193e 51b7 3d3e 89c1 613d
00000010: 7a4a 103e c5c7 043c c024 94bc 5430 c23b
00000020: 3839 8abc 8cae fcbb a158 e43d 2bfa 09bd
00000030: 3ca7 b23d e4de 0d3d 4872 753c 08c0 01be
00000040: 757f a43d 7232 bfbd 854e 24bd ccc0 993d
00000050: 97b9 063e 5a37 c7bd 4469 34bd 050a 0d3e
00000060: 9146 c3bd c5ce 263d 53af 8a3c 7116 c63c
00000070: 5a64 943c ff91 2e3e ccc2 52bd 90af 63bc
00000080: 1c0c 6a3d ade4 bbbd 925e 5b3d d652 41bd
00000090: d542 473d 5df7 0b3e 30f0 f93d 7fd4 a1bc
000000a0: 965c c33d ea6f 9c3c e0fe 703d acea cdbc
000000b0: bc8f d33b 2c7f 8dbd 9df3 c53d 747b cabd
-0.04285154 0.15026692 0.18526961 0.05511621 0.1409091 0.008104269 -0.01808393 0.0059261713
-0.016872987 -0.0077112373 0.11149717 -0.033685844 0.08723304 0.034636393 0.01498086 -0.1267091
0.08032123 -0.093357936 -0.040113945 0.07507476 0.13156734 -0.09727354 -0.0440457 0.13773353
-0.09534944 0.040724535 0.016929304 0.024180623 0.018114258 0.1704788 -0.051455304 -0.013896838
0.057140455 -0.09174476 0.053556986 -0.04719814 0.04864772 0.1366858 0.12204015 -0.019754646
0.09539144 0.019096334 0.058836818 -0.025136314 0.0064563435 -0.06909022 0.09665606 -0.09886828

model_4/gru_9/gru_cell/strided_slice_3 f4 [48]
00000000: aa18 903d 1466 fd3d fb37 ee3d e768 c4bd
00000010: 4759 f53e 7222 b7bd 0bfa 2abe 29c0 163d
00000020: b3e5 f53d e536 c73d e674 473d fe2c 9d3b
00000030: 9dfa 1b3e 52c4 863d 5437 93be a3d8 b63d
00000040: 02e5 873d 9d33 e2bb 7712 6dbe a360 61be
00000050: 0044 883e 7e94 673d 67a9 bc3d 5a8e b63e
00000060: f682 40bd 06e2 eb3c debf bcbd 041f 9a3e
00000070: 885d 943d dd35 5b3d 14a2 753c 9eda 203e
00000080: ecd6 3bbd 032d 073e 973c 383d adfd 5ebe
00000090: 28b4 b83d dfb3 2d3e f119 673d 9e5a 0d3e
000000a0: edbf 273d 7d88 60bd b1c3 513e abe4 4d3d
000000b0: ab52 5ebd f1a6 d9bd 4260 2f3d 55c8 ae3d
0.07035954 0.123729855 0.11631771 -0.09590321 0.47919676 -0.08942117 -0.16696946 0.036804352
0.12006702 0.09727267 0.048695467 0.0047966233 0.1523232 0.06580414 -0.2875315 0.08928039
0.06635477 -0.0069031254 -0.23151575 -0.2200952 0.2661438 0.056538098 0.092119984 0.3565548
-0.046999894 0.0287943 -0.09216283 0.30101788 0.07244402 0.053518165 0.014992256 0.15708396
-0.045859262 0.13200764 0.044979658 -0.21776457 0.09018737 0.16963147 0.056421224 0.13804099
0.04095452 -0.054817665 0.20484807 0.050266903 -0.054278057 -0.10627545 0.042816408 0.08534304

model_4/gru_9/gru_cell/strided_slice_5 f4 [48]
00000000: 488a 133d cd4c cebd 4e55 ce3d 17a7 2a3e
00000010: 32e5 b33d f6f1 65bd 9cdd 243d f1d8 1dbd
00000020: 5824 eebc 2c6f 093e 4bdd 713d ec43 cebc
00000030: b0a6 07bc 0ee5 043d 0786 2f3c c582 a13c
00000040: 3d2c f03d a271 e53c ae94 6abd 7341 9bbd
00000050: 60be 1cbe 86b1 57bd 2350 5d3e a1b8 cb3d
00000060: 0c0f efbd aa08 1e3d 117d 303d c13d b93d
00000070: 3f76 07bd 77b2 ed3c c09f 943d b4b4 cb3d
00000080: a9fb 96bd 4799 6a3d bea2 a33d e73e 0a3e
00000090: 9986 263e a374 0dbe 6693 953d 4bb1 f8bd
000000a0: ec6c c13d 299e 513d 277a 89bd 740b 44be
000000b0: 01e5 bcbd 2bc6 a7bc 947f 1dbe 6837 5d3e
0.036020547 -0.10073242 0.10074864 0.16665302 0.0878395 -0.056138955 0.040250406 -0.03853697
-0.029070064 0.13421315 0.059048932 -0.025178872 -0.0082794875 0.032445006 0.010713107 0.019715676
0.11727188 0.028008286 -0.0572707 -0.07580843 -0.15306997 -0.052659534 0.21612601 0.099473245
-0.11672792 0.03858248 0.043088023 0.09044982 -0.033071753 0.029015763 0.072570324 0.09946576
-0.07372219 0.057275083 0.07990025 0.13500558 0.16262282 -0.13814025 0.07303505 -0.12143191
0.09444603 0.051176224 -0.06712752 -0.19144994 -0.092233665 -0.020480236 -0.15380698 0.21603167

model_4/gru_9/gru_cell/strided_slice_11 f4 [48]
00000000: d2a7 503c 8426 aabd e9c4 d03d 5753 143e
00000010: 4515 6e3c 2e8e 843c b894 843d 69df 83bd
00000020: cf48 c33b 9ad2 b23d 1fa0 e33c 0808 4fbc
00000030: 35cf 37bc 021d 573d 621f 133c a783 fc3c
00000040: a020 9a3d a964 423d 67f0 8bbd cbec 25bd
00000050: bb67 2fbe 1912 32bd 3747 1c3e a6e2 823d
00000060: e263 f8bd 3ccf 7a3d b10c ab3c b901 343d
00000070: eeeb 0fbc bc8a 163d eb3b 503d e5a0 f03d
00000080: f819 cabd 25ac 8b3d 5b1e a13d 634a c73d
00000090: 5563 1f3e e37c d0bc 5b20 bc3c 2249 26be
000000a0: 5030 823d 0357 e83b ac81 f4bd 711a fabd
000000b0: b108 c6bd 0ccc efbb cbae eebd dfe7 0f3e
0.012735324 -0.083081275 0.10193808 0.14484917 0.014531438 0.016181078 0.06473678 -0.064390965
0.005959607 0.08731575 0.027786313 -0.012636192 -0.011218836 0.0525179 0.00897965 0.030824495
0.07525754 0.04745928 -0.068329625 -0.040509026 -0.17129414 -0.04347429 0.15261541 0.06390886
-0.12128426 0.06123279 0.020880075 0.043946955 -0.008784277 0.0367534 0.050838392 0.11749438
-0.098682344 0.06819943 0.07867118 0.09730985 0.15565236 -0.025450176 0.022964647 -0.16238835
0.06356871 0.0070904507 -0.119387954 -0.122120745 -0.096696265 -0.0073180255 -0.11654433 0.14053296

model_4/gru_8/gru_cell/strided_slice_4 f4 [96]
00000000: bb80 10bd 680c 673d 7f5f 793d 3ba4 103e
00000010: c025 3bbd 2107 b23c 55cc 743b d910 d7bd
00000020: a777 103e 955f 3f3d 3f5b f33d 86a4 a13d
00000030: ba5a b33c 5462 733d af49 aeba 6e3e 9f3d
00000040: 8aa2 89bd d704 2dbd 9117 5d3d f992 fa3d
00000050: fc71 4a3d f28c 0f3c c2c0 6bbc f57d e2bc
00000060: 7839 84bc 474c da3c 4daf 6c3d 43e6 ed39
00000070: da6a a33d 234a d5bd ef93 e83c a50e 51bd
00000080: 5611 e33d 9489 febc a98e 813d ed33 b0bd
00000090: e8ec 973d 7dbc 8d3d ccf7 303d 3662 103e
000000a0: f213 da3d 735c 2d3e 9200 33bb 40a3 a7bc
000000b0: 00dd 9ebd e042 a93c a6a3 1d3c c318 1d3c
000000c0: 955c 093d ba67 983d b0b9 373d efad c93d
000000d0: e1e0 6abd 8af8 ca3d de9e b4bb bd18 1a3e
000000e0: 3f4c 48bd f7a5 803d e778 3dbd f338 943c
000000f0: 5792 6bbc 19a6 9abc f850 353d ef24 3ebd
00000100: 1470 0f3e 6157 c6bd e709 8a3d 8e2b 80be
00000110: cca4 cbbc 9378 523e f05e a03c 8d31 4ebd
00000120: 9351 c9bd 80ba 0b3c 8860 bebc 0c79 d9bd
00000130: cda6 d2bd 634e 06bd 52ae 113d 4569 433d
00000140: 1250 e93d 88d2 6c3b 8a7e 29bd e565 5ebd
00000150: a4d0 283c ffe4 e0bd 46f6 103c c145 c2bd
00000160: c31e 763c eeef f63d cdb3 393d 7585 9d3b
00000170: 86b7 1a3e c303 1f3e 9105 3abd 76b4 41be
-0.035279017 0.056408316 0.060882088 0.14125149 -0.045690298 0.021731915 0.0037353237 -0.1050126
0.14108144 0.046722014 0.11882638 0.078927085 0.021893848 0.059419945 -0.0013297106 0.077755794
-0.06720455 -0.042240944 0.053977553 0.12235064 0.04942511 0.008761631 -0.014389219 -0.027647952
-0.016140684 0.0266477 0.057784367 0.0004537572 0.07979365 -0.10414531 0.028390853 -0.051039357
0.11087291 -0.031071462 0.063260384 -0.08603654 0.07418233 0.06920717 0.043205068 0.14099964
0.106483355 0.16929798 -0.0027313572 -0.020463586 -0.07756996 0.020661771 0.009621536 0.009588423
0.03353556 0.07441659 0.04485482 0.09847628 -0.057343367 0.09910686 -0.0055121025 0.150485
-0.04890084 0.06281655 -0.04625788 0.018093562 -0.014378152 -0.01887803 0.04426667 -0.04642194
0.14007598 -0.09684635 0.0674017 -0.2503323 -0.024858855 0.20553808 0.01957652 -0.050340224
-0.09830012 0.008528352 -0.023239389 -0.10618791 -0.10285721 -0.0327896 0.035566635 0.047707815
0.11392225 0.0036136229 -0.041380443 -0.054296393 0.01030365 -0.109811775 0.008847779 -0.09485961
0.015021983 0.12057482 0.045337487 0.004807169 0.15109071 0.15528779 -0.045415465 -0.18916497

model_4/gru_8/gru_cell/strided_slice_3 f4 [96]
00000000: 9d23 24be f20f 4cbd e3f1 f6ba 8824 973d
00000010: 974f 78bc a259 a43d 6637 863d 09f1 113d
00000020: 77d0 a83e c2e8 b13d ccb3 1e3e 2bc1 0b3e
00000030: 676c 8b3d 8d44 b43e 0793 84bb fb39 073d
00000040: edca a2bd 4a13 64bc 1684 b43d 2158 9f3e
00000050: 214e 543e 6d50 8d3a 57fb 9abd dc0d dd3d
00000060: 4c65 7bbd db0d 063d c329 6d3e 242a b9bd
00000070: 86ac 4d3e 42d7 06be 3f2e 263c 93de b239
00000080: 5cb0 673e 932e 823e 20fd 12be a687 a9bc
00000090: 878f d83d 9fe3 babd 1a9f 53bd 87f5 6c3e
000000a0: 6275 023d 4652 c93d 0bbf 963d b4d4 043e
000000b0: e352 17be e05d 833d a686 eb3d 32db d1bd
000000c0: 4538 663c 82a4 b2bc a87d 173e 4985 523c
000000d0: aef3 9d3d 5dbd ac3e b4e5 9f3d e4da 883e
000000e0: e4d8 bcbd bdad ec3b 01d4 0dbc d9d5 ab3d
000000f0: 3003 8bbb da49 14bd c265 653d 05b9 d1bd
00000100: 430e b43d e9ab 21bd b11b f23d 5eb4 023e
00000110: 6347 043e 2455 a13e ec90 bb3d 4016 473e
00000120: 35a2 fdbd 0d9b ffbd b6f7 97bc f461 573c
00000130: 00b3 8bbd 12f8 2ebb fa90 243e 0b83 b33c
00000140: 4735 d93d c847 a93d b703 dd3c 36f7 2dbd
00000150: 4e70 b6ba d68c 96bd 896b 863d 0117 10be
00000160: 1c06 f83d 76d6 e63d e333 173d 0b44 c83d
00000170: 6bde 963e 8669 503e bb84 c63d 4fcd c93b
-0.1602921 -0.049819894 -0.0018840398 0.07380015 -0.015155694 0.080249086 0.06553535 0.03563026
0.32971546 0.08686973 0.15498275 0.13647906 0.068077855 0.3520855 -0.0040458473 0.03301428
-0.07948861 -0.0139206145 0.08814256 0.31121925 0.20732929 0.0010781415 -0.075674705 0.10793659
-0.0613759 0.032728057 0.23160462 -0.09041241 0.20085344 -0.13168052 0.010142862 0.00034116636
0.2262587 0.25426158 -0.14354372 -0.020694565 0.10574251 -0.091254465 -0.051665403 0.23140536
0.031850226 0.098301455 0.07360657 0.12971765 -0.14777713 0.064143896 0.115002915 -0.10246886
0.014051502 -0.021806959 0.14794028 0.0128491605 0.07712494 0.33738223 0.07807484 0.267295
-0.09221056 0.0072228597 -0.008656503 0.083903976 -0.0042423233 -0.036203243 0.056005247 -0.10240368
0.08791783 -0.039470587 0.11821688 0.12764117 0.12917857 0.3151027 0.09158501 0.19442081
-0.12384454 -0.124807455 -0.018550735 0.013145912 -0.06821251 -0.0026698154 0.16070929 0.021913072
0.10605865 0.08265644 0.02697931 -0.042472087 -0.0013918967 -0.07351081 0.065634795 -0.14071275
0.1211054 0.11271374 0.036914717 0.09778603 0.29466566 0.20352754 0.09693285 0.006158508

model_4/gru_8/gru_cell/strided_slice_5 f4 [96]
00000000: 2b4f 863b 121a 3f3c 2d7c 703d d55d 0fbd
00000010: e29c 11bd ab31 1e3c 3323 273d 2750 50bd
00000020: b3bf 9dbd b167 4cbc 677d aebd dc8e 223d
00000030: 1d16 18bc 0d22 bcbc d888 17bc 2238 4cbc
00000040: ad6d 103e 970b 1a3d 53d4 73bc bc42 7dbd
00000050: 98aa 07bd 0bfc f23c 9a1f 5fbc 3f25 7dbd
00000060: d8b8 b23d 32e4 ad3d 7ad9 16bd 5438 6e3d
00000070: 97a5 5c3d 194a e2bc d221 06bd b3b1 423d
00000080: f6e4 293d 10cf 543c 229d 28bd bcbd 7d3c
00000090: c116 2c3d 9b05 323d 464e 4b3d 3668 15bd
000000a0: ba08 8c3c 3255 2ebd cba6 b1bc bfdb 1f3d
000000b0: 4f9b 973d b9f0 ac3d 3eb0 873d 8973 09bd
000000c0: 452c 5dbd 8e0e b63c 9b62 a3bc de33 dbbc
000000d0: 553f 833c dcf9 923c 7c34 923c 696c 0bbe
000000e0: d61d e03c fd52 983d b8f8 92bc b525 6c3d
000000f0: 50c7 9ebc e8e7 603d 85e9 a03d 9f08 f13c
00000100: dd59 3fbd 3fcb 9fbd 2099 b8bd d6e1 423d
00000110: 8265 81bd 5b9c 823d 1711 d4bb 5bf1 62ba
00000120: c98c ba3d 84ff 5d3b d293 96bc 1281 e6bc
00000130: 5cdd 2abd bf79 8ebd 63bd aebc 586d cfbb
00000140: d0a5 323d 80ba b63d b95f 7ebd 3c36 e73c
00000150: debe 2b3d b5e9 663d 0919 0cbd 1d83 40bc
00000160: 42c8 1bbd 9ad9 7cbd c927 1b3d 1d4f b7bc
00000170: 4094 4abd 84f2 9dbd 0356 1dbd 483e c83d
0.004098793 0.0116639305 0.058712173 -0.035001595 -0.035550006 0.009655396 0.040805053 -0.05085769
-0.07702579 -0.012475894 -0.08520012 0.039687023 -0.009282616 -0.022965455 -0.009248935 -0.012464555
0.14104338 0.03760871 -0.014882165 -0.06183122 -0.033121675 0.0296612 -0.013618374 -0.0618031
0.087266624 0.084907904 -0.036828496 0.058159187 0.053868856 -0.027623223 -0.032747097 0.04753275
0.04147812 0.012988821 -0.04116548 0.015487131 0.042013887 0.043462377 0.049635194 -0.036476336
0.017094005 -0.042561717 -0.021685978 0.039027926 0.0740267 0.08444352 0.066254124 -0.03355745
-0.053997297 0.022223737 -0.01994448 -0.02675813 0.01602141 0.017941408 0.017847292 -0.13615574
0.027357977 0.07437704 -0.017940864 0.057653148 -0.019382149 0.054908663 0.0785704 0.029423056
-0.04671656 -0.07802438 -0.09013581 0.047578655 -0.06318189 0.06377479 -0.006471764 -0.00086571806
0.09108884 0.0033874223 -0.018381033 -0.028137717 -0.04171501 -0.06956815 -0.021330541 -0.0063301735
0.043615162 0.08922291 -0.062103007 0.028224103 0.041930072 0.056375224 -0.034203563 -0.01175001
-0.038032778 -0.06173096 0.03787974 -0.022376591 -0.04945779 -0.07712272 -0.038412105 0.09777504

model_4/gru_8/gru_cell/strided_slice_11 f4 [96]
00000000: 4327 77bc 198f 1fbd 0936 523d 5100 d9bc
00000010: d871 00bc 9ae5 573c 24c9 103d 2538 a6bc
00000020: 3ff4 7dbd 711b 81bc 0d77 cdbc fa33 083c
00000030: 425d 783c 8580 adbd 22e4 903b 8699 e23c
00000040: 5338 a73d dfcb 3c3d b35c d93b 54aa 35bd
00000050: 748a fd3b 8ca5 a33b d543 2dbc 58b0 02bd
00000060: 7aa2 ac3d 7f39 8c3d 2f33 2dbd 9584 6a3c
00000070: b8ea 09bc 7ac8 67bc 4088 203b 32e2 a1bb
00000080: 07c7 bbbb 788c b63c 16f2 053c 5ced 783c
00000090: da7f c13a 947c 8d3c 9f5a 2d3d 6ade 1fba
000000a0: 9335 053d 8e98 39bd 7cff 563b d982 08bd
000000b0: 63e6 093d 7bd0 683d c6f2 3f3d cc5a 853c
000000c0: 30a2 65bd 1a85 2d3d ce83 99bd 4828 45bd
000000d0: f17d 983c e61d 893c 8ff7 f73c f808 ecbd
000000e0: de6f ab3c 4447 0c3d aa03 d6bc d593 4c3d
000000f0: f0e0 0b3c 1458 023d 708e 863d 249c c33b
00000100: d91d d1bc 38a6 ddbc 50f9 44bd e26c da3c
00000110: 92e6 71bd 89db 9b3d a056 36bd 64de a3bc
00000120: 08c4 3abc 0221 6d3c 9a4e f7bb 89a5 68bc
00000130: 0619 5fbd c14f e4bb f059 74bc 9a50 9f3b
00000140: 3515 393d 9942 e73c 8bff 87bd a215 933c
00000150: bc00 093c 1205 9c3c c502 36bd a4cc fb3c
00000160: 21cd ab3c 32d1 cebc 8549 0c3d cae9 f4bc
00000170: eb4a 2abd 154f e1bc 1964 eabc 919f 4f3d
-0.015085044 -0.038954828 0.051321063 -0.026489409 -0.007839642 0.0131773 0.035348073 -0.020290444
-0.06200051 -0.015760155 -0.025081182 0.008313173 0.015158953 -0.08471779 0.004421727 0.027661096
0.0816504 0.046092864 0.006633365 -0.04435189 0.007737452 0.0049941 -0.010575254 -0.031906456
0.084294274 0.06846904 -0.04228514 0.014313837 -0.008417778 -0.014146918 0.0024495274 -0.0049402947
-0.005730513 0.022283778 0.008175394 0.01519331 0.0014762834 0.017271318 0.04232275 -0.0006098511
0.032521795 -0.045311503 0.003280609 -0.03332791 0.03366698 0.056839447 0.046862386 0.016278647
-0.056062877 0.042363264 -0.07495843 -0.04813412 0.018614741 0.01673789 0.030269412 -0.11525148
0.020927366 0.03424765 -0.026124794 0.04994567 0.008537516 0.03182228 0.065701365 0.005969541
-0.025526928 -0.027056798 -0.048089325 0.026663247 -0.05905778 0.076102324 -0.044516206 -0.020003505
-0.011399277 0.014473202 -0.007547212 -0.014199623 -0.054467224 -0.006967515 -0.014914021 0.0048619034
0.04518624 0.028229998 -0.06640538 0.017954651 0.0083619915 0.019045386 -0.044436235 0.030737229
0.020971837 -0.025246236 0.0342498 -0.029896636 -0.041575354 -0.02750353 -0.028612183 0.050689284

model_4/batch_normalization_19/batchnorm/sub f4 [48]
00000000: 3872 b1be 14b4 bd3e f891 d2bd bfce 0abe
00000010: 9786 173e b047 be3e f7f0 07bf b868 d1bc
00000020: a807 08bc c749 64be c7c1 eebe 3d24 c23d
00000030: 5ba9 c43e 704e 68bd b820 3f3d 10e3 57be
00000040: ae3d 2ebf a9d7 bfbe c8e2 adbb 73ca d23e
00000050: 5505 c83e 8c79 353f 4733 12bf 36f5 6abe
00000060: 463f 313d 6b0e 23bf 808f 6bbe 163e 183e
00000070: 6641 c3be 64e4 05be 9263 50bd 18de a3be
00000080: c1ec 393f 2171 13be ab86 503e 58aa efbe
00000090: b277 0fbf 6b2d 203f 8ed8 bfbd e928 aa3e
000000a0: 4ef2 f0be d438 c8bd 4e29 3b3e d61c ea3e
000000b0: fe05 6d3e a0e2 253e 267c e73e 6293 cebe
-0.34657454 0.3705145 -0.102817476 -0.1355543 0.14797436 0.37164068 -0.5310206 -0.02556263
-0.008302607 -0.22293769 -0.46632215 0.09479568 0.38410458 -0.05671543 0.046662062 -0.21082711
-0.68062866 -0.37469223 -0.0053065754 0.41170081 0.39066568 0.7088859 -0.57109493 -0.22945103
0.043273233 -0.63693875 -0.2300396 0.14867434 -0.38135833 -0.13075405 -0.050876208 -0.32005382
0.7262688 -0.14398624 0.20363872 -0.4680965 -0.56042016 0.625693 -0.093674764 0.33234337
-0.47059864 -0.09776464 0.18277475 0.45725125 0.23146817 0.16199732 0.45211905 -0.4034682

model_4/batch_normalization_19/batchnorm/mul f4 [48]
00000000: 4d76 2540 587b 1540 a57d 0a40 0432 1d40
00000010: d5a1 2740 3d72 4040 ba0a 1240 0399 1140
00000020: e895 1240 fc8d 0440 3c49 4a40 2aff 0840
00000030: aa56 0b40 da05 1c40 c28c 0140 7593 1440
00000040: a5e1 1040 15a7 0b40 ca2e 1740 c29e 0840
00000050: 6520 1440 51e6 3740 9e45 1040 df6b 1a40
00000060: f246 2240 e9ec 0c40 1840 0840 c714 1a40
00000070: e256 1a40 193b 0940 aa45 2040 ec82 0340
00000080: d696 1840 620d 1240 8ed5 1140 306d 0c40
00000090: 44a5 1440 a9d6 1b40 172b 3440 16fe 1040
000000a0: a8e4 fc3f 0a88 1640 0e96 3640 d395 0140
000000b0: b15a 1740 df6e 2b40 358f 1140 f92f 2440
2.5853455 2.3356533 2.1639187 2.4561777 2.6192524 3.0069726 2.2819047 2.274964
2.2903996 2.071166 3.1607199 2.140574 2.1771646 2.4378572 2.0242162 2.3215
2.2637722 2.1820729 2.3622308 2.1346898 2.3144772 2.8734324 2.254249 2.412834
2.5355802 2.2019598 2.128912 2.4075181 2.411553 2.144232 2.504252 2.0548658
2.3842063 2.2820668 2.2786593 2.1941643 2.322587 2.4349768 2.81513 2.2655082
1.975728 2.3520532 2.8529086 2.0247695 2.3649104 2.678642 2.2743657 2.565428

model_4/batch_normalization_18/batchnorm/sub f4 [96]
00000000: 3a45 f43c 6449 debd 88bb 03be 2d41 703f
00000010: ecd3 8fbe 15aa 78bd 3274 d43e 739f 44bf
00000020: c367 bc3f 63aa 3cbf 20fc dbbe 3535 1d3e
00000030: 9927 9f3f 7e0e 3b3f 6376 6f3f 3ea7 adbd
00000040: 7534 87be 80dd df3e 6a5c bdbe 797f e43f
00000050: 71ba 983f 83ab 713e c973 71be 3589 be3e
00000060: c6c8 023f c226 6bbd 6b09 f13e 54fd 04bf
00000070: b43b 67be bde6 ffbe cef8 c2be 6fbe 41be
00000080: 6895 aebd c014 593f 5349 32bf 94b4 4bbf
00000090: 01c1 65bf a024 ca3e b067 0a3f 79e5 813f
000000a0: e322 84be 548d 223e 500c a4be 747b 65bf
000000b0: 366e 7a3f e0ee 943e f9d6 11bf 076e cdbd
000000c0: eba3 b7be 8bca af3e eb84 4fbf b31b 393f
000000d0: dd1b 8b3c fe57 65bf 917b bdbe 2cf2 6ebd
000000e0: c6fc 453f f2b3 78bf 444a 8fbe a392 96bd
000000f0: 2c2a 33bf d4b0 40bc d570 653e f55c 04be
00000100: d4f5 57be ae14 413e 645b 663e 5b18 c9bf
00000110: c9d4 62bf aa4f ddbf f06c 81be 0b05 0c3f
00000120: a5ea e13e 8851 193d e261 6f3e 501e 41bf
00000130: 5a2a 08be 7187 0b3f 3ec7 58be e449 283e
00000140: 24ec 413f 0c0a d13e a919 17bf b3aa 503f
00000150: 9630 343e 274a 323e 021d ac3e b966 14bf
00000160: 131a a73f a3ac 8f3f 6d43 0a3f e22a 843e
00000170: 087d a63f 44ae bebe 2bde 4f3f 9209 043f
0.029818166 -0.10853842 -0.12864506 0.9384945 -0.2809137 -0.060709078 0.414949 -0.768058
1.4719166 -0.7369749 -0.42965794 0.15352328 1.2433959 0.7306899 0.9354002 -0.084791645
-0.2640721 0.4372368 -0.3698457 1.7851402 1.1931897 0.23600583 -0.23579325 0.37214056
0.51087606 -0.05741001 0.47077498 -0.5194905 -0.22581369 -0.49980727 -0.38080448 -0.18920301
-0.08524591 0.84797287 -0.69643134 -0.79572415 -0.89747626 0.39481068 0.54064465 1.0148154
-0.25807866 0.15874225 -0.32040644 -0.896415 0.9782442 0.29088497 -0.5696865 -0.10030752
-0.35867247 0.34334216 -0.8106219 0.7230789 0.01698106 -0.8958739 -0.37008336 -0.05833642
0.77338827 -0.97149575 -0.27986348 -0.073521875 -0.69986224 -0.011760909 0.22406323 -0.12926085
-0.2108987 0.18855545 0.224958 -1.5710558 -0.88605934 -1.7289937 -0.25278425 0.54695195
0.44124332 0.03743127 0.23377183 -0.7543688 -0.13297406 0.5450354 -0.21169755 0.16434437
0.75750947 0.40827978 -0.5902353 0.81510466 0.17596659 0.174111 0.3361588 -0.5796924
1.3054832 1.122456 0.54009134 0.25813967 1.3006907 -0.3724233 0.81198376 0.51577103

model_4/batch_normalization_18/batchnorm/mul f4 [96]
00000000: e1c6 d640 804d 7140 8713 9940 8686 4b40
00000010: 02de 1c41 3caa 7040 6d3c 7d40 8792 3041
00000020: c380 5140 0451 5b40 5608 5240 05d5 3d40
00000030: 3a3d a640 15fd 8440 861f 7540 6985 5440
00000040: 6b0b df40 8ebf 3c41 aa0e 7940 5b3d 4640
00000050: be67 6b40 4e69 3f40 4215 7040 31a1 6f40
00000060: 680f 3740 469b 8640 1192 4240 fa63 a440
00000070: c237 1d40 f9ac fb40 2a4e 2f40 a8bc e340
00000080: 3fde 5140 c546 3740 a3f3 9340 dc06 c540
00000090: 4ae3 3b40 f336 2340 b10c 6840 f32a 4440
000000a0: b655 2d40 cb07 3a40 2eee 9840 a8be f140
000000b0: 7455 1041 3fbf 3240 4b6b 6a40 888c bc40
000000c0: 6b18 0c40 882d 8940 e35c 7840 a88f 7040
000000d0: 9338 b540 ea8c 4a40 f4dd ab40 4d99 0b40
000000e0: 164d e840 896f 9a40 b66a 6940 92c4 6840
000000f0: 9219 5b40 692d 0741 25cc 9d40 909b b940
00000100: f72c 2240 57c4 6041 b0b3 a240 d7b0 7f41
00000110: 6e5d a740 45aa 3f40 7673 a440 afa4 ba40
00000120: d0d2 0a41 ad8f 9f40 09f3 a140 6324 1341
00000130: b201 cf40 e421 f040 ef83 9940 683b 2140
00000140: 04d4 4540 c997 a840 1960 6b40 efdb 9e40
00000150: ba52 4440 bed0 f940 4bf4 4e40 a26b f940
00000160: 986e de40 35b7 6f40 7d81 4a40 1ebc 9340
00000170: f779 2840 4de5 3040 9e5b 8440 7113 2541
6.711777 3.7703552 4.7836337 3.1800857 9.804201 3.7603903 3.956813 11.035773
3.273484 3.4268198 3.2817588 2.9661267 5.194974 4.155894 3.830049 3.3206427
6.970144 11.796766 3.89152 3.0974948 3.678207 2.9908023 3.7512975 3.7442133
2.8603153 4.2064543 3.0401652 5.137204 2.4565282 7.864865 2.7391458 7.1167793
3.2791898 2.8636944 4.623491 6.1570873 2.9357476 2.5502288 3.6257746 3.0651214
2.7083564 2.9067256 4.7790747 7.5545235 9.020863 2.7929227 3.6627986 5.8921547
2.1889904 4.286808 3.8806694 3.758768 5.663156 3.1648507 5.370844 2.1812317
7.25941 4.826115 3.647138 3.6369977 3.4234357 8.448586 4.93117 5.8002396
2.5339944 14.047935 5.0844345 15.980674 5.230155 2.9947674 5.1390944 5.832603
8.676468 4.9862885 5.0609174 9.196383 6.468957 7.504137 4.797355 2.5192509
3.0910654 5.2685285 3.6777403 4.9643474 3.0675492 7.806731 3.2336605 7.794389
6.951 3.745557 3.1641533 4.6167135 2.6324441 2.7639954 4.1361837 10.317246

model_4/dense_9/BiasAdd/ReadVariableOp f4 [26]
00000000: c6d0 c73d 64c2 ce3d ca3f 693c 15b6 6d3e
00000010: 7658 09bd 6f58 133e ba27 81bc ca2d 003e
00000020: cb2f 1a3e fa45 ffbe 7af1 01bf 719e fabe
00000030: abe5 06bf 7690 07bf 200c f4be 78cc f1be
00000040: edba f8be 549d f9be 9869 08bf d30c fdbe
00000050: 5f0b 01bf 4d2e f7be 77df f8be b96e ecbe
00000060: 18c8 02bf e36d febe
0.09756617 0.10095671 0.0142364 0.2321399 -0.03353163 0.14389203 -0.015766013 0.12517467
0.15057294 -0.49858075 -0.5075909 -0.48949006 -0.52694196 -0.52954805 -0.476655 -0.4722631
-0.48580113 -0.48752844 -0.53286123 -0.49423847 -0.50407976 -0.48277512 -0.4860799 -0.46178225
-0.5108657 -0.49693212

model_4/dense_8/BiasAdd/ReadVariableOp f4 [48]
00000000: 039d 9a3d 324b 073d 69c1 413e b686 1a3e
00000010: ca39 fd3d 5c22 983d eea5 e43d 1559 873e
00000020: ea8b 8dbc a23f 1a3e 8b0a fb3d 700b 063e
00000030: f109 d83d 7f93 613e 6a96 513d 50da b73d
00000040: 7a94 8a3b 4ddc f53d 7cf6 253d 1370 123e
00000050: 9d91 8e3e b90e 023e f8be be3b 8a69 963e
00000060: 1d16 073e 29f0 de3d 1e8d 0e3e 0025 c73d
00000070: c83d 753e c04b 753d 4681 923d c789 273e
00000080: 8c9d a73d cc62 3a3e 5014 7e3e 9bc1 4b3e
00000090: 4730 503e d4dc 813d 3107 6e3d 24c3 2b3c
000000a0: eb61 033e 0d28 5f3e d873 b73d 859e 7d3d
000000b0: 908b 3b3d 82c0 503d 7d0e d33c bfef 6a3d
0.07549479 0.033030696 0.18921436 0.1509045 0.12364538 0.074284285 0.11164461 0.26435152
-0.01727863 0.15063336 0.1225787 0.130903 0.10548771 0.22028922 0.051168837 0.08977187
0.0042291256 0.1200491 0.04051827 0.14300565 0.2784547 0.12700929 0.005821105 0.29377395
0.1319203 0.10885651 0.1392102 0.09723854 0.23949349 0.059886694 0.07153563 0.16361152
0.081843466 0.1820175 0.24812436 0.19898073 0.20330916 0.06340948 0.058112327 0.010483537
0.12830321 0.21792622 0.08957642 0.061918754 0.045787394 0.05096484 0.025763744 0.057357546

model_4/gru_8/gru_cell/MatMul f4 [96, 126]
00000000: 8687 f9b7 2794 a237 066b 7e38 93cb 16b7
00000010: 912f 8d39 e788 393a 795f b9b9 400a 483a
00000020: ae2f 8c3a b3b7 84b9 1433 903a 209f 6d3a
00000030: fb48 ceba ebe1 0d3a 875c 9b3a 75be 9bb9
00000040: 0cea b4b8 b870 a03a af2a 05ba 9800 7a39
00000050: b393 8d3a 7847 afb9 ae6d df39 8457 b23a
00000060: e1d9 32ba 3b2a c03a c1a7 643a 9997 23b9
00000070: 66b1 b5b9 91fe 873a e9e7 5e39 60d0 8d39
00000080: 2bc2 aa3a 2ed6 0539 9d68 073a 545e a43a
00000090: 9e50 b4b9 ad0a 2139 b447 533a 9a73 1739
000000a0: c89c 7b39 5bfb a13a f729 df38 510e efb9
000000b0: df13 9c3a e242 5339 7d9d 2339 84c2 b23a
000000c0: 8a2f 7e39 e7fc 49ba 2d33 503a 33d8 f938
000000d0: 9a84 e138 35c5 9c3a 1597 3e3a b700 3139
000000e0: 2a2f 013a ec70 6a3a 9a77 0539 e5c5 a83a
000000f0: e217 2b3a 7d77 dab8 70c6 fc39 7489 d638
00000100: c28c 12b8 3e92 1bb8 6da0 8b3a b7c8 29ba
00000110: b473 83b9 2c12 dc39 d116 56ba bbdb 1fb9
00000120: 64d3 523a b723 1cba 007f 59b8 65c0 9c3a
00000130: 5dcb f8ba d3c7 21b9 e8be 10b8 500f 8eba
00000140: c017 e6b9 fcbd ec37 8052 dcba cef7 02ba
00000150: e157 9439 1f07 7aba c670 2db9 b83b a739
00000160: 52a8 2dbb a7fa d7b9 0317 8239 aa0e e0b9
00000170: 1363 88b9 6913 e039 4e14 90ba 9544 8f3a
00000180: 2174 7539 b3b8 1eba a9ed 43ba 61bd a7b9
00000190: 77f9 bdb9 036a f639 d66c f7b7 77d0 a7b9
000001a0: 1464 2d39 27fc b6b9 ba01 aeba 5d22 b4b9
000001b0: 8aab 14ba fee9 09bb ab2b 3cba ac12 80ba
000001c0: 5229 efba ea58 80b8 55f6 17ba b3ad 58ba
000001d0: 397a 08b8 3cde 21ba 9b0f f9ba 92f0 263a
000001e0: 0cdd 37ba 7a0e 09ba 975a 363a cf87 cfb9
000001f0: 9ae4 1cbb f432 3f39 09fc 9437 22eb 6339
00000200: b580 5a38 3456 0aba a58c 39ba eece 9a38
00000210: 9ceb 9fba bc71 f0ba dabc 61b9 d423 0cbb
00000220: 7af8 36bb 9409 fc39 9da8 daba ffd0 31bb
00000230: 72f2 2ab9 b0cd 8bba 594a 89ba f1bd 9fba
00000240: 22e1 1ebb 1a98 10bb a920 97ba e65e 9fba
00000250: 1355 d1ba 05d1 25ba cc26 c1ba 41dd 60ba
00000260: 4b6f f4b9 32db 5fba 58f2 ddba 85a0 90ba
00000270: fc9b 09bb a640 1abb 55ab 20ba dc93 31bb
00000280: f140 fbba a717 90ba 677b 0cbb 2e25 a4b8
00000290: 4a31 81ba 29af 13ba 8819 a6ba 5571 7cba
000002a0: 8484 55ba 8ecb 44bb 810c 3dba a394 a5ba
000002b0: d935 45bb 15e7 35ba a444 78ba b5f6 a9ba
000002c0: e8fd b2ba 4e32 23ba a46d 9aba b9c2 7cba
000002d0: 2e2a 2eba c921 29bb 057d a0ba c6ba 0739
000002e0: 50f3 cbba 22be 52ba e210 94ba 08d6 d6ba
000002f0: 1c53 44ba c7f4 04b9 4746 6ab8 0bf3 7c39
00000300: 954d 44ba d848 aa3a 5c13 953a cd89 47ba
00000310: afde 9a3a e52d b03a 8eb1 9fb8 fdec 833a
00000320: dda4 d93a 0033 a93a 77c8 9b3a f1a8 003b
00000330: f5a6 0b3a 84f8 b93a 9e07 0c3b 29ec 9a3a
00000340: 68f4 0a3b 5ed4 083b dc37 09b8 29ee 473b
00000350: 18cc ef3a 7430 07ba 4d94 493b 7ba4 413b
00000360: ee3e 8bb9 2599 a03a b8d7 073b f57c f73a
00000370: b554 1e3b 6626 f13a 5194 0f3a bcd9 173b
00000380: 6b70 df3a bfe2 96b9 ab73 4a3b 22ec fd3a
00000390: 8538 603a 9bb7 68b9 3864 4b3a a564 e93a
000003a0: c759 c83a 26e6 df3a 116b 953a 61a9 3f3b
000003b0: 586e 9b3a eed6 e6b8 d170 883a 0530 c13a
000003c0: fcc1 033b 0fe9 db39 5c42 9739 0547 163b
000003d0: dbd3 053b 3df7 3f3a f60f ae3a 4a6f fc39
000003e0: e6e0 863a d864 463a ca56 8f3a 8b07 e63a
000003f0: 9754 9e38 1e6d 0538 ff81 81b7 703a 9437
-2.9746221e-05 1.9380894e-05 6.0657992e-05 -8.988095e-06 0.00026929055 0.000707759 -0.00035357082 0.0007630922
0.0010695362 -0.00025313869 0.0011001551 0.0009064544 -0.0015738303 0.00054123875 0.0011853137 -0.00029705805
-8.6266635e-05 0.0012240624 -0.0005079908 0.00023842079 0.0010801464 -0.0003343185 0.00042615592 0.0013606404
-0.00068226276 0.0014661023 0.0008722507 -0.00015601366 -0.00034655182 0.0010375549 0.00021257963 0.00027048867
0.0013027837 0.00012763657 0.000516543 0.0012540319 -0.0003439234 0.00015358134 0.0008059696 0.00014443547
0.00023995631 0.0012358235 0.00010641285 -0.000455963 0.0011907778 0.00020147444 0.0001560356 0.0013638292
0.00024241037 -0.0007705227 0.0007942196 0.000119135155 0.00010753535 0.0011960628 0.0007270438 0.00016880302
0.00049279875 0.0008943218 0.00012728423 0.001287636 0.0006526691 -0.000104173065 0.00048213033 0.00010229918
-3.4940203e-05 -3.709108e-05 0.0010652669 -0.0006476747 -0.00025072473 0.0004197521 -0.0008166852 -0.00015245278
0.0008042364 -0.00059562497 -5.185511e-05 0.0011959194 -0.0018981505 -0.00015428597 -3.451007e-05 -0.0010838304
-0.00043886714 2.822186e-05 -0.0016809255 -0.0004996032 0.00028294235 -0.0009537804 -0.00016540577 0.00031897216
-0.0026498032 -0.00041194746 0.00024812677 -0.00042735535 -0.00026013757 0.0004273907 -0.0010992379 0.0010930473
0.00023408282 -0.0006054744 -0.0007474074 -0.0003199382 -0.00036234755 0.0004699976 -2.9495375e-05 -0.0003200804
0.00016535848 -0.00034901613 -0.0013275661 -0.00034357878 -0.0005671313 -0.0021044011 -0.0007178138 -0.000977119
-0.0018246567 -6.120077e-05 -0.0005796899 -0.00082656293 -3.2538755e-05 -0.0006174778 -0.0019001843 0.0006368245
-0.00070138345 -0.00052282924 0.0006956248 -0.00039583302 -0.0023939968 0.00018234161 1.7760338e-05 0.00021736001
5.2095118e-05 -0.00052771275 -0.00070781476 7.381836e-05 -0.0012200954 -0.0018344442 -0.00021528025 -0.002138366
-0.00279191 0.00048072322 -0.0016682331 -0.0027132628 -0.00016302781 -0.0010666158 -0.0010474428 -0.0012187344
-0.0024243076 -0.0022063316 -0.0011530119 -0.0012159019 -0.0015970789 -0.0006325397 -0.0014736294 -0.0008577891
-0.00046622226 -0.00085394375 -0.0016933186 -0.0011034167 -0.0020997515 -0.0023537069 -0.0006129046 -0.0027096188
-0.0019169134 -0.0010993377 -0.0021435858 -7.827055e-05 -0.0009856608 -0.0005633706 -0.0012672404 -0.0009629925
-0.00081450515 -0.0030028555 -0.0007211641 -0.0012632798 -0.003009191 -0.0006939036 -0.00094706775 -0.0012967201
-0.0013655992 -0.00062254525 -0.0011781943 -0.0009642053 -0.00066438585 -0.002580749 -0.001224429 0.00012944182
-0.0015560184 -0.0008039196 -0.0011296535 -0.001639069 -0.0007489191 -0.00012679688 -5.58554e-05 0.00024123133
-0.0007488367 0.001299168 0.0011373567 -0.00076117815 0.0011815632 0.0013441412 -7.614783e-05 0.0010065135
0.0016604919 0.0012908876 0.0011885305 0.0019631947 0.0005327308 0.0014188443 0.0021366845 0.0011819649
0.0021202806 0.0020878534 -3.271537e-05 0.0030506945 0.0018295078 -0.00051570614 0.003075856 0.00295475
-0.00026559032 0.0012252672 0.0020727944 0.0018881845 0.0024159376 0.0018398284 0.0005477118 0.0023170551
0.0017047053 -0.00028779168 0.0030891697 0.0019372741 0.0008553344 -0.00022193643 0.0007758769 0.0017806484
0.0015285545 0.0017082139 0.0011399706 0.0029245245 0.0011858447 -0.000110072884 0.0010409598 0.0014739042
0.0020104637 0.00041944577 0.00028850406 0.0022930515 0.0020420465 0.0007322913 0.0013279903 0.00048148102
0.0010290414 0.00075681275 0.0010935899 0.0017549855 7.549783e-05 3.1811294e-05 -1.5438533e-05 1.7670187e-05
