app/src/main/assets/models/survival.tflite (tflite, 673196 bytes, 52 tensors)

model_4/batch_normalization_16/batchnorm/add_1;model_4/conv1d_8/Conv1D/Squeeze;model_4/batch_normalization_16/batchnorm/mul_1;model_4/conv1d_8/BiasAdd;model_4/conv1d_8/BiasAdd/ReadVariableOp;model_4/batch_normalization_16/batchnorm/mul;model_4/batch_normalization_16/batchnorm/sub;model_4/conv1d_8/Conv1D;model_4/conv1d_9/Conv1D f4 [96]
00000000: d3f7 b3be ecb8 89be 3612 653d 4079 a6be
00000010: 40f5 96bd 729a 54be e2ab 893e 595a 7ebf
00000020: c7b0 abbe ad0a 70be b25f 91bd da5e cabe
00000030: 5c31 f0bd 4e66 08bf e43b f9be 822c 9cbd
00000040: 47b6 19be 1272 ab3d 2e16 66be 0c1d 35bf
00000050: 8a73 2cbf 0c1e 623d 47c4 3cbe 4e0f c53e
00000060: b382 90be 47f9 3dbd f037 ebbe 0db0 38bd
00000070: fb51 0bbd 06a0 953e 5296 e7bd 25ba b0be
00000080: 063e 6ebe 2697 2a3d 1f96 45be 4bd1 2fbf
00000090: 5ecd 1cbf a001 613d e098 dc3c 6ecf cebe
000000a0: fff1 91be d79b 1bbf 671e 2cbf 803f 05bd
000000b0: 2558 833d 7e35 413e 63ac c6be a5ef 5fbf
000000c0: 9e54 c9be 18ab 4abe b230 0ebf 3941 41bf
000000d0: 927b 373e ddbe 96be aa41 23bf acc2 c4be
000000e0: 2e5f 18bf f0cb 0c3d 3b8d 80be ecfa 08be
000000f0: 7839 07bf 3034 773c 6119 db3e 4088 98bb
00000100: bac7 74bf 17ac 15bf 8ba5 c6be d8c5 19bf
00000110: 3443 57be 04c3 dbbd d120 bcbe 1fbf 3fbf
00000120: 872f 273e 1002 1e3c 4cb2 a6bd d5e1 e3bd
00000130: a5f3 04bf 0aff 33bf 933d 89be c68b 8dbe
00000140: 14e9 3ebf a4e8 a7be 8206 0fbf e19a 33be
00000150: 1092 1abf c45d aebe 2803 12bd 66b5 10bf
00000160: be6d 44bd b3df 06bf 3d2a d8be ee17 10bf
00000170: fc66 273e 7a97 1dbf a684 a0be 50f5 49be
-0.35150012 -0.26898897 0.05592557 -0.3251438 -0.073709965 -0.20762041 0.2688895 -0.9935661
-0.33533308 -0.23441572 -0.070983306 -0.3952549 -0.117281646 -0.53281105 -0.48678505 -0.07625677
-0.1501094 0.083713666 -0.22469398 -0.70747447 -0.673638 0.055204436 -0.18434249 0.3848824
-0.28224716 -0.046380308 -0.45941114 -0.04508977 -0.03401373 0.2922365 -0.11307968 -0.34517017
-0.23265848 0.041648053 -0.19295548 -0.6867873 -0.61250865 0.05493319 0.026928365 -0.4039263
-0.2850494 -0.6078467 -0.6723389 -0.03253126 0.064132966 0.18868062 -0.38803396 -0.87475044
-0.3932237 -0.1979183 -0.55543053 -0.75490147 0.17918232 -0.29442492 -0.6377207 -0.38429773
-0.5952023 0.034374177 -0.2510775 -0.13376969 -0.52822065 0.015088126 0.427928 -0.004654914
-0.9561726 -0.58465713 -0.38798174 -0.6006751 -0.2102173 -0.10730556 -0.36743787 -0.74901
0.16326724 0.009644046 -0.08139476 -0.111270584 -0.5193427 -0.70311034 -0.2680479 -0.276457
-0.745744 -0.32794678 -0.55869305 -0.1753955 -0.60379124 -0.34055912 -0.03564754 -0.5652679
-0.04795622 -0.5268509 -0.42219725 -0.56286514 0.16347879 -0.6155926 -0.31351203 -0.19722486

model_4/batch_normalization_17/batchnorm/add_1;model_4/conv1d_9/Conv1D/Squeeze;model_4/batch_normalization_17/batchnorm/mul_1;model_4/conv1d_9/BiasAdd;model_4/conv1d_9/BiasAdd/ReadVariableOp;model_4/batch_normalization_17/batchnorm/mul;model_4/batch_normalization_17/batchnorm/sub;model_4/conv1d_9/Conv1D f4 [96]
00000000: f0a5 00bf 278a 2bbf dfd6 1abf d6d5 30bf
00000010: 12aa bbbe c089 3ebf d057 61be 4c11 ecbe
00000020: 6cbb 0fbf 18f0 07bf bfd2 d2be 6755 0dbf
00000030: e05a a2be a4ad d7be d4ff cbbe d555 f6be
00000040: 272e 43bf 9248 d4be a2e9 1bbf 34fa 64be
00000050: b205 bbbe dab3 2abf 8d6b 0cbf 18a4 ffbe
00000060: e59e 0fbf c951 f5be cd24 fdbe 7a6a b9be
00000070: 0f7b bdbe 54a4 f8be 6e28 f2be 882a 2ebf
00000080: c61e 63bf ce19 0cbf 3e9a d3be e1db a2be
00000090: c0ad e9be b23f f1be f0bc c2be 4ddf 84be
000000a0: b671 dcbe 8cff 90be b2c8 14bf cb86 aabe
000000b0: da4c 25bf a49c 84be 42a7 01bf 2762 f7be
000000c0: b37a e9be 7498 2abf 33eb 21bf b68d 18bf
000000d0: 0110 07bf aaa0 b3be 6480 d5be e3df 33bf
000000e0: fc3f 81be dbe5 0b3e 7209 14bf 1da1 f5be
000000f0: f4e9 21bf b371 21bf c0c2 a7be 7b3e c9bd
00000100: 9ab8 dfbe 0c87 b9be f038 20bf 57da 05bf
00000110: 11c7 84be b09d 01bf a022 f4be 462b c8be
00000120: 334b 03bf e424 b5be 4ef5 10bf 72fe 14bf
00000130: 20a0 03bf d6a6 09bf f548 10be e3ab 00bf
00000140: 3794 37bf f5be 1bbf baa5 f4be bb26 f9be
00000150: c5a7 e3be 551d e3be 04ea 9bbe e230 09bf
00000160: 0d3d 16bf e55e c8be 723d ecbd 5238 0ebf
00000170: fe3f 72be 34c2 d8be d092 19bf 510b 00bf
-0.502532 -0.6700768 -0.6048412 -0.6907629 -0.3665319 -0.7442894 -0.22006154 -0.46106946
-0.5614536 -0.5310073 -0.41176412 -0.5520844 -0.31709957 -0.42124665 -0.3984362 -0.4811236
-0.762423 -0.41461617 -0.6090337 -0.2236107 -0.36527783 -0.6668068 -0.5485161 -0.4992988
-0.5610183 -0.4791396 -0.4944214 -0.36214048 -0.3700795 -0.48562872 -0.4729647 -0.6803365
-0.8871883 -0.54726875 -0.41328615 -0.3180838 -0.45640373 -0.47118908 -0.38034773 -0.25951615
-0.43055505 -0.28319967 -0.58118737 -0.33305964 -0.6457039 -0.25900757 -0.5064584 -0.48317072
-0.45601425 -0.66638875 -0.6324951 -0.59591234 -0.52758795 -0.35083514 -0.41699517 -0.702635
-0.2524413 0.13661902 -0.5782691 -0.47974482 -0.6324761 -0.63064116 -0.3276577 -0.0982637
-0.43695527 -0.36235845 -0.6258688 -0.52286285 -0.25933126 -0.5063124 -0.47682667 -0.39095515
-0.5128662 -0.35379708 -0.56624305 -0.5820075 -0.51416206 -0.53770196 -0.14090331 -0.5026228
-0.7171053 -0.6083825 -0.4778269 -0.48662362 -0.44463935 -0.44358316 -0.30451977 -0.53590214
-0.58686906 -0.391349 -0.11535157 -0.5555469 -0.23657224 -0.42335665 -0.59989643 -0.5001727

model_4/batch_normalization_16/batchnorm/mul_1;model_4/conv1d_8/Conv1D/Squeeze;model_4/conv1d_8/BiasAdd;model_4/conv1d_8/BiasAdd/ReadVariableOp;model_4/batch_normalization_16/batchnorm/mul;model_4/conv1d_8/Conv1D;model_4/conv1d_9/Conv1D f4 [96, 1, 3, 126]
00000000: aa7e 57bb aa6b 0cba 31ab 363b 9b74 993b
00000010: 2fe2 b13b 4e52 cb3a 2d3c a5ba e2c4 483c
00000020: 7991 5d3b e7da b1bb b87f 3e3c efca 5c3b
00000030: 6250 0abc 5f17 263c 2eba 8b3b a956 26bc
00000040: 8e77 54bc 62ab ae3b 7d89 78bc 25b7 93bc
00000050: 30de a83b 5942 89bc df9b e7bb ed45 d53b
00000060: 0ff2 8ebc 54b7 78bb 8a7c 0b3c 6bc6 23bc
00000070: 29b6 85bc 12c3 f93b fe16 51bc f701 b5bc
00000080: d51d 353c c367 97bc ec1b e2bc f733 623c
00000090: cdac c1bc 8550 2abd 6667 883c d5f6 05bc
000000a0: 7c77 cbbc 72e2 eb3b b422 b5bb 91d7 debc
000000b0: 187d 433c 235f edbb e50e f6bc dcb9 5d3c
000000c0: ed9a 1dbc 9b50 1dbd 34ef 6b3c 01d0 18bc
000000d0: 4ec8 fdbc 0ad3 103c af4b d4bb 03c5 04bd
000000e0: 4592 553c 7673 37bc 0fff 0dbd 16d9 633c
000000f0: 4b43 87bc acfa 31bd 942b 753c 2fa3 463a
00000100: 1978 d93a 726a 2a3a 465c 0fbc 5174 b93b
00000110: c968 3bba 69c5 9cbc 6353 0c3b 235f 4f3b
00000120: 3b9d dabc ae96 87bb caed b93b 22c2 fabc
00000130: 73a9 39bc 53b9 023c a841 95bc 66cb a9ba
00000140: b988 84bb fa74 8cbc 71fe 76bb bc3e 373a
00000150: 5d7d 81bc 8d49 38bb 2f2a 283b fc56 59bc
00000160: 3fa0 56bb 430e 623b 4a0e 6cbc 766c b1ba
00000170: 5981 92bb 8766 92bc a703 a5bb 806b 763b
00000180: 08f4 64bc feb0 95bc 12b6 9d3b be39 0abc
00000190: cef9 e3bc d9af 463b 0086 2bbc 25c4 1bb9
000001a0: 062f 8cbb 97b1 41bc 6756 a1bb 85d6 643b
000001b0: d8b1 b6bb 5995 9abc 930b ec39 8275 053a
000001c0: 006f f3bc de67 8bbb ff70 8cbb d9d4 533b
000001d0: f7e5 02bb 2b10 abbb 53bd 1b3b 5fec 073b
000001e0: 2eab d839 31dd 0fbc 9b8e e8ba 84b8 c33b
000001f0: cc24 95bc 6d84 a3bb a3ef 5cbb df8a 45ba
00000200: e69d 413b a562 b53b 8362 be3b 0b2f 873a
00000210: d573 64b9 672d 473c 4d45 303b 5d7e 83bb
00000220: 088b 323c 4e52 1e3b d474 d3bb 2d3b 083c
00000230: 6128 423b e013 25bc a442 70bc 971c 9a3b
00000240: 524e 6fbc f2cd a2bc d944 903b 6378 82bc
00000250: fc86 ebbb 3eee ba3b 94d0 88bc e9e7 35bb
00000260: 5d23 fd3b f088 32bc cb15 97bc d20d e43b
00000270: ff8f 50bc f3f7 c7bc 35b6 2d3c cfe3 97bc
00000280: 1864 f2bc d1d7 5a3c 10f0 c4bc 681a 34bd
00000290: 3558 813c 7d68 11bc 9f9d dabc 4f82 d63b
000002a0: 4709 aebb 53f8 edbc 474f 373c 1de6 efbb
000002b0: 616d 01bd ed5b 4c3c a7c2 28bc 8ab3 24bd
000002c0: 3f21 573c bca4 26bc ac3a 08bd 688d 043c
000002d0: 8dcc debb fd87 0ebd 5426 493c f99a 43bc
000002e0: d9f2 16bd 673c 533c 1ee2 90bc 8957 3cbd
000002f0: bc81 603c 7203 123a 0224 0d3a 0c6f 813a
00000300: 90c2 0bbc f4b3 bf3b cf64 2a3a 3af6 99bc
00000310: b57c 263b df42 b03b a073 dbbc 11cd 5fbb
00000320: bd0c 043c 05e8 ffbc b88d 2abc f438 303c
00000330: 3b36 8cbc 069d c139 6f92 25bb 8463 84bc
00000340: 64ec 84ba 369f 3c3b bc15 6fbc dd5e 0f3a
00000350: 6e99 9f3b 3e53 42bc 38ec d439 9923 be3b
00000360: 5a0f 60bc e001 183a 2684 56bb 0b49 8dbc
00000370: 1466 0cbb 0179 cd3b 0a46 50bc e6d9 7fbc
00000380: 7843 f63b 3f43 d9bb e7ae d0bc b73d bc3b
00000390: 968d 21bc 54c6 e13a 7ed9 2bbb 945c 37bc
000003a0: 76b5 10bb 9f4e bb3b e0a5 8ebb 991f 87bc
000003b0: dd7b 2e3b cae3 173b 3ccf e3bc a803 10bb
000003c0: 7bc6 91bb be57 a43b 0e00 feb9 e525 a6bb
000003d0: 52f5 9f3b 41dc 803b ec8f 8a3a 3739 d4bb
000003e0: f2bf 9e39 9355 e63b d023 85bc 60b1 54bb
000003f0: 38e1 4cbb efbe 9db9 0e27 463b 1747 a53b
-0.0032881894 -0.00053566194 0.0027873034 0.00468309 0.0054285745 0.00155122 -0.0012606435 0.012253972
0.0033808632 -0.0054277065 0.01162713 0.0033690294 -0.008442016 0.010137408 0.0042641377 -0.010152497
-0.012967957 0.005330489 -0.0151694985 -0.018031666 0.00515344 -0.01675527 -0.007068142 0.00650858
-0.017449407 -0.003795107 0.008513579 -0.009996037 -0.016322212 0.007622131 -0.012761829 -0.022095663
0.011054476 -0.018482095 -0.027601205 0.013806335 -0.023641968 -0.041580696 0.016650867 -0.008176525
-0.024837248 0.0071986252 -0.0055278186 -0.0272024 0.01193168 -0.007244007 -0.0300364 0.013533082
-0.009619457 -0.03840695 0.014400292 -0.009326936 -0.030979302 0.008839378 -0.0064787487 -0.032414448
0.013035362 -0.011196962 -0.03466707 0.013906738 -0.01651158 -0.04345195 0.014964003 0.0007577417
0.0016591578 0.0006500847 -0.008750027 0.005659618 -0.0007149098 -0.019137101 0.0021412007 0.00316424
-0.026686301 -0.0041378355 0.0056740986 -0.030610148 -0.011331904 0.007978755 -0.018219784 -0.0012954294
-0.004044619 -0.017145623 -0.003768828 0.0006990244 -0.015806848 -0.0028120012 0.002565991 -0.013265368
-0.0032749323 0.0034493364 -0.014407704 -0.0013536352 -0.004470986 -0.017871154 -0.005035836 0.0037600696
-0.013974197 -0.018272873 0.0048129642 -0.008436618 -0.027829077 0.0030317216 -0.01046896 -0.00014855021
-0.0042780666 -0.011822126 -0.00492363 0.0034917903 -0.0055754 -0.018870043 0.0004502205 0.00050910574
-0.029716015 -0.0042543253 -0.004285931 0.0032322912 -0.0019973496 -0.005220433 0.002376397 0.0020740253
0.0004132627 -0.0087807635 -0.0017742695 0.0059729237 -0.018206023 -0.0049901516 -0.003371217 -0.0007535647
0.0029543578 0.005535441 0.0058100834 0.0010313703 -0.00021786925 0.012156821 0.0026896775 -0.0040128664
0.010897405 0.0024157944 -0.006453136 0.00831489 0.0029626118 -0.010075539 -0.014664326 0.004703115
-0.014606075 -0.019873593 0.0044027385 -0.015926545 -0.0071877223 0.00570467 -0.01670102 -0.0027756637
0.007725163 -0.010896906 -0.018443009 0.0069596553 -0.012729644 -0.024410224 0.010602524 -0.018541245
-0.029588744 0.013357119 -0.024040252 -0.043970495 0.01578913 -0.00887501 -0.026686488 0.0065462957
-0.0053111645 -0.029049074 0.011188335 -0.007321133 -0.031598452 0.012473089 -0.010300315 -0.040210284
0.013130485 -0.010171112 -0.03325908 0.0080903545 -0.0067992867 -0.034797657 0.012277205 -0.011938804
-0.03685269 0.012892819 -0.017685946 -0.045981918 0.013702806 0.00055699714 0.0005384089 0.0009875013
-0.008530274 0.0058503095 0.0006500007 -0.018794168 0.002540392 0.0053790654 -0.026788533 -0.0034149329
0.008059678 -0.031238565 -0.010409765 0.010755766 -0.017115703 0.0003692882 -0.0025264283 -0.016160734
-0.0010141251 0.002878142 -0.014592584 0.0005469153 0.004870585 -0.011860667 0.00040611788 0.0058025834
-0.013675535 0.0005798619 -0.0032732575 -0.017246744 -0.0021423148 0.0062705283 -0.012712011 -0.015615916
0.007515367 -0.006630331 -0.025474025 0.0057446617 -0.009860417 0.0017225244 -0.0026222165 -0.011191506
-0.0022080815 0.0057161595 -0.00435327 -0.01649456 0.0026624121 0.0023176544 -0.027808778 -0.0021974836
-0.0044487095 0.0050153425 -0.00048446696 -0.0050704353 0.0048815394 0.0039325063 0.0010571457 -0.006476547
0.0003027912 0.007029244 -0.016252428 -0.0032454357 -0.003126217 -0.0003008763 0.003023568 0.005043875

model_4/batch_normalization_17/batchnorm/mul_1;model_4/conv1d_9/Conv1D/Squeeze;model_4/conv1d_9/BiasAdd;model_4/conv1d_9/BiasAdd/ReadVariableOp;model_4/batch_normalization_17/batchnorm/mul;model_4/conv1d_9/Conv1D f4 [96, 1, 3, 96]
00000000: 6e49 31bc d7c6 733c 110e 1c3b 4d1d 8c3c
00000010: f9e1 0c3c cedb 343c 9889 7e3b db85 183c
00000020: f608 523c 49f5 61bc aa67 763c 0fdc efbb
00000030: 4100 52bb dfaf de3c e26c 203b 4240 07bc
00000040: 936e 143c 67cb 383d 4236 20bc eedc 01bc
00000050: 90c4 06bd ab0e 13bc e2e6 89bb 25ab 553d
00000060: cf7b efba 47d7 b1bc 9f47 203c a541 02bc
00000070: 273f ac3c 7e39 963c 3e02 0c3d 7642 cb3c
00000080: 766d 743c ec98 913b 9353 a5bc 8258 d93b
00000090: dd7f bcba e77e e6bb 7f6d dc3c 544b 1e3a
000000a0: 632b 1fbc f347 c7bc 5704 2b3c a23c 89bc
000000b0: d299 873c 9e2b 013d 700e 613b 3198 87bc
000000c0: 87a2 acbb 9c30 38bb 7873 ccbc 7206 13bc
000000d0: a1c6 2a3c d4e1 a03c a33a 19bc decf 12ba
000000e0: 1abb 263c 163b 49bc 20ba 1b3b 94f8 08bd
000000f0: ad14 82bc 1af3 f43b 6892 8b3d e6b5 453d
00000100: 70ac c3bb 6775 c2bc 50cb 423b 3150 fc3c
00000110: f1ad dfbb 55c5 e33c 00eb b13b 9f14 82bc
00000120: 9c52 2b3d 3fed 823c 8c04 59bb 4f26 953d
00000130: f46f 32bc 1bc4 2bbd b1db d8bb 0a18 b13c
00000140: d10b 2b3c 28cb 8dbb 5317 edbc ff67 843c
00000150: d519 22bc a789 013d b57a 2a3c 6723 16bb
00000160: 7748 cfba 400a 8d3c 4c78 6abc 2e6a 983b
00000170: 5684 103c f802 b8bc b5f5 213d 0bdc 003d
00000180: bd73 39bc 68b7 743c 0f41 4f3b 422b 993c
00000190: 449c 0c3c 0cc1 2b3c 8af8 ad3b 831e 263c
000001a0: af63 623c 5df7 6cbc 8a7f 7e3c 6188 f9bb
000001b0: 8257 beba 4c7a d23c 3b69 1d3b 9d3d 18bc
000001c0: 9fe5 103c e9a4 3a3d 7ea1 2bbc 2f78 06bc
000001d0: 5115 06bd 5d44 15bc 9db5 b3bb 4372 5f3d
000001e0: fb04 0bbb 0e00 aabc 5aa9 383c 60cc 14bc
000001f0: dccd aa3c 8c92 ac3c 4ea8 103d c431 d33c
00000200: f78d 663c f9ec 8a3b eacf a9bc f956 f73b
00000210: 02f0 bbba 7d98 b7bb c4bd ed3c e80c 0b3b
00000220: cd1c 26bc 44bd cdbc 0220 4a3c 720f 79bc
00000230: 2946 893c 218d 053d cad5 513b 5527 86bc
00000240: 715a c6bb 8543 73ba 45fc d4bc 2d65 09bc
00000250: 8430 253c bf0b a43c d0a8 21bc 9c5e 1bba
00000260: 124d 3c3c e86c 58bc ec6e bb3a 0e1b 0fbd
00000270: f452 88bc c955 ec3b 47e1 903d 903e 4c3d
00000280: a2e9 c0bb 69c4 cabc 04b8 3d3b 8527 053d
00000290: 7604 e5bb 27fd f53c d653 ab3b 7abb 89bc
000002a0: 17e2 2c3d 8c85 873c d134 f1ba 0ef3 963d
000002b0: 395d 47bc 3f3f 27bd 64bd e6bb 4a4e b83c
000002c0: 814d 2b3c 2649 93bb a744 eebc d4a1 803c
000002d0: 9903 11bc d254 083d 5b56 353c 8cce 49bb
000002e0: 0ff1 18ba 8f5c 933c a009 6abc 5d5b af3b
000002f0: ab7f 053c 16c2 c8bc 7ae8 243d 4ccb 063d
00000300: ab68 32bc 1a4c 7d3c 44a8 6e39 6329 9d3c
00000310: 14c4 223c 3d6c 363c 0172 273b de1c 2d3c
00000320: 8618 463c cb9a 67bc 186d 7f3c 96e3 f3bb
00000330: 0605 17bb f6cc d63c e196 5f3b bd6a 1cbc
00000340: 62a0 153c d69a 363d 423b 27bc bc40 09bc
00000350: e6b7 febc 54a3 12bc 8e11 adbb 8efb 5a3d
00000360: 6f9e 0abb 69ed a4bc 3435 233c 8480 1abc
00000370: e898 ab3c 4ee6 8e3c 1b77 0b3d c6ef c43c
00000380: 28d8 723c 5d37 903b 0b54 a7bc 2684 d73b
00000390: 88a3 9eba 7b60 d7bb 47a3 f43c eb45 313a
000003a0: 6941 45bc c335 c9bc 2e96 433c 03ed 8bbc
000003b0: c670 7b3c 5abe f83c 1326 6b3b 1dc1 8cbc
000003c0: 93a8 c0bb ec4c efba 3921 dbbc ca49 d9bb
000003d0: d5c6 2e3c 4a24 9f3c e54c 27bc a93c a538
000003e0: 1f5d 4b3c 8ed4 42bc cd27 b93a b271 10bd
000003f0: 2b89 83bc db55 d43b 9f16 8e3d e4f7 443d
-0.01082073 0.01487895 0.0023812095 0.017103815 0.008598798 0.011038734 0.0038839336 0.009309257
0.012819519 -0.013791391 0.015039364 -0.007319934 -0.0032043608 0.027183471 0.0024478962 -0.008255066
0.009059566 0.045115855 -0.009778561 -0.007926209 -0.0329023 -0.008975665 -0.0042084316 0.05216517
-0.0018271151 -0.021709098 0.009782701 -0.007950221 0.021026207 0.018337961 0.034181826 0.024811964
0.014918676 0.0044432785 -0.020181453 0.0066328654 -0.0014381368 -0.007034171 0.02690768 0.00060384464
-0.009714934 -0.0243263 0.010438046 -0.016752545 0.01655284 0.031535737 0.003434088 -0.016552063
-0.005268398 -0.0028105145 -0.024957404 -0.008973705 0.010423333 0.019638933 -0.009352359 -0.00056004326
0.010176444 -0.012282154 0.0023762062 -0.033440188 -0.015879 0.007475269 0.06815034 0.048269175
-0.005971484 -0.023737622 0.0029723234 0.030799957 -0.0068261554 0.027804056 0.0054296255 -0.015878974
0.04182683 0.015982268 -0.0033114282 0.072826974 -0.0108909495 -0.041935068 -0.006617986 0.021617908
0.010439829 -0.0043271966 -0.028941786 0.01616287 -0.009893854 0.031625416 0.010405232 -0.0022909285
-0.0015814443 0.017216802 -0.014310908 0.0046513295 0.008820614 -0.022462353 0.039540965 0.03145985
-0.011319098 0.014936306 0.0031624471 0.018697385 0.0085821785 0.010483038 0.005309169 0.0101391105
0.013817712 -0.014463273 0.015533337 -0.0076151346 -0.0014521929 0.025693081 0.002401902 -0.0092920335
0.008843808 0.045567427 -0.010475514 -0.008207365 -0.032735173 -0.009110537 -0.0054842965 0.054552328
-0.0021212685 -0.02075198 0.011270845 -0.00908193 0.020850115 0.021065973 0.035316758 0.025780566
0.014071933 0.004239675 -0.020729024 0.0075482097 -0.0014338496 -0.005602895 0.029021151 0.002121741
-0.010138703 -0.025114663 0.012336733 -0.015201436 0.016757088 0.032605294 0.0032018297 -0.016376177
-0.006053262 -0.00092797755 -0.025999198 -0.008385939 0.010082368 0.020025132 -0.009866908 -0.00059268787
0.011492984 -0.013209559 0.0014300025 -0.03493791 -0.016641118 0.007212375 0.07074218 0.04986435
-0.005887226 -0.024751859 0.0028948793 0.032508392 -0.006989057 0.030027939 0.0052285 -0.016813029
0.042207804 0.016543172 -0.0018402581 0.07370578 -0.012168222 -0.0408318 -0.00704162 0.022498269
0.01045549 -0.004494804 -0.02908547 0.015702166 -0.008850955 0.033284016 0.011067952 -0.0030793278
-0.00058342604 0.017988471 -0.014284521 0.0053514675 0.008148114 -0.02450661 0.04026077 0.032908723
-0.010889213 0.015460039 0.00022760133 0.019184774 0.009934444 0.011134204 0.002555013 0.0105659645
0.012090808 -0.014136027 0.015589975 -0.007442902 -0.0023043766 0.02622078 0.003411703 -0.009546933
0.0091324765 0.044581257 -0.010206999 -0.00837725 -0.031093549 -0.008950073 -0.0052816337 0.053462557
-0.0021151563 -0.020132737 0.009961415 -0.009430055 0.020946935 0.017443802 0.034049135 0.024040114
0.0148220435 0.004401131 -0.020425817 0.0065770326 -0.001210318 -0.0065727807 0.029863013 0.0006762433
-0.012039521 -0.024561768 0.011937661 -0.01708079 0.0153467115 0.030364204 0.0035880848 -0.017181927
-0.0058794706 -0.0018257177 -0.02674924 -0.006631111 0.010667522 0.019426484 -0.010211204 7.879112e-05
0.0124123385 -0.011891497 0.0014126241 -0.03526468 -0.016056618 0.0064799613 0.069379084 0.04808797

model_4/gru_9/gru_cell/strided_slice_4 f4 [48]
00000000: 6bb0 f5bd 89eb 133d ecd2 34bd 8735 81bd
00000010: 763a a43d b233 223e 9467 0cbe 9ba5 ebbd
00000020: e8cc 18be 033a 8fbd a16d 2d3d 1ddf 0bbe
00000030: 2c05 39bd 0a00 023c c933 39be ba3d c8bd
00000040: fb67 a4bd 455b 28be 3de9 fcbd b609 05be
00000050: 0231 60be ba13 5ebd 3660 39bd 717a 5dbe
00000060: f229 7bbd 8261 33bd d3d4 07be 556a 67be
00000070: 1f8f 16be 4cd5 18be e89f 7d3c 9e86 65bd
00000080: 0fe4 bcbc dfee f0bd e04b dbbd 9c8d a3bd
00000090: fcf1 d43d bd1c fbbd 11bb 1dbe aa8a dabc
000000a0: 575d 09be 3f08 dfbd 7acf 6ebe 764f e3bd
000000b0: 55ed 22be b2a9 efbc 3abe 9cbd 0d0d 74bd
-0.1199654 0.036113296 -0.044146463 -0.06309038 0.08018963 0.15840033 -0.13711387 -0.11506196
-0.14921916 -0.06993487 0.04234088 -0.1365933 -0.045170948 0.00793458 -0.1808616 -0.097773984
-0.08027645 -0.16441067 -0.12349174 -0.12991986 -0.21893695 -0.05421803 -0.04525777 -0.21628739
-0.0613193 -0.043794163 -0.1326478 -0.22599156 -0.14703034 -0.14925116 0.015480019 -0.056036584
-0.023057966 -0.11764311 -0.107078314 -0.07985994 0.10397717 -0.12261341 -0.15403391 -0.026677448
-0.13414513 -0.10890245 -0.23321334 -0.1109914 -0.15910847 -0.029255722 -0.0765347 -0.05958276

model_4/gru_9/gru_cell/strided_slice_3 f4 [48]
00000000: 879d ecbc 4beb 633e c1ad 303d 951d 66bd
00000010: b96a 853e a329 a93e 03fd 073e 46d3 e1bb
00000020: de3a 5a3e 074d 53bd 85b9 a43e 9a67 fd3c
00000030: 8316 273e 5044 953e 50b5 353d 0e66 0f3e
00000040: 1796 b6bd ac8b 40bd 150d e53d 0bd3 3fbe
00000050: afff 473e b991 b13d 7f0e 493e 7852 1d3d
00000060: 6554 503e dc22 913d 52e9 133d 8d4c c73d
00000070: 0d8d 4dbe 974b 813d 6c93 36be e570 6aba
00000080: 6625 96be 0ad3 013e a6f6 f63d 3158 653e
00000090: 6d27 3d3e e8ba 253e bdbd ae3e 892d ab3e
000000a0: e83f 8f3d e01c 233e cef5 453e ee75 6cbe
000000b0: c8e7 cebc f726 bd3e f88c 803d bbb5 70bd
-0.028883709 0.22257726 0.043134455 -0.056180555 0.26057985 0.3303958 0.1328011 -0.006891641
0.21311519 -0.05158713 0.3217279 0.03093319 0.16317181 0.2915368 0.044362366 0.14003775
-0.08915346 -0.0470082 0.11184136 -0.1873285 0.1953113 0.086703725 0.19634436 0.038408726
0.20344694 0.07086727 0.036111183 0.09731398 -0.20073338 0.06313246 -0.17829674 -0.0008943214
-0.29325408 0.12678161 0.12058763 0.22396924 0.18472071 0.1618458 0.34129134 0.33433178
0.06994611 0.15928984 0.19332048 -0.23091862 -0.025257006 0.3694379 0.06276888 -0.05876706

model_4/gru_9/gru_cell/strided_slice_5 f4 [48]
00000000: e1a0 8abd dd37 bfbc 321f 1b3d be17 e0bd
00000010: db00 bf3d 5f69 793c 9221 633e e5eb 313e
00000020: dac3 d43d 7472 73be fff8 583c 4cde 49be
00000030: ee97 373d f5c4 f4bc 2e33 0abe cdff 573c
00000040: b819 5fbd a3ab b63c 2f72 de3c 990f 6cbd
00000050: 8d73 463d bf54 03be 6807 9ebc 0da1 1c3d
00000060: e10e 0a3a 4b74 cd3d ffb6 9abd ed37 5a3d
00000070: c3ef 3cbe cedf 113d 32af c73d 0125 65bd
00000080: 43df bd3d e0cd 75be 726e 27bd 5f9d 413d
00000090: aaab 4abd f9f0 89bd 4ffd 32be 40ef cabd
000000a0: 24c1 3ebd b539 243e b940 1dbe 33b1 193d
000000b0: 99da 223d f2e8 173e b667 1c3d ecd9 23be
-0.067689665 -0.023342067 0.037871547 -0.109420285 0.09326335 0.015222876 0.22180775 0.17375143
0.10388918 -0.23774129 0.013242959 -0.19713706 0.044822626 -0.029879073 -0.13496086 0.013183546
-0.054467887 0.02229864 0.027154056 -0.057632063 0.04845004 -0.12825297 -0.019290641 0.038239527
0.00052664994 0.10031947 -0.07554435 0.05327599 -0.18450837 0.035613827 0.09750213 -0.055943493
0.092710994 -0.24004316 -0.040876813 0.04726922 -0.049480118 -0.06735415 -0.17479442 -0.099089146
-0.046570912 0.16037638 -0.15356721 0.037522506 0.039759252 0.14834955 0.038184844 -0.160011

model_4/gru_9/gru_cell/strided_slice_11 f4 [48]
00000000: 75a5 923c 4c75 b1bd a420 9f3b 4f3f 13be
00000010: d865 bc3d 524a 09bd ea96 833d cc98 d93d
00000020: 28c2 213c 1409 23be e9bf 4bbd 61a6 14be
00000030: d32d 04bd 419f 87bd ae1d 82bc d12d 973d
00000040: 6aa3 08bd 6a84 a03d 47c8 ab3d 6877 963c
00000050: f05a 6f3a 8cd4 f2bd 3c62 f33c 24a7 a43d
00000060: bb45 593c b6eb 2b3d 18ec 49bd 2afa db3d
00000070: a753 e0bd ba4e 1cbd 7d29 023e 5de9 86bd
00000080: 8f62 003e b58d 8dbd 757d 823b f82f 93bc
00000090: e7fc d03b 3caa 89bd 16ac ddbd 7320 a5bd
000000a0: 7257 39bd dd25 503e 599d e6bc 8af9 b43d
000000b0: fe2f 803d d78a 983d c6ba 8d3d d993 cdbd
0.017901162 -0.08664951 0.004856186 -0.14379619 0.09199113 -0.033518143 0.06425269 0.10624847
0.009872951 -0.15921432 -0.049743567 -0.14516594 -0.032270264 -0.06622172 -0.015883293 0.07381786
-0.03335897 0.07837756 0.08387809 0.018367484 0.0009130677 -0.11856946 0.029709928 0.08039692
0.013261254 0.04197284 -0.049297422 0.107410744 -0.109534554 -0.038161017 0.12711139 -0.06587479
0.12537597 -0.06911794 0.003982241 -0.01796721 0.0063778046 -0.06721923 -0.108238384 -0.0806283
-0.04524941 0.20326944 -0.028151201 0.08836658 0.06259154 0.074483566 0.0692039 -0.10037965

model_4/gru_8/gru_cell/strided_slice_4 f4 [96]
00000000: 19f2 b7bd 3787 f23c 3da5 cabd 5f93 613e
00000010: c093 313c 1eee 473d 9cf1 17be f29c 623c
00000020: 0a89 823b 5b64 97bd 1fa2 333c 3cf2 81bd
00000030: 269e 31bd 546d cdbd 1086 973e 33c7 09bd
00000040: 1a15 efbd 0668 88bd 818c 953c af5a 72be
00000050: a516 b53d 08ed 6d3d 076d eabd 23de b3bc
00000060: ecba 603c 7e8f e43c 3bad 353d 4fce d6bd
00000070: ac74 d9bd da42 d9bd f245 ac3d 894d 45be
00000080: 448e 063d 1a24 4ebe 9b49 5cbe 12a2 e6bb
00000090: 76ca abba bb53 a43d 4aeb 17be 68c0 0abe
000000a0: f931 04bd afa0 2bbe eaf8 eabd 7225 2b3d
000000b0: 2598 1e3e a531 63be 700d 4ebe 9e90 e5bd
000000c0: 6de4 b4bd c777 213c 9e9d c1bc d5db 023d
000000d0: 61e4 1d3e 43c7 99bd cab6 e23d d68f 04be
000000e0: f9d5 f2bb 5202 33bd 3817 8cbd f764 7ebd
000000f0: bf02 29be 615c 6e3d 815f c8bd 3890 3c3d
00000100: 51bc d43c 0ab2 153e a5cc 113d 1e9f 253b
00000110: 1181 2a3c 027c c2bd bf10 01be 2a85 a2be
00000120: 7d13 e9bd 2226 36bd bd46 3abd 866b fdbd
00000130: 6d07 853d f38b 8dbd 332c 953d 9a75 f0bd
00000140: 408e a93c 1849 e9bd a395 63bd a0e3 c4bb
00000150: d2ce c4bd f185 66be 1beb 04be d6de 093d
00000160: 4808 1dbd 8ddd 37be e893 a3bd d34d 44bd
00000170: 3de6 a83d 5364 983d 89a7 2fbe 7a59 5fbd
-0.08981723 0.029605491 -0.09894798 0.22028874 0.010838449 0.04881107 -0.1483826 0.013831364
0.0039836215 -0.07392188 0.010963946 -0.06345031 -0.043363713 -0.10030618 0.2959447 -0.033637237
-0.11673947 -0.06660466 0.018255474 -0.23667406 0.0884221 0.05808738 -0.114465766 -0.021956509
0.013716441 0.027900454 0.04435466 -0.10488569 -0.106179565 -0.10608454 0.084117785 -0.19267859
0.03285052 -0.20130959 -0.21512453 -0.0070383633 -0.0013106603 0.08023783 -0.1483585 -0.1354996
-0.03227422 -0.16760515 -0.11473258 0.041783758 0.15487726 -0.22186907 -0.20122313 -0.11209224
-0.08832631 0.009855217 -0.023634728 0.03194793 0.15419151 -0.07508709 0.110700205 -0.12945494
-0.0074107614 -0.043703385 -0.06840366 -0.062108006 -0.16504954 0.05819357 -0.09783841 0.046035975
0.025968703 0.14618698 0.035595555 0.0025271843 0.010406748 -0.09496309 -0.12604044 -0.3174222
-0.1138067 -0.04446996 -0.045477618 -0.12374024 0.06495557 -0.06911459 0.07283821 -0.11741181
0.020697713 -0.11390895 -0.055562627 -0.0060085803 -0.0960976 -0.22512032 -0.1298031 0.03365978
-0.038337976 -0.17955609 -0.07987195 -0.04792578 0.082470395 0.0744101 -0.17153753 -0.05452869

model_4/gru_8/gru_cell/strided_slice_3 f4 [96]
00000000: 9859 cbbe 1320 f23e 7e73 b6bd c250 2e3e
00000010: af19 04be e216 de3e 2497 07bf 228e 143f
00000020: e8fa 94be 3312 c83e e098 9f3e 359a c63d
00000030: a37c 5f3e 7252 213e 3e1b 413e c8c1 3bbf
00000040: 410a 043e 10b0 223e e1ea 453e 9b9f 8dbe
00000050: 73ba a43e f529 8a3e 5f90 023d a20d eabd
00000060: edeb 843e 25dc 713d 96a6 f53e 0e06 093e
00000070: 7e7d 77be 117b 9dbd 68fa c93d 4ba1 7fbd
00000080: 3698 c43e 9d5a 643d 3710 fbbe d8d3 2a3d
00000090: 2ee7 74be ea46 05be e3e7 1abd 4e8c 363e
000000a0: 2d14 a23e 2b23 48be b455 3ebd df29 233e
000000b0: caef ce3d c6df 62be fc21 cb3e 1823 2fbd
000000c0: 0e09 103e 0e48 dabd a482 ad3e ac61 563e
000000d0: 8d8f 713e 7dbe 4e3b a459 febd a4ee 563d
000000e0: 5fcf ed3d a5ad febd 7736 1bbe 29c7 e3be
000000f0: dae1 75be 8f3f ac3e 2b73 993d 69cd 4a3e
00000100: 9e15 ed3d 227e af3c f607 d9be b831 603e
00000110: 058b 863e a95e 8c3e ef89 54be 7d4c 32be
00000120: 5c33 0dbd 123c 3fbd 98e3 883e f638 2cbe
00000130: 1296 663e de23 173e 168f da3e 87bd 8dbd
00000140: 40f0 b63d ba0b fd3d 51c6 8d3e 31d1 d9be
00000150: 5f85 863d afed dcbd 593f 3dbd d338 4a3e
00000160: 87b4 6a3d e358 3dbe 9a9a 3e3d c6d7 bf3d
00000170: 8879 04be 43c0 823e 76b2 17be 0c91 0ebe
-0.39716792 0.47290096 -0.08908747 0.17022994 -0.12900423 0.43376833 -0.52965 0.5802938
-0.29097676 0.39076385 0.31171322 0.096973814 0.21824889 0.15754107 0.18858048 -0.7334256
0.12894537 0.15887475 0.1932788 -0.27660832 0.321735 0.26985136 0.031875964 -0.114283815
0.25961247 0.059047837 0.47978657 0.13381216 -0.24168965 -0.07689489 0.09862214 -0.06240968
0.38397378 0.055750478 -0.49035808 0.041705936 -0.23916313 -0.13015333 -0.0378188 0.1782696
0.31656018 -0.19544666 -0.04646845 0.15933941 0.1010433 -0.22155675 0.39674366 -0.042758077
0.14065954 -0.106582746 0.33888733 0.20935696 0.23589917 0.0031546645 -0.12419441 0.05247368
0.116118185 -0.12435464 -0.15157495 -0.44487885 -0.24011937 0.3364224 0.0749267 0.1980492
0.11576389 0.02142245 -0.42388886 0.21893966 0.26277938 0.2741597 -0.20755742 -0.1741199
-0.03447281 -0.046688147 0.2673614 -0.16818604 0.22518185 0.14759776 0.4268729 -0.06920915
0.08932543 0.12355752 0.27690366 -0.42542413 0.06568407 -0.10787522 -0.04620299 0.19748239
0.05730107 -0.18490939 0.04653416 0.093673274 -0.12936985 0.2553731 -0.14814171 -0.13922518

model_4/gru_8/gru_cell/strided_slice_5 f4 [96]
00000000: c8f2 803c b310 18be 552a 51bd 6e35 bcbd
00000010: 059f ee3d 15bc 1f3e 4706 0c3d 2bfc 413e
00000020: 7434 98ba da44 5b3d 308d d2bb 0838 033d
00000030: ef8f 333e aa7d b4bd ef8f 17bc 51bf e03d
00000040: b81e d53d e412 143d cfd7 f63c 0296 273d
00000050: ca6f d23a f50b babb 3f55 80bd 14c3 a43d
00000060: f2a1 4e3b bed5 16bc 10a6 9bbd a481 e73d
00000070: 5918 ddbd 43f0 96bc b21d 933c ed1c 46bd
00000080: a016 cf3c f607 aebc 1b82 4fbd 9062 14bc
00000090: faa0 afbb d3ca 0fbe e840 ba3a 96a9 293b
000000a0: 18af cbbd fbb8 853d 1386 323d 4881 b3bd
000000b0: 60d2 9fbd 5d07 53bc e2b8 753d 4607 bcbd
000000c0: e5b0 eb3b 505e 09bd ad59 f8bc 2045 9b3d
000000d0: 177f a93d f677 1d3d e8dd 2a3d 0a60 45bd
000000e0: 50d3 4f3d d66e 3cbd 73ad 52bd 61ed 883c
000000f0: 2be6 023d b3f9 9abd a4a4 8b3c d4bc 4f3d
00000100: a788 80bd ea86 97b9 3c91 d33d d6fd a13d
00000110: 45e8 82bd 3331 51bd bbcb 8b3d 6601 ba3d
00000120: cda3 863c 0dd9 293e 1256 b0bd 1a0d ecbd
00000130: a17f cabc 1c85 073e e26d 123d 5e37 b03d
00000140: fa68 9e3d 5ac6 7a3d bd84 253d 638b 2abe
00000150: 6eeb b8bb dd09 773c 1fed 82bc 8c96 d5bc
00000160: 59bc cf3d 1f7f 693d ae2c f23d 9066 8b3d
00000170: 6bba adbc d3e1 433d 5f94 f7bc 74bc 363d
0.015740767 -0.1485012 -0.05106576 -0.091898784 0.11651424 0.15599091 0.034185674 0.1894385
-0.0011612312 0.05353246 -0.0064255223 0.032035857 0.17535375 -0.08813031 -0.009250625 0.10973991
0.1040625 0.036150828 0.030132202 0.040914543 0.0016055044 -0.005677695 -0.062662594 0.08045021
0.0031529632 -0.009206234 -0.07600033 0.11304024 -0.107956596 -0.018425113 0.017958496 -0.04836743
0.025279343 -0.02124403 -0.050661188 -0.009056702 -0.005359766 -0.14042215 0.0014210017 0.0025888435
-0.09945506 0.06529423 0.043584894 -0.08764893 -0.07803798 -0.0128801735 0.05999077 -0.09181075
0.0071927183 -0.03353721 -0.030316198 0.07581544 0.082761936 0.03844448 0.041715533 -0.048187293
0.050738633 -0.04600414 -0.051434945 0.016714754 0.031957787 -0.075671576 0.01704628 0.05071719
-0.06276064 -0.00028901483 0.10330436 0.079097435 -0.06391958 -0.05107231 0.06825968 0.09082298
0.016435528 0.16586705 -0.086101666 -0.115259364 -0.024719061 0.13234371 0.035749324 0.086043105
0.077348664 0.06122432 0.040409792 -0.16654734 -0.0056433 0.015078035 -0.015982209 -0.026072763
0.10143346 0.057005998 0.11824928 0.068066716 -0.021207055 0.047822785 -0.030222116 0.044613317

model_4/gru_8/gru_cell/strided_slice_11 f4 [96]
00000000: 5fdf 8abc 215e 34be 9d2d 8dbd f517 5fbc
00000010: 80c3 e73d 9636 103e fe98 5d3c 6b45 203e
00000020: ac59 fb3c c5c8 a43d f4e6 cabb e337 3d3c
00000030: 52c5 4a3e 3de2 96bd d246 303c e2f1 053e
00000040: c92a e13c 5d51 0a3d b939 933d 4786 4d3d
00000050: d5e7 6abc e5d8 52bd a4cf 1dbe abf7 723d
00000060: ebff 413d 1dbd 12bd 0a01 53bb b074 10bb
00000070: c7fe 93bc 7585 22bd 6860 1f3d ead1 58bd
00000080: 804e c83c 0952 53bd bce6 a23d cd06 f83c
00000090: 54a8 023e 60d7 07be 0b86 86bd 7d2e b4bd
000000a0: 0b23 24bd 07b5 653c 3c88 7abd be7f c5bd
000000b0: c9e4 19be 94ea 393d b912 903d d658 05be
000000c0: 473a a9bc c6b4 233d 7f31 923c 4e77 663d
000000d0: 860c 883d 3524 433d e729 d33c 0fdc d7bd
000000e0: 289f 873d 8456 87bc 300d c5bd c40c 6d3d
000000f0: 12ae d4bb 9334 2a3c d5f6 b13a b6f1 33bd
00000100: 0d26 15bd 7147 87bc ccad b23d 9875 623d
00000110: 7523 ffbc 4a4f 4ebd 07dd 64bd 8a97 d73c
00000120: 9e2d 9cbc cebd bd3d de06 45bd b82c 80bd
00000130: 4b69 6b3c de2c ae3d bb60 a9bc 1dcd 953d
00000140: cb04 573d 5799 623d 1bbd e33c 07de dbbd
00000150: 91ba a53c 8a1c 2ebc 0e84 fbbc a96f 023d
00000160: f590 d63d 6c9b 37bd 4496 023e 5700 593d
00000170: f9fb 33bd 8011 203d b839 b23d 5c3d f73d
-0.016952215 -0.17614032 -0.06893466 -0.013616552 0.113165855 0.14083323 0.013525246 0.15651481
0.030682407 0.08046106 -0.0061920825 0.011548969 0.19801834 -0.0736737 0.010759072 0.13080552
0.027486222 0.033769 0.07188744 0.050176885 -0.0143375 -0.051476378 -0.1541124 0.059318226
0.047363203 -0.035824884 -0.0032196664 -0.0022042207 -0.018065823 -0.039678056 0.0389103 -0.052934565
0.024451494 -0.051591907 0.07954165 0.03027668 0.12759525 -0.13265753 -0.065685354 -0.087979294
-0.040072482 0.014020211 -0.06116508 -0.096435055 -0.15028681 0.045389727 0.07034821 -0.1302217
-0.020657672 0.03996732 0.017845867 0.05626612 0.06643014 0.04764195 0.025776817 -0.1054002
0.066221535 -0.016520746 -0.09621656 0.057873502 -0.0064904774 0.010388511 0.001357759 -0.043931685
-0.03641324 -0.016513558 0.087245554 0.055287927 -0.031144837 -0.050368585 -0.05587485 0.026317377
-0.01906472 0.09264718 -0.048102252 -0.062585294 0.0143683655 0.085046515 -0.020676007 0.07314513
0.052494805 0.055322018 0.027800133 -0.10735708 0.020230563 -0.010626921 -0.030702617 0.03184477
0.10476867 -0.044825956 0.12752634 0.05297884 -0.04394147 0.03907919 0.08702415 0.1207225

model_4/batch_normalization_19/batchnorm/sub f4 [48]
00000000: 9a4a 373f b0ce 3c3f 0cd7 adbe 8012 1a3f
00000010: 59fc dfbe 002d 753e 685c 96bf 35bc 81bf
00000020: 948b 21bf 2880 ef3e 7c19 c73d 4afb ea3e
00000030: dd68 bc3d 2993 1e3e abbc 6b3f b89a 37bf
00000040: f484 a83e da2a 22bf aab8 17bf e982 bf3e
00000050: ecaf 6dbe bcc5 1e3f a5b7 ccbe 1c27 3abe
00000060: a0b5 b2be 9732 09bf 1161 aebe 3581 6ebe
00000070: d3fc 263f 5512 9e3e bbb6 92be 64cf 083e
00000080: fae7 91be f7fa e03e d2b2 b03d b972 84be
00000090: 3d03 dd3e 246b cb3c a1ca f23e 583b 3d3f
000000a0: d873 3dbe 04cf 90bf 5824 473f 3491 a9be
000000b0: e60d 18bf f391 5bbf 90df 42bf 1214 a23d
0.7159821 0.7375288 -0.3395313 0.6018448 -0.43747213 0.23942947 -1.174695 -1.0135561
-0.63103604 0.46777463 0.09721658 0.45894843 0.091996886 0.15485825 0.9208476 -0.7172046
0.32913935 -0.63346636 -0.5926615 0.37404564 -0.2321164 0.6202047 -0.3998386 -0.18178982
-0.34904194 -0.5359282 -0.3405843 -0.23291476 0.6522953 0.3087336 -0.28655037 0.13360363
-0.28497297 0.4394147 0.08627857 -0.25868776 0.43166533 0.024831362 0.4742022 0.73918676
-0.18501222 -1.1313176 0.7778983 -0.33118594 -0.5939621 -0.85769576 -0.7612238 0.07913984

model_4/batch_normalization_19/batchnorm/mul f4 [48]
00000000: 9767 5040 2228 5540 8448 4940 e233 6b40
00000010: 275c 4e40 d409 6840 7f06 8840 0521 6d40
00000020: 3043 7140 f79e 6a40 630f 8240 ff92 4a40
00000030: 5ea5 5f40 eb37 7a40 cc61 6c40 539e 5640
00000040: d764 4d40 cb07 8540 132c 8640 7e61 7b40
00000050: d05d 8140 351c 5940 41ba 6d40 7984 5f40
00000060: 0c26 8540 4470 8440 8c96 4840 6be7 7640
00000070: 1913 5e40 1d00 5940 9f34 3a40 7f5d 6d40
00000080: 0e07 4540 67a6 7740 6a5d 8e40 8b9d 6c40
00000090: 9e4e 6940 57c5 6140 a0c6 7140 1ee6 8140
000000a0: 7f62 4a40 17bf 7240 7809 6e40 18d3 7140
000000b0: bf00 6040 dda9 8640 eace 5640 d900 5040
3.2563226 3.3305745 3.145051 3.6750417 3.2243745 3.6255999 4.250793 3.7051404
3.7697258 3.6659524 4.0643783 3.165222 3.4944682 3.909663 3.693469 3.3534133
3.2092798 4.1572013 4.19288 3.9278255 4.0427017 3.3923466 3.714493 3.4924605
4.1608944 4.1387043 3.1341887 3.8578746 3.4699156 3.390632 2.9094617 3.7088315
3.0785556 3.8695314 4.448903 3.6971157 3.6454234 3.5276697 3.777748 4.0593405
3.1622617 3.7929132 3.719328 3.7785091 3.5000455 4.2082353 3.356379 3.2500517

model_4/batch_normalization_18/batchnorm/sub f4 [96]
00000000: b6da 8cbe 2bc4 0e40 7ee8 c0be 6e9f 33be
00000010: e175 993d 3185 c1bd 2755 b0be 10ed cebf
00000020: 498f 32bf 6ebc 2abf c514 41bf ed5e 1d3e
00000030: 838e 24bf be01 85be 1187 2e3f daf3 933e
00000040: 7220 783e 5f20 4abf 7ea5 abbe 829d 263f
00000050: f428 073e 319a 6dbf 2baa 2b3f d664 25be
00000060: ac5d a03e a619 7e3e 7b69 af3f c8e9 93be
00000070: 0c99 683c eee7 4d3f fca3 e0be 3654 29bf
00000080: d9fa b8bf d4b1 cfbe a643 f1bd 7497 ec3d
00000090: 1891 a43e c3f5 a8be ccb8 813e 0651 c4bf
000000a0: 4235 4e3f 9561 ec3e 049a d5be d117 8abe
000000b0: 80d8 2b3f 6ca5 33be c542 e7bd 5bbe a9be
000000c0: 4015 42bf 847f 6fbe e643 c03e 8be0 1d3f
000000d0: 1b42 f03e 98f3 c33e 1e89 8bbe 5f61 12bf
000000e0: c6f0 e13d 7fdb 21bf 9a7d cabd 6afb b73e
000000f0: 4e01 7ebf d50f c93f 5f37 79be 754c 8fbf
00000100: 4378 3fbf 3094 053f b82e 2a3f a136 c2bf
00000110: 9a2a 60bf 007b 673b 889b ab3d 52c2 9ebd
00000120: f3b6 bfbe c2f8 b8bd 1838 983f fece 34be
00000130: 089b aa3e dce1 a5be 9921 ce3e fd34 d1be
00000140: 35b8 e83e d04d 873e 2e82 3b3e 58c9 b9bc
00000150: a51f cd3e db4b 50bd b20f 8ebd b548 e9be
00000160: 9697 033c 1693 983d 8ab6 7bbd da57 133e
00000170: 4a7a fa3d ba59 22bf 3eee c53e 4296 023f
-0.27510613 2.2307231 -0.37677377 -0.17541286 0.07493187 -0.09449232 -0.34439966 -1.6166096
-0.69749886 -0.6669377 -0.75422317 0.15368243 -0.64279956 -0.25977892 0.68174845 0.2889698
0.24231127 -0.78955644 -0.33524698 0.6508409 0.13199216 -0.928134 0.6705653 -0.16151747
0.31321466 0.24814472 1.3704065 -0.28889298 0.0141966455 0.8043202 -0.4387511 -0.6614412
-1.4451553 -0.4056536 -0.11780481 0.11552325 0.32141948 -0.33 0.253363 -1.5337226
0.80550015 0.461682 -0.41719067 -0.26971295 0.6712723 -0.17543572 -0.11292032 -0.33153042
-0.75813675 -0.23388487 0.37551802 0.6167075 0.46925434 0.38271785 -0.2725305 -0.57179826
0.11032252 -0.6322555 -0.09887238 0.35934 -0.9922074 1.5707957 -0.24337529 -1.1195208
-0.7479288 0.5217924 0.6647754 -1.5172921 -0.87565005 0.0035321116 0.083792746 -0.077519074
-0.37444267 -0.09031822 1.1892118 -0.17657086 0.33321404 -0.3239888 0.40260008 -0.4086074
0.4545304 0.26426554 0.18311378 -0.022679016 0.40063205 -0.05085359 -0.069365874 -0.45563284
0.008031746 0.074499294 -0.06145338 0.14388981 0.12230356 -0.6341816 0.38658327 0.51010525

model_4/batch_normalization_18/batchnorm/mul f4 [96]
00000000: 3322 ec40 0c0d b940 ee7d 2641 ae51 da3f
00000010: af61 3140 dc27 0140 2d36 0441 78d1 d840
00000020: 0a98 cd40 7dfc 2740 e38e 3e40 150c 3f40
00000030: 85a2 9f40 7f86 6240 cbc2 2f40 b693 9a40
00000040: 2927 ed40 db29 9840 1f06 1540 0d98 9140
00000050: d275 e53f 7285 5a40 e2d4 3941 1c4b 5640
00000060: cf96 4240 2e0d 7840 1823 5440 e23f 5141
00000070: f497 1241 95f7 9040 2069 1140 2b23 0e41
00000080: 331f 4d40 2ac6 a640 a193 0141 77ec 8440
00000090: ec88 5640 c373 c63f 34a6 d240 c41a 0b41
000000a0: 5ed0 3f40 7f45 2441 0198 b440 b908 5140
000000b0: f527 1a40 3d55 ec40 fad0 8240 aeb3 bc40
000000c0: 79fa 3440 274b 6840 ad8f bc3f e50e 1240
000000d0: 075a 2e40 13d8 ca40 bbf9 9a40 2546 8640
000000e0: 3d45 4040 671c 1e40 be16 1141 8971 6540
000000f0: 37f9 ec40 346f b140 40a1 f840 afb4 9140
00000100: edfe 3840 7fda 4640 55d1 8b40 7619 9140
00000110: 563a ab40 4163 5840 39b4 ef40 f588 6640
00000120: 9262 5d40 0e11 9f40 d458 a440 c2ff 0641
00000130: 4d3d 0f40 8177 6040 1500 ff3f 9d37 2641
00000140: 1b06 1c40 c27c 4e40 787a 0b40 fed5 b740
00000150: 9631 cd40 b8d1 b041 4005 5540 6c95 4b40
00000160: 15d8 1c40 595f 4841 ba40 4740 3ecc 4b40
00000170: c7a4 2440 b2c3 4b40 a31f d040 be09 a540
7.3791747 5.7828426 10.405745 1.7056177 2.7715871 2.0180578 8.2632265 6.77557
6.4248095 2.6247857 2.977471 2.9851124 4.988589 3.539459 2.7462642 4.830531
7.4110303 4.7551093 2.3284986 4.549811 1.7926581 3.4143949 11.614473 3.3483343
3.0404546 3.8758044 3.314642 13.078096 9.162098 4.5302224 2.2720413 8.883586
3.2050292 5.21169 8.098542 4.1538653 3.352107 1.5504078 6.5827885 8.694035
2.9970927 10.266967 5.643555 3.2661574 2.4086888 7.385405 4.08801 5.8969336
2.8277876 3.629587 1.4731346 2.282159 2.7242448 6.3388762 4.8429847 4.1960626
3.004226 2.4704835 9.068052 3.5850546 7.4054217 5.5448246 7.769684 4.553306
2.8905594 3.107086 4.369303 4.534358 5.350871 3.381058 7.49075 3.6021092
3.4591413 4.970832 5.1358433 8.437441 2.2381165 3.507294 1.99219 10.388577
2.4378726 3.2263646 2.17935 5.744872 6.412303 22.102402 3.3284454 3.180995
2.4506886 12.523278 3.1133256 3.184341 2.5725572 3.1838193 6.503862 5.157439

model_4/dense_9/BiasAdd/ReadVariableOp f4 [26]
00000000: 70cb 89bd a1f0 5fbe 3578 df3d 4473 b3be
00000010: 1cfd cabe cd94 8f3d 2bad 823e 47c2 68bd
00000020: 2911 a4be e63a f9bd 52d6 0b3e 3afc 363e
00000030: 8da0 cfbc eda7 9e3e 8591 143d a533 5a3d
00000040: c8f4 833e 1dbc 3e3e bc95 ad3d b130 14bd
00000050: 1aa7 a63d 7c71 cabf d6c8 c4bf 7f01 cebf
00000060: bfc5 cfbf ec58 c4bf
-0.06728256 -0.21869136 0.109115995 -0.35048878 -0.39646232 0.07010803 0.25522742 -0.056825902
-0.32044342 -0.12169437 0.13655975 0.17869654 -0.025345111 0.30987492 0.03627159 0.05327191
0.2577269 0.18626447 0.08475825 -0.03617925 0.08137341 -1.5815883 -1.537379 -1.6094207
-1.6232222 -1.5339637

model_4/dense_8/BiasAdd/ReadVariableOp f4 [48]
00000000: e8d5 7a3d 8ea0 ae3d 1971 ca3d 7379 fd3d
00000010: 5e46 88bd 0fe4 81bc c412 593e 5175 563e
00000020: f561 ba3d 6df2 8e3c 4572 6f3d 38f1 903d
00000030: c1fe 253e c5ca 8f3e 0795 683e 3c6d 583d
00000040: 22e4 833e 5e34 a13d d85c e9bc 46e3 b33d
00000050: 1925 e13d 7341 4c3e 5939 833d 3720 863d
00000060: 0682 d1bb 2cc9 0f3e eb60 e23d 6963 263e
00000070: b874 4f3e 5eee 4d3d 096e 033e 079f 483e
00000080: 2676 c93d 0603 a83d 382b 823e c45f 2e3e
00000090: 25e8 3b3e b3b8 073e 6739 7b3e 540d 1c3e
000000a0: b88a c43d f23f 3f3e 39b4 4a3e 8461 733e
000000b0: 5f34 063e b4bc 1c3e 77b4 7b3e 856d 633e
0.061239153 0.08526717 0.09884853 0.1237668 -0.066540465 -0.015855817 0.21198565 0.2094319
0.09100715 0.017449582 0.058458585 0.07077259 0.16210462 0.28084388 0.227131 0.05283855
0.2575999 0.078713164 -0.028486654 0.08783583 0.10993404 0.19946842 0.064074226 0.06549113
-0.006393674 0.14041585 0.11053642 0.1624886 0.20259368 0.050276153 0.12834944 0.19591914
0.09836988 0.08203702 0.25423598 0.17028719 0.18350275 0.13254051 0.24533616 0.1523946
0.09596771 0.18676737 0.19795312 0.23767668 0.13105915 0.1530636 0.2458056 0.22209747

model_4/gru_8/gru_cell/MatMul f4 [96, 126]
00000000: 7c61 c936 9e0e 33b9 f52f 84b9 f573 77ba
00000010: 77e6 72ba 9e7e 5a39 674c 20bb 002d 37ba
00000020: 0664 873a 86d4 2fbb 9729 f639 4654 113a
00000030: 0148 91bb 8bfd 8e39 2fba 2e3a 20b5 9938
00000040: ad6b acba 9d7e dbb8 2edc 90b9 1622 2aba
00000050: 02a1 043a b617 feba ad0a b739 2fea 80b9
00000060: a44c 18bb 9806 1e3b e180 543a 444a c539
00000070: 2a6e 3f3b a587 8b39 74ca a5ba 28e4 0b39
00000080: fe9f 6eb8 0c57 ddba 6ea4 c939 2447 ab3a
00000090: a07f 3dbb d1aa 8b3a 1054 a6b6 2013 47ba
000000a0: 6669 fe3a ada1 d8b8 44ec 80b9 bbbb c03a
000000b0: 2487 a33a ed46 a639 a4d5 333b 8fc9 2fba
000000c0: d101 f4ba 2d52 5a39 4486 a7ba 5731 df39
000000d0: fcfd b53a 9967 deb9 9cbb 893a 3644 b43a
000000e0: e3e2 c2b8 319a 42ba 089c c33a f0aa 33b9
000000f0: f591 ffba 2e9d 1a39 f17c 85ba 3b30 8fb9
00000100: c45f 50b9 649a cdb8 dd69 c5b9 80e1 8f3a
00000110: ad7c e5b9 bd0e 10ba 2ac1 343a 6606 87b9
00000120: f593 c6b7 5de5 333b 577a 08ba 5c18 cdb8
00000130: 5a6f 7e3b aaaa afb9 8f53 603a c36f 403b
00000140: c16d 23b9 22b5 e0b8 2211 893b 1778 3dba
00000150: b13a f23a e2d6 613b ad46 a4b9 8f5d 2a3a
00000160: 07cb 1c3b 8e0e b2b9 f14b 023a 952d f5b9
00000170: 376c 9ab9 12ee 183b 7325 183b ebfb cfba
00000180: a7b6 bd3a f159 403b 50f0 643a b88c 493b
00000190: 75c2 a73b c36d cbba 9ec5 7f3a f633 033b
000001a0: d061 2dbb 9733 c73a f3ab 2e3b 955a 17b8
000001b0: fb39 2a3b 5699 403b e638 6cba cff9 1a3b
000001c0: ac8b 753b 5c25 94ba aa8c e639 48d5 1c3b
000001d0: 0787 63ba 05f0 433b fb2f f53a 258e 8eba
000001e0: 785d 603b e2b1 4e3b 20f0 6aba 3871 133b
000001f0: dd95 873b 5bb1 c3b9 02f0 68b8 2e04 37b9
00000200: 52b5 94b9 374d 373b dd81 9d3b 0b07 d439
00000210: b9d3 363b 9813 b53b 4bab 053b facd 453b
00000220: da2d 7f3b 29f8 3d3b 44f4 383a 5a72 ff3a
00000230: 50a7 373b a031 ff3a efd3 9f3b bb2b 073a
00000240: 9425 033b 084c 623b 522b 9d3a 9cb8 833a
00000250: 66fb ec3b a260 393b 56ad 86ba 2307 483c
00000260: 8f82 293b ee24 703b ec6d df3b 3f0b 1c3b
00000270: 139b 563b 98ed b03b aca8 7f3b fece 003b
00000280: 6e4e 943a fb6c 9a3b e9df 163b c214 863a
00000290: 20ab 543b 6bc6 3b3b 018b a33a c552 433b
000002a0: 1f1b 9b3a ffd2 32bb 5d66 633b 64a3 14b9
000002b0: db52 aeba 13e4 353b 7ec2 b8ba ce58 963a
000002c0: 5bdf 1b3b 730e ab3a 107c 6c3b 8292 7e3b
000002d0: 4a99 ac3a 981c 4e38 67bc 903b 4f31 ef39
000002e0: 999d 7f39 d078 813b 0e0b 8eba d6ad 923a
000002f0: a37c 4f3b 3fc7 91b9 1c26 aab9 80af 22b8
00000300: 6570 3db9 9f8f 97bb 7a8d 6fba 3d5b e0b9
00000310: e939 e0bb c41a b4ba 02fc 423a b19a 09bc
00000320: ebb6 05ba dcac 1c3b bf4c 46bc 2943 abba
00000330: 4b53 d638 69ec 6fbb e1bc a6ba 63a3 c9ba
00000340: 677d b0bb 3fcc a2ba 7eca f6ba fd29 9cba
00000350: 78d7 1cbb 5268 91ba da36 9cba 9a89 63ba
00000360: 399c 10ba b249 33ba f0df f8ba daa8 0fb8
00000370: 8ea4 1cbb 9b9f a6ba 625d ce3a c61e 98bb
00000380: 6e0a 0abb beb9 8b3a 186b 57bb ac7b 3aba
00000390: ac12 36ba 6c1a cfb9 3bff b3ba a2b3 a2b8
000003a0: b224 aabb 9186 11bb 515b e238 2076 77bb
000003b0: 4aaf 3fbb 6c17 1a3a 44ba 35bb d8d4 0bbb
000003c0: 8534 1bba 6daa 1a3b 2526 95ba 5f72 53ba
000003d0: 8ab3 4fba 8af1 f6ba 32d5 0739 077d aab7
000003e0: 99ea e4ba cf24 a2b9 6f41 823a df0c 03ba
000003f0: a478 77b9 b962 b239 9908 98ba 79ee 01bb
6.0016155e-06 -0.00017076216 -0.00025212733 -0.0009439581 -0.00092659093 0.00020837269 -0.0024459602 -0.00069876015
0.0010329492 -0.0026829555 0.00046951763 0.0005543869 -0.0044336324 0.00027273255 0.0006665317 7.329346e-05
-0.0013154648 -0.00010466317 -0.00027629867 -0.00064900646 0.00050593924 -0.0019385729 0.00034912434 -0.00024588543
-0.002323904 0.0024112817 0.00081063627 0.000376301 0.002920995 0.0002661321 -0.0012648837 0.00013341068
-5.6892626e-05 -0.0016886904 0.00038460217 0.0013067466 -0.0028915182 0.0010655766 -4.9569717e-06 -0.00075940974
0.0019410073 -0.00010329797 -0.00024590094 0.0014704386 0.0012476188 0.0003171483 0.0027440572 -0.0006705755
-0.0018616264 0.00020820713 -0.0012781103 0.00042570636 0.0013884897 -0.00042420326 0.0010508182 0.0013753239
-9.292902e-05 -0.0007423489 0.001492382 -0.0001713445 -0.0019498455 0.00014745138 -0.001018433 -0.0002731102
-0.00019872101 -9.803919e-05 -0.00037653642 0.0010977238 -0.00043771174 -0.000549536 0.0006895239 -0.00025753974
-2.3672337e-05 0.0027449944 -0.00052062183 -9.779699e-05 0.0038823695 -0.00033505756 0.0008557373 0.002936349
-0.00015585778 -0.00010714891 0.0041829506 -0.00072276726 0.0018480626 0.0034460356 -0.00031333175 0.00064989267
0.0023924725 -0.0003396165 0.00049704226 -0.00046764003 -0.00029453795 0.002333526 0.002321568 -0.0015867924
0.001447399 0.0029350484 0.0008733319 0.003075404 0.0051196166 -0.0015520382 0.0009756925 0.0020019985
-0.0026456006 0.001519787 0.0026652783 -3.6085567e-05 0.00259745 0.002938827 -0.0009011164 0.0023647433
0.0037467284 -0.0011302638 0.0004397382 0.0023930836 -0.00086794834 0.0029897701 0.0018706316 -0.0010876103
0.00342354 0.0031539132 -0.0008962173 0.0022497904 0.004137738 -0.00037325438 -5.5536635e-05 -0.00017453797
-0.00028363854 0.0027969608 0.0048067407 0.00040441038 0.0027897193 0.0055260174 0.0020396288 0.0030182586
0.0038937242 0.0028987026 0.00070554414 0.0019489035 0.002802331 0.0019469745 0.0048775594 0.00051563577
0.0020011412 0.0034530181 0.001199106 0.0010049525 0.0072321175 0.0028286357 -0.0010275047 0.012208733
0.0025865173 0.0036643106 0.0068185236 0.0023810414 0.003274624 0.005399417 0.0039010448 0.0019654627
0.0011314878 0.0047126985 0.0023021644 0.0010229575 0.0032450631 0.0028652202 0.001247734 0.0029803973
0.0011833644 -0.0027286408 0.0034698464 -0.00014175248 -0.0013299839 0.002775435 -0.0014096049 0.0011470558
0.0023784253 0.0013050571 0.003608469 0.003884465 0.0013168242 4.9140857e-05 0.0044169906 0.0004562237
0.00024377405 0.0039511696 -0.0010837035 0.0011190723 0.0031659983 -0.00027805005 -0.0003245332 -3.8787257e-05
-0.00018066315 -0.0046252753 -0.0009138208 -0.00042792587 -0.006842841 -0.0013740887 0.0007438065 -0.008398698
-0.0005100804 0.0023906743 -0.012103259 -0.001306628 0.0001021983 -0.0036609417 -0.0012721085 -0.0015383776
-0.005386043 -0.0012420489 -0.0018828658 -0.0011914369 -0.002393214 -0.0011093712 -0.0011918203 -0.0008679867
-0.0005516443 -0.00068392896 -0.0018987637 -3.4251112e-05 -0.0023901793 -0.0012712361 0.0015744383 -0.0046423404
-0.0021063345 0.0010660214 -0.003287023 -0.00071137655 -0.00069455313 -0.00039501803 -0.0013732681 -7.758221e-05
-0.0051923627 -0.0022205452 0.00010793529 -0.0037759617 -0.0029248768 0.0005878124 -0.0027729431 -0.0021336582
-0.0005920607 0.0023600117 -0.0011379166 -0.0008066054 -0.0007923177 -0.0018840295 0.00012954025 -2.03238e-05
-0.0017464935 -0.00030926472 0.0009937714 -0.00049991714 -0.00023600698 0.0003402436 -0.0011599242 -0.0019825979
