app/src/main/assets/models/time.tflite (tflite, 673196 bytes, 52 tensors)

model_4/batch_normalization_16/batchnorm/add_1;model_4/conv1d_8/Conv1D/Squeeze;model_4/batch_normalization_16/batchnorm/mul_1;model_4/conv1d_8/BiasAdd;model_4/conv1d_8/BiasAdd/ReadVariableOp;model_4/batch_normalization_16/batchnorm/mul;model_4/batch_normalization_16/batchnorm/sub;model_4/conv1d_8/Conv1D;model_4/conv1d_9/Conv1D f4 [96]
0	0xbf53e5a4	-0.8277228
1	0xbf36198e	-0.71132743
2	0x3f28e977	0.6598124
3	0x3ef4ca81	0.47810748
4	0xbf69768f	-0.9119653
5	0x3ebc0148	0.36719728
6	0xbefcd0b7	-0.49377987
7	0xbec2b6e1	-0.3803015
8	0xbf3456e6	-0.70445096
9	0xbf2c8184	-0.67385125
10	0xbf11f281	-0.57010657
11	0xbe6e86fe	-0.23293683
12	0xbe56b094	-0.20965797
13	0xbe0fa950	-0.14029431
14	0xbe5458b5	-0.20736964
15	0x3f445b8f	0.7670221
16	0x3efbe81b	0.4920052
17	0xbeee5894	-0.46551955
18	0xbdaea9ea	-0.08528502
19	0xbf5a972a	-0.8538691
20	0xbf6074bf	-0.8767814
21	0xbef91c7d	-0.48654547
22	0x3d266f2a	0.040633358
23	0xbeef2c54	-0.46713507
24	0xbdf709e4	-0.12062433
25	0x3f408a83	0.7521135
26	0xbdac393c	-0.08409354
27	0x3f029230	0.51004314
28	0xbf2010fc	-0.62525916
29	0xbe87d949	-0.26532963
30	0xbf30bb1e	-0.6903552
31	0xbeca30d5	-0.3949038
32	0xbebff2ed	-0.37490025
33	0xbf250e4a	-0.6447493
34	0xbf254e4b	-0.6457259
35	0xbf5aaf68	-0.854239
36	0xbf239c99	-0.63910824
37	0xbe0db6de	-0.1383929
38	0x3eb1a543	0.34696397
39	0xbf6858a1	-0.90760237
40	0xbf3e7b21	-0.7440663
41	0xbe9d6b5b	-0.30745968
42	0x3d545abe	0.05184435
43	0xbf36f486	-0.71466863
44	0x3cdae92d	0.026722515
45	0xbe9292b2	-0.28627545
46	0xbf98be13	-1.1933006
47	0xbf097201	-0.5368958
48	0xbf681186	-0.9065174
49	0xbf042bb8	-0.5162921
50	0xbf2dc600	-0.6788025
51	0xbf159d59	-0.5844322
52	0xbf06a0c0	-0.52589035
53	0x3f50ea97	0.81607956
54	0xbe165688	-0.14681447
55	0xbf84b91d	-1.0368992
56	0x3ea92f94	0.33044112
57	0x3d3f7711	0.04674441
58	0xbdffcdb7	-0.12490409
59	0x3ee72716	0.45147008
60	0xbe503e3a	-0.20336238
61	0xbdb3cf5b	-0.08779784
62	0x3ddc507a	0.10757537
63	0xbf0c62b0	-0.54838085
64	0xbde050ab	-0.10952886
65	0xbee1797a	-0.44037992
66	0x3f290445	0.6602214
67	0xbf636666	-0.8882812
68	0x3e083d98	0.13304746
69	0xbee2fb96	-0.4433257
70	0xbe9a917b	-0.30189118
71	0xbf38bc6c	-0.7216251
72	0xbe9a9055	-0.30188242
73	0x3ba4039d	0.0050053135
74	0xbdc8ab3e	-0.09798287
75	0xbf0af2bb	-0.5427663
76	0xbdc1a19b	-0.09454652
77	0xbf903f75	-1.1269366
78	0x3eae054c	0.33988416
79	0x3ddb0ec6	0.10696177
80	0xbf1a81eb	-0.6035449
81	0x3ed1dea0	0.40990162
82	0xbeca0870	-0.39459562
83	0xbedd9a1e	-0.43281645
84	0x3d47b8d3	0.048760246
85	0xbe842393	-0.2580839
86	0xbf1638b9	-0.586803
87	0xbd6bd8f2	-0.057579942
88	0x3dc73e50	0.09728682
89	0xbec92046	-0.39282435
90	0x3ba9718c	0.0051710065
91	0xbe2bd7a5	-0.1678148
92	0xbf260dc5	-0.6486476
93	0xbcaf6b00	-0.021413326
94	0xbf5fe864	-0.87463975
95	0xbd6cd8e6	-0.057824038

model_4/batch_normalization_17/batchnorm/add_1;model_4/conv1d_9/Conv1D/Squeeze;model_4/batch_normalization_17/batchnorm/mul_1;model_4/conv1d_9/BiasAdd;model_4/conv1d_9/BiasAdd/ReadVariableOp;model_4/batch_normalization_17/batchnorm/mul;model_4/batch_normalization_17/batchnorm/sub;model_4/conv1d_9/Conv1D f4 [96]
0	0x3ec2c8fd	0.38043967
1	0x3ddd0ad1	0.10793079
2	0x3e44c2c8	0.19214928
3	0xbdce78ec	-0.10081658
4	0x3f9f534d	1.2447296
5	0x3f609d56	0.87740076
6	0x3d8ff86c	0.070298046
7	0x3f7d8f91	0.9904719
8	0xbf23a4f5	-0.6392358
9	0xbea12656	-0.3147456
10	0xbf3bd3aa	-0.7336985
11	0x3d888285	0.066655196
12	0xbe91e8fc	-0.28498065
13	0xbee5d6b0	-0.44890356
14	0x3ee8dd7c	0.4548148
15	0x3f669a27	0.9007897
16	0xbd3644aa	-0.044499077
17	0x3f757413	0.9588024
18	0xbf0bd9a6	-0.5462898
19	0xbe3ad87c	-0.18246645
20	0x3e211654	0.15731174
21	0x3f05a95c	0.52211547
22	0xbf1a2cba	-0.602245
23	0xbf067e74	-0.525367
24	0x3e41665a	0.188867
25	0x3f3e28a3	0.74280757
26	0xbeaee2a7	-0.34157297
27	0xbe91b586	-0.28458804
28	0xbd28542d	-0.0410959
29	0x3b8b22ba	0.004246083
30	0xbe43545c	-0.1907515
31	0xbe2f1f92	-0.17101887
32	0x3ef89446	0.48550624
33	0x3f46b603	0.7762148
34	0xbe40c070	-0.18823409
35	0x3e81ac51	0.2532678
36	0x3f373a8f	0.7157373
37	0x3ebaa8c9	0.36456898
38	0x3e7261cc	0.23670119
39	0x3d853d54	0.06505838
40	0x3f68e659	0.9097648
41	0x3d290575	0.04126497
42	0xbd93a9ec	-0.072101444
43	0x3d99baeb	0.07506355
44	0x3f77e2b0	0.9683027
45	0x3d846f92	0.06466593
46	0xbec61df9	-0.38694742
47	0x3e5e81ed	0.2172925
48	0x3e9d13ee	0.30679268
49	0xbef47c4f	-0.4775109
50	0xbf0848da	-0.5323616
51	0x3e06018d	0.13086529
52	0x3ec1e214	0.37867796
53	0xbe25f117	-0.1620525
54	0xbee6626e	-0.4499697
55	0x3ee63810	0.44964647
56	0x3e832057	0.2561061
57	0x3ebfdf84	0.37475216
58	0xbf5a4ac0	-0.8527031
59	0x3d31be64	0.04339446
60	0xbe851bb1	-0.2599769
61	0xbe1ca241	-0.1529627
62	0x3df7dea2	0.12103011
63	0x3ea0a7b3	0.31377944
64	0x3efde93a	0.49592
65	0x3f8a7936	1.0818241
66	0xbed1388d	-0.40863457
67	0x3eb06942	0.34455305
68	0xbf349a25	-0.70547706
69	0xbf15507f	-0.5832595
70	0x3ed235cd	0.41056672
71	0xbdbd8de4	-0.09255579
72	0xbc63672b	-0.013879578
73	0x3e603e82	0.21898845
74	0x3f03f501	0.5154572
75	0x3f7fbe7f	0.9990005
76	0x3f153730	0.58287334
77	0x3e3400fe	0.17578503
78	0x3ebd5bcd	0.369841
79	0x3f35d4fb	0.7102811
80	0x3f8316b7	1.0241307
81	0x3ed5fe23	0.41795453
82	0x3fd1af6a	1.6381657
83	0x3ebce746	0.36895198
84	0xbe56e681	-0.20986368
85	0x3f0137c8	0.5047574
86	0x3c8a1f94	0.01686076
87	0xbf031fb8	-0.51220274
88	0x3f18c5dc	0.5967691
89	0x3e90f56d	0.28312245
90	0xbea7a877	-0.32745716
91	0x3f11f5d2	0.5701572
92	0x3e42b5e0	0.19014692
93	0xbeebf4da	-0.46085244
94	0xbe758bdc	-0.23979133
95	0xbe949cf0	-0.29025984

model_4/batch_normalization_16/batchnorm/mul_1;model_4/conv1d_8/Conv1D/Squeeze;model_4/conv1d_8/BiasAdd;model_4/conv1d_8/BiasAdd/ReadVariableOp;model_4/batch_normalization_16/batchnorm/mul;model_4/conv1d_8/Conv1D;model_4/conv1d_9/Conv1D f4 [96, 1, 3, 126]
0	0x3a6e9ace	0.0009102047
1	0xb9838e8b	-0.0002509247
2	0x3a2d47b6	0.0006610112
3	0x3c884fe8	0.016639665
4	0xbb6cbd27	-0.0036123486
5	0xbb8fdcb7	-0.004390325
6	0x3c2b7f52	0.010467367
7	0xbcb3a420	-0.021928847
8	0xbbfd9a71	-0.007739358
9	0x3c1e1e8a	0.009650836
10	0xbd0a4c4a	-0.03376416
11	0xbc4c497a	-0.01246869
12	0x3c2adeb6	0.010429075
13	0xbd2ad053	-0.04170258
14	0xbc8f8660	-0.01752013
15	0x3bac3ac8	0.0052560307
16	0xbcfa0b47	-0.030522956
17	0xb937d3b8	-0.00017531111
18	0x3c989a56	0.01862828
19	0xbcff5fb6	-0.031173568
20	0xbc11d993	-0.008901971
21	0x3c77f462	0.015133949
22	0xbd1a52ad	-0.037676502
23	0xbc592be9	-0.013255098
24	0x3c162c66	0.009165859
25	0xbd47bc21	-0.048763398
26	0xbc810ba3	-0.01575262
27	0xbc0e0116	-0.008667251
28	0xbd49faa0	-0.04931128
29	0xbb6d66e5	-0.003622466
30	0x3a439b97	0.00074618444
31	0xbd386d26	-0.045025967
32	0xbc62c310	-0.013840452
33	0x3a31f9f9	0.0006789263
34	0xbd277368	-0.040881544
35	0xbc8b4b3f	-0.017003654
36	0xb89c5ce2	-7.4559604e-05
37	0xbd48f76c	-0.049064085
38	0xbc965fea	-0.018356282
39	0xb9f2b37d	-0.00046291566
40	0xbd3d26a8	-0.046179444
41	0xbc132c8d	-0.00898279
42	0x3cb489b1	0.022038313
43	0xbd18455a	-0.037175514
44	0xbc98cadc	-0.018651418
45	0x3ca490e4	0.02008862
46	0xbd0509e3	-0.03248013
47	0xbc90ccbd	-0.017675752
48	0x3c8208bf	0.015873311
49	0xbd270a22	-0.040781148
50	0xbc89a216	-0.016800921
51	0xbbfec5ac	-0.007775029
52	0xbca16caf	-0.019705145
53	0xbc42c30e	-0.011887325
54	0x3b3967fa	0.0028290735
55	0xbcbd0d59	-0.023077654
56	0xbc7a0af3	-0.0152614
57	0x3b7631c2	0.003756628
58	0xbccdf16d	-0.025139535
59	0xbc774538	-0.015092187
60	0x3b389030	0.0028162114
61	0xbcfa0ce5	-0.030523727
62	0xbc720916	-0.014772674
63	0x3a5c2838	0.0008398327
64	0x396f68b7	0.00022831825
65	0x3ab3c7ab	0.0013716122
66	0xbb3c78c7	-0.0028758512
67	0x39c27ae3	0.0003709412
68	0x3b63bcb5	0.003474993
69	0xbbc590fe	-0.0060292473
70	0x3b250cd8	0.0025184657
71	0x3bb713ea	0.0055870907
72	0xbc05c855	-0.008165439
73	0x3bcc010d	0.006225711
74	0x3bdaf122	0.0066815773
75	0xbc0e74eb	-0.008694868
76	0x3c15d75a	0.009145582
77	0x3c0ffb85	0.008787994
78	0xbc195574	-0.0093587525
79	0x3ba4898d	0.00502128
80	0x3c0e81ca	0.008697936
81	0xbc8f318e	-0.017479684
82	0x3c1cc91d	0.0095694335
83	0x3c3f73c1	0.011685313
84	0xbc8a1dcf	-0.016859917
85	0x3c5d7ba4	0.013518248
86	0x3c628f59	0.013828122
87	0xbc751d1d	-0.014960554
88	0x3c829df2	0.015944455
89	0x3c7cd3f4	0.015431393
90	0xbc1df613	-0.009641188
91	0x3b350019	0.0027618466
92	0x3c03bb52	0.008040266
93	0xbc914abc	-0.017735831
94	0x3bcb6e89	0.006208245
95	0x3c2ccaf9	0.010546439
96	0xbc91fcc9	-0.017820733
97	0x3bfb5562	0.0076700905
98	0x3c56db20	0.013113767
99	0xbc829d3c	-0.015944116
100	0x3c0e44da	0.008683408
101	0x3c776d96	0.015101811
102	0xbc1c81cf	-0.009552433
103	0x3af70fe5	0.0018849341
104	0x3bd30629	0.0064399433
105	0xbc8bfd5c	-0.017088585
106	0x3bdc67f6	0.0067262603
107	0x3c173eab	0.00923125
108	0xbc7734c2	-0.015088262
109	0x3bfabf1b	0.007652176
110	0x3c3b1a2b	0.011419813
111	0xbc3f36a8	-0.011670746
112	0x3c00ddd3	0.007865387
113	0x3c55e839	0.0130558545
114	0xbb92d451	-0.0044808765
115	0xb990b480	-0.00027600303
116	0x3b075913	0.0020652458
117	0xbc2f1cbd	-0.010688004
118	0x3aea2e71	0.0017866624
119	0x3b8766bc	0.00413212
120	0xbc0ccaf9	-0.008593314
121	0x3b2f1cff	0.0026720164
122	0x3bb9ca93	0.0056699007
123	0xbbbe9698	-0.005816292
124	0x3b6c985b	0.0036101553
125	0x3bd0bf6c	0.0063704755
126	0x3a7912fc	0.0009501425
127	0x388501db	6.34228e-05
128	0x39d8dbda	0.00041362533
129	0x3c8820ff	0.016617296
130	0xbbb9c7cf	-0.005669571
131	0xbbb1f20a	-0.0054304646
132	0x3c2b6b91	0.010462658
133	0xbcce0064	-0.02514667
134	0xbc17cd29	-0.009265223
135	0x3c253b44	0.010084931
136	0xbd184884	-0.03717853
137	0xbc6e30ca	-0.014537999
138	0x3c36035c	0.011109199
139	0xbd37d6d8	-0.044882625
140	0xbca3f1b0	-0.020012707
141	0x3badee70	0.005307965
142	0xbd0135c0	-0.0315454
143	0xbb13acd3	-0.0022533431
144	0x3c9f83d3	0.019472038
145	0xbd06d82d	-0.032921005
146	0xbc3701d8	-0.011169873
147	0x3c85ae4c	0.016318463
148	0xbd22c026	-0.03973403
149	0xbc7940de	-0.015213219
150	0x3c2f4347	0.0106971925
151	0xbd4ff278	-0.050768346
152	0xbc925974	-0.01786492
153	0xbc089eb7	-0.008338622
154	0xbd4cce0a	-0.05000118
155	0xbbbbc1bf	-0.0057298834
156	0x3ae2b9ac	0.0017297766
157	0xbd3cfa9e	-0.046137445
158	0xbc8577bd	-0.016292447
159	0x3b03ea31	0.0020128603
160	0xbd2a7b5a	-0.041621543
161	0xbc9f61e6	-0.019455861
162	0x3aa495db	0.0012556867
163	0xbd4b2a2a	-0.049600758
164	0xbca9414f	-0.020661024
165	0x3b159529	0.0022824502
166	0xbd43c032	-0.047790714
167	0xbc35c789	-0.011094936
168	0x3cd44519	0.025911855
169	0xbd1e47cb	-0.038642686
170	0xbcaf4887	-0.021396888
171	0x3cc2b550	0.023768097
172	0xbd095a5a	-0.03353343
173	0xbca68738	-0.02032815
174	0x3c9ab3d3	0.018884575
175	0xbd2c0bbc	-0.04200338
176	0xbc9e40f0	-0.019318074
177	0xbbbe6184	-0.0058099646
178	0xbc994945	-0.018711695
179	0xbc5bc9d0	-0.013414815
180	0x3bad7665	0.0052936547
181	0xbcb4e376	-0.022081118
182	0xbc8abbea	-0.016935308
183	0x3bd9cca7	0.006646711
184	0xbcc66f62	-0.024223033
185	0xbc8d3cb8	-0.017240867
186	0x3bc6f43f	0.006071597
187	0xbcf4c70c	-0.02988007
188	0xbc8b7a9d	-0.01702624
189	0xb8c3a94b	-9.329858e-05
190	0xb9866f35	-0.00025641327
191	0x3a6f0a80	0.0009118691
192	0xbb532130	-0.0032215826
193	0x378ba273	1.6645738e-05
194	0x3b5f851d	0.0034106441
195	0xbbd03f91	-0.006355234
196	0x3ae4fd3a	0.0017470487
197	0x3bc148e1	0.0058985804
198	0xbc095220	-0.0083813965
199	0x3bb2a3fd	0.005451678
200	0x3be579b7	0.007003035
201	0xbc126753	-0.008935767
202	0x3c097817	0.008390448
203	0x3c169f57	0.009193263
204	0xbc209cba	-0.0098029915
205	0x3b944910	0.0045253113
206	0x3c0dcca1	0.008654744
207	0xbc94e016	-0.018173259
208	0x3c133c28	0.00898651
209	0x3c40fb95	0.011778732
210	0xbc8f842d	-0.017519081
211	0x3c52cf90	0.01286687
212	0x3c6720f3	0.014106977
213	0xbc8017d2	-0.015636358
214	0x3c749a09	0.014929303
215	0x3c7ed8bd	0.015554604
216	0xbc233a0c	-0.00996257
217	0x3b138095	0.002250706
218	0x3c0491c8	0.008091398
219	0xbc96cf61	-0.018409433
220	0x3bbb87f6	0.005722995
221	0x3c2d8da2	0.01059285
222	0xbc989410	-0.01862529
223	0x3bdf1835	0.0068083056
224	0x3c5b627f	0.0133901825
225	0xbc892df7	-0.01674555
226	0x3bf973bf	0.007612675
227	0x3c7e274b	0.015512298
228	0xbc22881f	-0.009920149
229	0x3acf6b28	0.0015824782
230	0x3bce741f	0.006300464
231	0xbc901a85	-0.01759077
232	0x3bd3c6e9	0.006462921
233	0x3c176146	0.0092395
234	0xbc803abc	-0.015653007
235	0x3be90c23	0.0071120425
236	0x3c3c7414	0.011502285
237	0xbc47fd74	-0.012206424
238	0x3be6da80	0.00704509
239	0x3c5a36e9	0.013318756
240	0xbb992c3d	-0.004674463
241	0xba1f557e	-0.0006078108
242	0x3adf17ef	0.0017020683
243	0xbc359a38	-0.011084132
244	0x3ad43c4c	0.0016192286
245	0x3b839e84	0.0040166993
246	0xbc126bc8	-0.00893683
247	0x3b198c51	0.0023429582
248	0x3bb3c9fa	0.005486724
249	0xbbcc5fce	-0.0062370067
250	0x3b4848e5	0.0030561027
251	0x3bcd8a0e	0.006272561
252	0x3a6208a7	0.0008622505
253	0x3870a14e	5.7370686e-05
254	0x3a510e96	0.0007974891
255	0x3c8bdbd9	0.017072605

model_4/batch_normalization_17/batchnorm/mul_1;model_4/conv1d_9/Conv1D/Squeeze;model_4/conv1d_9/BiasAdd;model_4/conv1d_9/BiasAdd/ReadVariableOp;model_4/batch_normalization_17/batchnorm/mul;model_4/conv1d_9/Conv1D f4 [96, 1, 3, 96]
0	0x3cd6d3f6	0.026224118
1	0x3d05a972	0.0326323
2	0xbd2b41c6	-0.041810773
3	0xbd4663dc	-0.048435077
4	0x3d530edc	0.051527843
5	0xbd12123b	-0.035661917
6	0xbc6e5abb	-0.014547999
7	0xbd2e85ba	-0.042608
8	0x3db4c980	0.088274956
9	0x3d0eb882	0.03484393
10	0xbcb899e7	-0.022534324
11	0xbcc9c0b8	-0.024628028
12	0x3d8abdbb	0.067744695
13	0xbd092627	-0.03348365
14	0x3d539517	0.051655855
15	0xbd82509a	-0.0636303
16	0x3a6e56bc	0.0009091904
17	0xbd15f9d5	-0.03661521
18	0xbd53c810	-0.051704466
19	0x3cfb5acf	0.03068295
20	0x3c897523	0.016779488
21	0xbd7a6fba	-0.061141707
22	0x3c6d5b16	0.014487049
23	0x3d2d4ed5	0.04231151
24	0x3c2a0ef8	0.010379545
25	0x3c372687	0.011178619
26	0x3c5ada72	0.0133577455
27	0xbd095e06	-0.033536933
28	0x3a88ce99	0.0010437547
29	0xbbcbde74	-0.006221587
30	0x3c916f9a	0.017753411
31	0x3ce77829	0.028255539
32	0x3cc57ded	0.024107898
33	0x3c2995d6	0.010350665
34	0xbd0320d7	-0.03201374
35	0x3d9b5d62	0.07586171
36	0x39c99166	0.00038446038
37	0xbab5bf58	-0.0013866229
38	0xb8088807	-3.2551612e-05
39	0xbbbb88b5	-0.005723084
40	0xbc37e4d9	-0.011223995
41	0xbcd6c7b4	-0.026218273
42	0xbcf9b056	-0.030479591
43	0xbc43907a	-0.011936301
44	0x3b8f6e59	0.004377168
45	0xbca85b16	-0.020551246
46	0x3d900c54	0.070336014
47	0x3d3a155d	0.04543053
48	0x3b9620f5	0.0045815655
49	0xbcce2d46	-0.025168072
50	0x3bb5982a	0.005541821
51	0x3d0d6cc4	0.034527555
52	0x3c655a79	0.013998621
53	0xbd5723d8	-0.052524418
54	0xbcaefde6	-0.021361303
55	0x3b897034	0.004194284
56	0xbc876197	-0.016526027
57	0xbc3eb86b	-0.011640648
58	0xbd66064b	-0.056158345
59	0xbc4cb237	-0.012493662
60	0xbd0227fa	-0.031776406
61	0x3d04d819	0.03243265
62	0x3a8eea51	0.0010903572
63	0x3cec7fac	0.028869472
64	0xbbc8d4c4	-0.0061288793
65	0x3bbab618	0.005697977
66	0xbd0e5dc4	-0.03475739
67	0x3c747613	0.014920729
68	0xbc743b7d	-0.014906761
69	0xbcad9530	-0.021189302
70	0xbb737da2	-0.003715374
71	0x3dcfea42	0.10152103
72	0xbc5e0c16	-0.013552686
73	0xbd63f78c	-0.055656
74	0xbd4ed50e	-0.050496154
75	0xbcfeff36	-0.031127553
76	0xbd839bdc	-0.06426212
77	0x3d55a9d9	0.052163932
78	0xbc9a7c54	-0.018858112
79	0xbb181b87	-0.0023209767
80	0x3d700182	0.058595188
81	0xbb0b5b66	-0.0021264195
82	0xbcdb9ad7	-0.026807232
83	0xbcab22bc	-0.020890586
84	0xbd1156dd	-0.03548323
85	0xbc65efa9	-0.01403419
86	0x3cc19891	0.02363232
87	0xbcc5cc78	-0.02414535
88	0x3998da76	0.00029154465
89	0x3deef1cc	0.11667213
90	0xbd2ef2ca	-0.04271201
91	0xbd016f8b	-0.031600516
92	0xbce3687f	-0.027759789
93	0xbc4934be	-0.012280641
94	0x3d1df979	0.038567994
95	0xbb3ff134	-0.0029288055
96	0x3ce64474	0.028108813
97	0x3d12562b	0.035726707
98	0xbd2a931e	-0.041644208
99	0xbd431e3d	-0.04763626
100	0x3d57a8e0	0.052651286
101	0xbd0c4f57	-0.034255352
102	0xbc73675f	-0.014856189
103	0xbd236a5e	-0.03989636
104	0x3dc5f17f	0.09665202
105	0x3d18c0ed	0.037293363
106	0xbc91e49c	-0.017809205
107	0xbcbda699	-0.023150729
108	0x3d895008	0.06704718
109	0xbcffe744	-0.031238206
110	0x3d67410f	0.05645853
111	0xbd84e0f6	-0.064882204
112	0xb8358d9d	-4.328565e-05
113	0xbd176fcb	-0.03697185
114	0xbd4ae784	-0.049537197
115	0x3d00ceb2	0.03144712
116	0x3ca501e0	0.020142496
117	0xbd687a96	-0.056757532
118	0x3c7cf10f	0.015438332
119	0x3d3d97e1	0.04628742
120	0x3c314c42	0.010821404
121	0x3c502d64	0.0127061345
122	0x3c7513c5	0.014958327
123	0xbd0d20b0	-0.034455
124	0x3b6860ad	0.0035458014
125	0xbb72b218	-0.0037032422
126	0x3caf24a7	0.021379782
127	0x3cebe608	0.02879621
128	0x3cd6a63e	0.026202317
129	0x3c368514	0.011140127
130	0xbceded0d	-0.029043699
131	0x3d9b077f	0.07569789
132	0x3b9e80fb	0.004837153
133	0xbb250470	-0.0025179647
134	0xbaa3f103	-0.001250774
135	0xbb930883	-0.0044870987
136	0xbc100c3a	-0.008791978
137	0xbcaed3f8	-0.021341309
138	0xbce8223c	-0.028336637
139	0xbbfa1c04	-0.0076327343
140	0x3c1846a5	0.009294187
141	0xbc8fba9f	-0.017545043
142	0x3d91dba8	0.07121974
143	0x3d5c2404	0.053745285
144	0x3bd4bd6c	0.0064923074
145	0xbccaa68d	-0.02473762
146	0x3c0e52c5	0.008686726
147	0x3d1ac01f	0.037780877
148	0x3c96e0e8	0.01841779
149	0xbd5a90e9	-0.053360853
150	0xbca051cc	-0.019570254
151	0x3ba49008	0.0050220527
152	0xbc902225	-0.017594406
153	0xbc3b41cf	-0.011429264
154	0xbd5ae886	-0.053444408
155	0xbc5b586a	-0.013387779
156	0xbd0c9c81	-0.03432894
157	0x3d084b85	0.033275146
158	0x3ab05523	0.0013453107
159	0x3d0ba099	0.034088705
160	0xbbc2954c	-0.0059382077
161	0x3c01ec6f	0.007929905
162	0xbd0f1ada	-0.034937717
163	0x3c8132b9	0.015771257
164	0xbc6ea2ee	-0.014565213
165	0xbc8306e5	-0.015994499
166	0xbaa67df6	-0.0012702334
167	0x3dd8dc2c	0.105888695
168	0xbc5c4510	-0.0134442
169	0xbd69ab40	-0.057048082
170	0xbd3e9b73	-0.046534967
171	0xbcdf16a6	-0.02723248
172	0xbd83f1e6	-0.06442623
173	0x3d5a4d65	0.053296465
174	0xbca29cbd	-0.01985013
175	0x3a57b6c2	0.0008228832
176	0x3d78f70a	0.06078247
177	0xbac8492e	-0.0015280598
178	0xbcee310f	-0.029076127
179	0xbc79e41b	-0.0152521385
180	0xbd0ae26b	-0.033907335
181	0xbc4a1a17	-0.012335322
182	0x3ce6e8dd	0.02818721
183	0xbcc65ea9	-0.02421506
184	0xb9adce5e	-0.00033150887
185	0x3df6e650	0.120556474
186	0xbd351d11	-0.044217173
187	0xbcfccf71	-0.030860635
188	0xbcc76880	-0.024341822
189	0xbc2b0532	-0.01043825
190	0x3d28eca6	0.04124131
191	0xbb04845c	-0.0020220494
192	0x3ccc9499	0.0249732
193	0x3d063817	0.032768335
194	0xbd11a219	-0.03555498
195	0xbd3d224f	-0.046175297
196	0x3d531fc8	0.05154398
197	0xbd09a7b4	-0.0336072
198	0xbc6bade8	-0.014384724
199	0xbd1121c7	-0.035432603
200	0x3db9baf0	0.090688586
201	0x3d14ace0	0.03629768
202	0xbc82be88	-0.015959993
203	0xbcb2c097	-0.02182035
204	0x3d80f4f1	0.06296719
205	0xbd018b82	-0.031627186
206	0x3d58da9e	0.052942865
207	0xbd80b4f2	-0.062845126
208	0x3b252ba6	0.0025203018
209	0xbd11d86e	-0.035606794
210	0xbd4ae4c3	-0.04953457
211	0x3ced2758	0.028949425
212	0x3ca49068	0.02008839
213	0xbd4da455	-0.050205547
214	0x3c907b5b	0.017636945
215	0x3d392f91	0.04521138
216	0x3c4c7b0a	0.012480507
217	0x3c915aba	0.017743457
218	0x3c93c6c7	0.01803912
219	0xbcfc56cd	-0.030803109
220	0x3bd180c6	0.006393525
221	0xbbc0fbe8	-0.0058894046
222	0x3cc7e28d	0.02440002
223	0x3ce62c50	0.028097302
224	0x3cd50d8d	0.026007438
225	0x3c58602c	0.013206523
226	0xbce89a96	-0.028394025
227	0x3d9168be	0.07100056
228	0x3bd2dc08	0.006434921
229	0xbb05742c	-0.0020363433
230	0x39a3e937	0.0003126354
231	0xbb8800eb	-0.0041505
232	0xbbe76ddb	-0.0070626563
233	0xbcb0b888	-0.021572366
234	0xbcefc74e	-0.02926984
235	0xbaa528cb	-0.0012600658
236	0x3c277f56	0.01022323
237	0xbc7b8366	-0.015351152
238	0x3d88386e	0.06651388
239	0x3d487317	0.048937883
240	0x3c2cf85f	0.010557263
241	0xbcb09782	-0.02155662
242	0x3c3535e0	0.011060208
243	0x3d1b418e	0.037904315
244	0x3c6c6986	0.014429456
245	0xbd49bf7e	-0.049254887
246	0xbc9b1cec	-0.01893469
247	0x3c1af1bf	0.009457051
248	0xbc52ace8	-0.012858607
249	0xbc255197	-0.010090253
250	0xbd4f9b53	-0.050685238
251	0xbc15cb5f	-0.009142726
252	0xbd08ef6c	-0.033431455
253	0x3d0aa24d	0.03384619
254	0x3ad127ec	0.0015957332
255	0x3d0e8c37	0.034801688

model_4/gru_9/gru_cell/strided_slice_4 f4 [48]
0	0x3d9bfacd	0.07616196
1	0x3cd8b2b5	0.026452402
2	0xbd120fa0	-0.035659432
3	0x3db2acfc	0.087244004
4	0x3d89422f	0.06702077
5	0x3d352c2f	0.04423159
6	0xbd46bf8c	-0.048522517
7	0xbe13c5dd	-0.14430948
8	0x3d931b40	0.07182932
9	0xbb929dcf	-0.0044743787
10	0xbce0a192	-0.027420793
11	0xbd9037d2	-0.07041897
12	0x3d21d8bb	0.03951333
13	0x3df35da1	0.11883093
14	0x3dec5286	0.115391776
15	0xbd92f63f	-0.07175874
16	0xbd8507cf	-0.0649563
17	0x3d7f52db	0.062334877
18	0xbda312c8	-0.079625666
19	0xbd7783c7	-0.060428407
20	0x3dedf098	0.11618155
21	0x3e42f5ee	0.19039127
22	0x3d42ea0d	0.04758649
23	0x3df0448b	0.117318235
24	0xbd9bb2df	-0.07602476
25	0xbd8dbde3	-0.06920984
26	0xbc5aeb4d	-0.013361764
27	0x3ded0ecf	0.1157509
28	0xbd6e3fcb	-0.058166306
29	0x3cc22ff3	0.023704505
30	0x3a32ff95	0.0006828246
31	0xbd3f0814	-0.046638563
32	0x3df9f29d	0.12204478
33	0xbde3f8fa	-0.11131473
34	0xbc28e3f3	-0.010308254
35	0xbdafa7dd	-0.08576939
36	0x3ddbb224	0.10727337
37	0xbb8d672f	-0.004315279
38	0xbdd23adf	-0.10265135
39	0x3d5fc596	0.054631792
40	0x3da28e5a	0.07937308
41	0xbcbed227	-0.023293568
42	0x3d78e907	0.060769107
43	0xbd554d3a	-0.052075602
44	0x3d8a4fa8	0.067534745
45	0x3d96d039	0.07363934
46	0x3d6050b0	0.05476445
47	0xbd34cfb8	-0.04414341

model_4/gru_9/gru_cell/strided_slice_3 f4 [48]
0	0x3e2585ea	0.16164365
1	0x3eac6b39	0.33675554
2	0x3d15041e	0.03638088
3	0xbdb65c72	-0.08904351
4	0xbd0c3a15	-0.03423508
5	0xbcf9f511	-0.030512365
6	0x3dff2360	0.12457919
7	0x3ea1b013	0.31579646
8	0x3dc9b315	0.0984861
9	0x3d5d93f1	0.054096166
10	0xbd757cf2	-0.05993361
11	0x3c43624e	0.011925293
12	0x3d4c3d3d	0.04986309
13	0x3d7623ac	0.060092613
14	0x3e0da091	0.13830782
15	0x3d9c3b95	0.07628552
16	0x3d83eda5	0.064418115
17	0x3e7fa6ab	0.24965923
18	0xbd7d4510	-0.06183344
19	0x3e35012f	0.17676233
20	0x3e057960	0.13034582
21	0x3e04b09f	0.12958
22	0x3dabd274	0.0838975
23	0x3aa8ab1e	0.001286838
24	0x3da55f65	0.08074836
25	0x3d8ca9b4	0.06868306
26	0x3d98d9d7	0.07463425
27	0x3e3cd34c	0.18439978
28	0x3e28bb6e	0.16477749
29	0x3dc94a76	0.098286554
30	0x3ebae772	0.36504704
31	0x3d2edcd1	0.042691056
32	0xbaee7307	-0.001819224
33	0xbd373cb5	-0.04473563
34	0x3d0e80e5	0.034790892
35	0xbdd820f8	-0.10553163
36	0x3dda2fab	0.10653623
37	0x3cb7b40c	0.02242472
38	0x3d798a2f	0.060922798
39	0xbbd11d5c	-0.0063816737
40	0x3e7a9a37	0.24472891
41	0xbd1ad388	-0.03779939
42	0x3df46ea2	0.11935164
43	0x3d343875	0.043999154
44	0x3d0108b8	0.031502455
45	0x3d3fe15e	0.046845786
46	0xbc7f80a8	-0.015594639
47	0xbdcbfe40	-0.09960604

model_4/gru_9/gru_cell/strided_slice_5 f4 [48]
0	0x3df94e94	0.12173191
1	0x3db2f75c	0.08738586
2	0xbdbbfa6b	-0.09178623
3	0x3c2e41a1	0.010635764
4	0xbcd32dfe	-0.025778767
5	0x3de835f2	0.11338414
6	0x3e4cf26d	0.20014353
7	0x3d9ef0b9	0.07760758
8	0x3dd2dbf6	0.102958605
9	0x3d15d880	0.036583424
10	0x3ca5cb41	0.02023852
11	0xbd142a7d	-0.036173332
12	0xbd8235e5	-0.06357936
13	0x3e08ead7	0.13370834
14	0xbcbe3b44	-0.02322162
15	0x3d3ba618	0.045812696
16	0x3dac57b7	0.08415168
17	0xbd348d75	-0.044080216
18	0xbdd85fc9	-0.105651446
19	0x3c80c26c	0.015717708
20	0xbd06878a	-0.032844104
21	0xbd891e85	-0.06695274
22	0xbccde879	-0.025135266
23	0xbdaa9403	-0.08329012
24	0x3ce00b3b	0.027349105
25	0x3d63532d	0.055499244
26	0xbd2061b7	-0.039155688
27	0xbd0613b1	-0.032733623
28	0x3d9a78b0	0.075425506
29	0x3d917529	0.07102425
30	0xbd15ba7c	-0.0365548
31	0x3df871a2	0.12131049
32	0xbd6de90b	-0.058083575
33	0x3d0dbde3	0.03460492
34	0x3de2269e	0.11042522
35	0xbd6aca0d	-0.057321597
36	0x3d5e3d7e	0.054257862
37	0x3dede012	0.11615004
38	0xbd50bf6b	-0.0509638
39	0xbe3e465c	-0.18581527
40	0xbd48d3ed	-0.049030233
41	0xbd3346df	-0.04376876
42	0xbd707755	-0.058707554
43	0x3d9c0291	0.07617677
44	0x3dcf493a	0.10121389
45	0xbc883430	-0.016626447
46	0xbd548ff2	-0.05189509
47	0xbdfdc620	-0.12391305

model_4/gru_9/gru_cell/strided_slice_11 f4 [48]
0	0x3cfda348	0.030961648
1	0x3d858f02	0.06521417
2	0xbdb98985	-0.09059433
3	0x3d0ea2d2	0.034823246
4	0x3c83f2ae	0.01610693
5	0x3d1543b9	0.03644154
6	0x3ddd38c0	0.1080184
7	0x3db98077	0.09057706
8	0x3da756c7	0.08170848
9	0x3d7821c9	0.060579095
10	0xbce95a2e	-0.028485384
11	0xbb2f9805	-0.0026793492
12	0xbd74ae18	-0.05973634
13	0x3de75486	0.112954184
14	0xbd5c7406	-0.053821586
15	0x3cb27f18	0.021789119
16	0x3d97861d	0.07398627
17	0xbdf24207	-0.11829
18	0xbd7d900d	-0.061904956
19	0xbaf1340b	-0.0018402351
20	0xbc7337c7	-0.014844841
21	0xbd2d7b71	-0.04235405
22	0xbd82fb5a	-0.06395598
23	0xbd8593d1	-0.06522334
24	0x3adcf667	0.0016858102
25	0x3d7ba4f9	0.061436627
26	0xbcfb8c5f	-0.030706583
27	0xbcc52251	-0.024064215
28	0x3db5764e	0.088604555
29	0x3dcf5061	0.10122753
30	0xbc92875f	-0.017886816
31	0x3d8d7bbc	0.06908366
32	0xbd74ec2a	-0.059795536
33	0x3d635b02	0.055506714
34	0x3d6b50cf	0.057450112
35	0x3beb16ca	0.0071743475
36	0x3c8fc8b4	0.017551757
37	0x3dfe015a	0.124026015
38	0xbd92d5cb	-0.07169684
39	0xbe149fc4	-0.14514071
40	0xbdcf6dc1	-0.10128356
41	0xbcf3c291	-0.029755862
42	0xbd11e220	-0.03561604
43	0x3d988a58	0.07448262
44	0x3d850f16	0.06497018
45	0xbd4bcc3c	-0.04975532
46	0xbd12129a	-0.03566227
47	0xbdd56721	-0.10420061

model_4/gru_8/gru_cell/strided_slice_4 f4 [96]
0	0x3d1cc6bc	0.038275465
1	0xbd340fad	-0.043960262
2	0xbdc26aaa	-0.09493001
3	0xbd89ba31	-0.06724966
4	0xbc15727b	-0.009121533
5	0x3c1c0fdc	0.009525266
6	0xbd16c83c	-0.036812052
7	0xbccd131e	-0.02503353
8	0xbd5cb99a	-0.05388794
9	0xbd26add7	-0.04069313
10	0xbdb19e19	-0.08672733
11	0xbd8ff22c	-0.070286125
12	0xbbaa16f4	-0.0051907245
13	0xbe1e94a1	-0.15486385
14	0xbd7641f9	-0.06012151
15	0xbd111a03	-0.035425197
16	0xbd6fa860	-0.058510184
17	0x3d401502	0.046895035
18	0x3d2d231c	0.04226981
19	0x3d3994f3	0.045308065
20	0xbcf40975	-0.029789666
21	0xbbfd3955	-0.007727782
22	0xbc3e3c54	-0.011611063
23	0x3d21bf46	0.039489053
24	0xbdcaa069	-0.09893877
25	0xbd0bbb94	-0.034114435
26	0xbdab9513	-0.08378043
27	0xbe13b88a	-0.14425865
28	0xbd0d943a	-0.034565188
29	0x3cf2ae00	0.029623985
30	0xbd8fbdd3	-0.07018628
31	0xbd8cc601	-0.06873704
32	0xbe107e92	-0.14110783
33	0xbdc10f7f	-0.09426784
34	0xbc5229f9	-0.01282739
35	0xbd0a2c7c	-0.03373383
36	0xbd8356d3	-0.06413045
37	0xbda67b9b	-0.081290446
38	0x3da4abad	0.08040557
39	0x3d7e8704	0.06214048
40	0x3cc8ca0f	0.024510412
41	0xbde43131	-0.11142195
42	0xbd2ec6af	-0.04266995
43	0x3dd93b61	0.10607029
44	0xbdf2b694	-0.1185123
45	0xbcdd869e	-0.02704173
46	0x398b58c2	0.00026578276
47	0x3cba57ce	0.022746947
48	0xbc2e3507	-0.01063276
49	0x3dc4e374	0.09613696
50	0xbd5207eb	-0.051277082
51	0xbc7c22e6	-0.01538918
52	0xbd08c6af	-0.033392604
53	0x3d785765	0.06063022
54	0x3d5317e8	0.05153647
55	0x3cdd7b26	0.02703626
56	0x3d77d304	0.060503975
57	0xbda3ae06	-0.07992177
58	0x3d9840c8	0.07434231
59	0xbcb9ce9f	-0.022681532
60	0x3d30f6d8	0.04320416
61	0xbdb644af	-0.08899819
62	0xbdcdf41b	-0.10056325
63	0x3e16efd2	0.14739922
64	0x3ca06ad6	0.019582193
65	0xbdb4ad2f	-0.08822095
66	0xbe3bcd3f	-0.18340014
67	0xbd8fc783	-0.07020476
68	0x3dc67698	0.09690589
69	0x3d49fa8d	0.04931121
70	0x3d930ac5	0.071797885
71	0xbd2373d9	-0.039905403
72	0x3d17326a	0.036913313
73	0x3ce897ac	0.028392635
74	0xbd587c94	-0.052853182
75	0xbd3ed5cb	-0.046590608
76	0x3d7030d0	0.0586403
77	0x3b265828	0.0025382135
78	0xbd4049a7	-0.04694524
79	0x3ca47d4f	0.020079283
80	0xbca2a181	-0.019852402
81	0xbcb4663e	-0.02202141
82	0x3cb2a24c	0.021805905
83	0x3d55e232	0.05221767
84	0xbc2bc66d	-0.01048432
85	0x3cc18450	0.023622662
86	0x3d48895b	0.048959117
87	0x3d45f79c	0.04833184
88	0x3d48084a	0.04883603
89	0x3c802075	0.015640477
90	0x3d245450	0.04011947
91	0xbd40a788	-0.04703477
92	0x3c59d37d	0.013295052
93	0xbc9f3d37	-0.01943837
94	0xbe0dc2d9	-0.1384386
95	0xbbbc9a91	-0.0057557304

model_4/gru_8/gru_cell/strided_slice_3 f4 [96]
0	0x3e1b5957	0.15170799
1	0xbd0547e2	-0.032539256
2	0xbe5686fa	-0.20949927
3	0x3dd5249a	0.10407372
4	0x3cfb9456	0.03071038
5	0x3e5cfb8c	0.21580333
6	0x3d9842d8	0.074346244
7	0x3ded307a	0.11581512
8	0x3dff23a4	0.1245797
9	0x3d8f3782	0.06993009
10	0x3daa4bc2	0.08315231
11	0xbc24bf14	-0.010055322
12	0x3dee1733	0.11625519
13	0x3dfa2015	0.122131504
14	0x3dd87c19	0.10570545
15	0x3e932c12	0.2874456
16	0x3dd1e2eb	0.10248359
17	0x3e4a6fbf	0.1976919
18	0x3ddec7bc	0.1087794
19	0xbac98be7	-0.0015376777
20	0x3dfc252b	0.12311777
21	0x3db424e3	0.08796098
22	0x3a85289f	0.0010159201
23	0x3df2b167	0.11850243
24	0x3dc32ccb	0.09530028
25	0x3de698ff	0.112596504
26	0x3acb6b2f	0.0015519614
27	0x3c0f9e3a	0.0087657515
28	0x3d2fd41d	0.042926896
29	0x3dfd7774	0.123762995
30	0x3e300378	0.17188823
31	0x3dc12d68	0.09432489
32	0x3c815224	0.015786238
33	0xbbf1b611	-0.0073764403
34	0xbd17efa1	-0.037093762
35	0x3de43b37	0.11144107
36	0xbdc1dcab	-0.09465917
37	0x3d6d677b	0.057960015
38	0x3e714755	0.23562367
39	0x3daa1f3c	0.08306739
40	0x3d6969a5	0.056985516
41	0x3de41d8e	0.111384496
42	0x3e205d98	0.15660703
43	0x3e95282f	0.2913222
44	0x3e481820	0.19540453
45	0x3cd79bc2	0.026319388
46	0xbd3536c9	-0.0442417
47	0x3d1e2893	0.038612913
48	0x3c826dc7	0.015921487
49	0x3e523ba6	0.20530567
50	0x3e5c75ff	0.21529387
51	0x3e8026c9	0.2502959
52	0xbd371f45	-0.044707555
53	0x3e2eab2d	0.17057486
54	0x3db0cf5e	0.08633302
55	0x3d5b91f0	0.053605974
56	0x3e84f7ee	0.25970405
57	0x3e461329	0.19343247
58	0x3ea2935f	0.3175306
59	0x3e10179f	0.1407151
60	0x3cd29070	0.025703639
61	0x3d306ef5	0.043074567
62	0x3d69a6cc	0.057043836
63	0x3e8e027c	0.2773627
64	0x3e244215	0.16040833
65	0x3d097aa7	0.033564236
66	0x3d7be16c	0.061494276
67	0x3daae46f	0.083443515
68	0xbd5366da	-0.05161176
69	0x3c5e2442	0.013558449
70	0x3e57438c	0.21021861
71	0x3e84b87d	0.25922003
72	0x3e6a85b5	0.22902568
73	0xbc852769	-0.016254144
74	0x3d87d149	0.06631715
75	0xbe319734	-0.17342836
76	0x3e3fe7d0	0.18740773
77	0x3e145ff7	0.14489733
78	0x3d9f46f2	0.077772036
79	0x3e408fe3	0.18804888
80	0x3df50b27	0.11965018
81	0x3d8ec33f	0.06970834
82	0x3e864b71	0.26229432
83	0x3e491466	0.19636688
84	0x3c1ea855	0.009683688
85	0x3dd19609	0.10233695
86	0x3e8072b0	0.250875
87	0x3e09f079	0.1347064
88	0x3e575f16	0.21032366
89	0x3df38400	0.118904114
90	0x3e248495	0.16066201
91	0xbc927c25	-0.017881462
92	0x3db2fe47	0.08739906
93	0xbdb976d4	-0.09055868
94	0x3e414e21	0.1887746
95	0x3d1ca0a8	0.03823915

model_4/gru_8/gru_cell/strided_slice_5 f4 [96]
0	0xbc9966d1	-0.018725784
1	0x3c674e45	0.014117782
2	0x3cef136c	0.029184066
3	0x3c59331f	0.013256817
4	0x3c9b26df	0.018939434
5	0x3ca490b3	0.02008853
6	0x3d1753b7	0.03694507
7	0x3d235b76	0.039882146
8	0xbcbf8c4c	-0.023382328
9	0x3d48c24b	0.049013417
10	0xbc62012d	-0.013794226
11	0x3ba39f39	0.004993346
12	0xbc70a549	-0.014687845
13	0x3b50008d	0.003173861
14	0xbdba7ae6	-0.09105472
15	0xbc9b9467	-0.018991662
16	0x3bb4a430	0.0055127367
17	0xbc88bd30	-0.016691774
18	0xbd0646c9	-0.03278235
19	0xbd6add0d	-0.057339717
20	0x3d0630e2	0.032761462
21	0xbd300bf4	-0.04298015
22	0x3d2e7159	0.042588565
23	0xbcd8c14c	-0.026459359
24	0xbcdf2980	-0.027241468
25	0xbd5e7ed6	-0.05432018
26	0x3ba2dc8f	0.0049701403
27	0x3d81ba0f	0.06334316
28	0xbd76a4d2	-0.06021578
29	0x3c8c07b9	0.017093526
30	0xbdbed2dc	-0.09317562
31	0xbd18fbcc	-0.037349507
32	0xbbbfa4c6	-0.0058485
33	0xbcc0b73d	-0.023524875
34	0x3d5da2a7	0.054110195
35	0x3dbfdd8f	0.09368431
36	0xbcf9402f	-0.030426113
37	0x3d064085	0.032776374
38	0x3c0d7172	0.0086330045
39	0x3cb60ed4	0.022223867
40	0x3cfa8fb3	0.0305861
41	0x3d8fee8d	0.07027922
42	0x3cc16726	0.023608755
43	0xbc04c4da	-0.008103574
44	0xbd2f9d10	-0.042874396
45	0x3cc4980a	0.02399828
46	0x3d25ed41	0.040509466
47	0xbc8342ca	-0.016023058
48	0x3c2fdee1	0.010734291
49	0x3a9ecafe	0.001211494
50	0xbcd8056f	-0.026369778
51	0x3d90c657	0.0706908
52	0x3c66fd96	0.014098546
53	0x3d3cf4fb	0.04613207
54	0xbc579f9c	-0.013160612
55	0xbd27059e	-0.04077684
56	0x3ca29333	0.01984558
57	0x3d7f4f10	0.06233126
58	0x3bfcd571	0.007715874
59	0x3c60b3f9	0.013714784
60	0x3b9c2255	0.004764835
61	0x3c62f997	0.013853452
62	0xbc3de605	-0.011590485
63	0x3c3173e3	0.010830852
64	0x3d8518a4	0.064988405
65	0x3d2fac13	0.042888712
66	0x3cc9050f	0.024538545
67	0xbc3106ec	-0.010804873
68	0x3cd36b98	0.02580814
69	0x3cca1e4f	0.024672655
70	0xbdc4da70	-0.09611976
71	0x3d19ae85	0.03751995
72	0x37833e5c	1.5645455e-05
73	0x3d8fc189	0.07019336
74	0xbcbb4dd3	-0.022864258
75	0xbcaf8f57	-0.021430654
76	0xbdace6de	-0.08442472
77	0xbd1338cf	-0.03594285
78	0xbcddd07a	-0.027076948
79	0x3b959c5c	0.0045657586
80	0x3a91433f	0.0011082663
81	0xbcbcd81a	-0.023052264
82	0xbd6ce284	-0.05783321
83	0x3c06c6e3	0.008226129
84	0x3d1f6b2a	0.03892056
85	0x3d322b13	0.04349811
86	0x3cff5f58	0.031173393
87	0x3ca1c27d	0.01974606
88	0x3d038606	0.032110237
89	0xbb85386b	-0.0040655634
90	0xbcba59b9	-0.022747861
91	0x3b80cfa6	0.0039310036
92	0x3d2f1f6c	0.042754576
93	0xbd3fd9f2	-0.04683871
94	0x3b05874c	0.0020374833
95	0xbd3b8a03	-0.045785915

model_4/gru_8/gru_cell/strided_slice_11 f4 [96]
0	0x3c388e74	0.011264432
1	0x3c10de71	0.008842097
2	0x3da7abda	0.08187075
3	0x3d048550	0.0323537
4	0x3d07e63c	0.033178553
5	0x3b43bd1c	0.0029867357
6	0x3c6f19ac	0.014593523
7	0x3d737102	0.059433945
8	0x3c3e3112	0.011608379
9	0x3d1cc54c	0.038274094
10	0x3bae54bb	0.0053201593
11	0x3cef5bb3	0.02921853
12	0xbd24b1c3	-0.04020859
13	0xbd2fdecf	-0.042937096
14	0xbd6e1be0	-0.058132052
15	0x3cb0c133	0.0215765
16	0x3d251def	0.04031175
17	0xbca5ec63	-0.02025432
18	0xbd7edced	-0.06222241
19	0xbcbf5206	-0.023354542
20	0x3d916f90	0.07101357
21	0xbc464221	-0.012100727
22	0x3cf2c03a	0.029632676
23	0xbcf1baa2	-0.029507939
24	0x3bc60c91	0.0060439785
25	0xbd559f1c	-0.05215369
26	0x3d060c38	0.032726496
27	0x3d02b6d9	0.03191266
28	0x3cc42a77	0.02394603
29	0x3c901f06	0.017592918
30	0xbdcfbc02	-0.101432815
31	0xbd274acd	-0.04084282
32	0x3c601201	0.0136761675
33	0x3b0784fe	0.0020678635
34	0x3d4ccb57	0.049998607
35	0x3d926224	0.07147625
36	0xbc8fa376	-0.017533999
37	0x3ce5c92b	0.028050026
38	0x3ccaeeb1	0.02477202
39	0x3d1af8d3	0.037834954
40	0x3cd151a4	0.025551625
41	0x3d5ef87c	0.054436192
42	0x3c55a413	0.013039607
43	0xbc840031	-0.016113373
44	0xbcca8a86	-0.024724256
45	0x3cecab24	0.0288902
46	0x3d20516e	0.039140157
47	0xbc561dff	-0.013068675
48	0x3ca9bd1f	0.020720063
49	0xbd142975	-0.03617235
50	0xbd0378fd	-0.032097805
51	0x3d584e3f	0.052808996
52	0x3c168b7d	0.00918853
53	0x3d4da220	0.050203443
54	0xbc98e21b	-0.018662503
55	0xbc39c38f	-0.011338129
56	0x3ba2ab09	0.0049642366
57	0x3d6fa730	0.05850905
58	0x3c042bf2	0.008067118
59	0x3cec423c	0.028840177
60	0x3c9b84c5	0.018984208
61	0x3c3e263b	0.011605795
62	0xbb4202cf	-0.0029603725
63	0x3ba2148c	0.004946297
64	0x3d43e49d	0.047825444
65	0x3c7d43c0	0.015458047
66	0x3d49036a	0.04907552
67	0x3bccb271	0.006246858
68	0x3d271657	0.04079279
69	0x3c882e79	0.016623722
70	0xbc5dc306	-0.013535267
71	0x3ca059c6	0.019574057
72	0x3d092494	0.03348215
73	0x3cf044dd	0.029329712
74	0xbcb94c6e	-0.022619452
75	0xbce9c2a4	-0.028535195
76	0xbd60a861	-0.05484808
77	0x3ca26e56	0.019828003
78	0xbd15d765	-0.03658237
79	0x3cb6cc27	0.022314144
80	0xbbf59581	-0.007494629
81	0xbc9f229d	-0.019425685
82	0xbd48193c	-0.04885219
83	0x3aef8455	0.0018273691
84	0x3d1863ee	0.037204675
85	0x3c8a5dd0	0.016890436
86	0x3ce281a3	0.027649706
87	0xbc6d923e	-0.014500199
88	0x3d0d588a	0.034508266
89	0xbad798a8	-0.0016448693
90	0xbd2a88fd	-0.04163455
91	0x3d2557c3	0.0403669
92	0x3cfe7e37	0.031066043
93	0xbd19e7ac	-0.037574455
94	0xbccbbfc0	-0.024871707
95	0xbcb53882	-0.022121672

model_4/batch_normalization_19/batchnorm/sub f4 [48]
0	0xbea1d5bf	-0.31608388
1	0xbec1937e	-0.3780784
2	0x3f03bf21	0.51463515
3	0xbed70360	-0.41994762
4	0x3d842557	0.064524345
5	0xbe819a8f	-0.2531323
6	0xbeb1a39b	-0.34695134
7	0xbe862aa3	-0.26204404
8	0xbe98e0f0	-0.29859114
9	0xbed23da0	-0.4106264
10	0x3dcc3536	0.09971087
11	0xbc95a3ca	-0.018266577
12	0xbd12f9f4	-0.035882905
13	0xbe407c30	-0.18797374
14	0x3e9da067	0.3078644
15	0xbe4f5ca7	-0.20250188
16	0xbf0e49e2	-0.55581486
17	0x3e44c700	0.19216537
18	0x3d71424f	0.058901127
19	0xbe05aa75	-0.13053305
20	0xbcac19f6	-0.021008473
21	0xbd0439c6	-0.03228166
22	0xbdd68701	-0.10474969
23	0xbd289a8b	-0.04116301
24	0x3e4462be	0.19178292
25	0x3e82ca58	0.25545
26	0x3dfd3284	0.12363151
27	0x3d4b4c14	0.0496331
28	0xbe82c992	-0.2554441
29	0xbecf1a8b	-0.40449938
30	0x3d8c95a2	0.06864478
31	0xbe195412	-0.14973477
32	0xbdfd2bf6	-0.123619005
33	0x3c81147d	0.01575684
34	0xbcb22dd4	-0.021750368
35	0x3e55cee4	0.20879704
36	0xbe8af72c	-0.27141702
37	0xbeec86ed	-0.4619669
38	0x3eb73b53	0.35787448
39	0x3ebe30a8	0.37146497
40	0x3f12124c	0.5705917
41	0x3b11c100	0.002224028
42	0x3df24f34	0.11831513
43	0xbe10e9d0	-0.14151692
44	0xbd9a85db	-0.07545062
45	0xbdaf55ca	-0.08561285
46	0x3e00bb0e	0.12571356
47	0x3e9eacae	0.3099112

model_4/batch_normalization_19/batchnorm/mul f4 [48]
0	0x40228c07	2.5397966
1	0x403b12a8	2.9230137
2	0x401cdf9b	2.4511478
3	0x400b0be5	2.172601
4	0x4019c230	2.4024773
5	0x401f65c2	2.4905858
6	0x402aa562	2.6663442
7	0x40497e37	3.1483285
8	0x40203f10	2.503849
9	0x402ae5a0	2.6702652
10	0x401612b2	2.344891
11	0x402691df	2.6026533
12	0x401d7240	2.4600983
13	0x4004aa28	2.0728855
14	0x40224cef	2.5359457
15	0x401c8249	2.445452
16	0x40333119	2.7998717
17	0x40182057	2.3769739
18	0x401120ce	2.2676272
19	0x4028da2c	2.6383162
20	0x400d2007	2.2050798
21	0x3fec26f5	1.8449389
22	0x4026e50c	2.60773
23	0x40137b17	2.3043878
24	0x402560ad	2.5840256
25	0x40278dff	2.6180418
26	0x402479a8	2.5699253
27	0x401c1cf9	2.4392684
28	0x4027ca8c	2.6217375
29	0x406a8612	3.664433
30	0x40592a35	3.393201
31	0x40226c1d	2.5378487
32	0x400dcca5	2.2156155
33	0x4014b264	2.323388
34	0x4014dd83	2.32602
35	0x4032dd8e	2.7947726
36	0x4035dfd3	2.8417861
37	0x403115ba	2.766951
38	0x402e6a84	2.7252512
39	0x4004d0c8	2.075243
40	0x40259c47	2.5876634
41	0x40098a19	2.1490538
42	0x4012cfa9	2.2939246
43	0x402656cb	2.5990474
44	0x400deeb3	2.217694
45	0x4024820b	2.5704372
46	0x400c5c00	2.1931152
47	0x402878b7	2.6323678

model_4/batch_normalization_18/batchnorm/sub f4 [96]
0	0xbeca9d52	-0.3957315
1	0x3e29de8e	0.16588804
2	0xbeaa7622	-0.33293253
3	0xbe2da010	-0.1695559
4	0x3ea20cb3	0.31650314
5	0x3df706a2	0.12061812
6	0x3e97b2f2	0.29628712
7	0xbe5bb2c0	-0.21454906
8	0xbd6d660e	-0.057958655
9	0x3e955bbb	0.29171547
10	0xbeda4254	-0.4262873
11	0x3dd5c36a	0.10437663
12	0xbe973cfc	-0.29538715
13	0xbe3acfef	-0.18243383
14	0x3f1ce8e4	0.6129286
15	0x3eb59d92	0.3547178
16	0xbc9df036	-0.01927958
17	0x3e379a6e	0.17930004
18	0x3e1dc4c0	0.15407085
19	0x3e2bd528	0.16780531
20	0xbec0fb5d	-0.37691775
21	0xbdf7346f	-0.12070548
22	0xbe9bce09	-0.3043063
23	0xbe072e87	-0.13201343
24	0x3ed19e72	0.40941197
25	0x3f284820	0.65735054
26	0x3d81880b	0.06324776
27	0x3e4a79ae	0.1977298
28	0xbe36a261	-0.1783538
29	0xbdddffe4	-0.10839823
30	0xbe389650	-0.1802609
31	0xbe844071	-0.25830415
32	0x3c382e79	0.011241549
33	0xbd87b37a	-0.06626029
34	0x3e6c9a73	0.23105793
35	0x3ea21db9	0.31663302
36	0xbed72de7	-0.42027208
37	0xbe813101	-0.252327
38	0x3e4e44a0	0.20143366
39	0xbd84a1ea	-0.06476195
40	0x3eab091a	0.3340538
41	0xbcbbeb6a	-0.022939403
42	0x3eaec92a	0.3413785
43	0x3ed94fbb	0.42443642
44	0x3f8b8e04	1.0902715
45	0x3ebd2a7f	0.36946484
46	0xbc325edc	-0.010886874
47	0x3cfcab32	0.030843351
48	0xbf224364	-0.6338408
49	0xbe9912ea	-0.29897243
50	0x3f0f28b8	0.55921507
51	0x3e14b87c	0.145235
52	0xbf483980	-0.7821274
53	0x3d4b2a1a	0.049600698
54	0x3e1c1da1	0.15245678
55	0x3e49254c	0.19643134
56	0x3e8de46e	0.2771334
57	0x3e8527df	0.26006982
58	0xbf222e52	-0.6335193
59	0x3cd87f9e	0.02642804
60	0x3f1c6eda	0.61106646
61	0x3ed38255	0.41310373
62	0x3eae3c9b	0.34030613
63	0x3e44439d	0.19166417
64	0x3da677d0	0.08128321
65	0x3ef2480a	0.47320586
66	0x3f343d8a	0.704064
67	0xbef1cefe	-0.47228235
68	0xbcee0108	-0.029053226
69	0x3ed5b3ed	0.41738835
70	0xbe8c35f9	-0.27384928
71	0xbe7223fd	-0.23646541
72	0x3e8208a4	0.25397217
73	0x3d0b6000	0.0340271
74	0xbd98034c	-0.07422504
75	0xbe37a6ff	-0.17934798
76	0x3e4874e0	0.19575834
77	0xbdacde8c	-0.08440885
78	0xbe91167b	-0.28337464
79	0xbd27cb88	-0.040965587
80	0x3db9334d	0.09042988
81	0x3f30e4f2	0.6909934
82	0xbe3a4002	-0.1818848
83	0xbe04a9c4	-0.12955385
84	0x3e2b5031	0.1672981
85	0xbcda127f	-0.026620148
86	0x3ea4157c	0.3204764
87	0xbdf7cea1	-0.12099958
88	0xbedb60c1	-0.42847255
89	0x3e04f8dc	0.12985557
90	0x3d6a7cf6	0.05724808
91	0xbe5476b4	-0.20748407
92	0x3e822e7e	0.25426096
93	0xbdbdffde	-0.092773184
94	0xbf383bcc	-0.7196624
95	0x3d6c2859	0.057655666

model_4/batch_normalization_18/batchnorm/mul f4 [96]
0	0x40231dba	2.5486894
1	0x404928de	3.1431193
2	0x40650d58	3.5789394
3	0x4081c910	4.055794
4	0x405851fc	3.380004
5	0x406720d8	3.6113796
6	0x40610a79	3.5162642
7	0x406c8a56	3.6959434
8	0x409a6499	4.82478
9	0x402976ea	2.647883
10	0x408f7290	4.4827347
11	0x40b302f4	5.5941105
12	0x4070012b	3.7500713
13	0x40c391ca	6.1115465
14	0x4099bb1b	4.80409
15	0x40aa3700	5.319214
16	0x406e7138	3.7256603
17	0x400d5159	2.20809
18	0x405b628d	3.42789
19	0x40184f90	2.379856
20	0x40964d32	4.6969233
21	0x408829b1	4.2550893
22	0x40940d12	4.6265955
23	0x404c7348	3.1945362
24	0x40e6f18f	7.216987
25	0x40677bc9	3.6169302
26	0x408c265e	4.3796835
27	0x40c82a09	6.2551312
28	0x405b2aea	3.4244943
29	0x404da9c9	3.2134879
30	0x403f5124	2.9893274
31	0x404c0c2d	3.1882432
32	0x4084f8c7	4.1553683
33	0x4085046d	4.1567903
34	0x405d9abd	3.4625695
35	0x404ac2c1	3.1681368
36	0x404da385	3.2131054
37	0x404f39ca	3.2379022
38	0x40384255	2.8790486
39	0x4092633e	4.5746145
40	0x4028a11e	2.6348338
41	0x40c3a9d7	6.1144824
42	0x407122e3	3.7677543
43	0x3ff609f2	1.9221785
44	0x40d96e13	6.794687
45	0x4052562d	3.2865098
46	0x402fc204	2.7462168
47	0x40399331	2.8996089
48	0x404dc420	3.2150955
49	0x403580cc	2.8359861
50	0x4084ca58	4.1497
51	0x4025fabb	2.5934284
52	0x409deeea	4.9354143
53	0x40056e74	2.0848665
54	0x4039aaee	2.9010577
55	0x4079f890	3.905796
56	0x402777c8	2.6166859
57	0x40425b9b	3.0368412
58	0x401826f4	2.3773775
59	0x406c1fce	3.6894412
60	0x406309ef	3.5474813
61	0x41047981	8.279664
62	0x408099d6	4.018779
63	0x401c845a	2.445578
64	0x4039a118	2.9004574
65	0x405f0df3	3.4852264
66	0x40ad2d9b	5.411817
67	0x408aa6aa	4.3328447
68	0x405d21d2	3.4551892
69	0x4032a936	2.7915778
70	0x401650aa	2.3486733
71	0x4029b59c	2.6517096
72	0x40709108	3.758852
73	0x403b6a47	2.9283617
74	0x4059f704	3.4057016
75	0x40a6f2c6	5.2171354
76	0x4003d8b0	2.0601006
77	0x40795013	3.8955123
78	0x402f6c04	2.7409678
79	0x4044b8d7	3.0737817
80	0x404abeaa	3.1678872
81	0x4087720a	4.232671
82	0x401af36b	2.421107
83	0x404423c4	3.064683
84	0x403cb469	2.9485114
85	0x40406f4e	3.0067935
86	0x40281fd2	2.6269422
87	0x406cfb43	3.7028358
88	0x400f9848	2.2436695
89	0x4035ad9c	2.8387213
90	0x401fbf11	2.4960368
91	0x40519327	3.2746065
92	0x40664233	3.5977905
93	0x406014e5	3.5012753
94	0x40b2d1d4	5.588114
95	0x40161314	2.3449144

model_4/dense_9/BiasAdd/ReadVariableOp f4 [26]
0	0x3d71ecbf	0.05906367
1	0x3dfb2f23	0.1226485
2	0xbdb5fbb4	-0.08885899
3	0x3de0113c	0.10940787
4	0x3cf63339	0.030053722
5	0x3cc65b65	0.024213502
6	0x3cc98fcd	0.024604702
7	0x3e88f7cc	0.26751554
8	0x3b219daf	0.0024660637
9	0x3d4b4e5c	0.049635276
10	0x3d561982	0.05227042
11	0x3d22870b	0.03967957
12	0xbe23af71	-0.15984894
13	0xbd8394f6	-0.064248964
14	0x3d786173	0.06063981
15	0x3bc3ec1a	0.0059790732
16	0x3d63f3c3	0.05565239
17	0xbec3e1f9	-0.3825834
18	0xbedc869b	-0.43071446
19	0xbed128c3	-0.4085141
20	0xbec93c33	-0.3930374
21	0xbedaabee	-0.42709297
22	0xbed57e23	-0.41697797
23	0xbed1bf59	-0.409663
24	0xbec2f406	-0.380768
25	0xbec2c32e	-0.38039535

model_4/dense_8/BiasAdd/ReadVariableOp f4 [48]
0	0x3ca6a73a	0.020343412
1	0x3e21a39c	0.15785068
2	0x3dd10dc1	0.102077015
3	0x3cb864ca	0.022508997
4	0x3c9e804e	0.01934829
5	0x3dc62332	0.09674682
6	0x3e01c247	0.12671767
7	0x3df76997	0.120806865
8	0x3e61d995	0.22055657
9	0x3df73c78	0.120720804
10	0x3d3be2f2	0.04587073
11	0x3c0d46ac	0.0086228065
12	0x3d9b2e05	0.07577137
13	0x3d839b3b	0.06426092
14	0x3e00b15c	0.12567657
15	0x3ddcf2ff	0.10788535
16	0x3df3107e	0.1186838
17	0x3e233873	0.15939502
18	0x3d10cb8b	0.035350364
19	0x3d68ab15	0.05680378
20	0x3d761c94	0.060085848
21	0x3dd4e88a	0.10395916
22	0x3da61af1	0.081106074
23	0x3dc52a8f	0.09627258
24	0x3dc4c593	0.09607997
25	0x3e1dca27	0.15409146
26	0x3ce27867	0.027645303
27	0x3dee4bd3	0.11635556
28	0x3deb38e2	0.11485459
29	0x3d1e7dfc	0.038694367
30	0x3d999923	0.07499912
31	0x3e15e45a	0.1463789
32	0x3db3f687	0.08787256
33	0x3c88093c	0.016605966
34	0x3dae99c6	0.08525424
35	0x3e045527	0.12923108
36	0x3cd959c9	0.02653207
37	0x3dd91d95	0.106013454
38	0x3dc4b477	0.096047334
39	0x3dddf2e0	0.1083734
40	0x3e20199a	0.15634766
41	0x3d2d90aa	0.04237429
42	0x3e55818a	0.20850196
43	0x3d467cff	0.04845905
44	0x3dee90a5	0.116486825
45	0x3d9ba7de	0.076003775
46	0x3c8dd414	0.01731304
47	0x3dff65ec	0.12470612

model_4/gru_8/gru_cell/MatMul f4 [96, 126]
0	0xb90b0f43	-0.00013261758
1	0xb91e62d1	-0.00015104866
2	0xb79bbf86	-1.8566625e-05
3	0x39ce1e15	0.00039313795
4	0xba8d5043	-0.0010781366
5	0xba4e6060	-0.00078726374
6	0x3b5d6cce	0.0033786776
7	0x3915186f	0.0001421885
8	0xba83d2a7	-0.0010057286
9	0x3b3a2511	0.002840344
10	0x3a921998	0.0011146544
11	0xbb066dd6	-0.0020512245
12	0x3b98fa23	0.0046684905
13	0xbab4f80f	-0.0013806837
14	0xbaa3b75e	-0.0012490561
15	0x3b0d63d0	0.0021574385
16	0xbbc505fc	-0.0060126763
17	0xbb121e7d	-0.0022296004
18	0x3b898f87	0.004198018
19	0xbb542e02	-0.0032376056
20	0xbb36d270	-0.0027896427
21	0x3b9b0563	0.0047308668
22	0x3a9b9c87	0.001187221
23	0xbb7fa836	-0.0039010174
24	0x3ba07074	0.004896218
25	0x3a4b077d	0.0007744951
26	0xbb93833e	-0.0045017293
27	0x3af42bf6	0.0018628824
28	0xbb1d567c	-0.0024007848
29	0xbb2861cf	-0.0025693064
30	0x3b67f014	0.00353909
31	0xba9c447f	-0.0011922269
32	0xbb00747e	-0.0019600685
33	0x3b91af6e	0.0044459617
34	0x3b0eed91	0.002180908
35	0xbb5f89b0	-0.0034109168
36	0x3b87e207	0.0041468176
37	0x39f0021d	0.00045777942
38	0xbb57eee2	-0.0032948782
39	0x3aa910b4	0.0012898655
40	0xba99e63f	-0.0011741592
41	0xbb2e3187	-0.0026579814
42	0x3b92671d	0.0044678585
43	0xb91bdbdc	-0.00014863856
44	0xbb177d1f	-0.002311535
45	0x3b1e068e	0.0024112794
46	0x3ac889c7	0.001529985
47	0xbb07153d	-0.0020612024
48	0x3b2e8811	0.0026631395
49	0x37e0057e	2.6705438e-05
50	0xbb1f3267	-0.0024291517
51	0x3af8bf7c	0.0018977965
52	0xbb8c1370	-0.004274778
53	0xbb49fd33	-0.0030821085
54	0x3b6828c0	0.003542468
55	0xba6038e9	-0.0008553402
56	0xbb1d1ff5	-0.0023975347
57	0x3b3457f0	0.0027518235
58	0xbac216c4	-0.001480781
59	0xbb3f2460	-0.0029165968
60	0x3b4dcafc	0.0031401506
61	0x39df611d	0.0004260623
62	0xbad1cdae	-0.0016006732
63	0xb718db78	-9.111005e-06
64	0x39875a8e	0.00025816675
65	0x38c487fa	9.371336e-05
66	0xba757b08	-0.00093643414
67	0x3adf98d2	0.0017059094
68	0x398d4dc2	0.0002695155
69	0xbab632b5	-0.001390061
70	0x3b093f75	0.0020942364
71	0x3a084504	0.00051982724
72	0xbb1e5dbb	-0.0024164754
73	0x3b18a7cd	0.0023293376
74	0x38fc4501	0.000120291494
75	0xbb14332f	-0.0022613516
76	0x3af2fbff	0.0018538235
77	0x3a9aab0f	0.0011800247
78	0xbb1d3170	-0.0023985766
79	0x3b07a527	0.0020697804
80	0x38864c98	6.4038846e-05
81	0xbb06d5df	-0.0020574254
82	0x3ae0dba2	0.00171553
83	0x39c4c565	0.00037531104
84	0xbb8fbc25	-0.0043864422
85	0x3a0a36c8	0.0005272445
86	0x3a606792	0.0008560355
87	0xbb08f4e7	-0.0020897926
88	0x3b066177	0.002050487
89	0x3a1a5250	0.00058868993
90	0xbad3f51c	-0.0016171071
91	0x3b23fee2	0.0025023748
92	0xba01eacc	-0.0004955947
93	0xbb1de8cc	-0.0024095057
94	0x3a8aaa40	0.0010579303
95	0xb85f0784	-5.3174343e-05
96	0xbb3d88ce	-0.0028920653
97	0x3a6f094c	0.0009118512
98	0xb8d0f345	-9.9635254e-05
99	0xbb35db9a	-0.00277493
100	0x3a1c9fe6	0.00059747545
101	0x393290cb	0.00017029342
102	0xbab0e965	-0.0013497291
103	0x3a8bff1f	0.001068089
104	0xb9237aba	-0.0001559061
105	0xbb287384	-0.0025703618
106	0x3aa4e4d3	0.0012580402
107	0xb8493b6c	-4.7977475e-05
108	0xba73aa00	-0.00092950463
109	0x3a38b56f	0.00070460787
110	0x3853e3df	5.051854e-05
111	0xbaf5ce2d	-0.0018753462
112	0x39e939ce	0.0004448429
113	0x39944421	0.0002827952
114	0xbaf2ffde	-0.0018539389
115	0x3a0454a0	0.00050480105
116	0x3a0b7cbf	0.0005321018
117	0xbb1ffc2f	-0.0024411788
118	0x3a04b049	0.0005061669
119	0x3a13744b	0.0005624934
120	0xbb066bd4	-0.0020511048
121	0xb938774b	-0.00017592048
122	0x398015e9	0.00024430387
123	0xbb33c55f	-0.0027430875
124	0x3b227760	0.0024790391
125	0x3a1ed91c	0.00060595735
126	0x38734496	5.799959e-05
127	0xb807c52a	-3.237013e-05
128	0x389dff2d	7.5338736e-05
129	0xb7234288	-9.731048e-06
130	0x38a2875c	7.7499746e-05
131	0x39e7861e	0.00044159679
132	0x39c1f146	0.0003699159
133	0x3a836dcd	0.001002723
134	0x3a303bde	0.0006722788
135	0x38967818	7.1749266e-05
136	0x3a2befe0	0.00065588765
137	0x39b11d60	0.00033781957
138	0xb995bf15	-0.00028561862
139	0x3a314037	0.0006761583
140	0xb84b1f3b	-4.8428057e-05
141	0x39010798	0.00012305228
142	0x39b88024	0.00035190687
143	0x39ad7413	0.00033083613
144	0x39c9f48b	0.00038519906
145	0x3ac2bc36	0.0014857117
146	0x39925b98	0.00027915533
147	0xba565da0	-0.00081774034
148	0x3b09b4e2	0.0021012356
149	0x3a3b3352	0.0007141131
150	0x3a6803ca	0.0008850662
151	0x3ab7b0f9	0.0014014534
152	0x3a427fb3	0.00074195414
153	0x3a3d25e7	0.0007215426
154	0x3a513561	0.00079806714
155	0xb970170e	-0.00022896772
156	0xba86c0a0	-0.0010280795
157	0x3ace1515	0.0015722836
158	0x3a6abaea	0.0008954244
159	0xb8c5333b	-9.4032344e-05
160	0x3a6ce802	0.00090372574
161	0x3a883f6e	0.001039488
162	0xba41f8b5	-0.0007399426
163	0x3a91feb5	0.0011138531
164	0xb8dbda2f	-0.000104833736
165	0x39d6201c	0.00040841184
166	0x3a9e487a	0.0012076043
167	0x395730fc	0.00020522246
168	0x3988d2c2	0.00026096968
169	0x3b023f2d	0.0019874081
170	0x399ca64c	0.0002987854
171	0x3a74c842	0.0009337702
172	0x3a9a1806	0.0011756427
173	0x3a1126aa	0.00055370724
174	0xba27f4ce	-0.0006407023
175	0x394d2bb3	0.00019566603
176	0x3a97daf5	0.001158564
177	0xb8879481	-6.464963e-05
178	0x395301ca	0.00020123195
179	0x38ae89ef	8.322659e-05
180	0x39f91f35	0.00047516232
181	0x3b05a8ba	0.0020394758
182	0x398bd817	0.00026673145
183	0xb8a45dae	-7.8375786e-05
184	0x3a9984c6	0.0011712543
185	0x398434f9	0.0002521647
186	0x3a72348b	0.0009239397
187	0x3b00f592	0.0019677621
188	0x393b13dc	0.00017841108
189	0x382e0530	4.1489664e-05
190	0xb6b7ee54	-5.48157e-06
191	0xb8e5b629	-0.00010953501
192	0xb9b1bee5	-0.00033902298
193	0xba5e5e93	-0.00084827206
194	0xb9a1928e	-0.00030817505
195	0x39143ec9	0.00014137769
196	0xbab1a1bb	-0.0013552228
197	0xba0fc53d	-0.0005484408
198	0x3a33c1f0	0.0006857207
199	0xba9f9225	-0.0012174292
200	0xba8aaf21	-0.0010580757
201	0x395269d5	0.00020066586
202	0xbaa25752	-0.0012385643
203	0xba9626da	-0.001145567
204	0x3919a5a2	0.0001465292
205	0xba791063	-0.0009501038
206	0xba5261f9	-0.00080254633
207	0x39b90eaa	0.00035296875
208	0xba8b2dcf	-0.001061851
209	0xba4b84aa	-0.0007763604
210	0xba20d2e8	-0.0006134943
211	0xba8b0fb3	-0.0010609537
212	0xba9327d0	-0.0011227075
213	0xb93cd9cf	-0.00018010217
214	0xba3c265c	-0.0007177347
215	0xba84fbd8	-0.0010145856
216	0xb9755999	-0.00023398398
217	0xba302fee	-0.0006721009
218	0xba15b1d0	-0.0005710395
219	0x3a745350	0.0009320276
220	0xbac1ac82	-0.0014776143
221	0xba5ac9a9	-0.000834609
222	0xba0d6b7a	-0.00053947384
223	0xba9b0242	-0.0011826234
224	0xba919359	-0.0011106535
225	0x39f0d76b	0.00045936866
226	0xba7bddbc	-0.0009607931
227	0xba8feeed	-0.001098124
228	0xb97aa95c	-0.00023904949
229	0xb9c9de00	-0.0003850311
230	0xba392c93	-0.0007063832
231	0xba03a252	-0.0005021441
232	0xba20dc4b	-0.0006136342
233	0xba041f5e	-0.00050400745
234	0xba57a695	-0.0008226422
235	0xb9a657e8	-0.00031727483
236	0xba43134d	-0.00074415357
237	0xbaad154f	-0.0013205203
238	0x363e5cfc	2.836633e-06
239	0xba52bd1e	-0.0008039045
240	0xb84b4abc	-4.8468573e-05
241	0xba38efff	-0.0007054805
242	0xba8bb434	-0.0010658563
243	0x39c468fa	0.00037462247
244	0xb9ea140b	-0.0004464689
245	0xba8e1773	-0.0010840729
246	0x374849ca	1.1938109e-05
247	0xb9fa03a5	-0.0004768643
248	0xba5b4559	-0.00083645206
249	0xb9a7e91b	-0.000320264
250	0xba8ab071	-0.0010581148
251	0xba3ad6ee	-0.0007127364
252	0xb7c08fd2	-2.2955155e-05
253	0x385b6594	5.230827e-05
254	0xb71f1812	-9.482743e-06
255	0xba657ea8	-0.000875453
