app/src/main/assets/models/time.tflite (tflite, 673148 bytes, 52 tensors)

model_1/batch_normalization_4/batchnorm/add_1;model_1/conv1d_2/Conv1D/Squeeze;model_1/batch_normalization_4/batchnorm/mul_1;model_1/conv1d_2/BiasAdd;model_1/conv1d_2/BiasAdd/ReadVariableOp;model_1/batch_normalization_4/batchnorm/mul;model_1/batch_normalization_4/batchnorm/sub;model_1/conv1d_2/Conv1D;model_1/conv1d_3/Conv1D f4 [96]
0	0xbf1a36b7	-0.6023974
1	0xbcc68fc0	-0.024238467
2	0xbe7cd0a6	-0.24688968
3	0x3f1cdfe1	0.6127911
4	0xbf0f98c1	-0.5609246
5	0xbea5895b	-0.32331356
6	0xbf2e78bf	-0.68152994
7	0xbf7fde65	-0.9994872
8	0x3f210bc5	0.62908584
9	0x3f283f09	0.65721184
10	0xbed4c948	-0.41559815
11	0x3d9e49bb	0.07728907
12	0xbe00a4c2	-0.1256285
13	0xbedba254	-0.42897284
14	0xbef3da7a	-0.47627622
15	0x3da56d3e	0.08077477
16	0x3f68479a	0.90734255
17	0x3ecb9fc2	0.39770323
18	0xbeafa3e6	-0.34304732
19	0x3efba8f1	0.4915233
20	0xbf4ae92f	-0.7926206
21	0x3f0246c5	0.50889236
22	0xbe3570ef	-0.17718862
23	0x3f935860	1.1511345
24	0xbded29dd	-0.115802504
25	0xbe94ce02	-0.2906342
26	0xbd22912f	-0.03968924
27	0x3f42e737	0.76134056
28	0xbf203b15	-0.6259015
29	0xbebd8d12	-0.3702169
30	0xbe7d1b90	-0.24717546
31	0xbe83d7f8	-0.2575071
32	0xbeba53e2	-0.36392123
33	0xbf681f67	-0.90672916
34	0xbe9553b6	-0.2916543
35	0xbe2389b6	-0.15970501
36	0x3f29db47	0.66350216
37	0xbeadc71f	-0.3394098
38	0xbf98b05f	-1.1928824
39	0xbeb78960	-0.35846996
40	0x3f2b92fd	0.6702116
41	0x3c68ea90	0.01421608
42	0x3f1debf4	0.6168816
43	0xbe5a8b14	-0.21342117
44	0xbf233629	-0.63754517
45	0x3f0496cf	0.51792616
46	0xbf867796	-1.0505245
47	0xbe5efe12	-0.21776608
48	0xbf3e3bd5	-0.74310046
49	0xbf2ed148	-0.6828809
50	0xbe935a3e	-0.28779787
51	0x3ea88c35	0.3291947
52	0xbf078623	-0.5293905
53	0xbf471ae3	-0.777754
54	0xbf1644d5	-0.5869878
55	0xbec4f67e	-0.3846931
56	0xbf120391	-0.5703669
57	0x3f487b11	0.78312784
58	0x3f1eab94	0.6198056
59	0xbee92d85	-0.4554254
60	0x3ec6cf71	0.3883014
61	0xbedd17da	-0.4318226
62	0xbf03cc55	-0.5148366
63	0xbf208658	-0.6270499
64	0xbee31a26	-0.44355887
65	0xbd3a6400	-0.045505524
66	0xbe142aa8	-0.14469397
67	0xbea5b165	-0.32361904
68	0xbe104b8b	-0.14091317
69	0x3eb04407	0.344269
70	0xbefc014f	-0.49219748
71	0xbf18949c	-0.5960176
72	0x3ee6b9d5	0.45063654
73	0x3e4da64d	0.2008297
74	0xbe02a156	-0.12756857
75	0xbf8dcb8c	-1.1077743
76	0x3f2759a7	0.65371174
77	0x3dbf598b	0.09343251
78	0xbe995e20	-0.29954624
79	0xbf2cca85	-0.6749652
80	0xbf28af16	-0.6589216
81	0xbd2a930d	-0.041644145
82	0x3de36504	0.111032516
83	0xbf2681cc	-0.65041804
84	0xbeb0801c	-0.3447274
85	0xbf0465b9	-0.51717716
86	0xbf675054	-0.90356946
87	0xbf1fa3a6	-0.6235908
88	0xbf0773d9	-0.52911144
89	0xbda8acd0	-0.08236086
90	0x3ceaa824	0.028644629
91	0xbb53aca8	-0.0032298956
92	0xbe5fb2e5	-0.21845587
93	0xbf51ea89	-0.819985
94	0xbe13a378	-0.14417827
95	0xbeca164c	-0.39470136

model_1/batch_normalization_5/batchnorm/add_1;model_1/conv1d_3/Conv1D/Squeeze;model_1/batch_normalization_5/batchnorm/mul_1;model_1/conv1d_3/BiasAdd;model_1/conv1d_3/BiasAdd/ReadVariableOp;model_1/batch_normalization_5/batchnorm/mul;model_1/batch_normalization_5/batchnorm/sub;model_1/conv1d_3/Conv1D f4 [96]
0	0xbd327e79	-0.043577645
1	0x3f704547	0.9385571
2	0x3ee2566f	0.4420657
3	0xbe8e1b17	-0.27755043
4	0x3f99f3ab	1.2027487
5	0x3f8b1ca9	1.0868121
6	0xbdeca948	-0.11555725
7	0x3efe7a78	0.4970281
8	0x3f1b659b	0.6070191
9	0xbe93560f	-0.28776595
10	0x3efa4e27	0.4888775
11	0x3f45d184	0.7727282
12	0x3f564bea	0.83709586
13	0xbe76da27	-0.24106656
14	0xbd1e09b3	-0.03858347
15	0x3e78522d	0.24250098
16	0xbebb0307	-0.36525747
17	0xbe4293b9	-0.19001664
18	0xbc0df82a	-0.008665124
19	0xbe7204e4	-0.23634678
20	0xbe0131d6	-0.12616667
21	0x3dbb9932	0.09160079
22	0x3f0847ea	0.5323473
23	0xbe7fbc92	-0.24974278
24	0x3f1f9a7a	0.6234509
25	0xbeb31736	-0.34978646
26	0x3e743da5	0.2385164
27	0x3f307531	0.6892882
28	0xbeb5a3e9	-0.35476616
29	0x3f01cff0	0.5070791
30	0x3f7690e4	0.96314836
31	0xbe7dc4c3	-0.2478209
32	0xbe6d44d0	-0.23170781
33	0xbec8ad84	-0.39194882
34	0xbea631c1	-0.32459834
35	0x3e615dfe	0.22008511
36	0x3f8d64a4	1.1046338
37	0x3e40f5e0	0.18843794
38	0xbec1fd3a	-0.3788851
39	0x3ed79ae0	0.42110348
40	0xbe1e20eb	-0.15442245
41	0x3e01a795	0.12661584
42	0x3f02a140	0.510273
43	0x3d6a47e5	0.05719747
44	0x3e7fc0b6	0.24975857
45	0x3ecda20a	0.40162688
46	0x3d44d654	0.04805596
47	0xbeb778b9	-0.35834292
48	0xbe2f5206	-0.17121133
49	0xbf209f44	-0.6274302
50	0xbe037316	-0.1283687
51	0x3f030a76	0.5118784
52	0x3f09a152	0.5376178
53	0xbe851171	-0.2598987
54	0xbe064aca	-0.13114467
55	0xbe13256d	-0.14369746
56	0xbe8a7455	-0.2704188
57	0x3e630e7e	0.22173497
58	0x3d5fabad	0.054607082
59	0xbdf8c0a3	-0.121461175
60	0x3ea18fb8	0.3155496
61	0xbd8ff4f9	-0.07029147
62	0x3f74b5e0	0.9559002
63	0xbe55298b	-0.20816629
64	0xbe1462c1	-0.14490797
65	0xbe56e0ea	-0.20984235
66	0x3d896fc3	0.0671077
67	0x3f4301eb	0.761748
68	0x3f951718	1.1647673
69	0x3ecee249	0.40407017
70	0x3f211ceb	0.6293475
71	0xbe3e4cbe	-0.18583962
72	0x3f632027	0.88720936
73	0xbed4a6ef	-0.4153361
74	0xbf2d1bf0	-0.67620754
75	0x3e80f7b3	0.2518898
76	0x3d45d840	0.048301935
77	0xbea10bad	-0.3145422
78	0x3e74840d	0.23878498
79	0x3ee57251	0.4481378
80	0x3fb800b0	1.437521
81	0x3f336a0a	0.7008368
82	0xbecbf4d7	-0.39835235
83	0xbe6e1e1c	-0.23253673
84	0x3f24accf	0.64326185
85	0x3e1ffb6c	0.15623254
86	0x3f0e9cbe	0.5570792
87	0x3f855f66	1.0419738
88	0x3ed73f45	0.42040458
89	0x3f246de3	0.64230174
90	0x3f4865c4	0.7828028
91	0xbe2449ca	-0.16043773
92	0x3f29731b	0.6619126
93	0xbe8a2dca	-0.2698806
94	0x3f9c134e	1.2193391
95	0xbf13e53f	-0.57771677

model_1/batch_normalization_4/batchnorm/mul_1;model_1/conv1d_2/Conv1D/Squeeze;model_1/conv1d_2/BiasAdd;model_1/conv1d_2/BiasAdd/ReadVariableOp;model_1/batch_normalization_4/batchnorm/mul;model_1/conv1d_2/Conv1D;model_1/conv1d_3/Conv1D f4 [96, 1, 3, 126]
0	0x3b84ed25	0.00405659
1	0xb8b7e484	-8.768684e-05
2	0xba0c9eed	-0.0005364258
3	0x3b21b72e	0.0024675834
4	0x3ceed2d7	0.02915327
5	0xbaca5f86	-0.0015439845
6	0xbad961eb	-0.0016584968
7	0x3cc2b347	0.023767127
8	0xbc86c514	-0.016451396
9	0xbc1e738f	-0.009671106
10	0x3c2551c7	0.010090298
11	0xbcdc8ac2	-0.026921634
12	0xbcd20bf2	-0.025640462
13	0x3b8c70b5	0.0042858967
14	0xbd1473f6	-0.0362434
15	0xbc7d78ae	-0.015470667
16	0xbccbf871	-0.02489874
17	0xbca910dc	-0.020637922
18	0x3b89361d	0.004187359
19	0xbd5555b6	-0.052083693
20	0xbc4a3269	-0.01234112
21	0x3c3127f2	0.010812746
22	0xbdd3d3f9	-0.10343165
23	0xbb4205dc	-0.0029605543
24	0x3c132736	0.008981517
25	0xbe0e63e7	-0.13905297
26	0x3a5096ce	0.0007957042
27	0xbca4e358	-0.020127937
28	0xbd889529	-0.06669075
29	0xbc8eb2ac	-0.017419182
30	0x3c099567	0.008397437
31	0xbd6a3d7f	-0.057187553
32	0xbcd08336	-0.025453191
33	0x3bc4d6aa	0.0060070353
34	0xbd26d33e	-0.0407288
35	0xbcb85b63	-0.022504514
36	0xbb058f5b	-0.0020379636
37	0xbcead666	-0.028666686
38	0xbc776ae5	-0.015101169
39	0xbc9e7c96	-0.019346517
40	0xbd1128fc	-0.035439476
41	0xbb5485d6	-0.0032428405
42	0x3c8cb6c4	0.017176993
43	0xbca3b2c0	-0.019982696
44	0xbc6fb1ca	-0.014629791
45	0x3c4b31ca	0.012402007
46	0xbc8a909c	-0.016914658
47	0xbc6430a6	-0.013927614
48	0x3a0848b6	0.0005198823
49	0xbc4263c6	-0.011864608
50	0xbc135061	-0.008991332
51	0xbc3dbb11	-0.011580245
52	0xbccc9e86	-0.024977934
53	0x3be73536	0.007055904
54	0x3c3d1677	0.011541001
55	0xbca91fc1	-0.020645024
56	0x3b188e66	0.0023278235
57	0x3c94c275	0.01815913
58	0xbccd00e2	-0.025024835
59	0x3ba23537	0.0049501914
60	0x3c7c3e43	0.015395704
61	0xbcb4b78d	-0.02206018
62	0x3c061cde	0.008185593
63	0x3a26bfef	0.0006360998
64	0xbaf09223	-0.0018354099
65	0xbad91118	-0.001656088
66	0x3c61906b	0.013767342
67	0x3d1d5383	0.03840972
68	0x3af3ee22	0.0018610398
69	0x3cae41af	0.021271555
70	0x3d2e6e29	0.042585526
71	0x3bcc1e68	0.0062292106
72	0x3cc02e26	0.023459505
73	0x3d199239	0.037492964
74	0x3c3c5cf1	0.011496768
75	0x3cbbf4ff	0.022943972
76	0x3cfed6f7	0.031108363
77	0x3c63df71	0.013908253
78	0x3cac5736	0.02103768
79	0x3cdfcf3c	0.027320497
80	0x3c0240ef	0.007950052
81	0x3cb05ec3	0.02152956
82	0x3cf4b6fc	0.02987241
83	0x3c9fb601	0.019495966
84	0x3c541047	0.012943334
85	0x3ce608d7	0.028080387
86	0x3ccba0fe	0.02485704
87	0x3baa915f	0.005205318
88	0x3cc0ed32	0.023550604
89	0x3ce4c677	0.027926667
90	0x3ca9e58c	0.02073934
91	0x3c09a0ad	0.0084001245
92	0x3c1761c3	0.009239617
93	0x3cb296e6	0.02180047
94	0x3c6d8184	0.014496211
95	0x3c734d68	0.014849998
96	0x3c5490ce	0.012973977
97	0x3c67ad74	0.014140476
98	0x3c838856	0.016056221
99	0x3b872c02	0.004125119
100	0x3c3d3655	0.011548598
101	0x3c916e13	0.017752683
102	0x3cb2c8c9	0.021824257
103	0x3ae719e6	0.001763162
104	0x3c9ddc89	0.019270198
105	0x3ca412a1	0.020028414
106	0x3c4f6529	0.012658396
107	0x3cb5e44a	0.022203583
108	0x3c42dd0d	0.011893523
109	0x3c73ead2	0.0148875285
110	0x3c999cc6	0.018751513
111	0x3b51d34d	0.0032016814
112	0x3c5f5068	0.01363001
113	0x3c82301a	0.015892077
114	0x3c93672f	0.017993538
115	0xbc0933b7	-0.008374146
116	0x3cb81920	0.022472918
117	0x3c93a070	0.018020838
118	0x3b3e77bc	0.0029063066
119	0x3cb88c7a	0.022527922
120	0x3c521169	0.012821534
121	0x3c13058e	0.008973492
122	0x3c9e66c2	0.019336108
123	0x3bcd2816	0.006260882
124	0x3c3935f1	0.011304365
125	0x3c90c283	0.017670875
126	0x3b2234c9	0.00247507
127	0x3b119c81	0.0022218528
128	0xba52847a	-0.0008030605
129	0x3b5771dd	0.0032874264
130	0x3cfc8e5e	0.030829605
131	0xbaa35c8a	-0.0012463492
132	0xba9b3cca	-0.0011843678
133	0x3cd1f0e5	0.025627563
134	0xbc84a6ae	-0.01619276
135	0xbc1a628d	-0.00942291
136	0x3c449a29	0.011999645
137	0xbcdbc543	-0.02682746
138	0xbcce699c	-0.025196843
139	0x3be58b12	0.007005104
140	0xbd140489	-0.036137138
141	0xbc7662b6	-0.015038183
142	0xbcc1888f	-0.023624687
143	0xbca616a3	-0.020274466
144	0x3b74ca77	0.0037352124
145	0xbd5bb0e9	-0.05363551
146	0xbc2fcef5	-0.010730495
147	0x3c2bc422	0.010483773
148	0xbdd9b996	-0.10631101
149	0xba9d5675	-0.0012003916
150	0x3c14dff0	0.009086594
151	0xbe11bd01	-0.14232256
152	0x3b2d0596	0.0026401035
153	0xbca55c94	-0.020185746
154	0xbd8880f4	-0.06665221
155	0xbc8a9f3b	-0.01692163
156	0x3bf6c0b9	0.0075302985
157	0xbd6e8c83	-0.05823947
158	0xbcca2b4b	-0.024678847
159	0x3bb6ca21	0.005578295
160	0xbd2f8ac3	-0.042856943
161	0xbcb19ff3	-0.021682715
162	0xbb0a3344	-0.0021087686
163	0xbcfeb0a0	-0.03109008
164	0xbc6ab2b5	-0.014324834
165	0xbc9cf934	-0.019161798
166	0xbd0f6b30	-0.03501433
167	0xbb16c59d	-0.002300597
168	0x3c883b84	0.016629942
169	0xbcad7e2e	-0.021178331
170	0xbc5d3d27	-0.013503349
171	0x3c446f57	0.011989436
172	0xbc96ed5e	-0.018423732
173	0xbc599dc8	-0.013282247
174	0x39c47c41	0.0003747661
175	0xbc4eec0b	-0.012629519
176	0xbc0f110e	-0.0087320935
177	0xbc42ada1	-0.011882217
178	0xbcc6270b	-0.024188539
179	0x3c131af3	0.008978593
180	0x3c2c1aaf	0.010504409
181	0xbcab8e49	-0.02094187
182	0x3b8ee2ce	0.0043605333
183	0x3c8e0e30	0.01734075
184	0xbcd3ad6a	-0.025839526
185	0x3bd85784	0.0066022296
186	0x3c76c8a1	0.015062482
187	0xbcb90aae	-0.0225881
188	0x3c1ecf81	0.0096930275
189	0x39bf5a52	0.00036497653
190	0xbb324995	-0.0027204503
191	0xba9b2262	-0.0011835808
192	0x3c5d136b	0.013493399
193	0x3d233f9a	0.039855577
194	0x3b48850c	0.003059688
195	0x3caa9f00	0.02082777
196	0x3d328189	0.043580566
197	0x3c0070fe	0.007839439
198	0x3cbd4e8e	0.023108747
199	0x3d1c2cae	0.038128547
200	0x3c5f7c98	0.013640545
201	0x3cb9e1f8	0.022690758
202	0x3d004872	0.03131909
203	0x3c8827f0	0.016620606
204	0x3ca9d78e	0.020732667
205	0x3ce17cda	0.027525354
206	0x3c155e69	0.009116747
207	0x3cab91b2	0.020943496
208	0x3cf0c130	0.029388994
209	0x3cae497e	0.021275278
210	0x3c44b49a	0.012005949
211	0x3cdb184e	0.026744988
212	0x3cdf36ff	0.027247904
213	0x3b8e6469	0.004345466
214	0x3caeadbf	0.021323083
215	0x3cf8a4e8	0.03035207
216	0x3ca5f7c9	0.020259755
217	0x3c0b9e7f	0.008521675
218	0x3c2f2b23	0.010691437
219	0x3caa4a41	0.02078736
220	0x3c6aa918	0.014322542
221	0x3c8b1d6e	0.016981807
222	0x3c4347b1	0.011918948
223	0x3c5853ec	0.013203602
224	0x3c9683a8	0.018373325
225	0x3b4157c7	0.0029501782
226	0x3c2144d7	0.009843073
227	0x3ca3c8a9	0.019993143
228	0x3caf0405	0.021364221
229	0x3b1e4081	0.0024147334
230	0x3cae0035	0.021240333
231	0x3c9b1c7f	0.018934486
232	0x3c508b13	0.01272847
233	0x3cc8cecb	0.02451267
234	0x3c2fab1c	0.010721948
235	0x3c6ad151	0.0143321315
236	0x3cac99fa	0.021069515
237	0x3ae574a8	0.001750608
238	0x3c4927db	0.012277569
239	0x3c92743a	0.017877687
240	0x3c9024e7	0.017595721
241	0xbbfa0459	-0.007629913
242	0x3cc61248	0.024178639
243	0x3c8d1184	0.017220266
244	0x3b7eca6d	0.003887798
245	0x3cc91dae	0.024550285
246	0x3c43615f	0.011925071
247	0x3c1f3251	0.009716586
248	0x3cacd9e1	0.021099987
249	0x3ba9af1b	0.005178345
250	0x3c3bcf23	0.011462959
251	0x3c9d78e4	0.019222684
252	0x3a23eb6a	0.0006253036
253	0x3b50add3	0.0031841889
254	0xba9f010e	-0.0012131052
255	0x3b78f475	0.0037987505

model_1/batch_normalization_5/batchnorm/mul_1;model_1/conv1d_3/Conv1D/Squeeze;model_1/conv1d_3/BiasAdd;model_1/conv1d_3/BiasAdd/ReadVariableOp;model_1/batch_normalization_5/batchnorm/mul;model_1/conv1d_3/Conv1D f4 [96, 1, 3, 96]
0	0xbc8b6fd1	-0.017021092
1	0xbcb80d41	-0.022467257
2	0xbd38aa08	-0.04508403
3	0xbd508660	-0.0509094
4	0xbc8f2e40	-0.017478108
5	0x3ce9746c	0.028497897
6	0xbc9e52ac	-0.01932653
7	0xbc2c0f15	-0.010501643
8	0xbcf691c0	-0.030098796
9	0xbd1998f6	-0.03749939
10	0x3d62f1ac	0.055406258
11	0xbd8e62ee	-0.06952463
12	0xbaffab69	-0.001950604
13	0x3d29d167	0.041459467
14	0xbca75d6f	-0.020430295
15	0xbc824619	-0.015902566
16	0xbc2f248c	-0.010689866
17	0x3cba8053	0.022766268
18	0x3d8a08a4	0.06739929
19	0xbbb19466	-0.005419302
20	0xbd78447b	-0.060612183
21	0x3c62b736	0.013837626
22	0xbc4364f3	-0.011925924
23	0x3c7c2c83	0.015391472
24	0x3d4c6afe	0.049906723
25	0xbbb0f46b	-0.0054002306
26	0x3dd1fd7d	0.10253427
27	0xbd0176b6	-0.031607352
28	0xbc26488f	-0.010149135
29	0xbd473919	-0.048638437
30	0x3c0e8d22	0.008700641
31	0x3d8961e1	0.06708122
32	0x3cc28345	0.023744235
33	0x3ca3e9fc	0.020009033
34	0xbc8f390d	-0.017483259
35	0xbd0c4874	-0.034248784
36	0x3ca43a41	0.020047309
37	0x3da4b496	0.080422565
38	0xbd374112	-0.04473979
39	0x3ca24d6e	0.019812312
40	0xbd70b911	-0.058770243
41	0xbc944d0d	-0.018103147
42	0xbba8eb39	-0.005154994
43	0x3da9adf8	0.08285135
44	0xbb7a36e2	-0.0038179685
45	0x3d190372	0.0373568
46	0xbd1ad89d	-0.037804235
47	0x3ca0493c	0.01956617
48	0xbcc60feb	-0.024177512
49	0xbd1f9757	-0.03896269
50	0x3d86d911	0.06584371
51	0xbb724ef8	-0.0036973339
52	0xbcbb7f71	-0.022887917
53	0x3c58f4fa	0.013242001
54	0x3cd908d1	0.026493462
55	0x3d93e807	0.0722199
56	0x3d058fb3	0.032607745
57	0xbd4d8016	-0.05017098
58	0x3c9fe444	0.019518025
59	0x3d398540	0.045293093
60	0xbc5c1c91	-0.013434545
61	0x3d73c09d	0.059509862
62	0x3d5087e5	0.05091085
63	0x3b34533c	0.0027515432
64	0xbc34019a	-0.01098671
65	0xbd1b037e	-0.037845127
66	0x3d6ae82f	0.057350334
67	0x3c9f6be5	0.019460628
68	0xbbd98e77	-0.0066392976
69	0x3d08532a	0.033282436
70	0xbc4048a3	-0.011736068
71	0xbc236a70	-0.009974107
72	0xbbecfd8b	-0.007232373
73	0x3cc24229	0.023713188
74	0xbcde0237	-0.027100665
75	0x3be55df7	0.006999727
76	0xbcae87ef	-0.021305053
77	0xbcd7ffc1	-0.02636707
78	0x3d8bf08e	0.068329915
79	0xbbd11217	-0.0063803303
80	0x3c894e04	0.016760834
81	0x3d020dc0	0.031751394
82	0x3d8d27b8	0.068923414
83	0x3bbea421	0.0058179055
84	0x3d1c02fe	0.03808879
85	0xbccdaa5f	-0.025105653
86	0xbaeadfef	-0.0017919521
87	0x3d8d62d4	0.069036156
88	0xbcde474c	-0.027133606
89	0x3cb3f57c	0.021967642
90	0x3d24d5fa	0.040243126
91	0x3d2e0977	0.042489495
92	0xbce1327d	-0.027489895
93	0xbd1afd1b	-0.037839036
94	0x3d3387f4	0.043830827
95	0x3d240f3a	0.040053584
96	0xbc818b4f	-0.015813498
97	0xbca32a44	-0.019917615
98	0xbd35c5e6	-0.044378184
99	0xbd53e805	-0.051734943
100	0xbc705e92	-0.014670985
101	0x3cf8d197	0.030373378
102	0xbc85d63a	-0.016337503
103	0xbc2647d3	-0.01014896
104	0xbd0314be	-0.032002203
105	0xbd1d0ac2	-0.038340338
106	0x3d66a093	0.05630548
107	0xbd8ef51c	-0.06980345
108	0xba3aa027	-0.00071192015
109	0x3d2d7461	0.042347316
110	0xbc9608d9	-0.018314766
111	0xbc605570	-0.013692245
112	0xbbcda8a6	-0.006276208
113	0x3cafe646	0.021472108
114	0x3d8d920a	0.0691262
115	0xbc17e4a4	-0.009270821
116	0xbd7b45ce	-0.061345868
117	0x3c2dc037	0.01060491
118	0xbc2aa394	-0.010414977
119	0x3c5735ff	0.013135432
120	0x3d587305	0.052844066
121	0xbb83493b	-0.0040065325
122	0x3dd39663	0.10331418
123	0xbd117a0b	-0.03551678
124	0xbc03d050	-0.008045271
125	0xbd3ffea9	-0.046873722
126	0x3c41452b	0.011796276
127	0x3d8e135b	0.069372855
128	0x3cc72d9f	0.024313746
129	0x3c9cc489	0.019136684
130	0xbc7b24fa	-0.01532864
131	0xbd0ef551	-0.03490192
132	0x3c843346	0.01613773
133	0x3da67bf9	0.08129115
134	0xbd31fc4b	-0.043453496
135	0x3ca80114	0.020508327
136	0xbd8126c6	-0.063062236
137	0xbca9343b	-0.020654788
138	0xbc050b5c	-0.008120384
139	0x3da92477	0.08258908
140	0xbb4eb711	-0.0031542222
141	0x3d12908b	0.03578238
142	0xbd18c656	-0.037298523
143	0x3cb843f7	0.022493346
144	0xbcb8ea30	-0.022572607
145	0xbd1a881c	-0.03772746
146	0x3d8a78a3	0.06761291
147	0xbace45d4	-0.0015737363
148	0xbcad1f28	-0.02113302
149	0x3c75bfaa	0.01499931
150	0x3ccebfe1	0.02523798
151	0x3d97f974	0.07420626
152	0x3d05cb2a	0.032664455
153	0xbd480f64	-0.048842803
154	0x3c879488	0.016550317
155	0x3d3d9bdf	0.04629123
156	0xbc7a1db7	-0.015265874
157	0x3d76f409	0.060291324
158	0x3d5743ce	0.052554898
159	0x3b868e75	0.0041063377
160	0xbc27c3be	-0.01023954
161	0xbd0dc78a	-0.034614123
162	0x3d76a43e	0.060215227
163	0x3ca67ef3	0.020324206
164	0xbba863fc	-0.005138872
165	0x3cfa9afa	0.030591477
166	0xbc3dc078	-0.011581533
167	0xbbf33957	-0.007422607
168	0xbba70410	-0.00509692
169	0x3cc73bee	0.024320569
170	0xbcc6df9e	-0.02427655
171	0x3bf80643	0.007569106
172	0xbc94a10c	-0.0181432
173	0xbcb0b2d2	-0.021569643
174	0x3d92b7c8	0.0716396
175	0xbb9b87fd	-0.0047464357
176	0x3c9e6758	0.019336388
177	0x3d0f0f4e	0.034926705
178	0x3d90fbae	0.07079254
179	0x3c10d144	0.008838955
180	0x3d23ab97	0.039958563
181	0xbcc0ed0c	-0.023550533
182	0xba6fb8c5	-0.0009144659
183	0x3d9db57e	0.077006325
184	0xbcc98919	-0.024601506
185	0x3cb99a42	0.022656564
186	0x3d23d534	0.03999825
187	0x3d2b5add	0.0418347
188	0xbce0183e	-0.02735531
189	0xbd18bdd9	-0.037290428
190	0x3d3b39df	0.045709487
191	0x3d281919	0.04103956
192	0xbc75c2e5	-0.01500008
193	0xbc3b956f	-0.011449202
194	0xbd2e2711	-0.042517725
195	0xbd52ba19	-0.051447008
196	0xbc3a781f	-0.011381178
197	0x3cfe726b	0.031060418
198	0xbc66c9af	-0.014086171
199	0xbc184331	-0.009293363
200	0xbd0aa5d6	-0.03384956
201	0xbd260dd0	-0.040540516
202	0x3d5dfbe4	0.0541953
203	0xbd90325a	-0.07040854
204	0x3a974ee0	0.0011543892
205	0x3d3d34ed	0.046193052
206	0xbc87b2fc	-0.016564839
207	0xbc5910d7	-0.013248644
208	0xbbec465c	-0.007210536
209	0x3c9c0bc4	0.019048579
210	0x3d8bed89	0.068324156
211	0xbc21c725	-0.00987414
212	0xbd72d00e	-0.059280448
213	0x3c19a3f2	0.0093774665
214	0xbc157224	-0.0091214515
215	0x3c6c4dd0	0.014422849
216	0x3d60899c	0.054818735
217	0xb9a19bf6	-0.00030824513
218	0x3dd1b6f8	0.10239977
219	0xbd1b689d	-0.037941564
220	0xbbba77a2	-0.005690531
221	0xbd32a469	-0.043613825
222	0x3c82a4cf	0.015947727
223	0x3d8d5344	0.06900647
224	0x3cb6c319	0.022309827
225	0x3c8c41b2	0.01712117
226	0xbc617430	-0.013760611
227	0xbd11d349	-0.035601888
228	0x3c318415	0.0108347135
229	0x3da3e19a	0.080020145
230	0xbd247ad9	-0.04015622
231	0x3caa1530	0.020762056
232	0xbd827827	-0.063705735
233	0xbc8af422	-0.016962115
234	0xbc2cb3dd	-0.01054093
235	0x3da315da	0.07963152
236	0xb9da173f	-0.0004159752
237	0x3d0757e8	0.03304282
238	0xbd0e44cc	-0.03473358
239	0x3cc9219a	0.024552155
240	0xbcbb36d9	-0.022853302
241	0xbd23507f	-0.03987169
242	0x3d8a2bd4	0.06746641
243	0x3ba2532c	0.0049537625
244	0xbca7f555	-0.020502726
245	0x3c64aad7	0.013956747
246	0x3cac888e	0.021061208
247	0x3d91ae51	0.07113326
248	0x3d059732	0.032614894
249	0xbd4d4cf8	-0.05012223
250	0x3c65b6ea	0.014020661
251	0x3d47678c	0.048682734
252	0xbc71c4c0	-0.0147563815
253	0x3d6ed7ea	0.05831138
254	0x3d540e7d	0.05177163
255	0x3c10ce1a	0.008838201

model_1/gru_3/gru_cell/strided_slice_4 f4 [48]
0	0xbd568ff8	-0.052383393
1	0x3b85eddd	0.0040871934
2	0xbdf23174	-0.11825839
3	0xbd4b6dbc	-0.049665198
4	0x3d566304	0.052340522
5	0x3dfb2340	0.12262583
6	0x3e1d1dbd	0.15343376
7	0xbd98e617	-0.07465761
8	0xbd89d2b5	-0.06729642
9	0xbb1486fd	-0.0022663467
10	0x38c08f3c	9.181953e-05
11	0xbcd789e3	-0.026310867
12	0xbcbaa658	-0.022784397
13	0xbd14296c	-0.036172315
14	0x3d4fb879	0.050713036
15	0x3d939815	0.07206742
16	0x3e00e783	0.12588315
17	0xbb321f04	-0.0027179131
18	0xbd347e06	-0.044065498
19	0x3d1e8c05	0.03870775
20	0x3d88ece5	0.06685809
21	0xbe0abdff	-0.1354904
22	0x3c6a795e	0.014311163
23	0x3e0ca6c3	0.1373549
24	0xbcd71086	-0.026252996
25	0xbd97fea6	-0.07421617
26	0x3e41d84d	0.18930168
27	0xbd67fee7	-0.05663958
28	0x3c7a6230	0.015282199
29	0xbc37e21b	-0.011223341
30	0xbb7c5d8f	-0.0038507914
31	0xbd2340b8	-0.039856642
32	0x3d236848	0.039894372
33	0xbdca69b5	-0.09883443
34	0x3c84fc99	0.01623373
35	0xbcfdb591	-0.030970367
36	0x3cd81738	0.026378259
37	0x3dcf69e7	0.10127621
38	0xbd88d76c	-0.066817135
39	0xbdde3b1d	-0.10851119
40	0x3d98555d	0.07438157
41	0xbd00e43e	-0.03146767
42	0x3d8ee153	0.06976571
43	0x3ce68a15	0.028142015
44	0xbddc44d0	-0.107553124
45	0xbcce18fc	-0.025158398
46	0xbd296e54	-0.041364983
47	0x3d26237d	0.040561188

model_1/gru_3/gru_cell/strided_slice_3 f4 [48]
0	0x3dd38c5a	0.10329504
1	0x3e611f77	0.21984659
2	0x3e156e53	0.14592867
3	0x3d0522ce	0.032503895
4	0xbde5b646	-0.112164065
5	0x3e0d8c9d	0.13823171
6	0xbb1ebcc8	-0.002422141
7	0x3e8e9edc	0.27855575
8	0xbde854b0	-0.11344278
9	0x3d91b8f0	0.07115352
10	0x3e02829e	0.12745139
11	0x3e1ab18d	0.15106793
12	0x3e537e77	0.20653711
13	0xbddea3b1	-0.108710654
14	0x3d039762	0.03212679
15	0x3d8a489a	0.06752129
16	0xbd69fa0b	-0.057123225
17	0xbcb0acb8	-0.021566734
18	0x3dae235c	0.08502838
19	0x3e246ee0	0.1605792
20	0x3d6a3fe1	0.057189826
21	0xbd51534d	-0.051104832
22	0x3dc2ea99	0.09517402
23	0xbcd7c06d	-0.026336873
24	0x3cbfca98	0.023412034
25	0x3dc7b2e3	0.09750917
26	0x3df72967	0.12068444
27	0xbd491dff	-0.049100872
28	0x3dd6ee3f	0.104946606
29	0x3e9237eb	0.28558287
30	0x3dc54aa8	0.0963338
31	0x3d3827c1	0.044959787
32	0x3dc63fa5	0.09680108
33	0xbd32bef1	-0.043639127
34	0x3e3df78a	0.1855146
35	0x3d67f39e	0.056628816
36	0x3e1c5654	0.15267307
37	0xbd176044	-0.03695704
38	0x3e11aa8d	0.14225216
39	0x3d4991d5	0.049211342
40	0x3d5243b4	0.051334098
41	0x3c7e2beb	0.015513401
42	0x3cd6f8fb	0.02624177
43	0x3e1ef22e	0.15522072
44	0x3df77445	0.120827235
45	0x3dd5c6b6	0.10438292
46	0xbc1f4896	-0.009721896
47	0x3e8b78e7	0.2724068

model_1/gru_3/gru_cell/strided_slice_5 f4 [48]
0	0x3da4eef6	0.08053391
1	0x3d09f03a	0.033676364
2	0x3d07bc9f	0.033138867
3	0xbdcb011d	-0.09912322
4	0x3caeffdc	0.021362238
5	0x3bf8ce02	0.0075929174
6	0x3d7a58d3	0.061119866
7	0xbe5e8734	-0.21731263
8	0x3c2b4086	0.010452395
9	0xbe53696c	-0.20645684
10	0xbd202172	-0.039094396
11	0x3d93d3ff	0.072181694
12	0xbdba0001	-0.09082032
13	0xbd992b4b	-0.074789606
14	0xbbd992ac	-0.006639799
15	0x3dba1c33	0.0908741
16	0xbdd844d4	-0.10560003
17	0xbc2beb8b	-0.01049317
18	0x3d398f4b	0.04530267
19	0xbd2aee64	-0.041731253
20	0xbda5fa13	-0.081043385
21	0x3c6c8ee3	0.014438364
22	0x3e837dc0	0.25681877
23	0x3d263616	0.040578924
24	0xbd83132e	-0.064001426
25	0xbc8803f0	-0.01660344
26	0x3df2646b	0.118355595
27	0xbd535d75	-0.0516028
28	0xbd578f75	-0.052627046
29	0x3db960a6	0.09051637
30	0xbd82cd8b	-0.063868605
31	0x3d90b20d	0.070652105
32	0x3e5ad3b3	0.2136982
33	0xbd99d6d8	-0.07511681
34	0xbcd396b3	-0.025828695
35	0xbe5d3006	-0.2160035
36	0xbd1f7e3e	-0.038938753
37	0xbd399d8f	-0.045316275
38	0x3c8671f0	0.016411752
39	0x3d028db0	0.031873405
40	0x3e3e4d8a	0.18584266
41	0xbce61b31	-0.028089138
42	0x3deb5926	0.11491613
43	0xbdeba3f8	-0.11505884
44	0xbd82ceeb	-0.06387123
45	0x3bef5eb3	0.00730499
46	0xbddb226e	-0.10699926
47	0xbccc74fb	-0.024958124

model_1/gru_3/gru_cell/strided_slice_11 f4 [48]
0	0x3dae933c	0.085241765
1	0x3d3d4151	0.04620487
2	0x3d21ee68	0.039534003
3	0xbd9188f9	-0.071062036
4	0x3d71c002	0.059021004
5	0xbc6b065f	-0.014344781
6	0x3d916fd9	0.07101411
7	0xbe3f3698	-0.1867317
8	0x3c1ac436	0.009446194
9	0xbe035eb1	-0.1282909
10	0xbd308e4f	-0.043104466
11	0x3c51fdb1	0.012816832
12	0xbd6bf663	-0.05760802
13	0xbdba122f	-0.090854995
14	0x3c54d9fe	0.0129914265
15	0x3d30d870	0.04317516
16	0xbdec9664	-0.11552122
17	0xbc0344fd	-0.008012054
18	0x3c7e94f0	0.015538439
19	0xbd8c4d53	-0.06850686
20	0xbd92718a	-0.07150562
21	0xbd528fb8	-0.051406592
22	0x3e566484	0.20936781
23	0x3ce2e32e	0.027696218
24	0xbd95bd91	-0.073115475
25	0x3b04ecef	0.0020282825
26	0x3dc21113	0.09475913
27	0xbbfc2711	-0.0076950868
28	0xbd8c7b6f	-0.068594806
29	0x3dd806ab	0.10548147
30	0xbd1c56a5	-0.03816857
31	0x3d2eeeb3	0.04270811
32	0x3e28a0d5	0.16467603
33	0xbcfd5051	-0.030922087
34	0x3a3a4441	0.00071055075
35	0xbe0c581c	-0.13705486
36	0xbcb96ed1	-0.02263585
37	0xbd32f14d	-0.043687154
38	0x3cd89477	0.026437981
39	0x3b90d2c6	0.0044196574
40	0x3e095941	0.13412954
41	0xbd3a5089	-0.04548696
42	0x3c348351	0.011017636
43	0xbd9dc124	-0.07702854
44	0xbdbe4ad8	-0.09291619
45	0x3d5ee477	0.0544171
46	0xbca30c8a	-0.01990344
47	0xbc3212d6	-0.010868749

model_1/gru_2/gru_cell/strided_slice_4 f4 [96]
0	0xbd65b6d6	-0.05608257
1	0xbc6840fd	-0.014175651
2	0xbd60387c	-0.054741368
3	0xbd9406ea	-0.07227881
4	0x3cc004a5	0.023439715
5	0x3ad1282a	0.0015957404
6	0x3d33325f	0.04374921
7	0xbd7d657c	-0.06186436
8	0xbc93a416	-0.018022578
9	0xbd493f98	-0.049132913
10	0x3caf0fd8	0.02136986
11	0xbd8ad10a	-0.06778152
12	0xbc822140	-0.015884995
13	0xbcf04424	-0.029329367
14	0x3c67ba33	0.014143514
15	0x3c467ea6	0.012115156
16	0x3e03d4de	0.12874171
17	0xbd2e732b	-0.0425903
18	0xbd881adc	-0.06645748
19	0xbd3845a1	-0.04498828
20	0xbdb502b8	-0.08838409
21	0xbd764251	-0.060121838
22	0xbd9ba0e3	-0.07599046
23	0xbcb9de37	-0.022688968
24	0xbe15a9be	-0.14615533
25	0x3dc160fc	0.094423264
26	0xbd8057e3	-0.06266763
27	0x3e1005d7	0.14064728
28	0x3c1d1f1e	0.009589938
29	0xbc1ea602	-0.009683134
30	0xbe0d3b1f	-0.13792084
31	0xbe1e9912	-0.15488079
32	0x3aa88015	0.0012855554
33	0xbd6320a5	-0.055451054
34	0xbd32e89e	-0.043678872
35	0xbd899b8a	-0.0671912
36	0xbd0df2dc	-0.034655437
37	0xbc269ca3	-0.010169181
38	0x3bc5ebd3	0.0060400753
39	0xbcc8f91a	-0.024532843
40	0xbdb6df85	-0.08929352
41	0xbcb90c74	-0.022588946
42	0xbc46e77b	-0.01214015
43	0xbd80b5e3	-0.06284692
44	0xbc8ccb4c	-0.017186783
45	0xbcd48814	-0.025943793
46	0x3e100fd7	0.14068542
47	0xbe02d5c4	-0.12776858
48	0xbdef2b16	-0.1167814
49	0x3e0a1898	0.13485944
50	0xbc929236	-0.017891984
51	0x3d7dfb15	0.06200703
52	0x3b33ef2c	0.002745579
53	0x3c2599d6	0.010107478
54	0x3dc335d8	0.09531754
55	0x3b902f23	0.0044001504
56	0xbd6999aa	-0.05703131
57	0x3d8cf009	0.068817206
58	0xbda8647e	-0.08222292
59	0xbd151a91	-0.03640229
60	0xbc8806b6	-0.016604763
61	0xbd1ff0a8	-0.039047867
62	0xbd426591	-0.047460143
63	0xbc40b3af	-0.01176159
64	0xbd70443d	-0.058658827
65	0xbc3f2e19	-0.011668705
66	0xbd479d20	-0.04873383
67	0x3be74aef	0.0070584933
68	0xbd18e9ec	-0.03733246
69	0xbddfba39	-0.10924191
70	0xbdb7d660	-0.08976436
71	0x3cb2711b	0.021782449
72	0xbd92cdc6	-0.071681544
73	0xbd025f41	-0.031829122
74	0x3b8090ad	0.0039234967
75	0xbd58c53a	-0.052922465
76	0xbcee3d62	-0.029082004
77	0x3da8a341	0.08234263
78	0xbdc82ea6	-0.097745225
79	0xbc0a96b7	-0.008458785
80	0xbd80cf79	-0.06289572
81	0xbd9dc15c	-0.07702896
82	0xbd034542	-0.03204847
83	0xbd655ec7	-0.05599859
84	0x3d4044f9	0.046940777
85	0xbd26149a	-0.04054699
86	0xbcdd6b88	-0.027028814
87	0xbdbe6fab	-0.09298643
88	0x3c09cadf	0.008410185
89	0xbdb25391	-0.08707345
90	0xbd78dd38	-0.060757846
91	0xbdc252ac	-0.09488425
92	0xbc5f244d	-0.013619495
93	0xbccc0218	-0.024903342
94	0x3db2e805	0.087356605
95	0x3c439379	0.011937016

model_1/gru_2/gru_cell/strided_slice_3 f4 [96]
0	0x3deed8bf	0.11662435
1	0x3e0f99c0	0.14023495
2	0x3e4adc97	0.19810711
3	0xbc07113d	-0.008243856
4	0x3e8b2c84	0.271824
5	0x3e6da98b	0.23209207
6	0x3e11478e	0.14187452
7	0x3c74cb4b	0.014941047
8	0x3e8abea2	0.27098566
9	0x3d589ab2	0.052881904
10	0x3e633ccf	0.22191165
11	0x3d0d887f	0.034554
12	0x3e0d06bc	0.137721
13	0x3c99e787	0.018787159
14	0x3e4d02b8	0.20020568
15	0x3db94247	0.090458445
16	0x3ebc5cba	0.36789495
17	0x3d3c4035	0.04595967
18	0xbd9ba75d	-0.076002814
19	0x3e9e3b55	0.30904642
20	0x3ca69724	0.020335741
21	0x3d3ef8c6	0.046623968
22	0x3b09db95	0.0021035422
23	0x3df0d64a	0.117596224
24	0x3dce90e9	0.10086233
25	0x3d918a16	0.07106416
26	0x3e2022f4	0.15638334
27	0x3eac1dcd	0.33616486
28	0x3e7c3849	0.24630846
29	0x3dc68ec6	0.096952006
30	0xbc2a48b1	-0.010393308
31	0xbd1bc89d	-0.038033117
32	0x3e9ca6f0	0.30596113
33	0x3d41baac	0.047297165
34	0x3cf48b77	0.029851658
35	0x3c8b88e7	0.017033054
36	0x3e11e040	0.14245701
37	0x3e6c3825	0.23068292
38	0x3dd061bf	0.101748936
39	0x3dfd0f94	0.12356487
40	0x3cc6e03d	0.024276847
41	0xbbdedb7c	-0.006801067
42	0xbc8480f4	-0.01617477
43	0x3defb14e	0.1170374
44	0x3ca71ba7	0.020398928
45	0x3e103b9e	0.14085242
46	0x3e972d4b	0.29526743
47	0x3e079266	0.1323944
48	0x3d4dc75f	0.050238963
49	0x3e284d79	0.16435803
50	0x3e1a77bd	0.15084739
51	0x3dcd1141	0.100130565
52	0xbdf9bf18	-0.12194651
53	0x3e390bf7	0.1807097
54	0x3ea1ad4f	0.31577536
55	0xbe35d0da	-0.17755452
56	0x3e1fa6a1	0.15590908
57	0x3eb44ddf	0.3521566
58	0x3dc80348	0.09766251
59	0xbe24836f	-0.16065763
60	0x3df583f0	0.11988056
61	0x3d98d919	0.07463283
62	0x3ddaaed5	0.10677878
63	0x3de1a853	0.110184334
64	0x3ddd20d8	0.1079728
65	0x3da2a1a1	0.079409845
66	0x3e0bdb33	0.13657837
67	0x3dd0642b	0.101753555
68	0xbd17950d	-0.03700738
69	0x3c18b3e1	0.00932023
70	0x3ce96fc8	0.028495684
71	0xbb065da8	-0.00205026
72	0x3e048005	0.1293946
73	0x3e1f8461	0.15577842
74	0x3e36d16b	0.17853324
75	0xbd8f0cf6	-0.06984894
76	0x3daa1a44	0.08305791
77	0x3e4844c2	0.19557479
78	0xbc791147	-0.015201873
79	0x3dd78905	0.10524181
80	0x3e3adecf	0.18249057
81	0x3be04c6d	0.006845048
82	0x3dc8d036	0.09805338
83	0xbd04824c	-0.032350823
84	0x3d18f909	0.037346873
85	0x3e149b45	0.14512356
86	0x3de554cd	0.11197815
87	0xbe1a515e	-0.15070102
88	0xbd8cf1be	-0.06882046
89	0x3e057355	0.13032277
90	0x3e6815e5	0.22664602
91	0x3e2ce464	0.16883999
92	0x3ea2d89e	0.3180589
93	0xbd5ed93c	-0.05440639
94	0x3e8e9452	0.27847534
95	0x3e21d836	0.15805134

model_1/gru_2/gru_cell/strided_slice_5 f4 [96]
0	0x3d1e8d2e	0.03870886
1	0x3c966c62	0.018362228
2	0x3d772f75	0.060347993
3	0xbcabe1b2	-0.020981643
4	0xbd14e69b	-0.036352735
5	0x3d3ba409	0.045810733
6	0xbd1ce920	-0.038308263
7	0xbd54c3a4	-0.05194439
8	0xb9d18c10	-0.0003996794
9	0x3b4db134	0.003138614
10	0x3bfd4639	0.0077293185
11	0xb986ecd7	-0.0002573493
12	0xbc64a53b	-0.01395541
13	0xbcd932d9	-0.026513504
14	0x3af42991	0.001862811
15	0x3cbfb74c	0.023402832
16	0x3d8be5c6	0.06830935
17	0xbc40b74a	-0.0117624495
18	0xbd21cf5d	-0.039504398
19	0x3d00b2b3	0.03142042
20	0x3d5f01af	0.054444965
21	0x3ce91096	0.028450292
22	0x3d8279b7	0.063708715
23	0x3cdedd72	0.027205203
24	0x3c0d950f	0.008641495
25	0xbc052926	-0.008127486
26	0xbd28c2d0	-0.041201413
27	0x3cdb7c3d	0.02679264
28	0xbd017cdb	-0.031613212
29	0xbd1bbb07	-0.03802016
30	0x3d6e9f85	0.0582576
31	0xbd074a7d	-0.033030022
32	0xbc9cda1e	-0.019146975
33	0x3c106dec	0.00881527
34	0xba62e8d9	-0.0008655913
35	0x3ca01fcd	0.019546414
36	0x3b24592e	0.002507757
37	0x3d699708	0.0570288
38	0xbced2edc	-0.028953008
39	0xbcdc9c1f	-0.026929913
40	0x3cc203a8	0.023683384
41	0xbd1293c8	-0.035785466
42	0x3ca085de	0.019595083
43	0x3c02acd0	0.007975772
44	0x3bdcbea8	0.006736595
45	0xbd32620a	-0.04355053
46	0xbd09ef14	-0.03367527
47	0xbd09e5d1	-0.033666436
48	0x3cb846e2	0.022494737
49	0x3de38826	0.11109953
50	0x3d5e6a89	0.05430082
51	0x3cdba39c	0.026811413
52	0xbc8999c9	-0.016796963
53	0x3d3d7692	0.046255656
54	0x3ca1e598	0.0197628
55	0xbce536a0	-0.027980149
56	0xbd025b11	-0.03182513
57	0x3d0a62d7	0.033785667
58	0xbd6b24b0	-0.057408035
59	0x3d4d07f2	0.050056405
60	0x3cfbd643	0.030741816
61	0x3d583c62	0.05279196
62	0xbd363eca	-0.044493474
63	0x3da00e2e	0.078152046
64	0x3aeef026	0.0018229529
65	0x3dbd883a	0.09254499
66	0xbcf2ca2f	-0.029637424
67	0x3c8d4242	0.017243508
68	0x3b8f7b5b	0.004378719
69	0x3ca89919	0.020580815
70	0x3d6fc251	0.058534924
71	0x3b0516eb	0.002030785
72	0xbc12e41a	-0.008965516
73	0x3a4c68a5	0.00077975757
74	0x3d40a1f4	0.04702945
75	0xbcc44bfd	-0.023962015
76	0xbc6916aa	-0.014226595
77	0x3ddf5079	0.10904021
78	0x3ae5e7f1	0.0017540437
79	0xbd9054c0	-0.07047415
80	0xbda57e93	-0.08080783
81	0xbc8e3d8b	-0.01736333
82	0x3d2f86c0	0.042853117
83	0x3d2d770b	0.042349856
84	0x3c945b21	0.01810986
85	0x3c018265	0.007904624
86	0x3d80d6c9	0.06290967
87	0x3a26349c	0.0006340237
88	0xbc5875d6	-0.013211688
89	0xbaa36293	-0.001246529
90	0xbcc59184	-0.024117239
91	0x3d7e0461	0.062015895
92	0xbc58e037	-0.013237051
93	0xbd239c8f	-0.039944228
94	0x3d1e0126	0.038575314
95	0xbb4ea462	-0.0031531085

model_1/gru_2/gru_cell/strided_slice_11 f4 [96]
0	0x3d058d5e	0.03260552
1	0x3d2672a2	0.040636666
2	0x3c0720b2	0.008247541
3	0xbca309ce	-0.019902136
4	0xbbe20e8a	-0.006898706
5	0x3d63702d	0.0555269
6	0xbd1c49bc	-0.038156256
7	0xbd1a8bfd	-0.03773116
8	0xbd0d88c9	-0.034554277
9	0xb9c0e2ce	-0.00036790076
10	0x3ccc21b3	0.024918413
11	0xbab071ff	-0.0013461708
12	0xbacc22e2	-0.0015574361
13	0xbcdf70e4	-0.02727551
14	0x3c9a8afc	0.018865101
15	0x3b5bdc7d	0.003354817
16	0x3c5a461c	0.013322379
17	0xbc671a40	-0.01410538
18	0xbd073f58	-0.033019394
19	0x3d531895	0.051537115
20	0x3d0039b3	0.031305026
21	0x3d04229e	0.032259576
22	0x3d10ae8f	0.035322722
23	0x3ccf53d4	0.025308527
24	0xbce6bec8	-0.028167143
25	0x3c901469	0.017587857
26	0xbd62f7cc	-0.0554121
27	0x3d6f6ae1	0.058451537
28	0xbd55a8ca	-0.052162923
29	0xbc2726f1	-0.010202155
30	0x3d140469	0.03613702
31	0xbd14397c	-0.036187634
32	0xbd03f3cf	-0.032214936
33	0x3b03b13b	0.0020094651
34	0x3cd9ed72	0.02660248
35	0x3c871a90	0.016492158
36	0xbc3baa53	-0.011454183
37	0x3d770543	0.060307752
38	0xbd3962bf	-0.045260187
39	0xbc9169ad	-0.017750585
40	0x3d3791de	0.044816844
41	0xbd13ebc8	-0.03611353
42	0x3ce098f4	0.027416684
43	0xbc025382	-0.00795448
44	0x3c6460da	0.013939107
45	0xbc829c5c	-0.015943699
46	0xbcf1c88c	-0.029514574
47	0xbca1a0b5	-0.019729951
48	0x3d0a0ac9	0.03370169
49	0x3d814925	0.06312779
50	0x3d8c0535	0.06836931
51	0x3cc7027a	0.024293173
52	0x3cf0ae4e	0.02937999
53	0x3cc0aaa6	0.023518872
54	0xbcc45de5	-0.023970554
55	0x3bb536ba	0.0055302056
56	0xbcb083a8	-0.021547154
57	0xb9c5fe11	-0.00037764062
58	0xbd0570a3	-0.032578122
59	0x3bd1d56d	0.006403616
60	0x3c74859c	0.014924433
61	0x3d43a4af	0.047764476
62	0xbd608033	-0.05480976
63	0x3d84db73	0.06487169
64	0x3bee0d34	0.0072647575
65	0x3c08cd1e	0.008349685
66	0xbd45d07f	-0.04829454
67	0x3cf4e97c	0.02989649
68	0xbc5b0b19	-0.013369345
69	0xbc11bdad	-0.00889532
70	0xbccd719f	-0.025078593
71	0xb9f91b68	-0.000475134
72	0x3c8e160b	0.017344495
73	0x3923a9a6	0.0001560809
74	0x3ce414ed	0.02784201
75	0xbd802021	-0.06256128
76	0xbb5006a5	-0.0031742242
77	0x3d7ea57f	0.062169548
78	0xbcf8ba77	-0.03036235
79	0xbd9dd53f	-0.07706689
80	0xbd953e5e	-0.07287286
81	0xbb2bb3e2	-0.0026199748
82	0x3d34fab7	0.044184413
83	0x3d00754a	0.031361856
84	0x3d311041	0.04322839
85	0xbb9f16bd	-0.0048550055
86	0x3d38c295	0.045107443
87	0xbc7b9794	-0.015355963
88	0xbcaf2708	-0.021380916
89	0x3cce30f4	0.025169827
90	0x3b8b2f66	0.0042475937
91	0x3d10beeb	0.035338324
92	0xbd1e5cd8	-0.03866276
93	0xbcbdc03f	-0.02316296
94	0x3d5d04ef	0.053959783
95	0x3c014e45	0.007892196

model_1/batch_normalization_7/batchnorm/sub f4 [48]
0	0xbe562a7c	-0.20914644
1	0xbe07670b	-0.13222902
2	0xbc13c8ea	-0.00902007
3	0x3ee3b42e	0.44473404
4	0xbcc177f2	-0.023616765
5	0x3d32af44	0.043624178
6	0x3d460877	0.048347916
7	0x3e3f07f7	0.18655382
8	0x3e759760	0.23983526
9	0x3e8f1ee5	0.27953258
10	0xbe26ba86	-0.1628209
11	0xbde7361b	-0.11289617
12	0xbe4ee322	-0.20203832
13	0x3ef99f40	0.4875431
14	0xbe3cc391	-0.18433978
15	0xbf023a33	-0.50870055
16	0x3e5df043	0.21673684
17	0xbd356b20	-0.044291615
18	0xbed1e4d6	-0.409949
19	0x3c08aaf1	0.008341537
20	0x3d55a12e	0.052155666
21	0xbca6e310	-0.020371944
22	0xbf73f57d	-0.9529646
23	0x3dbc7a2c	0.0920299
24	0x3de0ccda	0.10976572
25	0xbd059ed8	-0.03262219
26	0xbe9fbdd7	-0.31199524
27	0x3e0cca3a	0.13749018
28	0xbd715ac3	-0.058924448
29	0xbea5a636	-0.3235337
30	0x3e4d3c62	0.20042565
31	0xbe1d471b	-0.15359156
32	0xbef44c60	-0.4771452
33	0x3e3ffcbc	0.18748754
34	0xbe8689f3	-0.26277122
35	0x3f20e1de	0.62844646
36	0xbe196909	-0.14981474
37	0x3edf2e1f	0.43589875
38	0x3e0e39f2	0.13889292
39	0x3e80be8c	0.25145376
40	0xbf1fdb39	-0.6244388
41	0x3e0e0d26	0.13872203
42	0xbdd3f816	-0.10350053
43	0x3f1a8419	0.60357815
44	0xbd6db6d9	-0.058035705
45	0x3daedd94	0.085383564
46	0x3e8b58b7	0.27216122
47	0xbe46190b	-0.1934549

model_1/batch_normalization_7/batchnorm/mul f4 [48]
0	0x4054f0ae	3.32719
1	0x4040a6fb	3.0101917
2	0x40427443	3.038346
3	0x4027fc94	2.6247911
4	0x401bf27d	2.4366753
5	0x40148f51	2.3212473
6	0x4007fa19	2.1246397
7	0x4044687e	3.0688777
8	0x401a9dd3	2.4158828
9	0x403259ec	2.7867384
10	0x401c8be7	2.446039
11	0x401887be	2.383285
12	0x40497f53	3.1483963
13	0x403c333c	2.940627
14	0x400cb94d	2.1988099
15	0x401aeabc	2.420577
16	0x400e9299	2.2276976
17	0x4016bb19	2.3551695
18	0x4046956c	3.10287
19	0x40205049	2.5049002
20	0x40108985	2.2583935
21	0x401e0cf8	2.4695415
22	0x4034823c	2.8204489
23	0x40105774	2.2553377
24	0x402599a6	2.587503
25	0x402b7304	2.678895
26	0x4022fc64	2.5466547
27	0x401e46a8	2.4730625
28	0x4028cff9	2.6376936
29	0x402a77d2	2.6635633
30	0x402ee4ac	2.732707
31	0x402e1b24	2.7204065
32	0x40218764	2.5238886
33	0x401a2989	2.408785
34	0x402cc956	2.6997886
35	0x401f0fba	2.4853349
36	0x403179cb	2.7730587
37	0x40202af8	2.5026226
38	0x403bc3e6	2.9338317
39	0x402b3b34	2.6754885
40	0x4024b7ad	2.5737107
41	0x4024c99e	2.5748057
42	0x40178836	2.3676887
43	0x404868f9	3.131407
44	0x4058078d	3.3754609
45	0x403130f9	2.768614
46	0x40132045	2.2988446
47	0x4035d71e	2.8412547

model_1/batch_normalization_6/batchnorm/sub f4 [96]
0	0xbdac4990	-0.084124684
1	0x3bda012c	0.0066529717
2	0xbef692e4	-0.48158944
3	0x3ea8e686	0.32988375
4	0xbde185b2	-0.110118285
5	0xbeeab696	-0.45842427
6	0x3ef3d1c5	0.4762098
7	0x3eba2a0c	0.36360204
8	0x3efacc64	0.48984063
9	0x3ea627b1	0.32452157
10	0xbecf1cb6	-0.40451592
11	0xbdc57bbe	-0.096427426
12	0x3f158748	0.5840955
13	0xbe14bba3	-0.14524703
14	0x3e55f774	0.20895177
15	0x3e7e7acb	0.2485153
16	0xbefedc60	-0.49777508
17	0xbdf61aab	-0.12016805
18	0xbe92612b	-0.28589758
19	0xbed1aab2	-0.40950543
20	0x3e6d9cb2	0.23204306
21	0xbf17ef12	-0.5934917
22	0xbf1b20d1	-0.6059695
23	0x3f17ecc6	0.5934566
24	0x3db6d28e	0.08926879
25	0xbdc13ddc	-0.09435627
26	0xbf2bdea5	-0.67136604
27	0x3e929126	0.28626364
28	0x3e5655fc	0.20931238
29	0xbd462cb6	-0.048382483
30	0x3e792412	0.24330166
31	0x3e2acdc0	0.1668005
32	0xbea6af0a	-0.3255542
33	0x3f12d91e	0.57362545
34	0x3e8b8266	0.27247924
35	0x3e12c2df	0.1433215
36	0xbbcb1818	-0.0061979406
37	0x3e16a374	0.1471079
38	0xbde367e2	-0.111037984
39	0x3e2eb8ec	0.1706273
40	0x3ef445fd	0.47709647
41	0xbdf90243	-0.121586345
42	0x3d73f256	0.05955728
43	0xbdf15cf9	-0.11785311
44	0x3e7c7b9e	0.24656531
45	0x3de248b4	0.11049023
46	0xbe0fa706	-0.14028558
47	0x3e334c22	0.17509511
48	0x3d4bff99	0.049804304
49	0xbe292601	-0.16518404
50	0xbe2c1798	-0.16805875
51	0xbd2d3428	-0.04228607
52	0xbed96593	-0.42460307
53	0x3e75d604	0.24007422
54	0xbeb2acb3	-0.34897384
55	0x3f190512	0.5977336
56	0x3f095bc7	0.53655666
57	0xbea38371	-0.3193622
58	0xbf14d55a	-0.5813805
59	0xbce0e307	-0.027452005
60	0x3f1a7d2b	0.6034724
61	0x3f1f2569	0.6216646
62	0xbe2cd870	-0.1687944
63	0xbe82b432	-0.25528103
64	0xbec80616	-0.39067143
65	0x3d97ff96	0.07421796
66	0xbf08aab5	-0.5338548
67	0xbdf0b246	-0.11752753
68	0xbdb4eb76	-0.08833973
69	0xbe4f795c	-0.20261139
70	0x3ed2289a	0.41046602
71	0x3f2c51dd	0.67312413
72	0x3ebe1d15	0.37131563
73	0x3f1b449b	0.6065156
74	0x3d9e68c6	0.07734828
75	0xbd281bc6	-0.04104211
76	0x3f008067	0.50195926
77	0x3e11d9c8	0.14243233
78	0xbe4d0406	-0.20021066
79	0x3df9c564	0.121958524
80	0xbee36a71	-0.44417146
81	0x3f3cb326	0.7371086
82	0x3e4404af	0.19142412
83	0x3eb6d8d6	0.35712308
84	0xbe16f6e7	-0.14742623
85	0x3ea2c793	0.31792888
86	0xbeae0726	-0.3398983
87	0xbea0a2d7	-0.31374237
88	0x3b5cfa30	0.003371846
89	0xbf35dbce	-0.7103852
90	0xbe5216d8	-0.20516527
91	0x3cec7f38	0.028869256
92	0x3f5f27f4	0.8717034
93	0xbeca94ca	-0.39566642
94	0xbf39bb28	-0.725512
95	0xbf07352c	-0.5281551

model_1/batch_normalization_6/batchnorm/mul f4 [96]
0	0x40474f4e	3.1142154
1	0x406fb71b	3.7455509
2	0x407ffdf6	3.9998755
3	0x40ae3c98	5.4448967
4	0x4064111f	3.563545
5	0x408586a1	4.172684
6	0x401e8d2c	2.4773664
7	0x40800674	4.0007877
8	0x4045377d	3.0815117
9	0x40452c31	3.0808222
10	0x40351601	2.829468
11	0x40884070	4.257866
12	0x404df3c2	3.2180028
13	0x4035a036	2.8379035
14	0x404f5e39	3.240126
15	0x40ba915c	5.830244
16	0x401ee81e	2.4829173
17	0x40767f13	3.851506
18	0x4070c94c	3.7622862
19	0x4102baa6	8.170568
20	0x403d12e1	2.9542773
21	0x4080fe09	4.03101
22	0x409fd705	4.9949975
23	0x4049c92b	3.1529033
24	0x40bd792a	5.9210405
25	0x4044d0b1	3.0752375
26	0x4044d27d	3.0753472
27	0x40589d7b	3.3846118
28	0x4034fe18	2.8280087
29	0x4083595c	4.104658
30	0x40eeedad	7.466513
31	0x40a51120	5.1583405
32	0x402f2e42	2.7371984
33	0x40622490	3.5334816
34	0x404aac22	3.1667562
35	0x40924ec4	4.572115
36	0x4061ef4d	3.5302308
37	0x402ebd0d	2.7302887
38	0x405d607b	3.4590137
39	0x404ed1d2	3.2315564
40	0x4099c0a3	4.804765
41	0x408b9b86	4.362735
42	0x40aa5bd3	5.323709
43	0x406429fa	3.565062
44	0x407ea38b	3.9787319
45	0x408eb4da	4.4595766
46	0x3fef5ac1	1.8699571
47	0x40933632	4.6003656
48	0x40a286f2	5.078973
49	0x40699e7b	3.6502979
50	0x40877b16	4.233775
51	0x400bbfff	2.1835935
52	0x4082d777	4.088802
53	0x403ee2b8	2.9825878
54	0x401c3ecc	2.4413328
55	0x4043c746	3.0590377
56	0x4091e3fc	4.55908
57	0x4030ce83	2.7626045
58	0x40cc4130	6.3829575
59	0x40628b6e	3.53976
60	0x40b38d25	5.6109796
61	0x402b08ae	2.6724048
62	0x4036e321	2.8576128
63	0x407aaeda	3.916922
64	0x40980278	4.7503014
65	0x40c732ee	6.224967
66	0x40924fb2	4.5722284
67	0x40189127	2.3838594
68	0x408ccd3b	4.4000525
69	0x40a039f6	5.0070753
70	0x4069428c	3.6446867
71	0x405a7352	3.4132886
72	0x40b33c48	5.6011086
73	0x4066f3c1	3.6086276
74	0x404b79b8	3.1793041
75	0x408ac517	4.336559
76	0x40a2c92a	5.087056
77	0x40261b8b	2.595431
78	0x4099f496	4.8111067
79	0x406f7d2e	3.7420154
80	0x402c482e	2.6919055
81	0x4076382f	3.8471792
82	0x40aee272	5.4651423
83	0x403eec89	2.983187
84	0x40925158	4.5724297
85	0x41039106	8.222906
86	0x407745c4	3.8636332
87	0x40c2bfb8	6.085903
88	0x40ab0c0a	5.3452196
89	0x41034b5e	8.2059
90	0x403a8e29	2.9149268
91	0x4104f65a	8.310144
92	0x405fe921	3.498604
93	0x40978c28	4.735859
94	0x407a2731	3.908642
95	0x4016387c	2.3471975

model_1/dense_3/BiasAdd/ReadVariableOp f4 [26]
0	0x3e14cc99	0.14531173
1	0x3c27c903	0.010240796
2	0xbdd4ae8f	-0.10384857
3	0x3e0e3d0d	0.13890477
4	0xbd3bd8cd	-0.045861054
5	0x3db3bba7	0.08776026
6	0x3da7fb1c	0.08202192
7	0x3dcc2ec0	0.09969854
8	0xbd44d05f	-0.04805028
9	0xbdab203f	-0.0835576
10	0x3e56475f	0.20925663
11	0x3ca692bf	0.020333646
12	0xbd01fef5	-0.031737287
13	0xbc2e4ba3	-0.01063815
14	0xbd92dea3	-0.07171371
15	0xbda7cda7	-0.08193522
16	0x397e2171	0.00024235786
17	0xbed0601b	-0.40698323
18	0xbed60eff	-0.41808316
19	0xbedc78f1	-0.4306102
20	0xbed38f28	-0.41320157
21	0xbed6ecaf	-0.4197745
22	0xbed3822c	-0.4131025
23	0xbee402d8	-0.4453342
24	0xbede9f7a	-0.43481046
25	0xbed8d11e	-0.42347044

model_1/dense_2/BiasAdd/ReadVariableOp f4 [48]
0	0x3e3bfa99	0.18357314
1	0x3e225ce7	0.15855752
2	0x3e0e71db	0.1391062
3	0x3e4b2b21	0.19840671
4	0x3dbfa8e7	0.093583874
5	0x3e1eda42	0.15512946
6	0x3dcbccf6	0.099512026
7	0x3dcb878b	0.09937962
8	0x3d596f38	0.053084582
9	0x3d96607f	0.07342624
10	0x3df32ec6	0.11874156
11	0x3df91ac7	0.121633105
12	0x3d844186	0.0645781
13	0x3e239540	0.15974903
14	0x3d820fa3	0.06350639
15	0x3e09b7d1	0.13449027
16	0x3e1dac4f	0.15397762
17	0x3df2d063	0.11856153
18	0xbcecbe1f	-0.02889925
19	0x3df69355	0.1203982
20	0x3e1337c1	0.14376737
21	0x3ded285f	0.11579966
22	0x3dca544f	0.09879362
23	0x3d3dce1d	0.046339143
24	0xbbb71ab5	-0.0055879005
25	0x3de287d1	0.11061061
26	0x3e0babc1	0.13639738
27	0x3de43173	0.11142244
28	0x3e16ff15	0.14745744
29	0xbc15240e	-0.009102834
30	0x3da8135d	0.08206818
31	0x3d84d694	0.0648624
32	0x3e07e946	0.1327258
33	0x3dc9bed4	0.09850851
34	0x3dd7d860	0.10539317
35	0xbc8363a2	-0.01603872
36	0x3b95d481	0.0045724516
37	0x3dfb8f88	0.12283236
38	0x3ddb51a3	0.1070893
39	0x3dd77d19	0.10521907
40	0x3cc57a0e	0.024106052
41	0x3e33cbc2	0.17558196
42	0x3daeab88	0.08528811
43	0x3dae6dcd	0.085170366
44	0x3dbd08d9	0.09230203
45	0x3e327fac	0.17431515
46	0x3e232a7e	0.15934178
47	0x3d953cf3	0.07287016

model_1/gru_2/gru_cell/MatMul f4 [96, 126]
0	0x381874a5	3.6348258e-05
1	0x37320568	1.06108855e-05
2	0x38224c3e	3.8694816e-05
3	0xba92a623	-0.0011188429
4	0x3a0e1740	0.00054203346
5	0x39816af9	0.00024684498
6	0xba32b79b	-0.00068175205
7	0x39f7b3e3	0.00047245537
8	0x38eb1773	0.00011210041
9	0xb9a184d9	-0.00030807292
10	0x397a86cb	0.00023892072
11	0x39d9c2c8	0.0004153459
12	0xb9c95a58	-0.0003840502
13	0xba3f46f5	-0.0007296645
14	0x397e4022	0.00024247219
15	0xb9cecaea	-0.00039442565
16	0x3a834055	0.0010013679
17	0x399cd494	0.00029913022
18	0xb9aab32c	-0.0003255842
19	0xb9bce073	-0.00036025382
20	0x39464075	0.00018906764
21	0x3959418b	0.0002071915
22	0xb9b0bd57	-0.00033710405
23	0x3a0b778b	0.00053202425
24	0x3ab541c5	0.0013828805
25	0xbaa79a57	-0.0012787086
26	0x392e9144	0.00016648049
27	0x39eb701c	0.0004490622
28	0x3a135e27	0.0005621635
29	0x3a021600	0.00049623847
30	0x392afff1	0.00016307809
31	0x398a2ba1	0.00026353917
32	0x39aa36c7	0.0003246574
33	0x391b485a	0.00014808905
34	0xb8cfc1b4	-9.906609e-05
35	0x3a0d7e4a	0.00053975417
36	0x399e8e46	0.0003024211
37	0xba08dfde	-0.0005221347
38	0x3a07233c	0.00051550916
39	0x3a09fafb	0.0005263534
40	0x3af141ea	0.0018406485
41	0x392a05fb	0.00016214691
42	0x3af6a99a	0.0018818856
43	0x3a4d3268	0.00078276405
44	0x3a010b57	0.0004922649
45	0xb9545bfb	-0.00020252161
46	0xb75ae62f	-1.3047406e-05
47	0x3a505abe	0.0007948092
48	0x3aa43319	0.0012527435
49	0xb846d14d	-4.7401805e-05
50	0x3a4dc89d	0.0007850023
51	0x3a336f5a	0.0006844901
52	0xb972867b	-0.00023129016
53	0x38f1e00e	0.00011533509
54	0x39c03130	0.0003665774
55	0x386cec5a	5.6486904e-05
56	0x39f7286c	0.00047141628
57	0x3917e4c1	0.000144857
58	0xb9bc0be1	-0.00035867005
59	0x397b548d	0.00023968723
60	0x3a2b80e2	0.00065423374
61	0x3a399abc	0.0007080247
62	0x393f7480	0.00018258579
63	0x378c13ce	1.6698523e-05
64	0x35fc2770	1.8786941e-06
65	0xb7e53b80	-2.7326634e-05
66	0xba0e195d	-0.00054206495
67	0x39d9ddf2	0.00041554827
68	0xb91874fd	-0.00014539431
69	0xbace0c3b	-0.0015720198
70	0x39d30724	0.00040250376
71	0xb991d594	-0.00027815683
72	0xba7b4a26	-0.0009585939
73	0x3a87b198	0.001035261
74	0xb98af69e	-0.00026505155
75	0xbb161970	-0.0022903346
76	0x3a913307	0.0011077829
77	0xb9626bcd	-0.00021593198
78	0xbabafcbc	-0.0014265995
79	0x390363eb	0.00012530356
80	0xb98cff33	-0.0002689302
81	0xbaf415ac	-0.0018622181
82	0x3a9e3189	0.0012069206
83	0x3800f0ce	3.0741845e-05
84	0xbb0250f9	-0.001988469
85	0x3addb5f7	0.0016915192
86	0x399c321f	0.00029791982
87	0xbb0bcd77	-0.0021332183
88	0x3b01b08d	0.001978907
89	0x3a3046d5	0.0006724422
90	0xbaa00456	-0.0012208323
91	0xb725c9ef	-9.881783e-06
92	0x38c4ed31	9.390189e-05
93	0xbad418a1	-0.0016181656
94	0x3a908021	0.0011024514
95	0x39325987	0.00017008754
96	0xbac6e019	-0.0015172987
97	0x3b127630	0.0022348277
98	0x394a7e1e	0.00019311204
99	0xba8053cd	-0.00097906
100	0x3b068aee	0.0020529586
101	0x399e33a4	0.00030174584
102	0xb66425d8	-3.3996675e-06
103	0xb9e575dd	-0.000437661
104	0x399c41b2	0.00029803585
105	0xb773231a	-1.4492101e-05
106	0x3a5ed648	0.00085005583
107	0x39e349a1	0.00043351672
108	0xb9be1ac2	-0.0003625956
109	0x3abea20d	0.0014544145
110	0x3a2c3a54	0.0006569971
111	0xba1bbbb7	-0.00059407525
112	0x3b16042e	0.0022890675
113	0x39cb1273	0.00038732923
114	0xb9065389	-0.00012810355
115	0xba213770	-0.00061499234
116	0x398dc2b2	0.00027038675
117	0xb9ca9afd	-0.00038643918
118	0x39b0d68f	0.00033729195
119	0x3a0e9f1f	0.0005440581
120	0x3937623d	0.00017488837
121	0x3a34bf08	0.0006894921
122	0x3a32c212	0.000681908
123	0xb9c9076c	-0.00038343237
124	0x3a170102	0.0005760343
125	0x3993c310	0.00028183358
126	0xb700574d	-7.649721e-06
127	0xb8335e65	-4.2764837e-05
128	0xb63d2579	-2.8185007e-06
129	0xbaf34c6d	-0.0018562205
130	0x3a040cfb	0.00050373346
131	0x3a034f86	0.00050091033
132	0xbaeca605	-0.0018054849
133	0xba3e3f52	-0.000725736
134	0x3a6a1656	0.000892972
135	0xb9fd8c05	-0.00048360243
136	0x3ab45158	0.0013757152
137	0x3a89ec50	0.0010522697
138	0xbaac84f8	-0.0013162186
139	0xba78e3fd	-0.0009494422
140	0x3a84e385	0.0010138607
141	0xbad79988	-0.0016448954
142	0x39f8a1c8	0.00047422783
143	0x3a996e60	0.0011705868
144	0x39f90d18	0.00047502737
145	0x3a542e8c	0.0008094094
146	0x3ab934fc	0.001413017
147	0xba1f9773	-0.00060879363
148	0x3aabd81c	0.001311067
149	0x3a5aee11	0.00083515147
150	0xb97225d0	-0.00023093005
151	0x3b214d53	0.002461274
152	0x3abba4c0	0.0014316067
153	0x389d9470	7.513992e-05
154	0xbaeb59b1	-0.0017955807
155	0x3aa24b2a	0.001238202
156	0x3a30dd78	0.00067468686
157	0x38c71bc4	9.494231e-05
158	0x3a7c2d7b	0.0009619814
159	0x3765d1be	1.3698298e-05
160	0x3a8246b0	0.0009939279
161	0x3a9a2703	0.0011760894
162	0x3a92d3dd	0.0011202056
163	0x3b21999c	0.0024658209
164	0x3a75b163	0.0009372441
165	0x3a6332b7	0.000866692
166	0x3af27cd9	0.0018500342
167	0x3a4b5a1d	0.00077572634
168	0x3ae95e6d	0.001780463
169	0x3ac07dc9	0.0014685924
170	0x3aac88f0	0.0013163369
171	0x3a2915c8	0.0006450084
172	0x39fcec5c	0.00048241287
173	0x3a179025	0.0005781672
174	0x3aeb6fc8	0.001796239
175	0x3aaa8bd2	0.001301164
176	0x3aa5023e	0.0012589169
177	0x3b13c682	0.002254874
178	0x3a9987ea	0.0011713479
179	0x3a81a309	0.0009890507
180	0x3b06014d	0.0020447553
181	0xba67d389	-0.0008843472
182	0x3a3dca7a	0.0007239949
183	0x3aec6794	0.001803624
184	0x3ac495c9	0.0014998253
185	0x3a6bed3d	0.000899989
186	0x3ae8ac22	0.0017751495
187	0x3a94d8c1	0.0011356102
188	0x3a4470a9	0.00074935943
189	0xb7af7174	-2.0914456e-05
190	0x3885dcec	6.383084e-05
191	0x379b9142	1.854508e-05
192	0x38d77869	0.00010274427
193	0x3a9303b4	0.0011216314
194	0x38499eb7	4.806995e-05
195	0xbb0ec7bf	-0.0021786538
196	0x3aaf6bfd	0.0013383623
197	0x395cbc87	0.00021051067
198	0xbb0698da	-0.0020537884
199	0x3ac4e122	0.0015020708
200	0x399cdba3	0.0002991828
201	0xbb8360d7	-0.004009347
202	0x3acd6d47	0.0015672826
203	0x3a31e745	0.0006786476
204	0xbad23cfe	-0.0016039906
205	0x3abff60a	0.0014645469
206	0x39e49889	0.00043601196
207	0xbae2c9fb	-0.0017302627
208	0x3b44bdc8	0.0030020345
209	0x3a477c34	0.0007609755
210	0xbae09330	-0.0017133709
211	0x3b818c4d	0.0039534927
212	0x3a8af242	0.0010600763
213	0xbb48668f	-0.0030578708
214	0x3b6e9640	0.0036405474
215	0x3abc30d6	0.0014357816
216	0xba9e233e	-0.0012064946
217	0x39d9a48b	0.0004151206
218	0x3a07d488	0.0005181511
219	0xbb175530	-0.0023091547
220	0x3acddd90	0.001570629
221	0x3aa86eba	0.0012850382
222	0xba654ade	-0.0008746813
223	0x3ac4ca72	0.0015013947
224	0x3a9d0bba	0.0011981644
225	0xbb3179b0	-0.0027080588
226	0x3abd297a	0.0014431917
227	0x3ab678b7	0.0013921474
228	0x381da140	3.7581893e-05
229	0x39ca8c6d	0.00038633068
230	0x3a8a0123	0.0010528903
231	0x3a263414	0.00063401577
232	0x3aba4162	0.001421016
233	0x3a95e60f	0.0011436361
234	0x3916624e	0.00014341736
235	0x3aa93fd2	0.0012912697
236	0x3ac6d0da	0.0015168444
237	0x39164f1e	0.00014334588
238	0x3b391e16	0.0028246692
239	0x3ab7a249	0.0014010157
240	0x3a4cc959	0.00078119856
241	0xba1aaefb	-0.0005900708
242	0x3aaefdc9	0.001335078
243	0x3a58c7e4	0.0008269532
244	0xb92255dd	-0.0001548151
245	0x3ad1e6c0	0.0016014203
246	0x3ad4a1b8	0.0016222512
247	0x3ae01625	0.0017096443
248	0x3ac05103	0.0014672581
249	0x3aee92ad	0.0018201672
250	0x39eaa2c5	0.0004475323
251	0x3ab15af0	0.001353113
252	0x392517fa	0.00015744558
253	0x38ee2b0e	0.00011356744
254	0xb9d1d1bd	-0.00040019854
255	0xb97916d4	-0.00023754995
