app/src/main/assets/models/time.tflite (tflite, 672140 bytes, 52 tensors)

model/batch_normalization/batchnorm/add_1;model/conv1d/Conv1D/Squeeze;model/batch_normalization/batchnorm/mul_1;model/conv1d/BiasAdd;model/conv1d/BiasAdd/ReadVariableOp;model/batch_normalization/batchnorm/mul;model/batch_normalization/batchnorm/sub;model/conv1d/Conv1D;model/conv1d_1/Conv1D f4 [96]
000000 19 56 68 3f be c3 9f 3e b2 81 f9 be 48 06 d7 bd
       0.90756375 0.31204027 -0.48731762 -0.10499245
000010 5e b5 07 3e 11 d5 de be 2c be ab be 62 cf 87 be
       0.1325278 -0.43521932 -0.33543527 -0.26525408
000020 06 54 42 bf bb 38 fa be d0 ff d9 be fb a5 1d 3f
       -0.7590946 -0.48871407 -0.42577982 0.6158139
000030 06 1b 8f 3e 1c 98 35 3e 05 7f d7 3e 34 f9 88 bf
       0.27950305 0.17733806 0.42089096 -1.0701051
000040 60 a1 fe 3b 6e fb 4a bf 81 65 e4 be eb 41 2a be
       0.0077707022 -0.792899 -0.4460869 -0.16626708
000050 b4 0a ba bd fd c6 d1 be 1d 6a 48 bf f5 7a 49 be
       -0.09084073 -0.4097213 -0.78286916 -0.1967581
000060 f8 69 e3 be e9 75 90 be 2e b9 97 be cd 20 85 be
       -0.44416785 -0.28214958 -0.29633468 -0.26001588
000070 f0 60 06 be 6c 0b b1 3e 82 f7 5b 3f 93 be 95 be
       -0.13122916 0.34579027 0.8592454 -0.2924696
000080 9a d9 0d 3f 3b db 07 3f ba 5c 9a 3e ae f3 40 be
       0.5541016 0.53068894 0.3014887 -0.18842956
000090 bf b7 23 be ce e5 96 3e 5a 9e 92 bf ca 6c 1e bf
       -0.15988062 0.29472202 -1.1454575 -0.6188475
0000a0 27 78 22 bf a3 6e 80 be 6c 3f 9b be 57 f7 fb be
       -0.6346459 -0.2508441 -0.30321825 -0.49212143
0000b0 37 09 ce be 91 41 65 bf 9a 70 87 3e 3b c2 82 be
       -0.40241405 -0.8955317 0.26453096 -0.2553881
0000c0 1a 28 f4 bd df 71 24 bf dc bd 91 3e 06 69 ac 3e
       -0.11921711 -0.64236253 0.28465164 0.33673877
0000d0 97 aa 34 3f a3 f9 ce be 7f 3e d7 3e d8 db 55 3d
       0.705728 -0.40424833 0.42039868 0.052211612
0000e0 63 e7 5d 3e f5 5f 20 bf b4 8b 3a be 22 b0 4f be
       0.21670298 -0.6264642 -0.18217355 -0.20282033
0000f0 5f f2 43 bf d8 a0 20 be 80 93 cc 3d 98 a9 15 3d
       -0.76541704 -0.15686357 0.09989071 0.03653869
000100 16 1d cc be 2c 55 b2 3e 21 75 53 bf 20 be aa be
       -0.3986594 0.34830606 -0.826006 -0.3334818
000110 f9 44 36 3f ee 21 17 3f 2a 1b 81 be 8d f3 6a bf
       0.71198994 0.5903615 -0.25216037 -0.9177788
000120 4a f7 b6 be 87 22 ea be ba 20 19 3f a8 97 10 be
       -0.35735542 -0.45729467 0.5981556 -0.14120352
000130 4a ed 06 bf a8 82 1c 3e ce da ba 3d fa a9 15 3f
       -0.52705824 0.15284216 0.09123765 0.5846249
000140 f8 ae df bd 4a 14 e7 3d 8c af e7 be 5b 4f 49 bf
       -0.109220445 0.11283167 -0.4525112 -0.7863671
000150 97 96 d3 3e 6c 98 05 3d 07 ad 35 bf 13 d3 71 3e
       0.41325828 0.032616064 -0.70967144 0.23615675
000160 3a ad e6 3e 46 96 12 bf 12 45 e8 3e a8 8d d2 be
       0.45054036 -0.5726055 0.45365196 -0.411237
000170 a0 8c 74 3e 44 ac 19 3d 8c b0 1a bf d8 c8 3e bc
       0.23881769 0.0375178 -0.6042564 -0.011644565

model/batch_normalization_1/batchnorm/add_1;model/conv1d_1/Conv1D/Squeeze;model/batch_normalization_1/batchnorm/mul_1;model/conv1d_1/BiasAdd;model/conv1d_1/BiasAdd/ReadVariableOp;model/batch_normalization_1/batchnorm/mul;model/batch_normalization_1/batchnorm/sub;model/conv1d_1/Conv1D f4 [96]
000000 c7 4a 3e 3f 63 0e 9c 3f 5e 20 02 3f 60 6a 0c 3f
       0.7433285 1.219189 0.5083064 0.54849815
000010 ee b2 35 3f 75 3c 21 3f a8 90 c0 3e e2 bd ff bd
       0.7097615 0.62982875 0.37610364 -0.12487389
000020 47 70 cb 3f c2 e6 6c 3d e8 78 ac 3e 91 f3 49 bf
       1.5893639 0.057837255 0.33685994 -0.7888728
000030 0a b7 fb 3e 2a a7 49 3f d6 82 2a bf b2 98 3f 3f
       0.49163085 0.787707 -0.6660589 0.7484237
000040 65 bd 3a 3e 6a 17 26 3f 07 aa 66 3f d9 7a 93 3e
       0.18236311 0.6487948 0.9010319 0.28804663
000050 1c b0 0b 3f e5 35 e0 be c6 45 7d 3e 8d 42 25 3f
       0.54565597 -0.43791118 0.24733648 0.64554673
000060 f4 f4 f2 bd da ed 21 3f 83 97 d5 be 32 a4 a1 bd
       -0.11863127 0.6325356 -0.41717157 -0.07892646
000070 80 4c 32 3f 03 a4 d3 3e 10 79 13 bf 39 1b 97 3e
       0.6964798 0.4133607 -0.576066 0.29512957
000080 6b 43 1c 3f 65 73 32 bf a2 31 44 bf 03 cf c4 3d
       0.6104037 -0.6970733 -0.76638234 0.09609797
000090 15 65 01 3f bb 8c 16 3f 87 69 1e bf b1 e3 2b 3e
       0.50544864 0.5880849 -0.6187977 0.16786076
0000a0 11 fb 39 be 46 b6 a0 be 81 40 59 3f 33 1f 58 3f
       -0.1816218 -0.31389064 0.8486405 0.84422606
0000b0 76 13 c9 3e 17 32 86 3e e7 36 c4 be 86 82 64 3e
       0.3927266 0.2621009 -0.38323137 0.22315416
0000c0 61 8b d8 3e 32 43 30 3f 74 d8 ed 3e b8 4f 14 3e
       0.42293838 0.6885253 0.46454203 0.14483535
0000d0 0e 7f 02 3f 64 5d 0e 3e 38 dd 8a 3f 44 38 a7 3e
       0.5097512 0.13902813 1.0848761 0.32660115
0000e0 f6 0b f5 3e 97 08 2c bf 42 a0 00 bf d9 fa c6 3e
       0.47860688 -0.6720061 -0.50244534 0.38863257
0000f0 26 37 06 be e6 52 e8 3e e4 be 16 bf 08 7f f8 3e
       -0.13106975 0.45375746 -0.58885026 0.48534417
000100 0f 6b ef 3e 6e f1 90 3f 4d db b4 3e 03 95 fe bc
       0.46761367 1.1323678 0.35323563 -0.031076914
000110 a6 65 08 be b0 09 a7 3d a9 c0 3c 3f 20 97 10 bf
       -0.13320026 0.081561446 0.73731476 -0.564806
000120 f1 ec 36 3f 36 db 09 bf 3e 16 27 3f e2 76 cf be
       0.71455294 -0.53850114 0.65268314 -0.40520388
000130 b4 24 4e be 98 b3 87 bd fc 27 17 3f 05 90 a8 3e
       -0.20131189 -0.06626052 0.59045386 0.32922378
000140 d7 f8 07 bf 6f d1 52 be 8c f6 15 3e 00 81 2d bf
       -0.53114074 -0.20587705 0.14644831 -0.67774963
000150 48 c7 47 3e ac 07 a3 3e d1 f2 d6 3d 4f 01 07 3f
       0.19509614 0.3184179 0.10495532 0.5273637
000160 ea d6 0d 3f d7 d4 2a 3f 26 ed 25 3f 7f 79 6c 3e
       0.5540606 0.6673102 0.64814985 0.23093222
000170 fb 8d 9f be c6 40 f4 3e cd 70 07 bf 50 fa 3a 3e
       -0.3116301 0.47705668 -0.52906495 0.18259549

model/batch_normalization/batchnorm/mul_1;model/conv1d/Conv1D/Squeeze;model/conv1d/BiasAdd;model/conv1d/BiasAdd/ReadVariableOp;model/batch_normalization/batchnorm/mul;model/conv1d/Conv1D;model/conv1d_1/Conv1D f4 [96, 1, 3, 126]
000000 42 36 99 b9 8d 4a 0a bb b9 8d 04 3a d7 9a 87 bb
       -0.0002922286 -0.0021101565 0.0005056519 -0.0041383314
000010 c0 f1 71 3d 75 48 23 bc bb 9e b3 3b 47 6b 5b 3d
       0.05906844 -0.009966006 0.0054815686 0.053569105
000020 2c 40 05 3c 69 e2 75 3c 3b d5 14 3d 5b 92 be 3c
       0.008132976 0.015007594 0.036336165 0.023263147
000030 89 4b b2 3c 05 73 f0 3c b7 f1 0f 3d 1a 30 6c bc
       0.021764534 0.02935172 0.035142627 -0.014415765
000040 bf c3 00 3d a5 99 f0 3c dd 70 19 3a 01 94 2a 3c
       0.031436678 0.029370138 0.0005853305 0.010411263
000050 5f 9c 25 3d 31 7d 60 bb 00 89 95 3b 60 fa 2d 3d
       0.04043233 -0.0034254307 0.004563451 0.042475104
000060 ee ae 27 bc f3 0e 0e 3c 07 63 31 3d 75 54 48 bc
       -0.010234578 0.008670556 0.04330733 -0.012227167
000070 c6 7c c5 3d 30 2b 75 3d 69 c6 1a bc 38 88 51 3d
       0.09642939 0.05985564 -0.009446719 0.0511553
000080 ae 49 a2 3d 53 87 f4 ba 12 4d 07 3d 80 63 a3 3d
       0.079242095 -0.0018656052 0.033032484 0.079779625
000090 73 21 29 ba 65 f3 05 3d fc 4d a3 3d 4d 30 c9 bc
       -0.00064518227 0.032702822 0.07973859 -0.024559164
0000a0 d3 80 16 3d 8b 76 86 3d 65 92 01 3a 86 08 06 3c
       0.03674395 0.06565579 0.0004942774 0.008180743
0000b0 72 fc a3 3d f7 b3 e6 3b 00 53 92 3b d5 35 8c 3d
       0.080071345 0.0070404964 0.004465461 0.06846205
0000c0 0f 79 ac 3b a0 a1 88 3c 28 28 77 3d 29 34 c2 bb
       0.0052634547 0.016678631 0.06034103 -0.005926628
0000d0 13 af b7 3c bc f0 a6 3d 4b e6 3b 3c 32 ff 4c 3c
       0.02242235 0.08151385 0.01146848 0.012512015
0000e0 6f 9e b4 3d 36 20 02 3c 0a 5b bf 3b 70 9f 98 3d
       0.08819281 0.00794225 0.00583971 0.07452285
0000f0 a8 d7 53 39 0a 36 03 3c 5c 73 82 3d 20 88 ea 3a
       0.00020202866 0.008008489 0.06369659 0.0017893352
000100 6e e7 d1 b9 fd b4 60 bb 3f 98 23 bc 32 28 3b 3d
       -0.00040036015 -0.0034287565 -0.009985029 0.04569263
000110 48 bf 06 bc d1 d4 a6 ba 3e a4 7c 3c 8e c3 1e bb
       -0.008224316 -0.0012728219 0.015420018 -0.0024225446
000120 1d 95 11 3c 58 bf d0 bc 74 07 be 3b f1 71 75 3c
       0.008885649 -0.025481865 0.0057992283 0.014980779
000130 60 e5 5e bd ee fb 4c 3c 01 95 87 3b 63 39 16 3c
       -0.054417968 0.012511237 0.0041376357 0.0091689555
000140 6b 06 d2 3c 32 04 70 3c 56 5e 06 bc 7f b4 04 3d
       0.025637826 0.014649438 -0.008201202 0.032398697
000150 11 27 72 3c e5 d4 16 bc 6c e4 00 3d d3 5e 39 3c
       0.014779822 -0.009206031 0.03146784 0.011314112
000160 34 71 ee bb ee 6a e9 3c c3 2b 47 3c 91 da a6 3c
       -0.0072766785 0.02849337 0.01215643 0.020367892
000170 36 47 45 3d 28 ab b8 3c 45 39 87 3c 4e 6e 5b 3d
       0.048163615 0.022542551 0.0165068 0.05357199
000180 ad 86 b8 3c e1 d0 cc 3c 4a 15 44 3d 39 59 8f 3c
       0.022525156 0.025001945 0.047871865 0.0174986
000190 78 26 ef 3c 0b 2d 2e 3d cb ce 9b 3c ea dc d7 bc
       0.029193148 0.042523425 0.019019505 -0.026350457
0001a0 3d 89 64 3d 81 ef fb 3c 64 a1 ad bc b1 be 66 3d
       0.055794943 0.030753853 -0.021195121 0.0563342
0001b0 92 32 01 3d 39 42 32 bb a3 3d 29 3d 95 ce df 3c
       0.03154237 -0.0027200116 0.041318547 0.027320186
0001c0 5f 8e 1b 3c 70 a4 f0 3c 74 32 ac 3c e1 1d 63 bd
       0.009494393 0.029375285 0.021020152 -0.055448417
0001d0 41 1d 79 3d 07 7a d1 3c 38 e1 48 bd e3 25 75 3d
       0.060818914 0.025570882 -0.04904291 0.059850585
0001e0 e8 0b d4 3c 91 aa f4 bc d1 aa 40 3d 56 7a b9 3c
       0.025884584 -0.029866489 0.047037903 0.022641342
0001f0 42 80 72 bc 37 c0 11 3d 1a a0 3e b9 51 de 20 bb
       -0.014801087 0.0355837 -0.00018179454 -0.0024546573
000200 2c d4 ee b9 a9 a1 da bb ca a4 6d 3d 73 47 26 bc
       -0.00045552978 -0.0066721034 0.058018483 -0.010148871
000210 6a 88 11 3b 34 dd 50 3d ed 29 0d 3c b7 8c 40 3c
       0.0022206553 0.050992206 0.008615953 0.011752299
000220 b0 55 09 3d 0c cd c6 3c 80 ae 95 3c ed 4c de 3c
       0.033528984 0.024267696 0.018271685 0.02713629
000230 cd 50 15 3d 30 15 84 bc 76 ad f9 3c 67 e3 ef 3c
       0.03645401 -0.016123384 0.03047822 0.029283239
000240 f1 52 58 3a 09 8c 31 3c 4c 7e 27 3d d8 19 64 bb
       0.00082521053 0.01083661 0.04089193 -0.0034805443
000250 41 9b ea 3b 6b 19 2e 3d 52 32 19 bc 45 c4 63 3c
       0.007159621 0.04250471 -0.009350376 0.013901775
000260 70 7c 32 3d a0 9b 48 bc d2 e4 c2 3d da f7 79 3d
       0.043575704 -0.012244135 0.095163 0.061027385
000270 93 bf 04 bc 14 5e 47 3d f2 4f a4 3d 15 1e 04 bb
       -0.0081023155 0.048673704 0.08023061 -0.0020159532
000280 d8 e2 0d 3d 65 3e a6 3d 9e 02 81 ba bb ad 1b 3d
       0.034640163 0.081173696 -0.0009842699 0.03800748
000290 71 4c a6 3d ba 8e c4 bc 04 af 0e 3d 4a b0 88 3d
       0.08120049 -0.023993839 0.034834877 0.066742495
0002a0 f5 47 fb 3a 4f cd c6 3b ce 57 a7 3d 40 d5 04 3c
       0.0019171225 0.006066955 0.08171044 0.008107483
0002b0 bc 9a c8 3b bd c3 8e 3d 6b 75 b2 3b 2b 2b ad 3c
       0.0061219614 0.06970928 0.005446126 0.021138748
0002c0 c0 c7 7c 3d 40 f0 53 bb 27 1d a7 3c e7 54 a8 3d
       0.061713934 -0.0032339245 0.020399643 0.08219319
0002d0 93 a0 64 3c 70 76 3f 3c be a0 b6 3d d9 9f 1f 3c
       0.0139542995 0.011685953 0.08917378 0.0097427005
0002e0 b4 ea 13 3c d0 ad 99 3d 49 5f b4 3a 62 af 6a 3c
       0.009028126 0.07503855 0.0013761307 0.014324041
0002f0 67 78 83 3d af 40 f4 3a f9 c6 74 ba d4 d5 3b bb
       0.06419449 0.0018635 -0.00093375106 -0.0028661387
000300 1a 70 14 bc b3 07 42 3d 99 f1 05 bc e8 43 d8 3a
       -0.00905993 0.047370624 -0.008175277 0.001649973
000310 44 cf 87 3c 5e 35 09 bb c7 e3 4d 3c 63 b0 cb bc
       0.016578324 -0.002093635 0.012566513 -0.024864381
000320 6f 16 c0 3b 72 ac 9b 3c d3 41 5a bd 21 bc 54 3c
       0.0058620493 0.019003127 -0.05328543 0.012984307
000330 1e 9a de 3b ea f3 1a 3c 0e 0e c0 3c 2f 14 8c 3c
       0.0067932745 0.009457568 0.023444202 0.017099468
000340 a6 84 e4 bb 9b 64 f7 3c 0b da 85 3c f9 b5 01 bc
       -0.0069738207 0.03019934 0.016339323 -0.007916921
000350 89 ce f3 3c 3f 3c 62 3c 24 23 ce bb e6 4c d9 3c
       0.02976157 0.013808309 -0.00629081 0.026525926
000360 a9 19 4f 3c 00 b7 ad 3c 8c db 44 3d a8 03 ba 3c
       0.012640395 0.021205425 0.04806094 0.022706822
000370 3f 03 9c 3c 9b 54 5b 3d 6f 2c bb 3c 5d ff e3 3c
       0.019044517 0.053547483 0.022848336 0.027831728
000380 8d cb 44 3d 55 58 92 3c d5 ff 03 3d 0d a5 2e 3d
       0.048045684 0.017864386 0.032226402 0.042637873
000390 73 f8 9b 3c c4 01 d7 bc 28 df 64 3d 7d 8e fa 3c
       0.019039368 -0.02624596 0.05587688 0.030585522
0003a0 a2 9e a1 bc ee d8 66 3d 93 82 fe 3c 26 18 4a ba
       -0.019728962 0.056359224 0.031068122 -0.0007709287
0003b0 96 dc 28 3d 53 be d8 3c 1a 5b 40 3c 1f bf ed 3c
       0.041225992 0.026457941 0.01174047 0.029021798
0003c0 5c 49 a2 3c 41 72 66 bd 00 ae 72 3d 07 10 c2 3c
       0.019810371 -0.056261305 0.05924797 0.023689283
0003d0 93 27 46 bd bb e5 6f 3d 31 ee be 3c e7 84 e9 bc
       -0.048377585 0.058568697 0.023306938 -0.028505756
0003e0 f4 79 39 3d 2a ce 9e 3c 2e cf 54 bc 00 55 0c 3d
       0.04528232 0.019385416 -0.012988849 0.03426075
0003f0 10 5b 24 ba d7 45 bf ba b8 08 f5 37 18 04 ca bb
       -0.0006269673 -0.0014592957 2.9210336e-05 -0.006165039

model/batch_normalization_1/batchnorm/mul_1;model/conv1d_1/Conv1D/Squeeze;model/conv1d_1/BiasAdd;model/conv1d_1/BiasAdd/ReadVariableOp;model/batch_normalization_1/batchnorm/mul;model/conv1d_1/Conv1D f4 [96, 1, 3, 96]
000000 fc 77 10 bd bf e7 60 3b cb df 39 bb 91 5a 6a bb
       -0.035270676 0.003431782 -0.002836215 -0.0035759548
000010 ba 66 d5 3c a3 5f 2a bc ab f8 fb bc 1e 10 92 bc
       0.02604996 -0.010398778 -0.030758223 -0.01782995
000020 09 83 22 bc 61 f6 eb bb ac 40 0d bd 8f f7 5d 3d
       -0.0099189365 -0.0072010015 -0.034485504 0.05419117
000030 aa 11 0b 3d 78 df a1 3b 59 86 31 3d ee d0 b3 bc
       0.033952393 0.0049399696 0.043341015 -0.021950211
000040 91 96 3c 3c f6 d3 88 3c 7d 96 69 bd fe f5 c1 bc
       0.011510507 0.016702633 -0.057028282 -0.023676869
000050 ee cf bd bc 5a df 2d bd 03 94 15 bc 62 19 e1 3d
       -0.023170438 -0.042449333 -0.009129527 0.109911695
000060 05 af ed bc 28 b5 87 bc 65 f8 aa bb 16 a3 73 bd
       -0.02901412 -0.016565874 -0.005217599 -0.059481703
000070 fa 8a 62 bd 97 8d f5 3c 51 ab 4f bd 1f ff ec 3c
       -0.05530832 0.029974742 -0.05070049 0.028930245
000080 0e 16 53 bc d1 22 bd bc c2 57 d2 bc 52 c1 9a 3c
       -0.012883676 -0.02308789 -0.025676612 0.01889101
000090 3f f0 5c bd af 81 0a 3d 03 59 26 bd 04 05 5d bc
       -0.053940054 0.033815082 -0.040612232 -0.013489965
0000a0 01 c3 34 bc df ea 03 3d ca 87 b8 bb 34 13 5c bc
       -0.011032821 0.032206412 -0.0056314217 -0.013432313
0000b0 0d 3c d1 bc af f7 15 bd 0b 5a b4 3c e2 ad a8 bc
       -0.02554133 -0.036613163 0.022015592 -0.020590726
0000c0 dc 24 23 bc c4 15 0e bd 1f 39 9e bc 49 eb 1f bc
       -0.009957518 -0.034688726 -0.019314347 -0.009760686
0000d0 9a bb 57 bd 0e 2d 7c bd 49 ca 56 3d 1a c1 25 bd
       -0.052669145 -0.061566405 0.052439008 -0.04046736
0000e0 bd 1c 02 3d aa 15 de bc cf f3 53 3d 47 dc 39 bd
       0.03176569 -0.02710994 0.051746186 -0.04537609
0000f0 9b d7 41 3d aa a9 e8 bb 98 2a 75 bd b2 cf 7c 3a
       0.047324758 -0.0071003037 -0.059855074 0.0009643986
000100 c7 27 15 bd 40 14 bd 3a da 81 4c bc 4c c1 f8 3c
       -0.036414888 0.0014425591 -0.012482131 0.030365609
000110 28 e1 a6 bb 1e 24 db bc f9 56 06 bd e7 2f 62 3c
       -0.0050927587 -0.02675062 -0.032797787 0.013805366
000120 07 d8 b9 bb 50 e1 56 bc d5 be 83 3c b9 9a 41 bd
       -0.0056715044 -0.013115242 0.016082207 -0.047266696
000130 30 17 be ba a2 f8 2a 3d f8 95 e9 3c 48 bc 9a bd
       -0.001450276 0.04174102 0.028513893 -0.07555443
000140 2e 80 5a 3d 87 60 a7 bc 40 06 50 bd 9b 53 ca ba
       0.053344898 -0.02043177 -0.05078721 -0.0015436293
000150 5a 52 39 3d 94 d5 0c bd 3b 62 ff 3c b5 ad e7 3b
       0.045244552 -0.03438337 0.03117477 0.007070268
000160 da 8f 11 bd b5 39 1a bd 01 61 72 3c 79 cb 3e bc
       -0.03553758 -0.03765269 0.014793635 -0.011645191
000170 73 97 77 bd e3 9d 9a 3c 71 7b 3f bd 3b cc d7 bc
       -0.060447168 0.018874114 -0.046748582 -0.026342502
000180 51 8e 18 bd 91 67 d8 3a 5e 53 30 bb 9a ed ac bb
       -0.0372451 0.0016510357 -0.002690516 -0.0052773478
000190 38 75 d6 3c 9c 88 1c bc 21 87 e4 bc 7a 49 a0 bc
       0.026178941 -0.009554055 -0.027896466 -0.019566286
0001a0 fe e2 dd bb 4d b3 ed bb e9 33 0b bd e5 01 5b 3d
       -0.0067714443 -0.0072540403 -0.033985052 0.053468604
0001b0 07 1a 0f 3d 65 a7 5b 3b 70 82 2a 3d 57 06 95 bc
       0.03493693 0.0033516523 0.0416283 -0.0181915
0001c0 6c 43 41 3c d0 3e a6 3c 26 15 6e bd ca 9c c9 bc
       0.01179586 0.020293623 -0.058125637 -0.024610896
0001d0 ac 08 c7 bc 51 5e 36 bd d9 3a 33 bc c7 0f e2 3d
       -0.024296127 -0.04452354 -0.010939323 0.110381655
0001e0 84 d3 ed bc 24 c4 84 bc 88 a7 d9 bb 38 28 82 bd
       -0.029031523 -0.016206808 -0.0066422857 -0.06355327
0001f0 30 95 8d bd e0 9b ee 3c 56 c9 6b bd 52 ca fc 3c
       -0.06913221 0.029127061 -0.057565056 0.030858193
000200 3f 6b 63 bc c4 d4 c6 bc 92 5d d9 bc 81 69 a3 3c
       -0.01388055 -0.024271376 -0.026533876 0.01994777
000210 ee c7 67 bd 77 c8 01 3d 59 ef 12 bd f5 26 32 bc
       -0.056587152 0.03168532 -0.03587279 -0.010873546
000220 b8 5b 22 bc 4f 7b fe 3c 72 5e b2 bb 48 ac 45 bc
       -0.009909563 0.031064657 -0.0054433877 -0.012065001
000230 48 77 e6 bc b4 52 02 bd f3 08 a1 3c 0b bb a1 bc
       -0.02813305 -0.031817153 0.019657588 -0.01974251
000240 51 6d 59 bc 46 94 00 bd fe cd b3 bc 7b c0 35 bc
       -0.013270692 -0.031391405 -0.02194881 -0.011093254
000250 98 ce 5a bd 54 e5 52 bd d8 19 5a 3d 5e e3 1c bd
       -0.05341968 -0.051488236 0.053247303 -0.03830277
000260 27 9b fa 3c 40 8b f2 bc 19 77 59 3d e0 ae 38 bd
       0.03059156 -0.029607415 0.053092096 -0.04508865
000270 db 8f 46 3d 81 d2 0f bb 23 a1 82 bd fa d7 1f bb
       0.048477035 -0.0021945538 -0.06378391 -0.0024390207
000280 d9 bd 14 bd fa 56 a8 b9 21 4a cd ba ec c0 e9 3c
       -0.036313865 -0.0003210826 -0.0015662351 0.028534375
000290 f4 ca 02 bc 4d 6d ee bc 1d 3d fc bc e4 94 90 3c
       -0.007982958 -0.029104853 -0.03079086 0.017649122
0002a0 77 6c bd bb 43 e7 3b bc 12 6e 78 3c 34 72 49 bd
       -0.0057807523 -0.011468711 0.015162962 -0.04918118
0002b0 f3 f1 00 3c bc 8a 29 3d b5 64 df 3c 07 1a a0 bd
       0.007870185 0.041392073 0.0272697 -0.07817464
0002c0 a5 6a 59 3d e7 dc 91 bc 6e e7 2e bd 3c dd 33 bb
       0.05308022 -0.01780553 -0.042701177 -0.0027445098
0002d0 a3 aa 32 3d c9 dd 14 bd b0 bc f3 3c 1e e3 99 3b
       0.043619763 -0.036344323 0.02975306 0.004696264
0002e0 aa b8 19 bd 97 6a 21 bd e8 ca 48 3c 6c 97 23 bc
       -0.037529625 -0.039408293 0.012255408 -0.009984832
0002f0 32 16 87 bd 2c 12 70 3c d0 07 31 bd ab 33 d3 bc
       -0.0659603 0.01465277 -0.04322034 -0.025781473
000300 23 5d 1f bd a4 80 a1 3b 23 8e 4c ba 73 2b 93 bb
       -0.03890718 0.0049286652 -0.00078031624 -0.0044912635
000310 8a 87 d2 3c 73 0a d5 bb b7 fb c2 bc 97 b4 a2 bc
       0.025699396 -0.00650149 -0.023801668 -0.019861503
000320 98 7b 02 bc ca f7 ea bb 9f 16 0c bd d2 94 52 3d
       -0.007964037 -0.007170652 -0.03420126 0.051411457
000330 25 e8 02 3d 20 d3 20 ba fb 2e 1d 3d c3 61 50 bc
       0.03195967 -0.00061349757 0.038374882 -0.012718621
000340 9f 7a 76 3c 43 b3 aa 3c e2 b7 67 bd ac dd cd bc
       0.015043884 0.020837432 -0.05657185 -0.025130115
000350 db 4c af bc 41 36 32 bd 4d ef 3e bc e6 71 d8 3d
       -0.021398952 -0.04350877 -0.011653733 0.105685994
000360 2e df dc bc ff 7e 7c bc 07 de 00 bc d2 d6 74 bd
       -0.02696189 -0.015411138 -0.007865435 -0.05977518
000370 6c 44 91 bd 19 1b d7 3c a3 8e 49 bd ea 39 01 3d
       -0.070931286 0.026258038 -0.049208295 0.03154937
000380 dc d7 8a bc 3f 45 b4 bc 18 ac e9 bc 32 17 98 3c
       -0.016948633 -0.022005675 -0.028524444 0.018565748
000390 45 9d 57 bd 25 bc f0 3c b8 78 ff bc a7 dd 15 bc
       -0.05264022 0.02938659 -0.031185493 -0.009147084
0003a0 fc 8c 2e bc 42 01 f0 3c ae 86 22 bb a3 bc 1d bc
       -0.0106537305 0.029297475 -0.0024799514 -0.009627494
0003b0 93 8e e4 bc fb f4 d9 bc c2 67 a8 3c 78 b2 a9 bc
       -0.027900016 -0.026606074 0.020557288 -0.020714983
0003c0 91 52 14 bc 4b bc f5 bc 18 a3 b4 bc 6a 4f 15 bc
       -0.0090528885 -0.029997012 -0.022050425 -0.009113172
0003d0 a5 30 48 bd 95 36 38 bd eb 2b 4c 3d e7 df 06 bd
       -0.048874516 -0.04497393 0.04984657 -0.032928374
0003e0 d4 33 f6 3c 9a 1a f8 bc f5 c2 57 3d b2 06 3e bd
       0.03005401 -0.030286122 0.05267616 -0.046393104
0003f0 69 80 42 3d c2 bc b2 ba fe 3b 82 bd 72 2a 08 3a
       0.047485743 -0.0013636576 -0.06359099 0.0005194313

model/gru/gru_cell/strided_slice_4 f4 [96]
000000 18 e7 ba 3d 3b ff 58 bd 04 f4 85 3d c1 38 0f bd
       0.09126109 -0.05297778 0.06540683 -0.034966234
000010 0c 8d 98 3c 68 cf 14 bd fc 7e 8a bd 4b a2 e7 bc
       0.018621944 -0.03633061 -0.067625016 -0.02827563
000020 9c 90 be 3d cd e5 b7 bd 07 29 f4 3d e6 44 52 3d
       0.09304926 -0.08979378 0.11921888 0.051335238
000030 69 5a 88 bd 67 81 a5 3c 7c 33 de bb 37 10 f3 bc
       -0.06657869 0.020203305 -0.0067810398 -0.029670818
000040 90 d1 ac ba fe ba 16 bd 02 17 66 bd 35 58 af 3b
       -0.0013185013 -0.036799423 -0.056174286 0.0053510913
000050 3b 9d 3a 3d c9 18 02 3d 9c 3c b1 3c 1f 9b 72 3d
       0.045560103 0.03176192 0.021635346 0.059229966
000060 c9 0a 06 bd d7 4c 54 bd ec d3 f4 3a 33 4c a5 bd
       -0.03272513 -0.051831093 0.001867888 -0.080711745
000070 76 bc f6 3c 4e d8 35 3c 20 53 1e 3e b0 d5 19 bd
       0.030119162 0.011098934 0.15461397 -0.037557304
000080 20 36 53 3d 00 04 62 bc 47 d5 14 bd 45 9c 09 bd
       0.05156529 -0.013794899 -0.03633621 -0.033596296
000090 5f 52 c8 bd f2 4e a7 3b f5 9c 4b bd 37 49 ea bc
       -0.09781336 0.0051058466 -0.049710233 -0.028599365
0000a0 1d 3d a5 bb 24 a2 d0 3b d0 cd 92 bd 33 8f 5c bd
       -0.0050426857 0.006366985 -0.07168162 -0.053847503
0000b0 13 12 a6 3c 88 a9 23 3d 52 12 ae 3a 93 6b 0a bc
       0.02027229 0.0399566 0.0013280606 -0.008448499
0000c0 14 a4 27 3c 97 a5 98 3d 9f 36 0f bd c6 9a 09 3d
       0.01023199 0.07453459 -0.0349642 0.03359487
0000d0 4c 12 49 3d dd 7f 81 bd 7b 3a 44 bb 1f f2 1a bd
       0.049089715 -0.06323216 -0.0029942084 -0.03782856
0000e0 b8 ed 11 bd 0b 66 0f 3b 63 45 98 3c ea b8 65 3d
       -0.035627097 0.002188089 0.018587774 0.05608455
0000f0 86 26 5c 3c d2 d3 3e bd 04 33 34 bd 1a e8 26 bc
       0.013436919 -0.046588726 -0.043993965 -0.010187173
000100 d0 e4 81 3c 22 ab b6 bd d8 a6 18 bd c3 83 3f 3c
       0.015856177 -0.0891936 -0.03726849 0.011689129
000110 af a7 9b bd 2e 6c ea 3b e8 d5 95 3c d1 f2 8f bc
       -0.076003425 0.0071540093 0.018290475 -0.017571839
000120 07 fd af bc 25 6a ed bd 6d 71 db bb 9d a9 ab bc
       -0.021482958 -0.11592511 -0.006696871 -0.020954901
000130 c6 90 cc bc 1f 0e a1 3c 2b 7f 09 bd ac 94 14 3d
       -0.024971377 0.019660054 -0.033568542 0.036274597
000140 5a cc 9f 3d 9b 41 8b 3d 5e 50 6f 3d 50 42 9d bd
       0.07802649 0.067996226 0.058426253 -0.07678664
000150 85 61 9c bd f6 1a 27 bd 86 6f 96 bc 9a 0f 9c 3c
       -0.07635788 -0.040797196 -0.018363725 0.019050408
000160 95 1f 51 bd f0 3b 94 bd 06 00 3b bd 81 3b f2 3b
       -0.05105551 -0.07237995 -0.04565432 0.0073923473
000170 53 1f 8b 3c 1b be 53 3d 61 ed 20 bd 80 ae a0 bd
       0.01698271 0.05169497 -0.039288882 -0.07845783

model/gru/gru_cell/strided_slice_3 f4 [96]
000000 93 07 9e 3e c8 d8 8c 3d b0 57 16 3e e7 41 a1 3d
       0.30865154 0.06877285 0.14681888 0.07873898
000010 7e a6 d6 3d c1 bd 5c 3d 03 0b 92 3d 9c 5e 89 3d
       0.104809746 0.0538919 0.071310066 0.067074984
000020 cf fd 2e 3d ed 78 3c bc 84 5e 31 3e 19 ef fe 3c
       0.04272252 -0.01150344 0.17321211 0.03111987
000030 a6 2b cd 3d e4 4f 7b 3d cd af 42 3e e5 ef 5b bb
       0.10018091 0.061355487 0.19012375 -0.0033559736
000040 a9 92 42 3e be 97 88 3c ec f2 da 3c 96 68 4a 3d
       0.19001259 0.016673919 0.026727162 0.049416147
000050 d6 16 63 3e f7 c9 08 3d aa ba 0b 3d ca e1 9a bc
       0.2217668 0.033395734 0.034113564 -0.018906493
000060 ef b3 f5 3d 57 42 76 3d fe 96 04 3e ec e5 d1 3d
       0.1199721 0.06012186 0.12948224 0.10248932
000070 d7 4e 76 3e 4f 70 b0 3d cb 98 89 3e fc f6 05 bc
       0.24053513 0.08615171 0.26874384 -0.008176561
000080 68 ad d0 3d 7f a9 84 3d f8 46 6c 3c 23 36 12 bd
       0.101893246 0.06477641 0.014421217 -0.03569616
000090 0d 26 55 bd 29 19 65 3e f2 b1 50 3e 08 78 b1 3d
       -0.05203824 0.22372879 0.20380381 0.08665472
0000a0 6a 1a 22 3e be ea 15 3e 05 d2 28 3e 95 d3 c1 bc
       0.15830389 0.14640328 0.16486366 -0.02366046
0000b0 a4 7d 67 3e d2 c8 6b 3e fa bb 77 3a 1f 28 f4 3d
       0.22606522 0.23025826 0.0009450313 0.11921715
0000c0 10 18 c3 bd 78 64 30 bd 3b e7 23 3e fb 36 47 3c
       -0.09526074 -0.043064564 0.16006176 0.012159104
0000d0 b7 19 14 3e fc ea 16 3e 4e d3 39 3e 13 f3 1a be
       0.14462934 0.14738077 0.18147013 -0.15131788
0000e0 1c ea a4 3d 43 a2 76 3d 94 be 35 3e 38 80 12 3d
       0.08052465 0.06021334 0.17748481 0.03576681
0000f0 55 00 9c 3d cc 1a 04 3d 5f 74 68 bc cf a8 2e 3e
       0.07617251 0.032252118 -0.014187901 0.17056583
000100 38 e0 83 3c 7d a2 0a 3e a8 77 14 3e 58 1c c0 3d
       0.016098127 0.13538547 0.1449877 0.09380406
000110 b4 ea 6f 3d 60 ea 0d 3e 60 96 e5 3d 72 db 44 3d
       0.05857344 0.13858938 0.112103224 0.04806084
000120 78 95 8a 3e 9f 3b 09 3e a8 f7 82 3d 5b f7 f1 3d
       0.2706716 0.1340165 0.06394893 0.118147574
000130 88 a3 b9 3d ba 75 d2 3d e5 2b 20 3e 2c 55 05 3e
       0.09064394 0.10276361 0.15641744 0.13020772
000140 8a e8 42 3e ac 2b 5b 3e dc 9e 27 3e 2e 51 82 3e
       0.19034019 0.21403378 0.16369194 0.2545256
000150 01 ef 7c bd f7 c6 71 3d 81 f4 af 3c 88 be b0 3d
       -0.06175137 0.05902764 0.021478893 0.08630091
000160 e9 ab e8 3d b2 94 88 3d cb b6 bd 3d e1 9e 82 3d
       0.11360914 0.066689864 0.092633806 0.0637796
000170 9a 15 9c 3d 7f d9 0e 3e ae cd 26 3d 74 e8 59 3c
       0.07621308 0.13950156 0.040723495 0.01330005

model/gru/gru_cell/strided_slice_5 f4 [96]
000000 7c 4b 8f bb 7a 9c d2 bc 57 cb d2 bb 84 33 e4 3c
       -0.004373012 -0.02570938 -0.0064329314 0.027856596
000010 90 12 72 bd 10 8e 17 bc 72 ce bb bb f5 58 ee 3b
       -0.059099734 -0.009250179 -0.0057313973 0.007273788
000020 37 07 62 3d 5a 76 79 3d 87 8d 47 bc b8 30 5c bd
       0.05518266 0.060903884 -0.012179739 -0.0537574
000030 c1 54 77 3d 6e 7a b6 bc a3 fd 35 3c 85 e9 b9 bc
       0.060383562 -0.022275176 0.011107835 -0.022694359
000040 e9 45 1f bd d4 42 20 3c 09 da 49 3c 0d 5e 00 bd
       -0.03888503 0.009781558 0.01232005 -0.031339694
000050 74 8e 68 3d 34 36 e3 3c fa 99 dd 3c 7f 73 4d 3c
       0.05677648 0.027735807 0.02705096 0.012539743
000060 28 1a c5 3c 1a f7 08 3d 4c 02 27 bc 0b a4 10 3d
       0.024060324 0.03343878 -0.010193419 0.035312694
000070 0c e2 17 3d 49 45 0a bd 10 7d 2d bd 77 6b b3 bc
       0.03708081 -0.03375748 -0.042355597 -0.02190183
000080 be 97 44 bc 44 8e 11 3c c2 eb 08 bd d1 4f 8f 3d
       -0.011999069 0.008884016 -0.03342796 0.06997646
000090 70 20 58 3c 1f 2d a3 bb 1e ac f5 3b 38 ff 0d 3d
       0.013191327 -0.004979744 0.0074973246 0.034667224
0000a0 69 74 10 3d 1b 15 72 3d 29 6c cf bc 2f 7a 4e 3d
       0.035267267 0.05910216 -0.02532013 0.050409492
0000b0 fd 24 17 3d 64 9e 24 bb 5f 95 01 bc 30 d6 07 bb
       0.03690051 -0.0025118822 -0.007909148 -0.002072703
0000c0 14 fe 1f bc d3 fe e0 bc bc af aa bc 8c fc 1e bc
       -0.009765167 -0.02746526 -0.02083575 -0.009703767
0000d0 5c f3 b9 3d 63 fe f0 bc b5 38 7b bc 20 9a 0d 3d
       0.0907962 -0.029418176 -0.015333344 0.034570813
0000e0 3a 25 22 3d ed 67 41 3b 3c 88 16 3b 8d 16 11 3d
       0.039586283 0.0029511407 0.0022969386 0.035421897
0000f0 19 2f c8 bc 6a 81 6f bd 81 52 3c 3c a2 a6 9b bd
       -0.02443652 -0.05847303 0.01149428 -0.07600142
000100 15 ea 5f bc 1b d4 60 bd dc 7b 64 bd 3f 58 78 3d
       -0.013666649 -0.05488978 -0.055782184 0.060631033
000110 e1 56 84 3d 2d f2 e5 bc bd 6a 96 3d 20 4d de bc
       0.06461883 -0.02806958 0.073445775 -0.027136385
000120 ab 89 09 3d 15 dd 59 3c 81 5b 65 bb c0 b0 f9 bc
       0.033578556 0.013297339 -0.0034997168 -0.030479789
000130 c3 79 1b 3d 17 da 4e 3b 81 3f 81 3d bf 46 13 bd
       0.037957918 0.0031563097 0.063109405 -0.03595614
000140 46 5f ea bc 6a 4f 4a 3c 68 19 1b bc b7 05 3c bc
       -0.028609883 0.012348035 -0.009466507 -0.011475972
000150 36 1b 61 3c 64 3f 65 3d bd 89 7b bd c3 ce 7c bd
       0.013739398 0.055968657 -0.061410654 -0.06172062
000160 72 c2 cd 3c 3d 59 df 3c 24 f4 19 bc 0b fe 67 3c
       0.025117133 0.027264232 -0.009396587 0.01415969
000170 36 08 85 bc b2 bc 30 bc 4e 7d 17 3c 70 72 90 bc
       -0.016239267 -0.010787176 0.009246184 -0.017632693

model/gru/gru_cell/strided_slice_11 f4 [96]
000000 ba a8 ff 3b 85 1b f7 bc 58 03 46 bc 9c 73 2f 3d
       0.007802096 -0.03016449 -0.012085758 0.042834863
000010 0e b4 6f bd 22 29 3c bd ba e3 5c bd de 42 54 3c
       -0.058521323 -0.045937665 -0.053928114 0.0129553955
000020 11 d2 54 3d ee cd a7 3d c7 57 08 bd 24 9c 34 bd
       0.051958147 0.08193575 -0.033286836 -0.04409422
000030 a2 1a 29 3d 82 ef 53 bc d0 90 46 3c aa b5 a6 bc
       0.041285165 -0.012935521 0.012119487 -0.020350296
000040 52 f8 84 bd cf 96 1f 3d e2 bc ae bb b4 59 84 bc
       -0.06492676 0.03896218 -0.005332575 -0.016156055
000050 57 16 60 3d 2c fa be 3c 4d a4 88 3c 57 0f 6a 3b
       0.054708805 0.02331265 0.016679907 0.003571471
000060 de 93 73 bc ca 77 8a 3c 5e 49 d2 bb 31 b8 68 3b
       -0.014866797 0.016902823 -0.0064174375 0.0035510177
000070 76 5d 8c 3c 72 9b 35 bd e1 1c 8c bc de 4d 55 bc
       0.01713441 -0.044337697 -0.017103614 -0.013019053
000080 b6 92 2f bc d9 4d b1 b9 4a 9d 3e bc 6e 49 a3 3d
       -0.010716131 -0.00033818072 -0.01163418 0.0797299
000090 1f f1 28 bc 2d ff 75 3b 08 5c b1 bc 9b 92 2a 3d
       -0.010311394 0.003753613 -0.02165033 0.04164372
0000a0 f5 96 4f 3d da b5 6e 3d 03 43 2b bd b8 d9 50 3d
       0.050681073 0.058278896 -0.041811954 0.050988883
0000b0 4c f0 73 3d 6f 1e a7 3b aa 27 83 3c 45 11 0e bd
       0.059555337 0.0051000635 0.016010124 -0.03468444
0000c0 4c 6c 14 3c 7c 38 82 bc af 20 e6 bc 02 33 cf bc
       0.009059023 -0.015896074 -0.028091757 -0.025292877
0000d0 d5 1d 23 3d 65 cf 7a bd 62 28 5e bc f9 bc 23 bb
       0.039823372 -0.061232943 -0.013559433 -0.0024984463
0000e0 1b 4c 05 3d 79 d7 1f 3d 61 fc 45 bc 0b bd 28 3d
       0.032543283 0.03902385 -0.012084098 0.04119591
0000f0 5f 58 53 bd df 6d 66 bd dd 09 a0 3c 0e 76 af bd
       -0.05159795 -0.056257125 0.019535953 -0.08567439
000100 fd 39 26 3a be 9e 66 bd 40 15 93 bd 39 84 1c 3d
       0.00063410384 -0.056303732 -0.071817875 0.038212035
000110 63 d7 a1 3c 25 f1 0f bc f7 29 1c 3d 70 62 cf bc
       0.019756025 -0.008785521 0.03812596 -0.025315493
000120 14 d5 bb bb 36 be 10 3d 12 09 16 bc 9b db fe bb
       -0.005732188 0.03533765 -0.009157436 -0.007777644
000130 5a 1a 86 bc 00 57 00 3d 87 2a af 3d 9a 8b 8f bc
       -0.016369987 0.03133297 0.08553033 -0.017522622
000140 43 41 15 bc 0d 1f aa ba 32 04 e8 b9 19 ea 09 bb
       -0.009109798 -0.0012979225 -0.00044253614 -0.0021044074
000150 6e 0b 5e bc 97 40 7a 3d ee 1d 01 bc a3 2e 94 bb
       -0.01355253 0.061096754 -0.007880671 -0.004522161
000160 0b 27 77 3d 80 3f 9a bc 46 6d 1e bc ab 8f 07 3d
       0.06033997 -0.018829107 -0.0096696075 0.033095997
000170 66 8a 82 3a d2 54 3f 3c 9c 0b df 3c 7e 6a 28 ba
       0.0009959459 0.011677938 0.027227215 -0.000642456

model/gru_1/gru_cell/strided_slice_4 f4 [48]
000000 2b 13 d8 bd 20 5e 87 3c c3 5d 42 3d 7e 8f 78 3c
       -0.10550531 0.016524374 0.0474527 0.01517093
000010 76 16 89 bc 7a 1c 2f 3c c6 1c 50 bd 72 ca a0 bc
       -0.016734343 0.010687942 -0.05080869 -0.019627783
000020 66 70 3b 3e b1 aa b0 3c cb d8 e5 ba 6b 7c c6 bd
       0.18304595 0.021565767 -0.0017535923 -0.096916996
000030 83 13 48 bd f0 18 3b be c0 c9 0c 3b 7d 47 71 bc
       -0.048846733 -0.18271232 0.0021482557 -0.014726517
000040 fe a9 92 bd 6f 92 83 bc 77 e3 91 bd f1 7a 67 bc
       -0.0716133 -0.016061036 -0.071234636 -0.014128433
000050 cc 69 18 3e ca 61 0a 3e f2 11 bb bc a2 6f 3f 3d
       0.14884108 0.13513866 -0.022835705 0.04673732
000060 13 97 bb 3d a7 7e a2 3c 05 1a c5 bc 9f 2e 2f ba
       0.091596745 0.019835783 -0.024060259 -0.00066826673
000070 90 49 57 3d 4f 08 07 3b 6c 9c 95 bc 9b 41 1d bc
       0.05256039 0.0020604318 -0.018263064 -0.009598161
000080 0a f5 fa bc 49 82 5d bd 77 52 0d 3e fb 4d 9e 3d
       -0.030634422 -0.054079328 0.13800989 0.07729717
000090 50 f0 72 bb cf d1 d2 bd 57 ed 4a bd 86 11 a0 bc
       -0.0037069507 -0.10293924 -0.04954275 -0.019539606
0000a0 db 27 45 3d 97 70 13 3e 23 a5 ad 3d 5f f1 d9 3c
       0.048133712 0.14398418 0.08478763 0.026604353
0000b0 c1 3a d1 bd 3c 7a a7 3c 4a 58 9c 3c b9 76 c4 bc
       -0.102162845 0.020444028 0.019085068 -0.023982393

model/gru_1/gru_cell/strided_slice_3 f4 [48]
000000 8c ca b6 bc 1d fb 1b 3e f1 9c 4e 3e 21 f4 8f bd
       -0.022313379 0.15232511 0.20177056 -0.07028986
000010 a9 60 ef 3d ee c1 d2 bc 4b e8 57 bd 1a b3 d0 3c
       0.11688358 -0.025727239 -0.052711766 0.025476027
000020 59 37 bc 3c 4c aa 01 3e e0 e8 82 3c ec 62 25 3e
       0.02297561 0.1266262 0.015980184 0.16151017
000030 3b 5a 3d bd 44 37 01 3e 03 db ea 3d a0 51 ff bd
       -0.04622863 0.12618738 0.114675544 -0.124667406
000040 4e 2d 28 3e 6d 96 de 3c 87 09 78 3e d2 c6 a3 bc
       0.16423532 0.027171338 0.24222384 -0.019992266
000050 78 c4 47 3d 06 3e 5e bc e6 a4 7f 3c 24 83 60 3d
       0.04877135 -0.013564592 0.01560328 0.054812565
000060 48 33 56 3d 0c cb 4f 3d 64 9d d7 3d 72 72 8e 3d
       0.052295 0.05073075 0.10528067 0.069554225
000070 05 e3 cc 3c 51 4e 0b bd f0 ca fb bc b1 e1 c1 3d
       0.025010595 -0.034010235 -0.030736417 0.09466875
000080 91 3d 40 3e 81 fa 29 3e 3d fc f8 3d 59 a9 90 3d
       0.18773486 0.16599466 0.12157486 0.070635505
000090 67 62 ca 3c a9 0c 51 3e 0c 32 16 be 64 18 e4 bc
       0.024705125 0.20414986 -0.14667529 -0.027843662
0000a0 0e 00 85 3d da 13 b0 3e b0 7e 52 3d 07 6a 4c 3e
       0.06494151 0.34390146 0.05139035 0.19962321
0000b0 ff 9e d4 3d e1 8d d3 bd 5a e6 24 3e c3 23 fe 3c
       0.103818886 -0.10329796 0.16103497 0.031022912

model/gru_1/gru_cell/strided_slice_5 f4 [48]
000000 39 7a 65 bd 3f b7 f3 3d 22 e1 2c 3d de b0 4e bb
       -0.056024764 0.11900186 0.04220689 -0.0031538527
000010 fd ed 1c 3d d4 55 d4 3d d0 fa e7 3d 1d 77 b0 bd
       0.0383129 0.10367933 0.113271356 -0.08616469
000020 f7 66 57 be 95 75 51 bc ce 33 14 be e7 50 8c bc
       -0.21035372 -0.012784381 -0.14472887 -0.017128421
000030 d8 f4 8a 3d a0 73 8c 3d 97 a6 0a be b7 56 cc bd
       0.067849815 0.06857991 -0.13540111 -0.09977477
000040 cb 51 19 bd a0 43 ce bd f3 db 98 bc ae 28 87 bd
       -0.03743152 -0.10071492 -0.018659567 -0.06599556
000050 99 30 fe 3d 75 87 36 3d 99 82 c1 3d 28 74 07 3e
       0.12411613 0.044562776 0.09448738 0.13227904
000060 10 1c 74 3d 23 7a c4 3d 6a 49 e9 3d 09 97 0c 3d
       0.059597075 0.09593608 0.11390956 0.034323726
000070 c6 97 3f be aa 97 db bd 07 c1 29 bd e5 1e a6 3c
       -0.1871024 -0.10722287 -0.04144385 0.020278404
000080 2a c6 b4 bc 68 c1 42 bd 8d 03 88 3d 2f fa 3c bd
       -0.022067148 -0.047547728 0.06641302 -0.04613703
000090 ee 0e e9 bc 37 cb 2a 3d 06 2f 34 3d e1 7f 68 3b
       -0.028449502 0.041697707 0.043990158 0.0035476612
0000a0 b0 8c a0 bd 52 4a 06 3e ee 21 07 3d ab d3 dc 3d
       -0.07839334 0.13114288 0.032991342 0.1078256
0000b0 bf 92 e2 3c 1d 07 8d 3d 6e 3d 90 bd 0d 06 4a 3b
       0.027657865 0.068861224 -0.07042967 0.003082636

model/gru_1/gru_cell/strided_slice_11 f4 [48]
000000 30 59 85 bd bb a3 50 3d 5d 21 80 3d fb bd 34 3d
       -0.06511152 0.050937396 0.062563635 0.044126492
000010 90 4f 50 3d 2f c8 83 3d 45 97 2d 3d 14 0a 69 bd
       0.050857127 0.06434666 0.04238059 -0.056894377
000020 6b a5 0b be 83 43 00 bd b7 fe 11 be 81 d8 d1 3c
       -0.1363732 -0.031314384 -0.14257322 0.025615932
000030 cb 67 00 3d 1d 05 34 bd ec ce d5 bd 49 20 c9 bd
       0.031348985 -0.04395019 -0.10439858 -0.09820611
000040 0e 6b 34 bd f9 cf 74 bd 53 64 ce bc c8 96 eb bd
       -0.044047408 -0.05976865 -0.025194323 -0.115033686
000050 99 66 9a 3d 59 04 42 3d e6 49 14 3d c7 fc 7f 3d
       0.075391 0.047367427 0.036203288 0.062496927
000060 35 8d 12 3d b3 44 ee 3d 95 c1 ef 3d 0d d2 6d 3c
       0.035779197 0.11634197 0.11706845 0.014515412
000070 e6 f1 3c be 73 ca 01 be 47 a1 2b bd 8d c1 34 3c
       -0.18451652 -0.12674884 -0.041901853 0.011032474
000080 8b a6 0e bd 64 e5 7a 3c 35 91 76 3d 00 c4 80 bd
       -0.034826797 0.01531348 0.060197074 -0.06287384
000090 f2 6e e1 bc 2c a2 a2 bb da 7c 16 3d 17 3b 34 3c
       -0.027518723 -0.00496318 0.03674016 0.011000416
0000a0 9e c1 5f bd ff 72 e9 3d 35 04 65 3c f7 b7 f8 3d
       -0.054628007 0.11398887 0.013978054 0.121444635
0000b0 5a bf bd 3d dc 6a 5a 3d 45 fc 50 bd b0 6c 15 3c
       0.09265013 0.053324565 -0.051021833 0.009120151

model/batch_normalization_3/batchnorm/sub f4 [48]
000000 02 77 56 3e 18 7d 74 be f8 69 ba bc ab f4 1a 3e
       0.20943835 -0.23875844 -0.022755608 0.15132396
000010 e5 2c 3a 3e d4 74 ce be eb 68 11 bf 10 97 8a be
       0.18181188 -0.40323508 -0.5680072 -0.27068377
000020 1b 02 d8 3e da 8c 97 3d 7b 5a 2c 3e 35 b4 87 3e
       0.42189106 0.07399912 0.1683139 0.26504675
000030 1f ce ee 3c e9 4b ff bd e5 03 f2 3d f2 f9 f1 bd
       0.02915102 -0.124656506 0.11817149 -0.118152514
000040 66 39 31 bc ae 8b d8 3e 77 50 91 bd b8 8f 41 3c
       -0.0108169075 0.42294067 -0.070954256 0.01181405
000050 87 14 8a be f0 aa fd 3d ce dd 53 be 43 3c b2 be
       -0.26968786 0.12386119 -0.2069008 -0.348116
000060 72 18 9b be 25 fd 33 be 69 4e 69 be b4 49 8d be
       -0.30292088 -0.17577036 -0.22783817 -0.27595294
000070 e2 a2 61 3f fc 02 30 3f 1b ef 87 3e d3 1c f4 bd
       0.88139164 0.68754554 0.2654961 -0.1191956
000080 18 ef 3c be 10 0a 36 be 25 41 7d be 31 17 3f 3e
       -0.18450582 -0.17777276 -0.24731882 0.1866119
000090 84 77 b7 bd 1f 74 03 3d 22 b2 7c 3d e0 c4 24 3e
       -0.08958343 0.032093164 0.06169332 0.16090727
0000a0 7c fa 7e 3c f0 86 89 be 44 04 95 3d 87 4e 87 be
       0.01556265 -0.26860762 0.07276204 -0.264271
0000b0 0d 6d 83 be 08 3b e1 bc 73 13 b7 3e 60 81 45 bb
       -0.25669137 -0.027493969 0.35757026 -0.0030136928

model/batch_normalization_3/batchnorm/mul f4 [48]
000000 3d c1 2b 40 4e 6a 1d 40 65 24 21 40 88 a0 02 40
       2.6836693 2.4596133 2.5178463 2.041048
000010 e9 81 1c 40 01 10 45 40 1b 6c 24 40 61 c5 1a 40
       2.445429 3.0791018 2.5690982 2.418297
000020 52 94 07 40 54 ef 14 40 c4 16 23 40 09 48 17 40
       2.1184278 2.3271074 2.5482645 2.3637717
000030 b3 f0 2a 40 4f 08 41 40 2c 8d 22 40 7b a4 1f 40
       2.670941 3.016132 2.5398664 2.494414
000040 90 d3 41 40 f0 ea 24 40 52 e9 32 40 23 86 19 40
       3.0285378 2.5768394 2.7954907 2.398812
000050 25 ff 22 40 d6 ad 1f 40 e5 ed 32 40 41 18 0e 40
       2.5468228 2.494985 2.79577 2.2202303
000060 bf c2 10 40 b0 71 29 40 be ae 38 40 cc 47 1c 40
       2.2618864 2.647564 2.8856654 2.4418821
000070 f7 2c 29 40 39 a4 23 40 dd 51 1d 40 c7 ad 20 40
       2.6433694 2.5568984 2.4581215 2.5106065
000080 db 6a 47 40 f5 a5 36 40 ec 9e 17 40 1d b7 15 40
       3.115897 2.8538792 2.3690748 2.3393013
000090 cd f7 1e 40 85 a5 29 40 bb f8 2d 40 ac 5a 2c 40
       2.4838746 2.6507275 2.7183063 2.6930342
0000a0 4b ec 25 40 af 06 13 40 d5 20 22 40 cf f0 2f 40
       2.5925472 2.297283 2.533254 2.7490728
0000b0 9a 85 3b 40 26 6a 16 40 04 33 33 40 fa a3 35 40
       2.9300294 2.3502288 2.7999887 2.8381333

model/batch_normalization_2/batchnorm/sub f4 [96]
000000 3a dd 6b 3e 28 ba 16 bd 9b 0c 81 3e ea ce 4c 3e
       0.2303361 -0.036798626 0.2520493 0.20000806
000010 a6 7f 37 be 5e 8d ef 3e a2 4d 52 bd b7 c1 16 3e
       -0.17919788 0.46787542 -0.051343568 0.14722334
000020 1d a4 7c 3e e2 24 b5 bd d0 39 aa 3e a9 fd e4 be
       0.24671979 -0.088449255 0.33247232 -0.44724777
000030 a0 19 84 3e 59 8d cb be f2 06 ca bc e9 75 9d be
       0.258008 -0.39756277 -0.024661515 -0.3075402
000040 97 99 4a 3d 12 ac ac 3e f0 0d 34 3e ae fe 23 be
       0.04946288 0.3372503 0.17583442 -0.16015121
000050 18 1f c9 3d 3c 1e aa 3e 4e 1d 27 3d 2f 74 a9 be
       0.09820384 0.33226192 0.04079943 -0.33096454
000060 20 2e 75 3e ab 7f 94 3e f7 cd 92 3e 06 6f 93 3c
       0.23943377 0.29003653 0.28672764 0.017997276
000070 24 c3 34 be 3a bc a4 3e 10 0c b1 be ba f4 08 3f
       -0.17652565 0.32174855 -0.34579515 0.53498423
000080 52 de e6 be 16 52 d5 3e 96 aa 52 be 04 5d 03 be
       -0.45091492 0.4166419 -0.20572886 -0.12828451
000090 fc 79 86 3e d8 4d db 3e bb a1 4b be 30 12 4c bc
       0.26264942 0.42832828 -0.19885914 -0.012455508
0000a0 68 e9 88 3e d6 37 0a be 66 99 9c be cd c5 15 3e
       0.26740575 -0.13497862 -0.30585784 0.14626236
0000b0 91 7f e5 3e 5d cd 37 3d 2e fe 3e be 9a c8 ee 3d
       0.44823888 0.044873584 -0.1865165 0.116593555
0000c0 12 c1 c3 3c f1 03 16 3e 5c 95 91 be 60 fb 13 3b
       0.023895774 0.14649941 -0.28434265 0.002258025
0000d0 1c e1 e4 3d 60 69 0c be a1 b3 9b 3e 9e cb b0 bd
       0.11175749 -0.13712072 0.30410483 -0.08632587
0000e0 1c 0d 35 be 53 75 61 be 33 01 2e 3d 40 9f 1d bb
       -0.17680782 -0.22017412 0.042481612 -0.002405122
0000f0 1c be c6 be dc ce 6b be 8e b9 14 3d 0e 20 04 be
       -0.38816917 -0.2302813 0.03630977 -0.12902853
000100 ca 3a d6 3e f8 cc 52 3c 9f 80 39 be 4c 82 8d 3e
       0.41841727 0.012866251 -0.18115471 0.2763847
000110 f4 8c a4 3e 06 e1 de 3d 44 5f 83 3e a8 cc 32 be
       0.3213879 0.108827636 0.2565862 -0.17460883
000120 f6 86 04 bf 20 56 60 3e 19 a6 28 be 86 23 17 3e
       -0.51768434 0.21907854 -0.16469611 0.14759645
000130 07 ab 13 be 79 64 12 bd 73 1e 01 3e d9 80 b8 bd
       -0.1442071 -0.03574035 0.12609272 -0.09008951
000140 25 86 a5 3c 8b c6 00 be ee 95 21 3e e3 3d eb 3d
       0.020205567 -0.12575738 0.1577985 0.11486413
000150 19 65 ea be 6a 05 88 3d d3 d4 82 3e 25 97 e4 be
       -0.45780256 0.06641658 0.25552997 -0.44646564
000160 ec a0 c4 3e cf 19 be be db 69 78 3e f7 c2 b2 3d
       0.38404024 -0.37129065 0.2425913 0.08728593
000170 d2 49 fa 3d 69 7c 58 3d d7 9b bd 3e b6 08 82 bd
       0.12221111 0.05285302 0.3703296 -0.06349318

model/batch_normalization_2/batchnorm/mul f4 [96]
000000 c6 55 0b 40 06 ff d9 40 bf 4c 27 40 10 05 b3 40
       2.1771102 6.812381 2.6140592 5.594368
000010 4e 43 5e 40 85 8b 44 40 4f 56 6a 40 4a 5a 34 40
       3.472858 3.0710156 3.6615179 2.8180108
000020 cb ad 07 40 0d a8 81 40 a7 90 13 40 86 0a 1e 40
       2.1199825 4.051764 2.3057039 2.4693923
000030 32 5a 77 40 2a 3c 48 40 8b 86 2d 40 11 82 a2 40
       3.86488 3.1286721 2.7113369 5.0783772
000040 2f ce 62 40 ec 2c 42 40 81 83 be 40 57 bd 6b 40
       3.5438344 3.0339918 5.9535527 3.6834314
000050 d4 92 1e 40 67 f7 6c 40 27 78 51 40 21 cb 19 40
       2.4777117 3.7026002 3.2729585 2.403023
000060 e7 22 b1 40 bc 22 42 40 1f c8 20 40 cd 4d b6 40
       5.5355105 3.03337 2.5122144 5.696997
000070 77 eb 54 40 89 c7 68 40 e1 b3 2b 40 26 ec a0 40
       3.3268716 3.6371787 2.682854 5.0288267
000080 11 ae 3c 40 90 9b ae 40 eb bd 7b 40 b0 4b 69 40
       2.9481242 5.4564896 3.9334667 3.6452446
000090 aa 27 88 40 77 21 b6 40 f8 51 c7 40 d4 06 cc 40
       4.254842 5.691585 6.228756 6.3758335
0000a0 6a 49 3c 40 e7 de 87 40 45 04 84 40 67 f9 9c 40
       2.9419808 4.2459598 4.125521 4.9054446
0000b0 d7 58 8c 40 b8 1f 8a 40 8d 4e 25 40 33 ec 3a 40
       4.3858447 4.316372 2.5829194 2.9206665
0000c0 9d 2c 6d 40 14 e5 24 40 9d f8 55 40 52 82 4c 40
       3.705848 2.5764818 3.3432992 3.1954541
0000d0 ff 00 2b 40 00 d6 b4 40 13 bb 20 40 01 ef 6f 40
       2.6719358 5.651123 2.511418 3.7489626
0000e0 99 51 79 40 a0 15 5c 40 0d c4 6b 40 31 ce 3e 40
       3.8956053 3.43882 3.683841 2.981335
0000f0 01 b0 76 40 d5 61 84 40 71 28 8f 40 25 9b 60 40
       3.8544924 4.1369424 4.4736867 3.5094693
000100 a1 57 4e 40 b7 eb 8e 40 a6 cf 8a 40 e0 43 58 40
       3.2240984 4.466274 4.3378477 3.3791428
000110 8e 4d d5 40 7b a3 7a 40 8f 3f 1d 40 7d f0 3f 40
       6.665717 3.916228 2.4570043 2.9990532
000120 12 03 a2 40 b2 57 55 40 81 0e 65 40 ff e7 69 40
       5.062875 3.3334775 3.5790102 3.654785
000130 a8 c9 5b 40 f6 5e 5a 40 3f 25 5c 40 7a 17 42 40
       3.4341831 3.412046 3.4397733 3.032683
000140 a1 4d 0e 40 6c 4a 3f 40 78 cd 83 40 d5 bb b4 40
       2.223488 2.9889174 4.1188316 5.6479287
000150 3b 4c 75 40 80 d0 73 40 ea d1 64 40 25 dc 3d 40
       3.8327777 3.8096008 3.5753121 2.9665616
000160 bb 9f b5 40 6b a2 c2 40 97 20 35 40 47 d2 a3 40
       5.6757483 6.0823264 2.8301141 5.1194186
000170 19 c5 34 40 46 81 5a 40 54 f5 7d 40 34 b8 47 40
       2.82453 3.4141402 3.9680986 3.1206179

model/dense/BiasAdd/ReadVariableOp f4 [48]
000000 b8 f0 49 3d f3 72 9a 3d f8 13 ca 3d cf c2 e8 3d
       0.049301833 0.07541456 0.0986709 0.11365282
000010 9c 4b 80 3d ad 8a 0a 3e 8a 18 6f 3b 33 31 d5 3d
       0.06264421 0.13529463 0.0036483132 0.10409775
000020 78 7a 8c 3d 29 b1 07 3e 7e 39 ab 3d ab 71 9f 3d
       0.068592966 0.13251175 0.08360575 0.07785352
000030 c9 9d 28 3d 1f 1b d2 3d 3d 6d bd 3d 3a 97 15 3e
       0.0411661 0.10259079 0.09249351 0.1460847
000040 05 38 34 3e cb 6b b4 3d e5 ed 01 3e 1e de b6 3d
       0.17599495 0.088096224 0.12688406 0.08929084
000050 a3 04 98 3d b6 ec bb 3d e1 56 da 3d 59 58 2c 3d
       0.074227594 0.091760084 0.10661102 0.042076442
000060 86 e4 20 3e 91 f9 85 3c 8a 90 7d 3d 58 41 84 3d
       0.15712175 0.016354354 0.06190542 0.06457776
000070 d2 65 d5 3d 35 69 a8 3d 8b 02 17 3e 6c f9 b8 3d
       0.10419811 0.08223192 0.14747064 0.090319484
000080 76 d8 b5 3d 13 e6 08 3e f5 44 e3 3d 21 d9 da 3d
       0.08879177 0.13369016 0.11097137 0.10685945
000090 64 78 82 3c 5d 64 91 3d a3 a8 33 3d 8b ca 7e 3e
       0.015926547 0.07099221 0.043861996 0.24881952
0000a0 6c 9e 8a 3d ae 9e 44 3d c2 27 b8 3d e0 fc 62 3d
       0.06768498 0.04800289 0.08991958 0.05541694
0000b0 80 12 be 3d 37 88 12 3e de 01 02 3c 70 bd 7a 3d
       0.09280872 0.14309774 0.0079350155 0.061215818

model/dense_1/BiasAdd/ReadVariableOp f4 [26]
000000 71 38 48 3d 22 26 2b 3e cc b2 95 3c d1 b4 bf bd
       0.04888195 0.16713765 0.018273734 -0.0936066
000010 23 78 ca 3c 43 2d 84 3d 7d b4 36 3c 99 2e 1c 3e
       0.024715489 0.064539455 0.01115143 0.1525215
000020 4a 45 27 3d c8 59 a1 3d 46 31 3a 3d df be 17 bd
       0.040837564 0.078784525 0.045457147 -0.037047263
000030 d5 1e c7 bd 8e 24 15 bd d9 0b 1c 3e e7 d3 2e bd
       -0.097226776 -0.036411814 0.15238895 -0.042682555
000040 f3 85 6d 3d 50 9c a6 be 0f 31 a8 be 84 8c b1 be
       0.057989072 -0.32541132 -0.3284993 -0.34677517
000050 e2 39 b7 be 1b ec b2 be bd 11 aa be 74 9f ae be
       -0.3578635 -0.3494576 -0.33216658 -0.34106028
000060 1d 55 b9 be f8 2d b1 be
       -0.3619775 -0.34605384
