app/src/main/assets/models/time.tflite (tflite, 673196 bytes, 52 tensors)

model_4/batch_normalization_16/batchnorm/add_1;model_4/conv1d_8/Conv1D/Squeeze;model_4/batch_normalization_16/batchnorm/mul_1;model_4/conv1d_8/BiasAdd;model_4/conv1d_8/BiasAdd/ReadVariableOp;model_4/batch_normalization_16/batchnorm/mul;model_4/batch_normalization_16/batchnorm/sub;model_4/conv1d_8/Conv1D;model_4/conv1d_9/Conv1D f4 [96]
0	0x3e392c40	0.18083286
1	0xbef311f3	-0.47474632
2	0x3c8bda8a	0.017071981
3	0xbf14c35b	-0.5811059
4	0xbc3cbb34	-0.011519242
5	0xbe63e2fe	-0.2225456
6	0xbe9930d6	-0.2992007
7	0x3e167b10	0.14695382
8	0x3e775a14	0.24155456
9	0xbee6cb27	-0.45076868
10	0xbc6fd71d	-0.014638689
11	0xbf27e34a	-0.6558119
12	0xbf8ca776	-1.0988605
13	0xbf05de56	-0.5229238
14	0x3f87a609	1.0597545
15	0xbec9f16f	-0.39442012
16	0x3ee4fc98	0.44723964
17	0x3e1713c5	0.14753635
18	0xbf2517df	-0.6448955
19	0x3f0ac628	0.5420861
20	0x3ed151e2	0.40882784
21	0xbeb02752	-0.34405
22	0x3f21e5ae	0.6324109
23	0xbf6f9f5d	-0.93602544
24	0xbf892b82	-1.0716403
25	0x3ee09639	0.4386461
26	0xbf397326	-0.7244133
27	0xbebcc72e	-0.36870712
28	0xbe8408c9	-0.25787953
29	0xbeb5371d	-0.3539361
30	0xbe802d2b	-0.2503446
31	0xbdcf623d	-0.10126159
32	0x3d1e3660	0.038626075
33	0xbea1ae45	-0.3157827
34	0xbd872618	-0.06599063
35	0x3b39bfb0	0.0028343014
36	0xbeb9ef16	-0.3631522
37	0xbe46741e	-0.19380233
38	0xbe9d1ea8	-0.3068745
39	0xbf285381	-0.65752417
40	0xbd6de08b	-0.05807547
41	0x3ed0430a	0.40676147
42	0x3e907ff9	0.28222635
43	0xbf06a7f9	-0.52600056
44	0x3e981d15	0.29709688
45	0x3e95844c	0.29202497
46	0xbeaa89b4	-0.33308184
47	0xbf0b3764	-0.54381394
48	0xbed13211	-0.4085851
49	0xbf40a120	-0.7524586
50	0xbf1ffad1	-0.6249209
51	0xbf2e0d68	-0.67989206
52	0xbeff1538	-0.49820876
53	0xbf44d11c	-0.76881576
54	0xbf588700	-0.84580994
55	0xbe34b494	-0.1764701
56	0xbdc4db86	-0.09612183
57	0xbe88ed86	-0.26743716
58	0xbf143979	-0.57900196
59	0xbf657027	-0.89624256
60	0xbf2be23a	-0.6714207
61	0xbf1d2765	-0.61388236
62	0xbd658273	-0.05603261
63	0xbed25a76	-0.4108464
64	0xbe034150	-0.12817883
65	0xbf3f9e93	-0.7485134
66	0xbd8ce45f	-0.06879496
67	0xbf0c77cc	-0.54870296
68	0x3f0bf20c	0.5466621
69	0xbf1887b2	-0.59582055
70	0xbf483553	-0.78206366
71	0xbf33f226	-0.70291364
72	0xbf6ac4e6	-0.91706693
73	0x3eeace59	0.45860556
74	0xbe1bb6fa	-0.15206519
75	0x3e6ee5bc	0.23329824
76	0x3d8f326c	0.06992039
77	0xbed1d1cd	-0.40980378
78	0xbef5abdb	-0.47982678
79	0xbea3b2ac	-0.31972253
80	0xbf1627e4	-0.5865462
81	0xbf051b23	-0.5199453
82	0x3e9a89fc	0.301834
83	0xbec16425	-0.37771717
84	0x3ef2892d	0.47370282
85	0xbf4b2bd1	-0.79363734
86	0x3f33f8aa	0.70301306
87	0xbf14d439	-0.58136326
88	0xbf15e95b	-0.585592
89	0xbf47fe89	-0.78122765
90	0x3ea851d8	0.32874942
91	0xbe947b30	-0.29000235
92	0x3c9c26de	0.019061502
93	0xbe93d568	-0.28873754
94	0xbf10a8f5	-0.5650781
95	0xbf2262d3	-0.63432044

model_4/batch_normalization_17/batchnorm/add_1;model_4/conv1d_9/Conv1D/Squeeze;model_4/batch_normalization_17/batchnorm/mul_1;model_4/conv1d_9/BiasAdd;model_4/conv1d_9/BiasAdd/ReadVariableOp;model_4/batch_normalization_17/batchnorm/mul;model_4/batch_normalization_17/batchnorm/sub;model_4/conv1d_9/Conv1D f4 [96]
0	0x3ed27a8a	0.41109115
1	0x3d52657f	0.051366325
2	0xbe9b5c27	-0.30343744
3	0x3f63cf4a	0.88988173
4	0x3cfb9dde	0.030714925
5	0xbeb3b83a	-0.3510149
6	0xbea9fcb9	-0.33200625
7	0x3d9ef405	0.07761387
8	0x3f68bcfc	0.9091337
9	0x3e9c3e52	0.30516297
10	0x3e64a2fe	0.22327802
11	0x3e19148f	0.14949249
12	0xbf5c13a3	-0.85967463
13	0xbeab2d99	-0.33433226
14	0x3fb3f6b5	1.4059664
15	0xbd4b0bc0	-0.049571753
16	0xbebe8f2f	-0.37218615
17	0xbf8291da	-1.020076
18	0x3ea62206	0.32447833
19	0xbe531961	-0.2061515
20	0xbe49ff97	-0.19726406
21	0xbf0ec854	-0.55774426
22	0xbe8bf49b	-0.27335057
23	0x3f05f200	0.5232239
24	0xbe25dbf7	-0.16197191
25	0xbe99404b	-0.29931864
26	0xbecdce91	-0.4019666
27	0xbe874b32	-0.26424557
28	0xbd937853	-0.072006844
29	0xbf88ad2e	-1.067785
30	0xbf25b1b7	-0.64724296
31	0xbebc45c4	-0.36771977
32	0x3f351d82	0.7074815
33	0xbe9f4dbb	-0.3111399
34	0xbe7ab456	-0.24482855
35	0xbe29311b	-0.16522638
36	0xbcf1e26c	-0.029526912
37	0xbed9d0c9	-0.42542103
38	0x3e371fe4	0.17883259
39	0x3ec37a87	0.38179418
40	0xbe2c93d7	-0.16853271
41	0xbf424bd1	-0.75896937
42	0xbe9f0019	-0.31054762
43	0xbe53f9c6	-0.2070075
44	0xbefa7af9	-0.48921946
45	0x3f140ac2	0.57828915
46	0xbe0fc6e9	-0.14040722
47	0x3f7470b1	0.95484453
48	0x3e260d4e	0.16216013
49	0xbe554189	-0.20825781
50	0xbea78e8b	-0.3272594
51	0xbe74da0a	-0.239113
52	0x3f9f3b87	1.2440041
53	0xbf21b215	-0.63162357
54	0xbeb8adce	-0.36070102
55	0xbde416fb	-0.11137196
56	0xbe0d3eb6	-0.13793454
57	0xbe746978	-0.23868358
58	0xbec2c910	-0.38044024
59	0x3f7e460a	0.9932562
60	0x3f71a835	0.9439729
61	0x3d8e25a0	0.0694077
62	0x3ee53441	0.4476643
63	0x3fba56ca	1.4557736
64	0xbf290b14	-0.6603253
65	0xbcfe4a74	-0.031041361
66	0x3e84dcba	0.2594965
67	0xbd7cb8fe	-0.06169986
68	0x3eed006f	0.46289393
69	0x3e8ad0e1	0.27112487
70	0x3fc4b01c	1.5366244
71	0x3f5d82c2	0.86527646
72	0x3e623291	0.22089602
73	0x3dc29894	0.09501758
74	0x3fad6c7e	1.3548734
75	0xbeefdf26	-0.46849936
76	0x3f5d48b8	0.86439085
77	0x3f816b2e	1.0110834
78	0xbed4c630	-0.41557455
79	0xbe5d71ac	-0.21625394
80	0x3f3c07b8	0.7344928
81	0x3d387c4e	0.04504042
82	0xbd80a0cb	-0.06280669
83	0x3df6afc0	0.120452404
84	0xbd0e6f6b	-0.034774225
85	0x3f6e20d2	0.9301883
86	0xbe1b15c8	-0.15145028
87	0xbee6e2e2	-0.45094973
88	0xbf1e3b42	-0.6180917
89	0xbf3c82d1	-0.7363711
90	0xbf02f9a3	-0.51162165
91	0xbeaa6f77	-0.33288166
92	0xbd516b37	-0.05112764
93	0x3e3f4b55	0.1868108
94	0x3f35be09	0.70993096
95	0xbf2fef1b	-0.6872422

model_4/batch_normalization_16/batchnorm/mul_1;model_4/conv1d_8/Conv1D/Squeeze;model_4/conv1d_8/BiasAdd;model_4/conv1d_8/BiasAdd/ReadVariableOp;model_4/batch_normalization_16/batchnorm/mul;model_4/conv1d_8/Conv1D;model_4/conv1d_9/Conv1D f4 [96, 1, 3, 126]
0	0xbb3bace9	-0.0028636998
1	0x3ad23a8e	0.0016039179
2	0xb92c0ae4	-0.00016407255
3	0xbc83ef09	-0.016105192
4	0x3c23f3d7	0.010006866
5	0x39dfd846	0.0004269501
6	0xbcd9be63	-0.026580041
7	0x3cbaef06	0.022819053
8	0x3b749e9d	0.0037325986
9	0xbcd7bd20	-0.026335299
10	0x3d3bf5e8	0.04588881
11	0x3c07f51f	0.0082981875
12	0xbc4a0c79	-0.012332075
13	0x3d898eb8	0.067166746
14	0x3c274bc9	0.01021094
15	0xbc9fe022	-0.019516055
16	0x3da941bc	0.08264491
17	0xbb084675	-0.0020793949
18	0xbc972637	-0.01845084
19	0x3d337a4f	0.043817814
20	0x3c956abe	0.018239375
21	0xbcaac0ef	-0.020843951
22	0xbcd7bea3	-0.02633602
23	0x3cfb5582	0.030680422
24	0xbcd4e5fa	-0.025988568
25	0xbd99c2b9	-0.075078435
26	0x3d10144b	0.035175603
27	0xbc481ab8	-0.0122134015
28	0x3d3b009c	0.045654878
29	0x3a08804c	0.0005207106
30	0xbcd16c9b	-0.025564482
31	0xbc38b041	-0.011272491
32	0x3c49b997	0.0123123145
33	0xbcc322ae	-0.023820248
34	0xbcd89676	-0.026438933
35	0x3c431b67	0.011908389
36	0xbcbd438d	-0.0231035
37	0xbbd206a3	-0.0064094826
38	0x3c27c7e9	0.010240533
39	0x3bcaebd7	0.006192665
40	0x3d8b6aff	0.06807517
41	0x3bc4390b	0.0059882454
42	0x3b1dc039	0.0024070872
43	0x3c4ce8b8	0.012506656
44	0x3c8e3b78	0.017362341
45	0x3aab576c	0.0013072318
46	0xba931cbf	-0.0011223777
47	0x3c5ff7d5	0.013669928
48	0xba1a4723	-0.0005885234
49	0x3ca10872	0.019657347
50	0x3c2d935e	0.010594217
51	0x3c311454	0.010808069
52	0x3d755f6a	0.059905447
53	0x3c98647c	0.018602602
54	0xbafea6ab	-0.0019428333
55	0x3bca48e2	0.006173239
56	0x3cd5fd06	0.026121628
57	0xbbf0dfe4	-0.0073509086
58	0xbc3b3885	-0.0114270495
59	0x3cbc7acf	0.023007778
60	0xbc2bcde7	-0.010486103
61	0x3b81795a	0.003951234
62	0x3c9f557a	0.019449938
63	0x3b453e1f	0.0030096842
64	0xbb51728f	-0.0031959151
65	0x3b6b4228	0.0035897586
66	0x3c7edfb9	0.015556269
67	0xbba4b431	-0.0050263633
68	0xbc0bf14f	-0.008541419
69	0x3cc9d4e8	0.024637654
70	0xbc1829f6	-0.009287348
71	0xbbb377b4	-0.005476916
72	0x3ce8098f	0.02832487
73	0xbbfcff5e	-0.007720872
74	0xbb81241b	-0.0039410717
75	0x3cfac87f	0.030613182
76	0xbb9240ef	-0.004463307
77	0xbb103510	-0.0022004284
78	0x3ce298e3	0.027660793
79	0xbcb19ad3	-0.021680271
80	0x3b1ee549	0.0024245551
81	0x3d0a22df	0.033724662
82	0xbc3dc202	-0.0115819
83	0x3b43de63	0.0029887191
84	0x3d16ea78	0.0368447
85	0xbc806492	-0.015672956
86	0x3b3a060c	0.0028384952
87	0x3d273fff	0.040832516
88	0xbca10d59	-0.019659685
89	0x3b47d61e	0.0030492614
90	0x3cd72384	0.026262052
91	0xbcce55c6	-0.025187384
92	0x3aabc1ea	0.0013104056
93	0x3d06c8a8	0.032906204
94	0xbc73f532	-0.014890002
95	0x3b12d45b	0.0022404406
96	0x3d1ac80d	0.03778844
97	0xbc9505cf	-0.018191246
98	0x3afe9dd0	0.0019425694
99	0x3d281699	0.041037176
100	0xbcc21244	-0.02369035
101	0x3ae0cec3	0.0017151464
102	0x3cd86e1a	0.026419688
103	0xbce8a8ec	-0.02840086
104	0x3b550c7f	0.003250867
105	0x3d09062f	0.033453163
106	0xbcd10115	-0.025513211
107	0x3b9306f6	0.004486914
108	0x3d13e5af	0.036107715
109	0xbd048081	-0.032349113
110	0x3b6793ad	0.0035335824
111	0x3d16e437	0.036838736
112	0xbd20a501	-0.03921986
113	0x3b2d1945	0.0026412767
114	0x3cb6f3f1	0.022333117
115	0xbcbd4420	-0.023103774
116	0xba623157	-0.0008628568
117	0x3cdc009a	0.026855756
118	0xbcbb3783	-0.022853618
119	0x3ac4b9c8	0.001500898
120	0x3ce44c27	0.027868344
121	0xbcc90c80	-0.024542093
122	0x3b349a21	0.0027557688
123	0x3ce9dc72	0.0285475
124	0xbcd89f4a	-0.026443142
125	0x3b8d14d5	0.004305462
126	0xbb717b2d	-0.00368471
127	0x3a91942f	0.0011106784
128	0x383396f2	4.2817504e-05
129	0xbc7e4008	-0.015518196
130	0x3c1227a3	0.008920583
131	0x3a1134d5	0.00055391836
132	0xbcd05b9a	-0.025434304
133	0x3ca4605a	0.020065475
134	0x3b882ae7	0.004155505
135	0xbcc8a2e7	-0.02449174
136	0x3d2c79e7	0.042108443
137	0x3c0561f4	0.00814103
138	0xbc1d3eea	-0.009597519
139	0x3d805f4f	0.06268179
140	0x3c1e183b	0.009649332
141	0xbca3de29	-0.020003395
142	0x3da0f3df	0.07859015
143	0xbb0a21e9	-0.002107734
144	0xbc9a66ce	-0.01884785
145	0x3d1500d4	0.036377743
146	0x3c923e08	0.017851844
147	0xbcaf3fbc	-0.021392696
148	0xbd0fda37	-0.035120215
149	0x3cf6e057	0.03013627
150	0xbcda7778	-0.026668295
151	0xbdac72c4	-0.08420327
152	0x3d0cbc6b	0.034359377
153	0xbc4c2976	-0.012461057
154	0x3d29a5f0	0.041418016
155	0x39885542	0.00026003463
156	0xbccc8402	-0.02496529
157	0xbc903292	-0.017602239
158	0x3c3e562a	0.011617223
159	0xbcb6ccfb	-0.02231454
160	0xbd0244be	-0.03180384
161	0x3c368ae1	0.01114151
162	0xbcb1589c	-0.021648698
163	0xbc26f010	-0.010189071
164	0x3c1886bd	0.009309468
165	0x3be85538	0.007090237
166	0x3d83a043	0.06427052
167	0x3baf7b58	0.00535528
168	0x3ba0c7e9	0.0049066436
169	0x3bd2cde3	0.006433235
170	0x3c86b21a	0.016442347
171	0x3b8d74ef	0.004316918
172	0xbbc3929d	-0.0059684054
173	0x3c52281b	0.012826945
174	0x3b257c4c	0.0025251089
175	0x3c849445	0.016183982
176	0x3c24eb2f	0.010065838
177	0x3c383661	0.011243434
178	0x3d69e070	0.057098806
179	0x3c960cee	0.018316712
180	0xba4af262	-0.00077418063
181	0x3aa2b5b1	0.0012413767
182	0x3cd13243	0.025536662
183	0xbbb8b03e	-0.005636244
184	0xbc7f4c1b	-0.01558211
185	0x3cb9cad0	0.022679716
186	0xbc0d698d	-0.008631122
187	0x3a92c626	0.0011197969
188	0x3c9f6dc8	0.019461527
189	0x3b05dca4	0.0020425702
190	0xbb56d8a5	-0.0032782939
191	0x3b593ff4	0.0033149691
192	0x3c82fe5c	0.015990429
193	0xbbb86314	-0.0056270454
194	0xbc0964ed	-0.008385879
195	0x3ccead7c	0.025229208
196	0xbc2f0687	-0.010682709
197	0xbba197fc	-0.004931448
198	0x3ceca20c	0.028885864
199	0xbc196f15	-0.009364863
200	0xbb51a38b	-0.0031988348
201	0x3d004930	0.031319797
202	0xbbd58fc0	-0.0065173805
203	0xba8f9b16	-0.0010956253
204	0x3ce7cf2f	0.028297035
205	0xbcca966a	-0.024729926
206	0x3b4cd4d0	0.0031254776
207	0x3d0f4494	0.03497751
208	0xbc774574	-0.0150922425
209	0x3b7eb5c6	0.003886567
210	0x3d1e1ebe	0.038603537
211	0xbca4094d	-0.020023966
212	0x3b73180b	0.0037093188
213	0x3d30323e	0.043016665
214	0xbccd73a8	-0.025079563
215	0x3b790675	0.0037998233
216	0x3ce1176b	0.027476987
217	0xbce44ca7	-0.027868582
218	0x3aed6a09	0.0018113266
219	0x3d0e4e04	0.03474237
220	0xbc942272	-0.018082831
221	0x3b32a7b2	0.0027260599
222	0x3d248103	0.040162098
223	0xbcb77053	-0.022392428
224	0x3b21dcd7	0.0024698281
225	0x3d3310c7	0.043717172
226	0xbcef26f9	-0.029193388
227	0x3b08ae4e	0.0020855847
228	0x3ce1d314	0.02756647
229	0xbd00344d	-0.031299878
230	0x3b6582a9	0.0035020506
231	0x3d100b24	0.035166875
232	0xbcedec23	-0.029043263
233	0x3ba55b04	0.0050462503
234	0x3d1c2f0e	0.038130812
235	0xbd15cb18	-0.03657064
236	0x3b70e721	0.0036758857
237	0x3d1f8378	0.038943738
238	0xbd351e9f	-0.044218656
239	0x3b2c4a8c	0.002628955
240	0x3cc1dfac	0.023666225
241	0xbccf3280	-0.025292635
242	0xba45fce8	-0.00075526396
243	0x3cec1379	0.028817879
244	0xbcd0bdff	-0.025481222
245	0x3ade129f	0.0016942805
246	0x3cf57a23	0.029965466
247	0xbce3efc9	-0.0278243
248	0x3b41a254	0.0029546218
249	0x3cf954a8	0.030435875
250	0xbcf8afd1	-0.030357273
251	0x3b8db168	0.004324127
252	0xbb672a18	-0.0035272893
253	0x3a68ec17	0.0008885278
254	0x3a033a3c	0.0005005931
255	0xbc6c2b37	-0.0144146

model_4/batch_normalization_17/batchnorm/mul_1;model_4/conv1d_9/Conv1D/Squeeze;model_4/conv1d_9/BiasAdd;model_4/conv1d_9/BiasAdd/ReadVariableOp;model_4/batch_normalization_17/batchnorm/mul;model_4/conv1d_9/Conv1D f4 [96, 1, 3, 96]
0	0xbbea013e	-0.0071412614
1	0xbc8c12de	-0.01709884
2	0xbd0fdc3d	-0.035122145
3	0x3b6128d1	0.0034356604
4	0x3c2540b1	0.010086224
5	0x3cb68956	0.022282284
6	0xbcee7bf5	-0.029111842
7	0xbcb78027	-0.022399975
8	0x3d90bf78	0.0706777
9	0xbcdc423f	-0.026887057
10	0x3d8d78ba	0.069077924
11	0x3c34d465	0.011036967
12	0x3c47dbcd	0.012198401
13	0xbcb7230e	-0.022355583
14	0x3bf161f6	0.007366414
15	0x3ba0cd1e	0.0049072644
16	0x3ca9465c	0.020663433
17	0xbb801e2a	-0.003909846
18	0xbd254d24	-0.04035677
19	0x3d29fc8d	0.041500617
20	0x3ce82a4c	0.028340481
21	0xbc39f5dc	-0.011350121
22	0x3c7c685e	0.015405742
23	0xba9da36f	-0.0012026856
24	0xbc8bd825	-0.01707084
25	0x3d77d25f	0.06050336
26	0x3bb8c870	0.0056391284
27	0xbcab1558	-0.0208842
28	0xbc0129e9	-0.007883527
29	0x3c882fd0	0.016624361
30	0xbc17e8e7	-0.009271837
31	0xbc01b03f	-0.0079155555
32	0x3d090bc0	0.03345847
33	0xbc88c1d7	-0.016693993
34	0xbc231be4	-0.00995538
35	0xbcacb7be	-0.021083709
36	0xba3be32c	-0.0007167335
37	0xbd3fa7d9	-0.04679093
38	0x3b92962e	0.004473469
39	0xbd1d9ac4	-0.038477674
40	0xbcc0f206	-0.023552906
41	0xbd48eb6e	-0.04905265
42	0xbaec9f8c	-0.001805292
43	0xbcf876f7	-0.030330164
44	0x3dbbd3e6	0.09171276
45	0x3cb534a9	0.022119837
46	0x3ca4ebc2	0.02013195
47	0xbc880dbd	-0.016608113
48	0xbbad03e4	-0.005280005
49	0xbcb4c3fd	-0.02206611
50	0x3c8b3c9a	0.01699667
51	0xbd38a759	-0.04508147
52	0x3ad2160d	0.00160283
53	0xbd2ac133	-0.041688155
54	0xbc10812d	-0.00881986
55	0x3b3f780f	0.0029215848
56	0xbc881d37	-0.016615493
57	0xbd4765b5	-0.04868098
58	0x3c37d99b	0.011221315
59	0xbbbdfea5	-0.0057981783
60	0xbc9ab44d	-0.018884802
61	0xbd08527f	-0.0332818
62	0xbc6990a5	-0.014255677
63	0xbbe0e89d	-0.006863667
64	0x3cd4a881	0.025959255
65	0xbce82e8f	-0.028342513
66	0x3c7045ea	0.014665106
67	0xbc65894d	-0.014009786
68	0x3cddddfe	0.027083393
69	0xbc5da864	-0.013528917
70	0x3caace61	0.020850362
71	0xbc2df076	-0.010616412
72	0xbcd7b0e9	-0.026329475
73	0x3cea449f	0.028597174
74	0xbc8a15cb	-0.016856095
75	0x3c998f94	0.018745221
76	0xbc2403e9	-0.010010698
77	0xbc9653cd	-0.018350506
78	0xbd191107	-0.037369754
79	0xbbc800cb	-0.00610361
80	0xbc4714f0	-0.012150988
81	0xbbfbe453	-0.0076871305
82	0x3d41dd92	0.047330447
83	0x3b80a7b2	0.003926241
84	0x3c4fed49	0.0126908505
85	0x3d0b3f45	0.033995885
86	0x3d540165	0.051759142
87	0xbcf1619d	-0.029465491
88	0xbd2da656	-0.04239496
89	0x3adef95c	0.0017011571
90	0x3c4d9cda	0.012549603
91	0xbd0c37e3	-0.034232985
92	0xbc4396c3	-0.0119378
93	0xbd3b9450	-0.04579574
94	0xbd00980a	-0.031394996
95	0x3cae1d92	0.021254335
96	0xbbf47e32	-0.0074613327
97	0xbc8e52ae	-0.01737341
98	0xbd1226be	-0.03568148
99	0x3b1747e4	0.0023083622
100	0x3c2cdfbf	0.010551392
101	0x3cae8e97	0.021308227
102	0xbcf3dd9f	-0.029768763
103	0xbcaacd36	-0.020849805
104	0x3d9657f4	0.073409945
105	0xbcd574e5	-0.026056716
106	0x3d932c96	0.071862385
107	0x3c46496e	0.012102468
108	0x3c27a93f	0.0102332225
109	0xbcbf3f0f	-0.023345498
110	0x3befdf7b	0.007320342
111	0x3b8f0faf	0.0043658833
112	0x3cab5dc4	0.020918734
113	0xbb9df9fc	-0.00482106
114	0xbd29459e	-0.041326158
115	0x3d332d39	0.0437443
116	0x3cef7c97	0.029234214
117	0xbc47f455	-0.012204249
118	0x3c8781a3	0.016541308
119	0xbb150b3d	-0.0022742294
120	0xbc81f329	-0.015863018
121	0x3d814302	0.06311609
122	0x3b871eb6	0.004123534
123	0xbca3d345	-0.019998202
124	0xbbf1e428	-0.0073819347
125	0x3c868803	0.016422277
126	0xbc1f3861	-0.009718032
127	0xbc0c1738	-0.008550458
128	0x3d09f5ea	0.033681788
129	0xbc868e14	-0.01642517
130	0xbc2431c0	-0.010021627
131	0xbcaec734	-0.021335222
132	0xbb1fc7d9	-0.0024380593
133	0xbd43b5a6	-0.047780655
134	0x3b9fc9f8	0.0048763715
135	0xbd26e4c0	-0.040745497
136	0xbcb6faa8	-0.02233632
137	0xbd4b812d	-0.04968374
138	0x397cddb1	0.00024115179
139	0xbcf9535d	-0.030435259
140	0x3dc3b756	0.09556453
141	0x3cbac897	0.022800727
142	0x3ca613fd	0.020273203
143	0xbc8de45e	-0.017320808
144	0xbbaf749a	-0.005354476
145	0xbcb01da3	-0.021498507
146	0x3c7c81e0	0.015411824
147	0xbd3884ba	-0.045048453
148	0x3acd5715	0.0015666211
149	0xbd2b3ae0	-0.041804194
150	0xbc1bb320	-0.009503156
151	0x3b8e3951	0.0043403287
152	0xbc799f83	-0.015235784
153	0xbd527b7d	-0.0513873
154	0x3c52304c	0.012828898
155	0xbbaf2dc5	-0.0053460323
156	0xbc999977	-0.018749936
157	0xbd0bd214	-0.034135893
158	0xbc6a4c1f	-0.014300375
159	0xbbf49196	-0.0074636443
160	0x3cd80f3c	0.026374452
161	0xbcf1cb51	-0.029515894
162	0x3c7251c3	0.014790001
163	0xbc6eb680	-0.014569879
164	0x3ce46847	0.027881755
165	0xbc5e2f55	-0.0135610895
166	0x3cba9a4e	0.022778656
167	0xbc3cd6a5	-0.011525785
168	0xbcd5a03d	-0.026077384
169	0x3ce751d7	0.028237266
170	0xbc849559	-0.016184496
171	0x3c9d1a1b	0.019177487
172	0xbc067248	-0.008205958
173	0xbc9d5e90	-0.01921013
174	0xbd1bdc19	-0.0380517
175	0xbbdf45fb	-0.0068137622
176	0xbc408189	-0.011749634
177	0xbbfb09db	-0.007661087
178	0x3d499612	0.049215384
179	0x3b64b7c9	0.0034899584
180	0x3c5fd920	0.0136626065
181	0x3d0dd481	0.034626488
182	0x3d5a49e8	0.05329314
183	0xbcfbcd34	-0.030737497
184	0xbd33442e	-0.043766193
185	0x3a086161	0.0005202499
186	0x3c51d9cf	0.012808277
187	0xbd0f239d	-0.034946073
188	0xbc4fcbe3	-0.012682888
189	0xbd37bedd	-0.044859756
190	0xbd01bf2c	-0.031676456
191	0x3cbe763b	0.023249736
192	0xbbf8c530	-0.007591866
193	0xbc89c398	-0.0168169
194	0xbd0c07f9	-0.03418729
195	0x3b1d12df	0.0023967547
196	0x3c277b9e	0.010222344
197	0x3caf42f9	0.02139424
198	0xbce218c9	-0.02759971
199	0xbc97ecf8	-0.018545613
200	0x3d927dfa	0.07152934
201	0xbcdadf3e	-0.026717778
202	0x3d8ea6fd	0.06965444
203	0x3c37af82	0.011211278
204	0x3c1b4d16	0.009478828
205	0xbcb90f30	-0.02259025
206	0x3bdc82f3	0.0067294776
207	0x3b94ec6a	0.0045447843
208	0x3cb2c647	0.021823062
209	0xbb99524e	-0.004679001
210	0xbd23e6ad	-0.04001491
211	0x3d2f1723	0.042746674
212	0x3ced3109	0.028954046
213	0xbc3243cf	-0.010880425
214	0x3c8024c9	0.01564254
215	0xbb049f85	-0.0020236683
216	0xbc896605	-0.01677228
217	0x3d7d2413	0.06180198
218	0x3bb458f8	0.00550377
219	0xbca4fd3c	-0.020140283
220	0xbbe72e9c	-0.007055117
221	0x3c8c5922	0.017132346
222	0xbc21e6fe	-0.009881733
223	0xbc0bb585	-0.008527164
224	0x3d0696b7	0.032858577
225	0xbc843528	-0.016138628
226	0xbc07cd4a	-0.008288691
227	0xbcadbade	-0.02120727
228	0xba88e96f	-0.0010445545
229	0xbd41563a	-0.047201373
230	0x3b9c7f01	0.0047758822
231	0xbd225fd3	-0.039642166
232	0xbcb90a0e	-0.022587802
233	0xbd460aca	-0.048350133
234	0x3ad442c1	0.0016194211
235	0xbcf07244	-0.029351361
236	0x3dbfd48f	0.09366714
237	0x3cbad6d0	0.022807509
238	0x3cae522e	0.02127942
239	0xbc8f86b6	-0.01752029
240	0xbbae9f59	-0.0053290543
241	0xbcac004d	-0.020996237
242	0x3c90a0e1	0.017654838
243	0xbd356fca	-0.044296063
244	0x3b05ac91	0.0020397047
245	0xbd240fae	-0.040054016
246	0xbc1291c4	-0.008945886
247	0x3b9fd63d	0.004877834
248	0xbc6649a3	-0.014055642
249	0xbd4bcead	-0.04975765
250	0x3c4371e3	0.011929008
251	0xbbc9e4a9	-0.0061612916
252	0xbc9ba953	-0.019001639
253	0xbd086561	-0.033299807
254	0xbc693e6e	-0.014236076
255	0xbbcd0641	-0.006256849

model_4/gru_9/gru_cell/strided_slice_4 f4 [48]
0	0xbd2e048a	-0.042484798
1	0xbdcf9aaf	-0.101369254
2	0xbb5096e3	-0.0031828217
3	0x3d5acc28	0.053417355
4	0x3d2b7854	0.0418628
5	0xbd420040	-0.04736352
6	0xbd1a9193	-0.037736487
7	0x3d817184	0.063204795
8	0x3d8f1fd0	0.0698849
9	0x3de91767	0.11381417
10	0xbcf02e77	-0.029319031
11	0x3d8e9546	0.069620654
12	0xbcb393ec	-0.02192112
13	0xbd80efac	-0.06295714
14	0x3d78d4c7	0.060749795
15	0x3bfcb31c	0.007711781
16	0xbcbb30cc	-0.022850417
17	0x3d7ffdbf	0.06249785
18	0xb9bc50d8	-0.00035918388
19	0xbd76ac6e	-0.060223036
20	0x3cf51458	0.029916927
21	0xbe08fbbe	-0.13377282
22	0xbc8c05cb	-0.017092606
23	0x3b2f8716	0.0026783398
24	0x3d73b639	0.059499953
25	0x3cd10631	0.025515648
26	0xbdbc7b99	-0.09203262
27	0xbdb6942a	-0.08914979
28	0x3c00ab5d	0.007853356
29	0xbcfcfbe9	-0.030881839
30	0xbd9d74d3	-0.07688298
31	0xbdd40d0c	-0.10354051
32	0xbd81a617	-0.06330507
33	0xbc106e50	-0.008815363
34	0x3cb23303	0.02175284
35	0x3d4f9d31	0.05068702
36	0xbe3e6284	-0.18592268
37	0xbda287df	-0.079360716
38	0xbd97e684	-0.07417014
39	0x3c9a536a	0.018838603
40	0xbbae9adf	-0.0053285207
41	0x3d605907	0.054772403
42	0xbd989160	-0.07449603
43	0xbde4bd5b	-0.11168929
44	0x3d865b68	0.06560403
45	0xbe0c4e69	-0.13701786
46	0x3bef262b	0.007298251
47	0xbda7249c	-0.081612796

model_4/gru_9/gru_cell/strided_slice_3 f4 [48]
0	0x3e9995a4	0.2999698
1	0xbc173d28	-0.009230889
2	0x3e9af37a	0.30263883
3	0x3de7d57b	0.11320015
4	0xbd9e06f5	-0.07716171
5	0x3e64bd06	0.22337732
6	0x3dc64316	0.096807644
7	0x3d9ddb28	0.07707816
8	0x3e8babaa	0.27279407
9	0x3e20b35b	0.15693419
10	0x3d3eed24	0.046612874
11	0xbd8eae24	-0.069668084
12	0xbc503459	-0.012707793
13	0x3acc3e4d	0.0015582532
14	0x3e058495	0.13038857
15	0x3e2c1e8e	0.1680853
16	0xbcec336d	-0.028833115
17	0x3d800baa	0.06252225
18	0x3e048baa	0.12943903
19	0x3e5f5604	0.21810156
20	0xbd5c5f0b	-0.053801578
21	0xbe258f4b	-0.16167943
22	0x3e06366c	0.13106698
23	0x3dced9f8	0.10100168
24	0xbdab4f51	-0.08364738
25	0x3ca9d152	0.020729695
26	0x3dca10ac	0.09866461
27	0x3e58efa4	0.21185166
28	0x3e8add61	0.27122024
29	0xbbb8fc30	-0.0056452975
30	0x3e3a1777	0.18173014
31	0x3cf8f6b5	0.030391077
32	0x3de07ce5	0.10961322
33	0x3cebb629	0.028773384
34	0x3e9313ef	0.28726146
35	0xbb238e2a	-0.0024956563
36	0x3c9270bb	0.01787602
37	0x3dd2c1e0	0.10290885
38	0x3db617ae	0.08891235
39	0x3d4e0d49	0.05030564
40	0xbcfe5508	-0.031046405
41	0x3defd38a	0.1171027
42	0x3d84c990	0.064837575
43	0x3e1eee30	0.15520549
44	0x3d12a1d5	0.035798866
45	0xbce80d76	-0.028326731
46	0x3dd2fe48	0.103024065
47	0x3dfba57f	0.12287425

model_4/gru_9/gru_cell/strided_slice_5 f4 [48]
0	0x3cc46119	0.023972081
1	0x3dbf8d1d	0.09353087
2	0xbe07acce	-0.13249514
3	0x3dc2d63c	0.09513518
4	0x3df1e169	0.11810572
5	0x3dc71acb	0.09721907
6	0xbdc9702e	-0.0983585
7	0xbd16c7d1	-0.036811654
8	0x3e4823c7	0.19544898
9	0x3d0ac7e0	0.033882022
10	0x3de3479b	0.11097642
11	0x3d764daf	0.06013268
12	0xbdaf03b5	-0.08545629
13	0x3dc4501e	0.09585594
14	0xbe290a06	-0.1650773
15	0x3e15584e	0.14584467
16	0xbd7ce2e8	-0.061739832
17	0xbc0f5c0e	-0.008749975
18	0x3e07ca52	0.13260773
19	0x3db442da	0.088018134
20	0xbd20480b	-0.039131206
21	0x3ccabd5e	0.0247485
22	0xbddb6be2	-0.107139364
23	0xbc9f8b5f	-0.019475637
24	0xbd8d649e	-0.06903957
25	0x3dbe28f6	0.092851564
26	0x3bf1ecab	0.0073829493
27	0x3d5d5983	0.054040443
28	0x3cc26eb5	0.02373443
29	0x3e195fc8	0.14977944
30	0x3caf76c9	0.021418946
31	0xbd49c715	-0.049262125
32	0xbdee3b60	-0.11632419
33	0x3db68a62	0.08913113
34	0xbb951623	-0.004549758
35	0x3dd776ae	0.10520683
36	0xbdb16541	-0.08661891
37	0x3d2c0dd7	0.042005386
38	0xbcaac041	-0.020843627
39	0xbd9449cf	-0.0724064
40	0xbe1d663d	-0.15371032
41	0xba9b2178	-0.0011835536
42	0x3e0cbc0f	0.13743614
43	0x3cefa0d4	0.029251494
44	0x3c601266	0.0136762615
45	0x3db51502	0.088418975
46	0xbded6ac5	-0.1159263
47	0x3d8f4be2	0.069968954

model_4/gru_9/gru_cell/strided_slice_11 f4 [48]
0	0x3d003c8f	0.031307753
1	0x3d9ff429	0.07810242
2	0xbd531a89	-0.051538978
3	0x3d9f8c3b	0.07790419
4	0x3d833b26	0.06407766
5	0x3df904ed	0.12159143
6	0xbd24de04	-0.040250793
7	0xbd791e20	-0.060819745
8	0x3e1f3fab	0.15551631
9	0x3c9976de	0.018733438
10	0x3d9438e0	0.072374105
11	0x3d701b2e	0.05861967
12	0xbdbc0a49	-0.09181649
13	0x3d773b86	0.0603595
14	0xbd9d8221	-0.07690836
15	0x3de8a516	0.11359613
16	0x3d6699ea	0.056299128
17	0x3cb139c3	0.021633988
18	0x3dab87a7	0.08375483
19	0x3d5892d0	0.052874386
20	0x3cb7c1e5	0.022431323
21	0x3c319f1c	0.010841157
22	0xbdbcea6a	-0.092243984
23	0xbd9bd05b	-0.076081
24	0xbd8e7554	-0.06955972
25	0x3d2e9741	0.042624716
26	0x3d6a7cf8	0.057248086
27	0xbc9ecb61	-0.019384088
28	0xbb8bf34b	-0.004270946
29	0x3e0d8455	0.13820012
30	0x3cf34b3d	0.029698962
31	0x3ce63967	0.028103543
32	0xbde2685e	-0.11055063
33	0x3dc2868e	0.094983205
34	0xbc95066d	-0.01819154
35	0x3d97e81d	0.07417319
36	0xbd95e162	-0.07318379
37	0x3c1347e4	0.008989308
38	0xbc94338c	-0.018090986
39	0xbd9882c9	-0.0744682
40	0xbdc05ef0	-0.09393108
41	0x3d1359c6	0.035974286
42	0x3e12864b	0.14309041
43	0x3c33406f	0.010940655
44	0x3cb5e59b	0.022204211
45	0x3d87dcd5	0.06633917
46	0xbdd024c5	-0.10163263
47	0x3d90707e	0.07052706

model_4/gru_8/gru_cell/strided_slice_4 f4 [96]
0	0xbc39e1da	-0.011345351
1	0x3c9f3920	0.019436419
2	0xbcf2b2c4	-0.029626258
3	0xbdbd334c	-0.092383
4	0xbdee7275	-0.11642925
5	0xbd8b6556	-0.06806438
6	0xbe2d140d	-0.1690218
7	0xbc8713a4	-0.016488858
8	0xbd82b473	-0.06382074
9	0xbd65aa50	-0.056070626
10	0x3b9a878d	0.004715866
11	0x3de8f2a0	0.11374402
12	0xbdb31f57	-0.08746212
13	0x3d3b6939	0.045754645
14	0x3c0c906a	0.008579353
15	0x3dcab33f	0.0989747
16	0xbdbacb05	-0.09120754
17	0xbd6676c2	-0.0562656
18	0x3d8fa046	0.070129916
19	0x3c85e9e2	0.016346876
20	0xbe0a6d91	-0.13518359
21	0xbe108b30	-0.14115596
22	0xbdd38479	-0.103280015
23	0xbd9acb21	-0.07558275
24	0x3c777fc8	0.015106149
25	0xbc358263	-0.01107845
26	0xbcde4dae	-0.02713665
27	0x3ca987c3	0.020694619
28	0xbd062712	-0.032752104
29	0x3c0e63aa	0.008690754
30	0x3a472e1f	0.000759812
31	0xbc33f7f7	-0.010984412
32	0x3bd9203b	0.0066261566
33	0x3c852c8e	0.016256597
34	0xbd6ff6af	-0.058584865
35	0x3b898756	0.0041970415
36	0xbd91a9a9	-0.07112438
37	0x3d977177	0.073946886
38	0x3d811c3b	0.06304213
39	0xbd03c7f6	-0.03217312
40	0xbc5b104c	-0.013370585
41	0xbdd87bb5	-0.1057047
42	0xbc93ece0	-0.018057287
43	0x3c11f7a7	0.008909143
44	0xbbbb054e	-0.0057074195
45	0xbc209389	-0.0098008
46	0xbd45e484	-0.048313633
47	0xbdfe86d8	-0.12428063
48	0x3db51f1d	0.08843825
49	0xbd212f11	-0.039351527
50	0xbd56bdd8	-0.052427143
51	0xbd1592e5	-0.036517043
52	0xbcad2940	-0.021137834
53	0xbc8f7f13	-0.017516648
54	0xbdd53033	-0.10409584
55	0xbdcdc56b	-0.1004742
56	0x3d8b96f9	0.06815905
57	0xbc772c5a	-0.015086258
58	0xbce030da	-0.027367044
59	0xbca6c4ec	-0.020357572
60	0xbd5fdef1	-0.054655973
61	0xbcbbacf5	-0.02290962
62	0xbd193c60	-0.037411094
63	0xbdd55c73	-0.10418024
64	0xbcf626e7	-0.030047847
65	0xbcc767dd	-0.024341518
66	0xbdd672ba	-0.10471101
67	0xbd538499	-0.051640127
68	0xbd8292d5	-0.06375662
69	0x3aad96b1	0.0013243762
70	0xbd1c305f	-0.038132068
71	0xbdc7e5f9	-0.09760661
72	0xbe19d303	-0.15021901
73	0x3bc0a497	0.0058789956
74	0xbda7285d	-0.081619956
75	0xbe106f94	-0.14105064
76	0xbd3b73ef	-0.04576486
77	0xbe12988b	-0.14316003
78	0x3d1a4d9b	0.037671667
79	0xbd836e41	-0.06417514
80	0xbd5a8ad3	-0.05335505
81	0x3c6e2b02	0.014536621
82	0x3d6b7ef1	0.057494108
83	0xbd04e93f	-0.032449003
84	0x3d894757	0.0670306
85	0x3dde104e	0.108429536
86	0xbdb57ab2	-0.08861293
87	0xbd75dd22	-0.06002534
88	0xbd4cf0e6	-0.050034426
89	0xbcf1b21a	-0.02950387
90	0xbdc63dd8	-0.096797645
91	0xbdc5289c	-0.09626886
92	0xbd922c43	-0.071373485
93	0xbc896e61	-0.016776266
94	0xbd2340ca	-0.03985671
95	0xbd21c0d1	-0.039490525

model_4/gru_8/gru_cell/strided_slice_3 f4 [96]
0	0x3e530d88	0.2061063
1	0x3d1fd8d0	0.039025128
2	0x3ca7690d	0.020435834
3	0x3e37f7b9	0.17965592
4	0xbdf343a6	-0.11878137
5	0xbc462a2c	-0.0120950155
6	0xbdc885e5	-0.09791163
7	0x3d1534ba	0.036427237
8	0x3d53d528	0.051716954
9	0x3e00e97c	0.12589067
10	0x3e5bd6ec	0.21468705
11	0x3e6b4443	0.22975259
12	0x3d4a42b9	0.049380038
13	0xbd8b13d1	-0.06790889
14	0x3e6a43d3	0.22877435
15	0x3e97f3b7	0.29678127
16	0x3c37d4ae	0.01122014
17	0x3c86b8c4	0.016445525
18	0x3e96363f	0.2933826
19	0x3dca47ba	0.09876962
20	0xbe5d5857	-0.2161573
21	0x3de17a0c	0.11009607
22	0x3ccb69ac	0.024830662
23	0x3e1c4cb7	0.1526364
24	0x3e6446cc	0.22292632
25	0x3df6b78f	0.1204673
26	0x3da38f5b	0.07986327
27	0x3eab7145	0.33484855
28	0x3e0404f8	0.1289252
29	0x3d4fd4ea	0.05074016
30	0x3cf458ed	0.02982756
31	0x3e178deb	0.14800231
32	0x3ecb7fb7	0.39745876
33	0x3ea78e1b	0.32725605
34	0x3e26443d	0.16236968
35	0x3e76b1cf	0.24091266
36	0x3df133aa	0.11777432
37	0x3e865c52	0.2624231
38	0xbca9da3f	-0.02073395
39	0x3dafd342	0.08585216
40	0x3e21051a	0.15724602
41	0x3dc6b011	0.09701551
42	0x3e6b56d7	0.22982346
43	0x3de9563c	0.11393401
44	0x3dda05aa	0.106456116
45	0x3e2355ba	0.15950671
46	0x3dfeb18d	0.12436209
47	0x3d8e4ad5	0.06947867
48	0x3e9275cc	0.28605497
49	0x3e48d310	0.19611764
50	0x3d22f8bc	0.039787993
51	0x3e71bea6	0.23607883
52	0x3e9e3a97	0.30904076
53	0x3d60eaf6	0.054911576
54	0xbe221b7a	-0.15830794
55	0xbcd9c27c	-0.026581995
56	0x3e2f505f	0.17120503
57	0x3ed4710f	0.41492507
58	0x3e8097ca	0.25115806
59	0xbd45a241	-0.04825044
60	0xbdda15ca	-0.10648687
61	0xbd162172	-0.03665299
62	0xbc05bc7e	-0.008162616
63	0xbcf775f3	-0.03020761
64	0x3e063130	0.13104701
65	0x3e133ac4	0.14377886
66	0x3df2f91c	0.1186392
67	0x3ea10892	0.3145185
68	0x3d8eb259	0.06967611
69	0xbdd236de	-0.10264371
70	0x3db184e7	0.08667927
71	0x3deb7df9	0.11498637
72	0xbcadda75	-0.021222332
73	0xbcd78f18	-0.02631335
74	0x3e36e5e0	0.17861128
75	0x3e30a97b	0.17252152
76	0x3e3a1620	0.18172503
77	0x3e4ec5b2	0.20192602
78	0x3e7fdeb5	0.249873
79	0x3dede0df	0.116151564
80	0x3dd1f0b7	0.10250991
81	0x3e9ee222	0.310319
82	0x3e26415d	0.16235872
83	0x3de21677	0.11039441
84	0x3dbc0e2c	0.091823906
85	0x3e2ba02a	0.16760316
86	0xbd5ba6ab	-0.053625744
87	0x3e0612d6	0.13093123
88	0x3d67a10b	0.056550067
89	0x3e2d1c8f	0.16905425
90	0xbe6e1ce4	-0.23253208
91	0xbd32b03c	-0.0436251
92	0x3d4380c9	0.04773024
93	0x3db305c7	0.08741336
94	0x3e05dfd7	0.1307367
95	0x3d3ba4c4	0.04581143

model_4/gru_8/gru_cell/strided_slice_5 f4 [96]
0	0xbd16644a	-0.036716737
1	0x3bcd3fbf	0.0062637026
2	0xbd4d0329	-0.050051842
3	0xbcccf098	-0.025017068
4	0xbbbfb767	-0.0058507207
5	0xbc0aea14	-0.00847866
6	0xbc7ebe30	-0.015548274
7	0xbb9977c4	-0.0046834666
8	0x3ce2038c	0.027589582
9	0x3c9f0866	0.019413184
10	0x3cd8f947	0.026486052
11	0x3dbb9399	0.091590114
12	0xba9c7c15	-0.0011938835
13	0x3cc6c4fd	0.024263853
14	0x3d3ddf99	0.046355817
15	0x3c2eef7a	0.010677213
16	0x3d0157b0	0.031577766
17	0xbd77055a	-0.060307838
18	0x3cb4575d	0.022014314
19	0xbca9dac9	-0.020734208
20	0x3ccfcdd9	0.02536671
21	0xbbf74354	-0.007545868
22	0xbcfb435e	-0.030671772
23	0x3ce6c51f	0.028170167
24	0x3d1f8d42	0.038953073
25	0xbd7b8937	-0.061410155
26	0xbb45b6d4	-0.0030168789
27	0xbc1797c0	-0.009252489
28	0xbd6f5a42	-0.058435686
29	0xbad8f7f8	-0.0016553393
30	0xbc572f42	-0.013133826
31	0x3bbdc24f	0.0057909857
32	0xbd81de91	-0.06341279
33	0xbd19f7ce	-0.03758984
34	0x3d8e0ee9	0.06936438
35	0x3ccb1e70	0.024794787
36	0xbd176b18	-0.036967367
37	0x3cf3d4f6	0.029764634
38	0x3bbd8ec2	0.0057848403
39	0x3c3feca8	0.011714138
40	0x3cc9c0f1	0.024628134
41	0x3ca0356d	0.019556725
42	0x3d0bceb9	0.034132693
43	0x3b5f6781	0.0034088793
44	0xbdb2b0cf	-0.0872513
45	0x3cf51f2d	0.029922092
46	0xbcd74ace	-0.026280787
47	0xbdc275b5	-0.09495107
48	0xbc60058c	-0.0136731975
49	0xbc70ca58	-0.01469668
50	0x3cb51a00	0.022107124
51	0x3c3ab549	0.011395761
52	0xbcec96ab	-0.028880438
53	0x3da9f4c9	0.08298642
54	0xbb0a0ba5	-0.002106407
55	0x3baa333a	0.005194095
56	0xbc7863de	-0.015160529
57	0xbad3484a	-0.0016119566
58	0xbd0b4aef	-0.03400701
59	0x3cc2239f	0.023698626
60	0xbc0a355d	-0.008435574
61	0x3d34d94d	0.044152547
62	0xbcd1bc2e	-0.025602426
63	0x3a95ae55	0.0011419753
64	0xbcc949be	-0.024571296
65	0x3dd59325	0.10428456
66	0x3d24dadd	0.040247787
67	0xbca9c19e	-0.020722207
68	0x3d7d6fee	0.061874323
69	0xbc9f20ab	-0.019424757
70	0xbd4a56ff	-0.049399372
71	0xbc2f243f	-0.010689794
72	0xbcadc539	-0.021212207
73	0x3deefdbe	0.11669491
74	0xbc6d0cf6	-0.014468422
75	0x3bde6444	0.006786855
76	0xbdb00a6d	-0.085957386
77	0xbd01cbe4	-0.031688586
78	0x3bebfe6b	0.00720196
79	0xbcac1ab3	-0.021008825
80	0x3d63e7df	0.05564105
81	0x3d6c7b94	0.05773504
82	0x3aaea9bc	0.0013325731
83	0x3cd3f936	0.025875669
84	0xbd0bd365	-0.03413715
85	0x3dc22af4	0.09480849
86	0xbc76fbc5	-0.015074675
87	0xbd5ab0a7	-0.053391125
88	0x3d21bc60	0.03948629
89	0xba9db09a	-0.0012030781
90	0x3d702244	0.05862643
91	0xbbecfa12	-0.007231959
92	0x38edc3ed	0.00011337535
93	0x3c29f134	0.010372449
94	0xbd487664	-0.04894103
95	0x39299382	0.00016172047

model_4/gru_8/gru_cell/strided_slice_11 f4 [96]
0	0xbcb22223	-0.021744793
1	0xbbd954df	-0.006632432
2	0xbd830ac4	-0.06398538
3	0xbbcf4a2a	-0.0063259797
4	0xbbd8bc6f	-0.00661426
5	0xbc55c226	-0.013046777
6	0xbcb10c7f	-0.021612404
7	0x3d0404d9	0.032231186
8	0x3d3f6f83	0.046737205
9	0x3bf7d416	0.0075631244
10	0xbbd2e770	-0.006436281
11	0x3d181995	0.037133772
12	0x3c8dd6c1	0.017314317
13	0x3c798bbe	0.015231071
14	0x3cc2a1bf	0.023758767
15	0xbc79537f	-0.015217661
16	0x3ca06f8c	0.01958444
17	0xbd532f2b	-0.051558655
18	0x3cf3d042	0.029762391
19	0x3bdc31f0	0.00671982
20	0x3d24cb8e	0.040233187
21	0xbcd824d2	-0.026384745
22	0x3b16062d	0.0022891865
23	0x3bab45cf	0.0052268277
24	0x3ca1ad3d	0.019735927
25	0xbd9f321e	-0.07773231
26	0xbb711465	-0.0036785838
27	0xbcc54187	-0.024079097
28	0xbd355130	-0.04426688
29	0xbcaa0556	-0.020754497
30	0xbc3d94a5	-0.011571084
31	0x3be33a47	0.0069344374
32	0xbd53662a	-0.051611103
33	0xbd0e1ed0	-0.034697354
34	0x3d72caeb	0.05927555
35	0x3c16c248	0.009201594
36	0xbc051985	-0.00812376
37	0xb973c1b3	-0.00023246444
38	0x3cd1e6ce	0.025622752
39	0x3d1831a2	0.03715671
40	0x3d4122af	0.047152217
41	0x3d3097ac	0.043113396
42	0x3cb52ad1	0.022115143
43	0x3cf40ce9	0.029791312
44	0xbd9dc763	-0.077040456
45	0xbc05f775	-0.008176674
46	0x3bb94728	0.0056542344
47	0xbda69165	-0.081332006
48	0xbc71cf3f	-0.014758884
49	0xbc87127e	-0.01648831
50	0x3c49e4fe	0.012322662
51	0xbb4faaca	-0.0031687492
52	0xbcd4c849	-0.02597441
53	0x3d13623e	0.035982363
54	0x3bc26a88	0.0059331097
55	0x3b85ece5	0.004087078
56	0xbd1bcf02	-0.038039215
57	0xbce4d1ef	-0.027932135
58	0xbd05ad6a	-0.032636084
59	0x3ab2681e	0.0013611352
60	0xbafe6fa2	-0.0019411931
61	0x3cc633f0	0.024194688
62	0xbca97e0a	-0.020689983
63	0x3c155292	0.009113925
64	0xbbf80d4b	-0.007569944
65	0x3d420b7c	0.047374234
66	0x3d07d5f2	0.03316302
67	0xbd124ed4	-0.035719708
68	0x3d40cd7c	0.047070965
69	0xbc4f5379	-0.012654179
70	0xbcaf4ced	-0.021398986
71	0xbccd8410	-0.025087386
72	0xbcc767b6	-0.024341445
73	0x3d3db202	0.04631234
74	0xbd4d8f7a	-0.050185658
75	0xbd1bf3e2	-0.03807438
76	0xbd759ee1	-0.05996597
77	0x3cf98954	0.030460991
78	0x3bdbf314	0.006712327
79	0xbd91e93d	-0.07124565
80	0x3d86e911	0.06587423
81	0x3d69769c	0.05699788
82	0x3c4a1ee4	0.012336466
83	0x3d0fdd24	0.035123006
84	0x3be7d6b7	0.0070751566
85	0x3d135173	0.035966348
86	0xbceef0dd	-0.029167587
87	0xbd2b7ee8	-0.041869074
88	0xbce5735b	-0.028009107
89	0x3b4e5783	0.0031485267
90	0x3cdb910e	0.026802566
91	0xbccfa0c6	-0.025345217
92	0x3cc93342	0.024560574
93	0x3c117560	0.008878082
94	0xbca06cb9	-0.019583093
95	0x3d17bf41	0.03704763

model_4/batch_normalization_19/batchnorm/sub f4 [48]
0	0x3c764de0	0.015033215
1	0xbe8ad52e	-0.27115768
2	0x3f2420cb	0.6411254
3	0xbeca5797	-0.3951995
4	0x3c10a738	0.008828931
5	0xbe988ea1	-0.29796317
6	0x3eceee2a	0.4041608
7	0x3e9067ed	0.2820429
8	0xbebb451f	-0.36576173
9	0xbee6cd92	-0.45078713
10	0xbe9934da	-0.29923135
11	0x3ec1b655	0.3783442
12	0x3de605b5	0.11231557
13	0xbe88e87c	-0.26739872
14	0x3e507374	0.20356542
15	0xbf0e0c72	-0.5548774
16	0xbe7d713d	-0.24750228
17	0xbdc78ae8	-0.09743291
18	0xbe82eab0	-0.25569677
19	0xbe4aa86a	-0.19790807
20	0xbe41a581	-0.18910791
21	0xbe7ef921	-0.24899723
22	0x3e7bf0f7	0.2460364
23	0xbe32963c	-0.17440122
24	0x3e117701	0.14205553
25	0xbe5bf609	-0.21480574
26	0xbe6e4962	-0.23270181
27	0x3ea0c902	0.31403357
28	0xbd8cf305	-0.0688229
29	0xbf120b1b	-0.57048196
30	0xbd7e22b4	-0.062044814
31	0x3e5b161f	0.21395157
32	0x3ec8bdf2	0.39207417
33	0xbe475823	-0.19467215
34	0x3e8064b1	0.2507682
35	0xbd6954fc	-0.056965813
36	0x3dfa97ca	0.12235983
37	0xbdb16c9a	-0.08663292
38	0xbe97a28d	-0.29616204
39	0x3e8b61af	0.27222964
40	0x3eda2aac	0.4261068
41	0xbe0d158d	-0.13777752
42	0xbead0deb	-0.3379968
43	0xbe21552c	-0.15755147
44	0xbe2eb674	-0.17061788
45	0xbdde5482	-0.10855962
46	0xbe71b0a8	-0.23602545
47	0xbe7270a0	-0.23675776

model_4/batch_normalization_19/batchnorm/mul f4 [48]
0	0x402ea7b9	2.728987
1	0x402db165	2.7139523
2	0x40597341	3.3976595
3	0x4021b263	2.5265129
4	0x400d9e97	2.2128046
5	0x403ec98a	2.981051
6	0x40237c78	2.554472
7	0x4028d930	2.638256
8	0x4016b669	2.3548834
9	0x4015a76a	2.3383431
10	0x40202bae	2.502666
11	0x4019b39e	2.401588
12	0x401dae37	2.4637582
13	0x40338c22	2.805428
14	0x4028290b	2.627505
15	0x402a1fff	2.658203
16	0x401dc287	2.464998
17	0x401af522	2.4212117
18	0x401e1e2e	2.470592
19	0x401e6ea3	2.4755027
20	0x401940c7	2.3945787
21	0x404bcbe9	3.1843207
22	0x40203ddb	2.5037754
23	0x4024ff5e	2.5780864
24	0x4009a243	2.1505287
25	0x40205d4a	2.505694
26	0x4032c434	2.7932253
27	0x402e520e	2.7237582
28	0x401a8963	2.4146354
29	0x401ab618	2.4173641
30	0x403130e2	2.7686086
31	0x40295b38	2.6461926
32	0x401c414b	2.4414852
33	0x4016535b	2.3488376
34	0x4019b02c	2.4013777
35	0x401c2f79	2.4403975
36	0x40507794	3.2572985
37	0x402b5744	2.6772013
38	0x403df332	2.9679685
39	0x402444f1	2.5667078
40	0x4014c87b	2.3247364
41	0x401ae772	2.4203763
42	0x402bd176	2.6846595
43	0x40401f62	3.0019155
44	0x4014bb2f	2.3239248
45	0x402a6e3e	2.6629786
46	0x403d98cb	2.9624507
47	0x404c9405	3.1965344

model_4/batch_normalization_18/batchnorm/sub f4 [96]
0	0x3e819cca	0.25314933
1	0x3dfd4e9f	0.123685114
2	0xbea6839c	-0.32522285
3	0xbea490e7	-0.32141802
4	0xbd8e2936	-0.06941454
5	0xbcb997fe	-0.022655483
6	0xbeeb29b9	-0.4593027
7	0x3cf70052	0.03015152
8	0x3e0805ae	0.13283417
9	0x3e1b77d1	0.15182425
10	0xbe9147fa	-0.28375226
11	0x3f090d62	0.53536046
12	0xbeba3b96	-0.36373585
13	0x3db5c068	0.08874589
14	0x3eb0d74e	0.34539264
15	0x3f02f8df	0.51161
16	0x3d135cac	0.03597705
17	0xbe29d6b8	-0.16585815
18	0xbe9d1de7	-0.30686876
19	0x3e756888	0.23965657
20	0xbe229905	-0.15878685
21	0x3ea63a9f	0.324666
22	0xbeb7bc65	-0.3588592
23	0x3ea026d9	0.31279638
24	0x3de1245a	0.10993262
25	0xbe4de3f7	-0.20106493
26	0xbe9a4a85	-0.3013498
27	0x3ea2f28f	0.31825683
28	0xbd1f4b68	-0.038890272
29	0xbf37b9b3	-0.7176773
30	0x3e5e36bd	0.21700568
31	0x3d8c0de5	0.06838588
32	0xbde198c0	-0.11015463
33	0x3c3181b0	0.010834143
34	0xbed8d023	-0.42346296
35	0x3d354bb0	0.044261634
36	0xbeda980d	-0.4269413
37	0x3e1863e6	0.14881858
38	0x3e831fb9	0.2561014
39	0x3e4d1cd5	0.2003053
40	0x3bf19fe0	0.007373795
41	0xbe8aefa0	-0.27135944
42	0x3e4d79d0	0.20065999
43	0x3c11bd60	0.008895248
44	0x3ee92284	0.45534146
45	0x3dd85449	0.10562951
46	0x3f15d980	0.58535004
47	0x3d673879	0.05645034
48	0x3e0f1938	0.13974464
49	0xbdb4e124	-0.08832005
50	0x3e005f1c	0.12536281
51	0x3ec65604	0.387375
52	0xbbc68768	-0.006058622
53	0x3e13c29d	0.14429708
54	0xbe0558b6	-0.13022122
55	0x3e8d3fac	0.2758764
56	0xbecb0e90	-0.39659548
57	0x3ed1cafb	0.40975174
58	0xbdff3a93	-0.12462344
59	0xbd8745b1	-0.066050895
60	0x3e30810c	0.17236727
61	0x3da3320e	0.079685315
62	0x3d99f478	0.07517332
63	0x3ec918b1	0.3927665
64	0x3dc757a0	0.0973351
65	0x3f1b6aa8	0.6070962
66	0xbe85c3b9	-0.26125887
67	0xbdac22f3	-0.084051035
68	0xbcd0beaa	-0.02548154
69	0xbe3af1a2	-0.18256238
70	0xbd92a75b	-0.07160827
71	0xbe87b014	-0.26501524
72	0xbeb86237	-0.36012432
73	0xbc7dc0f8	-0.015487902
74	0xbdb48c00	-0.088157654
75	0xbd92c0a6	-0.07165651
76	0xbdc340ed	-0.09533868
77	0x3f0886d5	0.5333074
78	0x3e66f8ef	0.22555898
79	0x3e263922	0.16232732
80	0x3ed0df25	0.40795246
81	0xbed40201	-0.4140778
82	0x3ea3ecd4	0.32016623
83	0x3ef6df58	0.48217273
84	0xbece6771	-0.40313295
85	0x3d9a90c3	0.07547142
86	0xbf0a59f3	-0.540435
87	0x3f00b640	0.5027809
88	0x3e496f7f	0.19671439
89	0x3e75a20f	0.23987602
90	0x3eceaaa9	0.40364578
91	0x3e1b7726	0.1518217
92	0xbe8df825	-0.27728382
93	0x3db706d6	0.08936851
94	0xbdc6a905	-0.09700207
95	0x3eb41c74	0.35177958

model_4/batch_normalization_18/batchnorm/mul f4 [96]
0	0x402d6076	2.7090125
1	0x400b305f	2.1748273
2	0x407aa745	3.9164593
3	0x409cddbb	4.9020667
4	0x4099a65b	4.801557
5	0x407776d7	3.8666284
6	0x408004c5	4.000582
7	0x40669188	3.6026325
8	0x4094141b	4.6274543
9	0x408251bd	4.072478
10	0x4085d1c8	4.181858
11	0x402e9e5b	2.7284153
12	0x40729e83	3.7909248
13	0x4029abf1	2.6511195
14	0x406b93f0	3.6809044
15	0x4020ef9c	2.5146246
16	0x40821084	4.064516
17	0x403177fa	2.7729478
18	0x40155442	2.3332677
19	0x403f9f49	2.994097
20	0x40a0ec5b	5.028852
21	0x40c82766	6.2548094
22	0x40794351	3.8947337
23	0x406f3c2c	3.7380476
24	0x4020b5ea	2.5111032
25	0x40297a5e	2.6480937
26	0x403a0b50	2.9069405
27	0x40343a29	2.8160498
28	0x40875638	4.2292747
29	0x406966e1	3.6469042
30	0x40139114	2.3057299
31	0x3fff2ef2	1.9936202
32	0x404a00d2	3.1563
33	0x3ff8c397	1.9434689
34	0x408981b8	4.297085
35	0x4017efd4	2.374013
36	0x409b2af4	4.8489933
37	0x403518bb	2.8296344
38	0x40541971	3.3140528
39	0x408dfa45	4.4368005
40	0x404e75d4	3.2259417
41	0x4094168f	4.6277537
42	0x40626173	3.5371978
43	0x4055ea8e	3.342441
44	0x4071d5c3	3.778672
45	0x40423d7e	3.0350032
46	0x4080e875	4.028376
47	0x40372ad0	2.861988
48	0x40082b13	2.127629
49	0x4055dbe1	3.3415453
50	0x406d573a	3.708449
51	0x40a48331	5.1410146
52	0x404cf74b	3.2025936
53	0x405e7db9	3.4764235
54	0x40b2724f	5.5764537
55	0x40857922	4.1710367
56	0x4064f1e2	3.5772634
57	0x4034ba5e	2.823875
58	0x4006e1c9	2.1075308
59	0x4042e837	3.0454233
60	0x403e133b	2.9699237
61	0x407ee462	3.9826894
62	0x405dc6ec	3.4652662
63	0x40be4462	5.9458475
64	0x403729cf	2.8619268
65	0x40313a87	2.7691972
66	0x4082264a	4.067174
67	0x40313a94	2.7692003
68	0x405d8825	3.4614346
69	0x403d76c6	2.9603744
70	0x4073554c	3.802081
71	0x405d7269	3.460108
72	0x40771b52	3.8610425
73	0x40783674	3.8783236
74	0x40845c61	4.1362767
75	0x4076b05a	3.8545136
76	0x403ef490	2.983677
77	0x409fcf3b	4.9940467
78	0x4088a6f8	4.270382
79	0x4072314d	3.784259
80	0x4076cc10	3.856205
81	0x4009c948	2.1529102
82	0x4047be80	3.1210022
83	0x40668f41	3.6024935
84	0x4033f008	2.8115253
85	0x4031b54b	2.7766902
86	0x406524af	3.580364
87	0x40686cf2	3.6316495
88	0x4053d691	3.309971
89	0x4088e6b3	4.2781615
90	0x40868b3b	4.204496
91	0x407b8871	3.9302027
92	0x408885b9	4.2663236
93	0x4089a611	4.301522
94	0x403e44ab	2.9729412
95	0x40404570	3.0042381

model_4/dense_9/BiasAdd/ReadVariableOp f4 [26]
0	0x3d1bf6f6	0.038077317
1	0x3e6b9306	0.23005304
2	0x3c076214	0.00826313
3	0x3d3fb557	0.0468038
4	0xbd56e677	-0.052465882
5	0x3e0f1ec2	0.13976577
6	0x3de17b3e	0.11009835
7	0x3d467fdf	0.04846179
8	0xbdd4e413	-0.10395064
9	0xbc7ad5c6	-0.015309757
10	0xbc0c4bd2	-0.008562999
11	0x3d93f650	0.07224715
12	0xbe69a7f7	-0.2281798
13	0xbd9807bf	-0.074233525
14	0x3d9489c6	0.07252841
15	0x3d3c7c2f	0.04601687
16	0x3e4f5d1f	0.20250367
17	0xbef3dcb5	-0.47629324
18	0xbee49dde	-0.44651693
19	0xbed8b9a5	-0.42329136
20	0xbee01f82	-0.4377404
21	0xbee2f1f1	-0.44325212
22	0xbee72915	-0.4514853
23	0xbedba7cc	-0.42901456
24	0xbece91e5	-0.40345684
25	0xbeec4dd0	-0.46153116

model_4/dense_8/BiasAdd/ReadVariableOp f4 [48]
0	0x3d6d3578	0.05791232
1	0x3dd850fb	0.10562321
2	0x3dab1e69	0.0835541
3	0x3e37faf3	0.17966823
4	0x3d0f0f88	0.03492692
5	0xbc57eed8	-0.013179503
6	0x3d9b096f	0.07570159
7	0x3df71eba	0.120664075
8	0x3c5535b7	0.013013295
9	0x3dbeb1cb	0.09311255
10	0x3dd0bbd5	0.10192076
11	0x3d13f15e	0.036118858
12	0x3c501974	0.012701381
13	0x3e38ca6b	0.18045966
14	0x3e394a21	0.18094684
15	0x3d038d39	0.032117102
16	0x3d14b56a	0.036305822
17	0x3df2f2a8	0.11862689
18	0x3e257a4e	0.16159937
19	0x3e08b400	0.13349915
20	0x3d83b81a	0.06431599
21	0x3d9189db	0.07106372
22	0x3d30b898	0.043144792
23	0x3e195e4d	0.14977379
24	0x3e2cbf68	0.1686989
25	0x3dd3f970	0.10350311
26	0x3de7ac84	0.113122016
27	0x3d6a58ff	0.05721378
28	0x3d62fe98	0.05541858
29	0x3e56574c	0.20931739
30	0x3d92882c	0.07154879
31	0x3e68a6d8	0.22719896
32	0x3dd80f60	0.105498075
33	0x3df4c988	0.119525015
34	0x3d180188	0.037110835
35	0x3d2ccc1b	0.042186838
36	0x3d8a8a39	0.06764645
37	0x3da98deb	0.08279022
38	0x3dfcbb93	0.123404644
39	0x3db6e7c4	0.089309245
40	0x3dbe5194	0.092929035
41	0x3e6dbd7c	0.23216814
42	0x3df1f950	0.11815131
43	0x3df4559e	0.11930393
44	0x3dbab071	0.09115685
45	0x3e14538d	0.14484997
46	0x3dcfc251	0.10144485
47	0x3e0ac502	0.13551715

model_4/gru_8/gru_cell/MatMul f4 [96, 126]
0	0xb99ba3b2	-0.00029685866
1	0xb8767274	-5.8757563e-05
2	0x3877d83c	5.9090773e-05
3	0x3afff5f0	0.0019528251
4	0xb9c2ebef	-0.00037178348
5	0xb86d01b0	-5.6506775e-05
6	0x3ae15a51	0.0017193054
7	0x3a290d60	0.00064488314
8	0xba183626	-0.00058064086
9	0x3b60dd11	0.0034311453
10	0xbaf0dca9	-0.0018376309
11	0xba812f3c	-0.0009855996
12	0x3ad4bc03	0.0016230348
13	0xbb73c1fa	-0.0037194476
14	0xba183ad2	-0.0005807105
15	0x3a0f017c	0.0005455238
16	0xbb1da6ae	-0.0024055648
17	0x3842acf4	4.641428e-05
18	0x3ae6bc35	0.0017603697
19	0xbab56430	-0.0013839062
20	0xb9861ec9	-0.00025581408
21	0x3ad238fb	0.001603871
22	0xbb0a8173	-0.0021134287
23	0xb98154ed	-0.00024668072
24	0x3a7fb796	0.00097548345
25	0xbb81d61e	-0.0039622923
26	0xba139536	-0.0005629839
27	0x39b66530	0.00034789136
28	0xbb51d0cf	-0.0032015329
29	0xba4b3430	-0.0007751612
30	0x3a8e2a46	0.0010846339
31	0xbb24c8d1	-0.002514411
32	0xba73175e	-0.00092731963
33	0x3ad0bdcd	0.0015925706
34	0xbb423751	-0.0029635022
35	0xb8a80173	-8.011134e-05
36	0x3ad16339	0.0015975005
37	0xbb1c5d53	-0.0023859337
38	0xbad5bec3	-0.0016307462
39	0xb9e559a4	-0.0004374507
40	0xbb4e4b40	-0.0031477958
41	0xba1276b4	-0.0005587146
42	0x3b1695be	0.0022977437
43	0xbacfeb0f	-0.00158629
44	0xba09f3b6	-0.0005262451
45	0x396b6d3f	0.00022452044
46	0xba818886	-0.0009882606
47	0xba8c4e94	-0.001070457
48	0x3a2d2be7	0.0006605968
49	0xbafd2d96	-0.0019315954
50	0xba502f82	-0.00079416495
51	0xba13aba9	-0.00056331843
52	0xbb45a854	-0.0030160146
53	0xba5f67ff	-0.00085222715
54	0x3903f010	0.00012582564
55	0xb9b3cfc5	-0.0003429634
56	0xba4c788b	-0.0007799945
57	0x3ad76f39	0.0016436345
58	0xb9e0254c	-0.00042752398
59	0xba1de648	-0.0006023389
60	0xba0f4363	-0.00054650585
61	0xbad1d771	-0.0016009641
62	0xbaa4fc60	-0.0012587421
63	0x388fb0b8	6.851688e-05
64	0x38ff8854	0.000121847406
65	0x393db6ea	0.00018092585
66	0xba2a008b	-0.0006485066
67	0x3a7d9a87	0.00096742105
68	0xb9972a61	-0.0002883254
69	0xb8b396ed	-8.563497e-05
70	0xba6ea639	-0.00091037486
71	0xb986912e	-0.0002566664
72	0xba2f20c7	-0.00066806044
73	0xba278268	-0.00063899765
74	0xb845e9c8	-4.7186186e-05
75	0xb9f824f7	-0.00047329787
76	0xbaaab29d	-0.0013023202
77	0xb8a7bb0a	-7.998019e-05
78	0xbaa5f12f	-0.0012660379
79	0xba87474d	-0.0010320932
80	0xb8b1a372	-8.470462e-05
81	0xbb077533	-0.0020669221
82	0xb9d84433	-0.00041249543
83	0x39db7862	0.00041860627
84	0xb9de0e28	-0.00042353687
85	0xbad471af	-0.0016208197
86	0x39b2606c	0.00034022646
87	0xbb6c1171	-0.0036021138
88	0x3a8e38cc	0.0010850667
89	0x3a2f6e99	0.00066922005
90	0xba23ad69	-0.00062437967
91	0xba9b23e1	-0.0011836254
92	0x38e3d364	0.00010863578
93	0xbad465d3	-0.0016204662
94	0xbab7c086	-0.0014019168
95	0x391d3ea5	0.00014996024
96	0xba55bb5c	-0.0008153224
97	0xba8ce03e	-0.0010747982
98	0x3a4df045	0.00078559323
99	0xbb23fc54	-0.0025022225
100	0xbafd7f81	-0.0019340367
101	0x398a9e84	0.00026439514
102	0xbab952bc	-0.0014139037
103	0xbaa60606	-0.001266659
104	0x3a0d5f68	0.000539294
105	0xba8e4213	-0.0010853432
106	0xbb1be4ba	-0.0023787455
107	0x39cb2e69	0.00038753756
108	0xba8001aa	-0.0009766121
109	0x3a40f7c6	0.000736114
110	0x39f58a2a	0.00046832982
111	0xbb44839c	-0.0029985672
112	0xb9710a01	-0.00022987278
113	0x3a025a58	0.0004972569
114	0xbaf7a9a1	-0.0018895158
115	0xbb04de9e	-0.0020274292
116	0x398d8a12	0.00026996486
117	0xbae76d1a	-0.0017656416
118	0xbb2fcbe3	-0.0026824407
119	0x3a537d44	0.0008067677
120	0xbb23f795	-0.0025019397
121	0xba16cb9d	-0.00057523866
122	0x37065d71	8.008778e-06
123	0xbb19f438	-0.0023491513
124	0xbaae5aa8	-0.0013302164
125	0x395d9786	0.00021132649
126	0xb7d9dba6	-2.5970698e-05
127	0xb90c1b1a	-0.00013361537
128	0x38083df9	3.2482643e-05
129	0x399b6e2a	0.00029645982
130	0x39fa4bd7	0.0004774022
131	0xba9a22b9	-0.0011759616
132	0xbaf624f5	-0.0018779325
133	0x3ad8fc11	0.0016554614
134	0xba305cf9	-0.0006727721
135	0xb9fc67f0	-0.00048142625
136	0x3a9480ac	0.0011329851
137	0xba206775	-0.0006118932
138	0xbab74c3f	-0.0013984515
139	0xbb87dddc	-0.0041463207
140	0xba12a8a5	-0.0005594588
141	0x3888ab06	6.516841e-05
142	0x3acf08b2	0.0015795438
143	0x39e09bff	0.00042840836
144	0xb9508450	-0.00019885716
145	0x3a67e680	0.0008846298
146	0x3a35b0be	0.00069309387
147	0x3a61bede	0.000861151
148	0x3af3837f	0.0018578618
149	0x3a672513	0.0008817475
150	0x3aa82d83	0.0012830946
151	0x3a09eb18	0.0005261167
152	0x3ab83e10	0.0014056582
153	0x3a4a0dbd	0.00077077356
154	0xb9f357da	-0.00046414026
155	0x3a473078	0.000759847
156	0xbb35a39b	-0.0027715925
157	0xb99635eb	-0.00028650402
158	0xb9df1aec	-0.00042553933
159	0x3a826712	0.000994893
160	0xbb3e2aa2	-0.002901711
161	0x3a51910d	0.00079943315
162	0xbb1eb98e	-0.0024219486
163	0x3b271ac4	0.0025498131
164	0x3a07f7b5	0.00051867525
165	0xbb1560d5	-0.0022793312
166	0xbb588d8b	-0.003304335
167	0x39b62deb	0.00034747957
168	0xba91e4d0	-0.0011130814
169	0xbaeee0c5	-0.0018224946
170	0x3a6c59dc	0.00090160756
171	0xbab0bb74	-0.00134836
172	0xbb180bed	-0.0023200468
173	0xb643e962	-2.919311e-06
174	0x3a033122	0.0005004575
175	0xb7a75fb6	-1.995252e-05
176	0x39aae4db	0.00032595437
177	0x3a9f4926	0.0012152537
178	0xbb5a0268	-0.0033265594
179	0x38d428e7	0.000101165664
180	0xbb0a4767	-0.0021099688
181	0xbb6fdc7b	-0.0036599922
182	0xb9911b98	-0.00027677114
183	0xba49d61e	-0.00076994475
184	0xbb2c5608	-0.0026296396
185	0x39b5fc66	0.00034711062
186	0xb9498753	-0.00019219266
187	0xbb444052	-0.0029945564
188	0xb9a2680a	-0.00030976563
189	0x38bf9745	9.135766e-05
190	0x38c51fb9	9.399601e-05
191	0x39b33aca	0.00034185342
192	0x39a14837	0.00030762117
193	0x3b6102e9	0.003433401
194	0xb93107e0	-0.00016882969
195	0x3addfd04	0.0016936366
196	0x3bd68f77	0.006547864
197	0xb95d10b9	-0.00021082432
198	0x3ae0a929	0.0017140257
199	0x3b4169b7	0.0029512474
200	0xb8fcec3a	-0.00012060297
201	0x3a6417d3	0.000870106
202	0x3b8d1e66	0.0043066023
203	0xb88baff6	-6.660812e-05
204	0x3b3bbdeb	0.0028647135
205	0x3ba9b3f5	0.0051789233
206	0xb8b92708	-8.8287576e-05
207	0x3b5453cd	0.0032398582
208	0x3bdca499	0.0067334888
209	0x3a203b7f	0.0006112381
210	0x3af83829	0.0018937635
211	0x3bb1e17d	0.0054284916
212	0x3ac27abe	0.0014837605
213	0x3acd5f1f	0.0015668607
214	0x3ba79548	0.0051142313
215	0x3a8a6060	0.0010557286
216	0xb995002d	-0.00028419626
217	0x3b79572d	0.0038046346
218	0x3982db4b	0.00024958918
219	0xbac0bad4	-0.0014704117
220	0x3bc15707	0.005900267
221	0x3a5f778c	0.0008524589
222	0x3b2e2620	0.0026573017
223	0x3ba66c49	0.0050788266
224	0x3acca9d0	0.0015614573
225	0x38aba03d	8.183762e-05
226	0x3c16aa2b	0.009195845
227	0x3a74a583	0.00093325245
228	0x3b735497	0.0037129277
229	0x3b8ebdb4	0.0043561105
230	0xb6d2450c	-6.266526e-06
231	0x3adb8292	0.0016747287
232	0x3bd55da9	0.0065114093
233	0x3a036ce2	0.0005013478
234	0x3a5a8318	0.00083355745
235	0x3c0a5250	0.008442476
236	0x3ad82c16	0.0016492631
237	0x39fdef14	0.00048434047
238	0x3c3062fe	0.010765789
239	0x3a834b63	0.0010016974
240	0x3b70011c	0.0036621755
241	0x3b2f7d5f	0.0026777608
242	0x3b1edab2	0.002423924
243	0x3a1136f1	0.0005539498
244	0x3b8bb2ec	0.0042632725
245	0x3b25e4fd	0.002531349
246	0x3b1508bc	0.0022740802
247	0x3bb6ecba	0.005582419
248	0x3aa060d3	0.0012235887
249	0xba00c7b2	-0.00049125694
250	0x3b932be6	0.004491317
251	0x3b014013	0.001972203
252	0xb8c1acf4	-9.235172e-05
253	0x39330e3e	0.00017076076
254	0x39aaee6e	0.0003260257
255	0x39495552	0.00019200638
