app/src/main/assets/models/verbs.tflite (tflite, 675940 bytes, 52 tensors)

model_4/batch_normalization_16/batchnorm/add_1;model_4/conv1d_8/Conv1D/Squeeze;model_4/batch_normalization_16/batchnorm/mul_1;model_4/conv1d_8/BiasAdd;model_4/conv1d_8/BiasAdd/ReadVariableOp;model_4/batch_normalization_16/batchnorm/mul;model_4/batch_normalization_16/batchnorm/sub;model_4/conv1d_8/Conv1D;model_4/conv1d_9/Conv1D f4 [96]
0	0xbee86602	-0.45390326
1	0x3e1eba38	0.15500724
2	0xbe8d7598	-0.2762878
3	0x3ce7c408	0.028291717
4	0xbe272e93	-0.1632636
5	0x3dbe2569	0.09284479
6	0xbf1bae61	-0.60812956
7	0xbf21e117	-0.63234085
8	0xbf651bca	-0.8949553
9	0xbf4504c2	-0.76960385
10	0xbe8b88a8	-0.27252698
11	0xbd97bb4a	-0.074087694
12	0xbef8e7d9	-0.48614386
13	0xbfbe28df	-1.4856223
14	0xbedc0341	-0.42971233
15	0xbd832b45	-0.064047374
16	0xbea4fbf7	-0.32223484
17	0xbec384de	-0.38187307
18	0xbf006644	-0.50156045
19	0xbe982c9e	-0.2972154
20	0xbd388c7e	-0.04505586
21	0xbe8016ce	-0.250174
22	0xbf909939	-1.129676
23	0x3ec6a8f2	0.3880077
24	0x3ea6b71c	0.32561576
25	0xbd2e5a88	-0.042566806
26	0xbedb5ac6	-0.42842692
27	0xbe3086b6	-0.17238888
28	0x3db8d158	0.09024304
29	0xbf09c491	-0.5381556
30	0x3ecd0de7	0.4004967
31	0x3e38ecc8	0.18059075
32	0xbf2b61ae	-0.6694592
33	0xbef485d8	-0.47758365
34	0x3c242a70	0.0100198835
35	0xbe95aa88	-0.29231668
36	0xbeea0a2e	-0.4571089
37	0xbef7c418	-0.48391795
38	0xbe37061c	-0.17873424
39	0xbf24a4d2	-0.64313996
40	0xbeb35ca4	-0.35031617
41	0xbe0d659c	-0.13808292
42	0xbf188bf4	-0.5958855
43	0xbeb450b5	-0.35217825
44	0xbed94301	-0.42433932
45	0xbe615752	-0.22005966
46	0xbf92d9ab	-1.1472677
47	0x3e9e0cc7	0.30869123
48	0xbefeca58	-0.4976375
49	0xbf0738e5	-0.5282119
50	0xbf3bdb66	-0.7338165
51	0xbecd2719	-0.40068892
52	0xbea3d0d6	-0.31995267
53	0x3ebc60c0	0.36792564
54	0xbe941326	-0.2892086
55	0xbf1e1da5	-0.61763984
56	0x3edf72a5	0.43642154
57	0xbf0f9bf0	-0.56097317
58	0xbe7b8a69	-0.24564518
59	0xbf07f183	-0.5310289
60	0xbe7aba2d	-0.24485083
61	0xbd101edf	-0.03518569
62	0x3eb09d40	0.34494972
63	0xbf139dfa	-0.5766293
64	0x3f514d86	0.81758916
65	0xbef8b617	-0.48576424
66	0xbec52229	-0.38502625
67	0x3e11b3b9	0.14228715
68	0xbef83ae2	-0.48482424
69	0x3a86a5c0	0.0010272786
70	0xbf2730a3	-0.6530859
71	0x3ef9170e	0.48650402
72	0x3f2f9fc7	0.68603176
73	0xbe92f57d	-0.28702918
74	0xbe37ba6e	-0.17942211
75	0xbe24568c	-0.1604864
76	0x3e8911fd	0.26771536
77	0xbeb0db01	-0.34542087
78	0xbec921e4	-0.3928367
79	0x3d217741	0.03942037
80	0x3d17dd70	0.037076414
81	0xbe949ab2	-0.29024273
82	0x3f4b67e5	0.79455405
83	0xbe8b2eb4	-0.2718407
84	0x3d37a7d8	0.044837803
85	0xbf64d3c1	-0.8938561
86	0xbf1d2b94	-0.6139462
87	0xbf02da2a	-0.5111414
88	0xbe2260d5	-0.15857251
89	0x3ea8aa2f	0.3294234
90	0xbf17e328	-0.5933099
91	0xbf7ee2d9	-0.9956489
92	0xbf5ae4e8	-0.85505533
93	0xbdfb937a	-0.12283988
94	0xbf068a3f	-0.52554697
95	0xbed19de4	-0.40940773

model_4/batch_normalization_17/batchnorm/add_1;model_4/conv1d_9/Conv1D/Squeeze;model_4/batch_normalization_17/batchnorm/mul_1;model_4/conv1d_9/BiasAdd;model_4/conv1d_9/BiasAdd/ReadVariableOp;model_4/batch_normalization_17/batchnorm/mul;model_4/batch_normalization_17/batchnorm/sub;model_4/conv1d_9/Conv1D f4 [96]
0	0xbeb89a4b	-0.36055216
1	0xbe0bc198	-0.13648069
2	0x3ede30ec	0.433967
3	0xbee1f179	-0.44129542
4	0x3eca18ab	0.39471945
5	0xbe4e067b	-0.2011966
6	0xbe549123	-0.2075849
7	0xbea08306	-0.31349963
8	0xbf2936f3	-0.6609947
9	0xbe183dc4	-0.14867312
10	0xbeff902c	-0.49914682
11	0xbefda0e2	-0.49536806
12	0xbe77afe2	-0.24188188
13	0xbe79dd46	-0.24400815
14	0xbeb3cba0	-0.3511629
15	0x3fa547ce	1.2912538
16	0xbf0177fa	-0.50573695
17	0xbe5d444a	-0.21608081
18	0xbea67f3d	-0.3251895
19	0xbe11d281	-0.14240457
20	0xbeff1914	-0.4982382
21	0xbea3778f	-0.31927153
22	0xb9c59e60	-0.00037692767
23	0x3fae740b	1.3629164
24	0x3fc7c297	1.5606259
25	0xbed20ad2	-0.4102388
26	0xbedd0db3	-0.43174514
27	0xbf0819a2	-0.5316411
28	0xbe8e7695	-0.27824846
29	0x3f93d133	1.1548218
30	0xbe4eadb6	-0.20183453
31	0xbf0f6f37	-0.56029075
32	0xbe63d97e	-0.22250935
33	0xbf107a62	-0.5643674
34	0x3e1dd445	0.15413006
35	0xbeaf91c3	-0.34290895
36	0xbe62b294	-0.22138435
37	0x3c750440	0.014954627
38	0xbe85504c	-0.26037824
39	0x3f8b3bce	1.0877626
40	0xbe9cc2dd	-0.3061742
41	0xbe644790	-0.22292924
42	0xbf281c2d	-0.6566799
43	0x3fd84efe	1.6899107
44	0x3cce7de0	0.025206506
45	0x3f930484	1.1485753
46	0xbe94d59b	-0.29069218
47	0xbdb21ae5	-0.08696536
48	0xbe708585	-0.23488434
49	0xbe577690	-0.21041322
50	0xbe949825	-0.29022327
51	0xbe7a1814	-0.24423248
52	0x3f8746ac	1.0568442
53	0xbe1699b0	-0.14707065
54	0xbf310743	-0.69151706
55	0xbea662be	-0.3249721
56	0xbdc5beec	-0.09655556
57	0xbf242ed6	-0.64133966
58	0x3fb2eb3f	1.3978041
59	0x3f8fecb3	1.124411
60	0xbeb09013	-0.3448492
61	0x3f8adea7	1.0849198
62	0x3f9ad3cc	1.2095885
63	0xbf2043e1	-0.62603575
64	0xbede6180	-0.43433762
65	0xbc3ffac0	-0.011717498
66	0x3d5df866	0.05419197
67	0xbe8ce940	-0.27521706
68	0xbec4b57e	-0.38419718
69	0xbe3e8bc8	-0.1860801
70	0xbea75c07	-0.326874
71	0xbe0ab30c	-0.13544863
72	0xbefd92ca	-0.49526054
73	0x3d5306c2	0.051520117
74	0xbe8003d8	-0.25002933
75	0xbeddc96c	-0.43317735
76	0xbe001cec	-0.12511033
77	0xbdb4d1d8	-0.08829087
78	0x3e925b8c	0.2858547
79	0x3f9f2a1f	1.2434729
80	0xbe336e06	-0.1752244
81	0x3fc70255	1.5547587
82	0xbed2e853	-0.41192874
83	0xbe1d476a	-0.15359274
84	0x3fa1d32a	1.2642567
85	0x3e8745cd	0.2642044
86	0xbe6d8002	-0.23193362
87	0xbd900d54	-0.07033792
88	0x3fa59ffb	1.2939447
89	0xbf3a71b8	-0.7282977
90	0xbda49146	-0.08035521
91	0xbe4858ae	-0.19565079
92	0xbe56fb61	-0.20994331
93	0xbec99d98	-0.39378047
94	0x3f2de90c	0.67933726
95	0xbe89331c	-0.26796806

model_4/batch_normalization_16/batchnorm/mul_1;model_4/conv1d_8/Conv1D/Squeeze;model_4/conv1d_8/BiasAdd;model_4/conv1d_8/BiasAdd/ReadVariableOp;model_4/batch_normalization_16/batchnorm/mul;model_4/conv1d_8/Conv1D;model_4/conv1d_9/Conv1D f4 [96, 1, 3, 126]
0	0x3b292b40	0.0025813133
1	0x3ad450c7	0.001619839
2	0x3ad15cca	0.0015973088
3	0x3be442a5	0.0069659525
4	0xbb6f1783	-0.003648252
5	0xbc3cf348	-0.011532612
6	0x3c8c8cd9	0.017157005
7	0xbc0c3ccd	-0.008559418
8	0xbc6064bc	-0.013695892
9	0x3ca67cb0	0.020323128
10	0xbbe9a7a6	-0.007130581
11	0xbc66c368	-0.014084674
12	0x3c91410e	0.017731216
13	0xb9d49947	-0.00040549992
14	0xbc79bdfb	-0.015243049
15	0x3baf9b4b	0.0053590885
16	0xbc6a1328	-0.014286794
17	0x3b5a295a	0.0033288808
18	0x3bf09aa7	0.0073426547
19	0xbcbda465	-0.023149678
20	0x3b88e7a3	0.004178004
21	0xbbc89236	-0.0061209453
22	0xbc948e09	-0.018134134
23	0x3af775f7	0.0018879761
24	0xbcaae2e9	-0.020860152
25	0xbbe99bf4	-0.0071291868
26	0x3a992048	0.0011682594
27	0xbc8d419c	-0.017243199
28	0xbc07e382	-0.008293988
29	0x3c012424	0.007882152
30	0xbc447e72	-0.011993038
31	0xbc460540	-0.012086213
32	0x3bb9c175	0.005668814
33	0xbd0c5fb2	-0.03427095
34	0x3ae2052c	0.0017243973
35	0x3ad26784	0.0016052579
36	0xbd6237eb	-0.05522911
37	0x3c907a9a	0.017636586
38	0x3a0c5689	0.0005353471
39	0xbc6c6bc9	-0.014429995
40	0xbb76e76b	-0.0037674557
41	0x3b002cd9	0.0019557981
42	0xbc80335b	-0.015649488
43	0xbc527a7e	-0.012846587
44	0xbb1aae6a	-0.0023602494
45	0xbd2c4588	-0.042058498
46	0xbba3cc2a	-0.0049987035
47	0xbc56d3a4	-0.0131119825
48	0xbd845a6c	-0.06462559
49	0x3b6f0c16	0.003647571
50	0xbc98cee5	-0.018653343
51	0xbc9a7b7c	-0.01885771
52	0x3c0c4100	0.008560419
53	0x3bc02f6b	0.0058650277
54	0xbcb5ba54	-0.022183575
55	0x3b99a174	0.004688436
56	0x3aed56af	0.0018107499
57	0xbd38d41e	-0.045124166
58	0x3bd438de	0.0064765057
59	0xbbbcadc0	-0.0057580173
60	0xbd88446a	-0.06653674
61	0x3c1459bb	0.009054597
62	0xbc1655b8	-0.00917571
63	0x3a7301a1	0.0009269957
64	0x386afe5a	5.602683e-05
65	0xbad177c0	-0.0015981123
66	0x3ae4b4f0	0.0017448943
67	0xbbdb704d	-0.006696737
68	0xbc6887a5	-0.014192496
69	0xbbc161e3	-0.0059015616
70	0xbc898e9c	-0.016791634
71	0xbc949835	-0.018138984
72	0xbc03236f	-0.0080040535
73	0xbc315b9b	-0.010825063
74	0xbcadac00	-0.02120018
75	0xbc103c6e	-0.00880347
76	0x3bb19b70	0.005420141
77	0xbccc4bb1	-0.024938436
78	0x3be839f0	0.007086985
79	0x3b8fdee9	0.0043905866
80	0xbc3ff8f8	-0.011717074
81	0x3be69a9e	0.007037475
82	0xbbe62c0b	-0.0070242933
83	0xbc54ddc2	-0.012992324
84	0x3cd3ab77	0.025838597
85	0xbaa805c0	-0.0012819096
86	0xbc89d489	-0.016824977
87	0x3d3146dc	0.043280467
88	0x3c16fab9	0.00921505
89	0xbc966b60	-0.018361747
90	0x3c806d9f	0.015677271
91	0x3c5f0285	0.013611441
92	0xbbe155eb	-0.0068766973
93	0x3c01c12a	0.007919589
94	0xbbd72ecb	-0.0065668575
95	0xbc1b7ebe	-0.009490667
96	0x3cf7424c	0.03018298
97	0xba54849e	-0.00081069197
98	0xbc92e097	-0.017929358
99	0x3d4db318	0.050219625
100	0x3c10ef87	0.00884617
101	0xbcb4c312	-0.022065673
102	0x3c420a76	0.011843314
103	0x3c81d0e0	0.01584667
104	0x3b0355bf	0.0020040122
105	0x3b85fe5b	0.0040891594
106	0xbb96e242	-0.0046046088
107	0x3b245aa5	0.0025078442
108	0x3cdd4728	0.027011469
109	0x39db71c1	0.00041855688
110	0xbc5059d1	-0.012716726
111	0x3d466f86	0.0484462
112	0x3bfa4aca	0.00763831
113	0xbcb4a9e2	-0.022053663
114	0x3c990528	0.018679217
115	0x3c81a1e9	0.015824275
116	0x3ad67c79	0.0016364
117	0x3c9ae7bf	0.018909333
118	0xbae75ce4	-0.0017651585
119	0x3a6a485a	0.0008937173
120	0x3d22cc79	0.03974578
121	0xbb2f62f1	-0.0026761855
122	0xbc1885b5	-0.009309222
123	0x3d755eed	0.05990498
124	0xb93acb3c	-0.00017814053
125	0xbc84fb8d	-0.01623323
126	0x3b1e9446	0.0024197265
127	0x3ac0b839	0.001470334
128	0x3a8239e0	0.0009935461
129	0x3bccbcff	0.006248116
130	0xbb9fc8af	-0.0048762183
131	0xbc3f2cbc	-0.01166838
132	0x3c7fbf0c	0.015609514
133	0xbc2bbb4d	-0.010481668
134	0xbc66cc5e	-0.014086811
135	0x3c959065	0.01825733
136	0xbc0e8ff3	-0.008701312
137	0xbc74e1cb	-0.014946411
138	0x3c730060	0.014831632
139	0xbaa71751	-0.0012748038
140	0xbc84ffed	-0.016235316
141	0x3b63fbb7	0.0034787485
142	0xbc807980	-0.015682936
143	0x3b45e9aa	0.003019909
144	0x3b87f103	0.004148604
145	0xbcca1932	-0.024670217
146	0x3b5e8c3a	0.0033958093
147	0xbc2ce04b	-0.0105515225
148	0xbc98af41	-0.018638255
149	0x3a527b34	0.0008029223
150	0xbcd61e08	-0.026137367
151	0xbbd933bf	-0.006628483
152	0xb9c934b9	-0.0003837699
153	0xbc9d3fd8	-0.019195482
154	0xbc19b63c	-0.009381827
155	0x3bf59a15	0.0074951747
156	0xbc76d8ab	-0.015066306
157	0xbc56fe6f	-0.013122185
158	0x3ba057a8	0.004893262
159	0xbd1f51ca	-0.03889636
160	0x3abba935	0.0014317395
161	0x39fdb71e	0.00048392353
162	0xbd7a41a7	-0.061097767
163	0x3c942846	0.01808561
164	0xba5c120d	-0.0008395024
165	0xbc835cf2	-0.01603553
166	0xbb8b1a4f	-0.0042450796
167	0x3ab8ecd8	0.0014108671
168	0xbc96e01a	-0.018417407
169	0xbc54fb04	-0.0129993
170	0xbb4bc7e7	-0.0031094493
171	0xbd3bbe69	-0.045835886
172	0xbb962424	-0.004581945
173	0xbc6795f8	-0.014134876
174	0xbd8dc4d3	-0.06922307
175	0x3b8d2208	0.0043070354
176	0xbca34aed	-0.019933188
177	0xbca8d80b	-0.02061083
178	0x3c0d40f4	0.008621443
179	0x3ba4c94f	0.0050288807
180	0xbccc612c	-0.024948679
181	0x3ba0ed04	0.004911067
182	0x3a60f9df	0.00085821556
183	0xbd4885b8	-0.04895565
184	0x3beadc12	0.0071673477
185	0xbbe4f162	-0.006986783
186	0xbd913d1e	-0.07091735
187	0x3c289435	0.010289242
188	0xbc28c121	-0.010299952
189	0x3a86ff80	0.0010299534
190	0xba3b0703	-0.0007134529
191	0xbafd208c	-0.0019312068
192	0x3ab0d86d	0.0013492234
193	0xbc024d68	-0.007953025
194	0xbc59e906	-0.013300186
195	0xbbc62858	-0.00604729
196	0xbc96a607	-0.018389715
197	0xbc8e01de	-0.017334875
198	0xbc008c45	-0.007845943
199	0xbc4c3b88	-0.012465365
200	0xbca6966e	-0.020335402
201	0xbc0c0fc0	-0.008548677
202	0x3b915c8e	0.004436082
203	0xbcc4de8c	-0.0240319
204	0x3c0346ba	0.008012468
205	0x3b93bf28	0.0045088716
206	0xbc307cf5	-0.01077198
207	0x3c01a169	0.007912018
208	0xbc0135b0	-0.007886335
209	0xbc3fd3d0	-0.011708215
210	0x3cdd061f	0.026980458
211	0xbb203449	-0.0024445227
212	0xbc7f48fd	-0.015581367
213	0x3d368b2e	0.044566326
214	0x3c03cebc	0.008044895
215	0xbc8d0548	-0.017214432
216	0x3c8907f2	0.016727421
217	0x3c68db9b	0.014212514
218	0xbbba046e	-0.0056767976
219	0x3c130ead	0.008975667
220	0xbbef6b1c	-0.0073064696
221	0xbc0623d8	-0.008187257
222	0x3d00feb7	0.031492915
223	0xbaee4aff	-0.001818031
224	0xbc8634d1	-0.016382607
225	0x3d53d03e	0.051712267
226	0x3c006284	0.007835988
227	0xbca6c1ef	-0.020356147
228	0x3c536d07	0.012904412
229	0x3c8387fc	0.016056053
230	0x3b56ae72	0.0032757786
231	0x3bac4be6	0.0052580712
232	0xbbb6ac9b	-0.0055747754
233	0x3b82bfa5	0.003990131
234	0x3ce6d785	0.02817894
235	0xba66921b	-0.0008795575
236	0xbc36f469	-0.01116667
237	0x3d4bb2f0	0.049731195
238	0x3bc78fe1	0.0060901497
239	0xbca62c7a	-0.02028488
240	0x3ca1a883	0.019733673
241	0x3c807c22	0.015684191
242	0x3b2a2366	0.002596104
243	0x3ca5bdc2	0.020232085
244	0xbb460173	-0.0030213266
245	0x3b1a9eca	0.002359318
246	0x3d2901e5	0.041261572
247	0xbb8eb185	-0.004354658
248	0xbc003f8e	-0.007827653
249	0x3d7c1e80	0.061552525
250	0xbb03ebdf	-0.0020129604
251	0xbc6c224b	-0.014412473
252	0x3b2ede13	0.002668266
253	0x3ad4bb70	0.0016230177
254	0x396b1c97	0.00022421997
255	0x3bcbc4fc	0.0062185507

model_4/batch_normalization_17/batchnorm/mul_1;model_4/conv1d_9/Conv1D/Squeeze;model_4/conv1d_9/BiasAdd;model_4/conv1d_9/BiasAdd/ReadVariableOp;model_4/batch_normalization_17/batchnorm/mul;model_4/conv1d_9/Conv1D f4 [96, 1, 3, 96]
0	0xbce0be46	-0.02743448
1	0xbd0187fc	-0.031623825
2	0x3d02e0b1	0.031952564
3	0xbd099a79	-0.033594582
4	0x3c67c760	0.014146656
5	0xbd099789	-0.03359178
6	0xbcbbf96a	-0.022946078
7	0xbc574e60	-0.013141245
8	0x3d91647e	0.070992455
9	0x3cfaca11	0.03061393
10	0x3cf291ee	0.0296106
11	0x3b7394dd	0.0037167587
12	0x3d2bb298	0.041918367
13	0xbcf94bff	-0.030431746
14	0x3c0c0bfb	0.008547778
15	0x3e08d0b5	0.13360865
16	0xbcad9111	-0.021187337
17	0xbd767844	-0.060173288
18	0xbd1215b3	-0.035665225
19	0x3d95435c	0.072882384
20	0x3cc21d83	0.023695713
21	0x3ddd8876	0.108170435
22	0x3cca6da1	0.024710478
23	0x3ac4760b	0.0014988793
24	0xbabda5fb	-0.0014469022
25	0xbcdeb989	-0.02718808
26	0x3db64cc2	0.08901359
27	0x3e34ece0	0.17668486
28	0xbc2d4e8a	-0.010577807
29	0x39bd5757	0.00036113962
30	0xbc53bbad	-0.012923163
31	0xbd216470	-0.039402425
32	0x3cb34db1	0.021887632
33	0x3d1c314f	0.03813296
34	0x3c4a2504	0.012337927
35	0x3d11b0f9	0.035569165
36	0xbd137fa4	-0.0360104
37	0x3dc9c426	0.098518655
38	0x3e33b43a	0.1754922
39	0xbcfa2938	-0.030537233
40	0xbc84cf59	-0.016212152
41	0x3b0c44d3	0.0021403327
42	0x3a9e0c11	0.001205804
43	0xbc71da89	-0.0147615755
44	0x3d210c6d	0.03931849
45	0xbc82bb19	-0.015958356
46	0xbc9bbeac	-0.019011818
47	0xbd1ff6dd	-0.039053787
48	0x3d0c3abf	0.034235712
49	0x3b8d1cb0	0.0043063983
50	0x3c1099fa	0.008825773
51	0xbc63db8d	-0.013907325
52	0x3c80d431	0.01572618
53	0xbc1dfd59	-0.009642922
54	0x3c4ca17b	0.012489672
55	0x3cda5285	0.026650677
56	0xbd36f65c	-0.04466854
57	0x3cb808a2	0.022465054
58	0xba2d3e47	-0.00066087063
59	0xbd000bdd	-0.031261314
60	0xbccf1b70	-0.025281638
61	0x3bf34f0c	0.0074251946
62	0xbd710d83	-0.058850776
63	0x3ca6d1f8	0.020363793
64	0xbd5b0b00	-0.053477287
65	0xbd51a07b	-0.051178437
66	0x3d407ff1	0.046997014
67	0xbc00f033	-0.007869768
68	0x3c765bbb	0.015036519
69	0xba006329	-0.00048975885
70	0xbcf8c90b	-0.030369302
71	0x3b7a14ef	0.003815945
72	0x3cfdd06f	0.030983178
73	0x3d7ec7c5	0.062202234
74	0x3c089f84	0.008338813
75	0x3c00da91	0.00786461
76	0xbd8f87a2	-0.07008292
77	0x3ddac5a4	0.10682228
78	0x3d36a9a0	0.04459536
79	0xbd7680a4	-0.060181275
80	0x3de25c28	0.11052734
81	0xbcf334a7	-0.029688193
82	0xbb8587c1	-0.004075021
83	0x3b844b43	0.004037292
84	0x3d834450	0.06409514
85	0xbd33e945	-0.043923635
86	0xbc5e1c7d	-0.013556597
87	0x3c2f52b5	0.010700871
88	0x3d96e8d6	0.07368629
89	0xbbe4ec5e	-0.006986185
90	0xbca7948f	-0.02045658
91	0x3cbe27b4	0.023212291
92	0xbd58cef1	-0.05293173
93	0x3d12c450	0.03583175
94	0x3d5cfbb3	0.053950977
95	0x3d331fda	0.043731548
96	0xbce5e582	-0.02806354
97	0xbd02518f	-0.03181606
98	0x3cfb484a	0.030674119
99	0xbd13334e	-0.0359376
100	0x3c6d2f22	0.014476569
101	0xbd0dc432	-0.034610935
102	0xbcbe1bab	-0.023206552
103	0xbc49820e	-0.012299074
104	0x3d8ebd4d	0.069697
105	0x3cee77c1	0.029109837
106	0x3ce0db2f	0.027448265
107	0xb9e023de	-0.00042751333
108	0x3d227018	0.039657682
109	0xbce55e03	-0.02799893
110	0x3bfcd0d0	0.007715322
111	0x3e0992fd	0.13434978
112	0xbce80909	-0.02832462
113	0xbd7b7d9a	-0.06139908
114	0xbd259aa0	-0.040430665
115	0x3d917180	0.071017265
116	0x3cfff90b	0.031246683
117	0x3dda39a2	0.10655524
118	0x3cada61e	0.021197375
119	0x3b1acb93	0.0023619875
120	0x3abb1fc6	0.0014276437
121	0xbce3d4d1	-0.02781144
122	0x3dada746	0.084791705
123	0x3e336067	0.17517243
124	0xbc61ade8	-0.013774373
125	0x3bbf8146	0.005844268
126	0xbc35f171	-0.011104927
127	0xbd1dc6b4	-0.038519576
128	0x3c31ec3f	0.010859548
129	0x3d3b8b90	0.045787394
130	0x3c29a6a0	0.010354668
131	0x3d1a97df	0.03774249
132	0xbd01fd10	-0.03173548
133	0x3dc49a76	0.095997736
134	0x3e3120d8	0.17297685
135	0xbcdd00ad	-0.026977861
136	0xbc817178	-0.015801176
137	0x3b672476	0.0035269535
138	0x3b2f4edb	0.0026749882
139	0xbc4854c6	-0.012227243
140	0x3d1bdd0f	0.038052615
141	0xbc839124	-0.01606042
142	0xbca6f113	-0.020378625
143	0xbd21c8df	-0.039498206
144	0x3cee76aa	0.029109318
145	0xbabdae6b	-0.0014471536
146	0x3c14f56d	0.009091717
147	0xbc4a0e69	-0.012332537
148	0x3c85737c	0.016290419
149	0xbbd37f84	-0.00645441
150	0x3c2c2dc6	0.01050896
151	0x3ccb9778	0.0248525
152	0xbd29ea0b	-0.041482966
153	0x3ccb6f79	0.024833428
154	0xbb911a69	-0.004428197
155	0xbced87e1	-0.028995456
156	0xbcc0dfce	-0.023544218
157	0x3c29bb67	0.010359622
158	0xbd5dc7f9	-0.054145787
159	0x3cb81e62	0.022475425
160	0xbd4946e7	-0.049139883
161	0xbd4dabde	-0.050212733
162	0x3d45e03e	0.048309557
163	0xbbeecde5	-0.007287728
164	0x3c919965	0.01777334
165	0x39b4dbdf	0.00034496092
166	0xbd0adb23	-0.03390039
167	0x3c09cf44	0.008411232
168	0x3d0cac0d	0.034343768
169	0x3d6e115c	0.058122024
170	0x3b7d445f	0.0038645489
171	0x3bfdf472	0.0077500874
172	0xbd96e40e	-0.07367717
173	0x3de41e58	0.111386
174	0x3d286f17	0.04112157
175	0xbd75181b	-0.059837442
176	0x3de03728	0.1094802
177	0xbced6cda	-0.028982569
178	0xbb866f9d	-0.004102661
179	0x3b902e89	0.0044000787
180	0x3d78bf5d	0.060729373
181	0xbd2f29ce	-0.042764477
182	0xbc612700	-0.0137422085
183	0x3c33c267	0.010971642
184	0x3d8e9bf0	0.069633365
185	0xbb7569a5	-0.0037447002
186	0xbc9b2ede	-0.018943246
187	0x3cd487d3	0.025943672
188	0xbd64999d	-0.05581056
189	0x3d192b4c	0.037394807
190	0x3d599dca	0.053128995
191	0x3d2997bf	0.041404482
192	0xbcdf15b8	-0.027232036
193	0xbd02eacd	-0.031962205
194	0x3cfce07b	0.03086876
195	0xbd0d80e9	-0.034546766
196	0x3c7471a1	0.014919669
197	0xbd166585	-0.03671791
198	0xbcb5b2a7	-0.022179915
199	0xbc5eee6c	-0.013606649
200	0x3d89ceed	0.06728921
201	0x3cd84657	0.026400728
202	0x3cea1f0e	0.028579261
203	0xbba58991	-0.0050517996
204	0x3d1bfff5	0.038085897
205	0xbce2acb4	-0.027670242
206	0x3bcd7dfe	0.006271123
207	0x3e094a54	0.1340726
208	0xbcec25da	-0.028826643
209	0xbd769e32	-0.06020946
210	0xbd29b343	-0.041430723
211	0x3d8cf8c0	0.06883383
212	0x3d0d6fb0	0.03453034
213	0x3dd6bcef	0.10485255
214	0x3cb1ab27	0.021688057
215	0x3aa89a95	0.0012863452
216	0x3b571c9a	0.0032823444
217	0xbce013bf	-0.027353166
218	0x3dac07ad	0.083999015
219	0x3e349a89	0.17637075
220	0xbc402d9a	-0.011729622
221	0x3beb90cd	0.0071888925
222	0xbc788b37	-0.01516991
223	0xbd1e0e1a	-0.038587667
224	0x3c216b5b	0.009852256
225	0x3d440340	0.047854662
226	0x3c31073b	0.0108049465
227	0x3d164e38	0.03669569
228	0xbd03a01e	-0.03213512
229	0x3dbdcf1b	0.09268018
230	0x3e303b8b	0.17210214
231	0xbcd7ffce	-0.026367094
232	0xbc8a23ac	-0.016862713
233	0x3ae321fa	0.0017328851
234	0x3ab397e8	0.0013701888
235	0xbc5b2ee3	-0.013377878
236	0x3d19f872	0.03759045
237	0xbc90c8af	-0.017673818
238	0xbcb05691	-0.021525653
239	0xbd19163e	-0.037374727
240	0x3cf18298	0.029481217
241	0xbb7d5204	-0.0038653621
242	0x3c1a4322	0.00941542
243	0xbc447cd3	-0.011992651
244	0x3c662020	0.014045745
245	0xbbb773d5	-0.005598525
246	0x3bfd5b50	0.0077318326
247	0x3cb726e0	0.022357404
248	0xbd24aedf	-0.040205833
249	0x3ccd7e21	0.025084557
250	0xbbddacbf	-0.0067649777
251	0xbcebd002	-0.02878571
252	0xbcd5bbd3	-0.026090538
253	0x3c17a869	0.009256461
254	0xbd60b804	-0.05486299
255	0x3cb27b11	0.021787198

model_4/gru_9/gru_cell/strided_slice_4 f4 [48]
0	0xbd82ac2d	-0.06380496
1	0x3ceed213	0.029152906
2	0xbe23b6a6	-0.15987644
3	0x3d3b9758	0.04579863
4	0xbd020d40	-0.031750917
5	0xbe1171cc	-0.14203566
6	0x3da6bcd6	0.08141486
7	0x3d0ac517	0.033879366
8	0xbdddc69a	-0.10828896
9	0x3c516e3f	0.012782632
10	0xbe4179a3	-0.18894057
11	0xbe328fc7	-0.17437659
12	0xbe1a0f4e	-0.15044901
13	0xbe33d733	-0.1756256
14	0xbd6ab0b7	-0.057297435
15	0xbe3b7bad	-0.18308897
16	0xbdb72e7d	-0.08944414
17	0xbe160644	-0.14650828
18	0xbe01225f	-0.12610768
19	0xbd60a17b	-0.0548415
20	0xbe3a4670	-0.18190932
21	0xbe0f0627	-0.1396719
22	0xbe172b86	-0.14762697
23	0xbe0bf354	-0.13667041
24	0xbe02cd2a	-0.12773576
25	0x3d966496	0.07343404
26	0xbe513d48	-0.20433533
27	0xbdc4300e	-0.09579478
28	0xbdc1ad06	-0.0945683
29	0xbd6be681	-0.057592873
30	0xbe3f91b7	-0.1870793
31	0xbe169f65	-0.14709242
32	0xbd417825	-0.04723372
33	0xbd96a9c3	-0.07356598
34	0xbe0db25d	-0.13837571
35	0xbe0f1d69	-0.13976063
36	0xbe7f9b2e	-0.2496154
37	0xbba01a4b	-0.004885947
38	0xbe45cff1	-0.19317605
39	0xbd86ef3e	-0.065886006
40	0xbe731902	-0.23740008
41	0x3d87ec64	0.06636885
42	0xbe0761b2	-0.13220862
43	0xbdd205a4	-0.10254982
44	0xbe551d82	-0.20812038
45	0xbcd3205d	-0.025772268
46	0xbdac7eea	-0.084226444
47	0xbe1b653c	-0.15175337

model_4/gru_9/gru_cell/strided_slice_3 f4 [48]
0	0xbd02fe31	-0.031980697
1	0xbe0678bc	-0.13131994
2	0x3d9a1890	0.07524216
3	0x3e6c3d37	0.23070227
4	0x3e91f47e	0.28506845
5	0x3e7a7749	0.24459566
6	0x3e95fcc4	0.29294407
7	0x3e875dbe	0.26438707
8	0x3debc155	0.115114845
9	0x3ab19435	0.0013548197
10	0xbd068f63	-0.032851588
11	0x3eac8985	0.3369867
12	0x3ee63023	0.449586
13	0x3e5e1ff4	0.21691877
14	0x3f1b4361	0.6064969
15	0x3e91a43d	0.28445616
16	0x3de105b1	0.10987414
17	0xbd2ea2fc	-0.042635903
18	0x3f03b066	0.5144104
19	0x3e41b824	0.189179
20	0x3d0eadb8	0.03483364
21	0x3e93b85d	0.28851596
22	0x3e5084e6	0.20363197
23	0x3eab5621	0.3346415
24	0x3ea680ad	0.32520047
25	0x3e629600	0.22127533
26	0x3e572bc3	0.21012788
27	0x3e4faade	0.20280024
28	0xbd3b4290	-0.045717776
29	0x3e1598da	0.1460909
30	0x3eb6c774	0.35699046
31	0x3dd0ccff	0.1019535
32	0x3f1bbddc	0.6083658
33	0x3e8c34e7	0.2738411
34	0x3e0241b2	0.12720373
35	0xbd79b17d	-0.06096028
36	0x3ebc5dcb	0.36790308
37	0x3e23ce28	0.15996611
38	0x3e3468d6	0.17618117
39	0x3e6cbde0	0.23119307
40	0x3e98cac7	0.29842207
41	0x3ec4f056	0.38464612
42	0x3df6490e	0.12025653
43	0x3dfe3dcd	0.12414131
44	0x3db94399	0.09046096
45	0x3e9c4d79	0.30527857
46	0xbdcb6d7c	-0.09932992
47	0x3e60961b	0.2193226

model_4/gru_9/gru_cell/strided_slice_5 f4 [48]
0	0xbcc1c7c8	-0.023654833
1	0xbd92a71d	-0.071607806
2	0x3cb8a477	0.02253936
3	0xbe2e278b	-0.17007272
4	0x3c993683	0.018702751
5	0x3da35fdb	0.07977267
6	0x3d94d595	0.072673
7	0x3d925ec6	0.07146983
8	0x3e4ff2f0	0.20307517
9	0x3dd7d60a	0.105388716
10	0x3da27ff6	0.07934563
11	0xbcf21fbf	-0.029556153
12	0x3d5af764	0.053458586
13	0x3e0c4918	0.13699758
14	0xbe3be6e4	-0.18349797
15	0xbd416a24	-0.047220364
16	0xbda4d611	-0.080486424
17	0xbd56817d	-0.052369583
18	0xbe232456	-0.1593183
19	0x3e0155c4	0.12630373
20	0x3e31f86e	0.17379925
21	0xbcefe673	-0.029284691
22	0x3dab153f	0.08353662
23	0x3d8a6a25	0.06758527
24	0x3e564586	0.20924959
25	0xbe8053f6	-0.25064057
26	0x3dfaa30c	0.1223813
27	0xbca9ba88	-0.020718828
28	0x3d74d6dc	0.05977522
29	0x3c49bf9d	0.012313751
30	0x3c9bba66	0.01900978
31	0xbe2a47e9	-0.16628994
32	0x3d51c3c1	0.051212076
33	0x3c0d3b4a	0.008620093
34	0x3d6a2e75	0.05717321
35	0x3e162c1e	0.14665267
36	0xbc8c656c	-0.017138205
37	0xbd38168e	-0.044943385
38	0xbe275c64	-0.16343838
39	0xbd62d846	-0.055382036
40	0x3dc63ba0	0.09679341
41	0x3e34db5e	0.17661807
42	0xbda0535b	-0.07828399
43	0x3c6cc497	0.014451168
44	0xbd390781	-0.045173172
45	0x3de13af4	0.109975725
46	0xbcf7662b	-0.030200085
47	0x3e178140	0.14795399

model_4/gru_9/gru_cell/strided_slice_11 f4 [48]
0	0xbcd7756e	-0.026301112
1	0xbdb5bf8d	-0.08874426
2	0xbd1e6472	-0.03867001
3	0xbdc1784e	-0.094467744
4	0x3ba1462e	0.004921696
5	0x3c9a4a22	0.018834177
6	0x3dd5a77c	0.10432336
7	0x3da8a4d1	0.08234561
8	0x3e7b7dcd	0.24559708
9	0xbc590a33	-0.013247061
10	0x3d9226b0	0.07136285
11	0x3be8aafb	0.0071004606
12	0x3daadc94	0.08342853
13	0x3d1d9653	0.03847344
14	0xbe2f1ca8	-0.17100775
15	0xbc0d4c81	-0.008624197
16	0xbd24963b	-0.040182333
17	0xbcd70638	-0.026248083
18	0xbe05cc80	-0.13066292
19	0x3d946e20	0.07247567
20	0x3d8833dc	0.066505164
21	0xbcb4f3f6	-0.022088986
22	0x3d9171b2	0.07101764
23	0xbd828ff6	-0.063751146
24	0x3e061481	0.13093759
25	0xbe772d7e	-0.24138448
26	0x3da47cfb	0.08031651
27	0xbdcf4326	-0.101202294
28	0x3d9b32b3	0.075780295
29	0xbc8adc92	-0.01695088
30	0xbd14bcd8	-0.036312908
31	0xbe2017cb	-0.15634076
32	0x3d66ba5a	0.056330062
33	0x3c856dc0	0.016287684
34	0xbd80d56a	-0.062907055
35	0x3ddd31c7	0.1080051
36	0x3c878693	0.016543662
37	0x3d22e09a	0.039764978
38	0xbda6d8a0	-0.08146787
39	0xbd15bc60	-0.0365566
40	0xbd6a6f73	-0.057235193
41	0x3e2fbde8	0.17162287
42	0xbd9ce497	-0.076607876
43	0x3b646b3b	0.0034853953
44	0x3d61bc85	0.055111427
45	0x3d4ae73a	0.04953692
46	0xbc0171c1	-0.007900656
47	0x3d30be6f	0.04315036

model_4/gru_8/gru_cell/strided_slice_4 f4 [96]
0	0xbe1c7c6b	-0.15281837
1	0xbeaec329	-0.3413327
2	0xbd038840	-0.03211236
3	0xbe4c5cce	-0.19957277
4	0xbdd5f1c2	-0.10446502
5	0x3e3556be	0.17708871
6	0x3e3eb2c4	0.18622881
7	0x3e31a9e0	0.17349958
8	0xbd9871ad	-0.07443557
9	0xbe251faf	-0.16125368
10	0xbdf79941	-0.12089778
11	0x3e2df9e5	0.16989858
12	0x3da9921a	0.0827982
13	0xbe17e2c6	-0.14832601
14	0xbcc5ec41	-0.024160506
15	0xbd1074a2	-0.03526748
16	0xb88672c0	-6.410992e-05
17	0x3acd73c8	0.0015674764
18	0xbe16b150	-0.14716077
19	0x3d92b51e	0.071634516
20	0x3cbd0d61	0.023077669
21	0xbc0f628c	-0.008751523
22	0xbe21772b	-0.15768115
23	0xbd67d3c8	-0.056598455
24	0x3d84e6db	0.06489345
25	0xbe5546d4	-0.208278
26	0xbe154e37	-0.14580618
27	0x3d624aa0	0.05524695
28	0xbe02642d	-0.12733527
29	0xbd93a613	-0.072094105
30	0xbcd00141	-0.025391223
31	0x3d0f2a6a	0.03495256
32	0xbdbbe73c	-0.09174964
33	0xbe56d084	-0.2097798
34	0xbd661ef2	-0.056181855
35	0x3dcd16c9	0.100141115
36	0xbe759706	-0.23983392
37	0xbe0d2fc7	-0.13787757
38	0xbddf4d0f	-0.1090337
39	0x3d8803b3	0.066413306
40	0xbe1d71be	-0.1537542
41	0x3cfdcef4	0.030982472
42	0xbe550b0e	-0.20804998
43	0xbe2a9ec7	-0.16662131
44	0xbe64a0b3	-0.22326927
45	0xbdc9933a	-0.09842534
46	0xbe1dc553	-0.15407304
47	0x3b1cad6d	0.002390708
48	0x3d2c6d1d	0.042096246
49	0x3db2792c	0.08714518
50	0x3d2e4d63	0.04255427
51	0x3ca1d2e3	0.019753879
52	0xbdccf4fd	-0.10007665
53	0xbd9fd974	-0.07805148
54	0x3d885953	0.06657662
55	0xbdad114a	-0.08450563
56	0xbe39b876	-0.18136773
57	0x3dd6efdd	0.10494969
58	0xbd150052	-0.03637726
59	0x3c2d74bf	0.0105869165
60	0xbd1aabf5	-0.037761647
61	0xbd8c949b	-0.06864282
62	0xbdd496a2	-0.103802934
63	0xbe251a79	-0.1612338
64	0xbcf31a4d	-0.029675627
65	0xbe4cc500	-0.19997025
66	0xbd297b80	-0.041377544
67	0xbb8c324f	-0.004278458
68	0xbeb6ffbc	-0.35741985
69	0x3d0cbe00	0.034360886
70	0xbe589683	-0.21151166
71	0xbd30ff5f	-0.04321229
72	0xbdafff6f	-0.08593642
73	0x3cd3d253	0.025857126
74	0xbd9f80cc	-0.07788238
75	0x3e1f2f7c	0.15545458
76	0xbd81ce05	-0.06338123
77	0x3c478848	0.012178488
78	0xbd9b6ec7	-0.075894885
79	0xbd8b5b05	-0.0680447
80	0x3df2757c	0.118388146
81	0xbcc135a5	-0.02358515
82	0xbe9864c4	-0.29764378
83	0x3da62875	0.08113185
84	0xbe113f9c	-0.14184421
85	0xbbf52667	-0.0074813846
86	0xbe3815a5	-0.17977007
87	0xbe777e74	-0.24169332
88	0xbdb4a399	-0.08820266
89	0xbe248966	-0.16068038
90	0xbdeaaf2f	-0.11459195
91	0xbbab3184	-0.0052244086
92	0xbdab5ece	-0.08367692
93	0x3c0de950	0.008661583
94	0x3dda7062	0.106659666
95	0xbde65a55	-0.11247698

model_4/gru_8/gru_cell/strided_slice_3 f4 [96]
0	0x3e309992	0.17246082
1	0xbe1d6d4b	-0.15373723
2	0x3d1abcb2	0.03777761
3	0xbc5b5b24	-0.013388429
4	0x3dcbeed1	0.0995766
5	0x3ede9b02	0.43477637
6	0x3ebc4c14	0.36776793
7	0x3dad5f67	0.08465462
8	0x3ea345da	0.3188923
9	0x3e86c54c	0.263224
10	0x3d1f1165	0.038834948
11	0x3edb410f	0.42823073
12	0x3edb1d4b	0.42795786
13	0xbd88d383	-0.06680968
14	0xbcb1a501	-0.021685125
15	0x3e028ad2	0.12748268
16	0xbe5fb43b	-0.21846096
17	0x3ea0974a	0.31365424
18	0x3d9d8586	0.07691483
19	0x3ec0b6ba	0.3763941
20	0x3e340881	0.17581369
21	0x3e02bcee	0.12767383
22	0x3da33778	0.07969564
23	0x3e226e83	0.1586247
24	0x3eaf8dac	0.34287775
25	0x3db2bd14	0.0872747
26	0xbcae1ca5	-0.021253893
27	0x3ec5b3e8	0.3861382
28	0x3e3a6df9	0.18206014
29	0xbdb93793	-0.09043803
30	0xbd2d195f	-0.042260524
31	0x3bd59280	0.0065177083
32	0x3de4557a	0.11149116
33	0xbe3638c8	-0.17795098
34	0xbd4addbf	-0.04952788
35	0x3ea41791	0.3204923
36	0x3daa4c5e	0.08315347
37	0x3e63f432	0.22261122
38	0x3e690037	0.22753988
39	0x3e2bd858	0.16781747
40	0x3e9b19d6	0.3029315
41	0x3ef2d53d	0.47428313
42	0xbe4a0148	-0.19727051
43	0x3df8f6a3	0.12156417
44	0xbca549d3	-0.020176804
45	0xbe523e15	-0.20531495
46	0x3db0d650	0.08634627
47	0x3e82ee8e	0.25572628
48	0x3e169eaa	0.14708963
49	0xbddd8ca6	-0.10817842
50	0x3ee5bcb1	0.44870523
51	0x3e7701f0	0.24121833
52	0x3dbc5d3e	0.09197472
53	0x3e83a09d	0.25708476
54	0x3e8a2a4a	0.2698539
55	0x3db37ae8	0.08763677
56	0x3e54a558	0.20766199
57	0x3f0925ec	0.5357349
58	0xbe24efba	-0.16107073
59	0x3e825e30	0.25462484
60	0x3d696512	0.056981154
61	0x3e8310b2	0.25598675
62	0xbdc5dc27	-0.09661131
63	0x3eb9c43a	0.3628252
64	0x3e1f741e	0.15571639
65	0x3e0d2e89	0.13787283
66	0x3d3376b8	0.04381439
67	0x3e96d557	0.2945964
68	0xbeba82ba	-0.3642786
69	0x3e0e3caa	0.13890329
70	0x3c8f48f9	0.01749085
71	0x3db506d1	0.08839191
72	0x3c19b233	0.009380865
73	0xbd86d25e	-0.06583093
74	0x3e63ce0f	0.22246574
75	0x3e081423	0.13288932
76	0x3eabbc71	0.33542207
77	0x3e2051b1	0.15656163
78	0xbea55357	-0.32290146
79	0x3e192904	0.14957052
80	0x3e9d3e26	0.30711478
81	0x3ed7021b	0.41993794
82	0x3df0a209	0.11749656
83	0x3e392fd8	0.18084657
84	0xbd8067fa	-0.06269832
85	0x3e951775	0.2911946
86	0xbbf53e2a	-0.007484217
87	0x3d5b27f1	0.053504888
88	0x3db5d865	0.088791646
89	0x3df86fc5	0.12130693
90	0x3ed4ffa2	0.41601282
91	0x3e2584b8	0.1616391
92	0x3e41a51e	0.18910643
93	0x3d36a1b6	0.044587813
94	0x3e978030	0.29589987
95	0x3e9388b8	0.28815246

model_4/gru_8/gru_cell/strided_slice_5 f4 [96]
0	0xbd9fe264	-0.078068525
1	0xbc987d4b	-0.018614432
2	0x3d1a6be2	0.03770054
3	0x3d1d4fe7	0.03840628
4	0xbd482095	-0.048859198
5	0x3e1a73a3	0.15083174
6	0xbded685b	-0.1159217
7	0xbc3bf488	-0.011471875
8	0xbd90fcef	-0.07079493
9	0xbcaba24a	-0.020951409
10	0x3c8d2215	0.017228166
11	0x3db96fa9	0.090545006
12	0xbd9879f8	-0.07445139
13	0xbd55e335	-0.052218635
14	0x3c1bf8ea	0.009519795
15	0xbc28e14e	-0.010307623
16	0x3da4d92f	0.08049237
17	0xbc0ff2ee	-0.008785946
18	0xbc7b681d	-0.015344647
19	0xbce7ddbf	-0.028303979
20	0xb9ccf84d	-0.0003909491
21	0x3ba6509a	0.0050755264
22	0xbcd652e6	-0.026162576
23	0xbd6ee553	-0.05832417
24	0x3dd0212b	0.10162576
25	0x3c971485	0.018442402
26	0xbd635c3d	-0.055507887
27	0xbbf9a7b9	-0.007618871
28	0x3db1bfa0	0.08679128
29	0xbdbeb71e	-0.093122706
30	0x3dcea771	0.10090531
31	0x3cdf0955	0.02722613
32	0x3d808b9e	0.0627663
33	0x3c94bd51	0.01815668
34	0xbd4695a4	-0.048482552
35	0xbe3357a6	-0.17513904
36	0xb9c177b3	-0.00036901011
37	0xbcdaf53b	-0.026728263
38	0x3d0979ba	0.033563353
39	0x3c862f47	0.016379965
40	0xbca9194e	-0.020641949
41	0xbc8838d2	-0.016628657
42	0xbd8c4075	-0.06848232
43	0xbcd96bb2	-0.026540611
44	0xbd29dbf7	-0.04146954
45	0xbd7ac9a9	-0.061227474
46	0xbc151148	-0.009098358
47	0xbcd9c096	-0.02658109
48	0xbd995629	-0.07487137
49	0x3b57e5cf	0.0032943373
50	0x3db47286	0.08810906
51	0xbccfd61a	-0.025370646
52	0x3ab7a41e	0.0014010703
53	0x3c79c239	0.01524406
54	0x3c28fa07	0.010313517
55	0x3d3ae82a	0.045631565
56	0x3d963505	0.073343314
57	0x3d38bfed	0.04510491
58	0xbcd0ee15	-0.025504151
59	0x3ce60a0d	0.028080964
60	0xbd2baf9e	-0.04191553
61	0xbc9e8644	-0.019351132
62	0x3d69e2c4	0.057101026
63	0x3c6fc14b	0.014633487
64	0x3d362629	0.044469986
65	0xbd9aa50d	-0.07551012
66	0xbdf63811	-0.120224126
67	0xbc808778	-0.015689597
68	0xbdb7e02c	-0.08978304
69	0xbd335e4e	-0.043791108
70	0xbe0a3561	-0.13496925
71	0x3d9fe359	0.07807035
72	0xbd85ae74	-0.06527415
73	0x3bd90037	0.00662234
74	0x3d2d6a33	0.042337608
75	0xbd4f302f	-0.05058306
76	0xbcb0d59d	-0.021586234
77	0x3d2a3489	0.041554008
78	0x3d31f2ee	0.043444566
79	0x3dc7353f	0.09726953
80	0xbdb52922	-0.08845736
81	0xbcee20c6	-0.029068362
82	0x3c5fe259	0.013664805
83	0x3c655376	0.013996949
84	0x3d850363	0.064947866
85	0xbc2db8d2	-0.010603147
86	0xbd58b3cf	-0.052905854
87	0x3d0f30d0	0.03495866
88	0x3aae165c	0.001328181
89	0x3d083d2c	0.033261463
90	0x3d2b043e	0.041752093
91	0xbc2a3732	-0.010389136
92	0xbdd036bd	-0.101666905
93	0xbd47a89d	-0.048744787
94	0x3bfaff61	0.007659838
95	0xbcf0c5b5	-0.029391149

model_4/gru_8/gru_cell/strided_slice_11 f4 [96]
0	0xbd3a7e9e	-0.045530908
1	0xbd4139b2	-0.047174163
2	0x3d571291	0.05250794
3	0x3d8e6944	0.069536716
4	0xbc77563a	-0.015096242
5	0x3d4b5492	0.0496412
6	0xbc69910e	-0.014255775
7	0x3d60f4ee	0.054921083
8	0xbd07961d	-0.033102144
9	0x3d575dfc	0.052579865
10	0x3dcc37e9	0.099716015
11	0x3dc5a07c	0.096497506
12	0xbd874f88	-0.06606966
13	0xbd16e360	-0.036837935
14	0xbcf23b52	-0.029569302
15	0xbcb1e351	-0.021714838
16	0x3d759e5c	0.059965476
17	0x3c3a3206	0.011364466
18	0xbd5e0288	-0.054201633
19	0xbd9caa93	-0.07649722
20	0xbc1db7cb	-0.009626339
21	0xbd1ac2a9	-0.0377833
22	0xbbabfa3f	-0.0052483375
23	0xbe05066e	-0.12990734
24	0x3d5edb30	0.054408252
25	0x3cc44f5e	0.023963626
26	0xbc6a7e8d	-0.014312399
27	0x3c4900fb	0.0122683
28	0x3d3afcbd	0.045651186
29	0xbdaa680c	-0.083206266
30	0xbc752c02	-0.014964106
31	0xbd5da131	-0.054108802
32	0x3d3d3216	0.046190344
33	0xbccb6b4c	-0.024831437
34	0xbdae3695	-0.085065044
35	0xbdcb9949	-0.09941346
36	0xbce23c06	-0.027616512
37	0xbb467209	-0.0030280373
38	0xbd1d4012	-0.03839118
39	0x3d35b258	0.044359535
40	0xbd71d101	-0.059037212
41	0xbd979db7	-0.074031286
42	0xbd76b68b	-0.06023268
43	0xbc259038	-0.010105185
44	0xbd258e94	-0.040419176
45	0xbd5d8a4f	-0.05408698
46	0x3d876300	0.066106796
47	0xbcafce51	-0.021460684
48	0xbd84e1a3	-0.06488349
49	0x3c2b8244	0.010468069
50	0x3ddd90c2	0.10818626
51	0x3ce9883d	0.028507346
52	0xbb061775	-0.0020460759
53	0x3bfba6ec	0.0076798107
54	0xbcd0bf4c	-0.025481842
55	0x3d06f48d	0.032948066
56	0x3cd143d5	0.02554504
57	0x3cbf0717	0.02331881
58	0xbcadd313	-0.021218812
59	0x3d3d1bac	0.046168968
60	0xbc88094b	-0.016605994
61	0xbcfc7498	-0.030817315
62	0x3cb706b8	0.022342071
63	0x3cb04a61	0.021519842
64	0xbc02aba7	-0.007975495
65	0xbd1c4c1e	-0.03815853
66	0xbd70abab	-0.058757465
67	0x3c8ed4c5	0.01743544
68	0xbc156155	-0.009117444
69	0xbc0d0f95	-0.008609672
70	0xbd9712cb	-0.07376631
71	0x3dd53cab	0.10411962
72	0xbcd36283	-0.02580381
73	0x3db1f152	0.08688606
74	0x3d9dbc52	0.07701935
75	0xbd3e80cd	-0.046509553
76	0xbd9be229	-0.07611496
77	0xbc01535e	-0.007893411
78	0x3ddc2eb5	0.10751096
79	0x3d41c2db	0.04730497
80	0xbd301951	-0.042992894
81	0xbd5369b7	-0.05161449
82	0x3cbb9b6c	0.02290126
83	0x3da3da60	0.08000636
84	0x3c90fc78	0.017698511
85	0xbcd5e50c	-0.026110195
86	0x3b3e4766	0.0029034256
87	0xbca80fa8	-0.020515278
88	0xbc12ebed	-0.008967382
89	0x3bc621aa	0.0060464935
90	0xbd9dbc0d	-0.077018835
91	0x3cd1fc78	0.025633082
92	0xbd53975a	-0.051658012
93	0xbc78cc53	-0.015185433
94	0x3add7c7d	0.0016898062
95	0xbdcb206c	-0.09918293

model_4/batch_normalization_19/batchnorm/sub f4 [48]
0	0x3ea50df0	0.32237196
1	0x3ec005ae	0.37504333
2	0x3e85bce9	0.2612069
3	0x3e7b3875	0.24533255
4	0xbe89dd46	-0.2692663
5	0xbea01ff2	-0.31274372
6	0x3f0f9286	0.5608295
7	0xbf25b957	-0.6473593
8	0xbf7661ea	-0.96243155
9	0xbef34bec	-0.4751886
10	0xbe85ff6e	-0.2617144
11	0x3d33275e	0.043738715
12	0xbf21f5eb	-0.63265866
13	0xbedc801d	-0.43066493
14	0x3fdd734e	1.7300813
15	0x3ca7e3e0	0.020494401
16	0x3f5d8021	0.86523634
17	0x3f02dcba	0.5111805
18	0x3f630755	0.8868306
19	0xbf2150c6	-0.63013875
20	0xbf619fd2	-0.8813449
21	0xbe805a49	-0.25068882
22	0xbec09f02	-0.37621313
23	0x3e6ff32b	0.23432605
24	0xbfa80b89	-1.312852
25	0x3fb9ab7f	1.4505461
26	0xbf122800	-0.57092285
27	0x3d69e39c	0.05710183
28	0xbf6eb7d9	-0.9324928
29	0x3e72651e	0.23671386
30	0xbe1b5c5e	-0.15171954
31	0x3f3841ed	0.71975595
32	0xbee68e2d	-0.45030347
33	0x3f1bd74a	0.6087538
34	0x3ee13270	0.43983793
35	0xbf2c87c7	-0.6739468
36	0x3d4c9cc2	0.049954183
37	0xbe8744a6	-0.26419562
38	0x3e7224f2	0.23646906
39	0xbd750997	-0.0598236
40	0xbea43dea	-0.32078487
41	0xbf9d4d11	-1.2289144
42	0xbe8f9afd	-0.28047934
43	0x3e1a6a2c	0.15079564
44	0xbe9efbc6	-0.31051463
45	0x3ee6bb95	0.4506499
46	0xbea55fc8	-0.32299638
47	0xbf22ae3e	-0.6354712

model_4/batch_normalization_19/batchnorm/mul f4 [48]
0	0x40509d4b	3.2596004
1	0x4064d262	3.5753407
2	0x40720949	3.7818167
3	0x404de76a	3.2172494
4	0x405bf889	3.4370444
5	0x4088fe61	4.281052
6	0x4080eb80	4.0287476
7	0x408c9cf3	4.394159
8	0x407319c0	3.7984467
9	0x4074751f	3.8196485
10	0x4082cdef	4.0876384
11	0x408b1a2c	4.346945
12	0x40833630	4.1003647
13	0x4087349c	4.225172
14	0x40abc9a1	5.368363
15	0x408b8ec4	4.3611774
16	0x407d7f92	3.9609113
17	0x407e04c3	3.9690406
18	0x40adacf2	5.4273615
19	0x40705059	3.754904
20	0x406ebc9a	3.7302613
21	0x40886e70	4.263481
22	0x409f5316	4.9788923
23	0x409a4eaf	4.822105
24	0x40ac0c59	5.3765073
25	0x4085e865	4.1846185
26	0x408e2781	4.4423223
27	0x4074ced5	3.825124
28	0x4073956c	3.805995
29	0x4076e6a4	3.8578272
30	0x4080f87c	4.0303326
31	0x406caf19	3.698187
32	0x40781c28	3.8767185
33	0x40a3e4c1	5.121674
34	0x407fc5e8	3.9964542
35	0x405ef27c	3.48355
36	0x408efb31	4.468163
37	0x40554f54	3.3329668
38	0x4082cdaf	4.087608
39	0x4078f044	3.8896646
40	0x4099cb0a	4.806035
41	0x406163e5	3.521722
42	0x4071cef5	3.7782567
43	0x4072f613	3.7962692
44	0x40810f56	4.033122
45	0x403e021c	2.9688787
46	0x406ff561	3.7493517
47	0x406b2c61	3.6745837

model_4/batch_normalization_18/batchnorm/sub f4 [96]
0	0x3e85597f	0.26044843
1	0xbde0f3c9	-0.10983998
2	0x3f84931f	1.0357398
3	0x3f3ef317	0.74589676
4	0xbeeac929	-0.45856598
5	0xbeeba914	-0.46027434
6	0xbdce50d1	-0.10074008
7	0xbe6fbb26	-0.23411235
8	0xbee6c4c0	-0.45071983
9	0xbf635ac9	-0.888104
10	0xbe30a919	-0.17252006
11	0xbf751911	-0.95741373
12	0x3f71b7f6	0.9442133
13	0x3c45bddc	0.012069192
14	0x3e594e5a	0.21221295
15	0xbd753ea6	-0.0598742
16	0xbf0d8b99	-0.55291134
17	0xbd91d937	-0.071215086
18	0xbf41a74e	-0.7564591
19	0xbf32ce7f	-0.6984634
20	0x3d37c4d0	0.04486543
21	0x3d561a4e	0.05227118
22	0x3ec78196	0.38966054
23	0x3bf81340	0.007570654
24	0x3f24e098	0.644052
25	0xbe97329c	-0.295308
26	0x3d9d697e	0.07686137
27	0xbeb9ef3f	-0.36315343
28	0xbe12f5f4	-0.14351636
29	0xbe06b4c0	-0.13154888
30	0x3dfbd3b3	0.12296238
31	0x3e325e59	0.17418803
32	0xbe5b86aa	-0.21438089
33	0xbf7b31fc	-0.98123145
34	0xbf49be32	-0.7880584
35	0x3e3bf84d	0.18356438
36	0xbd82248d	-0.06354628
37	0x3dcdd275	0.10049907
38	0xbf190c3b	-0.5978429
39	0xbe997747	-0.29973814
40	0xbf168859	-0.588018
41	0x3f425ffb	0.75927705
42	0xbdbc54cf	-0.091958635
43	0xbcc8bdbc	-0.024504535
44	0x3eb22928	0.34797025
45	0xbf7f4902	-0.99720776
46	0xbeb683b2	-0.3564735
47	0xbee5d9ee	-0.4489283
48	0xbecfcc6e	-0.40585655
49	0xbf1b9d94	-0.6078732
50	0x3faa8f47	1.3324975
51	0x3e803890	0.25043154
52	0xbe99c486	-0.30032748
53	0x3d5fb2ae	0.05461376
54	0xbfa9601c	-1.3232455
55	0x3e9ab20e	0.3021397
56	0x3db522ae	0.08844505
57	0xbf831e96	-1.0243709
58	0xbef265dc	-0.47343338
59	0x3f14b400	0.5808716
60	0xbeef90ea	-0.46790248
61	0xbf117bbd	-0.56829435
62	0x3f50315b	0.8132531
63	0x3f589862	0.8460752
64	0xbed1f0ab	-0.41003928
65	0xbf08eb2d	-0.5348385
66	0x3ef95d9f	0.4870424
67	0xbe5ae4c6	-0.21376333
68	0xbf2d3dc7	-0.6767239
69	0x3f08ff4e	0.53514564
70	0xbc6a7ea8	-0.014312424
71	0x3e8a6ee8	0.2703774
72	0xbe590cbd	-0.21196266
73	0x3e9c4f05	0.30529037
74	0x3f82ce36	1.021918
75	0xbeb132dc	-0.34609115
76	0xbf62802c	-0.88476825
77	0x3e3a4a00	0.18192291
78	0x3ce1e33d	0.027574176
79	0x3ed46d4c	0.41489637
80	0xbf45b0a9	-0.77222687
81	0xbf4dc028	-0.8037133
82	0x3e351e36	0.17687306
83	0x3ea87b59	0.32906607
84	0x3f5a15be	0.85189426
85	0x3ed3b8cb	0.41351923
86	0xbed30229	-0.41212586
87	0x3e175228	0.14777434
88	0x3d7e3ca3	0.062069546
89	0xbea5c893	-0.32379588
90	0xbf9330d5	-1.1499277
91	0xbfb0a0d1	-1.3799077
92	0xbf6625f4	-0.8990166
93	0xbccce69c	-0.025012307
94	0xbdda89bb	-0.10670801
95	0xbe99a834	-0.3001114

model_4/batch_normalization_18/batchnorm/mul f4 [96]
0	0x4053d137	3.3096445
1	0x412b5706	10.708746
2	0x4098036f	4.750419
3	0x40a52bc8	5.1615944
4	0x404a263f	3.1585844
5	0x402ec07b	2.730498
6	0x40182d63	2.3777702
7	0x401fd2bc	2.4972372
8	0x4031dc04	2.7790537
9	0x408b1ee8	4.3475227
10	0x40946eec	4.6385403
11	0x408e558c	4.4479427
12	0x40277738	2.6166515
13	0x40a664ec	5.1998196
14	0x4076eb94	3.8581285
15	0x40856e7f	4.1697383
16	0x40a0a3fa	5.0200167
17	0x40164500	2.3479614
18	0x409ecd8a	4.96259
19	0x401d2db4	2.4559145
20	0x4020bf5c	2.5116796
21	0x40936ddb	4.60716
22	0x408f57e3	4.4794784
23	0x40586aca	3.381518
24	0x40796ad5	3.8971455
25	0x4083735a	4.107831
26	0x41024fa3	8.144443
27	0x4039c8c9	2.90288
28	0x40187106	2.3818984
29	0x4004164a	2.0638604
30	0x40ac2353	5.379312
31	0x403d9d3f	2.9627225
32	0x40ec6b3b	7.3880897
33	0x409bb920	4.8663483
34	0x40c3da1e	6.1203756
35	0x3fb0a870	1.3801403
36	0x410734ad	8.45036
37	0x407e55f1	3.9739954
38	0x40a78ce6	5.2359495
39	0x4030d1c8	2.762804
40	0x404971ad	3.1475632
41	0x404f7ec5	3.2421124
42	0x40883c23	4.257341
43	0x40dfe5ef	6.996818
44	0x40c0da1d	6.026625
45	0x40242d47	2.5652635
46	0x40ce4801	6.4462895
47	0x4027293e	2.6118922
48	0x3ffb449a	1.963031
49	0x408eed92	4.4665003
50	0x404478c6	3.0698714
51	0x400bc2ee	2.1837726
52	0x4007152e	2.1106677
53	0x406fe37f	3.7482603
54	0x4033c5cc	2.8089476
55	0x406118d3	3.5171402
56	0x40b21726	5.5653257
57	0x4070aa61	3.760399
58	0x40af35ce	5.475318
59	0x400f4a83	2.2389228
60	0x408c9984	4.3937397
61	0x406b0eaf	3.6727712
62	0x40f44b95	7.6342263
63	0x406fb095	3.7451527
64	0x3fdb8244	1.7149129
65	0x404ca39c	3.197486
66	0x4012f0d6	2.2959495
67	0x402458fb	2.567931
68	0x40b38de5	5.611071
69	0x403e0554	2.9690752
70	0x404f5572	3.2395902
71	0x401e6cc2	2.475388
72	0x4065eacd	3.592456
73	0x406a9ffa	3.6660142
74	0x40a38ce8	5.1109505
75	0x404264c3	3.0374
76	0x403881e3	2.8829277
77	0x4082fa59	4.09306
78	0x40d77386	6.732852
79	0x40b4cb99	5.649853
80	0x402c048f	2.6877782
81	0x402c30c0	2.6904755
82	0x41462244	12.383366
83	0x3ff92374	1.9463944
84	0x40577a96	3.366857
85	0x4018a2c9	2.3849356
86	0x40c7098a	6.2199144
87	0x41165abe	9.397154
88	0x4093cc7d	4.618712
89	0x4118ddb9	9.5541315
90	0x408c7d6a	4.3903093
91	0x40397737	2.8979013
92	0x4037111e	2.8604198
93	0x404f7785	3.24167
94	0x40146e73	2.3192413
95	0x404ae7d2	3.1703992

model_4/dense_9/BiasAdd/ReadVariableOp f4 [40]
0	0x3e5d30c4	0.21600634
1	0xbe9e2e9d	-0.30894938
2	0x3de78358	0.11304349
3	0xbd1ab73d	-0.037772406
4	0x3db8269c	0.08991739
5	0xbdd20fb8	-0.10256904
6	0x3e892282	0.2678414
7	0xbec603cb	-0.3867477
8	0xbe54eb75	-0.20792945
9	0xbd0b9492	-0.034077235
10	0xbe884a23	-0.26619062
11	0xbdc22e14	-0.09481445
12	0xbd16dbac	-0.03683059
13	0xbdf31d60	-0.11870837
14	0x3db1ae28	0.08675796
15	0x3e038371	0.1284311
16	0x3e1ae868	0.15127718
17	0xbdea3c18	-0.11437243
18	0x3f01496e	0.5050267
19	0x3d64bf76	0.055846654
20	0xbcf96616	-0.030444186
21	0x3e4eaa06	0.20182046
22	0x3e0d85c2	0.13820556
23	0xbe91640a	-0.28396636
24	0xbecc63fa	-0.39920026
25	0xbea5edf3	-0.32408103
26	0xbe88fd00	-0.26755524
27	0x3d589e3a	0.05288527
28	0x3e92dc77	0.28683826
29	0xbc9b8bc0	-0.018987536
30	0xbe1bf49c	-0.1523003
31	0xbdd97ca8	-0.106194794
32	0x3ed674a2	0.4188586
33	0xbe887583	-0.26652154
34	0x3e2202d1	0.15821387
35	0x3e1c6796	0.1527389
36	0xbd503c13	-0.05083854
37	0xbdef21cf	-0.1167637
38	0x3d4e9fba	0.050445296
39	0xbe4c83cd	-0.19972153

model_4/dense_8/BiasAdd/ReadVariableOp f4 [48]
0	0x3d3c0d4c	0.04591112
1	0x3e5497d7	0.20761047
2	0x3e4bddd8	0.19908845
3	0x3d9c0194	0.076174885
4	0x3e3e7913	0.18600874
5	0x3e7365e7	0.23769341
6	0x3e5702f0	0.20997214
7	0x3db31dce	0.08745919
8	0x3e298ef5	0.1655844
9	0x3e4698b7	0.19394194
10	0x3e54b130	0.20770717
11	0x3e133524	0.1437574
12	0x3e40c050	0.18823361
13	0x3dc3d187	0.095614485
14	0x3e13722b	0.1439902
15	0x3deaae4e	0.11459027
16	0x3e7388f2	0.23782709
17	0x3dcf0edf	0.10110258
18	0x3ccd1a0d	0.025036836
19	0x3e45d357	0.19318901
20	0x3e0a4772	0.13503817
21	0x3e22deb3	0.15905266
22	0x3d977bc6	0.07396655
23	0x3e1be6f3	0.15224819
24	0x3e0503f6	0.12989792
25	0x3e298d54	0.16557819
26	0x3e15554f	0.14583324
27	0x3e387f44	0.18017298
28	0x3e3006be	0.17190072
29	0x3dceb4bc	0.10093066
30	0x3e3f74a8	0.18696845
31	0x3e0478d8	0.12936723
32	0x3e4336a6	0.19063815
33	0x3e595779	0.21224774
34	0x3e07cba9	0.13261284
35	0x3d9169cf	0.071002595
36	0x3dca0b83	0.09865477
37	0x3e69f940	0.22848988
38	0x3da02430	0.07819402
39	0x3e167cf5	0.14696105
40	0x3e7947f7	0.24343859
41	0x3e2c15a3	0.16805129
42	0x3d6423b8	0.055698127
43	0xbd5cd9e1	-0.053918723
44	0x3e920778	0.28521323
45	0x3e810fea	0.25207454
46	0x3deaf328	0.114721596
47	0x3e49b5ec	0.19698304

model_4/gru_8/gru_cell/MatMul f4 [96, 126]
0	0x391c09bd	0.00014880947
1	0x393e3417	0.00018139217
2	0xb98b78d1	-0.0002660216
3	0xbb0120c8	-0.0019703377
4	0xbad8af56	-0.0016531746
5	0x3ac609cb	0.001510912
6	0xbb0cc19f	-0.0021477712
7	0xbbba4535	-0.0056845197
8	0x3a56cd4b	0.0008194043
9	0xbb5037ca	-0.0031771534
10	0xbbc370ca	-0.0059643732
11	0x3aa4c63c	0.0012571285
12	0xbb355dfa	-0.0027674423
13	0xbbe1ad1e	-0.0068870923
14	0x3ab62832	0.0013897477
15	0xbadeec06	-0.0017007596
16	0xbc029f57	-0.00797256
17	0x3a476070	0.0007605618
18	0xbae2f6d4	-0.0017315992
19	0xbc0c689f	-0.0085698655
20	0x39ec544b	0.0004507623
21	0xbb4df8e4	-0.0031428868
22	0xbc3527ff	-0.011056899
23	0x3af484a2	0.001865525
24	0xbaed7f01	-0.0018119515
25	0xbc3bfdb8	-0.0114740655
26	0x3afa7315	0.0019107783
27	0xba5fd045	-0.00085378095
28	0xbbd0329a	-0.0063536884
29	0xba26d7b5	-0.00063645403
30	0xbb15779d	-0.002280689
31	0xbc0e8428	-0.008698501
32	0x3a471ab5	0.0007595227
33	0xbb2989ff	-0.0025869606
34	0xbc13b1c7	-0.009014553
35	0xb907157a	-0.00012882604
36	0xbb3e316f	-0.0029021164
37	0xbc29d989	-0.010366806
38	0x390acb03	0.00013236333
39	0xb9feb8a3	-0.0004858422
40	0xbba72b3e	-0.0051015904
41	0xba978e61	-0.0011562818
42	0xbb6b5b58	-0.00359126
43	0xbbee6bce	-0.007276035
44	0xba4c7839	-0.0007799897
45	0xbb015dbb	-0.0019739706
46	0xbc18ce26	-0.009326493
47	0xba879bc1	-0.0010346101
48	0xbb7ed600	-0.0038884878
49	0xbbf9cb5b	-0.007623119
50	0xba86eac6	-0.0010293357
51	0x3add9767	0.0016906083
52	0xbb8a5d50	-0.0042225495
53	0x39607218	0.00021404808
54	0x3a83af47	0.0010046744
55	0xbba1fdbb	-0.004943577
56	0xb966c22a	-0.00022006841
57	0x3a114a2d	0.0005542364
58	0xbbb6b9f9	-0.005576369
59	0xba8f2a33	-0.001092261
60	0xba144fe3	-0.0005657656
61	0xbb854da8	-0.0040680952
62	0xb90af19d	-0.00013250714
63	0x38c0a8b5	9.1866976e-05
64	0x38d2a923	0.000100450845
65	0xb92dbd71	-0.00016569138
66	0xba085888	-0.00052011805
67	0x3a97e090	0.0011587311
68	0xbad10823	-0.001594786
69	0xbb16bee4	-0.0023001963
70	0x3b76dab9	0.003766699
71	0xbb00832f	-0.0019609442
72	0xbb12bc7d	-0.002239018
73	0x3ba58089	0.005050723
74	0xbaed1395	-0.0018087501
75	0xbb01b9ef	-0.0019794663
76	0x3b6c8fab	0.0036096375
77	0xbaf9a0c2	-0.0019045102
78	0xbae7b280	-0.0017677099
79	0x3ba2d646	0.004969391
80	0xb9d13fde	-0.0003991117
81	0xb86336ac	-5.4171935e-05
82	0x3c37903e	0.011203824
83	0xb9508b56	-0.00019888332
84	0xba0df668	-0.00054154405
85	0x3bd7c67c	0.0065849405
86	0x3ab754b8	0.001398704
87	0x3b610da6	0.003434041
88	0x3bfc2e25	0.0076959305
89	0xbaac388c	-0.0013139411
90	0x38739613	5.8075482e-05
91	0x3b5edddf	0.0034006757
92	0xba3a4fa9	-0.0007107207
93	0x3a835e34	0.0010022582
94	0x3be7769c	0.0070637
95	0xbaa28010	-0.0012397785
96	0x3b1398df	0.0022521538
97	0x3bf423d5	0.0074505606
98	0xba275a3f	-0.0006383992
99	0x3b7743dc	0.0037729656
100	0x3bb86740	0.0056275427
101	0xb9863d95	-0.00025604354
102	0xba5dea75	-0.0008465418
103	0x3b7c2257	0.0038472617
104	0x39d3c742	0.00040393515
105	0x38604841	5.3473053e-05
106	0x3bf405a9	0.007446964
107	0xb96b82fc	-0.00022460142
108	0x3b714dcc	0.0036820052
109	0x3bbe155f	0.0058008875
110	0xb96dcbaa	-0.00022677952
111	0x3b4b2905	0.0030999791
112	0x3bed4b12	0.007241615
113	0xba215365	-0.00061540894
114	0xb96837cb	-0.00022146029
115	0x3b247de4	0.002509945
116	0x3a68cf32	0.0008880972
117	0x38ca2aba	9.640069e-05
118	0x3bcfe8f7	0.0063449102
119	0xba171dd3	-0.0005764637
120	0x3a6ec99e	0.0009109023
121	0x3bf39e67	0.0074346545
122	0x3a88c574	0.0010434822
123	0x3b015e3d	0.0019740008
124	0x3b4ec999	0.0031553267
125	0xba624d0e	-0.0008632698
126	0xb8a8c5a1	-8.0476755e-05
127	0xb8ee4d39	-0.00011363108
128	0xb9682a6f	-0.00022141052
129	0xb790af03	-1.7247634e-05
130	0x3a2764a5	0.00063855416
131	0xbac50f83	-0.001503453
132	0xba3d7303	-0.0007226916
133	0x3a57831d	0.00082211365
134	0x394d04c5	0.000195521
135	0x3a560e18	0.0008165552
136	0x3b60591d	0.0034232803
137	0x3acb7be2	0.0015524591
138	0x3a93e9ea	0.0011284922
139	0x3b25a4f3	0.002527532
140	0xb98a5b4d	-0.00026389436
141	0xba765d69	-0.00093980745
142	0x3b670401	0.003525019
143	0xb995afc1	-0.00028550441
144	0x3a4ca198	0.0007806062
145	0x3b911507	0.0044275555
146	0x3a179894	0.0005782929
147	0xb9f44c6a	-0.0004659624
148	0x3bd5e25b	0.006527228
149	0x3a019c39	0.00049442385
150	0x3b1386be	0.0022510733
151	0x3b385771	0.002812829
152	0xba0fda4e	-0.0005487547
153	0x3a5d2632	0.00084361725
154	0x3b23628f	0.0024930572
155	0x3b04e73f	0.0020279435
156	0x3b18094f	0.0023198908
157	0x3ba89f60	0.005145952
158	0xba953206	-0.0011382706
159	0x3aedc0b4	0.0018139095
160	0x3b862249	0.0040934426
161	0x3b1efc6f	0.002425935
162	0x3b296bdc	0.0025851643
163	0x3b5e7902	0.0033946638
164	0x3b84059f	0.0040289904
165	0x3b18b9e2	0.0023304154
166	0x3b0191a0	0.0019770637
167	0xba51287c	-0.000797875
168	0x3ab2b7b8	0.0013635075
169	0x3b1ab009	0.002360346
170	0x3aaeaf5d	0.0013327409
171	0x3a11094f	0.0005532698
172	0x3a6185b1	0.00086029904
173	0x3a9c9057	0.0011944872
174	0x3acd91c7	0.0015683704
175	0x3aae9361	0.0013319069
176	0xb8b99a4d	-8.850228e-05
177	0x3ab84847	0.0014059626
178	0x3b8bfa95	0.004271815
179	0x3af0247c	0.001832142
180	0x3ae6e128	0.0017614709
181	0x3b5a5661	0.0033315646
182	0x3aa8b8d1	0.0012872462
183	0x3bd4baa0	0.006491974
184	0x3ba66173	0.005077535
185	0x3b0be2b2	0.0021344838
186	0x3b7c0c6c	0.0038459552
187	0x3ba9fcc0	0.005187601
188	0x3a82216e	0.0009928176
189	0x383215a1	4.245865e-05
190	0xb91cd529	-0.00014956728
191	0x3a28618b	0.00064232264
192	0xba79f3e3	-0.0009534938
193	0x3b03b9e1	0.0020099806
194	0xb994bb07	-0.00028368106
195	0xbb326452	-0.002722044
196	0xba2d03ac	-0.00065999734
197	0x39bab2c4	0.00035609875
198	0x38686ef9	5.541646e-05
199	0x3ac48837	0.0014994208
200	0x3b02c150	0.001995165
201	0xba1e92cd	-0.00060490967
202	0x3a8da151	0.0010805522
203	0x3a10c7a5	0.00055229134
204	0xbad465b1	-0.0016204623
205	0x3b1b382c	0.0023684604
206	0xbaa9e3a4	-0.0012961519
207	0xbb3612f1	-0.0027782286
208	0x3b58c9a6	0.0033079176
209	0x3a8fb016	0.0010962512
210	0xbb9960ba	-0.00468072
211	0x3b3a9799	0.0028471707
212	0xba43ac81	-0.0007464365
213	0xbb12c001	-0.0022392275
214	0x3b9574db	0.0045610494
215	0x3a97f78e	0.0011594163
216	0x3ae18376	0.0017205316
217	0x3a0c4898	0.00053513935
218	0x39ba32f0	0.00035514636
219	0xbb4eaaf5	-0.0031535004
220	0x3b49ffa6	0.0030822544
221	0xbab4a716	-0.0013782706
222	0xbadcb4f3	-0.0016838595
223	0x3a92a2d9	0.0011187448
224	0xba03fd82	-0.0005035029
225	0xbb878dac	-0.0041367617
226	0x3b69cb44	0.0035674134
227	0x38ede5a3	0.00011343814
228	0x3ac79da4	0.0015229476
229	0x3b1e9762	0.0024199118
230	0xbaca406a	-0.0015430574
231	0xbb01eda0	-0.0019825473
232	0x3b95791c	0.0045615565
233	0x3865ea29	5.4815933e-05
234	0x3a23b3cc	0.00062447484
235	0x3b42109b	0.0029611948
236	0x3a326be9	0.0006806241
237	0xbac72ba3	-0.00151955
238	0x3b40ec6f	0.00294378
239	0x3a8a297d	0.0010540929
240	0xb6e01820	-6.6785287e-06
241	0x396a1612	0.00022324201
242	0xba38cd8e	-0.0007049673
243	0x38f2a205	0.00011569638
244	0x39bf46f7	0.00036483232
245	0xba5870d8	-0.0008256561
246	0xba8bb2c5	-0.0010658136
247	0xba2617fc	-0.00063359714
248	0x3a6ffb89	0.0009154608
249	0x39bc3336	0.0003589631
250	0x399d1733	0.00029962658
251	0x3b0e6788	0.002172919
252	0x39bffc5e	0.00036618387
253	0x398c9468	0.00026813452
254	0x39ba4412	0.000355274
255	0xba8039f9	-0.0009782902
